…
I1026 14:16:14.720377 11090 solver.cpp:87] Creating training net from net file: ./train_val.prototxt
I1026 14:16:14.720784 11090 net.cpp:294] The NetState phase (0) differed from the phase (1) specified by a rule in layer data
I1026 14:16:14.721014 11090 net.cpp:51] Initializing net from parameters: 
name: "CaffeNet"
state {
  phase: TRAIN
  level: 0
  stage: ""
}
layer {
  name: "data"
  type: "HDF5Data"
  top: "data"
  top: "label"
  include {
    phase: TRAIN
  }
  hdf5_data_param {
    source: "./train.txt"
    batch_size: 256
    shuffle: true
  }
}
layer {
  name: "conv1"
  type: "Convolution"
  bottom: "data"
  top: "conv1"
  param {
    lr_mult: 1
    decay_mult: 1
  }
  param {
    lr_mult: 2
    decay_mult: 0
  }
  convolution_param {
    num_output: 96
    kernel_size: 11
    stride: 4
    weight_filler {
      type: "gaussian"
      std: 0.01
    }
    bias_filler {
      type: "constant"
      value: 0
    }
  }
}
layer {
  name: "relu1"
  type: "ReLU"
  bottom: "conv1"
  top: "conv1"
}
layer {
  name: "pool1"
  type: "Pooling"
  bottom: "conv1"
  top: "pool1"
  pooling_param {
    pool: MAX
    kernel_size: 3
    stride: 2
  }
}
layer {
  name: "norm1"
  type: "LRN"
  bottom: "pool1"
  top: "norm1"
  lrn_param {
    local_size: 5
    alpha: 0.0001
    beta: 0.75
  }
}
layer {
  name: "conv2"
  type: "Convolution"
  bottom: "norm1"
  top: "conv2"
  param {
    lr_mult: 1
    decay_mult: 1
  }
  param {
    lr_mult: 2
    decay_mult: 0
  }
  convolution_param {
    num_output: 256
    pad: 2
    kernel_size: 5
    group: 2
    weight_filler {
      type: "gaussian"
      std: 0.01
    }
    bias_filler {
      type: "constant"
      value: 1
    }
  }
}
layer {
  name: "relu2"
  type: "ReLU"
  bottom: "conv2"
  top: "conv2"
}
layer {
  name: "pool2"
  type: "Pooling"
  bottom: "conv2"
  top: "pool2"
  pooling_param {
    pool: MAX
    kernel_size: 3
    stride: 2
  }
}
layer {
  name: "norm2"
  type: "LRN"
  bottom: "pool2"
  top: "norm2"
  lrn_param {
    local_size: 5
    alpha: 0.0001
    beta: 0.75
  }
}
layer {
  name: "conv3"
  type: "Convolution"
  bottom: "norm2"
  top: "conv3"
  param {
    lr_mult: 1
    decay_mult: 1
  }
  param {
    lr_mult: 2
    decay_mult: 0
  }
  convolution_param {
    num_output: 384
    pad: 1
    kernel_size: 3
    weight_filler {
      type: "gaussian"
      std: 0.01
    }
    bias_filler {
      type: "constant"
      value: 0
    }
  }
}
layer {
  name: "relu3"
  type: "ReLU"
  bottom: "conv3"
  top: "conv3"
}
layer {
  name: "conv4"
  type: "Convolution"
  bottom: "conv3"
  top: "conv4"
  param {
    lr_mult: 1
    decay_mult: 1
  }
  param {
    lr_mult: 2
    decay_mult: 0
  }
  convolution_param {
    num_output: 384
    pad: 1
    kernel_size: 3
    group: 2
    weight_filler {
      type: "gaussian"
      std: 0.01
    }
    bias_filler {
      type: "constant"
      value: 1
    }
  }
}
layer {
  name: "relu4"
  type: "ReLU"
  bottom: "conv4"
  top: "conv4"
}
layer {
  name: "conv5"
  type: "Convolution"
  bottom: "conv4"
  top: "conv5"
  param {
    lr_mult: 1
    decay_mult: 1
  }
  param {
    lr_mult: 2
    decay_mult: 0
  }
  convolution_param {
    num_output: 256
    pad: 1
    kernel_size: 3
    group: 2
    weight_filler {
      type: "gaussian"
      std: 0.01
    }
    bias_filler {
      type: "constant"
      value: 1
    }
  }
}
layer {
  name: "relu5"
  type: "ReLU"
  bottom: "conv5"
  top: "conv5"
}
layer {
  name: "pool5"
  type: "Pooling"
  bottom: "conv5"
  top: "pool5"
  pooling_param {
    pool: MAX
    kernel_size: 3
    stride: 2
  }
}
layer {
  name: "fc6"
  type: "InnerProduct"
  bottom: "pool5"
  top: "fc6"
  param {
    lr_mult: 1
    decay_mult: 1
  }
  param {
    lr_mult: 2
    decay_mult: 0
  }
  inner_product_param {
    num_output: 4096
    weight_filler {
      type: "gaussian"
      std: 0.005
    }
    bias_filler {
      type: "constant"
      value: 1
    }
  }
}
layer {
  name: "relu6"
  type: "ReLU"
  bottom: "fc6"
  top: "fc6"
}
layer {
  name: "drop6"
  type: "Dropout"
  bottom: "fc6"
  top: "fc6"
  dropout_param {
    dropout_ratio: 0.5
  }
}
layer {
  name: "fc7"
  type: "InnerProduct"
  bottom: "fc6"
  top: "fc7"
  param {
    lr_mult: 1
    decay_mult: 1
  }
  param {
    lr_mult: 2
    decay_mult: 0
  }
  inner_product_param {
    num_output: 4096
    weight_filler {
      type: "gaussian"
      std: 0.005
    }
    bias_filler {
      type: "constant"
      value: 1
    }
  }
}
layer {
  name: "relu7"
  type: "ReLU"
  bottom: "fc7"
  top: "fc7"
}
layer {
  name: "drop7"
  type: "Dropout"
  bottom: "fc7"
  top: "fc7"
  dropout_param {
    dropout_ratio: 0.5
  }
}
layer {
  name: "my-fc8"
  type: "InnerProduct"
  bottom: "fc7"
  top: "my-fc8"
  param {
    lr_mult: 1
    decay_mult: 1
  }
  param {
    lr_mult: 2
    decay_mult: 0
  }
  inner_product_param {
    num_output: 1
    weight_filler {
      type: "gaussian"
      std: 0.01
    }
    bias_filler {
      type: "constant"
      value: 0
    }
  }
}
layer {
  name: "loss"
  type: "EuclideanLoss"
  bottom: "my-fc8"
  bottom: "label"
  top: "loss"
}
I1026 14:16:14.721137 11090 layer_factory.hpp:77] Creating layer data
I1026 14:16:14.721153 11090 net.cpp:84] Creating Layer data
I1026 14:16:14.721161 11090 net.cpp:380] data -> data
I1026 14:16:14.721187 11090 net.cpp:380] data -> label
I1026 14:16:14.721201 11090 hdf5_data_layer.cpp:80] Loading list of HDF5 filenames from: ./train.txt
I1026 14:16:14.721232 11090 hdf5_data_layer.cpp:94] Number of HDF5 files: 1
I1026 14:16:14.722484 11090 hdf5.cpp:32] Datatype class: H5T_FLOAT
I1026 14:16:15.447304 11090 net.cpp:122] Setting up data
I1026 14:16:15.447353 11090 net.cpp:129] Top shape: 256 3 227 227 (39574272)
I1026 14:16:15.447362 11090 net.cpp:129] Top shape: 256 (256)
I1026 14:16:15.447367 11090 net.cpp:137] Memory required for data: 158298112
I1026 14:16:15.447379 11090 layer_factory.hpp:77] Creating layer conv1
I1026 14:16:15.447412 11090 net.cpp:84] Creating Layer conv1
I1026 14:16:15.447422 11090 net.cpp:406] conv1 <- data
I1026 14:16:15.447443 11090 net.cpp:380] conv1 -> conv1
I1026 14:16:15.921823 11090 net.cpp:122] Setting up conv1
I1026 14:16:15.921867 11090 net.cpp:129] Top shape: 256 96 55 55 (74342400)
I1026 14:16:15.921872 11090 net.cpp:137] Memory required for data: 455667712
I1026 14:16:15.921912 11090 layer_factory.hpp:77] Creating layer relu1
I1026 14:16:15.921931 11090 net.cpp:84] Creating Layer relu1
I1026 14:16:15.921938 11090 net.cpp:406] relu1 <- conv1
I1026 14:16:15.921949 11090 net.cpp:367] relu1 -> conv1 (in-place)
I1026 14:16:15.922247 11090 net.cpp:122] Setting up relu1
I1026 14:16:15.922255 11090 net.cpp:129] Top shape: 256 96 55 55 (74342400)
I1026 14:16:15.922260 11090 net.cpp:137] Memory required for data: 753037312
I1026 14:16:15.922264 11090 layer_factory.hpp:77] Creating layer pool1
I1026 14:16:15.922272 11090 net.cpp:84] Creating Layer pool1
I1026 14:16:15.922277 11090 net.cpp:406] pool1 <- conv1
I1026 14:16:15.922284 11090 net.cpp:380] pool1 -> pool1
I1026 14:16:15.922348 11090 net.cpp:122] Setting up pool1
I1026 14:16:15.922354 11090 net.cpp:129] Top shape: 256 96 27 27 (17915904)
I1026 14:16:15.922358 11090 net.cpp:137] Memory required for data: 824700928
I1026 14:16:15.922363 11090 layer_factory.hpp:77] Creating layer norm1
I1026 14:16:15.922375 11090 net.cpp:84] Creating Layer norm1
I1026 14:16:15.922379 11090 net.cpp:406] norm1 <- pool1
I1026 14:16:15.922386 11090 net.cpp:380] norm1 -> norm1
I1026 14:16:15.922660 11090 net.cpp:122] Setting up norm1
I1026 14:16:15.922672 11090 net.cpp:129] Top shape: 256 96 27 27 (17915904)
I1026 14:16:15.922677 11090 net.cpp:137] Memory required for data: 896364544
I1026 14:16:15.922680 11090 layer_factory.hpp:77] Creating layer conv2
I1026 14:16:15.922722 11090 net.cpp:84] Creating Layer conv2
I1026 14:16:15.922729 11090 net.cpp:406] conv2 <- norm1
I1026 14:16:15.922739 11090 net.cpp:380] conv2 -> conv2
I1026 14:16:15.938521 11090 net.cpp:122] Setting up conv2
I1026 14:16:15.938560 11090 net.cpp:129] Top shape: 256 256 27 27 (47775744)
I1026 14:16:15.938565 11090 net.cpp:137] Memory required for data: 1087467520
I1026 14:16:15.938588 11090 layer_factory.hpp:77] Creating layer relu2
I1026 14:16:15.938603 11090 net.cpp:84] Creating Layer relu2
I1026 14:16:15.938611 11090 net.cpp:406] relu2 <- conv2
I1026 14:16:15.938621 11090 net.cpp:367] relu2 -> conv2 (in-place)
I1026 14:16:15.940727 11090 net.cpp:122] Setting up relu2
I1026 14:16:15.940738 11090 net.cpp:129] Top shape: 256 256 27 27 (47775744)
I1026 14:16:15.940743 11090 net.cpp:137] Memory required for data: 1278570496
I1026 14:16:15.940748 11090 layer_factory.hpp:77] Creating layer pool2
I1026 14:16:15.940757 11090 net.cpp:84] Creating Layer pool2
I1026 14:16:15.940762 11090 net.cpp:406] pool2 <- conv2
I1026 14:16:15.940770 11090 net.cpp:380] pool2 -> pool2
I1026 14:16:15.940816 11090 net.cpp:122] Setting up pool2
I1026 14:16:15.940825 11090 net.cpp:129] Top shape: 256 256 13 13 (11075584)
I1026 14:16:15.940830 11090 net.cpp:137] Memory required for data: 1322872832
I1026 14:16:15.940835 11090 layer_factory.hpp:77] Creating layer norm2
I1026 14:16:15.940847 11090 net.cpp:84] Creating Layer norm2
I1026 14:16:15.940852 11090 net.cpp:406] norm2 <- pool2
I1026 14:16:15.940860 11090 net.cpp:380] norm2 -> norm2
I1026 14:16:15.942992 11090 net.cpp:122] Setting up norm2
I1026 14:16:15.943001 11090 net.cpp:129] Top shape: 256 256 13 13 (11075584)
I1026 14:16:15.943006 11090 net.cpp:137] Memory required for data: 1367175168
I1026 14:16:15.943009 11090 layer_factory.hpp:77] Creating layer conv3
I1026 14:16:15.943023 11090 net.cpp:84] Creating Layer conv3
I1026 14:16:15.943028 11090 net.cpp:406] conv3 <- norm2
I1026 14:16:15.943037 11090 net.cpp:380] conv3 -> conv3
I1026 14:16:15.969431 11090 net.cpp:122] Setting up conv3
I1026 14:16:15.969470 11090 net.cpp:129] Top shape: 256 384 13 13 (16613376)
I1026 14:16:15.969475 11090 net.cpp:137] Memory required for data: 1433628672
I1026 14:16:15.969499 11090 layer_factory.hpp:77] Creating layer relu3
I1026 14:16:15.969514 11090 net.cpp:84] Creating Layer relu3
I1026 14:16:15.969522 11090 net.cpp:406] relu3 <- conv3
I1026 14:16:15.969533 11090 net.cpp:367] relu3 -> conv3 (in-place)
I1026 14:16:15.970199 11090 net.cpp:122] Setting up relu3
I1026 14:16:15.970212 11090 net.cpp:129] Top shape: 256 384 13 13 (16613376)
I1026 14:16:15.970218 11090 net.cpp:137] Memory required for data: 1500082176
I1026 14:16:15.970223 11090 layer_factory.hpp:77] Creating layer conv4
I1026 14:16:15.970240 11090 net.cpp:84] Creating Layer conv4
I1026 14:16:15.970249 11090 net.cpp:406] conv4 <- conv3
I1026 14:16:15.970259 11090 net.cpp:380] conv4 -> conv4
I1026 14:16:15.993162 11090 net.cpp:122] Setting up conv4
I1026 14:16:15.993198 11090 net.cpp:129] Top shape: 256 384 13 13 (16613376)
I1026 14:16:15.993203 11090 net.cpp:137] Memory required for data: 1566535680
I1026 14:16:15.993221 11090 layer_factory.hpp:77] Creating layer relu4
I1026 14:16:15.993235 11090 net.cpp:84] Creating Layer relu4
I1026 14:16:15.993242 11090 net.cpp:406] relu4 <- conv4
I1026 14:16:15.993252 11090 net.cpp:367] relu4 -> conv4 (in-place)
I1026 14:16:15.994943 11090 net.cpp:122] Setting up relu4
I1026 14:16:15.994954 11090 net.cpp:129] Top shape: 256 384 13 13 (16613376)
I1026 14:16:15.994958 11090 net.cpp:137] Memory required for data: 1632989184
I1026 14:16:15.994963 11090 layer_factory.hpp:77] Creating layer conv5
I1026 14:16:15.994978 11090 net.cpp:84] Creating Layer conv5
I1026 14:16:15.994983 11090 net.cpp:406] conv5 <- conv4
I1026 14:16:15.994990 11090 net.cpp:380] conv5 -> conv5
I1026 14:16:16.013028 11090 net.cpp:122] Setting up conv5
I1026 14:16:16.013067 11090 net.cpp:129] Top shape: 256 256 13 13 (11075584)
I1026 14:16:16.013075 11090 net.cpp:137] Memory required for data: 1677291520
I1026 14:16:16.013135 11090 layer_factory.hpp:77] Creating layer relu5
I1026 14:16:16.013152 11090 net.cpp:84] Creating Layer relu5
I1026 14:16:16.013160 11090 net.cpp:406] relu5 <- conv5
I1026 14:16:16.013170 11090 net.cpp:367] relu5 -> conv5 (in-place)
I1026 14:16:16.014839 11090 net.cpp:122] Setting up relu5
I1026 14:16:16.014849 11090 net.cpp:129] Top shape: 256 256 13 13 (11075584)
I1026 14:16:16.014853 11090 net.cpp:137] Memory required for data: 1721593856
I1026 14:16:16.014858 11090 layer_factory.hpp:77] Creating layer pool5
I1026 14:16:16.014866 11090 net.cpp:84] Creating Layer pool5
I1026 14:16:16.014870 11090 net.cpp:406] pool5 <- conv5
I1026 14:16:16.014878 11090 net.cpp:380] pool5 -> pool5
I1026 14:16:16.014924 11090 net.cpp:122] Setting up pool5
I1026 14:16:16.014931 11090 net.cpp:129] Top shape: 256 256 6 6 (2359296)
I1026 14:16:16.014936 11090 net.cpp:137] Memory required for data: 1731031040
I1026 14:16:16.014940 11090 layer_factory.hpp:77] Creating layer fc6
I1026 14:16:16.014955 11090 net.cpp:84] Creating Layer fc6
I1026 14:16:16.014960 11090 net.cpp:406] fc6 <- pool5
I1026 14:16:16.014966 11090 net.cpp:380] fc6 -> fc6
I1026 14:16:16.530256 11090 net.cpp:122] Setting up fc6
I1026 14:16:16.530309 11090 net.cpp:129] Top shape: 256 4096 (1048576)
I1026 14:16:16.530314 11090 net.cpp:137] Memory required for data: 1735225344
I1026 14:16:16.530331 11090 layer_factory.hpp:77] Creating layer relu6
I1026 14:16:16.530346 11090 net.cpp:84] Creating Layer relu6
I1026 14:16:16.530354 11090 net.cpp:406] relu6 <- fc6
I1026 14:16:16.530364 11090 net.cpp:367] relu6 -> fc6 (in-place)
I1026 14:16:16.530663 11090 net.cpp:122] Setting up relu6
I1026 14:16:16.530673 11090 net.cpp:129] Top shape: 256 4096 (1048576)
I1026 14:16:16.530678 11090 net.cpp:137] Memory required for data: 1739419648
I1026 14:16:16.530681 11090 layer_factory.hpp:77] Creating layer drop6
I1026 14:16:16.530690 11090 net.cpp:84] Creating Layer drop6
I1026 14:16:16.530694 11090 net.cpp:406] drop6 <- fc6
I1026 14:16:16.530700 11090 net.cpp:367] drop6 -> fc6 (in-place)
I1026 14:16:16.530725 11090 net.cpp:122] Setting up drop6
I1026 14:16:16.530732 11090 net.cpp:129] Top shape: 256 4096 (1048576)
I1026 14:16:16.530736 11090 net.cpp:137] Memory required for data: 1743613952
I1026 14:16:16.530741 11090 layer_factory.hpp:77] Creating layer fc7
I1026 14:16:16.530752 11090 net.cpp:84] Creating Layer fc7
I1026 14:16:16.530757 11090 net.cpp:406] fc7 <- fc6
I1026 14:16:16.530767 11090 net.cpp:380] fc7 -> fc7
I1026 14:16:16.762581 11090 net.cpp:122] Setting up fc7
I1026 14:16:16.762636 11090 net.cpp:129] Top shape: 256 4096 (1048576)
I1026 14:16:16.762642 11090 net.cpp:137] Memory required for data: 1747808256
I1026 14:16:16.762657 11090 layer_factory.hpp:77] Creating layer relu7
I1026 14:16:16.762670 11090 net.cpp:84] Creating Layer relu7
I1026 14:16:16.762677 11090 net.cpp:406] relu7 <- fc7
I1026 14:16:16.762687 11090 net.cpp:367] relu7 -> fc7 (in-place)
I1026 14:16:16.762993 11090 net.cpp:122] Setting up relu7
I1026 14:16:16.763005 11090 net.cpp:129] Top shape: 256 4096 (1048576)
I1026 14:16:16.763010 11090 net.cpp:137] Memory required for data: 1752002560
I1026 14:16:16.763013 11090 layer_factory.hpp:77] Creating layer drop7
I1026 14:16:16.763022 11090 net.cpp:84] Creating Layer drop7
I1026 14:16:16.763026 11090 net.cpp:406] drop7 <- fc7
I1026 14:16:16.763032 11090 net.cpp:367] drop7 -> fc7 (in-place)
I1026 14:16:16.763052 11090 net.cpp:122] Setting up drop7
I1026 14:16:16.763058 11090 net.cpp:129] Top shape: 256 4096 (1048576)
I1026 14:16:16.763062 11090 net.cpp:137] Memory required for data: 1756196864
I1026 14:16:16.763065 11090 layer_factory.hpp:77] Creating layer my-fc8
I1026 14:16:16.763075 11090 net.cpp:84] Creating Layer my-fc8
I1026 14:16:16.763079 11090 net.cpp:406] my-fc8 <- fc7
I1026 14:16:16.763088 11090 net.cpp:380] my-fc8 -> my-fc8
I1026 14:16:16.763249 11090 net.cpp:122] Setting up my-fc8
I1026 14:16:16.763257 11090 net.cpp:129] Top shape: 256 1 (256)
I1026 14:16:16.763262 11090 net.cpp:137] Memory required for data: 1756197888
I1026 14:16:16.763306 11090 layer_factory.hpp:77] Creating layer loss
I1026 14:16:16.763314 11090 net.cpp:84] Creating Layer loss
I1026 14:16:16.763317 11090 net.cpp:406] loss <- my-fc8
I1026 14:16:16.763322 11090 net.cpp:406] loss <- label
I1026 14:16:16.763332 11090 net.cpp:380] loss -> loss
I1026 14:16:16.763370 11090 net.cpp:122] Setting up loss
…
I1026 14:16:16.763542 11090 net.cpp:255] Network initialization done.
I1026 14:16:16.763896 11090 solver.cpp:172] Creating test net (#0) specified by net file: ./train_val.prototxt
I1026 14:16:16.763934 11090 net.cpp:294] The NetState phase (1) differed from the phase (0) specified by a rule in layer data
I1026 14:16:16.764123 11090 net.cpp:51] Initializing net from parameters: 
name: "CaffeNet"
state {
  phase: TEST
}
layer {
  name: "data"
  type: "HDF5Data"
  top: "data"
  top: "label"
  include {
    phase: TEST
  }
  hdf5_data_param {
    source: "./test.txt"
    batch_size: 128
  }
}
layer {
  name: "conv1"
  type: "Convolution"
  bottom: "data"
  top: "conv1"
  param {
    lr_mult: 1
    decay_mult: 1
  }
  param {
    lr_mult: 2
    decay_mult: 0
  }
  convolution_param {
    num_output: 96
    kernel_size: 11
    stride: 4
    weight_filler {
      type: "gaussian"
      std: 0.01
    }
    bias_filler {
      type: "constant"
      value: 0
    }
  }
}
layer {
  name: "relu1"
  type: "ReLU"
  bottom: "conv1"
  top: "conv1"
}
layer {
  name: "pool1"
  type: "Pooling"
  bottom: "conv1"
  top: "pool1"
  pooling_param {
    pool: MAX
    kernel_size: 3
    stride: 2
  }
}
layer {
  name: "norm1"
  type: "LRN"
  bottom: "pool1"
  top: "norm1"
  lrn_param {
    local_size: 5
    alpha: 0.0001
    beta: 0.75
  }
}
layer {
  name: "conv2"
  type: "Convolution"
  bottom: "norm1"
  top: "conv2"
  param {
    lr_mult: 1
    decay_mult: 1
  }
  param {
    lr_mult: 2
    decay_mult: 0
  }
  convolution_param {
    num_output: 256
    pad: 2
    kernel_size: 5
    group: 2
    weight_filler {
      type: "gaussian"
      std: 0.01
    }
    bias_filler {
      type: "constant"
      value: 1
    }
  }
}
layer {
  name: "relu2"
  type: "ReLU"
  bottom: "conv2"
  top: "conv2"
}
layer {
  name: "pool2"
  type: "Pooling"
  bottom: "conv2"
  top: "pool2"
  pooling_param {
    pool: MAX
    kernel_size: 3
    stride: 2
  }
}
layer {
  name: "norm2"
  type: "LRN"
  bottom: "pool2"
  top: "norm2"
  lrn_param {
    local_size: 5
    alpha: 0.0001
    beta: 0.75
  }
}
layer {
  name: "conv3"
  type: "Convolution"
  bottom: "norm2"
  top: "conv3"
  param {
    lr_mult: 1
    decay_mult: 1
  }
  param {
    lr_mult: 2
    decay_mult: 0
  }
  convolution_param {
    num_output: 384
    pad: 1
    kernel_size: 3
    weight_filler {
      type: "gaussian"
      std: 0.01
    }
    bias_filler {
      type: "constant"
      value: 0
    }
  }
}
layer {
  name: "relu3"
  type: "ReLU"
  bottom: "conv3"
  top: "conv3"
}
layer {
  name: "conv4"
  type: "Convolution"
  bottom: "conv3"
  top: "conv4"
  param {
    lr_mult: 1
    decay_mult: 1
  }
  param {
    lr_mult: 2
    decay_mult: 0
  }
  convolution_param {
    num_output: 384
    pad: 1
    kernel_size: 3
    group: 2
    weight_filler {
      type: "gaussian"
      std: 0.01
    }
    bias_filler {
      type: "constant"
      value: 1
    }
  }
}
layer {
  name: "relu4"
  type: "ReLU"
  bottom: "conv4"
  top: "conv4"
}
layer {
  name: "conv5"
  type: "Convolution"
  bottom: "conv4"
  top: "conv5"
  param {
    lr_mult: 1
    decay_mult: 1
  }
  param {
    lr_mult: 2
    decay_mult: 0
  }
  convolution_param {
    num_output: 256
    pad: 1
    kernel_size: 3
    group: 2
    weight_filler {
      type: "gaussian"
      std: 0.01
    }
    bias_filler {
      type: "constant"
      value: 1
    }
  }
}
layer {
  name: "relu5"
  type: "ReLU"
  bottom: "conv5"
  top: "conv5"
}
layer {
  name: "pool5"
  type: "Pooling"
  bottom: "conv5"
  top: "pool5"
  pooling_param {
    pool: MAX
    kernel_size: 3
    stride: 2
  }
}
layer {
  name: "fc6"
  type: "InnerProduct"
  bottom: "pool5"
  top: "fc6"
  param {
    lr_mult: 1
    decay_mult: 1
  }
  param {
    lr_mult: 2
    decay_mult: 0
  }
  inner_product_param {
    num_output: 4096
    weight_filler {
      type: "gaussian"
      std: 0.005
    }
    bias_filler {
      type: "constant"
      value: 1
    }
  }
}
layer {
  name: "relu6"
  type: "ReLU"
  bottom: "fc6"
  top: "fc6"
}
layer {
  name: "drop6"
  type: "Dropout"
  bottom: "fc6"
  top: "fc6"
  dropout_param {
    dropout_ratio: 0.5
  }
}
layer {
  name: "fc7"
  type: "InnerProduct"
  bottom: "fc6"
  top: "fc7"
  param {
    lr_mult: 1
    decay_mult: 1
  }
  param {
    lr_mult: 2
    decay_mult: 0
  }
  inner_product_param {
    num_output: 4096
    weight_filler {
      type: "gaussian"
      std: 0.005
    }
    bias_filler {
      type: "constant"
      value: 1
    }
  }
}
layer {
  name: "relu7"
  type: "ReLU"
  bottom: "fc7"
  top: "fc7"
}
layer {
  name: "drop7"
  type: "Dropout"
  bottom: "fc7"
  top: "fc7"
  dropout_param {
    dropout_ratio: 0.5
  }
}
layer {
  name: "my-fc8"
  type: "InnerProduct"
  bottom: "fc7"
  top: "my-fc8"
  param {
    lr_mult: 1
    decay_mult: 1
  }
  param {
    lr_mult: 2
    decay_mult: 0
  }
  inner_product_param {
    num_output: 1
    weight_filler {
      type: "gaussian"
      std: 0.01
    }
    bias_filler {
      type: "constant"
      value: 0
    }
  }
}
layer {
  name: "loss"
  type: "EuclideanLoss"
  bottom: "my-fc8"
  bottom: "label"
  top: "loss"
}
I1026 14:16:16.764201 11090 layer_factory.hpp:77] Creating layer data
I1026 14:16:16.764210 11090 net.cpp:84] Creating Layer data
I1026 14:16:16.764215 11090 net.cpp:380] data -> data
I1026 14:16:16.764223 11090 net.cpp:380] data -> label
I1026 14:16:16.764231 11090 hdf5_data_layer.cpp:80] Loading list of HDF5 filenames from: ./test.txt
I1026 14:16:16.764256 11090 hdf5_data_layer.cpp:94] Number of HDF5 files: 1
I1026 14:16:17.026686 11090 net.cpp:122] Setting up data
I1026 14:16:17.026741 11090 net.cpp:129] Top shape: 128 3 227 227 (19787136)
I1026 14:16:17.026748 11090 net.cpp:129] Top shape: 128 (128)
I1026 14:16:17.026792 11090 net.cpp:137] Memory required for data: 79149056
I1026 14:16:17.026803 11090 layer_factory.hpp:77] Creating layer conv1
I1026 14:16:17.026830 11090 net.cpp:84] Creating Layer conv1
I1026 14:16:17.026836 11090 net.cpp:406] conv1 <- data
I1026 14:16:17.026847 11090 net.cpp:380] conv1 -> conv1
I1026 14:16:17.032318 11090 net.cpp:122] Setting up conv1
I1026 14:16:17.032344 11090 net.cpp:129] Top shape: 128 96 55 55 (37171200)
I1026 14:16:17.032349 11090 net.cpp:137] Memory required for data: 227833856
I1026 14:16:17.032366 11090 layer_factory.hpp:77] Creating layer relu1
I1026 14:16:17.032380 11090 net.cpp:84] Creating Layer relu1
I1026 14:16:17.032385 11090 net.cpp:406] relu1 <- conv1
I1026 14:16:17.032393 11090 net.cpp:367] relu1 -> conv1 (in-place)
I1026 14:16:17.034409 11090 net.cpp:122] Setting up relu1
I1026 14:16:17.034420 11090 net.cpp:129] Top shape: 128 96 55 55 (37171200)
I1026 14:16:17.034425 11090 net.cpp:137] Memory required for data: 376518656
I1026 14:16:17.034428 11090 layer_factory.hpp:77] Creating layer pool1
I1026 14:16:17.034436 11090 net.cpp:84] Creating Layer pool1
I1026 14:16:17.034440 11090 net.cpp:406] pool1 <- conv1
I1026 14:16:17.034447 11090 net.cpp:380] pool1 -> pool1
I1026 14:16:17.034490 11090 net.cpp:122] Setting up pool1
I1026 14:16:17.034498 11090 net.cpp:129] Top shape: 128 96 27 27 (8957952)
I1026 14:16:17.034502 11090 net.cpp:137] Memory required for data: 412350464
I1026 14:16:17.034507 11090 layer_factory.hpp:77] Creating layer norm1
I1026 14:16:17.034517 11090 net.cpp:84] Creating Layer norm1
I1026 14:16:17.034520 11090 net.cpp:406] norm1 <- pool1
I1026 14:16:17.034528 11090 net.cpp:380] norm1 -> norm1
I1026 14:16:17.036692 11090 net.cpp:122] Setting up norm1
I1026 14:16:17.036706 11090 net.cpp:129] Top shape: 128 96 27 27 (8957952)
I1026 14:16:17.036711 11090 net.cpp:137] Memory required for data: 448182272
I1026 14:16:17.036716 11090 layer_factory.hpp:77] Creating layer conv2
I1026 14:16:17.036729 11090 net.cpp:84] Creating Layer conv2
I1026 14:16:17.036733 11090 net.cpp:406] conv2 <- norm1
I1026 14:16:17.036742 11090 net.cpp:380] conv2 -> conv2
I1026 14:16:17.053282 11090 net.cpp:122] Setting up conv2
I1026 14:16:17.053320 11090 net.cpp:129] Top shape: 128 256 27 27 (23887872)
I1026 14:16:17.053325 11090 net.cpp:137] Memory required for data: 543733760
I1026 14:16:17.053347 11090 layer_factory.hpp:77] Creating layer relu2
I1026 14:16:17.053362 11090 net.cpp:84] Creating Layer relu2
I1026 14:16:17.053369 11090 net.cpp:406] relu2 <- conv2
I1026 14:16:17.053380 11090 net.cpp:367] relu2 -> conv2 (in-place)
I1026 14:16:17.054652 11090 net.cpp:122] Setting up relu2
I1026 14:16:17.054662 11090 net.cpp:129] Top shape: 128 256 27 27 (23887872)
I1026 14:16:17.054667 11090 net.cpp:137] Memory required for data: 639285248
I1026 14:16:17.054672 11090 layer_factory.hpp:77] Creating layer pool2
I1026 14:16:17.054679 11090 net.cpp:84] Creating Layer pool2
I1026 14:16:17.054684 11090 net.cpp:406] pool2 <- conv2
I1026 14:16:17.054692 11090 net.cpp:380] pool2 -> pool2
I1026 14:16:17.054738 11090 net.cpp:122] Setting up pool2
I1026 14:16:17.054749 11090 net.cpp:129] Top shape: 128 256 13 13 (5537792)
I1026 14:16:17.054752 11090 net.cpp:137] Memory required for data: 661436416
I1026 14:16:17.054757 11090 layer_factory.hpp:77] Creating layer norm2
I1026 14:16:17.054769 11090 net.cpp:84] Creating Layer norm2
I1026 14:16:17.054774 11090 net.cpp:406] norm2 <- pool2
I1026 14:16:17.054780 11090 net.cpp:380] norm2 -> norm2
I1026 14:16:17.055207 11090 net.cpp:122] Setting up norm2
I1026 14:16:17.055220 11090 net.cpp:129] Top shape: 128 256 13 13 (5537792)
I1026 14:16:17.055225 11090 net.cpp:137] Memory required for data: 683587584
I1026 14:16:17.055230 11090 layer_factory.hpp:77] Creating layer conv3
I1026 14:16:17.055246 11090 net.cpp:84] Creating Layer conv3
I1026 14:16:17.055253 11090 net.cpp:406] conv3 <- norm2
I1026 14:16:17.055261 11090 net.cpp:380] conv3 -> conv3
I1026 14:16:17.070886 11090 net.cpp:122] Setting up conv3
I1026 14:16:17.070935 11090 net.cpp:129] Top shape: 128 384 13 13 (8306688)
I1026 14:16:17.070994 11090 net.cpp:137] Memory required for data: 716814336
I1026 14:16:17.071019 11090 layer_factory.hpp:77] Creating layer relu3
I1026 14:16:17.071041 11090 net.cpp:84] Creating Layer relu3
I1026 14:16:17.071053 11090 net.cpp:406] relu3 <- conv3
I1026 14:16:17.071063 11090 net.cpp:367] relu3 -> conv3 (in-place)
I1026 14:16:17.071283 11090 net.cpp:122] Setting up relu3
I1026 14:16:17.071293 11090 net.cpp:129] Top shape: 128 384 13 13 (8306688)
I1026 14:16:17.071297 11090 net.cpp:137] Memory required for data: 750041088
I1026 14:16:17.071302 11090 layer_factory.hpp:77] Creating layer conv4
I1026 14:16:17.071315 11090 net.cpp:84] Creating Layer conv4
I1026 14:16:17.071321 11090 net.cpp:406] conv4 <- conv3
I1026 14:16:17.071329 11090 net.cpp:380] conv4 -> conv4
I1026 14:16:17.094266 11090 net.cpp:122] Setting up conv4
I1026 14:16:17.094303 11090 net.cpp:129] Top shape: 128 384 13 13 (8306688)
I1026 14:16:17.094308 11090 net.cpp:137] Memory required for data: 783267840
I1026 14:16:17.094324 11090 layer_factory.hpp:77] Creating layer relu4
I1026 14:16:17.094338 11090 net.cpp:84] Creating Layer relu4
I1026 14:16:17.094346 11090 net.cpp:406] relu4 <- conv4
I1026 14:16:17.094355 11090 net.cpp:367] relu4 -> conv4 (in-place)
I1026 14:16:17.096002 11090 net.cpp:122] Setting up relu4
I1026 14:16:17.096014 11090 net.cpp:129] Top shape: 128 384 13 13 (8306688)
I1026 14:16:17.096017 11090 net.cpp:137] Memory required for data: 816494592
I1026 14:16:17.096021 11090 layer_factory.hpp:77] Creating layer conv5
I1026 14:16:17.096036 11090 net.cpp:84] Creating Layer conv5
I1026 14:16:17.096041 11090 net.cpp:406] conv5 <- conv4
I1026 14:16:17.096048 11090 net.cpp:380] conv5 -> conv5
I1026 14:16:17.114176 11090 net.cpp:122] Setting up conv5
I1026 14:16:17.114210 11090 net.cpp:129] Top shape: 128 256 13 13 (5537792)
I1026 14:16:17.114215 11090 net.cpp:137] Memory required for data: 838645760
I1026 14:16:17.114238 11090 layer_factory.hpp:77] Creating layer relu5
I1026 14:16:17.114253 11090 net.cpp:84] Creating Layer relu5
I1026 14:16:17.114260 11090 net.cpp:406] relu5 <- conv5
I1026 14:16:17.114270 11090 net.cpp:367] relu5 -> conv5 (in-place)
I1026 14:16:17.115985 11090 net.cpp:122] Setting up relu5
I1026 14:16:17.115995 11090 net.cpp:129] Top shape: 128 256 13 13 (5537792)
I1026 14:16:17.116000 11090 net.cpp:137] Memory required for data: 860796928
I1026 14:16:17.116004 11090 layer_factory.hpp:77] Creating layer pool5
I1026 14:16:17.116013 11090 net.cpp:84] Creating Layer pool5
I1026 14:16:17.116017 11090 net.cpp:406] pool5 <- conv5
I1026 14:16:17.116024 11090 net.cpp:380] pool5 -> pool5
I1026 14:16:17.116075 11090 net.cpp:122] Setting up pool5
I1026 14:16:17.116082 11090 net.cpp:129] Top shape: 128 256 6 6 (1179648)
I1026 14:16:17.116086 11090 net.cpp:137] Memory required for data: 865515520
I1026 14:16:17.116091 11090 layer_factory.hpp:77] Creating layer fc6
I1026 14:16:17.116104 11090 net.cpp:84] Creating Layer fc6
I1026 14:16:17.116108 11090 net.cpp:406] fc6 <- pool5
I1026 14:16:17.116116 11090 net.cpp:380] fc6 -> fc6
I1026 14:16:17.632395 11090 net.cpp:122] Setting up fc6
I1026 14:16:17.632450 11090 net.cpp:129] Top shape: 128 4096 (524288)
I1026 14:16:17.632455 11090 net.cpp:137] Memory required for data: 867612672
I1026 14:16:17.632477 11090 layer_factory.hpp:77] Creating layer relu6
I1026 14:16:17.632493 11090 net.cpp:84] Creating Layer relu6
I1026 14:16:17.632500 11090 net.cpp:406] relu6 <- fc6
I1026 14:16:17.632511 11090 net.cpp:367] relu6 -> fc6 (in-place)
I1026 14:16:17.636950 11090 net.cpp:122] Setting up relu6
I1026 14:16:17.636973 11090 net.cpp:129] Top shape: 128 4096 (524288)
I1026 14:16:17.636986 11090 net.cpp:137] Memory required for data: 869709824
I1026 14:16:17.636991 11090 layer_factory.hpp:77] Creating layer drop6
I1026 14:16:17.637003 11090 net.cpp:84] Creating Layer drop6
I1026 14:16:17.637008 11090 net.cpp:406] drop6 <- fc6
I1026 14:16:17.637017 11090 net.cpp:367] drop6 -> fc6 (in-place)
I1026 14:16:17.637053 11090 net.cpp:122] Setting up drop6
I1026 14:16:17.637118 11090 net.cpp:129] Top shape: 128 4096 (524288)
I1026 14:16:17.637137 11090 net.cpp:137] Memory required for data: 871806976
I1026 14:16:17.637142 11090 layer_factory.hpp:77] Creating layer fc7
I1026 14:16:17.637156 11090 net.cpp:84] Creating Layer fc7
I1026 14:16:17.637162 11090 net.cpp:406] fc7 <- fc6
I1026 14:16:17.637171 11090 net.cpp:380] fc7 -> fc7
I1026 14:16:17.870092 11090 net.cpp:122] Setting up fc7
I1026 14:16:17.870146 11090 net.cpp:129] Top shape: 128 4096 (524288)
I1026 14:16:17.870151 11090 net.cpp:137] Memory required for data: 873904128
I1026 14:16:17.870170 11090 layer_factory.hpp:77] Creating layer relu7
I1026 14:16:17.870185 11090 net.cpp:84] Creating Layer relu7
I1026 14:16:17.870227 11090 net.cpp:406] relu7 <- fc7
I1026 14:16:17.870241 11090 net.cpp:367] relu7 -> fc7 (in-place)
I1026 14:16:17.870545 11090 net.cpp:122] Setting up relu7
I1026 14:16:17.870571 11090 net.cpp:129] Top shape: 128 4096 (524288)
I1026 14:16:17.870585 11090 net.cpp:137] Memory required for data: 876001280
I1026 14:16:17.870599 11090 layer_factory.hpp:77] Creating layer drop7
I1026 14:16:17.870617 11090 net.cpp:84] Creating Layer drop7
I1026 14:16:17.870631 11090 net.cpp:406] drop7 <- fc7
I1026 14:16:17.870646 11090 net.cpp:367] drop7 -> fc7 (in-place)
I1026 14:16:17.870678 11090 net.cpp:122] Setting up drop7
I1026 14:16:17.870693 11090 net.cpp:129] Top shape: 128 4096 (524288)
I1026 14:16:17.870705 11090 net.cpp:137] Memory required for data: 878098432
I1026 14:16:17.870718 11090 layer_factory.hpp:77] Creating layer my-fc8
I1026 14:16:17.870738 11090 net.cpp:84] Creating Layer my-fc8
I1026 14:16:17.870753 11090 net.cpp:406] my-fc8 <- fc7
I1026 14:16:17.870767 11090 net.cpp:380] my-fc8 -> my-fc8
I1026 14:16:17.870949 11090 net.cpp:122] Setting up my-fc8
I1026 14:16:17.870964 11090 net.cpp:129] Top shape: 128 1 (128)
I1026 14:16:17.870975 11090 net.cpp:137] Memory required for data: 878098944
I1026 14:16:17.870991 11090 layer_factory.hpp:77] Creating layer loss
I1026 14:16:17.871006 11090 net.cpp:84] Creating Layer loss
I1026 14:16:17.871021 11090 net.cpp:406] loss <- my-fc8
I1026 14:16:17.871034 11090 net.cpp:406] loss <- label
I1026 14:16:17.871048 11090 net.cpp:380] loss -> loss
I1026 14:16:17.871098 11090 net.cpp:122] Setting up loss
…
