…
  stage: ""
}
I0807 17:41:12.045663  6433 solver.cpp:87] Creating training net from net file: ./train_val.prototxt
I0807 17:41:12.046406  6433 net.cpp:294] The NetState phase (0) differed from the phase (1) specified by a rule in layer data
I0807 17:41:12.046658  6433 net.cpp:51] Initializing net from parameters: 
name: "CaffeNet"
state {
  phase: TRAIN
  level: 0
  stage: ""
}
layer {
  name: "data"
  type: "HDF5Data"
  top: "data"
  top: "label"
  include {
    phase: TRAIN
  }
  hdf5_data_param {
    source: "./train_h5.txt"
    batch_size: 120
  }
}
layer {
  name: "conv1"
  type: "Convolution"
  bottom: "data"
  top: "conv1"
  param {
    lr_mult: 1
    decay_mult: 1
  }
  param {
    lr_mult: 2
    decay_mult: 0
  }
  convolution_param {
    num_output: 96
    kernel_size: 11
    stride: 4
    weight_filler {
      type: "gaussian"
      std: 0.01
    }
    bias_filler {
      type: "constant"
      value: 0
    }
  }
}
layer {
  name: "relu1"
  type: "ReLU"
  bottom: "conv1"
  top: "conv1"
}
layer {
  name: "pool1"
  type: "Pooling"
  bottom: "conv1"
  top: "pool1"
  pooling_param {
    pool: MAX
    kernel_size: 3
    stride: 2
  }
}
layer {
  name: "norm1"
  type: "LRN"
  bottom: "pool1"
  top: "norm1"
  lrn_param {
    local_size: 5
    alpha: 0.0001
    beta: 0.75
  }
}
layer {
  name: "conv2"
  type: "Convolution"
  bottom: "norm1"
  top: "conv2"
  param {
    lr_mult: 1
    decay_mult: 1
  }
  param {
    lr_mult: 2
    decay_mult: 0
  }
  convolution_param {
    num_output: 256
    pad: 2
    kernel_size: 5
    group: 2
    weight_filler {
      type: "gaussian"
      std: 0.01
    }
    bias_filler {
      type: "constant"
      value: 1
    }
  }
}
layer {
  name: "relu2"
  type: "ReLU"
  bottom: "conv2"
  top: "conv2"
}
layer {
  name: "pool2"
  type: "Pooling"
  bottom: "conv2"
  top: "pool2"
  pooling_param {
    pool: MAX
    kernel_size: 3
    stride: 2
  }
}
layer {
  name: "norm2"
  type: "LRN"
  bottom: "pool2"
  top: "norm2"
  lrn_param {
    local_size: 5
    alpha: 0.0001
    beta: 0.75
  }
}
layer {
  name: "conv3"
  type: "Convolution"
  bottom: "norm2"
  top: "conv3"
  param {
    lr_mult: 1
    decay_mult: 1
  }
  param {
    lr_mult: 2
    decay_mult: 0
  }
  convolution_param {
    num_output: 384
    pad: 1
    kernel_size: 3
    weight_filler {
      type: "gaussian"
      std: 0.01
    }
    bias_filler {
      type: "constant"
      value: 0
    }
  }
}
layer {
  name: "relu3"
  type: "ReLU"
  bottom: "conv3"
  top: "conv3"
}
layer {
  name: "conv4"
  type: "Convolution"
  bottom: "conv3"
  top: "conv4"
  param {
    lr_mult: 1
    decay_mult: 1
  }
  param {
    lr_mult: 2
    decay_mult: 0
  }
  convolution_param {
    num_output: 384
    pad: 1
    kernel_size: 3
    group: 2
    weight_filler {
      type: "gaussian"
      std: 0.01
    }
    bias_filler {
      type: "constant"
      value: 1
    }
  }
}
layer {
  name: "relu4"
  type: "ReLU"
  bottom: "conv4"
  top: "conv4"
}
layer {
  name: "conv5"
  type: "Convolution"
  bottom: "conv4"
  top: "conv5"
  param {
    lr_mult: 1
    decay_mult: 1
  }
  param {
    lr_mult: 2
    decay_mult: 0
  }
  convolution_param {
    num_output: 256
    pad: 1
    kernel_size: 3
    group: 2
    weight_filler {
      type: "gaussian"
      std: 0.01
    }
    bias_filler {
      type: "constant"
      value: 1
    }
  }
}
layer {
  name: "relu5"
  type: "ReLU"
  bottom: "conv5"
  top: "conv5"
}
layer {
  name: "pool5"
  type: "Pooling"
  bottom: "conv5"
  top: "pool5"
  pooling_param {
    pool: MAX
    kernel_size: 3
    stride: 2
  }
}
layer {
  name: "fc6"
  type: "InnerProduct"
  bottom: "pool5"
  top: "fc6"
  param {
    lr_mult: 1
    decay_mult: 1
  }
  param {
    lr_mult: 2
    decay_mult: 0
  }
  inner_product_param {
    num_output: 4096
    weight_filler {
      type: "gaussian"
      std: 0.005
    }
    bias_filler {
      type: "constant"
      value: 1
    }
  }
}
layer {
  name: "relu6"
  type: "ReLU"
  bottom: "fc6"
  top: "fc6"
}
layer {
  name: "drop6"
  type: "Dropout"
  bottom: "fc6"
  top: "fc6"
  dropout_param {
    dropout_ratio: 0.5
  }
}
layer {
  name: "fc7"
  type: "InnerProduct"
  bottom: "fc6"
  top: "fc7"
  param {
    lr_mult: 1
    decay_mult: 1
  }
  param {
    lr_mult: 2
    decay_mult: 0
  }
  inner_product_param {
    num_output: 4096
    weight_filler {
      type: "gaussian"
      std: 0.005
    }
    bias_filler {
      type: "constant"
      value: 1
    }
  }
}
layer {
  name: "relu7"
  type: "ReLU"
  bottom: "fc7"
  top: "fc7"
}
layer {
  name: "drop7"
  type: "Dropout"
  bottom: "fc7"
  top: "fc7"
  dropout_param {
    dropout_ratio: 0.5
  }
}
layer {
  name: "my-fc8"
  type: "InnerProduct"
  bottom: "fc7"
  top: "my-fc8"
  param {
    lr_mult: 1
    decay_mult: 1
  }
  param {
    lr_mult: 2
    decay_mult: 0
  }
  inner_product_param {
    num_output: 1
    weight_filler {
      type: "gaussian"
      std: 0.01
    }
    bias_filler {
      type: "constant"
      value: 0
    }
  }
}
layer {
  name: "loss"
  type: "EuclideanLoss"
  bottom: "my-fc8"
  bottom: "label"
  top: "loss"
}
I0807 17:41:12.046836  6433 layer_factory.hpp:77] Creating layer data
I0807 17:41:12.046871  6433 net.cpp:84] Creating Layer data
I0807 17:41:12.046886  6433 net.cpp:380] data -> data
I0807 17:41:12.046923  6433 net.cpp:380] data -> label
I0807 17:41:12.046948  6433 hdf5_data_layer.cpp:80] Loading list of HDF5 filenames from: ./train_h5.txt
I0807 17:41:12.046986  6433 hdf5_data_layer.cpp:94] Number of HDF5 files: 1
I0807 17:41:12.048034  6433 hdf5.cpp:32] Datatype class: H5T_FLOAT
I0807 17:41:12.699618  6433 net.cpp:122] Setting up data
I0807 17:41:12.699692  6433 net.cpp:129] Top shape: 120 3 227 227 (18550440)
I0807 17:41:12.699707  6433 net.cpp:129] Top shape: 120 (120)
I0807 17:41:12.699717  6433 net.cpp:137] Memory required for data: 74202240
I0807 17:41:12.699733  6433 layer_factory.hpp:77] Creating layer conv1
I0807 17:41:12.699774  6433 net.cpp:84] Creating Layer conv1
I0807 17:41:12.699790  6433 net.cpp:406] conv1 <- data
I0807 17:41:12.699815  6433 net.cpp:380] conv1 -> conv1
I0807 17:41:13.259995  6433 net.cpp:122] Setting up conv1
I0807 17:41:13.260063  6433 net.cpp:129] Top shape: 120 96 55 55 (34848000)
I0807 17:41:13.260073  6433 net.cpp:137] Memory required for data: 213594240
I0807 17:41:13.260105  6433 layer_factory.hpp:77] Creating layer relu1
I0807 17:41:13.260130  6433 net.cpp:84] Creating Layer relu1
I0807 17:41:13.260140  6433 net.cpp:406] relu1 <- conv1
I0807 17:41:13.260151  6433 net.cpp:367] relu1 -> conv1 (in-place)
I0807 17:41:13.260578  6433 net.cpp:122] Setting up relu1
I0807 17:41:13.260599  6433 net.cpp:129] Top shape: 120 96 55 55 (34848000)
I0807 17:41:13.260607  6433 net.cpp:137] Memory required for data: 352986240
I0807 17:41:13.260614  6433 layer_factory.hpp:77] Creating layer pool1
I0807 17:41:13.260628  6433 net.cpp:84] Creating Layer pool1
I0807 17:41:13.260637  6433 net.cpp:406] pool1 <- conv1
I0807 17:41:13.260646  6433 net.cpp:380] pool1 -> pool1
I0807 17:41:13.260715  6433 net.cpp:122] Setting up pool1
I0807 17:41:13.260733  6433 net.cpp:129] Top shape: 120 96 27 27 (8398080)
I0807 17:41:13.260740  6433 net.cpp:137] Memory required for data: 386578560
I0807 17:41:13.260747  6433 layer_factory.hpp:77] Creating layer norm1
I0807 17:41:13.260766  6433 net.cpp:84] Creating Layer norm1
I0807 17:41:13.260776  6433 net.cpp:406] norm1 <- pool1
I0807 17:41:13.260785  6433 net.cpp:380] norm1 -> norm1
I0807 17:41:13.261226  6433 net.cpp:122] Setting up norm1
I0807 17:41:13.261247  6433 net.cpp:129] Top shape: 120 96 27 27 (8398080)
I0807 17:41:13.261255  6433 net.cpp:137] Memory required for data: 420170880
I0807 17:41:13.261278  6433 layer_factory.hpp:77] Creating layer conv2
I0807 17:41:13.261313  6433 net.cpp:84] Creating Layer conv2
I0807 17:41:13.261322  6433 net.cpp:406] conv2 <- norm1
I0807 17:41:13.261332  6433 net.cpp:380] conv2 -> conv2
I0807 17:41:13.273528  6433 net.cpp:122] Setting up conv2
I0807 17:41:13.273553  6433 net.cpp:129] Top shape: 120 256 27 27 (22394880)
I0807 17:41:13.273562  6433 net.cpp:137] Memory required for data: 509750400
I0807 17:41:13.273576  6433 layer_factory.hpp:77] Creating layer relu2
I0807 17:41:13.273586  6433 net.cpp:84] Creating Layer relu2
I0807 17:41:13.273594  6433 net.cpp:406] relu2 <- conv2
I0807 17:41:13.273603  6433 net.cpp:367] relu2 -> conv2 (in-place)
I0807 17:41:13.273792  6433 net.cpp:122] Setting up relu2
I0807 17:41:13.273810  6433 net.cpp:129] Top shape: 120 256 27 27 (22394880)
I0807 17:41:13.273818  6433 net.cpp:137] Memory required for data: 599329920
I0807 17:41:13.273828  6433 layer_factory.hpp:77] Creating layer pool2
I0807 17:41:13.273838  6433 net.cpp:84] Creating Layer pool2
I0807 17:41:13.273845  6433 net.cpp:406] pool2 <- conv2
I0807 17:41:13.273855  6433 net.cpp:380] pool2 -> pool2
I0807 17:41:13.273905  6433 net.cpp:122] Setting up pool2
I0807 17:41:13.273926  6433 net.cpp:129] Top shape: 120 256 13 13 (5191680)
I0807 17:41:13.273933  6433 net.cpp:137] Memory required for data: 620096640
I0807 17:41:13.273941  6433 layer_factory.hpp:77] Creating layer norm2
I0807 17:41:13.273954  6433 net.cpp:84] Creating Layer norm2
I0807 17:41:13.273962  6433 net.cpp:406] norm2 <- pool2
I0807 17:41:13.273972  6433 net.cpp:380] norm2 -> norm2
I0807 17:41:13.274484  6433 net.cpp:122] Setting up norm2
I0807 17:41:13.274507  6433 net.cpp:129] Top shape: 120 256 13 13 (5191680)
I0807 17:41:13.274513  6433 net.cpp:137] Memory required for data: 640863360
I0807 17:41:13.274521  6433 layer_factory.hpp:77] Creating layer conv3
I0807 17:41:13.274535  6433 net.cpp:84] Creating Layer conv3
I0807 17:41:13.274543  6433 net.cpp:406] conv3 <- norm2
I0807 17:41:13.274554  6433 net.cpp:380] conv3 -> conv3
I0807 17:41:13.304596  6433 net.cpp:122] Setting up conv3
I0807 17:41:13.304638  6433 net.cpp:129] Top shape: 120 384 13 13 (7787520)
I0807 17:41:13.304648  6433 net.cpp:137] Memory required for data: 672013440
I0807 17:41:13.304662  6433 layer_factory.hpp:77] Creating layer relu3
I0807 17:41:13.304674  6433 net.cpp:84] Creating Layer relu3
I0807 17:41:13.304682  6433 net.cpp:406] relu3 <- conv3
I0807 17:41:13.304702  6433 net.cpp:367] relu3 -> conv3 (in-place)
I0807 17:41:13.304893  6433 net.cpp:122] Setting up relu3
I0807 17:41:13.304913  6433 net.cpp:129] Top shape: 120 384 13 13 (7787520)
I0807 17:41:13.304919  6433 net.cpp:137] Memory required for data: 703163520
I0807 17:41:13.304929  6433 layer_factory.hpp:77] Creating layer conv4
I0807 17:41:13.304944  6433 net.cpp:84] Creating Layer conv4
I0807 17:41:13.304952  6433 net.cpp:406] conv4 <- conv3
I0807 17:41:13.304963  6433 net.cpp:380] conv4 -> conv4
I0807 17:41:13.329135  6433 net.cpp:122] Setting up conv4
I0807 17:41:13.329174  6433 net.cpp:129] Top shape: 120 384 13 13 (7787520)
I0807 17:41:13.329183  6433 net.cpp:137] Memory required for data: 734313600
I0807 17:41:13.329195  6433 layer_factory.hpp:77] Creating layer relu4
I0807 17:41:13.329206  6433 net.cpp:84] Creating Layer relu4
I0807 17:41:13.329215  6433 net.cpp:406] relu4 <- conv4
I0807 17:41:13.329236  6433 net.cpp:367] relu4 -> conv4 (in-place)
I0807 17:41:13.329664  6433 net.cpp:122] Setting up relu4
I0807 17:41:13.329684  6433 net.cpp:129] Top shape: 120 384 13 13 (7787520)
I0807 17:41:13.329692  6433 net.cpp:137] Memory required for data: 765463680
I0807 17:41:13.329699  6433 layer_factory.hpp:77] Creating layer conv5
I0807 17:41:13.329713  6433 net.cpp:84] Creating Layer conv5
I0807 17:41:13.329721  6433 net.cpp:406] conv5 <- conv4
I0807 17:41:13.329731  6433 net.cpp:380] conv5 -> conv5
I0807 17:41:13.346776  6433 net.cpp:122] Setting up conv5
I0807 17:41:13.346801  6433 net.cpp:129] Top shape: 120 256 13 13 (5191680)
I0807 17:41:13.346819  6433 net.cpp:137] Memory required for data: 786230400
I0807 17:41:13.346848  6433 layer_factory.hpp:77] Creating layer relu5
I0807 17:41:13.346861  6433 net.cpp:84] Creating Layer relu5
I0807 17:41:13.346869  6433 net.cpp:406] relu5 <- conv5
I0807 17:41:13.346879  6433 net.cpp:367] relu5 -> conv5 (in-place)
I0807 17:41:13.347326  6433 net.cpp:122] Setting up relu5
I0807 17:41:13.347347  6433 net.cpp:129] Top shape: 120 256 13 13 (5191680)
I0807 17:41:13.347353  6433 net.cpp:137] Memory required for data: 806997120
I0807 17:41:13.347362  6433 layer_factory.hpp:77] Creating layer pool5
I0807 17:41:13.347370  6433 net.cpp:84] Creating Layer pool5
I0807 17:41:13.347378  6433 net.cpp:406] pool5 <- conv5
I0807 17:41:13.347386  6433 net.cpp:380] pool5 -> pool5
I0807 17:41:13.347440  6433 net.cpp:122] Setting up pool5
I0807 17:41:13.347463  6433 net.cpp:129] Top shape: 120 256 6 6 (1105920)
I0807 17:41:13.347470  6433 net.cpp:137] Memory required for data: 811420800
I0807 17:41:13.347478  6433 layer_factory.hpp:77] Creating layer fc6
I0807 17:41:13.347496  6433 net.cpp:84] Creating Layer fc6
I0807 17:41:13.347509  6433 net.cpp:406] fc6 <- pool5
I0807 17:41:13.347520  6433 net.cpp:380] fc6 -> fc6
I0807 17:41:14.578698  6433 net.cpp:122] Setting up fc6
I0807 17:41:14.578768  6433 net.cpp:129] Top shape: 120 4096 (491520)
I0807 17:41:14.578778  6433 net.cpp:137] Memory required for data: 813386880
I0807 17:41:14.578793  6433 layer_factory.hpp:77] Creating layer relu6
I0807 17:41:14.578810  6433 net.cpp:84] Creating Layer relu6
I0807 17:41:14.578819  6433 net.cpp:406] relu6 <- fc6
I0807 17:41:14.578830  6433 net.cpp:367] relu6 -> fc6 (in-place)
I0807 17:41:14.579099  6433 net.cpp:122] Setting up relu6
I0807 17:41:14.579118  6433 net.cpp:129] Top shape: 120 4096 (491520)
I0807 17:41:14.579125  6433 net.cpp:137] Memory required for data: 815352960
I0807 17:41:14.579133  6433 layer_factory.hpp:77] Creating layer drop6
I0807 17:41:14.579150  6433 net.cpp:84] Creating Layer drop6
I0807 17:41:14.579157  6433 net.cpp:406] drop6 <- fc6
I0807 17:41:14.579167  6433 net.cpp:367] drop6 -> fc6 (in-place)
I0807 17:41:14.579210  6433 net.cpp:122] Setting up drop6
I0807 17:41:14.579226  6433 net.cpp:129] Top shape: 120 4096 (491520)
I0807 17:41:14.579233  6433 net.cpp:137] Memory required for data: 817319040
I0807 17:41:14.579242  6433 layer_factory.hpp:77] Creating layer fc7
I0807 17:41:14.579257  6433 net.cpp:84] Creating Layer fc7
I0807 17:41:14.579265  6433 net.cpp:406] fc7 <- fc6
I0807 17:41:14.579282  6433 net.cpp:380] fc7 -> fc7
I0807 17:41:15.123663  6433 net.cpp:122] Setting up fc7
I0807 17:41:15.123733  6433 net.cpp:129] Top shape: 120 4096 (491520)
I0807 17:41:15.123744  6433 net.cpp:137] Memory required for data: 819285120
I0807 17:41:15.123757  6433 layer_factory.hpp:77] Creating layer relu7
I0807 17:41:15.123773  6433 net.cpp:84] Creating Layer relu7
I0807 17:41:15.123782  6433 net.cpp:406] relu7 <- fc7
I0807 17:41:15.123793  6433 net.cpp:367] relu7 -> fc7 (in-place)
I0807 17:41:15.124392  6433 net.cpp:122] Setting up relu7
I0807 17:41:15.124411  6433 net.cpp:129] Top shape: 120 4096 (491520)
I0807 17:41:15.124418  6433 net.cpp:137] Memory required for data: 821251200
I0807 17:41:15.124426  6433 layer_factory.hpp:77] Creating layer drop7
I0807 17:41:15.124439  6433 net.cpp:84] Creating Layer drop7
I0807 17:41:15.124446  6433 net.cpp:406] drop7 <- fc7
I0807 17:41:15.124455  6433 net.cpp:367] drop7 -> fc7 (in-place)
I0807 17:41:15.124496  6433 net.cpp:122] Setting up drop7
I0807 17:41:15.124521  6433 net.cpp:129] Top shape: 120 4096 (491520)
I0807 17:41:15.124531  6433 net.cpp:137] Memory required for data: 823217280
I0807 17:41:15.124537  6433 layer_factory.hpp:77] Creating layer my-fc8
I0807 17:41:15.124552  6433 net.cpp:84] Creating Layer my-fc8
I0807 17:41:15.124560  6433 net.cpp:406] my-fc8 <- fc7
I0807 17:41:15.124570  6433 net.cpp:380] my-fc8 -> my-fc8
I0807 17:41:15.124877  6433 net.cpp:122] Setting up my-fc8
I0807 17:41:15.124894  6433 net.cpp:129] Top shape: 120 1 (120)
I0807 17:41:15.124902  6433 net.cpp:137] Memory required for data: 823217760
I0807 17:41:15.124922  6433 layer_factory.hpp:77] Creating layer loss
I0807 17:41:15.124943  6433 net.cpp:84] Creating Layer loss
I0807 17:41:15.124951  6433 net.cpp:406] loss <- my-fc8
I0807 17:41:15.124958  6433 net.cpp:406] loss <- label
I0807 17:41:15.124974  6433 net.cpp:380] loss -> loss
I0807 17:41:15.125030  6433 net.cpp:122] Setting up loss
…
I0807 17:41:15.125277  6433 net.cpp:255] Network initialization done.
I0807 17:41:15.125864  6433 solver.cpp:172] Creating test net (#0) specified by net file: ./train_val.prototxt
I0807 17:41:15.125918  6433 net.cpp:294] The NetState phase (1) differed from the phase (0) specified by a rule in layer data
I0807 17:41:15.126113  6433 net.cpp:51] Initializing net from parameters: 
name: "CaffeNet"
state {
  phase: TEST
}
layer {
  name: "data"
  type: "HDF5Data"
  top: "data"
  top: "label"
  include {
    phase: TEST
  }
  hdf5_data_param {
    source: "./test_h5.txt"
    batch_size: 50
  }
}
layer {
  name: "conv1"
  type: "Convolution"
  bottom: "data"
  top: "conv1"
  param {
    lr_mult: 1
    decay_mult: 1
  }
  param {
    lr_mult: 2
    decay_mult: 0
  }
  convolution_param {
    num_output: 96
    kernel_size: 11
    stride: 4
    weight_filler {
      type: "gaussian"
      std: 0.01
    }
    bias_filler {
      type: "constant"
      value: 0
    }
  }
}
layer {
  name: "relu1"
  type: "ReLU"
  bottom: "conv1"
  top: "conv1"
}
layer {
  name: "pool1"
  type: "Pooling"
  bottom: "conv1"
  top: "pool1"
  pooling_param {
    pool: MAX
    kernel_size: 3
    stride: 2
  }
}
layer {
  name: "norm1"
  type: "LRN"
  bottom: "pool1"
  top: "norm1"
  lrn_param {
    local_size: 5
    alpha: 0.0001
    beta: 0.75
  }
}
layer {
  name: "conv2"
  type: "Convolution"
  bottom: "norm1"
  top: "conv2"
  param {
    lr_mult: 1
    decay_mult: 1
  }
  param {
    lr_mult: 2
    decay_mult: 0
  }
  convolution_param {
    num_output: 256
    pad: 2
    kernel_size: 5
    group: 2
    weight_filler {
      type: "gaussian"
      std: 0.01
    }
    bias_filler {
      type: "constant"
      value: 1
    }
  }
}
layer {
  name: "relu2"
  type: "ReLU"
  bottom: "conv2"
  top: "conv2"
}
layer {
  name: "pool2"
  type: "Pooling"
  bottom: "conv2"
  top: "pool2"
  pooling_param {
    pool: MAX
    kernel_size: 3
    stride: 2
  }
}
layer {
  name: "norm2"
  type: "LRN"
  bottom: "pool2"
  top: "norm2"
  lrn_param {
    local_size: 5
    alpha: 0.0001
    beta: 0.75
  }
}
layer {
  name: "conv3"
  type: "Convolution"
  bottom: "norm2"
  top: "conv3"
  param {
    lr_mult: 1
    decay_mult: 1
  }
  param {
    lr_mult: 2
    decay_mult: 0
  }
  convolution_param {
    num_output: 384
    pad: 1
    kernel_size: 3
    weight_filler {
      type: "gaussian"
      std: 0.01
    }
    bias_filler {
      type: "constant"
      value: 0
    }
  }
}
layer {
  name: "relu3"
  type: "ReLU"
  bottom: "conv3"
  top: "conv3"
}
layer {
  name: "conv4"
  type: "Convolution"
  bottom: "conv3"
  top: "conv4"
  param {
    lr_mult: 1
    decay_mult: 1
  }
  param {
    lr_mult: 2
    decay_mult: 0
  }
  convolution_param {
    num_output: 384
    pad: 1
    kernel_size: 3
    group: 2
    weight_filler {
      type: "gaussian"
      std: 0.01
    }
    bias_filler {
      type: "constant"
      value: 1
    }
  }
}
layer {
  name: "relu4"
  type: "ReLU"
  bottom: "conv4"
  top: "conv4"
}
layer {
  name: "conv5"
  type: "Convolution"
  bottom: "conv4"
  top: "conv5"
  param {
    lr_mult: 1
    decay_mult: 1
  }
  param {
    lr_mult: 2
    decay_mult: 0
  }
  convolution_param {
    num_output: 256
    pad: 1
    kernel_size: 3
    group: 2
    weight_filler {
      type: "gaussian"
      std: 0.01
    }
    bias_filler {
      type: "constant"
      value: 1
    }
  }
}
layer {
  name: "relu5"
  type: "ReLU"
  bottom: "conv5"
  top: "conv5"
}
layer {
  name: "pool5"
  type: "Pooling"
  bottom: "conv5"
  top: "pool5"
  pooling_param {
    pool: MAX
    kernel_size: 3
    stride: 2
  }
}
layer {
  name: "fc6"
  type: "InnerProduct"
  bottom: "pool5"
  top: "fc6"
  param {
    lr_mult: 1
    decay_mult: 1
  }
  param {
    lr_mult: 2
    decay_mult: 0
  }
  inner_product_param {
    num_output: 4096
    weight_filler {
      type: "gaussian"
      std: 0.005
    }
    bias_filler {
      type: "constant"
      value: 1
    }
  }
}
layer {
  name: "relu6"
  type: "ReLU"
  bottom: "fc6"
  top: "fc6"
}
layer {
  name: "drop6"
  type: "Dropout"
  bottom: "fc6"
  top: "fc6"
  dropout_param {
    dropout_ratio: 0.5
  }
}
layer {
  name: "fc7"
  type: "InnerProduct"
  bottom: "fc6"
  top: "fc7"
  param {
    lr_mult: 1
    decay_mult: 1
  }
  param {
    lr_mult: 2
    decay_mult: 0
  }
  inner_product_param {
    num_output: 4096
    weight_filler {
      type: "gaussian"
      std: 0.005
    }
    bias_filler {
      type: "constant"
      value: 1
    }
  }
}
layer {
  name: "relu7"
  type: "ReLU"
  bottom: "fc7"
  top: "fc7"
}
layer {
  name: "drop7"
  type: "Dropout"
  bottom: "fc7"
  top: "fc7"
  dropout_param {
    dropout_ratio: 0.5
  }
}
layer {
  name: "my-fc8"
  type: "InnerProduct"
  bottom: "fc7"
  top: "my-fc8"
  param {
    lr_mult: 1
    decay_mult: 1
  }
  param {
    lr_mult: 2
    decay_mult: 0
  }
  inner_product_param {
    num_output: 1
    weight_filler {
      type: "gaussian"
      std: 0.01
    }
    bias_filler {
      type: "constant"
      value: 0
    }
  }
}
layer {
  name: "loss"
  type: "EuclideanLoss"
  bottom: "my-fc8"
  bottom: "label"
  top: "loss"
}
I0807 17:41:15.126221  6433 layer_factory.hpp:77] Creating layer data
I0807 17:41:15.126238  6433 net.cpp:84] Creating Layer data
I0807 17:41:15.126247  6433 net.cpp:380] data -> data
I0807 17:41:15.126260  6433 net.cpp:380] data -> label
I0807 17:41:15.126271  6433 hdf5_data_layer.cpp:80] Loading list of HDF5 filenames from: ./test_h5.txt
I0807 17:41:15.126297  6433 hdf5_data_layer.cpp:94] Number of HDF5 files: 1
I0807 17:41:15.188890  6433 net.cpp:122] Setting up data
I0807 17:41:15.188958  6433 net.cpp:129] Top shape: 50 3 227 227 (7729350)
I0807 17:41:15.188971  6433 net.cpp:129] Top shape: 50 (50)
I0807 17:41:15.188992  6433 net.cpp:137] Memory required for data: 30917600
I0807 17:41:15.189012  6433 layer_factory.hpp:77] Creating layer conv1
I0807 17:41:15.189038  6433 net.cpp:84] Creating Layer conv1
I0807 17:41:15.189047  6433 net.cpp:406] conv1 <- data
I0807 17:41:15.189060  6433 net.cpp:380] conv1 -> conv1
I0807 17:41:15.191643  6433 net.cpp:122] Setting up conv1
I0807 17:41:15.191668  6433 net.cpp:129] Top shape: 50 96 55 55 (14520000)
I0807 17:41:15.191676  6433 net.cpp:137] Memory required for data: 88997600
I0807 17:41:15.191691  6433 layer_factory.hpp:77] Creating layer relu1
I0807 17:41:15.191704  6433 net.cpp:84] Creating Layer relu1
I0807 17:41:15.191710  6433 net.cpp:406] relu1 <- conv1
I0807 17:41:15.191720  6433 net.cpp:367] relu1 -> conv1 (in-place)
I0807 17:41:15.191902  6433 net.cpp:122] Setting up relu1
I0807 17:41:15.191921  6433 net.cpp:129] Top shape: 50 96 55 55 (14520000)
I0807 17:41:15.191928  6433 net.cpp:137] Memory required for data: 147077600
I0807 17:41:15.191936  6433 layer_factory.hpp:77] Creating layer pool1
I0807 17:41:15.191947  6433 net.cpp:84] Creating Layer pool1
I0807 17:41:15.191954  6433 net.cpp:406] pool1 <- conv1
I0807 17:41:15.191962  6433 net.cpp:380] pool1 -> pool1
I0807 17:41:15.192015  6433 net.cpp:122] Setting up pool1
I0807 17:41:15.192031  6433 net.cpp:129] Top shape: 50 96 27 27 (3499200)
I0807 17:41:15.192039  6433 net.cpp:137] Memory required for data: 161074400
I0807 17:41:15.192045  6433 layer_factory.hpp:77] Creating layer norm1
I0807 17:41:15.192059  6433 net.cpp:84] Creating Layer norm1
I0807 17:41:15.192067  6433 net.cpp:406] norm1 <- pool1
I0807 17:41:15.192076  6433 net.cpp:380] norm1 -> norm1
I0807 17:41:15.192522  6433 net.cpp:122] Setting up norm1
I0807 17:41:15.192541  6433 net.cpp:129] Top shape: 50 96 27 27 (3499200)
I0807 17:41:15.192549  6433 net.cpp:137] Memory required for data: 175071200
I0807 17:41:15.192556  6433 layer_factory.hpp:77] Creating layer conv2
I0807 17:41:15.192569  6433 net.cpp:84] Creating Layer conv2
I0807 17:41:15.192577  6433 net.cpp:406] conv2 <- norm1
I0807 17:41:15.192587  6433 net.cpp:380] conv2 -> conv2
I0807 17:41:15.204844  6433 net.cpp:122] Setting up conv2
I0807 17:41:15.204869  6433 net.cpp:129] Top shape: 50 256 27 27 (9331200)
I0807 17:41:15.204879  6433 net.cpp:137] Memory required for data: 212396000
I0807 17:41:15.204895  6433 layer_factory.hpp:77] Creating layer relu2
I0807 17:41:15.204905  6433 net.cpp:84] Creating Layer relu2
I0807 17:41:15.204912  6433 net.cpp:406] relu2 <- conv2
I0807 17:41:15.204923  6433 net.cpp:367] relu2 -> conv2 (in-place)
I0807 17:41:15.205359  6433 net.cpp:122] Setting up relu2
I0807 17:41:15.205379  6433 net.cpp:129] Top shape: 50 256 27 27 (9331200)
I0807 17:41:15.205394  6433 net.cpp:137] Memory required for data: 249720800
I0807 17:41:15.205401  6433 layer_factory.hpp:77] Creating layer pool2
I0807 17:41:15.205413  6433 net.cpp:84] Creating Layer pool2
I0807 17:41:15.205420  6433 net.cpp:406] pool2 <- conv2
I0807 17:41:15.205430  6433 net.cpp:380] pool2 -> pool2
I0807 17:41:15.205484  6433 net.cpp:122] Setting up pool2
I0807 17:41:15.205502  6433 net.cpp:129] Top shape: 50 256 13 13 (2163200)
I0807 17:41:15.205508  6433 net.cpp:137] Memory required for data: 258373600
I0807 17:41:15.205515  6433 layer_factory.hpp:77] Creating layer norm2
I0807 17:41:15.205526  6433 net.cpp:84] Creating Layer norm2
I0807 17:41:15.205534  6433 net.cpp:406] norm2 <- pool2
I0807 17:41:15.205545  6433 net.cpp:380] norm2 -> norm2
I0807 17:41:15.205778  6433 net.cpp:122] Setting up norm2
I0807 17:41:15.205797  6433 net.cpp:129] Top shape: 50 256 13 13 (2163200)
I0807 17:41:15.205806  6433 net.cpp:137] Memory required for data: 267026400
I0807 17:41:15.205811  6433 layer_factory.hpp:77] Creating layer conv3
I0807 17:41:15.205826  6433 net.cpp:84] Creating Layer conv3
I0807 17:41:15.205834  6433 net.cpp:406] conv3 <- norm2
I0807 17:41:15.205847  6433 net.cpp:380] conv3 -> conv3
I0807 17:41:15.235867  6433 net.cpp:122] Setting up conv3
I0807 17:41:15.235899  6433 net.cpp:129] Top shape: 50 384 13 13 (3244800)
I0807 17:41:15.235913  6433 net.cpp:137] Memory required for data: 280005600
I0807 17:41:15.235932  6433 layer_factory.hpp:77] Creating layer relu3
I0807 17:41:15.235944  6433 net.cpp:84] Creating Layer relu3
I0807 17:41:15.235950  6433 net.cpp:406] relu3 <- conv3
I0807 17:41:15.235961  6433 net.cpp:367] relu3 -> conv3 (in-place)
I0807 17:41:15.236407  6433 net.cpp:122] Setting up relu3
I0807 17:41:15.236428  6433 net.cpp:129] Top shape: 50 384 13 13 (3244800)
I0807 17:41:15.236435  6433 net.cpp:137] Memory required for data: 292984800
I0807 17:41:15.236443  6433 layer_factory.hpp:77] Creating layer conv4
I0807 17:41:15.236459  6433 net.cpp:84] Creating Layer conv4
I0807 17:41:15.236466  6433 net.cpp:406] conv4 <- conv3
I0807 17:41:15.236479  6433 net.cpp:380] conv4 -> conv4
I0807 17:41:15.260516  6433 net.cpp:122] Setting up conv4
I0807 17:41:15.260542  6433 net.cpp:129] Top shape: 50 384 13 13 (3244800)
I0807 17:41:15.260551  6433 net.cpp:137] Memory required for data: 305964000
I0807 17:41:15.260562  6433 layer_factory.hpp:77] Creating layer relu4
I0807 17:41:15.260574  6433 net.cpp:84] Creating Layer relu4
I0807 17:41:15.260582  6433 net.cpp:406] relu4 <- conv4
I0807 17:41:15.260591  6433 net.cpp:367] relu4 -> conv4 (in-place)
I0807 17:41:15.260802  6433 net.cpp:122] Setting up relu4
I0807 17:41:15.260820  6433 net.cpp:129] Top shape: 50 384 13 13 (3244800)
I0807 17:41:15.260828  6433 net.cpp:137] Memory required for data: 318943200
I0807 17:41:15.260834  6433 layer_factory.hpp:77] Creating layer conv5
I0807 17:41:15.260849  6433 net.cpp:84] Creating Layer conv5
I0807 17:41:15.260857  6433 net.cpp:406] conv5 <- conv4
I0807 17:41:15.260867  6433 net.cpp:380] conv5 -> conv5
I0807 17:41:15.278103  6433 net.cpp:122] Setting up conv5
I0807 17:41:15.278148  6433 net.cpp:129] Top shape: 50 256 13 13 (2163200)
I0807 17:41:15.278157  6433 net.cpp:137] Memory required for data: 327596000
I0807 17:41:15.278172  6433 layer_factory.hpp:77] Creating layer relu5
I0807 17:41:15.278182  6433 net.cpp:84] Creating Layer relu5
I0807 17:41:15.278189  6433 net.cpp:406] relu5 <- conv5
I0807 17:41:15.278213  6433 net.cpp:367] relu5 -> conv5 (in-place)
I0807 17:41:15.278666  6433 net.cpp:122] Setting up relu5
I0807 17:41:15.278686  6433 net.cpp:129] Top shape: 50 256 13 13 (2163200)
I0807 17:41:15.278693  6433 net.cpp:137] Memory required for data: 336248800
I0807 17:41:15.278700  6433 layer_factory.hpp:77] Creating layer pool5
I0807 17:41:15.278710  6433 net.cpp:84] Creating Layer pool5
I0807 17:41:15.278717  6433 net.cpp:406] pool5 <- conv5
I0807 17:41:15.278728  6433 net.cpp:380] pool5 -> pool5
I0807 17:41:15.278786  6433 net.cpp:122] Setting up pool5
I0807 17:41:15.278802  6433 net.cpp:129] Top shape: 50 256 6 6 (460800)
I0807 17:41:15.278810  6433 net.cpp:137] Memory required for data: 338092000
I0807 17:41:15.278816  6433 layer_factory.hpp:77] Creating layer fc6
I0807 17:41:15.278832  6433 net.cpp:84] Creating Layer fc6
I0807 17:41:15.278841  6433 net.cpp:406] fc6 <- pool5
I0807 17:41:15.278851  6433 net.cpp:380] fc6 -> fc6
I0807 17:41:16.572505  6433 net.cpp:122] Setting up fc6
I0807 17:41:16.572612  6433 net.cpp:129] Top shape: 50 4096 (204800)
I0807 17:41:16.573068  6433 net.cpp:137] Memory required for data: 338911200
I0807 17:41:16.573112  6433 layer_factory.hpp:77] Creating layer relu6
I0807 17:41:16.573145  6433 net.cpp:84] Creating Layer relu6
I0807 17:41:16.573159  6433 net.cpp:406] relu6 <- fc6
I0807 17:41:16.573175  6433 net.cpp:367] relu6 -> fc6 (in-place)
I0807 17:41:16.574151  6433 net.cpp:122] Setting up relu6
I0807 17:41:16.574178  6433 net.cpp:129] Top shape: 50 4096 (204800)
I0807 17:41:16.574189  6433 net.cpp:137] Memory required for data: 339730400
I0807 17:41:16.574200  6433 layer_factory.hpp:77] Creating layer drop6
I0807 17:41:16.574218  6433 net.cpp:84] Creating Layer drop6
I0807 17:41:16.574229  6433 net.cpp:406] drop6 <- fc6
I0807 17:41:16.574244  6433 net.cpp:367] drop6 -> fc6 (in-place)
I0807 17:41:16.574307  6433 net.cpp:122] Setting up drop6
I0807 17:41:16.574327  6433 net.cpp:129] Top shape: 50 4096 (204800)
I0807 17:41:16.574347  6433 net.cpp:137] Memory required for data: 340549600
I0807 17:41:16.574369  6433 layer_factory.hpp:77] Creating layer fc7
I0807 17:41:16.574390  6433 net.cpp:84] Creating Layer fc7
I0807 17:41:16.574400  6433 net.cpp:406] fc7 <- fc6
I0807 17:41:16.574414  6433 net.cpp:380] fc7 -> fc7
I0807 17:41:17.271894  6433 net.cpp:122] Setting up fc7
I0807 17:41:17.271971  6433 net.cpp:129] Top shape: 50 4096 (204800)
I0807 17:41:17.271984  6433 net.cpp:137] Memory required for data: 341368800
I0807 17:41:17.272012  6433 layer_factory.hpp:77] Creating layer relu7
I0807 17:41:17.272033  6433 net.cpp:84] Creating Layer relu7
I0807 17:41:17.272048  6433 net.cpp:406] relu7 <- fc7
I0807 17:41:17.272063  6433 net.cpp:367] relu7 -> fc7 (in-place)
I0807 17:41:17.272430  6433 net.cpp:122] Setting up relu7
I0807 17:41:17.272455  6433 net.cpp:129] Top shape: 50 4096 (204800)
I0807 17:41:17.272466  6433 net.cpp:137] Memory required for data: 342188000
I0807 17:41:17.272475  6433 layer_factory.hpp:77] Creating layer drop7
I0807 17:41:17.272505  6433 net.cpp:84] Creating Layer drop7
I0807 17:41:17.272519  6433 net.cpp:406] drop7 <- fc7
I0807 17:41:17.272534  6433 net.cpp:367] drop7 -> fc7 (in-place)
I0807 17:41:17.272590  6433 net.cpp:122] Setting up drop7
I0807 17:41:17.272616  6433 net.cpp:129] Top shape: 50 4096 (204800)
I0807 17:41:17.272625  6433 net.cpp:137] Memory required for data: 343007200
I0807 17:41:17.272634  6433 layer_factory.hpp:77] Creating layer my-fc8
I0807 17:41:17.272655  6433 net.cpp:84] Creating Layer my-fc8
I0807 17:41:17.272670  6433 net.cpp:406] my-fc8 <- fc7
I0807 17:41:17.272682  6433 net.cpp:380] my-fc8 -> my-fc8
I0807 17:41:17.273027  6433 net.cpp:122] Setting up my-fc8
I0807 17:41:17.273049  6433 net.cpp:129] Top shape: 50 1 (50)
I0807 17:41:17.273058  6433 net.cpp:137] Memory required for data: 343007400
I0807 17:41:17.273072  6433 layer_factory.hpp:77] Creating layer loss
I0807 17:41:17.273093  6433 net.cpp:84] Creating Layer loss
I0807 17:41:17.273103  6433 net.cpp:406] loss <- my-fc8
I0807 17:41:17.273113  6433 net.cpp:406] loss <- label
I0807 17:41:17.273131  6433 net.cpp:380] loss -> loss
I0807 17:41:17.273202  6433 net.cpp:122] Setting up loss
…
