…
I1026 17:35:38.250090 12504 solver.cpp:87] Creating training net from net file: ./train_val.prototxt
I1026 17:35:38.250529 12504 net.cpp:294] The NetState phase (0) differed from the phase (1) specified by a rule in layer data
I1026 17:35:38.250747 12504 net.cpp:51] Initializing net from parameters: 
name: "AlexNet"
state {
  phase: TRAIN
  level: 0
  stage: ""
}
layer {
  name: "data"
  type: "HDF5Data"
  top: "data"
  top: "label"
  include {
    phase: TRAIN
  }
  hdf5_data_param {
    source: "./train.txt"
    batch_size: 256
    shuffle: true
  }
}
layer {
  name: "conv1"
  type: "Convolution"
  bottom: "data"
  top: "conv1"
  param {
    lr_mult: 1
    decay_mult: 1
  }
  param {
    lr_mult: 2
    decay_mult: 0
  }
  convolution_param {
    num_output: 96
    kernel_size: 11
    stride: 4
    weight_filler {
      type: "gaussian"
      std: 0.01
    }
    bias_filler {
      type: "constant"
      value: 0
    }
  }
}
layer {
  name: "relu1"
  type: "ReLU"
  bottom: "conv1"
  top: "conv1"
}
layer {
  name: "norm1"
  type: "LRN"
  bottom: "conv1"
  top: "norm1"
  lrn_param {
    local_size: 5
    alpha: 0.0001
    beta: 0.75
  }
}
layer {
  name: "pool1"
  type: "Pooling"
  bottom: "norm1"
  top: "pool1"
  pooling_param {
    pool: MAX
    kernel_size: 3
    stride: 2
  }
}
layer {
  name: "conv2"
  type: "Convolution"
  bottom: "pool1"
  top: "conv2"
  param {
    lr_mult: 1
    decay_mult: 1
  }
  param {
    lr_mult: 2
    decay_mult: 0
  }
  convolution_param {
    num_output: 256
    pad: 2
    kernel_size: 5
    group: 2
    weight_filler {
      type: "gaussian"
      std: 0.01
    }
    bias_filler {
      type: "constant"
      value: 0.1
    }
  }
}
layer {
  name: "relu2"
  type: "ReLU"
  bottom: "conv2"
  top: "conv2"
}
layer {
  name: "norm2"
  type: "LRN"
  bottom: "conv2"
  top: "norm2"
  lrn_param {
    local_size: 5
    alpha: 0.0001
    beta: 0.75
  }
}
layer {
  name: "pool2"
  type: "Pooling"
  bottom: "norm2"
  top: "pool2"
  pooling_param {
    pool: MAX
    kernel_size: 3
    stride: 2
  }
}
layer {
  name: "conv3"
  type: "Convolution"
  bottom: "pool2"
  top: "conv3"
  param {
    lr_mult: 1
    decay_mult: 1
  }
  param {
    lr_mult: 2
    decay_mult: 0
  }
  convolution_param {
    num_output: 384
    pad: 1
    kernel_size: 3
    weight_filler {
      type: "gaussian"
      std: 0.01
    }
    bias_filler {
      type: "constant"
      value: 0
    }
  }
}
layer {
  name: "relu3"
  type: "ReLU"
  bottom: "conv3"
  top: "conv3"
}
layer {
  name: "conv4"
  type: "Convolution"
  bottom: "conv3"
  top: "conv4"
  param {
    lr_mult: 1
    decay_mult: 1
  }
  param {
    lr_mult: 2
    decay_mult: 0
  }
  convolution_param {
    num_output: 384
    pad: 1
    kernel_size: 3
    group: 2
    weight_filler {
      type: "gaussian"
      std: 0.01
    }
    bias_filler {
      type: "constant"
      value: 0.1
    }
  }
}
layer {
  name: "relu4"
  type: "ReLU"
  bottom: "conv4"
  top: "conv4"
}
layer {
  name: "conv5"
  type: "Convolution"
  bottom: "conv4"
  top: "conv5"
  param {
    lr_mult: 1
    decay_mult: 1
  }
  param {
    lr_mult: 2
    decay_mult: 0
  }
  convolution_param {
    num_output: 256
    pad: 1
    kernel_size: 3
    group: 2
    weight_filler {
      type: "gaussian"
      std: 0.01
    }
    bias_filler {
      type: "constant"
      value: 0.1
    }
  }
}
layer {
  name: "relu5"
  type: "ReLU"
  bottom: "conv5"
  top: "conv5"
}
layer {
  name: "pool5"
  type: "Pooling"
  bottom: "conv5"
  top: "pool5"
  pooling_param {
    pool: MAX
    kernel_size: 3
    stride: 2
  }
}
layer {
  name: "fc6"
  type: "InnerProduct"
  bottom: "pool5"
  top: "fc6"
  param {
    lr_mult: 1
    decay_mult: 1
  }
  param {
    lr_mult: 2
    decay_mult: 0
  }
  inner_product_param {
    num_output: 4096
    weight_filler {
      type: "gaussian"
      std: 0.005
    }
    bias_filler {
      type: "constant"
      value: 0.1
    }
  }
}
layer {
  name: "relu6"
  type: "ReLU"
  bottom: "fc6"
  top: "fc6"
}
layer {
  name: "drop6"
  type: "Dropout"
  bottom: "fc6"
  top: "fc6"
  dropout_param {
    dropout_ratio: 0.5
  }
}
layer {
  name: "fc7"
  type: "InnerProduct"
  bottom: "fc6"
  top: "fc7"
  param {
    lr_mult: 1
    decay_mult: 1
  }
  param {
    lr_mult: 2
    decay_mult: 0
  }
  inner_product_param {
    num_output: 4096
    weight_filler {
      type: "gaussian"
      std: 0.005
    }
    bias_filler {
      type: "constant"
      value: 0.1
    }
  }
}
layer {
  name: "relu7"
  type: "ReLU"
  bottom: "fc7"
  top: "fc7"
}
layer {
  name: "drop7"
  type: "Dropout"
  bottom: "fc7"
  top: "fc7"
  dropout_param {
    dropout_ratio: 0.5
  }
}
layer {
  name: "my-fc8"
  type: "InnerProduct"
  bottom: "fc7"
  top: "my-fc8"
  param {
    lr_mult: 1
    decay_mult: 1
  }
  param {
    lr_mult: 2
    decay_mult: 0
  }
  inner_product_param {
    num_output: 1
    weight_filler {
      type: "gaussian"
      std: 0.01
    }
    bias_filler {
      type: "constant"
      value: 0
    }
  }
}
layer {
  name: "loss"
  type: "EuclideanLoss"
  bottom: "my-fc8"
  bottom: "label"
  top: "loss"
}
I1026 17:35:38.250888 12504 layer_factory.hpp:77] Creating layer data
I1026 17:35:38.250905 12504 net.cpp:84] Creating Layer data
I1026 17:35:38.250912 12504 net.cpp:380] data -> data
I1026 17:35:38.250936 12504 net.cpp:380] data -> label
I1026 17:35:38.250950 12504 hdf5_data_layer.cpp:80] Loading list of HDF5 filenames from: ./train.txt
I1026 17:35:38.251298 12504 hdf5_data_layer.cpp:94] Number of HDF5 files: 1
I1026 17:35:38.253031 12504 hdf5.cpp:32] Datatype class: H5T_FLOAT
I1026 17:35:39.346034 12504 net.cpp:122] Setting up data
I1026 17:35:39.346091 12504 net.cpp:129] Top shape: 256 3 227 227 (39574272)
I1026 17:35:39.346101 12504 net.cpp:129] Top shape: 256 (256)
I1026 17:35:39.346107 12504 net.cpp:137] Memory required for data: 158298112
I1026 17:35:39.346119 12504 layer_factory.hpp:77] Creating layer conv1
I1026 17:35:39.346153 12504 net.cpp:84] Creating Layer conv1
I1026 17:35:39.346184 12504 net.cpp:406] conv1 <- data
I1026 17:35:39.346218 12504 net.cpp:380] conv1 -> conv1
I1026 17:35:39.839126 12504 net.cpp:122] Setting up conv1
I1026 17:35:39.839192 12504 net.cpp:129] Top shape: 256 96 55 55 (74342400)
I1026 17:35:39.839200 12504 net.cpp:137] Memory required for data: 455667712
I1026 17:35:39.839247 12504 layer_factory.hpp:77] Creating layer relu1
I1026 17:35:39.839292 12504 net.cpp:84] Creating Layer relu1
I1026 17:35:39.839309 12504 net.cpp:406] relu1 <- conv1
I1026 17:35:39.839332 12504 net.cpp:367] relu1 -> conv1 (in-place)
I1026 17:35:39.839701 12504 net.cpp:122] Setting up relu1
I1026 17:35:39.839732 12504 net.cpp:129] Top shape: 256 96 55 55 (74342400)
I1026 17:35:39.839748 12504 net.cpp:137] Memory required for data: 753037312
I1026 17:35:39.839761 12504 layer_factory.hpp:77] Creating layer norm1
I1026 17:35:39.839783 12504 net.cpp:84] Creating Layer norm1
I1026 17:35:39.839799 12504 net.cpp:406] norm1 <- conv1
I1026 17:35:39.839817 12504 net.cpp:380] norm1 -> norm1
I1026 17:35:39.840117 12504 net.cpp:122] Setting up norm1
I1026 17:35:39.840127 12504 net.cpp:129] Top shape: 256 96 55 55 (74342400)
I1026 17:35:39.840132 12504 net.cpp:137] Memory required for data: 1050406912
I1026 17:35:39.840137 12504 layer_factory.hpp:77] Creating layer pool1
I1026 17:35:39.840162 12504 net.cpp:84] Creating Layer pool1
I1026 17:35:39.840175 12504 net.cpp:406] pool1 <- norm1
I1026 17:35:39.840191 12504 net.cpp:380] pool1 -> pool1
I1026 17:35:39.840260 12504 net.cpp:122] Setting up pool1
I1026 17:35:39.840276 12504 net.cpp:129] Top shape: 256 96 27 27 (17915904)
I1026 17:35:39.840289 12504 net.cpp:137] Memory required for data: 1122070528
I1026 17:35:39.840333 12504 layer_factory.hpp:77] Creating layer conv2
I1026 17:35:39.840360 12504 net.cpp:84] Creating Layer conv2
I1026 17:35:39.840374 12504 net.cpp:406] conv2 <- pool1
I1026 17:35:39.840395 12504 net.cpp:380] conv2 -> conv2
I1026 17:35:39.848564 12504 net.cpp:122] Setting up conv2
I1026 17:35:39.848616 12504 net.cpp:129] Top shape: 256 256 27 27 (47775744)
I1026 17:35:39.848623 12504 net.cpp:137] Memory required for data: 1313173504
I1026 17:35:39.848652 12504 layer_factory.hpp:77] Creating layer relu2
I1026 17:35:39.848678 12504 net.cpp:84] Creating Layer relu2
I1026 17:35:39.848685 12504 net.cpp:406] relu2 <- conv2
I1026 17:35:39.848696 12504 net.cpp:367] relu2 -> conv2 (in-place)
I1026 17:35:39.848942 12504 net.cpp:122] Setting up relu2
I1026 17:35:39.848963 12504 net.cpp:129] Top shape: 256 256 27 27 (47775744)
I1026 17:35:39.848978 12504 net.cpp:137] Memory required for data: 1504276480
I1026 17:35:39.848994 12504 layer_factory.hpp:77] Creating layer norm2
I1026 17:35:39.849016 12504 net.cpp:84] Creating Layer norm2
I1026 17:35:39.849031 12504 net.cpp:406] norm2 <- conv2
I1026 17:35:39.849048 12504 net.cpp:380] norm2 -> norm2
I1026 17:35:39.849328 12504 net.cpp:122] Setting up norm2
I1026 17:35:39.849349 12504 net.cpp:129] Top shape: 256 256 27 27 (47775744)
I1026 17:35:39.849364 12504 net.cpp:137] Memory required for data: 1695379456
I1026 17:35:39.849378 12504 layer_factory.hpp:77] Creating layer pool2
I1026 17:35:39.849398 12504 net.cpp:84] Creating Layer pool2
I1026 17:35:39.849413 12504 net.cpp:406] pool2 <- norm2
I1026 17:35:39.849432 12504 net.cpp:380] pool2 -> pool2
I1026 17:35:39.849488 12504 net.cpp:122] Setting up pool2
I1026 17:35:39.849509 12504 net.cpp:129] Top shape: 256 256 13 13 (11075584)
I1026 17:35:39.849521 12504 net.cpp:137] Memory required for data: 1739681792
I1026 17:35:39.849535 12504 layer_factory.hpp:77] Creating layer conv3
I1026 17:35:39.849560 12504 net.cpp:84] Creating Layer conv3
I1026 17:35:39.849575 12504 net.cpp:406] conv3 <- pool2
I1026 17:35:39.849592 12504 net.cpp:380] conv3 -> conv3
I1026 17:35:39.870182 12504 net.cpp:122] Setting up conv3
I1026 17:35:39.870239 12504 net.cpp:129] Top shape: 256 384 13 13 (16613376)
I1026 17:35:39.870245 12504 net.cpp:137] Memory required for data: 1806135296
I1026 17:35:39.870270 12504 layer_factory.hpp:77] Creating layer relu3
I1026 17:35:39.870285 12504 net.cpp:84] Creating Layer relu3
I1026 17:35:39.870292 12504 net.cpp:406] relu3 <- conv3
I1026 17:35:39.870304 12504 net.cpp:367] relu3 -> conv3 (in-place)
I1026 17:35:39.870999 12504 net.cpp:122] Setting up relu3
I1026 17:35:39.871014 12504 net.cpp:129] Top shape: 256 384 13 13 (16613376)
I1026 17:35:39.871019 12504 net.cpp:137] Memory required for data: 1872588800
I1026 17:35:39.871024 12504 layer_factory.hpp:77] Creating layer conv4
I1026 17:35:39.871043 12504 net.cpp:84] Creating Layer conv4
I1026 17:35:39.871048 12504 net.cpp:406] conv4 <- conv3
I1026 17:35:39.871057 12504 net.cpp:380] conv4 -> conv4
I1026 17:35:39.891934 12504 net.cpp:122] Setting up conv4
I1026 17:35:39.891971 12504 net.cpp:129] Top shape: 256 384 13 13 (16613376)
I1026 17:35:39.891978 12504 net.cpp:137] Memory required for data: 1939042304
I1026 17:35:39.891993 12504 layer_factory.hpp:77] Creating layer relu4
I1026 17:35:39.892007 12504 net.cpp:84] Creating Layer relu4
I1026 17:35:39.892014 12504 net.cpp:406] relu4 <- conv4
I1026 17:35:39.892024 12504 net.cpp:367] relu4 -> conv4 (in-place)
I1026 17:35:39.893749 12504 net.cpp:122] Setting up relu4
I1026 17:35:39.893764 12504 net.cpp:129] Top shape: 256 384 13 13 (16613376)
I1026 17:35:39.893769 12504 net.cpp:137] Memory required for data: 2005495808
I1026 17:35:39.893774 12504 layer_factory.hpp:77] Creating layer conv5
I1026 17:35:39.893790 12504 net.cpp:84] Creating Layer conv5
I1026 17:35:39.893795 12504 net.cpp:406] conv5 <- conv4
I1026 17:35:39.893805 12504 net.cpp:380] conv5 -> conv5
I1026 17:35:39.907806 12504 net.cpp:122] Setting up conv5
I1026 17:35:39.907847 12504 net.cpp:129] Top shape: 256 256 13 13 (11075584)
I1026 17:35:39.907853 12504 net.cpp:137] Memory required for data: 2049798144
I1026 17:35:39.907914 12504 layer_factory.hpp:77] Creating layer relu5
I1026 17:35:39.907944 12504 net.cpp:84] Creating Layer relu5
I1026 17:35:39.907963 12504 net.cpp:406] relu5 <- conv5
I1026 17:35:39.907989 12504 net.cpp:367] relu5 -> conv5 (in-place)
I1026 17:35:39.908272 12504 net.cpp:122] Setting up relu5
I1026 17:35:39.908293 12504 net.cpp:129] Top shape: 256 256 13 13 (11075584)
I1026 17:35:39.908306 12504 net.cpp:137] Memory required for data: 2094100480
I1026 17:35:39.908320 12504 layer_factory.hpp:77] Creating layer pool5
I1026 17:35:39.908339 12504 net.cpp:84] Creating Layer pool5
I1026 17:35:39.908354 12504 net.cpp:406] pool5 <- conv5
I1026 17:35:39.908375 12504 net.cpp:380] pool5 -> pool5
I1026 17:35:39.908447 12504 net.cpp:122] Setting up pool5
I1026 17:35:39.908468 12504 net.cpp:129] Top shape: 256 256 6 6 (2359296)
I1026 17:35:39.908483 12504 net.cpp:137] Memory required for data: 2103537664
I1026 17:35:39.908496 12504 layer_factory.hpp:77] Creating layer fc6
I1026 17:35:39.908524 12504 net.cpp:84] Creating Layer fc6
I1026 17:35:39.908538 12504 net.cpp:406] fc6 <- pool5
I1026 17:35:39.908555 12504 net.cpp:380] fc6 -> fc6
I1026 17:35:40.425734 12504 net.cpp:122] Setting up fc6
I1026 17:35:40.425776 12504 net.cpp:129] Top shape: 256 4096 (1048576)
I1026 17:35:40.425782 12504 net.cpp:137] Memory required for data: 2107731968
I1026 17:35:40.425801 12504 layer_factory.hpp:77] Creating layer relu6
I1026 17:35:40.425814 12504 net.cpp:84] Creating Layer relu6
I1026 17:35:40.425824 12504 net.cpp:406] relu6 <- fc6
I1026 17:35:40.425837 12504 net.cpp:367] relu6 -> fc6 (in-place)
I1026 17:35:40.426158 12504 net.cpp:122] Setting up relu6
I1026 17:35:40.426180 12504 net.cpp:129] Top shape: 256 4096 (1048576)
I1026 17:35:40.426194 12504 net.cpp:137] Memory required for data: 2111926272
I1026 17:35:40.426208 12504 layer_factory.hpp:77] Creating layer drop6
I1026 17:35:40.426226 12504 net.cpp:84] Creating Layer drop6
I1026 17:35:40.426240 12504 net.cpp:406] drop6 <- fc6
I1026 17:35:40.426259 12504 net.cpp:367] drop6 -> fc6 (in-place)
I1026 17:35:40.426296 12504 net.cpp:122] Setting up drop6
I1026 17:35:40.426312 12504 net.cpp:129] Top shape: 256 4096 (1048576)
I1026 17:35:40.426324 12504 net.cpp:137] Memory required for data: 2116120576
I1026 17:35:40.426337 12504 layer_factory.hpp:77] Creating layer fc7
I1026 17:35:40.426360 12504 net.cpp:84] Creating Layer fc7
I1026 17:35:40.426374 12504 net.cpp:406] fc7 <- fc6
I1026 17:35:40.426390 12504 net.cpp:380] fc7 -> fc7
I1026 17:35:40.659487 12504 net.cpp:122] Setting up fc7
I1026 17:35:40.659546 12504 net.cpp:129] Top shape: 256 4096 (1048576)
I1026 17:35:40.659552 12504 net.cpp:137] Memory required for data: 2120314880
I1026 17:35:40.659569 12504 layer_factory.hpp:77] Creating layer relu7
I1026 17:35:40.659586 12504 net.cpp:84] Creating Layer relu7
I1026 17:35:40.659593 12504 net.cpp:406] relu7 <- fc7
I1026 17:35:40.659605 12504 net.cpp:367] relu7 -> fc7 (in-place)
I1026 17:35:40.659934 12504 net.cpp:122] Setting up relu7
I1026 17:35:40.659943 12504 net.cpp:129] Top shape: 256 4096 (1048576)
I1026 17:35:40.659948 12504 net.cpp:137] Memory required for data: 2124509184
I1026 17:35:40.659952 12504 layer_factory.hpp:77] Creating layer drop7
I1026 17:35:40.659966 12504 net.cpp:84] Creating Layer drop7
I1026 17:35:40.659973 12504 net.cpp:406] drop7 <- fc7
I1026 17:35:40.659981 12504 net.cpp:367] drop7 -> fc7 (in-place)
I1026 17:35:40.660004 12504 net.cpp:122] Setting up drop7
I1026 17:35:40.660012 12504 net.cpp:129] Top shape: 256 4096 (1048576)
I1026 17:35:40.660017 12504 net.cpp:137] Memory required for data: 2128703488
I1026 17:35:40.660022 12504 layer_factory.hpp:77] Creating layer my-fc8
I1026 17:35:40.660032 12504 net.cpp:84] Creating Layer my-fc8
I1026 17:35:40.660038 12504 net.cpp:406] my-fc8 <- fc7
I1026 17:35:40.660048 12504 net.cpp:380] my-fc8 -> my-fc8
I1026 17:35:40.660220 12504 net.cpp:122] Setting up my-fc8
I1026 17:35:40.660228 12504 net.cpp:129] Top shape: 256 1 (256)
I1026 17:35:40.660233 12504 net.cpp:137] Memory required for data: 2128704512
I1026 17:35:40.660259 12504 layer_factory.hpp:77] Creating layer loss
I1026 17:35:40.660267 12504 net.cpp:84] Creating Layer loss
I1026 17:35:40.660274 12504 net.cpp:406] loss <- my-fc8
I1026 17:35:40.660279 12504 net.cpp:406] loss <- label
I1026 17:35:40.660293 12504 net.cpp:380] loss -> loss
I1026 17:35:40.660336 12504 net.cpp:122] Setting up loss
…
I1026 17:35:40.660523 12504 net.cpp:255] Network initialization done.
I1026 17:35:40.660863 12504 solver.cpp:172] Creating test net (#0) specified by net file: ./train_val.prototxt
I1026 17:35:40.660899 12504 net.cpp:294] The NetState phase (1) differed from the phase (0) specified by a rule in layer data
I1026 17:35:40.661103 12504 net.cpp:51] Initializing net from parameters: 
name: "AlexNet"
state {
  phase: TEST
}
layer {
  name: "data"
  type: "HDF5Data"
  top: "data"
  top: "label"
  include {
    phase: TEST
  }
  hdf5_data_param {
    source: "./test.txt"
    batch_size: 128
  }
}
layer {
  name: "conv1"
  type: "Convolution"
  bottom: "data"
  top: "conv1"
  param {
    lr_mult: 1
    decay_mult: 1
  }
  param {
    lr_mult: 2
    decay_mult: 0
  }
  convolution_param {
    num_output: 96
    kernel_size: 11
    stride: 4
    weight_filler {
      type: "gaussian"
      std: 0.01
    }
    bias_filler {
      type: "constant"
      value: 0
    }
  }
}
layer {
  name: "relu1"
  type: "ReLU"
  bottom: "conv1"
  top: "conv1"
}
layer {
  name: "norm1"
  type: "LRN"
  bottom: "conv1"
  top: "norm1"
  lrn_param {
    local_size: 5
    alpha: 0.0001
    beta: 0.75
  }
}
layer {
  name: "pool1"
  type: "Pooling"
  bottom: "norm1"
  top: "pool1"
  pooling_param {
    pool: MAX
    kernel_size: 3
    stride: 2
  }
}
layer {
  name: "conv2"
  type: "Convolution"
  bottom: "pool1"
  top: "conv2"
  param {
    lr_mult: 1
    decay_mult: 1
  }
  param {
    lr_mult: 2
    decay_mult: 0
  }
  convolution_param {
    num_output: 256
    pad: 2
    kernel_size: 5
    group: 2
    weight_filler {
      type: "gaussian"
      std: 0.01
    }
    bias_filler {
      type: "constant"
      value: 0.1
    }
  }
}
layer {
  name: "relu2"
  type: "ReLU"
  bottom: "conv2"
  top: "conv2"
}
layer {
  name: "norm2"
  type: "LRN"
  bottom: "conv2"
  top: "norm2"
  lrn_param {
    local_size: 5
    alpha: 0.0001
    beta: 0.75
  }
}
layer {
  name: "pool2"
  type: "Pooling"
  bottom: "norm2"
  top: "pool2"
  pooling_param {
    pool: MAX
    kernel_size: 3
    stride: 2
  }
}
layer {
  name: "conv3"
  type: "Convolution"
  bottom: "pool2"
  top: "conv3"
  param {
    lr_mult: 1
    decay_mult: 1
  }
  param {
    lr_mult: 2
    decay_mult: 0
  }
  convolution_param {
    num_output: 384
    pad: 1
    kernel_size: 3
    weight_filler {
      type: "gaussian"
      std: 0.01
    }
    bias_filler {
      type: "constant"
      value: 0
    }
  }
}
layer {
  name: "relu3"
  type: "ReLU"
  bottom: "conv3"
  top: "conv3"
}
layer {
  name: "conv4"
  type: "Convolution"
  bottom: "conv3"
  top: "conv4"
  param {
    lr_mult: 1
    decay_mult: 1
  }
  param {
    lr_mult: 2
    decay_mult: 0
  }
  convolution_param {
    num_output: 384
    pad: 1
    kernel_size: 3
    group: 2
    weight_filler {
      type: "gaussian"
      std: 0.01
    }
    bias_filler {
      type: "constant"
      value: 0.1
    }
  }
}
layer {
  name: "relu4"
  type: "ReLU"
  bottom: "conv4"
  top: "conv4"
}
layer {
  name: "conv5"
  type: "Convolution"
  bottom: "conv4"
  top: "conv5"
  param {
    lr_mult: 1
    decay_mult: 1
  }
  param {
    lr_mult: 2
    decay_mult: 0
  }
  convolution_param {
    num_output: 256
    pad: 1
    kernel_size: 3
    group: 2
    weight_filler {
      type: "gaussian"
      std: 0.01
    }
    bias_filler {
      type: "constant"
      value: 0.1
    }
  }
}
layer {
  name: "relu5"
  type: "ReLU"
  bottom: "conv5"
  top: "conv5"
}
layer {
  name: "pool5"
  type: "Pooling"
  bottom: "conv5"
  top: "pool5"
  pooling_param {
    pool: MAX
    kernel_size: 3
    stride: 2
  }
}
layer {
  name: "fc6"
  type: "InnerProduct"
  bottom: "pool5"
  top: "fc6"
  param {
    lr_mult: 1
    decay_mult: 1
  }
  param {
    lr_mult: 2
    decay_mult: 0
  }
  inner_product_param {
    num_output: 4096
    weight_filler {
      type: "gaussian"
      std: 0.005
    }
    bias_filler {
      type: "constant"
      value: 0.1
    }
  }
}
layer {
  name: "relu6"
  type: "ReLU"
  bottom: "fc6"
  top: "fc6"
}
layer {
  name: "drop6"
  type: "Dropout"
  bottom: "fc6"
  top: "fc6"
  dropout_param {
    dropout_ratio: 0.5
  }
}
layer {
  name: "fc7"
  type: "InnerProduct"
  bottom: "fc6"
  top: "fc7"
  param {
    lr_mult: 1
    decay_mult: 1
  }
  param {
    lr_mult: 2
    decay_mult: 0
  }
  inner_product_param {
    num_output: 4096
    weight_filler {
      type: "gaussian"
      std: 0.005
    }
    bias_filler {
      type: "constant"
      value: 0.1
    }
  }
}
layer {
  name: "relu7"
  type: "ReLU"
  bottom: "fc7"
  top: "fc7"
}
layer {
  name: "drop7"
  type: "Dropout"
  bottom: "fc7"
  top: "fc7"
  dropout_param {
    dropout_ratio: 0.5
  }
}
layer {
  name: "my-fc8"
  type: "InnerProduct"
  bottom: "fc7"
  top: "my-fc8"
  param {
    lr_mult: 1
    decay_mult: 1
  }
  param {
    lr_mult: 2
    decay_mult: 0
  }
  inner_product_param {
    num_output: 1
    weight_filler {
      type: "gaussian"
      std: 0.01
    }
    bias_filler {
      type: "constant"
      value: 0
    }
  }
}
layer {
  name: "loss"
  type: "EuclideanLoss"
  bottom: "my-fc8"
  bottom: "label"
  top: "loss"
}
I1026 17:35:40.661190 12504 layer_factory.hpp:77] Creating layer data
I1026 17:35:40.661200 12504 net.cpp:84] Creating Layer data
I1026 17:35:40.661204 12504 net.cpp:380] data -> data
I1026 17:35:40.661213 12504 net.cpp:380] data -> label
I1026 17:35:40.661221 12504 hdf5_data_layer.cpp:80] Loading list of HDF5 filenames from: ./test.txt
I1026 17:35:40.661553 12504 hdf5_data_layer.cpp:94] Number of HDF5 files: 1
I1026 17:35:41.184741 12504 net.cpp:122] Setting up data
I1026 17:35:41.184800 12504 net.cpp:129] Top shape: 128 3 227 227 (19787136)
I1026 17:35:41.184810 12504 net.cpp:129] Top shape: 128 (128)
I1026 17:35:41.184859 12504 net.cpp:137] Memory required for data: 79149056
I1026 17:35:41.184871 12504 layer_factory.hpp:77] Creating layer conv1
I1026 17:35:41.184904 12504 net.cpp:84] Creating Layer conv1
I1026 17:35:41.184940 12504 net.cpp:406] conv1 <- data
I1026 17:35:41.184955 12504 net.cpp:380] conv1 -> conv1
I1026 17:35:41.190289 12504 net.cpp:122] Setting up conv1
I1026 17:35:41.190312 12504 net.cpp:129] Top shape: 128 96 55 55 (37171200)
I1026 17:35:41.190320 12504 net.cpp:137] Memory required for data: 227833856
I1026 17:35:41.190343 12504 layer_factory.hpp:77] Creating layer relu1
I1026 17:35:41.190358 12504 net.cpp:84] Creating Layer relu1
I1026 17:35:41.190366 12504 net.cpp:406] relu1 <- conv1
I1026 17:35:41.190376 12504 net.cpp:367] relu1 -> conv1 (in-place)
I1026 17:35:41.192356 12504 net.cpp:122] Setting up relu1
I1026 17:35:41.192368 12504 net.cpp:129] Top shape: 128 96 55 55 (37171200)
I1026 17:35:41.192373 12504 net.cpp:137] Memory required for data: 376518656
I1026 17:35:41.192379 12504 layer_factory.hpp:77] Creating layer norm1
I1026 17:35:41.192391 12504 net.cpp:84] Creating Layer norm1
I1026 17:35:41.192396 12504 net.cpp:406] norm1 <- conv1
I1026 17:35:41.192404 12504 net.cpp:380] norm1 -> norm1
I1026 17:35:41.194653 12504 net.cpp:122] Setting up norm1
I1026 17:35:41.194669 12504 net.cpp:129] Top shape: 128 96 55 55 (37171200)
I1026 17:35:41.194674 12504 net.cpp:137] Memory required for data: 525203456
I1026 17:35:41.194680 12504 layer_factory.hpp:77] Creating layer pool1
I1026 17:35:41.194692 12504 net.cpp:84] Creating Layer pool1
I1026 17:35:41.194699 12504 net.cpp:406] pool1 <- norm1
I1026 17:35:41.194706 12504 net.cpp:380] pool1 -> pool1
I1026 17:35:41.194758 12504 net.cpp:122] Setting up pool1
I1026 17:35:41.194768 12504 net.cpp:129] Top shape: 128 96 27 27 (8957952)
I1026 17:35:41.194773 12504 net.cpp:137] Memory required for data: 561035264
I1026 17:35:41.194778 12504 layer_factory.hpp:77] Creating layer conv2
I1026 17:35:41.194795 12504 net.cpp:84] Creating Layer conv2
I1026 17:35:41.194800 12504 net.cpp:406] conv2 <- pool1
I1026 17:35:41.194808 12504 net.cpp:380] conv2 -> conv2
I1026 17:35:41.212970 12504 net.cpp:122] Setting up conv2
I1026 17:35:41.213012 12504 net.cpp:129] Top shape: 128 256 27 27 (23887872)
I1026 17:35:41.213017 12504 net.cpp:137] Memory required for data: 656586752
I1026 17:35:41.213039 12504 layer_factory.hpp:77] Creating layer relu2
I1026 17:35:41.213085 12504 net.cpp:84] Creating Layer relu2
I1026 17:35:41.213101 12504 net.cpp:406] relu2 <- conv2
I1026 17:35:41.213122 12504 net.cpp:367] relu2 -> conv2 (in-place)
I1026 17:35:41.215512 12504 net.cpp:122] Setting up relu2
I1026 17:35:41.215523 12504 net.cpp:129] Top shape: 128 256 27 27 (23887872)
I1026 17:35:41.215528 12504 net.cpp:137] Memory required for data: 752138240
I1026 17:35:41.215531 12504 layer_factory.hpp:77] Creating layer norm2
I1026 17:35:41.215541 12504 net.cpp:84] Creating Layer norm2
I1026 17:35:41.215546 12504 net.cpp:406] norm2 <- conv2
I1026 17:35:41.215555 12504 net.cpp:380] norm2 -> norm2
I1026 17:35:41.217885 12504 net.cpp:122] Setting up norm2
I1026 17:35:41.217896 12504 net.cpp:129] Top shape: 128 256 27 27 (23887872)
I1026 17:35:41.217901 12504 net.cpp:137] Memory required for data: 847689728
I1026 17:35:41.217906 12504 layer_factory.hpp:77] Creating layer pool2
I1026 17:35:41.217921 12504 net.cpp:84] Creating Layer pool2
I1026 17:35:41.217926 12504 net.cpp:406] pool2 <- norm2
I1026 17:35:41.217932 12504 net.cpp:380] pool2 -> pool2
I1026 17:35:41.217980 12504 net.cpp:122] Setting up pool2
I1026 17:35:41.217998 12504 net.cpp:129] Top shape: 128 256 13 13 (5537792)
I1026 17:35:41.218013 12504 net.cpp:137] Memory required for data: 869840896
I1026 17:35:41.218026 12504 layer_factory.hpp:77] Creating layer conv3
I1026 17:35:41.218050 12504 net.cpp:84] Creating Layer conv3
I1026 17:35:41.218065 12504 net.cpp:406] conv3 <- pool2
I1026 17:35:41.218083 12504 net.cpp:380] conv3 -> conv3
I1026 17:35:41.234179 12504 net.cpp:122] Setting up conv3
I1026 17:35:41.234213 12504 net.cpp:129] Top shape: 128 384 13 13 (8306688)
I1026 17:35:41.234251 12504 net.cpp:137] Memory required for data: 903067648
I1026 17:35:41.234273 12504 layer_factory.hpp:77] Creating layer relu3
I1026 17:35:41.234302 12504 net.cpp:84] Creating Layer relu3
I1026 17:35:41.234318 12504 net.cpp:406] relu3 <- conv3
I1026 17:35:41.234339 12504 net.cpp:367] relu3 -> conv3 (in-place)
I1026 17:35:41.234594 12504 net.cpp:122] Setting up relu3
I1026 17:35:41.234612 12504 net.cpp:129] Top shape: 128 384 13 13 (8306688)
I1026 17:35:41.234627 12504 net.cpp:137] Memory required for data: 936294400
I1026 17:35:41.234640 12504 layer_factory.hpp:77] Creating layer conv4
I1026 17:35:41.234664 12504 net.cpp:84] Creating Layer conv4
I1026 17:35:41.234678 12504 net.cpp:406] conv4 <- conv3
I1026 17:35:41.234699 12504 net.cpp:380] conv4 -> conv4
I1026 17:35:41.248610 12504 net.cpp:122] Setting up conv4
I1026 17:35:41.248658 12504 net.cpp:129] Top shape: 128 384 13 13 (8306688)
I1026 17:35:41.248662 12504 net.cpp:137] Memory required for data: 969521152
I1026 17:35:41.248682 12504 layer_factory.hpp:77] Creating layer relu4
I1026 17:35:41.248703 12504 net.cpp:84] Creating Layer relu4
I1026 17:35:41.248709 12504 net.cpp:406] relu4 <- conv4
I1026 17:35:41.248723 12504 net.cpp:367] relu4 -> conv4 (in-place)
I1026 17:35:41.248996 12504 net.cpp:122] Setting up relu4
I1026 17:35:41.249018 12504 net.cpp:129] Top shape: 128 384 13 13 (8306688)
I1026 17:35:41.249032 12504 net.cpp:137] Memory required for data: 1002747904
I1026 17:35:41.249047 12504 layer_factory.hpp:77] Creating layer conv5
I1026 17:35:41.249078 12504 net.cpp:84] Creating Layer conv5
I1026 17:35:41.249094 12504 net.cpp:406] conv5 <- conv4
I1026 17:35:41.249114 12504 net.cpp:380] conv5 -> conv5
I1026 17:35:41.268386 12504 net.cpp:122] Setting up conv5
I1026 17:35:41.268437 12504 net.cpp:129] Top shape: 128 256 13 13 (5537792)
I1026 17:35:41.268442 12504 net.cpp:137] Memory required for data: 1024899072
I1026 17:35:41.268470 12504 layer_factory.hpp:77] Creating layer relu5
I1026 17:35:41.268486 12504 net.cpp:84] Creating Layer relu5
I1026 17:35:41.268492 12504 net.cpp:406] relu5 <- conv5
I1026 17:35:41.268503 12504 net.cpp:367] relu5 -> conv5 (in-place)
I1026 17:35:41.268839 12504 net.cpp:122] Setting up relu5
I1026 17:35:41.268864 12504 net.cpp:129] Top shape: 128 256 13 13 (5537792)
I1026 17:35:41.268880 12504 net.cpp:137] Memory required for data: 1047050240
I1026 17:35:41.268895 12504 layer_factory.hpp:77] Creating layer pool5
I1026 17:35:41.268913 12504 net.cpp:84] Creating Layer pool5
I1026 17:35:41.268927 12504 net.cpp:406] pool5 <- conv5
I1026 17:35:41.268944 12504 net.cpp:380] pool5 -> pool5
I1026 17:35:41.269032 12504 net.cpp:122] Setting up pool5
I1026 17:35:41.269048 12504 net.cpp:129] Top shape: 128 256 6 6 (1179648)
I1026 17:35:41.269062 12504 net.cpp:137] Memory required for data: 1051768832
I1026 17:35:41.269075 12504 layer_factory.hpp:77] Creating layer fc6
I1026 17:35:41.269101 12504 net.cpp:84] Creating Layer fc6
I1026 17:35:41.269115 12504 net.cpp:406] fc6 <- pool5
I1026 17:35:41.269134 12504 net.cpp:380] fc6 -> fc6
I1026 17:35:41.791517 12504 net.cpp:122] Setting up fc6
I1026 17:35:41.791573 12504 net.cpp:129] Top shape: 128 4096 (524288)
I1026 17:35:41.791579 12504 net.cpp:137] Memory required for data: 1053865984
I1026 17:35:41.791596 12504 layer_factory.hpp:77] Creating layer relu6
I1026 17:35:41.791615 12504 net.cpp:84] Creating Layer relu6
I1026 17:35:41.791643 12504 net.cpp:406] relu6 <- fc6
I1026 17:35:41.791664 12504 net.cpp:367] relu6 -> fc6 (in-place)
I1026 17:35:41.792582 12504 net.cpp:122] Setting up relu6
I1026 17:35:41.792596 12504 net.cpp:129] Top shape: 128 4096 (524288)
I1026 17:35:41.792601 12504 net.cpp:137] Memory required for data: 1055963136
I1026 17:35:41.792606 12504 layer_factory.hpp:77] Creating layer drop6
I1026 17:35:41.792616 12504 net.cpp:84] Creating Layer drop6
I1026 17:35:41.792623 12504 net.cpp:406] drop6 <- fc6
I1026 17:35:41.792632 12504 net.cpp:367] drop6 -> fc6 (in-place)
I1026 17:35:41.792690 12504 net.cpp:122] Setting up drop6
I1026 17:35:41.792721 12504 net.cpp:129] Top shape: 128 4096 (524288)
I1026 17:35:41.792733 12504 net.cpp:137] Memory required for data: 1058060288
I1026 17:35:41.792747 12504 layer_factory.hpp:77] Creating layer fc7
I1026 17:35:41.792764 12504 net.cpp:84] Creating Layer fc7
I1026 17:35:41.792778 12504 net.cpp:406] fc7 <- fc6
I1026 17:35:41.792794 12504 net.cpp:380] fc7 -> fc7
I1026 17:35:42.024538 12504 net.cpp:122] Setting up fc7
I1026 17:35:42.024597 12504 net.cpp:129] Top shape: 128 4096 (524288)
I1026 17:35:42.024603 12504 net.cpp:137] Memory required for data: 1060157440
I1026 17:35:42.024621 12504 layer_factory.hpp:77] Creating layer relu7
I1026 17:35:42.024639 12504 net.cpp:84] Creating Layer relu7
I1026 17:35:42.024663 12504 net.cpp:406] relu7 <- fc7
I1026 17:35:42.024686 12504 net.cpp:367] relu7 -> fc7 (in-place)
I1026 17:35:42.025049 12504 net.cpp:122] Setting up relu7
I1026 17:35:42.025070 12504 net.cpp:129] Top shape: 128 4096 (524288)
I1026 17:35:42.025085 12504 net.cpp:137] Memory required for data: 1062254592
I1026 17:35:42.025101 12504 layer_factory.hpp:77] Creating layer drop7
I1026 17:35:42.025122 12504 net.cpp:84] Creating Layer drop7
I1026 17:35:42.025137 12504 net.cpp:406] drop7 <- fc7
I1026 17:35:42.025156 12504 net.cpp:367] drop7 -> fc7 (in-place)
I1026 17:35:42.025192 12504 net.cpp:122] Setting up drop7
I1026 17:35:42.025210 12504 net.cpp:129] Top shape: 128 4096 (524288)
I1026 17:35:42.025224 12504 net.cpp:137] Memory required for data: 1064351744
I1026 17:35:42.025238 12504 layer_factory.hpp:77] Creating layer my-fc8
I1026 17:35:42.025257 12504 net.cpp:84] Creating Layer my-fc8
I1026 17:35:42.025271 12504 net.cpp:406] my-fc8 <- fc7
I1026 17:35:42.025290 12504 net.cpp:380] my-fc8 -> my-fc8
I1026 17:35:42.025487 12504 net.cpp:122] Setting up my-fc8
I1026 17:35:42.025506 12504 net.cpp:129] Top shape: 128 1 (128)
I1026 17:35:42.025518 12504 net.cpp:137] Memory required for data: 1064352256
I1026 17:35:42.025537 12504 layer_factory.hpp:77] Creating layer loss
I1026 17:35:42.025555 12504 net.cpp:84] Creating Layer loss
I1026 17:35:42.025568 12504 net.cpp:406] loss <- my-fc8
I1026 17:35:42.025583 12504 net.cpp:406] loss <- label
I1026 17:35:42.025599 12504 net.cpp:380] loss -> loss
I1026 17:35:42.025652 12504 net.cpp:122] Setting up loss
…
