…
  stage: ""
}
I0806 16:30:08.871690 26646 solver.cpp:87] Creating training net from net file: ./train_val.prototxt
I0806 16:30:08.872440 26646 net.cpp:294] The NetState phase (0) differed from the phase (1) specified by a rule in layer data
I0806 16:30:08.872730 26646 net.cpp:51] Initializing net from parameters: 
name: "AlexNet"
state {
  phase: TRAIN
  level: 0
  stage: ""
}
layer {
  name: "data"
  type: "HDF5Data"
  top: "data"
  top: "label"
  include {
    phase: TRAIN
  }
  hdf5_data_param {
    source: "../train_h5.txt"
    batch_size: 120
  }
}
layer {
  name: "conv1"
  type: "Convolution"
  bottom: "data"
  top: "conv1"
  param {
    lr_mult: 1
    decay_mult: 1
  }
  param {
    lr_mult: 2
    decay_mult: 0
  }
  convolution_param {
    num_output: 96
    kernel_size: 11
    stride: 4
    weight_filler {
      type: "gaussian"
      std: 0.01
    }
    bias_filler {
      type: "constant"
      value: 0
    }
  }
}
layer {
  name: "relu1"
  type: "ReLU"
  bottom: "conv1"
  top: "conv1"
}
layer {
  name: "norm1"
  type: "LRN"
  bottom: "conv1"
  top: "norm1"
  lrn_param {
    local_size: 5
    alpha: 0.0001
    beta: 0.75
  }
}
layer {
  name: "pool1"
  type: "Pooling"
  bottom: "norm1"
  top: "pool1"
  pooling_param {
    pool: MAX
    kernel_size: 3
    stride: 2
  }
}
layer {
  name: "conv2"
  type: "Convolution"
  bottom: "pool1"
  top: "conv2"
  param {
    lr_mult: 1
    decay_mult: 1
  }
  param {
    lr_mult: 2
    decay_mult: 0
  }
  convolution_param {
    num_output: 256
    pad: 2
    kernel_size: 5
    group: 2
    weight_filler {
      type: "gaussian"
      std: 0.01
    }
    bias_filler {
      type: "constant"
      value: 0.1
    }
  }
}
layer {
  name: "relu2"
  type: "ReLU"
  bottom: "conv2"
  top: "conv2"
}
layer {
  name: "norm2"
  type: "LRN"
  bottom: "conv2"
  top: "norm2"
  lrn_param {
    local_size: 5
    alpha: 0.0001
    beta: 0.75
  }
}
layer {
  name: "pool2"
  type: "Pooling"
  bottom: "norm2"
  top: "pool2"
  pooling_param {
    pool: MAX
    kernel_size: 3
    stride: 2
  }
}
layer {
  name: "conv3"
  type: "Convolution"
  bottom: "pool2"
  top: "conv3"
  param {
    lr_mult: 1
    decay_mult: 1
  }
  param {
    lr_mult: 2
    decay_mult: 0
  }
  convolution_param {
    num_output: 384
    pad: 1
    kernel_size: 3
    weight_filler {
      type: "gaussian"
      std: 0.01
    }
    bias_filler {
      type: "constant"
      value: 0
    }
  }
}
layer {
  name: "relu3"
  type: "ReLU"
  bottom: "conv3"
  top: "conv3"
}
layer {
  name: "conv4"
  type: "Convolution"
  bottom: "conv3"
  top: "conv4"
  param {
    lr_mult: 1
    decay_mult: 1
  }
  param {
    lr_mult: 2
    decay_mult: 0
  }
  convolution_param {
    num_output: 384
    pad: 1
    kernel_size: 3
    group: 2
    weight_filler {
      type: "gaussian"
      std: 0.01
    }
    bias_filler {
      type: "constant"
      value: 0.1
    }
  }
}
layer {
  name: "relu4"
  type: "ReLU"
  bottom: "conv4"
  top: "conv4"
}
layer {
  name: "conv5"
  type: "Convolution"
  bottom: "conv4"
  top: "conv5"
  param {
    lr_mult: 1
    decay_mult: 1
  }
  param {
    lr_mult: 2
    decay_mult: 0
  }
  convolution_param {
    num_output: 256
    pad: 1
    kernel_size: 3
    group: 2
    weight_filler {
      type: "gaussian"
      std: 0.01
    }
    bias_filler {
      type: "constant"
      value: 0.1
    }
  }
}
layer {
  name: "relu5"
  type: "ReLU"
  bottom: "conv5"
  top: "conv5"
}
layer {
  name: "pool5"
  type: "Pooling"
  bottom: "conv5"
  top: "pool5"
  pooling_param {
    pool: MAX
    kernel_size: 3
    stride: 2
  }
}
layer {
  name: "fc6"
  type: "InnerProduct"
  bottom: "pool5"
  top: "fc6"
  param {
    lr_mult: 1
    decay_mult: 1
  }
  param {
    lr_mult: 2
    decay_mult: 0
  }
  inner_product_param {
    num_output: 4096
    weight_filler {
      type: "gaussian"
      std: 0.005
    }
    bias_filler {
      type: "constant"
      value: 0.1
    }
  }
}
layer {
  name: "relu6"
  type: "ReLU"
  bottom: "fc6"
  top: "fc6"
}
layer {
  name: "drop6"
  type: "Dropout"
  bottom: "fc6"
  top: "fc6"
  dropout_param {
    dropout_ratio: 0.5
  }
}
layer {
  name: "fc7"
  type: "InnerProduct"
  bottom: "fc6"
  top: "fc7"
  param {
    lr_mult: 1
    decay_mult: 1
  }
  param {
    lr_mult: 2
    decay_mult: 0
  }
  inner_product_param {
    num_output: 4096
    weight_filler {
      type: "gaussian"
      std: 0.005
    }
    bias_filler {
      type: "constant"
      value: 0.1
    }
  }
}
layer {
  name: "relu7"
  type: "ReLU"
  bottom: "fc7"
  top: "fc7"
}
layer {
  name: "drop7"
  type: "Dropout"
  bottom: "fc7"
  top: "fc7"
  dropout_param {
    dropout_ratio: 0.5
  }
}
layer {
  name: "my-fc8"
  type: "InnerProduct"
  bottom: "fc7"
  top: "my-fc8"
  param {
    lr_mult: 1
    decay_mult: 1
  }
  param {
    lr_mult: 2
    decay_mult: 0
  }
  inner_product_param {
    num_output: 1
    weight_filler {
      type: "gaussian"
      std: 0.01
    }
    bias_filler {
      type: "constant"
      value: 0
    }
  }
}
layer {
  name: "loss"
  type: "EuclideanLoss"
  bottom: "my-fc8"
  bottom: "label"
  top: "loss"
}
I0806 16:30:08.872915 26646 layer_factory.hpp:77] Creating layer data
I0806 16:30:08.872961 26646 net.cpp:84] Creating Layer data
I0806 16:30:08.872975 26646 net.cpp:380] data -> data
I0806 16:30:08.873025 26646 net.cpp:380] data -> label
I0806 16:30:08.873046 26646 hdf5_data_layer.cpp:80] Loading list of HDF5 filenames from: ../train_h5.txt
I0806 16:30:08.873090 26646 hdf5_data_layer.cpp:94] Number of HDF5 files: 1
I0806 16:30:08.874249 26646 hdf5.cpp:32] Datatype class: H5T_FLOAT
I0806 16:30:09.560160 26646 net.cpp:122] Setting up data
I0806 16:30:09.560240 26646 net.cpp:129] Top shape: 120 3 227 227 (18550440)
I0806 16:30:09.560256 26646 net.cpp:129] Top shape: 120 (120)
I0806 16:30:09.560266 26646 net.cpp:137] Memory required for data: 74202240
I0806 16:30:09.560281 26646 layer_factory.hpp:77] Creating layer conv1
I0806 16:30:09.560328 26646 net.cpp:84] Creating Layer conv1
I0806 16:30:09.560343 26646 net.cpp:406] conv1 <- data
I0806 16:30:09.560369 26646 net.cpp:380] conv1 -> conv1
I0806 16:30:10.122448 26646 net.cpp:122] Setting up conv1
I0806 16:30:10.122524 26646 net.cpp:129] Top shape: 120 96 55 55 (34848000)
I0806 16:30:10.122534 26646 net.cpp:137] Memory required for data: 213594240
I0806 16:30:10.122567 26646 layer_factory.hpp:77] Creating layer relu1
I0806 16:30:10.122594 26646 net.cpp:84] Creating Layer relu1
I0806 16:30:10.122603 26646 net.cpp:406] relu1 <- conv1
I0806 16:30:10.122617 26646 net.cpp:367] relu1 -> conv1 (in-place)
I0806 16:30:10.123071 26646 net.cpp:122] Setting up relu1
I0806 16:30:10.123092 26646 net.cpp:129] Top shape: 120 96 55 55 (34848000)
I0806 16:30:10.123100 26646 net.cpp:137] Memory required for data: 352986240
I0806 16:30:10.123106 26646 layer_factory.hpp:77] Creating layer norm1
I0806 16:30:10.123126 26646 net.cpp:84] Creating Layer norm1
I0806 16:30:10.123133 26646 net.cpp:406] norm1 <- conv1
I0806 16:30:10.123143 26646 net.cpp:380] norm1 -> norm1
I0806 16:30:10.123610 26646 net.cpp:122] Setting up norm1
I0806 16:30:10.123633 26646 net.cpp:129] Top shape: 120 96 55 55 (34848000)
I0806 16:30:10.123641 26646 net.cpp:137] Memory required for data: 492378240
I0806 16:30:10.123647 26646 layer_factory.hpp:77] Creating layer pool1
I0806 16:30:10.123662 26646 net.cpp:84] Creating Layer pool1
I0806 16:30:10.123670 26646 net.cpp:406] pool1 <- norm1
I0806 16:30:10.123679 26646 net.cpp:380] pool1 -> pool1
I0806 16:30:10.123752 26646 net.cpp:122] Setting up pool1
I0806 16:30:10.123770 26646 net.cpp:129] Top shape: 120 96 27 27 (8398080)
I0806 16:30:10.123777 26646 net.cpp:137] Memory required for data: 525970560
I0806 16:30:10.123793 26646 layer_factory.hpp:77] Creating layer conv2
I0806 16:30:10.123824 26646 net.cpp:84] Creating Layer conv2
I0806 16:30:10.123833 26646 net.cpp:406] conv2 <- pool1
I0806 16:30:10.123844 26646 net.cpp:380] conv2 -> conv2
I0806 16:30:10.136164 26646 net.cpp:122] Setting up conv2
I0806 16:30:10.136191 26646 net.cpp:129] Top shape: 120 256 27 27 (22394880)
I0806 16:30:10.136199 26646 net.cpp:137] Memory required for data: 615550080
I0806 16:30:10.136214 26646 layer_factory.hpp:77] Creating layer relu2
I0806 16:30:10.136224 26646 net.cpp:84] Creating Layer relu2
I0806 16:30:10.136234 26646 net.cpp:406] relu2 <- conv2
I0806 16:30:10.136243 26646 net.cpp:367] relu2 -> conv2 (in-place)
I0806 16:30:10.136445 26646 net.cpp:122] Setting up relu2
I0806 16:30:10.136464 26646 net.cpp:129] Top shape: 120 256 27 27 (22394880)
I0806 16:30:10.136471 26646 net.cpp:137] Memory required for data: 705129600
I0806 16:30:10.136478 26646 layer_factory.hpp:77] Creating layer norm2
I0806 16:30:10.136492 26646 net.cpp:84] Creating Layer norm2
I0806 16:30:10.136498 26646 net.cpp:406] norm2 <- conv2
I0806 16:30:10.136509 26646 net.cpp:380] norm2 -> norm2
I0806 16:30:10.136987 26646 net.cpp:122] Setting up norm2
I0806 16:30:10.137008 26646 net.cpp:129] Top shape: 120 256 27 27 (22394880)
I0806 16:30:10.137015 26646 net.cpp:137] Memory required for data: 794709120
I0806 16:30:10.137022 26646 layer_factory.hpp:77] Creating layer pool2
I0806 16:30:10.137035 26646 net.cpp:84] Creating Layer pool2
I0806 16:30:10.137043 26646 net.cpp:406] pool2 <- norm2
I0806 16:30:10.137053 26646 net.cpp:380] pool2 -> pool2
I0806 16:30:10.137100 26646 net.cpp:122] Setting up pool2
I0806 16:30:10.137114 26646 net.cpp:129] Top shape: 120 256 13 13 (5191680)
I0806 16:30:10.137120 26646 net.cpp:137] Memory required for data: 815475840
I0806 16:30:10.137127 26646 layer_factory.hpp:77] Creating layer conv3
I0806 16:30:10.137141 26646 net.cpp:84] Creating Layer conv3
I0806 16:30:10.137150 26646 net.cpp:406] conv3 <- pool2
I0806 16:30:10.137161 26646 net.cpp:380] conv3 -> conv3
I0806 16:30:10.167117 26646 net.cpp:122] Setting up conv3
I0806 16:30:10.167145 26646 net.cpp:129] Top shape: 120 384 13 13 (7787520)
I0806 16:30:10.167153 26646 net.cpp:137] Memory required for data: 846625920
I0806 16:30:10.167168 26646 layer_factory.hpp:77] Creating layer relu3
I0806 16:30:10.167178 26646 net.cpp:84] Creating Layer relu3
I0806 16:30:10.167186 26646 net.cpp:406] relu3 <- conv3
I0806 16:30:10.167196 26646 net.cpp:367] relu3 -> conv3 (in-place)
I0806 16:30:10.167399 26646 net.cpp:122] Setting up relu3
I0806 16:30:10.167423 26646 net.cpp:129] Top shape: 120 384 13 13 (7787520)
I0806 16:30:10.167430 26646 net.cpp:137] Memory required for data: 877776000
I0806 16:30:10.167438 26646 layer_factory.hpp:77] Creating layer conv4
I0806 16:30:10.167454 26646 net.cpp:84] Creating Layer conv4
I0806 16:30:10.167461 26646 net.cpp:406] conv4 <- conv3
I0806 16:30:10.167471 26646 net.cpp:380] conv4 -> conv4
I0806 16:30:10.191385 26646 net.cpp:122] Setting up conv4
I0806 16:30:10.191412 26646 net.cpp:129] Top shape: 120 384 13 13 (7787520)
I0806 16:30:10.191421 26646 net.cpp:137] Memory required for data: 908926080
I0806 16:30:10.191431 26646 layer_factory.hpp:77] Creating layer relu4
I0806 16:30:10.191442 26646 net.cpp:84] Creating Layer relu4
I0806 16:30:10.191448 26646 net.cpp:406] relu4 <- conv4
I0806 16:30:10.191460 26646 net.cpp:367] relu4 -> conv4 (in-place)
I0806 16:30:10.191898 26646 net.cpp:122] Setting up relu4
I0806 16:30:10.191918 26646 net.cpp:129] Top shape: 120 384 13 13 (7787520)
I0806 16:30:10.191926 26646 net.cpp:137] Memory required for data: 940076160
I0806 16:30:10.191932 26646 layer_factory.hpp:77] Creating layer conv5
I0806 16:30:10.191948 26646 net.cpp:84] Creating Layer conv5
I0806 16:30:10.191956 26646 net.cpp:406] conv5 <- conv4
I0806 16:30:10.191969 26646 net.cpp:380] conv5 -> conv5
I0806 16:30:10.209059 26646 net.cpp:122] Setting up conv5
I0806 16:30:10.209084 26646 net.cpp:129] Top shape: 120 256 13 13 (5191680)
I0806 16:30:10.209092 26646 net.cpp:137] Memory required for data: 960842880
I0806 16:30:10.209118 26646 layer_factory.hpp:77] Creating layer relu5
I0806 16:30:10.209131 26646 net.cpp:84] Creating Layer relu5
I0806 16:30:10.209139 26646 net.cpp:406] relu5 <- conv5
I0806 16:30:10.209148 26646 net.cpp:367] relu5 -> conv5 (in-place)
I0806 16:30:10.209589 26646 net.cpp:122] Setting up relu5
I0806 16:30:10.209609 26646 net.cpp:129] Top shape: 120 256 13 13 (5191680)
I0806 16:30:10.209616 26646 net.cpp:137] Memory required for data: 981609600
I0806 16:30:10.209623 26646 layer_factory.hpp:77] Creating layer pool5
I0806 16:30:10.209635 26646 net.cpp:84] Creating Layer pool5
I0806 16:30:10.209643 26646 net.cpp:406] pool5 <- conv5
I0806 16:30:10.209652 26646 net.cpp:380] pool5 -> pool5
I0806 16:30:10.209707 26646 net.cpp:122] Setting up pool5
I0806 16:30:10.209725 26646 net.cpp:129] Top shape: 120 256 6 6 (1105920)
I0806 16:30:10.209733 26646 net.cpp:137] Memory required for data: 986033280
I0806 16:30:10.209739 26646 layer_factory.hpp:77] Creating layer fc6
I0806 16:30:10.209756 26646 net.cpp:84] Creating Layer fc6
I0806 16:30:10.209780 26646 net.cpp:406] fc6 <- pool5
I0806 16:30:10.209790 26646 net.cpp:380] fc6 -> fc6
I0806 16:30:11.428535 26646 net.cpp:122] Setting up fc6
I0806 16:30:11.428611 26646 net.cpp:129] Top shape: 120 4096 (491520)
I0806 16:30:11.428622 26646 net.cpp:137] Memory required for data: 987999360
I0806 16:30:11.428637 26646 layer_factory.hpp:77] Creating layer relu6
I0806 16:30:11.428654 26646 net.cpp:84] Creating Layer relu6
I0806 16:30:11.428663 26646 net.cpp:406] relu6 <- fc6
I0806 16:30:11.428678 26646 net.cpp:367] relu6 -> fc6 (in-place)
I0806 16:30:11.428961 26646 net.cpp:122] Setting up relu6
I0806 16:30:11.428978 26646 net.cpp:129] Top shape: 120 4096 (491520)
I0806 16:30:11.428987 26646 net.cpp:137] Memory required for data: 989965440
I0806 16:30:11.428997 26646 layer_factory.hpp:77] Creating layer drop6
I0806 16:30:11.429008 26646 net.cpp:84] Creating Layer drop6
I0806 16:30:11.429015 26646 net.cpp:406] drop6 <- fc6
I0806 16:30:11.429025 26646 net.cpp:367] drop6 -> fc6 (in-place)
I0806 16:30:11.429072 26646 net.cpp:122] Setting up drop6
I0806 16:30:11.429086 26646 net.cpp:129] Top shape: 120 4096 (491520)
I0806 16:30:11.429093 26646 net.cpp:137] Memory required for data: 991931520
I0806 16:30:11.429100 26646 layer_factory.hpp:77] Creating layer fc7
I0806 16:30:11.429113 26646 net.cpp:84] Creating Layer fc7
I0806 16:30:11.429121 26646 net.cpp:406] fc7 <- fc6
I0806 16:30:11.429134 26646 net.cpp:380] fc7 -> fc7
I0806 16:30:11.970676 26646 net.cpp:122] Setting up fc7
I0806 16:30:11.970739 26646 net.cpp:129] Top shape: 120 4096 (491520)
I0806 16:30:11.970748 26646 net.cpp:137] Memory required for data: 993897600
I0806 16:30:11.970764 26646 layer_factory.hpp:77] Creating layer relu7
I0806 16:30:11.970785 26646 net.cpp:84] Creating Layer relu7
I0806 16:30:11.970795 26646 net.cpp:406] relu7 <- fc7
I0806 16:30:11.970810 26646 net.cpp:367] relu7 -> fc7 (in-place)
I0806 16:30:11.971475 26646 net.cpp:122] Setting up relu7
I0806 16:30:11.971495 26646 net.cpp:129] Top shape: 120 4096 (491520)
I0806 16:30:11.971503 26646 net.cpp:137] Memory required for data: 995863680
I0806 16:30:11.971509 26646 layer_factory.hpp:77] Creating layer drop7
I0806 16:30:11.971521 26646 net.cpp:84] Creating Layer drop7
I0806 16:30:11.971532 26646 net.cpp:406] drop7 <- fc7
I0806 16:30:11.971541 26646 net.cpp:367] drop7 -> fc7 (in-place)
I0806 16:30:11.971580 26646 net.cpp:122] Setting up drop7
I0806 16:30:11.971593 26646 net.cpp:129] Top shape: 120 4096 (491520)
I0806 16:30:11.971601 26646 net.cpp:137] Memory required for data: 997829760
I0806 16:30:11.971607 26646 layer_factory.hpp:77] Creating layer my-fc8
I0806 16:30:11.971622 26646 net.cpp:84] Creating Layer my-fc8
I0806 16:30:11.971629 26646 net.cpp:406] my-fc8 <- fc7
I0806 16:30:11.971642 26646 net.cpp:380] my-fc8 -> my-fc8
I0806 16:30:11.971894 26646 net.cpp:122] Setting up my-fc8
I0806 16:30:11.971913 26646 net.cpp:129] Top shape: 120 1 (120)
I0806 16:30:11.971920 26646 net.cpp:137] Memory required for data: 997830240
I0806 16:30:11.971940 26646 layer_factory.hpp:77] Creating layer loss
I0806 16:30:11.971961 26646 net.cpp:84] Creating Layer loss
I0806 16:30:11.971969 26646 net.cpp:406] loss <- my-fc8
I0806 16:30:11.971977 26646 net.cpp:406] loss <- label
I0806 16:30:11.971988 26646 net.cpp:380] loss -> loss
I0806 16:30:11.972048 26646 net.cpp:122] Setting up loss
…
I0806 16:30:11.972283 26646 net.cpp:255] Network initialization done.
I0806 16:30:11.972895 26646 solver.cpp:172] Creating test net (#0) specified by net file: ./train_val.prototxt
I0806 16:30:11.972945 26646 net.cpp:294] The NetState phase (1) differed from the phase (0) specified by a rule in layer data
I0806 16:30:11.973134 26646 net.cpp:51] Initializing net from parameters: 
name: "AlexNet"
state {
  phase: TEST
}
layer {
  name: "data"
  type: "HDF5Data"
  top: "data"
  top: "label"
  include {
    phase: TEST
  }
  hdf5_data_param {
    source: "../test_h5.txt"
    batch_size: 50
  }
}
layer {
  name: "conv1"
  type: "Convolution"
  bottom: "data"
  top: "conv1"
  param {
    lr_mult: 1
    decay_mult: 1
  }
  param {
    lr_mult: 2
    decay_mult: 0
  }
  convolution_param {
    num_output: 96
    kernel_size: 11
    stride: 4
    weight_filler {
      type: "gaussian"
      std: 0.01
    }
    bias_filler {
      type: "constant"
      value: 0
    }
  }
}
layer {
  name: "relu1"
  type: "ReLU"
  bottom: "conv1"
  top: "conv1"
}
layer {
  name: "norm1"
  type: "LRN"
  bottom: "conv1"
  top: "norm1"
  lrn_param {
    local_size: 5
    alpha: 0.0001
    beta: 0.75
  }
}
layer {
  name: "pool1"
  type: "Pooling"
  bottom: "norm1"
  top: "pool1"
  pooling_param {
    pool: MAX
    kernel_size: 3
    stride: 2
  }
}
layer {
  name: "conv2"
  type: "Convolution"
  bottom: "pool1"
  top: "conv2"
  param {
    lr_mult: 1
    decay_mult: 1
  }
  param {
    lr_mult: 2
    decay_mult: 0
  }
  convolution_param {
    num_output: 256
    pad: 2
    kernel_size: 5
    group: 2
    weight_filler {
      type: "gaussian"
      std: 0.01
    }
    bias_filler {
      type: "constant"
      value: 0.1
    }
  }
}
layer {
  name: "relu2"
  type: "ReLU"
  bottom: "conv2"
  top: "conv2"
}
layer {
  name: "norm2"
  type: "LRN"
  bottom: "conv2"
  top: "norm2"
  lrn_param {
    local_size: 5
    alpha: 0.0001
    beta: 0.75
  }
}
layer {
  name: "pool2"
  type: "Pooling"
  bottom: "norm2"
  top: "pool2"
  pooling_param {
    pool: MAX
    kernel_size: 3
    stride: 2
  }
}
layer {
  name: "conv3"
  type: "Convolution"
  bottom: "pool2"
  top: "conv3"
  param {
    lr_mult: 1
    decay_mult: 1
  }
  param {
    lr_mult: 2
    decay_mult: 0
  }
  convolution_param {
    num_output: 384
    pad: 1
    kernel_size: 3
    weight_filler {
      type: "gaussian"
      std: 0.01
    }
    bias_filler {
      type: "constant"
      value: 0
    }
  }
}
layer {
  name: "relu3"
  type: "ReLU"
  bottom: "conv3"
  top: "conv3"
}
layer {
  name: "conv4"
  type: "Convolution"
  bottom: "conv3"
  top: "conv4"
  param {
    lr_mult: 1
    decay_mult: 1
  }
  param {
    lr_mult: 2
    decay_mult: 0
  }
  convolution_param {
    num_output: 384
    pad: 1
    kernel_size: 3
    group: 2
    weight_filler {
      type: "gaussian"
      std: 0.01
    }
    bias_filler {
      type: "constant"
      value: 0.1
    }
  }
}
layer {
  name: "relu4"
  type: "ReLU"
  bottom: "conv4"
  top: "conv4"
}
layer {
  name: "conv5"
  type: "Convolution"
  bottom: "conv4"
  top: "conv5"
  param {
    lr_mult: 1
    decay_mult: 1
  }
  param {
    lr_mult: 2
    decay_mult: 0
  }
  convolution_param {
    num_output: 256
    pad: 1
    kernel_size: 3
    group: 2
    weight_filler {
      type: "gaussian"
      std: 0.01
    }
    bias_filler {
      type: "constant"
      value: 0.1
    }
  }
}
layer {
  name: "relu5"
  type: "ReLU"
  bottom: "conv5"
  top: "conv5"
}
layer {
  name: "pool5"
  type: "Pooling"
  bottom: "conv5"
  top: "pool5"
  pooling_param {
    pool: MAX
    kernel_size: 3
    stride: 2
  }
}
layer {
  name: "fc6"
  type: "InnerProduct"
  bottom: "pool5"
  top: "fc6"
  param {
    lr_mult: 1
    decay_mult: 1
  }
  param {
    lr_mult: 2
    decay_mult: 0
  }
  inner_product_param {
    num_output: 4096
    weight_filler {
      type: "gaussian"
      std: 0.005
    }
    bias_filler {
      type: "constant"
      value: 0.1
    }
  }
}
layer {
  name: "relu6"
  type: "ReLU"
  bottom: "fc6"
  top: "fc6"
}
layer {
  name: "drop6"
  type: "Dropout"
  bottom: "fc6"
  top: "fc6"
  dropout_param {
    dropout_ratio: 0.5
  }
}
layer {
  name: "fc7"
  type: "InnerProduct"
  bottom: "fc6"
  top: "fc7"
  param {
    lr_mult: 1
    decay_mult: 1
  }
  param {
    lr_mult: 2
    decay_mult: 0
  }
  inner_product_param {
    num_output: 4096
    weight_filler {
      type: "gaussian"
      std: 0.005
    }
    bias_filler {
      type: "constant"
      value: 0.1
    }
  }
}
layer {
  name: "relu7"
  type: "ReLU"
  bottom: "fc7"
  top: "fc7"
}
layer {
  name: "drop7"
  type: "Dropout"
  bottom: "fc7"
  top: "fc7"
  dropout_param {
    dropout_ratio: 0.5
  }
}
layer {
  name: "my-fc8"
  type: "InnerProduct"
  bottom: "fc7"
  top: "my-fc8"
  param {
    lr_mult: 1
    decay_mult: 1
  }
  param {
    lr_mult: 2
    decay_mult: 0
  }
  inner_product_param {
    num_output: 1
    weight_filler {
      type: "gaussian"
      std: 0.01
    }
    bias_filler {
      type: "constant"
      value: 0
    }
  }
}
layer {
  name: "loss"
  type: "EuclideanLoss"
  bottom: "my-fc8"
  bottom: "label"
  top: "loss"
}
I0806 16:30:11.973239 26646 layer_factory.hpp:77] Creating layer data
I0806 16:30:11.973258 26646 net.cpp:84] Creating Layer data
I0806 16:30:11.973266 26646 net.cpp:380] data -> data
I0806 16:30:11.973279 26646 net.cpp:380] data -> label
I0806 16:30:11.973291 26646 hdf5_data_layer.cpp:80] Loading list of HDF5 filenames from: ../test_h5.txt
I0806 16:30:11.973318 26646 hdf5_data_layer.cpp:94] Number of HDF5 files: 1
I0806 16:30:12.033656 26646 net.cpp:122] Setting up data
I0806 16:30:12.033720 26646 net.cpp:129] Top shape: 50 3 227 227 (7729350)
I0806 16:30:12.033731 26646 net.cpp:129] Top shape: 50 (50)
I0806 16:30:12.033751 26646 net.cpp:137] Memory required for data: 30917600
I0806 16:30:12.033776 26646 layer_factory.hpp:77] Creating layer conv1
I0806 16:30:12.033807 26646 net.cpp:84] Creating Layer conv1
I0806 16:30:12.033816 26646 net.cpp:406] conv1 <- data
I0806 16:30:12.033830 26646 net.cpp:380] conv1 -> conv1
I0806 16:30:12.036480 26646 net.cpp:122] Setting up conv1
I0806 16:30:12.036502 26646 net.cpp:129] Top shape: 50 96 55 55 (14520000)
I0806 16:30:12.036512 26646 net.cpp:137] Memory required for data: 88997600
I0806 16:30:12.036528 26646 layer_factory.hpp:77] Creating layer relu1
I0806 16:30:12.036541 26646 net.cpp:84] Creating Layer relu1
I0806 16:30:12.036548 26646 net.cpp:406] relu1 <- conv1
I0806 16:30:12.036556 26646 net.cpp:367] relu1 -> conv1 (in-place)
I0806 16:30:12.036777 26646 net.cpp:122] Setting up relu1
I0806 16:30:12.036798 26646 net.cpp:129] Top shape: 50 96 55 55 (14520000)
I0806 16:30:12.036816 26646 net.cpp:137] Memory required for data: 147077600
I0806 16:30:12.036824 26646 layer_factory.hpp:77] Creating layer norm1
I0806 16:30:12.036839 26646 net.cpp:84] Creating Layer norm1
I0806 16:30:12.036846 26646 net.cpp:406] norm1 <- conv1
I0806 16:30:12.036855 26646 net.cpp:380] norm1 -> norm1
I0806 16:30:12.037401 26646 net.cpp:122] Setting up norm1
I0806 16:30:12.037421 26646 net.cpp:129] Top shape: 50 96 55 55 (14520000)
I0806 16:30:12.037430 26646 net.cpp:137] Memory required for data: 205157600
I0806 16:30:12.037436 26646 layer_factory.hpp:77] Creating layer pool1
I0806 16:30:12.037448 26646 net.cpp:84] Creating Layer pool1
I0806 16:30:12.037456 26646 net.cpp:406] pool1 <- norm1
I0806 16:30:12.037466 26646 net.cpp:380] pool1 -> pool1
I0806 16:30:12.037515 26646 net.cpp:122] Setting up pool1
I0806 16:30:12.037530 26646 net.cpp:129] Top shape: 50 96 27 27 (3499200)
I0806 16:30:12.037537 26646 net.cpp:137] Memory required for data: 219154400
I0806 16:30:12.037544 26646 layer_factory.hpp:77] Creating layer conv2
I0806 16:30:12.037556 26646 net.cpp:84] Creating Layer conv2
I0806 16:30:12.037564 26646 net.cpp:406] conv2 <- pool1
I0806 16:30:12.037573 26646 net.cpp:380] conv2 -> conv2
I0806 16:30:12.049839 26646 net.cpp:122] Setting up conv2
I0806 16:30:12.049865 26646 net.cpp:129] Top shape: 50 256 27 27 (9331200)
I0806 16:30:12.049872 26646 net.cpp:137] Memory required for data: 256479200
I0806 16:30:12.049885 26646 layer_factory.hpp:77] Creating layer relu2
I0806 16:30:12.049896 26646 net.cpp:84] Creating Layer relu2
I0806 16:30:12.049903 26646 net.cpp:406] relu2 <- conv2
I0806 16:30:12.049916 26646 net.cpp:367] relu2 -> conv2 (in-place)
I0806 16:30:12.050364 26646 net.cpp:122] Setting up relu2
I0806 16:30:12.050384 26646 net.cpp:129] Top shape: 50 256 27 27 (9331200)
I0806 16:30:12.050390 26646 net.cpp:137] Memory required for data: 293804000
I0806 16:30:12.050397 26646 layer_factory.hpp:77] Creating layer norm2
I0806 16:30:12.050410 26646 net.cpp:84] Creating Layer norm2
I0806 16:30:12.050417 26646 net.cpp:406] norm2 <- conv2
I0806 16:30:12.050428 26646 net.cpp:380] norm2 -> norm2
I0806 16:30:12.050669 26646 net.cpp:122] Setting up norm2
I0806 16:30:12.050686 26646 net.cpp:129] Top shape: 50 256 27 27 (9331200)
I0806 16:30:12.050693 26646 net.cpp:137] Memory required for data: 331128800
I0806 16:30:12.050700 26646 layer_factory.hpp:77] Creating layer pool2
I0806 16:30:12.050711 26646 net.cpp:84] Creating Layer pool2
I0806 16:30:12.050719 26646 net.cpp:406] pool2 <- norm2
I0806 16:30:12.050729 26646 net.cpp:380] pool2 -> pool2
I0806 16:30:12.050781 26646 net.cpp:122] Setting up pool2
I0806 16:30:12.050796 26646 net.cpp:129] Top shape: 50 256 13 13 (2163200)
I0806 16:30:12.050803 26646 net.cpp:137] Memory required for data: 339781600
I0806 16:30:12.050809 26646 layer_factory.hpp:77] Creating layer conv3
I0806 16:30:12.050825 26646 net.cpp:84] Creating Layer conv3
I0806 16:30:12.050833 26646 net.cpp:406] conv3 <- pool2
I0806 16:30:12.050843 26646 net.cpp:380] conv3 -> conv3
I0806 16:30:12.080831 26646 net.cpp:122] Setting up conv3
I0806 16:30:12.080855 26646 net.cpp:129] Top shape: 50 384 13 13 (3244800)
I0806 16:30:12.080869 26646 net.cpp:137] Memory required for data: 352760800
I0806 16:30:12.080889 26646 layer_factory.hpp:77] Creating layer relu3
I0806 16:30:12.080902 26646 net.cpp:84] Creating Layer relu3
I0806 16:30:12.080910 26646 net.cpp:406] relu3 <- conv3
I0806 16:30:12.080919 26646 net.cpp:367] relu3 -> conv3 (in-place)
I0806 16:30:12.081372 26646 net.cpp:122] Setting up relu3
I0806 16:30:12.081392 26646 net.cpp:129] Top shape: 50 384 13 13 (3244800)
I0806 16:30:12.081398 26646 net.cpp:137] Memory required for data: 365740000
I0806 16:30:12.081405 26646 layer_factory.hpp:77] Creating layer conv4
I0806 16:30:12.081421 26646 net.cpp:84] Creating Layer conv4
I0806 16:30:12.081429 26646 net.cpp:406] conv4 <- conv3
I0806 16:30:12.081441 26646 net.cpp:380] conv4 -> conv4
I0806 16:30:12.105432 26646 net.cpp:122] Setting up conv4
I0806 16:30:12.105456 26646 net.cpp:129] Top shape: 50 384 13 13 (3244800)
I0806 16:30:12.105465 26646 net.cpp:137] Memory required for data: 378719200
I0806 16:30:12.105475 26646 layer_factory.hpp:77] Creating layer relu4
I0806 16:30:12.105485 26646 net.cpp:84] Creating Layer relu4
I0806 16:30:12.105492 26646 net.cpp:406] relu4 <- conv4
I0806 16:30:12.105504 26646 net.cpp:367] relu4 -> conv4 (in-place)
I0806 16:30:12.105717 26646 net.cpp:122] Setting up relu4
I0806 16:30:12.105734 26646 net.cpp:129] Top shape: 50 384 13 13 (3244800)
I0806 16:30:12.105742 26646 net.cpp:137] Memory required for data: 391698400
I0806 16:30:12.105748 26646 layer_factory.hpp:77] Creating layer conv5
I0806 16:30:12.105764 26646 net.cpp:84] Creating Layer conv5
I0806 16:30:12.105772 26646 net.cpp:406] conv5 <- conv4
I0806 16:30:12.105783 26646 net.cpp:380] conv5 -> conv5
I0806 16:30:12.122961 26646 net.cpp:122] Setting up conv5
I0806 16:30:12.122987 26646 net.cpp:129] Top shape: 50 256 13 13 (2163200)
I0806 16:30:12.122995 26646 net.cpp:137] Memory required for data: 400351200
I0806 16:30:12.123008 26646 layer_factory.hpp:77] Creating layer relu5
I0806 16:30:12.123021 26646 net.cpp:84] Creating Layer relu5
I0806 16:30:12.123029 26646 net.cpp:406] relu5 <- conv5
I0806 16:30:12.123037 26646 net.cpp:367] relu5 -> conv5 (in-place)
I0806 16:30:12.123488 26646 net.cpp:122] Setting up relu5
I0806 16:30:12.123508 26646 net.cpp:129] Top shape: 50 256 13 13 (2163200)
I0806 16:30:12.123515 26646 net.cpp:137] Memory required for data: 409004000
I0806 16:30:12.123522 26646 layer_factory.hpp:77] Creating layer pool5
I0806 16:30:12.123534 26646 net.cpp:84] Creating Layer pool5
I0806 16:30:12.123543 26646 net.cpp:406] pool5 <- conv5
I0806 16:30:12.123551 26646 net.cpp:380] pool5 -> pool5
I0806 16:30:12.123607 26646 net.cpp:122] Setting up pool5
I0806 16:30:12.123622 26646 net.cpp:129] Top shape: 50 256 6 6 (460800)
I0806 16:30:12.123630 26646 net.cpp:137] Memory required for data: 410847200
I0806 16:30:12.123636 26646 layer_factory.hpp:77] Creating layer fc6
I0806 16:30:12.123649 26646 net.cpp:84] Creating Layer fc6
I0806 16:30:12.123656 26646 net.cpp:406] fc6 <- pool5
I0806 16:30:12.123667 26646 net.cpp:380] fc6 -> fc6
I0806 16:30:13.348585 26646 net.cpp:122] Setting up fc6
I0806 16:30:13.348657 26646 net.cpp:129] Top shape: 50 4096 (204800)
I0806 16:30:13.348666 26646 net.cpp:137] Memory required for data: 411666400
I0806 16:30:13.348687 26646 layer_factory.hpp:77] Creating layer relu6
I0806 16:30:13.348711 26646 net.cpp:84] Creating Layer relu6
I0806 16:30:13.348721 26646 net.cpp:406] relu6 <- fc6
I0806 16:30:13.348737 26646 net.cpp:367] relu6 -> fc6 (in-place)
I0806 16:30:13.349586 26646 net.cpp:122] Setting up relu6
I0806 16:30:13.349606 26646 net.cpp:129] Top shape: 50 4096 (204800)
I0806 16:30:13.349612 26646 net.cpp:137] Memory required for data: 412485600
I0806 16:30:13.349622 26646 layer_factory.hpp:77] Creating layer drop6
I0806 16:30:13.349634 26646 net.cpp:84] Creating Layer drop6
I0806 16:30:13.349642 26646 net.cpp:406] drop6 <- fc6
I0806 16:30:13.349653 26646 net.cpp:367] drop6 -> fc6 (in-place)
I0806 16:30:13.349701 26646 net.cpp:122] Setting up drop6
I0806 16:30:13.349721 26646 net.cpp:129] Top shape: 50 4096 (204800)
I0806 16:30:13.349740 26646 net.cpp:137] Memory required for data: 413304800
I0806 16:30:13.349758 26646 layer_factory.hpp:77] Creating layer fc7
I0806 16:30:13.349773 26646 net.cpp:84] Creating Layer fc7
I0806 16:30:13.349782 26646 net.cpp:406] fc7 <- fc6
I0806 16:30:13.349794 26646 net.cpp:380] fc7 -> fc7
I0806 16:30:13.903515 26646 net.cpp:122] Setting up fc7
I0806 16:30:13.903595 26646 net.cpp:129] Top shape: 50 4096 (204800)
I0806 16:30:13.903611 26646 net.cpp:137] Memory required for data: 414124000
I0806 16:30:13.903630 26646 layer_factory.hpp:77] Creating layer relu7
I0806 16:30:13.903650 26646 net.cpp:84] Creating Layer relu7
I0806 16:30:13.903659 26646 net.cpp:406] relu7 <- fc7
I0806 16:30:13.903686 26646 net.cpp:367] relu7 -> fc7 (in-place)
I0806 16:30:13.904023 26646 net.cpp:122] Setting up relu7
I0806 16:30:13.904042 26646 net.cpp:129] Top shape: 50 4096 (204800)
I0806 16:30:13.904048 26646 net.cpp:137] Memory required for data: 414943200
I0806 16:30:13.904057 26646 layer_factory.hpp:77] Creating layer drop7
I0806 16:30:13.904068 26646 net.cpp:84] Creating Layer drop7
I0806 16:30:13.904076 26646 net.cpp:406] drop7 <- fc7
I0806 16:30:13.904088 26646 net.cpp:367] drop7 -> fc7 (in-place)
I0806 16:30:13.904130 26646 net.cpp:122] Setting up drop7
I0806 16:30:13.904148 26646 net.cpp:129] Top shape: 50 4096 (204800)
I0806 16:30:13.904155 26646 net.cpp:137] Memory required for data: 415762400
I0806 16:30:13.904162 26646 layer_factory.hpp:77] Creating layer my-fc8
I0806 16:30:13.904175 26646 net.cpp:84] Creating Layer my-fc8
I0806 16:30:13.904182 26646 net.cpp:406] my-fc8 <- fc7
I0806 16:30:13.904194 26646 net.cpp:380] my-fc8 -> my-fc8
I0806 16:30:13.904458 26646 net.cpp:122] Setting up my-fc8
I0806 16:30:13.904474 26646 net.cpp:129] Top shape: 50 1 (50)
I0806 16:30:13.904480 26646 net.cpp:137] Memory required for data: 415762600
I0806 16:30:13.904489 26646 layer_factory.hpp:77] Creating layer loss
I0806 16:30:13.904507 26646 net.cpp:84] Creating Layer loss
I0806 16:30:13.904515 26646 net.cpp:406] loss <- my-fc8
I0806 16:30:13.904522 26646 net.cpp:406] loss <- label
I0806 16:30:13.904531 26646 net.cpp:380] loss -> loss
I0806 16:30:13.904593 26646 net.cpp:122] Setting up loss
…
