…
I1029 13:23:09.086190  3605 solver.cpp:87] Creating training net from net file: ./train_val.prototxt
I1029 13:23:09.087926  3605 net.cpp:294] The NetState phase (0) differed from the phase (1) specified by a rule in layer data
I1029 13:23:09.089272  3605 net.cpp:51] Initializing net from parameters: 
name: "GoogleNet"
state {
  phase: TRAIN
  level: 0
  stage: ""
}
layer {
  name: "data"
  type: "HDF5Data"
  top: "data"
  top: "label"
  include {
    phase: TRAIN
  }
  hdf5_data_param {
    source: "./train.txt"
    batch_size: 30
    shuffle: true
  }
}
layer {
  name: "conv1/7x7_s2"
  type: "Convolution"
  bottom: "data"
  top: "conv1/7x7_s2"
  param {
    lr_mult: 1
    decay_mult: 1
  }
  param {
    lr_mult: 2
    decay_mult: 0
  }
  convolution_param {
    num_output: 64
    pad: 3
    kernel_size: 7
    stride: 2
    weight_filler {
      type: "xavier"
    }
    bias_filler {
      type: "constant"
      value: 0.2
    }
  }
}
layer {
  name: "conv1/relu_7x7"
  type: "ReLU"
  bottom: "conv1/7x7_s2"
  top: "conv1/7x7_s2"
}
layer {
  name: "pool1/3x3_s2"
  type: "Pooling"
  bottom: "conv1/7x7_s2"
  top: "pool1/3x3_s2"
  pooling_param {
    pool: MAX
    kernel_size: 3
    stride: 2
  }
}
layer {
  name: "pool1/norm1"
  type: "LRN"
  bottom: "pool1/3x3_s2"
  top: "pool1/norm1"
  lrn_param {
    local_size: 5
    alpha: 0.0001
    beta: 0.75
  }
}
layer {
  name: "conv2/3x3_reduce"
  type: "Convolution"
  bottom: "pool1/norm1"
  top: "conv2/3x3_reduce"
  param {
    lr_mult: 1
    decay_mult: 1
  }
  param {
    lr_mult: 2
    decay_mult: 0
  }
  convolution_param {
    num_output: 64
    kernel_size: 1
    weight_filler {
      type: "xavier"
    }
    bias_filler {
      type: "constant"
      value: 0.2
    }
  }
}
layer {
  name: "conv2/relu_3x3_reduce"
  type: "ReLU"
  bottom: "conv2/3x3_reduce"
  top: "conv2/3x3_reduce"
}
layer {
  name: "conv2/3x3"
  type: "Convolution"
  bottom: "conv2/3x3_reduce"
  top: "conv2/3x3"
  param {
    lr_mult: 1
    decay_mult: 1
  }
  param {
    lr_mult: 2
    decay_mult: 0
  }
  convolution_param {
    num_output: 192
    pad: 1
    kernel_size: 3
    weight_filler {
      type: "xavier"
    }
    bias_filler {
      type: "constant"
      value: 0.2
    }
  }
}
layer {
  name: "conv2/relu_3x3"
  type: "ReLU"
  bottom: "conv2/3x3"
  top: "conv2/3x3"
}
layer {
  name: "conv2/norm2"
  type: "LRN"
  bottom: "conv2/3x3"
  top: "conv2/norm2"
  lrn_param {
    local_size: 5
    alpha: 0.0001
    beta: 0.75
  }
}
layer {
  name: "pool2/3x3_s2"
  type: "Pooling"
  bottom: "conv2/norm2"
  top: "pool2/3x3_s2"
  pooling_param {
    pool: MAX
    kernel_size: 3
    stride: 2
  }
}
layer {
  name: "inception_3a/1x1"
  type: "Convolution"
  bottom: "pool2/3x3_s2"
  top: "inception_3a/1x1"
  param {
    lr_mult: 1
    decay_mult: 1
  }
  param {
    lr_mult: 2
    decay_mult: 0
  }
  convolution_param {
    num_output: 64
    kernel_size: 1
    weight_filler {
      type: "xavier"
    }
    bias_filler {
      type: "constant"
      value: 0.2
    }
  }
}
layer {
  name: "inception_3a/relu_1x1"
  type: "ReLU"
  bottom: "inception_3a/1x1"
  top: "inception_3a/1x1"
}
layer {
  name: "inception_3a/3x3_reduce"
  type: "Convolution"
  bottom: "pool2/3x3_s2"
  top: "inception_3a/3x3_reduce"
  param {
    lr_mult: 1
    decay_mult: 1
  }
  param {
    lr_mult: 2
    decay_mult: 0
  }
  convolution_param {
    num_output: 96
    kernel_size: 1
    weight_filler {
      type: "xavier"
    }
    bias_filler {
      type: "constant"
      value: 0.2
    }
  }
}
layer {
  name: "inception_3a/relu_3x3_reduce"
  type: "ReLU"
  bottom: "inception_3a/3x3_reduce"
  top: "inception_3a/3x3_reduce"
}
layer {
  name: "inception_3a/3x3"
  type: "Convolution"
  bottom: "inception_3a/3x3_reduce"
  top: "inception_3a/3x3"
  param {
    lr_mult: 1
    decay_mult: 1
  }
  param {
    lr_mult: 2
    decay_mult: 0
  }
  convolution_param {
    num_output: 128
    pad: 1
    kernel_size: 3
    weight_filler {
      type: "xavier"
    }
    bias_filler {
      type: "constant"
      value: 0.2
    }
  }
}
layer {
  name: "inception_3a/relu_3x3"
  type: "ReLU"
  bottom: "inception_3a/3x3"
  top: "inception_3a/3x3"
}
layer {
  name: "inception_3a/5x5_reduce"
  type: "Convolution"
  bottom: "pool2/3x3_s2"
  top: "inception_3a/5x5_reduce"
  param {
    lr_mult: 1
    decay_mult: 1
  }
  param {
    lr_mult: 2
    decay_mult: 0
  }
  convolution_param {
    num_output: 16
    kernel_size: 1
    weight_filler {
      type: "xavier"
    }
    bias_filler {
      type: "constant"
      value: 0.2
    }
  }
}
layer {
  name: "inception_3a/relu_5x5_reduce"
  type: "ReLU"
  bottom: "inception_3a/5x5_reduce"
  top: "inception_3a/5x5_reduce"
}
layer {
  name: "inception_3a/5x5"
  type: "Convolution"
  bottom: "inception_3a/5x5_reduce"
  top: "inception_3a/5x5"
  param {
    lr_mult: 1
    decay_mult: 1
  }
  param {
    lr_mult: 2
    decay_mult: 0
  }
  convolution_param {
    num_output: 32
    pad: 2
    kernel_size: 5
    weight_filler {
      type: "xavier"
    }
    bias_filler {
      type: "constant"
      value: 0.2
    }
  }
}
layer {
  name: "inception_3a/relu_5x5"
  type: "ReLU"
  bottom: "inception_3a/5x5"
  top: "inception_3a/5x5"
}
layer {
  name: "inception_3a/pool"
  type: "Pooling"
  bottom: "pool2/3x3_s2"
  top: "inception_3a/pool"
  pooling_param {
    pool: MAX
    kernel_size: 3
    stride: 1
    pad: 1
  }
}
layer {
  name: "inception_3a/pool_proj"
  type: "Convolution"
  bottom: "inception_3a/pool"
  top: "inception_3a/pool_proj"
  param {
    lr_mult: 1
    decay_mult: 1
  }
  param {
    lr_mult: 2
    decay_mult: 0
  }
  convolution_param {
    num_output: 32
    kernel_size: 1
    weight_filler {
      type: "xavier"
    }
    bias_filler {
      type: "constant"
      value: 0.2
    }
  }
}
layer {
  name: "inception_3a/relu_pool_proj"
  type: "ReLU"
  bottom: "inception_3a/pool_proj"
  top: "inception_3a/pool_proj"
}
layer {
  name: "inception_3a/output"
  type: "Concat"
  bottom: "inception_3a/1x1"
  bottom: "inception_3a/3x3"
  bottom: "inception_3a/5x5"
  bottom: "inception_3a/pool_proj"
  top: "inception_3a/output"
}
layer {
  name: "inception_3b/1x1"
  type: "Convolution"
  bottom: "inception_3a/output"
  top: "inception_3b/1x1"
  param {
    lr_mult: 1
    decay_mult: 1
  }
  param {
    lr_mult: 2
    decay_mult: 0
  }
  convolution_param {
    num_output: 128
    kernel_size: 1
    weight_filler {
      type: "xavier"
    }
    bias_filler {
      type: "constant"
      value: 0.2
    }
  }
}
layer {
  name: "inception_3b/relu_1x1"
  type: "ReLU"
  bottom: "inception_3b/1x1"
  top: "inception_3b/1x1"
}
layer {
  name: "inception_3b/3x3_reduce"
  type: "Convolution"
  bottom: "inception_3a/output"
  top: "inception_3b/3x3_reduce"
  param {
    lr_mult: 1
    decay_mult: 1
  }
  param {
    lr_mult: 2
    decay_mult: 0
  }
  convolution_param {
    num_output: 128
    kernel_size: 1
    weight_filler {
      type: "xavier"
    }
    bias_filler {
      type: "constant"
      value: 0.2
    }
  }
}
layer {
  name: "inception_3b/relu_3x3_reduce"
  type: "ReLU"
  bottom: "inception_3b/3x3_reduce"
  top: "inception_3b/3x3_reduce"
}
layer {
  name: "inception_3b/3x3"
  type: "Convolution"
  bottom: "inception_3b/3x3_reduce"
  top: "inception_3b/3x3"
  param {
    lr_mult: 1
    decay_mult: 1
  }
  param {
    lr_mult: 2
    decay_mult: 0
  }
  convolution_param {
    num_output: 192
    pad: 1
    kernel_size: 3
    weight_filler {
      type: "xavier"
    }
    bias_filler {
      type: "constant"
      value: 0.2
    }
  }
}
layer {
  name: "inception_3b/relu_3x3"
  type: "ReLU"
  bottom: "inception_3b/3x3"
  top: "inception_3b/3x3"
}
layer {
  name: "inception_3b/5x5_reduce"
  type: "Convolution"
  bottom: "inception_3a/output"
  top: "inception_3b/5x5_reduce"
  param {
    lr_mult: 1
    decay_mult: 1
  }
  param {
    lr_mult: 2
    decay_mult: 0
  }
  convolution_param {
    num_output: 32
    kernel_size: 1
    weight_filler {
      type: "xavier"
    }
    bias_filler {
      type: "constant"
      value: 0.2
    }
  }
}
layer {
  name: "inception_3b/relu_5x5_reduce"
  type: "ReLU"
  bottom: "inception_3b/5x5_reduce"
  top: "inception_3b/5x5_reduce"
}
layer {
  name: "inception_3b/5x5"
  type: "Convolution"
  bottom: "inception_3b/5x5_reduce"
  top: "inception_3b/5x5"
  param {
    lr_mult: 1
    decay_mult: 1
  }
  param {
    lr_mult: 2
    decay_mult: 0
  }
  convolution_param {
    num_output: 96
    pad: 2
    kernel_size: 5
    weight_filler {
      type: "xavier"
    }
    bias_filler {
      type: "constant"
      value: 0.2
    }
  }
}
layer {
  name: "inception_3b/relu_5x5"
  type: "ReLU"
  bottom: "inception_3b/5x5"
  top: "inception_3b/5x5"
}
layer {
  name: "inception_3b/pool"
  type: "Pooling"
  bottom: "inception_3a/output"
  top: "inception_3b/pool"
  pooling_param {
    pool: MAX
    kernel_size: 3
    stride: 1
    pad: 1
  }
}
layer {
  name: "inception_3b/pool_proj"
  type: "Convolution"
  bottom: "inception_3b/pool"
  top: "inception_3b/pool_proj"
  param {
    lr_mult: 1
    decay_mult: 1
  }
  param {
    lr_mult: 2
    decay_mult: 0
  }
  convolution_param {
    num_output: 64
    kernel_size: 1
    weight_filler {
      type: "xavier"
    }
    bias_filler {
      type: "constant"
      value: 0.2
    }
  }
}
layer {
  name: "inception_3b/relu_pool_proj"
  type: "ReLU"
  bottom: "inception_3b/pool_proj"
  top: "inception_3b/pool_proj"
}
layer {
  name: "inception_3b/output"
  type: "Concat"
  bottom: "inception_3b/1x1"
  bottom: "inception_3b/3x3"
  bottom: "inception_3b/5x5"
  bottom: "inception_3b/pool_proj"
  top: "inception_3b/output"
}
layer {
  name: "pool3/3x3_s2"
  type: "Pooling"
  bottom: "inception_3b/output"
  top: "pool3/3x3_s2"
  pooling_param {
    pool: MAX
    kernel_size: 3
    stride: 2
  }
}
layer {
  name: "inception_4a/1x1"
  type: "Convolution"
  bottom: "pool3/3x3_s2"
  top: "inception_4a/1x1"
  param {
    lr_mult: 1
    decay_mult: 1
  }
  param {
    lr_mult: 2
    decay_mult: 0
  }
  convolution_param {
    num_output: 192
    kernel_size: 1
    weight_filler {
      type: "xavier"
    }
    bias_filler {
      type: "constant"
      value: 0.2
    }
  }
}
layer {
  name: "inception_4a/relu_1x1"
  type: "ReLU"
  bottom: "inception_4a/1x1"
  top: "inception_4a/1x1"
}
layer {
  name: "inception_4a/3x3_reduce"
  type: "Convolution"
  bottom: "pool3/3x3_s2"
  top: "inception_4a/3x3_reduce"
  param {
    lr_mult: 1
    decay_mult: 1
  }
  param {
    lr_mult: 2
    decay_mult: 0
  }
  convolution_param {
    num_output: 96
    kernel_size: 1
    weight_filler {
      type: "xavier"
    }
    bias_filler {
      type: "constant"
      value: 0.2
    }
  }
}
layer {
  name: "inception_4a/relu_3x3_reduce"
  type: "ReLU"
  bottom: "inception_4a/3x3_reduce"
  top: "inception_4a/3x3_reduce"
}
layer {
  name: "inception_4a/3x3"
  type: "Convolution"
  bottom: "inception_4a/3x3_reduce"
  top: "inception_4a/3x3"
  param {
    lr_mult: 1
    decay_mult: 1
  }
  param {
    lr_mult: 2
    decay_mult: 0
  }
  convolution_param {
    num_output: 208
    pad: 1
    kernel_size: 3
    weight_filler {
      type: "xavier"
    }
    bias_filler {
      type: "constant"
      value: 0.2
    }
  }
}
layer {
  name: "inception_4a/relu_3x3"
  type: "ReLU"
  bottom: "inception_4a/3x3"
  top: "inception_4a/3x3"
}
layer {
  name: "inception_4a/5x5_reduce"
  type: "Convolution"
  bottom: "pool3/3x3_s2"
  top: "inception_4a/5x5_reduce"
  param {
    lr_mult: 1
    decay_mult: 1
  }
  param {
    lr_mult: 2
    decay_mult: 0
  }
  convolution_param {
    num_output: 16
    kernel_size: 1
    weight_filler {
      type: "xavier"
    }
    bias_filler {
      type: "constant"
      value: 0.2
    }
  }
}
layer {
  name: "inception_4a/relu_5x5_reduce"
  type: "ReLU"
  bottom: "inception_4a/5x5_reduce"
  top: "inception_4a/5x5_reduce"
}
layer {
  name: "inception_4a/5x5"
  type: "Convolution"
  bottom: "inception_4a/5x5_reduce"
  top: "inception_4a/5x5"
  param {
    lr_mult: 1
    decay_mult: 1
  }
  param {
    lr_mult: 2
    decay_mult: 0
  }
  convolution_param {
    num_output: 48
    pad: 2
    kernel_size: 5
    weight_filler {
      type: "xavier"
    }
    bias_filler {
      type: "constant"
      value: 0.2
    }
  }
}
layer {
  name: "inception_4a/relu_5x5"
  type: "ReLU"
  bottom: "inception_4a/5x5"
  top: "inception_4a/5x5"
}
layer {
  name: "inception_4a/pool"
  type: "Pooling"
  bottom: "pool3/3x3_s2"
  top: "inception_4a/pool"
  pooling_param {
    pool: MAX
    kernel_size: 3
    stride: 1
    pad: 1
  }
}
layer {
  name: "inception_4a/pool_proj"
  type: "Convolution"
  bottom: "inception_4a/pool"
  top: "inception_4a/pool_proj"
  param {
    lr_mult: 1
    decay_mult: 1
  }
  param {
    lr_mult: 2
    decay_mult: 0
  }
  convolution_param {
    num_output: 64
    kernel_size: 1
    weight_filler {
      type: "xavier"
    }
    bias_filler {
      type: "constant"
      value: 0.2
    }
  }
}
layer {
  name: "inception_4a/relu_pool_proj"
  type: "ReLU"
  bottom: "inception_4a/pool_proj"
  top: "inception_4a/pool_proj"
}
layer {
  name: "inception_4a/output"
  type: "Concat"
  bottom: "inception_4a/1x1"
  bottom: "inception_4a/3x3"
  bottom: "inception_4a/5x5"
  bottom: "inception_4a/pool_proj"
  top: "inception_4a/output"
}
layer {
  name: "loss1/ave_pool"
  type: "Pooling"
  bottom: "inception_4a/output"
  top: "loss1/ave_pool"
  pooling_param {
    pool: AVE
    kernel_size: 5
    stride: 3
  }
}
layer {
  name: "loss1/conv"
  type: "Convolution"
  bottom: "loss1/ave_pool"
  top: "loss1/conv"
  param {
    lr_mult: 1
    decay_mult: 1
  }
  param {
    lr_mult: 2
    decay_mult: 0
  }
  convolution_param {
    num_output: 128
    kernel_size: 1
    weight_filler {
      type: "xavier"
    }
    bias_filler {
      type: "constant"
      value: 0.2
    }
  }
}
layer {
  name: "loss1/relu_conv"
  type: "ReLU"
  bottom: "loss1/conv"
  top: "loss1/conv"
}
layer {
  name: "loss1/fc"
  type: "InnerProduct"
  bottom: "loss1/conv"
  top: "loss1/fc"
  param {
    lr_mult: 1
    decay_mult: 1
  }
  param {
    lr_mult: 2
    decay_mult: 0
  }
  inner_product_param {
    num_output: 1024
    weight_filler {
      type: "xavier"
    }
    bias_filler {
      type: "constant"
      value: 0.2
    }
  }
}
layer {
  name: "loss1/relu_fc"
  type: "ReLU"
  bottom: "loss1/fc"
  top: "loss1/fc"
}
layer {
  name: "loss1/drop_fc"
  type: "Dropout"
  bottom: "loss1/fc"
  top: "loss1/fc"
  dropout_param {
    dropout_ratio: 0.7
  }
}
layer {
  name: "my-loss1/classifier"
  type: "InnerProduct"
  bottom: "loss1/fc"
  top: "my-loss1/classifier"
  param {
    lr_mult: 1
    decay_mult: 1
  }
  param {
    lr_mult: 2
    decay_mult: 0
  }
  inner_product_param {
    num_output: 1
    weight_filler {
      type: "xavier"
    }
    bias_filler {
      type: "constant"
      value: 0
    }
  }
}
layer {
  name: "loss1/loss"
  type: "EuclideanLoss"
  bottom: "my-loss1/classifier"
  bottom: "label"
  top: "loss1/loss"
  loss_weight: 0.3
}
layer {
  name: "inception_4b/1x1"
  type: "Convolution"
  bottom: "inception_4a/output"
  top: "inception_4b/1x1"
  param {
    lr_mult: 1
    decay_mult: 1
  }
  param {
    lr_mult: 2
    decay_mult: 0
  }
  convolution_param {
    num_output: 160
    kernel_size: 1
    weight_filler {
      type: "xavier"
    }
    bias_filler {
      type: "constant"
      value: 0.2
    }
  }
}
layer {
  name: "inception_4b/relu_1x1"
  type: "ReLU"
  bottom: "inception_4b/1x1"
  top: "inception_4b/1x1"
}
layer {
  name: "inception_4b/3x3_reduce"
  type: "Convolution"
  bottom: "inception_4a/output"
  top: "inception_4b/3x3_reduce"
  param {
    lr_mult: 1
    decay_mult: 1
  }
  param {
    lr_mult: 2
    decay_mult: 0
  }
  convolution_param {
    num_output: 112
    kernel_size: 1
    weight_filler {
      type: "xavier"
    }
    bias_filler {
      type: "constant"
      value: 0.2
    }
  }
}
layer {
  name: "inception_4b/relu_3x3_reduce"
  type: "ReLU"
  bottom: "inception_4b/3x3_reduce"
  top: "inception_4b/3x3_reduce"
}
layer {
  name: "inception_4b/3x3"
  type: "Convolution"
  bottom: "inception_4b/3x3_reduce"
  top: "inception_4b/3x3"
  param {
    lr_mult: 1
    decay_mult: 1
  }
  param {
    lr_mult: 2
    decay_mult: 0
  }
  convolution_param {
    num_output: 224
    pad: 1
    kernel_size: 3
    weight_filler {
      type: "xavier"
    }
    bias_filler {
      type: "constant"
      value: 0.2
    }
  }
}
layer {
  name: "inception_4b/relu_3x3"
  type: "ReLU"
  bottom: "inception_4b/3x3"
  top: "inception_4b/3x3"
}
layer {
  name: "inception_4b/5x5_reduce"
  type: "Convolution"
  bottom: "inception_4a/output"
  top: "inception_4b/5x5_reduce"
  param {
    lr_mult: 1
    decay_mult: 1
  }
  param {
    lr_mult: 2
    decay_mult: 0
  }
  convolution_param {
    num_output: 24
    kernel_size: 1
    weight_filler {
      type: "xavier"
    }
    bias_filler {
      type: "constant"
      value: 0.2
    }
  }
}
layer {
  name: "inception_4b/relu_5x5_reduce"
  type: "ReLU"
  bottom: "inception_4b/5x5_reduce"
  top: "inception_4b/5x5_reduce"
}
layer {
  name: "inception_4b/5x5"
  type: "Convolution"
  bottom: "inception_4b/5x5_reduce"
  top: "inception_4b/5x5"
  param {
    lr_mult: 1
    decay_mult: 1
  }
  param {
    lr_mult: 2
    decay_mult: 0
  }
  convolution_param {
    num_output: 64
    pad: 2
    kernel_size: 5
    weight_filler {
      type: "xavier"
    }
    bias_filler {
      type: "constant"
      value: 0.2
    }
  }
}
layer {
  name: "inception_4b/relu_5x5"
  type: "ReLU"
  bottom: "inception_4b/5x5"
  top: "inception_4b/5x5"
}
layer {
  name: "inception_4b/pool"
  type: "Pooling"
  bottom: "inception_4a/output"
  top: "inception_4b/pool"
  pooling_param {
    pool: MAX
    kernel_size: 3
    stride: 1
    pad: 1
  }
}
layer {
  name: "inception_4b/pool_proj"
  type: "Convolution"
  bottom: "inception_4b/pool"
  top: "inception_4b/pool_proj"
  param {
    lr_mult: 1
    decay_mult: 1
  }
  param {
    lr_mult: 2
    decay_mult: 0
  }
  convolution_param {
    num_output: 64
    kernel_size: 1
    weight_filler {
      type: "xavier"
    }
    bias_filler {
      type: "constant"
      value: 0.2
    }
  }
}
layer {
  name: "inception_4b/relu_pool_proj"
  type: "ReLU"
  bottom: "inception_4b/pool_proj"
  top: "inception_4b/pool_proj"
}
layer {
  name: "inception_4b/output"
  type: "Concat"
  bottom: "inception_4b/1x1"
  bottom: "inception_4b/3x3"
  bottom: "inception_4b/5x5"
  bottom: "inception_4b/pool_proj"
  top: "inception_4b/output"
}
layer {
  name: "inception_4c/1x1"
  type: "Convolution"
  bottom: "inception_4b/output"
  top: "inception_4c/1x1"
  param {
    lr_mult: 1
    decay_mult: 1
  }
  param {
    lr_mult: 2
    decay_mult: 0
  }
  convolution_param {
    num_output: 128
    kernel_size: 1
    weight_filler {
      type: "xavier"
    }
    bias_filler {
      type: "constant"
      value: 0.2
    }
  }
}
layer {
  name: "inception_4c/relu_1x1"
  type: "ReLU"
  bottom: "inception_4c/1x1"
  top: "inception_4c/1x1"
}
layer {
  name: "inception_4c/3x3_reduce"
  type: "Convolution"
  bottom: "inception_4b/output"
  top: "inception_4c/3x3_reduce"
  param {
    lr_mult: 1
    decay_mult: 1
  }
  param {
    lr_mult: 2
    decay_mult: 0
  }
  convolution_param {
    num_output: 128
    kernel_size: 1
    weight_filler {
      type: "xavier"
    }
    bias_filler {
      type: "constant"
      value: 0.2
    }
  }
}
layer {
  name: "inception_4c/relu_3x3_reduce"
  type: "ReLU"
  bottom: "inception_4c/3x3_reduce"
  top: "inception_4c/3x3_reduce"
}
layer {
  name: "inception_4c/3x3"
  type: "Convolution"
  bottom: "inception_4c/3x3_reduce"
  top: "inception_4c/3x3"
  param {
    lr_mult: 1
    decay_mult: 1
  }
  param {
    lr_mult: 2
    decay_mult: 0
  }
  convolution_param {
    num_output: 256
    pad: 1
    kernel_size: 3
    weight_filler {
      type: "xavier"
    }
    bias_filler {
      type: "constant"
      value: 0.2
    }
  }
}
layer {
  name: "inception_4c/relu_3x3"
  type: "ReLU"
  bottom: "inception_4c/3x3"
  top: "inception_4c/3x3"
}
layer {
  name: "inception_4c/5x5_reduce"
  type: "Convolution"
  bottom: "inception_4b/output"
  top: "inception_4c/5x5_reduce"
  param {
    lr_mult: 1
    decay_mult: 1
  }
  param {
    lr_mult: 2
    decay_mult: 0
  }
  convolution_param {
    num_output: 24
    kernel_size: 1
    weight_filler {
      type: "xavier"
    }
    bias_filler {
      type: "constant"
      value: 0.2
    }
  }
}
layer {
  name: "inception_4c/relu_5x5_reduce"
  type: "ReLU"
  bottom: "inception_4c/5x5_reduce"
  top: "inception_4c/5x5_reduce"
}
layer {
  name: "inception_4c/5x5"
  type: "Convolution"
  bottom: "inception_4c/5x5_reduce"
  top: "inception_4c/5x5"
  param {
    lr_mult: 1
    decay_mult: 1
  }
  param {
    lr_mult: 2
    decay_mult: 0
  }
  convolution_param {
    num_output: 64
    pad: 2
    kernel_size: 5
    weight_filler {
      type: "xavier"
    }
    bias_filler {
      type: "constant"
      value: 0.2
    }
  }
}
layer {
  name: "inception_4c/relu_5x5"
  type: "ReLU"
  bottom: "inception_4c/5x5"
  top: "inception_4c/5x5"
}
layer {
  name: "inception_4c/pool"
  type: "Pooling"
  bottom: "inception_4b/output"
  top: "inception_4c/pool"
  pooling_param {
    pool: MAX
    kernel_size: 3
    stride: 1
    pad: 1
  }
}
layer {
  name: "inception_4c/pool_proj"
  type: "Convolution"
  bottom: "inception_4c/pool"
  top: "inception_4c/pool_proj"
  param {
    lr_mult: 1
    decay_mult: 1
  }
  param {
    lr_mult: 2
    decay_mult: 0
  }
  convolution_param {
    num_output: 64
    kernel_size: 1
    weight_filler {
      type: "xavier"
    }
    bias_filler {
      type: "constant"
      value: 0.2
    }
  }
}
layer {
  name: "inception_4c/relu_pool_proj"
  type: "ReLU"
  bottom: "inception_4c/pool_proj"
  top: "inception_4c/pool_proj"
}
layer {
  name: "inception_4c/output"
  type: "Concat"
  bottom: "inception_4c/1x1"
  bottom: "inception_4c/3x3"
  bottom: "inception_4c/5x5"
  bottom: "inception_4c/pool_proj"
  top: "inception_4c/output"
}
layer {
  name: "inception_4d/1x1"
  type: "Convolution"
  bottom: "inception_4c/output"
  top: "inception_4d/1x1"
  param {
    lr_mult: 1
    decay_mult: 1
  }
  param {
    lr_mult: 2
    decay_mult: 0
  }
  convolution_param {
    num_output: 112
    kernel_size: 1
    weight_filler {
      type: "xavier"
    }
    bias_filler {
      type: "constant"
      value: 0.2
    }
  }
}
layer {
  name: "inception_4d/relu_1x1"
  type: "ReLU"
  bottom: "inception_4d/1x1"
  top: "inception_4d/1x1"
}
layer {
  name: "inception_4d/3x3_reduce"
  type: "Convolution"
  bottom: "inception_4c/output"
  top: "inception_4d/3x3_reduce"
  param {
    lr_mult: 1
    decay_mult: 1
  }
  param {
    lr_mult: 2
    decay_mult: 0
  }
  convolution_param {
    num_output: 144
    kernel_size: 1
    weight_filler {
      type: "xavier"
    }
    bias_filler {
      type: "constant"
      value: 0.2
    }
  }
}
layer {
  name: "inception_4d/relu_3x3_reduce"
  type: "ReLU"
  bottom: "inception_4d/3x3_reduce"
  top: "inception_4d/3x3_reduce"
}
layer {
  name: "inception_4d/3x3"
  type: "Convolution"
  bottom: "inception_4d/3x3_reduce"
  top: "inception_4d/3x3"
  param {
    lr_mult: 1
    decay_mult: 1
  }
  param {
    lr_mult: 2
    decay_mult: 0
  }
  convolution_param {
    num_output: 288
    pad: 1
    kernel_size: 3
    weight_filler {
      type: "xavier"
    }
    bias_filler {
      type: "constant"
      value: 0.2
    }
  }
}
layer {
  name: "inception_4d/relu_3x3"
  type: "ReLU"
  bottom: "inception_4d/3x3"
  top: "inception_4d/3x3"
}
layer {
  name: "inception_4d/5x5_reduce"
  type: "Convolution"
  bottom: "inception_4c/output"
  top: "inception_4d/5x5_reduce"
  param {
    lr_mult: 1
    decay_mult: 1
  }
  param {
    lr_mult: 2
    decay_mult: 0
  }
  convolution_param {
    num_output: 32
    kernel_size: 1
    weight_filler {
      type: "xavier"
    }
    bias_filler {
      type: "constant"
      value: 0.2
    }
  }
}
layer {
  name: "inception_4d/relu_5x5_reduce"
  type: "ReLU"
  bottom: "inception_4d/5x5_reduce"
  top: "inception_4d/5x5_reduce"
}
layer {
  name: "inception_4d/5x5"
  type: "Convolution"
  bottom: "inception_4d/5x5_reduce"
  top: "inception_4d/5x5"
  param {
    lr_mult: 1
    decay_mult: 1
  }
  param {
    lr_mult: 2
    decay_mult: 0
  }
  convolution_param {
    num_output: 64
    pad: 2
    kernel_size: 5
    weight_filler {
      type: "xavier"
    }
    bias_filler {
      type: "constant"
      value: 0.2
    }
  }
}
layer {
  name: "inception_4d/relu_5x5"
  type: "ReLU"
  bottom: "inception_4d/5x5"
  top: "inception_4d/5x5"
}
layer {
  name: "inception_4d/pool"
  type: "Pooling"
  bottom: "inception_4c/output"
  top: "inception_4d/pool"
  pooling_param {
    pool: MAX
    kernel_size: 3
    stride: 1
    pad: 1
  }
}
layer {
  name: "inception_4d/pool_proj"
  type: "Convolution"
  bottom: "inception_4d/pool"
  top: "inception_4d/pool_proj"
  param {
    lr_mult: 1
    decay_mult: 1
  }
  param {
    lr_mult: 2
    decay_mult: 0
  }
  convolution_param {
    num_output: 64
    kernel_size: 1
    weight_filler {
      type: "xavier"
    }
    bias_filler {
      type: "constant"
      value: 0.2
    }
  }
}
layer {
  name: "inception_4d/relu_pool_proj"
  type: "ReLU"
  bottom: "inception_4d/pool_proj"
  top: "inception_4d/pool_proj"
}
layer {
  name: "inception_4d/output"
  type: "Concat"
  bottom: "inception_4d/1x1"
  bottom: "inception_4d/3x3"
  bottom: "inception_4d/5x5"
  bottom: "inception_4d/pool_proj"
  top: "inception_4d/output"
}
layer {
  name: "loss2/ave_pool"
  type: "Pooling"
  bottom: "inception_4d/output"
  top: "loss2/ave_pool"
  pooling_param {
    pool: AVE
    kernel_size: 5
    stride: 3
  }
}
layer {
  name: "loss2/conv"
  type: "Convolution"
  bottom: "loss2/ave_pool"
  top: "loss2/conv"
  param {
    lr_mult: 1
    decay_mult: 1
  }
  param {
    lr_mult: 2
    decay_mult: 0
  }
  convolution_param {
    num_output: 128
    kernel_size: 1
    weight_filler {
      type: "xavier"
    }
    bias_filler {
      type: "constant"
      value: 0.2
    }
  }
}
layer {
  name: "loss2/relu_conv"
  type: "ReLU"
  bottom: "loss2/conv"
  top: "loss2/conv"
}
layer {
  name: "loss2/fc"
  type: "InnerProduct"
  bottom: "loss2/conv"
  top: "loss2/fc"
  param {
    lr_mult: 1
    decay_mult: 1
  }
  param {
    lr_mult: 2
    decay_mult: 0
  }
  inner_product_param {
    num_output: 1024
    weight_filler {
      type: "xavier"
    }
    bias_filler {
      type: "constant"
      value: 0.2
    }
  }
}
layer {
  name: "loss2/relu_fc"
  type: "ReLU"
  bottom: "loss2/fc"
  top: "loss2/fc"
}
layer {
  name: "loss2/drop_fc"
  type: "Dropout"
  bottom: "loss2/fc"
  top: "loss2/fc"
  dropout_param {
    dropout_ratio: 0.7
  }
}
layer {
  name: "my-loss2/classifier"
  type: "InnerProduct"
  bottom: "loss2/fc"
  top: "my-loss2/classifier"
  param {
    lr_mult: 1
    decay_mult: 1
  }
  param {
    lr_mult: 2
    decay_mult: 0
  }
  inner_product_param {
    num_output: 1
    weight_filler {
      type: "xavier"
    }
    bias_filler {
      type: "constant"
      value: 0
    }
  }
}
layer {
  name: "loss2/loss"
  type: "EuclideanLoss"
  bottom: "my-loss2/classifier"
  bottom: "label"
  top: "loss2/loss"
  loss_weight: 0.3
}
layer {
  name: "inception_4e/1x1"
  type: "Convolution"
  bottom: "inception_4d/output"
  top: "inception_4e/1x1"
  param {
    lr_mult: 1
    decay_mult: 1
  }
  param {
    lr_mult: 2
    decay_mult: 0
  }
  convolution_param {
    num_output: 256
    kernel_size: 1
    weight_filler {
      type: "xavier"
    }
    bias_filler {
      type: "constant"
      value: 0.2
    }
  }
}
layer {
  name: "inception_4e/relu_1x1"
  type: "ReLU"
  bottom: "inception_4e/1x1"
  top: "inception_4e/1x1"
}
layer {
  name: "inception_4e/3x3_reduce"
  type: "Convolution"
  bottom: "inception_4d/output"
  top: "inception_4e/3x3_reduce"
  param {
    lr_mult: 1
    decay_mult: 1
  }
  param {
    lr_mult: 2
    decay_mult: 0
  }
  convolution_param {
    num_output: 160
    kernel_size: 1
    weight_filler {
      type: "xavier"
    }
    bias_filler {
      type: "constant"
      value: 0.2
    }
  }
}
layer {
  name: "inception_4e/relu_3x3_reduce"
  type: "ReLU"
  bottom: "inception_4e/3x3_reduce"
  top: "inception_4e/3x3_reduce"
}
layer {
  name: "inception_4e/3x3"
  type: "Convolution"
  bottom: "inception_4e/3x3_reduce"
  top: "inception_4e/3x3"
  param {
    lr_mult: 1
    decay_mult: 1
  }
  param {
    lr_mult: 2
    decay_mult: 0
  }
  convolution_param {
    num_output: 320
    pad: 1
    kernel_size: 3
    weight_filler {
      type: "xavier"
    }
    bias_filler {
      type: "constant"
      value: 0.2
    }
  }
}
layer {
  name: "inception_4e/relu_3x3"
  type: "ReLU"
  bottom: "inception_4e/3x3"
  top: "inception_4e/3x3"
}
layer {
  name: "inception_4e/5x5_reduce"
  type: "Convolution"
  bottom: "inception_4d/output"
  top: "inception_4e/5x5_reduce"
  param {
    lr_mult: 1
    decay_mult: 1
  }
  param {
    lr_mult: 2
    decay_mult: 0
  }
  convolution_param {
    num_output: 32
    kernel_size: 1
    weight_filler {
      type: "xavier"
    }
    bias_filler {
      type: "constant"
      value: 0.2
    }
  }
}
layer {
  name: "inception_4e/relu_5x5_reduce"
  type: "ReLU"
  bottom: "inception_4e/5x5_reduce"
  top: "inception_4e/5x5_reduce"
}
layer {
  name: "inception_4e/5x5"
  type: "Convolution"
  bottom: "inception_4e/5x5_reduce"
  top: "inception_4e/5x5"
  param {
    lr_mult: 1
    decay_mult: 1
  }
  param {
    lr_mult: 2
    decay_mult: 0
  }
  convolution_param {
    num_output: 128
    pad: 2
    kernel_size: 5
    weight_filler {
      type: "xavier"
    }
    bias_filler {
      type: "constant"
      value: 0.2
    }
  }
}
layer {
  name: "inception_4e/relu_5x5"
  type: "ReLU"
  bottom: "inception_4e/5x5"
  top: "inception_4e/5x5"
}
layer {
  name: "inception_4e/pool"
  type: "Pooling"
  bottom: "inception_4d/output"
  top: "inception_4e/pool"
  pooling_param {
    pool: MAX
    kernel_size: 3
    stride: 1
    pad: 1
  }
}
layer {
  name: "inception_4e/pool_proj"
  type: "Convolution"
  bottom: "inception_4e/pool
I1029 13:23:09.090278  3605 layer_factory.hpp:77] Creating layer data
I1029 13:23:09.090299  3605 net.cpp:84] Creating Layer data
I1029 13:23:09.090308  3605 net.cpp:380] data -> data
I1029 13:23:09.090335  3605 net.cpp:380] data -> label
I1029 13:23:09.090353  3605 hdf5_data_layer.cpp:80] Loading list of HDF5 filenames from: ./train.txt
I1029 13:23:09.090420  3605 hdf5_data_layer.cpp:94] Number of HDF5 files: 1
I1029 13:23:09.092368  3605 hdf5.cpp:32] Datatype class: H5T_FLOAT
I1029 13:23:10.684525  3605 net.cpp:122] Setting up data
I1029 13:23:10.684592  3605 net.cpp:129] Top shape: 30 3 224 224 (4515840)
I1029 13:23:10.684602  3605 net.cpp:129] Top shape: 30 (30)
I1029 13:23:10.684607  3605 net.cpp:137] Memory required for data: 18063480
I1029 13:23:10.684624  3605 layer_factory.hpp:77] Creating layer label_data_1_split
I1029 13:23:10.684653  3605 net.cpp:84] Creating Layer label_data_1_split
I1029 13:23:10.684665  3605 net.cpp:406] label_data_1_split <- label
I1029 13:23:10.684690  3605 net.cpp:380] label_data_1_split -> label_data_1_split_0
I1029 13:23:10.684712  3605 net.cpp:380] label_data_1_split -> label_data_1_split_1
I1029 13:23:10.684725  3605 net.cpp:380] label_data_1_split -> label_data_1_split_2
I1029 13:23:10.684798  3605 net.cpp:122] Setting up label_data_1_split
I1029 13:23:10.684808  3605 net.cpp:129] Top shape: 30 (30)
I1029 13:23:10.684815  3605 net.cpp:129] Top shape: 30 (30)
I1029 13:23:10.684823  3605 net.cpp:129] Top shape: 30 (30)
I1029 13:23:10.684829  3605 net.cpp:137] Memory required for data: 18063840
I1029 13:23:10.684835  3605 layer_factory.hpp:77] Creating layer conv1/7x7_s2
I1029 13:23:10.684862  3605 net.cpp:84] Creating Layer conv1/7x7_s2
I1029 13:23:10.684895  3605 net.cpp:406] conv1/7x7_s2 <- data
I1029 13:23:10.684906  3605 net.cpp:380] conv1/7x7_s2 -> conv1/7x7_s2
I1029 13:23:11.176970  3605 net.cpp:122] Setting up conv1/7x7_s2
I1029 13:23:11.177014  3605 net.cpp:129] Top shape: 30 64 112 112 (24084480)
I1029 13:23:11.177021  3605 net.cpp:137] Memory required for data: 114401760
I1029 13:23:11.177104  3605 layer_factory.hpp:77] Creating layer conv1/relu_7x7
I1029 13:23:11.177126  3605 net.cpp:84] Creating Layer conv1/relu_7x7
I1029 13:23:11.177135  3605 net.cpp:406] conv1/relu_7x7 <- conv1/7x7_s2
I1029 13:23:11.177145  3605 net.cpp:367] conv1/relu_7x7 -> conv1/7x7_s2 (in-place)
I1029 13:23:11.178755  3605 net.cpp:122] Setting up conv1/relu_7x7
I1029 13:23:11.178794  3605 net.cpp:129] Top shape: 30 64 112 112 (24084480)
I1029 13:23:11.178802  3605 net.cpp:137] Memory required for data: 210739680
I1029 13:23:11.178809  3605 layer_factory.hpp:77] Creating layer pool1/3x3_s2
I1029 13:23:11.178830  3605 net.cpp:84] Creating Layer pool1/3x3_s2
I1029 13:23:11.178838  3605 net.cpp:406] pool1/3x3_s2 <- conv1/7x7_s2
I1029 13:23:11.178850  3605 net.cpp:380] pool1/3x3_s2 -> pool1/3x3_s2
I1029 13:23:11.178936  3605 net.cpp:122] Setting up pool1/3x3_s2
I1029 13:23:11.178946  3605 net.cpp:129] Top shape: 30 64 56 56 (6021120)
I1029 13:23:11.178951  3605 net.cpp:137] Memory required for data: 234824160
I1029 13:23:11.178956  3605 layer_factory.hpp:77] Creating layer pool1/norm1
I1029 13:23:11.178972  3605 net.cpp:84] Creating Layer pool1/norm1
I1029 13:23:11.178977  3605 net.cpp:406] pool1/norm1 <- pool1/3x3_s2
I1029 13:23:11.178984  3605 net.cpp:380] pool1/norm1 -> pool1/norm1
I1029 13:23:11.180992  3605 net.cpp:122] Setting up pool1/norm1
I1029 13:23:11.181012  3605 net.cpp:129] Top shape: 30 64 56 56 (6021120)
I1029 13:23:11.181016  3605 net.cpp:137] Memory required for data: 258908640
I1029 13:23:11.181022  3605 layer_factory.hpp:77] Creating layer conv2/3x3_reduce
I1029 13:23:11.181040  3605 net.cpp:84] Creating Layer conv2/3x3_reduce
I1029 13:23:11.181044  3605 net.cpp:406] conv2/3x3_reduce <- pool1/norm1
I1029 13:23:11.181058  3605 net.cpp:380] conv2/3x3_reduce -> conv2/3x3_reduce
I1029 13:23:11.187741  3605 net.cpp:122] Setting up conv2/3x3_reduce
I1029 13:23:11.187783  3605 net.cpp:129] Top shape: 30 64 56 56 (6021120)
I1029 13:23:11.187788  3605 net.cpp:137] Memory required for data: 282993120
I1029 13:23:11.187811  3605 layer_factory.hpp:77] Creating layer conv2/relu_3x3_reduce
I1029 13:23:11.187826  3605 net.cpp:84] Creating Layer conv2/relu_3x3_reduce
I1029 13:23:11.187832  3605 net.cpp:406] conv2/relu_3x3_reduce <- conv2/3x3_reduce
I1029 13:23:11.187842  3605 net.cpp:367] conv2/relu_3x3_reduce -> conv2/3x3_reduce (in-place)
I1029 13:23:11.189868  3605 net.cpp:122] Setting up conv2/relu_3x3_reduce
I1029 13:23:11.189893  3605 net.cpp:129] Top shape: 30 64 56 56 (6021120)
I1029 13:23:11.189898  3605 net.cpp:137] Memory required for data: 307077600
I1029 13:23:11.189905  3605 layer_factory.hpp:77] Creating layer conv2/3x3
I1029 13:23:11.189930  3605 net.cpp:84] Creating Layer conv2/3x3
I1029 13:23:11.189936  3605 net.cpp:406] conv2/3x3 <- conv2/3x3_reduce
I1029 13:23:11.189949  3605 net.cpp:380] conv2/3x3 -> conv2/3x3
I1029 13:23:11.197329  3605 net.cpp:122] Setting up conv2/3x3
I1029 13:23:11.197365  3605 net.cpp:129] Top shape: 30 192 56 56 (18063360)
I1029 13:23:11.197369  3605 net.cpp:137] Memory required for data: 379331040
I1029 13:23:11.197394  3605 layer_factory.hpp:77] Creating layer conv2/relu_3x3
I1029 13:23:11.197408  3605 net.cpp:84] Creating Layer conv2/relu_3x3
I1029 13:23:11.197415  3605 net.cpp:406] conv2/relu_3x3 <- conv2/3x3
I1029 13:23:11.197424  3605 net.cpp:367] conv2/relu_3x3 -> conv2/3x3 (in-place)
I1029 13:23:11.199141  3605 net.cpp:122] Setting up conv2/relu_3x3
I1029 13:23:11.199151  3605 net.cpp:129] Top shape: 30 192 56 56 (18063360)
I1029 13:23:11.199156  3605 net.cpp:137] Memory required for data: 451584480
I1029 13:23:11.199159  3605 layer_factory.hpp:77] Creating layer conv2/norm2
I1029 13:23:11.199172  3605 net.cpp:84] Creating Layer conv2/norm2
I1029 13:23:11.199177  3605 net.cpp:406] conv2/norm2 <- conv2/3x3
I1029 13:23:11.199183  3605 net.cpp:380] conv2/norm2 -> conv2/norm2
I1029 13:23:11.201421  3605 net.cpp:122] Setting up conv2/norm2
I1029 13:23:11.201433  3605 net.cpp:129] Top shape: 30 192 56 56 (18063360)
I1029 13:23:11.201478  3605 net.cpp:137] Memory required for data: 523837920
I1029 13:23:11.201483  3605 layer_factory.hpp:77] Creating layer pool2/3x3_s2
I1029 13:23:11.201493  3605 net.cpp:84] Creating Layer pool2/3x3_s2
I1029 13:23:11.201498  3605 net.cpp:406] pool2/3x3_s2 <- conv2/norm2
I1029 13:23:11.201506  3605 net.cpp:380] pool2/3x3_s2 -> pool2/3x3_s2
I1029 13:23:11.201551  3605 net.cpp:122] Setting up pool2/3x3_s2
I1029 13:23:11.201560  3605 net.cpp:129] Top shape: 30 192 28 28 (4515840)
I1029 13:23:11.201565  3605 net.cpp:137] Memory required for data: 541901280
I1029 13:23:11.201568  3605 layer_factory.hpp:77] Creating layer pool2/3x3_s2_pool2/3x3_s2_0_split
I1029 13:23:11.201577  3605 net.cpp:84] Creating Layer pool2/3x3_s2_pool2/3x3_s2_0_split
I1029 13:23:11.201581  3605 net.cpp:406] pool2/3x3_s2_pool2/3x3_s2_0_split <- pool2/3x3_s2
I1029 13:23:11.201588  3605 net.cpp:380] pool2/3x3_s2_pool2/3x3_s2_0_split -> pool2/3x3_s2_pool2/3x3_s2_0_split_0
I1029 13:23:11.201596  3605 net.cpp:380] pool2/3x3_s2_pool2/3x3_s2_0_split -> pool2/3x3_s2_pool2/3x3_s2_0_split_1
I1029 13:23:11.201607  3605 net.cpp:380] pool2/3x3_s2_pool2/3x3_s2_0_split -> pool2/3x3_s2_pool2/3x3_s2_0_split_2
I1029 13:23:11.201616  3605 net.cpp:380] pool2/3x3_s2_pool2/3x3_s2_0_split -> pool2/3x3_s2_pool2/3x3_s2_0_split_3
I1029 13:23:11.201686  3605 net.cpp:122] Setting up pool2/3x3_s2_pool2/3x3_s2_0_split
I1029 13:23:11.201692  3605 net.cpp:129] Top shape: 30 192 28 28 (4515840)
I1029 13:23:11.201699  3605 net.cpp:129] Top shape: 30 192 28 28 (4515840)
I1029 13:23:11.201704  3605 net.cpp:129] Top shape: 30 192 28 28 (4515840)
I1029 13:23:11.201709  3605 net.cpp:129] Top shape: 30 192 28 28 (4515840)
I1029 13:23:11.201712  3605 net.cpp:137] Memory required for data: 614154720
I1029 13:23:11.201716  3605 layer_factory.hpp:77] Creating layer inception_3a/1x1
I1029 13:23:11.201732  3605 net.cpp:84] Creating Layer inception_3a/1x1
I1029 13:23:11.201736  3605 net.cpp:406] inception_3a/1x1 <- pool2/3x3_s2_pool2/3x3_s2_0_split_0
I1029 13:23:11.201745  3605 net.cpp:380] inception_3a/1x1 -> inception_3a/1x1
I1029 13:23:11.207617  3605 net.cpp:122] Setting up inception_3a/1x1
I1029 13:23:11.207657  3605 net.cpp:129] Top shape: 30 64 28 28 (1505280)
I1029 13:23:11.207662  3605 net.cpp:137] Memory required for data: 620175840
I1029 13:23:11.207676  3605 layer_factory.hpp:77] Creating layer inception_3a/relu_1x1
I1029 13:23:11.207690  3605 net.cpp:84] Creating Layer inception_3a/relu_1x1
I1029 13:23:11.207700  3605 net.cpp:406] inception_3a/relu_1x1 <- inception_3a/1x1
I1029 13:23:11.207710  3605 net.cpp:367] inception_3a/relu_1x1 -> inception_3a/1x1 (in-place)
I1029 13:23:11.207914  3605 net.cpp:122] Setting up inception_3a/relu_1x1
I1029 13:23:11.207924  3605 net.cpp:129] Top shape: 30 64 28 28 (1505280)
I1029 13:23:11.207929  3605 net.cpp:137] Memory required for data: 626196960
I1029 13:23:11.207933  3605 layer_factory.hpp:77] Creating layer inception_3a/3x3_reduce
I1029 13:23:11.207947  3605 net.cpp:84] Creating Layer inception_3a/3x3_reduce
I1029 13:23:11.207952  3605 net.cpp:406] inception_3a/3x3_reduce <- pool2/3x3_s2_pool2/3x3_s2_0_split_1
I1029 13:23:11.207962  3605 net.cpp:380] inception_3a/3x3_reduce -> inception_3a/3x3_reduce
I1029 13:23:11.212909  3605 net.cpp:122] Setting up inception_3a/3x3_reduce
I1029 13:23:11.212951  3605 net.cpp:129] Top shape: 30 96 28 28 (2257920)
I1029 13:23:11.212956  3605 net.cpp:137] Memory required for data: 635228640
I1029 13:23:11.212982  3605 layer_factory.hpp:77] Creating layer inception_3a/relu_3x3_reduce
I1029 13:23:11.213001  3605 net.cpp:84] Creating Layer inception_3a/relu_3x3_reduce
I1029 13:23:11.213008  3605 net.cpp:406] inception_3a/relu_3x3_reduce <- inception_3a/3x3_reduce
I1029 13:23:11.213021  3605 net.cpp:367] inception_3a/relu_3x3_reduce -> inception_3a/3x3_reduce (in-place)
I1029 13:23:11.215363  3605 net.cpp:122] Setting up inception_3a/relu_3x3_reduce
I1029 13:23:11.215399  3605 net.cpp:129] Top shape: 30 96 28 28 (2257920)
I1029 13:23:11.215404  3605 net.cpp:137] Memory required for data: 644260320
I1029 13:23:11.215448  3605 layer_factory.hpp:77] Creating layer inception_3a/3x3
I1029 13:23:11.215474  3605 net.cpp:84] Creating Layer inception_3a/3x3
I1029 13:23:11.215481  3605 net.cpp:406] inception_3a/3x3 <- inception_3a/3x3_reduce
I1029 13:23:11.215495  3605 net.cpp:380] inception_3a/3x3 -> inception_3a/3x3
I1029 13:23:11.222379  3605 net.cpp:122] Setting up inception_3a/3x3
I1029 13:23:11.222412  3605 net.cpp:129] Top shape: 30 128 28 28 (3010560)
I1029 13:23:11.222421  3605 net.cpp:137] Memory required for data: 656302560
I1029 13:23:11.222435  3605 layer_factory.hpp:77] Creating layer inception_3a/relu_3x3
I1029 13:23:11.222448  3605 net.cpp:84] Creating Layer inception_3a/relu_3x3
I1029 13:23:11.222456  3605 net.cpp:406] inception_3a/relu_3x3 <- inception_3a/3x3
I1029 13:23:11.222470  3605 net.cpp:367] inception_3a/relu_3x3 -> inception_3a/3x3 (in-place)
I1029 13:23:11.224148  3605 net.cpp:122] Setting up inception_3a/relu_3x3
I1029 13:23:11.224158  3605 net.cpp:129] Top shape: 30 128 28 28 (3010560)
I1029 13:23:11.224161  3605 net.cpp:137] Memory required for data: 668344800
I1029 13:23:11.224165  3605 layer_factory.hpp:77] Creating layer inception_3a/5x5_reduce
I1029 13:23:11.224184  3605 net.cpp:84] Creating Layer inception_3a/5x5_reduce
I1029 13:23:11.224189  3605 net.cpp:406] inception_3a/5x5_reduce <- pool2/3x3_s2_pool2/3x3_s2_0_split_2
I1029 13:23:11.224198  3605 net.cpp:380] inception_3a/5x5_reduce -> inception_3a/5x5_reduce
I1029 13:23:11.225601  3605 net.cpp:122] Setting up inception_3a/5x5_reduce
I1029 13:23:11.225615  3605 net.cpp:129] Top shape: 30 16 28 28 (376320)
I1029 13:23:11.225620  3605 net.cpp:137] Memory required for data: 669850080
I1029 13:23:11.225627  3605 layer_factory.hpp:77] Creating layer inception_3a/relu_5x5_reduce
I1029 13:23:11.225633  3605 net.cpp:84] Creating Layer inception_3a/relu_5x5_reduce
I1029 13:23:11.225638  3605 net.cpp:406] inception_3a/relu_5x5_reduce <- inception_3a/5x5_reduce
I1029 13:23:11.225646  3605 net.cpp:367] inception_3a/relu_5x5_reduce -> inception_3a/5x5_reduce (in-place)
I1029 13:23:11.227602  3605 net.cpp:122] Setting up inception_3a/relu_5x5_reduce
I1029 13:23:11.227612  3605 net.cpp:129] Top shape: 30 16 28 28 (376320)
I1029 13:23:11.227617  3605 net.cpp:137] Memory required for data: 671355360
I1029 13:23:11.227622  3605 layer_factory.hpp:77] Creating layer inception_3a/5x5
I1029 13:23:11.227632  3605 net.cpp:84] Creating Layer inception_3a/5x5
I1029 13:23:11.227638  3605 net.cpp:406] inception_3a/5x5 <- inception_3a/5x5_reduce
I1029 13:23:11.227648  3605 net.cpp:380] inception_3a/5x5 -> inception_3a/5x5
I1029 13:23:11.230393  3605 net.cpp:122] Setting up inception_3a/5x5
I1029 13:23:11.230412  3605 net.cpp:129] Top shape: 30 32 28 28 (752640)
I1029 13:23:11.230417  3605 net.cpp:137] Memory required for data: 674365920
I1029 13:23:11.230425  3605 layer_factory.hpp:77] Creating layer inception_3a/relu_5x5
I1029 13:23:11.230433  3605 net.cpp:84] Creating Layer inception_3a/relu_5x5
I1029 13:23:11.230439  3605 net.cpp:406] inception_3a/relu_5x5 <- inception_3a/5x5
I1029 13:23:11.230448  3605 net.cpp:367] inception_3a/relu_5x5 -> inception_3a/5x5 (in-place)
I1029 13:23:11.231009  3605 net.cpp:122] Setting up inception_3a/relu_5x5
I1029 13:23:11.231019  3605 net.cpp:129] Top shape: 30 32 28 28 (752640)
I1029 13:23:11.231024  3605 net.cpp:137] Memory required for data: 677376480
I1029 13:23:11.231027  3605 layer_factory.hpp:77] Creating layer inception_3a/pool
I1029 13:23:11.231037  3605 net.cpp:84] Creating Layer inception_3a/pool
I1029 13:23:11.231042  3605 net.cpp:406] inception_3a/pool <- pool2/3x3_s2_pool2/3x3_s2_0_split_3
I1029 13:23:11.231050  3605 net.cpp:380] inception_3a/pool -> inception_3a/pool
I1029 13:23:11.231097  3605 net.cpp:122] Setting up inception_3a/pool
I1029 13:23:11.231107  3605 net.cpp:129] Top shape: 30 192 28 28 (4515840)
I1029 13:23:11.231112  3605 net.cpp:137] Memory required for data: 695439840
I1029 13:23:11.231115  3605 layer_factory.hpp:77] Creating layer inception_3a/pool_proj
I1029 13:23:11.231129  3605 net.cpp:84] Creating Layer inception_3a/pool_proj
I1029 13:23:11.231169  3605 net.cpp:406] inception_3a/pool_proj <- inception_3a/pool
I1029 13:23:11.231179  3605 net.cpp:380] inception_3a/pool_proj -> inception_3a/pool_proj
I1029 13:23:11.235498  3605 net.cpp:122] Setting up inception_3a/pool_proj
I1029 13:23:11.235510  3605 net.cpp:129] Top shape: 30 32 28 28 (752640)
I1029 13:23:11.235515  3605 net.cpp:137] Memory required for data: 698450400
I1029 13:23:11.235530  3605 layer_factory.hpp:77] Creating layer inception_3a/relu_pool_proj
I1029 13:23:11.235539  3605 net.cpp:84] Creating Layer inception_3a/relu_pool_proj
I1029 13:23:11.235544  3605 net.cpp:406] inception_3a/relu_pool_proj <- inception_3a/pool_proj
I1029 13:23:11.235550  3605 net.cpp:367] inception_3a/relu_pool_proj -> inception_3a/pool_proj (in-place)
I1029 13:23:11.236122  3605 net.cpp:122] Setting up inception_3a/relu_pool_proj
I1029 13:23:11.236136  3605 net.cpp:129] Top shape: 30 32 28 28 (752640)
I1029 13:23:11.236140  3605 net.cpp:137] Memory required for data: 701460960
I1029 13:23:11.236145  3605 layer_factory.hpp:77] Creating layer inception_3a/output
I1029 13:23:11.236151  3605 net.cpp:84] Creating Layer inception_3a/output
I1029 13:23:11.236156  3605 net.cpp:406] inception_3a/output <- inception_3a/1x1
I1029 13:23:11.236161  3605 net.cpp:406] inception_3a/output <- inception_3a/3x3
I1029 13:23:11.236167  3605 net.cpp:406] inception_3a/output <- inception_3a/5x5
I1029 13:23:11.236172  3605 net.cpp:406] inception_3a/output <- inception_3a/pool_proj
I1029 13:23:11.236181  3605 net.cpp:380] inception_3a/output -> inception_3a/output
I1029 13:23:11.236209  3605 net.cpp:122] Setting up inception_3a/output
I1029 13:23:11.236218  3605 net.cpp:129] Top shape: 30 256 28 28 (6021120)
I1029 13:23:11.236222  3605 net.cpp:137] Memory required for data: 725545440
I1029 13:23:11.236225  3605 layer_factory.hpp:77] Creating layer inception_3a/output_inception_3a/output_0_split
I1029 13:23:11.236235  3605 net.cpp:84] Creating Layer inception_3a/output_inception_3a/output_0_split
I1029 13:23:11.236239  3605 net.cpp:406] inception_3a/output_inception_3a/output_0_split <- inception_3a/output
I1029 13:23:11.236248  3605 net.cpp:380] inception_3a/output_inception_3a/output_0_split -> inception_3a/output_inception_3a/output_0_split_0
I1029 13:23:11.236256  3605 net.cpp:380] inception_3a/output_inception_3a/output_0_split -> inception_3a/output_inception_3a/output_0_split_1
I1029 13:23:11.236265  3605 net.cpp:380] inception_3a/output_inception_3a/output_0_split -> inception_3a/output_inception_3a/output_0_split_2
I1029 13:23:11.236274  3605 net.cpp:380] inception_3a/output_inception_3a/output_0_split -> inception_3a/output_inception_3a/output_0_split_3
I1029 13:23:11.236348  3605 net.cpp:122] Setting up inception_3a/output_inception_3a/output_0_split
I1029 13:23:11.236356  3605 net.cpp:129] Top shape: 30 256 28 28 (6021120)
I1029 13:23:11.236362  3605 net.cpp:129] Top shape: 30 256 28 28 (6021120)
I1029 13:23:11.236367  3605 net.cpp:129] Top shape: 30 256 28 28 (6021120)
I1029 13:23:11.236373  3605 net.cpp:129] Top shape: 30 256 28 28 (6021120)
I1029 13:23:11.236377  3605 net.cpp:137] Memory required for data: 821883360
I1029 13:23:11.236382  3605 layer_factory.hpp:77] Creating layer inception_3b/1x1
I1029 13:23:11.236392  3605 net.cpp:84] Creating Layer inception_3b/1x1
I1029 13:23:11.236397  3605 net.cpp:406] inception_3b/1x1 <- inception_3a/output_inception_3a/output_0_split_0
I1029 13:23:11.236407  3605 net.cpp:380] inception_3b/1x1 -> inception_3b/1x1
I1029 13:23:11.242401  3605 net.cpp:122] Setting up inception_3b/1x1
I1029 13:23:11.242440  3605 net.cpp:129] Top shape: 30 128 28 28 (3010560)
I1029 13:23:11.242444  3605 net.cpp:137] Memory required for data: 833925600
I1029 13:23:11.242458  3605 layer_factory.hpp:77] Creating layer inception_3b/relu_1x1
I1029 13:23:11.242477  3605 net.cpp:84] Creating Layer inception_3b/relu_1x1
I1029 13:23:11.242483  3605 net.cpp:406] inception_3b/relu_1x1 <- inception_3b/1x1
I1029 13:23:11.242493  3605 net.cpp:367] inception_3b/relu_1x1 -> inception_3b/1x1 (in-place)
I1029 13:23:11.245609  3605 net.cpp:122] Setting up inception_3b/relu_1x1
I1029 13:23:11.245621  3605 net.cpp:129] Top shape: 30 128 28 28 (3010560)
I1029 13:23:11.245626  3605 net.cpp:137] Memory required for data: 845967840
I1029 13:23:11.245631  3605 layer_factory.hpp:77] Creating layer inception_3b/3x3_reduce
I1029 13:23:11.245647  3605 net.cpp:84] Creating Layer inception_3b/3x3_reduce
I1029 13:23:11.245653  3605 net.cpp:406] inception_3b/3x3_reduce <- inception_3a/output_inception_3a/output_0_split_1
I1029 13:23:11.245666  3605 net.cpp:380] inception_3b/3x3_reduce -> inception_3b/3x3_reduce
I1029 13:23:11.252952  3605 net.cpp:122] Setting up inception_3b/3x3_reduce
I1029 13:23:11.252984  3605 net.cpp:129] Top shape: 30 128 28 28 (3010560)
I1029 13:23:11.252990  3605 net.cpp:137] Memory required for data: 858010080
I1029 13:23:11.253003  3605 layer_factory.hpp:77] Creating layer inception_3b/relu_3x3_reduce
I1029 13:23:11.253021  3605 net.cpp:84] Creating Layer inception_3b/relu_3x3_reduce
I1029 13:23:11.253028  3605 net.cpp:406] inception_3b/relu_3x3_reduce <- inception_3b/3x3_reduce
I1029 13:23:11.253039  3605 net.cpp:367] inception_3b/relu_3x3_reduce -> inception_3b/3x3_reduce (in-place)
I1029 13:23:11.255048  3605 net.cpp:122] Setting up inception_3b/relu_3x3_reduce
I1029 13:23:11.255064  3605 net.cpp:129] Top shape: 30 128 28 28 (3010560)
I1029 13:23:11.255069  3605 net.cpp:137] Memory required for data: 870052320
I1029 13:23:11.255075  3605 layer_factory.hpp:77] Creating layer inception_3b/3x3
I1029 13:23:11.255110  3605 net.cpp:84] Creating Layer inception_3b/3x3
I1029 13:23:11.255118  3605 net.cpp:406] inception_3b/3x3 <- inception_3b/3x3_reduce
I1029 13:23:11.255128  3605 net.cpp:380] inception_3b/3x3 -> inception_3b/3x3
I1029 13:23:11.262226  3605 net.cpp:122] Setting up inception_3b/3x3
I1029 13:23:11.262267  3605 net.cpp:129] Top shape: 30 192 28 28 (4515840)
I1029 13:23:11.262274  3605 net.cpp:137] Memory required for data: 888115680
I1029 13:23:11.262291  3605 layer_factory.hpp:77] Creating layer inception_3b/relu_3x3
I1029 13:23:11.262310  3605 net.cpp:84] Creating Layer inception_3b/relu_3x3
I1029 13:23:11.262318  3605 net.cpp:406] inception_3b/relu_3x3 <- inception_3b/3x3
I1029 13:23:11.262329  3605 net.cpp:367] inception_3b/relu_3x3 -> inception_3b/3x3 (in-place)
I1029 13:23:11.263957  3605 net.cpp:122] Setting up inception_3b/relu_3x3
I1029 13:23:11.263970  3605 net.cpp:129] Top shape: 30 192 28 28 (4515840)
I1029 13:23:11.263975  3605 net.cpp:137] Memory required for data: 906179040
I1029 13:23:11.263980  3605 layer_factory.hpp:77] Creating layer inception_3b/5x5_reduce
I1029 13:23:11.264001  3605 net.cpp:84] Creating Layer inception_3b/5x5_reduce
I1029 13:23:11.264008  3605 net.cpp:406] inception_3b/5x5_reduce <- inception_3a/output_inception_3a/output_0_split_2
I1029 13:23:11.264020  3605 net.cpp:380] inception_3b/5x5_reduce -> inception_3b/5x5_reduce
I1029 13:23:11.270843  3605 net.cpp:122] Setting up inception_3b/5x5_reduce
I1029 13:23:11.270895  3605 net.cpp:129] Top shape: 30 32 28 28 (752640)
I1029 13:23:11.270900  3605 net.cpp:137] Memory required for data: 909189600
I1029 13:23:11.270920  3605 layer_factory.hpp:77] Creating layer inception_3b/relu_5x5_reduce
I1029 13:23:11.270939  3605 net.cpp:84] Creating Layer inception_3b/relu_5x5_reduce
I1029 13:23:11.270949  3605 net.cpp:406] inception_3b/relu_5x5_reduce <- inception_3b/5x5_reduce
I1029 13:23:11.270962  3605 net.cpp:367] inception_3b/relu_5x5_reduce -> inception_3b/5x5_reduce (in-place)
I1029 13:23:11.273037  3605 net.cpp:122] Setting up inception_3b/relu_5x5_reduce
I1029 13:23:11.273054  3605 net.cpp:129] Top shape: 30 32 28 28 (752640)
I1029 13:23:11.273059  3605 net.cpp:137] Memory required for data: 912200160
I1029 13:23:11.273066  3605 layer_factory.hpp:77] Creating layer inception_3b/5x5
I1029 13:23:11.273083  3605 net.cpp:84] Creating Layer inception_3b/5x5
I1029 13:23:11.273089  3605 net.cpp:406] inception_3b/5x5 <- inception_3b/5x5_reduce
I1029 13:23:11.273098  3605 net.cpp:380] inception_3b/5x5 -> inception_3b/5x5
I1029 13:23:11.281392  3605 net.cpp:122] Setting up inception_3b/5x5
I1029 13:23:11.281435  3605 net.cpp:129] Top shape: 30 96 28 28 (2257920)
I1029 13:23:11.281441  3605 net.cpp:137] Memory required for data: 921231840
I1029 13:23:11.281460  3605 layer_factory.hpp:77] Creating layer inception_3b/relu_5x5
I1029 13:23:11.281477  3605 net.cpp:84] Creating Layer inception_3b/relu_5x5
I1029 13:23:11.281486  3605 net.cpp:406] inception_3b/relu_5x5 <- inception_3b/5x5
I1029 13:23:11.281496  3605 net.cpp:367] inception_3b/relu_5x5 -> inception_3b/5x5 (in-place)
I1029 13:23:11.283500  3605 net.cpp:122] Setting up inception_3b/relu_5x5
I1029 13:23:11.283524  3605 net.cpp:129] Top shape: 30 96 28 28 (2257920)
I1029 13:23:11.283529  3605 net.cpp:137] Memory required for data: 930263520
I1029 13:23:11.283536  3605 layer_factory.hpp:77] Creating layer inception_3b/pool
I1029 13:23:11.283550  3605 net.cpp:84] Creating Layer inception_3b/pool
I1029 13:23:11.283556  3605 net.cpp:406] inception_3b/pool <- inception_3a/output_inception_3a/output_0_split_3
I1029 13:23:11.283567  3605 net.cpp:380] inception_3b/pool -> inception_3b/pool
I1029 13:23:11.283635  3605 net.cpp:122] Setting up inception_3b/pool
I1029 13:23:11.283645  3605 net.cpp:129] Top shape: 30 256 28 28 (6021120)
I1029 13:23:11.283650  3605 net.cpp:137] Memory required for data: 954348000
I1029 13:23:11.283654  3605 layer_factory.hpp:77] Creating layer inception_3b/pool_proj
I1029 13:23:11.283671  3605 net.cpp:84] Creating Layer inception_3b/pool_proj
I1029 13:23:11.283676  3605 net.cpp:406] inception_3b/pool_proj <- inception_3b/pool
I1029 13:23:11.283687  3605 net.cpp:380] inception_3b/pool_proj -> inception_3b/pool_proj
I1029 13:23:11.290849  3605 net.cpp:122] Setting up inception_3b/pool_proj
I1029 13:23:11.290891  3605 net.cpp:129] Top shape: 30 64 28 28 (1505280)
I1029 13:23:11.290897  3605 net.cpp:137] Memory required for data: 960369120
I1029 13:23:11.290915  3605 layer_factory.hpp:77] Creating layer inception_3b/relu_pool_proj
I1029 13:23:11.290928  3605 net.cpp:84] Creating Layer inception_3b/relu_pool_proj
I1029 13:23:11.290936  3605 net.cpp:406] inception_3b/relu_pool_proj <- inception_3b/pool_proj
I1029 13:23:11.290946  3605 net.cpp:367] inception_3b/relu_pool_proj -> inception_3b/pool_proj (in-place)
I1029 13:23:11.292963  3605 net.cpp:122] Setting up inception_3b/relu_pool_proj
I1029 13:23:11.292985  3605 net.cpp:129] Top shape: 30 64 28 28 (1505280)
I1029 13:23:11.292990  3605 net.cpp:137] Memory required for data: 966390240
I1029 13:23:11.292996  3605 layer_factory.hpp:77] Creating layer inception_3b/output
I1029 13:23:11.293010  3605 net.cpp:84] Creating Layer inception_3b/output
I1029 13:23:11.293016  3605 net.cpp:406] inception_3b/output <- inception_3b/1x1
I1029 13:23:11.293025  3605 net.cpp:406] inception_3b/output <- inception_3b/3x3
I1029 13:23:11.293031  3605 net.cpp:406] inception_3b/output <- inception_3b/5x5
I1029 13:23:11.293037  3605 net.cpp:406] inception_3b/output <- inception_3b/pool_proj
I1029 13:23:11.293045  3605 net.cpp:380] inception_3b/output -> inception_3b/output
I1029 13:23:11.293090  3605 net.cpp:122] Setting up inception_3b/output
I1029 13:23:11.293099  3605 net.cpp:129] Top shape: 30 480 28 28 (11289600)
I1029 13:23:11.293103  3605 net.cpp:137] Memory required for data: 1011548640
I1029 13:23:11.293108  3605 layer_factory.hpp:77] Creating layer pool3/3x3_s2
I1029 13:23:11.293118  3605 net.cpp:84] Creating Layer pool3/3x3_s2
I1029 13:23:11.293123  3605 net.cpp:406] pool3/3x3_s2 <- inception_3b/output
I1029 13:23:11.293131  3605 net.cpp:380] pool3/3x3_s2 -> pool3/3x3_s2
I1029 13:23:11.293184  3605 net.cpp:122] Setting up pool3/3x3_s2
I1029 13:23:11.293191  3605 net.cpp:129] Top shape: 30 480 14 14 (2822400)
I1029 13:23:11.293195  3605 net.cpp:137] Memory required for data: 1022838240
I1029 13:23:11.293200  3605 layer_factory.hpp:77] Creating layer pool3/3x3_s2_pool3/3x3_s2_0_split
I1029 13:23:11.293208  3605 net.cpp:84] Creating Layer pool3/3x3_s2_pool3/3x3_s2_0_split
I1029 13:23:11.293212  3605 net.cpp:406] pool3/3x3_s2_pool3/3x3_s2_0_split <- pool3/3x3_s2
I1029 13:23:11.293243  3605 net.cpp:380] pool3/3x3_s2_pool3/3x3_s2_0_split -> pool3/3x3_s2_pool3/3x3_s2_0_split_0
I1029 13:23:11.293253  3605 net.cpp:380] pool3/3x3_s2_pool3/3x3_s2_0_split -> pool3/3x3_s2_pool3/3x3_s2_0_split_1
I1029 13:23:11.293262  3605 net.cpp:380] pool3/3x3_s2_pool3/3x3_s2_0_split -> pool3/3x3_s2_pool3/3x3_s2_0_split_2
I1029 13:23:11.293273  3605 net.cpp:380] pool3/3x3_s2_pool3/3x3_s2_0_split -> pool3/3x3_s2_pool3/3x3_s2_0_split_3
I1029 13:23:11.293355  3605 net.cpp:122] Setting up pool3/3x3_s2_pool3/3x3_s2_0_split
I1029 13:23:11.293365  3605 net.cpp:129] Top shape: 30 480 14 14 (2822400)
I1029 13:23:11.293370  3605 net.cpp:129] Top shape: 30 480 14 14 (2822400)
I1029 13:23:11.293376  3605 net.cpp:129] Top shape: 30 480 14 14 (2822400)
I1029 13:23:11.293383  3605 net.cpp:129] Top shape: 30 480 14 14 (2822400)
I1029 13:23:11.293387  3605 net.cpp:137] Memory required for data: 1067996640
I1029 13:23:11.293392  3605 layer_factory.hpp:77] Creating layer inception_4a/1x1
I1029 13:23:11.293407  3605 net.cpp:84] Creating Layer inception_4a/1x1
I1029 13:23:11.293412  3605 net.cpp:406] inception_4a/1x1 <- pool3/3x3_s2_pool3/3x3_s2_0_split_0
I1029 13:23:11.293422  3605 net.cpp:380] inception_4a/1x1 -> inception_4a/1x1
I1029 13:23:11.301107  3605 net.cpp:122] Setting up inception_4a/1x1
I1029 13:23:11.301148  3605 net.cpp:129] Top shape: 30 192 14 14 (1128960)
I1029 13:23:11.301153  3605 net.cpp:137] Memory required for data: 1072512480
I1029 13:23:11.301172  3605 layer_factory.hpp:77] Creating layer inception_4a/relu_1x1
I1029 13:23:11.301192  3605 net.cpp:84] Creating Layer inception_4a/relu_1x1
I1029 13:23:11.301199  3605 net.cpp:406] inception_4a/relu_1x1 <- inception_4a/1x1
I1029 13:23:11.301210  3605 net.cpp:367] inception_4a/relu_1x1 -> inception_4a/1x1 (in-place)
I1029 13:23:11.302857  3605 net.cpp:122] Setting up inception_4a/relu_1x1
I1029 13:23:11.302873  3605 net.cpp:129] Top shape: 30 192 14 14 (1128960)
I1029 13:23:11.302880  3605 net.cpp:137] Memory required for data: 1077028320
I1029 13:23:11.302886  3605 layer_factory.hpp:77] Creating layer inception_4a/3x3_reduce
I1029 13:23:11.302904  3605 net.cpp:84] Creating Layer inception_4a/3x3_reduce
I1029 13:23:11.302911  3605 net.cpp:406] inception_4a/3x3_reduce <- pool3/3x3_s2_pool3/3x3_s2_0_split_1
I1029 13:23:11.302923  3605 net.cpp:380] inception_4a/3x3_reduce -> inception_4a/3x3_reduce
I1029 13:23:11.309638  3605 net.cpp:122] Setting up inception_4a/3x3_reduce
I1029 13:23:11.309669  3605 net.cpp:129] Top shape: 30 96 14 14 (564480)
I1029 13:23:11.309674  3605 net.cpp:137] Memory required for data: 1079286240
I1029 13:23:11.309706  3605 layer_factory.hpp:77] Creating layer inception_4a/relu_3x3_reduce
I1029 13:23:11.309720  3605 net.cpp:84] Creating Layer inception_4a/relu_3x3_reduce
I1029 13:23:11.309727  3605 net.cpp:406] inception_4a/relu_3x3_reduce <- inception_4a/3x3_reduce
I1029 13:23:11.309737  3605 net.cpp:367] inception_4a/relu_3x3_reduce -> inception_4a/3x3_reduce (in-place)
I1029 13:23:11.310362  3605 net.cpp:122] Setting up inception_4a/relu_3x3_reduce
I1029 13:23:11.310380  3605 net.cpp:129] Top shape: 30 96 14 14 (564480)
I1029 13:23:11.310385  3605 net.cpp:137] Memory required for data: 1081544160
I1029 13:23:11.310391  3605 layer_factory.hpp:77] Creating layer inception_4a/3x3
I1029 13:23:11.310413  3605 net.cpp:84] Creating Layer inception_4a/3x3
I1029 13:23:11.310421  3605 net.cpp:406] inception_4a/3x3 <- inception_4a/3x3_reduce
I1029 13:23:11.310431  3605 net.cpp:380] inception_4a/3x3 -> inception_4a/3x3
I1029 13:23:11.315475  3605 net.cpp:122] Setting up inception_4a/3x3
I1029 13:23:11.315515  3605 net.cpp:129] Top shape: 30 208 14 14 (1223040)
I1029 13:23:11.315521  3605 net.cpp:137] Memory required for data: 1086436320
I1029 13:23:11.315538  3605 layer_factory.hpp:77] Creating layer inception_4a/relu_3x3
I1029 13:23:11.315553  3605 net.cpp:84] Creating Layer inception_4a/relu_3x3
I1029 13:23:11.315562  3605 net.cpp:406] inception_4a/relu_3x3 <- inception_4a/3x3
I1029 13:23:11.315574  3605 net.cpp:367] inception_4a/relu_3x3 -> inception_4a/3x3 (in-place)
I1029 13:23:11.316359  3605 net.cpp:122] Setting up inception_4a/relu_3x3
I1029 13:23:11.316372  3605 net.cpp:129] Top shape: 30 208 14 14 (1223040)
I1029 13:23:11.316377  3605 net.cpp:137] Memory required for data: 1091328480
I1029 13:23:11.316383  3605 layer_factory.hpp:77] Creating layer inception_4a/5x5_reduce
I1029 13:23:11.316401  3605 net.cpp:84] Creating Layer inception_4a/5x5_reduce
I1029 13:23:11.316406  3605 net.cpp:406] inception_4a/5x5_reduce <- pool3/3x3_s2_pool3/3x3_s2_0_split_2
I1029 13:23:11.316417  3605 net.cpp:380] inception_4a/5x5_reduce -> inception_4a/5x5_reduce
I1029 13:23:11.321249  3605 net.cpp:122] Setting up inception_4a/5x5_reduce
I1029 13:23:11.321274  3605 net.cpp:129] Top shape: 30 16 14 14 (94080)
I1029 13:23:11.321280  3605 net.cpp:137] Memory required for data: 1091704800
I1029 13:23:11.321292  3605 layer_factory.hpp:77] Creating layer inception_4a/relu_5x5_reduce
I1029 13:23:11.321305  3605 net.cpp:84] Creating Layer inception_4a/relu_5x5_reduce
I1029 13:23:11.321311  3605 net.cpp:406] inception_4a/relu_5x5_reduce <- inception_4a/5x5_reduce
I1029 13:23:11.321323  3605 net.cpp:367] inception_4a/relu_5x5_reduce -> inception_4a/5x5_reduce (in-place)
I1029 13:23:11.321960  3605 net.cpp:122] Setting up inception_4a/relu_5x5_reduce
I1029 13:23:11.321972  3605 net.cpp:129] Top shape: 30 16 14 14 (94080)
I1029 13:23:11.321977  3605 net.cpp:137] Memory required for data: 1092081120
I1029 13:23:11.321982  3605 layer_factory.hpp:77] Creating layer inception_4a/5x5
I1029 13:23:11.322000  3605 net.cpp:84] Creating Layer inception_4a/5x5
I1029 13:23:11.322005  3605 net.cpp:406] inception_4a/5x5 <- inception_4a/5x5_reduce
I1029 13:23:11.322016  3605 net.cpp:380] inception_4a/5x5 -> inception_4a/5x5
I1029 13:23:11.326791  3605 net.cpp:122] Setting up inception_4a/5x5
I1029 13:23:11.326825  3605 net.cpp:129] Top shape: 30 48 14 14 (282240)
I1029 13:23:11.326831  3605 net.cpp:137] Memory required for data: 1093210080
I1029 13:23:11.326848  3605 layer_factory.hpp:77] Creating layer inception_4a/relu_5x5
I1029 13:23:11.326861  3605 net.cpp:84] Creating Layer inception_4a/relu_5x5
I1029 13:23:11.326869  3605 net.cpp:406] inception_4a/relu_5x5 <- inception_4a/5x5
I1029 13:23:11.326881  3605 net.cpp:367] inception_4a/relu_5x5 -> inception_4a/5x5 (in-place)
I1029 13:23:11.328832  3605 net.cpp:122] Setting up inception_4a/relu_5x5
I1029 13:23:11.328852  3605 net.cpp:129] Top shape: 30 48 14 14 (282240)
I1029 13:23:11.328858  3605 net.cpp:137] Memory required for data: 1094339040
I1029 13:23:11.328866  3605 layer_factory.hpp:77] Creating layer inception_4a/pool
I1029 13:23:11.328881  3605 net.cpp:84] Creating Layer inception_4a/pool
I1029 13:23:11.328887  3605 net.cpp:406] inception_4a/pool <- pool3/3x3_s2_pool3/3x3_s2_0_split_3
I1029 13:23:11.328900  3605 net.cpp:380] inception_4a/pool -> inception_4a/pool
I1029 13:23:11.328980  3605 net.cpp:122] Setting up inception_4a/pool
I1029 13:23:11.328990  3605 net.cpp:129] Top shape: 30 480 14 14 (2822400)
I1029 13:23:11.328995  3605 net.cpp:137] Memory required for data: 1105628640
I1029 13:23:11.329000  3605 layer_factory.hpp:77] Creating layer inception_4a/pool_proj
I1029 13:23:11.329020  3605 net.cpp:84] Creating Layer inception_4a/pool_proj
I1029 13:23:11.329026  3605 net.cpp:406] inception_4a/pool_proj <- inception_4a/pool
I1029 13:23:11.329037  3605 net.cpp:380] inception_4a/pool_proj -> inception_4a/pool_proj
I1029 13:23:11.335700  3605 net.cpp:122] Setting up inception_4a/pool_proj
I1029 13:23:11.335726  3605 net.cpp:129] Top shape: 30 64 14 14 (376320)
I1029 13:23:11.335731  3605 net.cpp:137] Memory required for data: 1107133920
I1029 13:23:11.335746  3605 layer_factory.hpp:77] Creating layer inception_4a/relu_pool_proj
I1029 13:23:11.335757  3605 net.cpp:84] Creating Layer inception_4a/relu_pool_proj
I1029 13:23:11.335764  3605 net.cpp:406] inception_4a/relu_pool_proj <- inception_4a/pool_proj
I1029 13:23:11.335778  3605 net.cpp:367] inception_4a/relu_pool_proj -> inception_4a/pool_proj (in-place)
I1029 13:23:11.337791  3605 net.cpp:122] Setting up inception_4a/relu_pool_proj
I1029 13:23:11.337826  3605 net.cpp:129] Top shape: 30 64 14 14 (376320)
I1029 13:23:11.337832  3605 net.cpp:137] Memory required for data: 1108639200
I1029 13:23:11.337839  3605 layer_factory.hpp:77] Creating layer inception_4a/output
I1029 13:23:11.337852  3605 net.cpp:84] Creating Layer inception_4a/output
I1029 13:23:11.337860  3605 net.cpp:406] inception_4a/output <- inception_4a/1x1
I1029 13:23:11.337868  3605 net.cpp:406] inception_4a/output <- inception_4a/3x3
I1029 13:23:11.337874  3605 net.cpp:406] inception_4a/output <- inception_4a/5x5
I1029 13:23:11.337882  3605 net.cpp:406] inception_4a/output <- inception_4a/pool_proj
I1029 13:23:11.337891  3605 net.cpp:380] inception_4a/output -> inception_4a/output
I1029 13:23:11.337951  3605 net.cpp:122] Setting up inception_4a/output
I1029 13:23:11.337960  3605 net.cpp:129] Top shape: 30 512 14 14 (3010560)
I1029 13:23:11.337965  3605 net.cpp:137] Memory required for data: 1120681440
I1029 13:23:11.337970  3605 layer_factory.hpp:77] Creating layer inception_4a/output_inception_4a/output_0_split
I1029 13:23:11.337980  3605 net.cpp:84] Creating Layer inception_4a/output_inception_4a/output_0_split
I1029 13:23:11.337985  3605 net.cpp:406] inception_4a/output_inception_4a/output_0_split <- inception_4a/output
I1029 13:23:11.337994  3605 net.cpp:380] inception_4a/output_inception_4a/output_0_split -> inception_4a/output_inception_4a/output_0_split_0
I1029 13:23:11.338004  3605 net.cpp:380] inception_4a/output_inception_4a/output_0_split -> inception_4a/output_inception_4a/output_0_split_1
I1029 13:23:11.338014  3605 net.cpp:380] inception_4a/output_inception_4a/output_0_split -> inception_4a/output_inception_4a/output_0_split_2
I1029 13:23:11.338027  3605 net.cpp:380] inception_4a/output_inception_4a/output_0_split -> inception_4a/output_inception_4a/output_0_split_3
I1029 13:23:11.338035  3605 net.cpp:380] inception_4a/output_inception_4a/output_0_split -> inception_4a/output_inception_4a/output_0_split_4
I1029 13:23:11.338132  3605 net.cpp:122] Setting up inception_4a/output_inception_4a/output_0_split
I1029 13:23:11.338140  3605 net.cpp:129] Top shape: 30 512 14 14 (3010560)
I1029 13:23:11.338147  3605 net.cpp:129] Top shape: 30 512 14 14 (3010560)
I1029 13:23:11.338153  3605 net.cpp:129] Top shape: 30 512 14 14 (3010560)
I1029 13:23:11.338160  3605 net.cpp:129] Top shape: 30 512 14 14 (3010560)
I1029 13:23:11.338165  3605 net.cpp:129] Top shape: 30 512 14 14 (3010560)
I1029 13:23:11.338169  3605 net.cpp:137] Memory required for data: 1180892640
I1029 13:23:11.338174  3605 layer_factory.hpp:77] Creating layer loss1/ave_pool
I1029 13:23:11.338186  3605 net.cpp:84] Creating Layer loss1/ave_pool
I1029 13:23:11.338191  3605 net.cpp:406] loss1/ave_pool <- inception_4a/output_inception_4a/output_0_split_0
I1029 13:23:11.338197  3605 net.cpp:380] loss1/ave_pool -> loss1/ave_pool
I1029 13:23:11.340036  3605 net.cpp:122] Setting up loss1/ave_pool
I1029 13:23:11.340045  3605 net.cpp:129] Top shape: 30 512 4 4 (245760)
I1029 13:23:11.340050  3605 net.cpp:137] Memory required for data: 1181875680
I1029 13:23:11.340055  3605 layer_factory.hpp:77] Creating layer loss1/conv
I1029 13:23:11.340070  3605 net.cpp:84] Creating Layer loss1/conv
I1029 13:23:11.340075  3605 net.cpp:406] loss1/conv <- loss1/ave_pool
I1029 13:23:11.340085  3605 net.cpp:380] loss1/conv -> loss1/conv
I1029 13:23:11.346906  3605 net.cpp:122] Setting up loss1/conv
I1029 13:23:11.346938  3605 net.cpp:129] Top shape: 30 128 4 4 (61440)
I1029 13:23:11.346943  3605 net.cpp:137] Memory required for data: 1182121440
I1029 13:23:11.346958  3605 layer_factory.hpp:77] Creating layer loss1/relu_conv
I1029 13:23:11.346973  3605 net.cpp:84] Creating Layer loss1/relu_conv
I1029 13:23:11.346982  3605 net.cpp:406] loss1/relu_conv <- loss1/conv
I1029 13:23:11.346994  3605 net.cpp:367] loss1/relu_conv -> loss1/conv (in-place)
I1029 13:23:11.349026  3605 net.cpp:122] Setting up loss1/relu_conv
I1029 13:23:11.349066  3605 net.cpp:129] Top shape: 30 128 4 4 (61440)
I1029 13:23:11.349109  3605 net.cpp:137] Memory required for data: 1182367200
I1029 13:23:11.349118  3605 layer_factory.hpp:77] Creating layer loss1/fc
I1029 13:23:11.349138  3605 net.cpp:84] Creating Layer loss1/fc
I1029 13:23:11.349149  3605 net.cpp:406] loss1/fc <- loss1/conv
I1029 13:23:11.349164  3605 net.cpp:380] loss1/fc -> loss1/fc
I1029 13:23:11.370940  3605 net.cpp:122] Setting up loss1/fc
I1029 13:23:11.370998  3605 net.cpp:129] Top shape: 30 1024 (30720)
I1029 13:23:11.371003  3605 net.cpp:137] Memory required for data: 1182490080
I1029 13:23:11.371022  3605 layer_factory.hpp:77] Creating layer loss1/relu_fc
I1029 13:23:11.371042  3605 net.cpp:84] Creating Layer loss1/relu_fc
I1029 13:23:11.371050  3605 net.cpp:406] loss1/relu_fc <- loss1/fc
I1029 13:23:11.371065  3605 net.cpp:367] loss1/relu_fc -> loss1/fc (in-place)
I1029 13:23:11.371385  3605 net.cpp:122] Setting up loss1/relu_fc
I1029 13:23:11.371395  3605 net.cpp:129] Top shape: 30 1024 (30720)
I1029 13:23:11.371399  3605 net.cpp:137] Memory required for data: 1182612960
I1029 13:23:11.371404  3605 layer_factory.hpp:77] Creating layer loss1/drop_fc
I1029 13:23:11.371446  3605 net.cpp:84] Creating Layer loss1/drop_fc
I1029 13:23:11.371453  3605 net.cpp:406] loss1/drop_fc <- loss1/fc
I1029 13:23:11.371459  3605 net.cpp:367] loss1/drop_fc -> loss1/fc (in-place)
I1029 13:23:11.371497  3605 net.cpp:122] Setting up loss1/drop_fc
I1029 13:23:11.371508  3605 net.cpp:129] Top shape: 30 1024 (30720)
I1029 13:23:11.371512  3605 net.cpp:137] Memory required for data: 1182735840
I1029 13:23:11.371516  3605 layer_factory.hpp:77] Creating layer my-loss1/classifier
I1029 13:23:11.371527  3605 net.cpp:84] Creating Layer my-loss1/classifier
I1029 13:23:11.371532  3605 net.cpp:406] my-loss1/classifier <- loss1/fc
I1029 13:23:11.371547  3605 net.cpp:380] my-loss1/classifier -> my-loss1/classifier
I1029 13:23:11.371692  3605 net.cpp:122] Setting up my-loss1/classifier
I1029 13:23:11.371701  3605 net.cpp:129] Top shape: 30 1 (30)
I1029 13:23:11.371706  3605 net.cpp:137] Memory required for data: 1182735960
I1029 13:23:11.371714  3605 layer_factory.hpp:77] Creating layer loss1/loss
I1029 13:23:11.371722  3605 net.cpp:84] Creating Layer loss1/loss
I1029 13:23:11.371726  3605 net.cpp:406] loss1/loss <- my-loss1/classifier
I1029 13:23:11.371733  3605 net.cpp:406] loss1/loss <- label_data_1_split_0
I1029 13:23:11.371742  3605 net.cpp:380] loss1/loss -> loss1/loss
I1029 13:23:11.371790  3605 net.cpp:122] Setting up loss1/loss
I1029 13:23:11.371798  3605 net.cpp:129] Top shape: (1)
I1029 13:23:11.371801  3605 net.cpp:132]     with loss weight 0.3
I1029 13:23:11.371842  3605 net.cpp:137] Memory required for data: 1182735964
I1029 13:23:11.371848  3605 layer_factory.hpp:77] Creating layer inception_4b/1x1
I1029 13:23:11.371863  3605 net.cpp:84] Creating Layer inception_4b/1x1
I1029 13:23:11.371870  3605 net.cpp:406] inception_4b/1x1 <- inception_4a/output_inception_4a/output_0_split_1
I1029 13:23:11.371879  3605 net.cpp:380] inception_4b/1x1 -> inception_4b/1x1
I1029 13:23:11.377044  3605 net.cpp:122] Setting up inception_4b/1x1
I1029 13:23:11.377069  3605 net.cpp:129] Top shape: 30 160 14 14 (940800)
I1029 13:23:11.377075  3605 net.cpp:137] Memory required for data: 1186499164
I1029 13:23:11.377087  3605 layer_factory.hpp:77] Creating layer inception_4b/relu_1x1
I1029 13:23:11.377100  3605 net.cpp:84] Creating Layer inception_4b/relu_1x1
I1029 13:23:11.377109  3605 net.cpp:406] inception_4b/relu_1x1 <- inception_4b/1x1
I1029 13:23:11.377116  3605 net.cpp:367] inception_4b/relu_1x1 -> inception_4b/1x1 (in-place)
I1029 13:23:11.377765  3605 net.cpp:122] Setting up inception_4b/relu_1x1
I1029 13:23:11.377779  3605 net.cpp:129] Top shape: 30 160 14 14 (940800)
I1029 13:23:11.377784  3605 net.cpp:137] Memory required for data: 1190262364
I1029 13:23:11.377789  3605 layer_factory.hpp:77] Creating layer inception_4b/3x3_reduce
I1029 13:23:11.377806  3605 net.cpp:84] Creating Layer inception_4b/3x3_reduce
I1029 13:23:11.377812  3605 net.cpp:406] inception_4b/3x3_reduce <- inception_4a/output_inception_4a/output_0_split_2
I1029 13:23:11.377861  3605 net.cpp:380] inception_4b/3x3_reduce -> inception_4b/3x3_reduce
I1029 13:23:11.379827  3605 net.cpp:122] Setting up inception_4b/3x3_reduce
I1029 13:23:11.379853  3605 net.cpp:129] Top shape: 30 112 14 14 (658560)
I1029 13:23:11.379858  3605 net.cpp:137] Memory required for data: 1192896604
I1029 13:23:11.379871  3605 layer_factory.hpp:77] Creating layer inception_4b/relu_3x3_reduce
I1029 13:23:11.379882  3605 net.cpp:84] Creating Layer inception_4b/relu_3x3_reduce
I1029 13:23:11.379890  3605 net.cpp:406] inception_4b/relu_3x3_reduce <- inception_4b/3x3_reduce
I1029 13:23:11.379899  3605 net.cpp:367] inception_4b/relu_3x3_reduce -> inception_4b/3x3_reduce (in-place)
I1029 13:23:11.380115  3605 net.cpp:122] Setting up inception_4b/relu_3x3_reduce
I1029 13:23:11.380125  3605 net.cpp:129] Top shape: 30 112 14 14 (658560)
I1029 13:23:11.380129  3605 net.cpp:137] Memory required for data: 1195530844
I1029 13:23:11.380134  3605 layer_factory.hpp:77] Creating layer inception_4b/3x3
I1029 13:23:11.380151  3605 net.cpp:84] Creating Layer inception_4b/3x3
I1029 13:23:11.380156  3605 net.cpp:406] inception_4b/3x3 <- inception_4b/3x3_reduce
I1029 13:23:11.380164  3605 net.cpp:380] inception_4b/3x3 -> inception_4b/3x3
I1029 13:23:11.389039  3605 net.cpp:122] Setting up inception_4b/3x3
I1029 13:23:11.389128  3605 net.cpp:129] Top shape: 30 224 14 14 (1317120)
I1029 13:23:11.389143  3605 net.cpp:137] Memory required for data: 1200799324
I1029 13:23:11.389169  3605 layer_factory.hpp:77] Creating layer inception_4b/relu_3x3
I1029 13:23:11.389192  3605 net.cpp:84] Creating Layer inception_4b/relu_3x3
I1029 13:23:11.389209  3605 net.cpp:406] inception_4b/relu_3x3 <- inception_4b/3x3
I1029 13:23:11.389230  3605 net.cpp:367] inception_4b/relu_3x3 -> inception_4b/3x3 (in-place)
I1029 13:23:11.391880  3605 net.cpp:122] Setting up inception_4b/relu_3x3
I1029 13:23:11.391899  3605 net.cpp:129] Top shape: 30 224 14 14 (1317120)
I1029 13:23:11.391904  3605 net.cpp:137] Memory required for data: 1206067804
I1029 13:23:11.391911  3605 layer_factory.hpp:77] Creating layer inception_4b/5x5_reduce
I1029 13:23:11.391929  3605 net.cpp:84] Creating Layer inception_4b/5x5_reduce
I1029 13:23:11.391937  3605 net.cpp:406] inception_4b/5x5_reduce <- inception_4a/output_inception_4a/output_0_split_3
I1029 13:23:11.391950  3605 net.cpp:380] inception_4b/5x5_reduce -> inception_4b/5x5_reduce
I1029 13:23:11.395767  3605 net.cpp:122] Setting up inception_4b/5x5_reduce
I1029 13:23:11.395797  3605 net.cpp:129] Top shape: 30 24 14 14 (141120)
I1029 13:23:11.395803  3605 net.cpp:137] Memory required for data: 1206632284
I1029 13:23:11.395817  3605 layer_factory.hpp:77] Creating layer inception_4b/relu_5x5_reduce
I1029 13:23:11.395830  3605 net.cpp:84] Creating Layer inception_4b/relu_5x5_reduce
I1029 13:23:11.395838  3605 net.cpp:406] inception_4b/relu_5x5_reduce <- inception_4b/5x5_reduce
I1029 13:23:11.395849  3605 net.cpp:367] inception_4b/relu_5x5_reduce -> inception_4b/5x5_reduce (in-place)
I1029 13:23:11.396095  3605 net.cpp:122] Setting up inception_4b/relu_5x5_reduce
I1029 13:23:11.396121  3605 net.cpp:129] Top shape: 30 24 14 14 (141120)
I1029 13:23:11.396136  3605 net.cpp:137] Memory required for data: 1207196764
I1029 13:23:11.396150  3605 layer_factory.hpp:77] Creating layer inception_4b/5x5
I1029 13:23:11.396178  3605 net.cpp:84] Creating Layer inception_4b/5x5
I1029 13:23:11.396193  3605 net.cpp:406] inception_4b/5x5 <- inception_4b/5x5_reduce
I1029 13:23:11.396217  3605 net.cpp:380] inception_4b/5x5 -> inception_4b/5x5
I1029 13:23:11.400576  3605 net.cpp:122] Setting up inception_4b/5x5
I1029 13:23:11.400605  3605 net.cpp:129] Top shape: 30 64 14 14 (376320)
I1029 13:23:11.400611  3605 net.cpp:137] Memory required for data: 1208702044
I1029 13:23:11.400624  3605 layer_factory.hpp:77] Creating layer inception_4b/relu_5x5
I1029 13:23:11.400636  3605 net.cpp:84] Creating Layer inception_4b/relu_5x5
I1029 13:23:11.400645  3605 net.cpp:406] inception_4b/relu_5x5 <- inception_4b/5x5
I1029 13:23:11.400696  3605 net.cpp:367] inception_4b/relu_5x5 -> inception_4b/5x5 (in-place)
I1029 13:23:11.400960  3605 net.cpp:122] Setting up inception_4b/relu_5x5
I1029 13:23:11.400981  3605 net.cpp:129] Top shape: 30 64 14 14 (376320)
I1029 13:23:11.400996  3605 net.cpp:137] Memory required for data: 1210207324
I1029 13:23:11.401011  3605 layer_factory.hpp:77] Creating layer inception_4b/pool
I1029 13:23:11.401031  3605 net.cpp:84] Creating Layer inception_4b/pool
I1029 13:23:11.401046  3605 net.cpp:406] inception_4b/pool <- inception_4a/output_inception_4a/output_0_split_4
I1029 13:23:11.401067  3605 net.cpp:380] inception_4b/pool -> inception_4b/pool
I1029 13:23:11.401170  3605 net.cpp:122] Setting up inception_4b/pool
I1029 13:23:11.401188  3605 net.cpp:129] Top shape: 30 512 14 14 (3010560)
I1029 13:23:11.401202  3605 net.cpp:137] Memory required for data: 1222249564
I1029 13:23:11.401217  3605 layer_factory.hpp:77] Creating layer inception_4b/pool_proj
I1029 13:23:11.401242  3605 net.cpp:84] Creating Layer inception_4b/pool_proj
I1029 13:23:11.401257  3605 net.cpp:406] inception_4b/pool_proj <- inception_4b/pool
I1029 13:23:11.401276  3605 net.cpp:380] inception_4b/pool_proj -> inception_4b/pool_proj
I1029 13:23:11.405704  3605 net.cpp:122] Setting up inception_4b/pool_proj
I1029 13:23:11.405736  3605 net.cpp:129] Top shape: 30 64 14 14 (376320)
I1029 13:23:11.405741  3605 net.cpp:137] Memory required for data: 1223754844
I1029 13:23:11.405756  3605 layer_factory.hpp:77] Creating layer inception_4b/relu_pool_proj
I1029 13:23:11.405771  3605 net.cpp:84] Creating Layer inception_4b/relu_pool_proj
I1029 13:23:11.405778  3605 net.cpp:406] inception_4b/relu_pool_proj <- inception_4b/pool_proj
I1029 13:23:11.405788  3605 net.cpp:367] inception_4b/relu_pool_proj -> inception_4b/pool_proj (in-place)
I1029 13:23:11.406054  3605 net.cpp:122] Setting up inception_4b/relu_pool_proj
I1029 13:23:11.406081  3605 net.cpp:129] Top shape: 30 64 14 14 (376320)
I1029 13:23:11.406096  3605 net.cpp:137] Memory required for data: 1225260124
I1029 13:23:11.406111  3605 layer_factory.hpp:77] Creating layer inception_4b/output
I1029 13:23:11.406131  3605 net.cpp:84] Creating Layer inception_4b/output
I1029 13:23:11.406147  3605 net.cpp:406] inception_4b/output <- inception_4b/1x1
I1029 13:23:11.406164  3605 net.cpp:406] inception_4b/output <- inception_4b/3x3
I1029 13:23:11.406180  3605 net.cpp:406] inception_4b/output <- inception_4b/5x5
I1029 13:23:11.406196  3605 net.cpp:406] inception_4b/output <- inception_4b/pool_proj
I1029 13:23:11.406214  3605 net.cpp:380] inception_4b/output -> inception_4b/output
I1029 13:23:11.406271  3605 net.cpp:122] Setting up inception_4b/output
I1029 13:23:11.406288  3605 net.cpp:129] Top shape: 30 512 14 14 (3010560)
I1029 13:23:11.406303  3605 net.cpp:137] Memory required for data: 1237302364
I1029 13:23:11.406318  3605 layer_factory.hpp:77] Creating layer inception_4b/output_inception_4b/output_0_split
I1029 13:23:11.406339  3605 net.cpp:84] Creating Layer inception_4b/output_inception_4b/output_0_split
I1029 13:23:11.406355  3605 net.cpp:406] inception_4b/output_inception_4b/output_0_split <- inception_4b/output
I1029 13:23:11.406374  3605 net.cpp:380] inception_4b/output_inception_4b/output_0_split -> inception_4b/output_inception_4b/output_0_split_0
I1029 13:23:11.406396  3605 net.cpp:380] inception_4b/output_inception_4b/output_0_split -> inception_4b/output_inception_4b/output_0_split_1
I1029 13:23:11.406417  3605 net.cpp:380] inception_4b/output_inception_4b/output_0_split -> inception_4b/output_inception_4b/output_0_split_2
I1029 13:23:11.406437  3605 net.cpp:380] inception_4b/output_inception_4b/output_0_split -> inception_4b/output_inception_4b/output_0_split_3
I1029 13:23:11.406534  3605 net.cpp:122] Setting up inception_4b/output_inception_4b/output_0_split
I1029 13:23:11.406553  3605 net.cpp:129] Top shape: 30 512 14 14 (3010560)
I1029 13:23:11.406570  3605 net.cpp:129] Top shape: 30 512 14 14 (3010560)
I1029 13:23:11.406586  3605 net.cpp:129] Top shape: 30 512 14 14 (3010560)
I1029 13:23:11.406613  3605 net.cpp:129] Top shape: 30 512 14 14 (3010560)
I1029 13:23:11.406641  3605 net.cpp:137] Memory required for data: 1285471324
I1029 13:23:11.406654  3605 layer_factory.hpp:77] Creating layer inception_4c/1x1
I1029 13:23:11.406683  3605 net.cpp:84] Creating Layer inception_4c/1x1
I1029 13:23:11.406698  3605 net.cpp:406] inception_4c/1x1 <- inception_4b/output_inception_4b/output_0_split_0
I1029 13:23:11.406716  3605 net.cpp:380] inception_4c/1x1 -> inception_4c/1x1
I1029 13:23:11.412564  3605 net.cpp:122] Setting up inception_4c/1x1
I1029 13:23:11.412606  3605 net.cpp:129] Top shape: 30 128 14 14 (752640)
I1029 13:23:11.412613  3605 net.cpp:137] Memory required for data: 1288481884
I1029 13:23:11.412631  3605 layer_factory.hpp:77] Creating layer inception_4c/relu_1x1
I1029 13:23:11.412645  3605 net.cpp:84] Creating Layer inception_4c/relu_1x1
I1029 13:23:11.412654  3605 net.cpp:406] inception_4c/relu_1x1 <- inception_4c/1x1
I1029 13:23:11.412667  3605 net.cpp:367] inception_4c/relu_1x1 -> inception_4c/1x1 (in-place)
I1029 13:23:11.414620  3605 net.cpp:122] Setting up inception_4c/relu_1x1
I1029 13:23:11.414643  3605 net.cpp:129] Top shape: 30 128 14 14 (752640)
I1029 13:23:11.414647  3605 net.cpp:137] Memory required for data: 1291492444
I1029 13:23:11.414654  3605 layer_factory.hpp:77] Creating layer inception_4c/3x3_reduce
I1029 13:23:11.414679  3605 net.cpp:84] Creating Layer inception_4c/3x3_reduce
I1029 13:23:11.414686  3605 net.cpp:406] inception_4c/3x3_reduce <- inception_4b/output_inception_4b/output_0_split_1
I1029 13:23:11.414698  3605 net.cpp:380] inception_4c/3x3_reduce -> inception_4c/3x3_reduce
I1029 13:23:11.421428  3605 net.cpp:122] Setting up inception_4c/3x3_reduce
I1029 13:23:11.421460  3605 net.cpp:129] Top shape: 30 128 14 14 (752640)
I1029 13:23:11.421469  3605 net.cpp:137] Memory required for data: 1294503004
I1029 13:23:11.421485  3605 layer_factory.hpp:77] Creating layer inception_4c/relu_3x3_reduce
I1029 13:23:11.421499  3605 net.cpp:84] Creating Layer inception_4c/relu_3x3_reduce
I1029 13:23:11.421506  3605 net.cpp:406] inception_4c/relu_3x3_reduce <- inception_4c/3x3_reduce
I1029 13:23:11.421517  3605 net.cpp:367] inception_4c/relu_3x3_reduce -> inception_4c/3x3_reduce (in-place)
I1029 13:23:11.423509  3605 net.cpp:122] Setting up inception_4c/relu_3x3_reduce
I1029 13:23:11.423583  3605 net.cpp:129] Top shape: 30 128 14 14 (752640)
I1029 13:23:11.423597  3605 net.cpp:137] Memory required for data: 1297513564
I1029 13:23:11.423614  3605 layer_factory.hpp:77] Creating layer inception_4c/3x3
I1029 13:23:11.423647  3605 net.cpp:84] Creating Layer inception_4c/3x3
I1029 13:23:11.423663  3605 net.cpp:406] inception_4c/3x3 <- inception_4c/3x3_reduce
I1029 13:23:11.423686  3605 net.cpp:380] inception_4c/3x3 -> inception_4c/3x3
I1029 13:23:11.432256  3605 net.cpp:122] Setting up inception_4c/3x3
I1029 13:23:11.432297  3605 net.cpp:129] Top shape: 30 256 14 14 (1505280)
I1029 13:23:11.432302  3605 net.cpp:137] Memory required for data: 1303534684
I1029 13:23:11.432354  3605 layer_factory.hpp:77] Creating layer inception_4c/relu_3x3
I1029 13:23:11.432374  3605 net.cpp:84] Creating Layer inception_4c/relu_3x3
I1029 13:23:11.432389  3605 net.cpp:406] inception_4c/relu_3x3 <- inception_4c/3x3
I1029 13:23:11.432400  3605 net.cpp:367] inception_4c/relu_3x3 -> inception_4c/3x3 (in-place)
I1029 13:23:11.434062  3605 net.cpp:122] Setting up inception_4c/relu_3x3
I1029 13:23:11.434074  3605 net.cpp:129] Top shape: 30 256 14 14 (1505280)
I1029 13:23:11.434078  3605 net.cpp:137] Memory required for data: 1309555804
I1029 13:23:11.434083  3605 layer_factory.hpp:77] Creating layer inception_4c/5x5_reduce
I1029 13:23:11.434104  3605 net.cpp:84] Creating Layer inception_4c/5x5_reduce
I1029 13:23:11.434110  3605 net.cpp:406] inception_4c/5x5_reduce <- inception_4b/output_inception_4b/output_0_split_2
I1029 13:23:11.434121  3605 net.cpp:380] inception_4c/5x5_reduce -> inception_4c/5x5_reduce
I1029 13:23:11.440922  3605 net.cpp:122] Setting up inception_4c/5x5_reduce
I1029 13:23:11.440948  3605 net.cpp:129] Top shape: 30 24 14 14 (141120)
I1029 13:23:11.440980  3605 net.cpp:137] Memory required for data: 1310120284
I1029 13:23:11.440992  3605 layer_factory.hpp:77] Creating layer inception_4c/relu_5x5_reduce
I1029 13:23:11.441004  3605 net.cpp:84] Creating Layer inception_4c/relu_5x5_reduce
I1029 13:23:11.441010  3605 net.cpp:406] inception_4c/relu_5x5_reduce <- inception_4c/5x5_reduce
I1029 13:23:11.441020  3605 net.cpp:367] inception_4c/relu_5x5_reduce -> inception_4c/5x5_reduce (in-place)
I1029 13:23:11.442939  3605 net.cpp:122] Setting up inception_4c/relu_5x5_reduce
I1029 13:23:11.442950  3605 net.cpp:129] Top shape: 30 24 14 14 (141120)
I1029 13:23:11.442955  3605 net.cpp:137] Memory required for data: 1310684764
I1029 13:23:11.442960  3605 layer_factory.hpp:77] Creating layer inception_4c/5x5
I1029 13:23:11.442976  3605 net.cpp:84] Creating Layer inception_4c/5x5
I1029 13:23:11.442981  3605 net.cpp:406] inception_4c/5x5 <- inception_4c/5x5_reduce
I1029 13:23:11.442991  3605 net.cpp:380] inception_4c/5x5 -> inception_4c/5x5
I1029 13:23:11.449790  3605 net.cpp:122] Setting up inception_4c/5x5
I1029 13:23:11.449834  3605 net.cpp:129] Top shape: 30 64 14 14 (376320)
I1029 13:23:11.449841  3605 net.cpp:137] Memory required for data: 1312190044
I1029 13:23:11.449856  3605 layer_factory.hpp:77] Creating layer inception_4c/relu_5x5
I1029 13:23:11.449874  3605 net.cpp:84] Creating Layer inception_4c/relu_5x5
I1029 13:23:11.449883  3605 net.cpp:406] inception_4c/relu_5x5 <- inception_4c/5x5
I1029 13:23:11.449897  3605 net.cpp:367] inception_4c/relu_5x5 -> inception_4c/5x5 (in-place)
I1029 13:23:11.451848  3605 net.cpp:122] Setting up inception_4c/relu_5x5
I1029 13:23:11.451858  3605 net.cpp:129] Top shape: 30 64 14 14 (376320)
I1029 13:23:11.451863  3605 net.cpp:137] Memory required for data: 1313695324
I1029 13:23:11.451867  3605 layer_factory.hpp:77] Creating layer inception_4c/pool
I1029 13:23:11.451877  3605 net.cpp:84] Creating Layer inception_4c/pool
I1029 13:23:11.451884  3605 net.cpp:406] inception_4c/pool <- inception_4b/output_inception_4b/output_0_split_3
I1029 13:23:11.451894  3605 net.cpp:380] inception_4c/pool -> inception_4c/pool
I1029 13:23:11.451956  3605 net.cpp:122] Setting up inception_4c/pool
I1029 13:23:11.451967  3605 net.cpp:129] Top shape: 30 512 14 14 (3010560)
I1029 13:23:11.451972  3605 net.cpp:137] Memory required for data: 1325737564
I1029 13:23:11.451975  3605 layer_factory.hpp:77] Creating layer inception_4c/pool_proj
I1029 13:23:11.451992  3605 net.cpp:84] Creating Layer inception_4c/pool_proj
I1029 13:23:11.451998  3605 net.cpp:406] inception_4c/pool_proj <- inception_4c/pool
I1029 13:23:11.452008  3605 net.cpp:380] inception_4c/pool_proj -> inception_4c/pool_proj
I1029 13:23:11.458920  3605 net.cpp:122] Setting up inception_4c/pool_proj
I1029 13:23:11.458964  3605 net.cpp:129] Top shape: 30 64 14 14 (376320)
I1029 13:23:11.458969  3605 net.cpp:137] Memory required for data: 1327242844
I1029 13:23:11.458984  3605 layer_factory.hpp:77] Creating layer inception_4c/relu_pool_proj
I1029 13:23:11.458997  3605 net.cpp:84] Creating Layer inception_4c/relu_pool_proj
I1029 13:23:11.459007  3605 net.cpp:406] inception_4c/relu_pool_proj <- inception_4c/pool_proj
I1029 13:23:11.459017  3605 net.cpp:367] inception_4c/relu_pool_proj -> inception_4c/pool_proj (in-place)
I1029 13:23:11.460847  3605 net.cpp:122] Setting up inception_4c/relu_pool_proj
I1029 13:23:11.460855  3605 net.cpp:129] Top shape: 30 64 14 14 (376320)
I1029 13:23:11.460858  3605 net.cpp:137] Memory required for data: 1328748124
I1029 13:23:11.460862  3605 layer_factory.hpp:77] Creating layer inception_4c/output
I1029 13:23:11.460870  3605 net.cpp:84] Creating Layer inception_4c/output
I1029 13:23:11.460875  3605 net.cpp:406] inception_4c/output <- inception_4c/1x1
I1029 13:23:11.460881  3605 net.cpp:406] inception_4c/output <- inception_4c/3x3
I1029 13:23:11.460886  3605 net.cpp:406] inception_4c/output <- inception_4c/5x5
I1029 13:23:11.460892  3605 net.cpp:406] inception_4c/output <- inception_4c/pool_proj
I1029 13:23:11.460901  3605 net.cpp:380] inception_4c/output -> inception_4c/output
I1029 13:23:11.460968  3605 net.cpp:122] Setting up inception_4c/output
I1029 13:23:11.460975  3605 net.cpp:129] Top shape: 30 512 14 14 (3010560)
I1029 13:23:11.460979  3605 net.cpp:137] Memory required for data: 1340790364
I1029 13:23:11.460983  3605 layer_factory.hpp:77] Creating layer inception_4c/output_inception_4c/output_0_split
I1029 13:23:11.460990  3605 net.cpp:84] Creating Layer inception_4c/output_inception_4c/output_0_split
I1029 13:23:11.460995  3605 net.cpp:406] inception_4c/output_inception_4c/output_0_split <- inception_4c/output
I1029 13:23:11.461004  3605 net.cpp:380] inception_4c/output_inception_4c/output_0_split -> inception_4c/output_inception_4c/output_0_split_0
I1029 13:23:11.461012  3605 net.cpp:380] inception_4c/output_inception_4c/output_0_split -> inception_4c/output_inception_4c/output_0_split_1
I1029 13:23:11.461021  3605 net.cpp:380] inception_4c/output_inception_4c/output_0_split -> inception_4c/output_inception_4c/output_0_split_2
I1029 13:23:11.461030  3605 net.cpp:380] inception_4c/output_inception_4c/output_0_split -> inception_4c/output_inception_4c/output_0_split_3
I1029 13:23:11.461117  3605 net.cpp:122] Setting up inception_4c/output_inception_4c/output_0_split
I1029 13:23:11.461124  3605 net.cpp:129] Top shape: 30 512 14 14 (3010560)
I1029 13:23:11.461130  3605 net.cpp:129] Top shape: 30 512 14 14 (3010560)
I1029 13:23:11.461136  3605 net.cpp:129] Top shape: 30 512 14 14 (3010560)
I1029 13:23:11.461141  3605 net.cpp:129] Top shape: 30 512 14 14 (3010560)
I1029 13:23:11.461145  3605 net.cpp:137] Memory required for data: 1388959324
I1029 13:23:11.461149  3605 layer_factory.hpp:77] Creating layer inception_4d/1x1
I1029 13:23:11.461163  3605 net.cpp:84] Creating Layer inception_4d/1x1
I1029 13:23:11.461169  3605 net.cpp:406] inception_4d/1x1 <- inception_4c/output_inception_4c/output_0_split_0
I1029 13:23:11.461179  3605 net.cpp:380] inception_4d/1x1 -> inception_4d/1x1
I1029 13:23:11.463320  3605 net.cpp:122] Setting up inception_4d/1x1
I1029 13:23:11.463362  3605 net.cpp:129] Top shape: 30 112 14 14 (658560)
I1029 13:23:11.463367  3605 net.cpp:137] Memory required for data: 1391593564
I1029 13:23:11.463384  3605 layer_factory.hpp:77] Creating layer inception_4d/relu_1x1
I1029 13:23:11.463399  3605 net.cpp:84] Creating Layer inception_4d/relu_1x1
I1029 13:23:11.463409  3605 net.cpp:406] inception_4d/relu_1x1 <- inception_4d/1x1
I1029 13:23:11.463423  3605 net.cpp:367] inception_4d/relu_1x1 -> inception_4d/1x1 (in-place)
I1029 13:23:11.464120  3605 net.cpp:122] Setting up inception_4d/relu_1x1
I1029 13:23:11.464133  3605 net.cpp:129] Top shape: 30 112 14 14 (658560)
I1029 13:23:11.464138  3605 net.cpp:137] Memory required for data: 1394227804
I1029 13:23:11.464143  3605 layer_factory.hpp:77] Creating layer inception_4d/3x3_reduce
I1029 13:23:11.464159  3605 net.cpp:84] Creating Layer inception_4d/3x3_reduce
I1029 13:23:11.464165  3605 net.cpp:406] inception_4d/3x3_reduce <- inception_4c/output_inception_4c/output_0_split_1
I1029 13:23:11.464179  3605 net.cpp:380] inception_4d/3x3_reduce -> inception_4d/3x3_reduce
I1029 13:23:11.470151  3605 net.cpp:122] Setting up inception_4d/3x3_reduce
I1029 13:23:11.470185  3605 net.cpp:129] Top shape: 30 144 14 14 (846720)
I1029 13:23:11.470191  3605 net.cpp:137] Memory required for data: 1397614684
I1029 13:23:11.470207  3605 layer_factory.hpp:77] Creating layer inception_4d/relu_3x3_reduce
I1029 13:23:11.470221  3605 net.cpp:84] Creating Layer inception_4d/relu_3x3_reduce
I1029 13:23:11.470229  3605 net.cpp:406] inception_4d/relu_3x3_reduce <- inception_4d/3x3_reduce
I1029 13:23:11.470242  3605 net.cpp:367] inception_4d/relu_3x3_reduce -> inception_4d/3x3_reduce (in-place)
I1029 13:23:11.472208  3605 net.cpp:122] Setting up inception_4d/relu_3x3_reduce
I1029 13:23:11.472219  3605 net.cpp:129] Top shape: 30 144 14 14 (846720)
I1029 13:23:11.472224  3605 net.cpp:137] Memory required for data: 1401001564
I1029 13:23:11.472229  3605 layer_factory.hpp:77] Creating layer inception_4d/3x3
I1029 13:23:11.472249  3605 net.cpp:84] Creating Layer inception_4d/3x3
I1029 13:23:11.472275  3605 net.cpp:406] inception_4d/3x3 <- inception_4d/3x3_reduce
I1029 13:23:11.472286  3605 net.cpp:380] inception_4d/3x3 -> inception_4d/3x3
I1029 13:23:11.480053  3605 net.cpp:122] Setting up inception_4d/3x3
I1029 13:23:11.480093  3605 net.cpp:129] Top shape: 30 288 14 14 (1693440)
I1029 13:23:11.480099  3605 net.cpp:137] Memory required for data: 1407775324
I1029 13:23:11.480116  3605 layer_factory.hpp:77] Creating layer inception_4d/relu_3x3
I1029 13:23:11.480140  3605 net.cpp:84] Creating Layer inception_4d/relu_3x3
I1029 13:23:11.480149  3605 net.cpp:406] inception_4d/relu_3x3 <- inception_4d/3x3
I1029 13:23:11.480160  3605 net.cpp:367] inception_4d/relu_3x3 -> inception_4d/3x3 (in-place)
I1029 13:23:11.480406  3605 net.cpp:122] Setting up inception_4d/relu_3x3
I1029 13:23:11.480417  3605 net.cpp:129] Top shape: 30 288 14 14 (1693440)
I1029 13:23:11.480422  3605 net.cpp:137] Memory required for data: 1414549084
I1029 13:23:11.480428  3605 layer_factory.hpp:77] Creating layer inception_4d/5x5_reduce
I1029 13:23:11.480444  3605 net.cpp:84] Creating Layer inception_4d/5x5_reduce
I1029 13:23:11.480450  3605 net.cpp:406] inception_4d/5x5_reduce <- inception_4c/output_inception_4c/output_0_split_2
I1029 13:23:11.480463  3605 net.cpp:380] inception_4d/5x5_reduce -> inception_4d/5x5_reduce
I1029 13:23:11.484627  3605 net.cpp:122] Setting up inception_4d/5x5_reduce
I1029 13:23:11.484650  3605 net.cpp:129] Top shape: 30 32 14 14 (188160)
I1029 13:23:11.484655  3605 net.cpp:137] Memory required for data: 1415301724
I1029 13:23:11.484666  3605 layer_factory.hpp:77] Creating layer inception_4d/relu_5x5_reduce
I1029 13:23:11.484679  3605 net.cpp:84] Creating Layer inception_4d/relu_5x5_reduce
I1029 13:23:11.484686  3605 net.cpp:406] inception_4d/relu_5x5_reduce <- inception_4d/5x5_reduce
I1029 13:23:11.484694  3605 net.cpp:367] inception_4d/relu_5x5_reduce -> inception_4d/5x5_reduce (in-place)
I1029 13:23:11.484913  3605 net.cpp:122] Setting up inception_4d/relu_5x5_reduce
I1029 13:23:11.484923  3605 net.cpp:129] Top shape: 30 32 14 14 (188160)
I1029 13:23:11.484927  3605 net.cpp:137] Memory required for data: 1416054364
I1029 13:23:11.484932  3605 layer_factory.hpp:77] Creating layer inception_4d/5x5
I1029 13:23:11.484946  3605 net.cpp:84] Creating Layer inception_4d/5x5
I1029 13:23:11.484951  3605 net.cpp:406] inception_4d/5x5 <- inception_4d/5x5_reduce
I1029 13:23:11.484962  3605 net.cpp:380] inception_4d/5x5 -> inception_4d/5x5
I1029 13:23:11.489745  3605 net.cpp:122] Setting up inception_4d/5x5
I1029 13:23:11.489768  3605 net.cpp:129] Top shape: 30 64 14 14 (376320)
I1029 13:23:11.489773  3605 net.cpp:137] Memory required for data: 1417559644
I1029 13:23:11.489785  3605 layer_factory.hpp:77] Creating layer inception_4d/relu_5x5
I1029 13:23:11.489799  3605 net.cpp:84] Creating Layer inception_4d/relu_5x5
I1029 13:23:11.489805  3605 net.cpp:406] inception_4d/relu_5x5 <- inception_4d/5x5
I1029 13:23:11.489814  3605 net.cpp:367] inception_4d/relu_5x5 -> inception_4d/5x5 (in-place)
I1029 13:23:11.490057  3605 net.cpp:122] Setting up inception_4d/relu_5x5
I1029 13:23:11.490067  3605 net.cpp:129] Top shape: 30 64 14 14 (376320)
I1029 13:23:11.490072  3605 net.cpp:137] Memory required for data: 1419064924
I1029 13:23:11.490077  3605 layer_factory.hpp:77] Creating layer inception_4d/pool
I1029 13:23:11.490088  3605 net.cpp:84] Creating Layer inception_4d/pool
I1029 13:23:11.490094  3605 net.cpp:406] inception_4d/pool <- inception_4c/output_inception_4c/output_0_split_3
I1029 13:23:11.490103  3605 net.cpp:380] inception_4d/pool -> inception_4d/pool
I1029 13:23:11.490160  3605 net.cpp:122] Setting up inception_4d/pool
I1029 13:23:11.490170  3605 net.cpp:129] Top shape: 30 512 14 14 (3010560)
I1029 13:23:11.490173  3605 net.cpp:137] Memory required for data: 1431107164
I1029 13:23:11.490178  3605 layer_factory.hpp:77] Creating layer inception_4d/pool_proj
I1029 13:23:11.490192  3605 net.cpp:84] Creating Layer inception_4d/pool_proj
I1029 13:23:11.490198  3605 net.cpp:406] inception_4d/pool_proj <- inception_4d/pool
I1029 13:23:11.490231  3605 net.cpp:380] inception_4d/pool_proj -> inception_4d/pool_proj
I1029 13:23:11.496847  3605 net.cpp:122] Setting up inception_4d/pool_proj
I1029 13:23:11.496950  3605 net.cpp:129] Top shape: 30 64 14 14 (376320)
I1029 13:23:11.496965  3605 net.cpp:137] Memory required for data: 1432612444
I1029 13:23:11.496990  3605 layer_factory.hpp:77] Creating layer inception_4d/relu_pool_proj
I1029 13:23:11.497016  3605 net.cpp:84] Creating Layer inception_4d/relu_pool_proj
I1029 13:23:11.497033  3605 net.cpp:406] inception_4d/relu_pool_proj <- inception_4d/pool_proj
I1029 13:23:11.497053  3605 net.cpp:367] inception_4d/relu_pool_proj -> inception_4d/pool_proj (in-place)
I1029 13:23:11.498694  3605 net.cpp:122] Setting up inception_4d/relu_pool_proj
I1029 13:23:11.498715  3605 net.cpp:129] Top shape: 30 64 14 14 (376320)
I1029 13:23:11.498731  3605 net.cpp:137] Memory required for data: 1434117724
I1029 13:23:11.498747  3605 layer_factory.hpp:77] Creating layer inception_4d/output
I1029 13:23:11.498767  3605 net.cpp:84] Creating Layer inception_4d/output
I1029 13:23:11.498783  3605 net.cpp:406] inception_4d/output <- inception_4d/1x1
I1029 13:23:11.498800  3605 net.cpp:406] inception_4d/output <- inception_4d/3x3
I1029 13:23:11.498817  3605 net.cpp:406] inception_4d/output <- inception_4d/5x5
I1029 13:23:11.498833  3605 net.cpp:406] inception_4d/output <- inception_4d/pool_proj
I1029 13:23:11.498852  3605 net.cpp:380] inception_4d/output -> inception_4d/output
I1029 13:23:11.498906  3605 net.cpp:122] Setting up inception_4d/output
I1029 13:23:11.498925  3605 net.cpp:129] Top shape: 30 528 14 14 (3104640)
I1029 13:23:11.498940  3605 net.cpp:137] Memory required for data: 1446536284
I1029 13:23:11.498955  3605 layer_factory.hpp:77] Creating layer inception_4d/output_inception_4d/output_0_split
I1029 13:23:11.498975  3605 net.cpp:84] Creating Layer inception_4d/output_inception_4d/output_0_split
I1029 13:23:11.498991  3605 net.cpp:406] inception_4d/output_inception_4d/output_0_split <- inception_4d/output
I1029 13:23:11.499009  3605 net.cpp:380] inception_4d/output_inception_4d/output_0_split -> inception_4d/output_inception_4d/output_0_split_0
I1029 13:23:11.499030  3605 net.cpp:380] inception_4d/output_inception_4d/output_0_split -> inception_4d/output_inception_4d/output_0_split_1
I1029 13:23:11.499053  3605 net.cpp:380] inception_4d/output_inception_4d/output_0_split -> inception_4d/output_inception_4d/output_0_split_2
I1029 13:23:11.499075  3605 net.cpp:380] inception_4d/output_inception_4d/output_0_split -> inception_4d/output_inception_4d/output_0_split_3
I1029 13:23:11.499095  3605 net.cpp:380] inception_4d/output_inception_4d/output_0_split -> inception_4d/output_inception_4d/output_0_split_4
I1029 13:23:11.499213  3605 net.cpp:122] Setting up inception_4d/output_inception_4d/output_0_split
I1029 13:23:11.499231  3605 net.cpp:129] Top shape: 30 528 14 14 (3104640)
I1029 13:23:11.499248  3605 net.cpp:129] Top shape: 30 528 14 14 (3104640)
I1029 13:23:11.499266  3605 net.cpp:129] Top shape: 30 528 14 14 (3104640)
I1029 13:23:11.499282  3605 net.cpp:129] Top shape: 30 528 14 14 (3104640)
I1029 13:23:11.499299  3605 net.cpp:129] Top shape: 30 528 14 14 (3104640)
I1029 13:23:11.499313  3605 net.cpp:137] Memory required for data: 1508629084
I1029 13:23:11.499328  3605 layer_factory.hpp:77] Creating layer loss2/ave_pool
I1029 13:23:11.499346  3605 net.cpp:84] Creating Layer loss2/ave_pool
I1029 13:23:11.499361  3605 net.cpp:406] loss2/ave_pool <- inception_4d/output_inception_4d/output_0_split_0
I1029 13:23:11.499379  3605 net.cpp:380] loss2/ave_pool -> loss2/ave_pool
I1029 13:23:11.502212  3605 net.cpp:122] Setting up loss2/ave_pool
I1029 13:23:11.502272  3605 net.cpp:129] Top shape: 30 528 4 4 (253440)
I1029 13:23:11.502279  3605 net.cpp:137] Memory required for data: 1509642844
I1029 13:23:11.502288  3605 layer_factory.hpp:77] Creating layer loss2/conv
I1029 13:23:11.502318  3605 net.cpp:84] Creating Layer loss2/conv
I1029 13:23:11.502329  3605 net.cpp:406] loss2/conv <- loss2/ave_pool
I1029 13:23:11.502363  3605 net.cpp:380] loss2/conv -> loss2/conv
I1029 13:23:11.509387  3605 net.cpp:122] Setting up loss2/conv
I1029 13:23:11.509416  3605 net.cpp:129] Top shape: 30 128 4 4 (61440)
I1029 13:23:11.509421  3605 net.cpp:137] Memory required for data: 1509888604
I1029 13:23:11.509438  3605 layer_factory.hpp:77] Creating layer loss2/relu_conv
I1029 13:23:11.509454  3605 net.cpp:84] Creating Layer loss2/relu_conv
I1029 13:23:11.509479  3605 net.cpp:406] loss2/relu_conv <- loss2/conv
I1029 13:23:11.509493  3605 net.cpp:367] loss2/relu_conv -> loss2/conv (in-place)
I1029 13:23:11.511441  3605 net.cpp:122] Setting up loss2/relu_conv
I1029 13:23:11.511451  3605 net.cpp:129] Top shape: 30 128 4 4 (61440)
I1029 13:23:11.511456  3605 net.cpp:137] Memory required for data: 1510134364
I1029 13:23:11.511461  3605 layer_factory.hpp:77] Creating layer loss2/fc
I1029 13:23:11.511476  3605 net.cpp:84] Creating Layer loss2/fc
I1029 13:23:11.511488  3605 net.cpp:406] loss2/fc <- loss2/conv
I1029 13:23:11.511497  3605 net.cpp:380] loss2/fc -> loss2/fc
I1029 13:23:11.533504  3605 net.cpp:122] Setting up loss2/fc
I1029 13:23:11.533551  3605 net.cpp:129] Top shape: 30 1024 (30720)
I1029 13:23:11.533556  3605 net.cpp:137] Memory required for data: 1510257244
I1029 13:23:11.533573  3605 layer_factory.hpp:77] Creating layer loss2/relu_fc
I1029 13:23:11.533588  3605 net.cpp:84] Creating Layer loss2/relu_fc
I1029 13:23:11.533597  3605 net.cpp:406] loss2/relu_fc <- loss2/fc
I1029 13:23:11.533643  3605 net.cpp:367] loss2/relu_fc -> loss2/fc (in-place)
I1029 13:23:11.534036  3605 net.cpp:122] Setting up loss2/relu_fc
I1029 13:23:11.534062  3605 net.cpp:129] Top shape: 30 1024 (30720)
I1029 13:23:11.534078  3605 net.cpp:137] Memory required for data: 1510380124
I1029 13:23:11.534095  3605 layer_factory.hpp:77] Creating layer loss2/drop_fc
I1029 13:23:11.534116  3605 net.cpp:84] Creating Layer loss2/drop_fc
I1029 13:23:11.534132  3605 net.cpp:406] loss2/drop_fc <- loss2/fc
I1029 13:23:11.534152  3605 net.cpp:367] loss2/drop_fc -> loss2/fc (in-place)
I1029 13:23:11.534205  3605 net.cpp:122] Setting up loss2/drop_fc
I1029 13:23:11.534224  3605 net.cpp:129] Top shape: 30 1024 (30720)
I1029 13:23:11.534237  3605 net.cpp:137] Memory required for data: 1510503004
I1029 13:23:11.534252  3605 layer_factory.hpp:77] Creating layer my-loss2/classifier
I1029 13:23:11.534274  3605 net.cpp:84] Creating Layer my-loss2/classifier
I1029 13:23:11.534291  3605 net.cpp:406] my-loss2/classifier <- loss2/fc
I1029 13:23:11.534312  3605 net.cpp:380] my-loss2/classifier -> my-loss2/classifier
I1029 13:23:11.534494  3605 net.cpp:122] Setting up my-loss2/classifier
I1029 13:23:11.534512  3605 net.cpp:129] Top shape: 30 1 (30)
I1029 13:23:11.534526  3605 net.cpp:137] Memory required for data: 1510503124
I1029 13:23:11.534548  3605 layer_factory.hpp:77] Creating layer loss2/loss
I1029 13:23:11.534565  3605 net.cpp:84] Creating Layer loss2/loss
I1029 13:23:11.534581  3605 net.cpp:406] loss2/loss <- my-loss2/classifier
I1029 13:23:11.534598  3605 net.cpp:406] loss2/loss <- label_data_1_split_1
I1029 13:23:11.534617  3605 net.cpp:380] loss2/loss -> loss2/loss
I1029 13:23:11.534682  3605 net.cpp:122] Setting up loss2/loss
I1029 13:23:11.534698  3605 net.cpp:129] Top shape: (1)
I1029 13:23:11.534713  3605 net.cpp:132]     with loss weight 0.3
I1029 13:23:11.534739  3605 net.cpp:137] Memory required for data: 1510503128
I1029 13:23:11.534754  3605 layer_factory.hpp:77] Creating layer inception_4e/1x1
I1029 13:23:11.534781  3605 net.cpp:84] Creating Layer inception_4e/1x1
I1029 13:23:11.534797  3605 net.cpp:406] inception_4e/1x1 <- inception_4d/output_inception_4d/output_0_split_1
I1029 13:23:11.534816  3605 net.cpp:380] inception_4e/1x1 -> inception_4e/1x1
I1029 13:23:11.540864  3605 net.cpp:122] Setting up inception_4e/1x1
I1029 13:23:11.540900  3605 net.cpp:129] Top shape: 30 256 14 14 (1505280)
I1029 13:23:11.540906  3605 net.cpp:137] Memory required for data: 1516524248
I1029 13:23:11.540920  3605 layer_factory.hpp:77] Creating layer inception_4e/relu_1x1
I1029 13:23:11.540957  3605 net.cpp:84] Creating Layer inception_4e/relu_1x1
I1029 13:23:11.540966  3605 net.cpp:406] inception_4e/relu_1x1 <- inception_4e/1x1
I1029 13:23:11.540979  3605 net.cpp:367] inception_4e/relu_1x1 -> inception_4e/1x1 (in-place)
I1029 13:23:11.543285  3605 net.cpp:122] Setting up inception_4e/relu_1x1
I1029 13:23:11.543295  3605 net.cpp:129] Top shape: 30 256 14 14 (1505280)
I1029 13:23:11.543300  3605 net.cpp:137] Memory required for data: 1522545368
I1029 13:23:11.543305  3605 layer_factory.hpp:77] Creating layer inception_4e/3x3_reduce
I1029 13:23:11.543324  3605 net.cpp:84] Creating Layer inception_4e/3x3_reduce
I1029 13:23:11.543329  3605 net.cpp:406] inception_4e/3x3_reduce <- inception_4d/output_inception_4d/output_0_split_2
I1029 13:23:11.543341  3605 net.cpp:380] inception_4e/3x3_reduce -> inception_4e/3x3_reduce
I1029 13:23:11.546449  3605 net.cpp:122] Setting up inception_4e/3x3_reduce
I1029 13:23:11.546474  3605 net.cpp:129] Top shape: 30 160 14 14 (940800)
I1029 13:23:11.546479  3605 net.cpp:137] Memory required for data: 1526308568
I1029 13:23:11.546494  3605 layer_factory.hpp:77] Creating layer inception_4e/relu_3x3_reduce
I1029 13:23:11.546507  3605 net.cpp:84] Creating Layer inception_4e/relu_3x3_reduce
I1029 13:23:11.546514  3605 net.cpp:406] inception_4e/relu_3x3_reduce <- inception_4e/3x3_reduce
I1029 13:23:11.546524  3605 net.cpp:367] inception_4e/relu_3x3_reduce -> inception_4e/3x3_reduce (in-place)
I1029 13:23:11.546742  3605 net.cpp:122] Setting up inception_4e/relu_3x3_reduce
I1029 13:23:11.546752  3605 net.cpp:129] Top shape: 30 160 14 14 (940800)
I1029 13:23:11.546757  3605 net.cpp:137] Memory required for data: 1530071768
I1029 13:23:11.546761  3605 layer_factory.hpp:77] Creating layer inception_4e/3x3
I1029 13:23:11.546777  3605 net.cpp:84] Creating Layer inception_4e/3x3
I1029 13:23:11.546782  3605 net.cpp:406] inception_4e/3x3 <- inception_4e/3x3_reduce
I1029 13:23:11.546792  3605 net.cpp:380] inception_4e/3x3 -> inception_4e/3x3
I1029 13:23:11.558138  3605 net.cpp:122] Setting up inception_4e/3x3
I1029 13:23:11.558178  3605 net.cpp:129] Top shape: 30 320 14 14 (1881600)
I1029 13:23:11.558184  3605 net.cpp:137] Memory required for data: 1537598168
I1029 13:23:11.558202  3605 layer_factory.hpp:77] Creating layer inception_4e/relu_3x3
I1029 13:23:11.558219  3605 net.cpp:84] Creating Layer inception_4e/relu_3x3
I1029 13:23:11.558229  3605 net.cpp:406] inception_4e/relu_3x3 <- inception_4e/3x3
I1029 13:23:11.558243  3605 net.cpp:367] inception_4e/relu_3x3 -> inception_4e/3x3 (in-place)
I1029 13:23:11.560134  3605 net.cpp:122] Setting up inception_4e/relu_3x3
I1029 13:23:11.560148  3605 net.cpp:129] Top shape: 30 320 14 14 (1881600)
I1029 13:23:11.560153  3605 net.cpp:137] Memory required for data: 1545124568
I1029 13:23:11.560158  3605 layer_factory.hpp:77] Creating layer inception_4e/5x5_reduce
I1029 13:23:11.560176  3605 net.cpp:84] Creating Layer inception_4e/5x5_reduce
I1029 13:23:11.560183  3605 net.cpp:406] inception_4e/5x5_reduce <- inception_4d/output_inception_4d/output_0_split_3
I1029 13:23:11.560194  3605 net.cpp:380] inception_4e/5x5_reduce -> inception_4e/5x5_reduce
I1029 13:23:11.563542  3605 net.cpp:122] Setting up inception_4e/5x5_reduce
I1029 13:23:11.563568  3605 net.cpp:129] Top shape: 30 32 14 14 (188160)
I1029 13:23:11.563573  3605 net.cpp:137] Memory required for data: 1545877208
I1029 13:23:11.563587  3605 layer_factory.hpp:77] Creating layer inception_4e/relu_5x5_reduce
I1029 13:23:11.563602  3605 net.cpp:84] Creating Layer inception_4e/relu_5x5_reduce
I1029 13:23:11.563609  3605 net.cpp:406] inception_4e/relu_5x5_reduce <- inception_4e/5x5_reduce
I1029 13:23:11.563619  3605 net.cpp:367] inception_4e/relu_5x5_reduce -> inception_4e/5x5_reduce (in-place)
I1029 13:23:11.565228  3605 net.cpp:122] Setting up inception_4e/relu_5x5_reduce
I1029 13:23:11.565238  3605 net.cpp:129] Top shape: 30 32 14 14 (188160)
I1029 13:23:11.565243  3605 net.cpp:137] Memory required for data: 1546629848
I1029 13:23:11.565249  3605 layer_factory.hpp:77] Creating layer inception_4e/5x5
I1029 13:23:11.565340  3605 net.cpp:84] Creating Layer inception_4e/5x5
I1029 13:23:11.565351  3605 net.cpp:406] inception_4e/5x5 <- inception_4e/5x5_reduce
I1029 13:23:11.565361  3605 net.cpp:380] inception_4e/5x5 -> inception_4e/5x5
I1029 13:23:11.568866  3605 net.cpp:122] Setting up inception_4e/5x5
I1029 13:23:11.568959  3605 net.cpp:129] Top shape: 30 128 14 14 (752640)
I1029 13:23:11.568976  3605 net.cpp:137] Memory required for data: 1549640408
I1029 13:23:11.569007  3605 layer_factory.hpp:77] Creating layer inception_4e/relu_5x5
I1029 13:23:11.569037  3605 net.cpp:84] Creating Layer inception_4e/relu_5x5
I1029 13:23:11.569057  3605 net.cpp:406] inception_4e/relu_5x5 <- inception_4e/5x5
I1029 13:23:11.569078  3605 net.cpp:367] inception_4e/relu_5x5 -> inception_4e/5x5 (in-place)
I1029 13:23:11.570055  3605 net.cpp:122] Setting up inception_4e/relu_5x5
I1029 13:23:11.570111  3605 net.cpp:129] Top shape: 30 128 14 14 (752640)
I1029 13:23:11.570128  3605 net.cpp:137] Memory required for data: 1552650968
I1029 13:23:11.570144  3605 layer_factory.hpp:77] Creating layer inception_4e/pool
I1029 13:23:11.570169  3605 net.cpp:84] Creating Layer inception_4e/pool
I1029 13:23:11.570188  3605 net.cpp:406] inception_4e/pool <- inception_4d/output_inception_4d/output_0_split_4
I1029 13:23:11.570212  3605 net.cpp:380] inception_4e/pool -> inception_4e/pool
I1029 13:23:11.570329  3605 net.cpp:122] Setting up inception_4e/pool
I1029 13:23:11.570350  3605 net.cpp:129] Top shape: 30 528 14 14 (3104640)
I1029 13:23:11.570366  3605 net.cpp:137] Memory required for data: 1565069528
I1029 13:23:11.570381  3605 layer_factory.hpp:77] Creating layer inception_4e/pool_proj
I1029 13:23:11.570410  3605 net.cpp:84] Creating Layer inception_4e/pool_proj
I1029 13:23:11.570426  3605 net.cpp:406] inception_4e/pool_proj <- inception_4e/pool
I1029 13:23:11.570449  3605 net.cpp:380] inception_4e/pool_proj -> inception_4e/pool_proj
I1029 13:23:11.574107  3605 net.cpp:122] Setting up inception_4e/pool_proj
I1029 13:23:11.574193  3605 net.cpp:129] Top shape: 30 128 14 14 (752640)
I1029 13:23:11.574210  3605 net.cpp:137] Memory required for data: 1568080088
I1029 13:23:11.574240  3605 layer_factory.hpp:77] Creating layer inception_4e/relu_pool_proj
I1029 13:23:11.574267  3605 net.cpp:84] Creating Layer inception_4e/relu_pool_proj
I1029 13:23:11.574288  3605 net.cpp:406] inception_4e/relu_pool_proj <- inception_4e/pool_proj
I1029 13:23:11.574312  3605 net.cpp:367] inception_4e/relu_pool_proj -> inception_4e/pool_proj (in-place)
I1029 13:23:11.574594  3605 net.cpp:122] Setting up inception_4e/relu_pool_proj
I1029 13:23:11.574615  3605 net.cpp:129] Top shape: 30 128 14 14 (752640)
I1029 13:23:11.574630  3605 net.cpp:137] Memory required for data: 1571090648
I1029 13:23:11.574643  3605 layer_factory.hpp:77] Creating layer inception_4e/output
I1029 13:23:11.574664  3605 net.cpp:84] Creating Layer inception_4e/output
I1029 13:23:11.574679  3605 net.cpp:406] inception_4e/output <- inception_4e/1x1
I1029 13:23:11.574694  3605 net.cpp:406] inception_4e/output <- inception_4e/3x3
I1029 13:23:11.574712  3605 net.cpp:406] inception_4e/output <- inception_4e/5x5
I1029 13:23:11.574729  3605 net.cpp:406] inception_4e/output <- inception_4e/pool_proj
I1029 13:23:11.574743  3605 net.cpp:380] inception_4e/output -> inception_4e/output
I1029 13:23:11.574790  3605 net.cpp:122] Setting up inception_4e/output
I1029 13:23:11.574798  3605 net.cpp:129] Top shape: 30 832 14 14 (4892160)
I1029 13:23:11.574802  3605 net.cpp:137] Memory required for data: 1590659288
I1029 13:23:11.574807  3605 layer_factory.hpp:77] Creating layer pool4/3x3_s2
I1029 13:23:11.574818  3605 net.cpp:84] Creating Layer pool4/3x3_s2
I1029 13:23:11.574825  3605 net.cpp:406] pool4/3x3_s2 <- inception_4e/output
I1029 13:23:11.574831  3605 net.cpp:380] pool4/3x3_s2 -> pool4/3x3_s2
I1029 13:23:11.574887  3605 net.cpp:122] Setting up pool4/3x3_s2
I1029 13:23:11.574895  3605 net.cpp:129] Top shape: 30 832 7 7 (1223040)
I1029 13:23:11.574899  3605 net.cpp:137] Memory required for data: 1595551448
I1029 13:23:11.574925  3605 layer_factory.hpp:77] Creating layer pool4/3x3_s2_pool4/3x3_s2_0_split
I1029 13:23:11.574936  3605 net.cpp:84] Creating Layer pool4/3x3_s2_pool4/3x3_s2_0_split
I1029 13:23:11.574941  3605 net.cpp:406] pool4/3x3_s2_pool4/3x3_s2_0_split <- pool4/3x3_s2
I1029 13:23:11.574949  3605 net.cpp:380] pool4/3x3_s2_pool4/3x3_s2_0_split -> pool4/3x3_s2_pool4/3x3_s2_0_split_0
I1029 13:23:11.574959  3605 net.cpp:380] pool4/3x3_s2_pool4/3x3_s2_0_split -> pool4/3x3_s2_pool4/3x3_s2_0_split_1
I1029 13:23:11.574970  3605 net.cpp:380] pool4/3x3_s2_pool4/3x3_s2_0_split -> pool4/3x3_s2_pool4/3x3_s2_0_split_2
I1029 13:23:11.574980  3605 net.cpp:380] pool4/3x3_s2_pool4/3x3_s2_0_split -> pool4/3x3_s2_pool4/3x3_s2_0_split_3
I1029 13:23:11.575067  3605 net.cpp:122] Setting up pool4/3x3_s2_pool4/3x3_s2_0_split
I1029 13:23:11.575074  3605 net.cpp:129] Top shape: 30 832 7 7 (1223040)
I1029 13:23:11.575080  3605 net.cpp:129] Top shape: 30 832 7 7 (1223040)
I1029 13:23:11.575088  3605 net.cpp:129] Top shape: 30 832 7 7 (1223040)
I1029 13:23:11.575093  3605 net.cpp:129] Top shape: 30 832 7 7 (1223040)
I1029 13:23:11.575098  3605 net.cpp:137] Memory required for data: 1615120088
I1029 13:23:11.575103  3605 layer_factory.hpp:77] Creating layer inception_5a/1x1
I1029 13:23:11.575122  3605 net.cpp:84] Creating Layer inception_5a/1x1
I1029 13:23:11.575127  3605 net.cpp:406] inception_5a/1x1 <- pool4/3x3_s2_pool4/3x3_s2_0_split_0
I1029 13:23:11.575135  3605 net.cpp:380] inception_5a/1x1 -> inception_5a/1x1
I1029 13:23:11.583616  3605 net.cpp:122] Setting up inception_5a/1x1
I1029 13:23:11.583662  3605 net.cpp:129] Top shape: 30 256 7 7 (376320)
I1029 13:23:11.583668  3605 net.cpp:137] Memory required for data: 1616625368
I1029 13:23:11.583688  3605 layer_factory.hpp:77] Creating layer inception_5a/relu_1x1
I1029 13:23:11.583709  3605 net.cpp:84] Creating Layer inception_5a/relu_1x1
I1029 13:23:11.583719  3605 net.cpp:406] inception_5a/relu_1x1 <- inception_5a/1x1
I1029 13:23:11.583731  3605 net.cpp:367] inception_5a/relu_1x1 -> inception_5a/1x1 (in-place)
I1029 13:23:11.585577  3605 net.cpp:122] Setting up inception_5a/relu_1x1
I1029 13:23:11.585590  3605 net.cpp:129] Top shape: 30 256 7 7 (376320)
I1029 13:23:11.585595  3605 net.cpp:137] Memory required for data: 1618130648
I1029 13:23:11.585600  3605 layer_factory.hpp:77] Creating layer inception_5a/3x3_reduce
I1029 13:23:11.585618  3605 net.cpp:84] Creating Layer inception_5a/3x3_reduce
I1029 13:23:11.585624  3605 net.cpp:406] inception_5a/3x3_reduce <- pool4/3x3_s2_pool4/3x3_s2_0_split_1
I1029 13:23:11.585633  3605 net.cpp:380] inception_5a/3x3_reduce -> inception_5a/3x3_reduce
I1029 13:23:11.592473  3605 net.cpp:122] Setting up inception_5a/3x3_reduce
I1029 13:23:11.592510  3605 net.cpp:129] Top shape: 30 160 7 7 (235200)
I1029 13:23:11.592515  3605 net.cpp:137] Memory required for data: 1619071448
I1029 13:23:11.592531  3605 layer_factory.hpp:77] Creating layer inception_5a/relu_3x3_reduce
I1029 13:23:11.592546  3605 net.cpp:84] Creating Layer inception_5a/relu_3x3_reduce
I1029 13:23:11.592553  3605 net.cpp:406] inception_5a/relu_3x3_reduce <- inception_5a/3x3_reduce
I1029 13:23:11.592564  3605 net.cpp:367] inception_5a/relu_3x3_reduce -> inception_5a/3x3_reduce (in-place)
I1029 13:23:11.594450  3605 net.cpp:122] Setting up inception_5a/relu_3x3_reduce
I1029 13:23:11.594463  3605 net.cpp:129] Top shape: 30 160 7 7 (235200)
I1029 13:23:11.594468  3605 net.cpp:137] Memory required for data: 1620012248
I1029 13:23:11.594473  3605 layer_factory.hpp:77] Creating layer inception_5a/3x3
I1029 13:23:11.594491  3605 net.cpp:84] Creating Layer inception_5a/3x3
I1029 13:23:11.594496  3605 net.cpp:406] inception_5a/3x3 <- inception_5a/3x3_reduce
I1029 13:23:11.594506  3605 net.cpp:380] inception_5a/3x3 -> inception_5a/3x3
I1029 13:23:11.603741  3605 net.cpp:122] Setting up inception_5a/3x3
I1029 13:23:11.603785  3605 net.cpp:129] Top shape: 30 320 7 7 (470400)
I1029 13:23:11.603791  3605 net.cpp:137] Memory required for data: 1621893848
I1029 13:23:11.603809  3605 layer_factory.hpp:77] Creating layer inception_5a/relu_3x3
I1029 13:23:11.603855  3605 net.cpp:84] Creating Layer inception_5a/relu_3x3
I1029 13:23:11.603864  3605 net.cpp:406] inception_5a/relu_3x3 <- inception_5a/3x3
I1029 13:23:11.603878  3605 net.cpp:367] inception_5a/relu_3x3 -> inception_5a/3x3 (in-place)
I1029 13:23:11.605479  3605 net.cpp:122] Setting up inception_5a/relu_3x3
I1029 13:23:11.605516  3605 net.cpp:129] Top shape: 30 320 7 7 (470400)
I1029 13:23:11.605522  3605 net.cpp:137] Memory required for data: 1623775448
I1029 13:23:11.605530  3605 layer_factory.hpp:77] Creating layer inception_5a/5x5_reduce
I1029 13:23:11.605558  3605 net.cpp:84] Creating Layer inception_5a/5x5_reduce
I1029 13:23:11.605567  3605 net.cpp:406] inception_5a/5x5_reduce <- pool4/3x3_s2_pool4/3x3_s2_0_split_2
I1029 13:23:11.605585  3605 net.cpp:380] inception_5a/5x5_reduce -> inception_5a/5x5_reduce
I1029 13:23:11.613582  3605 net.cpp:122] Setting up inception_5a/5x5_reduce
I1029 13:23:11.613620  3605 net.cpp:129] Top shape: 30 32 7 7 (47040)
I1029 13:23:11.613626  3605 net.cpp:137] Memory required for data: 1623963608
I1029 13:23:11.613641  3605 layer_factory.hpp:77] Creating layer inception_5a/relu_5x5_reduce
I1029 13:23:11.613656  3605 net.cpp:84] Creating Layer inception_5a/relu_5x5_reduce
I1029 13:23:11.613665  3605 net.cpp:406] inception_5a/relu_5x5_reduce <- inception_5a/5x5_reduce
I1029 13:23:11.613677  3605 net.cpp:367] inception_5a/relu_5x5_reduce -> inception_5a/5x5_reduce (in-place)
I1029 13:23:11.615937  3605 net.cpp:122] Setting up inception_5a/relu_5x5_reduce
I1029 13:23:11.615947  3605 net.cpp:129] Top shape: 30 32 7 7 (47040)
I1029 13:23:11.615952  3605 net.cpp:137] Memory required for data: 1624151768
I1029 13:23:11.615957  3605 layer_factory.hpp:77] Creating layer inception_5a/5x5
I1029 13:23:11.615975  3605 net.cpp:84] Creating Layer inception_5a/5x5
I1029 13:23:11.615981  3605 net.cpp:406] inception_5a/5x5 <- inception_5a/5x5_reduce
I1029 13:23:11.615993  3605 net.cpp:380] inception_5a/5x5 -> inception_5a/5x5
I1029 13:23:11.622829  3605 net.cpp:122] Setting up inception_5a/5x5
I1029 13:23:11.622858  3605 net.cpp:129] Top shape: 30 128 7 7 (188160)
I1029 13:23:11.622862  3605 net.cpp:137] Memory required for data: 1624904408
I1029 13:23:11.622877  3605 layer_factory.hpp:77] Creating layer inception_5a/relu_5x5
I1029 13:23:11.622889  3605 net.cpp:84] Creating Layer inception_5a/relu_5x5
I1029 13:23:11.622897  3605 net.cpp:406] inception_5a/relu_5x5 <- inception_5a/5x5
I1029 13:23:11.622908  3605 net.cpp:367] inception_5a/relu_5x5 -> inception_5a/5x5 (in-place)
I1029 13:23:11.624893  3605 net.cpp:122] Setting up inception_5a/relu_5x5
I1029 13:23:11.624903  3605 net.cpp:129] Top shape: 30 128 7 7 (188160)
I1029 13:23:11.624908  3605 net.cpp:137] Memory required for data: 1625657048
I1029 13:23:11.624913  3605 layer_factory.hpp:77] Creating layer inception_5a/pool
I1029 13:23:11.624923  3605 net.cpp:84] Creating Layer inception_5a/pool
I1029 13:23:11.624930  3605 net.cpp:406] inception_5a/pool <- pool4/3x3_s2_pool4/3x3_s2_0_split_3
I1029 13:23:11.624940  3605 net.cpp:380] inception_5a/pool -> inception_5a/pool
I1029 13:23:11.625001  3605 net.cpp:122] Setting up inception_5a/pool
I1029 13:23:11.625012  3605 net.cpp:129] Top shape: 30 832 7 7 (1223040)
I1029 13:23:11.625016  3605 net.cpp:137] Memory required for data: 1630549208
I1029 13:23:11.625021  3605 layer_factory.hpp:77] Creating layer inception_5a/pool_proj
I1029 13:23:11.625037  3605 net.cpp:84] Creating Layer inception_5a/pool_proj
I1029 13:23:11.625042  3605 net.cpp:406] inception_5a/pool_proj <- inception_5a/pool
I1029 13:23:11.625051  3605 net.cpp:380] inception_5a/pool_proj -> inception_5a/pool_proj
I1029 13:23:11.628394  3605 net.cpp:122] Setting up inception_5a/pool_proj
I1029 13:23:11.628420  3605 net.cpp:129] Top shape: 30 128 7 7 (188160)
I1029 13:23:11.628427  3605 net.cpp:137] Memory required for data: 1631301848
I1029 13:23:11.628440  3605 layer_factory.hpp:77] Creating layer inception_5a/relu_pool_proj
I1029 13:23:11.628453  3605 net.cpp:84] Creating Layer inception_5a/relu_pool_proj
I1029 13:23:11.628480  3605 net.cpp:406] inception_5a/relu_pool_proj <- inception_5a/pool_proj
I1029 13:23:11.628490  3605 net.cpp:367] inception_5a/relu_pool_proj -> inception_5a/pool_proj (in-place)
I1029 13:23:11.628720  3605 net.cpp:122] Setting up inception_5a/relu_pool_proj
I1029 13:23:11.628728  3605 net.cpp:129] Top shape: 30 128 7 7 (188160)
I1029 13:23:11.628733  3605 net.cpp:137] Memory required for data: 1632054488
I1029 13:23:11.628737  3605 layer_factory.hpp:77] Creating layer inception_5a/output
I1029 13:23:11.628748  3605 net.cpp:84] Creating Layer inception_5a/output
I1029 13:23:11.628753  3605 net.cpp:406] inception_5a/output <- inception_5a/1x1
I1029 13:23:11.628759  3605 net.cpp:406] inception_5a/output <- inception_5a/3x3
I1029 13:23:11.628765  3605 net.cpp:406] inception_5a/output <- inception_5a/5x5
I1029 13:23:11.628772  3605 net.cpp:406] inception_5a/output <- inception_5a/pool_proj
I1029 13:23:11.628779  3605 net.cpp:380] inception_5a/output -> inception_5a/output
I1029 13:23:11.628819  3605 net.cpp:122] Setting up inception_5a/output
I1029 13:23:11.628841  3605 net.cpp:129] Top shape: 30 832 7 7 (1223040)
I1029 13:23:11.628847  3605 net.cpp:137] Memory required for data: 1636946648
I1029 13:23:11.628852  3605 layer_factory.hpp:77] Creating layer inception_5a/output_inception_5a/output_0_split
I1029 13:23:11.628864  3605 net.cpp:84] Creating Layer inception_5a/output_inception_5a/output_0_split
I1029 13:23:11.628868  3605 net.cpp:406] inception_5a/output_inception_5a/output_0_split <- inception_5a/output
I1029 13:23:11.628876  3605 net.cpp:380] inception_5a/output_inception_5a/output_0_split -> inception_5a/output_inception_5a/output_0_split_0
I1029 13:23:11.628885  3605 net.cpp:380] inception_5a/output_inception_5a/output_0_split -> inception_5a/output_inception_5a/output_0_split_1
I1029 13:23:11.628897  3605 net.cpp:380] inception_5a/output_inception_5a/output_0_split -> inception_5a/output_inception_5a/output_0_split_2
I1029 13:23:11.628907  3605 net.cpp:380] inception_5a/output_inception_5a/output_0_split -> inception_5a/output_inception_5a/output_0_split_3
I1029 13:23:11.629003  3605 net.cpp:122] Setting up inception_5a/output_inception_5a/output_0_split
I1029 13:23:11.629011  3605 net.cpp:129] Top shape: 30 832 7 7 (1223040)
I1029 13:23:11.629017  3605 net.cpp:129] Top shape: 30 832 7 7 (1223040)
I1029 13:23:11.629024  3605 net.cpp:129] Top shape: 30 832 7 7 (1223040)
I1029 13:23:11.629030  3605 net.cpp:129] Top shape: 30 832 7 7 (1223040)
I1029 13:23:11.629034  3605 net.cpp:137] Memory required for data: 1656515288
I1029 13:23:11.629039  3605 layer_factory.hpp:77] Creating layer inception_5b/1x1
I1029 13:23:11.629055  3605 net.cpp:84] Creating Layer inception_5b/1x1
I1029 13:23:11.629060  3605 net.cpp:406] inception_5b/1x1 <- inception_5a/output_inception_5a/output_0_split_0
I1029 13:23:11.629068  3605 net.cpp:380] inception_5b/1x1 -> inception_5b/1x1
I1029 13:23:11.637287  3605 net.cpp:122] Setting up inception_5b/1x1
I1029 13:23:11.637331  3605 net.cpp:129] Top shape: 30 384 7 7 (564480)
I1029 13:23:11.637337  3605 net.cpp:137] Memory required for data: 1658773208
I1029 13:23:11.637356  3605 layer_factory.hpp:77] Creating layer inception_5b/relu_1x1
I1029 13:23:11.637373  3605 net.cpp:84] Creating Layer inception_5b/relu_1x1
I1029 13:23:11.637382  3605 net.cpp:406] inception_5b/relu_1x1 <- inception_5b/1x1
I1029 13:23:11.637397  3605 net.cpp:367] inception_5b/relu_1x1 -> inception_5b/1x1 (in-place)
I1029 13:23:11.639328  3605 net.cpp:122] Setting up inception_5b/relu_1x1
I1029 13:23:11.639379  3605 net.cpp:129] Top shape: 30 384 7 7 (564480)
I1029 13:23:11.639395  3605 net.cpp:137] Memory required for data: 1661031128
I1029 13:23:11.639412  3605 layer_factory.hpp:77] Creating layer inception_5b/3x3_reduce
I1029 13:23:11.639443  3605 net.cpp:84] Creating Layer inception_5b/3x3_reduce
I1029 13:23:11.639462  3605 net.cpp:406] inception_5b/3x3_reduce <- inception_5a/output_inception_5a/output_0_split_1
I1029 13:23:11.639503  3605 net.cpp:380] inception_5b/3x3_reduce -> inception_5b/3x3_reduce
I1029 13:23:11.647286  3605 net.cpp:122] Setting up inception_5b/3x3_reduce
I1029 13:23:11.647331  3605 net.cpp:129] Top shape: 30 192 7 7 (282240)
I1029 13:23:11.647337  3605 net.cpp:137] Memory required for data: 1662160088
I1029 13:23:11.647353  3605 layer_factory.hpp:77] Creating layer inception_5b/relu_3x3_reduce
I1029 13:23:11.647369  3605 net.cpp:84] Creating Layer inception_5b/relu_3x3_reduce
I1029 13:23:11.647379  3605 net.cpp:406] inception_5b/relu_3x3_reduce <- inception_5b/3x3_reduce
I1029 13:23:11.647392  3605 net.cpp:367] inception_5b/relu_3x3_reduce -> inception_5b/3x3_reduce (in-place)
I1029 13:23:11.648268  3605 net.cpp:122] Setting up inception_5b/relu_3x3_reduce
I1029 13:23:11.648587  3605 net.cpp:129] Top shape: 30 192 7 7 (282240)
I1029 13:23:11.648706  3605 net.cpp:137] Memory required for data: 1663289048
I1029 13:23:11.648825  3605 layer_factory.hpp:77] Creating layer inception_5b/3x3
I1029 13:23:11.649004  3605 net.cpp:84] Creating Layer inception_5b/3x3
I1029 13:23:11.649152  3605 net.cpp:406] inception_5b/3x3 <- inception_5b/3x3_reduce
I1029 13:23:11.649302  3605 net.cpp:380] inception_5b/3x3 -> inception_5b/3x3
I1029 13:23:11.663684  3605 net.cpp:122] Setting up inception_5b/3x3
I1029 13:23:11.663730  3605 net.cpp:129] Top shape: 30 384 7 7 (564480)
I1029 13:23:11.664012  3605 net.cpp:137] Memory required for data: 1665546968
I1029 13:23:11.664122  3605 layer_factory.hpp:77] Creating layer inception_5b/relu_3x3
I1029 13:23:11.664224  3605 net.cpp:84] Creating Layer inception_5b/relu_3x3
I1029 13:23:11.664247  3605 net.cpp:406] inception_5b/relu_3x3 <- inception_5b/3x3
I1029 13:23:11.664278  3605 net.cpp:367] inception_5b/relu_3x3 -> inception_5b/3x3 (in-place)
I1029 13:23:11.665192  3605 net.cpp:122] Setting up inception_5b/relu_3x3
I1029 13:23:11.665212  3605 net.cpp:129] Top shape: 30 384 7 7 (564480)
I1029 13:23:11.665412  3605 net.cpp:137] Memory required for data: 1667804888
I1029 13:23:11.665540  3605 layer_factory.hpp:77] Creating layer inception_5b/5x5_reduce
I1029 13:23:11.665699  3605 net.cpp:84] Creating Layer inception_5b/5x5_reduce
I1029 13:23:11.665810  3605 net.cpp:406] inception_5b/5x5_reduce <- inception_5a/output_inception_5a/output_0_split_2
I1029 13:23:11.665980  3605 net.cpp:380] inception_5b/5x5_reduce -> inception_5b/5x5_reduce
I1029 13:23:11.671672  3605 net.cpp:122] Setting up inception_5b/5x5_reduce
I1029 13:23:11.671705  3605 net.cpp:129] Top shape: 30 48 7 7 (70560)
I1029 13:23:11.671710  3605 net.cpp:137] Memory required for data: 1668087128
I1029 13:23:11.671726  3605 layer_factory.hpp:77] Creating layer inception_5b/relu_5x5_reduce
I1029 13:23:11.671743  3605 net.cpp:84] Creating Layer inception_5b/relu_5x5_reduce
I1029 13:23:11.671752  3605 net.cpp:406] inception_5b/relu_5x5_reduce <- inception_5b/5x5_reduce
I1029 13:23:11.671762  3605 net.cpp:367] inception_5b/relu_5x5_reduce -> inception_5b/5x5_reduce (in-place)
I1029 13:23:11.673701  3605 net.cpp:122] Setting up inception_5b/relu_5x5_reduce
I1029 13:23:11.673719  3605 net.cpp:129] Top shape: 30 48 7 7 (70560)
I1029 13:23:11.673725  3605 net.cpp:137] Memory required for data: 1668369368
I1029 13:23:11.673732  3605 layer_factory.hpp:77] Creating layer inception_5b/5x5
I1029 13:23:11.673750  3605 net.cpp:84] Creating Layer inception_5b/5x5
I1029 13:23:11.673756  3605 net.cpp:406] inception_5b/5x5 <- inception_5b/5x5_reduce
I1029 13:23:11.673768  3605 net.cpp:380] inception_5b/5x5 -> inception_5b/5x5
I1029 13:23:11.680654  3605 net.cpp:122] Setting up inception_5b/5x5
I1029 13:23:11.680696  3605 net.cpp:129] Top shape: 30 128 7 7 (188160)
I1029 13:23:11.680702  3605 net.cpp:137] Memory required for data: 1669122008
I1029 13:23:11.680718  3605 layer_factory.hpp:77] Creating layer inception_5b/relu_5x5
I1029 13:23:11.680737  3605 net.cpp:84] Creating Layer inception_5b/relu_5x5
I1029 13:23:11.680745  3605 net.cpp:406] inception_5b/relu_5x5 <- inception_5b/5x5
I1029 13:23:11.680757  3605 net.cpp:367] inception_5b/relu_5x5 -> inception_5b/5x5 (in-place)
I1029 13:23:11.683887  3605 net.cpp:122] Setting up inception_5b/relu_5x5
I1029 13:23:11.683961  3605 net.cpp:129] Top shape: 30 128 7 7 (188160)
I1029 13:23:11.683967  3605 net.cpp:137] Memory required for data: 1669874648
I1029 13:23:11.683975  3605 layer_factory.hpp:77] Creating layer inception_5b/pool
I1029 13:23:11.683993  3605 net.cpp:84] Creating Layer inception_5b/pool
I1029 13:23:11.684002  3605 net.cpp:406] inception_5b/pool <- inception_5a/output_inception_5a/output_0_split_3
I1029 13:23:11.684015  3605 net.cpp:380] inception_5b/pool -> inception_5b/pool
I1029 13:23:11.684121  3605 net.cpp:122] Setting up inception_5b/pool
I1029 13:23:11.684145  3605 net.cpp:129] Top shape: 30 832 7 7 (1223040)
I1029 13:23:11.684161  3605 net.cpp:137] Memory required for data: 1674766808
I1029 13:23:11.684176  3605 layer_factory.hpp:77] Creating layer inception_5b/pool_proj
I1029 13:23:11.684203  3605 net.cpp:84] Creating Layer inception_5b/pool_proj
I1029 13:23:11.684221  3605 net.cpp:406] inception_5b/pool_proj <- inception_5b/pool
I1029 13:23:11.684242  3605 net.cpp:380] inception_5b/pool_proj -> inception_5b/pool_proj
I1029 13:23:11.691133  3605 net.cpp:122] Setting up inception_5b/pool_proj
I1029 13:23:11.691172  3605 net.cpp:129] Top shape: 30 128 7 7 (188160)
I1029 13:23:11.691179  3605 net.cpp:137] Memory required for data: 1675519448
I1029 13:23:11.691195  3605 layer_factory.hpp:77] Creating layer inception_5b/relu_pool_proj
I1029 13:23:11.691210  3605 net.cpp:84] Creating Layer inception_5b/relu_pool_proj
I1029 13:23:11.691218  3605 net.cpp:406] inception_5b/relu_pool_proj <- inception_5b/pool_proj
I1029 13:23:11.691231  3605 net.cpp:367] inception_5b/relu_pool_proj -> inception_5b/pool_proj (in-place)
I1029 13:23:11.693116  3605 net.cpp:122] Setting up inception_5b/relu_pool_proj
I1029 13:23:11.693130  3605 net.cpp:129] Top shape: 30 128 7 7 (188160)
I1029 13:23:11.693135  3605 net.cpp:137] Memory required for data: 1676272088
I1029 13:23:11.693140  3605 layer_factory.hpp:77] Creating layer inception_5b/output
I1029 13:23:11.693150  3605 net.cpp:84] Creating Layer inception_5b/output
I1029 13:23:11.693156  3605 net.cpp:406] inception_5b/output <- inception_5b/1x1
I1029 13:23:11.693163  3605 net.cpp:406] inception_5b/output <- inception_5b/3x3
I1029 13:23:11.693169  3605 net.cpp:406] inception_5b/output <- inception_5b/5x5
I1029 13:23:11.693176  3605 net.cpp:406] inception_5b/output <- inception_5b/pool_proj
I1029 13:23:11.693186  3605 net.cpp:380] inception_5b/output -> inception_5b/output
I1029 13:23:11.693240  3605 net.cpp:122] Setting up inception_5b/output
I1029 13:23:11.693251  3605 net.cpp:129] Top shape: 30 1024 7 7 (1505280)
I1029 13:23:11.693256  3605 net.cpp:137] Memory required for data: 1682293208
I1029 13:23:11.693260  3605 layer_factory.hpp:77] Creating layer pool5/7x7_s1
I1029 13:23:11.693269  3605 net.cpp:84] Creating Layer pool5/7x7_s1
I1029 13:23:11.693275  3605 net.cpp:406] pool5/7x7_s1 <- inception_5b/output
I1029 13:23:11.693284  3605 net.cpp:380] pool5/7x7_s1 -> pool5/7x7_s1
I1029 13:23:11.695402  3605 net.cpp:122] Setting up pool5/7x7_s1
I1029 13:23:11.695421  3605 net.cpp:129] Top shape: 30 1024 1 1 (30720)
I1029 13:23:11.695426  3605 net.cpp:137] Memory required for data: 1682416088
I1029 13:23:11.695431  3605 layer_factory.hpp:77] Creating layer pool5/drop_7x7_s1
I1029 13:23:11.695442  3605 net.cpp:84] Creating Layer pool5/drop_7x7_s1
I1029 13:23:11.695448  3605 net.cpp:406] pool5/drop_7x7_s1 <- pool5/7x7_s1
I1029 13:23:11.695457  3605 net.cpp:367] pool5/drop_7x7_s1 -> pool5/7x7_s1 (in-place)
I1029 13:23:11.695490  3605 net.cpp:122] Setting up pool5/drop_7x7_s1
I1029 13:23:11.695499  3605 net.cpp:129] Top shape: 30 1024 1 1 (30720)
I1029 13:23:11.695503  3605 net.cpp:137] Memory required for data: 1682538968
I1029 13:23:11.695508  3605 layer_factory.hpp:77] Creating layer my-loss3/classifier
I1029 13:23:11.695521  3605 net.cpp:84] Creating Layer my-loss3/classifier
I1029 13:23:11.695526  3605 net.cpp:406] my-loss3/classifier <- pool5/7x7_s1
I1029 13:23:11.695538  3605 net.cpp:380] my-loss3/classifier -> my-loss3/classifier
I1029 13:23:11.695757  3605 net.cpp:122] Setting up my-loss3/classifier
I1029 13:23:11.695766  3605 net.cpp:129] Top shape: 30 1 (30)
I1029 13:23:11.695770  3605 net.cpp:137] Memory required for data: 1682539088
I1029 13:23:11.695781  3605 layer_factory.hpp:77] Creating layer loss3/loss
I1029 13:23:11.695791  3605 net.cpp:84] Creating Layer loss3/loss
I1029 13:23:11.695796  3605 net.cpp:406] loss3/loss <- my-loss3/classifier
I1029 13:23:11.695802  3605 net.cpp:406] loss3/loss <- label_data_1_split_2
I1029 13:23:11.695809  3605 net.cpp:380] loss3/loss -> loss3/loss
…
I1029 13:23:11.697094  3605 net.cpp:255] Network initialization done.
I1029 13:23:11.699224  3605 solver.cpp:172] Creating test net (#0) specified by net file: ./train_val.prototxt
I1029 13:23:11.699476  3605 net.cpp:294] The NetState phase (1) differed from the phase (0) specified by a rule in layer data
I1029 13:23:11.701073  3605 net.cpp:51] Initializing net from parameters: 
name: "GoogleNet"
state {
  phase: TEST
}
layer {
  name: "data"
  type: "HDF5Data"
  top: "data"
  top: "label"
  include {
    phase: TEST
  }
  hdf5_data_param {
    source: "./test.txt"
    batch_size: 1
  }
}
layer {
  name: "conv1/7x7_s2"
  type: "Convolution"
  bottom: "data"
  top: "conv1/7x7_s2"
  param {
    lr_mult: 1
    decay_mult: 1
  }
  param {
    lr_mult: 2
    decay_mult: 0
  }
  convolution_param {
    num_output: 64
    pad: 3
    kernel_size: 7
    stride: 2
    weight_filler {
      type: "xavier"
    }
    bias_filler {
      type: "constant"
      value: 0.2
    }
  }
}
layer {
  name: "conv1/relu_7x7"
  type: "ReLU"
  bottom: "conv1/7x7_s2"
  top: "conv1/7x7_s2"
}
layer {
  name: "pool1/3x3_s2"
  type: "Pooling"
  bottom: "conv1/7x7_s2"
  top: "pool1/3x3_s2"
  pooling_param {
    pool: MAX
    kernel_size: 3
    stride: 2
  }
}
layer {
  name: "pool1/norm1"
  type: "LRN"
  bottom: "pool1/3x3_s2"
  top: "pool1/norm1"
  lrn_param {
    local_size: 5
    alpha: 0.0001
    beta: 0.75
  }
}
layer {
  name: "conv2/3x3_reduce"
  type: "Convolution"
  bottom: "pool1/norm1"
  top: "conv2/3x3_reduce"
  param {
    lr_mult: 1
    decay_mult: 1
  }
  param {
    lr_mult: 2
    decay_mult: 0
  }
  convolution_param {
    num_output: 64
    kernel_size: 1
    weight_filler {
      type: "xavier"
    }
    bias_filler {
      type: "constant"
      value: 0.2
    }
  }
}
layer {
  name: "conv2/relu_3x3_reduce"
  type: "ReLU"
  bottom: "conv2/3x3_reduce"
  top: "conv2/3x3_reduce"
}
layer {
  name: "conv2/3x3"
  type: "Convolution"
  bottom: "conv2/3x3_reduce"
  top: "conv2/3x3"
  param {
    lr_mult: 1
    decay_mult: 1
  }
  param {
    lr_mult: 2
    decay_mult: 0
  }
  convolution_param {
    num_output: 192
    pad: 1
    kernel_size: 3
    weight_filler {
      type: "xavier"
    }
    bias_filler {
      type: "constant"
      value: 0.2
    }
  }
}
layer {
  name: "conv2/relu_3x3"
  type: "ReLU"
  bottom: "conv2/3x3"
  top: "conv2/3x3"
}
layer {
  name: "conv2/norm2"
  type: "LRN"
  bottom: "conv2/3x3"
  top: "conv2/norm2"
  lrn_param {
    local_size: 5
    alpha: 0.0001
    beta: 0.75
  }
}
layer {
  name: "pool2/3x3_s2"
  type: "Pooling"
  bottom: "conv2/norm2"
  top: "pool2/3x3_s2"
  pooling_param {
    pool: MAX
    kernel_size: 3
    stride: 2
  }
}
layer {
  name: "inception_3a/1x1"
  type: "Convolution"
  bottom: "pool2/3x3_s2"
  top: "inception_3a/1x1"
  param {
    lr_mult: 1
    decay_mult: 1
  }
  param {
    lr_mult: 2
    decay_mult: 0
  }
  convolution_param {
    num_output: 64
    kernel_size: 1
    weight_filler {
      type: "xavier"
    }
    bias_filler {
      type: "constant"
      value: 0.2
    }
  }
}
layer {
  name: "inception_3a/relu_1x1"
  type: "ReLU"
  bottom: "inception_3a/1x1"
  top: "inception_3a/1x1"
}
layer {
  name: "inception_3a/3x3_reduce"
  type: "Convolution"
  bottom: "pool2/3x3_s2"
  top: "inception_3a/3x3_reduce"
  param {
    lr_mult: 1
    decay_mult: 1
  }
  param {
    lr_mult: 2
    decay_mult: 0
  }
  convolution_param {
    num_output: 96
    kernel_size: 1
    weight_filler {
      type: "xavier"
    }
    bias_filler {
      type: "constant"
      value: 0.2
    }
  }
}
layer {
  name: "inception_3a/relu_3x3_reduce"
  type: "ReLU"
  bottom: "inception_3a/3x3_reduce"
  top: "inception_3a/3x3_reduce"
}
layer {
  name: "inception_3a/3x3"
  type: "Convolution"
  bottom: "inception_3a/3x3_reduce"
  top: "inception_3a/3x3"
  param {
    lr_mult: 1
    decay_mult: 1
  }
  param {
    lr_mult: 2
    decay_mult: 0
  }
  convolution_param {
    num_output: 128
    pad: 1
    kernel_size: 3
    weight_filler {
      type: "xavier"
    }
    bias_filler {
      type: "constant"
      value: 0.2
    }
  }
}
layer {
  name: "inception_3a/relu_3x3"
  type: "ReLU"
  bottom: "inception_3a/3x3"
  top: "inception_3a/3x3"
}
layer {
  name: "inception_3a/5x5_reduce"
  type: "Convolution"
  bottom: "pool2/3x3_s2"
  top: "inception_3a/5x5_reduce"
  param {
    lr_mult: 1
    decay_mult: 1
  }
  param {
    lr_mult: 2
    decay_mult: 0
  }
  convolution_param {
    num_output: 16
    kernel_size: 1
    weight_filler {
      type: "xavier"
    }
    bias_filler {
      type: "constant"
      value: 0.2
    }
  }
}
layer {
  name: "inception_3a/relu_5x5_reduce"
  type: "ReLU"
  bottom: "inception_3a/5x5_reduce"
  top: "inception_3a/5x5_reduce"
}
layer {
  name: "inception_3a/5x5"
  type: "Convolution"
  bottom: "inception_3a/5x5_reduce"
  top: "inception_3a/5x5"
  param {
    lr_mult: 1
    decay_mult: 1
  }
  param {
    lr_mult: 2
    decay_mult: 0
  }
  convolution_param {
    num_output: 32
    pad: 2
    kernel_size: 5
    weight_filler {
      type: "xavier"
    }
    bias_filler {
      type: "constant"
      value: 0.2
    }
  }
}
layer {
  name: "inception_3a/relu_5x5"
  type: "ReLU"
  bottom: "inception_3a/5x5"
  top: "inception_3a/5x5"
}
layer {
  name: "inception_3a/pool"
  type: "Pooling"
  bottom: "pool2/3x3_s2"
  top: "inception_3a/pool"
  pooling_param {
    pool: MAX
    kernel_size: 3
    stride: 1
    pad: 1
  }
}
layer {
  name: "inception_3a/pool_proj"
  type: "Convolution"
  bottom: "inception_3a/pool"
  top: "inception_3a/pool_proj"
  param {
    lr_mult: 1
    decay_mult: 1
  }
  param {
    lr_mult: 2
    decay_mult: 0
  }
  convolution_param {
    num_output: 32
    kernel_size: 1
    weight_filler {
      type: "xavier"
    }
    bias_filler {
      type: "constant"
      value: 0.2
    }
  }
}
layer {
  name: "inception_3a/relu_pool_proj"
  type: "ReLU"
  bottom: "inception_3a/pool_proj"
  top: "inception_3a/pool_proj"
}
layer {
  name: "inception_3a/output"
  type: "Concat"
  bottom: "inception_3a/1x1"
  bottom: "inception_3a/3x3"
  bottom: "inception_3a/5x5"
  bottom: "inception_3a/pool_proj"
  top: "inception_3a/output"
}
layer {
  name: "inception_3b/1x1"
  type: "Convolution"
  bottom: "inception_3a/output"
  top: "inception_3b/1x1"
  param {
    lr_mult: 1
    decay_mult: 1
  }
  param {
    lr_mult: 2
    decay_mult: 0
  }
  convolution_param {
    num_output: 128
    kernel_size: 1
    weight_filler {
      type: "xavier"
    }
    bias_filler {
      type: "constant"
      value: 0.2
    }
  }
}
layer {
  name: "inception_3b/relu_1x1"
  type: "ReLU"
  bottom: "inception_3b/1x1"
  top: "inception_3b/1x1"
}
layer {
  name: "inception_3b/3x3_reduce"
  type: "Convolution"
  bottom: "inception_3a/output"
  top: "inception_3b/3x3_reduce"
  param {
    lr_mult: 1
    decay_mult: 1
  }
  param {
    lr_mult: 2
    decay_mult: 0
  }
  convolution_param {
    num_output: 128
    kernel_size: 1
    weight_filler {
      type: "xavier"
    }
    bias_filler {
      type: "constant"
      value: 0.2
    }
  }
}
layer {
  name: "inception_3b/relu_3x3_reduce"
  type: "ReLU"
  bottom: "inception_3b/3x3_reduce"
  top: "inception_3b/3x3_reduce"
}
layer {
  name: "inception_3b/3x3"
  type: "Convolution"
  bottom: "inception_3b/3x3_reduce"
  top: "inception_3b/3x3"
  param {
    lr_mult: 1
    decay_mult: 1
  }
  param {
    lr_mult: 2
    decay_mult: 0
  }
  convolution_param {
    num_output: 192
    pad: 1
    kernel_size: 3
    weight_filler {
      type: "xavier"
    }
    bias_filler {
      type: "constant"
      value: 0.2
    }
  }
}
layer {
  name: "inception_3b/relu_3x3"
  type: "ReLU"
  bottom: "inception_3b/3x3"
  top: "inception_3b/3x3"
}
layer {
  name: "inception_3b/5x5_reduce"
  type: "Convolution"
  bottom: "inception_3a/output"
  top: "inception_3b/5x5_reduce"
  param {
    lr_mult: 1
    decay_mult: 1
  }
  param {
    lr_mult: 2
    decay_mult: 0
  }
  convolution_param {
    num_output: 32
    kernel_size: 1
    weight_filler {
      type: "xavier"
    }
    bias_filler {
      type: "constant"
      value: 0.2
    }
  }
}
layer {
  name: "inception_3b/relu_5x5_reduce"
  type: "ReLU"
  bottom: "inception_3b/5x5_reduce"
  top: "inception_3b/5x5_reduce"
}
layer {
  name: "inception_3b/5x5"
  type: "Convolution"
  bottom: "inception_3b/5x5_reduce"
  top: "inception_3b/5x5"
  param {
    lr_mult: 1
    decay_mult: 1
  }
  param {
    lr_mult: 2
    decay_mult: 0
  }
  convolution_param {
    num_output: 96
    pad: 2
    kernel_size: 5
    weight_filler {
      type: "xavier"
    }
    bias_filler {
      type: "constant"
      value: 0.2
    }
  }
}
layer {
  name: "inception_3b/relu_5x5"
  type: "ReLU"
  bottom: "inception_3b/5x5"
  top: "inception_3b/5x5"
}
layer {
  name: "inception_3b/pool"
  type: "Pooling"
  bottom: "inception_3a/output"
  top: "inception_3b/pool"
  pooling_param {
    pool: MAX
    kernel_size: 3
    stride: 1
    pad: 1
  }
}
layer {
  name: "inception_3b/pool_proj"
  type: "Convolution"
  bottom: "inception_3b/pool"
  top: "inception_3b/pool_proj"
  param {
    lr_mult: 1
    decay_mult: 1
  }
  param {
    lr_mult: 2
    decay_mult: 0
  }
  convolution_param {
    num_output: 64
    kernel_size: 1
    weight_filler {
      type: "xavier"
    }
    bias_filler {
      type: "constant"
      value: 0.2
    }
  }
}
layer {
  name: "inception_3b/relu_pool_proj"
  type: "ReLU"
  bottom: "inception_3b/pool_proj"
  top: "inception_3b/pool_proj"
}
layer {
  name: "inception_3b/output"
  type: "Concat"
  bottom: "inception_3b/1x1"
  bottom: "inception_3b/3x3"
  bottom: "inception_3b/5x5"
  bottom: "inception_3b/pool_proj"
  top: "inception_3b/output"
}
layer {
  name: "pool3/3x3_s2"
  type: "Pooling"
  bottom: "inception_3b/output"
  top: "pool3/3x3_s2"
  pooling_param {
    pool: MAX
    kernel_size: 3
    stride: 2
  }
}
layer {
  name: "inception_4a/1x1"
  type: "Convolution"
  bottom: "pool3/3x3_s2"
  top: "inception_4a/1x1"
  param {
    lr_mult: 1
    decay_mult: 1
  }
  param {
    lr_mult: 2
    decay_mult: 0
  }
  convolution_param {
    num_output: 192
    kernel_size: 1
    weight_filler {
      type: "xavier"
    }
    bias_filler {
      type: "constant"
      value: 0.2
    }
  }
}
layer {
  name: "inception_4a/relu_1x1"
  type: "ReLU"
  bottom: "inception_4a/1x1"
  top: "inception_4a/1x1"
}
layer {
  name: "inception_4a/3x3_reduce"
  type: "Convolution"
  bottom: "pool3/3x3_s2"
  top: "inception_4a/3x3_reduce"
  param {
    lr_mult: 1
    decay_mult: 1
  }
  param {
    lr_mult: 2
    decay_mult: 0
  }
  convolution_param {
    num_output: 96
    kernel_size: 1
    weight_filler {
      type: "xavier"
    }
    bias_filler {
      type: "constant"
      value: 0.2
    }
  }
}
layer {
  name: "inception_4a/relu_3x3_reduce"
  type: "ReLU"
  bottom: "inception_4a/3x3_reduce"
  top: "inception_4a/3x3_reduce"
}
layer {
  name: "inception_4a/3x3"
  type: "Convolution"
  bottom: "inception_4a/3x3_reduce"
  top: "inception_4a/3x3"
  param {
    lr_mult: 1
    decay_mult: 1
  }
  param {
    lr_mult: 2
    decay_mult: 0
  }
  convolution_param {
    num_output: 208
    pad: 1
    kernel_size: 3
    weight_filler {
      type: "xavier"
    }
    bias_filler {
      type: "constant"
      value: 0.2
    }
  }
}
layer {
  name: "inception_4a/relu_3x3"
  type: "ReLU"
  bottom: "inception_4a/3x3"
  top: "inception_4a/3x3"
}
layer {
  name: "inception_4a/5x5_reduce"
  type: "Convolution"
  bottom: "pool3/3x3_s2"
  top: "inception_4a/5x5_reduce"
  param {
    lr_mult: 1
    decay_mult: 1
  }
  param {
    lr_mult: 2
    decay_mult: 0
  }
  convolution_param {
    num_output: 16
    kernel_size: 1
    weight_filler {
      type: "xavier"
    }
    bias_filler {
      type: "constant"
      value: 0.2
    }
  }
}
layer {
  name: "inception_4a/relu_5x5_reduce"
  type: "ReLU"
  bottom: "inception_4a/5x5_reduce"
  top: "inception_4a/5x5_reduce"
}
layer {
  name: "inception_4a/5x5"
  type: "Convolution"
  bottom: "inception_4a/5x5_reduce"
  top: "inception_4a/5x5"
  param {
    lr_mult: 1
    decay_mult: 1
  }
  param {
    lr_mult: 2
    decay_mult: 0
  }
  convolution_param {
    num_output: 48
    pad: 2
    kernel_size: 5
    weight_filler {
      type: "xavier"
    }
    bias_filler {
      type: "constant"
      value: 0.2
    }
  }
}
layer {
  name: "inception_4a/relu_5x5"
  type: "ReLU"
  bottom: "inception_4a/5x5"
  top: "inception_4a/5x5"
}
layer {
  name: "inception_4a/pool"
  type: "Pooling"
  bottom: "pool3/3x3_s2"
  top: "inception_4a/pool"
  pooling_param {
    pool: MAX
    kernel_size: 3
    stride: 1
    pad: 1
  }
}
layer {
  name: "inception_4a/pool_proj"
  type: "Convolution"
  bottom: "inception_4a/pool"
  top: "inception_4a/pool_proj"
  param {
    lr_mult: 1
    decay_mult: 1
  }
  param {
    lr_mult: 2
    decay_mult: 0
  }
  convolution_param {
    num_output: 64
    kernel_size: 1
    weight_filler {
      type: "xavier"
    }
    bias_filler {
      type: "constant"
      value: 0.2
    }
  }
}
layer {
  name: "inception_4a/relu_pool_proj"
  type: "ReLU"
  bottom: "inception_4a/pool_proj"
  top: "inception_4a/pool_proj"
}
layer {
  name: "inception_4a/output"
  type: "Concat"
  bottom: "inception_4a/1x1"
  bottom: "inception_4a/3x3"
  bottom: "inception_4a/5x5"
  bottom: "inception_4a/pool_proj"
  top: "inception_4a/output"
}
layer {
  name: "loss1/ave_pool"
  type: "Pooling"
  bottom: "inception_4a/output"
  top: "loss1/ave_pool"
  pooling_param {
    pool: AVE
    kernel_size: 5
    stride: 3
  }
}
layer {
  name: "loss1/conv"
  type: "Convolution"
  bottom: "loss1/ave_pool"
  top: "loss1/conv"
  param {
    lr_mult: 1
    decay_mult: 1
  }
  param {
    lr_mult: 2
    decay_mult: 0
  }
  convolution_param {
    num_output: 128
    kernel_size: 1
    weight_filler {
      type: "xavier"
    }
    bias_filler {
      type: "constant"
      value: 0.2
    }
  }
}
layer {
  name: "loss1/relu_conv"
  type: "ReLU"
  bottom: "loss1/conv"
  top: "loss1/conv"
}
layer {
  name: "loss1/fc"
  type: "InnerProduct"
  bottom: "loss1/conv"
  top: "loss1/fc"
  param {
    lr_mult: 1
    decay_mult: 1
  }
  param {
    lr_mult: 2
    decay_mult: 0
  }
  inner_product_param {
    num_output: 1024
    weight_filler {
      type: "xavier"
    }
    bias_filler {
      type: "constant"
      value: 0.2
    }
  }
}
layer {
  name: "loss1/relu_fc"
  type: "ReLU"
  bottom: "loss1/fc"
  top: "loss1/fc"
}
layer {
  name: "loss1/drop_fc"
  type: "Dropout"
  bottom: "loss1/fc"
  top: "loss1/fc"
  dropout_param {
    dropout_ratio: 0.7
  }
}
layer {
  name: "my-loss1/classifier"
  type: "InnerProduct"
  bottom: "loss1/fc"
  top: "my-loss1/classifier"
  param {
    lr_mult: 1
    decay_mult: 1
  }
  param {
    lr_mult: 2
…
I1029 13:23:12.598430  3605 net.cpp:129] Top shape: 1 256 14 14 (50176)
I1029 13:23:12.598435  3605 net.cpp:137] Memory required for data: 43651864
I1029 13:23:12.598441  3605 layer_factory.hpp:77] Creating layer inception_4c/5x5_reduce
I1029 13:23:12.598459  3605 net.cpp:84] Creating Layer inception_4c/5x5_reduce
I1029 13:23:12.598465  3605 net.cpp:406] inception_4c/5x5_reduce <- inception_4b/output_inception_4b/output_0_split_2
I1029 13:23:12.598477  3605 net.cpp:380] inception_4c/5x5_reduce -> inception_4c/5x5_reduce
I1029 13:23:12.603468  3605 net.cpp:122] Setting up inception_4c/5x5_reduce
I1029 13:23:12.603556  3605 net.cpp:129] Top shape: 1 24 14 14 (4704)
I1029 13:23:12.603574  3605 net.cpp:137] Memory required for data: 43670680
I1029 13:23:12.603602  3605 layer_factory.hpp:77] Creating layer inception_4c/relu_5x5_reduce
I1029 13:23:12.603627  3605 net.cpp:84] Creating Layer inception_4c/relu_5x5_reduce
I1029 13:23:12.603646  3605 net.cpp:406] inception_4c/relu_5x5_reduce <- inception_4c/5x5_reduce
I1029 13:23:12.603670  3605 net.cpp:367] inception_4c/relu_5x5_reduce -> inception_4c/5x5_reduce (in-place)
I1029 13:23:12.604835  3605 net.cpp:122] Setting up inception_4c/relu_5x5_reduce
I1029 13:23:12.604846  3605 net.cpp:129] Top shape: 1 24 14 14 (4704)
I1029 13:23:12.604851  3605 net.cpp:137] Memory required for data: 43689496
I1029 13:23:12.604856  3605 layer_factory.hpp:77] Creating layer inception_4c/5x5
I1029 13:23:12.604872  3605 net.cpp:84] Creating Layer inception_4c/5x5
I1029 13:23:12.604899  3605 net.cpp:406] inception_4c/5x5 <- inception_4c/5x5_reduce
I1029 13:23:12.604912  3605 net.cpp:380] inception_4c/5x5 -> inception_4c/5x5
I1029 13:23:12.610277  3605 net.cpp:122] Setting up inception_4c/5x5
I1029 13:23:12.610316  3605 net.cpp:129] Top shape: 1 64 14 14 (12544)
I1029 13:23:12.610321  3605 net.cpp:137] Memory required for data: 43739672
I1029 13:23:12.610339  3605 layer_factory.hpp:77] Creating layer inception_4c/relu_5x5
I1029 13:23:12.610355  3605 net.cpp:84] Creating Layer inception_4c/relu_5x5
I1029 13:23:12.610364  3605 net.cpp:406] inception_4c/relu_5x5 <- inception_4c/5x5
I1029 13:23:12.610378  3605 net.cpp:367] inception_4c/relu_5x5 -> inception_4c/5x5 (in-place)
I1029 13:23:12.612320  3605 net.cpp:122] Setting up inception_4c/relu_5x5
I1029 13:23:12.612331  3605 net.cpp:129] Top shape: 1 64 14 14 (12544)
I1029 13:23:12.612336  3605 net.cpp:137] Memory required for data: 43789848
I1029 13:23:12.612342  3605 layer_factory.hpp:77] Creating layer inception_4c/pool
I1029 13:23:12.612352  3605 net.cpp:84] Creating Layer inception_4c/pool
I1029 13:23:12.612357  3605 net.cpp:406] inception_4c/pool <- inception_4b/output_inception_4b/output_0_split_3
I1029 13:23:12.612370  3605 net.cpp:380] inception_4c/pool -> inception_4c/pool
I1029 13:23:12.612448  3605 net.cpp:122] Setting up inception_4c/pool
I1029 13:23:12.612457  3605 net.cpp:129] Top shape: 1 512 14 14 (100352)
I1029 13:23:12.612462  3605 net.cpp:137] Memory required for data: 44191256
I1029 13:23:12.612467  3605 layer_factory.hpp:77] Creating layer inception_4c/pool_proj
I1029 13:23:12.612488  3605 net.cpp:84] Creating Layer inception_4c/pool_proj
I1029 13:23:12.612495  3605 net.cpp:406] inception_4c/pool_proj <- inception_4c/pool
I1029 13:23:12.612504  3605 net.cpp:380] inception_4c/pool_proj -> inception_4c/pool_proj
I1029 13:23:12.619261  3605 net.cpp:122] Setting up inception_4c/pool_proj
I1029 13:23:12.619287  3605 net.cpp:129] Top shape: 1 64 14 14 (12544)
I1029 13:23:12.619292  3605 net.cpp:137] Memory required for data: 44241432
I1029 13:23:12.619307  3605 layer_factory.hpp:77] Creating layer inception_4c/relu_pool_proj
I1029 13:23:12.619318  3605 net.cpp:84] Creating Layer inception_4c/relu_pool_proj
I1029 13:23:12.619324  3605 net.cpp:406] inception_4c/relu_pool_proj <- inception_4c/pool_proj
I1029 13:23:12.619336  3605 net.cpp:367] inception_4c/relu_pool_proj -> inception_4c/pool_proj (in-place)
I1029 13:23:12.621299  3605 net.cpp:122] Setting up inception_4c/relu_pool_proj
I1029 13:23:12.621309  3605 net.cpp:129] Top shape: 1 64 14 14 (12544)
I1029 13:23:12.621315  3605 net.cpp:137] Memory required for data: 44291608
I1029 13:23:12.621320  3605 layer_factory.hpp:77] Creating layer inception_4c/output
I1029 13:23:12.621328  3605 net.cpp:84] Creating Layer inception_4c/output
I1029 13:23:12.621333  3605 net.cpp:406] inception_4c/output <- inception_4c/1x1
I1029 13:23:12.621340  3605 net.cpp:406] inception_4c/output <- inception_4c/3x3
I1029 13:23:12.621346  3605 net.cpp:406] inception_4c/output <- inception_4c/5x5
I1029 13:23:12.621353  3605 net.cpp:406] inception_4c/output <- inception_4c/pool_proj
I1029 13:23:12.621362  3605 net.cpp:380] inception_4c/output -> inception_4c/output
I1029 13:23:12.621407  3605 net.cpp:122] Setting up inception_4c/output
I1029 13:23:12.621431  3605 net.cpp:129] Top shape: 1 512 14 14 (100352)
I1029 13:23:12.621438  3605 net.cpp:137] Memory required for data: 44693016
I1029 13:23:12.621443  3605 layer_factory.hpp:77] Creating layer inception_4c/output_inception_4c/output_0_split
I1029 13:23:12.621455  3605 net.cpp:84] Creating Layer inception_4c/output_inception_4c/output_0_split
I1029 13:23:12.621460  3605 net.cpp:406] inception_4c/output_inception_4c/output_0_split <- inception_4c/output
I1029 13:23:12.621471  3605 net.cpp:380] inception_4c/output_inception_4c/output_0_split -> inception_4c/output_inception_4c/output_0_split_0
I1029 13:23:12.621486  3605 net.cpp:380] inception_4c/output_inception_4c/output_0_split -> inception_4c/output_inception_4c/output_0_split_1
I1029 13:23:12.621520  3605 net.cpp:380] inception_4c/output_inception_4c/output_0_split -> inception_4c/output_inception_4c/output_0_split_2
I1029 13:23:12.621531  3605 net.cpp:380] inception_4c/output_inception_4c/output_0_split -> inception_4c/output_inception_4c/output_0_split_3
I1029 13:23:12.621639  3605 net.cpp:122] Setting up inception_4c/output_inception_4c/output_0_split
I1029 13:23:12.621647  3605 net.cpp:129] Top shape: 1 512 14 14 (100352)
I1029 13:23:12.621654  3605 net.cpp:129] Top shape: 1 512 14 14 (100352)
I1029 13:23:12.621661  3605 net.cpp:129] Top shape: 1 512 14 14 (100352)
I1029 13:23:12.621670  3605 net.cpp:129] Top shape: 1 512 14 14 (100352)
I1029 13:23:12.621675  3605 net.cpp:137] Memory required for data: 46298648
I1029 13:23:12.621680  3605 layer_factory.hpp:77] Creating layer inception_4d/1x1
I1029 13:23:12.621695  3605 net.cpp:84] Creating Layer inception_4d/1x1
I1029 13:23:12.621701  3605 net.cpp:406] inception_4d/1x1 <- inception_4c/output_inception_4c/output_0_split_0
I1029 13:23:12.621714  3605 net.cpp:380] inception_4d/1x1 -> inception_4d/1x1
I1029 13:23:12.628165  3605 net.cpp:122] Setting up inception_4d/1x1
I1029 13:23:12.628197  3605 net.cpp:129] Top shape: 1 112 14 14 (21952)
I1029 13:23:12.628203  3605 net.cpp:137] Memory required for data: 46386456
I1029 13:23:12.628218  3605 layer_factory.hpp:77] Creating layer inception_4d/relu_1x1
I1029 13:23:12.628232  3605 net.cpp:84] Creating Layer inception_4d/relu_1x1
I1029 13:23:12.628249  3605 net.cpp:406] inception_4d/relu_1x1 <- inception_4d/1x1
I1029 13:23:12.628268  3605 net.cpp:367] inception_4d/relu_1x1 -> inception_4d/1x1 (in-place)
I1029 13:23:12.630174  3605 net.cpp:122] Setting up inception_4d/relu_1x1
I1029 13:23:12.630185  3605 net.cpp:129] Top shape: 1 112 14 14 (21952)
I1029 13:23:12.630189  3605 net.cpp:137] Memory required for data: 46474264
I1029 13:23:12.630194  3605 layer_factory.hpp:77] Creating layer inception_4d/3x3_reduce
I1029 13:23:12.630214  3605 net.cpp:84] Creating Layer inception_4d/3x3_reduce
I1029 13:23:12.630221  3605 net.cpp:406] inception_4d/3x3_reduce <- inception_4c/output_inception_4c/output_0_split_1
I1029 13:23:12.630233  3605 net.cpp:380] inception_4d/3x3_reduce -> inception_4d/3x3_reduce
I1029 13:23:12.637238  3605 net.cpp:122] Setting up inception_4d/3x3_reduce
I1029 13:23:12.637342  3605 net.cpp:129] Top shape: 1 144 14 14 (28224)
I1029 13:23:12.637362  3605 net.cpp:137] Memory required for data: 46587160
I1029 13:23:12.637395  3605 layer_factory.hpp:77] Creating layer inception_4d/relu_3x3_reduce
I1029 13:23:12.637429  3605 net.cpp:84] Creating Layer inception_4d/relu_3x3_reduce
I1029 13:23:12.637451  3605 net.cpp:406] inception_4d/relu_3x3_reduce <- inception_4d/3x3_reduce
I1029 13:23:12.637476  3605 net.cpp:367] inception_4d/relu_3x3_reduce -> inception_4d/3x3_reduce (in-place)
I1029 13:23:12.639093  3605 net.cpp:122] Setting up inception_4d/relu_3x3_reduce
I1029 13:23:12.639156  3605 net.cpp:129] Top shape: 1 144 14 14 (28224)
I1029 13:23:12.639173  3605 net.cpp:137] Memory required for data: 46700056
I1029 13:23:12.639190  3605 layer_factory.hpp:77] Creating layer inception_4d/3x3
I1029 13:23:12.639223  3605 net.cpp:84] Creating Layer inception_4d/3x3
I1029 13:23:12.639240  3605 net.cpp:406] inception_4d/3x3 <- inception_4d/3x3_reduce
I1029 13:23:12.639266  3605 net.cpp:380] inception_4d/3x3 -> inception_4d/3x3
I1029 13:23:12.650655  3605 net.cpp:122] Setting up inception_4d/3x3
I1029 13:23:12.650694  3605 net.cpp:129] Top shape: 1 288 14 14 (56448)
I1029 13:23:12.650701  3605 net.cpp:137] Memory required for data: 46925848
I1029 13:23:12.650719  3605 layer_factory.hpp:77] Creating layer inception_4d/relu_3x3
I1029 13:23:12.650738  3605 net.cpp:84] Creating Layer inception_4d/relu_3x3
I1029 13:23:12.650746  3605 net.cpp:406] inception_4d/relu_3x3 <- inception_4d/3x3
I1029 13:23:12.650758  3605 net.cpp:367] inception_4d/relu_3x3 -> inception_4d/3x3 (in-place)
I1029 13:23:12.651952  3605 net.cpp:122] Setting up inception_4d/relu_3x3
I1029 13:23:12.651964  3605 net.cpp:129] Top shape: 1 288 14 14 (56448)
I1029 13:23:12.652004  3605 net.cpp:137] Memory required for data: 47151640
I1029 13:23:12.652009  3605 layer_factory.hpp:77] Creating layer inception_4d/5x5_reduce
I1029 13:23:12.652030  3605 net.cpp:84] Creating Layer inception_4d/5x5_reduce
I1029 13:23:12.652036  3605 net.cpp:406] inception_4d/5x5_reduce <- inception_4c/output_inception_4c/output_0_split_2
I1029 13:23:12.652048  3605 net.cpp:380] inception_4d/5x5_reduce -> inception_4d/5x5_reduce
I1029 13:23:12.658877  3605 net.cpp:122] Setting up inception_4d/5x5_reduce
I1029 13:23:12.658901  3605 net.cpp:129] Top shape: 1 32 14 14 (6272)
I1029 13:23:12.658907  3605 net.cpp:137] Memory required for data: 47176728
I1029 13:23:12.658920  3605 layer_factory.hpp:77] Creating layer inception_4d/relu_5x5_reduce
I1029 13:23:12.658929  3605 net.cpp:84] Creating Layer inception_4d/relu_5x5_reduce
I1029 13:23:12.658936  3605 net.cpp:406] inception_4d/relu_5x5_reduce <- inception_4d/5x5_reduce
I1029 13:23:12.658946  3605 net.cpp:367] inception_4d/relu_5x5_reduce -> inception_4d/5x5_reduce (in-place)
I1029 13:23:12.660966  3605 net.cpp:122] Setting up inception_4d/relu_5x5_reduce
I1029 13:23:12.660976  3605 net.cpp:129] Top shape: 1 32 14 14 (6272)
I1029 13:23:12.660981  3605 net.cpp:137] Memory required for data: 47201816
I1029 13:23:12.660985  3605 layer_factory.hpp:77] Creating layer inception_4d/5x5
I1029 13:23:12.661001  3605 net.cpp:84] Creating Layer inception_4d/5x5
I1029 13:23:12.661006  3605 net.cpp:406] inception_4d/5x5 <- inception_4d/5x5_reduce
I1029 13:23:12.661016  3605 net.cpp:380] inception_4d/5x5 -> inception_4d/5x5
I1029 13:23:12.663209  3605 net.cpp:122] Setting up inception_4d/5x5
I1029 13:23:12.663338  3605 net.cpp:129] Top shape: 1 64 14 14 (12544)
I1029 13:23:12.663357  3605 net.cpp:137] Memory required for data: 47251992
I1029 13:23:12.663384  3605 layer_factory.hpp:77] Creating layer inception_4d/relu_5x5
I1029 13:23:12.663409  3605 net.cpp:84] Creating Layer inception_4d/relu_5x5
I1029 13:23:12.663427  3605 net.cpp:406] inception_4d/relu_5x5 <- inception_4d/5x5
I1029 13:23:12.663450  3605 net.cpp:367] inception_4d/relu_5x5 -> inception_4d/5x5 (in-place)
I1029 13:23:12.663725  3605 net.cpp:122] Setting up inception_4d/relu_5x5
I1029 13:23:12.663745  3605 net.cpp:129] Top shape: 1 64 14 14 (12544)
I1029 13:23:12.663761  3605 net.cpp:137] Memory required for data: 47302168
I1029 13:23:12.663777  3605 layer_factory.hpp:77] Creating layer inception_4d/pool
I1029 13:23:12.663801  3605 net.cpp:84] Creating Layer inception_4d/pool
I1029 13:23:12.663818  3605 net.cpp:406] inception_4d/pool <- inception_4c/output_inception_4c/output_0_split_3
I1029 13:23:12.663838  3605 net.cpp:380] inception_4d/pool -> inception_4d/pool
I1029 13:23:12.663926  3605 net.cpp:122] Setting up inception_4d/pool
I1029 13:23:12.663945  3605 net.cpp:129] Top shape: 1 512 14 14 (100352)
I1029 13:23:12.663961  3605 net.cpp:137] Memory required for data: 47703576
I1029 13:23:12.663976  3605 layer_factory.hpp:77] Creating layer inception_4d/pool_proj
I1029 13:23:12.664002  3605 net.cpp:84] Creating Layer inception_4d/pool_proj
I1029 13:23:12.664018  3605 net.cpp:406] inception_4d/pool_proj <- inception_4d/pool
I1029 13:23:12.664041  3605 net.cpp:380] inception_4d/pool_proj -> inception_4d/pool_proj
I1029 13:23:12.669026  3605 net.cpp:122] Setting up inception_4d/pool_proj
I1029 13:23:12.669116  3605 net.cpp:129] Top shape: 1 64 14 14 (12544)
I1029 13:23:12.669133  3605 net.cpp:137] Memory required for data: 47753752
I1029 13:23:12.669163  3605 layer_factory.hpp:77] Creating layer inception_4d/relu_pool_proj
I1029 13:23:12.669193  3605 net.cpp:84] Creating Layer inception_4d/relu_pool_proj
I1029 13:23:12.669212  3605 net.cpp:406] inception_4d/relu_pool_proj <- inception_4d/pool_proj
I1029 13:23:12.669234  3605 net.cpp:367] inception_4d/relu_pool_proj -> inception_4d/pool_proj (in-place)
I1029 13:23:12.671043  3605 net.cpp:122] Setting up inception_4d/relu_pool_proj
I1029 13:23:12.671066  3605 net.cpp:129] Top shape: 1 64 14 14 (12544)
I1029 13:23:12.671109  3605 net.cpp:137] Memory required for data: 47803928
I1029 13:23:12.671144  3605 layer_factory.hpp:77] Creating layer inception_4d/output
I1029 13:23:12.671165  3605 net.cpp:84] Creating Layer inception_4d/output
I1029 13:23:12.671185  3605 net.cpp:406] inception_4d/output <- inception_4d/1x1
I1029 13:23:12.671205  3605 net.cpp:406] inception_4d/output <- inception_4d/3x3
I1029 13:23:12.671223  3605 net.cpp:406] inception_4d/output <- inception_4d/5x5
I1029 13:23:12.671243  3605 net.cpp:406] inception_4d/output <- inception_4d/pool_proj
I1029 13:23:12.671264  3605 net.cpp:380] inception_4d/output -> inception_4d/output
I1029 13:23:12.671327  3605 net.cpp:122] Setting up inception_4d/output
I1029 13:23:12.671349  3605 net.cpp:129] Top shape: 1 528 14 14 (103488)
I1029 13:23:12.671365  3605 net.cpp:137] Memory required for data: 48217880
I1029 13:23:12.671382  3605 layer_factory.hpp:77] Creating layer inception_4d/output_inception_4d/output_0_split
I1029 13:23:12.671403  3605 net.cpp:84] Creating Layer inception_4d/output_inception_4d/output_0_split
I1029 13:23:12.671422  3605 net.cpp:406] inception_4d/output_inception_4d/output_0_split <- inception_4d/output
I1029 13:23:12.671444  3605 net.cpp:380] inception_4d/output_inception_4d/output_0_split -> inception_4d/output_inception_4d/output_0_split_0
I1029 13:23:12.671470  3605 net.cpp:380] inception_4d/output_inception_4d/output_0_split -> inception_4d/output_inception_4d/output_0_split_1
I1029 13:23:12.671494  3605 net.cpp:380] inception_4d/output_inception_4d/output_0_split -> inception_4d/output_inception_4d/output_0_split_2
I1029 13:23:12.671516  3605 net.cpp:380] inception_4d/output_inception_4d/output_0_split -> inception_4d/output_inception_4d/output_0_split_3
I1029 13:23:12.671538  3605 net.cpp:380] inception_4d/output_inception_4d/output_0_split -> inception_4d/output_inception_4d/output_0_split_4
I1029 13:23:12.671679  3605 net.cpp:122] Setting up inception_4d/output_inception_4d/output_0_split
I1029 13:23:12.671699  3605 net.cpp:129] Top shape: 1 528 14 14 (103488)
I1029 13:23:12.671718  3605 net.cpp:129] Top shape: 1 528 14 14 (103488)
I1029 13:23:12.671737  3605 net.cpp:129] Top shape: 1 528 14 14 (103488)
I1029 13:23:12.671756  3605 net.cpp:129] Top shape: 1 528 14 14 (103488)
I1029 13:23:12.671774  3605 net.cpp:129] Top shape: 1 528 14 14 (103488)
I1029 13:23:12.671792  3605 net.cpp:137] Memory required for data: 50287640
I1029 13:23:12.671808  3605 layer_factory.hpp:77] Creating layer loss2/ave_pool
I1029 13:23:12.671833  3605 net.cpp:84] Creating Layer loss2/ave_pool
I1029 13:23:12.671849  3605 net.cpp:406] loss2/ave_pool <- inception_4d/output_inception_4d/output_0_split_0
I1029 13:23:12.671871  3605 net.cpp:380] loss2/ave_pool -> loss2/ave_pool
I1029 13:23:12.673269  3605 net.cpp:122] Setting up loss2/ave_pool
I1029 13:23:12.673290  3605 net.cpp:129] Top shape: 1 528 4 4 (8448)
I1029 13:23:12.673305  3605 net.cpp:137] Memory required for data: 50321432
I1029 13:23:12.673318  3605 layer_factory.hpp:77] Creating layer loss2/conv
I1029 13:23:12.673346  3605 net.cpp:84] Creating Layer loss2/conv
I1029 13:23:12.673359  3605 net.cpp:406] loss2/conv <- loss2/ave_pool
I1029 13:23:12.673378  3605 net.cpp:380] loss2/conv -> loss2/conv
I1029 13:23:12.680070  3605 net.cpp:122] Setting up loss2/conv
I1029 13:23:12.680147  3605 net.cpp:129] Top shape: 1 128 4 4 (2048)
I1029 13:23:12.680167  3605 net.cpp:137] Memory required for data: 50329624
I1029 13:23:12.680194  3605 layer_factory.hpp:77] Creating layer loss2/relu_conv
I1029 13:23:12.680506  3605 net.cpp:84] Creating Layer loss2/relu_conv
I1029 13:23:12.680528  3605 net.cpp:406] loss2/relu_conv <- loss2/conv
I1029 13:23:12.680552  3605 net.cpp:367] loss2/relu_conv -> loss2/conv (in-place)
I1029 13:23:12.682162  3605 net.cpp:122] Setting up loss2/relu_conv
I1029 13:23:12.682430  3605 net.cpp:129] Top shape: 1 128 4 4 (2048)
I1029 13:23:12.682556  3605 net.cpp:137] Memory required for data: 50337816
I1029 13:23:12.682687  3605 layer_factory.hpp:77] Creating layer loss2/fc
I1029 13:23:12.682829  3605 net.cpp:84] Creating Layer loss2/fc
I1029 13:23:12.682979  3605 net.cpp:406] loss2/fc <- loss2/conv
I1029 13:23:12.683117  3605 net.cpp:380] loss2/fc -> loss2/fc
I1029 13:23:12.704978  3605 net.cpp:122] Setting up loss2/fc
I1029 13:23:12.705044  3605 net.cpp:129] Top shape: 1 1024 (1024)
I1029 13:23:12.705049  3605 net.cpp:137] Memory required for data: 50341912
I1029 13:23:12.705067  3605 layer_factory.hpp:77] Creating layer loss2/relu_fc
I1029 13:23:12.705086  3605 net.cpp:84] Creating Layer loss2/relu_fc
I1029 13:23:12.705096  3605 net.cpp:406] loss2/relu_fc <- loss2/fc
I1029 13:23:12.705107  3605 net.cpp:367] loss2/relu_fc -> loss2/fc (in-place)
I1029 13:23:12.705489  3605 net.cpp:122] Setting up loss2/relu_fc
I1029 13:23:12.705500  3605 net.cpp:129] Top shape: 1 1024 (1024)
I1029 13:23:12.705504  3605 net.cpp:137] Memory required for data: 50346008
I1029 13:23:12.705508  3605 layer_factory.hpp:77] Creating layer loss2/drop_fc
I1029 13:23:12.705518  3605 net.cpp:84] Creating Layer loss2/drop_fc
I1029 13:23:12.705523  3605 net.cpp:406] loss2/drop_fc <- loss2/fc
I1029 13:23:12.705533  3605 net.cpp:367] loss2/drop_fc -> loss2/fc (in-place)
I1029 13:23:12.705567  3605 net.cpp:122] Setting up loss2/drop_fc
I1029 13:23:12.705574  3605 net.cpp:129] Top shape: 1 1024 (1024)
I1029 13:23:12.705577  3605 net.cpp:137] Memory required for data: 50350104
I1029 13:23:12.705581  3605 layer_factory.hpp:77] Creating layer my-loss2/classifier
I1029 13:23:12.705591  3605 net.cpp:84] Creating Layer my-loss2/classifier
I1029 13:23:12.705596  3605 net.cpp:406] my-loss2/classifier <- loss2/fc
I1029 13:23:12.705606  3605 net.cpp:380] my-loss2/classifier -> my-loss2/classifier
I1029 13:23:12.705796  3605 net.cpp:122] Setting up my-loss2/classifier
I1029 13:23:12.705806  3605 net.cpp:129] Top shape: 1 1 (1)
I1029 13:23:12.705809  3605 net.cpp:137] Memory required for data: 50350108
I1029 13:23:12.705838  3605 layer_factory.hpp:77] Creating layer loss2/loss
I1029 13:23:12.705847  3605 net.cpp:84] Creating Layer loss2/loss
I1029 13:23:12.705852  3605 net.cpp:406] loss2/loss <- my-loss2/classifier
I1029 13:23:12.705858  3605 net.cpp:406] loss2/loss <- label_data_1_split_1
I1029 13:23:12.705868  3605 net.cpp:380] loss2/loss -> loss2/loss
I1029 13:23:12.705924  3605 net.cpp:122] Setting up loss2/loss
I1029 13:23:12.705931  3605 net.cpp:129] Top shape: (1)
I1029 13:23:12.705936  3605 net.cpp:132]     with loss weight 0.3
I1029 13:23:12.705956  3605 net.cpp:137] Memory required for data: 50350112
I1029 13:23:12.705960  3605 layer_factory.hpp:77] Creating layer inception_4e/1x1
I1029 13:23:12.705976  3605 net.cpp:84] Creating Layer inception_4e/1x1
I1029 13:23:12.705981  3605 net.cpp:406] inception_4e/1x1 <- inception_4d/output_inception_4d/output_0_split_1
I1029 13:23:12.705993  3605 net.cpp:380] inception_4e/1x1 -> inception_4e/1x1
I1029 13:23:12.711632  3605 net.cpp:122] Setting up inception_4e/1x1
I1029 13:23:12.711664  3605 net.cpp:129] Top shape: 1 256 14 14 (50176)
I1029 13:23:12.711671  3605 net.cpp:137] Memory required for data: 50550816
I1029 13:23:12.711686  3605 layer_factory.hpp:77] Creating layer inception_4e/relu_1x1
I1029 13:23:12.711697  3605 net.cpp:84] Creating Layer inception_4e/relu_1x1
I1029 13:23:12.711704  3605 net.cpp:406] inception_4e/relu_1x1 <- inception_4e/1x1
I1029 13:23:12.711716  3605 net.cpp:367] inception_4e/relu_1x1 -> inception_4e/1x1 (in-place)
I1029 13:23:12.713613  3605 net.cpp:122] Setting up inception_4e/relu_1x1
I1029 13:23:12.713683  3605 net.cpp:129] Top shape: 1 256 14 14 (50176)
I1029 13:23:12.713701  3605 net.cpp:137] Memory required for data: 50751520
I1029 13:23:12.713716  3605 layer_factory.hpp:77] Creating layer inception_4e/3x3_reduce
I1029 13:23:12.713747  3605 net.cpp:84] Creating Layer inception_4e/3x3_reduce
I1029 13:23:12.713762  3605 net.cpp:406] inception_4e/3x3_reduce <- inception_4d/output_inception_4d/output_0_split_2
I1029 13:23:12.713786  3605 net.cpp:380] inception_4e/3x3_reduce -> inception_4e/3x3_reduce
I1029 13:23:12.721184  3605 net.cpp:122] Setting up inception_4e/3x3_reduce
I1029 13:23:12.721257  3605 net.cpp:129] Top shape: 1 160 14 14 (31360)
I1029 13:23:12.721287  3605 net.cpp:137] Memory required for data: 50876960
I1029 13:23:12.721312  3605 layer_factory.hpp:77] Creating layer inception_4e/relu_3x3_reduce
I1029 13:23:12.721333  3605 net.cpp:84] Creating Layer inception_4e/relu_3x3_reduce
I1029 13:23:12.721350  3605 net.cpp:406] inception_4e/relu_3x3_reduce <- inception_4e/3x3_reduce
I1029 13:23:12.721372  3605 net.cpp:367] inception_4e/relu_3x3_reduce -> inception_4e/3x3_reduce (in-place)
I1029 13:23:12.723935  3605 net.cpp:122] Setting up inception_4e/relu_3x3_reduce
I1029 13:23:12.723963  3605 net.cpp:129] Top shape: 1 160 14 14 (31360)
I1029 13:23:12.723979  3605 net.cpp:137] Memory required for data: 51002400
I1029 13:23:12.723994  3605 layer_factory.hpp:77] Creating layer inception_4e/3x3
I1029 13:23:12.724020  3605 net.cpp:84] Creating Layer inception_4e/3x3
I1029 13:23:12.724036  3605 net.cpp:406] inception_4e/3x3 <- inception_4e/3x3_reduce
I1029 13:23:12.724092  3605 net.cpp:380] inception_4e/3x3 -> inception_4e/3x3
I1029 13:23:12.733585  3605 net.cpp:122] Setting up inception_4e/3x3
I1029 13:23:12.733628  3605 net.cpp:129] Top shape: 1 320 14 14 (62720)
I1029 13:23:12.733634  3605 net.cpp:137] Memory required for data: 51253280
I1029 13:23:12.733651  3605 layer_factory.hpp:77] Creating layer inception_4e/relu_3x3
I1029 13:23:12.733669  3605 net.cpp:84] Creating Layer inception_4e/relu_3x3
I1029 13:23:12.733677  3605 net.cpp:406] inception_4e/relu_3x3 <- inception_4e/3x3
I1029 13:23:12.733692  3605 net.cpp:367] inception_4e/relu_3x3 -> inception_4e/3x3 (in-place)
I1029 13:23:12.735410  3605 net.cpp:122] Setting up inception_4e/relu_3x3
I1029 13:23:12.735422  3605 net.cpp:129] Top shape: 1 320 14 14 (62720)
I1029 13:23:12.735427  3605 net.cpp:137] Memory required for data: 51504160
I1029 13:23:12.735432  3605 layer_factory.hpp:77] Creating layer inception_4e/5x5_reduce
I1029 13:23:12.735450  3605 net.cpp:84] Creating Layer inception_4e/5x5_reduce
I1029 13:23:12.735455  3605 net.cpp:406] inception_4e/5x5_reduce <- inception_4d/output_inception_4d/output_0_split_3
I1029 13:23:12.735466  3605 net.cpp:380] inception_4e/5x5_reduce -> inception_4e/5x5_reduce
I1029 13:23:12.742637  3605 net.cpp:122] Setting up inception_4e/5x5_reduce
I1029 13:23:12.742669  3605 net.cpp:129] Top shape: 1 32 14 14 (6272)
I1029 13:23:12.742674  3605 net.cpp:137] Memory required for data: 51529248
I1029 13:23:12.742687  3605 layer_factory.hpp:77] Creating layer inception_4e/relu_5x5_reduce
I1029 13:23:12.742700  3605 net.cpp:84] Creating Layer inception_4e/relu_5x5_reduce
I1029 13:23:12.742707  3605 net.cpp:406] inception_4e/relu_5x5_reduce <- inception_4e/5x5_reduce
I1029 13:23:12.742717  3605 net.cpp:367] inception_4e/relu_5x5_reduce -> inception_4e/5x5_reduce (in-place)
I1029 13:23:12.744666  3605 net.cpp:122] Setting up inception_4e/relu_5x5_reduce
I1029 13:23:12.744680  3605 net.cpp:129] Top shape: 1 32 14 14 (6272)
I1029 13:23:12.744685  3605 net.cpp:137] Memory required for data: 51554336
I1029 13:23:12.744693  3605 layer_factory.hpp:77] Creating layer inception_4e/5x5
I1029 13:23:12.744768  3605 net.cpp:84] Creating Layer inception_4e/5x5
I1029 13:23:12.744791  3605 net.cpp:406] inception_4e/5x5 <- inception_4e/5x5_reduce
I1029 13:23:12.744812  3605 net.cpp:380] inception_4e/5x5 -> inception_4e/5x5
I1029 13:23:12.749604  3605 net.cpp:122] Setting up inception_4e/5x5
I1029 13:23:12.749650  3605 net.cpp:129] Top shape: 1 128 14 14 (25088)
I1029 13:23:12.749656  3605 net.cpp:137] Memory required for data: 51654688
I1029 13:23:12.749672  3605 layer_factory.hpp:77] Creating layer inception_4e/relu_5x5
I1029 13:23:12.749691  3605 net.cpp:84] Creating Layer inception_4e/relu_5x5
I1029 13:23:12.749701  3605 net.cpp:406] inception_4e/relu_5x5 <- inception_4e/5x5
I1029 13:23:12.749711  3605 net.cpp:367] inception_4e/relu_5x5 -> inception_4e/5x5 (in-place)
I1029 13:23:12.750661  3605 net.cpp:122] Setting up inception_4e/relu_5x5
I1029 13:23:12.750677  3605 net.cpp:129] Top shape: 1 128 14 14 (25088)
I1029 13:23:12.750685  3605 net.cpp:137] Memory required for data: 51755040
I1029 13:23:12.750738  3605 layer_factory.hpp:77] Creating layer inception_4e/pool
I1029 13:23:12.750752  3605 net.cpp:84] Creating Layer inception_4e/pool
I1029 13:23:12.750761  3605 net.cpp:406] inception_4e/pool <- inception_4d/output_inception_4d/output_0_split_4
I1029 13:23:12.750772  3605 net.cpp:380] inception_4e/pool -> inception_4e/pool
I1029 13:23:12.750872  3605 net.cpp:122] Setting up inception_4e/pool
I1029 13:23:12.750881  3605 net.cpp:129] Top shape: 1 528 14 14 (103488)
I1029 13:23:12.750886  3605 net.cpp:137] Memory required for data: 52168992
I1029 13:23:12.750890  3605 layer_factory.hpp:77] Creating layer inception_4e/pool_proj
I1029 13:23:12.750912  3605 net.cpp:84] Creating Layer inception_4e/pool_proj
I1029 13:23:12.750918  3605 net.cpp:406] inception_4e/pool_proj <- inception_4e/pool
I1029 13:23:12.750929  3605 net.cpp:380] inception_4e/pool_proj -> inception_4e/pool_proj
I1029 13:23:12.754637  3605 net.cpp:122] Setting up inception_4e/pool_proj
I1029 13:23:12.754714  3605 net.cpp:129] Top shape: 1 128 14 14 (25088)
I1029 13:23:12.754732  3605 net.cpp:137] Memory required for data: 52269344
I1029 13:23:12.754758  3605 layer_factory.hpp:77] Creating layer inception_4e/relu_pool_proj
I1029 13:23:12.754781  3605 net.cpp:84] Creating Layer inception_4e/relu_pool_proj
I1029 13:23:12.754802  3605 net.cpp:406] inception_4e/relu_pool_proj <- inception_4e/pool_proj
I1029 13:23:12.754824  3605 net.cpp:367] inception_4e/relu_pool_proj -> inception_4e/pool_proj (in-place)
I1029 13:23:12.756770  3605 net.cpp:122] Setting up inception_4e/relu_pool_proj
I1029 13:23:12.756860  3605 net.cpp:129] Top shape: 1 128 14 14 (25088)
I1029 13:23:12.756877  3605 net.cpp:137] Memory required for data: 52369696
I1029 13:23:12.756896  3605 layer_factory.hpp:77] Creating layer inception_4e/output
I1029 13:23:12.756923  3605 net.cpp:84] Creating Layer inception_4e/output
I1029 13:23:12.756942  3605 net.cpp:406] inception_4e/output <- inception_4e/1x1
I1029 13:23:12.756964  3605 net.cpp:406] inception_4e/output <- inception_4e/3x3
I1029 13:23:12.756981  3605 net.cpp:406] inception_4e/output <- inception_4e/5x5
I1029 13:23:12.756999  3605 net.cpp:406] inception_4e/output <- inception_4e/pool_proj
I1029 13:23:12.757022  3605 net.cpp:380] inception_4e/output -> inception_4e/output
I1029 13:23:12.757129  3605 net.cpp:122] Setting up inception_4e/output
I1029 13:23:12.757148  3605 net.cpp:129] Top shape: 1 832 14 14 (163072)
I1029 13:23:12.757164  3605 net.cpp:137] Memory required for data: 53021984
I1029 13:23:12.757179  3605 layer_factory.hpp:77] Creating layer pool4/3x3_s2
I1029 13:23:12.757200  3605 net.cpp:84] Creating Layer pool4/3x3_s2
I1029 13:23:12.757217  3605 net.cpp:406] pool4/3x3_s2 <- inception_4e/output
I1029 13:23:12.757241  3605 net.cpp:380] pool4/3x3_s2 -> pool4/3x3_s2
I1029 13:23:12.757331  3605 net.cpp:122] Setting up pool4/3x3_s2
I1029 13:23:12.757354  3605 net.cpp:129] Top shape: 1 832 7 7 (40768)
I1029 13:23:12.757369  3605 net.cpp:137] Memory required for data: 53185056
I1029 13:23:12.757385  3605 layer_factory.hpp:77] Creating layer pool4/3x3_s2_pool4/3x3_s2_0_split
I1029 13:23:12.757410  3605 net.cpp:84] Creating Layer pool4/3x3_s2_pool4/3x3_s2_0_split
I1029 13:23:12.757426  3605 net.cpp:406] pool4/3x3_s2_pool4/3x3_s2_0_split <- pool4/3x3_s2
I1029 13:23:12.757447  3605 net.cpp:380] pool4/3x3_s2_pool4/3x3_s2_0_split -> pool4/3x3_s2_pool4/3x3_s2_0_split_0
I1029 13:23:12.757468  3605 net.cpp:380] pool4/3x3_s2_pool4/3x3_s2_0_split -> pool4/3x3_s2_pool4/3x3_s2_0_split_1
I1029 13:23:12.757490  3605 net.cpp:380] pool4/3x3_s2_pool4/3x3_s2_0_split -> pool4/3x3_s2_pool4/3x3_s2_0_split_2
I1029 13:23:12.757513  3605 net.cpp:380] pool4/3x3_s2_pool4/3x3_s2_0_split -> pool4/3x3_s2_pool4/3x3_s2_0_split_3
I1029 13:23:12.757634  3605 net.cpp:122] Setting up pool4/3x3_s2_pool4/3x3_s2_0_split
I1029 13:23:12.757656  3605 net.cpp:129] Top shape: 1 832 7 7 (40768)
I1029 13:23:12.757674  3605 net.cpp:129] Top shape: 1 832 7 7 (40768)
I1029 13:23:12.757691  3605 net.cpp:129] Top shape: 1 832 7 7 (40768)
I1029 13:23:12.757728  3605 net.cpp:129] Top shape: 1 832 7 7 (40768)
I1029 13:23:12.757761  3605 net.cpp:137] Memory required for data: 53837344
I1029 13:23:12.757777  3605 layer_factory.hpp:77] Creating layer inception_5a/1x1
I1029 13:23:12.757808  3605 net.cpp:84] Creating Layer inception_5a/1x1
I1029 13:23:12.757841  3605 net.cpp:406] inception_5a/1x1 <- pool4/3x3_s2_pool4/3x3_s2_0_split_0
I1029 13:23:12.757870  3605 net.cpp:380] inception_5a/1x1 -> inception_5a/1x1
I1029 13:23:12.764859  3605 net.cpp:122] Setting up inception_5a/1x1
I1029 13:23:12.764910  3605 net.cpp:129] Top shape: 1 256 7 7 (12544)
I1029 13:23:12.764916  3605 net.cpp:137] Memory required for data: 53887520
I1029 13:23:12.764935  3605 layer_factory.hpp:77] Creating layer inception_5a/relu_1x1
I1029 13:23:12.764951  3605 net.cpp:84] Creating Layer inception_5a/relu_1x1
I1029 13:23:12.764961  3605 net.cpp:406] inception_5a/relu_1x1 <- inception_5a/1x1
I1029 13:23:12.764976  3605 net.cpp:367] inception_5a/relu_1x1 -> inception_5a/1x1 (in-place)
I1029 13:23:12.767112  3605 net.cpp:122] Setting up inception_5a/relu_1x1
I1029 13:23:12.767125  3605 net.cpp:129] Top shape: 1 256 7 7 (12544)
I1029 13:23:12.767130  3605 net.cpp:137] Memory required for data: 53937696
I1029 13:23:12.767135  3605 layer_factory.hpp:77] Creating layer inception_5a/3x3_reduce
I1029 13:23:12.767153  3605 net.cpp:84] Creating Layer inception_5a/3x3_reduce
I1029 13:23:12.767160  3605 net.cpp:406] inception_5a/3x3_reduce <- pool4/3x3_s2_pool4/3x3_s2_0_split_1
I1029 13:23:12.767170  3605 net.cpp:380] inception_5a/3x3_reduce -> inception_5a/3x3_reduce
I1029 13:23:12.773031  3605 net.cpp:122] Setting up inception_5a/3x3_reduce
I1029 13:23:12.773066  3605 net.cpp:129] Top shape: 1 160 7 7 (7840)
I1029 13:23:12.773071  3605 net.cpp:137] Memory required for data: 53969056
I1029 13:23:12.773085  3605 layer_factory.hpp:77] Creating layer inception_5a/relu_3x3_reduce
I1029 13:23:12.773099  3605 net.cpp:84] Creating Layer inception_5a/relu_3x3_reduce
I1029 13:23:12.773113  3605 net.cpp:406] inception_5a/relu_3x3_reduce <- inception_5a/3x3_reduce
I1029 13:23:12.773124  3605 net.cpp:367] inception_5a/relu_3x3_reduce -> inception_5a/3x3_reduce (in-place)
I1029 13:23:12.773372  3605 net.cpp:122] Setting up inception_5a/relu_3x3_reduce
I1029 13:23:12.773385  3605 net.cpp:129] Top shape: 1 160 7 7 (7840)
I1029 13:23:12.773389  3605 net.cpp:137] Memory required for data: 54000416
I1029 13:23:12.773394  3605 layer_factory.hpp:77] Creating layer inception_5a/3x3
I1029 13:23:12.773411  3605 net.cpp:84] Creating Layer inception_5a/3x3
I1029 13:23:12.773419  3605 net.cpp:406] inception_5a/3x3 <- inception_5a/3x3_reduce
I1029 13:23:12.773433  3605 net.cpp:380] inception_5a/3x3 -> inception_5a/3x3
I1029 13:23:12.783154  3605 net.cpp:122] Setting up inception_5a/3x3
I1029 13:23:12.783198  3605 net.cpp:129] Top shape: 1 320 7 7 (15680)
I1029 13:23:12.783205  3605 net.cpp:137] Memory required for data: 54063136
I1029 13:23:12.783226  3605 layer_factory.hpp:77] Creating layer inception_5a/relu_3x3
I1029 13:23:12.783244  3605 net.cpp:84] Creating Layer inception_5a/relu_3x3
I1029 13:23:12.783254  3605 net.cpp:406] inception_5a/relu_3x3 <- inception_5a/3x3
I1029 13:23:12.783282  3605 net.cpp:367] inception_5a/relu_3x3 -> inception_5a/3x3 (in-place)
I1029 13:23:12.784855  3605 net.cpp:122] Setting up inception_5a/relu_3x3
I1029 13:23:12.784867  3605 net.cpp:129] Top shape: 1 320 7 7 (15680)
I1029 13:23:12.784871  3605 net.cpp:137] Memory required for data: 54125856
I1029 13:23:12.784876  3605 layer_factory.hpp:77] Creating layer inception_5a/5x5_reduce
I1029 13:23:12.784895  3605 net.cpp:84] Creating Layer inception_5a/5x5_reduce
I1029 13:23:12.784904  3605 net.cpp:406] inception_5a/5x5_reduce <- pool4/3x3_s2_pool4/3x3_s2_0_split_2
I1029 13:23:12.784915  3605 net.cpp:380] inception_5a/5x5_reduce -> inception_5a/5x5_reduce
I1029 13:23:12.791868  3605 net.cpp:122] Setting up inception_5a/5x5_reduce
I1029 13:23:12.791985  3605 net.cpp:129] Top shape: 1 32 7 7 (1568)
I1029 13:23:12.792024  3605 net.cpp:137] Memory required for data: 54132128
I1029 13:23:12.792074  3605 layer_factory.hpp:77] Creating layer inception_5a/relu_5x5_reduce
I1029 13:23:12.792109  3605 net.cpp:84] Creating Layer inception_5a/relu_5x5_reduce
I1029 13:23:12.792131  3605 net.cpp:406] inception_5a/relu_5x5_reduce <- inception_5a/5x5_reduce
I1029 13:23:12.792156  3605 net.cpp:367] inception_5a/relu_5x5_reduce -> inception_5a/5x5_reduce (in-place)
I1029 13:23:12.793841  3605 net.cpp:122] Setting up inception_5a/relu_5x5_reduce
I1029 13:23:12.793911  3605 net.cpp:129] Top shape: 1 32 7 7 (1568)
I1029 13:23:12.793929  3605 net.cpp:137] Memory required for data: 54138400
I1029 13:23:12.793947  3605 layer_factory.hpp:77] Creating layer inception_5a/5x5
I1029 13:23:12.793982  3605 net.cpp:84] Creating Layer inception_5a/5x5
I1029 13:23:12.794008  3605 net.cpp:406] inception_5a/5x5 <- inception_5a/5x5_reduce
I1029 13:23:12.794031  3605 net.cpp:380] inception_5a/5x5 -> inception_5a/5x5
I1029 13:23:12.802285  3605 net.cpp:122] Setting up inception_5a/5x5
I1029 13:23:12.802335  3605 net.cpp:129] Top shape: 1 128 7 7 (6272)
I1029 13:23:12.802346  3605 net.cpp:137] Memory required for data: 54163488
I1029 13:23:12.802363  3605 layer_factory.hpp:77] Creating layer inception_5a/relu_5x5
I1029 13:23:12.802381  3605 net.cpp:84] Creating Layer inception_5a/relu_5x5
I1029 13:23:12.802392  3605 net.cpp:406] inception_5a/relu_5x5 <- inception_5a/5x5
I1029 13:23:12.802402  3605 net.cpp:367] inception_5a/relu_5x5 -> inception_5a/5x5 (in-place)
I1029 13:23:12.804303  3605 net.cpp:122] Setting up inception_5a/relu_5x5
I1029 13:23:12.804319  3605 net.cpp:129] Top shape: 1 128 7 7 (6272)
I1029 13:23:12.804324  3605 net.cpp:137] Memory required for data: 54188576
I1029 13:23:12.804329  3605 layer_factory.hpp:77] Creating layer inception_5a/pool
I1029 13:23:12.804344  3605 net.cpp:84] Creating Layer inception_5a/pool
I1029 13:23:12.804352  3605 net.cpp:406] inception_5a/pool <- pool4/3x3_s2_pool4/3x3_s2_0_split_3
I1029 13:23:12.804361  3605 net.cpp:380] inception_5a/pool -> inception_5a/pool
I1029 13:23:12.804455  3605 net.cpp:122] Setting up inception_5a/pool
I1029 13:23:12.804464  3605 net.cpp:129] Top shape: 1 832 7 7 (40768)
I1029 13:23:12.804469  3605 net.cpp:137] Memory required for data: 54351648
I1029 13:23:12.804474  3605 layer_factory.hpp:77] Creating layer inception_5a/pool_proj
I1029 13:23:12.804492  3605 net.cpp:84] Creating Layer inception_5a/pool_proj
I1029 13:23:12.804497  3605 net.cpp:406] inception_5a/pool_proj <- inception_5a/pool
I1029 13:23:12.804508  3605 net.cpp:380] inception_5a/pool_proj -> inception_5a/pool_proj
I1029 13:23:12.811229  3605 net.cpp:122] Setting up inception_5a/pool_proj
I1029 13:23:12.811264  3605 net.cpp:129] Top shape: 1 128 7 7 (6272)
I1029 13:23:12.811270  3605 net.cpp:137] Memory required for data: 54376736
I1029 13:23:12.811286  3605 layer_factory.hpp:77] Creating layer inception_5a/relu_pool_proj
I1029 13:23:12.811300  3605 net.cpp:84] Creating Layer inception_5a/relu_pool_proj
I1029 13:23:12.811309  3605 net.cpp:406] inception_5a/relu_pool_proj <- inception_5a/pool_proj
I1029 13:23:12.811321  3605 net.cpp:367] inception_5a/relu_pool_proj -> inception_5a/pool_proj (in-place)
I1029 13:23:12.813226  3605 net.cpp:122] Setting up inception_5a/relu_pool_proj
I1029 13:23:12.813236  3605 net.cpp:129] Top shape: 1 128 7 7 (6272)
I1029 13:23:12.813241  3605 net.cpp:137] Memory required for data: 54401824
I1029 13:23:12.813246  3605 layer_factory.hpp:77] Creating layer inception_5a/output
I1029 13:23:12.813256  3605 net.cpp:84] Creating Layer inception_5a/output
I1029 13:23:12.813261  3605 net.cpp:406] inception_5a/output <- inception_5a/1x1
I1029 13:23:12.813267  3605 net.cpp:406] inception_5a/output <- inception_5a/3x3
I1029 13:23:12.813274  3605 net.cpp:406] inception_5a/output <- inception_5a/5x5
I1029 13:23:12.813280  3605 net.cpp:406] inception_5a/output <- inception_5a/pool_proj
I1029 13:23:12.813290  3605 net.cpp:380] inception_5a/output -> inception_5a/output
I1029 13:23:12.813339  3605 net.cpp:122] Setting up inception_5a/output
I1029 13:23:12.813349  3605 net.cpp:129] Top shape: 1 832 7 7 (40768)
I1029 13:23:12.813380  3605 net.cpp:137] Memory required for data: 54564896
I1029 13:23:12.813385  3605 layer_factory.hpp:77] Creating layer inception_5a/output_inception_5a/output_0_split
I1029 13:23:12.813393  3605 net.cpp:84] Creating Layer inception_5a/output_inception_5a/output_0_split
I1029 13:23:12.813398  3605 net.cpp:406] inception_5a/output_inception_5a/output_0_split <- inception_5a/output
I1029 13:23:12.813408  3605 net.cpp:380] inception_5a/output_inception_5a/output_0_split -> inception_5a/output_inception_5a/output_0_split_0
I1029 13:23:12.813418  3605 net.cpp:380] inception_5a/output_inception_5a/output_0_split -> inception_5a/output_inception_5a/output_0_split_1
I1029 13:23:12.813428  3605 net.cpp:380] inception_5a/output_inception_5a/output_0_split -> inception_5a/output_inception_5a/output_0_split_2
I1029 13:23:12.813441  3605 net.cpp:380] inception_5a/output_inception_5a/output_0_split -> inception_5a/output_inception_5a/output_0_split_3
I1029 13:23:12.813546  3605 net.cpp:122] Setting up inception_5a/output_inception_5a/output_0_split
I1029 13:23:12.813555  3605 net.cpp:129] Top shape: 1 832 7 7 (40768)
I1029 13:23:12.813562  3605 net.cpp:129] Top shape: 1 832 7 7 (40768)
I1029 13:23:12.813568  3605 net.cpp:129] Top shape: 1 832 7 7 (40768)
I1029 13:23:12.813575  3605 net.cpp:129] Top shape: 1 832 7 7 (40768)
I1029 13:23:12.813580  3605 net.cpp:137] Memory required for data: 55217184
I1029 13:23:12.813585  3605 layer_factory.hpp:77] Creating layer inception_5b/1x1
I1029 13:23:12.813601  3605 net.cpp:84] Creating Layer inception_5b/1x1
I1029 13:23:12.813606  3605 net.cpp:406] inception_5b/1x1 <- inception_5a/output_inception_5a/output_0_split_0
I1029 13:23:12.813616  3605 net.cpp:380] inception_5b/1x1 -> inception_5b/1x1
I1029 13:23:12.822353  3605 net.cpp:122] Setting up inception_5b/1x1
I1029 13:23:12.822399  3605 net.cpp:129] Top shape: 1 384 7 7 (18816)
I1029 13:23:12.822404  3605 net.cpp:137] Memory required for data: 55292448
I1029 13:23:12.822422  3605 layer_factory.hpp:77] Creating layer inception_5b/relu_1x1
I1029 13:23:12.822437  3605 net.cpp:84] Creating Layer inception_5b/relu_1x1
I1029 13:23:12.822445  3605 net.cpp:406] inception_5b/relu_1x1 <- inception_5b/1x1
I1029 13:23:12.822455  3605 net.cpp:367] inception_5b/relu_1x1 -> inception_5b/1x1 (in-place)
I1029 13:23:12.824339  3605 net.cpp:122] Setting up inception_5b/relu_1x1
I1029 13:23:12.824349  3605 net.cpp:129] Top shape: 1 384 7 7 (18816)
I1029 13:23:12.824355  3605 net.cpp:137] Memory required for data: 55367712
I1029 13:23:12.824360  3605 layer_factory.hpp:77] Creating layer inception_5b/3x3_reduce
I1029 13:23:12.824379  3605 net.cpp:84] Creating Layer inception_5b/3x3_reduce
I1029 13:23:12.824385  3605 net.cpp:406] inception_5b/3x3_reduce <- inception_5a/output_inception_5a/output_0_split_1
I1029 13:23:12.824395  3605 net.cpp:380] inception_5b/3x3_reduce -> inception_5b/3x3_reduce
I1029 13:23:12.832480  3605 net.cpp:122] Setting up inception_5b/3x3_reduce
I1029 13:23:12.832523  3605 net.cpp:129] Top shape: 1 192 7 7 (9408)
I1029 13:23:12.832530  3605 net.cpp:137] Memory required for data: 55405344
I1029 13:23:12.832546  3605 layer_factory.hpp:77] Creating layer inception_5b/relu_3x3_reduce
I1029 13:23:12.832561  3605 net.cpp:84] Creating Layer inception_5b/relu_3x3_reduce
I1029 13:23:12.832571  3605 net.cpp:406] inception_5b/relu_3x3_reduce <- inception_5b/3x3_reduce
I1029 13:23:12.832581  3605 net.cpp:367] inception_5b/relu_3x3_reduce -> inception_5b/3x3_reduce (in-place)
I1029 13:23:12.834681  3605 net.cpp:122] Setting up inception_5b/relu_3x3_reduce
I1029 13:23:12.834700  3605 net.cpp:129] Top shape: 1 192 7 7 (9408)
I1029 13:23:12.834705  3605 net.cpp:137] Memory required for data: 55442976
I1029 13:23:12.834712  3605 layer_factory.hpp:77] Creating layer inception_5b/3x3
I1029 13:23:12.834729  3605 net.cpp:84] Creating Layer inception_5b/3x3
I1029 13:23:12.834735  3605 net.cpp:406] inception_5b/3x3 <- inception_5b/3x3_reduce
I1029 13:23:12.834746  3605 net.cpp:380] inception_5b/3x3 -> inception_5b/3x3
I1029 13:23:12.845775  3605 net.cpp:122] Setting up inception_5b/3x3
I1029 13:23:12.845854  3605 net.cpp:129] Top shape: 1 384 7 7 (18816)
I1029 13:23:12.845861  3605 net.cpp:137] Memory required for data: 55518240
I1029 13:23:12.845880  3605 layer_factory.hpp:77] Creating layer inception_5b/relu_3x3
I1029 13:23:12.845897  3605 net.cpp:84] Creating Layer inception_5b/relu_3x3
I1029 13:23:12.845907  3605 net.cpp:406] inception_5b/relu_3x3 <- inception_5b/3x3
I1029 13:23:12.845921  3605 net.cpp:367] inception_5b/relu_3x3 -> inception_5b/3x3 (in-place)
I1029 13:23:12.847436  3605 net.cpp:122] Setting up inception_5b/relu_3x3
I1029 13:23:12.847446  3605 net.cpp:129] Top shape: 1 384 7 7 (18816)
I1029 13:23:12.847451  3605 net.cpp:137] Memory required for data: 55593504
I1029 13:23:12.847455  3605 layer_factory.hpp:77] Creating layer inception_5b/5x5_reduce
I1029 13:23:12.847472  3605 net.cpp:84] Creating Layer inception_5b/5x5_reduce
I1029 13:23:12.847482  3605 net.cpp:406] inception_5b/5x5_reduce <- inception_5a/output_inception_5a/output_0_split_2
I1029 13:23:12.847493  3605 net.cpp:380] inception_5b/5x5_reduce -> inception_5b/5x5_reduce
I1029 13:23:12.852906  3605 net.cpp:122] Setting up inception_5b/5x5_reduce
I1029 13:23:12.852931  3605 net.cpp:129] Top shape: 1 48 7 7 (2352)
I1029 13:23:12.852936  3605 net.cpp:137] Memory required for data: 55602912
I1029 13:23:12.852949  3605 layer_factory.hpp:77] Creating layer inception_5b/relu_5x5_reduce
I1029 13:23:12.852960  3605 net.cpp:84] Creating Layer inception_5b/relu_5x5_reduce
I1029 13:23:12.852977  3605 net.cpp:406] inception_5b/relu_5x5_reduce <- inception_5b/5x5_reduce
I1029 13:23:12.852988  3605 net.cpp:367] inception_5b/relu_5x5_reduce -> inception_5b/5x5_reduce (in-place)
I1029 13:23:12.853766  3605 net.cpp:122] Setting up inception_5b/relu_5x5_reduce
I1029 13:23:12.853781  3605 net.cpp:129] Top shape: 1 48 7 7 (2352)
I1029 13:23:12.853786  3605 net.cpp:137] Memory required for data: 55612320
I1029 13:23:12.853792  3605 layer_factory.hpp:77] Creating layer inception_5b/5x5
I1029 13:23:12.853813  3605 net.cpp:84] Creating Layer inception_5b/5x5
I1029 13:23:12.853857  3605 net.cpp:406] inception_5b/5x5 <- inception_5b/5x5_reduce
I1029 13:23:12.853873  3605 net.cpp:380] inception_5b/5x5 -> inception_5b/5x5
I1029 13:23:12.857779  3605 net.cpp:122] Setting up inception_5b/5x5
I1029 13:23:12.857807  3605 net.cpp:129] Top shape: 1 128 7 7 (6272)
I1029 13:23:12.857812  3605 net.cpp:137] Memory required for data: 55637408
I1029 13:23:12.857847  3605 layer_factory.hpp:77] Creating layer inception_5b/relu_5x5
I1029 13:23:12.857859  3605 net.cpp:84] Creating Layer inception_5b/relu_5x5
I1029 13:23:12.857867  3605 net.cpp:406] inception_5b/relu_5x5 <- inception_5b/5x5
I1029 13:23:12.857882  3605 net.cpp:367] inception_5b/relu_5x5 -> inception_5b/5x5 (in-place)
I1029 13:23:12.858809  3605 net.cpp:122] Setting up inception_5b/relu_5x5
I1029 13:23:12.858827  3605 net.cpp:129] Top shape: 1 128 7 7 (6272)
I1029 13:23:12.858834  3605 net.cpp:137] Memory required for data: 55662496
I1029 13:23:12.858839  3605 layer_factory.hpp:77] Creating layer inception_5b/pool
I1029 13:23:12.858851  3605 net.cpp:84] Creating Layer inception_5b/pool
I1029 13:23:12.858866  3605 net.cpp:406] inception_5b/pool <- inception_5a/output_inception_5a/output_0_split_3
I1029 13:23:12.858878  3605 net.cpp:380] inception_5b/pool -> inception_5b/pool
I1029 13:23:12.858971  3605 net.cpp:122] Setting up inception_5b/pool
I1029 13:23:12.858983  3605 net.cpp:129] Top shape: 1 832 7 7 (40768)
I1029 13:23:12.858990  3605 net.cpp:137] Memory required for data: 55825568
I1029 13:23:12.858995  3605 layer_factory.hpp:77] Creating layer inception_5b/pool_proj
I1029 13:23:12.859011  3605 net.cpp:84] Creating Layer inception_5b/pool_proj
I1029 13:23:12.859019  3605 net.cpp:406] inception_5b/pool_proj <- inception_5b/pool
I1029 13:23:12.859027  3605 net.cpp:380] inception_5b/pool_proj -> inception_5b/pool_proj
I1029 13:23:12.863627  3605 net.cpp:122] Setting up inception_5b/pool_proj
I1029 13:23:12.863730  3605 net.cpp:129] Top shape: 1 128 7 7 (6272)
I1029 13:23:12.863761  3605 net.cpp:137] Memory required for data: 55850656
I1029 13:23:12.863788  3605 layer_factory.hpp:77] Creating layer inception_5b/relu_pool_proj
I1029 13:23:12.863814  3605 net.cpp:84] Creating Layer inception_5b/relu_pool_proj
I1029 13:23:12.863834  3605 net.cpp:406] inception_5b/relu_pool_proj <- inception_5b/pool_proj
I1029 13:23:12.863857  3605 net.cpp:367] inception_5b/relu_pool_proj -> inception_5b/pool_proj (in-place)
I1029 13:23:12.865152  3605 net.cpp:122] Setting up inception_5b/relu_pool_proj
I1029 13:23:12.865171  3605 net.cpp:129] Top shape: 1 128 7 7 (6272)
I1029 13:23:12.865186  3605 net.cpp:137] Memory required for data: 55875744
I1029 13:23:12.865201  3605 layer_factory.hpp:77] Creating layer inception_5b/output
I1029 13:23:12.865221  3605 net.cpp:84] Creating Layer inception_5b/output
I1029 13:23:12.865237  3605 net.cpp:406] inception_5b/output <- inception_5b/1x1
I1029 13:23:12.865254  3605 net.cpp:406] inception_5b/output <- inception_5b/3x3
I1029 13:23:12.865270  3605 net.cpp:406] inception_5b/output <- inception_5b/5x5
I1029 13:23:12.865288  3605 net.cpp:406] inception_5b/output <- inception_5b/pool_proj
I1029 13:23:12.865304  3605 net.cpp:380] inception_5b/output -> inception_5b/output
I1029 13:23:12.865363  3605 net.cpp:122] Setting up inception_5b/output
I1029 13:23:12.865382  3605 net.cpp:129] Top shape: 1 1024 7 7 (50176)
I1029 13:23:12.865397  3605 net.cpp:137] Memory required for data: 56076448
I1029 13:23:12.865412  3605 layer_factory.hpp:77] Creating layer pool5/7x7_s1
I1029 13:23:12.865432  3605 net.cpp:84] Creating Layer pool5/7x7_s1
I1029 13:23:12.865447  3605 net.cpp:406] pool5/7x7_s1 <- inception_5b/output
I1029 13:23:12.865468  3605 net.cpp:380] pool5/7x7_s1 -> pool5/7x7_s1
I1029 13:23:12.868692  3605 net.cpp:122] Setting up pool5/7x7_s1
I1029 13:23:12.868808  3605 net.cpp:129] Top shape: 1 1024 1 1 (1024)
I1029 13:23:12.868830  3605 net.cpp:137] Memory required for data: 56080544
I1029 13:23:12.868851  3605 layer_factory.hpp:77] Creating layer pool5/drop_7x7_s1
I1029 13:23:12.868880  3605 net.cpp:84] Creating Layer pool5/drop_7x7_s1
I1029 13:23:12.868902  3605 net.cpp:406] pool5/drop_7x7_s1 <- pool5/7x7_s1
I1029 13:23:12.868932  3605 net.cpp:367] pool5/drop_7x7_s1 -> pool5/7x7_s1 (in-place)
I1029 13:23:12.869016  3605 net.cpp:122] Setting up pool5/drop_7x7_s1
I1029 13:23:12.869040  3605 net.cpp:129] Top shape: 1 1024 1 1 (1024)
I1029 13:23:12.869056  3605 net.cpp:137] Memory required for data: 56084640
I1029 13:23:12.869076  3605 layer_factory.hpp:77] Creating layer my-loss3/classifier
I1029 13:23:12.869101  3605 net.cpp:84] Creating Layer my-loss3/classifier
I1029 13:23:12.869118  3605 net.cpp:406] my-loss3/classifier <- pool5/7x7_s1
I1029 13:23:12.869144  3605 net.cpp:380] my-loss3/classifier -> my-loss3/classifier
I1029 13:23:12.869403  3605 net.cpp:122] Setting up my-loss3/classifier
I1029 13:23:12.869438  3605 net.cpp:129] Top shape: 1 1 (1)
I1029 13:23:12.869457  3605 net.cpp:137] Memory required for data: 56084644
I1029 13:23:12.869484  3605 layer_factory.hpp:77] Creating layer loss3/loss
I1029 13:23:12.869508  3605 net.cpp:84] Creating Layer loss3/loss
I1029 13:23:12.869524  3605 net.cpp:406] loss3/loss <- my-loss3/classifier
I1029 13:23:12.869544  3605 net.cpp:406] loss3/loss <- label_data_1_split_2
I1029 13:23:12.869565  3605 net.cpp:380] loss3/loss -> loss3/loss
…
