…
I1026 12:16:52.637246  9711 solver.cpp:87] Creating training net from net file: ./train_val.prototxt
I1026 12:16:52.637679  9711 net.cpp:294] The NetState phase (0) differed from the phase (1) specified by a rule in layer data
I1026 12:16:52.637914  9711 net.cpp:51] Initializing net from parameters: 
name: "CaffeNet"
state {
  phase: TRAIN
  level: 0
  stage: ""
}
layer {
  name: "data"
  type: "HDF5Data"
  top: "data"
  top: "label"
  include {
    phase: TRAIN
  }
  hdf5_data_param {
    source: "./train.txt"
    batch_size: 256
    shuffle: true
  }
}
layer {
  name: "conv1"
  type: "Convolution"
  bottom: "data"
  top: "conv1"
  param {
    lr_mult: 1
    decay_mult: 1
  }
  param {
    lr_mult: 2
    decay_mult: 0
  }
  convolution_param {
    num_output: 96
    kernel_size: 11
    stride: 4
    weight_filler {
      type: "gaussian"
      std: 0.01
    }
    bias_filler {
      type: "constant"
      value: 0
    }
  }
}
layer {
  name: "relu1"
  type: "ReLU"
  bottom: "conv1"
  top: "conv1"
}
layer {
  name: "pool1"
  type: "Pooling"
  bottom: "conv1"
  top: "pool1"
  pooling_param {
    pool: MAX
    kernel_size: 3
    stride: 2
  }
}
layer {
  name: "norm1"
  type: "LRN"
  bottom: "pool1"
  top: "norm1"
  lrn_param {
    local_size: 5
    alpha: 0.0001
    beta: 0.75
  }
}
layer {
  name: "conv2"
  type: "Convolution"
  bottom: "norm1"
  top: "conv2"
  param {
    lr_mult: 1
    decay_mult: 1
  }
  param {
    lr_mult: 2
    decay_mult: 0
  }
  convolution_param {
    num_output: 256
    pad: 2
    kernel_size: 5
    group: 2
    weight_filler {
      type: "gaussian"
      std: 0.01
    }
    bias_filler {
      type: "constant"
      value: 1
    }
  }
}
layer {
  name: "relu2"
  type: "ReLU"
  bottom: "conv2"
  top: "conv2"
}
layer {
  name: "pool2"
  type: "Pooling"
  bottom: "conv2"
  top: "pool2"
  pooling_param {
    pool: MAX
    kernel_size: 3
    stride: 2
  }
}
layer {
  name: "norm2"
  type: "LRN"
  bottom: "pool2"
  top: "norm2"
  lrn_param {
    local_size: 5
    alpha: 0.0001
    beta: 0.75
  }
}
layer {
  name: "conv3"
  type: "Convolution"
  bottom: "norm2"
  top: "conv3"
  param {
    lr_mult: 1
    decay_mult: 1
  }
  param {
    lr_mult: 2
    decay_mult: 0
  }
  convolution_param {
    num_output: 384
    pad: 1
    kernel_size: 3
    weight_filler {
      type: "gaussian"
      std: 0.01
    }
    bias_filler {
      type: "constant"
      value: 0
    }
  }
}
layer {
  name: "relu3"
  type: "ReLU"
  bottom: "conv3"
  top: "conv3"
}
layer {
  name: "conv4"
  type: "Convolution"
  bottom: "conv3"
  top: "conv4"
  param {
    lr_mult: 1
    decay_mult: 1
  }
  param {
    lr_mult: 2
    decay_mult: 0
  }
  convolution_param {
    num_output: 384
    pad: 1
    kernel_size: 3
    group: 2
    weight_filler {
      type: "gaussian"
      std: 0.01
    }
    bias_filler {
      type: "constant"
      value: 1
    }
  }
}
layer {
  name: "relu4"
  type: "ReLU"
  bottom: "conv4"
  top: "conv4"
}
layer {
  name: "conv5"
  type: "Convolution"
  bottom: "conv4"
  top: "conv5"
  param {
    lr_mult: 1
    decay_mult: 1
  }
  param {
    lr_mult: 2
    decay_mult: 0
  }
  convolution_param {
    num_output: 256
    pad: 1
    kernel_size: 3
    group: 2
    weight_filler {
      type: "gaussian"
      std: 0.01
    }
    bias_filler {
      type: "constant"
      value: 1
    }
  }
}
layer {
  name: "relu5"
  type: "ReLU"
  bottom: "conv5"
  top: "conv5"
}
layer {
  name: "pool5"
  type: "Pooling"
  bottom: "conv5"
  top: "pool5"
  pooling_param {
    pool: MAX
    kernel_size: 3
    stride: 2
  }
}
layer {
  name: "fc6"
  type: "InnerProduct"
  bottom: "pool5"
  top: "fc6"
  param {
    lr_mult: 1
    decay_mult: 1
  }
  param {
    lr_mult: 2
    decay_mult: 0
  }
  inner_product_param {
    num_output: 4096
    weight_filler {
      type: "gaussian"
      std: 0.005
    }
    bias_filler {
      type: "constant"
      value: 1
    }
  }
}
layer {
  name: "relu6"
  type: "ReLU"
  bottom: "fc6"
  top: "fc6"
}
layer {
  name: "drop6"
  type: "Dropout"
  bottom: "fc6"
  top: "fc6"
  dropout_param {
    dropout_ratio: 0.5
  }
}
layer {
  name: "fc7"
  type: "InnerProduct"
  bottom: "fc6"
  top: "fc7"
  param {
    lr_mult: 1
    decay_mult: 1
  }
  param {
    lr_mult: 2
    decay_mult: 0
  }
  inner_product_param {
    num_output: 4096
    weight_filler {
      type: "gaussian"
      std: 0.005
    }
    bias_filler {
      type: "constant"
      value: 1
    }
  }
}
layer {
  name: "relu7"
  type: "ReLU"
  bottom: "fc7"
  top: "fc7"
}
layer {
  name: "drop7"
  type: "Dropout"
  bottom: "fc7"
  top: "fc7"
  dropout_param {
    dropout_ratio: 0.5
  }
}
layer {
  name: "my-fc8"
  type: "InnerProduct"
  bottom: "fc7"
  top: "my-fc8"
  param {
    lr_mult: 1
    decay_mult: 1
  }
  param {
    lr_mult: 2
    decay_mult: 0
  }
  inner_product_param {
    num_output: 1
    weight_filler {
      type: "gaussian"
      std: 0.01
    }
    bias_filler {
      type: "constant"
      value: 0
    }
  }
}
layer {
  name: "loss"
  type: "EuclideanLoss"
  bottom: "my-fc8"
  bottom: "label"
  top: "loss"
}
I1026 12:16:52.638064  9711 layer_factory.hpp:77] Creating layer data
I1026 12:16:52.638078  9711 net.cpp:84] Creating Layer data
I1026 12:16:52.638087  9711 net.cpp:380] data -> data
I1026 12:16:52.638118  9711 net.cpp:380] data -> label
I1026 12:16:52.638131  9711 hdf5_data_layer.cpp:80] Loading list of HDF5 filenames from: ./train.txt
I1026 12:16:52.638160  9711 hdf5_data_layer.cpp:94] Number of HDF5 files: 1
I1026 12:16:52.639564  9711 hdf5.cpp:32] Datatype class: H5T_FLOAT
I1026 12:16:54.604429  9711 net.cpp:122] Setting up data
I1026 12:16:54.604481  9711 net.cpp:129] Top shape: 256 3 227 227 (39574272)
I1026 12:16:54.604490  9711 net.cpp:129] Top shape: 256 (256)
I1026 12:16:54.604496  9711 net.cpp:137] Memory required for data: 158298112
I1026 12:16:54.604507  9711 layer_factory.hpp:77] Creating layer conv1
I1026 12:16:54.604543  9711 net.cpp:84] Creating Layer conv1
I1026 12:16:54.604553  9711 net.cpp:406] conv1 <- data
I1026 12:16:54.604573  9711 net.cpp:380] conv1 -> conv1
I1026 12:16:54.934700  9711 net.cpp:122] Setting up conv1
I1026 12:16:54.934746  9711 net.cpp:129] Top shape: 256 96 55 55 (74342400)
I1026 12:16:54.934751  9711 net.cpp:137] Memory required for data: 455667712
I1026 12:16:54.934785  9711 layer_factory.hpp:77] Creating layer relu1
I1026 12:16:54.934803  9711 net.cpp:84] Creating Layer relu1
I1026 12:16:54.934811  9711 net.cpp:406] relu1 <- conv1
I1026 12:16:54.934820  9711 net.cpp:367] relu1 -> conv1 (in-place)
I1026 12:16:54.935024  9711 net.cpp:122] Setting up relu1
I1026 12:16:54.935034  9711 net.cpp:129] Top shape: 256 96 55 55 (74342400)
I1026 12:16:54.935039  9711 net.cpp:137] Memory required for data: 753037312
I1026 12:16:54.935045  9711 layer_factory.hpp:77] Creating layer pool1
I1026 12:16:54.935053  9711 net.cpp:84] Creating Layer pool1
I1026 12:16:54.935058  9711 net.cpp:406] pool1 <- conv1
I1026 12:16:54.935067  9711 net.cpp:380] pool1 -> pool1
I1026 12:16:54.935122  9711 net.cpp:122] Setting up pool1
I1026 12:16:54.935132  9711 net.cpp:129] Top shape: 256 96 27 27 (17915904)
I1026 12:16:54.935137  9711 net.cpp:137] Memory required for data: 824700928
I1026 12:16:54.935142  9711 layer_factory.hpp:77] Creating layer norm1
I1026 12:16:54.935154  9711 net.cpp:84] Creating Layer norm1
I1026 12:16:54.935159  9711 net.cpp:406] norm1 <- pool1
I1026 12:16:54.935168  9711 net.cpp:380] norm1 -> norm1
I1026 12:16:54.935394  9711 net.cpp:122] Setting up norm1
I1026 12:16:54.935403  9711 net.cpp:129] Top shape: 256 96 27 27 (17915904)
I1026 12:16:54.935408  9711 net.cpp:137] Memory required for data: 896364544
I1026 12:16:54.935413  9711 layer_factory.hpp:77] Creating layer conv2
I1026 12:16:54.935458  9711 net.cpp:84] Creating Layer conv2
I1026 12:16:54.935465  9711 net.cpp:406] conv2 <- norm1
I1026 12:16:54.935473  9711 net.cpp:380] conv2 -> conv2
I1026 12:16:54.944216  9711 net.cpp:122] Setting up conv2
I1026 12:16:54.944267  9711 net.cpp:129] Top shape: 256 256 27 27 (47775744)
I1026 12:16:54.944273  9711 net.cpp:137] Memory required for data: 1087467520
I1026 12:16:54.944299  9711 layer_factory.hpp:77] Creating layer relu2
I1026 12:16:54.944315  9711 net.cpp:84] Creating Layer relu2
I1026 12:16:54.944322  9711 net.cpp:406] relu2 <- conv2
I1026 12:16:54.944334  9711 net.cpp:367] relu2 -> conv2 (in-place)
I1026 12:16:54.944627  9711 net.cpp:122] Setting up relu2
I1026 12:16:54.944636  9711 net.cpp:129] Top shape: 256 256 27 27 (47775744)
I1026 12:16:54.944641  9711 net.cpp:137] Memory required for data: 1278570496
I1026 12:16:54.944645  9711 layer_factory.hpp:77] Creating layer pool2
I1026 12:16:54.944656  9711 net.cpp:84] Creating Layer pool2
I1026 12:16:54.944661  9711 net.cpp:406] pool2 <- conv2
I1026 12:16:54.944670  9711 net.cpp:380] pool2 -> pool2
I1026 12:16:54.944730  9711 net.cpp:122] Setting up pool2
I1026 12:16:54.944739  9711 net.cpp:129] Top shape: 256 256 13 13 (11075584)
I1026 12:16:54.944744  9711 net.cpp:137] Memory required for data: 1322872832
I1026 12:16:54.944749  9711 layer_factory.hpp:77] Creating layer norm2
I1026 12:16:54.944782  9711 net.cpp:84] Creating Layer norm2
I1026 12:16:54.944804  9711 net.cpp:406] norm2 <- pool2
I1026 12:16:54.944829  9711 net.cpp:380] norm2 -> norm2
I1026 12:16:54.945055  9711 net.cpp:122] Setting up norm2
I1026 12:16:54.945066  9711 net.cpp:129] Top shape: 256 256 13 13 (11075584)
I1026 12:16:54.945073  9711 net.cpp:137] Memory required for data: 1367175168
I1026 12:16:54.945078  9711 layer_factory.hpp:77] Creating layer conv3
I1026 12:16:54.945096  9711 net.cpp:84] Creating Layer conv3
I1026 12:16:54.945102  9711 net.cpp:406] conv3 <- norm2
I1026 12:16:54.945111  9711 net.cpp:380] conv3 -> conv3
I1026 12:16:54.959846  9711 net.cpp:122] Setting up conv3
I1026 12:16:54.959883  9711 net.cpp:129] Top shape: 256 384 13 13 (16613376)
I1026 12:16:54.959888  9711 net.cpp:137] Memory required for data: 1433628672
I1026 12:16:54.959914  9711 layer_factory.hpp:77] Creating layer relu3
I1026 12:16:54.959929  9711 net.cpp:84] Creating Layer relu3
I1026 12:16:54.959941  9711 net.cpp:406] relu3 <- conv3
I1026 12:16:54.959954  9711 net.cpp:367] relu3 -> conv3 (in-place)
I1026 12:16:54.960500  9711 net.cpp:122] Setting up relu3
I1026 12:16:54.960512  9711 net.cpp:129] Top shape: 256 384 13 13 (16613376)
I1026 12:16:54.960517  9711 net.cpp:137] Memory required for data: 1500082176
I1026 12:16:54.960522  9711 layer_factory.hpp:77] Creating layer conv4
I1026 12:16:54.960539  9711 net.cpp:84] Creating Layer conv4
I1026 12:16:54.960546  9711 net.cpp:406] conv4 <- conv3
I1026 12:16:54.960557  9711 net.cpp:380] conv4 -> conv4
I1026 12:16:54.972787  9711 net.cpp:122] Setting up conv4
I1026 12:16:54.972827  9711 net.cpp:129] Top shape: 256 384 13 13 (16613376)
I1026 12:16:54.972833  9711 net.cpp:137] Memory required for data: 1566535680
I1026 12:16:54.972849  9711 layer_factory.hpp:77] Creating layer relu4
I1026 12:16:54.972865  9711 net.cpp:84] Creating Layer relu4
I1026 12:16:54.972882  9711 net.cpp:406] relu4 <- conv4
I1026 12:16:54.972895  9711 net.cpp:367] relu4 -> conv4 (in-place)
I1026 12:16:54.973423  9711 net.cpp:122] Setting up relu4
I1026 12:16:54.973435  9711 net.cpp:129] Top shape: 256 384 13 13 (16613376)
I1026 12:16:54.973441  9711 net.cpp:137] Memory required for data: 1632989184
I1026 12:16:54.973446  9711 layer_factory.hpp:77] Creating layer conv5
I1026 12:16:54.973462  9711 net.cpp:84] Creating Layer conv5
I1026 12:16:54.973469  9711 net.cpp:406] conv5 <- conv4
I1026 12:16:54.973477  9711 net.cpp:380] conv5 -> conv5
I1026 12:16:54.982765  9711 net.cpp:122] Setting up conv5
I1026 12:16:54.982808  9711 net.cpp:129] Top shape: 256 256 13 13 (11075584)
I1026 12:16:54.982815  9711 net.cpp:137] Memory required for data: 1677291520
I1026 12:16:54.982873  9711 layer_factory.hpp:77] Creating layer relu5
I1026 12:16:54.982908  9711 net.cpp:84] Creating Layer relu5
I1026 12:16:54.982918  9711 net.cpp:406] relu5 <- conv5
I1026 12:16:54.982928  9711 net.cpp:367] relu5 -> conv5 (in-place)
I1026 12:16:54.983141  9711 net.cpp:122] Setting up relu5
I1026 12:16:54.983150  9711 net.cpp:129] Top shape: 256 256 13 13 (11075584)
I1026 12:16:54.983155  9711 net.cpp:137] Memory required for data: 1721593856
I1026 12:16:54.983160  9711 layer_factory.hpp:77] Creating layer pool5
I1026 12:16:54.983168  9711 net.cpp:84] Creating Layer pool5
I1026 12:16:54.983178  9711 net.cpp:406] pool5 <- conv5
I1026 12:16:54.983188  9711 net.cpp:380] pool5 -> pool5
I1026 12:16:54.983240  9711 net.cpp:122] Setting up pool5
I1026 12:16:54.983249  9711 net.cpp:129] Top shape: 256 256 6 6 (2359296)
I1026 12:16:54.983253  9711 net.cpp:137] Memory required for data: 1731031040
I1026 12:16:54.983290  9711 layer_factory.hpp:77] Creating layer fc6
I1026 12:16:54.983320  9711 net.cpp:84] Creating Layer fc6
I1026 12:16:54.983336  9711 net.cpp:406] fc6 <- pool5
I1026 12:16:54.983346  9711 net.cpp:380] fc6 -> fc6
I1026 12:16:55.486500  9711 net.cpp:122] Setting up fc6
I1026 12:16:55.486552  9711 net.cpp:129] Top shape: 256 4096 (1048576)
I1026 12:16:55.486558  9711 net.cpp:137] Memory required for data: 1735225344
I1026 12:16:55.486577  9711 layer_factory.hpp:77] Creating layer relu6
I1026 12:16:55.486598  9711 net.cpp:84] Creating Layer relu6
I1026 12:16:55.486605  9711 net.cpp:406] relu6 <- fc6
I1026 12:16:55.486616  9711 net.cpp:367] relu6 -> fc6 (in-place)
I1026 12:16:55.486932  9711 net.cpp:122] Setting up relu6
I1026 12:16:55.486941  9711 net.cpp:129] Top shape: 256 4096 (1048576)
I1026 12:16:55.486946  9711 net.cpp:137] Memory required for data: 1739419648
I1026 12:16:55.486951  9711 layer_factory.hpp:77] Creating layer drop6
I1026 12:16:55.486960  9711 net.cpp:84] Creating Layer drop6
I1026 12:16:55.486965  9711 net.cpp:406] drop6 <- fc6
I1026 12:16:55.486974  9711 net.cpp:367] drop6 -> fc6 (in-place)
I1026 12:16:55.487001  9711 net.cpp:122] Setting up drop6
I1026 12:16:55.487033  9711 net.cpp:129] Top shape: 256 4096 (1048576)
I1026 12:16:55.487040  9711 net.cpp:137] Memory required for data: 1743613952
I1026 12:16:55.487046  9711 layer_factory.hpp:77] Creating layer fc7
I1026 12:16:55.487056  9711 net.cpp:84] Creating Layer fc7
I1026 12:16:55.487061  9711 net.cpp:406] fc7 <- fc6
I1026 12:16:55.487071  9711 net.cpp:380] fc7 -> fc7
I1026 12:16:55.716138  9711 net.cpp:122] Setting up fc7
I1026 12:16:55.716208  9711 net.cpp:129] Top shape: 256 4096 (1048576)
I1026 12:16:55.716215  9711 net.cpp:137] Memory required for data: 1747808256
I1026 12:16:55.716233  9711 layer_factory.hpp:77] Creating layer relu7
I1026 12:16:55.716258  9711 net.cpp:84] Creating Layer relu7
I1026 12:16:55.716267  9711 net.cpp:406] relu7 <- fc7
I1026 12:16:55.716285  9711 net.cpp:367] relu7 -> fc7 (in-place)
I1026 12:16:55.716609  9711 net.cpp:122] Setting up relu7
I1026 12:16:55.716619  9711 net.cpp:129] Top shape: 256 4096 (1048576)
I1026 12:16:55.716625  9711 net.cpp:137] Memory required for data: 1752002560
I1026 12:16:55.716629  9711 layer_factory.hpp:77] Creating layer drop7
I1026 12:16:55.716639  9711 net.cpp:84] Creating Layer drop7
I1026 12:16:55.716645  9711 net.cpp:406] drop7 <- fc7
I1026 12:16:55.716655  9711 net.cpp:367] drop7 -> fc7 (in-place)
I1026 12:16:55.716675  9711 net.cpp:122] Setting up drop7
I1026 12:16:55.716682  9711 net.cpp:129] Top shape: 256 4096 (1048576)
I1026 12:16:55.716687  9711 net.cpp:137] Memory required for data: 1756196864
I1026 12:16:55.716692  9711 layer_factory.hpp:77] Creating layer my-fc8
I1026 12:16:55.716704  9711 net.cpp:84] Creating Layer my-fc8
I1026 12:16:55.716709  9711 net.cpp:406] my-fc8 <- fc7
I1026 12:16:55.716717  9711 net.cpp:380] my-fc8 -> my-fc8
I1026 12:16:55.716891  9711 net.cpp:122] Setting up my-fc8
I1026 12:16:55.716898  9711 net.cpp:129] Top shape: 256 1 (256)
I1026 12:16:55.716903  9711 net.cpp:137] Memory required for data: 1756197888
I1026 12:16:55.716951  9711 layer_factory.hpp:77] Creating layer loss
I1026 12:16:55.716959  9711 net.cpp:84] Creating Layer loss
I1026 12:16:55.716964  9711 net.cpp:406] loss <- my-fc8
I1026 12:16:55.716970  9711 net.cpp:406] loss <- label
I1026 12:16:55.716984  9711 net.cpp:380] loss -> loss
I1026 12:16:55.717027  9711 net.cpp:122] Setting up loss
…
I1026 12:16:55.717242  9711 net.cpp:255] Network initialization done.
I1026 12:16:55.717618  9711 solver.cpp:172] Creating test net (#0) specified by net file: ./train_val.prototxt
I1026 12:16:55.717660  9711 net.cpp:294] The NetState phase (1) differed from the phase (0) specified by a rule in layer data
I1026 12:16:55.717869  9711 net.cpp:51] Initializing net from parameters: 
name: "CaffeNet"
state {
  phase: TEST
}
layer {
  name: "data"
  type: "HDF5Data"
  top: "data"
  top: "label"
  include {
    phase: TEST
  }
  hdf5_data_param {
    source: "./test.txt"
    batch_size: 128
  }
}
layer {
  name: "conv1"
  type: "Convolution"
  bottom: "data"
  top: "conv1"
  param {
    lr_mult: 1
    decay_mult: 1
  }
  param {
    lr_mult: 2
    decay_mult: 0
  }
  convolution_param {
    num_output: 96
    kernel_size: 11
    stride: 4
    weight_filler {
      type: "gaussian"
      std: 0.01
    }
    bias_filler {
      type: "constant"
      value: 0
    }
  }
}
layer {
  name: "relu1"
  type: "ReLU"
  bottom: "conv1"
  top: "conv1"
}
layer {
  name: "pool1"
  type: "Pooling"
  bottom: "conv1"
  top: "pool1"
  pooling_param {
    pool: MAX
    kernel_size: 3
    stride: 2
  }
}
layer {
  name: "norm1"
  type: "LRN"
  bottom: "pool1"
  top: "norm1"
  lrn_param {
    local_size: 5
    alpha: 0.0001
    beta: 0.75
  }
}
layer {
  name: "conv2"
  type: "Convolution"
  bottom: "norm1"
  top: "conv2"
  param {
    lr_mult: 1
    decay_mult: 1
  }
  param {
    lr_mult: 2
    decay_mult: 0
  }
  convolution_param {
    num_output: 256
    pad: 2
    kernel_size: 5
    group: 2
    weight_filler {
      type: "gaussian"
      std: 0.01
    }
    bias_filler {
      type: "constant"
      value: 1
    }
  }
}
layer {
  name: "relu2"
  type: "ReLU"
  bottom: "conv2"
  top: "conv2"
}
layer {
  name: "pool2"
  type: "Pooling"
  bottom: "conv2"
  top: "pool2"
  pooling_param {
    pool: MAX
    kernel_size: 3
    stride: 2
  }
}
layer {
  name: "norm2"
  type: "LRN"
  bottom: "pool2"
  top: "norm2"
  lrn_param {
    local_size: 5
    alpha: 0.0001
    beta: 0.75
  }
}
layer {
  name: "conv3"
  type: "Convolution"
  bottom: "norm2"
  top: "conv3"
  param {
    lr_mult: 1
    decay_mult: 1
  }
  param {
    lr_mult: 2
    decay_mult: 0
  }
  convolution_param {
    num_output: 384
    pad: 1
    kernel_size: 3
    weight_filler {
      type: "gaussian"
      std: 0.01
    }
    bias_filler {
      type: "constant"
      value: 0
    }
  }
}
layer {
  name: "relu3"
  type: "ReLU"
  bottom: "conv3"
  top: "conv3"
}
layer {
  name: "conv4"
  type: "Convolution"
  bottom: "conv3"
  top: "conv4"
  param {
    lr_mult: 1
    decay_mult: 1
  }
  param {
    lr_mult: 2
    decay_mult: 0
  }
  convolution_param {
    num_output: 384
    pad: 1
    kernel_size: 3
    group: 2
    weight_filler {
      type: "gaussian"
      std: 0.01
    }
    bias_filler {
      type: "constant"
      value: 1
    }
  }
}
layer {
  name: "relu4"
  type: "ReLU"
  bottom: "conv4"
  top: "conv4"
}
layer {
  name: "conv5"
  type: "Convolution"
  bottom: "conv4"
  top: "conv5"
  param {
    lr_mult: 1
    decay_mult: 1
  }
  param {
    lr_mult: 2
    decay_mult: 0
  }
  convolution_param {
    num_output: 256
    pad: 1
    kernel_size: 3
    group: 2
    weight_filler {
      type: "gaussian"
      std: 0.01
    }
    bias_filler {
      type: "constant"
      value: 1
    }
  }
}
layer {
  name: "relu5"
  type: "ReLU"
  bottom: "conv5"
  top: "conv5"
}
layer {
  name: "pool5"
  type: "Pooling"
  bottom: "conv5"
  top: "pool5"
  pooling_param {
    pool: MAX
    kernel_size: 3
    stride: 2
  }
}
layer {
  name: "fc6"
  type: "InnerProduct"
  bottom: "pool5"
  top: "fc6"
  param {
    lr_mult: 1
    decay_mult: 1
  }
  param {
    lr_mult: 2
    decay_mult: 0
  }
  inner_product_param {
    num_output: 4096
    weight_filler {
      type: "gaussian"
      std: 0.005
    }
    bias_filler {
      type: "constant"
      value: 1
    }
  }
}
layer {
  name: "relu6"
  type: "ReLU"
  bottom: "fc6"
  top: "fc6"
}
layer {
  name: "drop6"
  type: "Dropout"
  bottom: "fc6"
  top: "fc6"
  dropout_param {
    dropout_ratio: 0.5
  }
}
layer {
  name: "fc7"
  type: "InnerProduct"
  bottom: "fc6"
  top: "fc7"
  param {
    lr_mult: 1
    decay_mult: 1
  }
  param {
    lr_mult: 2
    decay_mult: 0
  }
  inner_product_param {
    num_output: 4096
    weight_filler {
      type: "gaussian"
      std: 0.005
    }
    bias_filler {
      type: "constant"
      value: 1
    }
  }
}
layer {
  name: "relu7"
  type: "ReLU"
  bottom: "fc7"
  top: "fc7"
}
layer {
  name: "drop7"
  type: "Dropout"
  bottom: "fc7"
  top: "fc7"
  dropout_param {
    dropout_ratio: 0.5
  }
}
layer {
  name: "my-fc8"
  type: "InnerProduct"
  bottom: "fc7"
  top: "my-fc8"
  param {
    lr_mult: 1
    decay_mult: 1
  }
  param {
    lr_mult: 2
    decay_mult: 0
  }
  inner_product_param {
    num_output: 1
    weight_filler {
      type: "gaussian"
      std: 0.01
    }
    bias_filler {
      type: "constant"
      value: 0
    }
  }
}
layer {
  name: "loss"
  type: "EuclideanLoss"
  bottom: "my-fc8"
  bottom: "label"
  top: "loss"
}
I1026 12:16:55.717959  9711 layer_factory.hpp:77] Creating layer data
I1026 12:16:55.717969  9711 net.cpp:84] Creating Layer data
I1026 12:16:55.717977  9711 net.cpp:380] data -> data
I1026 12:16:55.717985  9711 net.cpp:380] data -> label
I1026 12:16:55.717994  9711 hdf5_data_layer.cpp:80] Loading list of HDF5 filenames from: ./test.txt
I1026 12:16:55.718022  9711 hdf5_data_layer.cpp:94] Number of HDF5 files: 1
I1026 12:16:56.212332  9711 net.cpp:122] Setting up data
I1026 12:16:56.212385  9711 net.cpp:129] Top shape: 128 3 227 227 (19787136)
I1026 12:16:56.212394  9711 net.cpp:129] Top shape: 128 (128)
I1026 12:16:56.212435  9711 net.cpp:137] Memory required for data: 79149056
I1026 12:16:56.212471  9711 layer_factory.hpp:77] Creating layer conv1
I1026 12:16:56.212501  9711 net.cpp:84] Creating Layer conv1
I1026 12:16:56.212507  9711 net.cpp:406] conv1 <- data
I1026 12:16:56.212518  9711 net.cpp:380] conv1 -> conv1
I1026 12:16:56.216512  9711 net.cpp:122] Setting up conv1
I1026 12:16:56.216532  9711 net.cpp:129] Top shape: 128 96 55 55 (37171200)
I1026 12:16:56.216538  9711 net.cpp:137] Memory required for data: 227833856
I1026 12:16:56.216555  9711 layer_factory.hpp:77] Creating layer relu1
I1026 12:16:56.216583  9711 net.cpp:84] Creating Layer relu1
I1026 12:16:56.216590  9711 net.cpp:406] relu1 <- conv1
I1026 12:16:56.216598  9711 net.cpp:367] relu1 -> conv1 (in-place)
I1026 12:16:56.218611  9711 net.cpp:122] Setting up relu1
I1026 12:16:56.218621  9711 net.cpp:129] Top shape: 128 96 55 55 (37171200)
I1026 12:16:56.218626  9711 net.cpp:137] Memory required for data: 376518656
I1026 12:16:56.218631  9711 layer_factory.hpp:77] Creating layer pool1
I1026 12:16:56.218641  9711 net.cpp:84] Creating Layer pool1
I1026 12:16:56.218646  9711 net.cpp:406] pool1 <- conv1
I1026 12:16:56.218652  9711 net.cpp:380] pool1 -> pool1
I1026 12:16:56.218708  9711 net.cpp:122] Setting up pool1
I1026 12:16:56.218716  9711 net.cpp:129] Top shape: 128 96 27 27 (8957952)
I1026 12:16:56.218732  9711 net.cpp:137] Memory required for data: 412350464
I1026 12:16:56.218747  9711 layer_factory.hpp:77] Creating layer norm1
I1026 12:16:56.218767  9711 net.cpp:84] Creating Layer norm1
I1026 12:16:56.218773  9711 net.cpp:406] norm1 <- pool1
I1026 12:16:56.218781  9711 net.cpp:380] norm1 -> norm1
I1026 12:16:56.220880  9711 net.cpp:122] Setting up norm1
I1026 12:16:56.220893  9711 net.cpp:129] Top shape: 128 96 27 27 (8957952)
I1026 12:16:56.220899  9711 net.cpp:137] Memory required for data: 448182272
I1026 12:16:56.220904  9711 layer_factory.hpp:77] Creating layer conv2
I1026 12:16:56.220918  9711 net.cpp:84] Creating Layer conv2
I1026 12:16:56.220926  9711 net.cpp:406] conv2 <- norm1
I1026 12:16:56.220933  9711 net.cpp:380] conv2 -> conv2
I1026 12:16:56.234388  9711 net.cpp:122] Setting up conv2
I1026 12:16:56.234441  9711 net.cpp:129] Top shape: 128 256 27 27 (23887872)
I1026 12:16:56.234447  9711 net.cpp:137] Memory required for data: 543733760
I1026 12:16:56.234475  9711 layer_factory.hpp:77] Creating layer relu2
I1026 12:16:56.234498  9711 net.cpp:84] Creating Layer relu2
I1026 12:16:56.234508  9711 net.cpp:406] relu2 <- conv2
I1026 12:16:56.234524  9711 net.cpp:367] relu2 -> conv2 (in-place)
I1026 12:16:56.234761  9711 net.cpp:122] Setting up relu2
I1026 12:16:56.234786  9711 net.cpp:129] Top shape: 128 256 27 27 (23887872)
I1026 12:16:56.234793  9711 net.cpp:137] Memory required for data: 639285248
I1026 12:16:56.234798  9711 layer_factory.hpp:77] Creating layer pool2
I1026 12:16:56.234807  9711 net.cpp:84] Creating Layer pool2
I1026 12:16:56.234812  9711 net.cpp:406] pool2 <- conv2
I1026 12:16:56.234822  9711 net.cpp:380] pool2 -> pool2
I1026 12:16:56.234876  9711 net.cpp:122] Setting up pool2
I1026 12:16:56.234885  9711 net.cpp:129] Top shape: 128 256 13 13 (5537792)
I1026 12:16:56.234890  9711 net.cpp:137] Memory required for data: 661436416
I1026 12:16:56.234895  9711 layer_factory.hpp:77] Creating layer norm2
I1026 12:16:56.234913  9711 net.cpp:84] Creating Layer norm2
I1026 12:16:56.234920  9711 net.cpp:406] norm2 <- pool2
I1026 12:16:56.234927  9711 net.cpp:380] norm2 -> norm2
I1026 12:16:56.235179  9711 net.cpp:122] Setting up norm2
I1026 12:16:56.235189  9711 net.cpp:129] Top shape: 128 256 13 13 (5537792)
I1026 12:16:56.235195  9711 net.cpp:137] Memory required for data: 683587584
I1026 12:16:56.235199  9711 layer_factory.hpp:77] Creating layer conv3
I1026 12:16:56.235216  9711 net.cpp:84] Creating Layer conv3
I1026 12:16:56.235224  9711 net.cpp:406] conv3 <- norm2
I1026 12:16:56.235231  9711 net.cpp:380] conv3 -> conv3
I1026 12:16:56.255586  9711 net.cpp:122] Setting up conv3
I1026 12:16:56.255626  9711 net.cpp:129] Top shape: 128 384 13 13 (8306688)
I1026 12:16:56.255676  9711 net.cpp:137] Memory required for data: 716814336
I1026 12:16:56.255703  9711 layer_factory.hpp:77] Creating layer relu3
I1026 12:16:56.255774  9711 net.cpp:84] Creating Layer relu3
I1026 12:16:56.255792  9711 net.cpp:406] relu3 <- conv3
I1026 12:16:56.255815  9711 net.cpp:367] relu3 -> conv3 (in-place)
I1026 12:16:56.257321  9711 net.cpp:122] Setting up relu3
I1026 12:16:56.257331  9711 net.cpp:129] Top shape: 128 384 13 13 (8306688)
I1026 12:16:56.257336  9711 net.cpp:137] Memory required for data: 750041088
I1026 12:16:56.257341  9711 layer_factory.hpp:77] Creating layer conv4
I1026 12:16:56.257360  9711 net.cpp:84] Creating Layer conv4
I1026 12:16:56.257366  9711 net.cpp:406] conv4 <- conv3
I1026 12:16:56.257377  9711 net.cpp:380] conv4 -> conv4
I1026 12:16:56.271319  9711 net.cpp:122] Setting up conv4
I1026 12:16:56.271366  9711 net.cpp:129] Top shape: 128 384 13 13 (8306688)
I1026 12:16:56.271373  9711 net.cpp:137] Memory required for data: 783267840
I1026 12:16:56.271394  9711 layer_factory.hpp:77] Creating layer relu4
I1026 12:16:56.271414  9711 net.cpp:84] Creating Layer relu4
I1026 12:16:56.271435  9711 net.cpp:406] relu4 <- conv4
I1026 12:16:56.271451  9711 net.cpp:367] relu4 -> conv4 (in-place)
I1026 12:16:56.271734  9711 net.cpp:122] Setting up relu4
I1026 12:16:56.271745  9711 net.cpp:129] Top shape: 128 384 13 13 (8306688)
I1026 12:16:56.271750  9711 net.cpp:137] Memory required for data: 816494592
I1026 12:16:56.271755  9711 layer_factory.hpp:77] Creating layer conv5
I1026 12:16:56.271775  9711 net.cpp:84] Creating Layer conv5
I1026 12:16:56.271782  9711 net.cpp:406] conv5 <- conv4
I1026 12:16:56.271795  9711 net.cpp:380] conv5 -> conv5
I1026 12:16:56.292476  9711 net.cpp:122] Setting up conv5
I1026 12:16:56.292515  9711 net.cpp:129] Top shape: 128 256 13 13 (5537792)
I1026 12:16:56.292521  9711 net.cpp:137] Memory required for data: 838645760
I1026 12:16:56.292546  9711 layer_factory.hpp:77] Creating layer relu5
I1026 12:16:56.292564  9711 net.cpp:84] Creating Layer relu5
I1026 12:16:56.292572  9711 net.cpp:406] relu5 <- conv5
I1026 12:16:56.292582  9711 net.cpp:367] relu5 -> conv5 (in-place)
I1026 12:16:56.294283  9711 net.cpp:122] Setting up relu5
I1026 12:16:56.294296  9711 net.cpp:129] Top shape: 128 256 13 13 (5537792)
I1026 12:16:56.294301  9711 net.cpp:137] Memory required for data: 860796928
I1026 12:16:56.294306  9711 layer_factory.hpp:77] Creating layer pool5
I1026 12:16:56.294317  9711 net.cpp:84] Creating Layer pool5
I1026 12:16:56.294322  9711 net.cpp:406] pool5 <- conv5
I1026 12:16:56.294328  9711 net.cpp:380] pool5 -> pool5
I1026 12:16:56.294389  9711 net.cpp:122] Setting up pool5
I1026 12:16:56.294399  9711 net.cpp:129] Top shape: 128 256 6 6 (1179648)
I1026 12:16:56.294402  9711 net.cpp:137] Memory required for data: 865515520
I1026 12:16:56.294407  9711 layer_factory.hpp:77] Creating layer fc6
I1026 12:16:56.294425  9711 net.cpp:84] Creating Layer fc6
I1026 12:16:56.294431  9711 net.cpp:406] fc6 <- pool5
I1026 12:16:56.294440  9711 net.cpp:380] fc6 -> fc6
I1026 12:16:56.818177  9711 net.cpp:122] Setting up fc6
I1026 12:16:56.818248  9711 net.cpp:129] Top shape: 128 4096 (524288)
I1026 12:16:56.818256  9711 net.cpp:137] Memory required for data: 867612672
I1026 12:16:56.818279  9711 layer_factory.hpp:77] Creating layer relu6
I1026 12:16:56.818300  9711 net.cpp:84] Creating Layer relu6
I1026 12:16:56.818332  9711 net.cpp:406] relu6 <- fc6
I1026 12:16:56.818358  9711 net.cpp:367] relu6 -> fc6 (in-place)
I1026 12:16:56.819393  9711 net.cpp:122] Setting up relu6
I1026 12:16:56.819406  9711 net.cpp:129] Top shape: 128 4096 (524288)
I1026 12:16:56.819411  9711 net.cpp:137] Memory required for data: 869709824
I1026 12:16:56.819416  9711 layer_factory.hpp:77] Creating layer drop6
I1026 12:16:56.819427  9711 net.cpp:84] Creating Layer drop6
I1026 12:16:56.819432  9711 net.cpp:406] drop6 <- fc6
I1026 12:16:56.819442  9711 net.cpp:367] drop6 -> fc6 (in-place)
I1026 12:16:56.819481  9711 net.cpp:122] Setting up drop6
I1026 12:16:56.819492  9711 net.cpp:129] Top shape: 128 4096 (524288)
I1026 12:16:56.819522  9711 net.cpp:137] Memory required for data: 871806976
I1026 12:16:56.819528  9711 layer_factory.hpp:77] Creating layer fc7
I1026 12:16:56.819540  9711 net.cpp:84] Creating Layer fc7
I1026 12:16:56.819546  9711 net.cpp:406] fc7 <- fc6
I1026 12:16:56.819556  9711 net.cpp:380] fc7 -> fc7
I1026 12:16:57.061720  9711 net.cpp:122] Setting up fc7
I1026 12:16:57.061774  9711 net.cpp:129] Top shape: 128 4096 (524288)
I1026 12:16:57.061781  9711 net.cpp:137] Memory required for data: 873904128
I1026 12:16:57.061800  9711 layer_factory.hpp:77] Creating layer relu7
I1026 12:16:57.061820  9711 net.cpp:84] Creating Layer relu7
I1026 12:16:57.061830  9711 net.cpp:406] relu7 <- fc7
I1026 12:16:57.061839  9711 net.cpp:367] relu7 -> fc7 (in-place)
I1026 12:16:57.062165  9711 net.cpp:122] Setting up relu7
I1026 12:16:57.062175  9711 net.cpp:129] Top shape: 128 4096 (524288)
I1026 12:16:57.062180  9711 net.cpp:137] Memory required for data: 876001280
I1026 12:16:57.062185  9711 layer_factory.hpp:77] Creating layer drop7
I1026 12:16:57.062201  9711 net.cpp:84] Creating Layer drop7
I1026 12:16:57.062207  9711 net.cpp:406] drop7 <- fc7
I1026 12:16:57.062216  9711 net.cpp:367] drop7 -> fc7 (in-place)
I1026 12:16:57.062260  9711 net.cpp:122] Setting up drop7
I1026 12:16:57.062273  9711 net.cpp:129] Top shape: 128 4096 (524288)
I1026 12:16:57.062281  9711 net.cpp:137] Memory required for data: 878098432
I1026 12:16:57.062285  9711 layer_factory.hpp:77] Creating layer my-fc8
I1026 12:16:57.062296  9711 net.cpp:84] Creating Layer my-fc8
I1026 12:16:57.062304  9711 net.cpp:406] my-fc8 <- fc7
I1026 12:16:57.062314  9711 net.cpp:380] my-fc8 -> my-fc8
I1026 12:16:57.062496  9711 net.cpp:122] Setting up my-fc8
I1026 12:16:57.062505  9711 net.cpp:129] Top shape: 128 1 (128)
I1026 12:16:57.062508  9711 net.cpp:137] Memory required for data: 878098944
I1026 12:16:57.062517  9711 layer_factory.hpp:77] Creating layer loss
I1026 12:16:57.062528  9711 net.cpp:84] Creating Layer loss
I1026 12:16:57.062535  9711 net.cpp:406] loss <- my-fc8
I1026 12:16:57.062541  9711 net.cpp:406] loss <- label
I1026 12:16:57.062548  9711 net.cpp:380] loss -> loss
I1026 12:16:57.062589  9711 net.cpp:122] Setting up loss
…
