…
I1029 13:21:10.805575  3028 solver.cpp:87] Creating training net from net file: ./train_val.prototxt
I1029 13:21:10.807250  3028 net.cpp:294] The NetState phase (0) differed from the phase (1) specified by a rule in layer data
I1029 13:21:10.808552  3028 net.cpp:51] Initializing net from parameters: 
name: "GoogleNet"
state {
  phase: TRAIN
  level: 0
  stage: ""
}
layer {
  name: "data"
  type: "HDF5Data"
  top: "data"
  top: "label"
  include {
    phase: TRAIN
  }
  hdf5_data_param {
    source: "./train.txt"
    batch_size: 30
    shuffle: true
  }
}
layer {
  name: "conv1/7x7_s2"
  type: "Convolution"
  bottom: "data"
  top: "conv1/7x7_s2"
  param {
    lr_mult: 1
    decay_mult: 1
  }
  param {
    lr_mult: 2
    decay_mult: 0
  }
  convolution_param {
    num_output: 64
    pad: 3
    kernel_size: 7
    stride: 2
    weight_filler {
      type: "xavier"
    }
    bias_filler {
      type: "constant"
      value: 0.2
    }
  }
}
layer {
  name: "conv1/relu_7x7"
  type: "ReLU"
  bottom: "conv1/7x7_s2"
  top: "conv1/7x7_s2"
}
layer {
  name: "pool1/3x3_s2"
  type: "Pooling"
  bottom: "conv1/7x7_s2"
  top: "pool1/3x3_s2"
  pooling_param {
    pool: MAX
    kernel_size: 3
    stride: 2
  }
}
layer {
  name: "pool1/norm1"
  type: "LRN"
  bottom: "pool1/3x3_s2"
  top: "pool1/norm1"
  lrn_param {
    local_size: 5
    alpha: 0.0001
    beta: 0.75
  }
}
layer {
  name: "conv2/3x3_reduce"
  type: "Convolution"
  bottom: "pool1/norm1"
  top: "conv2/3x3_reduce"
  param {
    lr_mult: 1
    decay_mult: 1
  }
  param {
    lr_mult: 2
    decay_mult: 0
  }
  convolution_param {
    num_output: 64
    kernel_size: 1
    weight_filler {
      type: "xavier"
    }
    bias_filler {
      type: "constant"
      value: 0.2
    }
  }
}
layer {
  name: "conv2/relu_3x3_reduce"
  type: "ReLU"
  bottom: "conv2/3x3_reduce"
  top: "conv2/3x3_reduce"
}
layer {
  name: "conv2/3x3"
  type: "Convolution"
  bottom: "conv2/3x3_reduce"
  top: "conv2/3x3"
  param {
    lr_mult: 1
    decay_mult: 1
  }
  param {
    lr_mult: 2
    decay_mult: 0
  }
  convolution_param {
    num_output: 192
    pad: 1
    kernel_size: 3
    weight_filler {
      type: "xavier"
    }
    bias_filler {
      type: "constant"
      value: 0.2
    }
  }
}
layer {
  name: "conv2/relu_3x3"
  type: "ReLU"
  bottom: "conv2/3x3"
  top: "conv2/3x3"
}
layer {
  name: "conv2/norm2"
  type: "LRN"
  bottom: "conv2/3x3"
  top: "conv2/norm2"
  lrn_param {
    local_size: 5
    alpha: 0.0001
    beta: 0.75
  }
}
layer {
  name: "pool2/3x3_s2"
  type: "Pooling"
  bottom: "conv2/norm2"
  top: "pool2/3x3_s2"
  pooling_param {
    pool: MAX
    kernel_size: 3
    stride: 2
  }
}
layer {
  name: "inception_3a/1x1"
  type: "Convolution"
  bottom: "pool2/3x3_s2"
  top: "inception_3a/1x1"
  param {
    lr_mult: 1
    decay_mult: 1
  }
  param {
    lr_mult: 2
    decay_mult: 0
  }
  convolution_param {
    num_output: 64
    kernel_size: 1
    weight_filler {
      type: "xavier"
    }
    bias_filler {
      type: "constant"
      value: 0.2
    }
  }
}
layer {
  name: "inception_3a/relu_1x1"
  type: "ReLU"
  bottom: "inception_3a/1x1"
  top: "inception_3a/1x1"
}
layer {
  name: "inception_3a/3x3_reduce"
  type: "Convolution"
  bottom: "pool2/3x3_s2"
  top: "inception_3a/3x3_reduce"
  param {
    lr_mult: 1
    decay_mult: 1
  }
  param {
    lr_mult: 2
    decay_mult: 0
  }
  convolution_param {
    num_output: 96
    kernel_size: 1
    weight_filler {
      type: "xavier"
    }
    bias_filler {
      type: "constant"
      value: 0.2
    }
  }
}
layer {
  name: "inception_3a/relu_3x3_reduce"
  type: "ReLU"
  bottom: "inception_3a/3x3_reduce"
  top: "inception_3a/3x3_reduce"
}
layer {
  name: "inception_3a/3x3"
  type: "Convolution"
  bottom: "inception_3a/3x3_reduce"
  top: "inception_3a/3x3"
  param {
    lr_mult: 1
    decay_mult: 1
  }
  param {
    lr_mult: 2
    decay_mult: 0
  }
  convolution_param {
    num_output: 128
    pad: 1
    kernel_size: 3
    weight_filler {
      type: "xavier"
    }
    bias_filler {
      type: "constant"
      value: 0.2
    }
  }
}
layer {
  name: "inception_3a/relu_3x3"
  type: "ReLU"
  bottom: "inception_3a/3x3"
  top: "inception_3a/3x3"
}
layer {
  name: "inception_3a/5x5_reduce"
  type: "Convolution"
  bottom: "pool2/3x3_s2"
  top: "inception_3a/5x5_reduce"
  param {
    lr_mult: 1
    decay_mult: 1
  }
  param {
    lr_mult: 2
    decay_mult: 0
  }
  convolution_param {
    num_output: 16
    kernel_size: 1
    weight_filler {
      type: "xavier"
    }
    bias_filler {
      type: "constant"
      value: 0.2
    }
  }
}
layer {
  name: "inception_3a/relu_5x5_reduce"
  type: "ReLU"
  bottom: "inception_3a/5x5_reduce"
  top: "inception_3a/5x5_reduce"
}
layer {
  name: "inception_3a/5x5"
  type: "Convolution"
  bottom: "inception_3a/5x5_reduce"
  top: "inception_3a/5x5"
  param {
    lr_mult: 1
    decay_mult: 1
  }
  param {
    lr_mult: 2
    decay_mult: 0
  }
  convolution_param {
    num_output: 32
    pad: 2
    kernel_size: 5
    weight_filler {
      type: "xavier"
    }
    bias_filler {
      type: "constant"
      value: 0.2
    }
  }
}
layer {
  name: "inception_3a/relu_5x5"
  type: "ReLU"
  bottom: "inception_3a/5x5"
  top: "inception_3a/5x5"
}
layer {
  name: "inception_3a/pool"
  type: "Pooling"
  bottom: "pool2/3x3_s2"
  top: "inception_3a/pool"
  pooling_param {
    pool: MAX
    kernel_size: 3
    stride: 1
    pad: 1
  }
}
layer {
  name: "inception_3a/pool_proj"
  type: "Convolution"
  bottom: "inception_3a/pool"
  top: "inception_3a/pool_proj"
  param {
    lr_mult: 1
    decay_mult: 1
  }
  param {
    lr_mult: 2
    decay_mult: 0
  }
  convolution_param {
    num_output: 32
    kernel_size: 1
    weight_filler {
      type: "xavier"
    }
    bias_filler {
      type: "constant"
      value: 0.2
    }
  }
}
layer {
  name: "inception_3a/relu_pool_proj"
  type: "ReLU"
  bottom: "inception_3a/pool_proj"
  top: "inception_3a/pool_proj"
}
layer {
  name: "inception_3a/output"
  type: "Concat"
  bottom: "inception_3a/1x1"
  bottom: "inception_3a/3x3"
  bottom: "inception_3a/5x5"
  bottom: "inception_3a/pool_proj"
  top: "inception_3a/output"
}
layer {
  name: "inception_3b/1x1"
  type: "Convolution"
  bottom: "inception_3a/output"
  top: "inception_3b/1x1"
  param {
    lr_mult: 1
    decay_mult: 1
  }
  param {
    lr_mult: 2
    decay_mult: 0
  }
  convolution_param {
    num_output: 128
    kernel_size: 1
    weight_filler {
      type: "xavier"
    }
    bias_filler {
      type: "constant"
      value: 0.2
    }
  }
}
layer {
  name: "inception_3b/relu_1x1"
  type: "ReLU"
  bottom: "inception_3b/1x1"
  top: "inception_3b/1x1"
}
layer {
  name: "inception_3b/3x3_reduce"
  type: "Convolution"
  bottom: "inception_3a/output"
  top: "inception_3b/3x3_reduce"
  param {
    lr_mult: 1
    decay_mult: 1
  }
  param {
    lr_mult: 2
    decay_mult: 0
  }
  convolution_param {
    num_output: 128
    kernel_size: 1
    weight_filler {
      type: "xavier"
    }
    bias_filler {
      type: "constant"
      value: 0.2
    }
  }
}
layer {
  name: "inception_3b/relu_3x3_reduce"
  type: "ReLU"
  bottom: "inception_3b/3x3_reduce"
  top: "inception_3b/3x3_reduce"
}
layer {
  name: "inception_3b/3x3"
  type: "Convolution"
  bottom: "inception_3b/3x3_reduce"
  top: "inception_3b/3x3"
  param {
    lr_mult: 1
    decay_mult: 1
  }
  param {
    lr_mult: 2
    decay_mult: 0
  }
  convolution_param {
    num_output: 192
    pad: 1
    kernel_size: 3
    weight_filler {
      type: "xavier"
    }
    bias_filler {
      type: "constant"
      value: 0.2
    }
  }
}
layer {
  name: "inception_3b/relu_3x3"
  type: "ReLU"
  bottom: "inception_3b/3x3"
  top: "inception_3b/3x3"
}
layer {
  name: "inception_3b/5x5_reduce"
  type: "Convolution"
  bottom: "inception_3a/output"
  top: "inception_3b/5x5_reduce"
  param {
    lr_mult: 1
    decay_mult: 1
  }
  param {
    lr_mult: 2
    decay_mult: 0
  }
  convolution_param {
    num_output: 32
    kernel_size: 1
    weight_filler {
      type: "xavier"
    }
    bias_filler {
      type: "constant"
      value: 0.2
    }
  }
}
layer {
  name: "inception_3b/relu_5x5_reduce"
  type: "ReLU"
  bottom: "inception_3b/5x5_reduce"
  top: "inception_3b/5x5_reduce"
}
layer {
  name: "inception_3b/5x5"
  type: "Convolution"
  bottom: "inception_3b/5x5_reduce"
  top: "inception_3b/5x5"
  param {
    lr_mult: 1
    decay_mult: 1
  }
  param {
    lr_mult: 2
    decay_mult: 0
  }
  convolution_param {
    num_output: 96
    pad: 2
    kernel_size: 5
    weight_filler {
      type: "xavier"
    }
    bias_filler {
      type: "constant"
      value: 0.2
    }
  }
}
layer {
  name: "inception_3b/relu_5x5"
  type: "ReLU"
  bottom: "inception_3b/5x5"
  top: "inception_3b/5x5"
}
layer {
  name: "inception_3b/pool"
  type: "Pooling"
  bottom: "inception_3a/output"
  top: "inception_3b/pool"
  pooling_param {
    pool: MAX
    kernel_size: 3
    stride: 1
    pad: 1
  }
}
layer {
  name: "inception_3b/pool_proj"
  type: "Convolution"
  bottom: "inception_3b/pool"
  top: "inception_3b/pool_proj"
  param {
    lr_mult: 1
    decay_mult: 1
  }
  param {
    lr_mult: 2
    decay_mult: 0
  }
  convolution_param {
    num_output: 64
    kernel_size: 1
    weight_filler {
      type: "xavier"
    }
    bias_filler {
      type: "constant"
      value: 0.2
    }
  }
}
layer {
  name: "inception_3b/relu_pool_proj"
  type: "ReLU"
  bottom: "inception_3b/pool_proj"
  top: "inception_3b/pool_proj"
}
layer {
  name: "inception_3b/output"
  type: "Concat"
  bottom: "inception_3b/1x1"
  bottom: "inception_3b/3x3"
  bottom: "inception_3b/5x5"
  bottom: "inception_3b/pool_proj"
  top: "inception_3b/output"
}
layer {
  name: "pool3/3x3_s2"
  type: "Pooling"
  bottom: "inception_3b/output"
  top: "pool3/3x3_s2"
  pooling_param {
    pool: MAX
    kernel_size: 3
    stride: 2
  }
}
layer {
  name: "inception_4a/1x1"
  type: "Convolution"
  bottom: "pool3/3x3_s2"
  top: "inception_4a/1x1"
  param {
    lr_mult: 1
    decay_mult: 1
  }
  param {
    lr_mult: 2
    decay_mult: 0
  }
  convolution_param {
    num_output: 192
    kernel_size: 1
    weight_filler {
      type: "xavier"
    }
    bias_filler {
      type: "constant"
      value: 0.2
    }
  }
}
layer {
  name: "inception_4a/relu_1x1"
  type: "ReLU"
  bottom: "inception_4a/1x1"
  top: "inception_4a/1x1"
}
layer {
  name: "inception_4a/3x3_reduce"
  type: "Convolution"
  bottom: "pool3/3x3_s2"
  top: "inception_4a/3x3_reduce"
  param {
    lr_mult: 1
    decay_mult: 1
  }
  param {
    lr_mult: 2
    decay_mult: 0
  }
  convolution_param {
    num_output: 96
    kernel_size: 1
    weight_filler {
      type: "xavier"
    }
    bias_filler {
      type: "constant"
      value: 0.2
    }
  }
}
layer {
  name: "inception_4a/relu_3x3_reduce"
  type: "ReLU"
  bottom: "inception_4a/3x3_reduce"
  top: "inception_4a/3x3_reduce"
}
layer {
  name: "inception_4a/3x3"
  type: "Convolution"
  bottom: "inception_4a/3x3_reduce"
  top: "inception_4a/3x3"
  param {
    lr_mult: 1
    decay_mult: 1
  }
  param {
    lr_mult: 2
    decay_mult: 0
  }
  convolution_param {
    num_output: 208
    pad: 1
    kernel_size: 3
    weight_filler {
      type: "xavier"
    }
    bias_filler {
      type: "constant"
      value: 0.2
    }
  }
}
layer {
  name: "inception_4a/relu_3x3"
  type: "ReLU"
  bottom: "inception_4a/3x3"
  top: "inception_4a/3x3"
}
layer {
  name: "inception_4a/5x5_reduce"
  type: "Convolution"
  bottom: "pool3/3x3_s2"
  top: "inception_4a/5x5_reduce"
  param {
    lr_mult: 1
    decay_mult: 1
  }
  param {
    lr_mult: 2
    decay_mult: 0
  }
  convolution_param {
    num_output: 16
    kernel_size: 1
    weight_filler {
      type: "xavier"
    }
    bias_filler {
      type: "constant"
      value: 0.2
    }
  }
}
layer {
  name: "inception_4a/relu_5x5_reduce"
  type: "ReLU"
  bottom: "inception_4a/5x5_reduce"
  top: "inception_4a/5x5_reduce"
}
layer {
  name: "inception_4a/5x5"
  type: "Convolution"
  bottom: "inception_4a/5x5_reduce"
  top: "inception_4a/5x5"
  param {
    lr_mult: 1
    decay_mult: 1
  }
  param {
    lr_mult: 2
    decay_mult: 0
  }
  convolution_param {
    num_output: 48
    pad: 2
    kernel_size: 5
    weight_filler {
      type: "xavier"
    }
    bias_filler {
      type: "constant"
      value: 0.2
    }
  }
}
layer {
  name: "inception_4a/relu_5x5"
  type: "ReLU"
  bottom: "inception_4a/5x5"
  top: "inception_4a/5x5"
}
layer {
  name: "inception_4a/pool"
  type: "Pooling"
  bottom: "pool3/3x3_s2"
  top: "inception_4a/pool"
  pooling_param {
    pool: MAX
    kernel_size: 3
    stride: 1
    pad: 1
  }
}
layer {
  name: "inception_4a/pool_proj"
  type: "Convolution"
  bottom: "inception_4a/pool"
  top: "inception_4a/pool_proj"
  param {
    lr_mult: 1
    decay_mult: 1
  }
  param {
    lr_mult: 2
    decay_mult: 0
  }
  convolution_param {
    num_output: 64
    kernel_size: 1
    weight_filler {
      type: "xavier"
    }
    bias_filler {
      type: "constant"
      value: 0.2
    }
  }
}
layer {
  name: "inception_4a/relu_pool_proj"
  type: "ReLU"
  bottom: "inception_4a/pool_proj"
  top: "inception_4a/pool_proj"
}
layer {
  name: "inception_4a/output"
  type: "Concat"
  bottom: "inception_4a/1x1"
  bottom: "inception_4a/3x3"
  bottom: "inception_4a/5x5"
  bottom: "inception_4a/pool_proj"
  top: "inception_4a/output"
}
layer {
  name: "loss1/ave_pool"
  type: "Pooling"
  bottom: "inception_4a/output"
  top: "loss1/ave_pool"
  pooling_param {
    pool: AVE
    kernel_size: 5
    stride: 3
  }
}
layer {
  name: "loss1/conv"
  type: "Convolution"
  bottom: "loss1/ave_pool"
  top: "loss1/conv"
  param {
    lr_mult: 1
    decay_mult: 1
  }
  param {
    lr_mult: 2
    decay_mult: 0
  }
  convolution_param {
    num_output: 128
    kernel_size: 1
    weight_filler {
      type: "xavier"
    }
    bias_filler {
      type: "constant"
      value: 0.2
    }
  }
}
layer {
  name: "loss1/relu_conv"
  type: "ReLU"
  bottom: "loss1/conv"
  top: "loss1/conv"
}
layer {
  name: "loss1/fc"
  type: "InnerProduct"
  bottom: "loss1/conv"
  top: "loss1/fc"
  param {
    lr_mult: 1
    decay_mult: 1
  }
  param {
    lr_mult: 2
    decay_mult: 0
  }
  inner_product_param {
    num_output: 1024
    weight_filler {
      type: "xavier"
    }
    bias_filler {
      type: "constant"
      value: 0.2
    }
  }
}
layer {
  name: "loss1/relu_fc"
  type: "ReLU"
  bottom: "loss1/fc"
  top: "loss1/fc"
}
layer {
  name: "loss1/drop_fc"
  type: "Dropout"
  bottom: "loss1/fc"
  top: "loss1/fc"
  dropout_param {
    dropout_ratio: 0.7
  }
}
layer {
  name: "my-loss1/classifier"
  type: "InnerProduct"
  bottom: "loss1/fc"
  top: "my-loss1/classifier"
  param {
    lr_mult: 1
    decay_mult: 1
  }
  param {
    lr_mult: 2
    decay_mult: 0
  }
  inner_product_param {
    num_output: 1
    weight_filler {
      type: "xavier"
    }
    bias_filler {
      type: "constant"
      value: 0
    }
  }
}
layer {
  name: "loss1/loss"
  type: "EuclideanLoss"
  bottom: "my-loss1/classifier"
  bottom: "label"
  top: "loss1/loss"
  loss_weight: 0.3
}
layer {
  name: "inception_4b/1x1"
  type: "Convolution"
  bottom: "inception_4a/output"
  top: "inception_4b/1x1"
  param {
    lr_mult: 1
    decay_mult: 1
  }
  param {
    lr_mult: 2
    decay_mult: 0
  }
  convolution_param {
    num_output: 160
    kernel_size: 1
    weight_filler {
      type: "xavier"
    }
    bias_filler {
      type: "constant"
      value: 0.2
    }
  }
}
layer {
  name: "inception_4b/relu_1x1"
  type: "ReLU"
  bottom: "inception_4b/1x1"
  top: "inception_4b/1x1"
}
layer {
  name: "inception_4b/3x3_reduce"
  type: "Convolution"
  bottom: "inception_4a/output"
  top: "inception_4b/3x3_reduce"
  param {
    lr_mult: 1
    decay_mult: 1
  }
  param {
    lr_mult: 2
    decay_mult: 0
  }
  convolution_param {
    num_output: 112
    kernel_size: 1
    weight_filler {
      type: "xavier"
    }
    bias_filler {
      type: "constant"
      value: 0.2
    }
  }
}
layer {
  name: "inception_4b/relu_3x3_reduce"
  type: "ReLU"
  bottom: "inception_4b/3x3_reduce"
  top: "inception_4b/3x3_reduce"
}
layer {
  name: "inception_4b/3x3"
  type: "Convolution"
  bottom: "inception_4b/3x3_reduce"
  top: "inception_4b/3x3"
  param {
    lr_mult: 1
    decay_mult: 1
  }
  param {
    lr_mult: 2
    decay_mult: 0
  }
  convolution_param {
    num_output: 224
    pad: 1
    kernel_size: 3
    weight_filler {
      type: "xavier"
    }
    bias_filler {
      type: "constant"
      value: 0.2
    }
  }
}
layer {
  name: "inception_4b/relu_3x3"
  type: "ReLU"
  bottom: "inception_4b/3x3"
  top: "inception_4b/3x3"
}
layer {
  name: "inception_4b/5x5_reduce"
  type: "Convolution"
  bottom: "inception_4a/output"
  top: "inception_4b/5x5_reduce"
  param {
    lr_mult: 1
    decay_mult: 1
  }
  param {
    lr_mult: 2
    decay_mult: 0
  }
  convolution_param {
    num_output: 24
    kernel_size: 1
    weight_filler {
      type: "xavier"
    }
    bias_filler {
      type: "constant"
      value: 0.2
    }
  }
}
layer {
  name: "inception_4b/relu_5x5_reduce"
  type: "ReLU"
  bottom: "inception_4b/5x5_reduce"
  top: "inception_4b/5x5_reduce"
}
layer {
  name: "inception_4b/5x5"
  type: "Convolution"
  bottom: "inception_4b/5x5_reduce"
  top: "inception_4b/5x5"
  param {
    lr_mult: 1
    decay_mult: 1
  }
  param {
    lr_mult: 2
    decay_mult: 0
  }
  convolution_param {
    num_output: 64
    pad: 2
    kernel_size: 5
    weight_filler {
      type: "xavier"
    }
    bias_filler {
      type: "constant"
      value: 0.2
    }
  }
}
layer {
  name: "inception_4b/relu_5x5"
  type: "ReLU"
  bottom: "inception_4b/5x5"
  top: "inception_4b/5x5"
}
layer {
  name: "inception_4b/pool"
  type: "Pooling"
  bottom: "inception_4a/output"
  top: "inception_4b/pool"
  pooling_param {
    pool: MAX
    kernel_size: 3
    stride: 1
    pad: 1
  }
}
layer {
  name: "inception_4b/pool_proj"
  type: "Convolution"
  bottom: "inception_4b/pool"
  top: "inception_4b/pool_proj"
  param {
    lr_mult: 1
    decay_mult: 1
  }
  param {
    lr_mult: 2
    decay_mult: 0
  }
  convolution_param {
    num_output: 64
    kernel_size: 1
    weight_filler {
      type: "xavier"
    }
    bias_filler {
      type: "constant"
      value: 0.2
    }
  }
}
layer {
  name: "inception_4b/relu_pool_proj"
  type: "ReLU"
  bottom: "inception_4b/pool_proj"
  top: "inception_4b/pool_proj"
}
layer {
  name: "inception_4b/output"
  type: "Concat"
  bottom: "inception_4b/1x1"
  bottom: "inception_4b/3x3"
  bottom: "inception_4b/5x5"
  bottom: "inception_4b/pool_proj"
  top: "inception_4b/output"
}
layer {
  name: "inception_4c/1x1"
  type: "Convolution"
  bottom: "inception_4b/output"
  top: "inception_4c/1x1"
  param {
    lr_mult: 1
    decay_mult: 1
  }
  param {
    lr_mult: 2
    decay_mult: 0
  }
  convolution_param {
    num_output: 128
    kernel_size: 1
    weight_filler {
      type: "xavier"
    }
    bias_filler {
      type: "constant"
      value: 0.2
    }
  }
}
layer {
  name: "inception_4c/relu_1x1"
  type: "ReLU"
  bottom: "inception_4c/1x1"
  top: "inception_4c/1x1"
}
layer {
  name: "inception_4c/3x3_reduce"
  type: "Convolution"
  bottom: "inception_4b/output"
  top: "inception_4c/3x3_reduce"
  param {
    lr_mult: 1
    decay_mult: 1
  }
  param {
    lr_mult: 2
    decay_mult: 0
  }
  convolution_param {
    num_output: 128
    kernel_size: 1
    weight_filler {
      type: "xavier"
    }
    bias_filler {
      type: "constant"
      value: 0.2
    }
  }
}
layer {
  name: "inception_4c/relu_3x3_reduce"
  type: "ReLU"
  bottom: "inception_4c/3x3_reduce"
  top: "inception_4c/3x3_reduce"
}
layer {
  name: "inception_4c/3x3"
  type: "Convolution"
  bottom: "inception_4c/3x3_reduce"
  top: "inception_4c/3x3"
  param {
    lr_mult: 1
    decay_mult: 1
  }
  param {
    lr_mult: 2
    decay_mult: 0
  }
  convolution_param {
    num_output: 256
    pad: 1
    kernel_size: 3
    weight_filler {
      type: "xavier"
    }
    bias_filler {
      type: "constant"
      value: 0.2
    }
  }
}
layer {
  name: "inception_4c/relu_3x3"
  type: "ReLU"
  bottom: "inception_4c/3x3"
  top: "inception_4c/3x3"
}
layer {
  name: "inception_4c/5x5_reduce"
  type: "Convolution"
  bottom: "inception_4b/output"
  top: "inception_4c/5x5_reduce"
  param {
    lr_mult: 1
    decay_mult: 1
  }
  param {
    lr_mult: 2
    decay_mult: 0
  }
  convolution_param {
    num_output: 24
    kernel_size: 1
    weight_filler {
      type: "xavier"
    }
    bias_filler {
      type: "constant"
      value: 0.2
    }
  }
}
layer {
  name: "inception_4c/relu_5x5_reduce"
  type: "ReLU"
  bottom: "inception_4c/5x5_reduce"
  top: "inception_4c/5x5_reduce"
}
layer {
  name: "inception_4c/5x5"
  type: "Convolution"
  bottom: "inception_4c/5x5_reduce"
  top: "inception_4c/5x5"
  param {
    lr_mult: 1
    decay_mult: 1
  }
  param {
    lr_mult: 2
    decay_mult: 0
  }
  convolution_param {
    num_output: 64
    pad: 2
    kernel_size: 5
    weight_filler {
      type: "xavier"
    }
    bias_filler {
      type: "constant"
      value: 0.2
    }
  }
}
layer {
  name: "inception_4c/relu_5x5"
  type: "ReLU"
  bottom: "inception_4c/5x5"
  top: "inception_4c/5x5"
}
layer {
  name: "inception_4c/pool"
  type: "Pooling"
  bottom: "inception_4b/output"
  top: "inception_4c/pool"
  pooling_param {
    pool: MAX
    kernel_size: 3
    stride: 1
    pad: 1
  }
}
layer {
  name: "inception_4c/pool_proj"
  type: "Convolution"
  bottom: "inception_4c/pool"
  top: "inception_4c/pool_proj"
  param {
    lr_mult: 1
    decay_mult: 1
  }
  param {
    lr_mult: 2
    decay_mult: 0
  }
  convolution_param {
    num_output: 64
    kernel_size: 1
    weight_filler {
      type: "xavier"
    }
    bias_filler {
      type: "constant"
      value: 0.2
    }
  }
}
layer {
  name: "inception_4c/relu_pool_proj"
  type: "ReLU"
  bottom: "inception_4c/pool_proj"
  top: "inception_4c/pool_proj"
}
layer {
  name: "inception_4c/output"
  type: "Concat"
  bottom: "inception_4c/1x1"
  bottom: "inception_4c/3x3"
  bottom: "inception_4c/5x5"
  bottom: "inception_4c/pool_proj"
  top: "inception_4c/output"
}
layer {
  name: "inception_4d/1x1"
  type: "Convolution"
  bottom: "inception_4c/output"
  top: "inception_4d/1x1"
  param {
    lr_mult: 1
    decay_mult: 1
  }
  param {
    lr_mult: 2
    decay_mult: 0
  }
  convolution_param {
    num_output: 112
    kernel_size: 1
    weight_filler {
      type: "xavier"
    }
    bias_filler {
      type: "constant"
      value: 0.2
    }
  }
}
layer {
  name: "inception_4d/relu_1x1"
  type: "ReLU"
  bottom: "inception_4d/1x1"
  top: "inception_4d/1x1"
}
layer {
  name: "inception_4d/3x3_reduce"
  type: "Convolution"
  bottom: "inception_4c/output"
  top: "inception_4d/3x3_reduce"
  param {
    lr_mult: 1
    decay_mult: 1
  }
  param {
    lr_mult: 2
    decay_mult: 0
  }
  convolution_param {
    num_output: 144
    kernel_size: 1
    weight_filler {
      type: "xavier"
    }
    bias_filler {
      type: "constant"
      value: 0.2
    }
  }
}
layer {
  name: "inception_4d/relu_3x3_reduce"
  type: "ReLU"
  bottom: "inception_4d/3x3_reduce"
  top: "inception_4d/3x3_reduce"
}
layer {
  name: "inception_4d/3x3"
  type: "Convolution"
  bottom: "inception_4d/3x3_reduce"
  top: "inception_4d/3x3"
  param {
    lr_mult: 1
    decay_mult: 1
  }
  param {
    lr_mult: 2
    decay_mult: 0
  }
  convolution_param {
    num_output: 288
    pad: 1
    kernel_size: 3
    weight_filler {
      type: "xavier"
    }
    bias_filler {
      type: "constant"
      value: 0.2
    }
  }
}
layer {
  name: "inception_4d/relu_3x3"
  type: "ReLU"
  bottom: "inception_4d/3x3"
  top: "inception_4d/3x3"
}
layer {
  name: "inception_4d/5x5_reduce"
  type: "Convolution"
  bottom: "inception_4c/output"
  top: "inception_4d/5x5_reduce"
  param {
    lr_mult: 1
    decay_mult: 1
  }
  param {
    lr_mult: 2
    decay_mult: 0
  }
  convolution_param {
    num_output: 32
    kernel_size: 1
    weight_filler {
      type: "xavier"
    }
    bias_filler {
      type: "constant"
      value: 0.2
    }
  }
}
layer {
  name: "inception_4d/relu_5x5_reduce"
  type: "ReLU"
  bottom: "inception_4d/5x5_reduce"
  top: "inception_4d/5x5_reduce"
}
layer {
  name: "inception_4d/5x5"
  type: "Convolution"
  bottom: "inception_4d/5x5_reduce"
  top: "inception_4d/5x5"
  param {
    lr_mult: 1
    decay_mult: 1
  }
  param {
    lr_mult: 2
    decay_mult: 0
  }
  convolution_param {
    num_output: 64
    pad: 2
    kernel_size: 5
    weight_filler {
      type: "xavier"
    }
    bias_filler {
      type: "constant"
      value: 0.2
    }
  }
}
layer {
  name: "inception_4d/relu_5x5"
  type: "ReLU"
  bottom: "inception_4d/5x5"
  top: "inception_4d/5x5"
}
layer {
  name: "inception_4d/pool"
  type: "Pooling"
  bottom: "inception_4c/output"
  top: "inception_4d/pool"
  pooling_param {
    pool: MAX
    kernel_size: 3
    stride: 1
    pad: 1
  }
}
layer {
  name: "inception_4d/pool_proj"
  type: "Convolution"
  bottom: "inception_4d/pool"
  top: "inception_4d/pool_proj"
  param {
    lr_mult: 1
    decay_mult: 1
  }
  param {
    lr_mult: 2
    decay_mult: 0
  }
  convolution_param {
    num_output: 64
    kernel_size: 1
    weight_filler {
      type: "xavier"
    }
    bias_filler {
      type: "constant"
      value: 0.2
    }
  }
}
layer {
  name: "inception_4d/relu_pool_proj"
  type: "ReLU"
  bottom: "inception_4d/pool_proj"
  top: "inception_4d/pool_proj"
}
layer {
  name: "inception_4d/output"
  type: "Concat"
  bottom: "inception_4d/1x1"
  bottom: "inception_4d/3x3"
  bottom: "inception_4d/5x5"
  bottom: "inception_4d/pool_proj"
  top: "inception_4d/output"
}
layer {
  name: "loss2/ave_pool"
  type: "Pooling"
  bottom: "inception_4d/output"
  top: "loss2/ave_pool"
  pooling_param {
    pool: AVE
    kernel_size: 5
    stride: 3
  }
}
layer {
  name: "loss2/conv"
  type: "Convolution"
  bottom: "loss2/ave_pool"
  top: "loss2/conv"
  param {
    lr_mult: 1
    decay_mult: 1
  }
  param {
    lr_mult: 2
    decay_mult: 0
  }
  convolution_param {
    num_output: 128
    kernel_size: 1
    weight_filler {
      type: "xavier"
    }
    bias_filler {
      type: "constant"
      value: 0.2
    }
  }
}
layer {
  name: "loss2/relu_conv"
  type: "ReLU"
  bottom: "loss2/conv"
  top: "loss2/conv"
}
layer {
  name: "loss2/fc"
  type: "InnerProduct"
  bottom: "loss2/conv"
  top: "loss2/fc"
  param {
    lr_mult: 1
    decay_mult: 1
  }
  param {
    lr_mult: 2
    decay_mult: 0
  }
  inner_product_param {
    num_output: 1024
    weight_filler {
      type: "xavier"
    }
    bias_filler {
      type: "constant"
      value: 0.2
    }
  }
}
layer {
  name: "loss2/relu_fc"
  type: "ReLU"
  bottom: "loss2/fc"
  top: "loss2/fc"
}
layer {
  name: "loss2/drop_fc"
  type: "Dropout"
  bottom: "loss2/fc"
  top: "loss2/fc"
  dropout_param {
    dropout_ratio: 0.7
  }
}
layer {
  name: "my-loss2/classifier"
  type: "InnerProduct"
  bottom: "loss2/fc"
  top: "my-loss2/classifier"
  param {
    lr_mult: 1
    decay_mult: 1
  }
  param {
    lr_mult: 2
    decay_mult: 0
  }
  inner_product_param {
    num_output: 1
    weight_filler {
      type: "xavier"
    }
    bias_filler {
      type: "constant"
      value: 0
    }
  }
}
layer {
  name: "loss2/loss"
  type: "EuclideanLoss"
  bottom: "my-loss2/classifier"
  bottom: "label"
  top: "loss2/loss"
  loss_weight: 0.3
}
layer {
  name: "inception_4e/1x1"
  type: "Convolution"
  bottom: "inception_4d/output"
  top: "inception_4e/1x1"
  param {
    lr_mult: 1
    decay_mult: 1
  }
  param {
    lr_mult: 2
    decay_mult: 0
  }
  convolution_param {
    num_output: 256
    kernel_size: 1
    weight_filler {
      type: "xavier"
    }
    bias_filler {
      type: "constant"
      value: 0.2
    }
  }
}
layer {
  name: "inception_4e/relu_1x1"
  type: "ReLU"
  bottom: "inception_4e/1x1"
  top: "inception_4e/1x1"
}
layer {
  name: "inception_4e/3x3_reduce"
  type: "Convolution"
  bottom: "inception_4d/output"
  top: "inception_4e/3x3_reduce"
  param {
    lr_mult: 1
    decay_mult: 1
  }
  param {
    lr_mult: 2
    decay_mult: 0
  }
  convolution_param {
    num_output: 160
    kernel_size: 1
    weight_filler {
      type: "xavier"
    }
    bias_filler {
      type: "constant"
      value: 0.2
    }
  }
}
layer {
  name: "inception_4e/relu_3x3_reduce"
  type: "ReLU"
  bottom: "inception_4e/3x3_reduce"
  top: "inception_4e/3x3_reduce"
}
layer {
  name: "inception_4e/3x3"
  type: "Convolution"
  bottom: "inception_4e/3x3_reduce"
  top: "inception_4e/3x3"
  param {
    lr_mult: 1
    decay_mult: 1
  }
  param {
    lr_mult: 2
    decay_mult: 0
  }
  convolution_param {
    num_output: 320
    pad: 1
    kernel_size: 3
    weight_filler {
      type: "xavier"
    }
    bias_filler {
      type: "constant"
      value: 0.2
    }
  }
}
layer {
  name: "inception_4e/relu_3x3"
  type: "ReLU"
  bottom: "inception_4e/3x3"
  top: "inception_4e/3x3"
}
layer {
  name: "inception_4e/5x5_reduce"
  type: "Convolution"
  bottom: "inception_4d/output"
  top: "inception_4e/5x5_reduce"
  param {
    lr_mult: 1
    decay_mult: 1
  }
  param {
    lr_mult: 2
    decay_mult: 0
  }
  convolution_param {
    num_output: 32
    kernel_size: 1
    weight_filler {
      type: "xavier"
    }
    bias_filler {
      type: "constant"
      value: 0.2
    }
  }
}
layer {
  name: "inception_4e/relu_5x5_reduce"
  type: "ReLU"
  bottom: "inception_4e/5x5_reduce"
  top: "inception_4e/5x5_reduce"
}
layer {
  name: "inception_4e/5x5"
  type: "Convolution"
  bottom: "inception_4e/5x5_reduce"
  top: "inception_4e/5x5"
  param {
    lr_mult: 1
    decay_mult: 1
  }
  param {
    lr_mult: 2
    decay_mult: 0
  }
  convolution_param {
    num_output: 128
    pad: 2
    kernel_size: 5
    weight_filler {
      type: "xavier"
    }
    bias_filler {
      type: "constant"
      value: 0.2
    }
  }
}
layer {
  name: "inception_4e/relu_5x5"
  type: "ReLU"
  bottom: "inception_4e/5x5"
  top: "inception_4e/5x5"
}
layer {
  name: "inception_4e/pool"
  type: "Pooling"
  bottom: "inception_4d/output"
  top: "inception_4e/pool"
  pooling_param {
    pool: MAX
    kernel_size: 3
    stride: 1
    pad: 1
  }
}
layer {
  name: "inception_4e/pool_proj"
  type: "Convolution"
  bottom: "inception_4e/pool
I1029 13:21:10.809357  3028 layer_factory.hpp:77] Creating layer data
I1029 13:21:10.809372  3028 net.cpp:84] Creating Layer data
I1029 13:21:10.809381  3028 net.cpp:380] data -> data
I1029 13:21:10.809403  3028 net.cpp:380] data -> label
I1029 13:21:10.809417  3028 hdf5_data_layer.cpp:80] Loading list of HDF5 filenames from: ./train.txt
I1029 13:21:10.809454  3028 hdf5_data_layer.cpp:94] Number of HDF5 files: 1
I1029 13:21:10.810642  3028 hdf5.cpp:32] Datatype class: H5T_FLOAT
I1029 13:21:11.876039  3028 net.cpp:122] Setting up data
I1029 13:21:11.876085  3028 net.cpp:129] Top shape: 30 3 224 224 (4515840)
I1029 13:21:11.876093  3028 net.cpp:129] Top shape: 30 (30)
I1029 13:21:11.876099  3028 net.cpp:137] Memory required for data: 18063480
I1029 13:21:11.876111  3028 layer_factory.hpp:77] Creating layer label_data_1_split
I1029 13:21:11.876130  3028 net.cpp:84] Creating Layer label_data_1_split
I1029 13:21:11.876139  3028 net.cpp:406] label_data_1_split <- label
I1029 13:21:11.876157  3028 net.cpp:380] label_data_1_split -> label_data_1_split_0
I1029 13:21:11.876173  3028 net.cpp:380] label_data_1_split -> label_data_1_split_1
I1029 13:21:11.876183  3028 net.cpp:380] label_data_1_split -> label_data_1_split_2
I1029 13:21:11.876242  3028 net.cpp:122] Setting up label_data_1_split
I1029 13:21:11.876250  3028 net.cpp:129] Top shape: 30 (30)
I1029 13:21:11.876256  3028 net.cpp:129] Top shape: 30 (30)
I1029 13:21:11.876262  3028 net.cpp:129] Top shape: 30 (30)
I1029 13:21:11.876266  3028 net.cpp:137] Memory required for data: 18063840
I1029 13:21:11.876271  3028 layer_factory.hpp:77] Creating layer conv1/7x7_s2
I1029 13:21:11.876294  3028 net.cpp:84] Creating Layer conv1/7x7_s2
I1029 13:21:11.876301  3028 net.cpp:406] conv1/7x7_s2 <- data
I1029 13:21:11.876309  3028 net.cpp:380] conv1/7x7_s2 -> conv1/7x7_s2
I1029 13:21:12.196036  3028 net.cpp:122] Setting up conv1/7x7_s2
I1029 13:21:12.196077  3028 net.cpp:129] Top shape: 30 64 112 112 (24084480)
I1029 13:21:12.196084  3028 net.cpp:137] Memory required for data: 114401760
I1029 13:21:12.196153  3028 layer_factory.hpp:77] Creating layer conv1/relu_7x7
I1029 13:21:12.196167  3028 net.cpp:84] Creating Layer conv1/relu_7x7
I1029 13:21:12.196175  3028 net.cpp:406] conv1/relu_7x7 <- conv1/7x7_s2
I1029 13:21:12.196183  3028 net.cpp:367] conv1/relu_7x7 -> conv1/7x7_s2 (in-place)
I1029 13:21:12.196393  3028 net.cpp:122] Setting up conv1/relu_7x7
I1029 13:21:12.196403  3028 net.cpp:129] Top shape: 30 64 112 112 (24084480)
I1029 13:21:12.196408  3028 net.cpp:137] Memory required for data: 210739680
I1029 13:21:12.196411  3028 layer_factory.hpp:77] Creating layer pool1/3x3_s2
I1029 13:21:12.196421  3028 net.cpp:84] Creating Layer pool1/3x3_s2
I1029 13:21:12.196425  3028 net.cpp:406] pool1/3x3_s2 <- conv1/7x7_s2
I1029 13:21:12.196434  3028 net.cpp:380] pool1/3x3_s2 -> pool1/3x3_s2
I1029 13:21:12.196483  3028 net.cpp:122] Setting up pool1/3x3_s2
I1029 13:21:12.196491  3028 net.cpp:129] Top shape: 30 64 56 56 (6021120)
I1029 13:21:12.196493  3028 net.cpp:137] Memory required for data: 234824160
I1029 13:21:12.196497  3028 layer_factory.hpp:77] Creating layer pool1/norm1
I1029 13:21:12.196508  3028 net.cpp:84] Creating Layer pool1/norm1
I1029 13:21:12.196512  3028 net.cpp:406] pool1/norm1 <- pool1/3x3_s2
I1029 13:21:12.196521  3028 net.cpp:380] pool1/norm1 -> pool1/norm1
I1029 13:21:12.196741  3028 net.cpp:122] Setting up pool1/norm1
I1029 13:21:12.196749  3028 net.cpp:129] Top shape: 30 64 56 56 (6021120)
I1029 13:21:12.196753  3028 net.cpp:137] Memory required for data: 258908640
I1029 13:21:12.196758  3028 layer_factory.hpp:77] Creating layer conv2/3x3_reduce
I1029 13:21:12.196771  3028 net.cpp:84] Creating Layer conv2/3x3_reduce
I1029 13:21:12.196775  3028 net.cpp:406] conv2/3x3_reduce <- pool1/norm1
I1029 13:21:12.196785  3028 net.cpp:380] conv2/3x3_reduce -> conv2/3x3_reduce
I1029 13:21:12.199473  3028 net.cpp:122] Setting up conv2/3x3_reduce
I1029 13:21:12.199508  3028 net.cpp:129] Top shape: 30 64 56 56 (6021120)
I1029 13:21:12.199513  3028 net.cpp:137] Memory required for data: 282993120
I1029 13:21:12.199530  3028 layer_factory.hpp:77] Creating layer conv2/relu_3x3_reduce
I1029 13:21:12.199544  3028 net.cpp:84] Creating Layer conv2/relu_3x3_reduce
I1029 13:21:12.199549  3028 net.cpp:406] conv2/relu_3x3_reduce <- conv2/3x3_reduce
I1029 13:21:12.199561  3028 net.cpp:367] conv2/relu_3x3_reduce -> conv2/3x3_reduce (in-place)
I1029 13:21:12.199754  3028 net.cpp:122] Setting up conv2/relu_3x3_reduce
I1029 13:21:12.199764  3028 net.cpp:129] Top shape: 30 64 56 56 (6021120)
I1029 13:21:12.199767  3028 net.cpp:137] Memory required for data: 307077600
I1029 13:21:12.199771  3028 layer_factory.hpp:77] Creating layer conv2/3x3
I1029 13:21:12.199790  3028 net.cpp:84] Creating Layer conv2/3x3
I1029 13:21:12.199795  3028 net.cpp:406] conv2/3x3 <- conv2/3x3_reduce
I1029 13:21:12.199802  3028 net.cpp:380] conv2/3x3 -> conv2/3x3
I1029 13:21:12.203544  3028 net.cpp:122] Setting up conv2/3x3
I1029 13:21:12.203582  3028 net.cpp:129] Top shape: 30 192 56 56 (18063360)
I1029 13:21:12.203586  3028 net.cpp:137] Memory required for data: 379331040
I1029 13:21:12.203606  3028 layer_factory.hpp:77] Creating layer conv2/relu_3x3
I1029 13:21:12.203619  3028 net.cpp:84] Creating Layer conv2/relu_3x3
I1029 13:21:12.203625  3028 net.cpp:406] conv2/relu_3x3 <- conv2/3x3
I1029 13:21:12.203634  3028 net.cpp:367] conv2/relu_3x3 -> conv2/3x3 (in-place)
I1029 13:21:12.203833  3028 net.cpp:122] Setting up conv2/relu_3x3
I1029 13:21:12.203842  3028 net.cpp:129] Top shape: 30 192 56 56 (18063360)
I1029 13:21:12.203846  3028 net.cpp:137] Memory required for data: 451584480
I1029 13:21:12.203850  3028 layer_factory.hpp:77] Creating layer conv2/norm2
I1029 13:21:12.203860  3028 net.cpp:84] Creating Layer conv2/norm2
I1029 13:21:12.203866  3028 net.cpp:406] conv2/norm2 <- conv2/3x3
I1029 13:21:12.203873  3028 net.cpp:380] conv2/norm2 -> conv2/norm2
I1029 13:21:12.204349  3028 net.cpp:122] Setting up conv2/norm2
I1029 13:21:12.204361  3028 net.cpp:129] Top shape: 30 192 56 56 (18063360)
I1029 13:21:12.204397  3028 net.cpp:137] Memory required for data: 523837920
I1029 13:21:12.204402  3028 layer_factory.hpp:77] Creating layer pool2/3x3_s2
I1029 13:21:12.204411  3028 net.cpp:84] Creating Layer pool2/3x3_s2
I1029 13:21:12.204414  3028 net.cpp:406] pool2/3x3_s2 <- conv2/norm2
I1029 13:21:12.204422  3028 net.cpp:380] pool2/3x3_s2 -> pool2/3x3_s2
I1029 13:21:12.204461  3028 net.cpp:122] Setting up pool2/3x3_s2
I1029 13:21:12.204470  3028 net.cpp:129] Top shape: 30 192 28 28 (4515840)
I1029 13:21:12.204474  3028 net.cpp:137] Memory required for data: 541901280
I1029 13:21:12.204478  3028 layer_factory.hpp:77] Creating layer pool2/3x3_s2_pool2/3x3_s2_0_split
I1029 13:21:12.204484  3028 net.cpp:84] Creating Layer pool2/3x3_s2_pool2/3x3_s2_0_split
I1029 13:21:12.204488  3028 net.cpp:406] pool2/3x3_s2_pool2/3x3_s2_0_split <- pool2/3x3_s2
I1029 13:21:12.204497  3028 net.cpp:380] pool2/3x3_s2_pool2/3x3_s2_0_split -> pool2/3x3_s2_pool2/3x3_s2_0_split_0
I1029 13:21:12.204505  3028 net.cpp:380] pool2/3x3_s2_pool2/3x3_s2_0_split -> pool2/3x3_s2_pool2/3x3_s2_0_split_1
I1029 13:21:12.204514  3028 net.cpp:380] pool2/3x3_s2_pool2/3x3_s2_0_split -> pool2/3x3_s2_pool2/3x3_s2_0_split_2
I1029 13:21:12.204521  3028 net.cpp:380] pool2/3x3_s2_pool2/3x3_s2_0_split -> pool2/3x3_s2_pool2/3x3_s2_0_split_3
I1029 13:21:12.204587  3028 net.cpp:122] Setting up pool2/3x3_s2_pool2/3x3_s2_0_split
I1029 13:21:12.204593  3028 net.cpp:129] Top shape: 30 192 28 28 (4515840)
I1029 13:21:12.204598  3028 net.cpp:129] Top shape: 30 192 28 28 (4515840)
I1029 13:21:12.204604  3028 net.cpp:129] Top shape: 30 192 28 28 (4515840)
I1029 13:21:12.204609  3028 net.cpp:129] Top shape: 30 192 28 28 (4515840)
I1029 13:21:12.204613  3028 net.cpp:137] Memory required for data: 614154720
I1029 13:21:12.204617  3028 layer_factory.hpp:77] Creating layer inception_3a/1x1
I1029 13:21:12.204632  3028 net.cpp:84] Creating Layer inception_3a/1x1
I1029 13:21:12.204637  3028 net.cpp:406] inception_3a/1x1 <- pool2/3x3_s2_pool2/3x3_s2_0_split_0
I1029 13:21:12.204645  3028 net.cpp:380] inception_3a/1x1 -> inception_3a/1x1
I1029 13:21:12.205968  3028 net.cpp:122] Setting up inception_3a/1x1
I1029 13:21:12.205986  3028 net.cpp:129] Top shape: 30 64 28 28 (1505280)
I1029 13:21:12.205991  3028 net.cpp:137] Memory required for data: 620175840
I1029 13:21:12.206001  3028 layer_factory.hpp:77] Creating layer inception_3a/relu_1x1
I1029 13:21:12.206007  3028 net.cpp:84] Creating Layer inception_3a/relu_1x1
I1029 13:21:12.206012  3028 net.cpp:406] inception_3a/relu_1x1 <- inception_3a/1x1
I1029 13:21:12.206022  3028 net.cpp:367] inception_3a/relu_1x1 -> inception_3a/1x1 (in-place)
I1029 13:21:12.206228  3028 net.cpp:122] Setting up inception_3a/relu_1x1
I1029 13:21:12.206236  3028 net.cpp:129] Top shape: 30 64 28 28 (1505280)
I1029 13:21:12.206240  3028 net.cpp:137] Memory required for data: 626196960
I1029 13:21:12.206244  3028 layer_factory.hpp:77] Creating layer inception_3a/3x3_reduce
I1029 13:21:12.206254  3028 net.cpp:84] Creating Layer inception_3a/3x3_reduce
I1029 13:21:12.206259  3028 net.cpp:406] inception_3a/3x3_reduce <- pool2/3x3_s2_pool2/3x3_s2_0_split_1
I1029 13:21:12.206267  3028 net.cpp:380] inception_3a/3x3_reduce -> inception_3a/3x3_reduce
I1029 13:21:12.209357  3028 net.cpp:122] Setting up inception_3a/3x3_reduce
I1029 13:21:12.209396  3028 net.cpp:129] Top shape: 30 96 28 28 (2257920)
I1029 13:21:12.209403  3028 net.cpp:137] Memory required for data: 635228640
I1029 13:21:12.209426  3028 layer_factory.hpp:77] Creating layer inception_3a/relu_3x3_reduce
I1029 13:21:12.209451  3028 net.cpp:84] Creating Layer inception_3a/relu_3x3_reduce
I1029 13:21:12.209463  3028 net.cpp:406] inception_3a/relu_3x3_reduce <- inception_3a/3x3_reduce
I1029 13:21:12.209473  3028 net.cpp:367] inception_3a/relu_3x3_reduce -> inception_3a/3x3_reduce (in-place)
I1029 13:21:12.209702  3028 net.cpp:122] Setting up inception_3a/relu_3x3_reduce
I1029 13:21:12.209710  3028 net.cpp:129] Top shape: 30 96 28 28 (2257920)
I1029 13:21:12.209715  3028 net.cpp:137] Memory required for data: 644260320
I1029 13:21:12.209751  3028 layer_factory.hpp:77] Creating layer inception_3a/3x3
I1029 13:21:12.209769  3028 net.cpp:84] Creating Layer inception_3a/3x3
I1029 13:21:12.209774  3028 net.cpp:406] inception_3a/3x3 <- inception_3a/3x3_reduce
I1029 13:21:12.209784  3028 net.cpp:380] inception_3a/3x3 -> inception_3a/3x3
I1029 13:21:12.212795  3028 net.cpp:122] Setting up inception_3a/3x3
I1029 13:21:12.212831  3028 net.cpp:129] Top shape: 30 128 28 28 (3010560)
I1029 13:21:12.212836  3028 net.cpp:137] Memory required for data: 656302560
I1029 13:21:12.212852  3028 layer_factory.hpp:77] Creating layer inception_3a/relu_3x3
I1029 13:21:12.212868  3028 net.cpp:84] Creating Layer inception_3a/relu_3x3
I1029 13:21:12.212874  3028 net.cpp:406] inception_3a/relu_3x3 <- inception_3a/3x3
I1029 13:21:12.212885  3028 net.cpp:367] inception_3a/relu_3x3 -> inception_3a/3x3 (in-place)
I1029 13:21:12.213131  3028 net.cpp:122] Setting up inception_3a/relu_3x3
I1029 13:21:12.213141  3028 net.cpp:129] Top shape: 30 128 28 28 (3010560)
I1029 13:21:12.213145  3028 net.cpp:137] Memory required for data: 668344800
I1029 13:21:12.213151  3028 layer_factory.hpp:77] Creating layer inception_3a/5x5_reduce
I1029 13:21:12.213167  3028 net.cpp:84] Creating Layer inception_3a/5x5_reduce
I1029 13:21:12.213176  3028 net.cpp:406] inception_3a/5x5_reduce <- pool2/3x3_s2_pool2/3x3_s2_0_split_2
I1029 13:21:12.213186  3028 net.cpp:380] inception_3a/5x5_reduce -> inception_3a/5x5_reduce
I1029 13:21:12.214714  3028 net.cpp:122] Setting up inception_3a/5x5_reduce
I1029 13:21:12.214756  3028 net.cpp:129] Top shape: 30 16 28 28 (376320)
I1029 13:21:12.214761  3028 net.cpp:137] Memory required for data: 669850080
I1029 13:21:12.214776  3028 layer_factory.hpp:77] Creating layer inception_3a/relu_5x5_reduce
I1029 13:21:12.214792  3028 net.cpp:84] Creating Layer inception_3a/relu_5x5_reduce
I1029 13:21:12.214800  3028 net.cpp:406] inception_3a/relu_5x5_reduce <- inception_3a/5x5_reduce
I1029 13:21:12.214812  3028 net.cpp:367] inception_3a/relu_5x5_reduce -> inception_3a/5x5_reduce (in-place)
I1029 13:21:12.215040  3028 net.cpp:122] Setting up inception_3a/relu_5x5_reduce
I1029 13:21:12.215050  3028 net.cpp:129] Top shape: 30 16 28 28 (376320)
I1029 13:21:12.215055  3028 net.cpp:137] Memory required for data: 671355360
I1029 13:21:12.215060  3028 layer_factory.hpp:77] Creating layer inception_3a/5x5
I1029 13:21:12.215078  3028 net.cpp:84] Creating Layer inception_3a/5x5
I1029 13:21:12.215085  3028 net.cpp:406] inception_3a/5x5 <- inception_3a/5x5_reduce
I1029 13:21:12.215093  3028 net.cpp:380] inception_3a/5x5 -> inception_3a/5x5
I1029 13:21:12.216627  3028 net.cpp:122] Setting up inception_3a/5x5
I1029 13:21:12.216662  3028 net.cpp:129] Top shape: 30 32 28 28 (752640)
I1029 13:21:12.216668  3028 net.cpp:137] Memory required for data: 674365920
I1029 13:21:12.216681  3028 layer_factory.hpp:77] Creating layer inception_3a/relu_5x5
I1029 13:21:12.216692  3028 net.cpp:84] Creating Layer inception_3a/relu_5x5
I1029 13:21:12.216698  3028 net.cpp:406] inception_3a/relu_5x5 <- inception_3a/5x5
I1029 13:21:12.216707  3028 net.cpp:367] inception_3a/relu_5x5 -> inception_3a/5x5 (in-place)
I1029 13:21:12.217352  3028 net.cpp:122] Setting up inception_3a/relu_5x5
I1029 13:21:12.217371  3028 net.cpp:129] Top shape: 30 32 28 28 (752640)
I1029 13:21:12.217376  3028 net.cpp:137] Memory required for data: 677376480
I1029 13:21:12.217382  3028 layer_factory.hpp:77] Creating layer inception_3a/pool
I1029 13:21:12.217392  3028 net.cpp:84] Creating Layer inception_3a/pool
I1029 13:21:12.217398  3028 net.cpp:406] inception_3a/pool <- pool2/3x3_s2_pool2/3x3_s2_0_split_3
I1029 13:21:12.217408  3028 net.cpp:380] inception_3a/pool -> inception_3a/pool
I1029 13:21:12.217471  3028 net.cpp:122] Setting up inception_3a/pool
I1029 13:21:12.217480  3028 net.cpp:129] Top shape: 30 192 28 28 (4515840)
I1029 13:21:12.217484  3028 net.cpp:137] Memory required for data: 695439840
I1029 13:21:12.217489  3028 layer_factory.hpp:77] Creating layer inception_3a/pool_proj
I1029 13:21:12.217506  3028 net.cpp:84] Creating Layer inception_3a/pool_proj
I1029 13:21:12.217538  3028 net.cpp:406] inception_3a/pool_proj <- inception_3a/pool
I1029 13:21:12.217547  3028 net.cpp:380] inception_3a/pool_proj -> inception_3a/pool_proj
I1029 13:21:12.218638  3028 net.cpp:122] Setting up inception_3a/pool_proj
I1029 13:21:12.218663  3028 net.cpp:129] Top shape: 30 32 28 28 (752640)
I1029 13:21:12.218668  3028 net.cpp:137] Memory required for data: 698450400
I1029 13:21:12.218693  3028 layer_factory.hpp:77] Creating layer inception_3a/relu_pool_proj
I1029 13:21:12.218705  3028 net.cpp:84] Creating Layer inception_3a/relu_pool_proj
I1029 13:21:12.218713  3028 net.cpp:406] inception_3a/relu_pool_proj <- inception_3a/pool_proj
I1029 13:21:12.218725  3028 net.cpp:367] inception_3a/relu_pool_proj -> inception_3a/pool_proj (in-place)
I1029 13:21:12.219466  3028 net.cpp:122] Setting up inception_3a/relu_pool_proj
I1029 13:21:12.219488  3028 net.cpp:129] Top shape: 30 32 28 28 (752640)
I1029 13:21:12.219492  3028 net.cpp:137] Memory required for data: 701460960
I1029 13:21:12.219498  3028 layer_factory.hpp:77] Creating layer inception_3a/output
I1029 13:21:12.219511  3028 net.cpp:84] Creating Layer inception_3a/output
I1029 13:21:12.219519  3028 net.cpp:406] inception_3a/output <- inception_3a/1x1
I1029 13:21:12.219527  3028 net.cpp:406] inception_3a/output <- inception_3a/3x3
I1029 13:21:12.219533  3028 net.cpp:406] inception_3a/output <- inception_3a/5x5
I1029 13:21:12.219539  3028 net.cpp:406] inception_3a/output <- inception_3a/pool_proj
I1029 13:21:12.219547  3028 net.cpp:380] inception_3a/output -> inception_3a/output
I1029 13:21:12.219606  3028 net.cpp:122] Setting up inception_3a/output
I1029 13:21:12.219615  3028 net.cpp:129] Top shape: 30 256 28 28 (6021120)
I1029 13:21:12.219619  3028 net.cpp:137] Memory required for data: 725545440
I1029 13:21:12.219624  3028 layer_factory.hpp:77] Creating layer inception_3a/output_inception_3a/output_0_split
I1029 13:21:12.219633  3028 net.cpp:84] Creating Layer inception_3a/output_inception_3a/output_0_split
I1029 13:21:12.219640  3028 net.cpp:406] inception_3a/output_inception_3a/output_0_split <- inception_3a/output
I1029 13:21:12.219646  3028 net.cpp:380] inception_3a/output_inception_3a/output_0_split -> inception_3a/output_inception_3a/output_0_split_0
I1029 13:21:12.219655  3028 net.cpp:380] inception_3a/output_inception_3a/output_0_split -> inception_3a/output_inception_3a/output_0_split_1
I1029 13:21:12.219666  3028 net.cpp:380] inception_3a/output_inception_3a/output_0_split -> inception_3a/output_inception_3a/output_0_split_2
I1029 13:21:12.219677  3028 net.cpp:380] inception_3a/output_inception_3a/output_0_split -> inception_3a/output_inception_3a/output_0_split_3
I1029 13:21:12.219753  3028 net.cpp:122] Setting up inception_3a/output_inception_3a/output_0_split
I1029 13:21:12.219763  3028 net.cpp:129] Top shape: 30 256 28 28 (6021120)
I1029 13:21:12.219769  3028 net.cpp:129] Top shape: 30 256 28 28 (6021120)
I1029 13:21:12.219774  3028 net.cpp:129] Top shape: 30 256 28 28 (6021120)
I1029 13:21:12.219780  3028 net.cpp:129] Top shape: 30 256 28 28 (6021120)
I1029 13:21:12.219784  3028 net.cpp:137] Memory required for data: 821883360
I1029 13:21:12.219789  3028 layer_factory.hpp:77] Creating layer inception_3b/1x1
I1029 13:21:12.219801  3028 net.cpp:84] Creating Layer inception_3b/1x1
I1029 13:21:12.219808  3028 net.cpp:406] inception_3b/1x1 <- inception_3a/output_inception_3a/output_0_split_0
I1029 13:21:12.219820  3028 net.cpp:380] inception_3b/1x1 -> inception_3b/1x1
I1029 13:21:12.221516  3028 net.cpp:122] Setting up inception_3b/1x1
I1029 13:21:12.221546  3028 net.cpp:129] Top shape: 30 128 28 28 (3010560)
I1029 13:21:12.221551  3028 net.cpp:137] Memory required for data: 833925600
I1029 13:21:12.221565  3028 layer_factory.hpp:77] Creating layer inception_3b/relu_1x1
I1029 13:21:12.221578  3028 net.cpp:84] Creating Layer inception_3b/relu_1x1
I1029 13:21:12.221587  3028 net.cpp:406] inception_3b/relu_1x1 <- inception_3b/1x1
I1029 13:21:12.221598  3028 net.cpp:367] inception_3b/relu_1x1 -> inception_3b/1x1 (in-place)
I1029 13:21:12.221870  3028 net.cpp:122] Setting up inception_3b/relu_1x1
I1029 13:21:12.221881  3028 net.cpp:129] Top shape: 30 128 28 28 (3010560)
I1029 13:21:12.221886  3028 net.cpp:137] Memory required for data: 845967840
I1029 13:21:12.221890  3028 layer_factory.hpp:77] Creating layer inception_3b/3x3_reduce
I1029 13:21:12.221905  3028 net.cpp:84] Creating Layer inception_3b/3x3_reduce
I1029 13:21:12.221912  3028 net.cpp:406] inception_3b/3x3_reduce <- inception_3a/output_inception_3a/output_0_split_1
I1029 13:21:12.221923  3028 net.cpp:380] inception_3b/3x3_reduce -> inception_3b/3x3_reduce
I1029 13:21:12.223666  3028 net.cpp:122] Setting up inception_3b/3x3_reduce
I1029 13:21:12.223701  3028 net.cpp:129] Top shape: 30 128 28 28 (3010560)
I1029 13:21:12.223706  3028 net.cpp:137] Memory required for data: 858010080
I1029 13:21:12.223719  3028 layer_factory.hpp:77] Creating layer inception_3b/relu_3x3_reduce
I1029 13:21:12.223731  3028 net.cpp:84] Creating Layer inception_3b/relu_3x3_reduce
I1029 13:21:12.223737  3028 net.cpp:406] inception_3b/relu_3x3_reduce <- inception_3b/3x3_reduce
I1029 13:21:12.223750  3028 net.cpp:367] inception_3b/relu_3x3_reduce -> inception_3b/3x3_reduce (in-place)
I1029 13:21:12.223980  3028 net.cpp:122] Setting up inception_3b/relu_3x3_reduce
I1029 13:21:12.223990  3028 net.cpp:129] Top shape: 30 128 28 28 (3010560)
I1029 13:21:12.223995  3028 net.cpp:137] Memory required for data: 870052320
I1029 13:21:12.223999  3028 layer_factory.hpp:77] Creating layer inception_3b/3x3
I1029 13:21:12.224030  3028 net.cpp:84] Creating Layer inception_3b/3x3
I1029 13:21:12.224037  3028 net.cpp:406] inception_3b/3x3 <- inception_3b/3x3_reduce
I1029 13:21:12.224047  3028 net.cpp:380] inception_3b/3x3 -> inception_3b/3x3
I1029 13:21:12.227785  3028 net.cpp:122] Setting up inception_3b/3x3
I1029 13:21:12.227820  3028 net.cpp:129] Top shape: 30 192 28 28 (4515840)
I1029 13:21:12.227880  3028 net.cpp:137] Memory required for data: 888115680
I1029 13:21:12.227896  3028 layer_factory.hpp:77] Creating layer inception_3b/relu_3x3
I1029 13:21:12.227911  3028 net.cpp:84] Creating Layer inception_3b/relu_3x3
I1029 13:21:12.227921  3028 net.cpp:406] inception_3b/relu_3x3 <- inception_3b/3x3
I1029 13:21:12.227932  3028 net.cpp:367] inception_3b/relu_3x3 -> inception_3b/3x3 (in-place)
I1029 13:21:12.228154  3028 net.cpp:122] Setting up inception_3b/relu_3x3
I1029 13:21:12.228164  3028 net.cpp:129] Top shape: 30 192 28 28 (4515840)
I1029 13:21:12.228168  3028 net.cpp:137] Memory required for data: 906179040
I1029 13:21:12.228173  3028 layer_factory.hpp:77] Creating layer inception_3b/5x5_reduce
I1029 13:21:12.228188  3028 net.cpp:84] Creating Layer inception_3b/5x5_reduce
I1029 13:21:12.228193  3028 net.cpp:406] inception_3b/5x5_reduce <- inception_3a/output_inception_3a/output_0_split_2
I1029 13:21:12.228202  3028 net.cpp:380] inception_3b/5x5_reduce -> inception_3b/5x5_reduce
I1029 13:21:12.229717  3028 net.cpp:122] Setting up inception_3b/5x5_reduce
I1029 13:21:12.229753  3028 net.cpp:129] Top shape: 30 32 28 28 (752640)
I1029 13:21:12.229758  3028 net.cpp:137] Memory required for data: 909189600
I1029 13:21:12.229769  3028 layer_factory.hpp:77] Creating layer inception_3b/relu_5x5_reduce
I1029 13:21:12.229780  3028 net.cpp:84] Creating Layer inception_3b/relu_5x5_reduce
I1029 13:21:12.229787  3028 net.cpp:406] inception_3b/relu_5x5_reduce <- inception_3b/5x5_reduce
I1029 13:21:12.229799  3028 net.cpp:367] inception_3b/relu_5x5_reduce -> inception_3b/5x5_reduce (in-place)
I1029 13:21:12.230063  3028 net.cpp:122] Setting up inception_3b/relu_5x5_reduce
I1029 13:21:12.230073  3028 net.cpp:129] Top shape: 30 32 28 28 (752640)
I1029 13:21:12.230077  3028 net.cpp:137] Memory required for data: 912200160
I1029 13:21:12.230082  3028 layer_factory.hpp:77] Creating layer inception_3b/5x5
I1029 13:21:12.230096  3028 net.cpp:84] Creating Layer inception_3b/5x5
I1029 13:21:12.230103  3028 net.cpp:406] inception_3b/5x5 <- inception_3b/5x5_reduce
I1029 13:21:12.230113  3028 net.cpp:380] inception_3b/5x5 -> inception_3b/5x5
I1029 13:21:12.232368  3028 net.cpp:122] Setting up inception_3b/5x5
I1029 13:21:12.232389  3028 net.cpp:129] Top shape: 30 96 28 28 (2257920)
I1029 13:21:12.232396  3028 net.cpp:137] Memory required for data: 921231840
I1029 13:21:12.232406  3028 layer_factory.hpp:77] Creating layer inception_3b/relu_5x5
I1029 13:21:12.232417  3028 net.cpp:84] Creating Layer inception_3b/relu_5x5
I1029 13:21:12.232422  3028 net.cpp:406] inception_3b/relu_5x5 <- inception_3b/5x5
I1029 13:21:12.232431  3028 net.cpp:367] inception_3b/relu_5x5 -> inception_3b/5x5 (in-place)
I1029 13:21:12.232937  3028 net.cpp:122] Setting up inception_3b/relu_5x5
I1029 13:21:12.232949  3028 net.cpp:129] Top shape: 30 96 28 28 (2257920)
I1029 13:21:12.232954  3028 net.cpp:137] Memory required for data: 930263520
I1029 13:21:12.232957  3028 layer_factory.hpp:77] Creating layer inception_3b/pool
I1029 13:21:12.232965  3028 net.cpp:84] Creating Layer inception_3b/pool
I1029 13:21:12.232972  3028 net.cpp:406] inception_3b/pool <- inception_3a/output_inception_3a/output_0_split_3
I1029 13:21:12.232980  3028 net.cpp:380] inception_3b/pool -> inception_3b/pool
I1029 13:21:12.233029  3028 net.cpp:122] Setting up inception_3b/pool
I1029 13:21:12.233041  3028 net.cpp:129] Top shape: 30 256 28 28 (6021120)
I1029 13:21:12.233044  3028 net.cpp:137] Memory required for data: 954348000
I1029 13:21:12.233048  3028 layer_factory.hpp:77] Creating layer inception_3b/pool_proj
I1029 13:21:12.233062  3028 net.cpp:84] Creating Layer inception_3b/pool_proj
I1029 13:21:12.233067  3028 net.cpp:406] inception_3b/pool_proj <- inception_3b/pool
I1029 13:21:12.233075  3028 net.cpp:380] inception_3b/pool_proj -> inception_3b/pool_proj
I1029 13:21:12.234133  3028 net.cpp:122] Setting up inception_3b/pool_proj
I1029 13:21:12.234146  3028 net.cpp:129] Top shape: 30 64 28 28 (1505280)
I1029 13:21:12.234151  3028 net.cpp:137] Memory required for data: 960369120
I1029 13:21:12.234159  3028 layer_factory.hpp:77] Creating layer inception_3b/relu_pool_proj
I1029 13:21:12.234169  3028 net.cpp:84] Creating Layer inception_3b/relu_pool_proj
I1029 13:21:12.234174  3028 net.cpp:406] inception_3b/relu_pool_proj <- inception_3b/pool_proj
I1029 13:21:12.234179  3028 net.cpp:367] inception_3b/relu_pool_proj -> inception_3b/pool_proj (in-place)
I1029 13:21:12.234694  3028 net.cpp:122] Setting up inception_3b/relu_pool_proj
I1029 13:21:12.234705  3028 net.cpp:129] Top shape: 30 64 28 28 (1505280)
I1029 13:21:12.234710  3028 net.cpp:137] Memory required for data: 966390240
I1029 13:21:12.234714  3028 layer_factory.hpp:77] Creating layer inception_3b/output
I1029 13:21:12.234721  3028 net.cpp:84] Creating Layer inception_3b/output
I1029 13:21:12.234727  3028 net.cpp:406] inception_3b/output <- inception_3b/1x1
I1029 13:21:12.234733  3028 net.cpp:406] inception_3b/output <- inception_3b/3x3
I1029 13:21:12.234740  3028 net.cpp:406] inception_3b/output <- inception_3b/5x5
I1029 13:21:12.234745  3028 net.cpp:406] inception_3b/output <- inception_3b/pool_proj
I1029 13:21:12.234752  3028 net.cpp:380] inception_3b/output -> inception_3b/output
I1029 13:21:12.234784  3028 net.cpp:122] Setting up inception_3b/output
I1029 13:21:12.234793  3028 net.cpp:129] Top shape: 30 480 28 28 (11289600)
I1029 13:21:12.234797  3028 net.cpp:137] Memory required for data: 1011548640
I1029 13:21:12.234800  3028 layer_factory.hpp:77] Creating layer pool3/3x3_s2
I1029 13:21:12.234807  3028 net.cpp:84] Creating Layer pool3/3x3_s2
I1029 13:21:12.234812  3028 net.cpp:406] pool3/3x3_s2 <- inception_3b/output
I1029 13:21:12.234818  3028 net.cpp:380] pool3/3x3_s2 -> pool3/3x3_s2
I1029 13:21:12.234861  3028 net.cpp:122] Setting up pool3/3x3_s2
I1029 13:21:12.234870  3028 net.cpp:129] Top shape: 30 480 14 14 (2822400)
I1029 13:21:12.234874  3028 net.cpp:137] Memory required for data: 1022838240
I1029 13:21:12.234879  3028 layer_factory.hpp:77] Creating layer pool3/3x3_s2_pool3/3x3_s2_0_split
I1029 13:21:12.234889  3028 net.cpp:84] Creating Layer pool3/3x3_s2_pool3/3x3_s2_0_split
I1029 13:21:12.234892  3028 net.cpp:406] pool3/3x3_s2_pool3/3x3_s2_0_split <- pool3/3x3_s2
I1029 13:21:12.234930  3028 net.cpp:380] pool3/3x3_s2_pool3/3x3_s2_0_split -> pool3/3x3_s2_pool3/3x3_s2_0_split_0
I1029 13:21:12.234941  3028 net.cpp:380] pool3/3x3_s2_pool3/3x3_s2_0_split -> pool3/3x3_s2_pool3/3x3_s2_0_split_1
I1029 13:21:12.234948  3028 net.cpp:380] pool3/3x3_s2_pool3/3x3_s2_0_split -> pool3/3x3_s2_pool3/3x3_s2_0_split_2
I1029 13:21:12.234956  3028 net.cpp:380] pool3/3x3_s2_pool3/3x3_s2_0_split -> pool3/3x3_s2_pool3/3x3_s2_0_split_3
I1029 13:21:12.235023  3028 net.cpp:122] Setting up pool3/3x3_s2_pool3/3x3_s2_0_split
I1029 13:21:12.235031  3028 net.cpp:129] Top shape: 30 480 14 14 (2822400)
I1029 13:21:12.235036  3028 net.cpp:129] Top shape: 30 480 14 14 (2822400)
I1029 13:21:12.235043  3028 net.cpp:129] Top shape: 30 480 14 14 (2822400)
I1029 13:21:12.235047  3028 net.cpp:129] Top shape: 30 480 14 14 (2822400)
I1029 13:21:12.235051  3028 net.cpp:137] Memory required for data: 1067996640
I1029 13:21:12.235054  3028 layer_factory.hpp:77] Creating layer inception_4a/1x1
I1029 13:21:12.235067  3028 net.cpp:84] Creating Layer inception_4a/1x1
I1029 13:21:12.235072  3028 net.cpp:406] inception_4a/1x1 <- pool3/3x3_s2_pool3/3x3_s2_0_split_0
I1029 13:21:12.235080  3028 net.cpp:380] inception_4a/1x1 -> inception_4a/1x1
I1029 13:21:12.238934  3028 net.cpp:122] Setting up inception_4a/1x1
I1029 13:21:12.238972  3028 net.cpp:129] Top shape: 30 192 14 14 (1128960)
I1029 13:21:12.238978  3028 net.cpp:137] Memory required for data: 1072512480
I1029 13:21:12.238993  3028 layer_factory.hpp:77] Creating layer inception_4a/relu_1x1
I1029 13:21:12.239006  3028 net.cpp:84] Creating Layer inception_4a/relu_1x1
I1029 13:21:12.239012  3028 net.cpp:406] inception_4a/relu_1x1 <- inception_4a/1x1
I1029 13:21:12.239024  3028 net.cpp:367] inception_4a/relu_1x1 -> inception_4a/1x1 (in-place)
I1029 13:21:12.239243  3028 net.cpp:122] Setting up inception_4a/relu_1x1
I1029 13:21:12.239251  3028 net.cpp:129] Top shape: 30 192 14 14 (1128960)
I1029 13:21:12.239255  3028 net.cpp:137] Memory required for data: 1077028320
I1029 13:21:12.239259  3028 layer_factory.hpp:77] Creating layer inception_4a/3x3_reduce
I1029 13:21:12.239275  3028 net.cpp:84] Creating Layer inception_4a/3x3_reduce
I1029 13:21:12.239282  3028 net.cpp:406] inception_4a/3x3_reduce <- pool3/3x3_s2_pool3/3x3_s2_0_split_1
I1029 13:21:12.239293  3028 net.cpp:380] inception_4a/3x3_reduce -> inception_4a/3x3_reduce
I1029 13:21:12.240897  3028 net.cpp:122] Setting up inception_4a/3x3_reduce
I1029 13:21:12.240912  3028 net.cpp:129] Top shape: 30 96 14 14 (564480)
I1029 13:21:12.240917  3028 net.cpp:137] Memory required for data: 1079286240
I1029 13:21:12.240938  3028 layer_factory.hpp:77] Creating layer inception_4a/relu_3x3_reduce
I1029 13:21:12.240945  3028 net.cpp:84] Creating Layer inception_4a/relu_3x3_reduce
I1029 13:21:12.240949  3028 net.cpp:406] inception_4a/relu_3x3_reduce <- inception_4a/3x3_reduce
I1029 13:21:12.240959  3028 net.cpp:367] inception_4a/relu_3x3_reduce -> inception_4a/3x3_reduce (in-place)
I1029 13:21:12.241154  3028 net.cpp:122] Setting up inception_4a/relu_3x3_reduce
I1029 13:21:12.241163  3028 net.cpp:129] Top shape: 30 96 14 14 (564480)
I1029 13:21:12.241168  3028 net.cpp:137] Memory required for data: 1081544160
I1029 13:21:12.241171  3028 layer_factory.hpp:77] Creating layer inception_4a/3x3
I1029 13:21:12.241183  3028 net.cpp:84] Creating Layer inception_4a/3x3
I1029 13:21:12.241189  3028 net.cpp:406] inception_4a/3x3 <- inception_4a/3x3_reduce
I1029 13:21:12.241199  3028 net.cpp:380] inception_4a/3x3 -> inception_4a/3x3
I1029 13:21:12.244194  3028 net.cpp:122] Setting up inception_4a/3x3
I1029 13:21:12.244220  3028 net.cpp:129] Top shape: 30 208 14 14 (1223040)
I1029 13:21:12.244225  3028 net.cpp:137] Memory required for data: 1086436320
I1029 13:21:12.244237  3028 layer_factory.hpp:77] Creating layer inception_4a/relu_3x3
I1029 13:21:12.244252  3028 net.cpp:84] Creating Layer inception_4a/relu_3x3
I1029 13:21:12.244258  3028 net.cpp:406] inception_4a/relu_3x3 <- inception_4a/3x3
I1029 13:21:12.244267  3028 net.cpp:367] inception_4a/relu_3x3 -> inception_4a/3x3 (in-place)
I1029 13:21:12.244515  3028 net.cpp:122] Setting up inception_4a/relu_3x3
I1029 13:21:12.244524  3028 net.cpp:129] Top shape: 30 208 14 14 (1223040)
I1029 13:21:12.244529  3028 net.cpp:137] Memory required for data: 1091328480
I1029 13:21:12.244532  3028 layer_factory.hpp:77] Creating layer inception_4a/5x5_reduce
I1029 13:21:12.244546  3028 net.cpp:84] Creating Layer inception_4a/5x5_reduce
I1029 13:21:12.244554  3028 net.cpp:406] inception_4a/5x5_reduce <- pool3/3x3_s2_pool3/3x3_s2_0_split_2
I1029 13:21:12.244562  3028 net.cpp:380] inception_4a/5x5_reduce -> inception_4a/5x5_reduce
I1029 13:21:12.245879  3028 net.cpp:122] Setting up inception_4a/5x5_reduce
I1029 13:21:12.245899  3028 net.cpp:129] Top shape: 30 16 14 14 (94080)
I1029 13:21:12.245906  3028 net.cpp:137] Memory required for data: 1091704800
I1029 13:21:12.245918  3028 layer_factory.hpp:77] Creating layer inception_4a/relu_5x5_reduce
I1029 13:21:12.245934  3028 net.cpp:84] Creating Layer inception_4a/relu_5x5_reduce
I1029 13:21:12.245944  3028 net.cpp:406] inception_4a/relu_5x5_reduce <- inception_4a/5x5_reduce
I1029 13:21:12.245954  3028 net.cpp:367] inception_4a/relu_5x5_reduce -> inception_4a/5x5_reduce (in-place)
I1029 13:21:12.246203  3028 net.cpp:122] Setting up inception_4a/relu_5x5_reduce
I1029 13:21:12.246215  3028 net.cpp:129] Top shape: 30 16 14 14 (94080)
I1029 13:21:12.246219  3028 net.cpp:137] Memory required for data: 1092081120
I1029 13:21:12.246223  3028 layer_factory.hpp:77] Creating layer inception_4a/5x5
I1029 13:21:12.246239  3028 net.cpp:84] Creating Layer inception_4a/5x5
I1029 13:21:12.246245  3028 net.cpp:406] inception_4a/5x5 <- inception_4a/5x5_reduce
I1029 13:21:12.246253  3028 net.cpp:380] inception_4a/5x5 -> inception_4a/5x5
I1029 13:21:12.247771  3028 net.cpp:122] Setting up inception_4a/5x5
I1029 13:21:12.247788  3028 net.cpp:129] Top shape: 30 48 14 14 (282240)
I1029 13:21:12.247795  3028 net.cpp:137] Memory required for data: 1093210080
I1029 13:21:12.247805  3028 layer_factory.hpp:77] Creating layer inception_4a/relu_5x5
I1029 13:21:12.247813  3028 net.cpp:84] Creating Layer inception_4a/relu_5x5
I1029 13:21:12.247818  3028 net.cpp:406] inception_4a/relu_5x5 <- inception_4a/5x5
I1029 13:21:12.247825  3028 net.cpp:367] inception_4a/relu_5x5 -> inception_4a/5x5 (in-place)
I1029 13:21:12.248306  3028 net.cpp:122] Setting up inception_4a/relu_5x5
I1029 13:21:12.248317  3028 net.cpp:129] Top shape: 30 48 14 14 (282240)
I1029 13:21:12.248320  3028 net.cpp:137] Memory required for data: 1094339040
I1029 13:21:12.248324  3028 layer_factory.hpp:77] Creating layer inception_4a/pool
I1029 13:21:12.248334  3028 net.cpp:84] Creating Layer inception_4a/pool
I1029 13:21:12.248339  3028 net.cpp:406] inception_4a/pool <- pool3/3x3_s2_pool3/3x3_s2_0_split_3
I1029 13:21:12.248347  3028 net.cpp:380] inception_4a/pool -> inception_4a/pool
I1029 13:21:12.248397  3028 net.cpp:122] Setting up inception_4a/pool
I1029 13:21:12.248405  3028 net.cpp:129] Top shape: 30 480 14 14 (2822400)
I1029 13:21:12.248409  3028 net.cpp:137] Memory required for data: 1105628640
I1029 13:21:12.248414  3028 layer_factory.hpp:77] Creating layer inception_4a/pool_proj
I1029 13:21:12.248426  3028 net.cpp:84] Creating Layer inception_4a/pool_proj
I1029 13:21:12.248432  3028 net.cpp:406] inception_4a/pool_proj <- inception_4a/pool
I1029 13:21:12.248443  3028 net.cpp:380] inception_4a/pool_proj -> inception_4a/pool_proj
I1029 13:21:12.249591  3028 net.cpp:122] Setting up inception_4a/pool_proj
I1029 13:21:12.249603  3028 net.cpp:129] Top shape: 30 64 14 14 (376320)
I1029 13:21:12.249606  3028 net.cpp:137] Memory required for data: 1107133920
I1029 13:21:12.249614  3028 layer_factory.hpp:77] Creating layer inception_4a/relu_pool_proj
I1029 13:21:12.249625  3028 net.cpp:84] Creating Layer inception_4a/relu_pool_proj
I1029 13:21:12.249630  3028 net.cpp:406] inception_4a/relu_pool_proj <- inception_4a/pool_proj
I1029 13:21:12.249636  3028 net.cpp:367] inception_4a/relu_pool_proj -> inception_4a/pool_proj (in-place)
I1029 13:21:12.250233  3028 net.cpp:122] Setting up inception_4a/relu_pool_proj
I1029 13:21:12.250248  3028 net.cpp:129] Top shape: 30 64 14 14 (376320)
I1029 13:21:12.250252  3028 net.cpp:137] Memory required for data: 1108639200
I1029 13:21:12.250257  3028 layer_factory.hpp:77] Creating layer inception_4a/output
I1029 13:21:12.250267  3028 net.cpp:84] Creating Layer inception_4a/output
I1029 13:21:12.250272  3028 net.cpp:406] inception_4a/output <- inception_4a/1x1
I1029 13:21:12.250277  3028 net.cpp:406] inception_4a/output <- inception_4a/3x3
I1029 13:21:12.250283  3028 net.cpp:406] inception_4a/output <- inception_4a/5x5
I1029 13:21:12.250288  3028 net.cpp:406] inception_4a/output <- inception_4a/pool_proj
I1029 13:21:12.250293  3028 net.cpp:380] inception_4a/output -> inception_4a/output
I1029 13:21:12.250329  3028 net.cpp:122] Setting up inception_4a/output
I1029 13:21:12.250335  3028 net.cpp:129] Top shape: 30 512 14 14 (3010560)
I1029 13:21:12.250339  3028 net.cpp:137] Memory required for data: 1120681440
I1029 13:21:12.250342  3028 layer_factory.hpp:77] Creating layer inception_4a/output_inception_4a/output_0_split
I1029 13:21:12.250349  3028 net.cpp:84] Creating Layer inception_4a/output_inception_4a/output_0_split
I1029 13:21:12.250353  3028 net.cpp:406] inception_4a/output_inception_4a/output_0_split <- inception_4a/output
I1029 13:21:12.250361  3028 net.cpp:380] inception_4a/output_inception_4a/output_0_split -> inception_4a/output_inception_4a/output_0_split_0
I1029 13:21:12.250372  3028 net.cpp:380] inception_4a/output_inception_4a/output_0_split -> inception_4a/output_inception_4a/output_0_split_1
I1029 13:21:12.250381  3028 net.cpp:380] inception_4a/output_inception_4a/output_0_split -> inception_4a/output_inception_4a/output_0_split_2
I1029 13:21:12.250389  3028 net.cpp:380] inception_4a/output_inception_4a/output_0_split -> inception_4a/output_inception_4a/output_0_split_3
I1029 13:21:12.250397  3028 net.cpp:380] inception_4a/output_inception_4a/output_0_split -> inception_4a/output_inception_4a/output_0_split_4
I1029 13:21:12.250488  3028 net.cpp:122] Setting up inception_4a/output_inception_4a/output_0_split
I1029 13:21:12.250495  3028 net.cpp:129] Top shape: 30 512 14 14 (3010560)
I1029 13:21:12.250501  3028 net.cpp:129] Top shape: 30 512 14 14 (3010560)
I1029 13:21:12.250506  3028 net.cpp:129] Top shape: 30 512 14 14 (3010560)
I1029 13:21:12.250511  3028 net.cpp:129] Top shape: 30 512 14 14 (3010560)
I1029 13:21:12.250516  3028 net.cpp:129] Top shape: 30 512 14 14 (3010560)
I1029 13:21:12.250520  3028 net.cpp:137] Memory required for data: 1180892640
I1029 13:21:12.250524  3028 layer_factory.hpp:77] Creating layer loss1/ave_pool
I1029 13:21:12.250531  3028 net.cpp:84] Creating Layer loss1/ave_pool
I1029 13:21:12.250535  3028 net.cpp:406] loss1/ave_pool <- inception_4a/output_inception_4a/output_0_split_0
I1029 13:21:12.250543  3028 net.cpp:380] loss1/ave_pool -> loss1/ave_pool
I1029 13:21:12.250763  3028 net.cpp:122] Setting up loss1/ave_pool
I1029 13:21:12.250771  3028 net.cpp:129] Top shape: 30 512 4 4 (245760)
I1029 13:21:12.250775  3028 net.cpp:137] Memory required for data: 1181875680
I1029 13:21:12.250779  3028 layer_factory.hpp:77] Creating layer loss1/conv
I1029 13:21:12.250792  3028 net.cpp:84] Creating Layer loss1/conv
I1029 13:21:12.250797  3028 net.cpp:406] loss1/conv <- loss1/ave_pool
I1029 13:21:12.250804  3028 net.cpp:380] loss1/conv -> loss1/conv
I1029 13:21:12.252562  3028 net.cpp:122] Setting up loss1/conv
I1029 13:21:12.252578  3028 net.cpp:129] Top shape: 30 128 4 4 (61440)
I1029 13:21:12.252583  3028 net.cpp:137] Memory required for data: 1182121440
I1029 13:21:12.252591  3028 layer_factory.hpp:77] Creating layer loss1/relu_conv
I1029 13:21:12.252600  3028 net.cpp:84] Creating Layer loss1/relu_conv
I1029 13:21:12.252605  3028 net.cpp:406] loss1/relu_conv <- loss1/conv
I1029 13:21:12.252612  3028 net.cpp:367] loss1/relu_conv -> loss1/conv (in-place)
I1029 13:21:12.252810  3028 net.cpp:122] Setting up loss1/relu_conv
I1029 13:21:12.252818  3028 net.cpp:129] Top shape: 30 128 4 4 (61440)
I1029 13:21:12.252847  3028 net.cpp:137] Memory required for data: 1182367200
I1029 13:21:12.252852  3028 layer_factory.hpp:77] Creating layer loss1/fc
I1029 13:21:12.252863  3028 net.cpp:84] Creating Layer loss1/fc
I1029 13:21:12.252867  3028 net.cpp:406] loss1/fc <- loss1/conv
I1029 13:21:12.252874  3028 net.cpp:380] loss1/fc -> loss1/fc
I1029 13:21:12.273084  3028 net.cpp:122] Setting up loss1/fc
I1029 13:21:12.273130  3028 net.cpp:129] Top shape: 30 1024 (30720)
I1029 13:21:12.273135  3028 net.cpp:137] Memory required for data: 1182490080
I1029 13:21:12.273150  3028 layer_factory.hpp:77] Creating layer loss1/relu_fc
I1029 13:21:12.273166  3028 net.cpp:84] Creating Layer loss1/relu_fc
I1029 13:21:12.273175  3028 net.cpp:406] loss1/relu_fc <- loss1/fc
I1029 13:21:12.273183  3028 net.cpp:367] loss1/relu_fc -> loss1/fc (in-place)
I1029 13:21:12.273478  3028 net.cpp:122] Setting up loss1/relu_fc
I1029 13:21:12.273488  3028 net.cpp:129] Top shape: 30 1024 (30720)
I1029 13:21:12.273491  3028 net.cpp:137] Memory required for data: 1182612960
I1029 13:21:12.273495  3028 layer_factory.hpp:77] Creating layer loss1/drop_fc
I1029 13:21:12.273531  3028 net.cpp:84] Creating Layer loss1/drop_fc
I1029 13:21:12.273538  3028 net.cpp:406] loss1/drop_fc <- loss1/fc
I1029 13:21:12.273545  3028 net.cpp:367] loss1/drop_fc -> loss1/fc (in-place)
I1029 13:21:12.273576  3028 net.cpp:122] Setting up loss1/drop_fc
I1029 13:21:12.273583  3028 net.cpp:129] Top shape: 30 1024 (30720)
I1029 13:21:12.273587  3028 net.cpp:137] Memory required for data: 1182735840
I1029 13:21:12.273591  3028 layer_factory.hpp:77] Creating layer my-loss1/classifier
I1029 13:21:12.273602  3028 net.cpp:84] Creating Layer my-loss1/classifier
I1029 13:21:12.273605  3028 net.cpp:406] my-loss1/classifier <- loss1/fc
I1029 13:21:12.273614  3028 net.cpp:380] my-loss1/classifier -> my-loss1/classifier
I1029 13:21:12.273748  3028 net.cpp:122] Setting up my-loss1/classifier
I1029 13:21:12.273756  3028 net.cpp:129] Top shape: 30 1 (30)
I1029 13:21:12.273761  3028 net.cpp:137] Memory required for data: 1182735960
I1029 13:21:12.273767  3028 layer_factory.hpp:77] Creating layer loss1/loss
I1029 13:21:12.273777  3028 net.cpp:84] Creating Layer loss1/loss
I1029 13:21:12.273780  3028 net.cpp:406] loss1/loss <- my-loss1/classifier
I1029 13:21:12.273787  3028 net.cpp:406] loss1/loss <- label_data_1_split_0
I1029 13:21:12.273793  3028 net.cpp:380] loss1/loss -> loss1/loss
I1029 13:21:12.273872  3028 net.cpp:122] Setting up loss1/loss
I1029 13:21:12.273882  3028 net.cpp:129] Top shape: (1)
I1029 13:21:12.273887  3028 net.cpp:132]     with loss weight 0.3
I1029 13:21:12.273924  3028 net.cpp:137] Memory required for data: 1182735964
I1029 13:21:12.273929  3028 layer_factory.hpp:77] Creating layer inception_4b/1x1
I1029 13:21:12.273942  3028 net.cpp:84] Creating Layer inception_4b/1x1
I1029 13:21:12.273950  3028 net.cpp:406] inception_4b/1x1 <- inception_4a/output_inception_4a/output_0_split_1
I1029 13:21:12.273958  3028 net.cpp:380] inception_4b/1x1 -> inception_4b/1x1
I1029 13:21:12.276001  3028 net.cpp:122] Setting up inception_4b/1x1
I1029 13:21:12.276015  3028 net.cpp:129] Top shape: 30 160 14 14 (940800)
I1029 13:21:12.276020  3028 net.cpp:137] Memory required for data: 1186499164
I1029 13:21:12.276028  3028 layer_factory.hpp:77] Creating layer inception_4b/relu_1x1
I1029 13:21:12.276036  3028 net.cpp:84] Creating Layer inception_4b/relu_1x1
I1029 13:21:12.276041  3028 net.cpp:406] inception_4b/relu_1x1 <- inception_4b/1x1
I1029 13:21:12.276048  3028 net.cpp:367] inception_4b/relu_1x1 -> inception_4b/1x1 (in-place)
I1029 13:21:12.276533  3028 net.cpp:122] Setting up inception_4b/relu_1x1
I1029 13:21:12.276546  3028 net.cpp:129] Top shape: 30 160 14 14 (940800)
I1029 13:21:12.276549  3028 net.cpp:137] Memory required for data: 1190262364
I1029 13:21:12.276553  3028 layer_factory.hpp:77] Creating layer inception_4b/3x3_reduce
I1029 13:21:12.276564  3028 net.cpp:84] Creating Layer inception_4b/3x3_reduce
I1029 13:21:12.276569  3028 net.cpp:406] inception_4b/3x3_reduce <- inception_4a/output_inception_4a/output_0_split_2
I1029 13:21:12.276609  3028 net.cpp:380] inception_4b/3x3_reduce -> inception_4b/3x3_reduce
I1029 13:21:12.278345  3028 net.cpp:122] Setting up inception_4b/3x3_reduce
I1029 13:21:12.278367  3028 net.cpp:129] Top shape: 30 112 14 14 (658560)
I1029 13:21:12.278372  3028 net.cpp:137] Memory required for data: 1192896604
I1029 13:21:12.278381  3028 layer_factory.hpp:77] Creating layer inception_4b/relu_3x3_reduce
I1029 13:21:12.278389  3028 net.cpp:84] Creating Layer inception_4b/relu_3x3_reduce
I1029 13:21:12.278394  3028 net.cpp:406] inception_4b/relu_3x3_reduce <- inception_4b/3x3_reduce
I1029 13:21:12.278401  3028 net.cpp:367] inception_4b/relu_3x3_reduce -> inception_4b/3x3_reduce (in-place)
I1029 13:21:12.278604  3028 net.cpp:122] Setting up inception_4b/relu_3x3_reduce
I1029 13:21:12.278612  3028 net.cpp:129] Top shape: 30 112 14 14 (658560)
I1029 13:21:12.278616  3028 net.cpp:137] Memory required for data: 1195530844
I1029 13:21:12.278620  3028 layer_factory.hpp:77] Creating layer inception_4b/3x3
I1029 13:21:12.278631  3028 net.cpp:84] Creating Layer inception_4b/3x3
I1029 13:21:12.278636  3028 net.cpp:406] inception_4b/3x3 <- inception_4b/3x3_reduce
I1029 13:21:12.278646  3028 net.cpp:380] inception_4b/3x3 -> inception_4b/3x3
I1029 13:21:12.283485  3028 net.cpp:122] Setting up inception_4b/3x3
I1029 13:21:12.283524  3028 net.cpp:129] Top shape: 30 224 14 14 (1317120)
I1029 13:21:12.283529  3028 net.cpp:137] Memory required for data: 1200799324
I1029 13:21:12.283541  3028 layer_factory.hpp:77] Creating layer inception_4b/relu_3x3
I1029 13:21:12.283555  3028 net.cpp:84] Creating Layer inception_4b/relu_3x3
I1029 13:21:12.283561  3028 net.cpp:406] inception_4b/relu_3x3 <- inception_4b/3x3
I1029 13:21:12.283574  3028 net.cpp:367] inception_4b/relu_3x3 -> inception_4b/3x3 (in-place)
I1029 13:21:12.283788  3028 net.cpp:122] Setting up inception_4b/relu_3x3
I1029 13:21:12.283798  3028 net.cpp:129] Top shape: 30 224 14 14 (1317120)
I1029 13:21:12.283802  3028 net.cpp:137] Memory required for data: 1206067804
I1029 13:21:12.283807  3028 layer_factory.hpp:77] Creating layer inception_4b/5x5_reduce
I1029 13:21:12.283820  3028 net.cpp:84] Creating Layer inception_4b/5x5_reduce
I1029 13:21:12.283825  3028 net.cpp:406] inception_4b/5x5_reduce <- inception_4a/output_inception_4a/output_0_split_3
I1029 13:21:12.283835  3028 net.cpp:380] inception_4b/5x5_reduce -> inception_4b/5x5_reduce
I1029 13:21:12.285185  3028 net.cpp:122] Setting up inception_4b/5x5_reduce
I1029 13:21:12.285199  3028 net.cpp:129] Top shape: 30 24 14 14 (141120)
I1029 13:21:12.285203  3028 net.cpp:137] Memory required for data: 1206632284
I1029 13:21:12.285214  3028 layer_factory.hpp:77] Creating layer inception_4b/relu_5x5_reduce
I1029 13:21:12.285223  3028 net.cpp:84] Creating Layer inception_4b/relu_5x5_reduce
I1029 13:21:12.285228  3028 net.cpp:406] inception_4b/relu_5x5_reduce <- inception_4b/5x5_reduce
I1029 13:21:12.285234  3028 net.cpp:367] inception_4b/relu_5x5_reduce -> inception_4b/5x5_reduce (in-place)
I1029 13:21:12.285429  3028 net.cpp:122] Setting up inception_4b/relu_5x5_reduce
I1029 13:21:12.285439  3028 net.cpp:129] Top shape: 30 24 14 14 (141120)
I1029 13:21:12.285442  3028 net.cpp:137] Memory required for data: 1207196764
I1029 13:21:12.285446  3028 layer_factory.hpp:77] Creating layer inception_4b/5x5
I1029 13:21:12.285456  3028 net.cpp:84] Creating Layer inception_4b/5x5
I1029 13:21:12.285467  3028 net.cpp:406] inception_4b/5x5 <- inception_4b/5x5_reduce
I1029 13:21:12.285477  3028 net.cpp:380] inception_4b/5x5 -> inception_4b/5x5
I1029 13:21:12.287087  3028 net.cpp:122] Setting up inception_4b/5x5
I1029 13:21:12.287106  3028 net.cpp:129] Top shape: 30 64 14 14 (376320)
I1029 13:21:12.287111  3028 net.cpp:137] Memory required for data: 1208702044
I1029 13:21:12.287119  3028 layer_factory.hpp:77] Creating layer inception_4b/relu_5x5
I1029 13:21:12.287129  3028 net.cpp:84] Creating Layer inception_4b/relu_5x5
I1029 13:21:12.287135  3028 net.cpp:406] inception_4b/relu_5x5 <- inception_4b/5x5
I1029 13:21:12.287176  3028 net.cpp:367] inception_4b/relu_5x5 -> inception_4b/5x5 (in-place)
I1029 13:21:12.287375  3028 net.cpp:122] Setting up inception_4b/relu_5x5
I1029 13:21:12.287389  3028 net.cpp:129] Top shape: 30 64 14 14 (376320)
I1029 13:21:12.287392  3028 net.cpp:137] Memory required for data: 1210207324
I1029 13:21:12.287396  3028 layer_factory.hpp:77] Creating layer inception_4b/pool
I1029 13:21:12.287405  3028 net.cpp:84] Creating Layer inception_4b/pool
I1029 13:21:12.287410  3028 net.cpp:406] inception_4b/pool <- inception_4a/output_inception_4a/output_0_split_4
I1029 13:21:12.287416  3028 net.cpp:380] inception_4b/pool -> inception_4b/pool
I1029 13:21:12.287487  3028 net.cpp:122] Setting up inception_4b/pool
I1029 13:21:12.287495  3028 net.cpp:129] Top shape: 30 512 14 14 (3010560)
I1029 13:21:12.287499  3028 net.cpp:137] Memory required for data: 1222249564
I1029 13:21:12.287503  3028 layer_factory.hpp:77] Creating layer inception_4b/pool_proj
I1029 13:21:12.287515  3028 net.cpp:84] Creating Layer inception_4b/pool_proj
I1029 13:21:12.287519  3028 net.cpp:406] inception_4b/pool_proj <- inception_4b/pool
I1029 13:21:12.287530  3028 net.cpp:380] inception_4b/pool_proj -> inception_4b/pool_proj
I1029 13:21:12.289053  3028 net.cpp:122] Setting up inception_4b/pool_proj
I1029 13:21:12.289072  3028 net.cpp:129] Top shape: 30 64 14 14 (376320)
I1029 13:21:12.289077  3028 net.cpp:137] Memory required for data: 1223754844
I1029 13:21:12.289085  3028 layer_factory.hpp:77] Creating layer inception_4b/relu_pool_proj
I1029 13:21:12.289093  3028 net.cpp:84] Creating Layer inception_4b/relu_pool_proj
I1029 13:21:12.289098  3028 net.cpp:406] inception_4b/relu_pool_proj <- inception_4b/pool_proj
I1029 13:21:12.289108  3028 net.cpp:367] inception_4b/relu_pool_proj -> inception_4b/pool_proj (in-place)
I1029 13:21:12.289311  3028 net.cpp:122] Setting up inception_4b/relu_pool_proj
I1029 13:21:12.289319  3028 net.cpp:129] Top shape: 30 64 14 14 (376320)
I1029 13:21:12.289324  3028 net.cpp:137] Memory required for data: 1225260124
I1029 13:21:12.289327  3028 layer_factory.hpp:77] Creating layer inception_4b/output
I1029 13:21:12.289335  3028 net.cpp:84] Creating Layer inception_4b/output
I1029 13:21:12.289340  3028 net.cpp:406] inception_4b/output <- inception_4b/1x1
I1029 13:21:12.289345  3028 net.cpp:406] inception_4b/output <- inception_4b/3x3
I1029 13:21:12.289350  3028 net.cpp:406] inception_4b/output <- inception_4b/5x5
I1029 13:21:12.289355  3028 net.cpp:406] inception_4b/output <- inception_4b/pool_proj
I1029 13:21:12.289364  3028 net.cpp:380] inception_4b/output -> inception_4b/output
I1029 13:21:12.289397  3028 net.cpp:122] Setting up inception_4b/output
I1029 13:21:12.289405  3028 net.cpp:129] Top shape: 30 512 14 14 (3010560)
I1029 13:21:12.289409  3028 net.cpp:137] Memory required for data: 1237302364
I1029 13:21:12.289413  3028 layer_factory.hpp:77] Creating layer inception_4b/output_inception_4b/output_0_split
I1029 13:21:12.289420  3028 net.cpp:84] Creating Layer inception_4b/output_inception_4b/output_0_split
I1029 13:21:12.289425  3028 net.cpp:406] inception_4b/output_inception_4b/output_0_split <- inception_4b/output
I1029 13:21:12.289433  3028 net.cpp:380] inception_4b/output_inception_4b/output_0_split -> inception_4b/output_inception_4b/output_0_split_0
I1029 13:21:12.289443  3028 net.cpp:380] inception_4b/output_inception_4b/output_0_split -> inception_4b/output_inception_4b/output_0_split_1
I1029 13:21:12.289453  3028 net.cpp:380] inception_4b/output_inception_4b/output_0_split -> inception_4b/output_inception_4b/output_0_split_2
I1029 13:21:12.289463  3028 net.cpp:380] inception_4b/output_inception_4b/output_0_split -> inception_4b/output_inception_4b/output_0_split_3
I1029 13:21:12.289537  3028 net.cpp:122] Setting up inception_4b/output_inception_4b/output_0_split
I1029 13:21:12.289546  3028 net.cpp:129] Top shape: 30 512 14 14 (3010560)
I1029 13:21:12.289551  3028 net.cpp:129] Top shape: 30 512 14 14 (3010560)
I1029 13:21:12.289556  3028 net.cpp:129] Top shape: 30 512 14 14 (3010560)
I1029 13:21:12.289561  3028 net.cpp:129] Top shape: 30 512 14 14 (3010560)
I1029 13:21:12.289585  3028 net.cpp:137] Memory required for data: 1285471324
I1029 13:21:12.289589  3028 layer_factory.hpp:77] Creating layer inception_4c/1x1
I1029 13:21:12.289600  3028 net.cpp:84] Creating Layer inception_4c/1x1
I1029 13:21:12.289607  3028 net.cpp:406] inception_4c/1x1 <- inception_4b/output_inception_4b/output_0_split_0
I1029 13:21:12.289615  3028 net.cpp:380] inception_4c/1x1 -> inception_4c/1x1
I1029 13:21:12.291764  3028 net.cpp:122] Setting up inception_4c/1x1
I1029 13:21:12.291787  3028 net.cpp:129] Top shape: 30 128 14 14 (752640)
I1029 13:21:12.291792  3028 net.cpp:137] Memory required for data: 1288481884
I1029 13:21:12.291802  3028 layer_factory.hpp:77] Creating layer inception_4c/relu_1x1
I1029 13:21:12.291811  3028 net.cpp:84] Creating Layer inception_4c/relu_1x1
I1029 13:21:12.291817  3028 net.cpp:406] inception_4c/relu_1x1 <- inception_4c/1x1
I1029 13:21:12.291826  3028 net.cpp:367] inception_4c/relu_1x1 -> inception_4c/1x1 (in-place)
I1029 13:21:12.292305  3028 net.cpp:122] Setting up inception_4c/relu_1x1
I1029 13:21:12.292316  3028 net.cpp:129] Top shape: 30 128 14 14 (752640)
I1029 13:21:12.292320  3028 net.cpp:137] Memory required for data: 1291492444
I1029 13:21:12.292325  3028 layer_factory.hpp:77] Creating layer inception_4c/3x3_reduce
I1029 13:21:12.292336  3028 net.cpp:84] Creating Layer inception_4c/3x3_reduce
I1029 13:21:12.292341  3028 net.cpp:406] inception_4c/3x3_reduce <- inception_4b/output_inception_4b/output_0_split_1
I1029 13:21:12.292351  3028 net.cpp:380] inception_4c/3x3_reduce -> inception_4c/3x3_reduce
I1029 13:21:12.294152  3028 net.cpp:122] Setting up inception_4c/3x3_reduce
I1029 13:21:12.294173  3028 net.cpp:129] Top shape: 30 128 14 14 (752640)
I1029 13:21:12.294179  3028 net.cpp:137] Memory required for data: 1294503004
I1029 13:21:12.294189  3028 layer_factory.hpp:77] Creating layer inception_4c/relu_3x3_reduce
I1029 13:21:12.294198  3028 net.cpp:84] Creating Layer inception_4c/relu_3x3_reduce
I1029 13:21:12.294203  3028 net.cpp:406] inception_4c/relu_3x3_reduce <- inception_4c/3x3_reduce
I1029 13:21:12.294214  3028 net.cpp:367] inception_4c/relu_3x3_reduce -> inception_4c/3x3_reduce (in-place)
I1029 13:21:12.294419  3028 net.cpp:122] Setting up inception_4c/relu_3x3_reduce
I1029 13:21:12.294428  3028 net.cpp:129] Top shape: 30 128 14 14 (752640)
I1029 13:21:12.294433  3028 net.cpp:137] Memory required for data: 1297513564
I1029 13:21:12.294436  3028 layer_factory.hpp:77] Creating layer inception_4c/3x3
I1029 13:21:12.294448  3028 net.cpp:84] Creating Layer inception_4c/3x3
I1029 13:21:12.294453  3028 net.cpp:406] inception_4c/3x3 <- inception_4c/3x3_reduce
I1029 13:21:12.294462  3028 net.cpp:380] inception_4c/3x3 -> inception_4c/3x3
I1029 13:21:12.298787  3028 net.cpp:122] Setting up inception_4c/3x3
I1029 13:21:12.298822  3028 net.cpp:129] Top shape: 30 256 14 14 (1505280)
I1029 13:21:12.298827  3028 net.cpp:137] Memory required for data: 1303534684
I1029 13:21:12.298867  3028 layer_factory.hpp:77] Creating layer inception_4c/relu_3x3
I1029 13:21:12.298882  3028 net.cpp:84] Creating Layer inception_4c/relu_3x3
I1029 13:21:12.298892  3028 net.cpp:406] inception_4c/relu_3x3 <- inception_4c/3x3
I1029 13:21:12.298900  3028 net.cpp:367] inception_4c/relu_3x3 -> inception_4c/3x3 (in-place)
I1029 13:21:12.299115  3028 net.cpp:122] Setting up inception_4c/relu_3x3
I1029 13:21:12.299125  3028 net.cpp:129] Top shape: 30 256 14 14 (1505280)
I1029 13:21:12.299129  3028 net.cpp:137] Memory required for data: 1309555804
I1029 13:21:12.299134  3028 layer_factory.hpp:77] Creating layer inception_4c/5x5_reduce
I1029 13:21:12.299149  3028 net.cpp:84] Creating Layer inception_4c/5x5_reduce
I1029 13:21:12.299154  3028 net.cpp:406] inception_4c/5x5_reduce <- inception_4b/output_inception_4b/output_0_split_2
I1029 13:21:12.299163  3028 net.cpp:380] inception_4c/5x5_reduce -> inception_4c/5x5_reduce
I1029 13:21:12.300534  3028 net.cpp:122] Setting up inception_4c/5x5_reduce
I1029 13:21:12.300547  3028 net.cpp:129] Top shape: 30 24 14 14 (141120)
I1029 13:21:12.300585  3028 net.cpp:137] Memory required for data: 1310120284
I1029 13:21:12.300593  3028 layer_factory.hpp:77] Creating layer inception_4c/relu_5x5_reduce
I1029 13:21:12.300601  3028 net.cpp:84] Creating Layer inception_4c/relu_5x5_reduce
I1029 13:21:12.300606  3028 net.cpp:406] inception_4c/relu_5x5_reduce <- inception_4c/5x5_reduce
I1029 13:21:12.300614  3028 net.cpp:367] inception_4c/relu_5x5_reduce -> inception_4c/5x5_reduce (in-place)
I1029 13:21:12.300812  3028 net.cpp:122] Setting up inception_4c/relu_5x5_reduce
I1029 13:21:12.300819  3028 net.cpp:129] Top shape: 30 24 14 14 (141120)
I1029 13:21:12.300823  3028 net.cpp:137] Memory required for data: 1310684764
I1029 13:21:12.300827  3028 layer_factory.hpp:77] Creating layer inception_4c/5x5
I1029 13:21:12.300838  3028 net.cpp:84] Creating Layer inception_4c/5x5
I1029 13:21:12.300843  3028 net.cpp:406] inception_4c/5x5 <- inception_4c/5x5_reduce
I1029 13:21:12.300853  3028 net.cpp:380] inception_4c/5x5 -> inception_4c/5x5
I1029 13:21:12.304018  3028 net.cpp:122] Setting up inception_4c/5x5
I1029 13:21:12.304054  3028 net.cpp:129] Top shape: 30 64 14 14 (376320)
I1029 13:21:12.304059  3028 net.cpp:137] Memory required for data: 1312190044
I1029 13:21:12.304072  3028 layer_factory.hpp:77] Creating layer inception_4c/relu_5x5
I1029 13:21:12.304087  3028 net.cpp:84] Creating Layer inception_4c/relu_5x5
I1029 13:21:12.304096  3028 net.cpp:406] inception_4c/relu_5x5 <- inception_4c/5x5
I1029 13:21:12.304106  3028 net.cpp:367] inception_4c/relu_5x5 -> inception_4c/5x5 (in-place)
I1029 13:21:12.304307  3028 net.cpp:122] Setting up inception_4c/relu_5x5
I1029 13:21:12.304316  3028 net.cpp:129] Top shape: 30 64 14 14 (376320)
I1029 13:21:12.304321  3028 net.cpp:137] Memory required for data: 1313695324
I1029 13:21:12.304325  3028 layer_factory.hpp:77] Creating layer inception_4c/pool
I1029 13:21:12.304335  3028 net.cpp:84] Creating Layer inception_4c/pool
I1029 13:21:12.304342  3028 net.cpp:406] inception_4c/pool <- inception_4b/output_inception_4b/output_0_split_3
I1029 13:21:12.304349  3028 net.cpp:380] inception_4c/pool -> inception_4c/pool
I1029 13:21:12.304404  3028 net.cpp:122] Setting up inception_4c/pool
I1029 13:21:12.304411  3028 net.cpp:129] Top shape: 30 512 14 14 (3010560)
I1029 13:21:12.304415  3028 net.cpp:137] Memory required for data: 1325737564
I1029 13:21:12.304419  3028 layer_factory.hpp:77] Creating layer inception_4c/pool_proj
I1029 13:21:12.304432  3028 net.cpp:84] Creating Layer inception_4c/pool_proj
I1029 13:21:12.304438  3028 net.cpp:406] inception_4c/pool_proj <- inception_4c/pool
I1029 13:21:12.304450  3028 net.cpp:380] inception_4c/pool_proj -> inception_4c/pool_proj
I1029 13:21:12.305985  3028 net.cpp:122] Setting up inception_4c/pool_proj
I1029 13:21:12.306000  3028 net.cpp:129] Top shape: 30 64 14 14 (376320)
I1029 13:21:12.306005  3028 net.cpp:137] Memory required for data: 1327242844
I1029 13:21:12.306013  3028 layer_factory.hpp:77] Creating layer inception_4c/relu_pool_proj
I1029 13:21:12.306022  3028 net.cpp:84] Creating Layer inception_4c/relu_pool_proj
I1029 13:21:12.306030  3028 net.cpp:406] inception_4c/relu_pool_proj <- inception_4c/pool_proj
I1029 13:21:12.306037  3028 net.cpp:367] inception_4c/relu_pool_proj -> inception_4c/pool_proj (in-place)
I1029 13:21:12.306255  3028 net.cpp:122] Setting up inception_4c/relu_pool_proj
I1029 13:21:12.306265  3028 net.cpp:129] Top shape: 30 64 14 14 (376320)
I1029 13:21:12.306269  3028 net.cpp:137] Memory required for data: 1328748124
I1029 13:21:12.306273  3028 layer_factory.hpp:77] Creating layer inception_4c/output
I1029 13:21:12.306279  3028 net.cpp:84] Creating Layer inception_4c/output
I1029 13:21:12.306284  3028 net.cpp:406] inception_4c/output <- inception_4c/1x1
I1029 13:21:12.306290  3028 net.cpp:406] inception_4c/output <- inception_4c/3x3
I1029 13:21:12.306295  3028 net.cpp:406] inception_4c/output <- inception_4c/5x5
I1029 13:21:12.306300  3028 net.cpp:406] inception_4c/output <- inception_4c/pool_proj
I1029 13:21:12.306308  3028 net.cpp:380] inception_4c/output -> inception_4c/output
I1029 13:21:12.306370  3028 net.cpp:122] Setting up inception_4c/output
I1029 13:21:12.306378  3028 net.cpp:129] Top shape: 30 512 14 14 (3010560)
I1029 13:21:12.306382  3028 net.cpp:137] Memory required for data: 1340790364
I1029 13:21:12.306385  3028 layer_factory.hpp:77] Creating layer inception_4c/output_inception_4c/output_0_split
I1029 13:21:12.306393  3028 net.cpp:84] Creating Layer inception_4c/output_inception_4c/output_0_split
I1029 13:21:12.306397  3028 net.cpp:406] inception_4c/output_inception_4c/output_0_split <- inception_4c/output
I1029 13:21:12.306404  3028 net.cpp:380] inception_4c/output_inception_4c/output_0_split -> inception_4c/output_inception_4c/output_0_split_0
I1029 13:21:12.306412  3028 net.cpp:380] inception_4c/output_inception_4c/output_0_split -> inception_4c/output_inception_4c/output_0_split_1
I1029 13:21:12.306423  3028 net.cpp:380] inception_4c/output_inception_4c/output_0_split -> inception_4c/output_inception_4c/output_0_split_2
I1029 13:21:12.306432  3028 net.cpp:380] inception_4c/output_inception_4c/output_0_split -> inception_4c/output_inception_4c/output_0_split_3
I1029 13:21:12.306506  3028 net.cpp:122] Setting up inception_4c/output_inception_4c/output_0_split
I1029 13:21:12.306514  3028 net.cpp:129] Top shape: 30 512 14 14 (3010560)
I1029 13:21:12.306519  3028 net.cpp:129] Top shape: 30 512 14 14 (3010560)
I1029 13:21:12.306524  3028 net.cpp:129] Top shape: 30 512 14 14 (3010560)
I1029 13:21:12.306530  3028 net.cpp:129] Top shape: 30 512 14 14 (3010560)
I1029 13:21:12.306535  3028 net.cpp:137] Memory required for data: 1388959324
I1029 13:21:12.306537  3028 layer_factory.hpp:77] Creating layer inception_4d/1x1
I1029 13:21:12.306547  3028 net.cpp:84] Creating Layer inception_4d/1x1
I1029 13:21:12.306551  3028 net.cpp:406] inception_4d/1x1 <- inception_4c/output_inception_4c/output_0_split_0
I1029 13:21:12.306560  3028 net.cpp:380] inception_4d/1x1 -> inception_4d/1x1
I1029 13:21:12.308305  3028 net.cpp:122] Setting up inception_4d/1x1
I1029 13:21:12.308322  3028 net.cpp:129] Top shape: 30 112 14 14 (658560)
I1029 13:21:12.308327  3028 net.cpp:137] Memory required for data: 1391593564
I1029 13:21:12.308336  3028 layer_factory.hpp:77] Creating layer inception_4d/relu_1x1
I1029 13:21:12.308346  3028 net.cpp:84] Creating Layer inception_4d/relu_1x1
I1029 13:21:12.308353  3028 net.cpp:406] inception_4d/relu_1x1 <- inception_4d/1x1
I1029 13:21:12.308360  3028 net.cpp:367] inception_4d/relu_1x1 -> inception_4d/1x1 (in-place)
I1029 13:21:12.308851  3028 net.cpp:122] Setting up inception_4d/relu_1x1
I1029 13:21:12.308862  3028 net.cpp:129] Top shape: 30 112 14 14 (658560)
I1029 13:21:12.308866  3028 net.cpp:137] Memory required for data: 1394227804
I1029 13:21:12.308871  3028 layer_factory.hpp:77] Creating layer inception_4d/3x3_reduce
I1029 13:21:12.308884  3028 net.cpp:84] Creating Layer inception_4d/3x3_reduce
I1029 13:21:12.308890  3028 net.cpp:406] inception_4d/3x3_reduce <- inception_4c/output_inception_4c/output_0_split_1
I1029 13:21:12.308899  3028 net.cpp:380] inception_4d/3x3_reduce -> inception_4d/3x3_reduce
I1029 13:21:12.310817  3028 net.cpp:122] Setting up inception_4d/3x3_reduce
I1029 13:21:12.310838  3028 net.cpp:129] Top shape: 30 144 14 14 (846720)
I1029 13:21:12.310843  3028 net.cpp:137] Memory required for data: 1397614684
I1029 13:21:12.310853  3028 layer_factory.hpp:77] Creating layer inception_4d/relu_3x3_reduce
I1029 13:21:12.310863  3028 net.cpp:84] Creating Layer inception_4d/relu_3x3_reduce
I1029 13:21:12.310868  3028 net.cpp:406] inception_4d/relu_3x3_reduce <- inception_4d/3x3_reduce
I1029 13:21:12.310874  3028 net.cpp:367] inception_4d/relu_3x3_reduce -> inception_4d/3x3_reduce (in-place)
I1029 13:21:12.311079  3028 net.cpp:122] Setting up inception_4d/relu_3x3_reduce
I1029 13:21:12.311087  3028 net.cpp:129] Top shape: 30 144 14 14 (846720)
I1029 13:21:12.311091  3028 net.cpp:137] Memory required for data: 1401001564
I1029 13:21:12.311098  3028 layer_factory.hpp:77] Creating layer inception_4d/3x3
I1029 13:21:12.311111  3028 net.cpp:84] Creating Layer inception_4d/3x3
I1029 13:21:12.311144  3028 net.cpp:406] inception_4d/3x3 <- inception_4d/3x3_reduce
I1029 13:21:12.311152  3028 net.cpp:380] inception_4d/3x3 -> inception_4d/3x3
I1029 13:21:12.317127  3028 net.cpp:122] Setting up inception_4d/3x3
I1029 13:21:12.317167  3028 net.cpp:129] Top shape: 30 288 14 14 (1693440)
I1029 13:21:12.317173  3028 net.cpp:137] Memory required for data: 1407775324
I1029 13:21:12.317188  3028 layer_factory.hpp:77] Creating layer inception_4d/relu_3x3
I1029 13:21:12.317199  3028 net.cpp:84] Creating Layer inception_4d/relu_3x3
I1029 13:21:12.317214  3028 net.cpp:406] inception_4d/relu_3x3 <- inception_4d/3x3
I1029 13:21:12.317225  3028 net.cpp:367] inception_4d/relu_3x3 -> inception_4d/3x3 (in-place)
I1029 13:21:12.317448  3028 net.cpp:122] Setting up inception_4d/relu_3x3
I1029 13:21:12.317457  3028 net.cpp:129] Top shape: 30 288 14 14 (1693440)
I1029 13:21:12.317461  3028 net.cpp:137] Memory required for data: 1414549084
I1029 13:21:12.317466  3028 layer_factory.hpp:77] Creating layer inception_4d/5x5_reduce
I1029 13:21:12.317481  3028 net.cpp:84] Creating Layer inception_4d/5x5_reduce
I1029 13:21:12.317488  3028 net.cpp:406] inception_4d/5x5_reduce <- inception_4c/output_inception_4c/output_0_split_2
I1029 13:21:12.317497  3028 net.cpp:380] inception_4d/5x5_reduce -> inception_4d/5x5_reduce
I1029 13:21:12.318966  3028 net.cpp:122] Setting up inception_4d/5x5_reduce
I1029 13:21:12.318985  3028 net.cpp:129] Top shape: 30 32 14 14 (188160)
I1029 13:21:12.318990  3028 net.cpp:137] Memory required for data: 1415301724
I1029 13:21:12.319000  3028 layer_factory.hpp:77] Creating layer inception_4d/relu_5x5_reduce
I1029 13:21:12.319007  3028 net.cpp:84] Creating Layer inception_4d/relu_5x5_reduce
I1029 13:21:12.319012  3028 net.cpp:406] inception_4d/relu_5x5_reduce <- inception_4d/5x5_reduce
I1029 13:21:12.319020  3028 net.cpp:367] inception_4d/relu_5x5_reduce -> inception_4d/5x5_reduce (in-place)
I1029 13:21:12.319222  3028 net.cpp:122] Setting up inception_4d/relu_5x5_reduce
I1029 13:21:12.319231  3028 net.cpp:129] Top shape: 30 32 14 14 (188160)
I1029 13:21:12.319236  3028 net.cpp:137] Memory required for data: 1416054364
I1029 13:21:12.319238  3028 layer_factory.hpp:77] Creating layer inception_4d/5x5
I1029 13:21:12.319252  3028 net.cpp:84] Creating Layer inception_4d/5x5
I1029 13:21:12.319257  3028 net.cpp:406] inception_4d/5x5 <- inception_4d/5x5_reduce
I1029 13:21:12.319265  3028 net.cpp:380] inception_4d/5x5 -> inception_4d/5x5
I1029 13:21:12.320963  3028 net.cpp:122] Setting up inception_4d/5x5
I1029 13:21:12.320981  3028 net.cpp:129] Top shape: 30 64 14 14 (376320)
I1029 13:21:12.320984  3028 net.cpp:137] Memory required for data: 1417559644
I1029 13:21:12.320993  3028 layer_factory.hpp:77] Creating layer inception_4d/relu_5x5
I1029 13:21:12.321002  3028 net.cpp:84] Creating Layer inception_4d/relu_5x5
I1029 13:21:12.321007  3028 net.cpp:406] inception_4d/relu_5x5 <- inception_4d/5x5
I1029 13:21:12.321017  3028 net.cpp:367] inception_4d/relu_5x5 -> inception_4d/5x5 (in-place)
I1029 13:21:12.321218  3028 net.cpp:122] Setting up inception_4d/relu_5x5
I1029 13:21:12.321226  3028 net.cpp:129] Top shape: 30 64 14 14 (376320)
I1029 13:21:12.321230  3028 net.cpp:137] Memory required for data: 1419064924
I1029 13:21:12.321234  3028 layer_factory.hpp:77] Creating layer inception_4d/pool
I1029 13:21:12.321241  3028 net.cpp:84] Creating Layer inception_4d/pool
I1029 13:21:12.321246  3028 net.cpp:406] inception_4d/pool <- inception_4c/output_inception_4c/output_0_split_3
I1029 13:21:12.321255  3028 net.cpp:380] inception_4d/pool -> inception_4d/pool
I1029 13:21:12.321305  3028 net.cpp:122] Setting up inception_4d/pool
I1029 13:21:12.321316  3028 net.cpp:129] Top shape: 30 512 14 14 (3010560)
I1029 13:21:12.321319  3028 net.cpp:137] Memory required for data: 1431107164
I1029 13:21:12.321324  3028 layer_factory.hpp:77] Creating layer inception_4d/pool_proj
I1029 13:21:12.321334  3028 net.cpp:84] Creating Layer inception_4d/pool_proj
I1029 13:21:12.321341  3028 net.cpp:406] inception_4d/pool_proj <- inception_4d/pool
I1029 13:21:12.321380  3028 net.cpp:380] inception_4d/pool_proj -> inception_4d/pool_proj
I1029 13:21:12.323052  3028 net.cpp:122] Setting up inception_4d/pool_proj
I1029 13:21:12.323077  3028 net.cpp:129] Top shape: 30 64 14 14 (376320)
I1029 13:21:12.323082  3028 net.cpp:137] Memory required for data: 1432612444
I1029 13:21:12.323092  3028 layer_factory.hpp:77] Creating layer inception_4d/relu_pool_proj
I1029 13:21:12.323102  3028 net.cpp:84] Creating Layer inception_4d/relu_pool_proj
I1029 13:21:12.323108  3028 net.cpp:406] inception_4d/relu_pool_proj <- inception_4d/pool_proj
I1029 13:21:12.323118  3028 net.cpp:367] inception_4d/relu_pool_proj -> inception_4d/pool_proj (in-place)
I1029 13:21:12.323319  3028 net.cpp:122] Setting up inception_4d/relu_pool_proj
I1029 13:21:12.323328  3028 net.cpp:129] Top shape: 30 64 14 14 (376320)
I1029 13:21:12.323333  3028 net.cpp:137] Memory required for data: 1434117724
I1029 13:21:12.323338  3028 layer_factory.hpp:77] Creating layer inception_4d/output
I1029 13:21:12.323343  3028 net.cpp:84] Creating Layer inception_4d/output
I1029 13:21:12.323348  3028 net.cpp:406] inception_4d/output <- inception_4d/1x1
I1029 13:21:12.323354  3028 net.cpp:406] inception_4d/output <- inception_4d/3x3
I1029 13:21:12.323359  3028 net.cpp:406] inception_4d/output <- inception_4d/5x5
I1029 13:21:12.323364  3028 net.cpp:406] inception_4d/output <- inception_4d/pool_proj
I1029 13:21:12.323372  3028 net.cpp:380] inception_4d/output -> inception_4d/output
I1029 13:21:12.323405  3028 net.cpp:122] Setting up inception_4d/output
I1029 13:21:12.323412  3028 net.cpp:129] Top shape: 30 528 14 14 (3104640)
I1029 13:21:12.323416  3028 net.cpp:137] Memory required for data: 1446536284
I1029 13:21:12.323421  3028 layer_factory.hpp:77] Creating layer inception_4d/output_inception_4d/output_0_split
I1029 13:21:12.323427  3028 net.cpp:84] Creating Layer inception_4d/output_inception_4d/output_0_split
I1029 13:21:12.323431  3028 net.cpp:406] inception_4d/output_inception_4d/output_0_split <- inception_4d/output
I1029 13:21:12.323441  3028 net.cpp:380] inception_4d/output_inception_4d/output_0_split -> inception_4d/output_inception_4d/output_0_split_0
I1029 13:21:12.323448  3028 net.cpp:380] inception_4d/output_inception_4d/output_0_split -> inception_4d/output_inception_4d/output_0_split_1
I1029 13:21:12.323457  3028 net.cpp:380] inception_4d/output_inception_4d/output_0_split -> inception_4d/output_inception_4d/output_0_split_2
I1029 13:21:12.323465  3028 net.cpp:380] inception_4d/output_inception_4d/output_0_split -> inception_4d/output_inception_4d/output_0_split_3
I1029 13:21:12.323475  3028 net.cpp:380] inception_4d/output_inception_4d/output_0_split -> inception_4d/output_inception_4d/output_0_split_4
I1029 13:21:12.323570  3028 net.cpp:122] Setting up inception_4d/output_inception_4d/output_0_split
I1029 13:21:12.323580  3028 net.cpp:129] Top shape: 30 528 14 14 (3104640)
I1029 13:21:12.323585  3028 net.cpp:129] Top shape: 30 528 14 14 (3104640)
I1029 13:21:12.323590  3028 net.cpp:129] Top shape: 30 528 14 14 (3104640)
I1029 13:21:12.323595  3028 net.cpp:129] Top shape: 30 528 14 14 (3104640)
I1029 13:21:12.323599  3028 net.cpp:129] Top shape: 30 528 14 14 (3104640)
I1029 13:21:12.323603  3028 net.cpp:137] Memory required for data: 1508629084
I1029 13:21:12.323606  3028 layer_factory.hpp:77] Creating layer loss2/ave_pool
I1029 13:21:12.323613  3028 net.cpp:84] Creating Layer loss2/ave_pool
I1029 13:21:12.323617  3028 net.cpp:406] loss2/ave_pool <- inception_4d/output_inception_4d/output_0_split_0
I1029 13:21:12.323626  3028 net.cpp:380] loss2/ave_pool -> loss2/ave_pool
I1029 13:21:12.324172  3028 net.cpp:122] Setting up loss2/ave_pool
I1029 13:21:12.324183  3028 net.cpp:129] Top shape: 30 528 4 4 (253440)
I1029 13:21:12.324188  3028 net.cpp:137] Memory required for data: 1509642844
I1029 13:21:12.324193  3028 layer_factory.hpp:77] Creating layer loss2/conv
I1029 13:21:12.324204  3028 net.cpp:84] Creating Layer loss2/conv
I1029 13:21:12.324209  3028 net.cpp:406] loss2/conv <- loss2/ave_pool
I1029 13:21:12.324241  3028 net.cpp:380] loss2/conv -> loss2/conv
I1029 13:21:12.326104  3028 net.cpp:122] Setting up loss2/conv
I1029 13:21:12.326128  3028 net.cpp:129] Top shape: 30 128 4 4 (61440)
I1029 13:21:12.326133  3028 net.cpp:137] Memory required for data: 1509888604
I1029 13:21:12.326143  3028 layer_factory.hpp:77] Creating layer loss2/relu_conv
I1029 13:21:12.326150  3028 net.cpp:84] Creating Layer loss2/relu_conv
I1029 13:21:12.326154  3028 net.cpp:406] loss2/relu_conv <- loss2/conv
I1029 13:21:12.326161  3028 net.cpp:367] loss2/relu_conv -> loss2/conv (in-place)
I1029 13:21:12.326362  3028 net.cpp:122] Setting up loss2/relu_conv
I1029 13:21:12.326371  3028 net.cpp:129] Top shape: 30 128 4 4 (61440)
I1029 13:21:12.326375  3028 net.cpp:137] Memory required for data: 1510134364
I1029 13:21:12.326380  3028 layer_factory.hpp:77] Creating layer loss2/fc
I1029 13:21:12.326390  3028 net.cpp:84] Creating Layer loss2/fc
I1029 13:21:12.326395  3028 net.cpp:406] loss2/fc <- loss2/conv
I1029 13:21:12.326402  3028 net.cpp:380] loss2/fc -> loss2/fc
I1029 13:21:12.347064  3028 net.cpp:122] Setting up loss2/fc
I1029 13:21:12.347105  3028 net.cpp:129] Top shape: 30 1024 (30720)
I1029 13:21:12.347110  3028 net.cpp:137] Memory required for data: 1510257244
I1029 13:21:12.347126  3028 layer_factory.hpp:77] Creating layer loss2/relu_fc
I1029 13:21:12.347141  3028 net.cpp:84] Creating Layer loss2/relu_fc
I1029 13:21:12.347149  3028 net.cpp:406] loss2/relu_fc <- loss2/fc
I1029 13:21:12.347160  3028 net.cpp:367] loss2/relu_fc -> loss2/fc (in-place)
I1029 13:21:12.347463  3028 net.cpp:122] Setting up loss2/relu_fc
I1029 13:21:12.347474  3028 net.cpp:129] Top shape: 30 1024 (30720)
I1029 13:21:12.347478  3028 net.cpp:137] Memory required for data: 1510380124
I1029 13:21:12.347482  3028 layer_factory.hpp:77] Creating layer loss2/drop_fc
I1029 13:21:12.347491  3028 net.cpp:84] Creating Layer loss2/drop_fc
I1029 13:21:12.347494  3028 net.cpp:406] loss2/drop_fc <- loss2/fc
I1029 13:21:12.347501  3028 net.cpp:367] loss2/drop_fc -> loss2/fc (in-place)
I1029 13:21:12.347529  3028 net.cpp:122] Setting up loss2/drop_fc
I1029 13:21:12.347537  3028 net.cpp:129] Top shape: 30 1024 (30720)
I1029 13:21:12.347540  3028 net.cpp:137] Memory required for data: 1510503004
I1029 13:21:12.347543  3028 layer_factory.hpp:77] Creating layer my-loss2/classifier
I1029 13:21:12.347554  3028 net.cpp:84] Creating Layer my-loss2/classifier
I1029 13:21:12.347558  3028 net.cpp:406] my-loss2/classifier <- loss2/fc
I1029 13:21:12.347566  3028 net.cpp:380] my-loss2/classifier -> my-loss2/classifier
I1029 13:21:12.347712  3028 net.cpp:122] Setting up my-loss2/classifier
I1029 13:21:12.347719  3028 net.cpp:129] Top shape: 30 1 (30)
I1029 13:21:12.347723  3028 net.cpp:137] Memory required for data: 1510503124
I1029 13:21:12.347729  3028 layer_factory.hpp:77] Creating layer loss2/loss
I1029 13:21:12.347736  3028 net.cpp:84] Creating Layer loss2/loss
I1029 13:21:12.347740  3028 net.cpp:406] loss2/loss <- my-loss2/classifier
I1029 13:21:12.347746  3028 net.cpp:406] loss2/loss <- label_data_1_split_1
I1029 13:21:12.347754  3028 net.cpp:380] loss2/loss -> loss2/loss
I1029 13:21:12.347800  3028 net.cpp:122] Setting up loss2/loss
I1029 13:21:12.347806  3028 net.cpp:129] Top shape: (1)
I1029 13:21:12.347810  3028 net.cpp:132]     with loss weight 0.3
I1029 13:21:12.347829  3028 net.cpp:137] Memory required for data: 1510503128
I1029 13:21:12.347833  3028 layer_factory.hpp:77] Creating layer inception_4e/1x1
I1029 13:21:12.347847  3028 net.cpp:84] Creating Layer inception_4e/1x1
I1029 13:21:12.347854  3028 net.cpp:406] inception_4e/1x1 <- inception_4d/output_inception_4d/output_0_split_1
I1029 13:21:12.347864  3028 net.cpp:380] inception_4e/1x1 -> inception_4e/1x1
I1029 13:21:12.351954  3028 net.cpp:122] Setting up inception_4e/1x1
I1029 13:21:12.351992  3028 net.cpp:129] Top shape: 30 256 14 14 (1505280)
I1029 13:21:12.351999  3028 net.cpp:137] Memory required for data: 1516524248
I1029 13:21:12.352010  3028 layer_factory.hpp:77] Creating layer inception_4e/relu_1x1
I1029 13:21:12.352057  3028 net.cpp:84] Creating Layer inception_4e/relu_1x1
I1029 13:21:12.352066  3028 net.cpp:406] inception_4e/relu_1x1 <- inception_4e/1x1
I1029 13:21:12.352077  3028 net.cpp:367] inception_4e/relu_1x1 -> inception_4e/1x1 (in-place)
I1029 13:21:12.352288  3028 net.cpp:122] Setting up inception_4e/relu_1x1
I1029 13:21:12.352298  3028 net.cpp:129] Top shape: 30 256 14 14 (1505280)
I1029 13:21:12.352303  3028 net.cpp:137] Memory required for data: 1522545368
I1029 13:21:12.352306  3028 layer_factory.hpp:77] Creating layer inception_4e/3x3_reduce
I1029 13:21:12.352320  3028 net.cpp:84] Creating Layer inception_4e/3x3_reduce
I1029 13:21:12.352329  3028 net.cpp:406] inception_4e/3x3_reduce <- inception_4d/output_inception_4d/output_0_split_2
I1029 13:21:12.352337  3028 net.cpp:380] inception_4e/3x3_reduce -> inception_4e/3x3_reduce
I1029 13:21:12.354472  3028 net.cpp:122] Setting up inception_4e/3x3_reduce
I1029 13:21:12.354507  3028 net.cpp:129] Top shape: 30 160 14 14 (940800)
I1029 13:21:12.354512  3028 net.cpp:137] Memory required for data: 1526308568
I1029 13:21:12.354524  3028 layer_factory.hpp:77] Creating layer inception_4e/relu_3x3_reduce
I1029 13:21:12.354535  3028 net.cpp:84] Creating Layer inception_4e/relu_3x3_reduce
I1029 13:21:12.354542  3028 net.cpp:406] inception_4e/relu_3x3_reduce <- inception_4e/3x3_reduce
I1029 13:21:12.354554  3028 net.cpp:367] inception_4e/relu_3x3_reduce -> inception_4e/3x3_reduce (in-place)
I1029 13:21:12.354765  3028 net.cpp:122] Setting up inception_4e/relu_3x3_reduce
I1029 13:21:12.354774  3028 net.cpp:129] Top shape: 30 160 14 14 (940800)
I1029 13:21:12.354779  3028 net.cpp:137] Memory required for data: 1530071768
I1029 13:21:12.354782  3028 layer_factory.hpp:77] Creating layer inception_4e/3x3
I1029 13:21:12.354796  3028 net.cpp:84] Creating Layer inception_4e/3x3
I1029 13:21:12.354801  3028 net.cpp:406] inception_4e/3x3 <- inception_4e/3x3_reduce
I1029 13:21:12.354811  3028 net.cpp:380] inception_4e/3x3 -> inception_4e/3x3
I1029 13:21:12.361729  3028 net.cpp:122] Setting up inception_4e/3x3
I1029 13:21:12.361768  3028 net.cpp:129] Top shape: 30 320 14 14 (1881600)
I1029 13:21:12.361773  3028 net.cpp:137] Memory required for data: 1537598168
I1029 13:21:12.361788  3028 layer_factory.hpp:77] Creating layer inception_4e/relu_3x3
I1029 13:21:12.361800  3028 net.cpp:84] Creating Layer inception_4e/relu_3x3
I1029 13:21:12.361807  3028 net.cpp:406] inception_4e/relu_3x3 <- inception_4e/3x3
I1029 13:21:12.361835  3028 net.cpp:367] inception_4e/relu_3x3 -> inception_4e/3x3 (in-place)
I1029 13:21:12.362622  3028 net.cpp:122] Setting up inception_4e/relu_3x3
I1029 13:21:12.362635  3028 net.cpp:129] Top shape: 30 320 14 14 (1881600)
I1029 13:21:12.362640  3028 net.cpp:137] Memory required for data: 1545124568
I1029 13:21:12.362644  3028 layer_factory.hpp:77] Creating layer inception_4e/5x5_reduce
I1029 13:21:12.362660  3028 net.cpp:84] Creating Layer inception_4e/5x5_reduce
I1029 13:21:12.362665  3028 net.cpp:406] inception_4e/5x5_reduce <- inception_4d/output_inception_4d/output_0_split_3
I1029 13:21:12.362676  3028 net.cpp:380] inception_4e/5x5_reduce -> inception_4e/5x5_reduce
I1029 13:21:12.364171  3028 net.cpp:122] Setting up inception_4e/5x5_reduce
I1029 13:21:12.364188  3028 net.cpp:129] Top shape: 30 32 14 14 (188160)
I1029 13:21:12.364192  3028 net.cpp:137] Memory required for data: 1545877208
I1029 13:21:12.364202  3028 layer_factory.hpp:77] Creating layer inception_4e/relu_5x5_reduce
I1029 13:21:12.364210  3028 net.cpp:84] Creating Layer inception_4e/relu_5x5_reduce
I1029 13:21:12.364215  3028 net.cpp:406] inception_4e/relu_5x5_reduce <- inception_4e/5x5_reduce
I1029 13:21:12.364224  3028 net.cpp:367] inception_4e/relu_5x5_reduce -> inception_4e/5x5_reduce (in-place)
I1029 13:21:12.364428  3028 net.cpp:122] Setting up inception_4e/relu_5x5_reduce
I1029 13:21:12.364439  3028 net.cpp:129] Top shape: 30 32 14 14 (188160)
I1029 13:21:12.364442  3028 net.cpp:137] Memory required for data: 1546629848
I1029 13:21:12.364446  3028 layer_factory.hpp:77] Creating layer inception_4e/5x5
I1029 13:21:12.364538  3028 net.cpp:84] Creating Layer inception_4e/5x5
I1029 13:21:12.364545  3028 net.cpp:406] inception_4e/5x5 <- inception_4e/5x5_reduce
I1029 13:21:12.364554  3028 net.cpp:380] inception_4e/5x5 -> inception_4e/5x5
I1029 13:21:12.366863  3028 net.cpp:122] Setting up inception_4e/5x5
I1029 13:21:12.366890  3028 net.cpp:129] Top shape: 30 128 14 14 (752640)
I1029 13:21:12.366895  3028 net.cpp:137] Memory required for data: 1549640408
I1029 13:21:12.366907  3028 layer_factory.hpp:77] Creating layer inception_4e/relu_5x5
I1029 13:21:12.366916  3028 net.cpp:84] Creating Layer inception_4e/relu_5x5
I1029 13:21:12.366922  3028 net.cpp:406] inception_4e/relu_5x5 <- inception_4e/5x5
I1029 13:21:12.366930  3028 net.cpp:367] inception_4e/relu_5x5 -> inception_4e/5x5 (in-place)
I1029 13:21:12.367143  3028 net.cpp:122] Setting up inception_4e/relu_5x5
I1029 13:21:12.367152  3028 net.cpp:129] Top shape: 30 128 14 14 (752640)
I1029 13:21:12.367156  3028 net.cpp:137] Memory required for data: 1552650968
I1029 13:21:12.367161  3028 layer_factory.hpp:77] Creating layer inception_4e/pool
I1029 13:21:12.367171  3028 net.cpp:84] Creating Layer inception_4e/pool
I1029 13:21:12.367175  3028 net.cpp:406] inception_4e/pool <- inception_4d/output_inception_4d/output_0_split_4
I1029 13:21:12.367185  3028 net.cpp:380] inception_4e/pool -> inception_4e/pool
I1029 13:21:12.367242  3028 net.cpp:122] Setting up inception_4e/pool
I1029 13:21:12.367250  3028 net.cpp:129] Top shape: 30 528 14 14 (3104640)
I1029 13:21:12.367254  3028 net.cpp:137] Memory required for data: 1565069528
I1029 13:21:12.367259  3028 layer_factory.hpp:77] Creating layer inception_4e/pool_proj
I1029 13:21:12.367270  3028 net.cpp:84] Creating Layer inception_4e/pool_proj
I1029 13:21:12.367275  3028 net.cpp:406] inception_4e/pool_proj <- inception_4e/pool
I1029 13:21:12.367285  3028 net.cpp:380] inception_4e/pool_proj -> inception_4e/pool_proj
I1029 13:21:12.369247  3028 net.cpp:122] Setting up inception_4e/pool_proj
I1029 13:21:12.369268  3028 net.cpp:129] Top shape: 30 128 14 14 (752640)
I1029 13:21:12.369272  3028 net.cpp:137] Memory required for data: 1568080088
I1029 13:21:12.369282  3028 layer_factory.hpp:77] Creating layer inception_4e/relu_pool_proj
I1029 13:21:12.369292  3028 net.cpp:84] Creating Layer inception_4e/relu_pool_proj
I1029 13:21:12.369297  3028 net.cpp:406] inception_4e/relu_pool_proj <- inception_4e/pool_proj
I1029 13:21:12.369307  3028 net.cpp:367] inception_4e/relu_pool_proj -> inception_4e/pool_proj (in-place)
I1029 13:21:12.369514  3028 net.cpp:122] Setting up inception_4e/relu_pool_proj
I1029 13:21:12.369523  3028 net.cpp:129] Top shape: 30 128 14 14 (752640)
I1029 13:21:12.369526  3028 net.cpp:137] Memory required for data: 1571090648
I1029 13:21:12.369530  3028 layer_factory.hpp:77] Creating layer inception_4e/output
I1029 13:21:12.369539  3028 net.cpp:84] Creating Layer inception_4e/output
I1029 13:21:12.369544  3028 net.cpp:406] inception_4e/output <- inception_4e/1x1
I1029 13:21:12.369550  3028 net.cpp:406] inception_4e/output <- inception_4e/3x3
I1029 13:21:12.369555  3028 net.cpp:406] inception_4e/output <- inception_4e/5x5
I1029 13:21:12.369560  3028 net.cpp:406] inception_4e/output <- inception_4e/pool_proj
I1029 13:21:12.369567  3028 net.cpp:380] inception_4e/output -> inception_4e/output
I1029 13:21:12.369601  3028 net.cpp:122] Setting up inception_4e/output
I1029 13:21:12.369609  3028 net.cpp:129] Top shape: 30 832 14 14 (4892160)
I1029 13:21:12.369613  3028 net.cpp:137] Memory required for data: 1590659288
I1029 13:21:12.369616  3028 layer_factory.hpp:77] Creating layer pool4/3x3_s2
I1029 13:21:12.369623  3028 net.cpp:84] Creating Layer pool4/3x3_s2
I1029 13:21:12.369627  3028 net.cpp:406] pool4/3x3_s2 <- inception_4e/output
I1029 13:21:12.369637  3028 net.cpp:380] pool4/3x3_s2 -> pool4/3x3_s2
I1029 13:21:12.369681  3028 net.cpp:122] Setting up pool4/3x3_s2
I1029 13:21:12.369691  3028 net.cpp:129] Top shape: 30 832 7 7 (1223040)
I1029 13:21:12.369694  3028 net.cpp:137] Memory required for data: 1595551448
I1029 13:21:12.369730  3028 layer_factory.hpp:77] Creating layer pool4/3x3_s2_pool4/3x3_s2_0_split
I1029 13:21:12.369737  3028 net.cpp:84] Creating Layer pool4/3x3_s2_pool4/3x3_s2_0_split
I1029 13:21:12.369741  3028 net.cpp:406] pool4/3x3_s2_pool4/3x3_s2_0_split <- pool4/3x3_s2
I1029 13:21:12.369750  3028 net.cpp:380] pool4/3x3_s2_pool4/3x3_s2_0_split -> pool4/3x3_s2_pool4/3x3_s2_0_split_0
I1029 13:21:12.369757  3028 net.cpp:380] pool4/3x3_s2_pool4/3x3_s2_0_split -> pool4/3x3_s2_pool4/3x3_s2_0_split_1
I1029 13:21:12.369765  3028 net.cpp:380] pool4/3x3_s2_pool4/3x3_s2_0_split -> pool4/3x3_s2_pool4/3x3_s2_0_split_2
I1029 13:21:12.369773  3028 net.cpp:380] pool4/3x3_s2_pool4/3x3_s2_0_split -> pool4/3x3_s2_pool4/3x3_s2_0_split_3
I1029 13:21:12.369890  3028 net.cpp:122] Setting up pool4/3x3_s2_pool4/3x3_s2_0_split
I1029 13:21:12.369899  3028 net.cpp:129] Top shape: 30 832 7 7 (1223040)
I1029 13:21:12.369905  3028 net.cpp:129] Top shape: 30 832 7 7 (1223040)
I1029 13:21:12.369910  3028 net.cpp:129] Top shape: 30 832 7 7 (1223040)
I1029 13:21:12.369915  3028 net.cpp:129] Top shape: 30 832 7 7 (1223040)
I1029 13:21:12.369920  3028 net.cpp:137] Memory required for data: 1615120088
I1029 13:21:12.369923  3028 layer_factory.hpp:77] Creating layer inception_5a/1x1
I1029 13:21:12.369940  3028 net.cpp:84] Creating Layer inception_5a/1x1
I1029 13:21:12.369945  3028 net.cpp:406] inception_5a/1x1 <- pool4/3x3_s2_pool4/3x3_s2_0_split_0
I1029 13:21:12.369953  3028 net.cpp:380] inception_5a/1x1 -> inception_5a/1x1
I1029 13:21:12.374644  3028 net.cpp:122] Setting up inception_5a/1x1
I1029 13:21:12.374689  3028 net.cpp:129] Top shape: 30 256 7 7 (376320)
I1029 13:21:12.374694  3028 net.cpp:137] Memory required for data: 1616625368
I1029 13:21:12.374712  3028 layer_factory.hpp:77] Creating layer inception_5a/relu_1x1
I1029 13:21:12.374725  3028 net.cpp:84] Creating Layer inception_5a/relu_1x1
I1029 13:21:12.374733  3028 net.cpp:406] inception_5a/relu_1x1 <- inception_5a/1x1
I1029 13:21:12.374748  3028 net.cpp:367] inception_5a/relu_1x1 -> inception_5a/1x1 (in-place)
I1029 13:21:12.374963  3028 net.cpp:122] Setting up inception_5a/relu_1x1
I1029 13:21:12.374972  3028 net.cpp:129] Top shape: 30 256 7 7 (376320)
I1029 13:21:12.374976  3028 net.cpp:137] Memory required for data: 1618130648
I1029 13:21:12.374979  3028 layer_factory.hpp:77] Creating layer inception_5a/3x3_reduce
I1029 13:21:12.374994  3028 net.cpp:84] Creating Layer inception_5a/3x3_reduce
I1029 13:21:12.375000  3028 net.cpp:406] inception_5a/3x3_reduce <- pool4/3x3_s2_pool4/3x3_s2_0_split_1
I1029 13:21:12.375013  3028 net.cpp:380] inception_5a/3x3_reduce -> inception_5a/3x3_reduce
I1029 13:21:12.377485  3028 net.cpp:122] Setting up inception_5a/3x3_reduce
I1029 13:21:12.377512  3028 net.cpp:129] Top shape: 30 160 7 7 (235200)
I1029 13:21:12.377517  3028 net.cpp:137] Memory required for data: 1619071448
I1029 13:21:12.377529  3028 layer_factory.hpp:77] Creating layer inception_5a/relu_3x3_reduce
I1029 13:21:12.377538  3028 net.cpp:84] Creating Layer inception_5a/relu_3x3_reduce
I1029 13:21:12.377545  3028 net.cpp:406] inception_5a/relu_3x3_reduce <- inception_5a/3x3_reduce
I1029 13:21:12.377557  3028 net.cpp:367] inception_5a/relu_3x3_reduce -> inception_5a/3x3_reduce (in-place)
I1029 13:21:12.377766  3028 net.cpp:122] Setting up inception_5a/relu_3x3_reduce
I1029 13:21:12.377775  3028 net.cpp:129] Top shape: 30 160 7 7 (235200)
I1029 13:21:12.377779  3028 net.cpp:137] Memory required for data: 1620012248
I1029 13:21:12.377784  3028 layer_factory.hpp:77] Creating layer inception_5a/3x3
I1029 13:21:12.377797  3028 net.cpp:84] Creating Layer inception_5a/3x3
I1029 13:21:12.377801  3028 net.cpp:406] inception_5a/3x3 <- inception_5a/3x3_reduce
I1029 13:21:12.377810  3028 net.cpp:380] inception_5a/3x3 -> inception_5a/3x3
I1029 13:21:12.384701  3028 net.cpp:122] Setting up inception_5a/3x3
I1029 13:21:12.384737  3028 net.cpp:129] Top shape: 30 320 7 7 (470400)
I1029 13:21:12.384743  3028 net.cpp:137] Memory required for data: 1621893848
I1029 13:21:12.384757  3028 layer_factory.hpp:77] Creating layer inception_5a/relu_3x3
I1029 13:21:12.384807  3028 net.cpp:84] Creating Layer inception_5a/relu_3x3
I1029 13:21:12.384815  3028 net.cpp:406] inception_5a/relu_3x3 <- inception_5a/3x3
I1029 13:21:12.384825  3028 net.cpp:367] inception_5a/relu_3x3 -> inception_5a/3x3 (in-place)
I1029 13:21:12.385332  3028 net.cpp:122] Setting up inception_5a/relu_3x3
I1029 13:21:12.385344  3028 net.cpp:129] Top shape: 30 320 7 7 (470400)
I1029 13:21:12.385347  3028 net.cpp:137] Memory required for data: 1623775448
I1029 13:21:12.385351  3028 layer_factory.hpp:77] Creating layer inception_5a/5x5_reduce
I1029 13:21:12.385365  3028 net.cpp:84] Creating Layer inception_5a/5x5_reduce
I1029 13:21:12.385370  3028 net.cpp:406] inception_5a/5x5_reduce <- pool4/3x3_s2_pool4/3x3_s2_0_split_2
I1029 13:21:12.385380  3028 net.cpp:380] inception_5a/5x5_reduce -> inception_5a/5x5_reduce
I1029 13:21:12.386981  3028 net.cpp:122] Setting up inception_5a/5x5_reduce
I1029 13:21:12.386998  3028 net.cpp:129] Top shape: 30 32 7 7 (47040)
I1029 13:21:12.387003  3028 net.cpp:137] Memory required for data: 1623963608
I1029 13:21:12.387013  3028 layer_factory.hpp:77] Creating layer inception_5a/relu_5x5_reduce
I1029 13:21:12.387022  3028 net.cpp:84] Creating Layer inception_5a/relu_5x5_reduce
I1029 13:21:12.387029  3028 net.cpp:406] inception_5a/relu_5x5_reduce <- inception_5a/5x5_reduce
I1029 13:21:12.387037  3028 net.cpp:367] inception_5a/relu_5x5_reduce -> inception_5a/5x5_reduce (in-place)
I1029 13:21:12.387248  3028 net.cpp:122] Setting up inception_5a/relu_5x5_reduce
I1029 13:21:12.387259  3028 net.cpp:129] Top shape: 30 32 7 7 (47040)
I1029 13:21:12.387262  3028 net.cpp:137] Memory required for data: 1624151768
I1029 13:21:12.387266  3028 layer_factory.hpp:77] Creating layer inception_5a/5x5
I1029 13:21:12.387276  3028 net.cpp:84] Creating Layer inception_5a/5x5
I1029 13:21:12.387280  3028 net.cpp:406] inception_5a/5x5 <- inception_5a/5x5_reduce
I1029 13:21:12.387290  3028 net.cpp:380] inception_5a/5x5 -> inception_5a/5x5
I1029 13:21:12.389456  3028 net.cpp:122] Setting up inception_5a/5x5
I1029 13:21:12.389477  3028 net.cpp:129] Top shape: 30 128 7 7 (188160)
I1029 13:21:12.389482  3028 net.cpp:137] Memory required for data: 1624904408
I1029 13:21:12.389492  3028 layer_factory.hpp:77] Creating layer inception_5a/relu_5x5
I1029 13:21:12.389502  3028 net.cpp:84] Creating Layer inception_5a/relu_5x5
I1029 13:21:12.389508  3028 net.cpp:406] inception_5a/relu_5x5 <- inception_5a/5x5
I1029 13:21:12.389518  3028 net.cpp:367] inception_5a/relu_5x5 -> inception_5a/5x5 (in-place)
I1029 13:21:12.389724  3028 net.cpp:122] Setting up inception_5a/relu_5x5
I1029 13:21:12.389732  3028 net.cpp:129] Top shape: 30 128 7 7 (188160)
I1029 13:21:12.389736  3028 net.cpp:137] Memory required for data: 1625657048
I1029 13:21:12.389739  3028 layer_factory.hpp:77] Creating layer inception_5a/pool
I1029 13:21:12.389750  3028 net.cpp:84] Creating Layer inception_5a/pool
I1029 13:21:12.389755  3028 net.cpp:406] inception_5a/pool <- pool4/3x3_s2_pool4/3x3_s2_0_split_3
I1029 13:21:12.389762  3028 net.cpp:380] inception_5a/pool -> inception_5a/pool
I1029 13:21:12.389832  3028 net.cpp:122] Setting up inception_5a/pool
I1029 13:21:12.389842  3028 net.cpp:129] Top shape: 30 832 7 7 (1223040)
I1029 13:21:12.389845  3028 net.cpp:137] Memory required for data: 1630549208
I1029 13:21:12.389849  3028 layer_factory.hpp:77] Creating layer inception_5a/pool_proj
I1029 13:21:12.389863  3028 net.cpp:84] Creating Layer inception_5a/pool_proj
I1029 13:21:12.389866  3028 net.cpp:406] inception_5a/pool_proj <- inception_5a/pool
I1029 13:21:12.389878  3028 net.cpp:380] inception_5a/pool_proj -> inception_5a/pool_proj
I1029 13:21:12.392091  3028 net.cpp:122] Setting up inception_5a/pool_proj
I1029 13:21:12.392117  3028 net.cpp:129] Top shape: 30 128 7 7 (188160)
I1029 13:21:12.392122  3028 net.cpp:137] Memory required for data: 1631301848
I1029 13:21:12.392132  3028 layer_factory.hpp:77] Creating layer inception_5a/relu_pool_proj
I1029 13:21:12.392141  3028 net.cpp:84] Creating Layer inception_5a/relu_pool_proj
I1029 13:21:12.392181  3028 net.cpp:406] inception_5a/relu_pool_proj <- inception_5a/pool_proj
I1029 13:21:12.392192  3028 net.cpp:367] inception_5a/relu_pool_proj -> inception_5a/pool_proj (in-place)
I1029 13:21:12.392401  3028 net.cpp:122] Setting up inception_5a/relu_pool_proj
I1029 13:21:12.392410  3028 net.cpp:129] Top shape: 30 128 7 7 (188160)
I1029 13:21:12.392415  3028 net.cpp:137] Memory required for data: 1632054488
I1029 13:21:12.392417  3028 layer_factory.hpp:77] Creating layer inception_5a/output
I1029 13:21:12.392426  3028 net.cpp:84] Creating Layer inception_5a/output
I1029 13:21:12.392431  3028 net.cpp:406] inception_5a/output <- inception_5a/1x1
I1029 13:21:12.392436  3028 net.cpp:406] inception_5a/output <- inception_5a/3x3
I1029 13:21:12.392442  3028 net.cpp:406] inception_5a/output <- inception_5a/5x5
I1029 13:21:12.392447  3028 net.cpp:406] inception_5a/output <- inception_5a/pool_proj
I1029 13:21:12.392455  3028 net.cpp:380] inception_5a/output -> inception_5a/output
I1029 13:21:12.392491  3028 net.cpp:122] Setting up inception_5a/output
I1029 13:21:12.392499  3028 net.cpp:129] Top shape: 30 832 7 7 (1223040)
I1029 13:21:12.392503  3028 net.cpp:137] Memory required for data: 1636946648
I1029 13:21:12.392508  3028 layer_factory.hpp:77] Creating layer inception_5a/output_inception_5a/output_0_split
I1029 13:21:12.392514  3028 net.cpp:84] Creating Layer inception_5a/output_inception_5a/output_0_split
I1029 13:21:12.392519  3028 net.cpp:406] inception_5a/output_inception_5a/output_0_split <- inception_5a/output
I1029 13:21:12.392527  3028 net.cpp:380] inception_5a/output_inception_5a/output_0_split -> inception_5a/output_inception_5a/output_0_split_0
I1029 13:21:12.392535  3028 net.cpp:380] inception_5a/output_inception_5a/output_0_split -> inception_5a/output_inception_5a/output_0_split_1
I1029 13:21:12.392544  3028 net.cpp:380] inception_5a/output_inception_5a/output_0_split -> inception_5a/output_inception_5a/output_0_split_2
I1029 13:21:12.392552  3028 net.cpp:380] inception_5a/output_inception_5a/output_0_split -> inception_5a/output_inception_5a/output_0_split_3
I1029 13:21:12.392638  3028 net.cpp:122] Setting up inception_5a/output_inception_5a/output_0_split
I1029 13:21:12.392648  3028 net.cpp:129] Top shape: 30 832 7 7 (1223040)
I1029 13:21:12.392653  3028 net.cpp:129] Top shape: 30 832 7 7 (1223040)
I1029 13:21:12.392659  3028 net.cpp:129] Top shape: 30 832 7 7 (1223040)
I1029 13:21:12.392664  3028 net.cpp:129] Top shape: 30 832 7 7 (1223040)
I1029 13:21:12.392668  3028 net.cpp:137] Memory required for data: 1656515288
I1029 13:21:12.392671  3028 layer_factory.hpp:77] Creating layer inception_5b/1x1
I1029 13:21:12.392683  3028 net.cpp:84] Creating Layer inception_5b/1x1
I1029 13:21:12.392688  3028 net.cpp:406] inception_5b/1x1 <- inception_5a/output_inception_5a/output_0_split_0
I1029 13:21:12.392696  3028 net.cpp:380] inception_5b/1x1 -> inception_5b/1x1
I1029 13:21:12.398254  3028 net.cpp:122] Setting up inception_5b/1x1
I1029 13:21:12.398293  3028 net.cpp:129] Top shape: 30 384 7 7 (564480)
I1029 13:21:12.398298  3028 net.cpp:137] Memory required for data: 1658773208
I1029 13:21:12.398311  3028 layer_factory.hpp:77] Creating layer inception_5b/relu_1x1
I1029 13:21:12.398325  3028 net.cpp:84] Creating Layer inception_5b/relu_1x1
I1029 13:21:12.398334  3028 net.cpp:406] inception_5b/relu_1x1 <- inception_5b/1x1
I1029 13:21:12.398344  3028 net.cpp:367] inception_5b/relu_1x1 -> inception_5b/1x1 (in-place)
I1029 13:21:12.398574  3028 net.cpp:122] Setting up inception_5b/relu_1x1
I1029 13:21:12.398584  3028 net.cpp:129] Top shape: 30 384 7 7 (564480)
I1029 13:21:12.398588  3028 net.cpp:137] Memory required for data: 1661031128
I1029 13:21:12.398592  3028 layer_factory.hpp:77] Creating layer inception_5b/3x3_reduce
I1029 13:21:12.398605  3028 net.cpp:84] Creating Layer inception_5b/3x3_reduce
I1029 13:21:12.398612  3028 net.cpp:406] inception_5b/3x3_reduce <- inception_5a/output_inception_5a/output_0_split_1
I1029 13:21:12.398622  3028 net.cpp:380] inception_5b/3x3_reduce -> inception_5b/3x3_reduce
I1029 13:21:12.401532  3028 net.cpp:122] Setting up inception_5b/3x3_reduce
I1029 13:21:12.401558  3028 net.cpp:129] Top shape: 30 192 7 7 (282240)
I1029 13:21:12.401563  3028 net.cpp:137] Memory required for data: 1662160088
I1029 13:21:12.401574  3028 layer_factory.hpp:77] Creating layer inception_5b/relu_3x3_reduce
I1029 13:21:12.401588  3028 net.cpp:84] Creating Layer inception_5b/relu_3x3_reduce
I1029 13:21:12.401595  3028 net.cpp:406] inception_5b/relu_3x3_reduce <- inception_5b/3x3_reduce
I1029 13:21:12.401603  3028 net.cpp:367] inception_5b/relu_3x3_reduce -> inception_5b/3x3_reduce (in-place)
I1029 13:21:12.401814  3028 net.cpp:122] Setting up inception_5b/relu_3x3_reduce
I1029 13:21:12.401842  3028 net.cpp:129] Top shape: 30 192 7 7 (282240)
I1029 13:21:12.401846  3028 net.cpp:137] Memory required for data: 1663289048
I1029 13:21:12.401850  3028 layer_factory.hpp:77] Creating layer inception_5b/3x3
I1029 13:21:12.401867  3028 net.cpp:84] Creating Layer inception_5b/3x3
I1029 13:21:12.401872  3028 net.cpp:406] inception_5b/3x3 <- inception_5b/3x3_reduce
I1029 13:21:12.401881  3028 net.cpp:380] inception_5b/3x3 -> inception_5b/3x3
I1029 13:21:12.410594  3028 net.cpp:122] Setting up inception_5b/3x3
I1029 13:21:12.410631  3028 net.cpp:129] Top shape: 30 384 7 7 (564480)
I1029 13:21:12.410636  3028 net.cpp:137] Memory required for data: 1665546968
I1029 13:21:12.410650  3028 layer_factory.hpp:77] Creating layer inception_5b/relu_3x3
I1029 13:21:12.410663  3028 net.cpp:84] Creating Layer inception_5b/relu_3x3
I1029 13:21:12.410671  3028 net.cpp:406] inception_5b/relu_3x3 <- inception_5b/3x3
I1029 13:21:12.410683  3028 net.cpp:367] inception_5b/relu_3x3 -> inception_5b/3x3 (in-place)
I1029 13:21:12.411206  3028 net.cpp:122] Setting up inception_5b/relu_3x3
I1029 13:21:12.411217  3028 net.cpp:129] Top shape: 30 384 7 7 (564480)
I1029 13:21:12.411222  3028 net.cpp:137] Memory required for data: 1667804888
I1029 13:21:12.411226  3028 layer_factory.hpp:77] Creating layer inception_5b/5x5_reduce
I1029 13:21:12.411240  3028 net.cpp:84] Creating Layer inception_5b/5x5_reduce
I1029 13:21:12.411254  3028 net.cpp:406] inception_5b/5x5_reduce <- inception_5a/output_inception_5a/output_0_split_2
I1029 13:21:12.411263  3028 net.cpp:380] inception_5b/5x5_reduce -> inception_5b/5x5_reduce
I1029 13:21:12.412937  3028 net.cpp:122] Setting up inception_5b/5x5_reduce
I1029 13:21:12.412956  3028 net.cpp:129] Top shape: 30 48 7 7 (70560)
I1029 13:21:12.412961  3028 net.cpp:137] Memory required for data: 1668087128
I1029 13:21:12.412969  3028 layer_factory.hpp:77] Creating layer inception_5b/relu_5x5_reduce
I1029 13:21:12.412977  3028 net.cpp:84] Creating Layer inception_5b/relu_5x5_reduce
I1029 13:21:12.412983  3028 net.cpp:406] inception_5b/relu_5x5_reduce <- inception_5b/5x5_reduce
I1029 13:21:12.412992  3028 net.cpp:367] inception_5b/relu_5x5_reduce -> inception_5b/5x5_reduce (in-place)
I1029 13:21:12.413281  3028 net.cpp:122] Setting up inception_5b/relu_5x5_reduce
I1029 13:21:12.413292  3028 net.cpp:129] Top shape: 30 48 7 7 (70560)
I1029 13:21:12.413297  3028 net.cpp:137] Memory required for data: 1668369368
I1029 13:21:12.413301  3028 layer_factory.hpp:77] Creating layer inception_5b/5x5
I1029 13:21:12.413311  3028 net.cpp:84] Creating Layer inception_5b/5x5
I1029 13:21:12.413316  3028 net.cpp:406] inception_5b/5x5 <- inception_5b/5x5_reduce
I1029 13:21:12.413323  3028 net.cpp:380] inception_5b/5x5 -> inception_5b/5x5
I1029 13:21:12.417469  3028 net.cpp:122] Setting up inception_5b/5x5
I1029 13:21:12.417512  3028 net.cpp:129] Top shape: 30 128 7 7 (188160)
I1029 13:21:12.417517  3028 net.cpp:137] Memory required for data: 1669122008
I1029 13:21:12.417531  3028 layer_factory.hpp:77] Creating layer inception_5b/relu_5x5
I1029 13:21:12.417542  3028 net.cpp:84] Creating Layer inception_5b/relu_5x5
I1029 13:21:12.417551  3028 net.cpp:406] inception_5b/relu_5x5 <- inception_5b/5x5
I1029 13:21:12.417562  3028 net.cpp:367] inception_5b/relu_5x5 -> inception_5b/5x5 (in-place)
I1029 13:21:12.417773  3028 net.cpp:122] Setting up inception_5b/relu_5x5
I1029 13:21:12.417814  3028 net.cpp:129] Top shape: 30 128 7 7 (188160)
I1029 13:21:12.417850  3028 net.cpp:137] Memory required for data: 1669874648
I1029 13:21:12.417853  3028 layer_factory.hpp:77] Creating layer inception_5b/pool
I1029 13:21:12.417862  3028 net.cpp:84] Creating Layer inception_5b/pool
I1029 13:21:12.417868  3028 net.cpp:406] inception_5b/pool <- inception_5a/output_inception_5a/output_0_split_3
I1029 13:21:12.417879  3028 net.cpp:380] inception_5b/pool -> inception_5b/pool
I1029 13:21:12.417939  3028 net.cpp:122] Setting up inception_5b/pool
I1029 13:21:12.417948  3028 net.cpp:129] Top shape: 30 832 7 7 (1223040)
I1029 13:21:12.417953  3028 net.cpp:137] Memory required for data: 1674766808
I1029 13:21:12.417955  3028 layer_factory.hpp:77] Creating layer inception_5b/pool_proj
I1029 13:21:12.417970  3028 net.cpp:84] Creating Layer inception_5b/pool_proj
I1029 13:21:12.417975  3028 net.cpp:406] inception_5b/pool_proj <- inception_5b/pool
I1029 13:21:12.417982  3028 net.cpp:380] inception_5b/pool_proj -> inception_5b/pool_proj
I1029 13:21:12.420291  3028 net.cpp:122] Setting up inception_5b/pool_proj
I1029 13:21:12.420315  3028 net.cpp:129] Top shape: 30 128 7 7 (188160)
I1029 13:21:12.420320  3028 net.cpp:137] Memory required for data: 1675519448
I1029 13:21:12.420331  3028 layer_factory.hpp:77] Creating layer inception_5b/relu_pool_proj
I1029 13:21:12.420341  3028 net.cpp:84] Creating Layer inception_5b/relu_pool_proj
I1029 13:21:12.420346  3028 net.cpp:406] inception_5b/relu_pool_proj <- inception_5b/pool_proj
I1029 13:21:12.420353  3028 net.cpp:367] inception_5b/relu_pool_proj -> inception_5b/pool_proj (in-place)
I1029 13:21:12.420558  3028 net.cpp:122] Setting up inception_5b/relu_pool_proj
I1029 13:21:12.420567  3028 net.cpp:129] Top shape: 30 128 7 7 (188160)
I1029 13:21:12.420572  3028 net.cpp:137] Memory required for data: 1676272088
I1029 13:21:12.420575  3028 layer_factory.hpp:77] Creating layer inception_5b/output
I1029 13:21:12.420584  3028 net.cpp:84] Creating Layer inception_5b/output
I1029 13:21:12.420589  3028 net.cpp:406] inception_5b/output <- inception_5b/1x1
I1029 13:21:12.420595  3028 net.cpp:406] inception_5b/output <- inception_5b/3x3
I1029 13:21:12.420600  3028 net.cpp:406] inception_5b/output <- inception_5b/5x5
I1029 13:21:12.420605  3028 net.cpp:406] inception_5b/output <- inception_5b/pool_proj
I1029 13:21:12.420613  3028 net.cpp:380] inception_5b/output -> inception_5b/output
I1029 13:21:12.420648  3028 net.cpp:122] Setting up inception_5b/output
I1029 13:21:12.420655  3028 net.cpp:129] Top shape: 30 1024 7 7 (1505280)
I1029 13:21:12.420658  3028 net.cpp:137] Memory required for data: 1682293208
I1029 13:21:12.420662  3028 layer_factory.hpp:77] Creating layer pool5/7x7_s1
I1029 13:21:12.420670  3028 net.cpp:84] Creating Layer pool5/7x7_s1
I1029 13:21:12.420673  3028 net.cpp:406] pool5/7x7_s1 <- inception_5b/output
I1029 13:21:12.420682  3028 net.cpp:380] pool5/7x7_s1 -> pool5/7x7_s1
I1029 13:21:12.420903  3028 net.cpp:122] Setting up pool5/7x7_s1
I1029 13:21:12.420915  3028 net.cpp:129] Top shape: 30 1024 1 1 (30720)
I1029 13:21:12.420918  3028 net.cpp:137] Memory required for data: 1682416088
I1029 13:21:12.420922  3028 layer_factory.hpp:77] Creating layer pool5/drop_7x7_s1
I1029 13:21:12.420929  3028 net.cpp:84] Creating Layer pool5/drop_7x7_s1
I1029 13:21:12.420934  3028 net.cpp:406] pool5/drop_7x7_s1 <- pool5/7x7_s1
I1029 13:21:12.420941  3028 net.cpp:367] pool5/drop_7x7_s1 -> pool5/7x7_s1 (in-place)
I1029 13:21:12.420971  3028 net.cpp:122] Setting up pool5/drop_7x7_s1
I1029 13:21:12.420977  3028 net.cpp:129] Top shape: 30 1024 1 1 (30720)
I1029 13:21:12.420981  3028 net.cpp:137] Memory required for data: 1682538968
I1029 13:21:12.420985  3028 layer_factory.hpp:77] Creating layer my-loss3/classifier
I1029 13:21:12.420994  3028 net.cpp:84] Creating Layer my-loss3/classifier
I1029 13:21:12.420997  3028 net.cpp:406] my-loss3/classifier <- pool5/7x7_s1
I1029 13:21:12.421006  3028 net.cpp:380] my-loss3/classifier -> my-loss3/classifier
I1029 13:21:12.421195  3028 net.cpp:122] Setting up my-loss3/classifier
I1029 13:21:12.421203  3028 net.cpp:129] Top shape: 30 1 (30)
I1029 13:21:12.421207  3028 net.cpp:137] Memory required for data: 1682539088
I1029 13:21:12.421214  3028 layer_factory.hpp:77] Creating layer loss3/loss
I1029 13:21:12.421221  3028 net.cpp:84] Creating Layer loss3/loss
I1029 13:21:12.421226  3028 net.cpp:406] loss3/loss <- my-loss3/classifier
I1029 13:21:12.421231  3028 net.cpp:406] loss3/loss <- label_data_1_split_2
I1029 13:21:12.421238  3028 net.cpp:380] loss3/loss -> loss3/loss
…
I1029 13:21:12.422325  3028 net.cpp:255] Network initialization done.
I1029 13:21:12.424115  3028 solver.cpp:172] Creating test net (#0) specified by net file: ./train_val.prototxt
I1029 13:21:12.424279  3028 net.cpp:294] The NetState phase (1) differed from the phase (0) specified by a rule in layer data
I1029 13:21:12.425519  3028 net.cpp:51] Initializing net from parameters: 
name: "GoogleNet"
state {
  phase: TEST
}
layer {
  name: "data"
  type: "HDF5Data"
  top: "data"
  top: "label"
  include {
    phase: TEST
  }
  hdf5_data_param {
    source: "./test.txt"
    batch_size: 1
  }
}
layer {
  name: "conv1/7x7_s2"
  type: "Convolution"
  bottom: "data"
  top: "conv1/7x7_s2"
  param {
    lr_mult: 1
    decay_mult: 1
  }
  param {
    lr_mult: 2
    decay_mult: 0
  }
  convolution_param {
    num_output: 64
    pad: 3
    kernel_size: 7
    stride: 2
    weight_filler {
      type: "xavier"
    }
    bias_filler {
      type: "constant"
      value: 0.2
    }
  }
}
layer {
  name: "conv1/relu_7x7"
  type: "ReLU"
  bottom: "conv1/7x7_s2"
  top: "conv1/7x7_s2"
}
layer {
  name: "pool1/3x3_s2"
  type: "Pooling"
  bottom: "conv1/7x7_s2"
  top: "pool1/3x3_s2"
  pooling_param {
    pool: MAX
    kernel_size: 3
    stride: 2
  }
}
layer {
  name: "pool1/norm1"
  type: "LRN"
  bottom: "pool1/3x3_s2"
  top: "pool1/norm1"
  lrn_param {
    local_size: 5
    alpha: 0.0001
    beta: 0.75
  }
}
layer {
  name: "conv2/3x3_reduce"
  type: "Convolution"
  bottom: "pool1/norm1"
  top: "conv2/3x3_reduce"
  param {
    lr_mult: 1
    decay_mult: 1
  }
  param {
    lr_mult: 2
    decay_mult: 0
  }
  convolution_param {
    num_output: 64
    kernel_size: 1
    weight_filler {
      type: "xavier"
    }
    bias_filler {
      type: "constant"
      value: 0.2
    }
  }
}
layer {
  name: "conv2/relu_3x3_reduce"
  type: "ReLU"
  bottom: "conv2/3x3_reduce"
  top: "conv2/3x3_reduce"
}
layer {
  name: "conv2/3x3"
  type: "Convolution"
  bottom: "conv2/3x3_reduce"
  top: "conv2/3x3"
  param {
    lr_mult: 1
    decay_mult: 1
  }
  param {
    lr_mult: 2
    decay_mult: 0
  }
  convolution_param {
    num_output: 192
    pad: 1
    kernel_size: 3
    weight_filler {
      type: "xavier"
    }
    bias_filler {
      type: "constant"
      value: 0.2
    }
  }
}
layer {
  name: "conv2/relu_3x3"
  type: "ReLU"
  bottom: "conv2/3x3"
  top: "conv2/3x3"
}
layer {
  name: "conv2/norm2"
  type: "LRN"
  bottom: "conv2/3x3"
  top: "conv2/norm2"
  lrn_param {
    local_size: 5
    alpha: 0.0001
    beta: 0.75
  }
}
layer {
  name: "pool2/3x3_s2"
  type: "Pooling"
  bottom: "conv2/norm2"
  top: "pool2/3x3_s2"
  pooling_param {
    pool: MAX
    kernel_size: 3
    stride: 2
  }
}
layer {
  name: "inception_3a/1x1"
  type: "Convolution"
  bottom: "pool2/3x3_s2"
  top: "inception_3a/1x1"
  param {
    lr_mult: 1
    decay_mult: 1
  }
  param {
    lr_mult: 2
    decay_mult: 0
  }
  convolution_param {
    num_output: 64
    kernel_size: 1
    weight_filler {
      type: "xavier"
    }
    bias_filler {
      type: "constant"
      value: 0.2
    }
  }
}
layer {
  name: "inception_3a/relu_1x1"
  type: "ReLU"
  bottom: "inception_3a/1x1"
  top: "inception_3a/1x1"
}
layer {
  name: "inception_3a/3x3_reduce"
  type: "Convolution"
  bottom: "pool2/3x3_s2"
  top: "inception_3a/3x3_reduce"
  param {
    lr_mult: 1
    decay_mult: 1
  }
  param {
    lr_mult: 2
    decay_mult: 0
  }
  convolution_param {
    num_output: 96
    kernel_size: 1
    weight_filler {
      type: "xavier"
    }
    bias_filler {
      type: "constant"
      value: 0.2
    }
  }
}
layer {
  name: "inception_3a/relu_3x3_reduce"
  type: "ReLU"
  bottom: "inception_3a/3x3_reduce"
  top: "inception_3a/3x3_reduce"
}
layer {
  name: "inception_3a/3x3"
  type: "Convolution"
  bottom: "inception_3a/3x3_reduce"
  top: "inception_3a/3x3"
  param {
    lr_mult: 1
    decay_mult: 1
  }
  param {
    lr_mult: 2
    decay_mult: 0
  }
  convolution_param {
    num_output: 128
    pad: 1
    kernel_size: 3
    weight_filler {
      type: "xavier"
    }
    bias_filler {
      type: "constant"
      value: 0.2
    }
  }
}
layer {
  name: "inception_3a/relu_3x3"
  type: "ReLU"
  bottom: "inception_3a/3x3"
  top: "inception_3a/3x3"
}
layer {
  name: "inception_3a/5x5_reduce"
  type: "Convolution"
  bottom: "pool2/3x3_s2"
  top: "inception_3a/5x5_reduce"
  param {
    lr_mult: 1
    decay_mult: 1
  }
  param {
    lr_mult: 2
    decay_mult: 0
  }
  convolution_param {
    num_output: 16
    kernel_size: 1
    weight_filler {
      type: "xavier"
    }
    bias_filler {
      type: "constant"
      value: 0.2
    }
  }
}
layer {
  name: "inception_3a/relu_5x5_reduce"
  type: "ReLU"
  bottom: "inception_3a/5x5_reduce"
  top: "inception_3a/5x5_reduce"
}
layer {
  name: "inception_3a/5x5"
  type: "Convolution"
  bottom: "inception_3a/5x5_reduce"
  top: "inception_3a/5x5"
  param {
    lr_mult: 1
    decay_mult: 1
  }
  param {
    lr_mult: 2
    decay_mult: 0
  }
  convolution_param {
    num_output: 32
    pad: 2
    kernel_size: 5
    weight_filler {
      type: "xavier"
    }
    bias_filler {
      type: "constant"
      value: 0.2
    }
  }
}
layer {
  name: "inception_3a/relu_5x5"
  type: "ReLU"
  bottom: "inception_3a/5x5"
  top: "inception_3a/5x5"
}
layer {
  name: "inception_3a/pool"
  type: "Pooling"
  bottom: "pool2/3x3_s2"
  top: "inception_3a/pool"
  pooling_param {
    pool: MAX
    kernel_size: 3
    stride: 1
    pad: 1
  }
}
layer {
  name: "inception_3a/pool_proj"
  type: "Convolution"
  bottom: "inception_3a/pool"
  top: "inception_3a/pool_proj"
  param {
    lr_mult: 1
    decay_mult: 1
  }
  param {
    lr_mult: 2
    decay_mult: 0
  }
  convolution_param {
    num_output: 32
    kernel_size: 1
    weight_filler {
      type: "xavier"
    }
    bias_filler {
      type: "constant"
      value: 0.2
    }
  }
}
layer {
  name: "inception_3a/relu_pool_proj"
  type: "ReLU"
  bottom: "inception_3a/pool_proj"
  top: "inception_3a/pool_proj"
}
layer {
  name: "inception_3a/output"
  type: "Concat"
  bottom: "inception_3a/1x1"
  bottom: "inception_3a/3x3"
  bottom: "inception_3a/5x5"
  bottom: "inception_3a/pool_proj"
  top: "inception_3a/output"
}
layer {
  name: "inception_3b/1x1"
  type: "Convolution"
  bottom: "inception_3a/output"
  top: "inception_3b/1x1"
  param {
    lr_mult: 1
    decay_mult: 1
  }
  param {
    lr_mult: 2
    decay_mult: 0
  }
  convolution_param {
    num_output: 128
    kernel_size: 1
    weight_filler {
      type: "xavier"
    }
    bias_filler {
      type: "constant"
      value: 0.2
    }
  }
}
layer {
  name: "inception_3b/relu_1x1"
  type: "ReLU"
  bottom: "inception_3b/1x1"
  top: "inception_3b/1x1"
}
layer {
  name: "inception_3b/3x3_reduce"
  type: "Convolution"
  bottom: "inception_3a/output"
  top: "inception_3b/3x3_reduce"
  param {
    lr_mult: 1
    decay_mult: 1
  }
  param {
    lr_mult: 2
    decay_mult: 0
  }
  convolution_param {
    num_output: 128
    kernel_size: 1
    weight_filler {
      type: "xavier"
    }
    bias_filler {
      type: "constant"
      value: 0.2
    }
  }
}
layer {
  name: "inception_3b/relu_3x3_reduce"
  type: "ReLU"
  bottom: "inception_3b/3x3_reduce"
  top: "inception_3b/3x3_reduce"
}
layer {
  name: "inception_3b/3x3"
  type: "Convolution"
  bottom: "inception_3b/3x3_reduce"
  top: "inception_3b/3x3"
  param {
    lr_mult: 1
    decay_mult: 1
  }
  param {
    lr_mult: 2
    decay_mult: 0
  }
  convolution_param {
    num_output: 192
    pad: 1
    kernel_size: 3
    weight_filler {
      type: "xavier"
    }
    bias_filler {
      type: "constant"
      value: 0.2
    }
  }
}
layer {
  name: "inception_3b/relu_3x3"
  type: "ReLU"
  bottom: "inception_3b/3x3"
  top: "inception_3b/3x3"
}
layer {
  name: "inception_3b/5x5_reduce"
  type: "Convolution"
  bottom: "inception_3a/output"
  top: "inception_3b/5x5_reduce"
  param {
    lr_mult: 1
    decay_mult: 1
  }
  param {
    lr_mult: 2
    decay_mult: 0
  }
  convolution_param {
    num_output: 32
    kernel_size: 1
    weight_filler {
      type: "xavier"
    }
    bias_filler {
      type: "constant"
      value: 0.2
    }
  }
}
layer {
  name: "inception_3b/relu_5x5_reduce"
  type: "ReLU"
  bottom: "inception_3b/5x5_reduce"
  top: "inception_3b/5x5_reduce"
}
layer {
  name: "inception_3b/5x5"
  type: "Convolution"
  bottom: "inception_3b/5x5_reduce"
  top: "inception_3b/5x5"
  param {
    lr_mult: 1
    decay_mult: 1
  }
  param {
    lr_mult: 2
    decay_mult: 0
  }
  convolution_param {
    num_output: 96
    pad: 2
    kernel_size: 5
    weight_filler {
      type: "xavier"
    }
    bias_filler {
      type: "constant"
      value: 0.2
    }
  }
}
layer {
  name: "inception_3b/relu_5x5"
  type: "ReLU"
  bottom: "inception_3b/5x5"
  top: "inception_3b/5x5"
}
layer {
  name: "inception_3b/pool"
  type: "Pooling"
  bottom: "inception_3a/output"
  top: "inception_3b/pool"
  pooling_param {
    pool: MAX
    kernel_size: 3
    stride: 1
    pad: 1
  }
}
layer {
  name: "inception_3b/pool_proj"
  type: "Convolution"
  bottom: "inception_3b/pool"
  top: "inception_3b/pool_proj"
  param {
    lr_mult: 1
    decay_mult: 1
  }
  param {
    lr_mult: 2
    decay_mult: 0
  }
  convolution_param {
    num_output: 64
    kernel_size: 1
    weight_filler {
      type: "xavier"
    }
    bias_filler {
      type: "constant"
      value: 0.2
    }
  }
}
layer {
  name: "inception_3b/relu_pool_proj"
  type: "ReLU"
  bottom: "inception_3b/pool_proj"
  top: "inception_3b/pool_proj"
}
layer {
  name: "inception_3b/output"
  type: "Concat"
  bottom: "inception_3b/1x1"
  bottom: "inception_3b/3x3"
  bottom: "inception_3b/5x5"
  bottom: "inception_3b/pool_proj"
  top: "inception_3b/output"
}
layer {
  name: "pool3/3x3_s2"
  type: "Pooling"
  bottom: "inception_3b/output"
  top: "pool3/3x3_s2"
  pooling_param {
    pool: MAX
    kernel_size: 3
    stride: 2
  }
}
layer {
  name: "inception_4a/1x1"
  type: "Convolution"
  bottom: "pool3/3x3_s2"
  top: "inception_4a/1x1"
  param {
    lr_mult: 1
    decay_mult: 1
  }
  param {
    lr_mult: 2
    decay_mult: 0
  }
  convolution_param {
    num_output: 192
    kernel_size: 1
    weight_filler {
      type: "xavier"
    }
    bias_filler {
      type: "constant"
      value: 0.2
    }
  }
}
layer {
  name: "inception_4a/relu_1x1"
  type: "ReLU"
  bottom: "inception_4a/1x1"
  top: "inception_4a/1x1"
}
layer {
  name: "inception_4a/3x3_reduce"
  type: "Convolution"
  bottom: "pool3/3x3_s2"
  top: "inception_4a/3x3_reduce"
  param {
    lr_mult: 1
    decay_mult: 1
  }
  param {
    lr_mult: 2
    decay_mult: 0
  }
  convolution_param {
    num_output: 96
    kernel_size: 1
    weight_filler {
      type: "xavier"
    }
    bias_filler {
      type: "constant"
      value: 0.2
    }
  }
}
layer {
  name: "inception_4a/relu_3x3_reduce"
  type: "ReLU"
  bottom: "inception_4a/3x3_reduce"
  top: "inception_4a/3x3_reduce"
}
layer {
  name: "inception_4a/3x3"
  type: "Convolution"
  bottom: "inception_4a/3x3_reduce"
  top: "inception_4a/3x3"
  param {
    lr_mult: 1
    decay_mult: 1
  }
  param {
    lr_mult: 2
    decay_mult: 0
  }
  convolution_param {
    num_output: 208
    pad: 1
    kernel_size: 3
    weight_filler {
      type: "xavier"
    }
    bias_filler {
      type: "constant"
      value: 0.2
    }
  }
}
layer {
  name: "inception_4a/relu_3x3"
  type: "ReLU"
  bottom: "inception_4a/3x3"
  top: "inception_4a/3x3"
}
layer {
  name: "inception_4a/5x5_reduce"
  type: "Convolution"
  bottom: "pool3/3x3_s2"
  top: "inception_4a/5x5_reduce"
  param {
    lr_mult: 1
    decay_mult: 1
  }
  param {
    lr_mult: 2
    decay_mult: 0
  }
  convolution_param {
    num_output: 16
    kernel_size: 1
    weight_filler {
      type: "xavier"
    }
    bias_filler {
      type: "constant"
      value: 0.2
    }
  }
}
layer {
  name: "inception_4a/relu_5x5_reduce"
  type: "ReLU"
  bottom: "inception_4a/5x5_reduce"
  top: "inception_4a/5x5_reduce"
}
layer {
  name: "inception_4a/5x5"
  type: "Convolution"
  bottom: "inception_4a/5x5_reduce"
  top: "inception_4a/5x5"
  param {
    lr_mult: 1
    decay_mult: 1
  }
  param {
    lr_mult: 2
    decay_mult: 0
  }
  convolution_param {
    num_output: 48
    pad: 2
    kernel_size: 5
    weight_filler {
      type: "xavier"
    }
    bias_filler {
      type: "constant"
      value: 0.2
    }
  }
}
layer {
  name: "inception_4a/relu_5x5"
  type: "ReLU"
  bottom: "inception_4a/5x5"
  top: "inception_4a/5x5"
}
layer {
  name: "inception_4a/pool"
  type: "Pooling"
  bottom: "pool3/3x3_s2"
  top: "inception_4a/pool"
  pooling_param {
    pool: MAX
    kernel_size: 3
    stride: 1
    pad: 1
  }
}
layer {
  name: "inception_4a/pool_proj"
  type: "Convolution"
  bottom: "inception_4a/pool"
  top: "inception_4a/pool_proj"
  param {
    lr_mult: 1
    decay_mult: 1
  }
  param {
    lr_mult: 2
    decay_mult: 0
  }
  convolution_param {
    num_output: 64
    kernel_size: 1
    weight_filler {
      type: "xavier"
    }
    bias_filler {
      type: "constant"
      value: 0.2
    }
  }
}
layer {
  name: "inception_4a/relu_pool_proj"
  type: "ReLU"
  bottom: "inception_4a/pool_proj"
  top: "inception_4a/pool_proj"
}
layer {
  name: "inception_4a/output"
  type: "Concat"
  bottom: "inception_4a/1x1"
  bottom: "inception_4a/3x3"
  bottom: "inception_4a/5x5"
  bottom: "inception_4a/pool_proj"
  top: "inception_4a/output"
}
layer {
  name: "loss1/ave_pool"
  type: "Pooling"
  bottom: "inception_4a/output"
  top: "loss1/ave_pool"
  pooling_param {
    pool: AVE
    kernel_size: 5
    stride: 3
  }
}
layer {
  name: "loss1/conv"
  type: "Convolution"
  bottom: "loss1/ave_pool"
  top: "loss1/conv"
  param {
    lr_mult: 1
    decay_mult: 1
  }
  param {
    lr_mult: 2
    decay_mult: 0
  }
  convolution_param {
    num_output: 128
    kernel_size: 1
    weight_filler {
      type: "xavier"
    }
    bias_filler {
      type: "constant"
      value: 0.2
    }
  }
}
layer {
  name: "loss1/relu_conv"
  type: "ReLU"
  bottom: "loss1/conv"
  top: "loss1/conv"
}
layer {
  name: "loss1/fc"
  type: "InnerProduct"
  bottom: "loss1/conv"
  top: "loss1/fc"
  param {
    lr_mult: 1
    decay_mult: 1
  }
  param {
    lr_mult: 2
    decay_mult: 0
  }
  inner_product_param {
    num_output: 1024
    weight_filler {
      type: "xavier"
    }
    bias_filler {
      type: "constant"
      value: 0.2
    }
  }
}
layer {
  name: "loss1/relu_fc"
  type: "ReLU"
  bottom: "loss1/fc"
  top: "loss1/fc"
}
layer {
  name: "loss1/drop_fc"
  type: "Dropout"
  bottom: "loss1/fc"
  top: "loss1/fc"
  dropout_param {
    dropout_ratio: 0.7
  }
}
layer {
  name: "my-loss1/classifier"
  type: "InnerProduct"
  bottom: "loss1/fc"
  top: "my-loss1/classifier"
  param {
    lr_mult: 1
    decay_mult: 1
  }
  param {
    lr_mult: 2
…
I1029 13:21:13.017933  3028 net.cpp:129] Top shape: 1 256 14 14 (50176)
I1029 13:21:13.017938  3028 net.cpp:137] Memory required for data: 43651864
I1029 13:21:13.017944  3028 layer_factory.hpp:77] Creating layer inception_4c/5x5_reduce
I1029 13:21:13.017961  3028 net.cpp:84] Creating Layer inception_4c/5x5_reduce
I1029 13:21:13.017968  3028 net.cpp:406] inception_4c/5x5_reduce <- inception_4b/output_inception_4b/output_0_split_2
I1029 13:21:13.017982  3028 net.cpp:380] inception_4c/5x5_reduce -> inception_4c/5x5_reduce
I1029 13:21:13.019608  3028 net.cpp:122] Setting up inception_4c/5x5_reduce
I1029 13:21:13.019630  3028 net.cpp:129] Top shape: 1 24 14 14 (4704)
I1029 13:21:13.019635  3028 net.cpp:137] Memory required for data: 43670680
I1029 13:21:13.019647  3028 layer_factory.hpp:77] Creating layer inception_4c/relu_5x5_reduce
I1029 13:21:13.019660  3028 net.cpp:84] Creating Layer inception_4c/relu_5x5_reduce
I1029 13:21:13.019666  3028 net.cpp:406] inception_4c/relu_5x5_reduce <- inception_4c/5x5_reduce
I1029 13:21:13.019675  3028 net.cpp:367] inception_4c/relu_5x5_reduce -> inception_4c/5x5_reduce (in-place)
I1029 13:21:13.019917  3028 net.cpp:122] Setting up inception_4c/relu_5x5_reduce
I1029 13:21:13.019927  3028 net.cpp:129] Top shape: 1 24 14 14 (4704)
I1029 13:21:13.019932  3028 net.cpp:137] Memory required for data: 43689496
I1029 13:21:13.019937  3028 layer_factory.hpp:77] Creating layer inception_4c/5x5
I1029 13:21:13.019949  3028 net.cpp:84] Creating Layer inception_4c/5x5
I1029 13:21:13.019969  3028 net.cpp:406] inception_4c/5x5 <- inception_4c/5x5_reduce
I1029 13:21:13.019980  3028 net.cpp:380] inception_4c/5x5 -> inception_4c/5x5
I1029 13:21:13.021773  3028 net.cpp:122] Setting up inception_4c/5x5
I1029 13:21:13.021793  3028 net.cpp:129] Top shape: 1 64 14 14 (12544)
I1029 13:21:13.021801  3028 net.cpp:137] Memory required for data: 43739672
I1029 13:21:13.021811  3028 layer_factory.hpp:77] Creating layer inception_4c/relu_5x5
I1029 13:21:13.021838  3028 net.cpp:84] Creating Layer inception_4c/relu_5x5
I1029 13:21:13.021844  3028 net.cpp:406] inception_4c/relu_5x5 <- inception_4c/5x5
I1029 13:21:13.021855  3028 net.cpp:367] inception_4c/relu_5x5 -> inception_4c/5x5 (in-place)
I1029 13:21:13.022088  3028 net.cpp:122] Setting up inception_4c/relu_5x5
I1029 13:21:13.022097  3028 net.cpp:129] Top shape: 1 64 14 14 (12544)
I1029 13:21:13.022102  3028 net.cpp:137] Memory required for data: 43789848
I1029 13:21:13.022106  3028 layer_factory.hpp:77] Creating layer inception_4c/pool
I1029 13:21:13.022119  3028 net.cpp:84] Creating Layer inception_4c/pool
I1029 13:21:13.022130  3028 net.cpp:406] inception_4c/pool <- inception_4b/output_inception_4b/output_0_split_3
I1029 13:21:13.022137  3028 net.cpp:380] inception_4c/pool -> inception_4c/pool
I1029 13:21:13.022204  3028 net.cpp:122] Setting up inception_4c/pool
I1029 13:21:13.022213  3028 net.cpp:129] Top shape: 1 512 14 14 (100352)
I1029 13:21:13.022217  3028 net.cpp:137] Memory required for data: 44191256
I1029 13:21:13.022222  3028 layer_factory.hpp:77] Creating layer inception_4c/pool_proj
I1029 13:21:13.022236  3028 net.cpp:84] Creating Layer inception_4c/pool_proj
I1029 13:21:13.022243  3028 net.cpp:406] inception_4c/pool_proj <- inception_4c/pool
I1029 13:21:13.022254  3028 net.cpp:380] inception_4c/pool_proj -> inception_4c/pool_proj
I1029 13:21:13.024016  3028 net.cpp:122] Setting up inception_4c/pool_proj
I1029 13:21:13.024036  3028 net.cpp:129] Top shape: 1 64 14 14 (12544)
I1029 13:21:13.024041  3028 net.cpp:137] Memory required for data: 44241432
I1029 13:21:13.024054  3028 layer_factory.hpp:77] Creating layer inception_4c/relu_pool_proj
I1029 13:21:13.024063  3028 net.cpp:84] Creating Layer inception_4c/relu_pool_proj
I1029 13:21:13.024072  3028 net.cpp:406] inception_4c/relu_pool_proj <- inception_4c/pool_proj
I1029 13:21:13.024082  3028 net.cpp:367] inception_4c/relu_pool_proj -> inception_4c/pool_proj (in-place)
I1029 13:21:13.024302  3028 net.cpp:122] Setting up inception_4c/relu_pool_proj
I1029 13:21:13.024312  3028 net.cpp:129] Top shape: 1 64 14 14 (12544)
I1029 13:21:13.024315  3028 net.cpp:137] Memory required for data: 44291608
I1029 13:21:13.024320  3028 layer_factory.hpp:77] Creating layer inception_4c/output
I1029 13:21:13.024333  3028 net.cpp:84] Creating Layer inception_4c/output
I1029 13:21:13.024338  3028 net.cpp:406] inception_4c/output <- inception_4c/1x1
I1029 13:21:13.024344  3028 net.cpp:406] inception_4c/output <- inception_4c/3x3
I1029 13:21:13.024351  3028 net.cpp:406] inception_4c/output <- inception_4c/5x5
I1029 13:21:13.024358  3028 net.cpp:406] inception_4c/output <- inception_4c/pool_proj
I1029 13:21:13.024365  3028 net.cpp:380] inception_4c/output -> inception_4c/output
I1029 13:21:13.024412  3028 net.cpp:122] Setting up inception_4c/output
I1029 13:21:13.024421  3028 net.cpp:129] Top shape: 1 512 14 14 (100352)
I1029 13:21:13.024426  3028 net.cpp:137] Memory required for data: 44693016
I1029 13:21:13.024431  3028 layer_factory.hpp:77] Creating layer inception_4c/output_inception_4c/output_0_split
I1029 13:21:13.024441  3028 net.cpp:84] Creating Layer inception_4c/output_inception_4c/output_0_split
I1029 13:21:13.024446  3028 net.cpp:406] inception_4c/output_inception_4c/output_0_split <- inception_4c/output
I1029 13:21:13.024454  3028 net.cpp:380] inception_4c/output_inception_4c/output_0_split -> inception_4c/output_inception_4c/output_0_split_0
I1029 13:21:13.024466  3028 net.cpp:380] inception_4c/output_inception_4c/output_0_split -> inception_4c/output_inception_4c/output_0_split_1
I1029 13:21:13.024497  3028 net.cpp:380] inception_4c/output_inception_4c/output_0_split -> inception_4c/output_inception_4c/output_0_split_2
I1029 13:21:13.024509  3028 net.cpp:380] inception_4c/output_inception_4c/output_0_split -> inception_4c/output_inception_4c/output_0_split_3
I1029 13:21:13.024619  3028 net.cpp:122] Setting up inception_4c/output_inception_4c/output_0_split
I1029 13:21:13.024627  3028 net.cpp:129] Top shape: 1 512 14 14 (100352)
I1029 13:21:13.024634  3028 net.cpp:129] Top shape: 1 512 14 14 (100352)
I1029 13:21:13.024641  3028 net.cpp:129] Top shape: 1 512 14 14 (100352)
I1029 13:21:13.024646  3028 net.cpp:129] Top shape: 1 512 14 14 (100352)
I1029 13:21:13.024651  3028 net.cpp:137] Memory required for data: 46298648
I1029 13:21:13.024655  3028 layer_factory.hpp:77] Creating layer inception_4d/1x1
I1029 13:21:13.024672  3028 net.cpp:84] Creating Layer inception_4d/1x1
I1029 13:21:13.024678  3028 net.cpp:406] inception_4d/1x1 <- inception_4c/output_inception_4c/output_0_split_0
I1029 13:21:13.024688  3028 net.cpp:380] inception_4d/1x1 -> inception_4d/1x1
I1029 13:21:13.027079  3028 net.cpp:122] Setting up inception_4d/1x1
I1029 13:21:13.027117  3028 net.cpp:129] Top shape: 1 112 14 14 (21952)
I1029 13:21:13.027122  3028 net.cpp:137] Memory required for data: 46386456
I1029 13:21:13.027144  3028 layer_factory.hpp:77] Creating layer inception_4d/relu_1x1
I1029 13:21:13.027168  3028 net.cpp:84] Creating Layer inception_4d/relu_1x1
I1029 13:21:13.027179  3028 net.cpp:406] inception_4d/relu_1x1 <- inception_4d/1x1
I1029 13:21:13.027189  3028 net.cpp:367] inception_4d/relu_1x1 -> inception_4d/1x1 (in-place)
I1029 13:21:13.027493  3028 net.cpp:122] Setting up inception_4d/relu_1x1
I1029 13:21:13.027518  3028 net.cpp:129] Top shape: 1 112 14 14 (21952)
I1029 13:21:13.027526  3028 net.cpp:137] Memory required for data: 46474264
I1029 13:21:13.027532  3028 layer_factory.hpp:77] Creating layer inception_4d/3x3_reduce
I1029 13:21:13.027554  3028 net.cpp:84] Creating Layer inception_4d/3x3_reduce
I1029 13:21:13.027616  3028 net.cpp:406] inception_4d/3x3_reduce <- inception_4c/output_inception_4c/output_0_split_1
I1029 13:21:13.027650  3028 net.cpp:380] inception_4d/3x3_reduce -> inception_4d/3x3_reduce
I1029 13:21:13.030244  3028 net.cpp:122] Setting up inception_4d/3x3_reduce
I1029 13:21:13.030287  3028 net.cpp:129] Top shape: 1 144 14 14 (28224)
I1029 13:21:13.030292  3028 net.cpp:137] Memory required for data: 46587160
I1029 13:21:13.030305  3028 layer_factory.hpp:77] Creating layer inception_4d/relu_3x3_reduce
I1029 13:21:13.030319  3028 net.cpp:84] Creating Layer inception_4d/relu_3x3_reduce
I1029 13:21:13.030328  3028 net.cpp:406] inception_4d/relu_3x3_reduce <- inception_4d/3x3_reduce
I1029 13:21:13.030336  3028 net.cpp:367] inception_4d/relu_3x3_reduce -> inception_4d/3x3_reduce (in-place)
I1029 13:21:13.030561  3028 net.cpp:122] Setting up inception_4d/relu_3x3_reduce
I1029 13:21:13.030571  3028 net.cpp:129] Top shape: 1 144 14 14 (28224)
I1029 13:21:13.030575  3028 net.cpp:137] Memory required for data: 46700056
I1029 13:21:13.030580  3028 layer_factory.hpp:77] Creating layer inception_4d/3x3
I1029 13:21:13.030597  3028 net.cpp:84] Creating Layer inception_4d/3x3
I1029 13:21:13.030603  3028 net.cpp:406] inception_4d/3x3 <- inception_4d/3x3_reduce
I1029 13:21:13.030611  3028 net.cpp:380] inception_4d/3x3 -> inception_4d/3x3
I1029 13:21:13.036901  3028 net.cpp:122] Setting up inception_4d/3x3
I1029 13:21:13.036943  3028 net.cpp:129] Top shape: 1 288 14 14 (56448)
I1029 13:21:13.036948  3028 net.cpp:137] Memory required for data: 46925848
I1029 13:21:13.036962  3028 layer_factory.hpp:77] Creating layer inception_4d/relu_3x3
I1029 13:21:13.036975  3028 net.cpp:84] Creating Layer inception_4d/relu_3x3
I1029 13:21:13.036983  3028 net.cpp:406] inception_4d/relu_3x3 <- inception_4d/3x3
I1029 13:21:13.036993  3028 net.cpp:367] inception_4d/relu_3x3 -> inception_4d/3x3 (in-place)
I1029 13:21:13.037590  3028 net.cpp:122] Setting up inception_4d/relu_3x3
I1029 13:21:13.037605  3028 net.cpp:129] Top shape: 1 288 14 14 (56448)
I1029 13:21:13.037642  3028 net.cpp:137] Memory required for data: 47151640
I1029 13:21:13.037647  3028 layer_factory.hpp:77] Creating layer inception_4d/5x5_reduce
I1029 13:21:13.037662  3028 net.cpp:84] Creating Layer inception_4d/5x5_reduce
I1029 13:21:13.037668  3028 net.cpp:406] inception_4d/5x5_reduce <- inception_4c/output_inception_4c/output_0_split_2
I1029 13:21:13.037678  3028 net.cpp:380] inception_4d/5x5_reduce -> inception_4d/5x5_reduce
I1029 13:21:13.039402  3028 net.cpp:122] Setting up inception_4d/5x5_reduce
I1029 13:21:13.039425  3028 net.cpp:129] Top shape: 1 32 14 14 (6272)
I1029 13:21:13.039430  3028 net.cpp:137] Memory required for data: 47176728
I1029 13:21:13.039441  3028 layer_factory.hpp:77] Creating layer inception_4d/relu_5x5_reduce
I1029 13:21:13.039450  3028 net.cpp:84] Creating Layer inception_4d/relu_5x5_reduce
I1029 13:21:13.039456  3028 net.cpp:406] inception_4d/relu_5x5_reduce <- inception_4d/5x5_reduce
I1029 13:21:13.039465  3028 net.cpp:367] inception_4d/relu_5x5_reduce -> inception_4d/5x5_reduce (in-place)
I1029 13:21:13.039687  3028 net.cpp:122] Setting up inception_4d/relu_5x5_reduce
I1029 13:21:13.039700  3028 net.cpp:129] Top shape: 1 32 14 14 (6272)
I1029 13:21:13.039705  3028 net.cpp:137] Memory required for data: 47201816
I1029 13:21:13.039710  3028 layer_factory.hpp:77] Creating layer inception_4d/5x5
I1029 13:21:13.039724  3028 net.cpp:84] Creating Layer inception_4d/5x5
I1029 13:21:13.039731  3028 net.cpp:406] inception_4d/5x5 <- inception_4d/5x5_reduce
I1029 13:21:13.039739  3028 net.cpp:380] inception_4d/5x5 -> inception_4d/5x5
I1029 13:21:13.041683  3028 net.cpp:122] Setting up inception_4d/5x5
I1029 13:21:13.041703  3028 net.cpp:129] Top shape: 1 64 14 14 (12544)
I1029 13:21:13.041709  3028 net.cpp:137] Memory required for data: 47251992
I1029 13:21:13.041723  3028 layer_factory.hpp:77] Creating layer inception_4d/relu_5x5
I1029 13:21:13.041735  3028 net.cpp:84] Creating Layer inception_4d/relu_5x5
I1029 13:21:13.041741  3028 net.cpp:406] inception_4d/relu_5x5 <- inception_4d/5x5
I1029 13:21:13.041749  3028 net.cpp:367] inception_4d/relu_5x5 -> inception_4d/5x5 (in-place)
I1029 13:21:13.042001  3028 net.cpp:122] Setting up inception_4d/relu_5x5
I1029 13:21:13.042011  3028 net.cpp:129] Top shape: 1 64 14 14 (12544)
I1029 13:21:13.042016  3028 net.cpp:137] Memory required for data: 47302168
I1029 13:21:13.042021  3028 layer_factory.hpp:77] Creating layer inception_4d/pool
I1029 13:21:13.042031  3028 net.cpp:84] Creating Layer inception_4d/pool
I1029 13:21:13.042035  3028 net.cpp:406] inception_4d/pool <- inception_4c/output_inception_4c/output_0_split_3
I1029 13:21:13.042047  3028 net.cpp:380] inception_4d/pool -> inception_4d/pool
I1029 13:21:13.042116  3028 net.cpp:122] Setting up inception_4d/pool
I1029 13:21:13.042125  3028 net.cpp:129] Top shape: 1 512 14 14 (100352)
I1029 13:21:13.042130  3028 net.cpp:137] Memory required for data: 47703576
I1029 13:21:13.042135  3028 layer_factory.hpp:77] Creating layer inception_4d/pool_proj
I1029 13:21:13.042151  3028 net.cpp:84] Creating Layer inception_4d/pool_proj
I1029 13:21:13.042158  3028 net.cpp:406] inception_4d/pool_proj <- inception_4d/pool
I1029 13:21:13.042166  3028 net.cpp:380] inception_4d/pool_proj -> inception_4d/pool_proj
I1029 13:21:13.043970  3028 net.cpp:122] Setting up inception_4d/pool_proj
I1029 13:21:13.043994  3028 net.cpp:129] Top shape: 1 64 14 14 (12544)
I1029 13:21:13.043999  3028 net.cpp:137] Memory required for data: 47753752
I1029 13:21:13.044011  3028 layer_factory.hpp:77] Creating layer inception_4d/relu_pool_proj
I1029 13:21:13.044023  3028 net.cpp:84] Creating Layer inception_4d/relu_pool_proj
I1029 13:21:13.044044  3028 net.cpp:406] inception_4d/relu_pool_proj <- inception_4d/pool_proj
I1029 13:21:13.044054  3028 net.cpp:367] inception_4d/relu_pool_proj -> inception_4d/pool_proj (in-place)
I1029 13:21:13.044282  3028 net.cpp:122] Setting up inception_4d/relu_pool_proj
I1029 13:21:13.044291  3028 net.cpp:129] Top shape: 1 64 14 14 (12544)
I1029 13:21:13.044296  3028 net.cpp:137] Memory required for data: 47803928
I1029 13:21:13.044317  3028 layer_factory.hpp:77] Creating layer inception_4d/output
I1029 13:21:13.044328  3028 net.cpp:84] Creating Layer inception_4d/output
I1029 13:21:13.044337  3028 net.cpp:406] inception_4d/output <- inception_4d/1x1
I1029 13:21:13.044343  3028 net.cpp:406] inception_4d/output <- inception_4d/3x3
I1029 13:21:13.044350  3028 net.cpp:406] inception_4d/output <- inception_4d/5x5
I1029 13:21:13.044356  3028 net.cpp:406] inception_4d/output <- inception_4d/pool_proj
I1029 13:21:13.044366  3028 net.cpp:380] inception_4d/output -> inception_4d/output
I1029 13:21:13.044406  3028 net.cpp:122] Setting up inception_4d/output
I1029 13:21:13.044415  3028 net.cpp:129] Top shape: 1 528 14 14 (103488)
I1029 13:21:13.044420  3028 net.cpp:137] Memory required for data: 48217880
I1029 13:21:13.044425  3028 layer_factory.hpp:77] Creating layer inception_4d/output_inception_4d/output_0_split
I1029 13:21:13.044435  3028 net.cpp:84] Creating Layer inception_4d/output_inception_4d/output_0_split
I1029 13:21:13.044440  3028 net.cpp:406] inception_4d/output_inception_4d/output_0_split <- inception_4d/output
I1029 13:21:13.044450  3028 net.cpp:380] inception_4d/output_inception_4d/output_0_split -> inception_4d/output_inception_4d/output_0_split_0
I1029 13:21:13.044462  3028 net.cpp:380] inception_4d/output_inception_4d/output_0_split -> inception_4d/output_inception_4d/output_0_split_1
I1029 13:21:13.044473  3028 net.cpp:380] inception_4d/output_inception_4d/output_0_split -> inception_4d/output_inception_4d/output_0_split_2
I1029 13:21:13.044486  3028 net.cpp:380] inception_4d/output_inception_4d/output_0_split -> inception_4d/output_inception_4d/output_0_split_3
I1029 13:21:13.044498  3028 net.cpp:380] inception_4d/output_inception_4d/output_0_split -> inception_4d/output_inception_4d/output_0_split_4
I1029 13:21:13.044616  3028 net.cpp:122] Setting up inception_4d/output_inception_4d/output_0_split
I1029 13:21:13.044625  3028 net.cpp:129] Top shape: 1 528 14 14 (103488)
I1029 13:21:13.044631  3028 net.cpp:129] Top shape: 1 528 14 14 (103488)
I1029 13:21:13.044638  3028 net.cpp:129] Top shape: 1 528 14 14 (103488)
I1029 13:21:13.044644  3028 net.cpp:129] Top shape: 1 528 14 14 (103488)
I1029 13:21:13.044651  3028 net.cpp:129] Top shape: 1 528 14 14 (103488)
I1029 13:21:13.044654  3028 net.cpp:137] Memory required for data: 50287640
I1029 13:21:13.044661  3028 layer_factory.hpp:77] Creating layer loss2/ave_pool
I1029 13:21:13.044668  3028 net.cpp:84] Creating Layer loss2/ave_pool
I1029 13:21:13.044673  3028 net.cpp:406] loss2/ave_pool <- inception_4d/output_inception_4d/output_0_split_0
I1029 13:21:13.044682  3028 net.cpp:380] loss2/ave_pool -> loss2/ave_pool
I1029 13:21:13.044920  3028 net.cpp:122] Setting up loss2/ave_pool
I1029 13:21:13.044929  3028 net.cpp:129] Top shape: 1 528 4 4 (8448)
I1029 13:21:13.044934  3028 net.cpp:137] Memory required for data: 50321432
I1029 13:21:13.044939  3028 layer_factory.hpp:77] Creating layer loss2/conv
I1029 13:21:13.044951  3028 net.cpp:84] Creating Layer loss2/conv
I1029 13:21:13.044958  3028 net.cpp:406] loss2/conv <- loss2/ave_pool
I1029 13:21:13.044968  3028 net.cpp:380] loss2/conv -> loss2/conv
I1029 13:21:13.047127  3028 net.cpp:122] Setting up loss2/conv
I1029 13:21:13.047152  3028 net.cpp:129] Top shape: 1 128 4 4 (2048)
I1029 13:21:13.047158  3028 net.cpp:137] Memory required for data: 50329624
I1029 13:21:13.047169  3028 layer_factory.hpp:77] Creating layer loss2/relu_conv
I1029 13:21:13.047180  3028 net.cpp:84] Creating Layer loss2/relu_conv
I1029 13:21:13.047188  3028 net.cpp:406] loss2/relu_conv <- loss2/conv
I1029 13:21:13.047197  3028 net.cpp:367] loss2/relu_conv -> loss2/conv (in-place)
I1029 13:21:13.047823  3028 net.cpp:122] Setting up loss2/relu_conv
I1029 13:21:13.047837  3028 net.cpp:129] Top shape: 1 128 4 4 (2048)
I1029 13:21:13.047842  3028 net.cpp:137] Memory required for data: 50337816
I1029 13:21:13.047847  3028 layer_factory.hpp:77] Creating layer loss2/fc
I1029 13:21:13.047857  3028 net.cpp:84] Creating Layer loss2/fc
I1029 13:21:13.047880  3028 net.cpp:406] loss2/fc <- loss2/conv
I1029 13:21:13.047894  3028 net.cpp:380] loss2/fc -> loss2/fc
I1029 13:21:13.067987  3028 net.cpp:122] Setting up loss2/fc
I1029 13:21:13.068037  3028 net.cpp:129] Top shape: 1 1024 (1024)
I1029 13:21:13.068043  3028 net.cpp:137] Memory required for data: 50341912
I1029 13:21:13.068063  3028 layer_factory.hpp:77] Creating layer loss2/relu_fc
I1029 13:21:13.068078  3028 net.cpp:84] Creating Layer loss2/relu_fc
I1029 13:21:13.068089  3028 net.cpp:406] loss2/relu_fc <- loss2/fc
I1029 13:21:13.068099  3028 net.cpp:367] loss2/relu_fc -> loss2/fc (in-place)
I1029 13:21:13.068437  3028 net.cpp:122] Setting up loss2/relu_fc
I1029 13:21:13.068445  3028 net.cpp:129] Top shape: 1 1024 (1024)
I1029 13:21:13.068450  3028 net.cpp:137] Memory required for data: 50346008
I1029 13:21:13.068455  3028 layer_factory.hpp:77] Creating layer loss2/drop_fc
I1029 13:21:13.068466  3028 net.cpp:84] Creating Layer loss2/drop_fc
I1029 13:21:13.068472  3028 net.cpp:406] loss2/drop_fc <- loss2/fc
I1029 13:21:13.068478  3028 net.cpp:367] loss2/drop_fc -> loss2/fc (in-place)
I1029 13:21:13.068512  3028 net.cpp:122] Setting up loss2/drop_fc
I1029 13:21:13.068521  3028 net.cpp:129] Top shape: 1 1024 (1024)
I1029 13:21:13.068524  3028 net.cpp:137] Memory required for data: 50350104
I1029 13:21:13.068528  3028 layer_factory.hpp:77] Creating layer my-loss2/classifier
I1029 13:21:13.068542  3028 net.cpp:84] Creating Layer my-loss2/classifier
I1029 13:21:13.068547  3028 net.cpp:406] my-loss2/classifier <- loss2/fc
I1029 13:21:13.068554  3028 net.cpp:380] my-loss2/classifier -> my-loss2/classifier
I1029 13:21:13.068748  3028 net.cpp:122] Setting up my-loss2/classifier
I1029 13:21:13.068756  3028 net.cpp:129] Top shape: 1 1 (1)
I1029 13:21:13.068760  3028 net.cpp:137] Memory required for data: 50350108
I1029 13:21:13.068769  3028 layer_factory.hpp:77] Creating layer loss2/loss
I1029 13:21:13.068779  3028 net.cpp:84] Creating Layer loss2/loss
I1029 13:21:13.068785  3028 net.cpp:406] loss2/loss <- my-loss2/classifier
I1029 13:21:13.068792  3028 net.cpp:406] loss2/loss <- label_data_1_split_1
I1029 13:21:13.068799  3028 net.cpp:380] loss2/loss -> loss2/loss
I1029 13:21:13.068856  3028 net.cpp:122] Setting up loss2/loss
I1029 13:21:13.068863  3028 net.cpp:129] Top shape: (1)
I1029 13:21:13.068867  3028 net.cpp:132]     with loss weight 0.3
I1029 13:21:13.068886  3028 net.cpp:137] Memory required for data: 50350112
I1029 13:21:13.068891  3028 layer_factory.hpp:77] Creating layer inception_4e/1x1
I1029 13:21:13.068904  3028 net.cpp:84] Creating Layer inception_4e/1x1
I1029 13:21:13.068912  3028 net.cpp:406] inception_4e/1x1 <- inception_4d/output_inception_4d/output_0_split_1
I1029 13:21:13.068919  3028 net.cpp:380] inception_4e/1x1 -> inception_4e/1x1
I1029 13:21:13.071698  3028 net.cpp:122] Setting up inception_4e/1x1
I1029 13:21:13.071724  3028 net.cpp:129] Top shape: 1 256 14 14 (50176)
I1029 13:21:13.071729  3028 net.cpp:137] Memory required for data: 50550816
I1029 13:21:13.071744  3028 layer_factory.hpp:77] Creating layer inception_4e/relu_1x1
I1029 13:21:13.071758  3028 net.cpp:84] Creating Layer inception_4e/relu_1x1
I1029 13:21:13.071770  3028 net.cpp:406] inception_4e/relu_1x1 <- inception_4e/1x1
I1029 13:21:13.071780  3028 net.cpp:367] inception_4e/relu_1x1 -> inception_4e/1x1 (in-place)
I1029 13:21:13.072003  3028 net.cpp:122] Setting up inception_4e/relu_1x1
I1029 13:21:13.072013  3028 net.cpp:129] Top shape: 1 256 14 14 (50176)
I1029 13:21:13.072017  3028 net.cpp:137] Memory required for data: 50751520
I1029 13:21:13.072022  3028 layer_factory.hpp:77] Creating layer inception_4e/3x3_reduce
I1029 13:21:13.072038  3028 net.cpp:84] Creating Layer inception_4e/3x3_reduce
I1029 13:21:13.072046  3028 net.cpp:406] inception_4e/3x3_reduce <- inception_4d/output_inception_4d/output_0_split_2
I1029 13:21:13.072057  3028 net.cpp:380] inception_4e/3x3_reduce -> inception_4e/3x3_reduce
I1029 13:21:13.074358  3028 net.cpp:122] Setting up inception_4e/3x3_reduce
I1029 13:21:13.074381  3028 net.cpp:129] Top shape: 1 160 14 14 (31360)
I1029 13:21:13.074412  3028 net.cpp:137] Memory required for data: 50876960
I1029 13:21:13.074425  3028 layer_factory.hpp:77] Creating layer inception_4e/relu_3x3_reduce
I1029 13:21:13.074440  3028 net.cpp:84] Creating Layer inception_4e/relu_3x3_reduce
I1029 13:21:13.074448  3028 net.cpp:406] inception_4e/relu_3x3_reduce <- inception_4e/3x3_reduce
I1029 13:21:13.074457  3028 net.cpp:367] inception_4e/relu_3x3_reduce -> inception_4e/3x3_reduce (in-place)
I1029 13:21:13.074683  3028 net.cpp:122] Setting up inception_4e/relu_3x3_reduce
I1029 13:21:13.074694  3028 net.cpp:129] Top shape: 1 160 14 14 (31360)
I1029 13:21:13.074700  3028 net.cpp:137] Memory required for data: 51002400
I1029 13:21:13.074705  3028 layer_factory.hpp:77] Creating layer inception_4e/3x3
I1029 13:21:13.074719  3028 net.cpp:84] Creating Layer inception_4e/3x3
I1029 13:21:13.074726  3028 net.cpp:406] inception_4e/3x3 <- inception_4e/3x3_reduce
I1029 13:21:13.074734  3028 net.cpp:380] inception_4e/3x3 -> inception_4e/3x3
I1029 13:21:13.081754  3028 net.cpp:122] Setting up inception_4e/3x3
I1029 13:21:13.081794  3028 net.cpp:129] Top shape: 1 320 14 14 (62720)
I1029 13:21:13.081800  3028 net.cpp:137] Memory required for data: 51253280
I1029 13:21:13.081830  3028 layer_factory.hpp:77] Creating layer inception_4e/relu_3x3
I1029 13:21:13.081848  3028 net.cpp:84] Creating Layer inception_4e/relu_3x3
I1029 13:21:13.081857  3028 net.cpp:406] inception_4e/relu_3x3 <- inception_4e/3x3
I1029 13:21:13.081868  3028 net.cpp:367] inception_4e/relu_3x3 -> inception_4e/3x3 (in-place)
I1029 13:21:13.082121  3028 net.cpp:122] Setting up inception_4e/relu_3x3
I1029 13:21:13.082131  3028 net.cpp:129] Top shape: 1 320 14 14 (62720)
I1029 13:21:13.082135  3028 net.cpp:137] Memory required for data: 51504160
I1029 13:21:13.082140  3028 layer_factory.hpp:77] Creating layer inception_4e/5x5_reduce
I1029 13:21:13.082157  3028 net.cpp:84] Creating Layer inception_4e/5x5_reduce
I1029 13:21:13.082170  3028 net.cpp:406] inception_4e/5x5_reduce <- inception_4d/output_inception_4d/output_0_split_3
I1029 13:21:13.082180  3028 net.cpp:380] inception_4e/5x5_reduce -> inception_4e/5x5_reduce
I1029 13:21:13.084210  3028 net.cpp:122] Setting up inception_4e/5x5_reduce
I1029 13:21:13.084231  3028 net.cpp:129] Top shape: 1 32 14 14 (6272)
I1029 13:21:13.084237  3028 net.cpp:137] Memory required for data: 51529248
I1029 13:21:13.084249  3028 layer_factory.hpp:77] Creating layer inception_4e/relu_5x5_reduce
I1029 13:21:13.084259  3028 net.cpp:84] Creating Layer inception_4e/relu_5x5_reduce
I1029 13:21:13.084265  3028 net.cpp:406] inception_4e/relu_5x5_reduce <- inception_4e/5x5_reduce
I1029 13:21:13.084276  3028 net.cpp:367] inception_4e/relu_5x5_reduce -> inception_4e/5x5_reduce (in-place)
I1029 13:21:13.084892  3028 net.cpp:122] Setting up inception_4e/relu_5x5_reduce
I1029 13:21:13.084906  3028 net.cpp:129] Top shape: 1 32 14 14 (6272)
I1029 13:21:13.084911  3028 net.cpp:137] Memory required for data: 51554336
I1029 13:21:13.084915  3028 layer_factory.hpp:77] Creating layer inception_4e/5x5
I1029 13:21:13.084981  3028 net.cpp:84] Creating Layer inception_4e/5x5
I1029 13:21:13.084988  3028 net.cpp:406] inception_4e/5x5 <- inception_4e/5x5_reduce
I1029 13:21:13.084997  3028 net.cpp:380] inception_4e/5x5 -> inception_4e/5x5
I1029 13:21:13.088443  3028 net.cpp:122] Setting up inception_4e/5x5
I1029 13:21:13.088491  3028 net.cpp:129] Top shape: 1 128 14 14 (25088)
I1029 13:21:13.088500  3028 net.cpp:137] Memory required for data: 51654688
I1029 13:21:13.088517  3028 layer_factory.hpp:77] Creating layer inception_4e/relu_5x5
I1029 13:21:13.088531  3028 net.cpp:84] Creating Layer inception_4e/relu_5x5
I1029 13:21:13.088541  3028 net.cpp:406] inception_4e/relu_5x5 <- inception_4e/5x5
I1029 13:21:13.088551  3028 net.cpp:367] inception_4e/relu_5x5 -> inception_4e/5x5 (in-place)
I1029 13:21:13.089329  3028 net.cpp:122] Setting up inception_4e/relu_5x5
I1029 13:21:13.089341  3028 net.cpp:129] Top shape: 1 128 14 14 (25088)
I1029 13:21:13.089347  3028 net.cpp:137] Memory required for data: 51755040
I1029 13:21:13.089373  3028 layer_factory.hpp:77] Creating layer inception_4e/pool
I1029 13:21:13.089383  3028 net.cpp:84] Creating Layer inception_4e/pool
I1029 13:21:13.089390  3028 net.cpp:406] inception_4e/pool <- inception_4d/output_inception_4d/output_0_split_4
I1029 13:21:13.089402  3028 net.cpp:380] inception_4e/pool -> inception_4e/pool
I1029 13:21:13.089490  3028 net.cpp:122] Setting up inception_4e/pool
I1029 13:21:13.089499  3028 net.cpp:129] Top shape: 1 528 14 14 (103488)
I1029 13:21:13.089504  3028 net.cpp:137] Memory required for data: 52168992
I1029 13:21:13.089509  3028 layer_factory.hpp:77] Creating layer inception_4e/pool_proj
I1029 13:21:13.089526  3028 net.cpp:84] Creating Layer inception_4e/pool_proj
I1029 13:21:13.089532  3028 net.cpp:406] inception_4e/pool_proj <- inception_4e/pool
I1029 13:21:13.089541  3028 net.cpp:380] inception_4e/pool_proj -> inception_4e/pool_proj
I1029 13:21:13.091670  3028 net.cpp:122] Setting up inception_4e/pool_proj
I1029 13:21:13.091696  3028 net.cpp:129] Top shape: 1 128 14 14 (25088)
I1029 13:21:13.091701  3028 net.cpp:137] Memory required for data: 52269344
I1029 13:21:13.091714  3028 layer_factory.hpp:77] Creating layer inception_4e/relu_pool_proj
I1029 13:21:13.091725  3028 net.cpp:84] Creating Layer inception_4e/relu_pool_proj
I1029 13:21:13.091732  3028 net.cpp:406] inception_4e/relu_pool_proj <- inception_4e/pool_proj
I1029 13:21:13.091742  3028 net.cpp:367] inception_4e/relu_pool_proj -> inception_4e/pool_proj (in-place)
I1029 13:21:13.091971  3028 net.cpp:122] Setting up inception_4e/relu_pool_proj
I1029 13:21:13.091980  3028 net.cpp:129] Top shape: 1 128 14 14 (25088)
I1029 13:21:13.091985  3028 net.cpp:137] Memory required for data: 52369696
I1029 13:21:13.091990  3028 layer_factory.hpp:77] Creating layer inception_4e/output
I1029 13:21:13.092000  3028 net.cpp:84] Creating Layer inception_4e/output
I1029 13:21:13.092005  3028 net.cpp:406] inception_4e/output <- inception_4e/1x1
I1029 13:21:13.092011  3028 net.cpp:406] inception_4e/output <- inception_4e/3x3
I1029 13:21:13.092017  3028 net.cpp:406] inception_4e/output <- inception_4e/5x5
I1029 13:21:13.092025  3028 net.cpp:406] inception_4e/output <- inception_4e/pool_proj
I1029 13:21:13.092031  3028 net.cpp:380] inception_4e/output -> inception_4e/output
I1029 13:21:13.092077  3028 net.cpp:122] Setting up inception_4e/output
I1029 13:21:13.092085  3028 net.cpp:129] Top shape: 1 832 14 14 (163072)
I1029 13:21:13.092089  3028 net.cpp:137] Memory required for data: 53021984
I1029 13:21:13.092094  3028 layer_factory.hpp:77] Creating layer pool4/3x3_s2
I1029 13:21:13.092104  3028 net.cpp:84] Creating Layer pool4/3x3_s2
I1029 13:21:13.092109  3028 net.cpp:406] pool4/3x3_s2 <- inception_4e/output
I1029 13:21:13.092118  3028 net.cpp:380] pool4/3x3_s2 -> pool4/3x3_s2
I1029 13:21:13.092177  3028 net.cpp:122] Setting up pool4/3x3_s2
I1029 13:21:13.092185  3028 net.cpp:129] Top shape: 1 832 7 7 (40768)
I1029 13:21:13.092190  3028 net.cpp:137] Memory required for data: 53185056
I1029 13:21:13.092195  3028 layer_factory.hpp:77] Creating layer pool4/3x3_s2_pool4/3x3_s2_0_split
I1029 13:21:13.092201  3028 net.cpp:84] Creating Layer pool4/3x3_s2_pool4/3x3_s2_0_split
I1029 13:21:13.092206  3028 net.cpp:406] pool4/3x3_s2_pool4/3x3_s2_0_split <- pool4/3x3_s2
I1029 13:21:13.092216  3028 net.cpp:380] pool4/3x3_s2_pool4/3x3_s2_0_split -> pool4/3x3_s2_pool4/3x3_s2_0_split_0
I1029 13:21:13.092224  3028 net.cpp:380] pool4/3x3_s2_pool4/3x3_s2_0_split -> pool4/3x3_s2_pool4/3x3_s2_0_split_1
I1029 13:21:13.092234  3028 net.cpp:380] pool4/3x3_s2_pool4/3x3_s2_0_split -> pool4/3x3_s2_pool4/3x3_s2_0_split_2
I1029 13:21:13.092245  3028 net.cpp:380] pool4/3x3_s2_pool4/3x3_s2_0_split -> pool4/3x3_s2_pool4/3x3_s2_0_split_3
I1029 13:21:13.092355  3028 net.cpp:122] Setting up pool4/3x3_s2_pool4/3x3_s2_0_split
I1029 13:21:13.092381  3028 net.cpp:129] Top shape: 1 832 7 7 (40768)
I1029 13:21:13.092401  3028 net.cpp:129] Top shape: 1 832 7 7 (40768)
I1029 13:21:13.092417  3028 net.cpp:129] Top shape: 1 832 7 7 (40768)
I1029 13:21:13.092458  3028 net.cpp:129] Top shape: 1 832 7 7 (40768)
I1029 13:21:13.092474  3028 net.cpp:137] Memory required for data: 53837344
I1029 13:21:13.092490  3028 layer_factory.hpp:77] Creating layer inception_5a/1x1
I1029 13:21:13.092519  3028 net.cpp:84] Creating Layer inception_5a/1x1
I1029 13:21:13.092535  3028 net.cpp:406] inception_5a/1x1 <- pool4/3x3_s2_pool4/3x3_s2_0_split_0
I1029 13:21:13.092556  3028 net.cpp:380] inception_5a/1x1 -> inception_5a/1x1
I1029 13:21:13.096139  3028 net.cpp:122] Setting up inception_5a/1x1
I1029 13:21:13.096179  3028 net.cpp:129] Top shape: 1 256 7 7 (12544)
I1029 13:21:13.096184  3028 net.cpp:137] Memory required for data: 53887520
I1029 13:21:13.096199  3028 layer_factory.hpp:77] Creating layer inception_5a/relu_1x1
I1029 13:21:13.096215  3028 net.cpp:84] Creating Layer inception_5a/relu_1x1
I1029 13:21:13.096223  3028 net.cpp:406] inception_5a/relu_1x1 <- inception_5a/1x1
I1029 13:21:13.096236  3028 net.cpp:367] inception_5a/relu_1x1 -> inception_5a/1x1 (in-place)
I1029 13:21:13.096477  3028 net.cpp:122] Setting up inception_5a/relu_1x1
I1029 13:21:13.096487  3028 net.cpp:129] Top shape: 1 256 7 7 (12544)
I1029 13:21:13.096493  3028 net.cpp:137] Memory required for data: 53937696
I1029 13:21:13.096496  3028 layer_factory.hpp:77] Creating layer inception_5a/3x3_reduce
I1029 13:21:13.096513  3028 net.cpp:84] Creating Layer inception_5a/3x3_reduce
I1029 13:21:13.096518  3028 net.cpp:406] inception_5a/3x3_reduce <- pool4/3x3_s2_pool4/3x3_s2_0_split_1
I1029 13:21:13.096529  3028 net.cpp:380] inception_5a/3x3_reduce -> inception_5a/3x3_reduce
I1029 13:21:13.099275  3028 net.cpp:122] Setting up inception_5a/3x3_reduce
I1029 13:21:13.099305  3028 net.cpp:129] Top shape: 1 160 7 7 (7840)
I1029 13:21:13.099311  3028 net.cpp:137] Memory required for data: 53969056
I1029 13:21:13.099328  3028 layer_factory.hpp:77] Creating layer inception_5a/relu_3x3_reduce
I1029 13:21:13.099339  3028 net.cpp:84] Creating Layer inception_5a/relu_3x3_reduce
I1029 13:21:13.099371  3028 net.cpp:406] inception_5a/relu_3x3_reduce <- inception_5a/3x3_reduce
I1029 13:21:13.099383  3028 net.cpp:367] inception_5a/relu_3x3_reduce -> inception_5a/3x3_reduce (in-place)
I1029 13:21:13.099625  3028 net.cpp:122] Setting up inception_5a/relu_3x3_reduce
I1029 13:21:13.099635  3028 net.cpp:129] Top shape: 1 160 7 7 (7840)
I1029 13:21:13.099640  3028 net.cpp:137] Memory required for data: 54000416
I1029 13:21:13.099645  3028 layer_factory.hpp:77] Creating layer inception_5a/3x3
I1029 13:21:13.099659  3028 net.cpp:84] Creating Layer inception_5a/3x3
I1029 13:21:13.099666  3028 net.cpp:406] inception_5a/3x3 <- inception_5a/3x3_reduce
I1029 13:21:13.099678  3028 net.cpp:380] inception_5a/3x3 -> inception_5a/3x3
I1029 13:21:13.106845  3028 net.cpp:122] Setting up inception_5a/3x3
I1029 13:21:13.106883  3028 net.cpp:129] Top shape: 1 320 7 7 (15680)
I1029 13:21:13.106889  3028 net.cpp:137] Memory required for data: 54063136
I1029 13:21:13.106907  3028 layer_factory.hpp:77] Creating layer inception_5a/relu_3x3
I1029 13:21:13.106925  3028 net.cpp:84] Creating Layer inception_5a/relu_3x3
I1029 13:21:13.106935  3028 net.cpp:406] inception_5a/relu_3x3 <- inception_5a/3x3
I1029 13:21:13.106947  3028 net.cpp:367] inception_5a/relu_3x3 -> inception_5a/3x3 (in-place)
I1029 13:21:13.107192  3028 net.cpp:122] Setting up inception_5a/relu_3x3
I1029 13:21:13.107203  3028 net.cpp:129] Top shape: 1 320 7 7 (15680)
I1029 13:21:13.107208  3028 net.cpp:137] Memory required for data: 54125856
I1029 13:21:13.107213  3028 layer_factory.hpp:77] Creating layer inception_5a/5x5_reduce
I1029 13:21:13.107228  3028 net.cpp:84] Creating Layer inception_5a/5x5_reduce
I1029 13:21:13.107236  3028 net.cpp:406] inception_5a/5x5_reduce <- pool4/3x3_s2_pool4/3x3_s2_0_split_2
I1029 13:21:13.107245  3028 net.cpp:380] inception_5a/5x5_reduce -> inception_5a/5x5_reduce
I1029 13:21:13.110625  3028 net.cpp:122] Setting up inception_5a/5x5_reduce
I1029 13:21:13.110659  3028 net.cpp:129] Top shape: 1 32 7 7 (1568)
I1029 13:21:13.110664  3028 net.cpp:137] Memory required for data: 54132128
I1029 13:21:13.110713  3028 layer_factory.hpp:77] Creating layer inception_5a/relu_5x5_reduce
I1029 13:21:13.110730  3028 net.cpp:84] Creating Layer inception_5a/relu_5x5_reduce
I1029 13:21:13.110740  3028 net.cpp:406] inception_5a/relu_5x5_reduce <- inception_5a/5x5_reduce
I1029 13:21:13.110754  3028 net.cpp:367] inception_5a/relu_5x5_reduce -> inception_5a/5x5_reduce (in-place)
I1029 13:21:13.111423  3028 net.cpp:122] Setting up inception_5a/relu_5x5_reduce
I1029 13:21:13.111435  3028 net.cpp:129] Top shape: 1 32 7 7 (1568)
I1029 13:21:13.111440  3028 net.cpp:137] Memory required for data: 54138400
I1029 13:21:13.111445  3028 layer_factory.hpp:77] Creating layer inception_5a/5x5
I1029 13:21:13.111464  3028 net.cpp:84] Creating Layer inception_5a/5x5
I1029 13:21:13.111471  3028 net.cpp:406] inception_5a/5x5 <- inception_5a/5x5_reduce
I1029 13:21:13.111481  3028 net.cpp:380] inception_5a/5x5 -> inception_5a/5x5
I1029 13:21:13.115006  3028 net.cpp:122] Setting up inception_5a/5x5
I1029 13:21:13.115047  3028 net.cpp:129] Top shape: 1 128 7 7 (6272)
I1029 13:21:13.115052  3028 net.cpp:137] Memory required for data: 54163488
I1029 13:21:13.115070  3028 layer_factory.hpp:77] Creating layer inception_5a/relu_5x5
I1029 13:21:13.115085  3028 net.cpp:84] Creating Layer inception_5a/relu_5x5
I1029 13:21:13.115093  3028 net.cpp:406] inception_5a/relu_5x5 <- inception_5a/5x5
I1029 13:21:13.115108  3028 net.cpp:367] inception_5a/relu_5x5 -> inception_5a/5x5 (in-place)
I1029 13:21:13.115878  3028 net.cpp:122] Setting up inception_5a/relu_5x5
I1029 13:21:13.115895  3028 net.cpp:129] Top shape: 1 128 7 7 (6272)
I1029 13:21:13.115900  3028 net.cpp:137] Memory required for data: 54188576
I1029 13:21:13.115906  3028 layer_factory.hpp:77] Creating layer inception_5a/pool
I1029 13:21:13.115916  3028 net.cpp:84] Creating Layer inception_5a/pool
I1029 13:21:13.115921  3028 net.cpp:406] inception_5a/pool <- pool4/3x3_s2_pool4/3x3_s2_0_split_3
I1029 13:21:13.115934  3028 net.cpp:380] inception_5a/pool -> inception_5a/pool
I1029 13:21:13.116011  3028 net.cpp:122] Setting up inception_5a/pool
I1029 13:21:13.116020  3028 net.cpp:129] Top shape: 1 832 7 7 (40768)
I1029 13:21:13.116024  3028 net.cpp:137] Memory required for data: 54351648
I1029 13:21:13.116029  3028 layer_factory.hpp:77] Creating layer inception_5a/pool_proj
I1029 13:21:13.116045  3028 net.cpp:84] Creating Layer inception_5a/pool_proj
I1029 13:21:13.116052  3028 net.cpp:406] inception_5a/pool_proj <- inception_5a/pool
I1029 13:21:13.116060  3028 net.cpp:380] inception_5a/pool_proj -> inception_5a/pool_proj
I1029 13:21:13.118542  3028 net.cpp:122] Setting up inception_5a/pool_proj
I1029 13:21:13.118569  3028 net.cpp:129] Top shape: 1 128 7 7 (6272)
I1029 13:21:13.118574  3028 net.cpp:137] Memory required for data: 54376736
I1029 13:21:13.118588  3028 layer_factory.hpp:77] Creating layer inception_5a/relu_pool_proj
I1029 13:21:13.118602  3028 net.cpp:84] Creating Layer inception_5a/relu_pool_proj
I1029 13:21:13.118613  3028 net.cpp:406] inception_5a/relu_pool_proj <- inception_5a/pool_proj
I1029 13:21:13.118623  3028 net.cpp:367] inception_5a/relu_pool_proj -> inception_5a/pool_proj (in-place)
I1029 13:21:13.118854  3028 net.cpp:122] Setting up inception_5a/relu_pool_proj
I1029 13:21:13.118862  3028 net.cpp:129] Top shape: 1 128 7 7 (6272)
I1029 13:21:13.118867  3028 net.cpp:137] Memory required for data: 54401824
I1029 13:21:13.118871  3028 layer_factory.hpp:77] Creating layer inception_5a/output
I1029 13:21:13.118882  3028 net.cpp:84] Creating Layer inception_5a/output
I1029 13:21:13.118887  3028 net.cpp:406] inception_5a/output <- inception_5a/1x1
I1029 13:21:13.118894  3028 net.cpp:406] inception_5a/output <- inception_5a/3x3
I1029 13:21:13.118901  3028 net.cpp:406] inception_5a/output <- inception_5a/5x5
I1029 13:21:13.118906  3028 net.cpp:406] inception_5a/output <- inception_5a/pool_proj
I1029 13:21:13.118914  3028 net.cpp:380] inception_5a/output -> inception_5a/output
I1029 13:21:13.118958  3028 net.cpp:122] Setting up inception_5a/output
I1029 13:21:13.118966  3028 net.cpp:129] Top shape: 1 832 7 7 (40768)
I1029 13:21:13.118986  3028 net.cpp:137] Memory required for data: 54564896
I1029 13:21:13.118991  3028 layer_factory.hpp:77] Creating layer inception_5a/output_inception_5a/output_0_split
I1029 13:21:13.118999  3028 net.cpp:84] Creating Layer inception_5a/output_inception_5a/output_0_split
I1029 13:21:13.119004  3028 net.cpp:406] inception_5a/output_inception_5a/output_0_split <- inception_5a/output
I1029 13:21:13.119014  3028 net.cpp:380] inception_5a/output_inception_5a/output_0_split -> inception_5a/output_inception_5a/output_0_split_0
I1029 13:21:13.119045  3028 net.cpp:380] inception_5a/output_inception_5a/output_0_split -> inception_5a/output_inception_5a/output_0_split_1
I1029 13:21:13.119067  3028 net.cpp:380] inception_5a/output_inception_5a/output_0_split -> inception_5a/output_inception_5a/output_0_split_2
I1029 13:21:13.119079  3028 net.cpp:380] inception_5a/output_inception_5a/output_0_split -> inception_5a/output_inception_5a/output_0_split_3
I1029 13:21:13.119187  3028 net.cpp:122] Setting up inception_5a/output_inception_5a/output_0_split
I1029 13:21:13.119197  3028 net.cpp:129] Top shape: 1 832 7 7 (40768)
I1029 13:21:13.119204  3028 net.cpp:129] Top shape: 1 832 7 7 (40768)
I1029 13:21:13.119212  3028 net.cpp:129] Top shape: 1 832 7 7 (40768)
I1029 13:21:13.119218  3028 net.cpp:129] Top shape: 1 832 7 7 (40768)
I1029 13:21:13.119222  3028 net.cpp:137] Memory required for data: 55217184
I1029 13:21:13.119227  3028 layer_factory.hpp:77] Creating layer inception_5b/1x1
I1029 13:21:13.119241  3028 net.cpp:84] Creating Layer inception_5b/1x1
I1029 13:21:13.119247  3028 net.cpp:406] inception_5b/1x1 <- inception_5a/output_inception_5a/output_0_split_0
I1029 13:21:13.119256  3028 net.cpp:380] inception_5b/1x1 -> inception_5b/1x1
I1029 13:21:13.125069  3028 net.cpp:122] Setting up inception_5b/1x1
I1029 13:21:13.125113  3028 net.cpp:129] Top shape: 1 384 7 7 (18816)
I1029 13:21:13.125119  3028 net.cpp:137] Memory required for data: 55292448
I1029 13:21:13.125138  3028 layer_factory.hpp:77] Creating layer inception_5b/relu_1x1
I1029 13:21:13.125151  3028 net.cpp:84] Creating Layer inception_5b/relu_1x1
I1029 13:21:13.125160  3028 net.cpp:406] inception_5b/relu_1x1 <- inception_5b/1x1
I1029 13:21:13.125174  3028 net.cpp:367] inception_5b/relu_1x1 -> inception_5b/1x1 (in-place)
I1029 13:21:13.125424  3028 net.cpp:122] Setting up inception_5b/relu_1x1
I1029 13:21:13.125434  3028 net.cpp:129] Top shape: 1 384 7 7 (18816)
I1029 13:21:13.125439  3028 net.cpp:137] Memory required for data: 55367712
I1029 13:21:13.125443  3028 layer_factory.hpp:77] Creating layer inception_5b/3x3_reduce
I1029 13:21:13.125459  3028 net.cpp:84] Creating Layer inception_5b/3x3_reduce
I1029 13:21:13.125464  3028 net.cpp:406] inception_5b/3x3_reduce <- inception_5a/output_inception_5a/output_0_split_1
I1029 13:21:13.125475  3028 net.cpp:380] inception_5b/3x3_reduce -> inception_5b/3x3_reduce
I1029 13:21:13.128775  3028 net.cpp:122] Setting up inception_5b/3x3_reduce
I1029 13:21:13.128813  3028 net.cpp:129] Top shape: 1 192 7 7 (9408)
I1029 13:21:13.128818  3028 net.cpp:137] Memory required for data: 55405344
I1029 13:21:13.128832  3028 layer_factory.hpp:77] Creating layer inception_5b/relu_3x3_reduce
I1029 13:21:13.128846  3028 net.cpp:84] Creating Layer inception_5b/relu_3x3_reduce
I1029 13:21:13.128855  3028 net.cpp:406] inception_5b/relu_3x3_reduce <- inception_5b/3x3_reduce
I1029 13:21:13.128865  3028 net.cpp:367] inception_5b/relu_3x3_reduce -> inception_5b/3x3_reduce (in-place)
I1029 13:21:13.129247  3028 net.cpp:122] Setting up inception_5b/relu_3x3_reduce
I1029 13:21:13.129257  3028 net.cpp:129] Top shape: 1 192 7 7 (9408)
I1029 13:21:13.129261  3028 net.cpp:137] Memory required for data: 55442976
I1029 13:21:13.129266  3028 layer_factory.hpp:77] Creating layer inception_5b/3x3
I1029 13:21:13.129278  3028 net.cpp:84] Creating Layer inception_5b/3x3
I1029 13:21:13.129283  3028 net.cpp:406] inception_5b/3x3 <- inception_5b/3x3_reduce
I1029 13:21:13.129292  3028 net.cpp:380] inception_5b/3x3 -> inception_5b/3x3
I1029 13:21:13.138499  3028 net.cpp:122] Setting up inception_5b/3x3
I1029 13:21:13.138536  3028 net.cpp:129] Top shape: 1 384 7 7 (18816)
I1029 13:21:13.138541  3028 net.cpp:137] Memory required for data: 55518240
I1029 13:21:13.138556  3028 layer_factory.hpp:77] Creating layer inception_5b/relu_3x3
I1029 13:21:13.138571  3028 net.cpp:84] Creating Layer inception_5b/relu_3x3
I1029 13:21:13.138579  3028 net.cpp:406] inception_5b/relu_3x3 <- inception_5b/3x3
I1029 13:21:13.138589  3028 net.cpp:367] inception_5b/relu_3x3 -> inception_5b/3x3 (in-place)
I1029 13:21:13.138830  3028 net.cpp:122] Setting up inception_5b/relu_3x3
I1029 13:21:13.138839  3028 net.cpp:129] Top shape: 1 384 7 7 (18816)
I1029 13:21:13.138844  3028 net.cpp:137] Memory required for data: 55593504
I1029 13:21:13.138849  3028 layer_factory.hpp:77] Creating layer inception_5b/5x5_reduce
I1029 13:21:13.138864  3028 net.cpp:84] Creating Layer inception_5b/5x5_reduce
I1029 13:21:13.138870  3028 net.cpp:406] inception_5b/5x5_reduce <- inception_5a/output_inception_5a/output_0_split_2
I1029 13:21:13.138880  3028 net.cpp:380] inception_5b/5x5_reduce -> inception_5b/5x5_reduce
I1029 13:21:13.140785  3028 net.cpp:122] Setting up inception_5b/5x5_reduce
I1029 13:21:13.140806  3028 net.cpp:129] Top shape: 1 48 7 7 (2352)
I1029 13:21:13.140810  3028 net.cpp:137] Memory required for data: 55602912
I1029 13:21:13.140821  3028 layer_factory.hpp:77] Creating layer inception_5b/relu_5x5_reduce
I1029 13:21:13.140831  3028 net.cpp:84] Creating Layer inception_5b/relu_5x5_reduce
I1029 13:21:13.140836  3028 net.cpp:406] inception_5b/relu_5x5_reduce <- inception_5b/5x5_reduce
I1029 13:21:13.140846  3028 net.cpp:367] inception_5b/relu_5x5_reduce -> inception_5b/5x5_reduce (in-place)
I1029 13:21:13.141489  3028 net.cpp:122] Setting up inception_5b/relu_5x5_reduce
I1029 13:21:13.141499  3028 net.cpp:129] Top shape: 1 48 7 7 (2352)
I1029 13:21:13.141504  3028 net.cpp:137] Memory required for data: 55612320
I1029 13:21:13.141508  3028 layer_factory.hpp:77] Creating layer inception_5b/5x5
I1029 13:21:13.141521  3028 net.cpp:84] Creating Layer inception_5b/5x5
I1029 13:21:13.141526  3028 net.cpp:406] inception_5b/5x5 <- inception_5b/5x5_reduce
I1029 13:21:13.141536  3028 net.cpp:380] inception_5b/5x5 -> inception_5b/5x5
I1029 13:21:13.143890  3028 net.cpp:122] Setting up inception_5b/5x5
I1029 13:21:13.143918  3028 net.cpp:129] Top shape: 1 128 7 7 (6272)
I1029 13:21:13.143921  3028 net.cpp:137] Memory required for data: 55637408
I1029 13:21:13.143932  3028 layer_factory.hpp:77] Creating layer inception_5b/relu_5x5
I1029 13:21:13.143942  3028 net.cpp:84] Creating Layer inception_5b/relu_5x5
I1029 13:21:13.143951  3028 net.cpp:406] inception_5b/relu_5x5 <- inception_5b/5x5
I1029 13:21:13.143960  3028 net.cpp:367] inception_5b/relu_5x5 -> inception_5b/5x5 (in-place)
I1029 13:21:13.144722  3028 net.cpp:122] Setting up inception_5b/relu_5x5
I1029 13:21:13.144735  3028 net.cpp:129] Top shape: 1 128 7 7 (6272)
I1029 13:21:13.144739  3028 net.cpp:137] Memory required for data: 55662496
I1029 13:21:13.144744  3028 layer_factory.hpp:77] Creating layer inception_5b/pool
I1029 13:21:13.144754  3028 net.cpp:84] Creating Layer inception_5b/pool
I1029 13:21:13.144760  3028 net.cpp:406] inception_5b/pool <- inception_5a/output_inception_5a/output_0_split_3
I1029 13:21:13.144767  3028 net.cpp:380] inception_5b/pool -> inception_5b/pool
I1029 13:21:13.144843  3028 net.cpp:122] Setting up inception_5b/pool
I1029 13:21:13.144855  3028 net.cpp:129] Top shape: 1 832 7 7 (40768)
I1029 13:21:13.144860  3028 net.cpp:137] Memory required for data: 55825568
I1029 13:21:13.144863  3028 layer_factory.hpp:77] Creating layer inception_5b/pool_proj
I1029 13:21:13.144878  3028 net.cpp:84] Creating Layer inception_5b/pool_proj
I1029 13:21:13.144883  3028 net.cpp:406] inception_5b/pool_proj <- inception_5b/pool
I1029 13:21:13.144894  3028 net.cpp:380] inception_5b/pool_proj -> inception_5b/pool_proj
I1029 13:21:13.147434  3028 net.cpp:122] Setting up inception_5b/pool_proj
I1029 13:21:13.147464  3028 net.cpp:129] Top shape: 1 128 7 7 (6272)
I1029 13:21:13.147495  3028 net.cpp:137] Memory required for data: 55850656
I1029 13:21:13.147509  3028 layer_factory.hpp:77] Creating layer inception_5b/relu_pool_proj
I1029 13:21:13.147541  3028 net.cpp:84] Creating Layer inception_5b/relu_pool_proj
I1029 13:21:13.147549  3028 net.cpp:406] inception_5b/relu_pool_proj <- inception_5b/pool_proj
I1029 13:21:13.147560  3028 net.cpp:367] inception_5b/relu_pool_proj -> inception_5b/pool_proj (in-place)
I1029 13:21:13.147791  3028 net.cpp:122] Setting up inception_5b/relu_pool_proj
I1029 13:21:13.147802  3028 net.cpp:129] Top shape: 1 128 7 7 (6272)
I1029 13:21:13.147806  3028 net.cpp:137] Memory required for data: 55875744
I1029 13:21:13.147811  3028 layer_factory.hpp:77] Creating layer inception_5b/output
I1029 13:21:13.147819  3028 net.cpp:84] Creating Layer inception_5b/output
I1029 13:21:13.147825  3028 net.cpp:406] inception_5b/output <- inception_5b/1x1
I1029 13:21:13.147832  3028 net.cpp:406] inception_5b/output <- inception_5b/3x3
I1029 13:21:13.147838  3028 net.cpp:406] inception_5b/output <- inception_5b/5x5
I1029 13:21:13.147845  3028 net.cpp:406] inception_5b/output <- inception_5b/pool_proj
I1029 13:21:13.147853  3028 net.cpp:380] inception_5b/output -> inception_5b/output
I1029 13:21:13.147897  3028 net.cpp:122] Setting up inception_5b/output
I1029 13:21:13.147908  3028 net.cpp:129] Top shape: 1 1024 7 7 (50176)
I1029 13:21:13.147914  3028 net.cpp:137] Memory required for data: 56076448
I1029 13:21:13.147918  3028 layer_factory.hpp:77] Creating layer pool5/7x7_s1
I1029 13:21:13.147927  3028 net.cpp:84] Creating Layer pool5/7x7_s1
I1029 13:21:13.147933  3028 net.cpp:406] pool5/7x7_s1 <- inception_5b/output
I1029 13:21:13.147939  3028 net.cpp:380] pool5/7x7_s1 -> pool5/7x7_s1
I1029 13:21:13.148186  3028 net.cpp:122] Setting up pool5/7x7_s1
I1029 13:21:13.148195  3028 net.cpp:129] Top shape: 1 1024 1 1 (1024)
I1029 13:21:13.148200  3028 net.cpp:137] Memory required for data: 56080544
I1029 13:21:13.148203  3028 layer_factory.hpp:77] Creating layer pool5/drop_7x7_s1
I1029 13:21:13.148214  3028 net.cpp:84] Creating Layer pool5/drop_7x7_s1
I1029 13:21:13.148219  3028 net.cpp:406] pool5/drop_7x7_s1 <- pool5/7x7_s1
I1029 13:21:13.148226  3028 net.cpp:367] pool5/drop_7x7_s1 -> pool5/7x7_s1 (in-place)
I1029 13:21:13.148260  3028 net.cpp:122] Setting up pool5/drop_7x7_s1
I1029 13:21:13.148268  3028 net.cpp:129] Top shape: 1 1024 1 1 (1024)
I1029 13:21:13.148272  3028 net.cpp:137] Memory required for data: 56084640
I1029 13:21:13.148277  3028 layer_factory.hpp:77] Creating layer my-loss3/classifier
I1029 13:21:13.148289  3028 net.cpp:84] Creating Layer my-loss3/classifier
I1029 13:21:13.148295  3028 net.cpp:406] my-loss3/classifier <- pool5/7x7_s1
I1029 13:21:13.148303  3028 net.cpp:380] my-loss3/classifier -> my-loss3/classifier
I1029 13:21:13.148497  3028 net.cpp:122] Setting up my-loss3/classifier
I1029 13:21:13.148505  3028 net.cpp:129] Top shape: 1 1 (1)
I1029 13:21:13.148509  3028 net.cpp:137] Memory required for data: 56084644
I1029 13:21:13.148517  3028 layer_factory.hpp:77] Creating layer loss3/loss
I1029 13:21:13.148525  3028 net.cpp:84] Creating Layer loss3/loss
I1029 13:21:13.148530  3028 net.cpp:406] loss3/loss <- my-loss3/classifier
I1029 13:21:13.148537  3028 net.cpp:406] loss3/loss <- label_data_1_split_2
I1029 13:21:13.148547  3028 net.cpp:380] loss3/loss -> loss3/loss
…
