…
I1026 12:14:47.931888  9605 solver.cpp:87] Creating training net from net file: ./train_val.prototxt
I1026 12:14:47.932247  9605 net.cpp:294] The NetState phase (0) differed from the phase (1) specified by a rule in layer data
I1026 12:14:47.932452  9605 net.cpp:51] Initializing net from parameters: 
name: "AlexNet"
state {
  phase: TRAIN
  level: 0
  stage: ""
}
layer {
  name: "data"
  type: "HDF5Data"
  top: "data"
  top: "label"
  include {
    phase: TRAIN
  }
  hdf5_data_param {
    source: "./train.txt"
    batch_size: 256
    shuffle: true
  }
}
layer {
  name: "conv1"
  type: "Convolution"
  bottom: "data"
  top: "conv1"
  param {
    lr_mult: 1
    decay_mult: 1
  }
  param {
    lr_mult: 2
    decay_mult: 0
  }
  convolution_param {
    num_output: 96
    kernel_size: 11
    stride: 4
    weight_filler {
      type: "gaussian"
      std: 0.01
    }
    bias_filler {
      type: "constant"
      value: 0
    }
  }
}
layer {
  name: "relu1"
  type: "ReLU"
  bottom: "conv1"
  top: "conv1"
}
layer {
  name: "norm1"
  type: "LRN"
  bottom: "conv1"
  top: "norm1"
  lrn_param {
    local_size: 5
    alpha: 0.0001
    beta: 0.75
  }
}
layer {
  name: "pool1"
  type: "Pooling"
  bottom: "norm1"
  top: "pool1"
  pooling_param {
    pool: MAX
    kernel_size: 3
    stride: 2
  }
}
layer {
  name: "conv2"
  type: "Convolution"
  bottom: "pool1"
  top: "conv2"
  param {
    lr_mult: 1
    decay_mult: 1
  }
  param {
    lr_mult: 2
    decay_mult: 0
  }
  convolution_param {
    num_output: 256
    pad: 2
    kernel_size: 5
    group: 2
    weight_filler {
      type: "gaussian"
      std: 0.01
    }
    bias_filler {
      type: "constant"
      value: 0.1
    }
  }
}
layer {
  name: "relu2"
  type: "ReLU"
  bottom: "conv2"
  top: "conv2"
}
layer {
  name: "norm2"
  type: "LRN"
  bottom: "conv2"
  top: "norm2"
  lrn_param {
    local_size: 5
    alpha: 0.0001
    beta: 0.75
  }
}
layer {
  name: "pool2"
  type: "Pooling"
  bottom: "norm2"
  top: "pool2"
  pooling_param {
    pool: MAX
    kernel_size: 3
    stride: 2
  }
}
layer {
  name: "conv3"
  type: "Convolution"
  bottom: "pool2"
  top: "conv3"
  param {
    lr_mult: 1
    decay_mult: 1
  }
  param {
    lr_mult: 2
    decay_mult: 0
  }
  convolution_param {
    num_output: 384
    pad: 1
    kernel_size: 3
    weight_filler {
      type: "gaussian"
      std: 0.01
    }
    bias_filler {
      type: "constant"
      value: 0
    }
  }
}
layer {
  name: "relu3"
  type: "ReLU"
  bottom: "conv3"
  top: "conv3"
}
layer {
  name: "conv4"
  type: "Convolution"
  bottom: "conv3"
  top: "conv4"
  param {
    lr_mult: 1
    decay_mult: 1
  }
  param {
    lr_mult: 2
    decay_mult: 0
  }
  convolution_param {
    num_output: 384
    pad: 1
    kernel_size: 3
    group: 2
    weight_filler {
      type: "gaussian"
      std: 0.01
    }
    bias_filler {
      type: "constant"
      value: 0.1
    }
  }
}
layer {
  name: "relu4"
  type: "ReLU"
  bottom: "conv4"
  top: "conv4"
}
layer {
  name: "conv5"
  type: "Convolution"
  bottom: "conv4"
  top: "conv5"
  param {
    lr_mult: 1
    decay_mult: 1
  }
  param {
    lr_mult: 2
    decay_mult: 0
  }
  convolution_param {
    num_output: 256
    pad: 1
    kernel_size: 3
    group: 2
    weight_filler {
      type: "gaussian"
      std: 0.01
    }
    bias_filler {
      type: "constant"
      value: 0.1
    }
  }
}
layer {
  name: "relu5"
  type: "ReLU"
  bottom: "conv5"
  top: "conv5"
}
layer {
  name: "pool5"
  type: "Pooling"
  bottom: "conv5"
  top: "pool5"
  pooling_param {
    pool: MAX
    kernel_size: 3
    stride: 2
  }
}
layer {
  name: "fc6"
  type: "InnerProduct"
  bottom: "pool5"
  top: "fc6"
  param {
    lr_mult: 1
    decay_mult: 1
  }
  param {
    lr_mult: 2
    decay_mult: 0
  }
  inner_product_param {
    num_output: 4096
    weight_filler {
      type: "gaussian"
      std: 0.005
    }
    bias_filler {
      type: "constant"
      value: 0.1
    }
  }
}
layer {
  name: "relu6"
  type: "ReLU"
  bottom: "fc6"
  top: "fc6"
}
layer {
  name: "drop6"
  type: "Dropout"
  bottom: "fc6"
  top: "fc6"
  dropout_param {
    dropout_ratio: 0.5
  }
}
layer {
  name: "fc7"
  type: "InnerProduct"
  bottom: "fc6"
  top: "fc7"
  param {
    lr_mult: 1
    decay_mult: 1
  }
  param {
    lr_mult: 2
    decay_mult: 0
  }
  inner_product_param {
    num_output: 4096
    weight_filler {
      type: "gaussian"
      std: 0.005
    }
    bias_filler {
      type: "constant"
      value: 0.1
    }
  }
}
layer {
  name: "relu7"
  type: "ReLU"
  bottom: "fc7"
  top: "fc7"
}
layer {
  name: "drop7"
  type: "Dropout"
  bottom: "fc7"
  top: "fc7"
  dropout_param {
    dropout_ratio: 0.5
  }
}
layer {
  name: "my-fc8"
  type: "InnerProduct"
  bottom: "fc7"
  top: "my-fc8"
  param {
    lr_mult: 1
    decay_mult: 1
  }
  param {
    lr_mult: 2
    decay_mult: 0
  }
  inner_product_param {
    num_output: 1
    weight_filler {
      type: "gaussian"
      std: 0.01
    }
    bias_filler {
      type: "constant"
      value: 0
    }
  }
}
layer {
  name: "loss"
  type: "EuclideanLoss"
  bottom: "my-fc8"
  bottom: "label"
  top: "loss"
}
I1026 12:14:47.932581  9605 layer_factory.hpp:77] Creating layer data
I1026 12:14:47.932595  9605 net.cpp:84] Creating Layer data
I1026 12:14:47.932602  9605 net.cpp:380] data -> data
I1026 12:14:47.932624  9605 net.cpp:380] data -> label
I1026 12:14:47.932636  9605 hdf5_data_layer.cpp:80] Loading list of HDF5 filenames from: ./train.txt
I1026 12:14:47.932662  9605 hdf5_data_layer.cpp:94] Number of HDF5 files: 1
I1026 12:14:47.933823  9605 hdf5.cpp:32] Datatype class: H5T_FLOAT
I1026 12:14:49.707209  9605 net.cpp:122] Setting up data
I1026 12:14:49.707258  9605 net.cpp:129] Top shape: 256 3 227 227 (39574272)
I1026 12:14:49.707268  9605 net.cpp:129] Top shape: 256 (256)
I1026 12:14:49.707273  9605 net.cpp:137] Memory required for data: 158298112
I1026 12:14:49.707283  9605 layer_factory.hpp:77] Creating layer conv1
I1026 12:14:49.707314  9605 net.cpp:84] Creating Layer conv1
I1026 12:14:49.707322  9605 net.cpp:406] conv1 <- data
I1026 12:14:49.707339  9605 net.cpp:380] conv1 -> conv1
I1026 12:14:50.013859  9605 net.cpp:122] Setting up conv1
I1026 12:14:50.013903  9605 net.cpp:129] Top shape: 256 96 55 55 (74342400)
I1026 12:14:50.013911  9605 net.cpp:137] Memory required for data: 455667712
I1026 12:14:50.013941  9605 layer_factory.hpp:77] Creating layer relu1
I1026 12:14:50.013957  9605 net.cpp:84] Creating Layer relu1
I1026 12:14:50.013964  9605 net.cpp:406] relu1 <- conv1
I1026 12:14:50.013973  9605 net.cpp:367] relu1 -> conv1 (in-place)
I1026 12:14:50.014168  9605 net.cpp:122] Setting up relu1
I1026 12:14:50.014178  9605 net.cpp:129] Top shape: 256 96 55 55 (74342400)
I1026 12:14:50.014183  9605 net.cpp:137] Memory required for data: 753037312
I1026 12:14:50.014186  9605 layer_factory.hpp:77] Creating layer norm1
I1026 12:14:50.014199  9605 net.cpp:84] Creating Layer norm1
I1026 12:14:50.014204  9605 net.cpp:406] norm1 <- conv1
I1026 12:14:50.014209  9605 net.cpp:380] norm1 -> norm1
I1026 12:14:50.014425  9605 net.cpp:122] Setting up norm1
I1026 12:14:50.014434  9605 net.cpp:129] Top shape: 256 96 55 55 (74342400)
I1026 12:14:50.014439  9605 net.cpp:137] Memory required for data: 1050406912
I1026 12:14:50.014443  9605 layer_factory.hpp:77] Creating layer pool1
I1026 12:14:50.014452  9605 net.cpp:84] Creating Layer pool1
I1026 12:14:50.014456  9605 net.cpp:406] pool1 <- norm1
I1026 12:14:50.014462  9605 net.cpp:380] pool1 -> pool1
I1026 12:14:50.014506  9605 net.cpp:122] Setting up pool1
I1026 12:14:50.014513  9605 net.cpp:129] Top shape: 256 96 27 27 (17915904)
I1026 12:14:50.014518  9605 net.cpp:137] Memory required for data: 1122070528
I1026 12:14:50.014551  9605 layer_factory.hpp:77] Creating layer conv2
I1026 12:14:50.014564  9605 net.cpp:84] Creating Layer conv2
I1026 12:14:50.014569  9605 net.cpp:406] conv2 <- pool1
I1026 12:14:50.014576  9605 net.cpp:380] conv2 -> conv2
I1026 12:14:50.022922  9605 net.cpp:122] Setting up conv2
I1026 12:14:50.022972  9605 net.cpp:129] Top shape: 256 256 27 27 (47775744)
I1026 12:14:50.022980  9605 net.cpp:137] Memory required for data: 1313173504
I1026 12:14:50.023003  9605 layer_factory.hpp:77] Creating layer relu2
I1026 12:14:50.023017  9605 net.cpp:84] Creating Layer relu2
I1026 12:14:50.023023  9605 net.cpp:406] relu2 <- conv2
I1026 12:14:50.023036  9605 net.cpp:367] relu2 -> conv2 (in-place)
I1026 12:14:50.023303  9605 net.cpp:122] Setting up relu2
I1026 12:14:50.023315  9605 net.cpp:129] Top shape: 256 256 27 27 (47775744)
I1026 12:14:50.023319  9605 net.cpp:137] Memory required for data: 1504276480
I1026 12:14:50.023324  9605 layer_factory.hpp:77] Creating layer norm2
I1026 12:14:50.023331  9605 net.cpp:84] Creating Layer norm2
I1026 12:14:50.023335  9605 net.cpp:406] norm2 <- conv2
I1026 12:14:50.023344  9605 net.cpp:380] norm2 -> norm2
I1026 12:14:50.023576  9605 net.cpp:122] Setting up norm2
I1026 12:14:50.023586  9605 net.cpp:129] Top shape: 256 256 27 27 (47775744)
I1026 12:14:50.023591  9605 net.cpp:137] Memory required for data: 1695379456
I1026 12:14:50.023594  9605 layer_factory.hpp:77] Creating layer pool2
I1026 12:14:50.023605  9605 net.cpp:84] Creating Layer pool2
I1026 12:14:50.023609  9605 net.cpp:406] pool2 <- norm2
I1026 12:14:50.023617  9605 net.cpp:380] pool2 -> pool2
I1026 12:14:50.023654  9605 net.cpp:122] Setting up pool2
I1026 12:14:50.023663  9605 net.cpp:129] Top shape: 256 256 13 13 (11075584)
I1026 12:14:50.023668  9605 net.cpp:137] Memory required for data: 1739681792
I1026 12:14:50.023670  9605 layer_factory.hpp:77] Creating layer conv3
I1026 12:14:50.023685  9605 net.cpp:84] Creating Layer conv3
I1026 12:14:50.023690  9605 net.cpp:406] conv3 <- pool2
I1026 12:14:50.023696  9605 net.cpp:380] conv3 -> conv3
I1026 12:14:50.037750  9605 net.cpp:122] Setting up conv3
I1026 12:14:50.037793  9605 net.cpp:129] Top shape: 256 384 13 13 (16613376)
I1026 12:14:50.037798  9605 net.cpp:137] Memory required for data: 1806135296
I1026 12:14:50.037818  9605 layer_factory.hpp:77] Creating layer relu3
I1026 12:14:50.037833  9605 net.cpp:84] Creating Layer relu3
I1026 12:14:50.037839  9605 net.cpp:406] relu3 <- conv3
I1026 12:14:50.037849  9605 net.cpp:367] relu3 -> conv3 (in-place)
I1026 12:14:50.038287  9605 net.cpp:122] Setting up relu3
I1026 12:14:50.038300  9605 net.cpp:129] Top shape: 256 384 13 13 (16613376)
I1026 12:14:50.038305  9605 net.cpp:137] Memory required for data: 1872588800
I1026 12:14:50.038308  9605 layer_factory.hpp:77] Creating layer conv4
I1026 12:14:50.038323  9605 net.cpp:84] Creating Layer conv4
I1026 12:14:50.038328  9605 net.cpp:406] conv4 <- conv3
I1026 12:14:50.038336  9605 net.cpp:380] conv4 -> conv4
I1026 12:14:50.050029  9605 net.cpp:122] Setting up conv4
I1026 12:14:50.050068  9605 net.cpp:129] Top shape: 256 384 13 13 (16613376)
I1026 12:14:50.050074  9605 net.cpp:137] Memory required for data: 1939042304
I1026 12:14:50.050088  9605 layer_factory.hpp:77] Creating layer relu4
I1026 12:14:50.050101  9605 net.cpp:84] Creating Layer relu4
I1026 12:14:50.050107  9605 net.cpp:406] relu4 <- conv4
I1026 12:14:50.050119  9605 net.cpp:367] relu4 -> conv4 (in-place)
I1026 12:14:50.050580  9605 net.cpp:122] Setting up relu4
I1026 12:14:50.050593  9605 net.cpp:129] Top shape: 256 384 13 13 (16613376)
I1026 12:14:50.050598  9605 net.cpp:137] Memory required for data: 2005495808
I1026 12:14:50.050602  9605 layer_factory.hpp:77] Creating layer conv5
I1026 12:14:50.050616  9605 net.cpp:84] Creating Layer conv5
I1026 12:14:50.050621  9605 net.cpp:406] conv5 <- conv4
I1026 12:14:50.050628  9605 net.cpp:380] conv5 -> conv5
I1026 12:14:50.059651  9605 net.cpp:122] Setting up conv5
I1026 12:14:50.059691  9605 net.cpp:129] Top shape: 256 256 13 13 (11075584)
I1026 12:14:50.059697  9605 net.cpp:137] Memory required for data: 2049798144
I1026 12:14:50.059779  9605 layer_factory.hpp:77] Creating layer relu5
I1026 12:14:50.059795  9605 net.cpp:84] Creating Layer relu5
I1026 12:14:50.059803  9605 net.cpp:406] relu5 <- conv5
I1026 12:14:50.059816  9605 net.cpp:367] relu5 -> conv5 (in-place)
I1026 12:14:50.060035  9605 net.cpp:122] Setting up relu5
I1026 12:14:50.060045  9605 net.cpp:129] Top shape: 256 256 13 13 (11075584)
I1026 12:14:50.060048  9605 net.cpp:137] Memory required for data: 2094100480
I1026 12:14:50.060053  9605 layer_factory.hpp:77] Creating layer pool5
I1026 12:14:50.060060  9605 net.cpp:84] Creating Layer pool5
I1026 12:14:50.060071  9605 net.cpp:406] pool5 <- conv5
I1026 12:14:50.060077  9605 net.cpp:380] pool5 -> pool5
I1026 12:14:50.060125  9605 net.cpp:122] Setting up pool5
I1026 12:14:50.060134  9605 net.cpp:129] Top shape: 256 256 6 6 (2359296)
I1026 12:14:50.060138  9605 net.cpp:137] Memory required for data: 2103537664
I1026 12:14:50.060142  9605 layer_factory.hpp:77] Creating layer fc6
I1026 12:14:50.060156  9605 net.cpp:84] Creating Layer fc6
I1026 12:14:50.060160  9605 net.cpp:406] fc6 <- pool5
I1026 12:14:50.060168  9605 net.cpp:380] fc6 -> fc6
I1026 12:14:50.556743  9605 net.cpp:122] Setting up fc6
I1026 12:14:50.556795  9605 net.cpp:129] Top shape: 256 4096 (1048576)
I1026 12:14:50.556803  9605 net.cpp:137] Memory required for data: 2107731968
I1026 12:14:50.556818  9605 layer_factory.hpp:77] Creating layer relu6
I1026 12:14:50.556833  9605 net.cpp:84] Creating Layer relu6
I1026 12:14:50.556838  9605 net.cpp:406] relu6 <- fc6
I1026 12:14:50.556850  9605 net.cpp:367] relu6 -> fc6 (in-place)
I1026 12:14:50.557138  9605 net.cpp:122] Setting up relu6
I1026 12:14:50.557148  9605 net.cpp:129] Top shape: 256 4096 (1048576)
I1026 12:14:50.557152  9605 net.cpp:137] Memory required for data: 2111926272
I1026 12:14:50.557157  9605 layer_factory.hpp:77] Creating layer drop6
I1026 12:14:50.557165  9605 net.cpp:84] Creating Layer drop6
I1026 12:14:50.557169  9605 net.cpp:406] drop6 <- fc6
I1026 12:14:50.557176  9605 net.cpp:367] drop6 -> fc6 (in-place)
I1026 12:14:50.557200  9605 net.cpp:122] Setting up drop6
I1026 12:14:50.557206  9605 net.cpp:129] Top shape: 256 4096 (1048576)
I1026 12:14:50.557210  9605 net.cpp:137] Memory required for data: 2116120576
I1026 12:14:50.557214  9605 layer_factory.hpp:77] Creating layer fc7
I1026 12:14:50.557227  9605 net.cpp:84] Creating Layer fc7
I1026 12:14:50.557231  9605 net.cpp:406] fc7 <- fc6
I1026 12:14:50.557240  9605 net.cpp:380] fc7 -> fc7
I1026 12:14:50.779706  9605 net.cpp:122] Setting up fc7
I1026 12:14:50.779772  9605 net.cpp:129] Top shape: 256 4096 (1048576)
I1026 12:14:50.779778  9605 net.cpp:137] Memory required for data: 2120314880
I1026 12:14:50.779794  9605 layer_factory.hpp:77] Creating layer relu7
I1026 12:14:50.779808  9605 net.cpp:84] Creating Layer relu7
I1026 12:14:50.779815  9605 net.cpp:406] relu7 <- fc7
I1026 12:14:50.779848  9605 net.cpp:367] relu7 -> fc7 (in-place)
I1026 12:14:50.780136  9605 net.cpp:122] Setting up relu7
I1026 12:14:50.780145  9605 net.cpp:129] Top shape: 256 4096 (1048576)
I1026 12:14:50.780149  9605 net.cpp:137] Memory required for data: 2124509184
I1026 12:14:50.780153  9605 layer_factory.hpp:77] Creating layer drop7
I1026 12:14:50.780164  9605 net.cpp:84] Creating Layer drop7
I1026 12:14:50.780169  9605 net.cpp:406] drop7 <- fc7
I1026 12:14:50.780175  9605 net.cpp:367] drop7 -> fc7 (in-place)
I1026 12:14:50.780195  9605 net.cpp:122] Setting up drop7
I1026 12:14:50.780201  9605 net.cpp:129] Top shape: 256 4096 (1048576)
I1026 12:14:50.780206  9605 net.cpp:137] Memory required for data: 2128703488
I1026 12:14:50.780210  9605 layer_factory.hpp:77] Creating layer my-fc8
I1026 12:14:50.780221  9605 net.cpp:84] Creating Layer my-fc8
I1026 12:14:50.780225  9605 net.cpp:406] my-fc8 <- fc7
I1026 12:14:50.780236  9605 net.cpp:380] my-fc8 -> my-fc8
I1026 12:14:50.780403  9605 net.cpp:122] Setting up my-fc8
I1026 12:14:50.780411  9605 net.cpp:129] Top shape: 256 1 (256)
I1026 12:14:50.780416  9605 net.cpp:137] Memory required for data: 2128704512
I1026 12:14:50.780454  9605 layer_factory.hpp:77] Creating layer loss
I1026 12:14:50.780460  9605 net.cpp:84] Creating Layer loss
I1026 12:14:50.780464  9605 net.cpp:406] loss <- my-fc8
I1026 12:14:50.780469  9605 net.cpp:406] loss <- label
I1026 12:14:50.780480  9605 net.cpp:380] loss -> loss
I1026 12:14:50.780517  9605 net.cpp:122] Setting up loss
…
I1026 12:14:50.780673  9605 net.cpp:255] Network initialization done.
I1026 12:14:50.781002  9605 solver.cpp:172] Creating test net (#0) specified by net file: ./train_val.prototxt
I1026 12:14:50.781038  9605 net.cpp:294] The NetState phase (1) differed from the phase (0) specified by a rule in layer data
I1026 12:14:50.781230  9605 net.cpp:51] Initializing net from parameters: 
name: "AlexNet"
state {
  phase: TEST
}
layer {
  name: "data"
  type: "HDF5Data"
  top: "data"
  top: "label"
  include {
    phase: TEST
  }
  hdf5_data_param {
    source: "./test.txt"
    batch_size: 128
  }
}
layer {
  name: "conv1"
  type: "Convolution"
  bottom: "data"
  top: "conv1"
  param {
    lr_mult: 1
    decay_mult: 1
  }
  param {
    lr_mult: 2
    decay_mult: 0
  }
  convolution_param {
    num_output: 96
    kernel_size: 11
    stride: 4
    weight_filler {
      type: "gaussian"
      std: 0.01
    }
    bias_filler {
      type: "constant"
      value: 0
    }
  }
}
layer {
  name: "relu1"
  type: "ReLU"
  bottom: "conv1"
  top: "conv1"
}
layer {
  name: "norm1"
  type: "LRN"
  bottom: "conv1"
  top: "norm1"
  lrn_param {
    local_size: 5
    alpha: 0.0001
    beta: 0.75
  }
}
layer {
  name: "pool1"
  type: "Pooling"
  bottom: "norm1"
  top: "pool1"
  pooling_param {
    pool: MAX
    kernel_size: 3
    stride: 2
  }
}
layer {
  name: "conv2"
  type: "Convolution"
  bottom: "pool1"
  top: "conv2"
  param {
    lr_mult: 1
    decay_mult: 1
  }
  param {
    lr_mult: 2
    decay_mult: 0
  }
  convolution_param {
    num_output: 256
    pad: 2
    kernel_size: 5
    group: 2
    weight_filler {
      type: "gaussian"
      std: 0.01
    }
    bias_filler {
      type: "constant"
      value: 0.1
    }
  }
}
layer {
  name: "relu2"
  type: "ReLU"
  bottom: "conv2"
  top: "conv2"
}
layer {
  name: "norm2"
  type: "LRN"
  bottom: "conv2"
  top: "norm2"
  lrn_param {
    local_size: 5
    alpha: 0.0001
    beta: 0.75
  }
}
layer {
  name: "pool2"
  type: "Pooling"
  bottom: "norm2"
  top: "pool2"
  pooling_param {
    pool: MAX
    kernel_size: 3
    stride: 2
  }
}
layer {
  name: "conv3"
  type: "Convolution"
  bottom: "pool2"
  top: "conv3"
  param {
    lr_mult: 1
    decay_mult: 1
  }
  param {
    lr_mult: 2
    decay_mult: 0
  }
  convolution_param {
    num_output: 384
    pad: 1
    kernel_size: 3
    weight_filler {
      type: "gaussian"
      std: 0.01
    }
    bias_filler {
      type: "constant"
      value: 0
    }
  }
}
layer {
  name: "relu3"
  type: "ReLU"
  bottom: "conv3"
  top: "conv3"
}
layer {
  name: "conv4"
  type: "Convolution"
  bottom: "conv3"
  top: "conv4"
  param {
    lr_mult: 1
    decay_mult: 1
  }
  param {
    lr_mult: 2
    decay_mult: 0
  }
  convolution_param {
    num_output: 384
    pad: 1
    kernel_size: 3
    group: 2
    weight_filler {
      type: "gaussian"
      std: 0.01
    }
    bias_filler {
      type: "constant"
      value: 0.1
    }
  }
}
layer {
  name: "relu4"
  type: "ReLU"
  bottom: "conv4"
  top: "conv4"
}
layer {
  name: "conv5"
  type: "Convolution"
  bottom: "conv4"
  top: "conv5"
  param {
    lr_mult: 1
    decay_mult: 1
  }
  param {
    lr_mult: 2
    decay_mult: 0
  }
  convolution_param {
    num_output: 256
    pad: 1
    kernel_size: 3
    group: 2
    weight_filler {
      type: "gaussian"
      std: 0.01
    }
    bias_filler {
      type: "constant"
      value: 0.1
    }
  }
}
layer {
  name: "relu5"
  type: "ReLU"
  bottom: "conv5"
  top: "conv5"
}
layer {
  name: "pool5"
  type: "Pooling"
  bottom: "conv5"
  top: "pool5"
  pooling_param {
    pool: MAX
    kernel_size: 3
    stride: 2
  }
}
layer {
  name: "fc6"
  type: "InnerProduct"
  bottom: "pool5"
  top: "fc6"
  param {
    lr_mult: 1
    decay_mult: 1
  }
  param {
    lr_mult: 2
    decay_mult: 0
  }
  inner_product_param {
    num_output: 4096
    weight_filler {
      type: "gaussian"
      std: 0.005
    }
    bias_filler {
      type: "constant"
      value: 0.1
    }
  }
}
layer {
  name: "relu6"
  type: "ReLU"
  bottom: "fc6"
  top: "fc6"
}
layer {
  name: "drop6"
  type: "Dropout"
  bottom: "fc6"
  top: "fc6"
  dropout_param {
    dropout_ratio: 0.5
  }
}
layer {
  name: "fc7"
  type: "InnerProduct"
  bottom: "fc6"
  top: "fc7"
  param {
    lr_mult: 1
    decay_mult: 1
  }
  param {
    lr_mult: 2
    decay_mult: 0
  }
  inner_product_param {
    num_output: 4096
    weight_filler {
      type: "gaussian"
      std: 0.005
    }
    bias_filler {
      type: "constant"
      value: 0.1
    }
  }
}
layer {
  name: "relu7"
  type: "ReLU"
  bottom: "fc7"
  top: "fc7"
}
layer {
  name: "drop7"
  type: "Dropout"
  bottom: "fc7"
  top: "fc7"
  dropout_param {
    dropout_ratio: 0.5
  }
}
layer {
  name: "my-fc8"
  type: "InnerProduct"
  bottom: "fc7"
  top: "my-fc8"
  param {
    lr_mult: 1
    decay_mult: 1
  }
  param {
    lr_mult: 2
    decay_mult: 0
  }
  inner_product_param {
    num_output: 1
    weight_filler {
      type: "gaussian"
      std: 0.01
    }
    bias_filler {
      type: "constant"
      value: 0
    }
  }
}
layer {
  name: "loss"
  type: "EuclideanLoss"
  bottom: "my-fc8"
  bottom: "label"
  top: "loss"
}
I1026 12:14:50.781311  9605 layer_factory.hpp:77] Creating layer data
I1026 12:14:50.781319  9605 net.cpp:84] Creating Layer data
I1026 12:14:50.781325  9605 net.cpp:380] data -> data
I1026 12:14:50.781333  9605 net.cpp:380] data -> label
I1026 12:14:50.781340  9605 hdf5_data_layer.cpp:80] Loading list of HDF5 filenames from: ./test.txt
I1026 12:14:50.781363  9605 hdf5_data_layer.cpp:94] Number of HDF5 files: 1
I1026 12:14:51.200783  9605 net.cpp:122] Setting up data
I1026 12:14:51.200832  9605 net.cpp:129] Top shape: 128 3 227 227 (19787136)
I1026 12:14:51.200839  9605 net.cpp:129] Top shape: 128 (128)
I1026 12:14:51.200877  9605 net.cpp:137] Memory required for data: 79149056
I1026 12:14:51.200886  9605 layer_factory.hpp:77] Creating layer conv1
I1026 12:14:51.200912  9605 net.cpp:84] Creating Layer conv1
I1026 12:14:51.200918  9605 net.cpp:406] conv1 <- data
I1026 12:14:51.200929  9605 net.cpp:380] conv1 -> conv1
I1026 12:14:51.202783  9605 net.cpp:122] Setting up conv1
I1026 12:14:51.202805  9605 net.cpp:129] Top shape: 128 96 55 55 (37171200)
I1026 12:14:51.202810  9605 net.cpp:137] Memory required for data: 227833856
I1026 12:14:51.202826  9605 layer_factory.hpp:77] Creating layer relu1
I1026 12:14:51.202834  9605 net.cpp:84] Creating Layer relu1
I1026 12:14:51.202839  9605 net.cpp:406] relu1 <- conv1
I1026 12:14:51.202847  9605 net.cpp:367] relu1 -> conv1 (in-place)
I1026 12:14:51.203034  9605 net.cpp:122] Setting up relu1
I1026 12:14:51.203043  9605 net.cpp:129] Top shape: 128 96 55 55 (37171200)
I1026 12:14:51.203048  9605 net.cpp:137] Memory required for data: 376518656
I1026 12:14:51.203052  9605 layer_factory.hpp:77] Creating layer norm1
I1026 12:14:51.203060  9605 net.cpp:84] Creating Layer norm1
I1026 12:14:51.203064  9605 net.cpp:406] norm1 <- conv1
I1026 12:14:51.203071  9605 net.cpp:380] norm1 -> norm1
I1026 12:14:51.203568  9605 net.cpp:122] Setting up norm1
I1026 12:14:51.203579  9605 net.cpp:129] Top shape: 128 96 55 55 (37171200)
I1026 12:14:51.203583  9605 net.cpp:137] Memory required for data: 525203456
I1026 12:14:51.203588  9605 layer_factory.hpp:77] Creating layer pool1
I1026 12:14:51.203596  9605 net.cpp:84] Creating Layer pool1
I1026 12:14:51.203600  9605 net.cpp:406] pool1 <- norm1
I1026 12:14:51.203606  9605 net.cpp:380] pool1 -> pool1
I1026 12:14:51.203645  9605 net.cpp:122] Setting up pool1
I1026 12:14:51.203652  9605 net.cpp:129] Top shape: 128 96 27 27 (8957952)
I1026 12:14:51.203656  9605 net.cpp:137] Memory required for data: 561035264
I1026 12:14:51.203660  9605 layer_factory.hpp:77] Creating layer conv2
I1026 12:14:51.203670  9605 net.cpp:84] Creating Layer conv2
I1026 12:14:51.203673  9605 net.cpp:406] conv2 <- pool1
I1026 12:14:51.203680  9605 net.cpp:380] conv2 -> conv2
I1026 12:14:51.211014  9605 net.cpp:122] Setting up conv2
I1026 12:14:51.211055  9605 net.cpp:129] Top shape: 128 256 27 27 (23887872)
I1026 12:14:51.211061  9605 net.cpp:137] Memory required for data: 656586752
I1026 12:14:51.211081  9605 layer_factory.hpp:77] Creating layer relu2
I1026 12:14:51.211093  9605 net.cpp:84] Creating Layer relu2
I1026 12:14:51.211098  9605 net.cpp:406] relu2 <- conv2
I1026 12:14:51.211108  9605 net.cpp:367] relu2 -> conv2 (in-place)
I1026 12:14:51.211324  9605 net.cpp:122] Setting up relu2
I1026 12:14:51.211335  9605 net.cpp:129] Top shape: 128 256 27 27 (23887872)
I1026 12:14:51.211339  9605 net.cpp:137] Memory required for data: 752138240
I1026 12:14:51.211344  9605 layer_factory.hpp:77] Creating layer norm2
I1026 12:14:51.211354  9605 net.cpp:84] Creating Layer norm2
I1026 12:14:51.211359  9605 net.cpp:406] norm2 <- conv2
I1026 12:14:51.211366  9605 net.cpp:380] norm2 -> norm2
I1026 12:14:51.211596  9605 net.cpp:122] Setting up norm2
I1026 12:14:51.211606  9605 net.cpp:129] Top shape: 128 256 27 27 (23887872)
I1026 12:14:51.211611  9605 net.cpp:137] Memory required for data: 847689728
I1026 12:14:51.211614  9605 layer_factory.hpp:77] Creating layer pool2
I1026 12:14:51.211625  9605 net.cpp:84] Creating Layer pool2
I1026 12:14:51.211630  9605 net.cpp:406] pool2 <- norm2
I1026 12:14:51.211637  9605 net.cpp:380] pool2 -> pool2
I1026 12:14:51.211678  9605 net.cpp:122] Setting up pool2
I1026 12:14:51.211683  9605 net.cpp:129] Top shape: 128 256 13 13 (5537792)
I1026 12:14:51.211688  9605 net.cpp:137] Memory required for data: 869840896
I1026 12:14:51.211691  9605 layer_factory.hpp:77] Creating layer conv3
I1026 12:14:51.211706  9605 net.cpp:84] Creating Layer conv3
I1026 12:14:51.211710  9605 net.cpp:406] conv3 <- pool2
I1026 12:14:51.211730  9605 net.cpp:380] conv3 -> conv3
I1026 12:14:51.225994  9605 net.cpp:122] Setting up conv3
I1026 12:14:51.226035  9605 net.cpp:129] Top shape: 128 384 13 13 (8306688)
I1026 12:14:51.226073  9605 net.cpp:137] Memory required for data: 903067648
I1026 12:14:51.226092  9605 layer_factory.hpp:77] Creating layer relu3
I1026 12:14:51.226106  9605 net.cpp:84] Creating Layer relu3
I1026 12:14:51.226112  9605 net.cpp:406] relu3 <- conv3
I1026 12:14:51.226124  9605 net.cpp:367] relu3 -> conv3 (in-place)
I1026 12:14:51.226331  9605 net.cpp:122] Setting up relu3
I1026 12:14:51.226341  9605 net.cpp:129] Top shape: 128 384 13 13 (8306688)
I1026 12:14:51.226346  9605 net.cpp:137] Memory required for data: 936294400
I1026 12:14:51.226349  9605 layer_factory.hpp:77] Creating layer conv4
I1026 12:14:51.226362  9605 net.cpp:84] Creating Layer conv4
I1026 12:14:51.226366  9605 net.cpp:406] conv4 <- conv3
I1026 12:14:51.226377  9605 net.cpp:380] conv4 -> conv4
I1026 12:14:51.238481  9605 net.cpp:122] Setting up conv4
I1026 12:14:51.238523  9605 net.cpp:129] Top shape: 128 384 13 13 (8306688)
I1026 12:14:51.238528  9605 net.cpp:137] Memory required for data: 969521152
I1026 12:14:51.238543  9605 layer_factory.hpp:77] Creating layer relu4
I1026 12:14:51.238555  9605 net.cpp:84] Creating Layer relu4
I1026 12:14:51.238561  9605 net.cpp:406] relu4 <- conv4
I1026 12:14:51.238574  9605 net.cpp:367] relu4 -> conv4 (in-place)
I1026 12:14:51.238792  9605 net.cpp:122] Setting up relu4
I1026 12:14:51.238803  9605 net.cpp:129] Top shape: 128 384 13 13 (8306688)
I1026 12:14:51.238808  9605 net.cpp:137] Memory required for data: 1002747904
I1026 12:14:51.238813  9605 layer_factory.hpp:77] Creating layer conv5
I1026 12:14:51.238831  9605 net.cpp:84] Creating Layer conv5
I1026 12:14:51.238836  9605 net.cpp:406] conv5 <- conv4
I1026 12:14:51.238847  9605 net.cpp:380] conv5 -> conv5
I1026 12:14:51.248299  9605 net.cpp:122] Setting up conv5
I1026 12:14:51.248337  9605 net.cpp:129] Top shape: 128 256 13 13 (5537792)
I1026 12:14:51.248343  9605 net.cpp:137] Memory required for data: 1024899072
I1026 12:14:51.248366  9605 layer_factory.hpp:77] Creating layer relu5
I1026 12:14:51.248381  9605 net.cpp:84] Creating Layer relu5
I1026 12:14:51.248387  9605 net.cpp:406] relu5 <- conv5
I1026 12:14:51.248396  9605 net.cpp:367] relu5 -> conv5 (in-place)
I1026 12:14:51.248625  9605 net.cpp:122] Setting up relu5
I1026 12:14:51.248636  9605 net.cpp:129] Top shape: 128 256 13 13 (5537792)
I1026 12:14:51.248641  9605 net.cpp:137] Memory required for data: 1047050240
I1026 12:14:51.248646  9605 layer_factory.hpp:77] Creating layer pool5
I1026 12:14:51.248656  9605 net.cpp:84] Creating Layer pool5
I1026 12:14:51.248661  9605 net.cpp:406] pool5 <- conv5
I1026 12:14:51.248668  9605 net.cpp:380] pool5 -> pool5
I1026 12:14:51.248724  9605 net.cpp:122] Setting up pool5
I1026 12:14:51.248733  9605 net.cpp:129] Top shape: 128 256 6 6 (1179648)
I1026 12:14:51.248738  9605 net.cpp:137] Memory required for data: 1051768832
I1026 12:14:51.248741  9605 layer_factory.hpp:77] Creating layer fc6
I1026 12:14:51.248755  9605 net.cpp:84] Creating Layer fc6
I1026 12:14:51.248760  9605 net.cpp:406] fc6 <- pool5
I1026 12:14:51.248769  9605 net.cpp:380] fc6 -> fc6
I1026 12:14:51.746002  9605 net.cpp:122] Setting up fc6
I1026 12:14:51.746055  9605 net.cpp:129] Top shape: 128 4096 (524288)
I1026 12:14:51.746062  9605 net.cpp:137] Memory required for data: 1053865984
I1026 12:14:51.746076  9605 layer_factory.hpp:77] Creating layer relu6
I1026 12:14:51.746090  9605 net.cpp:84] Creating Layer relu6
I1026 12:14:51.746096  9605 net.cpp:406] relu6 <- fc6
I1026 12:14:51.746106  9605 net.cpp:367] relu6 -> fc6 (in-place)
I1026 12:14:51.746892  9605 net.cpp:122] Setting up relu6
I1026 12:14:51.746904  9605 net.cpp:129] Top shape: 128 4096 (524288)
I1026 12:14:51.746908  9605 net.cpp:137] Memory required for data: 1055963136
I1026 12:14:51.746912  9605 layer_factory.hpp:77] Creating layer drop6
I1026 12:14:51.746922  9605 net.cpp:84] Creating Layer drop6
I1026 12:14:51.746929  9605 net.cpp:406] drop6 <- fc6
I1026 12:14:51.746935  9605 net.cpp:367] drop6 -> fc6 (in-place)
I1026 12:14:51.746958  9605 net.cpp:122] Setting up drop6
I1026 12:14:51.746994  9605 net.cpp:129] Top shape: 128 4096 (524288)
I1026 12:14:51.746999  9605 net.cpp:137] Memory required for data: 1058060288
I1026 12:14:51.747002  9605 layer_factory.hpp:77] Creating layer fc7
I1026 12:14:51.747017  9605 net.cpp:84] Creating Layer fc7
I1026 12:14:51.747021  9605 net.cpp:406] fc7 <- fc6
I1026 12:14:51.747030  9605 net.cpp:380] fc7 -> fc7
I1026 12:14:51.969379  9605 net.cpp:122] Setting up fc7
I1026 12:14:51.969431  9605 net.cpp:129] Top shape: 128 4096 (524288)
I1026 12:14:51.969439  9605 net.cpp:137] Memory required for data: 1060157440
I1026 12:14:51.969455  9605 layer_factory.hpp:77] Creating layer relu7
I1026 12:14:51.969467  9605 net.cpp:84] Creating Layer relu7
I1026 12:14:51.969473  9605 net.cpp:406] relu7 <- fc7
I1026 12:14:51.969485  9605 net.cpp:367] relu7 -> fc7 (in-place)
I1026 12:14:51.969780  9605 net.cpp:122] Setting up relu7
I1026 12:14:51.969791  9605 net.cpp:129] Top shape: 128 4096 (524288)
I1026 12:14:51.969795  9605 net.cpp:137] Memory required for data: 1062254592
I1026 12:14:51.969799  9605 layer_factory.hpp:77] Creating layer drop7
I1026 12:14:51.969807  9605 net.cpp:84] Creating Layer drop7
I1026 12:14:51.969811  9605 net.cpp:406] drop7 <- fc7
I1026 12:14:51.969820  9605 net.cpp:367] drop7 -> fc7 (in-place)
I1026 12:14:51.969841  9605 net.cpp:122] Setting up drop7
I1026 12:14:51.969846  9605 net.cpp:129] Top shape: 128 4096 (524288)
I1026 12:14:51.969849  9605 net.cpp:137] Memory required for data: 1064351744
I1026 12:14:51.969853  9605 layer_factory.hpp:77] Creating layer my-fc8
I1026 12:14:51.969863  9605 net.cpp:84] Creating Layer my-fc8
I1026 12:14:51.969868  9605 net.cpp:406] my-fc8 <- fc7
I1026 12:14:51.969877  9605 net.cpp:380] my-fc8 -> my-fc8
I1026 12:14:51.970044  9605 net.cpp:122] Setting up my-fc8
I1026 12:14:51.970054  9605 net.cpp:129] Top shape: 128 1 (128)
I1026 12:14:51.970058  9605 net.cpp:137] Memory required for data: 1064352256
I1026 12:14:51.970065  9605 layer_factory.hpp:77] Creating layer loss
I1026 12:14:51.970072  9605 net.cpp:84] Creating Layer loss
I1026 12:14:51.970075  9605 net.cpp:406] loss <- my-fc8
I1026 12:14:51.970080  9605 net.cpp:406] loss <- label
I1026 12:14:51.970088  9605 net.cpp:380] loss -> loss
I1026 12:14:51.970124  9605 net.cpp:122] Setting up loss
…
