…
I1026 14:14:30.195616 10952 solver.cpp:87] Creating training net from net file: ./train_val.prototxt
I1026 14:14:30.195993 10952 net.cpp:294] The NetState phase (0) differed from the phase (1) specified by a rule in layer data
I1026 14:14:30.196190 10952 net.cpp:51] Initializing net from parameters: 
name: "CaffeNet"
state {
  phase: TRAIN
  level: 0
  stage: ""
}
layer {
  name: "data"
  type: "HDF5Data"
  top: "data"
  top: "label"
  include {
    phase: TRAIN
  }
  hdf5_data_param {
    source: "./train.txt"
    batch_size: 256
    shuffle: true
  }
}
layer {
  name: "conv1"
  type: "Convolution"
  bottom: "data"
  top: "conv1"
  param {
    lr_mult: 1
    decay_mult: 1
  }
  param {
    lr_mult: 2
    decay_mult: 0
  }
  convolution_param {
    num_output: 96
    kernel_size: 11
    stride: 4
    weight_filler {
      type: "gaussian"
      std: 0.01
    }
    bias_filler {
      type: "constant"
      value: 0
    }
  }
}
layer {
  name: "relu1"
  type: "ReLU"
  bottom: "conv1"
  top: "conv1"
}
layer {
  name: "pool1"
  type: "Pooling"
  bottom: "conv1"
  top: "pool1"
  pooling_param {
    pool: MAX
    kernel_size: 3
    stride: 2
  }
}
layer {
  name: "norm1"
  type: "LRN"
  bottom: "pool1"
  top: "norm1"
  lrn_param {
    local_size: 5
    alpha: 0.0001
    beta: 0.75
  }
}
layer {
  name: "conv2"
  type: "Convolution"
  bottom: "norm1"
  top: "conv2"
  param {
    lr_mult: 1
    decay_mult: 1
  }
  param {
    lr_mult: 2
    decay_mult: 0
  }
  convolution_param {
    num_output: 256
    pad: 2
    kernel_size: 5
    group: 2
    weight_filler {
      type: "gaussian"
      std: 0.01
    }
    bias_filler {
      type: "constant"
      value: 1
    }
  }
}
layer {
  name: "relu2"
  type: "ReLU"
  bottom: "conv2"
  top: "conv2"
}
layer {
  name: "pool2"
  type: "Pooling"
  bottom: "conv2"
  top: "pool2"
  pooling_param {
    pool: MAX
    kernel_size: 3
    stride: 2
  }
}
layer {
  name: "norm2"
  type: "LRN"
  bottom: "pool2"
  top: "norm2"
  lrn_param {
    local_size: 5
    alpha: 0.0001
    beta: 0.75
  }
}
layer {
  name: "conv3"
  type: "Convolution"
  bottom: "norm2"
  top: "conv3"
  param {
    lr_mult: 1
    decay_mult: 1
  }
  param {
    lr_mult: 2
    decay_mult: 0
  }
  convolution_param {
    num_output: 384
    pad: 1
    kernel_size: 3
    weight_filler {
      type: "gaussian"
      std: 0.01
    }
    bias_filler {
      type: "constant"
      value: 0
    }
  }
}
layer {
  name: "relu3"
  type: "ReLU"
  bottom: "conv3"
  top: "conv3"
}
layer {
  name: "conv4"
  type: "Convolution"
  bottom: "conv3"
  top: "conv4"
  param {
    lr_mult: 1
    decay_mult: 1
  }
  param {
    lr_mult: 2
    decay_mult: 0
  }
  convolution_param {
    num_output: 384
    pad: 1
    kernel_size: 3
    group: 2
    weight_filler {
      type: "gaussian"
      std: 0.01
    }
    bias_filler {
      type: "constant"
      value: 1
    }
  }
}
layer {
  name: "relu4"
  type: "ReLU"
  bottom: "conv4"
  top: "conv4"
}
layer {
  name: "conv5"
  type: "Convolution"
  bottom: "conv4"
  top: "conv5"
  param {
    lr_mult: 1
    decay_mult: 1
  }
  param {
    lr_mult: 2
    decay_mult: 0
  }
  convolution_param {
    num_output: 256
    pad: 1
    kernel_size: 3
    group: 2
    weight_filler {
      type: "gaussian"
      std: 0.01
    }
    bias_filler {
      type: "constant"
      value: 1
    }
  }
}
layer {
  name: "relu5"
  type: "ReLU"
  bottom: "conv5"
  top: "conv5"
}
layer {
  name: "pool5"
  type: "Pooling"
  bottom: "conv5"
  top: "pool5"
  pooling_param {
    pool: MAX
    kernel_size: 3
    stride: 2
  }
}
layer {
  name: "fc6"
  type: "InnerProduct"
  bottom: "pool5"
  top: "fc6"
  param {
    lr_mult: 1
    decay_mult: 1
  }
  param {
    lr_mult: 2
    decay_mult: 0
  }
  inner_product_param {
    num_output: 4096
    weight_filler {
      type: "gaussian"
      std: 0.005
    }
    bias_filler {
      type: "constant"
      value: 1
    }
  }
}
layer {
  name: "relu6"
  type: "ReLU"
  bottom: "fc6"
  top: "fc6"
}
layer {
  name: "drop6"
  type: "Dropout"
  bottom: "fc6"
  top: "fc6"
  dropout_param {
    dropout_ratio: 0.5
  }
}
layer {
  name: "fc7"
  type: "InnerProduct"
  bottom: "fc6"
  top: "fc7"
  param {
    lr_mult: 1
    decay_mult: 1
  }
  param {
    lr_mult: 2
    decay_mult: 0
  }
  inner_product_param {
    num_output: 4096
    weight_filler {
      type: "gaussian"
      std: 0.005
    }
    bias_filler {
      type: "constant"
      value: 1
    }
  }
}
layer {
  name: "relu7"
  type: "ReLU"
  bottom: "fc7"
  top: "fc7"
}
layer {
  name: "drop7"
  type: "Dropout"
  bottom: "fc7"
  top: "fc7"
  dropout_param {
    dropout_ratio: 0.5
  }
}
layer {
  name: "my-fc8"
  type: "InnerProduct"
  bottom: "fc7"
  top: "my-fc8"
  param {
    lr_mult: 1
    decay_mult: 1
  }
  param {
    lr_mult: 2
    decay_mult: 0
  }
  inner_product_param {
    num_output: 1
    weight_filler {
      type: "gaussian"
      std: 0.01
    }
    bias_filler {
      type: "constant"
      value: 0
    }
  }
}
layer {
  name: "loss"
  type: "EuclideanLoss"
  bottom: "my-fc8"
  bottom: "label"
  top: "loss"
}
I1026 14:14:30.196316 10952 layer_factory.hpp:77] Creating layer data
I1026 14:14:30.196331 10952 net.cpp:84] Creating Layer data
I1026 14:14:30.196337 10952 net.cpp:380] data -> data
I1026 14:14:30.196359 10952 net.cpp:380] data -> label
I1026 14:14:30.196370 10952 hdf5_data_layer.cpp:80] Loading list of HDF5 filenames from: ./train.txt
I1026 14:14:30.196394 10952 hdf5_data_layer.cpp:94] Number of HDF5 files: 1
I1026 14:14:30.197582 10952 hdf5.cpp:32] Datatype class: H5T_FLOAT
I1026 14:14:30.639479 10952 net.cpp:122] Setting up data
I1026 14:14:30.639519 10952 net.cpp:129] Top shape: 256 3 227 227 (39574272)
I1026 14:14:30.639528 10952 net.cpp:129] Top shape: 256 (256)
I1026 14:14:30.639533 10952 net.cpp:137] Memory required for data: 158298112
I1026 14:14:30.639542 10952 layer_factory.hpp:77] Creating layer conv1
I1026 14:14:30.639575 10952 net.cpp:84] Creating Layer conv1
I1026 14:14:30.639582 10952 net.cpp:406] conv1 <- data
I1026 14:14:30.639598 10952 net.cpp:380] conv1 -> conv1
I1026 14:14:30.957074 10952 net.cpp:122] Setting up conv1
I1026 14:14:30.957118 10952 net.cpp:129] Top shape: 256 96 55 55 (74342400)
I1026 14:14:30.957126 10952 net.cpp:137] Memory required for data: 455667712
I1026 14:14:30.957159 10952 layer_factory.hpp:77] Creating layer relu1
I1026 14:14:30.957175 10952 net.cpp:84] Creating Layer relu1
I1026 14:14:30.957180 10952 net.cpp:406] relu1 <- conv1
I1026 14:14:30.957190 10952 net.cpp:367] relu1 -> conv1 (in-place)
I1026 14:14:30.957445 10952 net.cpp:122] Setting up relu1
I1026 14:14:30.957454 10952 net.cpp:129] Top shape: 256 96 55 55 (74342400)
I1026 14:14:30.957458 10952 net.cpp:137] Memory required for data: 753037312
I1026 14:14:30.957461 10952 layer_factory.hpp:77] Creating layer pool1
I1026 14:14:30.957469 10952 net.cpp:84] Creating Layer pool1
I1026 14:14:30.957473 10952 net.cpp:406] pool1 <- conv1
I1026 14:14:30.957479 10952 net.cpp:380] pool1 -> pool1
I1026 14:14:30.957538 10952 net.cpp:122] Setting up pool1
I1026 14:14:30.957545 10952 net.cpp:129] Top shape: 256 96 27 27 (17915904)
I1026 14:14:30.957547 10952 net.cpp:137] Memory required for data: 824700928
I1026 14:14:30.957551 10952 layer_factory.hpp:77] Creating layer norm1
I1026 14:14:30.957562 10952 net.cpp:84] Creating Layer norm1
I1026 14:14:30.957566 10952 net.cpp:406] norm1 <- pool1
I1026 14:14:30.957571 10952 net.cpp:380] norm1 -> norm1
I1026 14:14:30.957801 10952 net.cpp:122] Setting up norm1
I1026 14:14:30.957813 10952 net.cpp:129] Top shape: 256 96 27 27 (17915904)
I1026 14:14:30.957816 10952 net.cpp:137] Memory required for data: 896364544
I1026 14:14:30.957851 10952 layer_factory.hpp:77] Creating layer conv2
I1026 14:14:30.957865 10952 net.cpp:84] Creating Layer conv2
I1026 14:14:30.957870 10952 net.cpp:406] conv2 <- norm1
I1026 14:14:30.957875 10952 net.cpp:380] conv2 -> conv2
I1026 14:14:30.965010 10952 net.cpp:122] Setting up conv2
I1026 14:14:30.965045 10952 net.cpp:129] Top shape: 256 256 27 27 (47775744)
I1026 14:14:30.965049 10952 net.cpp:137] Memory required for data: 1087467520
I1026 14:14:30.965068 10952 layer_factory.hpp:77] Creating layer relu2
I1026 14:14:30.965082 10952 net.cpp:84] Creating Layer relu2
I1026 14:14:30.965087 10952 net.cpp:406] relu2 <- conv2
I1026 14:14:30.965097 10952 net.cpp:367] relu2 -> conv2 (in-place)
I1026 14:14:30.965288 10952 net.cpp:122] Setting up relu2
I1026 14:14:30.965296 10952 net.cpp:129] Top shape: 256 256 27 27 (47775744)
I1026 14:14:30.965301 10952 net.cpp:137] Memory required for data: 1278570496
I1026 14:14:30.965304 10952 layer_factory.hpp:77] Creating layer pool2
I1026 14:14:30.965312 10952 net.cpp:84] Creating Layer pool2
I1026 14:14:30.965315 10952 net.cpp:406] pool2 <- conv2
I1026 14:14:30.965322 10952 net.cpp:380] pool2 -> pool2
I1026 14:14:30.965359 10952 net.cpp:122] Setting up pool2
I1026 14:14:30.965366 10952 net.cpp:129] Top shape: 256 256 13 13 (11075584)
I1026 14:14:30.965370 10952 net.cpp:137] Memory required for data: 1322872832
I1026 14:14:30.965373 10952 layer_factory.hpp:77] Creating layer norm2
I1026 14:14:30.965384 10952 net.cpp:84] Creating Layer norm2
I1026 14:14:30.965389 10952 net.cpp:406] norm2 <- pool2
I1026 14:14:30.965394 10952 net.cpp:380] norm2 -> norm2
I1026 14:14:30.965610 10952 net.cpp:122] Setting up norm2
I1026 14:14:30.965617 10952 net.cpp:129] Top shape: 256 256 13 13 (11075584)
I1026 14:14:30.965621 10952 net.cpp:137] Memory required for data: 1367175168
I1026 14:14:30.965626 10952 layer_factory.hpp:77] Creating layer conv3
I1026 14:14:30.965636 10952 net.cpp:84] Creating Layer conv3
I1026 14:14:30.965639 10952 net.cpp:406] conv3 <- norm2
I1026 14:14:30.965647 10952 net.cpp:380] conv3 -> conv3
I1026 14:14:30.979856 10952 net.cpp:122] Setting up conv3
I1026 14:14:30.979892 10952 net.cpp:129] Top shape: 256 384 13 13 (16613376)
I1026 14:14:30.979897 10952 net.cpp:137] Memory required for data: 1433628672
I1026 14:14:30.979918 10952 layer_factory.hpp:77] Creating layer relu3
I1026 14:14:30.979934 10952 net.cpp:84] Creating Layer relu3
I1026 14:14:30.979940 10952 net.cpp:406] relu3 <- conv3
I1026 14:14:30.979950 10952 net.cpp:367] relu3 -> conv3 (in-place)
I1026 14:14:30.980403 10952 net.cpp:122] Setting up relu3
I1026 14:14:30.980414 10952 net.cpp:129] Top shape: 256 384 13 13 (16613376)
I1026 14:14:30.980419 10952 net.cpp:137] Memory required for data: 1500082176
I1026 14:14:30.980423 10952 layer_factory.hpp:77] Creating layer conv4
I1026 14:14:30.980440 10952 net.cpp:84] Creating Layer conv4
I1026 14:14:30.980455 10952 net.cpp:406] conv4 <- conv3
I1026 14:14:30.980465 10952 net.cpp:380] conv4 -> conv4
I1026 14:14:30.992259 10952 net.cpp:122] Setting up conv4
I1026 14:14:30.992293 10952 net.cpp:129] Top shape: 256 384 13 13 (16613376)
I1026 14:14:30.992298 10952 net.cpp:137] Memory required for data: 1566535680
I1026 14:14:30.992311 10952 layer_factory.hpp:77] Creating layer relu4
I1026 14:14:30.992324 10952 net.cpp:84] Creating Layer relu4
I1026 14:14:30.992332 10952 net.cpp:406] relu4 <- conv4
I1026 14:14:30.992344 10952 net.cpp:367] relu4 -> conv4 (in-place)
I1026 14:14:30.992799 10952 net.cpp:122] Setting up relu4
I1026 14:14:30.992808 10952 net.cpp:129] Top shape: 256 384 13 13 (16613376)
I1026 14:14:30.992812 10952 net.cpp:137] Memory required for data: 1632989184
I1026 14:14:30.992816 10952 layer_factory.hpp:77] Creating layer conv5
I1026 14:14:30.992832 10952 net.cpp:84] Creating Layer conv5
I1026 14:14:30.992839 10952 net.cpp:406] conv5 <- conv4
I1026 14:14:30.992849 10952 net.cpp:380] conv5 -> conv5
I1026 14:14:31.001905 10952 net.cpp:122] Setting up conv5
I1026 14:14:31.001946 10952 net.cpp:129] Top shape: 256 256 13 13 (11075584)
I1026 14:14:31.001950 10952 net.cpp:137] Memory required for data: 1677291520
I1026 14:14:31.002010 10952 layer_factory.hpp:77] Creating layer relu5
I1026 14:14:31.002023 10952 net.cpp:84] Creating Layer relu5
I1026 14:14:31.002030 10952 net.cpp:406] relu5 <- conv5
I1026 14:14:31.002043 10952 net.cpp:367] relu5 -> conv5 (in-place)
I1026 14:14:31.002249 10952 net.cpp:122] Setting up relu5
I1026 14:14:31.002257 10952 net.cpp:129] Top shape: 256 256 13 13 (11075584)
I1026 14:14:31.002261 10952 net.cpp:137] Memory required for data: 1721593856
I1026 14:14:31.002265 10952 layer_factory.hpp:77] Creating layer pool5
I1026 14:14:31.002277 10952 net.cpp:84] Creating Layer pool5
I1026 14:14:31.002282 10952 net.cpp:406] pool5 <- conv5
I1026 14:14:31.002290 10952 net.cpp:380] pool5 -> pool5
I1026 14:14:31.002337 10952 net.cpp:122] Setting up pool5
I1026 14:14:31.002344 10952 net.cpp:129] Top shape: 256 256 6 6 (2359296)
I1026 14:14:31.002348 10952 net.cpp:137] Memory required for data: 1731031040
I1026 14:14:31.002352 10952 layer_factory.hpp:77] Creating layer fc6
I1026 14:14:31.002368 10952 net.cpp:84] Creating Layer fc6
I1026 14:14:31.002374 10952 net.cpp:406] fc6 <- pool5
I1026 14:14:31.002384 10952 net.cpp:380] fc6 -> fc6
I1026 14:14:31.506345 10952 net.cpp:122] Setting up fc6
I1026 14:14:31.506397 10952 net.cpp:129] Top shape: 256 4096 (1048576)
I1026 14:14:31.506404 10952 net.cpp:137] Memory required for data: 1735225344
I1026 14:14:31.506418 10952 layer_factory.hpp:77] Creating layer relu6
I1026 14:14:31.506433 10952 net.cpp:84] Creating Layer relu6
I1026 14:14:31.506440 10952 net.cpp:406] relu6 <- fc6
I1026 14:14:31.506451 10952 net.cpp:367] relu6 -> fc6 (in-place)
I1026 14:14:31.506739 10952 net.cpp:122] Setting up relu6
I1026 14:14:31.506748 10952 net.cpp:129] Top shape: 256 4096 (1048576)
I1026 14:14:31.506753 10952 net.cpp:137] Memory required for data: 1739419648
I1026 14:14:31.506757 10952 layer_factory.hpp:77] Creating layer drop6
I1026 14:14:31.506767 10952 net.cpp:84] Creating Layer drop6
I1026 14:14:31.506770 10952 net.cpp:406] drop6 <- fc6
I1026 14:14:31.506777 10952 net.cpp:367] drop6 -> fc6 (in-place)
I1026 14:14:31.506798 10952 net.cpp:122] Setting up drop6
I1026 14:14:31.506805 10952 net.cpp:129] Top shape: 256 4096 (1048576)
I1026 14:14:31.506809 10952 net.cpp:137] Memory required for data: 1743613952
I1026 14:14:31.506813 10952 layer_factory.hpp:77] Creating layer fc7
I1026 14:14:31.506821 10952 net.cpp:84] Creating Layer fc7
I1026 14:14:31.506825 10952 net.cpp:406] fc7 <- fc6
I1026 14:14:31.506835 10952 net.cpp:380] fc7 -> fc7
I1026 14:14:31.732182 10952 net.cpp:122] Setting up fc7
I1026 14:14:31.732233 10952 net.cpp:129] Top shape: 256 4096 (1048576)
I1026 14:14:31.732237 10952 net.cpp:137] Memory required for data: 1747808256
I1026 14:14:31.732252 10952 layer_factory.hpp:77] Creating layer relu7
I1026 14:14:31.732266 10952 net.cpp:84] Creating Layer relu7
I1026 14:14:31.732272 10952 net.cpp:406] relu7 <- fc7
I1026 14:14:31.732287 10952 net.cpp:367] relu7 -> fc7 (in-place)
I1026 14:14:31.732574 10952 net.cpp:122] Setting up relu7
I1026 14:14:31.732583 10952 net.cpp:129] Top shape: 256 4096 (1048576)
I1026 14:14:31.732589 10952 net.cpp:137] Memory required for data: 1752002560
I1026 14:14:31.732591 10952 layer_factory.hpp:77] Creating layer drop7
I1026 14:14:31.732600 10952 net.cpp:84] Creating Layer drop7
I1026 14:14:31.732605 10952 net.cpp:406] drop7 <- fc7
I1026 14:14:31.732614 10952 net.cpp:367] drop7 -> fc7 (in-place)
I1026 14:14:31.732633 10952 net.cpp:122] Setting up drop7
I1026 14:14:31.732641 10952 net.cpp:129] Top shape: 256 4096 (1048576)
I1026 14:14:31.732645 10952 net.cpp:137] Memory required for data: 1756196864
I1026 14:14:31.732648 10952 layer_factory.hpp:77] Creating layer my-fc8
I1026 14:14:31.732661 10952 net.cpp:84] Creating Layer my-fc8
I1026 14:14:31.732666 10952 net.cpp:406] my-fc8 <- fc7
I1026 14:14:31.732672 10952 net.cpp:380] my-fc8 -> my-fc8
I1026 14:14:31.732831 10952 net.cpp:122] Setting up my-fc8
I1026 14:14:31.732838 10952 net.cpp:129] Top shape: 256 1 (256)
I1026 14:14:31.732841 10952 net.cpp:137] Memory required for data: 1756197888
I1026 14:14:31.732885 10952 layer_factory.hpp:77] Creating layer loss
I1026 14:14:31.732892 10952 net.cpp:84] Creating Layer loss
I1026 14:14:31.732897 10952 net.cpp:406] loss <- my-fc8
I1026 14:14:31.732900 10952 net.cpp:406] loss <- label
I1026 14:14:31.732913 10952 net.cpp:380] loss -> loss
I1026 14:14:31.732952 10952 net.cpp:122] Setting up loss
…
I1026 14:14:31.733122 10952 net.cpp:255] Network initialization done.
I1026 14:14:31.733444 10952 solver.cpp:172] Creating test net (#0) specified by net file: ./train_val.prototxt
I1026 14:14:31.733479 10952 net.cpp:294] The NetState phase (1) differed from the phase (0) specified by a rule in layer data
I1026 14:14:31.733665 10952 net.cpp:51] Initializing net from parameters: 
name: "CaffeNet"
state {
  phase: TEST
}
layer {
  name: "data"
  type: "HDF5Data"
  top: "data"
  top: "label"
  include {
    phase: TEST
  }
  hdf5_data_param {
    source: "./test.txt"
    batch_size: 128
  }
}
layer {
  name: "conv1"
  type: "Convolution"
  bottom: "data"
  top: "conv1"
  param {
    lr_mult: 1
    decay_mult: 1
  }
  param {
    lr_mult: 2
    decay_mult: 0
  }
  convolution_param {
    num_output: 96
    kernel_size: 11
    stride: 4
    weight_filler {
      type: "gaussian"
      std: 0.01
    }
    bias_filler {
      type: "constant"
      value: 0
    }
  }
}
layer {
  name: "relu1"
  type: "ReLU"
  bottom: "conv1"
  top: "conv1"
}
layer {
  name: "pool1"
  type: "Pooling"
  bottom: "conv1"
  top: "pool1"
  pooling_param {
    pool: MAX
    kernel_size: 3
    stride: 2
  }
}
layer {
  name: "norm1"
  type: "LRN"
  bottom: "pool1"
  top: "norm1"
  lrn_param {
    local_size: 5
    alpha: 0.0001
    beta: 0.75
  }
}
layer {
  name: "conv2"
  type: "Convolution"
  bottom: "norm1"
  top: "conv2"
  param {
    lr_mult: 1
    decay_mult: 1
  }
  param {
    lr_mult: 2
    decay_mult: 0
  }
  convolution_param {
    num_output: 256
    pad: 2
    kernel_size: 5
    group: 2
    weight_filler {
      type: "gaussian"
      std: 0.01
    }
    bias_filler {
      type: "constant"
      value: 1
    }
  }
}
layer {
  name: "relu2"
  type: "ReLU"
  bottom: "conv2"
  top: "conv2"
}
layer {
  name: "pool2"
  type: "Pooling"
  bottom: "conv2"
  top: "pool2"
  pooling_param {
    pool: MAX
    kernel_size: 3
    stride: 2
  }
}
layer {
  name: "norm2"
  type: "LRN"
  bottom: "pool2"
  top: "norm2"
  lrn_param {
    local_size: 5
    alpha: 0.0001
    beta: 0.75
  }
}
layer {
  name: "conv3"
  type: "Convolution"
  bottom: "norm2"
  top: "conv3"
  param {
    lr_mult: 1
    decay_mult: 1
  }
  param {
    lr_mult: 2
    decay_mult: 0
  }
  convolution_param {
    num_output: 384
    pad: 1
    kernel_size: 3
    weight_filler {
      type: "gaussian"
      std: 0.01
    }
    bias_filler {
      type: "constant"
      value: 0
    }
  }
}
layer {
  name: "relu3"
  type: "ReLU"
  bottom: "conv3"
  top: "conv3"
}
layer {
  name: "conv4"
  type: "Convolution"
  bottom: "conv3"
  top: "conv4"
  param {
    lr_mult: 1
    decay_mult: 1
  }
  param {
    lr_mult: 2
    decay_mult: 0
  }
  convolution_param {
    num_output: 384
    pad: 1
    kernel_size: 3
    group: 2
    weight_filler {
      type: "gaussian"
      std: 0.01
    }
    bias_filler {
      type: "constant"
      value: 1
    }
  }
}
layer {
  name: "relu4"
  type: "ReLU"
  bottom: "conv4"
  top: "conv4"
}
layer {
  name: "conv5"
  type: "Convolution"
  bottom: "conv4"
  top: "conv5"
  param {
    lr_mult: 1
    decay_mult: 1
  }
  param {
    lr_mult: 2
    decay_mult: 0
  }
  convolution_param {
    num_output: 256
    pad: 1
    kernel_size: 3
    group: 2
    weight_filler {
      type: "gaussian"
      std: 0.01
    }
    bias_filler {
      type: "constant"
      value: 1
    }
  }
}
layer {
  name: "relu5"
  type: "ReLU"
  bottom: "conv5"
  top: "conv5"
}
layer {
  name: "pool5"
  type: "Pooling"
  bottom: "conv5"
  top: "pool5"
  pooling_param {
    pool: MAX
    kernel_size: 3
    stride: 2
  }
}
layer {
  name: "fc6"
  type: "InnerProduct"
  bottom: "pool5"
  top: "fc6"
  param {
    lr_mult: 1
    decay_mult: 1
  }
  param {
    lr_mult: 2
    decay_mult: 0
  }
  inner_product_param {
    num_output: 4096
    weight_filler {
      type: "gaussian"
      std: 0.005
    }
    bias_filler {
      type: "constant"
      value: 1
    }
  }
}
layer {
  name: "relu6"
  type: "ReLU"
  bottom: "fc6"
  top: "fc6"
}
layer {
  name: "drop6"
  type: "Dropout"
  bottom: "fc6"
  top: "fc6"
  dropout_param {
    dropout_ratio: 0.5
  }
}
layer {
  name: "fc7"
  type: "InnerProduct"
  bottom: "fc6"
  top: "fc7"
  param {
    lr_mult: 1
    decay_mult: 1
  }
  param {
    lr_mult: 2
    decay_mult: 0
  }
  inner_product_param {
    num_output: 4096
    weight_filler {
      type: "gaussian"
      std: 0.005
    }
    bias_filler {
      type: "constant"
      value: 1
    }
  }
}
layer {
  name: "relu7"
  type: "ReLU"
  bottom: "fc7"
  top: "fc7"
}
layer {
  name: "drop7"
  type: "Dropout"
  bottom: "fc7"
  top: "fc7"
  dropout_param {
    dropout_ratio: 0.5
  }
}
layer {
  name: "my-fc8"
  type: "InnerProduct"
  bottom: "fc7"
  top: "my-fc8"
  param {
    lr_mult: 1
    decay_mult: 1
  }
  param {
    lr_mult: 2
    decay_mult: 0
  }
  inner_product_param {
    num_output: 1
    weight_filler {
      type: "gaussian"
      std: 0.01
    }
    bias_filler {
      type: "constant"
      value: 0
    }
  }
}
layer {
  name: "loss"
  type: "EuclideanLoss"
  bottom: "my-fc8"
  bottom: "label"
  top: "loss"
}
I1026 14:14:31.733741 10952 layer_factory.hpp:77] Creating layer data
I1026 14:14:31.733749 10952 net.cpp:84] Creating Layer data
I1026 14:14:31.733754 10952 net.cpp:380] data -> data
I1026 14:14:31.733762 10952 net.cpp:380] data -> label
I1026 14:14:31.733768 10952 hdf5_data_layer.cpp:80] Loading list of HDF5 filenames from: ./test.txt
I1026 14:14:31.733791 10952 hdf5_data_layer.cpp:94] Number of HDF5 files: 1
I1026 14:14:32.225083 10952 net.cpp:122] Setting up data
I1026 14:14:32.225131 10952 net.cpp:129] Top shape: 128 3 227 227 (19787136)
I1026 14:14:32.225142 10952 net.cpp:129] Top shape: 128 (128)
I1026 14:14:32.225184 10952 net.cpp:137] Memory required for data: 79149056
I1026 14:14:32.225195 10952 layer_factory.hpp:77] Creating layer conv1
I1026 14:14:32.225226 10952 net.cpp:84] Creating Layer conv1
I1026 14:14:32.225234 10952 net.cpp:406] conv1 <- data
I1026 14:14:32.225246 10952 net.cpp:380] conv1 -> conv1
I1026 14:14:32.227545 10952 net.cpp:122] Setting up conv1
I1026 14:14:32.227562 10952 net.cpp:129] Top shape: 128 96 55 55 (37171200)
I1026 14:14:32.227568 10952 net.cpp:137] Memory required for data: 227833856
I1026 14:14:32.227589 10952 layer_factory.hpp:77] Creating layer relu1
I1026 14:14:32.227603 10952 net.cpp:84] Creating Layer relu1
I1026 14:14:32.227610 10952 net.cpp:406] relu1 <- conv1
I1026 14:14:32.227619 10952 net.cpp:367] relu1 -> conv1 (in-place)
I1026 14:14:32.227903 10952 net.cpp:122] Setting up relu1
I1026 14:14:32.227915 10952 net.cpp:129] Top shape: 128 96 55 55 (37171200)
I1026 14:14:32.227921 10952 net.cpp:137] Memory required for data: 376518656
I1026 14:14:32.227926 10952 layer_factory.hpp:77] Creating layer pool1
I1026 14:14:32.227938 10952 net.cpp:84] Creating Layer pool1
I1026 14:14:32.227944 10952 net.cpp:406] pool1 <- conv1
I1026 14:14:32.227952 10952 net.cpp:380] pool1 -> pool1
I1026 14:14:32.228008 10952 net.cpp:122] Setting up pool1
I1026 14:14:32.228018 10952 net.cpp:129] Top shape: 128 96 27 27 (8957952)
I1026 14:14:32.228024 10952 net.cpp:137] Memory required for data: 412350464
I1026 14:14:32.228029 10952 layer_factory.hpp:77] Creating layer norm1
I1026 14:14:32.228042 10952 net.cpp:84] Creating Layer norm1
I1026 14:14:32.228049 10952 net.cpp:406] norm1 <- pool1
I1026 14:14:32.228055 10952 net.cpp:380] norm1 -> norm1
I1026 14:14:32.228729 10952 net.cpp:122] Setting up norm1
I1026 14:14:32.228744 10952 net.cpp:129] Top shape: 128 96 27 27 (8957952)
I1026 14:14:32.228750 10952 net.cpp:137] Memory required for data: 448182272
I1026 14:14:32.228755 10952 layer_factory.hpp:77] Creating layer conv2
I1026 14:14:32.228775 10952 net.cpp:84] Creating Layer conv2
I1026 14:14:32.228780 10952 net.cpp:406] conv2 <- norm1
I1026 14:14:32.228792 10952 net.cpp:380] conv2 -> conv2
I1026 14:14:32.237712 10952 net.cpp:122] Setting up conv2
I1026 14:14:32.237751 10952 net.cpp:129] Top shape: 128 256 27 27 (23887872)
I1026 14:14:32.237757 10952 net.cpp:137] Memory required for data: 543733760
I1026 14:14:32.237782 10952 layer_factory.hpp:77] Creating layer relu2
I1026 14:14:32.237797 10952 net.cpp:84] Creating Layer relu2
I1026 14:14:32.237805 10952 net.cpp:406] relu2 <- conv2
I1026 14:14:32.237818 10952 net.cpp:367] relu2 -> conv2 (in-place)
I1026 14:14:32.238070 10952 net.cpp:122] Setting up relu2
I1026 14:14:32.238081 10952 net.cpp:129] Top shape: 128 256 27 27 (23887872)
I1026 14:14:32.238087 10952 net.cpp:137] Memory required for data: 639285248
I1026 14:14:32.238092 10952 layer_factory.hpp:77] Creating layer pool2
I1026 14:14:32.238103 10952 net.cpp:84] Creating Layer pool2
I1026 14:14:32.238108 10952 net.cpp:406] pool2 <- conv2
I1026 14:14:32.238117 10952 net.cpp:380] pool2 -> pool2
I1026 14:14:32.238176 10952 net.cpp:122] Setting up pool2
I1026 14:14:32.238185 10952 net.cpp:129] Top shape: 128 256 13 13 (5537792)
I1026 14:14:32.238190 10952 net.cpp:137] Memory required for data: 661436416
I1026 14:14:32.238195 10952 layer_factory.hpp:77] Creating layer norm2
I1026 14:14:32.238209 10952 net.cpp:84] Creating Layer norm2
I1026 14:14:32.238215 10952 net.cpp:406] norm2 <- pool2
I1026 14:14:32.238224 10952 net.cpp:380] norm2 -> norm2
I1026 14:14:32.238533 10952 net.cpp:122] Setting up norm2
I1026 14:14:32.238545 10952 net.cpp:129] Top shape: 128 256 13 13 (5537792)
I1026 14:14:32.238550 10952 net.cpp:137] Memory required for data: 683587584
I1026 14:14:32.238556 10952 layer_factory.hpp:77] Creating layer conv3
I1026 14:14:32.238574 10952 net.cpp:84] Creating Layer conv3
I1026 14:14:32.238580 10952 net.cpp:406] conv3 <- norm2
I1026 14:14:32.238590 10952 net.cpp:380] conv3 -> conv3
I1026 14:14:32.253239 10952 net.cpp:122] Setting up conv3
I1026 14:14:32.253278 10952 net.cpp:129] Top shape: 128 384 13 13 (8306688)
I1026 14:14:32.253324 10952 net.cpp:137] Memory required for data: 716814336
I1026 14:14:32.253348 10952 layer_factory.hpp:77] Creating layer relu3
I1026 14:14:32.253362 10952 net.cpp:84] Creating Layer relu3
I1026 14:14:32.253406 10952 net.cpp:406] relu3 <- conv3
I1026 14:14:32.253427 10952 net.cpp:367] relu3 -> conv3 (in-place)
I1026 14:14:32.253700 10952 net.cpp:122] Setting up relu3
I1026 14:14:32.253720 10952 net.cpp:129] Top shape: 128 384 13 13 (8306688)
I1026 14:14:32.253734 10952 net.cpp:137] Memory required for data: 750041088
I1026 14:14:32.253748 10952 layer_factory.hpp:77] Creating layer conv4
I1026 14:14:32.253772 10952 net.cpp:84] Creating Layer conv4
I1026 14:14:32.253787 10952 net.cpp:406] conv4 <- conv3
I1026 14:14:32.253805 10952 net.cpp:380] conv4 -> conv4
I1026 14:14:32.265990 10952 net.cpp:122] Setting up conv4
I1026 14:14:32.266029 10952 net.cpp:129] Top shape: 128 384 13 13 (8306688)
I1026 14:14:32.266034 10952 net.cpp:137] Memory required for data: 783267840
I1026 14:14:32.266047 10952 layer_factory.hpp:77] Creating layer relu4
I1026 14:14:32.266060 10952 net.cpp:84] Creating Layer relu4
I1026 14:14:32.266065 10952 net.cpp:406] relu4 <- conv4
I1026 14:14:32.266074 10952 net.cpp:367] relu4 -> conv4 (in-place)
I1026 14:14:32.266283 10952 net.cpp:122] Setting up relu4
I1026 14:14:32.266291 10952 net.cpp:129] Top shape: 128 384 13 13 (8306688)
I1026 14:14:32.266295 10952 net.cpp:137] Memory required for data: 816494592
I1026 14:14:32.266299 10952 layer_factory.hpp:77] Creating layer conv5
I1026 14:14:32.266314 10952 net.cpp:84] Creating Layer conv5
I1026 14:14:32.266326 10952 net.cpp:406] conv5 <- conv4
I1026 14:14:32.266333 10952 net.cpp:380] conv5 -> conv5
I1026 14:14:32.275771 10952 net.cpp:122] Setting up conv5
I1026 14:14:32.275813 10952 net.cpp:129] Top shape: 128 256 13 13 (5537792)
I1026 14:14:32.275820 10952 net.cpp:137] Memory required for data: 838645760
I1026 14:14:32.275843 10952 layer_factory.hpp:77] Creating layer relu5
I1026 14:14:32.275857 10952 net.cpp:84] Creating Layer relu5
I1026 14:14:32.275863 10952 net.cpp:406] relu5 <- conv5
I1026 14:14:32.275876 10952 net.cpp:367] relu5 -> conv5 (in-place)
I1026 14:14:32.276090 10952 net.cpp:122] Setting up relu5
I1026 14:14:32.276098 10952 net.cpp:129] Top shape: 128 256 13 13 (5537792)
I1026 14:14:32.276103 10952 net.cpp:137] Memory required for data: 860796928
I1026 14:14:32.276108 10952 layer_factory.hpp:77] Creating layer pool5
I1026 14:14:32.276115 10952 net.cpp:84] Creating Layer pool5
I1026 14:14:32.276119 10952 net.cpp:406] pool5 <- conv5
I1026 14:14:32.276129 10952 net.cpp:380] pool5 -> pool5
I1026 14:14:32.276178 10952 net.cpp:122] Setting up pool5
I1026 14:14:32.276187 10952 net.cpp:129] Top shape: 128 256 6 6 (1179648)
I1026 14:14:32.276195 10952 net.cpp:137] Memory required for data: 865515520
I1026 14:14:32.276198 10952 layer_factory.hpp:77] Creating layer fc6
I1026 14:14:32.276213 10952 net.cpp:84] Creating Layer fc6
I1026 14:14:32.276219 10952 net.cpp:406] fc6 <- pool5
I1026 14:14:32.276226 10952 net.cpp:380] fc6 -> fc6
I1026 14:14:32.774121 10952 net.cpp:122] Setting up fc6
I1026 14:14:32.774173 10952 net.cpp:129] Top shape: 128 4096 (524288)
I1026 14:14:32.774178 10952 net.cpp:137] Memory required for data: 867612672
I1026 14:14:32.774195 10952 layer_factory.hpp:77] Creating layer relu6
I1026 14:14:32.774209 10952 net.cpp:84] Creating Layer relu6
I1026 14:14:32.774216 10952 net.cpp:406] relu6 <- fc6
I1026 14:14:32.774230 10952 net.cpp:367] relu6 -> fc6 (in-place)
I1026 14:14:32.774996 10952 net.cpp:122] Setting up relu6
I1026 14:14:32.775009 10952 net.cpp:129] Top shape: 128 4096 (524288)
I1026 14:14:32.775014 10952 net.cpp:137] Memory required for data: 869709824
I1026 14:14:32.775018 10952 layer_factory.hpp:77] Creating layer drop6
I1026 14:14:32.775027 10952 net.cpp:84] Creating Layer drop6
I1026 14:14:32.775032 10952 net.cpp:406] drop6 <- fc6
I1026 14:14:32.775038 10952 net.cpp:367] drop6 -> fc6 (in-place)
I1026 14:14:32.775066 10952 net.cpp:122] Setting up drop6
I1026 14:14:32.775074 10952 net.cpp:129] Top shape: 128 4096 (524288)
I1026 14:14:32.775102 10952 net.cpp:137] Memory required for data: 871806976
I1026 14:14:32.775106 10952 layer_factory.hpp:77] Creating layer fc7
I1026 14:14:32.775118 10952 net.cpp:84] Creating Layer fc7
I1026 14:14:32.775122 10952 net.cpp:406] fc7 <- fc6
I1026 14:14:32.775130 10952 net.cpp:380] fc7 -> fc7
I1026 14:14:32.997521 10952 net.cpp:122] Setting up fc7
I1026 14:14:32.997571 10952 net.cpp:129] Top shape: 128 4096 (524288)
I1026 14:14:32.997576 10952 net.cpp:137] Memory required for data: 873904128
I1026 14:14:32.997596 10952 layer_factory.hpp:77] Creating layer relu7
I1026 14:14:32.997611 10952 net.cpp:84] Creating Layer relu7
I1026 14:14:32.997618 10952 net.cpp:406] relu7 <- fc7
I1026 14:14:32.997632 10952 net.cpp:367] relu7 -> fc7 (in-place)
I1026 14:14:32.997925 10952 net.cpp:122] Setting up relu7
I1026 14:14:32.997936 10952 net.cpp:129] Top shape: 128 4096 (524288)
I1026 14:14:32.997941 10952 net.cpp:137] Memory required for data: 876001280
I1026 14:14:32.997944 10952 layer_factory.hpp:77] Creating layer drop7
I1026 14:14:32.997953 10952 net.cpp:84] Creating Layer drop7
I1026 14:14:32.997957 10952 net.cpp:406] drop7 <- fc7
I1026 14:14:32.997963 10952 net.cpp:367] drop7 -> fc7 (in-place)
I1026 14:14:32.997985 10952 net.cpp:122] Setting up drop7
I1026 14:14:32.997993 10952 net.cpp:129] Top shape: 128 4096 (524288)
I1026 14:14:32.997997 10952 net.cpp:137] Memory required for data: 878098432
I1026 14:14:32.998001 10952 layer_factory.hpp:77] Creating layer my-fc8
I1026 14:14:32.998010 10952 net.cpp:84] Creating Layer my-fc8
I1026 14:14:32.998015 10952 net.cpp:406] my-fc8 <- fc7
I1026 14:14:32.998023 10952 net.cpp:380] my-fc8 -> my-fc8
I1026 14:14:32.998188 10952 net.cpp:122] Setting up my-fc8
I1026 14:14:32.998195 10952 net.cpp:129] Top shape: 128 1 (128)
I1026 14:14:32.998199 10952 net.cpp:137] Memory required for data: 878098944
I1026 14:14:32.998206 10952 layer_factory.hpp:77] Creating layer loss
I1026 14:14:32.998212 10952 net.cpp:84] Creating Layer loss
I1026 14:14:32.998217 10952 net.cpp:406] loss <- my-fc8
I1026 14:14:32.998222 10952 net.cpp:406] loss <- label
I1026 14:14:32.998230 10952 net.cpp:380] loss -> loss
I1026 14:14:32.998268 10952 net.cpp:122] Setting up loss
…
