…
average_loss: 40
I0807 20:12:49.544627 11967 solver.cpp:87] Creating training net from net file: ./train_val.prototxt
I0807 20:12:49.552083 11967 net.cpp:294] The NetState phase (0) differed from the phase (1) specified by a rule in layer data
I0807 20:12:49.554533 11967 net.cpp:51] Initializing net from parameters: 
name: "GoogleNet"
state {
  phase: TRAIN
  level: 0
  stage: ""
}
layer {
  name: "data"
  type: "HDF5Data"
  top: "data"
  top: "label"
  include {
    phase: TRAIN
  }
  hdf5_data_param {
    source: "./train_h5.txt"
    batch_size: 20
  }
}
layer {
  name: "conv1/7x7_s2"
  type: "Convolution"
  bottom: "data"
  top: "conv1/7x7_s2"
  param {
    lr_mult: 1
    decay_mult: 1
  }
  param {
    lr_mult: 2
    decay_mult: 0
  }
  convolution_param {
    num_output: 64
    pad: 3
    kernel_size: 7
    stride: 2
    weight_filler {
      type: "xavier"
    }
    bias_filler {
      type: "constant"
      value: 0.2
    }
  }
}
layer {
  name: "conv1/relu_7x7"
  type: "ReLU"
  bottom: "conv1/7x7_s2"
  top: "conv1/7x7_s2"
}
layer {
  name: "pool1/3x3_s2"
  type: "Pooling"
  bottom: "conv1/7x7_s2"
  top: "pool1/3x3_s2"
  pooling_param {
    pool: MAX
    kernel_size: 3
    stride: 2
  }
}
layer {
  name: "pool1/norm1"
  type: "LRN"
  bottom: "pool1/3x3_s2"
  top: "pool1/norm1"
  lrn_param {
    local_size: 5
    alpha: 0.0001
    beta: 0.75
  }
}
layer {
  name: "conv2/3x3_reduce"
  type: "Convolution"
  bottom: "pool1/norm1"
  top: "conv2/3x3_reduce"
  param {
    lr_mult: 1
    decay_mult: 1
  }
  param {
    lr_mult: 2
    decay_mult: 0
  }
  convolution_param {
    num_output: 64
    kernel_size: 1
    weight_filler {
      type: "xavier"
    }
    bias_filler {
      type: "constant"
      value: 0.2
    }
  }
}
layer {
  name: "conv2/relu_3x3_reduce"
  type: "ReLU"
  bottom: "conv2/3x3_reduce"
  top: "conv2/3x3_reduce"
}
layer {
  name: "conv2/3x3"
  type: "Convolution"
  bottom: "conv2/3x3_reduce"
  top: "conv2/3x3"
  param {
    lr_mult: 1
    decay_mult: 1
  }
  param {
    lr_mult: 2
    decay_mult: 0
  }
  convolution_param {
    num_output: 192
    pad: 1
    kernel_size: 3
    weight_filler {
      type: "xavier"
    }
    bias_filler {
      type: "constant"
      value: 0.2
    }
  }
}
layer {
  name: "conv2/relu_3x3"
  type: "ReLU"
  bottom: "conv2/3x3"
  top: "conv2/3x3"
}
layer {
  name: "conv2/norm2"
  type: "LRN"
  bottom: "conv2/3x3"
  top: "conv2/norm2"
  lrn_param {
    local_size: 5
    alpha: 0.0001
    beta: 0.75
  }
}
layer {
  name: "pool2/3x3_s2"
  type: "Pooling"
  bottom: "conv2/norm2"
  top: "pool2/3x3_s2"
  pooling_param {
    pool: MAX
    kernel_size: 3
    stride: 2
  }
}
layer {
  name: "inception_3a/1x1"
  type: "Convolution"
  bottom: "pool2/3x3_s2"
  top: "inception_3a/1x1"
  param {
    lr_mult: 1
    decay_mult: 1
  }
  param {
    lr_mult: 2
    decay_mult: 0
  }
  convolution_param {
    num_output: 64
    kernel_size: 1
    weight_filler {
      type: "xavier"
    }
    bias_filler {
      type: "constant"
      value: 0.2
    }
  }
}
layer {
  name: "inception_3a/relu_1x1"
  type: "ReLU"
  bottom: "inception_3a/1x1"
  top: "inception_3a/1x1"
}
layer {
  name: "inception_3a/3x3_reduce"
  type: "Convolution"
  bottom: "pool2/3x3_s2"
  top: "inception_3a/3x3_reduce"
  param {
    lr_mult: 1
    decay_mult: 1
  }
  param {
    lr_mult: 2
    decay_mult: 0
  }
  convolution_param {
    num_output: 96
    kernel_size: 1
    weight_filler {
      type: "xavier"
    }
    bias_filler {
      type: "constant"
      value: 0.2
    }
  }
}
layer {
  name: "inception_3a/relu_3x3_reduce"
  type: "ReLU"
  bottom: "inception_3a/3x3_reduce"
  top: "inception_3a/3x3_reduce"
}
layer {
  name: "inception_3a/3x3"
  type: "Convolution"
  bottom: "inception_3a/3x3_reduce"
  top: "inception_3a/3x3"
  param {
    lr_mult: 1
    decay_mult: 1
  }
  param {
    lr_mult: 2
    decay_mult: 0
  }
  convolution_param {
    num_output: 128
    pad: 1
    kernel_size: 3
    weight_filler {
      type: "xavier"
    }
    bias_filler {
      type: "constant"
      value: 0.2
    }
  }
}
layer {
  name: "inception_3a/relu_3x3"
  type: "ReLU"
  bottom: "inception_3a/3x3"
  top: "inception_3a/3x3"
}
layer {
  name: "inception_3a/5x5_reduce"
  type: "Convolution"
  bottom: "pool2/3x3_s2"
  top: "inception_3a/5x5_reduce"
  param {
    lr_mult: 1
    decay_mult: 1
  }
  param {
    lr_mult: 2
    decay_mult: 0
  }
  convolution_param {
    num_output: 16
    kernel_size: 1
    weight_filler {
      type: "xavier"
    }
    bias_filler {
      type: "constant"
      value: 0.2
    }
  }
}
layer {
  name: "inception_3a/relu_5x5_reduce"
  type: "ReLU"
  bottom: "inception_3a/5x5_reduce"
  top: "inception_3a/5x5_reduce"
}
layer {
  name: "inception_3a/5x5"
  type: "Convolution"
  bottom: "inception_3a/5x5_reduce"
  top: "inception_3a/5x5"
  param {
    lr_mult: 1
    decay_mult: 1
  }
  param {
    lr_mult: 2
    decay_mult: 0
  }
  convolution_param {
    num_output: 32
    pad: 2
    kernel_size: 5
    weight_filler {
      type: "xavier"
    }
    bias_filler {
      type: "constant"
      value: 0.2
    }
  }
}
layer {
  name: "inception_3a/relu_5x5"
  type: "ReLU"
  bottom: "inception_3a/5x5"
  top: "inception_3a/5x5"
}
layer {
  name: "inception_3a/pool"
  type: "Pooling"
  bottom: "pool2/3x3_s2"
  top: "inception_3a/pool"
  pooling_param {
    pool: MAX
    kernel_size: 3
    stride: 1
    pad: 1
  }
}
layer {
  name: "inception_3a/pool_proj"
  type: "Convolution"
  bottom: "inception_3a/pool"
  top: "inception_3a/pool_proj"
  param {
    lr_mult: 1
    decay_mult: 1
  }
  param {
    lr_mult: 2
    decay_mult: 0
  }
  convolution_param {
    num_output: 32
    kernel_size: 1
    weight_filler {
      type: "xavier"
    }
    bias_filler {
      type: "constant"
      value: 0.2
    }
  }
}
layer {
  name: "inception_3a/relu_pool_proj"
  type: "ReLU"
  bottom: "inception_3a/pool_proj"
  top: "inception_3a/pool_proj"
}
layer {
  name: "inception_3a/output"
  type: "Concat"
  bottom: "inception_3a/1x1"
  bottom: "inception_3a/3x3"
  bottom: "inception_3a/5x5"
  bottom: "inception_3a/pool_proj"
  top: "inception_3a/output"
}
layer {
  name: "inception_3b/1x1"
  type: "Convolution"
  bottom: "inception_3a/output"
  top: "inception_3b/1x1"
  param {
    lr_mult: 1
    decay_mult: 1
  }
  param {
    lr_mult: 2
    decay_mult: 0
  }
  convolution_param {
    num_output: 128
    kernel_size: 1
    weight_filler {
      type: "xavier"
    }
    bias_filler {
      type: "constant"
      value: 0.2
    }
  }
}
layer {
  name: "inception_3b/relu_1x1"
  type: "ReLU"
  bottom: "inception_3b/1x1"
  top: "inception_3b/1x1"
}
layer {
  name: "inception_3b/3x3_reduce"
  type: "Convolution"
  bottom: "inception_3a/output"
  top: "inception_3b/3x3_reduce"
  param {
    lr_mult: 1
    decay_mult: 1
  }
  param {
    lr_mult: 2
    decay_mult: 0
  }
  convolution_param {
    num_output: 128
    kernel_size: 1
    weight_filler {
      type: "xavier"
    }
    bias_filler {
      type: "constant"
      value: 0.2
    }
  }
}
layer {
  name: "inception_3b/relu_3x3_reduce"
  type: "ReLU"
  bottom: "inception_3b/3x3_reduce"
  top: "inception_3b/3x3_reduce"
}
layer {
  name: "inception_3b/3x3"
  type: "Convolution"
  bottom: "inception_3b/3x3_reduce"
  top: "inception_3b/3x3"
  param {
    lr_mult: 1
    decay_mult: 1
  }
  param {
    lr_mult: 2
    decay_mult: 0
  }
  convolution_param {
    num_output: 192
    pad: 1
    kernel_size: 3
    weight_filler {
      type: "xavier"
    }
    bias_filler {
      type: "constant"
      value: 0.2
    }
  }
}
layer {
  name: "inception_3b/relu_3x3"
  type: "ReLU"
  bottom: "inception_3b/3x3"
  top: "inception_3b/3x3"
}
layer {
  name: "inception_3b/5x5_reduce"
  type: "Convolution"
  bottom: "inception_3a/output"
  top: "inception_3b/5x5_reduce"
  param {
    lr_mult: 1
    decay_mult: 1
  }
  param {
    lr_mult: 2
    decay_mult: 0
  }
  convolution_param {
    num_output: 32
    kernel_size: 1
    weight_filler {
      type: "xavier"
    }
    bias_filler {
      type: "constant"
      value: 0.2
    }
  }
}
layer {
  name: "inception_3b/relu_5x5_reduce"
  type: "ReLU"
  bottom: "inception_3b/5x5_reduce"
  top: "inception_3b/5x5_reduce"
}
layer {
  name: "inception_3b/5x5"
  type: "Convolution"
  bottom: "inception_3b/5x5_reduce"
  top: "inception_3b/5x5"
  param {
    lr_mult: 1
    decay_mult: 1
  }
  param {
    lr_mult: 2
    decay_mult: 0
  }
  convolution_param {
    num_output: 96
    pad: 2
    kernel_size: 5
    weight_filler {
      type: "xavier"
    }
    bias_filler {
      type: "constant"
      value: 0.2
    }
  }
}
layer {
  name: "inception_3b/relu_5x5"
  type: "ReLU"
  bottom: "inception_3b/5x5"
  top: "inception_3b/5x5"
}
layer {
  name: "inception_3b/pool"
  type: "Pooling"
  bottom: "inception_3a/output"
  top: "inception_3b/pool"
  pooling_param {
    pool: MAX
    kernel_size: 3
    stride: 1
    pad: 1
  }
}
layer {
  name: "inception_3b/pool_proj"
  type: "Convolution"
  bottom: "inception_3b/pool"
  top: "inception_3b/pool_proj"
  param {
    lr_mult: 1
    decay_mult: 1
  }
  param {
    lr_mult: 2
    decay_mult: 0
  }
  convolution_param {
    num_output: 64
    kernel_size: 1
    weight_filler {
      type: "xavier"
    }
    bias_filler {
      type: "constant"
      value: 0.2
    }
  }
}
layer {
  name: "inception_3b/relu_pool_proj"
  type: "ReLU"
  bottom: "inception_3b/pool_proj"
  top: "inception_3b/pool_proj"
}
layer {
  name: "inception_3b/output"
  type: "Concat"
  bottom: "inception_3b/1x1"
  bottom: "inception_3b/3x3"
  bottom: "inception_3b/5x5"
  bottom: "inception_3b/pool_proj"
  top: "inception_3b/output"
}
layer {
  name: "pool3/3x3_s2"
  type: "Pooling"
  bottom: "inception_3b/output"
  top: "pool3/3x3_s2"
  pooling_param {
    pool: MAX
    kernel_size: 3
    stride: 2
  }
}
layer {
  name: "inception_4a/1x1"
  type: "Convolution"
  bottom: "pool3/3x3_s2"
  top: "inception_4a/1x1"
  param {
    lr_mult: 1
    decay_mult: 1
  }
  param {
    lr_mult: 2
    decay_mult: 0
  }
  convolution_param {
    num_output: 192
    kernel_size: 1
    weight_filler {
      type: "xavier"
    }
    bias_filler {
      type: "constant"
      value: 0.2
    }
  }
}
layer {
  name: "inception_4a/relu_1x1"
  type: "ReLU"
  bottom: "inception_4a/1x1"
  top: "inception_4a/1x1"
}
layer {
  name: "inception_4a/3x3_reduce"
  type: "Convolution"
  bottom: "pool3/3x3_s2"
  top: "inception_4a/3x3_reduce"
  param {
    lr_mult: 1
    decay_mult: 1
  }
  param {
    lr_mult: 2
    decay_mult: 0
  }
  convolution_param {
    num_output: 96
    kernel_size: 1
    weight_filler {
      type: "xavier"
    }
    bias_filler {
      type: "constant"
      value: 0.2
    }
  }
}
layer {
  name: "inception_4a/relu_3x3_reduce"
  type: "ReLU"
  bottom: "inception_4a/3x3_reduce"
  top: "inception_4a/3x3_reduce"
}
layer {
  name: "inception_4a/3x3"
  type: "Convolution"
  bottom: "inception_4a/3x3_reduce"
  top: "inception_4a/3x3"
  param {
    lr_mult: 1
    decay_mult: 1
  }
  param {
    lr_mult: 2
    decay_mult: 0
  }
  convolution_param {
    num_output: 208
    pad: 1
    kernel_size: 3
    weight_filler {
      type: "xavier"
    }
    bias_filler {
      type: "constant"
      value: 0.2
    }
  }
}
layer {
  name: "inception_4a/relu_3x3"
  type: "ReLU"
  bottom: "inception_4a/3x3"
  top: "inception_4a/3x3"
}
layer {
  name: "inception_4a/5x5_reduce"
  type: "Convolution"
  bottom: "pool3/3x3_s2"
  top: "inception_4a/5x5_reduce"
  param {
    lr_mult: 1
    decay_mult: 1
  }
  param {
    lr_mult: 2
    decay_mult: 0
  }
  convolution_param {
    num_output: 16
    kernel_size: 1
    weight_filler {
      type: "xavier"
    }
    bias_filler {
      type: "constant"
      value: 0.2
    }
  }
}
layer {
  name: "inception_4a/relu_5x5_reduce"
  type: "ReLU"
  bottom: "inception_4a/5x5_reduce"
  top: "inception_4a/5x5_reduce"
}
layer {
  name: "inception_4a/5x5"
  type: "Convolution"
  bottom: "inception_4a/5x5_reduce"
  top: "inception_4a/5x5"
  param {
    lr_mult: 1
    decay_mult: 1
  }
  param {
    lr_mult: 2
    decay_mult: 0
  }
  convolution_param {
    num_output: 48
    pad: 2
    kernel_size: 5
    weight_filler {
      type: "xavier"
    }
    bias_filler {
      type: "constant"
      value: 0.2
    }
  }
}
layer {
  name: "inception_4a/relu_5x5"
  type: "ReLU"
  bottom: "inception_4a/5x5"
  top: "inception_4a/5x5"
}
layer {
  name: "inception_4a/pool"
  type: "Pooling"
  bottom: "pool3/3x3_s2"
  top: "inception_4a/pool"
  pooling_param {
    pool: MAX
    kernel_size: 3
    stride: 1
    pad: 1
  }
}
layer {
  name: "inception_4a/pool_proj"
  type: "Convolution"
  bottom: "inception_4a/pool"
  top: "inception_4a/pool_proj"
  param {
    lr_mult: 1
    decay_mult: 1
  }
  param {
    lr_mult: 2
    decay_mult: 0
  }
  convolution_param {
    num_output: 64
    kernel_size: 1
    weight_filler {
      type: "xavier"
    }
    bias_filler {
      type: "constant"
      value: 0.2
    }
  }
}
layer {
  name: "inception_4a/relu_pool_proj"
  type: "ReLU"
  bottom: "inception_4a/pool_proj"
  top: "inception_4a/pool_proj"
}
layer {
  name: "inception_4a/output"
  type: "Concat"
  bottom: "inception_4a/1x1"
  bottom: "inception_4a/3x3"
  bottom: "inception_4a/5x5"
  bottom: "inception_4a/pool_proj"
  top: "inception_4a/output"
}
layer {
  name: "loss1/ave_pool"
  type: "Pooling"
  bottom: "inception_4a/output"
  top: "loss1/ave_pool"
  pooling_param {
    pool: AVE
    kernel_size: 5
    stride: 3
  }
}
layer {
  name: "loss1/conv"
  type: "Convolution"
  bottom: "loss1/ave_pool"
  top: "loss1/conv"
  param {
    lr_mult: 1
    decay_mult: 1
  }
  param {
    lr_mult: 2
    decay_mult: 0
  }
  convolution_param {
    num_output: 128
    kernel_size: 1
    weight_filler {
      type: "xavier"
    }
    bias_filler {
      type: "constant"
      value: 0.2
    }
  }
}
layer {
  name: "loss1/relu_conv"
  type: "ReLU"
  bottom: "loss1/conv"
  top: "loss1/conv"
}
layer {
  name: "loss1/fc"
  type: "InnerProduct"
  bottom: "loss1/conv"
  top: "loss1/fc"
  param {
    lr_mult: 1
    decay_mult: 1
  }
  param {
    lr_mult: 2
    decay_mult: 0
  }
  inner_product_param {
    num_output: 1024
    weight_filler {
      type: "xavier"
    }
    bias_filler {
      type: "constant"
      value: 0.2
    }
  }
}
layer {
  name: "loss1/relu_fc"
  type: "ReLU"
  bottom: "loss1/fc"
  top: "loss1/fc"
}
layer {
  name: "loss1/drop_fc"
  type: "Dropout"
  bottom: "loss1/fc"
  top: "loss1/fc"
  dropout_param {
    dropout_ratio: 0.7
  }
}
layer {
  name: "my-loss1/classifier"
  type: "InnerProduct"
  bottom: "loss1/fc"
  top: "my-loss1/classifier"
  param {
    lr_mult: 1
    decay_mult: 1
  }
  param {
    lr_mult: 2
    decay_mult: 0
  }
  inner_product_param {
    num_output: 1
    weight_filler {
      type: "xavier"
    }
    bias_filler {
      type: "constant"
      value: 0
    }
  }
}
layer {
  name: "loss1/loss"
  type: "EuclideanLoss"
  bottom: "my-loss1/classifier"
  bottom: "label"
  top: "loss1/loss"
  loss_weight: 0.3
}
layer {
  name: "inception_4b/1x1"
  type: "Convolution"
  bottom: "inception_4a/output"
  top: "inception_4b/1x1"
  param {
    lr_mult: 1
    decay_mult: 1
  }
  param {
    lr_mult: 2
    decay_mult: 0
  }
  convolution_param {
    num_output: 160
    kernel_size: 1
    weight_filler {
      type: "xavier"
    }
    bias_filler {
      type: "constant"
      value: 0.2
    }
  }
}
layer {
  name: "inception_4b/relu_1x1"
  type: "ReLU"
  bottom: "inception_4b/1x1"
  top: "inception_4b/1x1"
}
layer {
  name: "inception_4b/3x3_reduce"
  type: "Convolution"
  bottom: "inception_4a/output"
  top: "inception_4b/3x3_reduce"
  param {
    lr_mult: 1
    decay_mult: 1
  }
  param {
    lr_mult: 2
    decay_mult: 0
  }
  convolution_param {
    num_output: 112
    kernel_size: 1
    weight_filler {
      type: "xavier"
    }
    bias_filler {
      type: "constant"
      value: 0.2
    }
  }
}
layer {
  name: "inception_4b/relu_3x3_reduce"
  type: "ReLU"
  bottom: "inception_4b/3x3_reduce"
  top: "inception_4b/3x3_reduce"
}
layer {
  name: "inception_4b/3x3"
  type: "Convolution"
  bottom: "inception_4b/3x3_reduce"
  top: "inception_4b/3x3"
  param {
    lr_mult: 1
    decay_mult: 1
  }
  param {
    lr_mult: 2
    decay_mult: 0
  }
  convolution_param {
    num_output: 224
    pad: 1
    kernel_size: 3
    weight_filler {
      type: "xavier"
    }
    bias_filler {
      type: "constant"
      value: 0.2
    }
  }
}
layer {
  name: "inception_4b/relu_3x3"
  type: "ReLU"
  bottom: "inception_4b/3x3"
  top: "inception_4b/3x3"
}
layer {
  name: "inception_4b/5x5_reduce"
  type: "Convolution"
  bottom: "inception_4a/output"
  top: "inception_4b/5x5_reduce"
  param {
    lr_mult: 1
    decay_mult: 1
  }
  param {
    lr_mult: 2
    decay_mult: 0
  }
  convolution_param {
    num_output: 24
    kernel_size: 1
    weight_filler {
      type: "xavier"
    }
    bias_filler {
      type: "constant"
      value: 0.2
    }
  }
}
layer {
  name: "inception_4b/relu_5x5_reduce"
  type: "ReLU"
  bottom: "inception_4b/5x5_reduce"
  top: "inception_4b/5x5_reduce"
}
layer {
  name: "inception_4b/5x5"
  type: "Convolution"
  bottom: "inception_4b/5x5_reduce"
  top: "inception_4b/5x5"
  param {
    lr_mult: 1
    decay_mult: 1
  }
  param {
    lr_mult: 2
    decay_mult: 0
  }
  convolution_param {
    num_output: 64
    pad: 2
    kernel_size: 5
    weight_filler {
      type: "xavier"
    }
    bias_filler {
      type: "constant"
      value: 0.2
    }
  }
}
layer {
  name: "inception_4b/relu_5x5"
  type: "ReLU"
  bottom: "inception_4b/5x5"
  top: "inception_4b/5x5"
}
layer {
  name: "inception_4b/pool"
  type: "Pooling"
  bottom: "inception_4a/output"
  top: "inception_4b/pool"
  pooling_param {
    pool: MAX
    kernel_size: 3
    stride: 1
    pad: 1
  }
}
layer {
  name: "inception_4b/pool_proj"
  type: "Convolution"
  bottom: "inception_4b/pool"
  top: "inception_4b/pool_proj"
  param {
    lr_mult: 1
    decay_mult: 1
  }
  param {
    lr_mult: 2
    decay_mult: 0
  }
  convolution_param {
    num_output: 64
    kernel_size: 1
    weight_filler {
      type: "xavier"
    }
    bias_filler {
      type: "constant"
      value: 0.2
    }
  }
}
layer {
  name: "inception_4b/relu_pool_proj"
  type: "ReLU"
  bottom: "inception_4b/pool_proj"
  top: "inception_4b/pool_proj"
}
layer {
  name: "inception_4b/output"
  type: "Concat"
  bottom: "inception_4b/1x1"
  bottom: "inception_4b/3x3"
  bottom: "inception_4b/5x5"
  bottom: "inception_4b/pool_proj"
  top: "inception_4b/output"
}
layer {
  name: "inception_4c/1x1"
  type: "Convolution"
  bottom: "inception_4b/output"
  top: "inception_4c/1x1"
  param {
    lr_mult: 1
    decay_mult: 1
  }
  param {
    lr_mult: 2
    decay_mult: 0
  }
  convolution_param {
    num_output: 128
    kernel_size: 1
    weight_filler {
      type: "xavier"
    }
    bias_filler {
      type: "constant"
      value: 0.2
    }
  }
}
layer {
  name: "inception_4c/relu_1x1"
  type: "ReLU"
  bottom: "inception_4c/1x1"
  top: "inception_4c/1x1"
}
layer {
  name: "inception_4c/3x3_reduce"
  type: "Convolution"
  bottom: "inception_4b/output"
  top: "inception_4c/3x3_reduce"
  param {
    lr_mult: 1
    decay_mult: 1
  }
  param {
    lr_mult: 2
    decay_mult: 0
  }
  convolution_param {
    num_output: 128
    kernel_size: 1
    weight_filler {
      type: "xavier"
    }
    bias_filler {
      type: "constant"
      value: 0.2
    }
  }
}
layer {
  name: "inception_4c/relu_3x3_reduce"
  type: "ReLU"
  bottom: "inception_4c/3x3_reduce"
  top: "inception_4c/3x3_reduce"
}
layer {
  name: "inception_4c/3x3"
  type: "Convolution"
  bottom: "inception_4c/3x3_reduce"
  top: "inception_4c/3x3"
  param {
    lr_mult: 1
    decay_mult: 1
  }
  param {
    lr_mult: 2
    decay_mult: 0
  }
  convolution_param {
    num_output: 256
    pad: 1
    kernel_size: 3
    weight_filler {
      type: "xavier"
    }
    bias_filler {
      type: "constant"
      value: 0.2
    }
  }
}
layer {
  name: "inception_4c/relu_3x3"
  type: "ReLU"
  bottom: "inception_4c/3x3"
  top: "inception_4c/3x3"
}
layer {
  name: "inception_4c/5x5_reduce"
  type: "Convolution"
  bottom: "inception_4b/output"
  top: "inception_4c/5x5_reduce"
  param {
    lr_mult: 1
    decay_mult: 1
  }
  param {
    lr_mult: 2
    decay_mult: 0
  }
  convolution_param {
    num_output: 24
    kernel_size: 1
    weight_filler {
      type: "xavier"
    }
    bias_filler {
      type: "constant"
      value: 0.2
    }
  }
}
layer {
  name: "inception_4c/relu_5x5_reduce"
  type: "ReLU"
  bottom: "inception_4c/5x5_reduce"
  top: "inception_4c/5x5_reduce"
}
layer {
  name: "inception_4c/5x5"
  type: "Convolution"
  bottom: "inception_4c/5x5_reduce"
  top: "inception_4c/5x5"
  param {
    lr_mult: 1
    decay_mult: 1
  }
  param {
    lr_mult: 2
    decay_mult: 0
  }
  convolution_param {
    num_output: 64
    pad: 2
    kernel_size: 5
    weight_filler {
      type: "xavier"
    }
    bias_filler {
      type: "constant"
      value: 0.2
    }
  }
}
layer {
  name: "inception_4c/relu_5x5"
  type: "ReLU"
  bottom: "inception_4c/5x5"
  top: "inception_4c/5x5"
}
layer {
  name: "inception_4c/pool"
  type: "Pooling"
  bottom: "inception_4b/output"
  top: "inception_4c/pool"
  pooling_param {
    pool: MAX
    kernel_size: 3
    stride: 1
    pad: 1
  }
}
layer {
  name: "inception_4c/pool_proj"
  type: "Convolution"
  bottom: "inception_4c/pool"
  top: "inception_4c/pool_proj"
  param {
    lr_mult: 1
    decay_mult: 1
  }
  param {
    lr_mult: 2
    decay_mult: 0
  }
  convolution_param {
    num_output: 64
    kernel_size: 1
    weight_filler {
      type: "xavier"
    }
    bias_filler {
      type: "constant"
      value: 0.2
    }
  }
}
layer {
  name: "inception_4c/relu_pool_proj"
  type: "ReLU"
  bottom: "inception_4c/pool_proj"
  top: "inception_4c/pool_proj"
}
layer {
  name: "inception_4c/output"
  type: "Concat"
  bottom: "inception_4c/1x1"
  bottom: "inception_4c/3x3"
  bottom: "inception_4c/5x5"
  bottom: "inception_4c/pool_proj"
  top: "inception_4c/output"
}
layer {
  name: "inception_4d/1x1"
  type: "Convolution"
  bottom: "inception_4c/output"
  top: "inception_4d/1x1"
  param {
    lr_mult: 1
    decay_mult: 1
  }
  param {
    lr_mult: 2
    decay_mult: 0
  }
  convolution_param {
    num_output: 112
    kernel_size: 1
    weight_filler {
      type: "xavier"
    }
    bias_filler {
      type: "constant"
      value: 0.2
    }
  }
}
layer {
  name: "inception_4d/relu_1x1"
  type: "ReLU"
  bottom: "inception_4d/1x1"
  top: "inception_4d/1x1"
}
layer {
  name: "inception_4d/3x3_reduce"
  type: "Convolution"
  bottom: "inception_4c/output"
  top: "inception_4d/3x3_reduce"
  param {
    lr_mult: 1
    decay_mult: 1
  }
  param {
    lr_mult: 2
    decay_mult: 0
  }
  convolution_param {
    num_output: 144
    kernel_size: 1
    weight_filler {
      type: "xavier"
    }
    bias_filler {
      type: "constant"
      value: 0.2
    }
  }
}
layer {
  name: "inception_4d/relu_3x3_reduce"
  type: "ReLU"
  bottom: "inception_4d/3x3_reduce"
  top: "inception_4d/3x3_reduce"
}
layer {
  name: "inception_4d/3x3"
  type: "Convolution"
  bottom: "inception_4d/3x3_reduce"
  top: "inception_4d/3x3"
  param {
    lr_mult: 1
    decay_mult: 1
  }
  param {
    lr_mult: 2
    decay_mult: 0
  }
  convolution_param {
    num_output: 288
    pad: 1
    kernel_size: 3
    weight_filler {
      type: "xavier"
    }
    bias_filler {
      type: "constant"
      value: 0.2
    }
  }
}
layer {
  name: "inception_4d/relu_3x3"
  type: "ReLU"
  bottom: "inception_4d/3x3"
  top: "inception_4d/3x3"
}
layer {
  name: "inception_4d/5x5_reduce"
  type: "Convolution"
  bottom: "inception_4c/output"
  top: "inception_4d/5x5_reduce"
  param {
    lr_mult: 1
    decay_mult: 1
  }
  param {
    lr_mult: 2
    decay_mult: 0
  }
  convolution_param {
    num_output: 32
    kernel_size: 1
    weight_filler {
      type: "xavier"
    }
    bias_filler {
      type: "constant"
      value: 0.2
    }
  }
}
layer {
  name: "inception_4d/relu_5x5_reduce"
  type: "ReLU"
  bottom: "inception_4d/5x5_reduce"
  top: "inception_4d/5x5_reduce"
}
layer {
  name: "inception_4d/5x5"
  type: "Convolution"
  bottom: "inception_4d/5x5_reduce"
  top: "inception_4d/5x5"
  param {
    lr_mult: 1
    decay_mult: 1
  }
  param {
    lr_mult: 2
    decay_mult: 0
  }
  convolution_param {
    num_output: 64
    pad: 2
    kernel_size: 5
    weight_filler {
      type: "xavier"
    }
    bias_filler {
      type: "constant"
      value: 0.2
    }
  }
}
layer {
  name: "inception_4d/relu_5x5"
  type: "ReLU"
  bottom: "inception_4d/5x5"
  top: "inception_4d/5x5"
}
layer {
  name: "inception_4d/pool"
  type: "Pooling"
  bottom: "inception_4c/output"
  top: "inception_4d/pool"
  pooling_param {
    pool: MAX
    kernel_size: 3
    stride: 1
    pad: 1
  }
}
layer {
  name: "inception_4d/pool_proj"
  type: "Convolution"
  bottom: "inception_4d/pool"
  top: "inception_4d/pool_proj"
  param {
    lr_mult: 1
    decay_mult: 1
  }
  param {
    lr_mult: 2
    decay_mult: 0
  }
  convolution_param {
    num_output: 64
    kernel_size: 1
    weight_filler {
      type: "xavier"
    }
    bias_filler {
      type: "constant"
      value: 0.2
    }
  }
}
layer {
  name: "inception_4d/relu_pool_proj"
  type: "ReLU"
  bottom: "inception_4d/pool_proj"
  top: "inception_4d/pool_proj"
}
layer {
  name: "inception_4d/output"
  type: "Concat"
  bottom: "inception_4d/1x1"
  bottom: "inception_4d/3x3"
  bottom: "inception_4d/5x5"
  bottom: "inception_4d/pool_proj"
  top: "inception_4d/output"
}
layer {
  name: "loss2/ave_pool"
  type: "Pooling"
  bottom: "inception_4d/output"
  top: "loss2/ave_pool"
  pooling_param {
    pool: AVE
    kernel_size: 5
    stride: 3
  }
}
layer {
  name: "loss2/conv"
  type: "Convolution"
  bottom: "loss2/ave_pool"
  top: "loss2/conv"
  param {
    lr_mult: 1
    decay_mult: 1
  }
  param {
    lr_mult: 2
    decay_mult: 0
  }
  convolution_param {
    num_output: 128
    kernel_size: 1
    weight_filler {
      type: "xavier"
    }
    bias_filler {
      type: "constant"
      value: 0.2
    }
  }
}
layer {
  name: "loss2/relu_conv"
  type: "ReLU"
  bottom: "loss2/conv"
  top: "loss2/conv"
}
layer {
  name: "loss2/fc"
  type: "InnerProduct"
  bottom: "loss2/conv"
  top: "loss2/fc"
  param {
    lr_mult: 1
    decay_mult: 1
  }
  param {
    lr_mult: 2
    decay_mult: 0
  }
  inner_product_param {
    num_output: 1024
    weight_filler {
      type: "xavier"
    }
    bias_filler {
      type: "constant"
      value: 0.2
    }
  }
}
layer {
  name: "loss2/relu_fc"
  type: "ReLU"
  bottom: "loss2/fc"
  top: "loss2/fc"
}
layer {
  name: "loss2/drop_fc"
  type: "Dropout"
  bottom: "loss2/fc"
  top: "loss2/fc"
  dropout_param {
    dropout_ratio: 0.7
  }
}
layer {
  name: "my-loss2/classifier"
  type: "InnerProduct"
  bottom: "loss2/fc"
  top: "my-loss2/classifier"
  param {
    lr_mult: 1
    decay_mult: 1
  }
  param {
    lr_mult: 2
    decay_mult: 0
  }
  inner_product_param {
    num_output: 1
    weight_filler {
      type: "xavier"
    }
    bias_filler {
      type: "constant"
      value: 0
    }
  }
}
layer {
  name: "loss2/loss"
  type: "EuclideanLoss"
  bottom: "my-loss2/classifier"
  bottom: "label"
  top: "loss2/loss"
  loss_weight: 0.3
}
layer {
  name: "inception_4e/1x1"
  type: "Convolution"
  bottom: "inception_4d/output"
  top: "inception_4e/1x1"
  param {
    lr_mult: 1
    decay_mult: 1
  }
  param {
    lr_mult: 2
    decay_mult: 0
  }
  convolution_param {
    num_output: 256
    kernel_size: 1
    weight_filler {
      type: "xavier"
    }
    bias_filler {
      type: "constant"
      value: 0.2
    }
  }
}
layer {
  name: "inception_4e/relu_1x1"
  type: "ReLU"
  bottom: "inception_4e/1x1"
  top: "inception_4e/1x1"
}
layer {
  name: "inception_4e/3x3_reduce"
  type: "Convolution"
  bottom: "inception_4d/output"
  top: "inception_4e/3x3_reduce"
  param {
    lr_mult: 1
    decay_mult: 1
  }
  param {
    lr_mult: 2
    decay_mult: 0
  }
  convolution_param {
    num_output: 160
    kernel_size: 1
    weight_filler {
      type: "xavier"
    }
    bias_filler {
      type: "constant"
      value: 0.2
    }
  }
}
layer {
  name: "inception_4e/relu_3x3_reduce"
  type: "ReLU"
  bottom: "inception_4e/3x3_reduce"
  top: "inception_4e/3x3_reduce"
}
layer {
  name: "inception_4e/3x3"
  type: "Convolution"
  bottom: "inception_4e/3x3_reduce"
  top: "inception_4e/3x3"
  param {
    lr_mult: 1
    decay_mult: 1
  }
  param {
    lr_mult: 2
    decay_mult: 0
  }
  convolution_param {
    num_output: 320
    pad: 1
    kernel_size: 3
    weight_filler {
      type: "xavier"
    }
    bias_filler {
      type: "constant"
      value: 0.2
    }
  }
}
layer {
  name: "inception_4e/relu_3x3"
  type: "ReLU"
  bottom: "inception_4e/3x3"
  top: "inception_4e/3x3"
}
layer {
  name: "inception_4e/5x5_reduce"
  type: "Convolution"
  bottom: "inception_4d/output"
  top: "inception_4e/5x5_reduce"
  param {
    lr_mult: 1
    decay_mult: 1
  }
  param {
    lr_mult: 2
    decay_mult: 0
  }
  convolution_param {
    num_output: 32
    kernel_size: 1
    weight_filler {
      type: "xavier"
    }
    bias_filler {
      type: "constant"
      value: 0.2
    }
  }
}
layer {
  name: "inception_4e/relu_5x5_reduce"
  type: "ReLU"
  bottom: "inception_4e/5x5_reduce"
  top: "inception_4e/5x5_reduce"
}
layer {
  name: "inception_4e/5x5"
  type: "Convolution"
  bottom: "inception_4e/5x5_reduce"
  top: "inception_4e/5x5"
  param {
    lr_mult: 1
    decay_mult: 1
  }
  param {
    lr_mult: 2
    decay_mult: 0
  }
  convolution_param {
    num_output: 128
    pad: 2
    kernel_size: 5
    weight_filler {
      type: "xavier"
    }
    bias_filler {
      type: "constant"
      value: 0.2
    }
  }
}
layer {
  name: "inception_4e/relu_5x5"
  type: "ReLU"
  bottom: "inception_4e/5x5"
  top: "inception_4e/5x5"
}
layer {
  name: "inception_4e/pool"
  type: "Pooling"
  bottom: "inception_4d/output"
  top: "inception_4e/pool"
  pooling_param {
    pool: MAX
    kernel_size: 3
    stride: 1
    pad: 1
  }
}
layer {
  name: "inception_4e/pool_proj"
  type: "Convolution"
  bottom: "inception_4e/pool"
  top: "incep
I0807 20:12:49.556257 11967 layer_factory.hpp:77] Creating layer data
I0807 20:12:49.556332 11967 net.cpp:84] Creating Layer data
I0807 20:12:49.556362 11967 net.cpp:380] data -> data
I0807 20:12:49.556429 11967 net.cpp:380] data -> label
I0807 20:12:49.556468 11967 hdf5_data_layer.cpp:80] Loading list of HDF5 filenames from: ./train_h5.txt
I0807 20:12:49.556546 11967 hdf5_data_layer.cpp:94] Number of HDF5 files: 1
I0807 20:12:49.558423 11967 hdf5.cpp:32] Datatype class: H5T_FLOAT
I0807 20:12:50.245682 11967 net.cpp:122] Setting up data
I0807 20:12:50.245787 11967 net.cpp:129] Top shape: 20 3 224 224 (3010560)
I0807 20:12:50.245803 11967 net.cpp:129] Top shape: 20 (20)
I0807 20:12:50.245813 11967 net.cpp:137] Memory required for data: 12042320
I0807 20:12:50.245832 11967 layer_factory.hpp:77] Creating layer label_data_1_split
I0807 20:12:50.245884 11967 net.cpp:84] Creating Layer label_data_1_split
I0807 20:12:50.245899 11967 net.cpp:406] label_data_1_split <- label
I0807 20:12:50.245925 11967 net.cpp:380] label_data_1_split -> label_data_1_split_0
I0807 20:12:50.245946 11967 net.cpp:380] label_data_1_split -> label_data_1_split_1
I0807 20:12:50.245960 11967 net.cpp:380] label_data_1_split -> label_data_1_split_2
I0807 20:12:50.246024 11967 net.cpp:122] Setting up label_data_1_split
I0807 20:12:50.246040 11967 net.cpp:129] Top shape: 20 (20)
I0807 20:12:50.246052 11967 net.cpp:129] Top shape: 20 (20)
I0807 20:12:50.246078 11967 net.cpp:129] Top shape: 20 (20)
I0807 20:12:50.246086 11967 net.cpp:137] Memory required for data: 12042560
I0807 20:12:50.246098 11967 layer_factory.hpp:77] Creating layer conv1/7x7_s2
I0807 20:12:50.246148 11967 net.cpp:84] Creating Layer conv1/7x7_s2
I0807 20:12:50.246160 11967 net.cpp:406] conv1/7x7_s2 <- data
I0807 20:12:50.246173 11967 net.cpp:380] conv1/7x7_s2 -> conv1/7x7_s2
I0807 20:12:51.427206 11967 net.cpp:122] Setting up conv1/7x7_s2
I0807 20:12:51.427265 11967 net.cpp:129] Top shape: 20 64 112 112 (16056320)
I0807 20:12:51.427285 11967 net.cpp:137] Memory required for data: 76267840
I0807 20:12:51.427325 11967 layer_factory.hpp:77] Creating layer conv1/relu_7x7
I0807 20:12:51.427350 11967 net.cpp:84] Creating Layer conv1/relu_7x7
I0807 20:12:51.427361 11967 net.cpp:406] conv1/relu_7x7 <- conv1/7x7_s2
I0807 20:12:51.427372 11967 net.cpp:367] conv1/relu_7x7 -> conv1/7x7_s2 (in-place)
I0807 20:12:51.427800 11967 net.cpp:122] Setting up conv1/relu_7x7
I0807 20:12:51.427817 11967 net.cpp:129] Top shape: 20 64 112 112 (16056320)
I0807 20:12:51.427824 11967 net.cpp:137] Memory required for data: 140493120
I0807 20:12:51.427832 11967 layer_factory.hpp:77] Creating layer pool1/3x3_s2
I0807 20:12:51.427856 11967 net.cpp:84] Creating Layer pool1/3x3_s2
I0807 20:12:51.427865 11967 net.cpp:406] pool1/3x3_s2 <- conv1/7x7_s2
I0807 20:12:51.427877 11967 net.cpp:380] pool1/3x3_s2 -> pool1/3x3_s2
I0807 20:12:51.427947 11967 net.cpp:122] Setting up pool1/3x3_s2
I0807 20:12:51.427961 11967 net.cpp:129] Top shape: 20 64 56 56 (4014080)
I0807 20:12:51.427968 11967 net.cpp:137] Memory required for data: 156549440
I0807 20:12:51.427974 11967 layer_factory.hpp:77] Creating layer pool1/norm1
I0807 20:12:51.428001 11967 net.cpp:84] Creating Layer pool1/norm1
I0807 20:12:51.428010 11967 net.cpp:406] pool1/norm1 <- pool1/3x3_s2
I0807 20:12:51.428020 11967 net.cpp:380] pool1/norm1 -> pool1/norm1
I0807 20:12:51.428467 11967 net.cpp:122] Setting up pool1/norm1
I0807 20:12:51.428483 11967 net.cpp:129] Top shape: 20 64 56 56 (4014080)
I0807 20:12:51.428491 11967 net.cpp:137] Memory required for data: 172605760
I0807 20:12:51.428498 11967 layer_factory.hpp:77] Creating layer conv2/3x3_reduce
I0807 20:12:51.428521 11967 net.cpp:84] Creating Layer conv2/3x3_reduce
I0807 20:12:51.428529 11967 net.cpp:406] conv2/3x3_reduce <- pool1/norm1
I0807 20:12:51.428539 11967 net.cpp:380] conv2/3x3_reduce -> conv2/3x3_reduce
I0807 20:12:51.430380 11967 net.cpp:122] Setting up conv2/3x3_reduce
I0807 20:12:51.430402 11967 net.cpp:129] Top shape: 20 64 56 56 (4014080)
I0807 20:12:51.430408 11967 net.cpp:137] Memory required for data: 188662080
I0807 20:12:51.430421 11967 layer_factory.hpp:77] Creating layer conv2/relu_3x3_reduce
I0807 20:12:51.430434 11967 net.cpp:84] Creating Layer conv2/relu_3x3_reduce
I0807 20:12:51.430441 11967 net.cpp:406] conv2/relu_3x3_reduce <- conv2/3x3_reduce
I0807 20:12:51.430450 11967 net.cpp:367] conv2/relu_3x3_reduce -> conv2/3x3_reduce (in-place)
I0807 20:12:51.430626 11967 net.cpp:122] Setting up conv2/relu_3x3_reduce
I0807 20:12:51.430640 11967 net.cpp:129] Top shape: 20 64 56 56 (4014080)
I0807 20:12:51.430647 11967 net.cpp:137] Memory required for data: 204718400
I0807 20:12:51.430655 11967 layer_factory.hpp:77] Creating layer conv2/3x3
I0807 20:12:51.430668 11967 net.cpp:84] Creating Layer conv2/3x3
I0807 20:12:51.430676 11967 net.cpp:406] conv2/3x3 <- conv2/3x3_reduce
I0807 20:12:51.430687 11967 net.cpp:380] conv2/3x3 -> conv2/3x3
I0807 20:12:51.433470 11967 net.cpp:122] Setting up conv2/3x3
I0807 20:12:51.433490 11967 net.cpp:129] Top shape: 20 192 56 56 (12042240)
I0807 20:12:51.433497 11967 net.cpp:137] Memory required for data: 252887360
I0807 20:12:51.433511 11967 layer_factory.hpp:77] Creating layer conv2/relu_3x3
I0807 20:12:51.433522 11967 net.cpp:84] Creating Layer conv2/relu_3x3
I0807 20:12:51.433531 11967 net.cpp:406] conv2/relu_3x3 <- conv2/3x3
I0807 20:12:51.433542 11967 net.cpp:367] conv2/relu_3x3 -> conv2/3x3 (in-place)
I0807 20:12:51.433993 11967 net.cpp:122] Setting up conv2/relu_3x3
I0807 20:12:51.434010 11967 net.cpp:129] Top shape: 20 192 56 56 (12042240)
I0807 20:12:51.434016 11967 net.cpp:137] Memory required for data: 301056320
I0807 20:12:51.434023 11967 layer_factory.hpp:77] Creating layer conv2/norm2
I0807 20:12:51.434037 11967 net.cpp:84] Creating Layer conv2/norm2
I0807 20:12:51.434046 11967 net.cpp:406] conv2/norm2 <- conv2/3x3
I0807 20:12:51.434067 11967 net.cpp:380] conv2/norm2 -> conv2/norm2
I0807 20:12:51.434301 11967 net.cpp:122] Setting up conv2/norm2
I0807 20:12:51.434316 11967 net.cpp:129] Top shape: 20 192 56 56 (12042240)
I0807 20:12:51.434335 11967 net.cpp:137] Memory required for data: 349225280
I0807 20:12:51.434342 11967 layer_factory.hpp:77] Creating layer pool2/3x3_s2
I0807 20:12:51.434352 11967 net.cpp:84] Creating Layer pool2/3x3_s2
I0807 20:12:51.434360 11967 net.cpp:406] pool2/3x3_s2 <- conv2/norm2
I0807 20:12:51.434368 11967 net.cpp:380] pool2/3x3_s2 -> pool2/3x3_s2
I0807 20:12:51.434417 11967 net.cpp:122] Setting up pool2/3x3_s2
I0807 20:12:51.434429 11967 net.cpp:129] Top shape: 20 192 28 28 (3010560)
I0807 20:12:51.434435 11967 net.cpp:137] Memory required for data: 361267520
I0807 20:12:51.434442 11967 layer_factory.hpp:77] Creating layer pool2/3x3_s2_pool2/3x3_s2_0_split
I0807 20:12:51.434453 11967 net.cpp:84] Creating Layer pool2/3x3_s2_pool2/3x3_s2_0_split
I0807 20:12:51.434459 11967 net.cpp:406] pool2/3x3_s2_pool2/3x3_s2_0_split <- pool2/3x3_s2
I0807 20:12:51.434471 11967 net.cpp:380] pool2/3x3_s2_pool2/3x3_s2_0_split -> pool2/3x3_s2_pool2/3x3_s2_0_split_0
I0807 20:12:51.434482 11967 net.cpp:380] pool2/3x3_s2_pool2/3x3_s2_0_split -> pool2/3x3_s2_pool2/3x3_s2_0_split_1
I0807 20:12:51.434491 11967 net.cpp:380] pool2/3x3_s2_pool2/3x3_s2_0_split -> pool2/3x3_s2_pool2/3x3_s2_0_split_2
I0807 20:12:51.434501 11967 net.cpp:380] pool2/3x3_s2_pool2/3x3_s2_0_split -> pool2/3x3_s2_pool2/3x3_s2_0_split_3
I0807 20:12:51.434573 11967 net.cpp:122] Setting up pool2/3x3_s2_pool2/3x3_s2_0_split
I0807 20:12:51.434586 11967 net.cpp:129] Top shape: 20 192 28 28 (3010560)
I0807 20:12:51.434593 11967 net.cpp:129] Top shape: 20 192 28 28 (3010560)
I0807 20:12:51.434602 11967 net.cpp:129] Top shape: 20 192 28 28 (3010560)
I0807 20:12:51.434608 11967 net.cpp:129] Top shape: 20 192 28 28 (3010560)
I0807 20:12:51.434614 11967 net.cpp:137] Memory required for data: 409436480
I0807 20:12:51.434622 11967 layer_factory.hpp:77] Creating layer inception_3a/1x1
I0807 20:12:51.434635 11967 net.cpp:84] Creating Layer inception_3a/1x1
I0807 20:12:51.434643 11967 net.cpp:406] inception_3a/1x1 <- pool2/3x3_s2_pool2/3x3_s2_0_split_0
I0807 20:12:51.434653 11967 net.cpp:380] inception_3a/1x1 -> inception_3a/1x1
I0807 20:12:51.436080 11967 net.cpp:122] Setting up inception_3a/1x1
I0807 20:12:51.436100 11967 net.cpp:129] Top shape: 20 64 28 28 (1003520)
I0807 20:12:51.436106 11967 net.cpp:137] Memory required for data: 413450560
I0807 20:12:51.436117 11967 layer_factory.hpp:77] Creating layer inception_3a/relu_1x1
I0807 20:12:51.436131 11967 net.cpp:84] Creating Layer inception_3a/relu_1x1
I0807 20:12:51.436138 11967 net.cpp:406] inception_3a/relu_1x1 <- inception_3a/1x1
I0807 20:12:51.436147 11967 net.cpp:367] inception_3a/relu_1x1 -> inception_3a/1x1 (in-place)
I0807 20:12:51.436588 11967 net.cpp:122] Setting up inception_3a/relu_1x1
I0807 20:12:51.436606 11967 net.cpp:129] Top shape: 20 64 28 28 (1003520)
I0807 20:12:51.436614 11967 net.cpp:137] Memory required for data: 417464640
I0807 20:12:51.436621 11967 layer_factory.hpp:77] Creating layer inception_3a/3x3_reduce
I0807 20:12:51.436636 11967 net.cpp:84] Creating Layer inception_3a/3x3_reduce
I0807 20:12:51.436645 11967 net.cpp:406] inception_3a/3x3_reduce <- pool2/3x3_s2_pool2/3x3_s2_0_split_1
I0807 20:12:51.436655 11967 net.cpp:380] inception_3a/3x3_reduce -> inception_3a/3x3_reduce
I0807 20:12:51.438671 11967 net.cpp:122] Setting up inception_3a/3x3_reduce
I0807 20:12:51.438694 11967 net.cpp:129] Top shape: 20 96 28 28 (1505280)
I0807 20:12:51.438701 11967 net.cpp:137] Memory required for data: 423485760
I0807 20:12:51.438714 11967 layer_factory.hpp:77] Creating layer inception_3a/relu_3x3_reduce
I0807 20:12:51.438729 11967 net.cpp:84] Creating Layer inception_3a/relu_3x3_reduce
I0807 20:12:51.438736 11967 net.cpp:406] inception_3a/relu_3x3_reduce <- inception_3a/3x3_reduce
I0807 20:12:51.438745 11967 net.cpp:367] inception_3a/relu_3x3_reduce -> inception_3a/3x3_reduce (in-place)
I0807 20:12:51.439190 11967 net.cpp:122] Setting up inception_3a/relu_3x3_reduce
I0807 20:12:51.439210 11967 net.cpp:129] Top shape: 20 96 28 28 (1505280)
I0807 20:12:51.439218 11967 net.cpp:137] Memory required for data: 429506880
I0807 20:12:51.439235 11967 layer_factory.hpp:77] Creating layer inception_3a/3x3
I0807 20:12:51.439252 11967 net.cpp:84] Creating Layer inception_3a/3x3
I0807 20:12:51.439260 11967 net.cpp:406] inception_3a/3x3 <- inception_3a/3x3_reduce
I0807 20:12:51.439271 11967 net.cpp:380] inception_3a/3x3 -> inception_3a/3x3
I0807 20:12:51.441653 11967 net.cpp:122] Setting up inception_3a/3x3
I0807 20:12:51.441670 11967 net.cpp:129] Top shape: 20 128 28 28 (2007040)
I0807 20:12:51.441679 11967 net.cpp:137] Memory required for data: 437535040
I0807 20:12:51.441689 11967 layer_factory.hpp:77] Creating layer inception_3a/relu_3x3
I0807 20:12:51.441700 11967 net.cpp:84] Creating Layer inception_3a/relu_3x3
I0807 20:12:51.441709 11967 net.cpp:406] inception_3a/relu_3x3 <- inception_3a/3x3
I0807 20:12:51.441717 11967 net.cpp:367] inception_3a/relu_3x3 -> inception_3a/3x3 (in-place)
I0807 20:12:51.441929 11967 net.cpp:122] Setting up inception_3a/relu_3x3
I0807 20:12:51.441944 11967 net.cpp:129] Top shape: 20 128 28 28 (2007040)
I0807 20:12:51.441951 11967 net.cpp:137] Memory required for data: 445563200
I0807 20:12:51.441958 11967 layer_factory.hpp:77] Creating layer inception_3a/5x5_reduce
I0807 20:12:51.441972 11967 net.cpp:84] Creating Layer inception_3a/5x5_reduce
I0807 20:12:51.441980 11967 net.cpp:406] inception_3a/5x5_reduce <- pool2/3x3_s2_pool2/3x3_s2_0_split_2
I0807 20:12:51.441992 11967 net.cpp:380] inception_3a/5x5_reduce -> inception_3a/5x5_reduce
I0807 20:12:51.443629 11967 net.cpp:122] Setting up inception_3a/5x5_reduce
I0807 20:12:51.443647 11967 net.cpp:129] Top shape: 20 16 28 28 (250880)
I0807 20:12:51.443655 11967 net.cpp:137] Memory required for data: 446566720
I0807 20:12:51.443665 11967 layer_factory.hpp:77] Creating layer inception_3a/relu_5x5_reduce
I0807 20:12:51.443678 11967 net.cpp:84] Creating Layer inception_3a/relu_5x5_reduce
I0807 20:12:51.443686 11967 net.cpp:406] inception_3a/relu_5x5_reduce <- inception_3a/5x5_reduce
I0807 20:12:51.443696 11967 net.cpp:367] inception_3a/relu_5x5_reduce -> inception_3a/5x5_reduce (in-place)
I0807 20:12:51.444147 11967 net.cpp:122] Setting up inception_3a/relu_5x5_reduce
I0807 20:12:51.444164 11967 net.cpp:129] Top shape: 20 16 28 28 (250880)
I0807 20:12:51.444175 11967 net.cpp:137] Memory required for data: 447570240
I0807 20:12:51.444181 11967 layer_factory.hpp:77] Creating layer inception_3a/5x5
I0807 20:12:51.444195 11967 net.cpp:84] Creating Layer inception_3a/5x5
I0807 20:12:51.444201 11967 net.cpp:406] inception_3a/5x5 <- inception_3a/5x5_reduce
I0807 20:12:51.444214 11967 net.cpp:380] inception_3a/5x5 -> inception_3a/5x5
I0807 20:12:51.445672 11967 net.cpp:122] Setting up inception_3a/5x5
I0807 20:12:51.445689 11967 net.cpp:129] Top shape: 20 32 28 28 (501760)
I0807 20:12:51.445696 11967 net.cpp:137] Memory required for data: 449577280
I0807 20:12:51.445708 11967 layer_factory.hpp:77] Creating layer inception_3a/relu_5x5
I0807 20:12:51.445719 11967 net.cpp:84] Creating Layer inception_3a/relu_5x5
I0807 20:12:51.445725 11967 net.cpp:406] inception_3a/relu_5x5 <- inception_3a/5x5
I0807 20:12:51.445737 11967 net.cpp:367] inception_3a/relu_5x5 -> inception_3a/5x5 (in-place)
I0807 20:12:51.445936 11967 net.cpp:122] Setting up inception_3a/relu_5x5
I0807 20:12:51.445951 11967 net.cpp:129] Top shape: 20 32 28 28 (501760)
I0807 20:12:51.445960 11967 net.cpp:137] Memory required for data: 451584320
I0807 20:12:51.445967 11967 layer_factory.hpp:77] Creating layer inception_3a/pool
I0807 20:12:51.445978 11967 net.cpp:84] Creating Layer inception_3a/pool
I0807 20:12:51.445986 11967 net.cpp:406] inception_3a/pool <- pool2/3x3_s2_pool2/3x3_s2_0_split_3
I0807 20:12:51.445994 11967 net.cpp:380] inception_3a/pool -> inception_3a/pool
I0807 20:12:51.446049 11967 net.cpp:122] Setting up inception_3a/pool
I0807 20:12:51.446069 11967 net.cpp:129] Top shape: 20 192 28 28 (3010560)
I0807 20:12:51.446076 11967 net.cpp:137] Memory required for data: 463626560
I0807 20:12:51.446084 11967 layer_factory.hpp:77] Creating layer inception_3a/pool_proj
I0807 20:12:51.446102 11967 net.cpp:84] Creating Layer inception_3a/pool_proj
I0807 20:12:51.446116 11967 net.cpp:406] inception_3a/pool_proj <- inception_3a/pool
I0807 20:12:51.446130 11967 net.cpp:380] inception_3a/pool_proj -> inception_3a/pool_proj
I0807 20:12:51.447546 11967 net.cpp:122] Setting up inception_3a/pool_proj
I0807 20:12:51.447563 11967 net.cpp:129] Top shape: 20 32 28 28 (501760)
I0807 20:12:51.447571 11967 net.cpp:137] Memory required for data: 465633600
I0807 20:12:51.447584 11967 layer_factory.hpp:77] Creating layer inception_3a/relu_pool_proj
I0807 20:12:51.447597 11967 net.cpp:84] Creating Layer inception_3a/relu_pool_proj
I0807 20:12:51.447605 11967 net.cpp:406] inception_3a/relu_pool_proj <- inception_3a/pool_proj
I0807 20:12:51.447616 11967 net.cpp:367] inception_3a/relu_pool_proj -> inception_3a/pool_proj (in-place)
I0807 20:12:51.448057 11967 net.cpp:122] Setting up inception_3a/relu_pool_proj
I0807 20:12:51.448073 11967 net.cpp:129] Top shape: 20 32 28 28 (501760)
I0807 20:12:51.448081 11967 net.cpp:137] Memory required for data: 467640640
I0807 20:12:51.448087 11967 layer_factory.hpp:77] Creating layer inception_3a/output
I0807 20:12:51.448104 11967 net.cpp:84] Creating Layer inception_3a/output
I0807 20:12:51.448112 11967 net.cpp:406] inception_3a/output <- inception_3a/1x1
I0807 20:12:51.448120 11967 net.cpp:406] inception_3a/output <- inception_3a/3x3
I0807 20:12:51.448127 11967 net.cpp:406] inception_3a/output <- inception_3a/5x5
I0807 20:12:51.448135 11967 net.cpp:406] inception_3a/output <- inception_3a/pool_proj
I0807 20:12:51.448145 11967 net.cpp:380] inception_3a/output -> inception_3a/output
I0807 20:12:51.448196 11967 net.cpp:122] Setting up inception_3a/output
I0807 20:12:51.448210 11967 net.cpp:129] Top shape: 20 256 28 28 (4014080)
I0807 20:12:51.448216 11967 net.cpp:137] Memory required for data: 483696960
I0807 20:12:51.448235 11967 layer_factory.hpp:77] Creating layer inception_3a/output_inception_3a/output_0_split
I0807 20:12:51.448247 11967 net.cpp:84] Creating Layer inception_3a/output_inception_3a/output_0_split
I0807 20:12:51.448254 11967 net.cpp:406] inception_3a/output_inception_3a/output_0_split <- inception_3a/output
I0807 20:12:51.448263 11967 net.cpp:380] inception_3a/output_inception_3a/output_0_split -> inception_3a/output_inception_3a/output_0_split_0
I0807 20:12:51.448273 11967 net.cpp:380] inception_3a/output_inception_3a/output_0_split -> inception_3a/output_inception_3a/output_0_split_1
I0807 20:12:51.448287 11967 net.cpp:380] inception_3a/output_inception_3a/output_0_split -> inception_3a/output_inception_3a/output_0_split_2
I0807 20:12:51.448297 11967 net.cpp:380] inception_3a/output_inception_3a/output_0_split -> inception_3a/output_inception_3a/output_0_split_3
I0807 20:12:51.448366 11967 net.cpp:122] Setting up inception_3a/output_inception_3a/output_0_split
I0807 20:12:51.448379 11967 net.cpp:129] Top shape: 20 256 28 28 (4014080)
I0807 20:12:51.448386 11967 net.cpp:129] Top shape: 20 256 28 28 (4014080)
I0807 20:12:51.448395 11967 net.cpp:129] Top shape: 20 256 28 28 (4014080)
I0807 20:12:51.448401 11967 net.cpp:129] Top shape: 20 256 28 28 (4014080)
I0807 20:12:51.448407 11967 net.cpp:137] Memory required for data: 547922240
I0807 20:12:51.448415 11967 layer_factory.hpp:77] Creating layer inception_3b/1x1
I0807 20:12:51.448428 11967 net.cpp:84] Creating Layer inception_3b/1x1
I0807 20:12:51.448436 11967 net.cpp:406] inception_3b/1x1 <- inception_3a/output_inception_3a/output_0_split_0
I0807 20:12:51.448447 11967 net.cpp:380] inception_3b/1x1 -> inception_3b/1x1
I0807 20:12:51.450016 11967 net.cpp:122] Setting up inception_3b/1x1
I0807 20:12:51.450037 11967 net.cpp:129] Top shape: 20 128 28 28 (2007040)
I0807 20:12:51.450045 11967 net.cpp:137] Memory required for data: 555950400
I0807 20:12:51.450062 11967 layer_factory.hpp:77] Creating layer inception_3b/relu_1x1
I0807 20:12:51.450088 11967 net.cpp:84] Creating Layer inception_3b/relu_1x1
I0807 20:12:51.450095 11967 net.cpp:406] inception_3b/relu_1x1 <- inception_3b/1x1
I0807 20:12:51.450107 11967 net.cpp:367] inception_3b/relu_1x1 -> inception_3b/1x1 (in-place)
I0807 20:12:51.450606 11967 net.cpp:122] Setting up inception_3b/relu_1x1
I0807 20:12:51.450623 11967 net.cpp:129] Top shape: 20 128 28 28 (2007040)
I0807 20:12:51.450630 11967 net.cpp:137] Memory required for data: 563978560
I0807 20:12:51.450637 11967 layer_factory.hpp:77] Creating layer inception_3b/3x3_reduce
I0807 20:12:51.450654 11967 net.cpp:84] Creating Layer inception_3b/3x3_reduce
I0807 20:12:51.450661 11967 net.cpp:406] inception_3b/3x3_reduce <- inception_3a/output_inception_3a/output_0_split_1
I0807 20:12:51.450673 11967 net.cpp:380] inception_3b/3x3_reduce -> inception_3b/3x3_reduce
I0807 20:12:51.452271 11967 net.cpp:122] Setting up inception_3b/3x3_reduce
I0807 20:12:51.452288 11967 net.cpp:129] Top shape: 20 128 28 28 (2007040)
I0807 20:12:51.452296 11967 net.cpp:137] Memory required for data: 572006720
I0807 20:12:51.452306 11967 layer_factory.hpp:77] Creating layer inception_3b/relu_3x3_reduce
I0807 20:12:51.452319 11967 net.cpp:84] Creating Layer inception_3b/relu_3x3_reduce
I0807 20:12:51.452327 11967 net.cpp:406] inception_3b/relu_3x3_reduce <- inception_3b/3x3_reduce
I0807 20:12:51.452337 11967 net.cpp:367] inception_3b/relu_3x3_reduce -> inception_3b/3x3_reduce (in-place)
I0807 20:12:51.452538 11967 net.cpp:122] Setting up inception_3b/relu_3x3_reduce
I0807 20:12:51.452553 11967 net.cpp:129] Top shape: 20 128 28 28 (2007040)
I0807 20:12:51.452559 11967 net.cpp:137] Memory required for data: 580034880
I0807 20:12:51.452566 11967 layer_factory.hpp:77] Creating layer inception_3b/3x3
I0807 20:12:51.452584 11967 net.cpp:84] Creating Layer inception_3b/3x3
I0807 20:12:51.452592 11967 net.cpp:406] inception_3b/3x3 <- inception_3b/3x3_reduce
I0807 20:12:51.452606 11967 net.cpp:380] inception_3b/3x3 -> inception_3b/3x3
I0807 20:12:51.456187 11967 net.cpp:122] Setting up inception_3b/3x3
I0807 20:12:51.456208 11967 net.cpp:129] Top shape: 20 192 28 28 (3010560)
I0807 20:12:51.456215 11967 net.cpp:137] Memory required for data: 592077120
I0807 20:12:51.456240 11967 layer_factory.hpp:77] Creating layer inception_3b/relu_3x3
I0807 20:12:51.456252 11967 net.cpp:84] Creating Layer inception_3b/relu_3x3
I0807 20:12:51.456260 11967 net.cpp:406] inception_3b/relu_3x3 <- inception_3b/3x3
I0807 20:12:51.456269 11967 net.cpp:367] inception_3b/relu_3x3 -> inception_3b/3x3 (in-place)
I0807 20:12:51.456714 11967 net.cpp:122] Setting up inception_3b/relu_3x3
I0807 20:12:51.456732 11967 net.cpp:129] Top shape: 20 192 28 28 (3010560)
I0807 20:12:51.456738 11967 net.cpp:137] Memory required for data: 604119360
I0807 20:12:51.456745 11967 layer_factory.hpp:77] Creating layer inception_3b/5x5_reduce
I0807 20:12:51.456763 11967 net.cpp:84] Creating Layer inception_3b/5x5_reduce
I0807 20:12:51.456770 11967 net.cpp:406] inception_3b/5x5_reduce <- inception_3a/output_inception_3a/output_0_split_2
I0807 20:12:51.456784 11967 net.cpp:380] inception_3b/5x5_reduce -> inception_3b/5x5_reduce
I0807 20:12:51.458269 11967 net.cpp:122] Setting up inception_3b/5x5_reduce
I0807 20:12:51.458289 11967 net.cpp:129] Top shape: 20 32 28 28 (501760)
I0807 20:12:51.458297 11967 net.cpp:137] Memory required for data: 606126400
I0807 20:12:51.458307 11967 layer_factory.hpp:77] Creating layer inception_3b/relu_5x5_reduce
I0807 20:12:51.458319 11967 net.cpp:84] Creating Layer inception_3b/relu_5x5_reduce
I0807 20:12:51.458328 11967 net.cpp:406] inception_3b/relu_5x5_reduce <- inception_3b/5x5_reduce
I0807 20:12:51.458336 11967 net.cpp:367] inception_3b/relu_5x5_reduce -> inception_3b/5x5_reduce (in-place)
I0807 20:12:51.458541 11967 net.cpp:122] Setting up inception_3b/relu_5x5_reduce
I0807 20:12:51.458556 11967 net.cpp:129] Top shape: 20 32 28 28 (501760)
I0807 20:12:51.458564 11967 net.cpp:137] Memory required for data: 608133440
I0807 20:12:51.458571 11967 layer_factory.hpp:77] Creating layer inception_3b/5x5
I0807 20:12:51.458586 11967 net.cpp:84] Creating Layer inception_3b/5x5
I0807 20:12:51.458595 11967 net.cpp:406] inception_3b/5x5 <- inception_3b/5x5_reduce
I0807 20:12:51.458612 11967 net.cpp:380] inception_3b/5x5 -> inception_3b/5x5
I0807 20:12:51.461288 11967 net.cpp:122] Setting up inception_3b/5x5
I0807 20:12:51.461309 11967 net.cpp:129] Top shape: 20 96 28 28 (1505280)
I0807 20:12:51.461318 11967 net.cpp:137] Memory required for data: 614154560
I0807 20:12:51.461328 11967 layer_factory.hpp:77] Creating layer inception_3b/relu_5x5
I0807 20:12:51.461338 11967 net.cpp:84] Creating Layer inception_3b/relu_5x5
I0807 20:12:51.461344 11967 net.cpp:406] inception_3b/relu_5x5 <- inception_3b/5x5
I0807 20:12:51.461354 11967 net.cpp:367] inception_3b/relu_5x5 -> inception_3b/5x5 (in-place)
I0807 20:12:51.461807 11967 net.cpp:122] Setting up inception_3b/relu_5x5
I0807 20:12:51.461823 11967 net.cpp:129] Top shape: 20 96 28 28 (1505280)
I0807 20:12:51.461830 11967 net.cpp:137] Memory required for data: 620175680
I0807 20:12:51.461838 11967 layer_factory.hpp:77] Creating layer inception_3b/pool
I0807 20:12:51.461848 11967 net.cpp:84] Creating Layer inception_3b/pool
I0807 20:12:51.461855 11967 net.cpp:406] inception_3b/pool <- inception_3a/output_inception_3a/output_0_split_3
I0807 20:12:51.461868 11967 net.cpp:380] inception_3b/pool -> inception_3b/pool
I0807 20:12:51.461931 11967 net.cpp:122] Setting up inception_3b/pool
I0807 20:12:51.461944 11967 net.cpp:129] Top shape: 20 256 28 28 (4014080)
I0807 20:12:51.461951 11967 net.cpp:137] Memory required for data: 636232000
I0807 20:12:51.461957 11967 layer_factory.hpp:77] Creating layer inception_3b/pool_proj
I0807 20:12:51.461974 11967 net.cpp:84] Creating Layer inception_3b/pool_proj
I0807 20:12:51.461982 11967 net.cpp:406] inception_3b/pool_proj <- inception_3b/pool
I0807 20:12:51.461992 11967 net.cpp:380] inception_3b/pool_proj -> inception_3b/pool_proj
I0807 20:12:51.463512 11967 net.cpp:122] Setting up inception_3b/pool_proj
I0807 20:12:51.463531 11967 net.cpp:129] Top shape: 20 64 28 28 (1003520)
I0807 20:12:51.463538 11967 net.cpp:137] Memory required for data: 640246080
I0807 20:12:51.463549 11967 layer_factory.hpp:77] Creating layer inception_3b/relu_pool_proj
I0807 20:12:51.463562 11967 net.cpp:84] Creating Layer inception_3b/relu_pool_proj
I0807 20:12:51.463569 11967 net.cpp:406] inception_3b/relu_pool_proj <- inception_3b/pool_proj
I0807 20:12:51.463578 11967 net.cpp:367] inception_3b/relu_pool_proj -> inception_3b/pool_proj (in-place)
I0807 20:12:51.464033 11967 net.cpp:122] Setting up inception_3b/relu_pool_proj
I0807 20:12:51.464051 11967 net.cpp:129] Top shape: 20 64 28 28 (1003520)
I0807 20:12:51.464057 11967 net.cpp:137] Memory required for data: 644260160
I0807 20:12:51.464064 11967 layer_factory.hpp:77] Creating layer inception_3b/output
I0807 20:12:51.464077 11967 net.cpp:84] Creating Layer inception_3b/output
I0807 20:12:51.464084 11967 net.cpp:406] inception_3b/output <- inception_3b/1x1
I0807 20:12:51.464093 11967 net.cpp:406] inception_3b/output <- inception_3b/3x3
I0807 20:12:51.464102 11967 net.cpp:406] inception_3b/output <- inception_3b/5x5
I0807 20:12:51.464108 11967 net.cpp:406] inception_3b/output <- inception_3b/pool_proj
I0807 20:12:51.464117 11967 net.cpp:380] inception_3b/output -> inception_3b/output
I0807 20:12:51.464154 11967 net.cpp:122] Setting up inception_3b/output
I0807 20:12:51.464166 11967 net.cpp:129] Top shape: 20 480 28 28 (7526400)
I0807 20:12:51.464172 11967 net.cpp:137] Memory required for data: 674365760
I0807 20:12:51.464180 11967 layer_factory.hpp:77] Creating layer pool3/3x3_s2
I0807 20:12:51.464192 11967 net.cpp:84] Creating Layer pool3/3x3_s2
I0807 20:12:51.464200 11967 net.cpp:406] pool3/3x3_s2 <- inception_3b/output
I0807 20:12:51.464211 11967 net.cpp:380] pool3/3x3_s2 -> pool3/3x3_s2
I0807 20:12:51.464262 11967 net.cpp:122] Setting up pool3/3x3_s2
I0807 20:12:51.464274 11967 net.cpp:129] Top shape: 20 480 14 14 (1881600)
I0807 20:12:51.464280 11967 net.cpp:137] Memory required for data: 681892160
I0807 20:12:51.464287 11967 layer_factory.hpp:77] Creating layer pool3/3x3_s2_pool3/3x3_s2_0_split
I0807 20:12:51.464298 11967 net.cpp:84] Creating Layer pool3/3x3_s2_pool3/3x3_s2_0_split
I0807 20:12:51.464310 11967 net.cpp:406] pool3/3x3_s2_pool3/3x3_s2_0_split <- pool3/3x3_s2
I0807 20:12:51.464326 11967 net.cpp:380] pool3/3x3_s2_pool3/3x3_s2_0_split -> pool3/3x3_s2_pool3/3x3_s2_0_split_0
I0807 20:12:51.464336 11967 net.cpp:380] pool3/3x3_s2_pool3/3x3_s2_0_split -> pool3/3x3_s2_pool3/3x3_s2_0_split_1
I0807 20:12:51.464346 11967 net.cpp:380] pool3/3x3_s2_pool3/3x3_s2_0_split -> pool3/3x3_s2_pool3/3x3_s2_0_split_2
I0807 20:12:51.464356 11967 net.cpp:380] pool3/3x3_s2_pool3/3x3_s2_0_split -> pool3/3x3_s2_pool3/3x3_s2_0_split_3
I0807 20:12:51.464432 11967 net.cpp:122] Setting up pool3/3x3_s2_pool3/3x3_s2_0_split
I0807 20:12:51.464443 11967 net.cpp:129] Top shape: 20 480 14 14 (1881600)
I0807 20:12:51.464452 11967 net.cpp:129] Top shape: 20 480 14 14 (1881600)
I0807 20:12:51.464459 11967 net.cpp:129] Top shape: 20 480 14 14 (1881600)
I0807 20:12:51.464467 11967 net.cpp:129] Top shape: 20 480 14 14 (1881600)
I0807 20:12:51.464473 11967 net.cpp:137] Memory required for data: 711997760
I0807 20:12:51.464479 11967 layer_factory.hpp:77] Creating layer inception_4a/1x1
I0807 20:12:51.464493 11967 net.cpp:84] Creating Layer inception_4a/1x1
I0807 20:12:51.464501 11967 net.cpp:406] inception_4a/1x1 <- pool3/3x3_s2_pool3/3x3_s2_0_split_0
I0807 20:12:51.464514 11967 net.cpp:380] inception_4a/1x1 -> inception_4a/1x1
I0807 20:12:51.466753 11967 net.cpp:122] Setting up inception_4a/1x1
I0807 20:12:51.466773 11967 net.cpp:129] Top shape: 20 192 14 14 (752640)
I0807 20:12:51.466780 11967 net.cpp:137] Memory required for data: 715008320
I0807 20:12:51.466794 11967 layer_factory.hpp:77] Creating layer inception_4a/relu_1x1
I0807 20:12:51.466805 11967 net.cpp:84] Creating Layer inception_4a/relu_1x1
I0807 20:12:51.466812 11967 net.cpp:406] inception_4a/relu_1x1 <- inception_4a/1x1
I0807 20:12:51.466821 11967 net.cpp:367] inception_4a/relu_1x1 -> inception_4a/1x1 (in-place)
I0807 20:12:51.467034 11967 net.cpp:122] Setting up inception_4a/relu_1x1
I0807 20:12:51.467049 11967 net.cpp:129] Top shape: 20 192 14 14 (752640)
I0807 20:12:51.467056 11967 net.cpp:137] Memory required for data: 718018880
I0807 20:12:51.467062 11967 layer_factory.hpp:77] Creating layer inception_4a/3x3_reduce
I0807 20:12:51.467078 11967 net.cpp:84] Creating Layer inception_4a/3x3_reduce
I0807 20:12:51.467087 11967 net.cpp:406] inception_4a/3x3_reduce <- pool3/3x3_s2_pool3/3x3_s2_0_split_1
I0807 20:12:51.467097 11967 net.cpp:380] inception_4a/3x3_reduce -> inception_4a/3x3_reduce
I0807 20:12:51.468837 11967 net.cpp:122] Setting up inception_4a/3x3_reduce
I0807 20:12:51.468854 11967 net.cpp:129] Top shape: 20 96 14 14 (376320)
I0807 20:12:51.468861 11967 net.cpp:137] Memory required for data: 719524160
I0807 20:12:51.468878 11967 layer_factory.hpp:77] Creating layer inception_4a/relu_3x3_reduce
I0807 20:12:51.468889 11967 net.cpp:84] Creating Layer inception_4a/relu_3x3_reduce
I0807 20:12:51.468897 11967 net.cpp:406] inception_4a/relu_3x3_reduce <- inception_4a/3x3_reduce
I0807 20:12:51.468907 11967 net.cpp:367] inception_4a/relu_3x3_reduce -> inception_4a/3x3_reduce (in-place)
I0807 20:12:51.469362 11967 net.cpp:122] Setting up inception_4a/relu_3x3_reduce
I0807 20:12:51.469377 11967 net.cpp:129] Top shape: 20 96 14 14 (376320)
I0807 20:12:51.469384 11967 net.cpp:137] Memory required for data: 721029440
I0807 20:12:51.469391 11967 layer_factory.hpp:77] Creating layer inception_4a/3x3
I0807 20:12:51.469406 11967 net.cpp:84] Creating Layer inception_4a/3x3
I0807 20:12:51.469415 11967 net.cpp:406] inception_4a/3x3 <- inception_4a/3x3_reduce
I0807 20:12:51.469427 11967 net.cpp:380] inception_4a/3x3 -> inception_4a/3x3
I0807 20:12:51.472784 11967 net.cpp:122] Setting up inception_4a/3x3
I0807 20:12:51.472807 11967 net.cpp:129] Top shape: 20 208 14 14 (815360)
I0807 20:12:51.472815 11967 net.cpp:137] Memory required for data: 724290880
I0807 20:12:51.472827 11967 layer_factory.hpp:77] Creating layer inception_4a/relu_3x3
I0807 20:12:51.472841 11967 net.cpp:84] Creating Layer inception_4a/relu_3x3
I0807 20:12:51.472848 11967 net.cpp:406] inception_4a/relu_3x3 <- inception_4a/3x3
I0807 20:12:51.472864 11967 net.cpp:367] inception_4a/relu_3x3 -> inception_4a/3x3 (in-place)
I0807 20:12:51.473086 11967 net.cpp:122] Setting up inception_4a/relu_3x3
I0807 20:12:51.473103 11967 net.cpp:129] Top shape: 20 208 14 14 (815360)
I0807 20:12:51.473109 11967 net.cpp:137] Memory required for data: 727552320
I0807 20:12:51.473116 11967 layer_factory.hpp:77] Creating layer inception_4a/5x5_reduce
I0807 20:12:51.473130 11967 net.cpp:84] Creating Layer inception_4a/5x5_reduce
I0807 20:12:51.473140 11967 net.cpp:406] inception_4a/5x5_reduce <- pool3/3x3_s2_pool3/3x3_s2_0_split_2
I0807 20:12:51.473150 11967 net.cpp:380] inception_4a/5x5_reduce -> inception_4a/5x5_reduce
I0807 20:12:51.474697 11967 net.cpp:122] Setting up inception_4a/5x5_reduce
I0807 20:12:51.474716 11967 net.cpp:129] Top shape: 20 16 14 14 (62720)
I0807 20:12:51.474723 11967 net.cpp:137] Memory required for data: 727803200
I0807 20:12:51.474733 11967 layer_factory.hpp:77] Creating layer inception_4a/relu_5x5_reduce
I0807 20:12:51.474745 11967 net.cpp:84] Creating Layer inception_4a/relu_5x5_reduce
I0807 20:12:51.474753 11967 net.cpp:406] inception_4a/relu_5x5_reduce <- inception_4a/5x5_reduce
I0807 20:12:51.474764 11967 net.cpp:367] inception_4a/relu_5x5_reduce -> inception_4a/5x5_reduce (in-place)
I0807 20:12:51.475215 11967 net.cpp:122] Setting up inception_4a/relu_5x5_reduce
I0807 20:12:51.475232 11967 net.cpp:129] Top shape: 20 16 14 14 (62720)
I0807 20:12:51.475239 11967 net.cpp:137] Memory required for data: 728054080
I0807 20:12:51.475246 11967 layer_factory.hpp:77] Creating layer inception_4a/5x5
I0807 20:12:51.475262 11967 net.cpp:84] Creating Layer inception_4a/5x5
I0807 20:12:51.475270 11967 net.cpp:406] inception_4a/5x5 <- inception_4a/5x5_reduce
I0807 20:12:51.475282 11967 net.cpp:380] inception_4a/5x5 -> inception_4a/5x5
I0807 20:12:51.476846 11967 net.cpp:122] Setting up inception_4a/5x5
I0807 20:12:51.476864 11967 net.cpp:129] Top shape: 20 48 14 14 (188160)
I0807 20:12:51.476871 11967 net.cpp:137] Memory required for data: 728806720
I0807 20:12:51.476882 11967 layer_factory.hpp:77] Creating layer inception_4a/relu_5x5
I0807 20:12:51.476894 11967 net.cpp:84] Creating Layer inception_4a/relu_5x5
I0807 20:12:51.476902 11967 net.cpp:406] inception_4a/relu_5x5 <- inception_4a/5x5
I0807 20:12:51.476912 11967 net.cpp:367] inception_4a/relu_5x5 -> inception_4a/5x5 (in-place)
I0807 20:12:51.477363 11967 net.cpp:122] Setting up inception_4a/relu_5x5
I0807 20:12:51.477380 11967 net.cpp:129] Top shape: 20 48 14 14 (188160)
I0807 20:12:51.477387 11967 net.cpp:137] Memory required for data: 729559360
I0807 20:12:51.477394 11967 layer_factory.hpp:77] Creating layer inception_4a/pool
I0807 20:12:51.477407 11967 net.cpp:84] Creating Layer inception_4a/pool
I0807 20:12:51.477416 11967 net.cpp:406] inception_4a/pool <- pool3/3x3_s2_pool3/3x3_s2_0_split_3
I0807 20:12:51.477427 11967 net.cpp:380] inception_4a/pool -> inception_4a/pool
I0807 20:12:51.477484 11967 net.cpp:122] Setting up inception_4a/pool
I0807 20:12:51.477497 11967 net.cpp:129] Top shape: 20 480 14 14 (1881600)
I0807 20:12:51.477504 11967 net.cpp:137] Memory required for data: 737085760
I0807 20:12:51.477512 11967 layer_factory.hpp:77] Creating layer inception_4a/pool_proj
I0807 20:12:51.477526 11967 net.cpp:84] Creating Layer inception_4a/pool_proj
I0807 20:12:51.477535 11967 net.cpp:406] inception_4a/pool_proj <- inception_4a/pool
I0807 20:12:51.477546 11967 net.cpp:380] inception_4a/pool_proj -> inception_4a/pool_proj
I0807 20:12:51.479177 11967 net.cpp:122] Setting up inception_4a/pool_proj
I0807 20:12:51.479197 11967 net.cpp:129] Top shape: 20 64 14 14 (250880)
I0807 20:12:51.479203 11967 net.cpp:137] Memory required for data: 738089280
I0807 20:12:51.479213 11967 layer_factory.hpp:77] Creating layer inception_4a/relu_pool_proj
I0807 20:12:51.479223 11967 net.cpp:84] Creating Layer inception_4a/relu_pool_proj
I0807 20:12:51.479231 11967 net.cpp:406] inception_4a/relu_pool_proj <- inception_4a/pool_proj
I0807 20:12:51.479241 11967 net.cpp:367] inception_4a/relu_pool_proj -> inception_4a/pool_proj (in-place)
I0807 20:12:51.479699 11967 net.cpp:122] Setting up inception_4a/relu_pool_proj
I0807 20:12:51.479723 11967 net.cpp:129] Top shape: 20 64 14 14 (250880)
I0807 20:12:51.479730 11967 net.cpp:137] Memory required for data: 739092800
I0807 20:12:51.479737 11967 layer_factory.hpp:77] Creating layer inception_4a/output
I0807 20:12:51.479748 11967 net.cpp:84] Creating Layer inception_4a/output
I0807 20:12:51.479756 11967 net.cpp:406] inception_4a/output <- inception_4a/1x1
I0807 20:12:51.479764 11967 net.cpp:406] inception_4a/output <- inception_4a/3x3
I0807 20:12:51.479773 11967 net.cpp:406] inception_4a/output <- inception_4a/5x5
I0807 20:12:51.479779 11967 net.cpp:406] inception_4a/output <- inception_4a/pool_proj
I0807 20:12:51.479790 11967 net.cpp:380] inception_4a/output -> inception_4a/output
I0807 20:12:51.479830 11967 net.cpp:122] Setting up inception_4a/output
I0807 20:12:51.479846 11967 net.cpp:129] Top shape: 20 512 14 14 (2007040)
I0807 20:12:51.479852 11967 net.cpp:137] Memory required for data: 747120960
I0807 20:12:51.479859 11967 layer_factory.hpp:77] Creating layer inception_4a/output_inception_4a/output_0_split
I0807 20:12:51.479871 11967 net.cpp:84] Creating Layer inception_4a/output_inception_4a/output_0_split
I0807 20:12:51.479877 11967 net.cpp:406] inception_4a/output_inception_4a/output_0_split <- inception_4a/output
I0807 20:12:51.479887 11967 net.cpp:380] inception_4a/output_inception_4a/output_0_split -> inception_4a/output_inception_4a/output_0_split_0
I0807 20:12:51.479897 11967 net.cpp:380] inception_4a/output_inception_4a/output_0_split -> inception_4a/output_inception_4a/output_0_split_1
I0807 20:12:51.479909 11967 net.cpp:380] inception_4a/output_inception_4a/output_0_split -> inception_4a/output_inception_4a/output_0_split_2
I0807 20:12:51.479920 11967 net.cpp:380] inception_4a/output_inception_4a/output_0_split -> inception_4a/output_inception_4a/output_0_split_3
I0807 20:12:51.479930 11967 net.cpp:380] inception_4a/output_inception_4a/output_0_split -> inception_4a/output_inception_4a/output_0_split_4
I0807 20:12:51.480024 11967 net.cpp:122] Setting up inception_4a/output_inception_4a/output_0_split
I0807 20:12:51.480037 11967 net.cpp:129] Top shape: 20 512 14 14 (2007040)
I0807 20:12:51.480046 11967 net.cpp:129] Top shape: 20 512 14 14 (2007040)
I0807 20:12:51.480053 11967 net.cpp:129] Top shape: 20 512 14 14 (2007040)
I0807 20:12:51.480062 11967 net.cpp:129] Top shape: 20 512 14 14 (2007040)
I0807 20:12:51.480068 11967 net.cpp:129] Top shape: 20 512 14 14 (2007040)
I0807 20:12:51.480075 11967 net.cpp:137] Memory required for data: 787261760
I0807 20:12:51.480082 11967 layer_factory.hpp:77] Creating layer loss1/ave_pool
I0807 20:12:51.480093 11967 net.cpp:84] Creating Layer loss1/ave_pool
I0807 20:12:51.480100 11967 net.cpp:406] loss1/ave_pool <- inception_4a/output_inception_4a/output_0_split_0
I0807 20:12:51.480109 11967 net.cpp:380] loss1/ave_pool -> loss1/ave_pool
I0807 20:12:51.480638 11967 net.cpp:122] Setting up loss1/ave_pool
I0807 20:12:51.480654 11967 net.cpp:129] Top shape: 20 512 4 4 (163840)
I0807 20:12:51.480661 11967 net.cpp:137] Memory required for data: 787917120
I0807 20:12:51.480669 11967 layer_factory.hpp:77] Creating layer loss1/conv
I0807 20:12:51.480684 11967 net.cpp:84] Creating Layer loss1/conv
I0807 20:12:51.480692 11967 net.cpp:406] loss1/conv <- loss1/ave_pool
I0807 20:12:51.480702 11967 net.cpp:380] loss1/conv -> loss1/conv
I0807 20:12:51.482568 11967 net.cpp:122] Setting up loss1/conv
I0807 20:12:51.482587 11967 net.cpp:129] Top shape: 20 128 4 4 (40960)
I0807 20:12:51.482594 11967 net.cpp:137] Memory required for data: 788080960
I0807 20:12:51.482604 11967 layer_factory.hpp:77] Creating layer loss1/relu_conv
I0807 20:12:51.482619 11967 net.cpp:84] Creating Layer loss1/relu_conv
I0807 20:12:51.482626 11967 net.cpp:406] loss1/relu_conv <- loss1/conv
I0807 20:12:51.482635 11967 net.cpp:367] loss1/relu_conv -> loss1/conv (in-place)
I0807 20:12:51.482842 11967 net.cpp:122] Setting up loss1/relu_conv
I0807 20:12:51.482858 11967 net.cpp:129] Top shape: 20 128 4 4 (40960)
I0807 20:12:51.482875 11967 net.cpp:137] Memory required for data: 788244800
I0807 20:12:51.482882 11967 layer_factory.hpp:77] Creating layer loss1/fc
I0807 20:12:51.482897 11967 net.cpp:84] Creating Layer loss1/fc
I0807 20:12:51.482903 11967 net.cpp:406] loss1/fc <- loss1/conv
I0807 20:12:51.482915 11967 net.cpp:380] loss1/fc -> loss1/fc
I0807 20:12:51.500046 11967 net.cpp:122] Setting up loss1/fc
I0807 20:12:51.500074 11967 net.cpp:129] Top shape: 20 1024 (20480)
I0807 20:12:51.500082 11967 net.cpp:137] Memory required for data: 788326720
I0807 20:12:51.500093 11967 layer_factory.hpp:77] Creating layer loss1/relu_fc
I0807 20:12:51.500105 11967 net.cpp:84] Creating Layer loss1/relu_fc
I0807 20:12:51.500113 11967 net.cpp:406] loss1/relu_fc <- loss1/fc
I0807 20:12:51.500123 11967 net.cpp:367] loss1/relu_fc -> loss1/fc (in-place)
I0807 20:12:51.500597 11967 net.cpp:122] Setting up loss1/relu_fc
I0807 20:12:51.500612 11967 net.cpp:129] Top shape: 20 1024 (20480)
I0807 20:12:51.500619 11967 net.cpp:137] Memory required for data: 788408640
I0807 20:12:51.500627 11967 layer_factory.hpp:77] Creating layer loss1/drop_fc
I0807 20:12:51.500646 11967 net.cpp:84] Creating Layer loss1/drop_fc
I0807 20:12:51.500654 11967 net.cpp:406] loss1/drop_fc <- loss1/fc
I0807 20:12:51.500663 11967 net.cpp:367] loss1/drop_fc -> loss1/fc (in-place)
I0807 20:12:51.500710 11967 net.cpp:122] Setting up loss1/drop_fc
I0807 20:12:51.500722 11967 net.cpp:129] Top shape: 20 1024 (20480)
I0807 20:12:51.500730 11967 net.cpp:137] Memory required for data: 788490560
I0807 20:12:51.500736 11967 layer_factory.hpp:77] Creating layer my-loss1/classifier
I0807 20:12:51.500751 11967 net.cpp:84] Creating Layer my-loss1/classifier
I0807 20:12:51.500758 11967 net.cpp:406] my-loss1/classifier <- loss1/fc
I0807 20:12:51.500768 11967 net.cpp:380] my-loss1/classifier -> my-loss1/classifier
I0807 20:12:51.500911 11967 net.cpp:122] Setting up my-loss1/classifier
I0807 20:12:51.500926 11967 net.cpp:129] Top shape: 20 1 (20)
I0807 20:12:51.500932 11967 net.cpp:137] Memory required for data: 788490640
I0807 20:12:51.500943 11967 layer_factory.hpp:77] Creating layer loss1/loss
I0807 20:12:51.500954 11967 net.cpp:84] Creating Layer loss1/loss
I0807 20:12:51.500962 11967 net.cpp:406] loss1/loss <- my-loss1/classifier
I0807 20:12:51.500969 11967 net.cpp:406] loss1/loss <- label_data_1_split_0
I0807 20:12:51.500980 11967 net.cpp:380] loss1/loss -> loss1/loss
I0807 20:12:51.501037 11967 net.cpp:122] Setting up loss1/loss
I0807 20:12:51.501050 11967 net.cpp:129] Top shape: (1)
I0807 20:12:51.501057 11967 net.cpp:132]     with loss weight 0.3
I0807 20:12:51.501086 11967 net.cpp:137] Memory required for data: 788490644
I0807 20:12:51.501093 11967 layer_factory.hpp:77] Creating layer inception_4b/1x1
I0807 20:12:51.501111 11967 net.cpp:84] Creating Layer inception_4b/1x1
I0807 20:12:51.501117 11967 net.cpp:406] inception_4b/1x1 <- inception_4a/output_inception_4a/output_0_split_1
I0807 20:12:51.501129 11967 net.cpp:380] inception_4b/1x1 -> inception_4b/1x1
I0807 20:12:51.503132 11967 net.cpp:122] Setting up inception_4b/1x1
I0807 20:12:51.503151 11967 net.cpp:129] Top shape: 20 160 14 14 (627200)
I0807 20:12:51.503159 11967 net.cpp:137] Memory required for data: 790999444
I0807 20:12:51.503170 11967 layer_factory.hpp:77] Creating layer inception_4b/relu_1x1
I0807 20:12:51.503190 11967 net.cpp:84] Creating Layer inception_4b/relu_1x1
I0807 20:12:51.503198 11967 net.cpp:406] inception_4b/relu_1x1 <- inception_4b/1x1
I0807 20:12:51.503207 11967 net.cpp:367] inception_4b/relu_1x1 -> inception_4b/1x1 (in-place)
I0807 20:12:51.503665 11967 net.cpp:122] Setting up inception_4b/relu_1x1
I0807 20:12:51.503681 11967 net.cpp:129] Top shape: 20 160 14 14 (627200)
I0807 20:12:51.503689 11967 net.cpp:137] Memory required for data: 793508244
I0807 20:12:51.503695 11967 layer_factory.hpp:77] Creating layer inception_4b/3x3_reduce
I0807 20:12:51.503711 11967 net.cpp:84] Creating Layer inception_4b/3x3_reduce
I0807 20:12:51.503720 11967 net.cpp:406] inception_4b/3x3_reduce <- inception_4a/output_inception_4a/output_0_split_2
I0807 20:12:51.503751 11967 net.cpp:380] inception_4b/3x3_reduce -> inception_4b/3x3_reduce
I0807 20:12:51.506088 11967 net.cpp:122] Setting up inception_4b/3x3_reduce
I0807 20:12:51.506108 11967 net.cpp:129] Top shape: 20 112 14 14 (439040)
I0807 20:12:51.506115 11967 net.cpp:137] Memory required for data: 795264404
I0807 20:12:51.506127 11967 layer_factory.hpp:77] Creating layer inception_4b/relu_3x3_reduce
I0807 20:12:51.506139 11967 net.cpp:84] Creating Layer inception_4b/relu_3x3_reduce
I0807 20:12:51.506148 11967 net.cpp:406] inception_4b/relu_3x3_reduce <- inception_4b/3x3_reduce
I0807 20:12:51.506158 11967 net.cpp:367] inception_4b/relu_3x3_reduce -> inception_4b/3x3_reduce (in-place)
I0807 20:12:51.506366 11967 net.cpp:122] Setting up inception_4b/relu_3x3_reduce
I0807 20:12:51.506381 11967 net.cpp:129] Top shape: 20 112 14 14 (439040)
I0807 20:12:51.506388 11967 net.cpp:137] Memory required for data: 797020564
I0807 20:12:51.506395 11967 layer_factory.hpp:77] Creating layer inception_4b/3x3
I0807 20:12:51.506412 11967 net.cpp:84] Creating Layer inception_4b/3x3
I0807 20:12:51.506419 11967 net.cpp:406] inception_4b/3x3 <- inception_4b/3x3_reduce
I0807 20:12:51.506429 11967 net.cpp:380] inception_4b/3x3 -> inception_4b/3x3
I0807 20:12:51.510128 11967 net.cpp:122] Setting up inception_4b/3x3
I0807 20:12:51.510160 11967 net.cpp:129] Top shape: 20 224 14 14 (878080)
I0807 20:12:51.510169 11967 net.cpp:137] Memory required for data: 800532884
I0807 20:12:51.510179 11967 layer_factory.hpp:77] Creating layer inception_4b/relu_3x3
I0807 20:12:51.510190 11967 net.cpp:84] Creating Layer inception_4b/relu_3x3
I0807 20:12:51.510198 11967 net.cpp:406] inception_4b/relu_3x3 <- inception_4b/3x3
I0807 20:12:51.510210 11967 net.cpp:367] inception_4b/relu_3x3 -> inception_4b/3x3 (in-place)
I0807 20:12:51.510694 11967 net.cpp:122] Setting up inception_4b/relu_3x3
I0807 20:12:51.510710 11967 net.cpp:129] Top shape: 20 224 14 14 (878080)
I0807 20:12:51.510717 11967 net.cpp:137] Memory required for data: 804045204
I0807 20:12:51.510725 11967 layer_factory.hpp:77] Creating layer inception_4b/5x5_reduce
I0807 20:12:51.510743 11967 net.cpp:84] Creating Layer inception_4b/5x5_reduce
I0807 20:12:51.510751 11967 net.cpp:406] inception_4b/5x5_reduce <- inception_4a/output_inception_4a/output_0_split_3
I0807 20:12:51.510762 11967 net.cpp:380] inception_4b/5x5_reduce -> inception_4b/5x5_reduce
I0807 20:12:51.512365 11967 net.cpp:122] Setting up inception_4b/5x5_reduce
I0807 20:12:51.512384 11967 net.cpp:129] Top shape: 20 24 14 14 (94080)
I0807 20:12:51.512392 11967 net.cpp:137] Memory required for data: 804421524
I0807 20:12:51.512403 11967 layer_factory.hpp:77] Creating layer inception_4b/relu_5x5_reduce
I0807 20:12:51.512414 11967 net.cpp:84] Creating Layer inception_4b/relu_5x5_reduce
I0807 20:12:51.512423 11967 net.cpp:406] inception_4b/relu_5x5_reduce <- inception_4b/5x5_reduce
I0807 20:12:51.512431 11967 net.cpp:367] inception_4b/relu_5x5_reduce -> inception_4b/5x5_reduce (in-place)
I0807 20:12:51.512642 11967 net.cpp:122] Setting up inception_4b/relu_5x5_reduce
I0807 20:12:51.512657 11967 net.cpp:129] Top shape: 20 24 14 14 (94080)
I0807 20:12:51.512665 11967 net.cpp:137] Memory required for data: 804797844
I0807 20:12:51.512671 11967 layer_factory.hpp:77] Creating layer inception_4b/5x5
I0807 20:12:51.512687 11967 net.cpp:84] Creating Layer inception_4b/5x5
I0807 20:12:51.512696 11967 net.cpp:406] inception_4b/5x5 <- inception_4b/5x5_reduce
I0807 20:12:51.512706 11967 net.cpp:380] inception_4b/5x5 -> inception_4b/5x5
I0807 20:12:51.514523 11967 net.cpp:122] Setting up inception_4b/5x5
I0807 20:12:51.514542 11967 net.cpp:129] Top shape: 20 64 14 14 (250880)
I0807 20:12:51.514550 11967 net.cpp:137] Memory required for data: 805801364
I0807 20:12:51.514560 11967 layer_factory.hpp:77] Creating layer inception_4b/relu_5x5
I0807 20:12:51.514572 11967 net.cpp:84] Creating Layer inception_4b/relu_5x5
I0807 20:12:51.514580 11967 net.cpp:406] inception_4b/relu_5x5 <- inception_4b/5x5
I0807 20:12:51.514596 11967 net.cpp:367] inception_4b/relu_5x5 -> inception_4b/5x5 (in-place)
I0807 20:12:51.515061 11967 net.cpp:122] Setting up inception_4b/relu_5x5
I0807 20:12:51.515079 11967 net.cpp:129] Top shape: 20 64 14 14 (250880)
I0807 20:12:51.515085 11967 net.cpp:137] Memory required for data: 806804884
I0807 20:12:51.515094 11967 layer_factory.hpp:77] Creating layer inception_4b/pool
I0807 20:12:51.515106 11967 net.cpp:84] Creating Layer inception_4b/pool
I0807 20:12:51.515115 11967 net.cpp:406] inception_4b/pool <- inception_4a/output_inception_4a/output_0_split_4
I0807 20:12:51.515125 11967 net.cpp:380] inception_4b/pool -> inception_4b/pool
I0807 20:12:51.515197 11967 net.cpp:122] Setting up inception_4b/pool
I0807 20:12:51.515210 11967 net.cpp:129] Top shape: 20 512 14 14 (2007040)
I0807 20:12:51.515218 11967 net.cpp:137] Memory required for data: 814833044
I0807 20:12:51.515224 11967 layer_factory.hpp:77] Creating layer inception_4b/pool_proj
I0807 20:12:51.515240 11967 net.cpp:84] Creating Layer inception_4b/pool_proj
I0807 20:12:51.515249 11967 net.cpp:406] inception_4b/pool_proj <- inception_4b/pool
I0807 20:12:51.515259 11967 net.cpp:380] inception_4b/pool_proj -> inception_4b/pool_proj
I0807 20:12:51.516942 11967 net.cpp:122] Setting up inception_4b/pool_proj
I0807 20:12:51.516960 11967 net.cpp:129] Top shape: 20 64 14 14 (250880)
I0807 20:12:51.516968 11967 net.cpp:137] Memory required for data: 815836564
I0807 20:12:51.516978 11967 layer_factory.hpp:77] Creating layer inception_4b/relu_pool_proj
I0807 20:12:51.516989 11967 net.cpp:84] Creating Layer inception_4b/relu_pool_proj
I0807 20:12:51.516997 11967 net.cpp:406] inception_4b/relu_pool_proj <- inception_4b/pool_proj
I0807 20:12:51.517010 11967 net.cpp:367] inception_4b/relu_pool_proj -> inception_4b/pool_proj (in-place)
I0807 20:12:51.517473 11967 net.cpp:122] Setting up inception_4b/relu_pool_proj
I0807 20:12:51.517490 11967 net.cpp:129] Top shape: 20 64 14 14 (250880)
I0807 20:12:51.517498 11967 net.cpp:137] Memory required for data: 816840084
I0807 20:12:51.517504 11967 layer_factory.hpp:77] Creating layer inception_4b/output
I0807 20:12:51.517514 11967 net.cpp:84] Creating Layer inception_4b/output
I0807 20:12:51.517521 11967 net.cpp:406] inception_4b/output <- inception_4b/1x1
I0807 20:12:51.517529 11967 net.cpp:406] inception_4b/output <- inception_4b/3x3
I0807 20:12:51.517537 11967 net.cpp:406] inception_4b/output <- inception_4b/5x5
I0807 20:12:51.517544 11967 net.cpp:406] inception_4b/output <- inception_4b/pool_proj
I0807 20:12:51.517556 11967 net.cpp:380] inception_4b/output -> inception_4b/output
I0807 20:12:51.517598 11967 net.cpp:122] Setting up inception_4b/output
I0807 20:12:51.517611 11967 net.cpp:129] Top shape: 20 512 14 14 (2007040)
I0807 20:12:51.517617 11967 net.cpp:137] Memory required for data: 824868244
I0807 20:12:51.517626 11967 layer_factory.hpp:77] Creating layer inception_4b/output_inception_4b/output_0_split
I0807 20:12:51.517638 11967 net.cpp:84] Creating Layer inception_4b/output_inception_4b/output_0_split
I0807 20:12:51.517647 11967 net.cpp:406] inception_4b/output_inception_4b/output_0_split <- inception_4b/output
I0807 20:12:51.517655 11967 net.cpp:380] inception_4b/output_inception_4b/output_0_split -> inception_4b/output_inception_4b/output_0_split_0
I0807 20:12:51.517668 11967 net.cpp:380] inception_4b/output_inception_4b/output_0_split -> inception_4b/output_inception_4b/output_0_split_1
I0807 20:12:51.517678 11967 net.cpp:380] inception_4b/output_inception_4b/output_0_split -> inception_4b/output_inception_4b/output_0_split_2
I0807 20:12:51.517688 11967 net.cpp:380] inception_4b/output_inception_4b/output_0_split -> inception_4b/output_inception_4b/output_0_split_3
I0807 20:12:51.517772 11967 net.cpp:122] Setting up inception_4b/output_inception_4b/output_0_split
I0807 20:12:51.517786 11967 net.cpp:129] Top shape: 20 512 14 14 (2007040)
I0807 20:12:51.517793 11967 net.cpp:129] Top shape: 20 512 14 14 (2007040)
I0807 20:12:51.517801 11967 net.cpp:129] Top shape: 20 512 14 14 (2007040)
I0807 20:12:51.517813 11967 net.cpp:129] Top shape: 20 512 14 14 (2007040)
I0807 20:12:51.517825 11967 net.cpp:137] Memory required for data: 856980884
I0807 20:12:51.517832 11967 layer_factory.hpp:77] Creating layer inception_4c/1x1
I0807 20:12:51.517845 11967 net.cpp:84] Creating Layer inception_4c/1x1
I0807 20:12:51.517853 11967 net.cpp:406] inception_4c/1x1 <- inception_4b/output_inception_4b/output_0_split_0
I0807 20:12:51.517865 11967 net.cpp:380] inception_4c/1x1 -> inception_4c/1x1
I0807 20:12:51.520015 11967 net.cpp:122] Setting up inception_4c/1x1
I0807 20:12:51.520035 11967 net.cpp:129] Top shape: 20 128 14 14 (501760)
I0807 20:12:51.520041 11967 net.cpp:137] Memory required for data: 858987924
I0807 20:12:51.520051 11967 layer_factory.hpp:77] Creating layer inception_4c/relu_1x1
I0807 20:12:51.520063 11967 net.cpp:84] Creating Layer inception_4c/relu_1x1
I0807 20:12:51.520071 11967 net.cpp:406] inception_4c/relu_1x1 <- inception_4c/1x1
I0807 20:12:51.520081 11967 net.cpp:367] inception_4c/relu_1x1 -> inception_4c/1x1 (in-place)
I0807 20:12:51.520329 11967 net.cpp:122] Setting up inception_4c/relu_1x1
I0807 20:12:51.520347 11967 net.cpp:129] Top shape: 20 128 14 14 (501760)
I0807 20:12:51.520354 11967 net.cpp:137] Memory required for data: 860994964
I0807 20:12:51.520361 11967 layer_factory.hpp:77] Creating layer inception_4c/3x3_reduce
I0807 20:12:51.520377 11967 net.cpp:84] Creating Layer inception_4c/3x3_reduce
I0807 20:12:51.520385 11967 net.cpp:406] inception_4c/3x3_reduce <- inception_4b/output_inception_4b/output_0_split_1
I0807 20:12:51.520398 11967 net.cpp:380] inception_4c/3x3_reduce -> inception_4c/3x3_reduce
I0807 20:12:51.522317 11967 net.cpp:122] Setting up inception_4c/3x3_reduce
I0807 20:12:51.522336 11967 net.cpp:129] Top shape: 20 128 14 14 (501760)
I0807 20:12:51.522346 11967 net.cpp:137] Memory required for data: 863002004
I0807 20:12:51.522357 11967 layer_factory.hpp:77] Creating layer inception_4c/relu_3x3_reduce
I0807 20:12:51.522367 11967 net.cpp:84] Creating Layer inception_4c/relu_3x3_reduce
I0807 20:12:51.522374 11967 net.cpp:406] inception_4c/relu_3x3_reduce <- inception_4c/3x3_reduce
I0807 20:12:51.522383 11967 net.cpp:367] inception_4c/relu_3x3_reduce -> inception_4c/3x3_reduce (in-place)
I0807 20:12:51.522851 11967 net.cpp:122] Setting up inception_4c/relu_3x3_reduce
I0807 20:12:51.522871 11967 net.cpp:129] Top shape: 20 128 14 14 (501760)
I0807 20:12:51.522877 11967 net.cpp:137] Memory required for data: 865009044
I0807 20:12:51.522884 11967 layer_factory.hpp:77] Creating layer inception_4c/3x3
I0807 20:12:51.522900 11967 net.cpp:84] Creating Layer inception_4c/3x3
I0807 20:12:51.522908 11967 net.cpp:406] inception_4c/3x3 <- inception_4c/3x3_reduce
I0807 20:12:51.522918 11967 net.cpp:380] inception_4c/3x3 -> inception_4c/3x3
I0807 20:12:51.527130 11967 net.cpp:122] Setting up inception_4c/3x3
I0807 20:12:51.527149 11967 net.cpp:129] Top shape: 20 256 14 14 (1003520)
I0807 20:12:51.527158 11967 net.cpp:137] Memory required for data: 869023124
I0807 20:12:51.527182 11967 layer_factory.hpp:77] Creating layer inception_4c/relu_3x3
I0807 20:12:51.527194 11967 net.cpp:84] Creating Layer inception_4c/relu_3x3
I0807 20:12:51.527202 11967 net.cpp:406] inception_4c/relu_3x3 <- inception_4c/3x3
I0807 20:12:51.527210 11967 net.cpp:367] inception_4c/relu_3x3 -> inception_4c/3x3 (in-place)
I0807 20:12:51.527431 11967 net.cpp:122] Setting up inception_4c/relu_3x3
I0807 20:12:51.527446 11967 net.cpp:129] Top shape: 20 256 14 14 (1003520)
I0807 20:12:51.527452 11967 net.cpp:137] Memory required for data: 873037204
I0807 20:12:51.527460 11967 layer_factory.hpp:77] Creating layer inception_4c/5x5_reduce
I0807 20:12:51.527477 11967 net.cpp:84] Creating Layer inception_4c/5x5_reduce
I0807 20:12:51.527485 11967 net.cpp:406] inception_4c/5x5_reduce <- inception_4b/output_inception_4b/output_0_split_2
I0807 20:12:51.527495 11967 net.cpp:380] inception_4c/5x5_reduce -> inception_4c/5x5_reduce
I0807 20:12:51.529122 11967 net.cpp:122] Setting up inception_4c/5x5_reduce
I0807 20:12:51.529140 11967 net.cpp:129] Top shape: 20 24 14 14 (94080)
I0807 20:12:51.529153 11967 net.cpp:137] Memory required for data: 873413524
I0807 20:12:51.529170 11967 layer_factory.hpp:77] Creating layer inception_4c/relu_5x5_reduce
I0807 20:12:51.529186 11967 net.cpp:84] Creating Layer inception_4c/relu_5x5_reduce
I0807 20:12:51.529194 11967 net.cpp:406] inception_4c/relu_5x5_reduce <- inception_4c/5x5_reduce
I0807 20:12:51.529206 11967 net.cpp:367] inception_4c/relu_5x5_reduce -> inception_4c/5x5_reduce (in-place)
I0807 20:12:51.529678 11967 net.cpp:122] Setting up inception_4c/relu_5x5_reduce
I0807 20:12:51.529697 11967 net.cpp:129] Top shape: 20 24 14 14 (94080)
I0807 20:12:51.529706 11967 net.cpp:137] Memory required for data: 873789844
I0807 20:12:51.529712 11967 layer_factory.hpp:77] Creating layer inception_4c/5x5
I0807 20:12:51.529726 11967 net.cpp:84] Creating Layer inception_4c/5x5
I0807 20:12:51.529734 11967 net.cpp:406] inception_4c/5x5 <- inception_4c/5x5_reduce
I0807 20:12:51.529745 11967 net.cpp:380] inception_4c/5x5 -> inception_4c/5x5
I0807 20:12:51.532004 11967 net.cpp:122] Setting up inception_4c/5x5
I0807 20:12:51.532027 11967 net.cpp:129] Top shape: 20 64 14 14 (250880)
I0807 20:12:51.532034 11967 net.cpp:137] Memory required for data: 874793364
I0807 20:12:51.532045 11967 layer_factory.hpp:77] Creating layer inception_4c/relu_5x5
I0807 20:12:51.532058 11967 net.cpp:84] Creating Layer inception_4c/relu_5x5
I0807 20:12:51.532065 11967 net.cpp:406] inception_4c/relu_5x5 <- inception_4c/5x5
I0807 20:12:51.532074 11967 net.cpp:367] inception_4c/relu_5x5 -> inception_4c/5x5 (in-place)
I0807 20:12:51.532552 11967 net.cpp:122] Setting up inception_4c/relu_5x5
I0807 20:12:51.532568 11967 net.cpp:129] Top shape: 20 64 14 14 (250880)
I0807 20:12:51.532575 11967 net.cpp:137] Memory required for data: 875796884
I0807 20:12:51.532584 11967 layer_factory.hpp:77] Creating layer inception_4c/pool
I0807 20:12:51.532608 11967 net.cpp:84] Creating Layer inception_4c/pool
I0807 20:12:51.532615 11967 net.cpp:406] inception_4c/pool <- inception_4b/output_inception_4b/output_0_split_3
I0807 20:12:51.532627 11967 net.cpp:380] inception_4c/pool -> inception_4c/pool
I0807 20:12:51.532692 11967 net.cpp:122] Setting up inception_4c/pool
I0807 20:12:51.532706 11967 net.cpp:129] Top shape: 20 512 14 14 (2007040)
I0807 20:12:51.532712 11967 net.cpp:137] Memory required for data: 883825044
I0807 20:12:51.532718 11967 layer_factory.hpp:77] Creating layer inception_4c/pool_proj
I0807 20:12:51.532734 11967 net.cpp:84] Creating Layer inception_4c/pool_proj
I0807 20:12:51.532742 11967 net.cpp:406] inception_4c/pool_proj <- inception_4c/pool
I0807 20:12:51.532752 11967 net.cpp:380] inception_4c/pool_proj -> inception_4c/pool_proj
I0807 20:12:51.534471 11967 net.cpp:122] Setting up inception_4c/pool_proj
I0807 20:12:51.534489 11967 net.cpp:129] Top shape: 20 64 14 14 (250880)
I0807 20:12:51.534497 11967 net.cpp:137] Memory required for data: 884828564
I0807 20:12:51.534507 11967 layer_factory.hpp:77] Creating layer inception_4c/relu_pool_proj
I0807 20:12:51.534519 11967 net.cpp:84] Creating Layer inception_4c/relu_pool_proj
I0807 20:12:51.534528 11967 net.cpp:406] inception_4c/relu_pool_proj <- inception_4c/pool_proj
I0807 20:12:51.534536 11967 net.cpp:367] inception_4c/relu_pool_proj -> inception_4c/pool_proj (in-place)
I0807 20:12:51.534754 11967 net.cpp:122] Setting up inception_4c/relu_pool_proj
I0807 20:12:51.534768 11967 net.cpp:129] Top shape: 20 64 14 14 (250880)
I0807 20:12:51.534775 11967 net.cpp:137] Memory required for data: 885832084
I0807 20:12:51.534782 11967 layer_factory.hpp:77] Creating layer inception_4c/output
I0807 20:12:51.534795 11967 net.cpp:84] Creating Layer inception_4c/output
I0807 20:12:51.534802 11967 net.cpp:406] inception_4c/output <- inception_4c/1x1
I0807 20:12:51.534811 11967 net.cpp:406] inception_4c/output <- inception_4c/3x3
I0807 20:12:51.534818 11967 net.cpp:406] inception_4c/output <- inception_4c/5x5
I0807 20:12:51.534826 11967 net.cpp:406] inception_4c/output <- inception_4c/pool_proj
I0807 20:12:51.534837 11967 net.cpp:380] inception_4c/output -> inception_4c/output
I0807 20:12:51.534884 11967 net.cpp:122] Setting up inception_4c/output
I0807 20:12:51.534904 11967 net.cpp:129] Top shape: 20 512 14 14 (2007040)
I0807 20:12:51.534911 11967 net.cpp:137] Memory required for data: 893860244
I0807 20:12:51.534919 11967 layer_factory.hpp:77] Creating layer inception_4c/output_inception_4c/output_0_split
I0807 20:12:51.534929 11967 net.cpp:84] Creating Layer inception_4c/output_inception_4c/output_0_split
I0807 20:12:51.534936 11967 net.cpp:406] inception_4c/output_inception_4c/output_0_split <- inception_4c/output
I0807 20:12:51.534947 11967 net.cpp:380] inception_4c/output_inception_4c/output_0_split -> inception_4c/output_inception_4c/output_0_split_0
I0807 20:12:51.534958 11967 net.cpp:380] inception_4c/output_inception_4c/output_0_split -> inception_4c/output_inception_4c/output_0_split_1
I0807 20:12:51.534968 11967 net.cpp:380] inception_4c/output_inception_4c/output_0_split -> inception_4c/output_inception_4c/output_0_split_2
I0807 20:12:51.534983 11967 net.cpp:380] inception_4c/output_inception_4c/output_0_split -> inception_4c/output_inception_4c/output_0_split_3
I0807 20:12:51.535075 11967 net.cpp:122] Setting up inception_4c/output_inception_4c/output_0_split
I0807 20:12:51.535089 11967 net.cpp:129] Top shape: 20 512 14 14 (2007040)
I0807 20:12:51.535096 11967 net.cpp:129] Top shape: 20 512 14 14 (2007040)
I0807 20:12:51.535104 11967 net.cpp:129] Top shape: 20 512 14 14 (2007040)
I0807 20:12:51.535111 11967 net.cpp:129] Top shape: 20 512 14 14 (2007040)
I0807 20:12:51.535117 11967 net.cpp:137] Memory required for data: 925972884
I0807 20:12:51.535125 11967 layer_factory.hpp:77] Creating layer inception_4d/1x1
I0807 20:12:51.535138 11967 net.cpp:84] Creating Layer inception_4d/1x1
I0807 20:12:51.535146 11967 net.cpp:406] inception_4d/1x1 <- inception_4c/output_inception_4c/output_0_split_0
I0807 20:12:51.535156 11967 net.cpp:380] inception_4d/1x1 -> inception_4d/1x1
I0807 20:12:51.537062 11967 net.cpp:122] Setting up inception_4d/1x1
I0807 20:12:51.537081 11967 net.cpp:129] Top shape: 20 112 14 14 (439040)
I0807 20:12:51.537088 11967 net.cpp:137] Memory required for data: 927729044
I0807 20:12:51.537098 11967 layer_factory.hpp:77] Creating layer inception_4d/relu_1x1
I0807 20:12:51.537111 11967 net.cpp:84] Creating Layer inception_4d/relu_1x1
I0807 20:12:51.537119 11967 net.cpp:406] inception_4d/relu_1x1 <- inception_4d/1x1
I0807 20:12:51.537128 11967 net.cpp:367] inception_4d/relu_1x1 -> inception_4d/1x1 (in-place)
I0807 20:12:51.537595 11967 net.cpp:122] Setting up inception_4d/relu_1x1
I0807 20:12:51.537611 11967 net.cpp:129] Top shape: 20 112 14 14 (439040)
I0807 20:12:51.537618 11967 net.cpp:137] Memory required for data: 929485204
I0807 20:12:51.537627 11967 layer_factory.hpp:77] Creating layer inception_4d/3x3_reduce
I0807 20:12:51.537643 11967 net.cpp:84] Creating Layer inception_4d/3x3_reduce
I0807 20:12:51.537652 11967 net.cpp:406] inception_4d/3x3_reduce <- inception_4c/output_inception_4c/output_0_split_1
I0807 20:12:51.537665 11967 net.cpp:380] inception_4d/3x3_reduce -> inception_4d/3x3_reduce
I0807 20:12:51.539710 11967 net.cpp:122] Setting up inception_4d/3x3_reduce
I0807 20:12:51.539728 11967 net.cpp:129] Top shape: 20 144 14 14 (564480)
I0807 20:12:51.539736 11967 net.cpp:137] Memory required for data: 931743124
I0807 20:12:51.539746 11967 layer_factory.hpp:77] Creating layer inception_4d/relu_3x3_reduce
I0807 20:12:51.539755 11967 net.cpp:84] Creating Layer inception_4d/relu_3x3_reduce
I0807 20:12:51.539763 11967 net.cpp:406] inception_4d/relu_3x3_reduce <- inception_4d/3x3_reduce
I0807 20:12:51.539772 11967 net.cpp:367] inception_4d/relu_3x3_reduce -> inception_4d/3x3_reduce (in-place)
I0807 20:12:51.539990 11967 net.cpp:122] Setting up inception_4d/relu_3x3_reduce
I0807 20:12:51.540005 11967 net.cpp:129] Top shape: 20 144 14 14 (564480)
I0807 20:12:51.540012 11967 net.cpp:137] Memory required for data: 934001044
I0807 20:12:51.540019 11967 layer_factory.hpp:77] Creating layer inception_4d/3x3
I0807 20:12:51.540033 11967 net.cpp:84] Creating Layer inception_4d/3x3
I0807 20:12:51.540052 11967 net.cpp:406] inception_4d/3x3 <- inception_4d/3x3_reduce
I0807 20:12:51.540066 11967 net.cpp:380] inception_4d/3x3 -> inception_4d/3x3
I0807 20:12:51.545197 11967 net.cpp:122] Setting up inception_4d/3x3
I0807 20:12:51.545219 11967 net.cpp:129] Top shape: 20 288 14 14 (1128960)
I0807 20:12:51.545239 11967 net.cpp:137] Memory required for data: 938516884
I0807 20:12:51.545250 11967 layer_factory.hpp:77] Creating layer inception_4d/relu_3x3
I0807 20:12:51.545262 11967 net.cpp:84] Creating Layer inception_4d/relu_3x3
I0807 20:12:51.545270 11967 net.cpp:406] inception_4d/relu_3x3 <- inception_4d/3x3
I0807 20:12:51.545279 11967 net.cpp:367] inception_4d/relu_3x3 -> inception_4d/3x3 (in-place)
I0807 20:12:51.545764 11967 net.cpp:122] Setting up inception_4d/relu_3x3
I0807 20:12:51.545780 11967 net.cpp:129] Top shape: 20 288 14 14 (1128960)
I0807 20:12:51.545789 11967 net.cpp:137] Memory required for data: 943032724
I0807 20:12:51.545796 11967 layer_factory.hpp:77] Creating layer inception_4d/5x5_reduce
I0807 20:12:51.545811 11967 net.cpp:84] Creating Layer inception_4d/5x5_reduce
I0807 20:12:51.545819 11967 net.cpp:406] inception_4d/5x5_reduce <- inception_4c/output_inception_4c/output_0_split_2
I0807 20:12:51.545832 11967 net.cpp:380] inception_4d/5x5_reduce -> inception_4d/5x5_reduce
I0807 20:12:51.547494 11967 net.cpp:122] Setting up inception_4d/5x5_reduce
I0807 20:12:51.547513 11967 net.cpp:129] Top shape: 20 32 14 14 (125440)
I0807 20:12:51.547520 11967 net.cpp:137] Memory required for data: 943534484
I0807 20:12:51.547530 11967 layer_factory.hpp:77] Creating layer inception_4d/relu_5x5_reduce
I0807 20:12:51.547544 11967 net.cpp:84] Creating Layer inception_4d/relu_5x5_reduce
I0807 20:12:51.547552 11967 net.cpp:406] inception_4d/relu_5x5_reduce <- inception_4d/5x5_reduce
I0807 20:12:51.547561 11967 net.cpp:367] inception_4d/relu_5x5_reduce -> inception_4d/5x5_reduce (in-place)
I0807 20:12:51.548022 11967 net.cpp:122] Setting up inception_4d/relu_5x5_reduce
I0807 20:12:51.548039 11967 net.cpp:129] Top shape: 20 32 14 14 (125440)
I0807 20:12:51.548046 11967 net.cpp:137] Memory required for data: 944036244
I0807 20:12:51.548053 11967 layer_factory.hpp:77] Creating layer inception_4d/5x5
I0807 20:12:51.548070 11967 net.cpp:84] Creating Layer inception_4d/5x5
I0807 20:12:51.548079 11967 net.cpp:406] inception_4d/5x5 <- inception_4d/5x5_reduce
I0807 20:12:51.548089 11967 net.cpp:380] inception_4d/5x5 -> inception_4d/5x5
I0807 20:12:51.549962 11967 net.cpp:122] Setting up inception_4d/5x5
I0807 20:12:51.549980 11967 net.cpp:129] Top shape: 20 64 14 14 (250880)
I0807 20:12:51.549988 11967 net.cpp:137] Memory required for data: 945039764
I0807 20:12:51.549998 11967 layer_factory.hpp:77] Creating layer inception_4d/relu_5x5
I0807 20:12:51.550007 11967 net.cpp:84] Creating Layer inception_4d/relu_5x5
I0807 20:12:51.550014 11967 net.cpp:406] inception_4d/relu_5x5 <- inception_4d/5x5
I0807 20:12:51.550026 11967 net.cpp:367] inception_4d/relu_5x5 -> inception_4d/5x5 (in-place)
I0807 20:12:51.550247 11967 net.cpp:122] Setting up inception_4d/relu_5x5
I0807 20:12:51.550263 11967 net.cpp:129] Top shape: 20 64 14 14 (250880)
I0807 20:12:51.550271 11967 net.cpp:137] Memory required for data: 946043284
I0807 20:12:51.550278 11967 layer_factory.hpp:77] Creating layer inception_4d/pool
I0807 20:12:51.550292 11967 net.cpp:84] Creating Layer inception_4d/pool
I0807 20:12:51.550299 11967 net.cpp:406] inception_4d/pool <- inception_4c/output_inception_4c/output_0_split_3
I0807 20:12:51.550308 11967 net.cpp:380] inception_4d/pool -> inception_4d/pool
I0807 20:12:51.550379 11967 net.cpp:122] Setting up inception_4d/pool
I0807 20:12:51.550392 11967 net.cpp:129] Top shape: 20 512 14 14 (2007040)
I0807 20:12:51.550400 11967 net.cpp:137] Memory required for data: 954071444
I0807 20:12:51.550406 11967 layer_factory.hpp:77] Creating layer inception_4d/pool_proj
I0807 20:12:51.550420 11967 net.cpp:84] Creating Layer inception_4d/pool_proj
I0807 20:12:51.550428 11967 net.cpp:406] inception_4d/pool_proj <- inception_4d/pool
I0807 20:12:51.550443 11967 net.cpp:380] inception_4d/pool_proj -> inception_4d/pool_proj
I0807 20:12:51.552206 11967 net.cpp:122] Setting up inception_4d/pool_proj
I0807 20:12:51.552224 11967 net.cpp:129] Top shape: 20 64 14 14 (250880)
I0807 20:12:51.552232 11967 net.cpp:137] Memory required for data: 955074964
I0807 20:12:51.552242 11967 layer_factory.hpp:77] Creating layer inception_4d/relu_pool_proj
I0807 20:12:51.552253 11967 net.cpp:84] Creating Layer inception_4d/relu_pool_proj
I0807 20:12:51.552261 11967 net.cpp:406] inception_4d/relu_pool_proj <- inception_4d/pool_proj
I0807 20:12:51.552271 11967 net.cpp:367] inception_4d/relu_pool_proj -> inception_4d/pool_proj (in-place)
I0807 20:12:51.552739 11967 net.cpp:122] Setting up inception_4d/relu_pool_proj
I0807 20:12:51.552755 11967 net.cpp:129] Top shape: 20 64 14 14 (250880)
I0807 20:12:51.552762 11967 net.cpp:137] Memory required for data: 956078484
I0807 20:12:51.552769 11967 layer_factory.hpp:77] Creating layer inception_4d/output
I0807 20:12:51.552783 11967 net.cpp:84] Creating Layer inception_4d/output
I0807 20:12:51.552790 11967 net.cpp:406] inception_4d/output <- inception_4d/1x1
I0807 20:12:51.552798 11967 net.cpp:406] inception_4d/output <- inception_4d/3x3
I0807 20:12:51.552806 11967 net.cpp:406] inception_4d/output <- inception_4d/5x5
I0807 20:12:51.552814 11967 net.cpp:406] inception_4d/output <- inception_4d/pool_proj
I0807 20:12:51.552822 11967 net.cpp:380] inception_4d/output -> inception_4d/output
I0807 20:12:51.552868 11967 net.cpp:122] Setting up inception_4d/output
I0807 20:12:51.552881 11967 net.cpp:129] Top shape: 20 528 14 14 (2069760)
I0807 20:12:51.552888 11967 net.cpp:137] Memory required for data: 964357524
I0807 20:12:51.552896 11967 layer_factory.hpp:77] Creating layer inception_4d/output_inception_4d/output_0_split
I0807 20:12:51.552906 11967 net.cpp:84] Creating Layer inception_4d/output_inception_4d/output_0_split
I0807 20:12:51.552912 11967 net.cpp:406] inception_4d/output_inception_4d/output_0_split <- inception_4d/output
I0807 20:12:51.552924 11967 net.cpp:380] inception_4d/output_inception_4d/output_0_split -> inception_4d/output_inception_4d/output_0_split_0
I0807 20:12:51.552935 11967 net.cpp:380] inception_4d/output_inception_4d/output_0_split -> inception_4d/output_inception_4d/output_0_split_1
I0807 20:12:51.552945 11967 net.cpp:380] inception_4d/output_inception_4d/output_0_split -> inception_4d/output_inception_4d/output_0_split_2
I0807 20:12:51.552956 11967 net.cpp:380] inception_4d/output_inception_4d/output_0_split -> inception_4d/output_inception_4d/output_0_split_3
I0807 20:12:51.552965 11967 net.cpp:380] inception_4d/output_inception_4d/output_0_split -> inception_4d/output_inception_4d/output_0_split_4
I0807 20:12:51.553078 11967 net.cpp:122] Setting up inception_4d/output_inception_4d/output_0_split
I0807 20:12:51.553092 11967 net.cpp:129] Top shape: 20 528 14 14 (2069760)
I0807 20:12:51.553099 11967 net.cpp:129] Top shape: 20 528 14 14 (2069760)
I0807 20:12:51.553107 11967 net.cpp:129] Top shape: 20 528 14 14 (2069760)
I0807 20:12:51.553114 11967 net.cpp:129] Top shape: 20 528 14 14 (2069760)
I0807 20:12:51.553122 11967 net.cpp:129] Top shape: 20 528 14 14 (2069760)
I0807 20:12:51.553128 11967 net.cpp:137] Memory required for data: 1005752724
I0807 20:12:51.553134 11967 layer_factory.hpp:77] Creating layer loss2/ave_pool
I0807 20:12:51.553146 11967 net.cpp:84] Creating Layer loss2/ave_pool
I0807 20:12:51.553154 11967 net.cpp:406] loss2/ave_pool <- inception_4d/output_inception_4d/output_0_split_0
I0807 20:12:51.553164 11967 net.cpp:380] loss2/ave_pool -> loss2/ave_pool
I0807 20:12:51.553407 11967 net.cpp:122] Setting up loss2/ave_pool
I0807 20:12:51.553422 11967 net.cpp:129] Top shape: 20 528 4 4 (168960)
I0807 20:12:51.553429 11967 net.cpp:137] Memory required for data: 1006428564
I0807 20:12:51.553436 11967 layer_factory.hpp:77] Creating layer loss2/conv
I0807 20:12:51.553450 11967 net.cpp:84] Creating Layer loss2/conv
I0807 20:12:51.553458 11967 net.cpp:406] loss2/conv <- loss2/ave_pool
I0807 20:12:51.553475 11967 net.cpp:380] loss2/conv -> loss2/conv
I0807 20:12:51.555971 11967 net.cpp:122] Setting up loss2/conv
I0807 20:12:51.555994 11967 net.cpp:129] Top shape: 20 128 4 4 (40960)
I0807 20:12:51.556001 11967 net.cpp:137] Memory required for data: 1006592404
I0807 20:12:51.556012 11967 layer_factory.hpp:77] Creating layer loss2/relu_conv
I0807 20:12:51.556025 11967 net.cpp:84] Creating Layer loss2/relu_conv
I0807 20:12:51.556032 11967 net.cpp:406] loss2/relu_conv <- loss2/conv
I0807 20:12:51.556041 11967 net.cpp:367] loss2/relu_conv -> loss2/conv (in-place)
I0807 20:12:51.556509 11967 net.cpp:122] Setting up loss2/relu_conv
I0807 20:12:51.556525 11967 net.cpp:129] Top shape: 20 128 4 4 (40960)
I0807 20:12:51.556532 11967 net.cpp:137] Memory required for data: 1006756244
I0807 20:12:51.556541 11967 layer_factory.hpp:77] Creating layer loss2/fc
I0807 20:12:51.556555 11967 net.cpp:84] Creating Layer loss2/fc
I0807 20:12:51.556563 11967 net.cpp:406] loss2/fc <- loss2/conv
I0807 20:12:51.556576 11967 net.cpp:380] loss2/fc -> loss2/fc
I0807 20:12:51.573783 11967 net.cpp:122] Setting up loss2/fc
I0807 20:12:51.573812 11967 net.cpp:129] Top shape: 20 1024 (20480)
I0807 20:12:51.573819 11967 net.cpp:137] Memory required for data: 1006838164
I0807 20:12:51.573832 11967 layer_factory.hpp:77] Creating layer loss2/relu_fc
I0807 20:12:51.573843 11967 net.cpp:84] Creating Layer loss2/relu_fc
I0807 20:12:51.573849 11967 net.cpp:406] loss2/relu_fc <- loss2/fc
I0807 20:12:51.573861 11967 net.cpp:367] loss2/relu_fc -> loss2/fc (in-place)
I0807 20:12:51.574360 11967 net.cpp:122] Setting up loss2/relu_fc
I0807 20:12:51.574378 11967 net.cpp:129] Top shape: 20 1024 (20480)
I0807 20:12:51.574385 11967 net.cpp:137] Memory required for data: 1006920084
I0807 20:12:51.574393 11967 layer_factory.hpp:77] Creating layer loss2/drop_fc
I0807 20:12:51.574405 11967 net.cpp:84] Creating Layer loss2/drop_fc
I0807 20:12:51.574414 11967 net.cpp:406] loss2/drop_fc <- loss2/fc
I0807 20:12:51.574422 11967 net.cpp:367] loss2/drop_fc -> loss2/fc (in-place)
I0807 20:12:51.574470 11967 net.cpp:122] Setting up loss2/drop_fc
I0807 20:12:51.574482 11967 net.cpp:129] Top shape: 20 1024 (20480)
I0807 20:12:51.574488 11967 net.cpp:137] Memory required for data: 1007002004
I0807 20:12:51.574496 11967 layer_factory.hpp:77] Creating layer my-loss2/classifier
I0807 20:12:51.574507 11967 net.cpp:84] Creating Layer my-loss2/classifier
I0807 20:12:51.574514 11967 net.cpp:406] my-loss2/classifier <- loss2/fc
I0807 20:12:51.574527 11967 net.cpp:380] my-loss2/classifier -> my-loss2/classifier
I0807 20:12:51.574695 11967 net.cpp:122] Setting up my-loss2/classifier
I0807 20:12:51.574709 11967 net.cpp:129] Top shape: 20 1 (20)
I0807 20:12:51.574717 11967 net.cpp:137] Memory required for data: 1007002084
I0807 20:12:51.574726 11967 layer_factory.hpp:77] Creating layer loss2/loss
I0807 20:12:51.574738 11967 net.cpp:84] Creating Layer loss2/loss
I0807 20:12:51.574746 11967 net.cpp:406] loss2/loss <- my-loss2/classifier
I0807 20:12:51.574755 11967 net.cpp:406] loss2/loss <- label_data_1_split_1
I0807 20:12:51.574764 11967 net.cpp:380] loss2/loss -> loss2/loss
I0807 20:12:51.574827 11967 net.cpp:122] Setting up loss2/loss
I0807 20:12:51.574841 11967 net.cpp:129] Top shape: (1)
I0807 20:12:51.574847 11967 net.cpp:132]     with loss weight 0.3
I0807 20:12:51.574864 11967 net.cpp:137] Memory required for data: 1007002088
I0807 20:12:51.574872 11967 layer_factory.hpp:77] Creating layer inception_4e/1x1
I0807 20:12:51.574887 11967 net.cpp:84] Creating Layer inception_4e/1x1
I0807 20:12:51.574894 11967 net.cpp:406] inception_4e/1x1 <- inception_4d/output_inception_4d/output_0_split_1
I0807 20:12:51.574906 11967 net.cpp:380] inception_4e/1x1 -> inception_4e/1x1
I0807 20:12:51.577399 11967 net.cpp:122] Setting up inception_4e/1x1
I0807 20:12:51.577417 11967 net.cpp:129] Top shape: 20 256 14 14 (1003520)
I0807 20:12:51.577425 11967 net.cpp:137] Memory required for data: 1011016168
I0807 20:12:51.577435 11967 layer_factory.hpp:77] Creating layer inception_4e/relu_1x1
I0807 20:12:51.577455 11967 net.cpp:84] Creating Layer inception_4e/relu_1x1
I0807 20:12:51.577471 11967 net.cpp:406] inception_4e/relu_1x1 <- inception_4e/1x1
I0807 20:12:51.577479 11967 net.cpp:367] inception_4e/relu_1x1 -> inception_4e/1x1 (in-place)
I0807 20:12:51.577699 11967 net.cpp:122] Setting up inception_4e/relu_1x1
I0807 20:12:51.577714 11967 net.cpp:129] Top shape: 20 256 14 14 (1003520)
I0807 20:12:51.577720 11967 net.cpp:137] Memory required for data: 1015030248
I0807 20:12:51.577729 11967 layer_factory.hpp:77] Creating layer inception_4e/3x3_reduce
I0807 20:12:51.577747 11967 net.cpp:84] Creating Layer inception_4e/3x3_reduce
I0807 20:12:51.577756 11967 net.cpp:406] inception_4e/3x3_reduce <- inception_4d/output_inception_4d/output_0_split_2
I0807 20:12:51.577766 11967 net.cpp:380] inception_4e/3x3_reduce -> inception_4e/3x3_reduce
I0807 20:12:51.580384 11967 net.cpp:122] Setting up inception_4e/3x3_reduce
I0807 20:12:51.580402 11967 net.cpp:129] Top shape: 20 160 14 14 (627200)
I0807 20:12:51.580410 11967 net.cpp:137] Memory required for data: 1017539048
I0807 20:12:51.580420 11967 layer_factory.hpp:77] Creating layer inception_4e/relu_3x3_reduce
I0807 20:12:51.580430 11967 net.cpp:84] Creating Layer inception_4e/relu_3x3_reduce
I0807 20:12:51.580438 11967 net.cpp:406] inception_4e/relu_3x3_reduce <- inception_4e/3x3_reduce
I0807 20:12:51.580451 11967 net.cpp:367] inception_4e/relu_3x3_reduce -> inception_4e/3x3_reduce (in-place)
I0807 20:12:51.580925 11967 net.cpp:122] Setting up inception_4e/relu_3x3_reduce
I0807 20:12:51.580942 11967 net.cpp:129] Top shape: 20 160 14 14 (627200)
I0807 20:12:51.580950 11967 net.cpp:137] Memory required for data: 1020047848
I0807 20:12:51.580956 11967 layer_factory.hpp:77] Creating layer inception_4e/3x3
I0807 20:12:51.580972 11967 net.cpp:84] Creating Layer inception_4e/3x3
I0807 20:12:51.580981 11967 net.cpp:406] inception_4e/3x3 <- inception_4e/3x3_reduce
I0807 20:12:51.580993 11967 net.cpp:380] inception_4e/3x3 -> inception_4e/3x3
I0807 20:12:51.586665 11967 net.cpp:122] Setting up inception_4e/3x3
I0807 20:12:51.586690 11967 net.cpp:129] Top shape: 20 320 14 14 (1254400)
I0807 20:12:51.586699 11967 net.cpp:137] Memory required for data: 1025065448
I0807 20:12:51.586709 11967 layer_factory.hpp:77] Creating layer inception_4e/relu_3x3
I0807 20:12:51.586719 11967 net.cpp:84] Creating Layer inception_4e/relu_3x3
I0807 20:12:51.586727 11967 net.cpp:406] inception_4e/relu_3x3 <- inception_4e/3x3
I0807 20:12:51.586736 11967 net.cpp:367] inception_4e/relu_3x3 -> inception_4e/3x3 (in-place)
I0807 20:12:51.587201 11967 net.cpp:122] Setting up inception_4e/relu_3x3
I0807 20:12:51.587218 11967 net.cpp:129] Top shape: 20 320 14 14 (1254400)
I0807 20:12:51.587224 11967 net.cpp:137] Memory required for data: 1030083048
I0807 20:12:51.587232 11967 layer_factory.hpp:77] Creating layer inception_4e/5x5_reduce
I0807 20:12:51.587251 11967 net.cpp:84] Creating Layer inception_4e/5x5_reduce
I0807 20:12:51.587260 11967 net.cpp:406] inception_4e/5x5_reduce <- inception_4d/output_inception_4d/output_0_split_3
I0807 20:12:51.587272 11967 net.cpp:380] inception_4e/5x5_reduce -> inception_4e/5x5_reduce
I0807 20:12:51.588974 11967 net.cpp:122] Setting up inception_4e/5x5_reduce
I0807 20:12:51.588992 11967 net.cpp:129] Top shape: 20 32 14 14 (125440)
I0807 20:12:51.588999 11967 net.cpp:137] Memory required for data: 1030584808
I0807 20:12:51.589010 11967 layer_factory.hpp:77] Creating layer inception_4e/relu_5x5_reduce
I0807 20:12:51.589023 11967 net.cpp:84] Creating Layer inception_4e/relu_5x5_reduce
I0807 20:12:51.589031 11967 net.cpp:406] inception_4e/relu_5x5_reduce <- inception_4e/5x5_reduce
I0807 20:12:51.589040 11967 net.cpp:367] inception_4e/relu_5x5_reduce -> inception_4e/5x5_reduce (in-place)
I0807 20:12:51.589514 11967 net.cpp:122] Setting up inception_4e/relu_5x5_reduce
I0807 20:12:51.589530 11967 net.cpp:129] Top shape: 20 32 14 14 (125440)
I0807 20:12:51.589537 11967 net.cpp:137] Memory required for data: 1031086568
I0807 20:12:51.589545 11967 layer_factory.hpp:77] Creating layer inception_4e/5x5
I0807 20:12:51.589581 11967 net.cpp:84] Creating Layer inception_4e/5x5
I0807 20:12:51.589599 11967 net.cpp:406] inception_4e/5x5 <- inception_4e/5x5_reduce
I0807 20:12:51.589610 11967 net.cpp:380] inception_4e/5x5 -> inception_4e/5x5
I0807 20:12:51.591857 11967 net.cpp:122] Setting up inception_4e/5x5
I0807 20:12:51.591876 11967 net.cpp:129] Top shape: 20 128 14 14 (501760)
I0807 20:12:51.591883 11967 net.cpp:137] Memory required for data: 1033093608
I0807 20:12:51.591894 11967 layer_factory.hpp:77] Creating layer inception_4e/relu_5x5
I0807 20:12:51.591905 11967 net.cpp:84] Creating Layer inception_4e/relu_5x5
I0807 20:12:51.591913 11967 net.cpp:406] inception_4e/relu_5x5 <- inception_4e/5x5
I0807 20:12:51.591925 11967 net.cpp:367] inception_4e/relu_5x5 -> inception_4e/5x5 (in-place)
I0807 20:12:51.592417 11967 net.cpp:122] Setting up inception_4e/relu_5x5
I0807 20:12:51.592433 11967 net.cpp:129] Top shape: 20 128 14 14 (501760)
I0807 20:12:51.592440 11967 net.cpp:137] Memory required for data: 1035100648
I0807 20:12:51.592448 11967 layer_factory.hpp:77] Creating layer inception_4e/pool
I0807 20:12:51.592459 11967 net.cpp:84] Creating Layer inception_4e/pool
I0807 20:12:51.592468 11967 net.cpp:406] inception_4e/pool <- inception_4d/output_inception_4d/output_0_split_4
I0807 20:12:51.592478 11967 net.cpp:380] inception_4e/pool -> inception_4e/pool
I0807 20:12:51.592551 11967 net.cpp:122] Setting up inception_4e/pool
I0807 20:12:51.592566 11967 net.cpp:129] Top shape: 20 528 14 14 (2069760)
I0807 20:12:51.592571 11967 net.cpp:137] Memory required for data: 1043379688
I0807 20:12:51.592578 11967 layer_factory.hpp:77] Creating layer inception_4e/pool_proj
I0807 20:12:51.592594 11967 net.cpp:84] Creating Layer inception_4e/pool_proj
I0807 20:12:51.592602 11967 net.cpp:406] inception_4e/pool_proj <- inception_4e/pool
I0807 20:12:51.592612 11967 net.cpp:380] inception_4e/pool_proj -> inception_4e/pool_proj
I0807 20:12:51.594638 11967 net.cpp:122] Setting up inception_4e/pool_proj
I0807 20:12:51.594660 11967 net.cpp:129] Top shape: 20 128 14 14 (501760)
I0807 20:12:51.594667 11967 net.cpp:137] Memory required for data: 1045386728
I0807 20:12:51.594678 11967 layer_factory.hpp:77] Creating layer inception_4e/relu_pool_proj
I0807 20:12:51.594689 11967 net.cpp:84] Creating Layer inception_4e/relu_pool_proj
I0807 20:12:51.594697 11967 net.cpp:406] inception_4e/relu_pool_proj <- inception_4e/pool_proj
I0807 20:12:51.594708 11967 net.cpp:367] inception_4e/relu_pool_proj -> inception_4e/pool_proj (in-place)
I0807 20:12:51.594925 11967 net.cpp:122] Setting up inception_4e/relu_pool_proj
I0807 20:12:51.594940 11967 net.cpp:129] Top shape: 20 128 14 14 (501760)
I0807 20:12:51.594947 11967 net.cpp:137] Memory required for data: 1047393768
I0807 20:12:51.594954 11967 layer_factory.hpp:77] Creating layer inception_4e/output
I0807 20:12:51.594965 11967 net.cpp:84] Creating Layer inception_4e/output
I0807 20:12:51.594972 11967 net.cpp:406] inception_4e/output <- inception_4e/1x1
I0807 20:12:51.594980 11967 net.cpp:406] inception_4e/output <- inception_4e/3x3
I0807 20:12:51.594988 11967 net.cpp:406] inception_4e/output <- inception_4e/5x5
I0807 20:12:51.594996 11967 net.cpp:406] inception_4e/output <- inception_4e/pool_proj
I0807 20:12:51.595006 11967 net.cpp:380] inception_4e/output -> inception_4e/output
I0807 20:12:51.595055 11967 net.cpp:122] Setting up inception_4e/output
I0807 20:12:51.595068 11967 net.cpp:129] Top shape: 20 832 14 14 (3261440)
I0807 20:12:51.595075 11967 net.cpp:137] Memory required for data: 1060439528
I0807 20:12:51.595082 11967 layer_factory.hpp:77] Creating layer pool4/3x3_s2
I0807 20:12:51.595090 11967 net.cpp:84] Creating Layer pool4/3x3_s2
I0807 20:12:51.595098 11967 net.cpp:406] pool4/3x3_s2 <- inception_4e/output
I0807 20:12:51.595108 11967 net.cpp:380] pool4/3x3_s2 -> pool4/3x3_s2
I0807 20:12:51.595175 11967 net.cpp:122] Setting up pool4/3x3_s2
I0807 20:12:51.595188 11967 net.cpp:129] Top shape: 20 832 7 7 (815360)
I0807 20:12:51.595194 11967 net.cpp:137] Memory required for data: 1063700968
I0807 20:12:51.595206 11967 layer_factory.hpp:77] Creating layer pool4/3x3_s2_pool4/3x3_s2_0_split
I0807 20:12:51.595224 11967 net.cpp:84] Creating Layer pool4/3x3_s2_pool4/3x3_s2_0_split
I0807 20:12:51.595232 11967 net.cpp:406] pool4/3x3_s2_pool4/3x3_s2_0_split <- pool4/3x3_s2
I0807 20:12:51.595243 11967 net.cpp:380] pool4/3x3_s2_pool4/3x3_s2_0_split -> pool4/3x3_s2_pool4/3x3_s2_0_split_0
I0807 20:12:51.595254 11967 net.cpp:380] pool4/3x3_s2_pool4/3x3_s2_0_split -> pool4/3x3_s2_pool4/3x3_s2_0_split_1
I0807 20:12:51.595264 11967 net.cpp:380] pool4/3x3_s2_pool4/3x3_s2_0_split -> pool4/3x3_s2_pool4/3x3_s2_0_split_2
I0807 20:12:51.595273 11967 net.cpp:380] pool4/3x3_s2_pool4/3x3_s2_0_split -> pool4/3x3_s2_pool4/3x3_s2_0_split_3
I0807 20:12:51.595376 11967 net.cpp:122] Setting up pool4/3x3_s2_pool4/3x3_s2_0_split
I0807 20:12:51.595389 11967 net.cpp:129] Top shape: 20 832 7 7 (815360)
I0807 20:12:51.595397 11967 net.cpp:129] Top shape: 20 832 7 7 (815360)
I0807 20:12:51.595405 11967 net.cpp:129] Top shape: 20 832 7 7 (815360)
I0807 20:12:51.595412 11967 net.cpp:129] Top shape: 20 832 7 7 (815360)
I0807 20:12:51.595419 11967 net.cpp:137] Memory required for data: 1076746728
I0807 20:12:51.595425 11967 layer_factory.hpp:77] Creating layer inception_5a/1x1
I0807 20:12:51.595440 11967 net.cpp:84] Creating Layer inception_5a/1x1
I0807 20:12:51.595448 11967 net.cpp:406] inception_5a/1x1 <- pool4/3x3_s2_pool4/3x3_s2_0_split_0
I0807 20:12:51.595458 11967 net.cpp:380] inception_5a/1x1 -> inception_5a/1x1
I0807 20:12:51.598934 11967 net.cpp:122] Setting up inception_5a/1x1
I0807 20:12:51.598955 11967 net.cpp:129] Top shape: 20 256 7 7 (250880)
I0807 20:12:51.598964 11967 net.cpp:137] Memory required for data: 1077750248
I0807 20:12:51.598975 11967 layer_factory.hpp:77] Creating layer inception_5a/relu_1x1
I0807 20:12:51.598987 11967 net.cpp:84] Creating Layer inception_5a/relu_1x1
I0807 20:12:51.598994 11967 net.cpp:406] inception_5a/relu_1x1 <- inception_5a/1x1
I0807 20:12:51.599006 11967 net.cpp:367] inception_5a/relu_1x1 -> inception_5a/1x1 (in-place)
I0807 20:12:51.599488 11967 net.cpp:122] Setting up inception_5a/relu_1x1
I0807 20:12:51.599504 11967 net.cpp:129] Top shape: 20 256 7 7 (250880)
I0807 20:12:51.599511 11967 net.cpp:137] Memory required for data: 1078753768
I0807 20:12:51.599519 11967 layer_factory.hpp:77] Creating layer inception_5a/3x3_reduce
I0807 20:12:51.599536 11967 net.cpp:84] Creating Layer inception_5a/3x3_reduce
I0807 20:12:51.599547 11967 net.cpp:406] inception_5a/3x3_reduce <- pool4/3x3_s2_pool4/3x3_s2_0_split_1
I0807 20:12:51.599558 11967 net.cpp:380] inception_5a/3x3_reduce -> inception_5a/3x3_reduce
I0807 20:12:51.602586 11967 net.cpp:122] Setting up inception_5a/3x3_reduce
I0807 20:12:51.602604 11967 net.cpp:129] Top shape: 20 160 7 7 (156800)
I0807 20:12:51.602612 11967 net.cpp:137] Memory required for data: 1079380968
I0807 20:12:51.602622 11967 layer_factory.hpp:77] Creating layer inception_5a/relu_3x3_reduce
I0807 20:12:51.602634 11967 net.cpp:84] Creating Layer inception_5a/relu_3x3_reduce
I0807 20:12:51.602643 11967 net.cpp:406] inception_5a/relu_3x3_reduce <- inception_5a/3x3_reduce
I0807 20:12:51.602651 11967 net.cpp:367] inception_5a/relu_3x3_reduce -> inception_5a/3x3_reduce (in-place)
I0807 20:12:51.602874 11967 net.cpp:122] Setting up inception_5a/relu_3x3_reduce
I0807 20:12:51.602888 11967 net.cpp:129] Top shape: 20 160 7 7 (156800)
I0807 20:12:51.602895 11967 net.cpp:137] Memory required for data: 1080008168
I0807 20:12:51.602902 11967 layer_factory.hpp:77] Creating layer inception_5a/3x3
I0807 20:12:51.602917 11967 net.cpp:84] Creating Layer inception_5a/3x3
I0807 20:12:51.602926 11967 net.cpp:406] inception_5a/3x3 <- inception_5a/3x3_reduce
I0807 20:12:51.602937 11967 net.cpp:380] inception_5a/3x3 -> inception_5a/3x3
I0807 20:12:51.608611 11967 net.cpp:122] Setting up inception_5a/3x3
I0807 20:12:51.608630 11967 net.cpp:129] Top shape: 20 320 7 7 (313600)
I0807 20:12:51.608639 11967 net.cpp:137] Memory required for data: 1081262568
I0807 20:12:51.608652 11967 layer_factory.hpp:77] Creating layer inception_5a/relu_3x3
I0807 20:12:51.608667 11967 net.cpp:84] Creating Layer inception_5a/relu_3x3
I0807 20:12:51.608681 11967 net.cpp:406] inception_5a/relu_3x3 <- inception_5a/3x3
I0807 20:12:51.608690 11967 net.cpp:367] inception_5a/relu_3x3 -> inception_5a/3x3 (in-place)
I0807 20:12:51.609175 11967 net.cpp:122] Setting up inception_5a/relu_3x3
I0807 20:12:51.609194 11967 net.cpp:129] Top shape: 20 320 7 7 (313600)
I0807 20:12:51.609202 11967 net.cpp:137] Memory required for data: 1082516968
I0807 20:12:51.609221 11967 layer_factory.hpp:77] Creating layer inception_5a/5x5_reduce
I0807 20:12:51.609238 11967 net.cpp:84] Creating Layer inception_5a/5x5_reduce
I0807 20:12:51.609247 11967 net.cpp:406] inception_5a/5x5_reduce <- pool4/3x3_s2_pool4/3x3_s2_0_split_2
I0807 20:12:51.609261 11967 net.cpp:380] inception_5a/5x5_reduce -> inception_5a/5x5_reduce
I0807 20:12:51.611093 11967 net.cpp:122] Setting up inception_5a/5x5_reduce
I0807 20:12:51.611112 11967 net.cpp:129] Top shape: 20 32 7 7 (31360)
I0807 20:12:51.611119 11967 net.cpp:137] Memory required for data: 1082642408
I0807 20:12:51.611130 11967 layer_factory.hpp:77] Creating layer inception_5a/relu_5x5_reduce
I0807 20:12:51.611140 11967 net.cpp:84] Creating Layer inception_5a/relu_5x5_reduce
I0807 20:12:51.611148 11967 net.cpp:406] inception_5a/relu_5x5_reduce <- inception_5a/5x5_reduce
I0807 20:12:51.611160 11967 net.cpp:367] inception_5a/relu_5x5_reduce -> inception_5a/5x5_reduce (in-place)
I0807 20:12:51.611726 11967 net.cpp:122] Setting up inception_5a/relu_5x5_reduce
I0807 20:12:51.611742 11967 net.cpp:129] Top shape: 20 32 7 7 (31360)
I0807 20:12:51.611750 11967 net.cpp:137] Memory required for data: 1082767848
I0807 20:12:51.611757 11967 layer_factory.hpp:77] Creating layer inception_5a/5x5
I0807 20:12:51.611770 11967 net.cpp:84] Creating Layer inception_5a/5x5
I0807 20:12:51.611778 11967 net.cpp:406] inception_5a/5x5 <- inception_5a/5x5_reduce
I0807 20:12:51.611788 11967 net.cpp:380] inception_5a/5x5 -> inception_5a/5x5
I0807 20:12:51.614053 11967 net.cpp:122] Setting up inception_5a/5x5
I0807 20:12:51.614078 11967 net.cpp:129] Top shape: 20 128 7 7 (125440)
I0807 20:12:51.614086 11967 net.cpp:137] Memory required for data: 1083269608
I0807 20:12:51.614099 11967 layer_factory.hpp:77] Creating layer inception_5a/relu_5x5
I0807 20:12:51.614109 11967 net.cpp:84] Creating Layer inception_5a/relu_5x5
I0807 20:12:51.614116 11967 net.cpp:406] inception_5a/relu_5x5 <- inception_5a/5x5
I0807 20:12:51.614125 11967 net.cpp:367] inception_5a/relu_5x5 -> inception_5a/5x5 (in-place)
I0807 20:12:51.614608 11967 net.cpp:122] Setting up inception_5a/relu_5x5
I0807 20:12:51.614624 11967 net.cpp:129] Top shape: 20 128 7 7 (125440)
I0807 20:12:51.614631 11967 net.cpp:137] Memory required for data: 1083771368
I0807 20:12:51.614639 11967 layer_factory.hpp:77] Creating layer inception_5a/pool
I0807 20:12:51.614648 11967 net.cpp:84] Creating Layer inception_5a/pool
I0807 20:12:51.614655 11967 net.cpp:406] inception_5a/pool <- pool4/3x3_s2_pool4/3x3_s2_0_split_3
I0807 20:12:51.614667 11967 net.cpp:380] inception_5a/pool -> inception_5a/pool
I0807 20:12:51.614740 11967 net.cpp:122] Setting up inception_5a/pool
I0807 20:12:51.614754 11967 net.cpp:129] Top shape: 20 832 7 7 (815360)
I0807 20:12:51.614761 11967 net.cpp:137] Memory required for data: 1087032808
I0807 20:12:51.614768 11967 layer_factory.hpp:77] Creating layer inception_5a/pool_proj
I0807 20:12:51.614784 11967 net.cpp:84] Creating Layer inception_5a/pool_proj
I0807 20:12:51.614792 11967 net.cpp:406] inception_5a/pool_proj <- inception_5a/pool
I0807 20:12:51.614802 11967 net.cpp:380] inception_5a/pool_proj -> inception_5a/pool_proj
I0807 20:12:51.617640 11967 net.cpp:122] Setting up inception_5a/pool_proj
I0807 20:12:51.617658 11967 net.cpp:129] Top shape: 20 128 7 7 (125440)
I0807 20:12:51.617666 11967 net.cpp:137] Memory required for data: 1087534568
I0807 20:12:51.617677 11967 layer_factory.hpp:77] Creating layer inception_5a/relu_pool_proj
I0807 20:12:51.617688 11967 net.cpp:84] Creating Layer inception_5a/relu_pool_proj
I0807 20:12:51.617703 11967 net.cpp:406] inception_5a/relu_pool_proj <- inception_5a/pool_proj
I0807 20:12:51.617722 11967 net.cpp:367] inception_5a/relu_pool_proj -> inception_5a/pool_proj (in-place)
I0807 20:12:51.618213 11967 net.cpp:122] Setting up inception_5a/relu_pool_proj
I0807 20:12:51.618230 11967 net.cpp:129] Top shape: 20 128 7 7 (125440)
I0807 20:12:51.618237 11967 net.cpp:137] Memory required for data: 1088036328
I0807 20:12:51.618244 11967 layer_factory.hpp:77] Creating layer inception_5a/output
I0807 20:12:51.618253 11967 net.cpp:84] Creating Layer inception_5a/output
I0807 20:12:51.618261 11967 net.cpp:406] inception_5a/output <- inception_5a/1x1
I0807 20:12:51.618269 11967 net.cpp:406] inception_5a/output <- inception_5a/3x3
I0807 20:12:51.618278 11967 net.cpp:406] inception_5a/output <- inception_5a/5x5
I0807 20:12:51.618284 11967 net.cpp:406] inception_5a/output <- inception_5a/pool_proj
I0807 20:12:51.618295 11967 net.cpp:380] inception_5a/output -> inception_5a/output
I0807 20:12:51.618345 11967 net.cpp:122] Setting up inception_5a/output
I0807 20:12:51.618357 11967 net.cpp:129] Top shape: 20 832 7 7 (815360)
I0807 20:12:51.618363 11967 net.cpp:137] Memory required for data: 1091297768
I0807 20:12:51.618371 11967 layer_factory.hpp:77] Creating layer inception_5a/output_inception_5a/output_0_split
I0807 20:12:51.618379 11967 net.cpp:84] Creating Layer inception_5a/output_inception_5a/output_0_split
I0807 20:12:51.618386 11967 net.cpp:406] inception_5a/output_inception_5a/output_0_split <- inception_5a/output
I0807 20:12:51.618396 11967 net.cpp:380] inception_5a/output_inception_5a/output_0_split -> inception_5a/output_inception_5a/output_0_split_0
I0807 20:12:51.618408 11967 net.cpp:380] inception_5a/output_inception_5a/output_0_split -> inception_5a/output_inception_5a/output_0_split_1
I0807 20:12:51.618420 11967 net.cpp:380] inception_5a/output_inception_5a/output_0_split -> inception_5a/output_inception_5a/output_0_split_2
I0807 20:12:51.618430 11967 net.cpp:380] inception_5a/output_inception_5a/output_0_split -> inception_5a/output_inception_5a/output_0_split_3
I0807 20:12:51.618536 11967 net.cpp:122] Setting up inception_5a/output_inception_5a/output_0_split
I0807 20:12:51.618549 11967 net.cpp:129] Top shape: 20 832 7 7 (815360)
I0807 20:12:51.618557 11967 net.cpp:129] Top shape: 20 832 7 7 (815360)
I0807 20:12:51.618566 11967 net.cpp:129] Top shape: 20 832 7 7 (815360)
I0807 20:12:51.618572 11967 net.cpp:129] Top shape: 20 832 7 7 (815360)
I0807 20:12:51.618578 11967 net.cpp:137] Memory required for data: 1104343528
I0807 20:12:51.618585 11967 layer_factory.hpp:77] Creating layer inception_5b/1x1
I0807 20:12:51.618604 11967 net.cpp:84] Creating Layer inception_5b/1x1
I0807 20:12:51.618613 11967 net.cpp:406] inception_5b/1x1 <- inception_5a/output_inception_5a/output_0_split_0
I0807 20:12:51.618623 11967 net.cpp:380] inception_5b/1x1 -> inception_5b/1x1
I0807 20:12:51.622932 11967 net.cpp:122] Setting up inception_5b/1x1
I0807 20:12:51.622953 11967 net.cpp:129] Top shape: 20 384 7 7 (376320)
I0807 20:12:51.622962 11967 net.cpp:137] Memory required for data: 1105848808
I0807 20:12:51.622974 11967 layer_factory.hpp:77] Creating layer inception_5b/relu_1x1
I0807 20:12:51.622984 11967 net.cpp:84] Creating Layer inception_5b/relu_1x1
I0807 20:12:51.622992 11967 net.cpp:406] inception_5b/relu_1x1 <- inception_5b/1x1
I0807 20:12:51.623001 11967 net.cpp:367] inception_5b/relu_1x1 -> inception_5b/1x1 (in-place)
I0807 20:12:51.623226 11967 net.cpp:122] Setting up inception_5b/relu_1x1
I0807 20:12:51.623241 11967 net.cpp:129] Top shape: 20 384 7 7 (376320)
I0807 20:12:51.623248 11967 net.cpp:137] Memory required for data: 1107354088
I0807 20:12:51.623255 11967 layer_factory.hpp:77] Creating layer inception_5b/3x3_reduce
I0807 20:12:51.623270 11967 net.cpp:84] Creating Layer inception_5b/3x3_reduce
I0807 20:12:51.623277 11967 net.cpp:406] inception_5b/3x3_reduce <- inception_5a/output_inception_5a/output_0_split_1
I0807 20:12:51.623291 11967 net.cpp:380] inception_5b/3x3_reduce -> inception_5b/3x3_reduce
I0807 20:12:51.626507 11967 net.cpp:122] Setting up inception_5b/3x3_reduce
I0807 20:12:51.626533 11967 net.cpp:129] Top shape: 20 192 7 7 (188160)
I0807 20:12:51.626540 11967 net.cpp:137] Memory required for data: 1108106728
I0807 20:12:51.626551 11967 layer_factory.hpp:77] Creating layer inception_5b/relu_3x3_reduce
I0807 20:12:51.626564 11967 net.cpp:84] Creating Layer inception_5b/relu_3x3_reduce
I0807 20:12:51.626572 11967 net.cpp:406] inception_5b/relu_3x3_reduce <- inception_5b/3x3_reduce
I0807 20:12:51.626583 11967 net.cpp:367] inception_5b/relu_3x3_reduce -> inception_5b/3x3_reduce (in-place)
I0807 20:12:51.627068 11967 net.cpp:122] Setting up inception_5b/relu_3x3_reduce
I0807 20:12:51.627084 11967 net.cpp:129] Top shape: 20 192 7 7 (188160)
I0807 20:12:51.627092 11967 net.cpp:137] Memory required for data: 1108859368
I0807 20:12:51.627099 11967 layer_factory.hpp:77] Creating layer inception_5b/3x3
I0807 20:12:51.627113 11967 net.cpp:84] Creating Layer inception_5b/3x3
I0807 20:12:51.627122 11967 net.cpp:406] inception_5b/3x3 <- inception_5b/3x3_reduce
I0807 20:12:51.627132 11967 net.cpp:380] inception_5b/3x3 -> inception_5b/3x3
I0807 20:12:51.634795 11967 net.cpp:122] Setting up inception_5b/3x3
I0807 20:12:51.634832 11967 net.cpp:129] Top shape: 20 384 7 7 (376320)
I0807 20:12:51.634841 11967 net.cpp:137] Memory required for data: 1110364648
I0807 20:12:51.634852 11967 layer_factory.hpp:77] Creating layer inception_5b/relu_3x3
I0807 20:12:51.634865 11967 net.cpp:84] Creating Layer inception_5b/relu_3x3
I0807 20:12:51.634874 11967 net.cpp:406] inception_5b/relu_3x3 <- inception_5b/3x3
I0807 20:12:51.634896 11967 net.cpp:367] inception_5b/relu_3x3 -> inception_5b/3x3 (in-place)
I0807 20:12:51.635386 11967 net.cpp:122] Setting up inception_5b/relu_3x3
I0807 20:12:51.635402 11967 net.cpp:129] Top shape: 20 384 7 7 (376320)
I0807 20:12:51.635409 11967 net.cpp:137] Memory required for data: 1111869928
I0807 20:12:51.635416 11967 layer_factory.hpp:77] Creating layer inception_5b/5x5_reduce
I0807 20:12:51.635434 11967 net.cpp:84] Creating Layer inception_5b/5x5_reduce
I0807 20:12:51.635443 11967 net.cpp:406] inception_5b/5x5_reduce <- inception_5a/output_inception_5a/output_0_split_2
I0807 20:12:51.635453 11967 net.cpp:380] inception_5b/5x5_reduce -> inception_5b/5x5_reduce
I0807 20:12:51.638063 11967 net.cpp:122] Setting up inception_5b/5x5_reduce
I0807 20:12:51.638082 11967 net.cpp:129] Top shape: 20 48 7 7 (47040)
I0807 20:12:51.638089 11967 net.cpp:137] Memory required for data: 1112058088
I0807 20:12:51.638100 11967 layer_factory.hpp:77] Creating layer inception_5b/relu_5x5_reduce
I0807 20:12:51.638109 11967 net.cpp:84] Creating Layer inception_5b/relu_5x5_reduce
I0807 20:12:51.638118 11967 net.cpp:406] inception_5b/relu_5x5_reduce <- inception_5b/5x5_reduce
I0807 20:12:51.638130 11967 net.cpp:367] inception_5b/relu_5x5_reduce -> inception_5b/5x5_reduce (in-place)
I0807 20:12:51.638363 11967 net.cpp:122] Setting up inception_5b/relu_5x5_reduce
I0807 20:12:51.638378 11967 net.cpp:129] Top shape: 20 48 7 7 (47040)
I0807 20:12:51.638386 11967 net.cpp:137] Memory required for data: 1112246248
I0807 20:12:51.638391 11967 layer_factory.hpp:77] Creating layer inception_5b/5x5
I0807 20:12:51.638407 11967 net.cpp:84] Creating Layer inception_5b/5x5
I0807 20:12:51.638415 11967 net.cpp:406] inception_5b/5x5 <- inception_5b/5x5_reduce
I0807 20:12:51.638428 11967 net.cpp:380] inception_5b/5x5 -> inception_5b/5x5
I0807 20:12:51.641108 11967 net.cpp:122] Setting up inception_5b/5x5
I0807 20:12:51.641126 11967 net.cpp:129] Top shape: 20 128 7 7 (125440)
I0807 20:12:51.641137 11967 net.cpp:137] Memory required for data: 1112748008
I0807 20:12:51.641147 11967 layer_factory.hpp:77] Creating layer inception_5b/relu_5x5
I0807 20:12:51.641158 11967 net.cpp:84] Creating Layer inception_5b/relu_5x5
I0807 20:12:51.641166 11967 net.cpp:406] inception_5b/relu_5x5 <- inception_5b/5x5
I0807 20:12:51.641175 11967 net.cpp:367] inception_5b/relu_5x5 -> inception_5b/5x5 (in-place)
I0807 20:12:51.641669 11967 net.cpp:122] Setting up inception_5b/relu_5x5
I0807 20:12:51.641700 11967 net.cpp:129] Top shape: 20 128 7 7 (125440)
I0807 20:12:51.641715 11967 net.cpp:137] Memory required for data: 1113249768
I0807 20:12:51.641721 11967 layer_factory.hpp:77] Creating layer inception_5b/pool
I0807 20:12:51.641731 11967 net.cpp:84] Creating Layer inception_5b/pool
I0807 20:12:51.641739 11967 net.cpp:406] inception_5b/pool <- inception_5a/output_inception_5a/output_0_split_3
I0807 20:12:51.641749 11967 net.cpp:380] inception_5b/pool -> inception_5b/pool
I0807 20:12:51.641827 11967 net.cpp:122] Setting up inception_5b/pool
I0807 20:12:51.641840 11967 net.cpp:129] Top shape: 20 832 7 7 (815360)
I0807 20:12:51.641847 11967 net.cpp:137] Memory required for data: 1116511208
I0807 20:12:51.641854 11967 layer_factory.hpp:77] Creating layer inception_5b/pool_proj
I0807 20:12:51.641868 11967 net.cpp:84] Creating Layer inception_5b/pool_proj
I0807 20:12:51.641876 11967 net.cpp:406] inception_5b/pool_proj <- inception_5b/pool
I0807 20:12:51.641888 11967 net.cpp:380] inception_5b/pool_proj -> inception_5b/pool_proj
I0807 20:12:51.644922 11967 net.cpp:122] Setting up inception_5b/pool_proj
I0807 20:12:51.644943 11967 net.cpp:129] Top shape: 20 128 7 7 (125440)
I0807 20:12:51.644951 11967 net.cpp:137] Memory required for data: 1117012968
I0807 20:12:51.644961 11967 layer_factory.hpp:77] Creating layer inception_5b/relu_pool_proj
I0807 20:12:51.644973 11967 net.cpp:84] Creating Layer inception_5b/relu_pool_proj
I0807 20:12:51.644980 11967 net.cpp:406] inception_5b/relu_pool_proj <- inception_5b/pool_proj
I0807 20:12:51.644989 11967 net.cpp:367] inception_5b/relu_pool_proj -> inception_5b/pool_proj (in-place)
I0807 20:12:51.645226 11967 net.cpp:122] Setting up inception_5b/relu_pool_proj
I0807 20:12:51.645243 11967 net.cpp:129] Top shape: 20 128 7 7 (125440)
I0807 20:12:51.645251 11967 net.cpp:137] Memory required for data: 1117514728
I0807 20:12:51.645257 11967 layer_factory.hpp:77] Creating layer inception_5b/output
I0807 20:12:51.645275 11967 net.cpp:84] Creating Layer inception_5b/output
I0807 20:12:51.645283 11967 net.cpp:406] inception_5b/output <- inception_5b/1x1
I0807 20:12:51.645292 11967 net.cpp:406] inception_5b/output <- inception_5b/3x3
I0807 20:12:51.645299 11967 net.cpp:406] inception_5b/output <- inception_5b/5x5
I0807 20:12:51.645308 11967 net.cpp:406] inception_5b/output <- inception_5b/pool_proj
I0807 20:12:51.645315 11967 net.cpp:380] inception_5b/output -> inception_5b/output
I0807 20:12:51.645365 11967 net.cpp:122] Setting up inception_5b/output
I0807 20:12:51.645378 11967 net.cpp:129] Top shape: 20 1024 7 7 (1003520)
I0807 20:12:51.645385 11967 net.cpp:137] Memory required for data: 1121528808
I0807 20:12:51.645391 11967 layer_factory.hpp:77] Creating layer pool5/7x7_s1
I0807 20:12:51.645401 11967 net.cpp:84] Creating Layer pool5/7x7_s1
I0807 20:12:51.645408 11967 net.cpp:406] pool5/7x7_s1 <- inception_5b/output
I0807 20:12:51.645421 11967 net.cpp:380] pool5/7x7_s1 -> pool5/7x7_s1
I0807 20:12:51.645941 11967 net.cpp:122] Setting up pool5/7x7_s1
I0807 20:12:51.645961 11967 net.cpp:129] Top shape: 20 1024 1 1 (20480)
I0807 20:12:51.645968 11967 net.cpp:137] Memory required for data: 1121610728
I0807 20:12:51.645975 11967 layer_factory.hpp:77] Creating layer pool5/drop_7x7_s1
I0807 20:12:51.645985 11967 net.cpp:84] Creating Layer pool5/drop_7x7_s1
I0807 20:12:51.645993 11967 net.cpp:406] pool5/drop_7x7_s1 <- pool5/7x7_s1
I0807 20:12:51.646001 11967 net.cpp:367] pool5/drop_7x7_s1 -> pool5/7x7_s1 (in-place)
I0807 20:12:51.646051 11967 net.cpp:122] Setting up pool5/drop_7x7_s1
I0807 20:12:51.646071 11967 net.cpp:129] Top shape: 20 1024 1 1 (20480)
I0807 20:12:51.646080 11967 net.cpp:137] Memory required for data: 1121692648
I0807 20:12:51.646085 11967 layer_factory.hpp:77] Creating layer my-loss3/classifier
I0807 20:12:51.646100 11967 net.cpp:84] Creating Layer my-loss3/classifier
I0807 20:12:51.646108 11967 net.cpp:406] my-loss3/classifier <- pool5/7x7_s1
I0807 20:12:51.646117 11967 net.cpp:380] my-loss3/classifier -> my-loss3/classifier
I0807 20:12:51.646318 11967 net.cpp:122] Setting up my-loss3/classifier
I0807 20:12:51.646343 11967 net.cpp:129] Top shape: 20 1 (20)
I0807 20:12:51.646350 11967 net.cpp:137] Memory required for data: 1121692728
I0807 20:12:51.646360 11967 layer_factory.hpp:77] Creating layer loss3/loss
I0807 20:12:51.646370 11967 net.cpp:84] Creating Layer loss3/loss
I0807 20:12:51.646378 11967 net.cpp:406] loss3/loss <- my-loss3/classifier
I0807 20:12:51.646385 11967 net.cpp:406] loss3/loss <- label_data_1_split_2
I0807 20:12:51.646394 11967 net.cpp:380] loss3/loss -> loss3/loss
…
I0807 20:12:51.647806 11967 net.cpp:255] Network initialization done.
I0807 20:12:51.650987 11967 solver.cpp:172] Creating test net (#0) specified by net file: ./train_val.prototxt
I0807 20:12:51.651157 11967 net.cpp:294] The NetState phase (1) differed from the phase (0) specified by a rule in layer data
I0807 20:12:51.652081 11967 net.cpp:51] Initializing net from parameters: 
name: "GoogleNet"
state {
  phase: TEST
}
layer {
  name: "data"
  type: "HDF5Data"
  top: "data"
  top: "label"
  include {
    phase: TEST
  }
  hdf5_data_param {
    source: "./test_h5.txt"
    batch_size: 10
  }
}
layer {
  name: "conv1/7x7_s2"
  type: "Convolution"
  bottom: "data"
  top: "conv1/7x7_s2"
  param {
    lr_mult: 1
    decay_mult: 1
  }
  param {
    lr_mult: 2
    decay_mult: 0
  }
  convolution_param {
    num_output: 64
    pad: 3
    kernel_size: 7
    stride: 2
    weight_filler {
      type: "xavier"
    }
    bias_filler {
      type: "constant"
      value: 0.2
    }
  }
}
layer {
  name: "conv1/relu_7x7"
  type: "ReLU"
  bottom: "conv1/7x7_s2"
  top: "conv1/7x7_s2"
}
layer {
  name: "pool1/3x3_s2"
  type: "Pooling"
  bottom: "conv1/7x7_s2"
  top: "pool1/3x3_s2"
  pooling_param {
    pool: MAX
    kernel_size: 3
    stride: 2
  }
}
layer {
  name: "pool1/norm1"
  type: "LRN"
  bottom: "pool1/3x3_s2"
  top: "pool1/norm1"
  lrn_param {
    local_size: 5
    alpha: 0.0001
    beta: 0.75
  }
}
layer {
  name: "conv2/3x3_reduce"
  type: "Convolution"
  bottom: "pool1/norm1"
  top: "conv2/3x3_reduce"
  param {
    lr_mult: 1
    decay_mult: 1
  }
  param {
    lr_mult: 2
    decay_mult: 0
  }
  convolution_param {
    num_output: 64
    kernel_size: 1
    weight_filler {
      type: "xavier"
    }
    bias_filler {
      type: "constant"
      value: 0.2
    }
  }
}
layer {
  name: "conv2/relu_3x3_reduce"
  type: "ReLU"
  bottom: "conv2/3x3_reduce"
  top: "conv2/3x3_reduce"
}
layer {
  name: "conv2/3x3"
  type: "Convolution"
  bottom: "conv2/3x3_reduce"
  top: "conv2/3x3"
  param {
    lr_mult: 1
    decay_mult: 1
  }
  param {
    lr_mult: 2
    decay_mult: 0
  }
  convolution_param {
    num_output: 192
    pad: 1
    kernel_size: 3
    weight_filler {
      type: "xavier"
    }
    bias_filler {
      type: "constant"
      value: 0.2
    }
  }
}
layer {
  name: "conv2/relu_3x3"
  type: "ReLU"
  bottom: "conv2/3x3"
  top: "conv2/3x3"
}
layer {
  name: "conv2/norm2"
  type: "LRN"
  bottom: "conv2/3x3"
  top: "conv2/norm2"
  lrn_param {
    local_size: 5
    alpha: 0.0001
    beta: 0.75
  }
}
layer {
  name: "pool2/3x3_s2"
  type: "Pooling"
  bottom: "conv2/norm2"
  top: "pool2/3x3_s2"
  pooling_param {
    pool: MAX
    kernel_size: 3
    stride: 2
  }
}
layer {
  name: "inception_3a/1x1"
  type: "Convolution"
  bottom: "pool2/3x3_s2"
  top: "inception_3a/1x1"
  param {
    lr_mult: 1
    decay_mult: 1
  }
  param {
    lr_mult: 2
    decay_mult: 0
  }
  convolution_param {
    num_output: 64
    kernel_size: 1
    weight_filler {
      type: "xavier"
    }
    bias_filler {
      type: "constant"
      value: 0.2
    }
  }
}
layer {
  name: "inception_3a/relu_1x1"
  type: "ReLU"
  bottom: "inception_3a/1x1"
  top: "inception_3a/1x1"
}
layer {
  name: "inception_3a/3x3_reduce"
  type: "Convolution"
  bottom: "pool2/3x3_s2"
  top: "inception_3a/3x3_reduce"
  param {
    lr_mult: 1
    decay_mult: 1
  }
  param {
    lr_mult: 2
    decay_mult: 0
  }
  convolution_param {
    num_output: 96
    kernel_size: 1
    weight_filler {
      type: "xavier"
    }
    bias_filler {
      type: "constant"
      value: 0.2
    }
  }
}
layer {
  name: "inception_3a/relu_3x3_reduce"
  type: "ReLU"
  bottom: "inception_3a/3x3_reduce"
  top: "inception_3a/3x3_reduce"
}
layer {
  name: "inception_3a/3x3"
  type: "Convolution"
  bottom: "inception_3a/3x3_reduce"
  top: "inception_3a/3x3"
  param {
    lr_mult: 1
    decay_mult: 1
  }
  param {
    lr_mult: 2
    decay_mult: 0
  }
  convolution_param {
    num_output: 128
    pad: 1
    kernel_size: 3
    weight_filler {
      type: "xavier"
    }
    bias_filler {
      type: "constant"
      value: 0.2
    }
  }
}
layer {
  name: "inception_3a/relu_3x3"
  type: "ReLU"
  bottom: "inception_3a/3x3"
  top: "inception_3a/3x3"
}
layer {
  name: "inception_3a/5x5_reduce"
  type: "Convolution"
  bottom: "pool2/3x3_s2"
  top: "inception_3a/5x5_reduce"
  param {
    lr_mult: 1
    decay_mult: 1
  }
  param {
    lr_mult: 2
    decay_mult: 0
  }
  convolution_param {
    num_output: 16
    kernel_size: 1
    weight_filler {
      type: "xavier"
    }
    bias_filler {
      type: "constant"
      value: 0.2
    }
  }
}
layer {
  name: "inception_3a/relu_5x5_reduce"
  type: "ReLU"
  bottom: "inception_3a/5x5_reduce"
  top: "inception_3a/5x5_reduce"
}
layer {
  name: "inception_3a/5x5"
  type: "Convolution"
  bottom: "inception_3a/5x5_reduce"
  top: "inception_3a/5x5"
  param {
    lr_mult: 1
    decay_mult: 1
  }
  param {
    lr_mult: 2
    decay_mult: 0
  }
  convolution_param {
    num_output: 32
    pad: 2
    kernel_size: 5
    weight_filler {
      type: "xavier"
    }
    bias_filler {
      type: "constant"
      value: 0.2
    }
  }
}
layer {
  name: "inception_3a/relu_5x5"
  type: "ReLU"
  bottom: "inception_3a/5x5"
  top: "inception_3a/5x5"
}
layer {
  name: "inception_3a/pool"
  type: "Pooling"
  bottom: "pool2/3x3_s2"
  top: "inception_3a/pool"
  pooling_param {
    pool: MAX
    kernel_size: 3
    stride: 1
    pad: 1
  }
}
layer {
  name: "inception_3a/pool_proj"
  type: "Convolution"
  bottom: "inception_3a/pool"
  top: "inception_3a/pool_proj"
  param {
    lr_mult: 1
    decay_mult: 1
  }
  param {
    lr_mult: 2
    decay_mult: 0
  }
  convolution_param {
    num_output: 32
    kernel_size: 1
    weight_filler {
      type: "xavier"
    }
    bias_filler {
      type: "constant"
      value: 0.2
    }
  }
}
layer {
  name: "inception_3a/relu_pool_proj"
  type: "ReLU"
  bottom: "inception_3a/pool_proj"
  top: "inception_3a/pool_proj"
}
layer {
  name: "inception_3a/output"
  type: "Concat"
  bottom: "inception_3a/1x1"
  bottom: "inception_3a/3x3"
  bottom: "inception_3a/5x5"
  bottom: "inception_3a/pool_proj"
  top: "inception_3a/output"
}
layer {
  name: "inception_3b/1x1"
  type: "Convolution"
  bottom: "inception_3a/output"
  top: "inception_3b/1x1"
  param {
    lr_mult: 1
    decay_mult: 1
  }
  param {
    lr_mult: 2
    decay_mult: 0
  }
  convolution_param {
    num_output: 128
    kernel_size: 1
    weight_filler {
      type: "xavier"
    }
    bias_filler {
      type: "constant"
      value: 0.2
    }
  }
}
layer {
  name: "inception_3b/relu_1x1"
  type: "ReLU"
  bottom: "inception_3b/1x1"
  top: "inception_3b/1x1"
}
layer {
  name: "inception_3b/3x3_reduce"
  type: "Convolution"
  bottom: "inception_3a/output"
  top: "inception_3b/3x3_reduce"
  param {
    lr_mult: 1
    decay_mult: 1
  }
  param {
    lr_mult: 2
    decay_mult: 0
  }
  convolution_param {
    num_output: 128
    kernel_size: 1
    weight_filler {
      type: "xavier"
    }
    bias_filler {
      type: "constant"
      value: 0.2
    }
  }
}
layer {
  name: "inception_3b/relu_3x3_reduce"
  type: "ReLU"
  bottom: "inception_3b/3x3_reduce"
  top: "inception_3b/3x3_reduce"
}
layer {
  name: "inception_3b/3x3"
  type: "Convolution"
  bottom: "inception_3b/3x3_reduce"
  top: "inception_3b/3x3"
  param {
    lr_mult: 1
    decay_mult: 1
  }
  param {
    lr_mult: 2
    decay_mult: 0
  }
  convolution_param {
    num_output: 192
    pad: 1
    kernel_size: 3
    weight_filler {
      type: "xavier"
    }
    bias_filler {
      type: "constant"
      value: 0.2
    }
  }
}
layer {
  name: "inception_3b/relu_3x3"
  type: "ReLU"
  bottom: "inception_3b/3x3"
  top: "inception_3b/3x3"
}
layer {
  name: "inception_3b/5x5_reduce"
  type: "Convolution"
  bottom: "inception_3a/output"
  top: "inception_3b/5x5_reduce"
  param {
    lr_mult: 1
    decay_mult: 1
  }
  param {
    lr_mult: 2
    decay_mult: 0
  }
  convolution_param {
    num_output: 32
    kernel_size: 1
    weight_filler {
      type: "xavier"
    }
    bias_filler {
      type: "constant"
      value: 0.2
    }
  }
}
layer {
  name: "inception_3b/relu_5x5_reduce"
  type: "ReLU"
  bottom: "inception_3b/5x5_reduce"
  top: "inception_3b/5x5_reduce"
}
layer {
  name: "inception_3b/5x5"
  type: "Convolution"
  bottom: "inception_3b/5x5_reduce"
  top: "inception_3b/5x5"
  param {
    lr_mult: 1
    decay_mult: 1
  }
  param {
    lr_mult: 2
    decay_mult: 0
  }
  convolution_param {
    num_output: 96
    pad: 2
    kernel_size: 5
    weight_filler {
      type: "xavier"
    }
    bias_filler {
      type: "constant"
      value: 0.2
    }
  }
}
layer {
  name: "inception_3b/relu_5x5"
  type: "ReLU"
  bottom: "inception_3b/5x5"
  top: "inception_3b/5x5"
}
layer {
  name: "inception_3b/pool"
  type: "Pooling"
  bottom: "inception_3a/output"
  top: "inception_3b/pool"
  pooling_param {
    pool: MAX
    kernel_size: 3
    stride: 1
    pad: 1
  }
}
layer {
  name: "inception_3b/pool_proj"
  type: "Convolution"
  bottom: "inception_3b/pool"
  top: "inception_3b/pool_proj"
  param {
    lr_mult: 1
    decay_mult: 1
  }
  param {
    lr_mult: 2
    decay_mult: 0
  }
  convolution_param {
    num_output: 64
    kernel_size: 1
    weight_filler {
      type: "xavier"
    }
    bias_filler {
      type: "constant"
      value: 0.2
    }
  }
}
layer {
  name: "inception_3b/relu_pool_proj"
  type: "ReLU"
  bottom: "inception_3b/pool_proj"
  top: "inception_3b/pool_proj"
}
layer {
  name: "inception_3b/output"
  type: "Concat"
  bottom: "inception_3b/1x1"
  bottom: "inception_3b/3x3"
  bottom: "inception_3b/5x5"
  bottom: "inception_3b/pool_proj"
  top: "inception_3b/output"
}
layer {
  name: "pool3/3x3_s2"
  type: "Pooling"
  bottom: "inception_3b/output"
  top: "pool3/3x3_s2"
  pooling_param {
    pool: MAX
    kernel_size: 3
    stride: 2
  }
}
layer {
  name: "inception_4a/1x1"
  type: "Convolution"
  bottom: "pool3/3x3_s2"
  top: "inception_4a/1x1"
  param {
    lr_mult: 1
    decay_mult: 1
  }
  param {
    lr_mult: 2
    decay_mult: 0
  }
  convolution_param {
    num_output: 192
    kernel_size: 1
    weight_filler {
      type: "xavier"
    }
    bias_filler {
      type: "constant"
      value: 0.2
    }
  }
}
layer {
  name: "inception_4a/relu_1x1"
  type: "ReLU"
  bottom: "inception_4a/1x1"
  top: "inception_4a/1x1"
}
layer {
  name: "inception_4a/3x3_reduce"
  type: "Convolution"
  bottom: "pool3/3x3_s2"
  top: "inception_4a/3x3_reduce"
  param {
    lr_mult: 1
    decay_mult: 1
  }
  param {
    lr_mult: 2
    decay_mult: 0
  }
  convolution_param {
    num_output: 96
    kernel_size: 1
    weight_filler {
      type: "xavier"
    }
    bias_filler {
      type: "constant"
      value: 0.2
    }
  }
}
layer {
  name: "inception_4a/relu_3x3_reduce"
  type: "ReLU"
  bottom: "inception_4a/3x3_reduce"
  top: "inception_4a/3x3_reduce"
}
layer {
  name: "inception_4a/3x3"
  type: "Convolution"
  bottom: "inception_4a/3x3_reduce"
  top: "inception_4a/3x3"
  param {
    lr_mult: 1
    decay_mult: 1
  }
  param {
    lr_mult: 2
    decay_mult: 0
  }
  convolution_param {
    num_output: 208
    pad: 1
    kernel_size: 3
    weight_filler {
      type: "xavier"
    }
    bias_filler {
      type: "constant"
      value: 0.2
    }
  }
}
layer {
  name: "inception_4a/relu_3x3"
  type: "ReLU"
  bottom: "inception_4a/3x3"
  top: "inception_4a/3x3"
}
layer {
  name: "inception_4a/5x5_reduce"
  type: "Convolution"
  bottom: "pool3/3x3_s2"
  top: "inception_4a/5x5_reduce"
  param {
    lr_mult: 1
    decay_mult: 1
  }
  param {
    lr_mult: 2
    decay_mult: 0
  }
  convolution_param {
    num_output: 16
    kernel_size: 1
    weight_filler {
      type: "xavier"
    }
    bias_filler {
      type: "constant"
      value: 0.2
    }
  }
}
layer {
  name: "inception_4a/relu_5x5_reduce"
  type: "ReLU"
  bottom: "inception_4a/5x5_reduce"
  top: "inception_4a/5x5_reduce"
}
layer {
  name: "inception_4a/5x5"
  type: "Convolution"
  bottom: "inception_4a/5x5_reduce"
  top: "inception_4a/5x5"
  param {
    lr_mult: 1
    decay_mult: 1
  }
  param {
    lr_mult: 2
    decay_mult: 0
  }
  convolution_param {
    num_output: 48
    pad: 2
    kernel_size: 5
    weight_filler {
      type: "xavier"
    }
    bias_filler {
      type: "constant"
      value: 0.2
    }
  }
}
layer {
  name: "inception_4a/relu_5x5"
  type: "ReLU"
  bottom: "inception_4a/5x5"
  top: "inception_4a/5x5"
}
layer {
  name: "inception_4a/pool"
  type: "Pooling"
  bottom: "pool3/3x3_s2"
  top: "inception_4a/pool"
  pooling_param {
    pool: MAX
    kernel_size: 3
    stride: 1
    pad: 1
  }
}
layer {
  name: "inception_4a/pool_proj"
  type: "Convolution"
  bottom: "inception_4a/pool"
  top: "inception_4a/pool_proj"
  param {
    lr_mult: 1
    decay_mult: 1
  }
  param {
    lr_mult: 2
    decay_mult: 0
  }
  convolution_param {
    num_output: 64
    kernel_size: 1
    weight_filler {
      type: "xavier"
    }
    bias_filler {
      type: "constant"
      value: 0.2
    }
  }
}
layer {
  name: "inception_4a/relu_pool_proj"
  type: "ReLU"
  bottom: "inception_4a/pool_proj"
  top: "inception_4a/pool_proj"
}
layer {
  name: "inception_4a/output"
  type: "Concat"
  bottom: "inception_4a/1x1"
  bottom: "inception_4a/3x3"
  bottom: "inception_4a/5x5"
  bottom: "inception_4a/pool_proj"
  top: "inception_4a/output"
}
layer {
  name: "loss1/ave_pool"
  type: "Pooling"
  bottom: "inception_4a/output"
  top: "loss1/ave_pool"
  pooling_param {
    pool: AVE
    kernel_size: 5
    stride: 3
  }
}
layer {
  name: "loss1/conv"
  type: "Convolution"
  bottom: "loss1/ave_pool"
  top: "loss1/conv"
  param {
    lr_mult: 1
    decay_mult: 1
  }
  param {
    lr_mult: 2
    decay_mult: 0
  }
  convolution_param {
    num_output: 128
    kernel_size: 1
    weight_filler {
      type: "xavier"
    }
    bias_filler {
      type: "constant"
      value: 0.2
    }
  }
}
layer {
  name: "loss1/relu_conv"
  type: "ReLU"
  bottom: "loss1/conv"
  top: "loss1/conv"
}
layer {
  name: "loss1/fc"
  type: "InnerProduct"
  bottom: "loss1/conv"
  top: "loss1/fc"
  param {
    lr_mult: 1
    decay_mult: 1
  }
  param {
    lr_mult: 2
    decay_mult: 0
  }
  inner_product_param {
    num_output: 1024
    weight_filler {
      type: "xavier"
    }
    bias_filler {
      type: "constant"
      value: 0.2
    }
  }
}
layer {
  name: "loss1/relu_fc"
  type: "ReLU"
  bottom: "loss1/fc"
  top: "loss1/fc"
}
layer {
  name: "loss1/drop_fc"
  type: "Dropout"
  bottom: "loss1/fc"
  top: "loss1/fc"
  dropout_param {
    dropout_ratio: 0.7
  }
}
layer {
  name: "my-loss1/classifier"
  type: "InnerProduct"
  bottom: "loss1/fc"
  top: "my-loss1/classifier"
  param {
    lr_mult: 1
    decay_mult: 1
  }
  param {
    lr_mult: 2
    decay_mult: 0
  }
  inner_product_param {
    num_output: 1
…
I0807 20:12:51.838532 11967 net.cpp:84] Creating Layer inception_4c/5x5_reduce
I0807 20:12:51.838541 11967 net.cpp:406] inception_4c/5x5_reduce <- inception_4b/output_inception_4b/output_0_split_2
I0807 20:12:51.838553 11967 net.cpp:380] inception_4c/5x5_reduce -> inception_4c/5x5_reduce
I0807 20:12:51.840504 11967 net.cpp:122] Setting up inception_4c/5x5_reduce
I0807 20:12:51.840528 11967 net.cpp:129] Top shape: 10 24 14 14 (47040)
I0807 20:12:51.840536 11967 net.cpp:137] Memory required for data: 436706764
I0807 20:12:51.840548 11967 layer_factory.hpp:77] Creating layer inception_4c/relu_5x5_reduce
I0807 20:12:51.840557 11967 net.cpp:84] Creating Layer inception_4c/relu_5x5_reduce
I0807 20:12:51.840564 11967 net.cpp:406] inception_4c/relu_5x5_reduce <- inception_4c/5x5_reduce
I0807 20:12:51.840574 11967 net.cpp:367] inception_4c/relu_5x5_reduce -> inception_4c/5x5_reduce (in-place)
I0807 20:12:51.841092 11967 net.cpp:122] Setting up inception_4c/relu_5x5_reduce
I0807 20:12:51.841109 11967 net.cpp:129] Top shape: 10 24 14 14 (47040)
I0807 20:12:51.841128 11967 net.cpp:137] Memory required for data: 436894924
I0807 20:12:51.841135 11967 layer_factory.hpp:77] Creating layer inception_4c/5x5
I0807 20:12:51.841150 11967 net.cpp:84] Creating Layer inception_4c/5x5
I0807 20:12:51.841159 11967 net.cpp:406] inception_4c/5x5 <- inception_4c/5x5_reduce
I0807 20:12:51.841172 11967 net.cpp:380] inception_4c/5x5 -> inception_4c/5x5
I0807 20:12:51.843322 11967 net.cpp:122] Setting up inception_4c/5x5
I0807 20:12:51.843341 11967 net.cpp:129] Top shape: 10 64 14 14 (125440)
I0807 20:12:51.843348 11967 net.cpp:137] Memory required for data: 437396684
I0807 20:12:51.843359 11967 layer_factory.hpp:77] Creating layer inception_4c/relu_5x5
I0807 20:12:51.843369 11967 net.cpp:84] Creating Layer inception_4c/relu_5x5
I0807 20:12:51.843376 11967 net.cpp:406] inception_4c/relu_5x5 <- inception_4c/5x5
I0807 20:12:51.843389 11967 net.cpp:367] inception_4c/relu_5x5 -> inception_4c/5x5 (in-place)
I0807 20:12:51.843636 11967 net.cpp:122] Setting up inception_4c/relu_5x5
I0807 20:12:51.843653 11967 net.cpp:129] Top shape: 10 64 14 14 (125440)
I0807 20:12:51.843660 11967 net.cpp:137] Memory required for data: 437898444
I0807 20:12:51.843667 11967 layer_factory.hpp:77] Creating layer inception_4c/pool
I0807 20:12:51.843677 11967 net.cpp:84] Creating Layer inception_4c/pool
I0807 20:12:51.843684 11967 net.cpp:406] inception_4c/pool <- inception_4b/output_inception_4b/output_0_split_3
I0807 20:12:51.843694 11967 net.cpp:380] inception_4c/pool -> inception_4c/pool
I0807 20:12:51.843785 11967 net.cpp:122] Setting up inception_4c/pool
I0807 20:12:51.843797 11967 net.cpp:129] Top shape: 10 512 14 14 (1003520)
I0807 20:12:51.843804 11967 net.cpp:137] Memory required for data: 441912524
I0807 20:12:51.843811 11967 layer_factory.hpp:77] Creating layer inception_4c/pool_proj
I0807 20:12:51.843825 11967 net.cpp:84] Creating Layer inception_4c/pool_proj
I0807 20:12:51.843833 11967 net.cpp:406] inception_4c/pool_proj <- inception_4c/pool
I0807 20:12:51.843847 11967 net.cpp:380] inception_4c/pool_proj -> inception_4c/pool_proj
I0807 20:12:51.845993 11967 net.cpp:122] Setting up inception_4c/pool_proj
I0807 20:12:51.846011 11967 net.cpp:129] Top shape: 10 64 14 14 (125440)
I0807 20:12:51.846019 11967 net.cpp:137] Memory required for data: 442414284
I0807 20:12:51.846030 11967 layer_factory.hpp:77] Creating layer inception_4c/relu_pool_proj
I0807 20:12:51.846042 11967 net.cpp:84] Creating Layer inception_4c/relu_pool_proj
I0807 20:12:51.846051 11967 net.cpp:406] inception_4c/relu_pool_proj <- inception_4c/pool_proj
I0807 20:12:51.846070 11967 net.cpp:367] inception_4c/relu_pool_proj -> inception_4c/pool_proj (in-place)
I0807 20:12:51.846621 11967 net.cpp:122] Setting up inception_4c/relu_pool_proj
I0807 20:12:51.846638 11967 net.cpp:129] Top shape: 10 64 14 14 (125440)
I0807 20:12:51.846645 11967 net.cpp:137] Memory required for data: 442916044
I0807 20:12:51.846652 11967 layer_factory.hpp:77] Creating layer inception_4c/output
I0807 20:12:51.846665 11967 net.cpp:84] Creating Layer inception_4c/output
I0807 20:12:51.846673 11967 net.cpp:406] inception_4c/output <- inception_4c/1x1
I0807 20:12:51.846683 11967 net.cpp:406] inception_4c/output <- inception_4c/3x3
I0807 20:12:51.846690 11967 net.cpp:406] inception_4c/output <- inception_4c/5x5
I0807 20:12:51.846698 11967 net.cpp:406] inception_4c/output <- inception_4c/pool_proj
I0807 20:12:51.846707 11967 net.cpp:380] inception_4c/output -> inception_4c/output
I0807 20:12:51.846766 11967 net.cpp:122] Setting up inception_4c/output
I0807 20:12:51.846781 11967 net.cpp:129] Top shape: 10 512 14 14 (1003520)
I0807 20:12:51.846786 11967 net.cpp:137] Memory required for data: 446930124
I0807 20:12:51.846793 11967 layer_factory.hpp:77] Creating layer inception_4c/output_inception_4c/output_0_split
I0807 20:12:51.846804 11967 net.cpp:84] Creating Layer inception_4c/output_inception_4c/output_0_split
I0807 20:12:51.846812 11967 net.cpp:406] inception_4c/output_inception_4c/output_0_split <- inception_4c/output
I0807 20:12:51.846833 11967 net.cpp:380] inception_4c/output_inception_4c/output_0_split -> inception_4c/output_inception_4c/output_0_split_0
I0807 20:12:51.846853 11967 net.cpp:380] inception_4c/output_inception_4c/output_0_split -> inception_4c/output_inception_4c/output_0_split_1
I0807 20:12:51.846864 11967 net.cpp:380] inception_4c/output_inception_4c/output_0_split -> inception_4c/output_inception_4c/output_0_split_2
I0807 20:12:51.846874 11967 net.cpp:380] inception_4c/output_inception_4c/output_0_split -> inception_4c/output_inception_4c/output_0_split_3
I0807 20:12:51.847026 11967 net.cpp:122] Setting up inception_4c/output_inception_4c/output_0_split
I0807 20:12:51.847040 11967 net.cpp:129] Top shape: 10 512 14 14 (1003520)
I0807 20:12:51.847049 11967 net.cpp:129] Top shape: 10 512 14 14 (1003520)
I0807 20:12:51.847056 11967 net.cpp:129] Top shape: 10 512 14 14 (1003520)
I0807 20:12:51.847064 11967 net.cpp:129] Top shape: 10 512 14 14 (1003520)
I0807 20:12:51.847070 11967 net.cpp:137] Memory required for data: 462986444
I0807 20:12:51.847077 11967 layer_factory.hpp:77] Creating layer inception_4d/1x1
I0807 20:12:51.847095 11967 net.cpp:84] Creating Layer inception_4d/1x1
I0807 20:12:51.847103 11967 net.cpp:406] inception_4d/1x1 <- inception_4c/output_inception_4c/output_0_split_0
I0807 20:12:51.847115 11967 net.cpp:380] inception_4d/1x1 -> inception_4d/1x1
I0807 20:12:51.849360 11967 net.cpp:122] Setting up inception_4d/1x1
I0807 20:12:51.849378 11967 net.cpp:129] Top shape: 10 112 14 14 (219520)
I0807 20:12:51.849386 11967 net.cpp:137] Memory required for data: 463864524
I0807 20:12:51.849396 11967 layer_factory.hpp:77] Creating layer inception_4d/relu_1x1
I0807 20:12:51.849406 11967 net.cpp:84] Creating Layer inception_4d/relu_1x1
I0807 20:12:51.849417 11967 net.cpp:406] inception_4d/relu_1x1 <- inception_4d/1x1
I0807 20:12:51.849426 11967 net.cpp:367] inception_4d/relu_1x1 -> inception_4d/1x1 (in-place)
I0807 20:12:51.849673 11967 net.cpp:122] Setting up inception_4d/relu_1x1
I0807 20:12:51.849689 11967 net.cpp:129] Top shape: 10 112 14 14 (219520)
I0807 20:12:51.849695 11967 net.cpp:137] Memory required for data: 464742604
I0807 20:12:51.849702 11967 layer_factory.hpp:77] Creating layer inception_4d/3x3_reduce
I0807 20:12:51.849720 11967 net.cpp:84] Creating Layer inception_4d/3x3_reduce
I0807 20:12:51.849728 11967 net.cpp:406] inception_4d/3x3_reduce <- inception_4c/output_inception_4c/output_0_split_1
I0807 20:12:51.849738 11967 net.cpp:380] inception_4d/3x3_reduce -> inception_4d/3x3_reduce
I0807 20:12:51.852170 11967 net.cpp:122] Setting up inception_4d/3x3_reduce
I0807 20:12:51.852193 11967 net.cpp:129] Top shape: 10 144 14 14 (282240)
I0807 20:12:51.852201 11967 net.cpp:137] Memory required for data: 465871564
I0807 20:12:51.852211 11967 layer_factory.hpp:77] Creating layer inception_4d/relu_3x3_reduce
I0807 20:12:51.852223 11967 net.cpp:84] Creating Layer inception_4d/relu_3x3_reduce
I0807 20:12:51.852232 11967 net.cpp:406] inception_4d/relu_3x3_reduce <- inception_4d/3x3_reduce
I0807 20:12:51.852247 11967 net.cpp:367] inception_4d/relu_3x3_reduce -> inception_4d/3x3_reduce (in-place)
I0807 20:12:51.852763 11967 net.cpp:122] Setting up inception_4d/relu_3x3_reduce
I0807 20:12:51.852779 11967 net.cpp:129] Top shape: 10 144 14 14 (282240)
I0807 20:12:51.852787 11967 net.cpp:137] Memory required for data: 467000524
I0807 20:12:51.852793 11967 layer_factory.hpp:77] Creating layer inception_4d/3x3
I0807 20:12:51.852808 11967 net.cpp:84] Creating Layer inception_4d/3x3
I0807 20:12:51.852818 11967 net.cpp:406] inception_4d/3x3 <- inception_4d/3x3_reduce
I0807 20:12:51.852830 11967 net.cpp:380] inception_4d/3x3 -> inception_4d/3x3
I0807 20:12:51.858384 11967 net.cpp:122] Setting up inception_4d/3x3
I0807 20:12:51.858403 11967 net.cpp:129] Top shape: 10 288 14 14 (564480)
I0807 20:12:51.858412 11967 net.cpp:137] Memory required for data: 469258444
I0807 20:12:51.858422 11967 layer_factory.hpp:77] Creating layer inception_4d/relu_3x3
I0807 20:12:51.858431 11967 net.cpp:84] Creating Layer inception_4d/relu_3x3
I0807 20:12:51.858444 11967 net.cpp:406] inception_4d/relu_3x3 <- inception_4d/3x3
I0807 20:12:51.858464 11967 net.cpp:367] inception_4d/relu_3x3 -> inception_4d/3x3 (in-place)
I0807 20:12:51.858988 11967 net.cpp:122] Setting up inception_4d/relu_3x3
I0807 20:12:51.859004 11967 net.cpp:129] Top shape: 10 288 14 14 (564480)
I0807 20:12:51.859010 11967 net.cpp:137] Memory required for data: 471516364
I0807 20:12:51.859017 11967 layer_factory.hpp:77] Creating layer inception_4d/5x5_reduce
I0807 20:12:51.859036 11967 net.cpp:84] Creating Layer inception_4d/5x5_reduce
I0807 20:12:51.859056 11967 net.cpp:406] inception_4d/5x5_reduce <- inception_4c/output_inception_4c/output_0_split_2
I0807 20:12:51.859067 11967 net.cpp:380] inception_4d/5x5_reduce -> inception_4d/5x5_reduce
I0807 20:12:51.861382 11967 net.cpp:122] Setting up inception_4d/5x5_reduce
I0807 20:12:51.861400 11967 net.cpp:129] Top shape: 10 32 14 14 (62720)
I0807 20:12:51.861408 11967 net.cpp:137] Memory required for data: 471767244
I0807 20:12:51.861430 11967 layer_factory.hpp:77] Creating layer inception_4d/relu_5x5_reduce
I0807 20:12:51.861441 11967 net.cpp:84] Creating Layer inception_4d/relu_5x5_reduce
I0807 20:12:51.861449 11967 net.cpp:406] inception_4d/relu_5x5_reduce <- inception_4d/5x5_reduce
I0807 20:12:51.861460 11967 net.cpp:367] inception_4d/relu_5x5_reduce -> inception_4d/5x5_reduce (in-place)
I0807 20:12:51.861707 11967 net.cpp:122] Setting up inception_4d/relu_5x5_reduce
I0807 20:12:51.861724 11967 net.cpp:129] Top shape: 10 32 14 14 (62720)
I0807 20:12:51.861732 11967 net.cpp:137] Memory required for data: 472018124
I0807 20:12:51.861752 11967 layer_factory.hpp:77] Creating layer inception_4d/5x5
I0807 20:12:51.861766 11967 net.cpp:84] Creating Layer inception_4d/5x5
I0807 20:12:51.861775 11967 net.cpp:406] inception_4d/5x5 <- inception_4d/5x5_reduce
I0807 20:12:51.861785 11967 net.cpp:380] inception_4d/5x5 -> inception_4d/5x5
I0807 20:12:51.864121 11967 net.cpp:122] Setting up inception_4d/5x5
I0807 20:12:51.864156 11967 net.cpp:129] Top shape: 10 64 14 14 (125440)
I0807 20:12:51.864164 11967 net.cpp:137] Memory required for data: 472519884
I0807 20:12:51.864176 11967 layer_factory.hpp:77] Creating layer inception_4d/relu_5x5
I0807 20:12:51.864186 11967 net.cpp:84] Creating Layer inception_4d/relu_5x5
I0807 20:12:51.864193 11967 net.cpp:406] inception_4d/relu_5x5 <- inception_4d/5x5
I0807 20:12:51.864204 11967 net.cpp:367] inception_4d/relu_5x5 -> inception_4d/5x5 (in-place)
I0807 20:12:51.864720 11967 net.cpp:122] Setting up inception_4d/relu_5x5
I0807 20:12:51.864737 11967 net.cpp:129] Top shape: 10 64 14 14 (125440)
I0807 20:12:51.864744 11967 net.cpp:137] Memory required for data: 473021644
I0807 20:12:51.864751 11967 layer_factory.hpp:77] Creating layer inception_4d/pool
I0807 20:12:51.864761 11967 net.cpp:84] Creating Layer inception_4d/pool
I0807 20:12:51.864769 11967 net.cpp:406] inception_4d/pool <- inception_4c/output_inception_4c/output_0_split_3
I0807 20:12:51.864785 11967 net.cpp:380] inception_4d/pool -> inception_4d/pool
I0807 20:12:51.864879 11967 net.cpp:122] Setting up inception_4d/pool
I0807 20:12:51.864893 11967 net.cpp:129] Top shape: 10 512 14 14 (1003520)
I0807 20:12:51.864899 11967 net.cpp:137] Memory required for data: 477035724
I0807 20:12:51.864907 11967 layer_factory.hpp:77] Creating layer inception_4d/pool_proj
I0807 20:12:51.864923 11967 net.cpp:84] Creating Layer inception_4d/pool_proj
I0807 20:12:51.864933 11967 net.cpp:406] inception_4d/pool_proj <- inception_4d/pool
I0807 20:12:51.864943 11967 net.cpp:380] inception_4d/pool_proj -> inception_4d/pool_proj
I0807 20:12:51.867110 11967 net.cpp:122] Setting up inception_4d/pool_proj
I0807 20:12:51.867130 11967 net.cpp:129] Top shape: 10 64 14 14 (125440)
I0807 20:12:51.867136 11967 net.cpp:137] Memory required for data: 477537484
I0807 20:12:51.867159 11967 layer_factory.hpp:77] Creating layer inception_4d/relu_pool_proj
I0807 20:12:51.867169 11967 net.cpp:84] Creating Layer inception_4d/relu_pool_proj
I0807 20:12:51.867177 11967 net.cpp:406] inception_4d/relu_pool_proj <- inception_4d/pool_proj
I0807 20:12:51.867194 11967 net.cpp:367] inception_4d/relu_pool_proj -> inception_4d/pool_proj (in-place)
I0807 20:12:51.867450 11967 net.cpp:122] Setting up inception_4d/relu_pool_proj
I0807 20:12:51.867465 11967 net.cpp:129] Top shape: 10 64 14 14 (125440)
I0807 20:12:51.867472 11967 net.cpp:137] Memory required for data: 478039244
I0807 20:12:51.867480 11967 layer_factory.hpp:77] Creating layer inception_4d/output
I0807 20:12:51.867491 11967 net.cpp:84] Creating Layer inception_4d/output
I0807 20:12:51.867499 11967 net.cpp:406] inception_4d/output <- inception_4d/1x1
I0807 20:12:51.867507 11967 net.cpp:406] inception_4d/output <- inception_4d/3x3
I0807 20:12:51.867516 11967 net.cpp:406] inception_4d/output <- inception_4d/5x5
I0807 20:12:51.867523 11967 net.cpp:406] inception_4d/output <- inception_4d/pool_proj
I0807 20:12:51.867532 11967 net.cpp:380] inception_4d/output -> inception_4d/output
I0807 20:12:51.867589 11967 net.cpp:122] Setting up inception_4d/output
I0807 20:12:51.867604 11967 net.cpp:129] Top shape: 10 528 14 14 (1034880)
I0807 20:12:51.867609 11967 net.cpp:137] Memory required for data: 482178764
I0807 20:12:51.867616 11967 layer_factory.hpp:77] Creating layer inception_4d/output_inception_4d/output_0_split
I0807 20:12:51.867626 11967 net.cpp:84] Creating Layer inception_4d/output_inception_4d/output_0_split
I0807 20:12:51.867635 11967 net.cpp:406] inception_4d/output_inception_4d/output_0_split <- inception_4d/output
I0807 20:12:51.867645 11967 net.cpp:380] inception_4d/output_inception_4d/output_0_split -> inception_4d/output_inception_4d/output_0_split_0
I0807 20:12:51.867657 11967 net.cpp:380] inception_4d/output_inception_4d/output_0_split -> inception_4d/output_inception_4d/output_0_split_1
I0807 20:12:51.867667 11967 net.cpp:380] inception_4d/output_inception_4d/output_0_split -> inception_4d/output_inception_4d/output_0_split_2
I0807 20:12:51.867677 11967 net.cpp:380] inception_4d/output_inception_4d/output_0_split -> inception_4d/output_inception_4d/output_0_split_3
I0807 20:12:51.867686 11967 net.cpp:380] inception_4d/output_inception_4d/output_0_split -> inception_4d/output_inception_4d/output_0_split_4
I0807 20:12:51.867863 11967 net.cpp:122] Setting up inception_4d/output_inception_4d/output_0_split
I0807 20:12:51.867879 11967 net.cpp:129] Top shape: 10 528 14 14 (1034880)
I0807 20:12:51.867887 11967 net.cpp:129] Top shape: 10 528 14 14 (1034880)
I0807 20:12:51.867895 11967 net.cpp:129] Top shape: 10 528 14 14 (1034880)
I0807 20:12:51.867902 11967 net.cpp:129] Top shape: 10 528 14 14 (1034880)
I0807 20:12:51.867910 11967 net.cpp:129] Top shape: 10 528 14 14 (1034880)
I0807 20:12:51.867916 11967 net.cpp:137] Memory required for data: 502876364
I0807 20:12:51.867923 11967 layer_factory.hpp:77] Creating layer loss2/ave_pool
I0807 20:12:51.867933 11967 net.cpp:84] Creating Layer loss2/ave_pool
I0807 20:12:51.867939 11967 net.cpp:406] loss2/ave_pool <- inception_4d/output_inception_4d/output_0_split_0
I0807 20:12:51.867949 11967 net.cpp:380] loss2/ave_pool -> loss2/ave_pool
I0807 20:12:51.868510 11967 net.cpp:122] Setting up loss2/ave_pool
I0807 20:12:51.868527 11967 net.cpp:129] Top shape: 10 528 4 4 (84480)
I0807 20:12:51.868535 11967 net.cpp:137] Memory required for data: 503214284
I0807 20:12:51.868541 11967 layer_factory.hpp:77] Creating layer loss2/conv
I0807 20:12:51.868556 11967 net.cpp:84] Creating Layer loss2/conv
I0807 20:12:51.868564 11967 net.cpp:406] loss2/conv <- loss2/ave_pool
I0807 20:12:51.868574 11967 net.cpp:380] loss2/conv -> loss2/conv
I0807 20:12:51.871563 11967 net.cpp:122] Setting up loss2/conv
I0807 20:12:51.871582 11967 net.cpp:129] Top shape: 10 128 4 4 (20480)
I0807 20:12:51.871589 11967 net.cpp:137] Memory required for data: 503296204
I0807 20:12:51.871600 11967 layer_factory.hpp:77] Creating layer loss2/relu_conv
I0807 20:12:51.871610 11967 net.cpp:84] Creating Layer loss2/relu_conv
I0807 20:12:51.871618 11967 net.cpp:406] loss2/relu_conv <- loss2/conv
I0807 20:12:51.871629 11967 net.cpp:367] loss2/relu_conv -> loss2/conv (in-place)
I0807 20:12:51.872155 11967 net.cpp:122] Setting up loss2/relu_conv
I0807 20:12:51.872180 11967 net.cpp:129] Top shape: 10 128 4 4 (20480)
I0807 20:12:51.872187 11967 net.cpp:137] Memory required for data: 503378124
I0807 20:12:51.872195 11967 layer_factory.hpp:77] Creating layer loss2/fc
I0807 20:12:51.872210 11967 net.cpp:84] Creating Layer loss2/fc
I0807 20:12:51.872217 11967 net.cpp:406] loss2/fc <- loss2/conv
I0807 20:12:51.872229 11967 net.cpp:380] loss2/fc -> loss2/fc
I0807 20:12:51.890875 11967 net.cpp:122] Setting up loss2/fc
I0807 20:12:51.890908 11967 net.cpp:129] Top shape: 10 1024 (10240)
I0807 20:12:51.890916 11967 net.cpp:137] Memory required for data: 503419084
I0807 20:12:51.890929 11967 layer_factory.hpp:77] Creating layer loss2/relu_fc
I0807 20:12:51.890944 11967 net.cpp:84] Creating Layer loss2/relu_fc
I0807 20:12:51.890954 11967 net.cpp:406] loss2/relu_fc <- loss2/fc
I0807 20:12:51.890966 11967 net.cpp:367] loss2/relu_fc -> loss2/fc (in-place)
I0807 20:12:51.891264 11967 net.cpp:122] Setting up loss2/relu_fc
I0807 20:12:51.891279 11967 net.cpp:129] Top shape: 10 1024 (10240)
I0807 20:12:51.891286 11967 net.cpp:137] Memory required for data: 503460044
I0807 20:12:51.891294 11967 layer_factory.hpp:77] Creating layer loss2/drop_fc
I0807 20:12:51.891307 11967 net.cpp:84] Creating Layer loss2/drop_fc
I0807 20:12:51.891315 11967 net.cpp:406] loss2/drop_fc <- loss2/fc
I0807 20:12:51.891324 11967 net.cpp:367] loss2/drop_fc -> loss2/fc (in-place)
I0807 20:12:51.891386 11967 net.cpp:122] Setting up loss2/drop_fc
I0807 20:12:51.891399 11967 net.cpp:129] Top shape: 10 1024 (10240)
I0807 20:12:51.891405 11967 net.cpp:137] Memory required for data: 503501004
I0807 20:12:51.891412 11967 layer_factory.hpp:77] Creating layer my-loss2/classifier
I0807 20:12:51.891423 11967 net.cpp:84] Creating Layer my-loss2/classifier
I0807 20:12:51.891430 11967 net.cpp:406] my-loss2/classifier <- loss2/fc
I0807 20:12:51.891443 11967 net.cpp:380] my-loss2/classifier -> my-loss2/classifier
I0807 20:12:51.891702 11967 net.cpp:122] Setting up my-loss2/classifier
I0807 20:12:51.891716 11967 net.cpp:129] Top shape: 10 1 (10)
I0807 20:12:51.891722 11967 net.cpp:137] Memory required for data: 503501044
I0807 20:12:51.891732 11967 layer_factory.hpp:77] Creating layer loss2/loss
I0807 20:12:51.891743 11967 net.cpp:84] Creating Layer loss2/loss
I0807 20:12:51.891751 11967 net.cpp:406] loss2/loss <- my-loss2/classifier
I0807 20:12:51.891759 11967 net.cpp:406] loss2/loss <- label_data_1_split_1
I0807 20:12:51.891769 11967 net.cpp:380] loss2/loss -> loss2/loss
I0807 20:12:51.891858 11967 net.cpp:122] Setting up loss2/loss
I0807 20:12:51.891872 11967 net.cpp:129] Top shape: (1)
I0807 20:12:51.891878 11967 net.cpp:132]     with loss weight 0.3
I0807 20:12:51.891894 11967 net.cpp:137] Memory required for data: 503501048
I0807 20:12:51.891901 11967 layer_factory.hpp:77] Creating layer inception_4e/1x1
I0807 20:12:51.891917 11967 net.cpp:84] Creating Layer inception_4e/1x1
I0807 20:12:51.891927 11967 net.cpp:406] inception_4e/1x1 <- inception_4d/output_inception_4d/output_0_split_1
I0807 20:12:51.891939 11967 net.cpp:380] inception_4e/1x1 -> inception_4e/1x1
I0807 20:12:51.894914 11967 net.cpp:122] Setting up inception_4e/1x1
I0807 20:12:51.894945 11967 net.cpp:129] Top shape: 10 256 14 14 (501760)
I0807 20:12:51.894953 11967 net.cpp:137] Memory required for data: 505508088
I0807 20:12:51.894964 11967 layer_factory.hpp:77] Creating layer inception_4e/relu_1x1
I0807 20:12:51.894974 11967 net.cpp:84] Creating Layer inception_4e/relu_1x1
I0807 20:12:51.894982 11967 net.cpp:406] inception_4e/relu_1x1 <- inception_4e/1x1
I0807 20:12:51.894994 11967 net.cpp:367] inception_4e/relu_1x1 -> inception_4e/1x1 (in-place)
I0807 20:12:51.895545 11967 net.cpp:122] Setting up inception_4e/relu_1x1
I0807 20:12:51.895561 11967 net.cpp:129] Top shape: 10 256 14 14 (501760)
I0807 20:12:51.895568 11967 net.cpp:137] Memory required for data: 507515128
I0807 20:12:51.895576 11967 layer_factory.hpp:77] Creating layer inception_4e/3x3_reduce
I0807 20:12:51.895592 11967 net.cpp:84] Creating Layer inception_4e/3x3_reduce
I0807 20:12:51.895618 11967 net.cpp:406] inception_4e/3x3_reduce <- inception_4d/output_inception_4d/output_0_split_2
I0807 20:12:51.895630 11967 net.cpp:380] inception_4e/3x3_reduce -> inception_4e/3x3_reduce
I0807 20:12:51.898952 11967 net.cpp:122] Setting up inception_4e/3x3_reduce
I0807 20:12:51.898973 11967 net.cpp:129] Top shape: 10 160 14 14 (313600)
I0807 20:12:51.898982 11967 net.cpp:137] Memory required for data: 508769528
I0807 20:12:51.898993 11967 layer_factory.hpp:77] Creating layer inception_4e/relu_3x3_reduce
I0807 20:12:51.899003 11967 net.cpp:84] Creating Layer inception_4e/relu_3x3_reduce
I0807 20:12:51.899011 11967 net.cpp:406] inception_4e/relu_3x3_reduce <- inception_4e/3x3_reduce
I0807 20:12:51.899020 11967 net.cpp:367] inception_4e/relu_3x3_reduce -> inception_4e/3x3_reduce (in-place)
I0807 20:12:51.899485 11967 net.cpp:122] Setting up inception_4e/relu_3x3_reduce
I0807 20:12:51.899502 11967 net.cpp:129] Top shape: 10 160 14 14 (313600)
I0807 20:12:51.899509 11967 net.cpp:137] Memory required for data: 510023928
I0807 20:12:51.899518 11967 layer_factory.hpp:77] Creating layer inception_4e/3x3
I0807 20:12:51.899531 11967 net.cpp:84] Creating Layer inception_4e/3x3
I0807 20:12:51.899539 11967 net.cpp:406] inception_4e/3x3 <- inception_4e/3x3_reduce
I0807 20:12:51.899549 11967 net.cpp:380] inception_4e/3x3 -> inception_4e/3x3
I0807 20:12:51.905805 11967 net.cpp:122] Setting up inception_4e/3x3
I0807 20:12:51.905827 11967 net.cpp:129] Top shape: 10 320 14 14 (627200)
I0807 20:12:51.905835 11967 net.cpp:137] Memory required for data: 512532728
I0807 20:12:51.905848 11967 layer_factory.hpp:77] Creating layer inception_4e/relu_3x3
I0807 20:12:51.905859 11967 net.cpp:84] Creating Layer inception_4e/relu_3x3
I0807 20:12:51.905867 11967 net.cpp:406] inception_4e/relu_3x3 <- inception_4e/3x3
I0807 20:12:51.905876 11967 net.cpp:367] inception_4e/relu_3x3 -> inception_4e/3x3 (in-place)
I0807 20:12:51.906404 11967 net.cpp:122] Setting up inception_4e/relu_3x3
I0807 20:12:51.906421 11967 net.cpp:129] Top shape: 10 320 14 14 (627200)
I0807 20:12:51.906428 11967 net.cpp:137] Memory required for data: 515041528
I0807 20:12:51.906435 11967 layer_factory.hpp:77] Creating layer inception_4e/5x5_reduce
I0807 20:12:51.906455 11967 net.cpp:84] Creating Layer inception_4e/5x5_reduce
I0807 20:12:51.906462 11967 net.cpp:406] inception_4e/5x5_reduce <- inception_4d/output_inception_4d/output_0_split_3
I0807 20:12:51.906473 11967 net.cpp:380] inception_4e/5x5_reduce -> inception_4e/5x5_reduce
I0807 20:12:51.908532 11967 net.cpp:122] Setting up inception_4e/5x5_reduce
I0807 20:12:51.908550 11967 net.cpp:129] Top shape: 10 32 14 14 (62720)
I0807 20:12:51.908557 11967 net.cpp:137] Memory required for data: 515292408
I0807 20:12:51.908568 11967 layer_factory.hpp:77] Creating layer inception_4e/relu_5x5_reduce
I0807 20:12:51.908581 11967 net.cpp:84] Creating Layer inception_4e/relu_5x5_reduce
I0807 20:12:51.908588 11967 net.cpp:406] inception_4e/relu_5x5_reduce <- inception_4e/5x5_reduce
I0807 20:12:51.908597 11967 net.cpp:367] inception_4e/relu_5x5_reduce -> inception_4e/5x5_reduce (in-place)
I0807 20:12:51.909368 11967 net.cpp:122] Setting up inception_4e/relu_5x5_reduce
I0807 20:12:51.909387 11967 net.cpp:129] Top shape: 10 32 14 14 (62720)
I0807 20:12:51.909394 11967 net.cpp:137] Memory required for data: 515543288
I0807 20:12:51.909401 11967 layer_factory.hpp:77] Creating layer inception_4e/5x5
I0807 20:12:51.909438 11967 net.cpp:84] Creating Layer inception_4e/5x5
I0807 20:12:51.909448 11967 net.cpp:406] inception_4e/5x5 <- inception_4e/5x5_reduce
I0807 20:12:51.909461 11967 net.cpp:380] inception_4e/5x5 -> inception_4e/5x5
I0807 20:12:51.912760 11967 net.cpp:122] Setting up inception_4e/5x5
I0807 20:12:51.912778 11967 net.cpp:129] Top shape: 10 128 14 14 (250880)
I0807 20:12:51.912786 11967 net.cpp:137] Memory required for data: 516546808
I0807 20:12:51.912796 11967 layer_factory.hpp:77] Creating layer inception_4e/relu_5x5
I0807 20:12:51.912807 11967 net.cpp:84] Creating Layer inception_4e/relu_5x5
I0807 20:12:51.912820 11967 net.cpp:406] inception_4e/relu_5x5 <- inception_4e/5x5
I0807 20:12:51.912853 11967 net.cpp:367] inception_4e/relu_5x5 -> inception_4e/5x5 (in-place)
I0807 20:12:51.913153 11967 net.cpp:122] Setting up inception_4e/relu_5x5
I0807 20:12:51.913168 11967 net.cpp:129] Top shape: 10 128 14 14 (250880)
I0807 20:12:51.913175 11967 net.cpp:137] Memory required for data: 517550328
I0807 20:12:51.913182 11967 layer_factory.hpp:77] Creating layer inception_4e/pool
I0807 20:12:51.913197 11967 net.cpp:84] Creating Layer inception_4e/pool
I0807 20:12:51.913204 11967 net.cpp:406] inception_4e/pool <- inception_4d/output_inception_4d/output_0_split_4
I0807 20:12:51.913213 11967 net.cpp:380] inception_4e/pool -> inception_4e/pool
I0807 20:12:51.913269 11967 net.cpp:122] Setting up inception_4e/pool
I0807 20:12:51.913282 11967 net.cpp:129] Top shape: 10 528 14 14 (1034880)
I0807 20:12:51.913288 11967 net.cpp:137] Memory required for data: 521689848
I0807 20:12:51.913295 11967 layer_factory.hpp:77] Creating layer inception_4e/pool_proj
I0807 20:12:51.913310 11967 net.cpp:84] Creating Layer inception_4e/pool_proj
I0807 20:12:51.913317 11967 net.cpp:406] inception_4e/pool_proj <- inception_4e/pool
I0807 20:12:51.913331 11967 net.cpp:380] inception_4e/pool_proj -> inception_4e/pool_proj
I0807 20:12:51.915416 11967 net.cpp:122] Setting up inception_4e/pool_proj
I0807 20:12:51.915436 11967 net.cpp:129] Top shape: 10 128 14 14 (250880)
I0807 20:12:51.915442 11967 net.cpp:137] Memory required for data: 522693368
I0807 20:12:51.915453 11967 layer_factory.hpp:77] Creating layer inception_4e/relu_pool_proj
I0807 20:12:51.915465 11967 net.cpp:84] Creating Layer inception_4e/relu_pool_proj
I0807 20:12:51.915474 11967 net.cpp:406] inception_4e/relu_pool_proj <- inception_4e/pool_proj
I0807 20:12:51.915483 11967 net.cpp:367] inception_4e/relu_pool_proj -> inception_4e/pool_proj (in-place)
I0807 20:12:51.916062 11967 net.cpp:122] Setting up inception_4e/relu_pool_proj
I0807 20:12:51.916084 11967 net.cpp:129] Top shape: 10 128 14 14 (250880)
I0807 20:12:51.916090 11967 net.cpp:137] Memory required for data: 523696888
I0807 20:12:51.916097 11967 layer_factory.hpp:77] Creating layer inception_4e/output
I0807 20:12:51.916107 11967 net.cpp:84] Creating Layer inception_4e/output
I0807 20:12:51.916115 11967 net.cpp:406] inception_4e/output <- inception_4e/1x1
I0807 20:12:51.916123 11967 net.cpp:406] inception_4e/output <- inception_4e/3x3
I0807 20:12:51.916131 11967 net.cpp:406] inception_4e/output <- inception_4e/5x5
I0807 20:12:51.916138 11967 net.cpp:406] inception_4e/output <- inception_4e/pool_proj
I0807 20:12:51.916149 11967 net.cpp:380] inception_4e/output -> inception_4e/output
I0807 20:12:51.916188 11967 net.cpp:122] Setting up inception_4e/output
I0807 20:12:51.916201 11967 net.cpp:129] Top shape: 10 832 14 14 (1630720)
I0807 20:12:51.916208 11967 net.cpp:137] Memory required for data: 530219768
I0807 20:12:51.916214 11967 layer_factory.hpp:77] Creating layer pool4/3x3_s2
I0807 20:12:51.916224 11967 net.cpp:84] Creating Layer pool4/3x3_s2
I0807 20:12:51.916231 11967 net.cpp:406] pool4/3x3_s2 <- inception_4e/output
I0807 20:12:51.916241 11967 net.cpp:380] pool4/3x3_s2 -> pool4/3x3_s2
I0807 20:12:51.916290 11967 net.cpp:122] Setting up pool4/3x3_s2
I0807 20:12:51.916302 11967 net.cpp:129] Top shape: 10 832 7 7 (407680)
I0807 20:12:51.916308 11967 net.cpp:137] Memory required for data: 531850488
I0807 20:12:51.916316 11967 layer_factory.hpp:77] Creating layer pool4/3x3_s2_pool4/3x3_s2_0_split
I0807 20:12:51.916326 11967 net.cpp:84] Creating Layer pool4/3x3_s2_pool4/3x3_s2_0_split
I0807 20:12:51.916332 11967 net.cpp:406] pool4/3x3_s2_pool4/3x3_s2_0_split <- pool4/3x3_s2
I0807 20:12:51.916344 11967 net.cpp:380] pool4/3x3_s2_pool4/3x3_s2_0_split -> pool4/3x3_s2_pool4/3x3_s2_0_split_0
I0807 20:12:51.916354 11967 net.cpp:380] pool4/3x3_s2_pool4/3x3_s2_0_split -> pool4/3x3_s2_pool4/3x3_s2_0_split_1
I0807 20:12:51.916365 11967 net.cpp:380] pool4/3x3_s2_pool4/3x3_s2_0_split -> pool4/3x3_s2_pool4/3x3_s2_0_split_2
I0807 20:12:51.916380 11967 net.cpp:380] pool4/3x3_s2_pool4/3x3_s2_0_split -> pool4/3x3_s2_pool4/3x3_s2_0_split_3
I0807 20:12:51.916461 11967 net.cpp:122] Setting up pool4/3x3_s2_pool4/3x3_s2_0_split
I0807 20:12:51.916474 11967 net.cpp:129] Top shape: 10 832 7 7 (407680)
I0807 20:12:51.916482 11967 net.cpp:129] Top shape: 10 832 7 7 (407680)
I0807 20:12:51.916489 11967 net.cpp:129] Top shape: 10 832 7 7 (407680)
I0807 20:12:51.916496 11967 net.cpp:129] Top shape: 10 832 7 7 (407680)
I0807 20:12:51.916502 11967 net.cpp:137] Memory required for data: 538373368
I0807 20:12:51.916509 11967 layer_factory.hpp:77] Creating layer inception_5a/1x1
I0807 20:12:51.916524 11967 net.cpp:84] Creating Layer inception_5a/1x1
I0807 20:12:51.916532 11967 net.cpp:406] inception_5a/1x1 <- pool4/3x3_s2_pool4/3x3_s2_0_split_0
I0807 20:12:51.916543 11967 net.cpp:380] inception_5a/1x1 -> inception_5a/1x1
I0807 20:12:51.920224 11967 net.cpp:122] Setting up inception_5a/1x1
I0807 20:12:51.920243 11967 net.cpp:129] Top shape: 10 256 7 7 (125440)
I0807 20:12:51.920251 11967 net.cpp:137] Memory required for data: 538875128
I0807 20:12:51.920261 11967 layer_factory.hpp:77] Creating layer inception_5a/relu_1x1
I0807 20:12:51.920274 11967 net.cpp:84] Creating Layer inception_5a/relu_1x1
I0807 20:12:51.920282 11967 net.cpp:406] inception_5a/relu_1x1 <- inception_5a/1x1
I0807 20:12:51.920291 11967 net.cpp:367] inception_5a/relu_1x1 -> inception_5a/1x1 (in-place)
I0807 20:12:51.920544 11967 net.cpp:122] Setting up inception_5a/relu_1x1
I0807 20:12:51.920559 11967 net.cpp:129] Top shape: 10 256 7 7 (125440)
I0807 20:12:51.920567 11967 net.cpp:137] Memory required for data: 539376888
I0807 20:12:51.920573 11967 layer_factory.hpp:77] Creating layer inception_5a/3x3_reduce
I0807 20:12:51.920590 11967 net.cpp:84] Creating Layer inception_5a/3x3_reduce
I0807 20:12:51.920599 11967 net.cpp:406] inception_5a/3x3_reduce <- pool4/3x3_s2_pool4/3x3_s2_0_split_1
I0807 20:12:51.920609 11967 net.cpp:380] inception_5a/3x3_reduce -> inception_5a/3x3_reduce
I0807 20:12:51.923753 11967 net.cpp:122] Setting up inception_5a/3x3_reduce
I0807 20:12:51.923771 11967 net.cpp:129] Top shape: 10 160 7 7 (78400)
I0807 20:12:51.923779 11967 net.cpp:137] Memory required for data: 539690488
I0807 20:12:51.923789 11967 layer_factory.hpp:77] Creating layer inception_5a/relu_3x3_reduce
I0807 20:12:51.923802 11967 net.cpp:84] Creating Layer inception_5a/relu_3x3_reduce
I0807 20:12:51.923810 11967 net.cpp:406] inception_5a/relu_3x3_reduce <- inception_5a/3x3_reduce
I0807 20:12:51.923820 11967 net.cpp:367] inception_5a/relu_3x3_reduce -> inception_5a/3x3_reduce (in-place)
I0807 20:12:51.924345 11967 net.cpp:122] Setting up inception_5a/relu_3x3_reduce
I0807 20:12:51.924362 11967 net.cpp:129] Top shape: 10 160 7 7 (78400)
I0807 20:12:51.924370 11967 net.cpp:137] Memory required for data: 540004088
I0807 20:12:51.924376 11967 layer_factory.hpp:77] Creating layer inception_5a/3x3
I0807 20:12:51.924391 11967 net.cpp:84] Creating Layer inception_5a/3x3
I0807 20:12:51.924401 11967 net.cpp:406] inception_5a/3x3 <- inception_5a/3x3_reduce
I0807 20:12:51.924413 11967 net.cpp:380] inception_5a/3x3 -> inception_5a/3x3
I0807 20:12:51.930460 11967 net.cpp:122] Setting up inception_5a/3x3
I0807 20:12:51.930482 11967 net.cpp:129] Top shape: 10 320 7 7 (156800)
I0807 20:12:51.930491 11967 net.cpp:137] Memory required for data: 540631288
I0807 20:12:51.930505 11967 layer_factory.hpp:77] Creating layer inception_5a/relu_3x3
I0807 20:12:51.930516 11967 net.cpp:84] Creating Layer inception_5a/relu_3x3
I0807 20:12:51.930523 11967 net.cpp:406] inception_5a/relu_3x3 <- inception_5a/3x3
I0807 20:12:51.930532 11967 net.cpp:367] inception_5a/relu_3x3 -> inception_5a/3x3 (in-place)
I0807 20:12:51.931061 11967 net.cpp:122] Setting up inception_5a/relu_3x3
I0807 20:12:51.931077 11967 net.cpp:129] Top shape: 10 320 7 7 (156800)
I0807 20:12:51.931085 11967 net.cpp:137] Memory required for data: 541258488
I0807 20:12:51.931092 11967 layer_factory.hpp:77] Creating layer inception_5a/5x5_reduce
I0807 20:12:51.931107 11967 net.cpp:84] Creating Layer inception_5a/5x5_reduce
I0807 20:12:51.931128 11967 net.cpp:406] inception_5a/5x5_reduce <- pool4/3x3_s2_pool4/3x3_s2_0_split_2
I0807 20:12:51.931145 11967 net.cpp:380] inception_5a/5x5_reduce -> inception_5a/5x5_reduce
I0807 20:12:51.933575 11967 net.cpp:122] Setting up inception_5a/5x5_reduce
I0807 20:12:51.933593 11967 net.cpp:129] Top shape: 10 32 7 7 (15680)
I0807 20:12:51.933601 11967 net.cpp:137] Memory required for data: 541321208
I0807 20:12:51.933612 11967 layer_factory.hpp:77] Creating layer inception_5a/relu_5x5_reduce
I0807 20:12:51.933621 11967 net.cpp:84] Creating Layer inception_5a/relu_5x5_reduce
I0807 20:12:51.933629 11967 net.cpp:406] inception_5a/relu_5x5_reduce <- inception_5a/5x5_reduce
I0807 20:12:51.933641 11967 net.cpp:367] inception_5a/relu_5x5_reduce -> inception_5a/5x5_reduce (in-place)
I0807 20:12:51.933899 11967 net.cpp:122] Setting up inception_5a/relu_5x5_reduce
I0807 20:12:51.933914 11967 net.cpp:129] Top shape: 10 32 7 7 (15680)
I0807 20:12:51.933920 11967 net.cpp:137] Memory required for data: 541383928
I0807 20:12:51.933928 11967 layer_factory.hpp:77] Creating layer inception_5a/5x5
I0807 20:12:51.933943 11967 net.cpp:84] Creating Layer inception_5a/5x5
I0807 20:12:51.933954 11967 net.cpp:406] inception_5a/5x5 <- inception_5a/5x5_reduce
I0807 20:12:51.933964 11967 net.cpp:380] inception_5a/5x5 -> inception_5a/5x5
I0807 20:12:51.936262 11967 net.cpp:122] Setting up inception_5a/5x5
I0807 20:12:51.936281 11967 net.cpp:129] Top shape: 10 128 7 7 (62720)
I0807 20:12:51.936288 11967 net.cpp:137] Memory required for data: 541634808
I0807 20:12:51.936300 11967 layer_factory.hpp:77] Creating layer inception_5a/relu_5x5
I0807 20:12:51.936311 11967 net.cpp:84] Creating Layer inception_5a/relu_5x5
I0807 20:12:51.936319 11967 net.cpp:406] inception_5a/relu_5x5 <- inception_5a/5x5
I0807 20:12:51.936329 11967 net.cpp:367] inception_5a/relu_5x5 -> inception_5a/5x5 (in-place)
I0807 20:12:51.936856 11967 net.cpp:122] Setting up inception_5a/relu_5x5
I0807 20:12:51.936872 11967 net.cpp:129] Top shape: 10 128 7 7 (62720)
I0807 20:12:51.936879 11967 net.cpp:137] Memory required for data: 541885688
I0807 20:12:51.936887 11967 layer_factory.hpp:77] Creating layer inception_5a/pool
I0807 20:12:51.936899 11967 net.cpp:84] Creating Layer inception_5a/pool
I0807 20:12:51.936908 11967 net.cpp:406] inception_5a/pool <- pool4/3x3_s2_pool4/3x3_s2_0_split_3
I0807 20:12:51.936918 11967 net.cpp:380] inception_5a/pool -> inception_5a/pool
I0807 20:12:51.936970 11967 net.cpp:122] Setting up inception_5a/pool
I0807 20:12:51.936983 11967 net.cpp:129] Top shape: 10 832 7 7 (407680)
I0807 20:12:51.936990 11967 net.cpp:137] Memory required for data: 543516408
I0807 20:12:51.936996 11967 layer_factory.hpp:77] Creating layer inception_5a/pool_proj
I0807 20:12:51.937011 11967 net.cpp:84] Creating Layer inception_5a/pool_proj
I0807 20:12:51.937018 11967 net.cpp:406] inception_5a/pool_proj <- inception_5a/pool
I0807 20:12:51.937031 11967 net.cpp:380] inception_5a/pool_proj -> inception_5a/pool_proj
I0807 20:12:51.939983 11967 net.cpp:122] Setting up inception_5a/pool_proj
I0807 20:12:51.940001 11967 net.cpp:129] Top shape: 10 128 7 7 (62720)
I0807 20:12:51.940009 11967 net.cpp:137] Memory required for data: 543767288
I0807 20:12:51.940021 11967 layer_factory.hpp:77] Creating layer inception_5a/relu_pool_proj
I0807 20:12:51.940029 11967 net.cpp:84] Creating Layer inception_5a/relu_pool_proj
I0807 20:12:51.940037 11967 net.cpp:406] inception_5a/relu_pool_proj <- inception_5a/pool_proj
I0807 20:12:51.940049 11967 net.cpp:367] inception_5a/relu_pool_proj -> inception_5a/pool_proj (in-place)
I0807 20:12:51.940567 11967 net.cpp:122] Setting up inception_5a/relu_pool_proj
I0807 20:12:51.940583 11967 net.cpp:129] Top shape: 10 128 7 7 (62720)
I0807 20:12:51.940590 11967 net.cpp:137] Memory required for data: 544018168
I0807 20:12:51.940598 11967 layer_factory.hpp:77] Creating layer inception_5a/output
I0807 20:12:51.940610 11967 net.cpp:84] Creating Layer inception_5a/output
I0807 20:12:51.940618 11967 net.cpp:406] inception_5a/output <- inception_5a/1x1
I0807 20:12:51.940632 11967 net.cpp:406] inception_5a/output <- inception_5a/3x3
I0807 20:12:51.940647 11967 net.cpp:406] inception_5a/output <- inception_5a/5x5
I0807 20:12:51.940655 11967 net.cpp:406] inception_5a/output <- inception_5a/pool_proj
I0807 20:12:51.940665 11967 net.cpp:380] inception_5a/output -> inception_5a/output
I0807 20:12:51.940703 11967 net.cpp:122] Setting up inception_5a/output
I0807 20:12:51.940719 11967 net.cpp:129] Top shape: 10 832 7 7 (407680)
I0807 20:12:51.940726 11967 net.cpp:137] Memory required for data: 545648888
I0807 20:12:51.940733 11967 layer_factory.hpp:77] Creating layer inception_5a/output_inception_5a/output_0_split
I0807 20:12:51.940743 11967 net.cpp:84] Creating Layer inception_5a/output_inception_5a/output_0_split
I0807 20:12:51.940750 11967 net.cpp:406] inception_5a/output_inception_5a/output_0_split <- inception_5a/output
I0807 20:12:51.940762 11967 net.cpp:380] inception_5a/output_inception_5a/output_0_split -> inception_5a/output_inception_5a/output_0_split_0
I0807 20:12:51.940773 11967 net.cpp:380] inception_5a/output_inception_5a/output_0_split -> inception_5a/output_inception_5a/output_0_split_1
I0807 20:12:51.940783 11967 net.cpp:380] inception_5a/output_inception_5a/output_0_split -> inception_5a/output_inception_5a/output_0_split_2
I0807 20:12:51.940794 11967 net.cpp:380] inception_5a/output_inception_5a/output_0_split -> inception_5a/output_inception_5a/output_0_split_3
I0807 20:12:51.940863 11967 net.cpp:122] Setting up inception_5a/output_inception_5a/output_0_split
I0807 20:12:51.940876 11967 net.cpp:129] Top shape: 10 832 7 7 (407680)
I0807 20:12:51.940883 11967 net.cpp:129] Top shape: 10 832 7 7 (407680)
I0807 20:12:51.940891 11967 net.cpp:129] Top shape: 10 832 7 7 (407680)
I0807 20:12:51.940898 11967 net.cpp:129] Top shape: 10 832 7 7 (407680)
I0807 20:12:51.940906 11967 net.cpp:137] Memory required for data: 552171768
I0807 20:12:51.940912 11967 layer_factory.hpp:77] Creating layer inception_5b/1x1
I0807 20:12:51.940929 11967 net.cpp:84] Creating Layer inception_5b/1x1
I0807 20:12:51.940937 11967 net.cpp:406] inception_5b/1x1 <- inception_5a/output_inception_5a/output_0_split_0
I0807 20:12:51.940948 11967 net.cpp:380] inception_5b/1x1 -> inception_5b/1x1
I0807 20:12:51.945438 11967 net.cpp:122] Setting up inception_5b/1x1
I0807 20:12:51.945457 11967 net.cpp:129] Top shape: 10 384 7 7 (188160)
I0807 20:12:51.945464 11967 net.cpp:137] Memory required for data: 552924408
I0807 20:12:51.945475 11967 layer_factory.hpp:77] Creating layer inception_5b/relu_1x1
I0807 20:12:51.945485 11967 net.cpp:84] Creating Layer inception_5b/relu_1x1
I0807 20:12:51.945492 11967 net.cpp:406] inception_5b/relu_1x1 <- inception_5b/1x1
I0807 20:12:51.945504 11967 net.cpp:367] inception_5b/relu_1x1 -> inception_5b/1x1 (in-place)
I0807 20:12:51.946043 11967 net.cpp:122] Setting up inception_5b/relu_1x1
I0807 20:12:51.946070 11967 net.cpp:129] Top shape: 10 384 7 7 (188160)
I0807 20:12:51.946080 11967 net.cpp:137] Memory required for data: 553677048
I0807 20:12:51.946087 11967 layer_factory.hpp:77] Creating layer inception_5b/3x3_reduce
I0807 20:12:51.946104 11967 net.cpp:84] Creating Layer inception_5b/3x3_reduce
I0807 20:12:51.946111 11967 net.cpp:406] inception_5b/3x3_reduce <- inception_5a/output_inception_5a/output_0_split_1
I0807 20:12:51.946125 11967 net.cpp:380] inception_5b/3x3_reduce -> inception_5b/3x3_reduce
I0807 20:12:51.949455 11967 net.cpp:122] Setting up inception_5b/3x3_reduce
I0807 20:12:51.949475 11967 net.cpp:129] Top shape: 10 192 7 7 (94080)
I0807 20:12:51.949481 11967 net.cpp:137] Memory required for data: 554053368
I0807 20:12:51.949492 11967 layer_factory.hpp:77] Creating layer inception_5b/relu_3x3_reduce
I0807 20:12:51.949502 11967 net.cpp:84] Creating Layer inception_5b/relu_3x3_reduce
I0807 20:12:51.949511 11967 net.cpp:406] inception_5b/relu_3x3_reduce <- inception_5b/3x3_reduce
I0807 20:12:51.949522 11967 net.cpp:367] inception_5b/relu_3x3_reduce -> inception_5b/3x3_reduce (in-place)
I0807 20:12:51.950064 11967 net.cpp:122] Setting up inception_5b/relu_3x3_reduce
I0807 20:12:51.950093 11967 net.cpp:129] Top shape: 10 192 7 7 (94080)
I0807 20:12:51.950100 11967 net.cpp:137] Memory required for data: 554429688
I0807 20:12:51.950107 11967 layer_factory.hpp:77] Creating layer inception_5b/3x3
I0807 20:12:51.950124 11967 net.cpp:84] Creating Layer inception_5b/3x3
I0807 20:12:51.950132 11967 net.cpp:406] inception_5b/3x3 <- inception_5b/3x3_reduce
I0807 20:12:51.950145 11967 net.cpp:380] inception_5b/3x3 -> inception_5b/3x3
I0807 20:12:51.957787 11967 net.cpp:122] Setting up inception_5b/3x3
I0807 20:12:51.957813 11967 net.cpp:129] Top shape: 10 384 7 7 (188160)
I0807 20:12:51.957821 11967 net.cpp:137] Memory required for data: 555182328
I0807 20:12:51.957834 11967 layer_factory.hpp:77] Creating layer inception_5b/relu_3x3
I0807 20:12:51.957844 11967 net.cpp:84] Creating Layer inception_5b/relu_3x3
I0807 20:12:51.957850 11967 net.cpp:406] inception_5b/relu_3x3 <- inception_5b/3x3
I0807 20:12:51.957860 11967 net.cpp:367] inception_5b/relu_3x3 -> inception_5b/3x3 (in-place)
I0807 20:12:51.958144 11967 net.cpp:122] Setting up inception_5b/relu_3x3
I0807 20:12:51.958161 11967 net.cpp:129] Top shape: 10 384 7 7 (188160)
I0807 20:12:51.958168 11967 net.cpp:137] Memory required for data: 555934968
I0807 20:12:51.958175 11967 layer_factory.hpp:77] Creating layer inception_5b/5x5_reduce
I0807 20:12:51.958190 11967 net.cpp:84] Creating Layer inception_5b/5x5_reduce
I0807 20:12:51.958199 11967 net.cpp:406] inception_5b/5x5_reduce <- inception_5a/output_inception_5a/output_0_split_2
I0807 20:12:51.958212 11967 net.cpp:380] inception_5b/5x5_reduce -> inception_5b/5x5_reduce
I0807 20:12:51.960140 11967 net.cpp:122] Setting up inception_5b/5x5_reduce
I0807 20:12:51.960158 11967 net.cpp:129] Top shape: 10 48 7 7 (23520)
I0807 20:12:51.960166 11967 net.cpp:137] Memory required for data: 556029048
I0807 20:12:51.960177 11967 layer_factory.hpp:77] Creating layer inception_5b/relu_5x5_reduce
I0807 20:12:51.960189 11967 net.cpp:84] Creating Layer inception_5b/relu_5x5_reduce
I0807 20:12:51.960198 11967 net.cpp:406] inception_5b/relu_5x5_reduce <- inception_5b/5x5_reduce
I0807 20:12:51.960207 11967 net.cpp:367] inception_5b/relu_5x5_reduce -> inception_5b/5x5_reduce (in-place)
I0807 20:12:51.960741 11967 net.cpp:122] Setting up inception_5b/relu_5x5_reduce
I0807 20:12:51.960757 11967 net.cpp:129] Top shape: 10 48 7 7 (23520)
I0807 20:12:51.960763 11967 net.cpp:137] Memory required for data: 556123128
I0807 20:12:51.960772 11967 layer_factory.hpp:77] Creating layer inception_5b/5x5
I0807 20:12:51.960788 11967 net.cpp:84] Creating Layer inception_5b/5x5
I0807 20:12:51.960796 11967 net.cpp:406] inception_5b/5x5 <- inception_5b/5x5_reduce
I0807 20:12:51.960809 11967 net.cpp:380] inception_5b/5x5 -> inception_5b/5x5
I0807 20:12:51.963704 11967 net.cpp:122] Setting up inception_5b/5x5
I0807 20:12:51.963723 11967 net.cpp:129] Top shape: 10 128 7 7 (62720)
I0807 20:12:51.963731 11967 net.cpp:137] Memory required for data: 556374008
I0807 20:12:51.963742 11967 layer_factory.hpp:77] Creating layer inception_5b/relu_5x5
I0807 20:12:51.963752 11967 net.cpp:84] Creating Layer inception_5b/relu_5x5
I0807 20:12:51.963759 11967 net.cpp:406] inception_5b/relu_5x5 <- inception_5b/5x5
I0807 20:12:51.963771 11967 net.cpp:367] inception_5b/relu_5x5 -> inception_5b/5x5 (in-place)
I0807 20:12:51.964041 11967 net.cpp:122] Setting up inception_5b/relu_5x5
I0807 20:12:51.964062 11967 net.cpp:129] Top shape: 10 128 7 7 (62720)
I0807 20:12:51.964069 11967 net.cpp:137] Memory required for data: 556624888
I0807 20:12:51.964077 11967 layer_factory.hpp:77] Creating layer inception_5b/pool
I0807 20:12:51.964088 11967 net.cpp:84] Creating Layer inception_5b/pool
I0807 20:12:51.964095 11967 net.cpp:406] inception_5b/pool <- inception_5a/output_inception_5a/output_0_split_3
I0807 20:12:51.964105 11967 net.cpp:380] inception_5b/pool -> inception_5b/pool
I0807 20:12:51.964161 11967 net.cpp:122] Setting up inception_5b/pool
I0807 20:12:51.964174 11967 net.cpp:129] Top shape: 10 832 7 7 (407680)
I0807 20:12:51.964186 11967 net.cpp:137] Memory required for data: 558255608
I0807 20:12:51.964200 11967 layer_factory.hpp:77] Creating layer inception_5b/pool_proj
I0807 20:12:51.964216 11967 net.cpp:84] Creating Layer inception_5b/pool_proj
I0807 20:12:51.964224 11967 net.cpp:406] inception_5b/pool_proj <- inception_5b/pool
I0807 20:12:51.964237 11967 net.cpp:380] inception_5b/pool_proj -> inception_5b/pool_proj
I0807 20:12:51.967252 11967 net.cpp:122] Setting up inception_5b/pool_proj
I0807 20:12:51.967274 11967 net.cpp:129] Top shape: 10 128 7 7 (62720)
I0807 20:12:51.967283 11967 net.cpp:137] Memory required for data: 558506488
I0807 20:12:51.967294 11967 layer_factory.hpp:77] Creating layer inception_5b/relu_pool_proj
I0807 20:12:51.967304 11967 net.cpp:84] Creating Layer inception_5b/relu_pool_proj
I0807 20:12:51.967313 11967 net.cpp:406] inception_5b/relu_pool_proj <- inception_5b/pool_proj
I0807 20:12:51.967321 11967 net.cpp:367] inception_5b/relu_pool_proj -> inception_5b/pool_proj (in-place)
I0807 20:12:51.967855 11967 net.cpp:122] Setting up inception_5b/relu_pool_proj
I0807 20:12:51.967878 11967 net.cpp:129] Top shape: 10 128 7 7 (62720)
I0807 20:12:51.967885 11967 net.cpp:137] Memory required for data: 558757368
I0807 20:12:51.967892 11967 layer_factory.hpp:77] Creating layer inception_5b/output
I0807 20:12:51.967902 11967 net.cpp:84] Creating Layer inception_5b/output
I0807 20:12:51.967911 11967 net.cpp:406] inception_5b/output <- inception_5b/1x1
I0807 20:12:51.967918 11967 net.cpp:406] inception_5b/output <- inception_5b/3x3
I0807 20:12:51.967926 11967 net.cpp:406] inception_5b/output <- inception_5b/5x5
I0807 20:12:51.967934 11967 net.cpp:406] inception_5b/output <- inception_5b/pool_proj
I0807 20:12:51.967943 11967 net.cpp:380] inception_5b/output -> inception_5b/output
I0807 20:12:51.967983 11967 net.cpp:122] Setting up inception_5b/output
I0807 20:12:51.967996 11967 net.cpp:129] Top shape: 10 1024 7 7 (501760)
I0807 20:12:51.968003 11967 net.cpp:137] Memory required for data: 560764408
I0807 20:12:51.968009 11967 layer_factory.hpp:77] Creating layer pool5/7x7_s1
I0807 20:12:51.968022 11967 net.cpp:84] Creating Layer pool5/7x7_s1
I0807 20:12:51.968030 11967 net.cpp:406] pool5/7x7_s1 <- inception_5b/output
I0807 20:12:51.968039 11967 net.cpp:380] pool5/7x7_s1 -> pool5/7x7_s1
I0807 20:12:51.968590 11967 net.cpp:122] Setting up pool5/7x7_s1
I0807 20:12:51.968607 11967 net.cpp:129] Top shape: 10 1024 1 1 (10240)
I0807 20:12:51.968614 11967 net.cpp:137] Memory required for data: 560805368
I0807 20:12:51.968622 11967 layer_factory.hpp:77] Creating layer pool5/drop_7x7_s1
I0807 20:12:51.968636 11967 net.cpp:84] Creating Layer pool5/drop_7x7_s1
I0807 20:12:51.968643 11967 net.cpp:406] pool5/drop_7x7_s1 <- pool5/7x7_s1
I0807 20:12:51.968652 11967 net.cpp:367] pool5/drop_7x7_s1 -> pool5/7x7_s1 (in-place)
I0807 20:12:51.968689 11967 net.cpp:122] Setting up pool5/drop_7x7_s1
I0807 20:12:51.968701 11967 net.cpp:129] Top shape: 10 1024 1 1 (10240)
I0807 20:12:51.968708 11967 net.cpp:137] Memory required for data: 560846328
I0807 20:12:51.968715 11967 layer_factory.hpp:77] Creating layer my-loss3/classifier
I0807 20:12:51.968727 11967 net.cpp:84] Creating Layer my-loss3/classifier
I0807 20:12:51.968734 11967 net.cpp:406] my-loss3/classifier <- pool5/7x7_s1
I0807 20:12:51.968747 11967 net.cpp:380] my-loss3/classifier -> my-loss3/classifier
I0807 20:12:51.968914 11967 net.cpp:122] Setting up my-loss3/classifier
I0807 20:12:51.968928 11967 net.cpp:129] Top shape: 10 1 (10)
I0807 20:12:51.968935 11967 net.cpp:137] Memory required for data: 560846368
I0807 20:12:51.968945 11967 layer_factory.hpp:77] Creating layer loss3/loss
I0807 20:12:51.968955 11967 net.cpp:84] Creating Layer loss3/loss
I0807 20:12:51.968962 11967 net.cpp:406] loss3/loss <- my-loss3/classifier
I0807 20:12:51.968971 11967 net.cpp:406] loss3/loss <- label_data_1_split_2
I0807 20:12:51.968981 11967 net.cpp:380] loss3/loss -> loss3/loss
…
