…
I1028 17:17:38.861076  9569 solver.cpp:87] Creating training net from net file: ./train_val.prototxt
I1028 17:17:38.862742  9569 net.cpp:294] The NetState phase (0) differed from the phase (1) specified by a rule in layer data
I1028 17:17:38.864022  9569 net.cpp:51] Initializing net from parameters: 
name: "GoogleNet"
state {
  phase: TRAIN
  level: 0
  stage: ""
}
layer {
  name: "data"
  type: "HDF5Data"
  top: "data"
  top: "label"
  include {
    phase: TRAIN
  }
  hdf5_data_param {
    source: "./train.txt"
    batch_size: 64
    shuffle: true
  }
}
layer {
  name: "conv1/7x7_s2"
  type: "Convolution"
  bottom: "data"
  top: "conv1/7x7_s2"
  param {
    lr_mult: 1
    decay_mult: 1
  }
  param {
    lr_mult: 2
    decay_mult: 0
  }
  convolution_param {
    num_output: 64
    pad: 3
    kernel_size: 7
    stride: 2
    weight_filler {
      type: "xavier"
    }
    bias_filler {
      type: "constant"
      value: 0.2
    }
  }
}
layer {
  name: "conv1/relu_7x7"
  type: "ReLU"
  bottom: "conv1/7x7_s2"
  top: "conv1/7x7_s2"
}
layer {
  name: "pool1/3x3_s2"
  type: "Pooling"
  bottom: "conv1/7x7_s2"
  top: "pool1/3x3_s2"
  pooling_param {
    pool: MAX
    kernel_size: 3
    stride: 2
  }
}
layer {
  name: "pool1/norm1"
  type: "LRN"
  bottom: "pool1/3x3_s2"
  top: "pool1/norm1"
  lrn_param {
    local_size: 5
    alpha: 0.0001
    beta: 0.75
  }
}
layer {
  name: "conv2/3x3_reduce"
  type: "Convolution"
  bottom: "pool1/norm1"
  top: "conv2/3x3_reduce"
  param {
    lr_mult: 1
    decay_mult: 1
  }
  param {
    lr_mult: 2
    decay_mult: 0
  }
  convolution_param {
    num_output: 64
    kernel_size: 1
    weight_filler {
      type: "xavier"
    }
    bias_filler {
      type: "constant"
      value: 0.2
    }
  }
}
layer {
  name: "conv2/relu_3x3_reduce"
  type: "ReLU"
  bottom: "conv2/3x3_reduce"
  top: "conv2/3x3_reduce"
}
layer {
  name: "conv2/3x3"
  type: "Convolution"
  bottom: "conv2/3x3_reduce"
  top: "conv2/3x3"
  param {
    lr_mult: 1
    decay_mult: 1
  }
  param {
    lr_mult: 2
    decay_mult: 0
  }
  convolution_param {
    num_output: 192
    pad: 1
    kernel_size: 3
    weight_filler {
      type: "xavier"
    }
    bias_filler {
      type: "constant"
      value: 0.2
    }
  }
}
layer {
  name: "conv2/relu_3x3"
  type: "ReLU"
  bottom: "conv2/3x3"
  top: "conv2/3x3"
}
layer {
  name: "conv2/norm2"
  type: "LRN"
  bottom: "conv2/3x3"
  top: "conv2/norm2"
  lrn_param {
    local_size: 5
    alpha: 0.0001
    beta: 0.75
  }
}
layer {
  name: "pool2/3x3_s2"
  type: "Pooling"
  bottom: "conv2/norm2"
  top: "pool2/3x3_s2"
  pooling_param {
    pool: MAX
    kernel_size: 3
    stride: 2
  }
}
layer {
  name: "inception_3a/1x1"
  type: "Convolution"
  bottom: "pool2/3x3_s2"
  top: "inception_3a/1x1"
  param {
    lr_mult: 1
    decay_mult: 1
  }
  param {
    lr_mult: 2
    decay_mult: 0
  }
  convolution_param {
    num_output: 64
    kernel_size: 1
    weight_filler {
      type: "xavier"
    }
    bias_filler {
      type: "constant"
      value: 0.2
    }
  }
}
layer {
  name: "inception_3a/relu_1x1"
  type: "ReLU"
  bottom: "inception_3a/1x1"
  top: "inception_3a/1x1"
}
layer {
  name: "inception_3a/3x3_reduce"
  type: "Convolution"
  bottom: "pool2/3x3_s2"
  top: "inception_3a/3x3_reduce"
  param {
    lr_mult: 1
    decay_mult: 1
  }
  param {
    lr_mult: 2
    decay_mult: 0
  }
  convolution_param {
    num_output: 96
    kernel_size: 1
    weight_filler {
      type: "xavier"
    }
    bias_filler {
      type: "constant"
      value: 0.2
    }
  }
}
layer {
  name: "inception_3a/relu_3x3_reduce"
  type: "ReLU"
  bottom: "inception_3a/3x3_reduce"
  top: "inception_3a/3x3_reduce"
}
layer {
  name: "inception_3a/3x3"
  type: "Convolution"
  bottom: "inception_3a/3x3_reduce"
  top: "inception_3a/3x3"
  param {
    lr_mult: 1
    decay_mult: 1
  }
  param {
    lr_mult: 2
    decay_mult: 0
  }
  convolution_param {
    num_output: 128
    pad: 1
    kernel_size: 3
    weight_filler {
      type: "xavier"
    }
    bias_filler {
      type: "constant"
      value: 0.2
    }
  }
}
layer {
  name: "inception_3a/relu_3x3"
  type: "ReLU"
  bottom: "inception_3a/3x3"
  top: "inception_3a/3x3"
}
layer {
  name: "inception_3a/5x5_reduce"
  type: "Convolution"
  bottom: "pool2/3x3_s2"
  top: "inception_3a/5x5_reduce"
  param {
    lr_mult: 1
    decay_mult: 1
  }
  param {
    lr_mult: 2
    decay_mult: 0
  }
  convolution_param {
    num_output: 16
    kernel_size: 1
    weight_filler {
      type: "xavier"
    }
    bias_filler {
      type: "constant"
      value: 0.2
    }
  }
}
layer {
  name: "inception_3a/relu_5x5_reduce"
  type: "ReLU"
  bottom: "inception_3a/5x5_reduce"
  top: "inception_3a/5x5_reduce"
}
layer {
  name: "inception_3a/5x5"
  type: "Convolution"
  bottom: "inception_3a/5x5_reduce"
  top: "inception_3a/5x5"
  param {
    lr_mult: 1
    decay_mult: 1
  }
  param {
    lr_mult: 2
    decay_mult: 0
  }
  convolution_param {
    num_output: 32
    pad: 2
    kernel_size: 5
    weight_filler {
      type: "xavier"
    }
    bias_filler {
      type: "constant"
      value: 0.2
    }
  }
}
layer {
  name: "inception_3a/relu_5x5"
  type: "ReLU"
  bottom: "inception_3a/5x5"
  top: "inception_3a/5x5"
}
layer {
  name: "inception_3a/pool"
  type: "Pooling"
  bottom: "pool2/3x3_s2"
  top: "inception_3a/pool"
  pooling_param {
    pool: MAX
    kernel_size: 3
    stride: 1
    pad: 1
  }
}
layer {
  name: "inception_3a/pool_proj"
  type: "Convolution"
  bottom: "inception_3a/pool"
  top: "inception_3a/pool_proj"
  param {
    lr_mult: 1
    decay_mult: 1
  }
  param {
    lr_mult: 2
    decay_mult: 0
  }
  convolution_param {
    num_output: 32
    kernel_size: 1
    weight_filler {
      type: "xavier"
    }
    bias_filler {
      type: "constant"
      value: 0.2
    }
  }
}
layer {
  name: "inception_3a/relu_pool_proj"
  type: "ReLU"
  bottom: "inception_3a/pool_proj"
  top: "inception_3a/pool_proj"
}
layer {
  name: "inception_3a/output"
  type: "Concat"
  bottom: "inception_3a/1x1"
  bottom: "inception_3a/3x3"
  bottom: "inception_3a/5x5"
  bottom: "inception_3a/pool_proj"
  top: "inception_3a/output"
}
layer {
  name: "inception_3b/1x1"
  type: "Convolution"
  bottom: "inception_3a/output"
  top: "inception_3b/1x1"
  param {
    lr_mult: 1
    decay_mult: 1
  }
  param {
    lr_mult: 2
    decay_mult: 0
  }
  convolution_param {
    num_output: 128
    kernel_size: 1
    weight_filler {
      type: "xavier"
    }
    bias_filler {
      type: "constant"
      value: 0.2
    }
  }
}
layer {
  name: "inception_3b/relu_1x1"
  type: "ReLU"
  bottom: "inception_3b/1x1"
  top: "inception_3b/1x1"
}
layer {
  name: "inception_3b/3x3_reduce"
  type: "Convolution"
  bottom: "inception_3a/output"
  top: "inception_3b/3x3_reduce"
  param {
    lr_mult: 1
    decay_mult: 1
  }
  param {
    lr_mult: 2
    decay_mult: 0
  }
  convolution_param {
    num_output: 128
    kernel_size: 1
    weight_filler {
      type: "xavier"
    }
    bias_filler {
      type: "constant"
      value: 0.2
    }
  }
}
layer {
  name: "inception_3b/relu_3x3_reduce"
  type: "ReLU"
  bottom: "inception_3b/3x3_reduce"
  top: "inception_3b/3x3_reduce"
}
layer {
  name: "inception_3b/3x3"
  type: "Convolution"
  bottom: "inception_3b/3x3_reduce"
  top: "inception_3b/3x3"
  param {
    lr_mult: 1
    decay_mult: 1
  }
  param {
    lr_mult: 2
    decay_mult: 0
  }
  convolution_param {
    num_output: 192
    pad: 1
    kernel_size: 3
    weight_filler {
      type: "xavier"
    }
    bias_filler {
      type: "constant"
      value: 0.2
    }
  }
}
layer {
  name: "inception_3b/relu_3x3"
  type: "ReLU"
  bottom: "inception_3b/3x3"
  top: "inception_3b/3x3"
}
layer {
  name: "inception_3b/5x5_reduce"
  type: "Convolution"
  bottom: "inception_3a/output"
  top: "inception_3b/5x5_reduce"
  param {
    lr_mult: 1
    decay_mult: 1
  }
  param {
    lr_mult: 2
    decay_mult: 0
  }
  convolution_param {
    num_output: 32
    kernel_size: 1
    weight_filler {
      type: "xavier"
    }
    bias_filler {
      type: "constant"
      value: 0.2
    }
  }
}
layer {
  name: "inception_3b/relu_5x5_reduce"
  type: "ReLU"
  bottom: "inception_3b/5x5_reduce"
  top: "inception_3b/5x5_reduce"
}
layer {
  name: "inception_3b/5x5"
  type: "Convolution"
  bottom: "inception_3b/5x5_reduce"
  top: "inception_3b/5x5"
  param {
    lr_mult: 1
    decay_mult: 1
  }
  param {
    lr_mult: 2
    decay_mult: 0
  }
  convolution_param {
    num_output: 96
    pad: 2
    kernel_size: 5
    weight_filler {
      type: "xavier"
    }
    bias_filler {
      type: "constant"
      value: 0.2
    }
  }
}
layer {
  name: "inception_3b/relu_5x5"
  type: "ReLU"
  bottom: "inception_3b/5x5"
  top: "inception_3b/5x5"
}
layer {
  name: "inception_3b/pool"
  type: "Pooling"
  bottom: "inception_3a/output"
  top: "inception_3b/pool"
  pooling_param {
    pool: MAX
    kernel_size: 3
    stride: 1
    pad: 1
  }
}
layer {
  name: "inception_3b/pool_proj"
  type: "Convolution"
  bottom: "inception_3b/pool"
  top: "inception_3b/pool_proj"
  param {
    lr_mult: 1
    decay_mult: 1
  }
  param {
    lr_mult: 2
    decay_mult: 0
  }
  convolution_param {
    num_output: 64
    kernel_size: 1
    weight_filler {
      type: "xavier"
    }
    bias_filler {
      type: "constant"
      value: 0.2
    }
  }
}
layer {
  name: "inception_3b/relu_pool_proj"
  type: "ReLU"
  bottom: "inception_3b/pool_proj"
  top: "inception_3b/pool_proj"
}
layer {
  name: "inception_3b/output"
  type: "Concat"
  bottom: "inception_3b/1x1"
  bottom: "inception_3b/3x3"
  bottom: "inception_3b/5x5"
  bottom: "inception_3b/pool_proj"
  top: "inception_3b/output"
}
layer {
  name: "pool3/3x3_s2"
  type: "Pooling"
  bottom: "inception_3b/output"
  top: "pool3/3x3_s2"
  pooling_param {
    pool: MAX
    kernel_size: 3
    stride: 2
  }
}
layer {
  name: "inception_4a/1x1"
  type: "Convolution"
  bottom: "pool3/3x3_s2"
  top: "inception_4a/1x1"
  param {
    lr_mult: 1
    decay_mult: 1
  }
  param {
    lr_mult: 2
    decay_mult: 0
  }
  convolution_param {
    num_output: 192
    kernel_size: 1
    weight_filler {
      type: "xavier"
    }
    bias_filler {
      type: "constant"
      value: 0.2
    }
  }
}
layer {
  name: "inception_4a/relu_1x1"
  type: "ReLU"
  bottom: "inception_4a/1x1"
  top: "inception_4a/1x1"
}
layer {
  name: "inception_4a/3x3_reduce"
  type: "Convolution"
  bottom: "pool3/3x3_s2"
  top: "inception_4a/3x3_reduce"
  param {
    lr_mult: 1
    decay_mult: 1
  }
  param {
    lr_mult: 2
    decay_mult: 0
  }
  convolution_param {
    num_output: 96
    kernel_size: 1
    weight_filler {
      type: "xavier"
    }
    bias_filler {
      type: "constant"
      value: 0.2
    }
  }
}
layer {
  name: "inception_4a/relu_3x3_reduce"
  type: "ReLU"
  bottom: "inception_4a/3x3_reduce"
  top: "inception_4a/3x3_reduce"
}
layer {
  name: "inception_4a/3x3"
  type: "Convolution"
  bottom: "inception_4a/3x3_reduce"
  top: "inception_4a/3x3"
  param {
    lr_mult: 1
    decay_mult: 1
  }
  param {
    lr_mult: 2
    decay_mult: 0
  }
  convolution_param {
    num_output: 208
    pad: 1
    kernel_size: 3
    weight_filler {
      type: "xavier"
    }
    bias_filler {
      type: "constant"
      value: 0.2
    }
  }
}
layer {
  name: "inception_4a/relu_3x3"
  type: "ReLU"
  bottom: "inception_4a/3x3"
  top: "inception_4a/3x3"
}
layer {
  name: "inception_4a/5x5_reduce"
  type: "Convolution"
  bottom: "pool3/3x3_s2"
  top: "inception_4a/5x5_reduce"
  param {
    lr_mult: 1
    decay_mult: 1
  }
  param {
    lr_mult: 2
    decay_mult: 0
  }
  convolution_param {
    num_output: 16
    kernel_size: 1
    weight_filler {
      type: "xavier"
    }
    bias_filler {
      type: "constant"
      value: 0.2
    }
  }
}
layer {
  name: "inception_4a/relu_5x5_reduce"
  type: "ReLU"
  bottom: "inception_4a/5x5_reduce"
  top: "inception_4a/5x5_reduce"
}
layer {
  name: "inception_4a/5x5"
  type: "Convolution"
  bottom: "inception_4a/5x5_reduce"
  top: "inception_4a/5x5"
  param {
    lr_mult: 1
    decay_mult: 1
  }
  param {
    lr_mult: 2
    decay_mult: 0
  }
  convolution_param {
    num_output: 48
    pad: 2
    kernel_size: 5
    weight_filler {
      type: "xavier"
    }
    bias_filler {
      type: "constant"
      value: 0.2
    }
  }
}
layer {
  name: "inception_4a/relu_5x5"
  type: "ReLU"
  bottom: "inception_4a/5x5"
  top: "inception_4a/5x5"
}
layer {
  name: "inception_4a/pool"
  type: "Pooling"
  bottom: "pool3/3x3_s2"
  top: "inception_4a/pool"
  pooling_param {
    pool: MAX
    kernel_size: 3
    stride: 1
    pad: 1
  }
}
layer {
  name: "inception_4a/pool_proj"
  type: "Convolution"
  bottom: "inception_4a/pool"
  top: "inception_4a/pool_proj"
  param {
    lr_mult: 1
    decay_mult: 1
  }
  param {
    lr_mult: 2
    decay_mult: 0
  }
  convolution_param {
    num_output: 64
    kernel_size: 1
    weight_filler {
      type: "xavier"
    }
    bias_filler {
      type: "constant"
      value: 0.2
    }
  }
}
layer {
  name: "inception_4a/relu_pool_proj"
  type: "ReLU"
  bottom: "inception_4a/pool_proj"
  top: "inception_4a/pool_proj"
}
layer {
  name: "inception_4a/output"
  type: "Concat"
  bottom: "inception_4a/1x1"
  bottom: "inception_4a/3x3"
  bottom: "inception_4a/5x5"
  bottom: "inception_4a/pool_proj"
  top: "inception_4a/output"
}
layer {
  name: "loss1/ave_pool"
  type: "Pooling"
  bottom: "inception_4a/output"
  top: "loss1/ave_pool"
  pooling_param {
    pool: AVE
    kernel_size: 5
    stride: 3
  }
}
layer {
  name: "loss1/conv"
  type: "Convolution"
  bottom: "loss1/ave_pool"
  top: "loss1/conv"
  param {
    lr_mult: 1
    decay_mult: 1
  }
  param {
    lr_mult: 2
    decay_mult: 0
  }
  convolution_param {
    num_output: 128
    kernel_size: 1
    weight_filler {
      type: "xavier"
    }
    bias_filler {
      type: "constant"
      value: 0.2
    }
  }
}
layer {
  name: "loss1/relu_conv"
  type: "ReLU"
  bottom: "loss1/conv"
  top: "loss1/conv"
}
layer {
  name: "loss1/fc"
  type: "InnerProduct"
  bottom: "loss1/conv"
  top: "loss1/fc"
  param {
    lr_mult: 1
    decay_mult: 1
  }
  param {
    lr_mult: 2
    decay_mult: 0
  }
  inner_product_param {
    num_output: 1024
    weight_filler {
      type: "xavier"
    }
    bias_filler {
      type: "constant"
      value: 0.2
    }
  }
}
layer {
  name: "loss1/relu_fc"
  type: "ReLU"
  bottom: "loss1/fc"
  top: "loss1/fc"
}
layer {
  name: "loss1/drop_fc"
  type: "Dropout"
  bottom: "loss1/fc"
  top: "loss1/fc"
  dropout_param {
    dropout_ratio: 0.7
  }
}
layer {
  name: "my-loss1/classifier"
  type: "InnerProduct"
  bottom: "loss1/fc"
  top: "my-loss1/classifier"
  param {
    lr_mult: 1
    decay_mult: 1
  }
  param {
    lr_mult: 2
    decay_mult: 0
  }
  inner_product_param {
    num_output: 1
    weight_filler {
      type: "xavier"
    }
    bias_filler {
      type: "constant"
      value: 0
    }
  }
}
layer {
  name: "loss1/loss"
  type: "EuclideanLoss"
  bottom: "my-loss1/classifier"
  bottom: "label"
  top: "loss1/loss"
  loss_weight: 0.3
}
layer {
  name: "inception_4b/1x1"
  type: "Convolution"
  bottom: "inception_4a/output"
  top: "inception_4b/1x1"
  param {
    lr_mult: 1
    decay_mult: 1
  }
  param {
    lr_mult: 2
    decay_mult: 0
  }
  convolution_param {
    num_output: 160
    kernel_size: 1
    weight_filler {
      type: "xavier"
    }
    bias_filler {
      type: "constant"
      value: 0.2
    }
  }
}
layer {
  name: "inception_4b/relu_1x1"
  type: "ReLU"
  bottom: "inception_4b/1x1"
  top: "inception_4b/1x1"
}
layer {
  name: "inception_4b/3x3_reduce"
  type: "Convolution"
  bottom: "inception_4a/output"
  top: "inception_4b/3x3_reduce"
  param {
    lr_mult: 1
    decay_mult: 1
  }
  param {
    lr_mult: 2
    decay_mult: 0
  }
  convolution_param {
    num_output: 112
    kernel_size: 1
    weight_filler {
      type: "xavier"
    }
    bias_filler {
      type: "constant"
      value: 0.2
    }
  }
}
layer {
  name: "inception_4b/relu_3x3_reduce"
  type: "ReLU"
  bottom: "inception_4b/3x3_reduce"
  top: "inception_4b/3x3_reduce"
}
layer {
  name: "inception_4b/3x3"
  type: "Convolution"
  bottom: "inception_4b/3x3_reduce"
  top: "inception_4b/3x3"
  param {
    lr_mult: 1
    decay_mult: 1
  }
  param {
    lr_mult: 2
    decay_mult: 0
  }
  convolution_param {
    num_output: 224
    pad: 1
    kernel_size: 3
    weight_filler {
      type: "xavier"
    }
    bias_filler {
      type: "constant"
      value: 0.2
    }
  }
}
layer {
  name: "inception_4b/relu_3x3"
  type: "ReLU"
  bottom: "inception_4b/3x3"
  top: "inception_4b/3x3"
}
layer {
  name: "inception_4b/5x5_reduce"
  type: "Convolution"
  bottom: "inception_4a/output"
  top: "inception_4b/5x5_reduce"
  param {
    lr_mult: 1
    decay_mult: 1
  }
  param {
    lr_mult: 2
    decay_mult: 0
  }
  convolution_param {
    num_output: 24
    kernel_size: 1
    weight_filler {
      type: "xavier"
    }
    bias_filler {
      type: "constant"
      value: 0.2
    }
  }
}
layer {
  name: "inception_4b/relu_5x5_reduce"
  type: "ReLU"
  bottom: "inception_4b/5x5_reduce"
  top: "inception_4b/5x5_reduce"
}
layer {
  name: "inception_4b/5x5"
  type: "Convolution"
  bottom: "inception_4b/5x5_reduce"
  top: "inception_4b/5x5"
  param {
    lr_mult: 1
    decay_mult: 1
  }
  param {
    lr_mult: 2
    decay_mult: 0
  }
  convolution_param {
    num_output: 64
    pad: 2
    kernel_size: 5
    weight_filler {
      type: "xavier"
    }
    bias_filler {
      type: "constant"
      value: 0.2
    }
  }
}
layer {
  name: "inception_4b/relu_5x5"
  type: "ReLU"
  bottom: "inception_4b/5x5"
  top: "inception_4b/5x5"
}
layer {
  name: "inception_4b/pool"
  type: "Pooling"
  bottom: "inception_4a/output"
  top: "inception_4b/pool"
  pooling_param {
    pool: MAX
    kernel_size: 3
    stride: 1
    pad: 1
  }
}
layer {
  name: "inception_4b/pool_proj"
  type: "Convolution"
  bottom: "inception_4b/pool"
  top: "inception_4b/pool_proj"
  param {
    lr_mult: 1
    decay_mult: 1
  }
  param {
    lr_mult: 2
    decay_mult: 0
  }
  convolution_param {
    num_output: 64
    kernel_size: 1
    weight_filler {
      type: "xavier"
    }
    bias_filler {
      type: "constant"
      value: 0.2
    }
  }
}
layer {
  name: "inception_4b/relu_pool_proj"
  type: "ReLU"
  bottom: "inception_4b/pool_proj"
  top: "inception_4b/pool_proj"
}
layer {
  name: "inception_4b/output"
  type: "Concat"
  bottom: "inception_4b/1x1"
  bottom: "inception_4b/3x3"
  bottom: "inception_4b/5x5"
  bottom: "inception_4b/pool_proj"
  top: "inception_4b/output"
}
layer {
  name: "inception_4c/1x1"
  type: "Convolution"
  bottom: "inception_4b/output"
  top: "inception_4c/1x1"
  param {
    lr_mult: 1
    decay_mult: 1
  }
  param {
    lr_mult: 2
    decay_mult: 0
  }
  convolution_param {
    num_output: 128
    kernel_size: 1
    weight_filler {
      type: "xavier"
    }
    bias_filler {
      type: "constant"
      value: 0.2
    }
  }
}
layer {
  name: "inception_4c/relu_1x1"
  type: "ReLU"
  bottom: "inception_4c/1x1"
  top: "inception_4c/1x1"
}
layer {
  name: "inception_4c/3x3_reduce"
  type: "Convolution"
  bottom: "inception_4b/output"
  top: "inception_4c/3x3_reduce"
  param {
    lr_mult: 1
    decay_mult: 1
  }
  param {
    lr_mult: 2
    decay_mult: 0
  }
  convolution_param {
    num_output: 128
    kernel_size: 1
    weight_filler {
      type: "xavier"
    }
    bias_filler {
      type: "constant"
      value: 0.2
    }
  }
}
layer {
  name: "inception_4c/relu_3x3_reduce"
  type: "ReLU"
  bottom: "inception_4c/3x3_reduce"
  top: "inception_4c/3x3_reduce"
}
layer {
  name: "inception_4c/3x3"
  type: "Convolution"
  bottom: "inception_4c/3x3_reduce"
  top: "inception_4c/3x3"
  param {
    lr_mult: 1
    decay_mult: 1
  }
  param {
    lr_mult: 2
    decay_mult: 0
  }
  convolution_param {
    num_output: 256
    pad: 1
    kernel_size: 3
    weight_filler {
      type: "xavier"
    }
    bias_filler {
      type: "constant"
      value: 0.2
    }
  }
}
layer {
  name: "inception_4c/relu_3x3"
  type: "ReLU"
  bottom: "inception_4c/3x3"
  top: "inception_4c/3x3"
}
layer {
  name: "inception_4c/5x5_reduce"
  type: "Convolution"
  bottom: "inception_4b/output"
  top: "inception_4c/5x5_reduce"
  param {
    lr_mult: 1
    decay_mult: 1
  }
  param {
    lr_mult: 2
    decay_mult: 0
  }
  convolution_param {
    num_output: 24
    kernel_size: 1
    weight_filler {
      type: "xavier"
    }
    bias_filler {
      type: "constant"
      value: 0.2
    }
  }
}
layer {
  name: "inception_4c/relu_5x5_reduce"
  type: "ReLU"
  bottom: "inception_4c/5x5_reduce"
  top: "inception_4c/5x5_reduce"
}
layer {
  name: "inception_4c/5x5"
  type: "Convolution"
  bottom: "inception_4c/5x5_reduce"
  top: "inception_4c/5x5"
  param {
    lr_mult: 1
    decay_mult: 1
  }
  param {
    lr_mult: 2
    decay_mult: 0
  }
  convolution_param {
    num_output: 64
    pad: 2
    kernel_size: 5
    weight_filler {
      type: "xavier"
    }
    bias_filler {
      type: "constant"
      value: 0.2
    }
  }
}
layer {
  name: "inception_4c/relu_5x5"
  type: "ReLU"
  bottom: "inception_4c/5x5"
  top: "inception_4c/5x5"
}
layer {
  name: "inception_4c/pool"
  type: "Pooling"
  bottom: "inception_4b/output"
  top: "inception_4c/pool"
  pooling_param {
    pool: MAX
    kernel_size: 3
    stride: 1
    pad: 1
  }
}
layer {
  name: "inception_4c/pool_proj"
  type: "Convolution"
  bottom: "inception_4c/pool"
  top: "inception_4c/pool_proj"
  param {
    lr_mult: 1
    decay_mult: 1
  }
  param {
    lr_mult: 2
    decay_mult: 0
  }
  convolution_param {
    num_output: 64
    kernel_size: 1
    weight_filler {
      type: "xavier"
    }
    bias_filler {
      type: "constant"
      value: 0.2
    }
  }
}
layer {
  name: "inception_4c/relu_pool_proj"
  type: "ReLU"
  bottom: "inception_4c/pool_proj"
  top: "inception_4c/pool_proj"
}
layer {
  name: "inception_4c/output"
  type: "Concat"
  bottom: "inception_4c/1x1"
  bottom: "inception_4c/3x3"
  bottom: "inception_4c/5x5"
  bottom: "inception_4c/pool_proj"
  top: "inception_4c/output"
}
layer {
  name: "inception_4d/1x1"
  type: "Convolution"
  bottom: "inception_4c/output"
  top: "inception_4d/1x1"
  param {
    lr_mult: 1
    decay_mult: 1
  }
  param {
    lr_mult: 2
    decay_mult: 0
  }
  convolution_param {
    num_output: 112
    kernel_size: 1
    weight_filler {
      type: "xavier"
    }
    bias_filler {
      type: "constant"
      value: 0.2
    }
  }
}
layer {
  name: "inception_4d/relu_1x1"
  type: "ReLU"
  bottom: "inception_4d/1x1"
  top: "inception_4d/1x1"
}
layer {
  name: "inception_4d/3x3_reduce"
  type: "Convolution"
  bottom: "inception_4c/output"
  top: "inception_4d/3x3_reduce"
  param {
    lr_mult: 1
    decay_mult: 1
  }
  param {
    lr_mult: 2
    decay_mult: 0
  }
  convolution_param {
    num_output: 144
    kernel_size: 1
    weight_filler {
      type: "xavier"
    }
    bias_filler {
      type: "constant"
      value: 0.2
    }
  }
}
layer {
  name: "inception_4d/relu_3x3_reduce"
  type: "ReLU"
  bottom: "inception_4d/3x3_reduce"
  top: "inception_4d/3x3_reduce"
}
layer {
  name: "inception_4d/3x3"
  type: "Convolution"
  bottom: "inception_4d/3x3_reduce"
  top: "inception_4d/3x3"
  param {
    lr_mult: 1
    decay_mult: 1
  }
  param {
    lr_mult: 2
    decay_mult: 0
  }
  convolution_param {
    num_output: 288
    pad: 1
    kernel_size: 3
    weight_filler {
      type: "xavier"
    }
    bias_filler {
      type: "constant"
      value: 0.2
    }
  }
}
layer {
  name: "inception_4d/relu_3x3"
  type: "ReLU"
  bottom: "inception_4d/3x3"
  top: "inception_4d/3x3"
}
layer {
  name: "inception_4d/5x5_reduce"
  type: "Convolution"
  bottom: "inception_4c/output"
  top: "inception_4d/5x5_reduce"
  param {
    lr_mult: 1
    decay_mult: 1
  }
  param {
    lr_mult: 2
    decay_mult: 0
  }
  convolution_param {
    num_output: 32
    kernel_size: 1
    weight_filler {
      type: "xavier"
    }
    bias_filler {
      type: "constant"
      value: 0.2
    }
  }
}
layer {
  name: "inception_4d/relu_5x5_reduce"
  type: "ReLU"
  bottom: "inception_4d/5x5_reduce"
  top: "inception_4d/5x5_reduce"
}
layer {
  name: "inception_4d/5x5"
  type: "Convolution"
  bottom: "inception_4d/5x5_reduce"
  top: "inception_4d/5x5"
  param {
    lr_mult: 1
    decay_mult: 1
  }
  param {
    lr_mult: 2
    decay_mult: 0
  }
  convolution_param {
    num_output: 64
    pad: 2
    kernel_size: 5
    weight_filler {
      type: "xavier"
    }
    bias_filler {
      type: "constant"
      value: 0.2
    }
  }
}
layer {
  name: "inception_4d/relu_5x5"
  type: "ReLU"
  bottom: "inception_4d/5x5"
  top: "inception_4d/5x5"
}
layer {
  name: "inception_4d/pool"
  type: "Pooling"
  bottom: "inception_4c/output"
  top: "inception_4d/pool"
  pooling_param {
    pool: MAX
    kernel_size: 3
    stride: 1
    pad: 1
  }
}
layer {
  name: "inception_4d/pool_proj"
  type: "Convolution"
  bottom: "inception_4d/pool"
  top: "inception_4d/pool_proj"
  param {
    lr_mult: 1
    decay_mult: 1
  }
  param {
    lr_mult: 2
    decay_mult: 0
  }
  convolution_param {
    num_output: 64
    kernel_size: 1
    weight_filler {
      type: "xavier"
    }
    bias_filler {
      type: "constant"
      value: 0.2
    }
  }
}
layer {
  name: "inception_4d/relu_pool_proj"
  type: "ReLU"
  bottom: "inception_4d/pool_proj"
  top: "inception_4d/pool_proj"
}
layer {
  name: "inception_4d/output"
  type: "Concat"
  bottom: "inception_4d/1x1"
  bottom: "inception_4d/3x3"
  bottom: "inception_4d/5x5"
  bottom: "inception_4d/pool_proj"
  top: "inception_4d/output"
}
layer {
  name: "loss2/ave_pool"
  type: "Pooling"
  bottom: "inception_4d/output"
  top: "loss2/ave_pool"
  pooling_param {
    pool: AVE
    kernel_size: 5
    stride: 3
  }
}
layer {
  name: "loss2/conv"
  type: "Convolution"
  bottom: "loss2/ave_pool"
  top: "loss2/conv"
  param {
    lr_mult: 1
    decay_mult: 1
  }
  param {
    lr_mult: 2
    decay_mult: 0
  }
  convolution_param {
    num_output: 128
    kernel_size: 1
    weight_filler {
      type: "xavier"
    }
    bias_filler {
      type: "constant"
      value: 0.2
    }
  }
}
layer {
  name: "loss2/relu_conv"
  type: "ReLU"
  bottom: "loss2/conv"
  top: "loss2/conv"
}
layer {
  name: "loss2/fc"
  type: "InnerProduct"
  bottom: "loss2/conv"
  top: "loss2/fc"
  param {
    lr_mult: 1
    decay_mult: 1
  }
  param {
    lr_mult: 2
    decay_mult: 0
  }
  inner_product_param {
    num_output: 1024
    weight_filler {
      type: "xavier"
    }
    bias_filler {
      type: "constant"
      value: 0.2
    }
  }
}
layer {
  name: "loss2/relu_fc"
  type: "ReLU"
  bottom: "loss2/fc"
  top: "loss2/fc"
}
layer {
  name: "loss2/drop_fc"
  type: "Dropout"
  bottom: "loss2/fc"
  top: "loss2/fc"
  dropout_param {
    dropout_ratio: 0.7
  }
}
layer {
  name: "my-loss2/classifier"
  type: "InnerProduct"
  bottom: "loss2/fc"
  top: "my-loss2/classifier"
  param {
    lr_mult: 1
    decay_mult: 1
  }
  param {
    lr_mult: 2
    decay_mult: 0
  }
  inner_product_param {
    num_output: 1
    weight_filler {
      type: "xavier"
    }
    bias_filler {
      type: "constant"
      value: 0
    }
  }
}
layer {
  name: "loss2/loss"
  type: "EuclideanLoss"
  bottom: "my-loss2/classifier"
  bottom: "label"
  top: "loss2/loss"
  loss_weight: 0.3
}
layer {
  name: "inception_4e/1x1"
  type: "Convolution"
  bottom: "inception_4d/output"
  top: "inception_4e/1x1"
  param {
    lr_mult: 1
    decay_mult: 1
  }
  param {
    lr_mult: 2
    decay_mult: 0
  }
  convolution_param {
    num_output: 256
    kernel_size: 1
    weight_filler {
      type: "xavier"
    }
    bias_filler {
      type: "constant"
      value: 0.2
    }
  }
}
layer {
  name: "inception_4e/relu_1x1"
  type: "ReLU"
  bottom: "inception_4e/1x1"
  top: "inception_4e/1x1"
}
layer {
  name: "inception_4e/3x3_reduce"
  type: "Convolution"
  bottom: "inception_4d/output"
  top: "inception_4e/3x3_reduce"
  param {
    lr_mult: 1
    decay_mult: 1
  }
  param {
    lr_mult: 2
    decay_mult: 0
  }
  convolution_param {
    num_output: 160
    kernel_size: 1
    weight_filler {
      type: "xavier"
    }
    bias_filler {
      type: "constant"
      value: 0.2
    }
  }
}
layer {
  name: "inception_4e/relu_3x3_reduce"
  type: "ReLU"
  bottom: "inception_4e/3x3_reduce"
  top: "inception_4e/3x3_reduce"
}
layer {
  name: "inception_4e/3x3"
  type: "Convolution"
  bottom: "inception_4e/3x3_reduce"
  top: "inception_4e/3x3"
  param {
    lr_mult: 1
    decay_mult: 1
  }
  param {
    lr_mult: 2
    decay_mult: 0
  }
  convolution_param {
    num_output: 320
    pad: 1
    kernel_size: 3
    weight_filler {
      type: "xavier"
    }
    bias_filler {
      type: "constant"
      value: 0.2
    }
  }
}
layer {
  name: "inception_4e/relu_3x3"
  type: "ReLU"
  bottom: "inception_4e/3x3"
  top: "inception_4e/3x3"
}
layer {
  name: "inception_4e/5x5_reduce"
  type: "Convolution"
  bottom: "inception_4d/output"
  top: "inception_4e/5x5_reduce"
  param {
    lr_mult: 1
    decay_mult: 1
  }
  param {
    lr_mult: 2
    decay_mult: 0
  }
  convolution_param {
    num_output: 32
    kernel_size: 1
    weight_filler {
      type: "xavier"
    }
    bias_filler {
      type: "constant"
      value: 0.2
    }
  }
}
layer {
  name: "inception_4e/relu_5x5_reduce"
  type: "ReLU"
  bottom: "inception_4e/5x5_reduce"
  top: "inception_4e/5x5_reduce"
}
layer {
  name: "inception_4e/5x5"
  type: "Convolution"
  bottom: "inception_4e/5x5_reduce"
  top: "inception_4e/5x5"
  param {
    lr_mult: 1
    decay_mult: 1
  }
  param {
    lr_mult: 2
    decay_mult: 0
  }
  convolution_param {
    num_output: 128
    pad: 2
    kernel_size: 5
    weight_filler {
      type: "xavier"
    }
    bias_filler {
      type: "constant"
      value: 0.2
    }
  }
}
layer {
  name: "inception_4e/relu_5x5"
  type: "ReLU"
  bottom: "inception_4e/5x5"
  top: "inception_4e/5x5"
}
layer {
  name: "inception_4e/pool"
  type: "Pooling"
  bottom: "inception_4d/output"
  top: "inception_4e/pool"
  pooling_param {
    pool: MAX
    kernel_size: 3
    stride: 1
    pad: 1
  }
}
layer {
  name: "inception_4e/pool_proj"
  type: "Convolution"
  bottom: "inception_4e/pool
I1028 17:17:38.864831  9569 layer_factory.hpp:77] Creating layer data
I1028 17:17:38.864847  9569 net.cpp:84] Creating Layer data
I1028 17:17:38.864854  9569 net.cpp:380] data -> data
I1028 17:17:38.864878  9569 net.cpp:380] data -> label
I1028 17:17:38.864890  9569 hdf5_data_layer.cpp:80] Loading list of HDF5 filenames from: ./train.txt
I1028 17:17:38.865159  9569 hdf5_data_layer.cpp:94] Number of HDF5 files: 1
I1028 17:17:38.876802  9569 hdf5.cpp:32] Datatype class: H5T_FLOAT
I1028 17:17:43.033383  9569 net.cpp:122] Setting up data
I1028 17:17:43.033427  9569 net.cpp:129] Top shape: 64 3 224 224 (9633792)
I1028 17:17:43.033434  9569 net.cpp:129] Top shape: 64 (64)
I1028 17:17:43.033439  9569 net.cpp:137] Memory required for data: 38535424
I1028 17:17:43.033450  9569 layer_factory.hpp:77] Creating layer label_data_1_split
I1028 17:17:43.033469  9569 net.cpp:84] Creating Layer label_data_1_split
I1028 17:17:43.033478  9569 net.cpp:406] label_data_1_split <- label
I1028 17:17:43.033496  9569 net.cpp:380] label_data_1_split -> label_data_1_split_0
I1028 17:17:43.033510  9569 net.cpp:380] label_data_1_split -> label_data_1_split_1
I1028 17:17:43.033519  9569 net.cpp:380] label_data_1_split -> label_data_1_split_2
I1028 17:17:43.033568  9569 net.cpp:122] Setting up label_data_1_split
I1028 17:17:43.033582  9569 net.cpp:129] Top shape: 64 (64)
I1028 17:17:43.033589  9569 net.cpp:129] Top shape: 64 (64)
I1028 17:17:43.033596  9569 net.cpp:129] Top shape: 64 (64)
I1028 17:17:43.033601  9569 net.cpp:137] Memory required for data: 38536192
I1028 17:17:43.033605  9569 layer_factory.hpp:77] Creating layer conv1/7x7_s2
I1028 17:17:43.033627  9569 net.cpp:84] Creating Layer conv1/7x7_s2
I1028 17:17:43.033632  9569 net.cpp:406] conv1/7x7_s2 <- data
I1028 17:17:43.033640  9569 net.cpp:380] conv1/7x7_s2 -> conv1/7x7_s2
I1028 17:17:43.584897  9569 net.cpp:122] Setting up conv1/7x7_s2
I1028 17:17:43.584939  9569 net.cpp:129] Top shape: 64 64 112 112 (51380224)
I1028 17:17:43.584945  9569 net.cpp:137] Memory required for data: 244057088
I1028 17:17:43.585021  9569 layer_factory.hpp:77] Creating layer conv1/relu_7x7
I1028 17:17:43.585037  9569 net.cpp:84] Creating Layer conv1/relu_7x7
I1028 17:17:43.585045  9569 net.cpp:406] conv1/relu_7x7 <- conv1/7x7_s2
I1028 17:17:43.585055  9569 net.cpp:367] conv1/relu_7x7 -> conv1/7x7_s2 (in-place)
I1028 17:17:43.585275  9569 net.cpp:122] Setting up conv1/relu_7x7
I1028 17:17:43.585285  9569 net.cpp:129] Top shape: 64 64 112 112 (51380224)
I1028 17:17:43.585290  9569 net.cpp:137] Memory required for data: 449577984
I1028 17:17:43.585295  9569 layer_factory.hpp:77] Creating layer pool1/3x3_s2
I1028 17:17:43.585307  9569 net.cpp:84] Creating Layer pool1/3x3_s2
I1028 17:17:43.585312  9569 net.cpp:406] pool1/3x3_s2 <- conv1/7x7_s2
I1028 17:17:43.585320  9569 net.cpp:380] pool1/3x3_s2 -> pool1/3x3_s2
I1028 17:17:43.585376  9569 net.cpp:122] Setting up pool1/3x3_s2
I1028 17:17:43.585386  9569 net.cpp:129] Top shape: 64 64 56 56 (12845056)
I1028 17:17:43.585391  9569 net.cpp:137] Memory required for data: 500958208
I1028 17:17:43.585395  9569 layer_factory.hpp:77] Creating layer pool1/norm1
I1028 17:17:43.585407  9569 net.cpp:84] Creating Layer pool1/norm1
I1028 17:17:43.585413  9569 net.cpp:406] pool1/norm1 <- pool1/3x3_s2
I1028 17:17:43.585420  9569 net.cpp:380] pool1/norm1 -> pool1/norm1
I1028 17:17:43.585656  9569 net.cpp:122] Setting up pool1/norm1
I1028 17:17:43.585666  9569 net.cpp:129] Top shape: 64 64 56 56 (12845056)
I1028 17:17:43.585670  9569 net.cpp:137] Memory required for data: 552338432
I1028 17:17:43.585675  9569 layer_factory.hpp:77] Creating layer conv2/3x3_reduce
I1028 17:17:43.585691  9569 net.cpp:84] Creating Layer conv2/3x3_reduce
I1028 17:17:43.585696  9569 net.cpp:406] conv2/3x3_reduce <- pool1/norm1
I1028 17:17:43.585705  9569 net.cpp:380] conv2/3x3_reduce -> conv2/3x3_reduce
I1028 17:17:43.587612  9569 net.cpp:122] Setting up conv2/3x3_reduce
I1028 17:17:43.587628  9569 net.cpp:129] Top shape: 64 64 56 56 (12845056)
I1028 17:17:43.587632  9569 net.cpp:137] Memory required for data: 603718656
I1028 17:17:43.587646  9569 layer_factory.hpp:77] Creating layer conv2/relu_3x3_reduce
I1028 17:17:43.587656  9569 net.cpp:84] Creating Layer conv2/relu_3x3_reduce
I1028 17:17:43.587661  9569 net.cpp:406] conv2/relu_3x3_reduce <- conv2/3x3_reduce
I1028 17:17:43.587669  9569 net.cpp:367] conv2/relu_3x3_reduce -> conv2/3x3_reduce (in-place)
I1028 17:17:43.587859  9569 net.cpp:122] Setting up conv2/relu_3x3_reduce
I1028 17:17:43.587868  9569 net.cpp:129] Top shape: 64 64 56 56 (12845056)
I1028 17:17:43.587872  9569 net.cpp:137] Memory required for data: 655098880
I1028 17:17:43.587877  9569 layer_factory.hpp:77] Creating layer conv2/3x3
I1028 17:17:43.587895  9569 net.cpp:84] Creating Layer conv2/3x3
I1028 17:17:43.587900  9569 net.cpp:406] conv2/3x3 <- conv2/3x3_reduce
I1028 17:17:43.587908  9569 net.cpp:380] conv2/3x3 -> conv2/3x3
I1028 17:17:43.591866  9569 net.cpp:122] Setting up conv2/3x3
I1028 17:17:43.591902  9569 net.cpp:129] Top shape: 64 192 56 56 (38535168)
I1028 17:17:43.591907  9569 net.cpp:137] Memory required for data: 809239552
I1028 17:17:43.591929  9569 layer_factory.hpp:77] Creating layer conv2/relu_3x3
I1028 17:17:43.591945  9569 net.cpp:84] Creating Layer conv2/relu_3x3
I1028 17:17:43.591953  9569 net.cpp:406] conv2/relu_3x3 <- conv2/3x3
I1028 17:17:43.591964  9569 net.cpp:367] conv2/relu_3x3 -> conv2/3x3 (in-place)
I1028 17:17:43.592171  9569 net.cpp:122] Setting up conv2/relu_3x3
I1028 17:17:43.592180  9569 net.cpp:129] Top shape: 64 192 56 56 (38535168)
I1028 17:17:43.592185  9569 net.cpp:137] Memory required for data: 963380224
I1028 17:17:43.592190  9569 layer_factory.hpp:77] Creating layer conv2/norm2
I1028 17:17:43.592202  9569 net.cpp:84] Creating Layer conv2/norm2
I1028 17:17:43.592208  9569 net.cpp:406] conv2/norm2 <- conv2/3x3
I1028 17:17:43.592218  9569 net.cpp:380] conv2/norm2 -> conv2/norm2
I1028 17:17:43.592710  9569 net.cpp:122] Setting up conv2/norm2
I1028 17:17:43.592722  9569 net.cpp:129] Top shape: 64 192 56 56 (38535168)
I1028 17:17:43.592727  9569 net.cpp:137] Memory required for data: 1117520896
I1028 17:17:43.592761  9569 layer_factory.hpp:77] Creating layer pool2/3x3_s2
I1028 17:17:43.592770  9569 net.cpp:84] Creating Layer pool2/3x3_s2
I1028 17:17:43.592775  9569 net.cpp:406] pool2/3x3_s2 <- conv2/norm2
I1028 17:17:43.592785  9569 net.cpp:380] pool2/3x3_s2 -> pool2/3x3_s2
I1028 17:17:43.592828  9569 net.cpp:122] Setting up pool2/3x3_s2
I1028 17:17:43.592838  9569 net.cpp:129] Top shape: 64 192 28 28 (9633792)
I1028 17:17:43.592841  9569 net.cpp:137] Memory required for data: 1156056064
I1028 17:17:43.592845  9569 layer_factory.hpp:77] Creating layer pool2/3x3_s2_pool2/3x3_s2_0_split
I1028 17:17:43.592855  9569 net.cpp:84] Creating Layer pool2/3x3_s2_pool2/3x3_s2_0_split
I1028 17:17:43.592860  9569 net.cpp:406] pool2/3x3_s2_pool2/3x3_s2_0_split <- pool2/3x3_s2
I1028 17:17:43.592869  9569 net.cpp:380] pool2/3x3_s2_pool2/3x3_s2_0_split -> pool2/3x3_s2_pool2/3x3_s2_0_split_0
I1028 17:17:43.592880  9569 net.cpp:380] pool2/3x3_s2_pool2/3x3_s2_0_split -> pool2/3x3_s2_pool2/3x3_s2_0_split_1
I1028 17:17:43.592890  9569 net.cpp:380] pool2/3x3_s2_pool2/3x3_s2_0_split -> pool2/3x3_s2_pool2/3x3_s2_0_split_2
I1028 17:17:43.592900  9569 net.cpp:380] pool2/3x3_s2_pool2/3x3_s2_0_split -> pool2/3x3_s2_pool2/3x3_s2_0_split_3
I1028 17:17:43.592970  9569 net.cpp:122] Setting up pool2/3x3_s2_pool2/3x3_s2_0_split
I1028 17:17:43.592978  9569 net.cpp:129] Top shape: 64 192 28 28 (9633792)
I1028 17:17:43.592984  9569 net.cpp:129] Top shape: 64 192 28 28 (9633792)
I1028 17:17:43.592990  9569 net.cpp:129] Top shape: 64 192 28 28 (9633792)
I1028 17:17:43.592996  9569 net.cpp:129] Top shape: 64 192 28 28 (9633792)
I1028 17:17:43.593001  9569 net.cpp:137] Memory required for data: 1310196736
I1028 17:17:43.593005  9569 layer_factory.hpp:77] Creating layer inception_3a/1x1
I1028 17:17:43.593022  9569 net.cpp:84] Creating Layer inception_3a/1x1
I1028 17:17:43.593029  9569 net.cpp:406] inception_3a/1x1 <- pool2/3x3_s2_pool2/3x3_s2_0_split_0
I1028 17:17:43.593036  9569 net.cpp:380] inception_3a/1x1 -> inception_3a/1x1
I1028 17:17:43.595657  9569 net.cpp:122] Setting up inception_3a/1x1
I1028 17:17:43.595707  9569 net.cpp:129] Top shape: 64 64 28 28 (3211264)
I1028 17:17:43.595716  9569 net.cpp:137] Memory required for data: 1323041792
I1028 17:17:43.595736  9569 layer_factory.hpp:77] Creating layer inception_3a/relu_1x1
I1028 17:17:43.595752  9569 net.cpp:84] Creating Layer inception_3a/relu_1x1
I1028 17:17:43.595760  9569 net.cpp:406] inception_3a/relu_1x1 <- inception_3a/1x1
I1028 17:17:43.595774  9569 net.cpp:367] inception_3a/relu_1x1 -> inception_3a/1x1 (in-place)
I1028 17:17:43.596058  9569 net.cpp:122] Setting up inception_3a/relu_1x1
I1028 17:17:43.596071  9569 net.cpp:129] Top shape: 64 64 28 28 (3211264)
I1028 17:17:43.596076  9569 net.cpp:137] Memory required for data: 1335886848
I1028 17:17:43.596079  9569 layer_factory.hpp:77] Creating layer inception_3a/3x3_reduce
I1028 17:17:43.596097  9569 net.cpp:84] Creating Layer inception_3a/3x3_reduce
I1028 17:17:43.596104  9569 net.cpp:406] inception_3a/3x3_reduce <- pool2/3x3_s2_pool2/3x3_s2_0_split_1
I1028 17:17:43.596115  9569 net.cpp:380] inception_3a/3x3_reduce -> inception_3a/3x3_reduce
I1028 17:17:43.599944  9569 net.cpp:122] Setting up inception_3a/3x3_reduce
I1028 17:17:43.600033  9569 net.cpp:129] Top shape: 64 96 28 28 (4816896)
I1028 17:17:43.600049  9569 net.cpp:137] Memory required for data: 1355154432
I1028 17:17:43.600091  9569 layer_factory.hpp:77] Creating layer inception_3a/relu_3x3_reduce
I1028 17:17:43.600124  9569 net.cpp:84] Creating Layer inception_3a/relu_3x3_reduce
I1028 17:17:43.600142  9569 net.cpp:406] inception_3a/relu_3x3_reduce <- inception_3a/3x3_reduce
I1028 17:17:43.600162  9569 net.cpp:367] inception_3a/relu_3x3_reduce -> inception_3a/3x3_reduce (in-place)
I1028 17:17:43.600461  9569 net.cpp:122] Setting up inception_3a/relu_3x3_reduce
I1028 17:17:43.600476  9569 net.cpp:129] Top shape: 64 96 28 28 (4816896)
I1028 17:17:43.600481  9569 net.cpp:137] Memory required for data: 1374422016
I1028 17:17:43.600507  9569 layer_factory.hpp:77] Creating layer inception_3a/3x3
I1028 17:17:43.600525  9569 net.cpp:84] Creating Layer inception_3a/3x3
I1028 17:17:43.600533  9569 net.cpp:406] inception_3a/3x3 <- inception_3a/3x3_reduce
I1028 17:17:43.600543  9569 net.cpp:380] inception_3a/3x3 -> inception_3a/3x3
I1028 17:17:43.603114  9569 net.cpp:122] Setting up inception_3a/3x3
I1028 17:17:43.603140  9569 net.cpp:129] Top shape: 64 128 28 28 (6422528)
I1028 17:17:43.603145  9569 net.cpp:137] Memory required for data: 1400112128
I1028 17:17:43.603160  9569 layer_factory.hpp:77] Creating layer inception_3a/relu_3x3
I1028 17:17:43.603173  9569 net.cpp:84] Creating Layer inception_3a/relu_3x3
I1028 17:17:43.603179  9569 net.cpp:406] inception_3a/relu_3x3 <- inception_3a/3x3
I1028 17:17:43.603190  9569 net.cpp:367] inception_3a/relu_3x3 -> inception_3a/3x3 (in-place)
I1028 17:17:43.603404  9569 net.cpp:122] Setting up inception_3a/relu_3x3
I1028 17:17:43.603415  9569 net.cpp:129] Top shape: 64 128 28 28 (6422528)
I1028 17:17:43.603418  9569 net.cpp:137] Memory required for data: 1425802240
I1028 17:17:43.603423  9569 layer_factory.hpp:77] Creating layer inception_3a/5x5_reduce
I1028 17:17:43.603438  9569 net.cpp:84] Creating Layer inception_3a/5x5_reduce
I1028 17:17:43.603444  9569 net.cpp:406] inception_3a/5x5_reduce <- pool2/3x3_s2_pool2/3x3_s2_0_split_2
I1028 17:17:43.603456  9569 net.cpp:380] inception_3a/5x5_reduce -> inception_3a/5x5_reduce
I1028 17:17:43.604698  9569 net.cpp:122] Setting up inception_3a/5x5_reduce
I1028 17:17:43.604712  9569 net.cpp:129] Top shape: 64 16 28 28 (802816)
I1028 17:17:43.604717  9569 net.cpp:137] Memory required for data: 1429013504
I1028 17:17:43.604727  9569 layer_factory.hpp:77] Creating layer inception_3a/relu_5x5_reduce
I1028 17:17:43.604737  9569 net.cpp:84] Creating Layer inception_3a/relu_5x5_reduce
I1028 17:17:43.604745  9569 net.cpp:406] inception_3a/relu_5x5_reduce <- inception_3a/5x5_reduce
I1028 17:17:43.604755  9569 net.cpp:367] inception_3a/relu_5x5_reduce -> inception_3a/5x5_reduce (in-place)
I1028 17:17:43.604984  9569 net.cpp:122] Setting up inception_3a/relu_5x5_reduce
I1028 17:17:43.604992  9569 net.cpp:129] Top shape: 64 16 28 28 (802816)
I1028 17:17:43.604997  9569 net.cpp:137] Memory required for data: 1432224768
I1028 17:17:43.605002  9569 layer_factory.hpp:77] Creating layer inception_3a/5x5
I1028 17:17:43.605016  9569 net.cpp:84] Creating Layer inception_3a/5x5
I1028 17:17:43.605038  9569 net.cpp:406] inception_3a/5x5 <- inception_3a/5x5_reduce
I1028 17:17:43.605062  9569 net.cpp:380] inception_3a/5x5 -> inception_3a/5x5
I1028 17:17:43.606582  9569 net.cpp:122] Setting up inception_3a/5x5
I1028 17:17:43.606606  9569 net.cpp:129] Top shape: 64 32 28 28 (1605632)
I1028 17:17:43.606611  9569 net.cpp:137] Memory required for data: 1438647296
I1028 17:17:43.606621  9569 layer_factory.hpp:77] Creating layer inception_3a/relu_5x5
I1028 17:17:43.606631  9569 net.cpp:84] Creating Layer inception_3a/relu_5x5
I1028 17:17:43.606637  9569 net.cpp:406] inception_3a/relu_5x5 <- inception_3a/5x5
I1028 17:17:43.606644  9569 net.cpp:367] inception_3a/relu_5x5 -> inception_3a/5x5 (in-place)
I1028 17:17:43.607163  9569 net.cpp:122] Setting up inception_3a/relu_5x5
I1028 17:17:43.607174  9569 net.cpp:129] Top shape: 64 32 28 28 (1605632)
I1028 17:17:43.607179  9569 net.cpp:137] Memory required for data: 1445069824
I1028 17:17:43.607185  9569 layer_factory.hpp:77] Creating layer inception_3a/pool
I1028 17:17:43.607195  9569 net.cpp:84] Creating Layer inception_3a/pool
I1028 17:17:43.607203  9569 net.cpp:406] inception_3a/pool <- pool2/3x3_s2_pool2/3x3_s2_0_split_3
I1028 17:17:43.607209  9569 net.cpp:380] inception_3a/pool -> inception_3a/pool
I1028 17:17:43.607259  9569 net.cpp:122] Setting up inception_3a/pool
I1028 17:17:43.607267  9569 net.cpp:129] Top shape: 64 192 28 28 (9633792)
I1028 17:17:43.607271  9569 net.cpp:137] Memory required for data: 1483604992
I1028 17:17:43.607275  9569 layer_factory.hpp:77] Creating layer inception_3a/pool_proj
I1028 17:17:43.607288  9569 net.cpp:84] Creating Layer inception_3a/pool_proj
I1028 17:17:43.607321  9569 net.cpp:406] inception_3a/pool_proj <- inception_3a/pool
I1028 17:17:43.607331  9569 net.cpp:380] inception_3a/pool_proj -> inception_3a/pool_proj
I1028 17:17:43.608307  9569 net.cpp:122] Setting up inception_3a/pool_proj
I1028 17:17:43.608316  9569 net.cpp:129] Top shape: 64 32 28 28 (1605632)
I1028 17:17:43.608320  9569 net.cpp:137] Memory required for data: 1490027520
I1028 17:17:43.608337  9569 layer_factory.hpp:77] Creating layer inception_3a/relu_pool_proj
I1028 17:17:43.608346  9569 net.cpp:84] Creating Layer inception_3a/relu_pool_proj
I1028 17:17:43.608351  9569 net.cpp:406] inception_3a/relu_pool_proj <- inception_3a/pool_proj
I1028 17:17:43.608359  9569 net.cpp:367] inception_3a/relu_pool_proj -> inception_3a/pool_proj (in-place)
I1028 17:17:43.608876  9569 net.cpp:122] Setting up inception_3a/relu_pool_proj
I1028 17:17:43.608887  9569 net.cpp:129] Top shape: 64 32 28 28 (1605632)
I1028 17:17:43.608891  9569 net.cpp:137] Memory required for data: 1496450048
I1028 17:17:43.608896  9569 layer_factory.hpp:77] Creating layer inception_3a/output
I1028 17:17:43.608902  9569 net.cpp:84] Creating Layer inception_3a/output
I1028 17:17:43.608906  9569 net.cpp:406] inception_3a/output <- inception_3a/1x1
I1028 17:17:43.608912  9569 net.cpp:406] inception_3a/output <- inception_3a/3x3
I1028 17:17:43.608917  9569 net.cpp:406] inception_3a/output <- inception_3a/5x5
I1028 17:17:43.608922  9569 net.cpp:406] inception_3a/output <- inception_3a/pool_proj
I1028 17:17:43.608930  9569 net.cpp:380] inception_3a/output -> inception_3a/output
I1028 17:17:43.608960  9569 net.cpp:122] Setting up inception_3a/output
I1028 17:17:43.608969  9569 net.cpp:129] Top shape: 64 256 28 28 (12845056)
I1028 17:17:43.608973  9569 net.cpp:137] Memory required for data: 1547830272
I1028 17:17:43.608976  9569 layer_factory.hpp:77] Creating layer inception_3a/output_inception_3a/output_0_split
I1028 17:17:43.608983  9569 net.cpp:84] Creating Layer inception_3a/output_inception_3a/output_0_split
I1028 17:17:43.608988  9569 net.cpp:406] inception_3a/output_inception_3a/output_0_split <- inception_3a/output
I1028 17:17:43.608995  9569 net.cpp:380] inception_3a/output_inception_3a/output_0_split -> inception_3a/output_inception_3a/output_0_split_0
I1028 17:17:43.609004  9569 net.cpp:380] inception_3a/output_inception_3a/output_0_split -> inception_3a/output_inception_3a/output_0_split_1
I1028 17:17:43.609012  9569 net.cpp:380] inception_3a/output_inception_3a/output_0_split -> inception_3a/output_inception_3a/output_0_split_2
I1028 17:17:43.609022  9569 net.cpp:380] inception_3a/output_inception_3a/output_0_split -> inception_3a/output_inception_3a/output_0_split_3
I1028 17:17:43.609091  9569 net.cpp:122] Setting up inception_3a/output_inception_3a/output_0_split
I1028 17:17:43.609099  9569 net.cpp:129] Top shape: 64 256 28 28 (12845056)
I1028 17:17:43.609105  9569 net.cpp:129] Top shape: 64 256 28 28 (12845056)
I1028 17:17:43.609110  9569 net.cpp:129] Top shape: 64 256 28 28 (12845056)
I1028 17:17:43.609115  9569 net.cpp:129] Top shape: 64 256 28 28 (12845056)
I1028 17:17:43.609119  9569 net.cpp:137] Memory required for data: 1753351168
I1028 17:17:43.609123  9569 layer_factory.hpp:77] Creating layer inception_3b/1x1
I1028 17:17:43.609134  9569 net.cpp:84] Creating Layer inception_3b/1x1
I1028 17:17:43.609138  9569 net.cpp:406] inception_3b/1x1 <- inception_3a/output_inception_3a/output_0_split_0
I1028 17:17:43.609148  9569 net.cpp:380] inception_3b/1x1 -> inception_3b/1x1
I1028 17:17:43.610684  9569 net.cpp:122] Setting up inception_3b/1x1
I1028 17:17:43.610700  9569 net.cpp:129] Top shape: 64 128 28 28 (6422528)
I1028 17:17:43.610704  9569 net.cpp:137] Memory required for data: 1779041280
I1028 17:17:43.610713  9569 layer_factory.hpp:77] Creating layer inception_3b/relu_1x1
I1028 17:17:43.610721  9569 net.cpp:84] Creating Layer inception_3b/relu_1x1
I1028 17:17:43.610728  9569 net.cpp:406] inception_3b/relu_1x1 <- inception_3b/1x1
I1028 17:17:43.610735  9569 net.cpp:367] inception_3b/relu_1x1 -> inception_3b/1x1 (in-place)
I1028 17:17:43.610961  9569 net.cpp:122] Setting up inception_3b/relu_1x1
I1028 17:17:43.610970  9569 net.cpp:129] Top shape: 64 128 28 28 (6422528)
I1028 17:17:43.610975  9569 net.cpp:137] Memory required for data: 1804731392
I1028 17:17:43.610977  9569 layer_factory.hpp:77] Creating layer inception_3b/3x3_reduce
I1028 17:17:43.610990  9569 net.cpp:84] Creating Layer inception_3b/3x3_reduce
I1028 17:17:43.610994  9569 net.cpp:406] inception_3b/3x3_reduce <- inception_3a/output_inception_3a/output_0_split_1
I1028 17:17:43.611003  9569 net.cpp:380] inception_3b/3x3_reduce -> inception_3b/3x3_reduce
I1028 17:17:43.612452  9569 net.cpp:122] Setting up inception_3b/3x3_reduce
I1028 17:17:43.612469  9569 net.cpp:129] Top shape: 64 128 28 28 (6422528)
I1028 17:17:43.612474  9569 net.cpp:137] Memory required for data: 1830421504
I1028 17:17:43.612484  9569 layer_factory.hpp:77] Creating layer inception_3b/relu_3x3_reduce
I1028 17:17:43.612493  9569 net.cpp:84] Creating Layer inception_3b/relu_3x3_reduce
I1028 17:17:43.612498  9569 net.cpp:406] inception_3b/relu_3x3_reduce <- inception_3b/3x3_reduce
I1028 17:17:43.612505  9569 net.cpp:367] inception_3b/relu_3x3_reduce -> inception_3b/3x3_reduce (in-place)
I1028 17:17:43.612740  9569 net.cpp:122] Setting up inception_3b/relu_3x3_reduce
I1028 17:17:43.612764  9569 net.cpp:129] Top shape: 64 128 28 28 (6422528)
I1028 17:17:43.612782  9569 net.cpp:137] Memory required for data: 1856111616
I1028 17:17:43.612797  9569 layer_factory.hpp:77] Creating layer inception_3b/3x3
I1028 17:17:43.612841  9569 net.cpp:84] Creating Layer inception_3b/3x3
I1028 17:17:43.612859  9569 net.cpp:406] inception_3b/3x3 <- inception_3b/3x3_reduce
I1028 17:17:43.612879  9569 net.cpp:380] inception_3b/3x3 -> inception_3b/3x3
I1028 17:17:43.616385  9569 net.cpp:122] Setting up inception_3b/3x3
I1028 17:17:43.616425  9569 net.cpp:129] Top shape: 64 192 28 28 (9633792)
I1028 17:17:43.616430  9569 net.cpp:137] Memory required for data: 1894646784
I1028 17:17:43.616446  9569 layer_factory.hpp:77] Creating layer inception_3b/relu_3x3
I1028 17:17:43.616461  9569 net.cpp:84] Creating Layer inception_3b/relu_3x3
I1028 17:17:43.616470  9569 net.cpp:406] inception_3b/relu_3x3 <- inception_3b/3x3
I1028 17:17:43.616482  9569 net.cpp:367] inception_3b/relu_3x3 -> inception_3b/3x3 (in-place)
I1028 17:17:43.616715  9569 net.cpp:122] Setting up inception_3b/relu_3x3
I1028 17:17:43.616724  9569 net.cpp:129] Top shape: 64 192 28 28 (9633792)
I1028 17:17:43.616729  9569 net.cpp:137] Memory required for data: 1933181952
I1028 17:17:43.616734  9569 layer_factory.hpp:77] Creating layer inception_3b/5x5_reduce
I1028 17:17:43.616751  9569 net.cpp:84] Creating Layer inception_3b/5x5_reduce
I1028 17:17:43.616757  9569 net.cpp:406] inception_3b/5x5_reduce <- inception_3a/output_inception_3a/output_0_split_2
I1028 17:17:43.616766  9569 net.cpp:380] inception_3b/5x5_reduce -> inception_3b/5x5_reduce
I1028 17:17:43.618190  9569 net.cpp:122] Setting up inception_3b/5x5_reduce
I1028 17:17:43.618221  9569 net.cpp:129] Top shape: 64 32 28 28 (1605632)
I1028 17:17:43.618225  9569 net.cpp:137] Memory required for data: 1939604480
I1028 17:17:43.618239  9569 layer_factory.hpp:77] Creating layer inception_3b/relu_5x5_reduce
I1028 17:17:43.618252  9569 net.cpp:84] Creating Layer inception_3b/relu_5x5_reduce
I1028 17:17:43.618260  9569 net.cpp:406] inception_3b/relu_5x5_reduce <- inception_3b/5x5_reduce
I1028 17:17:43.618270  9569 net.cpp:367] inception_3b/relu_5x5_reduce -> inception_3b/5x5_reduce (in-place)
I1028 17:17:43.618525  9569 net.cpp:122] Setting up inception_3b/relu_5x5_reduce
I1028 17:17:43.618536  9569 net.cpp:129] Top shape: 64 32 28 28 (1605632)
I1028 17:17:43.618541  9569 net.cpp:137] Memory required for data: 1946027008
I1028 17:17:43.618546  9569 layer_factory.hpp:77] Creating layer inception_3b/5x5
I1028 17:17:43.618566  9569 net.cpp:84] Creating Layer inception_3b/5x5
I1028 17:17:43.618611  9569 net.cpp:406] inception_3b/5x5 <- inception_3b/5x5_reduce
I1028 17:17:43.618645  9569 net.cpp:380] inception_3b/5x5 -> inception_3b/5x5
I1028 17:17:43.621549  9569 net.cpp:122] Setting up inception_3b/5x5
I1028 17:17:43.621592  9569 net.cpp:129] Top shape: 64 96 28 28 (4816896)
I1028 17:17:43.621599  9569 net.cpp:137] Memory required for data: 1965294592
I1028 17:17:43.621616  9569 layer_factory.hpp:77] Creating layer inception_3b/relu_5x5
I1028 17:17:43.621634  9569 net.cpp:84] Creating Layer inception_3b/relu_5x5
I1028 17:17:43.621642  9569 net.cpp:406] inception_3b/relu_5x5 <- inception_3b/5x5
I1028 17:17:43.621654  9569 net.cpp:367] inception_3b/relu_5x5 -> inception_3b/5x5 (in-place)
I1028 17:17:43.622265  9569 net.cpp:122] Setting up inception_3b/relu_5x5
I1028 17:17:43.622277  9569 net.cpp:129] Top shape: 64 96 28 28 (4816896)
I1028 17:17:43.622283  9569 net.cpp:137] Memory required for data: 1984562176
I1028 17:17:43.622288  9569 layer_factory.hpp:77] Creating layer inception_3b/pool
I1028 17:17:43.622298  9569 net.cpp:84] Creating Layer inception_3b/pool
I1028 17:17:43.622306  9569 net.cpp:406] inception_3b/pool <- inception_3a/output_inception_3a/output_0_split_3
I1028 17:17:43.622315  9569 net.cpp:380] inception_3b/pool -> inception_3b/pool
I1028 17:17:43.622370  9569 net.cpp:122] Setting up inception_3b/pool
I1028 17:17:43.622378  9569 net.cpp:129] Top shape: 64 256 28 28 (12845056)
I1028 17:17:43.622382  9569 net.cpp:137] Memory required for data: 2035942400
I1028 17:17:43.622387  9569 layer_factory.hpp:77] Creating layer inception_3b/pool_proj
I1028 17:17:43.622407  9569 net.cpp:84] Creating Layer inception_3b/pool_proj
I1028 17:17:43.622414  9569 net.cpp:406] inception_3b/pool_proj <- inception_3b/pool
I1028 17:17:43.622422  9569 net.cpp:380] inception_3b/pool_proj -> inception_3b/pool_proj
I1028 17:17:43.623488  9569 net.cpp:122] Setting up inception_3b/pool_proj
I1028 17:17:43.623499  9569 net.cpp:129] Top shape: 64 64 28 28 (3211264)
I1028 17:17:43.623504  9569 net.cpp:137] Memory required for data: 2048787456
I1028 17:17:43.623513  9569 layer_factory.hpp:77] Creating layer inception_3b/relu_pool_proj
I1028 17:17:43.623522  9569 net.cpp:84] Creating Layer inception_3b/relu_pool_proj
I1028 17:17:43.623528  9569 net.cpp:406] inception_3b/relu_pool_proj <- inception_3b/pool_proj
I1028 17:17:43.623534  9569 net.cpp:367] inception_3b/relu_pool_proj -> inception_3b/pool_proj (in-place)
I1028 17:17:43.624060  9569 net.cpp:122] Setting up inception_3b/relu_pool_proj
I1028 17:17:43.624073  9569 net.cpp:129] Top shape: 64 64 28 28 (3211264)
I1028 17:17:43.624078  9569 net.cpp:137] Memory required for data: 2061632512
I1028 17:17:43.624083  9569 layer_factory.hpp:77] Creating layer inception_3b/output
I1028 17:17:43.624091  9569 net.cpp:84] Creating Layer inception_3b/output
I1028 17:17:43.624096  9569 net.cpp:406] inception_3b/output <- inception_3b/1x1
I1028 17:17:43.624104  9569 net.cpp:406] inception_3b/output <- inception_3b/3x3
I1028 17:17:43.624109  9569 net.cpp:406] inception_3b/output <- inception_3b/5x5
I1028 17:17:43.624115  9569 net.cpp:406] inception_3b/output <- inception_3b/pool_proj
I1028 17:17:43.624125  9569 net.cpp:380] inception_3b/output -> inception_3b/output
I1028 17:17:43.624155  9569 net.cpp:122] Setting up inception_3b/output
I1028 17:17:43.624162  9569 net.cpp:129] Top shape: 64 480 28 28 (24084480)
I1028 17:17:43.624166  9569 net.cpp:137] Memory required for data: 2157970432
I1028 17:17:43.624171  9569 layer_factory.hpp:77] Creating layer pool3/3x3_s2
I1028 17:17:43.624181  9569 net.cpp:84] Creating Layer pool3/3x3_s2
I1028 17:17:43.624186  9569 net.cpp:406] pool3/3x3_s2 <- inception_3b/output
I1028 17:17:43.624192  9569 net.cpp:380] pool3/3x3_s2 -> pool3/3x3_s2
I1028 17:17:43.624239  9569 net.cpp:122] Setting up pool3/3x3_s2
I1028 17:17:43.624248  9569 net.cpp:129] Top shape: 64 480 14 14 (6021120)
I1028 17:17:43.624251  9569 net.cpp:137] Memory required for data: 2182054912
I1028 17:17:43.624255  9569 layer_factory.hpp:77] Creating layer pool3/3x3_s2_pool3/3x3_s2_0_split
I1028 17:17:43.624264  9569 net.cpp:84] Creating Layer pool3/3x3_s2_pool3/3x3_s2_0_split
I1028 17:17:43.624269  9569 net.cpp:406] pool3/3x3_s2_pool3/3x3_s2_0_split <- pool3/3x3_s2
I1028 17:17:43.624299  9569 net.cpp:380] pool3/3x3_s2_pool3/3x3_s2_0_split -> pool3/3x3_s2_pool3/3x3_s2_0_split_0
I1028 17:17:43.624307  9569 net.cpp:380] pool3/3x3_s2_pool3/3x3_s2_0_split -> pool3/3x3_s2_pool3/3x3_s2_0_split_1
I1028 17:17:43.624317  9569 net.cpp:380] pool3/3x3_s2_pool3/3x3_s2_0_split -> pool3/3x3_s2_pool3/3x3_s2_0_split_2
I1028 17:17:43.624328  9569 net.cpp:380] pool3/3x3_s2_pool3/3x3_s2_0_split -> pool3/3x3_s2_pool3/3x3_s2_0_split_3
I1028 17:17:43.624402  9569 net.cpp:122] Setting up pool3/3x3_s2_pool3/3x3_s2_0_split
I1028 17:17:43.624409  9569 net.cpp:129] Top shape: 64 480 14 14 (6021120)
I1028 17:17:43.624415  9569 net.cpp:129] Top shape: 64 480 14 14 (6021120)
I1028 17:17:43.624421  9569 net.cpp:129] Top shape: 64 480 14 14 (6021120)
I1028 17:17:43.624428  9569 net.cpp:129] Top shape: 64 480 14 14 (6021120)
I1028 17:17:43.624431  9569 net.cpp:137] Memory required for data: 2278392832
I1028 17:17:43.624436  9569 layer_factory.hpp:77] Creating layer inception_4a/1x1
I1028 17:17:43.624449  9569 net.cpp:84] Creating Layer inception_4a/1x1
I1028 17:17:43.624454  9569 net.cpp:406] inception_4a/1x1 <- pool3/3x3_s2_pool3/3x3_s2_0_split_0
I1028 17:17:43.624462  9569 net.cpp:380] inception_4a/1x1 -> inception_4a/1x1
I1028 17:17:43.628235  9569 net.cpp:122] Setting up inception_4a/1x1
I1028 17:17:43.628271  9569 net.cpp:129] Top shape: 64 192 14 14 (2408448)
I1028 17:17:43.628276  9569 net.cpp:137] Memory required for data: 2288026624
I1028 17:17:43.628290  9569 layer_factory.hpp:77] Creating layer inception_4a/relu_1x1
I1028 17:17:43.628304  9569 net.cpp:84] Creating Layer inception_4a/relu_1x1
I1028 17:17:43.628311  9569 net.cpp:406] inception_4a/relu_1x1 <- inception_4a/1x1
I1028 17:17:43.628321  9569 net.cpp:367] inception_4a/relu_1x1 -> inception_4a/1x1 (in-place)
I1028 17:17:43.628538  9569 net.cpp:122] Setting up inception_4a/relu_1x1
I1028 17:17:43.628547  9569 net.cpp:129] Top shape: 64 192 14 14 (2408448)
I1028 17:17:43.628552  9569 net.cpp:137] Memory required for data: 2297660416
I1028 17:17:43.628556  9569 layer_factory.hpp:77] Creating layer inception_4a/3x3_reduce
I1028 17:17:43.628573  9569 net.cpp:84] Creating Layer inception_4a/3x3_reduce
I1028 17:17:43.628578  9569 net.cpp:406] inception_4a/3x3_reduce <- pool3/3x3_s2_pool3/3x3_s2_0_split_1
I1028 17:17:43.628588  9569 net.cpp:380] inception_4a/3x3_reduce -> inception_4a/3x3_reduce
I1028 17:17:43.630275  9569 net.cpp:122] Setting up inception_4a/3x3_reduce
I1028 17:17:43.630298  9569 net.cpp:129] Top shape: 64 96 14 14 (1204224)
I1028 17:17:43.630303  9569 net.cpp:137] Memory required for data: 2302477312
I1028 17:17:43.630328  9569 layer_factory.hpp:77] Creating layer inception_4a/relu_3x3_reduce
I1028 17:17:43.630338  9569 net.cpp:84] Creating Layer inception_4a/relu_3x3_reduce
I1028 17:17:43.630347  9569 net.cpp:406] inception_4a/relu_3x3_reduce <- inception_4a/3x3_reduce
I1028 17:17:43.630357  9569 net.cpp:367] inception_4a/relu_3x3_reduce -> inception_4a/3x3_reduce (in-place)
I1028 17:17:43.630561  9569 net.cpp:122] Setting up inception_4a/relu_3x3_reduce
I1028 17:17:43.630570  9569 net.cpp:129] Top shape: 64 96 14 14 (1204224)
I1028 17:17:43.630574  9569 net.cpp:137] Memory required for data: 2307294208
I1028 17:17:43.630579  9569 layer_factory.hpp:77] Creating layer inception_4a/3x3
I1028 17:17:43.630592  9569 net.cpp:84] Creating Layer inception_4a/3x3
I1028 17:17:43.630597  9569 net.cpp:406] inception_4a/3x3 <- inception_4a/3x3_reduce
I1028 17:17:43.630607  9569 net.cpp:380] inception_4a/3x3 -> inception_4a/3x3
I1028 17:17:43.633695  9569 net.cpp:122] Setting up inception_4a/3x3
I1028 17:17:43.633724  9569 net.cpp:129] Top shape: 64 208 14 14 (2609152)
I1028 17:17:43.633729  9569 net.cpp:137] Memory required for data: 2317730816
I1028 17:17:43.633743  9569 layer_factory.hpp:77] Creating layer inception_4a/relu_3x3
I1028 17:17:43.633755  9569 net.cpp:84] Creating Layer inception_4a/relu_3x3
I1028 17:17:43.633762  9569 net.cpp:406] inception_4a/relu_3x3 <- inception_4a/3x3
I1028 17:17:43.633797  9569 net.cpp:367] inception_4a/relu_3x3 -> inception_4a/3x3 (in-place)
I1028 17:17:43.634013  9569 net.cpp:122] Setting up inception_4a/relu_3x3
I1028 17:17:43.634023  9569 net.cpp:129] Top shape: 64 208 14 14 (2609152)
I1028 17:17:43.634027  9569 net.cpp:137] Memory required for data: 2328167424
I1028 17:17:43.634032  9569 layer_factory.hpp:77] Creating layer inception_4a/5x5_reduce
I1028 17:17:43.634050  9569 net.cpp:84] Creating Layer inception_4a/5x5_reduce
I1028 17:17:43.634058  9569 net.cpp:406] inception_4a/5x5_reduce <- pool3/3x3_s2_pool3/3x3_s2_0_split_2
I1028 17:17:43.634069  9569 net.cpp:380] inception_4a/5x5_reduce -> inception_4a/5x5_reduce
I1028 17:17:43.635418  9569 net.cpp:122] Setting up inception_4a/5x5_reduce
I1028 17:17:43.635434  9569 net.cpp:129] Top shape: 64 16 14 14 (200704)
I1028 17:17:43.635439  9569 net.cpp:137] Memory required for data: 2328970240
I1028 17:17:43.635449  9569 layer_factory.hpp:77] Creating layer inception_4a/relu_5x5_reduce
I1028 17:17:43.635457  9569 net.cpp:84] Creating Layer inception_4a/relu_5x5_reduce
I1028 17:17:43.635463  9569 net.cpp:406] inception_4a/relu_5x5_reduce <- inception_4a/5x5_reduce
I1028 17:17:43.635473  9569 net.cpp:367] inception_4a/relu_5x5_reduce -> inception_4a/5x5_reduce (in-place)
I1028 17:17:43.635673  9569 net.cpp:122] Setting up inception_4a/relu_5x5_reduce
I1028 17:17:43.635682  9569 net.cpp:129] Top shape: 64 16 14 14 (200704)
I1028 17:17:43.635686  9569 net.cpp:137] Memory required for data: 2329773056
I1028 17:17:43.635690  9569 layer_factory.hpp:77] Creating layer inception_4a/5x5
I1028 17:17:43.635704  9569 net.cpp:84] Creating Layer inception_4a/5x5
I1028 17:17:43.635709  9569 net.cpp:406] inception_4a/5x5 <- inception_4a/5x5_reduce
I1028 17:17:43.635718  9569 net.cpp:380] inception_4a/5x5 -> inception_4a/5x5
I1028 17:17:43.637127  9569 net.cpp:122] Setting up inception_4a/5x5
I1028 17:17:43.637143  9569 net.cpp:129] Top shape: 64 48 14 14 (602112)
I1028 17:17:43.637148  9569 net.cpp:137] Memory required for data: 2332181504
I1028 17:17:43.637157  9569 layer_factory.hpp:77] Creating layer inception_4a/relu_5x5
I1028 17:17:43.637171  9569 net.cpp:84] Creating Layer inception_4a/relu_5x5
I1028 17:17:43.637178  9569 net.cpp:406] inception_4a/relu_5x5 <- inception_4a/5x5
I1028 17:17:43.637187  9569 net.cpp:367] inception_4a/relu_5x5 -> inception_4a/5x5 (in-place)
I1028 17:17:43.637676  9569 net.cpp:122] Setting up inception_4a/relu_5x5
I1028 17:17:43.637686  9569 net.cpp:129] Top shape: 64 48 14 14 (602112)
I1028 17:17:43.637691  9569 net.cpp:137] Memory required for data: 2334589952
I1028 17:17:43.637696  9569 layer_factory.hpp:77] Creating layer inception_4a/pool
I1028 17:17:43.637706  9569 net.cpp:84] Creating Layer inception_4a/pool
I1028 17:17:43.637713  9569 net.cpp:406] inception_4a/pool <- pool3/3x3_s2_pool3/3x3_s2_0_split_3
I1028 17:17:43.637722  9569 net.cpp:380] inception_4a/pool -> inception_4a/pool
I1028 17:17:43.637775  9569 net.cpp:122] Setting up inception_4a/pool
I1028 17:17:43.637784  9569 net.cpp:129] Top shape: 64 480 14 14 (6021120)
I1028 17:17:43.637787  9569 net.cpp:137] Memory required for data: 2358674432
I1028 17:17:43.637792  9569 layer_factory.hpp:77] Creating layer inception_4a/pool_proj
I1028 17:17:43.637805  9569 net.cpp:84] Creating Layer inception_4a/pool_proj
I1028 17:17:43.637811  9569 net.cpp:406] inception_4a/pool_proj <- inception_4a/pool
I1028 17:17:43.637823  9569 net.cpp:380] inception_4a/pool_proj -> inception_4a/pool_proj
I1028 17:17:43.639005  9569 net.cpp:122] Setting up inception_4a/pool_proj
I1028 17:17:43.639019  9569 net.cpp:129] Top shape: 64 64 14 14 (802816)
I1028 17:17:43.639024  9569 net.cpp:137] Memory required for data: 2361885696
I1028 17:17:43.639034  9569 layer_factory.hpp:77] Creating layer inception_4a/relu_pool_proj
I1028 17:17:43.639042  9569 net.cpp:84] Creating Layer inception_4a/relu_pool_proj
I1028 17:17:43.639051  9569 net.cpp:406] inception_4a/relu_pool_proj <- inception_4a/pool_proj
I1028 17:17:43.639058  9569 net.cpp:367] inception_4a/relu_pool_proj -> inception_4a/pool_proj (in-place)
I1028 17:17:43.639616  9569 net.cpp:122] Setting up inception_4a/relu_pool_proj
I1028 17:17:43.639627  9569 net.cpp:129] Top shape: 64 64 14 14 (802816)
I1028 17:17:43.639631  9569 net.cpp:137] Memory required for data: 2365096960
I1028 17:17:43.639636  9569 layer_factory.hpp:77] Creating layer inception_4a/output
I1028 17:17:43.639647  9569 net.cpp:84] Creating Layer inception_4a/output
I1028 17:17:43.639653  9569 net.cpp:406] inception_4a/output <- inception_4a/1x1
I1028 17:17:43.639660  9569 net.cpp:406] inception_4a/output <- inception_4a/3x3
I1028 17:17:43.639667  9569 net.cpp:406] inception_4a/output <- inception_4a/5x5
I1028 17:17:43.639673  9569 net.cpp:406] inception_4a/output <- inception_4a/pool_proj
I1028 17:17:43.639681  9569 net.cpp:380] inception_4a/output -> inception_4a/output
I1028 17:17:43.639717  9569 net.cpp:122] Setting up inception_4a/output
I1028 17:17:43.639725  9569 net.cpp:129] Top shape: 64 512 14 14 (6422528)
I1028 17:17:43.639729  9569 net.cpp:137] Memory required for data: 2390787072
I1028 17:17:43.639734  9569 layer_factory.hpp:77] Creating layer inception_4a/output_inception_4a/output_0_split
I1028 17:17:43.639742  9569 net.cpp:84] Creating Layer inception_4a/output_inception_4a/output_0_split
I1028 17:17:43.639749  9569 net.cpp:406] inception_4a/output_inception_4a/output_0_split <- inception_4a/output
I1028 17:17:43.639758  9569 net.cpp:380] inception_4a/output_inception_4a/output_0_split -> inception_4a/output_inception_4a/output_0_split_0
I1028 17:17:43.639770  9569 net.cpp:380] inception_4a/output_inception_4a/output_0_split -> inception_4a/output_inception_4a/output_0_split_1
I1028 17:17:43.639783  9569 net.cpp:380] inception_4a/output_inception_4a/output_0_split -> inception_4a/output_inception_4a/output_0_split_2
I1028 17:17:43.639793  9569 net.cpp:380] inception_4a/output_inception_4a/output_0_split -> inception_4a/output_inception_4a/output_0_split_3
I1028 17:17:43.639804  9569 net.cpp:380] inception_4a/output_inception_4a/output_0_split -> inception_4a/output_inception_4a/output_0_split_4
I1028 17:17:43.639896  9569 net.cpp:122] Setting up inception_4a/output_inception_4a/output_0_split
I1028 17:17:43.639906  9569 net.cpp:129] Top shape: 64 512 14 14 (6422528)
I1028 17:17:43.639914  9569 net.cpp:129] Top shape: 64 512 14 14 (6422528)
I1028 17:17:43.639920  9569 net.cpp:129] Top shape: 64 512 14 14 (6422528)
I1028 17:17:43.639927  9569 net.cpp:129] Top shape: 64 512 14 14 (6422528)
I1028 17:17:43.639933  9569 net.cpp:129] Top shape: 64 512 14 14 (6422528)
I1028 17:17:43.639940  9569 net.cpp:137] Memory required for data: 2519237632
I1028 17:17:43.639945  9569 layer_factory.hpp:77] Creating layer loss1/ave_pool
I1028 17:17:43.639951  9569 net.cpp:84] Creating Layer loss1/ave_pool
I1028 17:17:43.639956  9569 net.cpp:406] loss1/ave_pool <- inception_4a/output_inception_4a/output_0_split_0
I1028 17:17:43.639962  9569 net.cpp:380] loss1/ave_pool -> loss1/ave_pool
I1028 17:17:43.640182  9569 net.cpp:122] Setting up loss1/ave_pool
I1028 17:17:43.640193  9569 net.cpp:129] Top shape: 64 512 4 4 (524288)
I1028 17:17:43.640200  9569 net.cpp:137] Memory required for data: 2521334784
I1028 17:17:43.640205  9569 layer_factory.hpp:77] Creating layer loss1/conv
I1028 17:17:43.640218  9569 net.cpp:84] Creating Layer loss1/conv
I1028 17:17:43.640225  9569 net.cpp:406] loss1/conv <- loss1/ave_pool
I1028 17:17:43.640233  9569 net.cpp:380] loss1/conv -> loss1/conv
I1028 17:17:43.642007  9569 net.cpp:122] Setting up loss1/conv
I1028 17:17:43.642025  9569 net.cpp:129] Top shape: 64 128 4 4 (131072)
I1028 17:17:43.642030  9569 net.cpp:137] Memory required for data: 2521859072
I1028 17:17:43.642042  9569 layer_factory.hpp:77] Creating layer loss1/relu_conv
I1028 17:17:43.642055  9569 net.cpp:84] Creating Layer loss1/relu_conv
I1028 17:17:43.642062  9569 net.cpp:406] loss1/relu_conv <- loss1/conv
I1028 17:17:43.642072  9569 net.cpp:367] loss1/relu_conv -> loss1/conv (in-place)
I1028 17:17:43.642293  9569 net.cpp:122] Setting up loss1/relu_conv
I1028 17:17:43.642303  9569 net.cpp:129] Top shape: 64 128 4 4 (131072)
I1028 17:17:43.642323  9569 net.cpp:137] Memory required for data: 2522383360
I1028 17:17:43.642328  9569 layer_factory.hpp:77] Creating layer loss1/fc
I1028 17:17:43.642338  9569 net.cpp:84] Creating Layer loss1/fc
I1028 17:17:43.642344  9569 net.cpp:406] loss1/fc <- loss1/conv
I1028 17:17:43.642352  9569 net.cpp:380] loss1/fc -> loss1/fc
I1028 17:17:43.662535  9569 net.cpp:122] Setting up loss1/fc
I1028 17:17:43.662587  9569 net.cpp:129] Top shape: 64 1024 (65536)
I1028 17:17:43.662593  9569 net.cpp:137] Memory required for data: 2522645504
I1028 17:17:43.662611  9569 layer_factory.hpp:77] Creating layer loss1/relu_fc
I1028 17:17:43.662631  9569 net.cpp:84] Creating Layer loss1/relu_fc
I1028 17:17:43.662638  9569 net.cpp:406] loss1/relu_fc <- loss1/fc
I1028 17:17:43.662652  9569 net.cpp:367] loss1/relu_fc -> loss1/fc (in-place)
I1028 17:17:43.662948  9569 net.cpp:122] Setting up loss1/relu_fc
I1028 17:17:43.662957  9569 net.cpp:129] Top shape: 64 1024 (65536)
I1028 17:17:43.662961  9569 net.cpp:137] Memory required for data: 2522907648
I1028 17:17:43.662966  9569 layer_factory.hpp:77] Creating layer loss1/drop_fc
I1028 17:17:43.663002  9569 net.cpp:84] Creating Layer loss1/drop_fc
I1028 17:17:43.663008  9569 net.cpp:406] loss1/drop_fc <- loss1/fc
I1028 17:17:43.663015  9569 net.cpp:367] loss1/drop_fc -> loss1/fc (in-place)
I1028 17:17:43.663045  9569 net.cpp:122] Setting up loss1/drop_fc
I1028 17:17:43.663053  9569 net.cpp:129] Top shape: 64 1024 (65536)
I1028 17:17:43.663056  9569 net.cpp:137] Memory required for data: 2523169792
I1028 17:17:43.663061  9569 layer_factory.hpp:77] Creating layer my-loss1/classifier
I1028 17:17:43.663072  9569 net.cpp:84] Creating Layer my-loss1/classifier
I1028 17:17:43.663077  9569 net.cpp:406] my-loss1/classifier <- loss1/fc
I1028 17:17:43.663084  9569 net.cpp:380] my-loss1/classifier -> my-loss1/classifier
I1028 17:17:43.663247  9569 net.cpp:122] Setting up my-loss1/classifier
I1028 17:17:43.663255  9569 net.cpp:129] Top shape: 64 1 (64)
I1028 17:17:43.663259  9569 net.cpp:137] Memory required for data: 2523170048
I1028 17:17:43.663267  9569 layer_factory.hpp:77] Creating layer loss1/loss
I1028 17:17:43.663275  9569 net.cpp:84] Creating Layer loss1/loss
I1028 17:17:43.663281  9569 net.cpp:406] loss1/loss <- my-loss1/classifier
I1028 17:17:43.663287  9569 net.cpp:406] loss1/loss <- label_data_1_split_0
I1028 17:17:43.663297  9569 net.cpp:380] loss1/loss -> loss1/loss
I1028 17:17:43.663343  9569 net.cpp:122] Setting up loss1/loss
I1028 17:17:43.663352  9569 net.cpp:129] Top shape: (1)
I1028 17:17:43.663355  9569 net.cpp:132]     with loss weight 0.3
I1028 17:17:43.663383  9569 net.cpp:137] Memory required for data: 2523170052
I1028 17:17:43.663388  9569 layer_factory.hpp:77] Creating layer inception_4b/1x1
I1028 17:17:43.663401  9569 net.cpp:84] Creating Layer inception_4b/1x1
I1028 17:17:43.663408  9569 net.cpp:406] inception_4b/1x1 <- inception_4a/output_inception_4a/output_0_split_1
I1028 17:17:43.663419  9569 net.cpp:380] inception_4b/1x1 -> inception_4b/1x1
I1028 17:17:43.665467  9569 net.cpp:122] Setting up inception_4b/1x1
I1028 17:17:43.665485  9569 net.cpp:129] Top shape: 64 160 14 14 (2007040)
I1028 17:17:43.665491  9569 net.cpp:137] Memory required for data: 2531198212
I1028 17:17:43.665501  9569 layer_factory.hpp:77] Creating layer inception_4b/relu_1x1
I1028 17:17:43.665511  9569 net.cpp:84] Creating Layer inception_4b/relu_1x1
I1028 17:17:43.665518  9569 net.cpp:406] inception_4b/relu_1x1 <- inception_4b/1x1
I1028 17:17:43.665525  9569 net.cpp:367] inception_4b/relu_1x1 -> inception_4b/1x1 (in-place)
I1028 17:17:43.666029  9569 net.cpp:122] Setting up inception_4b/relu_1x1
I1028 17:17:43.666043  9569 net.cpp:129] Top shape: 64 160 14 14 (2007040)
I1028 17:17:43.666048  9569 net.cpp:137] Memory required for data: 2539226372
I1028 17:17:43.666052  9569 layer_factory.hpp:77] Creating layer inception_4b/3x3_reduce
I1028 17:17:43.666065  9569 net.cpp:84] Creating Layer inception_4b/3x3_reduce
I1028 17:17:43.666072  9569 net.cpp:406] inception_4b/3x3_reduce <- inception_4a/output_inception_4a/output_0_split_2
I1028 17:17:43.666101  9569 net.cpp:380] inception_4b/3x3_reduce -> inception_4b/3x3_reduce
I1028 17:17:43.667868  9569 net.cpp:122] Setting up inception_4b/3x3_reduce
I1028 17:17:43.667891  9569 net.cpp:129] Top shape: 64 112 14 14 (1404928)
I1028 17:17:43.667896  9569 net.cpp:137] Memory required for data: 2544846084
I1028 17:17:43.667907  9569 layer_factory.hpp:77] Creating layer inception_4b/relu_3x3_reduce
I1028 17:17:43.667917  9569 net.cpp:84] Creating Layer inception_4b/relu_3x3_reduce
I1028 17:17:43.667924  9569 net.cpp:406] inception_4b/relu_3x3_reduce <- inception_4b/3x3_reduce
I1028 17:17:43.667937  9569 net.cpp:367] inception_4b/relu_3x3_reduce -> inception_4b/3x3_reduce (in-place)
I1028 17:17:43.668154  9569 net.cpp:122] Setting up inception_4b/relu_3x3_reduce
I1028 17:17:43.668162  9569 net.cpp:129] Top shape: 64 112 14 14 (1404928)
I1028 17:17:43.668167  9569 net.cpp:137] Memory required for data: 2550465796
I1028 17:17:43.668172  9569 layer_factory.hpp:77] Creating layer inception_4b/3x3
I1028 17:17:43.668184  9569 net.cpp:84] Creating Layer inception_4b/3x3
I1028 17:17:43.668190  9569 net.cpp:406] inception_4b/3x3 <- inception_4b/3x3_reduce
I1028 17:17:43.668200  9569 net.cpp:380] inception_4b/3x3 -> inception_4b/3x3
I1028 17:17:43.673128  9569 net.cpp:122] Setting up inception_4b/3x3
I1028 17:17:43.673167  9569 net.cpp:129] Top shape: 64 224 14 14 (2809856)
I1028 17:17:43.673172  9569 net.cpp:137] Memory required for data: 2561705220
I1028 17:17:43.673189  9569 layer_factory.hpp:77] Creating layer inception_4b/relu_3x3
I1028 17:17:43.673203  9569 net.cpp:84] Creating Layer inception_4b/relu_3x3
I1028 17:17:43.673213  9569 net.cpp:406] inception_4b/relu_3x3 <- inception_4b/3x3
I1028 17:17:43.673226  9569 net.cpp:367] inception_4b/relu_3x3 -> inception_4b/3x3 (in-place)
I1028 17:17:43.673446  9569 net.cpp:122] Setting up inception_4b/relu_3x3
I1028 17:17:43.673455  9569 net.cpp:129] Top shape: 64 224 14 14 (2809856)
I1028 17:17:43.673460  9569 net.cpp:137] Memory required for data: 2572944644
I1028 17:17:43.673465  9569 layer_factory.hpp:77] Creating layer inception_4b/5x5_reduce
I1028 17:17:43.673480  9569 net.cpp:84] Creating Layer inception_4b/5x5_reduce
I1028 17:17:43.673507  9569 net.cpp:406] inception_4b/5x5_reduce <- inception_4a/output_inception_4a/output_0_split_3
I1028 17:17:43.673518  9569 net.cpp:380] inception_4b/5x5_reduce -> inception_4b/5x5_reduce
I1028 17:17:43.674971  9569 net.cpp:122] Setting up inception_4b/5x5_reduce
I1028 17:17:43.674988  9569 net.cpp:129] Top shape: 64 24 14 14 (301056)
I1028 17:17:43.674993  9569 net.cpp:137] Memory required for data: 2574148868
I1028 17:17:43.675002  9569 layer_factory.hpp:77] Creating layer inception_4b/relu_5x5_reduce
I1028 17:17:43.675024  9569 net.cpp:84] Creating Layer inception_4b/relu_5x5_reduce
I1028 17:17:43.675032  9569 net.cpp:406] inception_4b/relu_5x5_reduce <- inception_4b/5x5_reduce
I1028 17:17:43.675040  9569 net.cpp:367] inception_4b/relu_5x5_reduce -> inception_4b/5x5_reduce (in-place)
I1028 17:17:43.675246  9569 net.cpp:122] Setting up inception_4b/relu_5x5_reduce
I1028 17:17:43.675256  9569 net.cpp:129] Top shape: 64 24 14 14 (301056)
I1028 17:17:43.675259  9569 net.cpp:137] Memory required for data: 2575353092
I1028 17:17:43.675264  9569 layer_factory.hpp:77] Creating layer inception_4b/5x5
I1028 17:17:43.675277  9569 net.cpp:84] Creating Layer inception_4b/5x5
I1028 17:17:43.675284  9569 net.cpp:406] inception_4b/5x5 <- inception_4b/5x5_reduce
I1028 17:17:43.675295  9569 net.cpp:380] inception_4b/5x5 -> inception_4b/5x5
I1028 17:17:43.676880  9569 net.cpp:122] Setting up inception_4b/5x5
I1028 17:17:43.676898  9569 net.cpp:129] Top shape: 64 64 14 14 (802816)
I1028 17:17:43.676903  9569 net.cpp:137] Memory required for data: 2578564356
I1028 17:17:43.676913  9569 layer_factory.hpp:77] Creating layer inception_4b/relu_5x5
I1028 17:17:43.676923  9569 net.cpp:84] Creating Layer inception_4b/relu_5x5
I1028 17:17:43.676931  9569 net.cpp:406] inception_4b/relu_5x5 <- inception_4b/5x5
I1028 17:17:43.676957  9569 net.cpp:367] inception_4b/relu_5x5 -> inception_4b/5x5 (in-place)
I1028 17:17:43.677162  9569 net.cpp:122] Setting up inception_4b/relu_5x5
I1028 17:17:43.677171  9569 net.cpp:129] Top shape: 64 64 14 14 (802816)
I1028 17:17:43.677175  9569 net.cpp:137] Memory required for data: 2581775620
I1028 17:17:43.677181  9569 layer_factory.hpp:77] Creating layer inception_4b/pool
I1028 17:17:43.677191  9569 net.cpp:84] Creating Layer inception_4b/pool
I1028 17:17:43.677197  9569 net.cpp:406] inception_4b/pool <- inception_4a/output_inception_4a/output_0_split_4
I1028 17:17:43.677206  9569 net.cpp:380] inception_4b/pool -> inception_4b/pool
I1028 17:17:43.677283  9569 net.cpp:122] Setting up inception_4b/pool
I1028 17:17:43.677291  9569 net.cpp:129] Top shape: 64 512 14 14 (6422528)
I1028 17:17:43.677295  9569 net.cpp:137] Memory required for data: 2607465732
I1028 17:17:43.677299  9569 layer_factory.hpp:77] Creating layer inception_4b/pool_proj
I1028 17:17:43.677314  9569 net.cpp:84] Creating Layer inception_4b/pool_proj
I1028 17:17:43.677320  9569 net.cpp:406] inception_4b/pool_proj <- inception_4b/pool
I1028 17:17:43.677330  9569 net.cpp:380] inception_4b/pool_proj -> inception_4b/pool_proj
I1028 17:17:43.678902  9569 net.cpp:122] Setting up inception_4b/pool_proj
I1028 17:17:43.678921  9569 net.cpp:129] Top shape: 64 64 14 14 (802816)
I1028 17:17:43.678926  9569 net.cpp:137] Memory required for data: 2610676996
I1028 17:17:43.678937  9569 layer_factory.hpp:77] Creating layer inception_4b/relu_pool_proj
I1028 17:17:43.678946  9569 net.cpp:84] Creating Layer inception_4b/relu_pool_proj
I1028 17:17:43.678953  9569 net.cpp:406] inception_4b/relu_pool_proj <- inception_4b/pool_proj
I1028 17:17:43.678963  9569 net.cpp:367] inception_4b/relu_pool_proj -> inception_4b/pool_proj (in-place)
I1028 17:17:43.679172  9569 net.cpp:122] Setting up inception_4b/relu_pool_proj
I1028 17:17:43.679181  9569 net.cpp:129] Top shape: 64 64 14 14 (802816)
I1028 17:17:43.679186  9569 net.cpp:137] Memory required for data: 2613888260
I1028 17:17:43.679191  9569 layer_factory.hpp:77] Creating layer inception_4b/output
I1028 17:17:43.679198  9569 net.cpp:84] Creating Layer inception_4b/output
I1028 17:17:43.679203  9569 net.cpp:406] inception_4b/output <- inception_4b/1x1
I1028 17:17:43.679210  9569 net.cpp:406] inception_4b/output <- inception_4b/3x3
I1028 17:17:43.679216  9569 net.cpp:406] inception_4b/output <- inception_4b/5x5
I1028 17:17:43.679222  9569 net.cpp:406] inception_4b/output <- inception_4b/pool_proj
I1028 17:17:43.679231  9569 net.cpp:380] inception_4b/output -> inception_4b/output
I1028 17:17:43.679265  9569 net.cpp:122] Setting up inception_4b/output
I1028 17:17:43.679272  9569 net.cpp:129] Top shape: 64 512 14 14 (6422528)
I1028 17:17:43.679277  9569 net.cpp:137] Memory required for data: 2639578372
I1028 17:17:43.679281  9569 layer_factory.hpp:77] Creating layer inception_4b/output_inception_4b/output_0_split
I1028 17:17:43.679291  9569 net.cpp:84] Creating Layer inception_4b/output_inception_4b/output_0_split
I1028 17:17:43.679297  9569 net.cpp:406] inception_4b/output_inception_4b/output_0_split <- inception_4b/output
I1028 17:17:43.679306  9569 net.cpp:380] inception_4b/output_inception_4b/output_0_split -> inception_4b/output_inception_4b/output_0_split_0
I1028 17:17:43.679318  9569 net.cpp:380] inception_4b/output_inception_4b/output_0_split -> inception_4b/output_inception_4b/output_0_split_1
I1028 17:17:43.679328  9569 net.cpp:380] inception_4b/output_inception_4b/output_0_split -> inception_4b/output_inception_4b/output_0_split_2
I1028 17:17:43.679340  9569 net.cpp:380] inception_4b/output_inception_4b/output_0_split -> inception_4b/output_inception_4b/output_0_split_3
I1028 17:17:43.679417  9569 net.cpp:122] Setting up inception_4b/output_inception_4b/output_0_split
I1028 17:17:43.679425  9569 net.cpp:129] Top shape: 64 512 14 14 (6422528)
I1028 17:17:43.679432  9569 net.cpp:129] Top shape: 64 512 14 14 (6422528)
I1028 17:17:43.679440  9569 net.cpp:129] Top shape: 64 512 14 14 (6422528)
I1028 17:17:43.679457  9569 net.cpp:129] Top shape: 64 512 14 14 (6422528)
I1028 17:17:43.679463  9569 net.cpp:137] Memory required for data: 2742338820
I1028 17:17:43.679468  9569 layer_factory.hpp:77] Creating layer inception_4c/1x1
I1028 17:17:43.679481  9569 net.cpp:84] Creating Layer inception_4c/1x1
I1028 17:17:43.679487  9569 net.cpp:406] inception_4c/1x1 <- inception_4b/output_inception_4b/output_0_split_0
I1028 17:17:43.679499  9569 net.cpp:380] inception_4c/1x1 -> inception_4c/1x1
I1028 17:17:43.681627  9569 net.cpp:122] Setting up inception_4c/1x1
I1028 17:17:43.681651  9569 net.cpp:129] Top shape: 64 128 14 14 (1605632)
I1028 17:17:43.681658  9569 net.cpp:137] Memory required for data: 2748761348
I1028 17:17:43.681669  9569 layer_factory.hpp:77] Creating layer inception_4c/relu_1x1
I1028 17:17:43.681679  9569 net.cpp:84] Creating Layer inception_4c/relu_1x1
I1028 17:17:43.681687  9569 net.cpp:406] inception_4c/relu_1x1 <- inception_4c/1x1
I1028 17:17:43.681699  9569 net.cpp:367] inception_4c/relu_1x1 -> inception_4c/1x1 (in-place)
I1028 17:17:43.682250  9569 net.cpp:122] Setting up inception_4c/relu_1x1
I1028 17:17:43.682263  9569 net.cpp:129] Top shape: 64 128 14 14 (1605632)
I1028 17:17:43.682270  9569 net.cpp:137] Memory required for data: 2755183876
I1028 17:17:43.682273  9569 layer_factory.hpp:77] Creating layer inception_4c/3x3_reduce
I1028 17:17:43.682288  9569 net.cpp:84] Creating Layer inception_4c/3x3_reduce
I1028 17:17:43.682296  9569 net.cpp:406] inception_4c/3x3_reduce <- inception_4b/output_inception_4b/output_0_split_1
I1028 17:17:43.682307  9569 net.cpp:380] inception_4c/3x3_reduce -> inception_4c/3x3_reduce
I1028 17:17:43.684108  9569 net.cpp:122] Setting up inception_4c/3x3_reduce
I1028 17:17:43.684129  9569 net.cpp:129] Top shape: 64 128 14 14 (1605632)
I1028 17:17:43.684134  9569 net.cpp:137] Memory required for data: 2761606404
I1028 17:17:43.684145  9569 layer_factory.hpp:77] Creating layer inception_4c/relu_3x3_reduce
I1028 17:17:43.684155  9569 net.cpp:84] Creating Layer inception_4c/relu_3x3_reduce
I1028 17:17:43.684164  9569 net.cpp:406] inception_4c/relu_3x3_reduce <- inception_4c/3x3_reduce
I1028 17:17:43.684175  9569 net.cpp:367] inception_4c/relu_3x3_reduce -> inception_4c/3x3_reduce (in-place)
I1028 17:17:43.684381  9569 net.cpp:122] Setting up inception_4c/relu_3x3_reduce
I1028 17:17:43.684391  9569 net.cpp:129] Top shape: 64 128 14 14 (1605632)
I1028 17:17:43.684394  9569 net.cpp:137] Memory required for data: 2768028932
I1028 17:17:43.684399  9569 layer_factory.hpp:77] Creating layer inception_4c/3x3
I1028 17:17:43.684412  9569 net.cpp:84] Creating Layer inception_4c/3x3
I1028 17:17:43.684419  9569 net.cpp:406] inception_4c/3x3 <- inception_4c/3x3_reduce
I1028 17:17:43.684429  9569 net.cpp:380] inception_4c/3x3 -> inception_4c/3x3
I1028 17:17:43.688458  9569 net.cpp:122] Setting up inception_4c/3x3
I1028 17:17:43.688557  9569 net.cpp:129] Top shape: 64 256 14 14 (3211264)
I1028 17:17:43.688580  9569 net.cpp:137] Memory required for data: 2780873988
I1028 17:17:43.688622  9569 layer_factory.hpp:77] Creating layer inception_4c/relu_3x3
I1028 17:17:43.688640  9569 net.cpp:84] Creating Layer inception_4c/relu_3x3
I1028 17:17:43.688649  9569 net.cpp:406] inception_4c/relu_3x3 <- inception_4c/3x3
I1028 17:17:43.688660  9569 net.cpp:367] inception_4c/relu_3x3 -> inception_4c/3x3 (in-place)
I1028 17:17:43.688894  9569 net.cpp:122] Setting up inception_4c/relu_3x3
I1028 17:17:43.688904  9569 net.cpp:129] Top shape: 64 256 14 14 (3211264)
I1028 17:17:43.688907  9569 net.cpp:137] Memory required for data: 2793719044
I1028 17:17:43.688912  9569 layer_factory.hpp:77] Creating layer inception_4c/5x5_reduce
I1028 17:17:43.688927  9569 net.cpp:84] Creating Layer inception_4c/5x5_reduce
I1028 17:17:43.688935  9569 net.cpp:406] inception_4c/5x5_reduce <- inception_4b/output_inception_4b/output_0_split_2
I1028 17:17:43.688946  9569 net.cpp:380] inception_4c/5x5_reduce -> inception_4c/5x5_reduce
I1028 17:17:43.690646  9569 net.cpp:122] Setting up inception_4c/5x5_reduce
I1028 17:17:43.690752  9569 net.cpp:129] Top shape: 64 24 14 14 (301056)
I1028 17:17:43.690768  9569 net.cpp:137] Memory required for data: 2794923268
I1028 17:17:43.690796  9569 layer_factory.hpp:77] Creating layer inception_4c/relu_5x5_reduce
I1028 17:17:43.690820  9569 net.cpp:84] Creating Layer inception_4c/relu_5x5_reduce
I1028 17:17:43.690840  9569 net.cpp:406] inception_4c/relu_5x5_reduce <- inception_4c/5x5_reduce
I1028 17:17:43.690865  9569 net.cpp:367] inception_4c/relu_5x5_reduce -> inception_4c/5x5_reduce (in-place)
I1028 17:17:43.691185  9569 net.cpp:122] Setting up inception_4c/relu_5x5_reduce
I1028 17:17:43.691220  9569 net.cpp:129] Top shape: 64 24 14 14 (301056)
I1028 17:17:43.691236  9569 net.cpp:137] Memory required for data: 2796127492
I1028 17:17:43.691252  9569 layer_factory.hpp:77] Creating layer inception_4c/5x5
I1028 17:17:43.691284  9569 net.cpp:84] Creating Layer inception_4c/5x5
I1028 17:17:43.691301  9569 net.cpp:406] inception_4c/5x5 <- inception_4c/5x5_reduce
I1028 17:17:43.691328  9569 net.cpp:380] inception_4c/5x5 -> inception_4c/5x5
I1028 17:17:43.694674  9569 net.cpp:122] Setting up inception_4c/5x5
I1028 17:17:43.694711  9569 net.cpp:129] Top shape: 64 64 14 14 (802816)
I1028 17:17:43.694716  9569 net.cpp:137] Memory required for data: 2799338756
I1028 17:17:43.694730  9569 layer_factory.hpp:77] Creating layer inception_4c/relu_5x5
I1028 17:17:43.694746  9569 net.cpp:84] Creating Layer inception_4c/relu_5x5
I1028 17:17:43.694756  9569 net.cpp:406] inception_4c/relu_5x5 <- inception_4c/5x5
I1028 17:17:43.694766  9569 net.cpp:367] inception_4c/relu_5x5 -> inception_4c/5x5 (in-place)
I1028 17:17:43.694972  9569 net.cpp:122] Setting up inception_4c/relu_5x5
I1028 17:17:43.694980  9569 net.cpp:129] Top shape: 64 64 14 14 (802816)
I1028 17:17:43.694984  9569 net.cpp:137] Memory required for data: 2802550020
I1028 17:17:43.694988  9569 layer_factory.hpp:77] Creating layer inception_4c/pool
I1028 17:17:43.694996  9569 net.cpp:84] Creating Layer inception_4c/pool
I1028 17:17:43.695003  9569 net.cpp:406] inception_4c/pool <- inception_4b/output_inception_4b/output_0_split_3
I1028 17:17:43.695013  9569 net.cpp:380] inception_4c/pool -> inception_4c/pool
I1028 17:17:43.695068  9569 net.cpp:122] Setting up inception_4c/pool
I1028 17:17:43.695077  9569 net.cpp:129] Top shape: 64 512 14 14 (6422528)
I1028 17:17:43.695080  9569 net.cpp:137] Memory required for data: 2828240132
I1028 17:17:43.695085  9569 layer_factory.hpp:77] Creating layer inception_4c/pool_proj
I1028 17:17:43.695097  9569 net.cpp:84] Creating Layer inception_4c/pool_proj
I1028 17:17:43.695103  9569 net.cpp:406] inception_4c/pool_proj <- inception_4c/pool
I1028 17:17:43.695113  9569 net.cpp:380] inception_4c/pool_proj -> inception_4c/pool_proj
I1028 17:17:43.696632  9569 net.cpp:122] Setting up inception_4c/pool_proj
I1028 17:17:43.696650  9569 net.cpp:129] Top shape: 64 64 14 14 (802816)
I1028 17:17:43.696653  9569 net.cpp:137] Memory required for data: 2831451396
I1028 17:17:43.696662  9569 layer_factory.hpp:77] Creating layer inception_4c/relu_pool_proj
I1028 17:17:43.696669  9569 net.cpp:84] Creating Layer inception_4c/relu_pool_proj
I1028 17:17:43.696674  9569 net.cpp:406] inception_4c/relu_pool_proj <- inception_4c/pool_proj
I1028 17:17:43.696682  9569 net.cpp:367] inception_4c/relu_pool_proj -> inception_4c/pool_proj (in-place)
I1028 17:17:43.696885  9569 net.cpp:122] Setting up inception_4c/relu_pool_proj
I1028 17:17:43.696894  9569 net.cpp:129] Top shape: 64 64 14 14 (802816)
I1028 17:17:43.696898  9569 net.cpp:137] Memory required for data: 2834662660
I1028 17:17:43.696902  9569 layer_factory.hpp:77] Creating layer inception_4c/output
I1028 17:17:43.696909  9569 net.cpp:84] Creating Layer inception_4c/output
I1028 17:17:43.696915  9569 net.cpp:406] inception_4c/output <- inception_4c/1x1
I1028 17:17:43.696921  9569 net.cpp:406] inception_4c/output <- inception_4c/3x3
I1028 17:17:43.696926  9569 net.cpp:406] inception_4c/output <- inception_4c/5x5
I1028 17:17:43.696931  9569 net.cpp:406] inception_4c/output <- inception_4c/pool_proj
I1028 17:17:43.696970  9569 net.cpp:380] inception_4c/output -> inception_4c/output
I1028 17:17:43.697003  9569 net.cpp:122] Setting up inception_4c/output
I1028 17:17:43.697010  9569 net.cpp:129] Top shape: 64 512 14 14 (6422528)
I1028 17:17:43.697013  9569 net.cpp:137] Memory required for data: 2860352772
I1028 17:17:43.697017  9569 layer_factory.hpp:77] Creating layer inception_4c/output_inception_4c/output_0_split
I1028 17:17:43.697024  9569 net.cpp:84] Creating Layer inception_4c/output_inception_4c/output_0_split
I1028 17:17:43.697028  9569 net.cpp:406] inception_4c/output_inception_4c/output_0_split <- inception_4c/output
I1028 17:17:43.697037  9569 net.cpp:380] inception_4c/output_inception_4c/output_0_split -> inception_4c/output_inception_4c/output_0_split_0
I1028 17:17:43.697046  9569 net.cpp:380] inception_4c/output_inception_4c/output_0_split -> inception_4c/output_inception_4c/output_0_split_1
I1028 17:17:43.697054  9569 net.cpp:380] inception_4c/output_inception_4c/output_0_split -> inception_4c/output_inception_4c/output_0_split_2
I1028 17:17:43.697064  9569 net.cpp:380] inception_4c/output_inception_4c/output_0_split -> inception_4c/output_inception_4c/output_0_split_3
I1028 17:17:43.697140  9569 net.cpp:122] Setting up inception_4c/output_inception_4c/output_0_split
I1028 17:17:43.697149  9569 net.cpp:129] Top shape: 64 512 14 14 (6422528)
I1028 17:17:43.697154  9569 net.cpp:129] Top shape: 64 512 14 14 (6422528)
I1028 17:17:43.697158  9569 net.cpp:129] Top shape: 64 512 14 14 (6422528)
I1028 17:17:43.697163  9569 net.cpp:129] Top shape: 64 512 14 14 (6422528)
I1028 17:17:43.697166  9569 net.cpp:137] Memory required for data: 2963113220
I1028 17:17:43.697170  9569 layer_factory.hpp:77] Creating layer inception_4d/1x1
I1028 17:17:43.697180  9569 net.cpp:84] Creating Layer inception_4d/1x1
I1028 17:17:43.697185  9569 net.cpp:406] inception_4d/1x1 <- inception_4c/output_inception_4c/output_0_split_0
I1028 17:17:43.697193  9569 net.cpp:380] inception_4d/1x1 -> inception_4d/1x1
I1028 17:17:43.698971  9569 net.cpp:122] Setting up inception_4d/1x1
I1028 17:17:43.698992  9569 net.cpp:129] Top shape: 64 112 14 14 (1404928)
I1028 17:17:43.698995  9569 net.cpp:137] Memory required for data: 2968732932
I1028 17:17:43.699004  9569 layer_factory.hpp:77] Creating layer inception_4d/relu_1x1
I1028 17:17:43.699015  9569 net.cpp:84] Creating Layer inception_4d/relu_1x1
I1028 17:17:43.699023  9569 net.cpp:406] inception_4d/relu_1x1 <- inception_4d/1x1
I1028 17:17:43.699030  9569 net.cpp:367] inception_4d/relu_1x1 -> inception_4d/1x1 (in-place)
I1028 17:17:43.699534  9569 net.cpp:122] Setting up inception_4d/relu_1x1
I1028 17:17:43.699545  9569 net.cpp:129] Top shape: 64 112 14 14 (1404928)
I1028 17:17:43.699549  9569 net.cpp:137] Memory required for data: 2974352644
I1028 17:17:43.699553  9569 layer_factory.hpp:77] Creating layer inception_4d/3x3_reduce
I1028 17:17:43.699566  9569 net.cpp:84] Creating Layer inception_4d/3x3_reduce
I1028 17:17:43.699571  9569 net.cpp:406] inception_4d/3x3_reduce <- inception_4c/output_inception_4c/output_0_split_1
I1028 17:17:43.699581  9569 net.cpp:380] inception_4d/3x3_reduce -> inception_4d/3x3_reduce
I1028 17:17:43.701460  9569 net.cpp:122] Setting up inception_4d/3x3_reduce
I1028 17:17:43.701478  9569 net.cpp:129] Top shape: 64 144 14 14 (1806336)
I1028 17:17:43.701483  9569 net.cpp:137] Memory required for data: 2981577988
I1028 17:17:43.701491  9569 layer_factory.hpp:77] Creating layer inception_4d/relu_3x3_reduce
I1028 17:17:43.701501  9569 net.cpp:84] Creating Layer inception_4d/relu_3x3_reduce
I1028 17:17:43.701508  9569 net.cpp:406] inception_4d/relu_3x3_reduce <- inception_4d/3x3_reduce
I1028 17:17:43.701515  9569 net.cpp:367] inception_4d/relu_3x3_reduce -> inception_4d/3x3_reduce (in-place)
I1028 17:17:43.701719  9569 net.cpp:122] Setting up inception_4d/relu_3x3_reduce
I1028 17:17:43.701727  9569 net.cpp:129] Top shape: 64 144 14 14 (1806336)
I1028 17:17:43.701731  9569 net.cpp:137] Memory required for data: 2988803332
I1028 17:17:43.701735  9569 layer_factory.hpp:77] Creating layer inception_4d/3x3
I1028 17:17:43.701776  9569 net.cpp:84] Creating Layer inception_4d/3x3
I1028 17:17:43.701782  9569 net.cpp:406] inception_4d/3x3 <- inception_4d/3x3_reduce
I1028 17:17:43.701792  9569 net.cpp:380] inception_4d/3x3 -> inception_4d/3x3
I1028 17:17:43.707847  9569 net.cpp:122] Setting up inception_4d/3x3
I1028 17:17:43.707885  9569 net.cpp:129] Top shape: 64 288 14 14 (3612672)
I1028 17:17:43.707890  9569 net.cpp:137] Memory required for data: 3003254020
I1028 17:17:43.707902  9569 layer_factory.hpp:77] Creating layer inception_4d/relu_3x3
I1028 17:17:43.707918  9569 net.cpp:84] Creating Layer inception_4d/relu_3x3
I1028 17:17:43.707926  9569 net.cpp:406] inception_4d/relu_3x3 <- inception_4d/3x3
I1028 17:17:43.707937  9569 net.cpp:367] inception_4d/relu_3x3 -> inception_4d/3x3 (in-place)
I1028 17:17:43.708153  9569 net.cpp:122] Setting up inception_4d/relu_3x3
I1028 17:17:43.708164  9569 net.cpp:129] Top shape: 64 288 14 14 (3612672)
I1028 17:17:43.708168  9569 net.cpp:137] Memory required for data: 3017704708
I1028 17:17:43.708173  9569 layer_factory.hpp:77] Creating layer inception_4d/5x5_reduce
I1028 17:17:43.708184  9569 net.cpp:84] Creating Layer inception_4d/5x5_reduce
I1028 17:17:43.708191  9569 net.cpp:406] inception_4d/5x5_reduce <- inception_4c/output_inception_4c/output_0_split_2
I1028 17:17:43.708201  9569 net.cpp:380] inception_4d/5x5_reduce -> inception_4d/5x5_reduce
I1028 17:17:43.709653  9569 net.cpp:122] Setting up inception_4d/5x5_reduce
I1028 17:17:43.709667  9569 net.cpp:129] Top shape: 64 32 14 14 (401408)
I1028 17:17:43.709671  9569 net.cpp:137] Memory required for data: 3019310340
I1028 17:17:43.709681  9569 layer_factory.hpp:77] Creating layer inception_4d/relu_5x5_reduce
I1028 17:17:43.709691  9569 net.cpp:84] Creating Layer inception_4d/relu_5x5_reduce
I1028 17:17:43.709698  9569 net.cpp:406] inception_4d/relu_5x5_reduce <- inception_4d/5x5_reduce
I1028 17:17:43.709705  9569 net.cpp:367] inception_4d/relu_5x5_reduce -> inception_4d/5x5_reduce (in-place)
I1028 17:17:43.709910  9569 net.cpp:122] Setting up inception_4d/relu_5x5_reduce
I1028 17:17:43.709921  9569 net.cpp:129] Top shape: 64 32 14 14 (401408)
I1028 17:17:43.709928  9569 net.cpp:137] Memory required for data: 3020915972
I1028 17:17:43.709933  9569 layer_factory.hpp:77] Creating layer inception_4d/5x5
I1028 17:17:43.709944  9569 net.cpp:84] Creating Layer inception_4d/5x5
I1028 17:17:43.709950  9569 net.cpp:406] inception_4d/5x5 <- inception_4d/5x5_reduce
I1028 17:17:43.709957  9569 net.cpp:380] inception_4d/5x5 -> inception_4d/5x5
I1028 17:17:43.711694  9569 net.cpp:122] Setting up inception_4d/5x5
I1028 17:17:43.711715  9569 net.cpp:129] Top shape: 64 64 14 14 (802816)
I1028 17:17:43.711720  9569 net.cpp:137] Memory required for data: 3024127236
I1028 17:17:43.711730  9569 layer_factory.hpp:77] Creating layer inception_4d/relu_5x5
I1028 17:17:43.711737  9569 net.cpp:84] Creating Layer inception_4d/relu_5x5
I1028 17:17:43.711742  9569 net.cpp:406] inception_4d/relu_5x5 <- inception_4d/5x5
I1028 17:17:43.711752  9569 net.cpp:367] inception_4d/relu_5x5 -> inception_4d/5x5 (in-place)
I1028 17:17:43.711951  9569 net.cpp:122] Setting up inception_4d/relu_5x5
I1028 17:17:43.711961  9569 net.cpp:129] Top shape: 64 64 14 14 (802816)
I1028 17:17:43.711966  9569 net.cpp:137] Memory required for data: 3027338500
I1028 17:17:43.711969  9569 layer_factory.hpp:77] Creating layer inception_4d/pool
I1028 17:17:43.711977  9569 net.cpp:84] Creating Layer inception_4d/pool
I1028 17:17:43.711982  9569 net.cpp:406] inception_4d/pool <- inception_4c/output_inception_4c/output_0_split_3
I1028 17:17:43.711988  9569 net.cpp:380] inception_4d/pool -> inception_4d/pool
I1028 17:17:43.712039  9569 net.cpp:122] Setting up inception_4d/pool
I1028 17:17:43.712047  9569 net.cpp:129] Top shape: 64 512 14 14 (6422528)
I1028 17:17:43.712051  9569 net.cpp:137] Memory required for data: 3053028612
I1028 17:17:43.712055  9569 layer_factory.hpp:77] Creating layer inception_4d/pool_proj
I1028 17:17:43.712069  9569 net.cpp:84] Creating Layer inception_4d/pool_proj
I1028 17:17:43.712103  9569 net.cpp:406] inception_4d/pool_proj <- inception_4d/pool
I1028 17:17:43.712112  9569 net.cpp:380] inception_4d/pool_proj -> inception_4d/pool_proj
I1028 17:17:43.713676  9569 net.cpp:122] Setting up inception_4d/pool_proj
I1028 17:17:43.713696  9569 net.cpp:129] Top shape: 64 64 14 14 (802816)
I1028 17:17:43.713701  9569 net.cpp:137] Memory required for data: 3056239876
I1028 17:17:43.713709  9569 layer_factory.hpp:77] Creating layer inception_4d/relu_pool_proj
I1028 17:17:43.713716  9569 net.cpp:84] Creating Layer inception_4d/relu_pool_proj
I1028 17:17:43.713722  9569 net.cpp:406] inception_4d/relu_pool_proj <- inception_4d/pool_proj
I1028 17:17:43.713731  9569 net.cpp:367] inception_4d/relu_pool_proj -> inception_4d/pool_proj (in-place)
I1028 17:17:43.713937  9569 net.cpp:122] Setting up inception_4d/relu_pool_proj
I1028 17:17:43.713946  9569 net.cpp:129] Top shape: 64 64 14 14 (802816)
I1028 17:17:43.713950  9569 net.cpp:137] Memory required for data: 3059451140
I1028 17:17:43.713953  9569 layer_factory.hpp:77] Creating layer inception_4d/output
I1028 17:17:43.713963  9569 net.cpp:84] Creating Layer inception_4d/output
I1028 17:17:43.713966  9569 net.cpp:406] inception_4d/output <- inception_4d/1x1
I1028 17:17:43.713973  9569 net.cpp:406] inception_4d/output <- inception_4d/3x3
I1028 17:17:43.713977  9569 net.cpp:406] inception_4d/output <- inception_4d/5x5
I1028 17:17:43.713982  9569 net.cpp:406] inception_4d/output <- inception_4d/pool_proj
I1028 17:17:43.713990  9569 net.cpp:380] inception_4d/output -> inception_4d/output
I1028 17:17:43.714020  9569 net.cpp:122] Setting up inception_4d/output
I1028 17:17:43.714027  9569 net.cpp:129] Top shape: 64 528 14 14 (6623232)
I1028 17:17:43.714031  9569 net.cpp:137] Memory required for data: 3085944068
I1028 17:17:43.714035  9569 layer_factory.hpp:77] Creating layer inception_4d/output_inception_4d/output_0_split
I1028 17:17:43.714043  9569 net.cpp:84] Creating Layer inception_4d/output_inception_4d/output_0_split
I1028 17:17:43.714047  9569 net.cpp:406] inception_4d/output_inception_4d/output_0_split <- inception_4d/output
I1028 17:17:43.714056  9569 net.cpp:380] inception_4d/output_inception_4d/output_0_split -> inception_4d/output_inception_4d/output_0_split_0
I1028 17:17:43.714066  9569 net.cpp:380] inception_4d/output_inception_4d/output_0_split -> inception_4d/output_inception_4d/output_0_split_1
I1028 17:17:43.714073  9569 net.cpp:380] inception_4d/output_inception_4d/output_0_split -> inception_4d/output_inception_4d/output_0_split_2
I1028 17:17:43.714082  9569 net.cpp:380] inception_4d/output_inception_4d/output_0_split -> inception_4d/output_inception_4d/output_0_split_3
I1028 17:17:43.714090  9569 net.cpp:380] inception_4d/output_inception_4d/output_0_split -> inception_4d/output_inception_4d/output_0_split_4
I1028 17:17:43.714208  9569 net.cpp:122] Setting up inception_4d/output_inception_4d/output_0_split
I1028 17:17:43.714217  9569 net.cpp:129] Top shape: 64 528 14 14 (6623232)
I1028 17:17:43.714222  9569 net.cpp:129] Top shape: 64 528 14 14 (6623232)
I1028 17:17:43.714227  9569 net.cpp:129] Top shape: 64 528 14 14 (6623232)
I1028 17:17:43.714233  9569 net.cpp:129] Top shape: 64 528 14 14 (6623232)
I1028 17:17:43.714237  9569 net.cpp:129] Top shape: 64 528 14 14 (6623232)
I1028 17:17:43.714241  9569 net.cpp:137] Memory required for data: 3218408708
I1028 17:17:43.714246  9569 layer_factory.hpp:77] Creating layer loss2/ave_pool
I1028 17:17:43.714251  9569 net.cpp:84] Creating Layer loss2/ave_pool
I1028 17:17:43.714256  9569 net.cpp:406] loss2/ave_pool <- inception_4d/output_inception_4d/output_0_split_0
I1028 17:17:43.714263  9569 net.cpp:380] loss2/ave_pool -> loss2/ave_pool
I1028 17:17:43.714798  9569 net.cpp:122] Setting up loss2/ave_pool
I1028 17:17:43.714808  9569 net.cpp:129] Top shape: 64 528 4 4 (540672)
I1028 17:17:43.714813  9569 net.cpp:137] Memory required for data: 3220571396
I1028 17:17:43.714817  9569 layer_factory.hpp:77] Creating layer loss2/conv
I1028 17:17:43.714828  9569 net.cpp:84] Creating Layer loss2/conv
I1028 17:17:43.714856  9569 net.cpp:406] loss2/conv <- loss2/ave_pool
I1028 17:17:43.714865  9569 net.cpp:380] loss2/conv -> loss2/conv
I1028 17:17:43.716697  9569 net.cpp:122] Setting up loss2/conv
I1028 17:17:43.716717  9569 net.cpp:129] Top shape: 64 128 4 4 (131072)
I1028 17:17:43.716722  9569 net.cpp:137] Memory required for data: 3221095684
I1028 17:17:43.716732  9569 layer_factory.hpp:77] Creating layer loss2/relu_conv
I1028 17:17:43.716739  9569 net.cpp:84] Creating Layer loss2/relu_conv
I1028 17:17:43.716744  9569 net.cpp:406] loss2/relu_conv <- loss2/conv
I1028 17:17:43.716753  9569 net.cpp:367] loss2/relu_conv -> loss2/conv (in-place)
I1028 17:17:43.716953  9569 net.cpp:122] Setting up loss2/relu_conv
I1028 17:17:43.716964  9569 net.cpp:129] Top shape: 64 128 4 4 (131072)
I1028 17:17:43.716969  9569 net.cpp:137] Memory required for data: 3221619972
I1028 17:17:43.716972  9569 layer_factory.hpp:77] Creating layer loss2/fc
I1028 17:17:43.716980  9569 net.cpp:84] Creating Layer loss2/fc
I1028 17:17:43.716984  9569 net.cpp:406] loss2/fc <- loss2/conv
I1028 17:17:43.716992  9569 net.cpp:380] loss2/fc -> loss2/fc
I1028 17:17:43.737236  9569 net.cpp:122] Setting up loss2/fc
I1028 17:17:43.737287  9569 net.cpp:129] Top shape: 64 1024 (65536)
I1028 17:17:43.737291  9569 net.cpp:137] Memory required for data: 3221882116
I1028 17:17:43.737306  9569 layer_factory.hpp:77] Creating layer loss2/relu_fc
I1028 17:17:43.737319  9569 net.cpp:84] Creating Layer loss2/relu_fc
I1028 17:17:43.737327  9569 net.cpp:406] loss2/relu_fc <- loss2/fc
I1028 17:17:43.737337  9569 net.cpp:367] loss2/relu_fc -> loss2/fc (in-place)
I1028 17:17:43.737648  9569 net.cpp:122] Setting up loss2/relu_fc
I1028 17:17:43.737655  9569 net.cpp:129] Top shape: 64 1024 (65536)
I1028 17:17:43.737659  9569 net.cpp:137] Memory required for data: 3222144260
I1028 17:17:43.737663  9569 layer_factory.hpp:77] Creating layer loss2/drop_fc
I1028 17:17:43.737673  9569 net.cpp:84] Creating Layer loss2/drop_fc
I1028 17:17:43.737679  9569 net.cpp:406] loss2/drop_fc <- loss2/fc
I1028 17:17:43.737684  9569 net.cpp:367] loss2/drop_fc -> loss2/fc (in-place)
I1028 17:17:43.737712  9569 net.cpp:122] Setting up loss2/drop_fc
I1028 17:17:43.737720  9569 net.cpp:129] Top shape: 64 1024 (65536)
I1028 17:17:43.737723  9569 net.cpp:137] Memory required for data: 3222406404
I1028 17:17:43.737726  9569 layer_factory.hpp:77] Creating layer my-loss2/classifier
I1028 17:17:43.737735  9569 net.cpp:84] Creating Layer my-loss2/classifier
I1028 17:17:43.737740  9569 net.cpp:406] my-loss2/classifier <- loss2/fc
I1028 17:17:43.737749  9569 net.cpp:380] my-loss2/classifier -> my-loss2/classifier
I1028 17:17:43.737896  9569 net.cpp:122] Setting up my-loss2/classifier
I1028 17:17:43.737905  9569 net.cpp:129] Top shape: 64 1 (64)
I1028 17:17:43.737908  9569 net.cpp:137] Memory required for data: 3222406660
I1028 17:17:43.737915  9569 layer_factory.hpp:77] Creating layer loss2/loss
I1028 17:17:43.737922  9569 net.cpp:84] Creating Layer loss2/loss
I1028 17:17:43.737927  9569 net.cpp:406] loss2/loss <- my-loss2/classifier
I1028 17:17:43.737932  9569 net.cpp:406] loss2/loss <- label_data_1_split_1
I1028 17:17:43.737941  9569 net.cpp:380] loss2/loss -> loss2/loss
I1028 17:17:43.737985  9569 net.cpp:122] Setting up loss2/loss
I1028 17:17:43.737994  9569 net.cpp:129] Top shape: (1)
I1028 17:17:43.737998  9569 net.cpp:132]     with loss weight 0.3
I1028 17:17:43.738016  9569 net.cpp:137] Memory required for data: 3222406664
I1028 17:17:43.738021  9569 layer_factory.hpp:77] Creating layer inception_4e/1x1
I1028 17:17:43.738034  9569 net.cpp:84] Creating Layer inception_4e/1x1
I1028 17:17:43.738040  9569 net.cpp:406] inception_4e/1x1 <- inception_4d/output_inception_4d/output_0_split_1
I1028 17:17:43.738047  9569 net.cpp:380] inception_4e/1x1 -> inception_4e/1x1
I1028 17:17:43.742084  9569 net.cpp:122] Setting up inception_4e/1x1
I1028 17:17:43.742157  9569 net.cpp:129] Top shape: 64 256 14 14 (3211264)
I1028 17:17:43.742162  9569 net.cpp:137] Memory required for data: 3235251720
I1028 17:17:43.742218  9569 layer_factory.hpp:77] Creating layer inception_4e/relu_1x1
I1028 17:17:43.742231  9569 net.cpp:84] Creating Layer inception_4e/relu_1x1
I1028 17:17:43.742241  9569 net.cpp:406] inception_4e/relu_1x1 <- inception_4e/1x1
I1028 17:17:43.742252  9569 net.cpp:367] inception_4e/relu_1x1 -> inception_4e/1x1 (in-place)
I1028 17:17:43.742473  9569 net.cpp:122] Setting up inception_4e/relu_1x1
I1028 17:17:43.742482  9569 net.cpp:129] Top shape: 64 256 14 14 (3211264)
I1028 17:17:43.742486  9569 net.cpp:137] Memory required for data: 3248096776
I1028 17:17:43.742491  9569 layer_factory.hpp:77] Creating layer inception_4e/3x3_reduce
I1028 17:17:43.742508  9569 net.cpp:84] Creating Layer inception_4e/3x3_reduce
I1028 17:17:43.742532  9569 net.cpp:406] inception_4e/3x3_reduce <- inception_4d/output_inception_4d/output_0_split_2
I1028 17:17:43.742544  9569 net.cpp:380] inception_4e/3x3_reduce -> inception_4e/3x3_reduce
I1028 17:17:43.744623  9569 net.cpp:122] Setting up inception_4e/3x3_reduce
I1028 17:17:43.744645  9569 net.cpp:129] Top shape: 64 160 14 14 (2007040)
I1028 17:17:43.744650  9569 net.cpp:137] Memory required for data: 3256124936
I1028 17:17:43.744663  9569 layer_factory.hpp:77] Creating layer inception_4e/relu_3x3_reduce
I1028 17:17:43.744673  9569 net.cpp:84] Creating Layer inception_4e/relu_3x3_reduce
I1028 17:17:43.744678  9569 net.cpp:406] inception_4e/relu_3x3_reduce <- inception_4e/3x3_reduce
I1028 17:17:43.744688  9569 net.cpp:367] inception_4e/relu_3x3_reduce -> inception_4e/3x3_reduce (in-place)
I1028 17:17:43.744895  9569 net.cpp:122] Setting up inception_4e/relu_3x3_reduce
I1028 17:17:43.744904  9569 net.cpp:129] Top shape: 64 160 14 14 (2007040)
I1028 17:17:43.744909  9569 net.cpp:137] Memory required for data: 3264153096
I1028 17:17:43.744913  9569 layer_factory.hpp:77] Creating layer inception_4e/3x3
I1028 17:17:43.744928  9569 net.cpp:84] Creating Layer inception_4e/3x3
I1028 17:17:43.744933  9569 net.cpp:406] inception_4e/3x3 <- inception_4e/3x3_reduce
I1028 17:17:43.744942  9569 net.cpp:380] inception_4e/3x3 -> inception_4e/3x3
I1028 17:17:43.751760  9569 net.cpp:122] Setting up inception_4e/3x3
I1028 17:17:43.751801  9569 net.cpp:129] Top shape: 64 320 14 14 (4014080)
I1028 17:17:43.751806  9569 net.cpp:137] Memory required for data: 3280209416
I1028 17:17:43.751823  9569 layer_factory.hpp:77] Creating layer inception_4e/relu_3x3
I1028 17:17:43.751840  9569 net.cpp:84] Creating Layer inception_4e/relu_3x3
I1028 17:17:43.751853  9569 net.cpp:406] inception_4e/relu_3x3 <- inception_4e/3x3
I1028 17:17:43.751865  9569 net.cpp:367] inception_4e/relu_3x3 -> inception_4e/3x3 (in-place)
I1028 17:17:43.752647  9569 net.cpp:122] Setting up inception_4e/relu_3x3
I1028 17:17:43.752658  9569 net.cpp:129] Top shape: 64 320 14 14 (4014080)
I1028 17:17:43.752663  9569 net.cpp:137] Memory required for data: 3296265736
I1028 17:17:43.752667  9569 layer_factory.hpp:77] Creating layer inception_4e/5x5_reduce
I1028 17:17:43.752686  9569 net.cpp:84] Creating Layer inception_4e/5x5_reduce
I1028 17:17:43.752692  9569 net.cpp:406] inception_4e/5x5_reduce <- inception_4d/output_inception_4d/output_0_split_3
I1028 17:17:43.752703  9569 net.cpp:380] inception_4e/5x5_reduce -> inception_4e/5x5_reduce
I1028 17:17:43.754202  9569 net.cpp:122] Setting up inception_4e/5x5_reduce
I1028 17:17:43.754221  9569 net.cpp:129] Top shape: 64 32 14 14 (401408)
I1028 17:17:43.754227  9569 net.cpp:137] Memory required for data: 3297871368
I1028 17:17:43.754237  9569 layer_factory.hpp:77] Creating layer inception_4e/relu_5x5_reduce
I1028 17:17:43.754276  9569 net.cpp:84] Creating Layer inception_4e/relu_5x5_reduce
I1028 17:17:43.754281  9569 net.cpp:406] inception_4e/relu_5x5_reduce <- inception_4e/5x5_reduce
I1028 17:17:43.754292  9569 net.cpp:367] inception_4e/relu_5x5_reduce -> inception_4e/5x5_reduce (in-place)
I1028 17:17:43.754503  9569 net.cpp:122] Setting up inception_4e/relu_5x5_reduce
I1028 17:17:43.754513  9569 net.cpp:129] Top shape: 64 32 14 14 (401408)
I1028 17:17:43.754516  9569 net.cpp:137] Memory required for data: 3299477000
I1028 17:17:43.754539  9569 layer_factory.hpp:77] Creating layer inception_4e/5x5
I1028 17:17:43.754601  9569 net.cpp:84] Creating Layer inception_4e/5x5
I1028 17:17:43.754607  9569 net.cpp:406] inception_4e/5x5 <- inception_4e/5x5_reduce
I1028 17:17:43.754616  9569 net.cpp:380] inception_4e/5x5 -> inception_4e/5x5
I1028 17:17:43.756788  9569 net.cpp:122] Setting up inception_4e/5x5
I1028 17:17:43.756813  9569 net.cpp:129] Top shape: 64 128 14 14 (1605632)
I1028 17:17:43.756817  9569 net.cpp:137] Memory required for data: 3305899528
I1028 17:17:43.756830  9569 layer_factory.hpp:77] Creating layer inception_4e/relu_5x5
I1028 17:17:43.756844  9569 net.cpp:84] Creating Layer inception_4e/relu_5x5
I1028 17:17:43.756873  9569 net.cpp:406] inception_4e/relu_5x5 <- inception_4e/5x5
I1028 17:17:43.756882  9569 net.cpp:367] inception_4e/relu_5x5 -> inception_4e/5x5 (in-place)
I1028 17:17:43.757091  9569 net.cpp:122] Setting up inception_4e/relu_5x5
I1028 17:17:43.757100  9569 net.cpp:129] Top shape: 64 128 14 14 (1605632)
I1028 17:17:43.757105  9569 net.cpp:137] Memory required for data: 3312322056
I1028 17:17:43.757109  9569 layer_factory.hpp:77] Creating layer inception_4e/pool
I1028 17:17:43.757120  9569 net.cpp:84] Creating Layer inception_4e/pool
I1028 17:17:43.757128  9569 net.cpp:406] inception_4e/pool <- inception_4d/output_inception_4d/output_0_split_4
I1028 17:17:43.757135  9569 net.cpp:380] inception_4e/pool -> inception_4e/pool
I1028 17:17:43.757194  9569 net.cpp:122] Setting up inception_4e/pool
I1028 17:17:43.757202  9569 net.cpp:129] Top shape: 64 528 14 14 (6623232)
I1028 17:17:43.757206  9569 net.cpp:137] Memory required for data: 3338814984
I1028 17:17:43.757210  9569 layer_factory.hpp:77] Creating layer inception_4e/pool_proj
I1028 17:17:43.757225  9569 net.cpp:84] Creating Layer inception_4e/pool_proj
I1028 17:17:43.757231  9569 net.cpp:406] inception_4e/pool_proj <- inception_4e/pool
I1028 17:17:43.757241  9569 net.cpp:380] inception_4e/pool_proj -> inception_4e/pool_proj
I1028 17:17:43.759177  9569 net.cpp:122] Setting up inception_4e/pool_proj
I1028 17:17:43.759198  9569 net.cpp:129] Top shape: 64 128 14 14 (1605632)
I1028 17:17:43.759203  9569 net.cpp:137] Memory required for data: 3345237512
I1028 17:17:43.759215  9569 layer_factory.hpp:77] Creating layer inception_4e/relu_pool_proj
I1028 17:17:43.759224  9569 net.cpp:84] Creating Layer inception_4e/relu_pool_proj
I1028 17:17:43.759232  9569 net.cpp:406] inception_4e/relu_pool_proj <- inception_4e/pool_proj
I1028 17:17:43.759241  9569 net.cpp:367] inception_4e/relu_pool_proj -> inception_4e/pool_proj (in-place)
I1028 17:17:43.759450  9569 net.cpp:122] Setting up inception_4e/relu_pool_proj
I1028 17:17:43.759459  9569 net.cpp:129] Top shape: 64 128 14 14 (1605632)
I1028 17:17:43.759464  9569 net.cpp:137] Memory required for data: 3351660040
I1028 17:17:43.759469  9569 layer_factory.hpp:77] Creating layer inception_4e/output
I1028 17:17:43.759476  9569 net.cpp:84] Creating Layer inception_4e/output
I1028 17:17:43.759483  9569 net.cpp:406] inception_4e/output <- inception_4e/1x1
I1028 17:17:43.759490  9569 net.cpp:406] inception_4e/output <- inception_4e/3x3
I1028 17:17:43.759497  9569 net.cpp:406] inception_4e/output <- inception_4e/5x5
I1028 17:17:43.759505  9569 net.cpp:406] inception_4e/output <- inception_4e/pool_proj
I1028 17:17:43.759516  9569 net.cpp:380] inception_4e/output -> inception_4e/output
I1028 17:17:43.759554  9569 net.cpp:122] Setting up inception_4e/output
I1028 17:17:43.759562  9569 net.cpp:129] Top shape: 64 832 14 14 (10436608)
I1028 17:17:43.759567  9569 net.cpp:137] Memory required for data: 3393406472
I1028 17:17:43.759572  9569 layer_factory.hpp:77] Creating layer pool4/3x3_s2
I1028 17:17:43.759582  9569 net.cpp:84] Creating Layer pool4/3x3_s2
I1028 17:17:43.759588  9569 net.cpp:406] pool4/3x3_s2 <- inception_4e/output
I1028 17:17:43.759594  9569 net.cpp:380] pool4/3x3_s2 -> pool4/3x3_s2
I1028 17:17:43.759644  9569 net.cpp:122] Setting up pool4/3x3_s2
I1028 17:17:43.759652  9569 net.cpp:129] Top shape: 64 832 7 7 (2609152)
I1028 17:17:43.759672  9569 net.cpp:137] Memory required for data: 3403843080
I1028 17:17:43.759677  9569 layer_factory.hpp:77] Creating layer pool4/3x3_s2_pool4/3x3_s2_0_split
I1028 17:17:43.759687  9569 net.cpp:84] Creating Layer pool4/3x3_s2_pool4/3x3_s2_0_split
I1028 17:17:43.759693  9569 net.cpp:406] pool4/3x3_s2_pool4/3x3_s2_0_split <- pool4/3x3_s2
I1028 17:17:43.759702  9569 net.cpp:380] pool4/3x3_s2_pool4/3x3_s2_0_split -> pool4/3x3_s2_pool4/3x3_s2_0_split_0
I1028 17:17:43.759713  9569 net.cpp:380] pool4/3x3_s2_pool4/3x3_s2_0_split -> pool4/3x3_s2_pool4/3x3_s2_0_split_1
I1028 17:17:43.759724  9569 net.cpp:380] pool4/3x3_s2_pool4/3x3_s2_0_split -> pool4/3x3_s2_pool4/3x3_s2_0_split_2
I1028 17:17:43.759734  9569 net.cpp:380] pool4/3x3_s2_pool4/3x3_s2_0_split -> pool4/3x3_s2_pool4/3x3_s2_0_split_3
I1028 17:17:43.759815  9569 net.cpp:122] Setting up pool4/3x3_s2_pool4/3x3_s2_0_split
I1028 17:17:43.759825  9569 net.cpp:129] Top shape: 64 832 7 7 (2609152)
I1028 17:17:43.759832  9569 net.cpp:129] Top shape: 64 832 7 7 (2609152)
I1028 17:17:43.759840  9569 net.cpp:129] Top shape: 64 832 7 7 (2609152)
I1028 17:17:43.759848  9569 net.cpp:129] Top shape: 64 832 7 7 (2609152)
I1028 17:17:43.759853  9569 net.cpp:137] Memory required for data: 3445589512
I1028 17:17:43.759858  9569 layer_factory.hpp:77] Creating layer inception_5a/1x1
I1028 17:17:43.759876  9569 net.cpp:84] Creating Layer inception_5a/1x1
I1028 17:17:43.759882  9569 net.cpp:406] inception_5a/1x1 <- pool4/3x3_s2_pool4/3x3_s2_0_split_0
I1028 17:17:43.759892  9569 net.cpp:380] inception_5a/1x1 -> inception_5a/1x1
I1028 17:17:43.764811  9569 net.cpp:122] Setting up inception_5a/1x1
I1028 17:17:43.764848  9569 net.cpp:129] Top shape: 64 256 7 7 (802816)
I1028 17:17:43.764854  9569 net.cpp:137] Memory required for data: 3448800776
I1028 17:17:43.764871  9569 layer_factory.hpp:77] Creating layer inception_5a/relu_1x1
I1028 17:17:43.764886  9569 net.cpp:84] Creating Layer inception_5a/relu_1x1
I1028 17:17:43.764896  9569 net.cpp:406] inception_5a/relu_1x1 <- inception_5a/1x1
I1028 17:17:43.764910  9569 net.cpp:367] inception_5a/relu_1x1 -> inception_5a/1x1 (in-place)
I1028 17:17:43.765122  9569 net.cpp:122] Setting up inception_5a/relu_1x1
I1028 17:17:43.765132  9569 net.cpp:129] Top shape: 64 256 7 7 (802816)
I1028 17:17:43.765137  9569 net.cpp:137] Memory required for data: 3452012040
I1028 17:17:43.765141  9569 layer_factory.hpp:77] Creating layer inception_5a/3x3_reduce
I1028 17:17:43.765156  9569 net.cpp:84] Creating Layer inception_5a/3x3_reduce
I1028 17:17:43.765164  9569 net.cpp:406] inception_5a/3x3_reduce <- pool4/3x3_s2_pool4/3x3_s2_0_split_1
I1028 17:17:43.765178  9569 net.cpp:380] inception_5a/3x3_reduce -> inception_5a/3x3_reduce
I1028 17:17:43.767670  9569 net.cpp:122] Setting up inception_5a/3x3_reduce
I1028 17:17:43.767696  9569 net.cpp:129] Top shape: 64 160 7 7 (501760)
I1028 17:17:43.767702  9569 net.cpp:137] Memory required for data: 3454019080
I1028 17:17:43.767714  9569 layer_factory.hpp:77] Creating layer inception_5a/relu_3x3_reduce
I1028 17:17:43.767725  9569 net.cpp:84] Creating Layer inception_5a/relu_3x3_reduce
I1028 17:17:43.767735  9569 net.cpp:406] inception_5a/relu_3x3_reduce <- inception_5a/3x3_reduce
I1028 17:17:43.767746  9569 net.cpp:367] inception_5a/relu_3x3_reduce -> inception_5a/3x3_reduce (in-place)
I1028 17:17:43.767971  9569 net.cpp:122] Setting up inception_5a/relu_3x3_reduce
I1028 17:17:43.767979  9569 net.cpp:129] Top shape: 64 160 7 7 (501760)
I1028 17:17:43.767984  9569 net.cpp:137] Memory required for data: 3456026120
I1028 17:17:43.767989  9569 layer_factory.hpp:77] Creating layer inception_5a/3x3
I1028 17:17:43.768004  9569 net.cpp:84] Creating Layer inception_5a/3x3
I1028 17:17:43.768010  9569 net.cpp:406] inception_5a/3x3 <- inception_5a/3x3_reduce
I1028 17:17:43.768019  9569 net.cpp:380] inception_5a/3x3 -> inception_5a/3x3
I1028 17:17:43.775588  9569 net.cpp:122] Setting up inception_5a/3x3
I1028 17:17:43.775624  9569 net.cpp:129] Top shape: 64 320 7 7 (1003520)
I1028 17:17:43.775630  9569 net.cpp:137] Memory required for data: 3460040200
I1028 17:17:43.775677  9569 layer_factory.hpp:77] Creating layer inception_5a/relu_3x3
I1028 17:17:43.775693  9569 net.cpp:84] Creating Layer inception_5a/relu_3x3
I1028 17:17:43.775703  9569 net.cpp:406] inception_5a/relu_3x3 <- inception_5a/3x3
I1028 17:17:43.775717  9569 net.cpp:367] inception_5a/relu_3x3 -> inception_5a/3x3 (in-place)
I1028 17:17:43.776252  9569 net.cpp:122] Setting up inception_5a/relu_3x3
I1028 17:17:43.776263  9569 net.cpp:129] Top shape: 64 320 7 7 (1003520)
I1028 17:17:43.776268  9569 net.cpp:137] Memory required for data: 3464054280
I1028 17:17:43.776273  9569 layer_factory.hpp:77] Creating layer inception_5a/5x5_reduce
I1028 17:17:43.776290  9569 net.cpp:84] Creating Layer inception_5a/5x5_reduce
I1028 17:17:43.776298  9569 net.cpp:406] inception_5a/5x5_reduce <- pool4/3x3_s2_pool4/3x3_s2_0_split_2
I1028 17:17:43.776311  9569 net.cpp:380] inception_5a/5x5_reduce -> inception_5a/5x5_reduce
I1028 17:17:43.777940  9569 net.cpp:122] Setting up inception_5a/5x5_reduce
I1028 17:17:43.777962  9569 net.cpp:129] Top shape: 64 32 7 7 (100352)
I1028 17:17:43.777967  9569 net.cpp:137] Memory required for data: 3464455688
I1028 17:17:43.777979  9569 layer_factory.hpp:77] Creating layer inception_5a/relu_5x5_reduce
I1028 17:17:43.777993  9569 net.cpp:84] Creating Layer inception_5a/relu_5x5_reduce
I1028 17:17:43.778002  9569 net.cpp:406] inception_5a/relu_5x5_reduce <- inception_5a/5x5_reduce
I1028 17:17:43.778010  9569 net.cpp:367] inception_5a/relu_5x5_reduce -> inception_5a/5x5_reduce (in-place)
I1028 17:17:43.778275  9569 net.cpp:122] Setting up inception_5a/relu_5x5_reduce
I1028 17:17:43.778285  9569 net.cpp:129] Top shape: 64 32 7 7 (100352)
I1028 17:17:43.778290  9569 net.cpp:137] Memory required for data: 3464857096
I1028 17:17:43.778295  9569 layer_factory.hpp:77] Creating layer inception_5a/5x5
I1028 17:17:43.778308  9569 net.cpp:84] Creating Layer inception_5a/5x5
I1028 17:17:43.778317  9569 net.cpp:406] inception_5a/5x5 <- inception_5a/5x5_reduce
I1028 17:17:43.778326  9569 net.cpp:380] inception_5a/5x5 -> inception_5a/5x5
I1028 17:17:43.780549  9569 net.cpp:122] Setting up inception_5a/5x5
I1028 17:17:43.780570  9569 net.cpp:129] Top shape: 64 128 7 7 (401408)
I1028 17:17:43.780576  9569 net.cpp:137] Memory required for data: 3466462728
I1028 17:17:43.780589  9569 layer_factory.hpp:77] Creating layer inception_5a/relu_5x5
I1028 17:17:43.780599  9569 net.cpp:84] Creating Layer inception_5a/relu_5x5
I1028 17:17:43.780606  9569 net.cpp:406] inception_5a/relu_5x5 <- inception_5a/5x5
I1028 17:17:43.780619  9569 net.cpp:367] inception_5a/relu_5x5 -> inception_5a/5x5 (in-place)
I1028 17:17:43.780830  9569 net.cpp:122] Setting up inception_5a/relu_5x5
I1028 17:17:43.780839  9569 net.cpp:129] Top shape: 64 128 7 7 (401408)
I1028 17:17:43.780844  9569 net.cpp:137] Memory required for data: 3468068360
I1028 17:17:43.780848  9569 layer_factory.hpp:77] Creating layer inception_5a/pool
I1028 17:17:43.780858  9569 net.cpp:84] Creating Layer inception_5a/pool
I1028 17:17:43.780864  9569 net.cpp:406] inception_5a/pool <- pool4/3x3_s2_pool4/3x3_s2_0_split_3
I1028 17:17:43.780872  9569 net.cpp:380] inception_5a/pool -> inception_5a/pool
I1028 17:17:43.780930  9569 net.cpp:122] Setting up inception_5a/pool
I1028 17:17:43.780939  9569 net.cpp:129] Top shape: 64 832 7 7 (2609152)
I1028 17:17:43.780943  9569 net.cpp:137] Memory required for data: 3478504968
I1028 17:17:43.780947  9569 layer_factory.hpp:77] Creating layer inception_5a/pool_proj
I1028 17:17:43.780963  9569 net.cpp:84] Creating Layer inception_5a/pool_proj
I1028 17:17:43.780969  9569 net.cpp:406] inception_5a/pool_proj <- inception_5a/pool
I1028 17:17:43.780982  9569 net.cpp:380] inception_5a/pool_proj -> inception_5a/pool_proj
I1028 17:17:43.783249  9569 net.cpp:122] Setting up inception_5a/pool_proj
I1028 17:17:43.783275  9569 net.cpp:129] Top shape: 64 128 7 7 (401408)
I1028 17:17:43.783282  9569 net.cpp:137] Memory required for data: 3480110600
I1028 17:17:43.783294  9569 layer_factory.hpp:77] Creating layer inception_5a/relu_pool_proj
I1028 17:17:43.783324  9569 net.cpp:84] Creating Layer inception_5a/relu_pool_proj
I1028 17:17:43.783332  9569 net.cpp:406] inception_5a/relu_pool_proj <- inception_5a/pool_proj
I1028 17:17:43.783344  9569 net.cpp:367] inception_5a/relu_pool_proj -> inception_5a/pool_proj (in-place)
I1028 17:17:43.783562  9569 net.cpp:122] Setting up inception_5a/relu_pool_proj
I1028 17:17:43.783571  9569 net.cpp:129] Top shape: 64 128 7 7 (401408)
I1028 17:17:43.783576  9569 net.cpp:137] Memory required for data: 3481716232
I1028 17:17:43.783581  9569 layer_factory.hpp:77] Creating layer inception_5a/output
I1028 17:17:43.783591  9569 net.cpp:84] Creating Layer inception_5a/output
I1028 17:17:43.783596  9569 net.cpp:406] inception_5a/output <- inception_5a/1x1
I1028 17:17:43.783602  9569 net.cpp:406] inception_5a/output <- inception_5a/3x3
I1028 17:17:43.783607  9569 net.cpp:406] inception_5a/output <- inception_5a/5x5
I1028 17:17:43.783613  9569 net.cpp:406] inception_5a/output <- inception_5a/pool_proj
I1028 17:17:43.783623  9569 net.cpp:380] inception_5a/output -> inception_5a/output
I1028 17:17:43.783659  9569 net.cpp:122] Setting up inception_5a/output
I1028 17:17:43.783668  9569 net.cpp:129] Top shape: 64 832 7 7 (2609152)
I1028 17:17:43.783673  9569 net.cpp:137] Memory required for data: 3492152840
I1028 17:17:43.783676  9569 layer_factory.hpp:77] Creating layer inception_5a/output_inception_5a/output_0_split
I1028 17:17:43.783686  9569 net.cpp:84] Creating Layer inception_5a/output_inception_5a/output_0_split
I1028 17:17:43.783692  9569 net.cpp:406] inception_5a/output_inception_5a/output_0_split <- inception_5a/output
I1028 17:17:43.783701  9569 net.cpp:380] inception_5a/output_inception_5a/output_0_split -> inception_5a/output_inception_5a/output_0_split_0
I1028 17:17:43.783713  9569 net.cpp:380] inception_5a/output_inception_5a/output_0_split -> inception_5a/output_inception_5a/output_0_split_1
I1028 17:17:43.783725  9569 net.cpp:380] inception_5a/output_inception_5a/output_0_split -> inception_5a/output_inception_5a/output_0_split_2
I1028 17:17:43.783735  9569 net.cpp:380] inception_5a/output_inception_5a/output_0_split -> inception_5a/output_inception_5a/output_0_split_3
I1028 17:17:43.783820  9569 net.cpp:122] Setting up inception_5a/output_inception_5a/output_0_split
I1028 17:17:43.783828  9569 net.cpp:129] Top shape: 64 832 7 7 (2609152)
I1028 17:17:43.783835  9569 net.cpp:129] Top shape: 64 832 7 7 (2609152)
I1028 17:17:43.783843  9569 net.cpp:129] Top shape: 64 832 7 7 (2609152)
I1028 17:17:43.783849  9569 net.cpp:129] Top shape: 64 832 7 7 (2609152)
I1028 17:17:43.783854  9569 net.cpp:137] Memory required for data: 3533899272
I1028 17:17:43.783857  9569 layer_factory.hpp:77] Creating layer inception_5b/1x1
I1028 17:17:43.783872  9569 net.cpp:84] Creating Layer inception_5b/1x1
I1028 17:17:43.783879  9569 net.cpp:406] inception_5b/1x1 <- inception_5a/output_inception_5a/output_0_split_0
I1028 17:17:43.783890  9569 net.cpp:380] inception_5b/1x1 -> inception_5b/1x1
I1028 17:17:43.789461  9569 net.cpp:122] Setting up inception_5b/1x1
I1028 17:17:43.789502  9569 net.cpp:129] Top shape: 64 384 7 7 (1204224)
I1028 17:17:43.789508  9569 net.cpp:137] Memory required for data: 3538716168
I1028 17:17:43.789525  9569 layer_factory.hpp:77] Creating layer inception_5b/relu_1x1
I1028 17:17:43.789541  9569 net.cpp:84] Creating Layer inception_5b/relu_1x1
I1028 17:17:43.789549  9569 net.cpp:406] inception_5b/relu_1x1 <- inception_5b/1x1
I1028 17:17:43.789562  9569 net.cpp:367] inception_5b/relu_1x1 -> inception_5b/1x1 (in-place)
I1028 17:17:43.789806  9569 net.cpp:122] Setting up inception_5b/relu_1x1
I1028 17:17:43.789815  9569 net.cpp:129] Top shape: 64 384 7 7 (1204224)
I1028 17:17:43.789820  9569 net.cpp:137] Memory required for data: 3543533064
I1028 17:17:43.789825  9569 layer_factory.hpp:77] Creating layer inception_5b/3x3_reduce
I1028 17:17:43.789840  9569 net.cpp:84] Creating Layer inception_5b/3x3_reduce
I1028 17:17:43.789847  9569 net.cpp:406] inception_5b/3x3_reduce <- inception_5a/output_inception_5a/output_0_split_1
I1028 17:17:43.789880  9569 net.cpp:380] inception_5b/3x3_reduce -> inception_5b/3x3_reduce
I1028 17:17:43.792693  9569 net.cpp:122] Setting up inception_5b/3x3_reduce
I1028 17:17:43.792727  9569 net.cpp:129] Top shape: 64 192 7 7 (602112)
I1028 17:17:43.792732  9569 net.cpp:137] Memory required for data: 3545941512
I1028 17:17:43.792748  9569 layer_factory.hpp:77] Creating layer inception_5b/relu_3x3_reduce
I1028 17:17:43.792767  9569 net.cpp:84] Creating Layer inception_5b/relu_3x3_reduce
I1028 17:17:43.792798  9569 net.cpp:406] inception_5b/relu_3x3_reduce <- inception_5b/3x3_reduce
I1028 17:17:43.792809  9569 net.cpp:367] inception_5b/relu_3x3_reduce -> inception_5b/3x3_reduce (in-place)
I1028 17:17:43.793030  9569 net.cpp:122] Setting up inception_5b/relu_3x3_reduce
I1028 17:17:43.793038  9569 net.cpp:129] Top shape: 64 192 7 7 (602112)
I1028 17:17:43.793043  9569 net.cpp:137] Memory required for data: 3548349960
I1028 17:17:43.793047  9569 layer_factory.hpp:77] Creating layer inception_5b/3x3
I1028 17:17:43.793062  9569 net.cpp:84] Creating Layer inception_5b/3x3
I1028 17:17:43.793069  9569 net.cpp:406] inception_5b/3x3 <- inception_5b/3x3_reduce
I1028 17:17:43.793081  9569 net.cpp:380] inception_5b/3x3 -> inception_5b/3x3
I1028 17:17:43.801931  9569 net.cpp:122] Setting up inception_5b/3x3
I1028 17:17:43.801973  9569 net.cpp:129] Top shape: 64 384 7 7 (1204224)
I1028 17:17:43.801980  9569 net.cpp:137] Memory required for data: 3553166856
I1028 17:17:43.801995  9569 layer_factory.hpp:77] Creating layer inception_5b/relu_3x3
I1028 17:17:43.802011  9569 net.cpp:84] Creating Layer inception_5b/relu_3x3
I1028 17:17:43.802019  9569 net.cpp:406] inception_5b/relu_3x3 <- inception_5b/3x3
I1028 17:17:43.802028  9569 net.cpp:367] inception_5b/relu_3x3 -> inception_5b/3x3 (in-place)
I1028 17:17:43.802588  9569 net.cpp:122] Setting up inception_5b/relu_3x3
I1028 17:17:43.802603  9569 net.cpp:129] Top shape: 64 384 7 7 (1204224)
I1028 17:17:43.802608  9569 net.cpp:137] Memory required for data: 3557983752
I1028 17:17:43.802611  9569 layer_factory.hpp:77] Creating layer inception_5b/5x5_reduce
I1028 17:17:43.802626  9569 net.cpp:84] Creating Layer inception_5b/5x5_reduce
I1028 17:17:43.802634  9569 net.cpp:406] inception_5b/5x5_reduce <- inception_5a/output_inception_5a/output_0_split_2
I1028 17:17:43.802644  9569 net.cpp:380] inception_5b/5x5_reduce -> inception_5b/5x5_reduce
I1028 17:17:43.804344  9569 net.cpp:122] Setting up inception_5b/5x5_reduce
I1028 17:17:43.804365  9569 net.cpp:129] Top shape: 64 48 7 7 (150528)
I1028 17:17:43.804370  9569 net.cpp:137] Memory required for data: 3558585864
I1028 17:17:43.804381  9569 layer_factory.hpp:77] Creating layer inception_5b/relu_5x5_reduce
I1028 17:17:43.804390  9569 net.cpp:84] Creating Layer inception_5b/relu_5x5_reduce
I1028 17:17:43.804416  9569 net.cpp:406] inception_5b/relu_5x5_reduce <- inception_5b/5x5_reduce
I1028 17:17:43.804427  9569 net.cpp:367] inception_5b/relu_5x5_reduce -> inception_5b/5x5_reduce (in-place)
I1028 17:17:43.804726  9569 net.cpp:122] Setting up inception_5b/relu_5x5_reduce
I1028 17:17:43.804735  9569 net.cpp:129] Top shape: 64 48 7 7 (150528)
I1028 17:17:43.804740  9569 net.cpp:137] Memory required for data: 3559187976
I1028 17:17:43.804745  9569 layer_factory.hpp:77] Creating layer inception_5b/5x5
I1028 17:17:43.804759  9569 net.cpp:84] Creating Layer inception_5b/5x5
I1028 17:17:43.804764  9569 net.cpp:406] inception_5b/5x5 <- inception_5b/5x5_reduce
I1028 17:17:43.804774  9569 net.cpp:380] inception_5b/5x5 -> inception_5b/5x5
I1028 17:17:43.809087  9569 net.cpp:122] Setting up inception_5b/5x5
I1028 17:17:43.809123  9569 net.cpp:129] Top shape: 64 128 7 7 (401408)
I1028 17:17:43.809128  9569 net.cpp:137] Memory required for data: 3560793608
I1028 17:17:43.809144  9569 layer_factory.hpp:77] Creating layer inception_5b/relu_5x5
I1028 17:17:43.809159  9569 net.cpp:84] Creating Layer inception_5b/relu_5x5
I1028 17:17:43.809168  9569 net.cpp:406] inception_5b/relu_5x5 <- inception_5b/5x5
I1028 17:17:43.809182  9569 net.cpp:367] inception_5b/relu_5x5 -> inception_5b/5x5 (in-place)
I1028 17:17:43.809423  9569 net.cpp:122] Setting up inception_5b/relu_5x5
I1028 17:17:43.809433  9569 net.cpp:129] Top shape: 64 128 7 7 (401408)
I1028 17:17:43.809437  9569 net.cpp:137] Memory required for data: 3562399240
I1028 17:17:43.809442  9569 layer_factory.hpp:77] Creating layer inception_5b/pool
I1028 17:17:43.809451  9569 net.cpp:84] Creating Layer inception_5b/pool
I1028 17:17:43.809458  9569 net.cpp:406] inception_5b/pool <- inception_5a/output_inception_5a/output_0_split_3
I1028 17:17:43.809468  9569 net.cpp:380] inception_5b/pool -> inception_5b/pool
I1028 17:17:43.809526  9569 net.cpp:122] Setting up inception_5b/pool
I1028 17:17:43.809537  9569 net.cpp:129] Top shape: 64 832 7 7 (2609152)
I1028 17:17:43.809543  9569 net.cpp:137] Memory required for data: 3572835848
I1028 17:17:43.809548  9569 layer_factory.hpp:77] Creating layer inception_5b/pool_proj
I1028 17:17:43.809561  9569 net.cpp:84] Creating Layer inception_5b/pool_proj
I1028 17:17:43.809567  9569 net.cpp:406] inception_5b/pool_proj <- inception_5b/pool
I1028 17:17:43.809577  9569 net.cpp:380] inception_5b/pool_proj -> inception_5b/pool_proj
I1028 17:17:43.811882  9569 net.cpp:122] Setting up inception_5b/pool_proj
I1028 17:17:43.811906  9569 net.cpp:129] Top shape: 64 128 7 7 (401408)
I1028 17:17:43.811910  9569 net.cpp:137] Memory required for data: 3574441480
I1028 17:17:43.811923  9569 layer_factory.hpp:77] Creating layer inception_5b/relu_pool_proj
I1028 17:17:43.811934  9569 net.cpp:84] Creating Layer inception_5b/relu_pool_proj
I1028 17:17:43.811944  9569 net.cpp:406] inception_5b/relu_pool_proj <- inception_5b/pool_proj
I1028 17:17:43.811952  9569 net.cpp:367] inception_5b/relu_pool_proj -> inception_5b/pool_proj (in-place)
I1028 17:17:43.812180  9569 net.cpp:122] Setting up inception_5b/relu_pool_proj
I1028 17:17:43.812189  9569 net.cpp:129] Top shape: 64 128 7 7 (401408)
I1028 17:17:43.812194  9569 net.cpp:137] Memory required for data: 3576047112
I1028 17:17:43.812198  9569 layer_factory.hpp:77] Creating layer inception_5b/output
I1028 17:17:43.812211  9569 net.cpp:84] Creating Layer inception_5b/output
I1028 17:17:43.812217  9569 net.cpp:406] inception_5b/output <- inception_5b/1x1
I1028 17:17:43.812223  9569 net.cpp:406] inception_5b/output <- inception_5b/3x3
I1028 17:17:43.812229  9569 net.cpp:406] inception_5b/output <- inception_5b/5x5
I1028 17:17:43.812237  9569 net.cpp:406] inception_5b/output <- inception_5b/pool_proj
I1028 17:17:43.812244  9569 net.cpp:380] inception_5b/output -> inception_5b/output
I1028 17:17:43.812281  9569 net.cpp:122] Setting up inception_5b/output
I1028 17:17:43.812289  9569 net.cpp:129] Top shape: 64 1024 7 7 (3211264)
I1028 17:17:43.812294  9569 net.cpp:137] Memory required for data: 3588892168
I1028 17:17:43.812299  9569 layer_factory.hpp:77] Creating layer pool5/7x7_s1
I1028 17:17:43.812309  9569 net.cpp:84] Creating Layer pool5/7x7_s1
I1028 17:17:43.812315  9569 net.cpp:406] pool5/7x7_s1 <- inception_5b/output
I1028 17:17:43.812324  9569 net.cpp:380] pool5/7x7_s1 -> pool5/7x7_s1
I1028 17:17:43.812564  9569 net.cpp:122] Setting up pool5/7x7_s1
I1028 17:17:43.812573  9569 net.cpp:129] Top shape: 64 1024 1 1 (65536)
I1028 17:17:43.812578  9569 net.cpp:137] Memory required for data: 3589154312
I1028 17:17:43.812582  9569 layer_factory.hpp:77] Creating layer pool5/drop_7x7_s1
I1028 17:17:43.812592  9569 net.cpp:84] Creating Layer pool5/drop_7x7_s1
I1028 17:17:43.812597  9569 net.cpp:406] pool5/drop_7x7_s1 <- pool5/7x7_s1
I1028 17:17:43.812607  9569 net.cpp:367] pool5/drop_7x7_s1 -> pool5/7x7_s1 (in-place)
I1028 17:17:43.812634  9569 net.cpp:122] Setting up pool5/drop_7x7_s1
I1028 17:17:43.812642  9569 net.cpp:129] Top shape: 64 1024 1 1 (65536)
I1028 17:17:43.812646  9569 net.cpp:137] Memory required for data: 3589416456
I1028 17:17:43.812650  9569 layer_factory.hpp:77] Creating layer my-loss3/classifier
I1028 17:17:43.812662  9569 net.cpp:84] Creating Layer my-loss3/classifier
I1028 17:17:43.812669  9569 net.cpp:406] my-loss3/classifier <- pool5/7x7_s1
I1028 17:17:43.812698  9569 net.cpp:380] my-loss3/classifier -> my-loss3/classifier
I1028 17:17:43.812860  9569 net.cpp:122] Setting up my-loss3/classifier
I1028 17:17:43.812867  9569 net.cpp:129] Top shape: 64 1 (64)
I1028 17:17:43.812871  9569 net.cpp:137] Memory required for data: 3589416712
I1028 17:17:43.812878  9569 layer_factory.hpp:77] Creating layer loss3/loss
I1028 17:17:43.812886  9569 net.cpp:84] Creating Layer loss3/loss
I1028 17:17:43.812892  9569 net.cpp:406] loss3/loss <- my-loss3/classifier
I1028 17:17:43.812898  9569 net.cpp:406] loss3/loss <- label_data_1_split_2
I1028 17:17:43.812906  9569 net.cpp:380] loss3/loss -> loss3/loss
…
I1028 17:17:43.814064  9569 net.cpp:255] Network initialization done.
I1028 17:17:43.815922  9569 solver.cpp:172] Creating test net (#0) specified by net file: ./train_val.prototxt
I1028 17:17:43.816082  9569 net.cpp:294] The NetState phase (1) differed from the phase (0) specified by a rule in layer data
I1028 17:17:43.817327  9569 net.cpp:51] Initializing net from parameters: 
name: "GoogleNet"
state {
  phase: TEST
}
layer {
  name: "data"
  type: "HDF5Data"
  top: "data"
  top: "label"
  include {
    phase: TEST
  }
  hdf5_data_param {
    source: "./test.txt"
    batch_size: 28
  }
}
layer {
  name: "conv1/7x7_s2"
  type: "Convolution"
  bottom: "data"
  top: "conv1/7x7_s2"
  param {
    lr_mult: 1
    decay_mult: 1
  }
  param {
    lr_mult: 2
    decay_mult: 0
  }
  convolution_param {
    num_output: 64
    pad: 3
    kernel_size: 7
    stride: 2
    weight_filler {
      type: "xavier"
    }
    bias_filler {
      type: "constant"
      value: 0.2
    }
  }
}
layer {
  name: "conv1/relu_7x7"
  type: "ReLU"
  bottom: "conv1/7x7_s2"
  top: "conv1/7x7_s2"
}
layer {
  name: "pool1/3x3_s2"
  type: "Pooling"
  bottom: "conv1/7x7_s2"
  top: "pool1/3x3_s2"
  pooling_param {
    pool: MAX
    kernel_size: 3
    stride: 2
  }
}
layer {
  name: "pool1/norm1"
  type: "LRN"
  bottom: "pool1/3x3_s2"
  top: "pool1/norm1"
  lrn_param {
    local_size: 5
    alpha: 0.0001
    beta: 0.75
  }
}
layer {
  name: "conv2/3x3_reduce"
  type: "Convolution"
  bottom: "pool1/norm1"
  top: "conv2/3x3_reduce"
  param {
    lr_mult: 1
    decay_mult: 1
  }
  param {
    lr_mult: 2
    decay_mult: 0
  }
  convolution_param {
    num_output: 64
    kernel_size: 1
    weight_filler {
      type: "xavier"
    }
    bias_filler {
      type: "constant"
      value: 0.2
    }
  }
}
layer {
  name: "conv2/relu_3x3_reduce"
  type: "ReLU"
  bottom: "conv2/3x3_reduce"
  top: "conv2/3x3_reduce"
}
layer {
  name: "conv2/3x3"
  type: "Convolution"
  bottom: "conv2/3x3_reduce"
  top: "conv2/3x3"
  param {
    lr_mult: 1
    decay_mult: 1
  }
  param {
    lr_mult: 2
    decay_mult: 0
  }
  convolution_param {
    num_output: 192
    pad: 1
    kernel_size: 3
    weight_filler {
      type: "xavier"
    }
    bias_filler {
      type: "constant"
      value: 0.2
    }
  }
}
layer {
  name: "conv2/relu_3x3"
  type: "ReLU"
  bottom: "conv2/3x3"
  top: "conv2/3x3"
}
layer {
  name: "conv2/norm2"
  type: "LRN"
  bottom: "conv2/3x3"
  top: "conv2/norm2"
  lrn_param {
    local_size: 5
    alpha: 0.0001
    beta: 0.75
  }
}
layer {
  name: "pool2/3x3_s2"
  type: "Pooling"
  bottom: "conv2/norm2"
  top: "pool2/3x3_s2"
  pooling_param {
    pool: MAX
    kernel_size: 3
    stride: 2
  }
}
layer {
  name: "inception_3a/1x1"
  type: "Convolution"
  bottom: "pool2/3x3_s2"
  top: "inception_3a/1x1"
  param {
    lr_mult: 1
    decay_mult: 1
  }
  param {
    lr_mult: 2
    decay_mult: 0
  }
  convolution_param {
    num_output: 64
    kernel_size: 1
    weight_filler {
      type: "xavier"
    }
    bias_filler {
      type: "constant"
      value: 0.2
    }
  }
}
layer {
  name: "inception_3a/relu_1x1"
  type: "ReLU"
  bottom: "inception_3a/1x1"
  top: "inception_3a/1x1"
}
layer {
  name: "inception_3a/3x3_reduce"
  type: "Convolution"
  bottom: "pool2/3x3_s2"
  top: "inception_3a/3x3_reduce"
  param {
    lr_mult: 1
    decay_mult: 1
  }
  param {
    lr_mult: 2
    decay_mult: 0
  }
  convolution_param {
    num_output: 96
    kernel_size: 1
    weight_filler {
      type: "xavier"
    }
    bias_filler {
      type: "constant"
      value: 0.2
    }
  }
}
layer {
  name: "inception_3a/relu_3x3_reduce"
  type: "ReLU"
  bottom: "inception_3a/3x3_reduce"
  top: "inception_3a/3x3_reduce"
}
layer {
  name: "inception_3a/3x3"
  type: "Convolution"
  bottom: "inception_3a/3x3_reduce"
  top: "inception_3a/3x3"
  param {
    lr_mult: 1
    decay_mult: 1
  }
  param {
    lr_mult: 2
    decay_mult: 0
  }
  convolution_param {
    num_output: 128
    pad: 1
    kernel_size: 3
    weight_filler {
      type: "xavier"
    }
    bias_filler {
      type: "constant"
      value: 0.2
    }
  }
}
layer {
  name: "inception_3a/relu_3x3"
  type: "ReLU"
  bottom: "inception_3a/3x3"
  top: "inception_3a/3x3"
}
layer {
  name: "inception_3a/5x5_reduce"
  type: "Convolution"
  bottom: "pool2/3x3_s2"
  top: "inception_3a/5x5_reduce"
  param {
    lr_mult: 1
    decay_mult: 1
  }
  param {
    lr_mult: 2
    decay_mult: 0
  }
  convolution_param {
    num_output: 16
    kernel_size: 1
    weight_filler {
      type: "xavier"
    }
    bias_filler {
      type: "constant"
      value: 0.2
    }
  }
}
layer {
  name: "inception_3a/relu_5x5_reduce"
  type: "ReLU"
  bottom: "inception_3a/5x5_reduce"
  top: "inception_3a/5x5_reduce"
}
layer {
  name: "inception_3a/5x5"
  type: "Convolution"
  bottom: "inception_3a/5x5_reduce"
  top: "inception_3a/5x5"
  param {
    lr_mult: 1
    decay_mult: 1
  }
  param {
    lr_mult: 2
    decay_mult: 0
  }
  convolution_param {
    num_output: 32
    pad: 2
    kernel_size: 5
    weight_filler {
      type: "xavier"
    }
    bias_filler {
      type: "constant"
      value: 0.2
    }
  }
}
layer {
  name: "inception_3a/relu_5x5"
  type: "ReLU"
  bottom: "inception_3a/5x5"
  top: "inception_3a/5x5"
}
layer {
  name: "inception_3a/pool"
  type: "Pooling"
  bottom: "pool2/3x3_s2"
  top: "inception_3a/pool"
  pooling_param {
    pool: MAX
    kernel_size: 3
    stride: 1
    pad: 1
  }
}
layer {
  name: "inception_3a/pool_proj"
  type: "Convolution"
  bottom: "inception_3a/pool"
  top: "inception_3a/pool_proj"
  param {
    lr_mult: 1
    decay_mult: 1
  }
  param {
    lr_mult: 2
    decay_mult: 0
  }
  convolution_param {
    num_output: 32
    kernel_size: 1
    weight_filler {
      type: "xavier"
    }
    bias_filler {
      type: "constant"
      value: 0.2
    }
  }
}
layer {
  name: "inception_3a/relu_pool_proj"
  type: "ReLU"
  bottom: "inception_3a/pool_proj"
  top: "inception_3a/pool_proj"
}
layer {
  name: "inception_3a/output"
  type: "Concat"
  bottom: "inception_3a/1x1"
  bottom: "inception_3a/3x3"
  bottom: "inception_3a/5x5"
  bottom: "inception_3a/pool_proj"
  top: "inception_3a/output"
}
layer {
  name: "inception_3b/1x1"
  type: "Convolution"
  bottom: "inception_3a/output"
  top: "inception_3b/1x1"
  param {
    lr_mult: 1
    decay_mult: 1
  }
  param {
    lr_mult: 2
    decay_mult: 0
  }
  convolution_param {
    num_output: 128
    kernel_size: 1
    weight_filler {
      type: "xavier"
    }
    bias_filler {
      type: "constant"
      value: 0.2
    }
  }
}
layer {
  name: "inception_3b/relu_1x1"
  type: "ReLU"
  bottom: "inception_3b/1x1"
  top: "inception_3b/1x1"
}
layer {
  name: "inception_3b/3x3_reduce"
  type: "Convolution"
  bottom: "inception_3a/output"
  top: "inception_3b/3x3_reduce"
  param {
    lr_mult: 1
    decay_mult: 1
  }
  param {
    lr_mult: 2
    decay_mult: 0
  }
  convolution_param {
    num_output: 128
    kernel_size: 1
    weight_filler {
      type: "xavier"
    }
    bias_filler {
      type: "constant"
      value: 0.2
    }
  }
}
layer {
  name: "inception_3b/relu_3x3_reduce"
  type: "ReLU"
  bottom: "inception_3b/3x3_reduce"
  top: "inception_3b/3x3_reduce"
}
layer {
  name: "inception_3b/3x3"
  type: "Convolution"
  bottom: "inception_3b/3x3_reduce"
  top: "inception_3b/3x3"
  param {
    lr_mult: 1
    decay_mult: 1
  }
  param {
    lr_mult: 2
    decay_mult: 0
  }
  convolution_param {
    num_output: 192
    pad: 1
    kernel_size: 3
    weight_filler {
      type: "xavier"
    }
    bias_filler {
      type: "constant"
      value: 0.2
    }
  }
}
layer {
  name: "inception_3b/relu_3x3"
  type: "ReLU"
  bottom: "inception_3b/3x3"
  top: "inception_3b/3x3"
}
layer {
  name: "inception_3b/5x5_reduce"
  type: "Convolution"
  bottom: "inception_3a/output"
  top: "inception_3b/5x5_reduce"
  param {
    lr_mult: 1
    decay_mult: 1
  }
  param {
    lr_mult: 2
    decay_mult: 0
  }
  convolution_param {
    num_output: 32
    kernel_size: 1
    weight_filler {
      type: "xavier"
    }
    bias_filler {
      type: "constant"
      value: 0.2
    }
  }
}
layer {
  name: "inception_3b/relu_5x5_reduce"
  type: "ReLU"
  bottom: "inception_3b/5x5_reduce"
  top: "inception_3b/5x5_reduce"
}
layer {
  name: "inception_3b/5x5"
  type: "Convolution"
  bottom: "inception_3b/5x5_reduce"
  top: "inception_3b/5x5"
  param {
    lr_mult: 1
    decay_mult: 1
  }
  param {
    lr_mult: 2
    decay_mult: 0
  }
  convolution_param {
    num_output: 96
    pad: 2
    kernel_size: 5
    weight_filler {
      type: "xavier"
    }
    bias_filler {
      type: "constant"
      value: 0.2
    }
  }
}
layer {
  name: "inception_3b/relu_5x5"
  type: "ReLU"
  bottom: "inception_3b/5x5"
  top: "inception_3b/5x5"
}
layer {
  name: "inception_3b/pool"
  type: "Pooling"
  bottom: "inception_3a/output"
  top: "inception_3b/pool"
  pooling_param {
    pool: MAX
    kernel_size: 3
    stride: 1
    pad: 1
  }
}
layer {
  name: "inception_3b/pool_proj"
  type: "Convolution"
  bottom: "inception_3b/pool"
  top: "inception_3b/pool_proj"
  param {
    lr_mult: 1
    decay_mult: 1
  }
  param {
    lr_mult: 2
    decay_mult: 0
  }
  convolution_param {
    num_output: 64
    kernel_size: 1
    weight_filler {
      type: "xavier"
    }
    bias_filler {
      type: "constant"
      value: 0.2
    }
  }
}
layer {
  name: "inception_3b/relu_pool_proj"
  type: "ReLU"
  bottom: "inception_3b/pool_proj"
  top: "inception_3b/pool_proj"
}
layer {
  name: "inception_3b/output"
  type: "Concat"
  bottom: "inception_3b/1x1"
  bottom: "inception_3b/3x3"
  bottom: "inception_3b/5x5"
  bottom: "inception_3b/pool_proj"
  top: "inception_3b/output"
}
layer {
  name: "pool3/3x3_s2"
  type: "Pooling"
  bottom: "inception_3b/output"
  top: "pool3/3x3_s2"
  pooling_param {
    pool: MAX
    kernel_size: 3
    stride: 2
  }
}
layer {
  name: "inception_4a/1x1"
  type: "Convolution"
  bottom: "pool3/3x3_s2"
  top: "inception_4a/1x1"
  param {
    lr_mult: 1
    decay_mult: 1
  }
  param {
    lr_mult: 2
    decay_mult: 0
  }
  convolution_param {
    num_output: 192
    kernel_size: 1
    weight_filler {
      type: "xavier"
    }
    bias_filler {
      type: "constant"
      value: 0.2
    }
  }
}
layer {
  name: "inception_4a/relu_1x1"
  type: "ReLU"
  bottom: "inception_4a/1x1"
  top: "inception_4a/1x1"
}
layer {
  name: "inception_4a/3x3_reduce"
  type: "Convolution"
  bottom: "pool3/3x3_s2"
  top: "inception_4a/3x3_reduce"
  param {
    lr_mult: 1
    decay_mult: 1
  }
  param {
    lr_mult: 2
    decay_mult: 0
  }
  convolution_param {
    num_output: 96
    kernel_size: 1
    weight_filler {
      type: "xavier"
    }
    bias_filler {
      type: "constant"
      value: 0.2
    }
  }
}
layer {
  name: "inception_4a/relu_3x3_reduce"
  type: "ReLU"
  bottom: "inception_4a/3x3_reduce"
  top: "inception_4a/3x3_reduce"
}
layer {
  name: "inception_4a/3x3"
  type: "Convolution"
  bottom: "inception_4a/3x3_reduce"
  top: "inception_4a/3x3"
  param {
    lr_mult: 1
    decay_mult: 1
  }
  param {
    lr_mult: 2
    decay_mult: 0
  }
  convolution_param {
    num_output: 208
    pad: 1
    kernel_size: 3
    weight_filler {
      type: "xavier"
    }
    bias_filler {
      type: "constant"
      value: 0.2
    }
  }
}
layer {
  name: "inception_4a/relu_3x3"
  type: "ReLU"
  bottom: "inception_4a/3x3"
  top: "inception_4a/3x3"
}
layer {
  name: "inception_4a/5x5_reduce"
  type: "Convolution"
  bottom: "pool3/3x3_s2"
  top: "inception_4a/5x5_reduce"
  param {
    lr_mult: 1
    decay_mult: 1
  }
  param {
    lr_mult: 2
    decay_mult: 0
  }
  convolution_param {
    num_output: 16
    kernel_size: 1
    weight_filler {
      type: "xavier"
    }
    bias_filler {
      type: "constant"
      value: 0.2
    }
  }
}
layer {
  name: "inception_4a/relu_5x5_reduce"
  type: "ReLU"
  bottom: "inception_4a/5x5_reduce"
  top: "inception_4a/5x5_reduce"
}
layer {
  name: "inception_4a/5x5"
  type: "Convolution"
  bottom: "inception_4a/5x5_reduce"
  top: "inception_4a/5x5"
  param {
    lr_mult: 1
    decay_mult: 1
  }
  param {
    lr_mult: 2
    decay_mult: 0
  }
  convolution_param {
    num_output: 48
    pad: 2
    kernel_size: 5
    weight_filler {
      type: "xavier"
    }
    bias_filler {
      type: "constant"
      value: 0.2
    }
  }
}
layer {
  name: "inception_4a/relu_5x5"
  type: "ReLU"
  bottom: "inception_4a/5x5"
  top: "inception_4a/5x5"
}
layer {
  name: "inception_4a/pool"
  type: "Pooling"
  bottom: "pool3/3x3_s2"
  top: "inception_4a/pool"
  pooling_param {
    pool: MAX
    kernel_size: 3
    stride: 1
    pad: 1
  }
}
layer {
  name: "inception_4a/pool_proj"
  type: "Convolution"
  bottom: "inception_4a/pool"
  top: "inception_4a/pool_proj"
  param {
    lr_mult: 1
    decay_mult: 1
  }
  param {
    lr_mult: 2
    decay_mult: 0
  }
  convolution_param {
    num_output: 64
    kernel_size: 1
    weight_filler {
      type: "xavier"
    }
    bias_filler {
      type: "constant"
      value: 0.2
    }
  }
}
layer {
  name: "inception_4a/relu_pool_proj"
  type: "ReLU"
  bottom: "inception_4a/pool_proj"
  top: "inception_4a/pool_proj"
}
layer {
  name: "inception_4a/output"
  type: "Concat"
  bottom: "inception_4a/1x1"
  bottom: "inception_4a/3x3"
  bottom: "inception_4a/5x5"
  bottom: "inception_4a/pool_proj"
  top: "inception_4a/output"
}
layer {
  name: "loss1/ave_pool"
  type: "Pooling"
  bottom: "inception_4a/output"
  top: "loss1/ave_pool"
  pooling_param {
    pool: AVE
    kernel_size: 5
    stride: 3
  }
}
layer {
  name: "loss1/conv"
  type: "Convolution"
  bottom: "loss1/ave_pool"
  top: "loss1/conv"
  param {
    lr_mult: 1
    decay_mult: 1
  }
  param {
    lr_mult: 2
    decay_mult: 0
  }
  convolution_param {
    num_output: 128
    kernel_size: 1
    weight_filler {
      type: "xavier"
    }
    bias_filler {
      type: "constant"
      value: 0.2
    }
  }
}
layer {
  name: "loss1/relu_conv"
  type: "ReLU"
  bottom: "loss1/conv"
  top: "loss1/conv"
}
layer {
  name: "loss1/fc"
  type: "InnerProduct"
  bottom: "loss1/conv"
  top: "loss1/fc"
  param {
    lr_mult: 1
    decay_mult: 1
  }
  param {
    lr_mult: 2
    decay_mult: 0
  }
  inner_product_param {
    num_output: 1024
    weight_filler {
      type: "xavier"
    }
    bias_filler {
      type: "constant"
      value: 0.2
    }
  }
}
layer {
  name: "loss1/relu_fc"
  type: "ReLU"
  bottom: "loss1/fc"
  top: "loss1/fc"
}
layer {
  name: "loss1/drop_fc"
  type: "Dropout"
  bottom: "loss1/fc"
  top: "loss1/fc"
  dropout_param {
    dropout_ratio: 0.7
  }
}
layer {
  name: "my-loss1/classifier"
  type: "InnerProduct"
  bottom: "loss1/fc"
…
I1028 17:17:44.951118  9569 net.cpp:406] inception_4c/5x5_reduce <- inception_4b/output_inception_4b/output_0_split_2
I1028 17:17:44.951128  9569 net.cpp:380] inception_4c/5x5_reduce -> inception_4c/5x5_reduce
I1028 17:17:44.952697  9569 net.cpp:122] Setting up inception_4c/5x5_reduce
I1028 17:17:44.952715  9569 net.cpp:129] Top shape: 28 24 14 14 (131712)
I1028 17:17:44.952720  9569 net.cpp:137] Memory required for data: 1222778932
I1028 17:17:44.952730  9569 layer_factory.hpp:77] Creating layer inception_4c/relu_5x5_reduce
I1028 17:17:44.952754  9569 net.cpp:84] Creating Layer inception_4c/relu_5x5_reduce
I1028 17:17:44.952761  9569 net.cpp:406] inception_4c/relu_5x5_reduce <- inception_4c/5x5_reduce
I1028 17:17:44.952772  9569 net.cpp:367] inception_4c/relu_5x5_reduce -> inception_4c/5x5_reduce (in-place)
I1028 17:17:44.953008  9569 net.cpp:122] Setting up inception_4c/relu_5x5_reduce
I1028 17:17:44.953017  9569 net.cpp:129] Top shape: 28 24 14 14 (131712)
I1028 17:17:44.953022  9569 net.cpp:137] Memory required for data: 1223305780
I1028 17:17:44.953027  9569 layer_factory.hpp:77] Creating layer inception_4c/5x5
I1028 17:17:44.953040  9569 net.cpp:84] Creating Layer inception_4c/5x5
I1028 17:17:44.953047  9569 net.cpp:406] inception_4c/5x5 <- inception_4c/5x5_reduce
I1028 17:17:44.953057  9569 net.cpp:380] inception_4c/5x5 -> inception_4c/5x5
I1028 17:17:44.954872  9569 net.cpp:122] Setting up inception_4c/5x5
I1028 17:17:44.954892  9569 net.cpp:129] Top shape: 28 64 14 14 (351232)
I1028 17:17:44.954898  9569 net.cpp:137] Memory required for data: 1224710708
I1028 17:17:44.954908  9569 layer_factory.hpp:77] Creating layer inception_4c/relu_5x5
I1028 17:17:44.954921  9569 net.cpp:84] Creating Layer inception_4c/relu_5x5
I1028 17:17:44.954928  9569 net.cpp:406] inception_4c/relu_5x5 <- inception_4c/5x5
I1028 17:17:44.954938  9569 net.cpp:367] inception_4c/relu_5x5 -> inception_4c/5x5 (in-place)
I1028 17:17:44.955157  9569 net.cpp:122] Setting up inception_4c/relu_5x5
I1028 17:17:44.955166  9569 net.cpp:129] Top shape: 28 64 14 14 (351232)
I1028 17:17:44.955170  9569 net.cpp:137] Memory required for data: 1226115636
I1028 17:17:44.955175  9569 layer_factory.hpp:77] Creating layer inception_4c/pool
I1028 17:17:44.955184  9569 net.cpp:84] Creating Layer inception_4c/pool
I1028 17:17:44.955193  9569 net.cpp:406] inception_4c/pool <- inception_4b/output_inception_4b/output_0_split_3
I1028 17:17:44.955201  9569 net.cpp:380] inception_4c/pool -> inception_4c/pool
I1028 17:17:44.955262  9569 net.cpp:122] Setting up inception_4c/pool
I1028 17:17:44.955273  9569 net.cpp:129] Top shape: 28 512 14 14 (2809856)
I1028 17:17:44.955279  9569 net.cpp:137] Memory required for data: 1237355060
I1028 17:17:44.955284  9569 layer_factory.hpp:77] Creating layer inception_4c/pool_proj
I1028 17:17:44.955297  9569 net.cpp:84] Creating Layer inception_4c/pool_proj
I1028 17:17:44.955304  9569 net.cpp:406] inception_4c/pool_proj <- inception_4c/pool
I1028 17:17:44.955312  9569 net.cpp:380] inception_4c/pool_proj -> inception_4c/pool_proj
I1028 17:17:44.957111  9569 net.cpp:122] Setting up inception_4c/pool_proj
I1028 17:17:44.957134  9569 net.cpp:129] Top shape: 28 64 14 14 (351232)
I1028 17:17:44.957140  9569 net.cpp:137] Memory required for data: 1238759988
I1028 17:17:44.957151  9569 layer_factory.hpp:77] Creating layer inception_4c/relu_pool_proj
I1028 17:17:44.957161  9569 net.cpp:84] Creating Layer inception_4c/relu_pool_proj
I1028 17:17:44.957170  9569 net.cpp:406] inception_4c/relu_pool_proj <- inception_4c/pool_proj
I1028 17:17:44.957180  9569 net.cpp:367] inception_4c/relu_pool_proj -> inception_4c/pool_proj (in-place)
I1028 17:17:44.957401  9569 net.cpp:122] Setting up inception_4c/relu_pool_proj
I1028 17:17:44.957411  9569 net.cpp:129] Top shape: 28 64 14 14 (351232)
I1028 17:17:44.957415  9569 net.cpp:137] Memory required for data: 1240164916
I1028 17:17:44.957419  9569 layer_factory.hpp:77] Creating layer inception_4c/output
I1028 17:17:44.957427  9569 net.cpp:84] Creating Layer inception_4c/output
I1028 17:17:44.957434  9569 net.cpp:406] inception_4c/output <- inception_4c/1x1
I1028 17:17:44.957440  9569 net.cpp:406] inception_4c/output <- inception_4c/3x3
I1028 17:17:44.957446  9569 net.cpp:406] inception_4c/output <- inception_4c/5x5
I1028 17:17:44.957453  9569 net.cpp:406] inception_4c/output <- inception_4c/pool_proj
I1028 17:17:44.957461  9569 net.cpp:380] inception_4c/output -> inception_4c/output
I1028 17:17:44.957500  9569 net.cpp:122] Setting up inception_4c/output
I1028 17:17:44.957510  9569 net.cpp:129] Top shape: 28 512 14 14 (2809856)
I1028 17:17:44.957516  9569 net.cpp:137] Memory required for data: 1251404340
I1028 17:17:44.957520  9569 layer_factory.hpp:77] Creating layer inception_4c/output_inception_4c/output_0_split
I1028 17:17:44.957528  9569 net.cpp:84] Creating Layer inception_4c/output_inception_4c/output_0_split
I1028 17:17:44.957548  9569 net.cpp:406] inception_4c/output_inception_4c/output_0_split <- inception_4c/output
I1028 17:17:44.957558  9569 net.cpp:380] inception_4c/output_inception_4c/output_0_split -> inception_4c/output_inception_4c/output_0_split_0
I1028 17:17:44.957569  9569 net.cpp:380] inception_4c/output_inception_4c/output_0_split -> inception_4c/output_inception_4c/output_0_split_1
I1028 17:17:44.957581  9569 net.cpp:380] inception_4c/output_inception_4c/output_0_split -> inception_4c/output_inception_4c/output_0_split_2
I1028 17:17:44.957592  9569 net.cpp:380] inception_4c/output_inception_4c/output_0_split -> inception_4c/output_inception_4c/output_0_split_3
I1028 17:17:44.957691  9569 net.cpp:122] Setting up inception_4c/output_inception_4c/output_0_split
I1028 17:17:44.957700  9569 net.cpp:129] Top shape: 28 512 14 14 (2809856)
I1028 17:17:44.957706  9569 net.cpp:129] Top shape: 28 512 14 14 (2809856)
I1028 17:17:44.957713  9569 net.cpp:129] Top shape: 28 512 14 14 (2809856)
I1028 17:17:44.957720  9569 net.cpp:129] Top shape: 28 512 14 14 (2809856)
I1028 17:17:44.957726  9569 net.cpp:137] Memory required for data: 1296362036
I1028 17:17:44.957729  9569 layer_factory.hpp:77] Creating layer inception_4d/1x1
I1028 17:17:44.957743  9569 net.cpp:84] Creating Layer inception_4d/1x1
I1028 17:17:44.957749  9569 net.cpp:406] inception_4d/1x1 <- inception_4c/output_inception_4c/output_0_split_0
I1028 17:17:44.957761  9569 net.cpp:380] inception_4d/1x1 -> inception_4d/1x1
I1028 17:17:44.959842  9569 net.cpp:122] Setting up inception_4d/1x1
I1028 17:17:44.959867  9569 net.cpp:129] Top shape: 28 112 14 14 (614656)
I1028 17:17:44.959875  9569 net.cpp:137] Memory required for data: 1298820660
I1028 17:17:44.959887  9569 layer_factory.hpp:77] Creating layer inception_4d/relu_1x1
I1028 17:17:44.959898  9569 net.cpp:84] Creating Layer inception_4d/relu_1x1
I1028 17:17:44.959905  9569 net.cpp:406] inception_4d/relu_1x1 <- inception_4d/1x1
I1028 17:17:44.959918  9569 net.cpp:367] inception_4d/relu_1x1 -> inception_4d/1x1 (in-place)
I1028 17:17:44.960139  9569 net.cpp:122] Setting up inception_4d/relu_1x1
I1028 17:17:44.960150  9569 net.cpp:129] Top shape: 28 112 14 14 (614656)
I1028 17:17:44.960153  9569 net.cpp:137] Memory required for data: 1301279284
I1028 17:17:44.960158  9569 layer_factory.hpp:77] Creating layer inception_4d/3x3_reduce
I1028 17:17:44.960172  9569 net.cpp:84] Creating Layer inception_4d/3x3_reduce
I1028 17:17:44.960180  9569 net.cpp:406] inception_4d/3x3_reduce <- inception_4c/output_inception_4c/output_0_split_1
I1028 17:17:44.960191  9569 net.cpp:380] inception_4d/3x3_reduce -> inception_4d/3x3_reduce
I1028 17:17:44.962309  9569 net.cpp:122] Setting up inception_4d/3x3_reduce
I1028 17:17:44.962333  9569 net.cpp:129] Top shape: 28 144 14 14 (790272)
I1028 17:17:44.962338  9569 net.cpp:137] Memory required for data: 1304440372
I1028 17:17:44.962350  9569 layer_factory.hpp:77] Creating layer inception_4d/relu_3x3_reduce
I1028 17:17:44.962361  9569 net.cpp:84] Creating Layer inception_4d/relu_3x3_reduce
I1028 17:17:44.962369  9569 net.cpp:406] inception_4d/relu_3x3_reduce <- inception_4d/3x3_reduce
I1028 17:17:44.962383  9569 net.cpp:367] inception_4d/relu_3x3_reduce -> inception_4d/3x3_reduce (in-place)
I1028 17:17:44.962605  9569 net.cpp:122] Setting up inception_4d/relu_3x3_reduce
I1028 17:17:44.962615  9569 net.cpp:129] Top shape: 28 144 14 14 (790272)
I1028 17:17:44.962618  9569 net.cpp:137] Memory required for data: 1307601460
I1028 17:17:44.962623  9569 layer_factory.hpp:77] Creating layer inception_4d/3x3
I1028 17:17:44.962637  9569 net.cpp:84] Creating Layer inception_4d/3x3
I1028 17:17:44.962643  9569 net.cpp:406] inception_4d/3x3 <- inception_4d/3x3_reduce
I1028 17:17:44.962653  9569 net.cpp:380] inception_4d/3x3 -> inception_4d/3x3
I1028 17:17:44.969010  9569 net.cpp:122] Setting up inception_4d/3x3
I1028 17:17:44.969050  9569 net.cpp:129] Top shape: 28 288 14 14 (1580544)
I1028 17:17:44.969055  9569 net.cpp:137] Memory required for data: 1313923636
I1028 17:17:44.969105  9569 layer_factory.hpp:77] Creating layer inception_4d/relu_3x3
I1028 17:17:44.969146  9569 net.cpp:84] Creating Layer inception_4d/relu_3x3
I1028 17:17:44.969156  9569 net.cpp:406] inception_4d/relu_3x3 <- inception_4d/3x3
I1028 17:17:44.969171  9569 net.cpp:367] inception_4d/relu_3x3 -> inception_4d/3x3 (in-place)
I1028 17:17:44.969756  9569 net.cpp:122] Setting up inception_4d/relu_3x3
I1028 17:17:44.969769  9569 net.cpp:129] Top shape: 28 288 14 14 (1580544)
I1028 17:17:44.969774  9569 net.cpp:137] Memory required for data: 1320245812
I1028 17:17:44.969779  9569 layer_factory.hpp:77] Creating layer inception_4d/5x5_reduce
I1028 17:17:44.969794  9569 net.cpp:84] Creating Layer inception_4d/5x5_reduce
I1028 17:17:44.969804  9569 net.cpp:406] inception_4d/5x5_reduce <- inception_4c/output_inception_4c/output_0_split_2
I1028 17:17:44.969815  9569 net.cpp:380] inception_4d/5x5_reduce -> inception_4d/5x5_reduce
I1028 17:17:44.971520  9569 net.cpp:122] Setting up inception_4d/5x5_reduce
I1028 17:17:44.971541  9569 net.cpp:129] Top shape: 28 32 14 14 (175616)
I1028 17:17:44.971546  9569 net.cpp:137] Memory required for data: 1320948276
I1028 17:17:44.971557  9569 layer_factory.hpp:77] Creating layer inception_4d/relu_5x5_reduce
I1028 17:17:44.971570  9569 net.cpp:84] Creating Layer inception_4d/relu_5x5_reduce
I1028 17:17:44.971578  9569 net.cpp:406] inception_4d/relu_5x5_reduce <- inception_4d/5x5_reduce
I1028 17:17:44.971587  9569 net.cpp:367] inception_4d/relu_5x5_reduce -> inception_4d/5x5_reduce (in-place)
I1028 17:17:44.971829  9569 net.cpp:122] Setting up inception_4d/relu_5x5_reduce
I1028 17:17:44.971843  9569 net.cpp:129] Top shape: 28 32 14 14 (175616)
I1028 17:17:44.971848  9569 net.cpp:137] Memory required for data: 1321650740
I1028 17:17:44.971851  9569 layer_factory.hpp:77] Creating layer inception_4d/5x5
I1028 17:17:44.971863  9569 net.cpp:84] Creating Layer inception_4d/5x5
I1028 17:17:44.971868  9569 net.cpp:406] inception_4d/5x5 <- inception_4d/5x5_reduce
I1028 17:17:44.971877  9569 net.cpp:380] inception_4d/5x5 -> inception_4d/5x5
I1028 17:17:44.973850  9569 net.cpp:122] Setting up inception_4d/5x5
I1028 17:17:44.973871  9569 net.cpp:129] Top shape: 28 64 14 14 (351232)
I1028 17:17:44.973877  9569 net.cpp:137] Memory required for data: 1323055668
I1028 17:17:44.973888  9569 layer_factory.hpp:77] Creating layer inception_4d/relu_5x5
I1028 17:17:44.973901  9569 net.cpp:84] Creating Layer inception_4d/relu_5x5
I1028 17:17:44.973933  9569 net.cpp:406] inception_4d/relu_5x5 <- inception_4d/5x5
I1028 17:17:44.973943  9569 net.cpp:367] inception_4d/relu_5x5 -> inception_4d/5x5 (in-place)
I1028 17:17:44.974184  9569 net.cpp:122] Setting up inception_4d/relu_5x5
I1028 17:17:44.974195  9569 net.cpp:129] Top shape: 28 64 14 14 (351232)
I1028 17:17:44.974200  9569 net.cpp:137] Memory required for data: 1324460596
I1028 17:17:44.974203  9569 layer_factory.hpp:77] Creating layer inception_4d/pool
I1028 17:17:44.974215  9569 net.cpp:84] Creating Layer inception_4d/pool
I1028 17:17:44.974221  9569 net.cpp:406] inception_4d/pool <- inception_4c/output_inception_4c/output_0_split_3
I1028 17:17:44.974229  9569 net.cpp:380] inception_4d/pool -> inception_4d/pool
I1028 17:17:44.974298  9569 net.cpp:122] Setting up inception_4d/pool
I1028 17:17:44.974306  9569 net.cpp:129] Top shape: 28 512 14 14 (2809856)
I1028 17:17:44.974310  9569 net.cpp:137] Memory required for data: 1335700020
I1028 17:17:44.974315  9569 layer_factory.hpp:77] Creating layer inception_4d/pool_proj
I1028 17:17:44.974329  9569 net.cpp:84] Creating Layer inception_4d/pool_proj
I1028 17:17:44.974335  9569 net.cpp:406] inception_4d/pool_proj <- inception_4d/pool
I1028 17:17:44.974346  9569 net.cpp:380] inception_4d/pool_proj -> inception_4d/pool_proj
I1028 17:17:44.976145  9569 net.cpp:122] Setting up inception_4d/pool_proj
I1028 17:17:44.976164  9569 net.cpp:129] Top shape: 28 64 14 14 (351232)
I1028 17:17:44.976169  9569 net.cpp:137] Memory required for data: 1337104948
I1028 17:17:44.976181  9569 layer_factory.hpp:77] Creating layer inception_4d/relu_pool_proj
I1028 17:17:44.976212  9569 net.cpp:84] Creating Layer inception_4d/relu_pool_proj
I1028 17:17:44.976220  9569 net.cpp:406] inception_4d/relu_pool_proj <- inception_4d/pool_proj
I1028 17:17:44.976231  9569 net.cpp:367] inception_4d/relu_pool_proj -> inception_4d/pool_proj (in-place)
I1028 17:17:44.976450  9569 net.cpp:122] Setting up inception_4d/relu_pool_proj
I1028 17:17:44.976459  9569 net.cpp:129] Top shape: 28 64 14 14 (351232)
I1028 17:17:44.976464  9569 net.cpp:137] Memory required for data: 1338509876
I1028 17:17:44.976469  9569 layer_factory.hpp:77] Creating layer inception_4d/output
I1028 17:17:44.976478  9569 net.cpp:84] Creating Layer inception_4d/output
I1028 17:17:44.976485  9569 net.cpp:406] inception_4d/output <- inception_4d/1x1
I1028 17:17:44.976491  9569 net.cpp:406] inception_4d/output <- inception_4d/3x3
I1028 17:17:44.976497  9569 net.cpp:406] inception_4d/output <- inception_4d/5x5
I1028 17:17:44.976503  9569 net.cpp:406] inception_4d/output <- inception_4d/pool_proj
I1028 17:17:44.976512  9569 net.cpp:380] inception_4d/output -> inception_4d/output
I1028 17:17:44.976554  9569 net.cpp:122] Setting up inception_4d/output
I1028 17:17:44.976562  9569 net.cpp:129] Top shape: 28 528 14 14 (2897664)
I1028 17:17:44.976567  9569 net.cpp:137] Memory required for data: 1350100532
I1028 17:17:44.976572  9569 layer_factory.hpp:77] Creating layer inception_4d/output_inception_4d/output_0_split
I1028 17:17:44.976579  9569 net.cpp:84] Creating Layer inception_4d/output_inception_4d/output_0_split
I1028 17:17:44.976584  9569 net.cpp:406] inception_4d/output_inception_4d/output_0_split <- inception_4d/output
I1028 17:17:44.976593  9569 net.cpp:380] inception_4d/output_inception_4d/output_0_split -> inception_4d/output_inception_4d/output_0_split_0
I1028 17:17:44.976605  9569 net.cpp:380] inception_4d/output_inception_4d/output_0_split -> inception_4d/output_inception_4d/output_0_split_1
I1028 17:17:44.976619  9569 net.cpp:380] inception_4d/output_inception_4d/output_0_split -> inception_4d/output_inception_4d/output_0_split_2
I1028 17:17:44.976630  9569 net.cpp:380] inception_4d/output_inception_4d/output_0_split -> inception_4d/output_inception_4d/output_0_split_3
I1028 17:17:44.976641  9569 net.cpp:380] inception_4d/output_inception_4d/output_0_split -> inception_4d/output_inception_4d/output_0_split_4
I1028 17:17:44.976758  9569 net.cpp:122] Setting up inception_4d/output_inception_4d/output_0_split
I1028 17:17:44.976768  9569 net.cpp:129] Top shape: 28 528 14 14 (2897664)
I1028 17:17:44.976775  9569 net.cpp:129] Top shape: 28 528 14 14 (2897664)
I1028 17:17:44.976783  9569 net.cpp:129] Top shape: 28 528 14 14 (2897664)
I1028 17:17:44.976789  9569 net.cpp:129] Top shape: 28 528 14 14 (2897664)
I1028 17:17:44.976795  9569 net.cpp:129] Top shape: 28 528 14 14 (2897664)
I1028 17:17:44.976800  9569 net.cpp:137] Memory required for data: 1408053812
I1028 17:17:44.976804  9569 layer_factory.hpp:77] Creating layer loss2/ave_pool
I1028 17:17:44.976812  9569 net.cpp:84] Creating Layer loss2/ave_pool
I1028 17:17:44.976817  9569 net.cpp:406] loss2/ave_pool <- inception_4d/output_inception_4d/output_0_split_0
I1028 17:17:44.976824  9569 net.cpp:380] loss2/ave_pool -> loss2/ave_pool
I1028 17:17:44.977062  9569 net.cpp:122] Setting up loss2/ave_pool
I1028 17:17:44.977073  9569 net.cpp:129] Top shape: 28 528 4 4 (236544)
I1028 17:17:44.977079  9569 net.cpp:137] Memory required for data: 1408999988
I1028 17:17:44.977084  9569 layer_factory.hpp:77] Creating layer loss2/conv
I1028 17:17:44.977097  9569 net.cpp:84] Creating Layer loss2/conv
I1028 17:17:44.977103  9569 net.cpp:406] loss2/conv <- loss2/ave_pool
I1028 17:17:44.977111  9569 net.cpp:380] loss2/conv -> loss2/conv
I1028 17:17:44.979581  9569 net.cpp:122] Setting up loss2/conv
I1028 17:17:44.979606  9569 net.cpp:129] Top shape: 28 128 4 4 (57344)
I1028 17:17:44.979611  9569 net.cpp:137] Memory required for data: 1409229364
I1028 17:17:44.979624  9569 layer_factory.hpp:77] Creating layer loss2/relu_conv
I1028 17:17:44.979657  9569 net.cpp:84] Creating Layer loss2/relu_conv
I1028 17:17:44.979665  9569 net.cpp:406] loss2/relu_conv <- loss2/conv
I1028 17:17:44.979676  9569 net.cpp:367] loss2/relu_conv -> loss2/conv (in-place)
I1028 17:17:44.980340  9569 net.cpp:122] Setting up loss2/relu_conv
I1028 17:17:44.980356  9569 net.cpp:129] Top shape: 28 128 4 4 (57344)
I1028 17:17:44.980361  9569 net.cpp:137] Memory required for data: 1409458740
I1028 17:17:44.980366  9569 layer_factory.hpp:77] Creating layer loss2/fc
I1028 17:17:44.980381  9569 net.cpp:84] Creating Layer loss2/fc
I1028 17:17:44.980388  9569 net.cpp:406] loss2/fc <- loss2/conv
I1028 17:17:44.980397  9569 net.cpp:380] loss2/fc -> loss2/fc
I1028 17:17:45.000496  9569 net.cpp:122] Setting up loss2/fc
I1028 17:17:45.000543  9569 net.cpp:129] Top shape: 28 1024 (28672)
I1028 17:17:45.000548  9569 net.cpp:137] Memory required for data: 1409573428
I1028 17:17:45.000564  9569 layer_factory.hpp:77] Creating layer loss2/relu_fc
I1028 17:17:45.000579  9569 net.cpp:84] Creating Layer loss2/relu_fc
I1028 17:17:45.000587  9569 net.cpp:406] loss2/relu_fc <- loss2/fc
I1028 17:17:45.000622  9569 net.cpp:367] loss2/relu_fc -> loss2/fc (in-place)
I1028 17:17:45.000948  9569 net.cpp:122] Setting up loss2/relu_fc
I1028 17:17:45.000957  9569 net.cpp:129] Top shape: 28 1024 (28672)
I1028 17:17:45.000962  9569 net.cpp:137] Memory required for data: 1409688116
I1028 17:17:45.000967  9569 layer_factory.hpp:77] Creating layer loss2/drop_fc
I1028 17:17:45.000977  9569 net.cpp:84] Creating Layer loss2/drop_fc
I1028 17:17:45.000988  9569 net.cpp:406] loss2/drop_fc <- loss2/fc
I1028 17:17:45.000998  9569 net.cpp:367] loss2/drop_fc -> loss2/fc (in-place)
I1028 17:17:45.001030  9569 net.cpp:122] Setting up loss2/drop_fc
I1028 17:17:45.001039  9569 net.cpp:129] Top shape: 28 1024 (28672)
I1028 17:17:45.001042  9569 net.cpp:137] Memory required for data: 1409802804
I1028 17:17:45.001046  9569 layer_factory.hpp:77] Creating layer my-loss2/classifier
I1028 17:17:45.001058  9569 net.cpp:84] Creating Layer my-loss2/classifier
I1028 17:17:45.001063  9569 net.cpp:406] my-loss2/classifier <- loss2/fc
I1028 17:17:45.001073  9569 net.cpp:380] my-loss2/classifier -> my-loss2/classifier
I1028 17:17:45.001243  9569 net.cpp:122] Setting up my-loss2/classifier
I1028 17:17:45.001251  9569 net.cpp:129] Top shape: 28 1 (28)
I1028 17:17:45.001255  9569 net.cpp:137] Memory required for data: 1409802916
I1028 17:17:45.001263  9569 layer_factory.hpp:77] Creating layer loss2/loss
I1028 17:17:45.001271  9569 net.cpp:84] Creating Layer loss2/loss
I1028 17:17:45.001276  9569 net.cpp:406] loss2/loss <- my-loss2/classifier
I1028 17:17:45.001282  9569 net.cpp:406] loss2/loss <- label_data_1_split_1
I1028 17:17:45.001291  9569 net.cpp:380] loss2/loss -> loss2/loss
I1028 17:17:45.001346  9569 net.cpp:122] Setting up loss2/loss
I1028 17:17:45.001354  9569 net.cpp:129] Top shape: (1)
I1028 17:17:45.001358  9569 net.cpp:132]     with loss weight 0.3
I1028 17:17:45.001377  9569 net.cpp:137] Memory required for data: 1409802920
I1028 17:17:45.001381  9569 layer_factory.hpp:77] Creating layer inception_4e/1x1
I1028 17:17:45.001395  9569 net.cpp:84] Creating Layer inception_4e/1x1
I1028 17:17:45.001405  9569 net.cpp:406] inception_4e/1x1 <- inception_4d/output_inception_4d/output_0_split_1
I1028 17:17:45.001413  9569 net.cpp:380] inception_4e/1x1 -> inception_4e/1x1
I1028 17:17:45.009459  9569 net.cpp:122] Setting up inception_4e/1x1
I1028 17:17:45.009507  9569 net.cpp:129] Top shape: 28 256 14 14 (1404928)
I1028 17:17:45.009512  9569 net.cpp:137] Memory required for data: 1415422632
I1028 17:17:45.009528  9569 layer_factory.hpp:77] Creating layer inception_4e/relu_1x1
I1028 17:17:45.009544  9569 net.cpp:84] Creating Layer inception_4e/relu_1x1
I1028 17:17:45.009626  9569 net.cpp:406] inception_4e/relu_1x1 <- inception_4e/1x1
I1028 17:17:45.009654  9569 net.cpp:367] inception_4e/relu_1x1 -> inception_4e/1x1 (in-place)
I1028 17:17:45.009919  9569 net.cpp:122] Setting up inception_4e/relu_1x1
I1028 17:17:45.009932  9569 net.cpp:129] Top shape: 28 256 14 14 (1404928)
I1028 17:17:45.009960  9569 net.cpp:137] Memory required for data: 1421042344
I1028 17:17:45.009965  9569 layer_factory.hpp:77] Creating layer inception_4e/3x3_reduce
I1028 17:17:45.009982  9569 net.cpp:84] Creating Layer inception_4e/3x3_reduce
I1028 17:17:45.009989  9569 net.cpp:406] inception_4e/3x3_reduce <- inception_4d/output_inception_4d/output_0_split_2
I1028 17:17:45.010001  9569 net.cpp:380] inception_4e/3x3_reduce -> inception_4e/3x3_reduce
I1028 17:17:45.012636  9569 net.cpp:122] Setting up inception_4e/3x3_reduce
I1028 17:17:45.012682  9569 net.cpp:129] Top shape: 28 160 14 14 (878080)
I1028 17:17:45.012688  9569 net.cpp:137] Memory required for data: 1424554664
I1028 17:17:45.012704  9569 layer_factory.hpp:77] Creating layer inception_4e/relu_3x3_reduce
I1028 17:17:45.012720  9569 net.cpp:84] Creating Layer inception_4e/relu_3x3_reduce
I1028 17:17:45.012730  9569 net.cpp:406] inception_4e/relu_3x3_reduce <- inception_4e/3x3_reduce
I1028 17:17:45.012745  9569 net.cpp:367] inception_4e/relu_3x3_reduce -> inception_4e/3x3_reduce (in-place)
I1028 17:17:45.013020  9569 net.cpp:122] Setting up inception_4e/relu_3x3_reduce
I1028 17:17:45.013031  9569 net.cpp:129] Top shape: 28 160 14 14 (878080)
I1028 17:17:45.013036  9569 net.cpp:137] Memory required for data: 1428066984
I1028 17:17:45.013041  9569 layer_factory.hpp:77] Creating layer inception_4e/3x3
I1028 17:17:45.013056  9569 net.cpp:84] Creating Layer inception_4e/3x3
I1028 17:17:45.013063  9569 net.cpp:406] inception_4e/3x3 <- inception_4e/3x3_reduce
I1028 17:17:45.013073  9569 net.cpp:380] inception_4e/3x3 -> inception_4e/3x3
I1028 17:17:45.021973  9569 net.cpp:122] Setting up inception_4e/3x3
I1028 17:17:45.022011  9569 net.cpp:129] Top shape: 28 320 14 14 (1756160)
I1028 17:17:45.022017  9569 net.cpp:137] Memory required for data: 1435091624
I1028 17:17:45.022034  9569 layer_factory.hpp:77] Creating layer inception_4e/relu_3x3
I1028 17:17:45.022050  9569 net.cpp:84] Creating Layer inception_4e/relu_3x3
I1028 17:17:45.022063  9569 net.cpp:406] inception_4e/relu_3x3 <- inception_4e/3x3
I1028 17:17:45.022081  9569 net.cpp:367] inception_4e/relu_3x3 -> inception_4e/3x3 (in-place)
I1028 17:17:45.022414  9569 net.cpp:122] Setting up inception_4e/relu_3x3
I1028 17:17:45.022426  9569 net.cpp:129] Top shape: 28 320 14 14 (1756160)
I1028 17:17:45.022433  9569 net.cpp:137] Memory required for data: 1442116264
I1028 17:17:45.022439  9569 layer_factory.hpp:77] Creating layer inception_4e/5x5_reduce
I1028 17:17:45.022459  9569 net.cpp:84] Creating Layer inception_4e/5x5_reduce
I1028 17:17:45.022467  9569 net.cpp:406] inception_4e/5x5_reduce <- inception_4d/output_inception_4d/output_0_split_3
I1028 17:17:45.022482  9569 net.cpp:380] inception_4e/5x5_reduce -> inception_4e/5x5_reduce
I1028 17:17:45.024590  9569 net.cpp:122] Setting up inception_4e/5x5_reduce
I1028 17:17:45.024610  9569 net.cpp:129] Top shape: 28 32 14 14 (175616)
I1028 17:17:45.024616  9569 net.cpp:137] Memory required for data: 1442818728
I1028 17:17:45.024628  9569 layer_factory.hpp:77] Creating layer inception_4e/relu_5x5_reduce
I1028 17:17:45.024638  9569 net.cpp:84] Creating Layer inception_4e/relu_5x5_reduce
I1028 17:17:45.024646  9569 net.cpp:406] inception_4e/relu_5x5_reduce <- inception_4e/5x5_reduce
I1028 17:17:45.024657  9569 net.cpp:367] inception_4e/relu_5x5_reduce -> inception_4e/5x5_reduce (in-place)
I1028 17:17:45.025823  9569 net.cpp:122] Setting up inception_4e/relu_5x5_reduce
I1028 17:17:45.025846  9569 net.cpp:129] Top shape: 28 32 14 14 (175616)
I1028 17:17:45.025854  9569 net.cpp:137] Memory required for data: 1443521192
I1028 17:17:45.025861  9569 layer_factory.hpp:77] Creating layer inception_4e/5x5
I1028 17:17:45.025940  9569 net.cpp:84] Creating Layer inception_4e/5x5
I1028 17:17:45.025951  9569 net.cpp:406] inception_4e/5x5 <- inception_4e/5x5_reduce
I1028 17:17:45.025964  9569 net.cpp:380] inception_4e/5x5 -> inception_4e/5x5
I1028 17:17:45.029536  9569 net.cpp:122] Setting up inception_4e/5x5
I1028 17:17:45.029580  9569 net.cpp:129] Top shape: 28 128 14 14 (702464)
I1028 17:17:45.029620  9569 net.cpp:137] Memory required for data: 1446331048
I1028 17:17:45.029634  9569 layer_factory.hpp:77] Creating layer inception_4e/relu_5x5
I1028 17:17:45.029649  9569 net.cpp:84] Creating Layer inception_4e/relu_5x5
I1028 17:17:45.029657  9569 net.cpp:406] inception_4e/relu_5x5 <- inception_4e/5x5
I1028 17:17:45.029669  9569 net.cpp:367] inception_4e/relu_5x5 -> inception_4e/5x5 (in-place)
I1028 17:17:45.030436  9569 net.cpp:122] Setting up inception_4e/relu_5x5
I1028 17:17:45.030449  9569 net.cpp:129] Top shape: 28 128 14 14 (702464)
I1028 17:17:45.030454  9569 net.cpp:137] Memory required for data: 1449140904
I1028 17:17:45.030458  9569 layer_factory.hpp:77] Creating layer inception_4e/pool
I1028 17:17:45.030467  9569 net.cpp:84] Creating Layer inception_4e/pool
I1028 17:17:45.030473  9569 net.cpp:406] inception_4e/pool <- inception_4d/output_inception_4d/output_0_split_4
I1028 17:17:45.030483  9569 net.cpp:380] inception_4e/pool -> inception_4e/pool
I1028 17:17:45.030560  9569 net.cpp:122] Setting up inception_4e/pool
I1028 17:17:45.030570  9569 net.cpp:129] Top shape: 28 528 14 14 (2897664)
I1028 17:17:45.030573  9569 net.cpp:137] Memory required for data: 1460731560
I1028 17:17:45.030577  9569 layer_factory.hpp:77] Creating layer inception_4e/pool_proj
I1028 17:17:45.030591  9569 net.cpp:84] Creating Layer inception_4e/pool_proj
I1028 17:17:45.030596  9569 net.cpp:406] inception_4e/pool_proj <- inception_4e/pool
I1028 17:17:45.030606  9569 net.cpp:380] inception_4e/pool_proj -> inception_4e/pool_proj
I1028 17:17:45.032675  9569 net.cpp:122] Setting up inception_4e/pool_proj
I1028 17:17:45.032697  9569 net.cpp:129] Top shape: 28 128 14 14 (702464)
I1028 17:17:45.032701  9569 net.cpp:137] Memory required for data: 1463541416
I1028 17:17:45.032712  9569 layer_factory.hpp:77] Creating layer inception_4e/relu_pool_proj
I1028 17:17:45.032721  9569 net.cpp:84] Creating Layer inception_4e/relu_pool_proj
I1028 17:17:45.032727  9569 net.cpp:406] inception_4e/relu_pool_proj <- inception_4e/pool_proj
I1028 17:17:45.032737  9569 net.cpp:367] inception_4e/relu_pool_proj -> inception_4e/pool_proj (in-place)
I1028 17:17:45.032954  9569 net.cpp:122] Setting up inception_4e/relu_pool_proj
I1028 17:17:45.032964  9569 net.cpp:129] Top shape: 28 128 14 14 (702464)
I1028 17:17:45.032968  9569 net.cpp:137] Memory required for data: 1466351272
I1028 17:17:45.032972  9569 layer_factory.hpp:77] Creating layer inception_4e/output
I1028 17:17:45.032980  9569 net.cpp:84] Creating Layer inception_4e/output
I1028 17:17:45.032985  9569 net.cpp:406] inception_4e/output <- inception_4e/1x1
I1028 17:17:45.032991  9569 net.cpp:406] inception_4e/output <- inception_4e/3x3
I1028 17:17:45.032996  9569 net.cpp:406] inception_4e/output <- inception_4e/5x5
I1028 17:17:45.033001  9569 net.cpp:406] inception_4e/output <- inception_4e/pool_proj
I1028 17:17:45.033010  9569 net.cpp:380] inception_4e/output -> inception_4e/output
I1028 17:17:45.033047  9569 net.cpp:122] Setting up inception_4e/output
I1028 17:17:45.033053  9569 net.cpp:129] Top shape: 28 832 14 14 (4566016)
I1028 17:17:45.033057  9569 net.cpp:137] Memory required for data: 1484615336
I1028 17:17:45.033061  9569 layer_factory.hpp:77] Creating layer pool4/3x3_s2
I1028 17:17:45.033071  9569 net.cpp:84] Creating Layer pool4/3x3_s2
I1028 17:17:45.033074  9569 net.cpp:406] pool4/3x3_s2 <- inception_4e/output
I1028 17:17:45.033082  9569 net.cpp:380] pool4/3x3_s2 -> pool4/3x3_s2
I1028 17:17:45.033138  9569 net.cpp:122] Setting up pool4/3x3_s2
I1028 17:17:45.033145  9569 net.cpp:129] Top shape: 28 832 7 7 (1141504)
I1028 17:17:45.033149  9569 net.cpp:137] Memory required for data: 1489181352
I1028 17:17:45.033152  9569 layer_factory.hpp:77] Creating layer pool4/3x3_s2_pool4/3x3_s2_0_split
I1028 17:17:45.033160  9569 net.cpp:84] Creating Layer pool4/3x3_s2_pool4/3x3_s2_0_split
I1028 17:17:45.033164  9569 net.cpp:406] pool4/3x3_s2_pool4/3x3_s2_0_split <- pool4/3x3_s2
I1028 17:17:45.033170  9569 net.cpp:380] pool4/3x3_s2_pool4/3x3_s2_0_split -> pool4/3x3_s2_pool4/3x3_s2_0_split_0
I1028 17:17:45.033205  9569 net.cpp:380] pool4/3x3_s2_pool4/3x3_s2_0_split -> pool4/3x3_s2_pool4/3x3_s2_0_split_1
I1028 17:17:45.033215  9569 net.cpp:380] pool4/3x3_s2_pool4/3x3_s2_0_split -> pool4/3x3_s2_pool4/3x3_s2_0_split_2
I1028 17:17:45.033223  9569 net.cpp:380] pool4/3x3_s2_pool4/3x3_s2_0_split -> pool4/3x3_s2_pool4/3x3_s2_0_split_3
I1028 17:17:45.033321  9569 net.cpp:122] Setting up pool4/3x3_s2_pool4/3x3_s2_0_split
I1028 17:17:45.033331  9569 net.cpp:129] Top shape: 28 832 7 7 (1141504)
I1028 17:17:45.033337  9569 net.cpp:129] Top shape: 28 832 7 7 (1141504)
I1028 17:17:45.033344  9569 net.cpp:129] Top shape: 28 832 7 7 (1141504)
I1028 17:17:45.033350  9569 net.cpp:129] Top shape: 28 832 7 7 (1141504)
I1028 17:17:45.033354  9569 net.cpp:137] Memory required for data: 1507445416
I1028 17:17:45.033360  9569 layer_factory.hpp:77] Creating layer inception_5a/1x1
I1028 17:17:45.033375  9569 net.cpp:84] Creating Layer inception_5a/1x1
I1028 17:17:45.033380  9569 net.cpp:406] inception_5a/1x1 <- pool4/3x3_s2_pool4/3x3_s2_0_split_0
I1028 17:17:45.033387  9569 net.cpp:380] inception_5a/1x1 -> inception_5a/1x1
I1028 17:17:45.036880  9569 net.cpp:122] Setting up inception_5a/1x1
I1028 17:17:45.036916  9569 net.cpp:129] Top shape: 28 256 7 7 (351232)
I1028 17:17:45.036921  9569 net.cpp:137] Memory required for data: 1508850344
I1028 17:17:45.036936  9569 layer_factory.hpp:77] Creating layer inception_5a/relu_1x1
I1028 17:17:45.036952  9569 net.cpp:84] Creating Layer inception_5a/relu_1x1
I1028 17:17:45.036960  9569 net.cpp:406] inception_5a/relu_1x1 <- inception_5a/1x1
I1028 17:17:45.036972  9569 net.cpp:367] inception_5a/relu_1x1 -> inception_5a/1x1 (in-place)
I1028 17:17:45.037205  9569 net.cpp:122] Setting up inception_5a/relu_1x1
I1028 17:17:45.037214  9569 net.cpp:129] Top shape: 28 256 7 7 (351232)
I1028 17:17:45.037220  9569 net.cpp:137] Memory required for data: 1510255272
I1028 17:17:45.037225  9569 layer_factory.hpp:77] Creating layer inception_5a/3x3_reduce
I1028 17:17:45.037240  9569 net.cpp:84] Creating Layer inception_5a/3x3_reduce
I1028 17:17:45.037247  9569 net.cpp:406] inception_5a/3x3_reduce <- pool4/3x3_s2_pool4/3x3_s2_0_split_1
I1028 17:17:45.037259  9569 net.cpp:380] inception_5a/3x3_reduce -> inception_5a/3x3_reduce
I1028 17:17:45.039963  9569 net.cpp:122] Setting up inception_5a/3x3_reduce
I1028 17:17:45.039993  9569 net.cpp:129] Top shape: 28 160 7 7 (219520)
I1028 17:17:45.039999  9569 net.cpp:137] Memory required for data: 1511133352
I1028 17:17:45.040012  9569 layer_factory.hpp:77] Creating layer inception_5a/relu_3x3_reduce
I1028 17:17:45.040027  9569 net.cpp:84] Creating Layer inception_5a/relu_3x3_reduce
I1028 17:17:45.040060  9569 net.cpp:406] inception_5a/relu_3x3_reduce <- inception_5a/3x3_reduce
I1028 17:17:45.040071  9569 net.cpp:367] inception_5a/relu_3x3_reduce -> inception_5a/3x3_reduce (in-place)
I1028 17:17:45.040299  9569 net.cpp:122] Setting up inception_5a/relu_3x3_reduce
I1028 17:17:45.040308  9569 net.cpp:129] Top shape: 28 160 7 7 (219520)
I1028 17:17:45.040313  9569 net.cpp:137] Memory required for data: 1512011432
I1028 17:17:45.040318  9569 layer_factory.hpp:77] Creating layer inception_5a/3x3
I1028 17:17:45.040333  9569 net.cpp:84] Creating Layer inception_5a/3x3
I1028 17:17:45.040338  9569 net.cpp:406] inception_5a/3x3 <- inception_5a/3x3_reduce
I1028 17:17:45.040349  9569 net.cpp:380] inception_5a/3x3 -> inception_5a/3x3
I1028 17:17:45.047575  9569 net.cpp:122] Setting up inception_5a/3x3
I1028 17:17:45.047616  9569 net.cpp:129] Top shape: 28 320 7 7 (439040)
I1028 17:17:45.047621  9569 net.cpp:137] Memory required for data: 1513767592
I1028 17:17:45.047637  9569 layer_factory.hpp:77] Creating layer inception_5a/relu_3x3
I1028 17:17:45.047652  9569 net.cpp:84] Creating Layer inception_5a/relu_3x3
I1028 17:17:45.047672  9569 net.cpp:406] inception_5a/relu_3x3 <- inception_5a/3x3
I1028 17:17:45.047688  9569 net.cpp:367] inception_5a/relu_3x3 -> inception_5a/3x3 (in-place)
I1028 17:17:45.047941  9569 net.cpp:122] Setting up inception_5a/relu_3x3
I1028 17:17:45.047974  9569 net.cpp:129] Top shape: 28 320 7 7 (439040)
I1028 17:17:45.047979  9569 net.cpp:137] Memory required for data: 1515523752
I1028 17:17:45.047983  9569 layer_factory.hpp:77] Creating layer inception_5a/5x5_reduce
I1028 17:17:45.048002  9569 net.cpp:84] Creating Layer inception_5a/5x5_reduce
I1028 17:17:45.048007  9569 net.cpp:406] inception_5a/5x5_reduce <- pool4/3x3_s2_pool4/3x3_s2_0_split_2
I1028 17:17:45.048017  9569 net.cpp:380] inception_5a/5x5_reduce -> inception_5a/5x5_reduce
I1028 17:17:45.051765  9569 net.cpp:122] Setting up inception_5a/5x5_reduce
I1028 17:17:45.051802  9569 net.cpp:129] Top shape: 28 32 7 7 (43904)
I1028 17:17:45.051808  9569 net.cpp:137] Memory required for data: 1515699368
I1028 17:17:45.051825  9569 layer_factory.hpp:77] Creating layer inception_5a/relu_5x5_reduce
I1028 17:17:45.051839  9569 net.cpp:84] Creating Layer inception_5a/relu_5x5_reduce
I1028 17:17:45.051849  9569 net.cpp:406] inception_5a/relu_5x5_reduce <- inception_5a/5x5_reduce
I1028 17:17:45.051864  9569 net.cpp:367] inception_5a/relu_5x5_reduce -> inception_5a/5x5_reduce (in-place)
I1028 17:17:45.052593  9569 net.cpp:122] Setting up inception_5a/relu_5x5_reduce
I1028 17:17:45.052608  9569 net.cpp:129] Top shape: 28 32 7 7 (43904)
I1028 17:17:45.052613  9569 net.cpp:137] Memory required for data: 1515874984
I1028 17:17:45.052619  9569 layer_factory.hpp:77] Creating layer inception_5a/5x5
I1028 17:17:45.052636  9569 net.cpp:84] Creating Layer inception_5a/5x5
I1028 17:17:45.052644  9569 net.cpp:406] inception_5a/5x5 <- inception_5a/5x5_reduce
I1028 17:17:45.052659  9569 net.cpp:380] inception_5a/5x5 -> inception_5a/5x5
I1028 17:17:45.056241  9569 net.cpp:122] Setting up inception_5a/5x5
I1028 17:17:45.056280  9569 net.cpp:129] Top shape: 28 128 7 7 (175616)
I1028 17:17:45.056288  9569 net.cpp:137] Memory required for data: 1516577448
I1028 17:17:45.056303  9569 layer_factory.hpp:77] Creating layer inception_5a/relu_5x5
I1028 17:17:45.056318  9569 net.cpp:84] Creating Layer inception_5a/relu_5x5
I1028 17:17:45.056327  9569 net.cpp:406] inception_5a/relu_5x5 <- inception_5a/5x5
I1028 17:17:45.056344  9569 net.cpp:367] inception_5a/relu_5x5 -> inception_5a/5x5 (in-place)
I1028 17:17:45.057117  9569 net.cpp:122] Setting up inception_5a/relu_5x5
I1028 17:17:45.057132  9569 net.cpp:129] Top shape: 28 128 7 7 (175616)
I1028 17:17:45.057137  9569 net.cpp:137] Memory required for data: 1517279912
I1028 17:17:45.057142  9569 layer_factory.hpp:77] Creating layer inception_5a/pool
I1028 17:17:45.057152  9569 net.cpp:84] Creating Layer inception_5a/pool
I1028 17:17:45.057160  9569 net.cpp:406] inception_5a/pool <- pool4/3x3_s2_pool4/3x3_s2_0_split_3
I1028 17:17:45.057173  9569 net.cpp:380] inception_5a/pool -> inception_5a/pool
I1028 17:17:45.057248  9569 net.cpp:122] Setting up inception_5a/pool
I1028 17:17:45.057257  9569 net.cpp:129] Top shape: 28 832 7 7 (1141504)
I1028 17:17:45.057261  9569 net.cpp:137] Memory required for data: 1521845928
I1028 17:17:45.057267  9569 layer_factory.hpp:77] Creating layer inception_5a/pool_proj
I1028 17:17:45.057284  9569 net.cpp:84] Creating Layer inception_5a/pool_proj
I1028 17:17:45.057291  9569 net.cpp:406] inception_5a/pool_proj <- inception_5a/pool
I1028 17:17:45.057302  9569 net.cpp:380] inception_5a/pool_proj -> inception_5a/pool_proj
I1028 17:17:45.060017  9569 net.cpp:122] Setting up inception_5a/pool_proj
I1028 17:17:45.060053  9569 net.cpp:129] Top shape: 28 128 7 7 (175616)
I1028 17:17:45.060060  9569 net.cpp:137] Memory required for data: 1522548392
I1028 17:17:45.060075  9569 layer_factory.hpp:77] Creating layer inception_5a/relu_pool_proj
I1028 17:17:45.060088  9569 net.cpp:84] Creating Layer inception_5a/relu_pool_proj
I1028 17:17:45.060098  9569 net.cpp:406] inception_5a/relu_pool_proj <- inception_5a/pool_proj
I1028 17:17:45.060111  9569 net.cpp:367] inception_5a/relu_pool_proj -> inception_5a/pool_proj (in-place)
I1028 17:17:45.060348  9569 net.cpp:122] Setting up inception_5a/relu_pool_proj
I1028 17:17:45.060358  9569 net.cpp:129] Top shape: 28 128 7 7 (175616)
I1028 17:17:45.060381  9569 net.cpp:137] Memory required for data: 1523250856
I1028 17:17:45.060386  9569 layer_factory.hpp:77] Creating layer inception_5a/output
I1028 17:17:45.060397  9569 net.cpp:84] Creating Layer inception_5a/output
I1028 17:17:45.060403  9569 net.cpp:406] inception_5a/output <- inception_5a/1x1
I1028 17:17:45.060410  9569 net.cpp:406] inception_5a/output <- inception_5a/3x3
I1028 17:17:45.060416  9569 net.cpp:406] inception_5a/output <- inception_5a/5x5
I1028 17:17:45.060422  9569 net.cpp:406] inception_5a/output <- inception_5a/pool_proj
I1028 17:17:45.060433  9569 net.cpp:380] inception_5a/output -> inception_5a/output
I1028 17:17:45.060480  9569 net.cpp:122] Setting up inception_5a/output
I1028 17:17:45.060488  9569 net.cpp:129] Top shape: 28 832 7 7 (1141504)
I1028 17:17:45.060492  9569 net.cpp:137] Memory required for data: 1527816872
I1028 17:17:45.060497  9569 layer_factory.hpp:77] Creating layer inception_5a/output_inception_5a/output_0_split
I1028 17:17:45.060508  9569 net.cpp:84] Creating Layer inception_5a/output_inception_5a/output_0_split
I1028 17:17:45.060513  9569 net.cpp:406] inception_5a/output_inception_5a/output_0_split <- inception_5a/output
I1028 17:17:45.060521  9569 net.cpp:380] inception_5a/output_inception_5a/output_0_split -> inception_5a/output_inception_5a/output_0_split_0
I1028 17:17:45.060531  9569 net.cpp:380] inception_5a/output_inception_5a/output_0_split -> inception_5a/output_inception_5a/output_0_split_1
I1028 17:17:45.060541  9569 net.cpp:380] inception_5a/output_inception_5a/output_0_split -> inception_5a/output_inception_5a/output_0_split_2
I1028 17:17:45.060552  9569 net.cpp:380] inception_5a/output_inception_5a/output_0_split -> inception_5a/output_inception_5a/output_0_split_3
I1028 17:17:45.060657  9569 net.cpp:122] Setting up inception_5a/output_inception_5a/output_0_split
I1028 17:17:45.060667  9569 net.cpp:129] Top shape: 28 832 7 7 (1141504)
I1028 17:17:45.060672  9569 net.cpp:129] Top shape: 28 832 7 7 (1141504)
I1028 17:17:45.060680  9569 net.cpp:129] Top shape: 28 832 7 7 (1141504)
I1028 17:17:45.060688  9569 net.cpp:129] Top shape: 28 832 7 7 (1141504)
I1028 17:17:45.060693  9569 net.cpp:137] Memory required for data: 1546080936
I1028 17:17:45.060698  9569 layer_factory.hpp:77] Creating layer inception_5b/1x1
I1028 17:17:45.060757  9569 net.cpp:84] Creating Layer inception_5b/1x1
I1028 17:17:45.060765  9569 net.cpp:406] inception_5b/1x1 <- inception_5a/output_inception_5a/output_0_split_0
I1028 17:17:45.060775  9569 net.cpp:380] inception_5b/1x1 -> inception_5b/1x1
I1028 17:17:45.066782  9569 net.cpp:122] Setting up inception_5b/1x1
I1028 17:17:45.066819  9569 net.cpp:129] Top shape: 28 384 7 7 (526848)
I1028 17:17:45.066824  9569 net.cpp:137] Memory required for data: 1548188328
I1028 17:17:45.066840  9569 layer_factory.hpp:77] Creating layer inception_5b/relu_1x1
I1028 17:17:45.066854  9569 net.cpp:84] Creating Layer inception_5b/relu_1x1
I1028 17:17:45.066864  9569 net.cpp:406] inception_5b/relu_1x1 <- inception_5b/1x1
I1028 17:17:45.066879  9569 net.cpp:367] inception_5b/relu_1x1 -> inception_5b/1x1 (in-place)
I1028 17:17:45.067117  9569 net.cpp:122] Setting up inception_5b/relu_1x1
I1028 17:17:45.067126  9569 net.cpp:129] Top shape: 28 384 7 7 (526848)
I1028 17:17:45.067131  9569 net.cpp:137] Memory required for data: 1550295720
I1028 17:17:45.067137  9569 layer_factory.hpp:77] Creating layer inception_5b/3x3_reduce
I1028 17:17:45.067152  9569 net.cpp:84] Creating Layer inception_5b/3x3_reduce
I1028 17:17:45.067159  9569 net.cpp:406] inception_5b/3x3_reduce <- inception_5a/output_inception_5a/output_0_split_1
I1028 17:17:45.067170  9569 net.cpp:380] inception_5b/3x3_reduce -> inception_5b/3x3_reduce
I1028 17:17:45.070169  9569 net.cpp:122] Setting up inception_5b/3x3_reduce
I1028 17:17:45.070204  9569 net.cpp:129] Top shape: 28 192 7 7 (263424)
I1028 17:17:45.070209  9569 net.cpp:137] Memory required for data: 1551349416
I1028 17:17:45.070225  9569 layer_factory.hpp:77] Creating layer inception_5b/relu_3x3_reduce
I1028 17:17:45.070238  9569 net.cpp:84] Creating Layer inception_5b/relu_3x3_reduce
I1028 17:17:45.070266  9569 net.cpp:406] inception_5b/relu_3x3_reduce <- inception_5b/3x3_reduce
I1028 17:17:45.070281  9569 net.cpp:367] inception_5b/relu_3x3_reduce -> inception_5b/3x3_reduce (in-place)
I1028 17:17:45.070691  9569 net.cpp:122] Setting up inception_5b/relu_3x3_reduce
I1028 17:17:45.070701  9569 net.cpp:129] Top shape: 28 192 7 7 (263424)
I1028 17:17:45.070706  9569 net.cpp:137] Memory required for data: 1552403112
I1028 17:17:45.070710  9569 layer_factory.hpp:77] Creating layer inception_5b/3x3
I1028 17:17:45.070724  9569 net.cpp:84] Creating Layer inception_5b/3x3
I1028 17:17:45.070731  9569 net.cpp:406] inception_5b/3x3 <- inception_5b/3x3_reduce
I1028 17:17:45.070740  9569 net.cpp:380] inception_5b/3x3 -> inception_5b/3x3
I1028 17:17:45.079798  9569 net.cpp:122] Setting up inception_5b/3x3
I1028 17:17:45.079840  9569 net.cpp:129] Top shape: 28 384 7 7 (526848)
I1028 17:17:45.079846  9569 net.cpp:137] Memory required for data: 1554510504
I1028 17:17:45.079862  9569 layer_factory.hpp:77] Creating layer inception_5b/relu_3x3
I1028 17:17:45.079877  9569 net.cpp:84] Creating Layer inception_5b/relu_3x3
I1028 17:17:45.079911  9569 net.cpp:406] inception_5b/relu_3x3 <- inception_5b/3x3
I1028 17:17:45.079926  9569 net.cpp:367] inception_5b/relu_3x3 -> inception_5b/3x3 (in-place)
I1028 17:17:45.080196  9569 net.cpp:122] Setting up inception_5b/relu_3x3
I1028 17:17:45.080206  9569 net.cpp:129] Top shape: 28 384 7 7 (526848)
I1028 17:17:45.080211  9569 net.cpp:137] Memory required for data: 1556617896
I1028 17:17:45.080216  9569 layer_factory.hpp:77] Creating layer inception_5b/5x5_reduce
I1028 17:17:45.080235  9569 net.cpp:84] Creating Layer inception_5b/5x5_reduce
I1028 17:17:45.080241  9569 net.cpp:406] inception_5b/5x5_reduce <- inception_5a/output_inception_5a/output_0_split_2
I1028 17:17:45.080250  9569 net.cpp:380] inception_5b/5x5_reduce -> inception_5b/5x5_reduce
I1028 17:17:45.082227  9569 net.cpp:122] Setting up inception_5b/5x5_reduce
I1028 17:17:45.082252  9569 net.cpp:129] Top shape: 28 48 7 7 (65856)
I1028 17:17:45.082257  9569 net.cpp:137] Memory required for data: 1556881320
I1028 17:17:45.082269  9569 layer_factory.hpp:77] Creating layer inception_5b/relu_5x5_reduce
I1028 17:17:45.082284  9569 net.cpp:84] Creating Layer inception_5b/relu_5x5_reduce
I1028 17:17:45.082293  9569 net.cpp:406] inception_5b/relu_5x5_reduce <- inception_5b/5x5_reduce
I1028 17:17:45.082303  9569 net.cpp:367] inception_5b/relu_5x5_reduce -> inception_5b/5x5_reduce (in-place)
I1028 17:17:45.082965  9569 net.cpp:122] Setting up inception_5b/relu_5x5_reduce
I1028 17:17:45.082978  9569 net.cpp:129] Top shape: 28 48 7 7 (65856)
I1028 17:17:45.082984  9569 net.cpp:137] Memory required for data: 1557144744
I1028 17:17:45.082989  9569 layer_factory.hpp:77] Creating layer inception_5b/5x5
I1028 17:17:45.083004  9569 net.cpp:84] Creating Layer inception_5b/5x5
I1028 17:17:45.083011  9569 net.cpp:406] inception_5b/5x5 <- inception_5b/5x5_reduce
I1028 17:17:45.083021  9569 net.cpp:380] inception_5b/5x5 -> inception_5b/5x5
I1028 17:17:45.085371  9569 net.cpp:122] Setting up inception_5b/5x5
I1028 17:17:45.085397  9569 net.cpp:129] Top shape: 28 128 7 7 (175616)
I1028 17:17:45.085402  9569 net.cpp:137] Memory required for data: 1557847208
I1028 17:17:45.085414  9569 layer_factory.hpp:77] Creating layer inception_5b/relu_5x5
I1028 17:17:45.085427  9569 net.cpp:84] Creating Layer inception_5b/relu_5x5
I1028 17:17:45.085460  9569 net.cpp:406] inception_5b/relu_5x5 <- inception_5b/5x5
I1028 17:17:45.085469  9569 net.cpp:367] inception_5b/relu_5x5 -> inception_5b/5x5 (in-place)
I1028 17:17:45.086292  9569 net.cpp:122] Setting up inception_5b/relu_5x5
I1028 17:17:45.086308  9569 net.cpp:129] Top shape: 28 128 7 7 (175616)
I1028 17:17:45.086313  9569 net.cpp:137] Memory required for data: 1558549672
I1028 17:17:45.086318  9569 layer_factory.hpp:77] Creating layer inception_5b/pool
I1028 17:17:45.086330  9569 net.cpp:84] Creating Layer inception_5b/pool
I1028 17:17:45.086338  9569 net.cpp:406] inception_5b/pool <- inception_5a/output_inception_5a/output_0_split_3
I1028 17:17:45.086365  9569 net.cpp:380] inception_5b/pool -> inception_5b/pool
I1028 17:17:45.086450  9569 net.cpp:122] Setting up inception_5b/pool
I1028 17:17:45.086459  9569 net.cpp:129] Top shape: 28 832 7 7 (1141504)
I1028 17:17:45.086464  9569 net.cpp:137] Memory required for data: 1563115688
I1028 17:17:45.086468  9569 layer_factory.hpp:77] Creating layer inception_5b/pool_proj
I1028 17:17:45.086483  9569 net.cpp:84] Creating Layer inception_5b/pool_proj
I1028 17:17:45.086489  9569 net.cpp:406] inception_5b/pool_proj <- inception_5b/pool
I1028 17:17:45.086500  9569 net.cpp:380] inception_5b/pool_proj -> inception_5b/pool_proj
I1028 17:17:45.089085  9569 net.cpp:122] Setting up inception_5b/pool_proj
I1028 17:17:45.089118  9569 net.cpp:129] Top shape: 28 128 7 7 (175616)
I1028 17:17:45.089123  9569 net.cpp:137] Memory required for data: 1563818152
I1028 17:17:45.089138  9569 layer_factory.hpp:77] Creating layer inception_5b/relu_pool_proj
I1028 17:17:45.089151  9569 net.cpp:84] Creating Layer inception_5b/relu_pool_proj
I1028 17:17:45.089159  9569 net.cpp:406] inception_5b/relu_pool_proj <- inception_5b/pool_proj
I1028 17:17:45.089174  9569 net.cpp:367] inception_5b/relu_pool_proj -> inception_5b/pool_proj (in-place)
I1028 17:17:45.089407  9569 net.cpp:122] Setting up inception_5b/relu_pool_proj
I1028 17:17:45.089417  9569 net.cpp:129] Top shape: 28 128 7 7 (175616)
I1028 17:17:45.089421  9569 net.cpp:137] Memory required for data: 1564520616
I1028 17:17:45.089428  9569 layer_factory.hpp:77] Creating layer inception_5b/output
I1028 17:17:45.089437  9569 net.cpp:84] Creating Layer inception_5b/output
I1028 17:17:45.089444  9569 net.cpp:406] inception_5b/output <- inception_5b/1x1
I1028 17:17:45.089452  9569 net.cpp:406] inception_5b/output <- inception_5b/3x3
I1028 17:17:45.089459  9569 net.cpp:406] inception_5b/output <- inception_5b/5x5
I1028 17:17:45.089468  9569 net.cpp:406] inception_5b/output <- inception_5b/pool_proj
I1028 17:17:45.089476  9569 net.cpp:380] inception_5b/output -> inception_5b/output
I1028 17:17:45.089524  9569 net.cpp:122] Setting up inception_5b/output
I1028 17:17:45.089532  9569 net.cpp:129] Top shape: 28 1024 7 7 (1404928)
I1028 17:17:45.089536  9569 net.cpp:137] Memory required for data: 1570140328
I1028 17:17:45.089541  9569 layer_factory.hpp:77] Creating layer pool5/7x7_s1
I1028 17:17:45.089550  9569 net.cpp:84] Creating Layer pool5/7x7_s1
I1028 17:17:45.089556  9569 net.cpp:406] pool5/7x7_s1 <- inception_5b/output
I1028 17:17:45.089565  9569 net.cpp:380] pool5/7x7_s1 -> pool5/7x7_s1
I1028 17:17:45.089818  9569 net.cpp:122] Setting up pool5/7x7_s1
I1028 17:17:45.089828  9569 net.cpp:129] Top shape: 28 1024 1 1 (28672)
I1028 17:17:45.089833  9569 net.cpp:137] Memory required for data: 1570255016
I1028 17:17:45.089838  9569 layer_factory.hpp:77] Creating layer pool5/drop_7x7_s1
I1028 17:17:45.089848  9569 net.cpp:84] Creating Layer pool5/drop_7x7_s1
I1028 17:17:45.089853  9569 net.cpp:406] pool5/drop_7x7_s1 <- pool5/7x7_s1
I1028 17:17:45.089859  9569 net.cpp:367] pool5/drop_7x7_s1 -> pool5/7x7_s1 (in-place)
I1028 17:17:45.089895  9569 net.cpp:122] Setting up pool5/drop_7x7_s1
I1028 17:17:45.089902  9569 net.cpp:129] Top shape: 28 1024 1 1 (28672)
I1028 17:17:45.089906  9569 net.cpp:137] Memory required for data: 1570369704
I1028 17:17:45.089910  9569 layer_factory.hpp:77] Creating layer my-loss3/classifier
I1028 17:17:45.089922  9569 net.cpp:84] Creating Layer my-loss3/classifier
I1028 17:17:45.089928  9569 net.cpp:406] my-loss3/classifier <- pool5/7x7_s1
I1028 17:17:45.089936  9569 net.cpp:380] my-loss3/classifier -> my-loss3/classifier
I1028 17:17:45.090152  9569 net.cpp:122] Setting up my-loss3/classifier
I1028 17:17:45.090160  9569 net.cpp:129] Top shape: 28 1 (28)
I1028 17:17:45.090164  9569 net.cpp:137] Memory required for data: 1570369816
I1028 17:17:45.090173  9569 layer_factory.hpp:77] Creating layer loss3/loss
I1028 17:17:45.090183  9569 net.cpp:84] Creating Layer loss3/loss
I1028 17:17:45.090190  9569 net.cpp:406] loss3/loss <- my-loss3/classifier
I1028 17:17:45.090211  9569 net.cpp:406] loss3/loss <- label_data_1_split_2
I1028 17:17:45.090219  9569 net.cpp:380] loss3/loss -> loss3/loss
…
