…
I1026 17:34:28.403628 12447 solver.cpp:87] Creating training net from net file: ./train_val.prototxt
I1026 17:34:28.404019 12447 net.cpp:294] The NetState phase (0) differed from the phase (1) specified by a rule in layer data
I1026 17:34:28.404219 12447 net.cpp:51] Initializing net from parameters: 
name: "AlexNet"
state {
  phase: TRAIN
  level: 0
  stage: ""
}
layer {
  name: "data"
  type: "HDF5Data"
  top: "data"
  top: "label"
  include {
    phase: TRAIN
  }
  hdf5_data_param {
    source: "./train.txt"
    batch_size: 256
    shuffle: true
  }
}
layer {
  name: "conv1"
  type: "Convolution"
  bottom: "data"
  top: "conv1"
  param {
    lr_mult: 1
    decay_mult: 1
  }
  param {
    lr_mult: 2
    decay_mult: 0
  }
  convolution_param {
    num_output: 96
    kernel_size: 11
    stride: 4
    weight_filler {
      type: "gaussian"
      std: 0.01
    }
    bias_filler {
      type: "constant"
      value: 0
    }
  }
}
layer {
  name: "relu1"
  type: "ReLU"
  bottom: "conv1"
  top: "conv1"
}
layer {
  name: "norm1"
  type: "LRN"
  bottom: "conv1"
  top: "norm1"
  lrn_param {
    local_size: 5
    alpha: 0.0001
    beta: 0.75
  }
}
layer {
  name: "pool1"
  type: "Pooling"
  bottom: "norm1"
  top: "pool1"
  pooling_param {
    pool: MAX
    kernel_size: 3
    stride: 2
  }
}
layer {
  name: "conv2"
  type: "Convolution"
  bottom: "pool1"
  top: "conv2"
  param {
    lr_mult: 1
    decay_mult: 1
  }
  param {
    lr_mult: 2
    decay_mult: 0
  }
  convolution_param {
    num_output: 256
    pad: 2
    kernel_size: 5
    group: 2
    weight_filler {
      type: "gaussian"
      std: 0.01
    }
    bias_filler {
      type: "constant"
      value: 0.1
    }
  }
}
layer {
  name: "relu2"
  type: "ReLU"
  bottom: "conv2"
  top: "conv2"
}
layer {
  name: "norm2"
  type: "LRN"
  bottom: "conv2"
  top: "norm2"
  lrn_param {
    local_size: 5
    alpha: 0.0001
    beta: 0.75
  }
}
layer {
  name: "pool2"
  type: "Pooling"
  bottom: "norm2"
  top: "pool2"
  pooling_param {
    pool: MAX
    kernel_size: 3
    stride: 2
  }
}
layer {
  name: "conv3"
  type: "Convolution"
  bottom: "pool2"
  top: "conv3"
  param {
    lr_mult: 1
    decay_mult: 1
  }
  param {
    lr_mult: 2
    decay_mult: 0
  }
  convolution_param {
    num_output: 384
    pad: 1
    kernel_size: 3
    weight_filler {
      type: "gaussian"
      std: 0.01
    }
    bias_filler {
      type: "constant"
      value: 0
    }
  }
}
layer {
  name: "relu3"
  type: "ReLU"
  bottom: "conv3"
  top: "conv3"
}
layer {
  name: "conv4"
  type: "Convolution"
  bottom: "conv3"
  top: "conv4"
  param {
    lr_mult: 1
    decay_mult: 1
  }
  param {
    lr_mult: 2
    decay_mult: 0
  }
  convolution_param {
    num_output: 384
    pad: 1
    kernel_size: 3
    group: 2
    weight_filler {
      type: "gaussian"
      std: 0.01
    }
    bias_filler {
      type: "constant"
      value: 0.1
    }
  }
}
layer {
  name: "relu4"
  type: "ReLU"
  bottom: "conv4"
  top: "conv4"
}
layer {
  name: "conv5"
  type: "Convolution"
  bottom: "conv4"
  top: "conv5"
  param {
    lr_mult: 1
    decay_mult: 1
  }
  param {
    lr_mult: 2
    decay_mult: 0
  }
  convolution_param {
    num_output: 256
    pad: 1
    kernel_size: 3
    group: 2
    weight_filler {
      type: "gaussian"
      std: 0.01
    }
    bias_filler {
      type: "constant"
      value: 0.1
    }
  }
}
layer {
  name: "relu5"
  type: "ReLU"
  bottom: "conv5"
  top: "conv5"
}
layer {
  name: "pool5"
  type: "Pooling"
  bottom: "conv5"
  top: "pool5"
  pooling_param {
    pool: MAX
    kernel_size: 3
    stride: 2
  }
}
layer {
  name: "fc6"
  type: "InnerProduct"
  bottom: "pool5"
  top: "fc6"
  param {
    lr_mult: 1
    decay_mult: 1
  }
  param {
    lr_mult: 2
    decay_mult: 0
  }
  inner_product_param {
    num_output: 4096
    weight_filler {
      type: "gaussian"
      std: 0.005
    }
    bias_filler {
      type: "constant"
      value: 0.1
    }
  }
}
layer {
  name: "relu6"
  type: "ReLU"
  bottom: "fc6"
  top: "fc6"
}
layer {
  name: "drop6"
  type: "Dropout"
  bottom: "fc6"
  top: "fc6"
  dropout_param {
    dropout_ratio: 0.5
  }
}
layer {
  name: "fc7"
  type: "InnerProduct"
  bottom: "fc6"
  top: "fc7"
  param {
    lr_mult: 1
    decay_mult: 1
  }
  param {
    lr_mult: 2
    decay_mult: 0
  }
  inner_product_param {
    num_output: 4096
    weight_filler {
      type: "gaussian"
      std: 0.005
    }
    bias_filler {
      type: "constant"
      value: 0.1
    }
  }
}
layer {
  name: "relu7"
  type: "ReLU"
  bottom: "fc7"
  top: "fc7"
}
layer {
  name: "drop7"
  type: "Dropout"
  bottom: "fc7"
  top: "fc7"
  dropout_param {
    dropout_ratio: 0.5
  }
}
layer {
  name: "my-fc8"
  type: "InnerProduct"
  bottom: "fc7"
  top: "my-fc8"
  param {
    lr_mult: 1
    decay_mult: 1
  }
  param {
    lr_mult: 2
    decay_mult: 0
  }
  inner_product_param {
    num_output: 1
    weight_filler {
      type: "gaussian"
      std: 0.01
    }
    bias_filler {
      type: "constant"
      value: 0
    }
  }
}
layer {
  name: "loss"
  type: "EuclideanLoss"
  bottom: "my-fc8"
  bottom: "label"
  top: "loss"
}
I1026 17:34:28.404347 12447 layer_factory.hpp:77] Creating layer data
I1026 17:34:28.404361 12447 net.cpp:84] Creating Layer data
I1026 17:34:28.404368 12447 net.cpp:380] data -> data
I1026 17:34:28.404392 12447 net.cpp:380] data -> label
I1026 17:34:28.404403 12447 hdf5_data_layer.cpp:80] Loading list of HDF5 filenames from: ./train.txt
I1026 17:34:28.404709 12447 hdf5_data_layer.cpp:94] Number of HDF5 files: 1
I1026 17:34:28.406365 12447 hdf5.cpp:32] Datatype class: H5T_FLOAT
I1026 17:34:32.630261 12447 net.cpp:122] Setting up data
I1026 17:34:32.630316 12447 net.cpp:129] Top shape: 256 3 227 227 (39574272)
I1026 17:34:32.630323 12447 net.cpp:129] Top shape: 256 (256)
I1026 17:34:32.630328 12447 net.cpp:137] Memory required for data: 158298112
I1026 17:34:32.630340 12447 layer_factory.hpp:77] Creating layer conv1
I1026 17:34:32.630380 12447 net.cpp:84] Creating Layer conv1
I1026 17:34:32.630391 12447 net.cpp:406] conv1 <- data
I1026 17:34:32.630412 12447 net.cpp:380] conv1 -> conv1
I1026 17:34:32.952225 12447 net.cpp:122] Setting up conv1
I1026 17:34:32.952265 12447 net.cpp:129] Top shape: 256 96 55 55 (74342400)
I1026 17:34:32.952270 12447 net.cpp:137] Memory required for data: 455667712
I1026 17:34:32.952302 12447 layer_factory.hpp:77] Creating layer relu1
I1026 17:34:32.952319 12447 net.cpp:84] Creating Layer relu1
I1026 17:34:32.952325 12447 net.cpp:406] relu1 <- conv1
I1026 17:34:32.952334 12447 net.cpp:367] relu1 -> conv1 (in-place)
I1026 17:34:32.952538 12447 net.cpp:122] Setting up relu1
I1026 17:34:32.952548 12447 net.cpp:129] Top shape: 256 96 55 55 (74342400)
I1026 17:34:32.952553 12447 net.cpp:137] Memory required for data: 753037312
I1026 17:34:32.952558 12447 layer_factory.hpp:77] Creating layer norm1
I1026 17:34:32.952569 12447 net.cpp:84] Creating Layer norm1
I1026 17:34:32.952574 12447 net.cpp:406] norm1 <- conv1
I1026 17:34:32.952581 12447 net.cpp:380] norm1 -> norm1
I1026 17:34:32.952805 12447 net.cpp:122] Setting up norm1
I1026 17:34:32.952814 12447 net.cpp:129] Top shape: 256 96 55 55 (74342400)
I1026 17:34:32.952819 12447 net.cpp:137] Memory required for data: 1050406912
I1026 17:34:32.952823 12447 layer_factory.hpp:77] Creating layer pool1
I1026 17:34:32.952833 12447 net.cpp:84] Creating Layer pool1
I1026 17:34:32.952848 12447 net.cpp:406] pool1 <- norm1
I1026 17:34:32.952855 12447 net.cpp:380] pool1 -> pool1
I1026 17:34:32.952905 12447 net.cpp:122] Setting up pool1
I1026 17:34:32.952913 12447 net.cpp:129] Top shape: 256 96 27 27 (17915904)
I1026 17:34:32.952917 12447 net.cpp:137] Memory required for data: 1122070528
I1026 17:34:32.952949 12447 layer_factory.hpp:77] Creating layer conv2
I1026 17:34:32.952963 12447 net.cpp:84] Creating Layer conv2
I1026 17:34:32.952968 12447 net.cpp:406] conv2 <- pool1
I1026 17:34:32.952976 12447 net.cpp:380] conv2 -> conv2
I1026 17:34:32.961346 12447 net.cpp:122] Setting up conv2
I1026 17:34:32.961396 12447 net.cpp:129] Top shape: 256 256 27 27 (47775744)
I1026 17:34:32.961402 12447 net.cpp:137] Memory required for data: 1313173504
I1026 17:34:32.961431 12447 layer_factory.hpp:77] Creating layer relu2
I1026 17:34:32.961447 12447 net.cpp:84] Creating Layer relu2
I1026 17:34:32.961484 12447 net.cpp:406] relu2 <- conv2
I1026 17:34:32.961496 12447 net.cpp:367] relu2 -> conv2 (in-place)
I1026 17:34:32.961762 12447 net.cpp:122] Setting up relu2
I1026 17:34:32.961771 12447 net.cpp:129] Top shape: 256 256 27 27 (47775744)
I1026 17:34:32.961776 12447 net.cpp:137] Memory required for data: 1504276480
I1026 17:34:32.961781 12447 layer_factory.hpp:77] Creating layer norm2
I1026 17:34:32.961791 12447 net.cpp:84] Creating Layer norm2
I1026 17:34:32.961798 12447 net.cpp:406] norm2 <- conv2
I1026 17:34:32.961807 12447 net.cpp:380] norm2 -> norm2
I1026 17:34:32.962055 12447 net.cpp:122] Setting up norm2
I1026 17:34:32.962064 12447 net.cpp:129] Top shape: 256 256 27 27 (47775744)
I1026 17:34:32.962069 12447 net.cpp:137] Memory required for data: 1695379456
I1026 17:34:32.962074 12447 layer_factory.hpp:77] Creating layer pool2
I1026 17:34:32.962085 12447 net.cpp:84] Creating Layer pool2
I1026 17:34:32.962091 12447 net.cpp:406] pool2 <- norm2
I1026 17:34:32.962100 12447 net.cpp:380] pool2 -> pool2
I1026 17:34:32.962141 12447 net.cpp:122] Setting up pool2
I1026 17:34:32.962148 12447 net.cpp:129] Top shape: 256 256 13 13 (11075584)
I1026 17:34:32.962153 12447 net.cpp:137] Memory required for data: 1739681792
I1026 17:34:32.962158 12447 layer_factory.hpp:77] Creating layer conv3
I1026 17:34:32.962172 12447 net.cpp:84] Creating Layer conv3
I1026 17:34:32.962178 12447 net.cpp:406] conv3 <- pool2
I1026 17:34:32.962186 12447 net.cpp:380] conv3 -> conv3
I1026 17:34:32.976653 12447 net.cpp:122] Setting up conv3
I1026 17:34:32.976693 12447 net.cpp:129] Top shape: 256 384 13 13 (16613376)
I1026 17:34:32.976699 12447 net.cpp:137] Memory required for data: 1806135296
I1026 17:34:32.976723 12447 layer_factory.hpp:77] Creating layer relu3
I1026 17:34:32.976737 12447 net.cpp:84] Creating Layer relu3
I1026 17:34:32.976752 12447 net.cpp:406] relu3 <- conv3
I1026 17:34:32.976764 12447 net.cpp:367] relu3 -> conv3 (in-place)
I1026 17:34:32.977222 12447 net.cpp:122] Setting up relu3
I1026 17:34:32.977232 12447 net.cpp:129] Top shape: 256 384 13 13 (16613376)
I1026 17:34:32.977237 12447 net.cpp:137] Memory required for data: 1872588800
I1026 17:34:32.977242 12447 layer_factory.hpp:77] Creating layer conv4
I1026 17:34:32.977259 12447 net.cpp:84] Creating Layer conv4
I1026 17:34:32.977265 12447 net.cpp:406] conv4 <- conv3
I1026 17:34:32.977274 12447 net.cpp:380] conv4 -> conv4
I1026 17:34:32.989048 12447 net.cpp:122] Setting up conv4
I1026 17:34:32.989091 12447 net.cpp:129] Top shape: 256 384 13 13 (16613376)
I1026 17:34:32.989096 12447 net.cpp:137] Memory required for data: 1939042304
I1026 17:34:32.989109 12447 layer_factory.hpp:77] Creating layer relu4
I1026 17:34:32.989123 12447 net.cpp:84] Creating Layer relu4
I1026 17:34:32.989130 12447 net.cpp:406] relu4 <- conv4
I1026 17:34:32.989138 12447 net.cpp:367] relu4 -> conv4 (in-place)
I1026 17:34:32.989590 12447 net.cpp:122] Setting up relu4
I1026 17:34:32.989600 12447 net.cpp:129] Top shape: 256 384 13 13 (16613376)
I1026 17:34:32.989606 12447 net.cpp:137] Memory required for data: 2005495808
I1026 17:34:32.989610 12447 layer_factory.hpp:77] Creating layer conv5
I1026 17:34:32.989624 12447 net.cpp:84] Creating Layer conv5
I1026 17:34:32.989634 12447 net.cpp:406] conv5 <- conv4
I1026 17:34:32.989645 12447 net.cpp:380] conv5 -> conv5
I1026 17:34:32.998651 12447 net.cpp:122] Setting up conv5
I1026 17:34:32.998692 12447 net.cpp:129] Top shape: 256 256 13 13 (11075584)
I1026 17:34:32.998695 12447 net.cpp:137] Memory required for data: 2049798144
I1026 17:34:32.998751 12447 layer_factory.hpp:77] Creating layer relu5
I1026 17:34:32.998764 12447 net.cpp:84] Creating Layer relu5
I1026 17:34:32.998769 12447 net.cpp:406] relu5 <- conv5
I1026 17:34:32.998781 12447 net.cpp:367] relu5 -> conv5 (in-place)
I1026 17:34:32.999027 12447 net.cpp:122] Setting up relu5
I1026 17:34:32.999037 12447 net.cpp:129] Top shape: 256 256 13 13 (11075584)
I1026 17:34:32.999042 12447 net.cpp:137] Memory required for data: 2094100480
I1026 17:34:32.999047 12447 layer_factory.hpp:77] Creating layer pool5
I1026 17:34:32.999054 12447 net.cpp:84] Creating Layer pool5
I1026 17:34:32.999059 12447 net.cpp:406] pool5 <- conv5
I1026 17:34:32.999068 12447 net.cpp:380] pool5 -> pool5
I1026 17:34:32.999116 12447 net.cpp:122] Setting up pool5
I1026 17:34:32.999126 12447 net.cpp:129] Top shape: 256 256 6 6 (2359296)
I1026 17:34:32.999131 12447 net.cpp:137] Memory required for data: 2103537664
I1026 17:34:32.999135 12447 layer_factory.hpp:77] Creating layer fc6
I1026 17:34:32.999148 12447 net.cpp:84] Creating Layer fc6
I1026 17:34:32.999152 12447 net.cpp:406] fc6 <- pool5
I1026 17:34:32.999159 12447 net.cpp:380] fc6 -> fc6
I1026 17:34:33.502290 12447 net.cpp:122] Setting up fc6
I1026 17:34:33.502341 12447 net.cpp:129] Top shape: 256 4096 (1048576)
I1026 17:34:33.502346 12447 net.cpp:137] Memory required for data: 2107731968
I1026 17:34:33.502360 12447 layer_factory.hpp:77] Creating layer relu6
I1026 17:34:33.502374 12447 net.cpp:84] Creating Layer relu6
I1026 17:34:33.502382 12447 net.cpp:406] relu6 <- fc6
I1026 17:34:33.502394 12447 net.cpp:367] relu6 -> fc6 (in-place)
I1026 17:34:33.502689 12447 net.cpp:122] Setting up relu6
I1026 17:34:33.502698 12447 net.cpp:129] Top shape: 256 4096 (1048576)
I1026 17:34:33.502703 12447 net.cpp:137] Memory required for data: 2111926272
I1026 17:34:33.502707 12447 layer_factory.hpp:77] Creating layer drop6
I1026 17:34:33.502715 12447 net.cpp:84] Creating Layer drop6
I1026 17:34:33.502719 12447 net.cpp:406] drop6 <- fc6
I1026 17:34:33.502727 12447 net.cpp:367] drop6 -> fc6 (in-place)
I1026 17:34:33.502750 12447 net.cpp:122] Setting up drop6
I1026 17:34:33.502763 12447 net.cpp:129] Top shape: 256 4096 (1048576)
I1026 17:34:33.502766 12447 net.cpp:137] Memory required for data: 2116120576
I1026 17:34:33.502770 12447 layer_factory.hpp:77] Creating layer fc7
I1026 17:34:33.502784 12447 net.cpp:84] Creating Layer fc7
I1026 17:34:33.502789 12447 net.cpp:406] fc7 <- fc6
I1026 17:34:33.502794 12447 net.cpp:380] fc7 -> fc7
I1026 17:34:33.728648 12447 net.cpp:122] Setting up fc7
I1026 17:34:33.728698 12447 net.cpp:129] Top shape: 256 4096 (1048576)
I1026 17:34:33.728708 12447 net.cpp:137] Memory required for data: 2120314880
I1026 17:34:33.728723 12447 layer_factory.hpp:77] Creating layer relu7
I1026 17:34:33.728736 12447 net.cpp:84] Creating Layer relu7
I1026 17:34:33.728742 12447 net.cpp:406] relu7 <- fc7
I1026 17:34:33.728751 12447 net.cpp:367] relu7 -> fc7 (in-place)
I1026 17:34:33.729043 12447 net.cpp:122] Setting up relu7
I1026 17:34:33.729051 12447 net.cpp:129] Top shape: 256 4096 (1048576)
I1026 17:34:33.729056 12447 net.cpp:137] Memory required for data: 2124509184
I1026 17:34:33.729060 12447 layer_factory.hpp:77] Creating layer drop7
I1026 17:34:33.729070 12447 net.cpp:84] Creating Layer drop7
I1026 17:34:33.729075 12447 net.cpp:406] drop7 <- fc7
I1026 17:34:33.729080 12447 net.cpp:367] drop7 -> fc7 (in-place)
I1026 17:34:33.729101 12447 net.cpp:122] Setting up drop7
I1026 17:34:33.729112 12447 net.cpp:129] Top shape: 256 4096 (1048576)
I1026 17:34:33.729116 12447 net.cpp:137] Memory required for data: 2128703488
I1026 17:34:33.729121 12447 layer_factory.hpp:77] Creating layer my-fc8
I1026 17:34:33.729132 12447 net.cpp:84] Creating Layer my-fc8
I1026 17:34:33.729136 12447 net.cpp:406] my-fc8 <- fc7
I1026 17:34:33.729147 12447 net.cpp:380] my-fc8 -> my-fc8
I1026 17:34:33.729310 12447 net.cpp:122] Setting up my-fc8
I1026 17:34:33.729318 12447 net.cpp:129] Top shape: 256 1 (256)
I1026 17:34:33.729323 12447 net.cpp:137] Memory required for data: 2128704512
I1026 17:34:33.729351 12447 layer_factory.hpp:77] Creating layer loss
I1026 17:34:33.729358 12447 net.cpp:84] Creating Layer loss
I1026 17:34:33.729363 12447 net.cpp:406] loss <- my-fc8
I1026 17:34:33.729370 12447 net.cpp:406] loss <- label
I1026 17:34:33.729382 12447 net.cpp:380] loss -> loss
I1026 17:34:33.729423 12447 net.cpp:122] Setting up loss
…
I1026 17:34:33.729655 12447 net.cpp:255] Network initialization done.
I1026 17:34:33.729981 12447 solver.cpp:172] Creating test net (#0) specified by net file: ./train_val.prototxt
I1026 17:34:33.730017 12447 net.cpp:294] The NetState phase (1) differed from the phase (0) specified by a rule in layer data
I1026 17:34:33.730211 12447 net.cpp:51] Initializing net from parameters: 
name: "AlexNet"
state {
  phase: TEST
}
layer {
  name: "data"
  type: "HDF5Data"
  top: "data"
  top: "label"
  include {
    phase: TEST
  }
  hdf5_data_param {
    source: "./test.txt"
    batch_size: 128
  }
}
layer {
  name: "conv1"
  type: "Convolution"
  bottom: "data"
  top: "conv1"
  param {
    lr_mult: 1
    decay_mult: 1
  }
  param {
    lr_mult: 2
    decay_mult: 0
  }
  convolution_param {
    num_output: 96
    kernel_size: 11
    stride: 4
    weight_filler {
      type: "gaussian"
      std: 0.01
    }
    bias_filler {
      type: "constant"
      value: 0
    }
  }
}
layer {
  name: "relu1"
  type: "ReLU"
  bottom: "conv1"
  top: "conv1"
}
layer {
  name: "norm1"
  type: "LRN"
  bottom: "conv1"
  top: "norm1"
  lrn_param {
    local_size: 5
    alpha: 0.0001
    beta: 0.75
  }
}
layer {
  name: "pool1"
  type: "Pooling"
  bottom: "norm1"
  top: "pool1"
  pooling_param {
    pool: MAX
    kernel_size: 3
    stride: 2
  }
}
layer {
  name: "conv2"
  type: "Convolution"
  bottom: "pool1"
  top: "conv2"
  param {
    lr_mult: 1
    decay_mult: 1
  }
  param {
    lr_mult: 2
    decay_mult: 0
  }
  convolution_param {
    num_output: 256
    pad: 2
    kernel_size: 5
    group: 2
    weight_filler {
      type: "gaussian"
      std: 0.01
    }
    bias_filler {
      type: "constant"
      value: 0.1
    }
  }
}
layer {
  name: "relu2"
  type: "ReLU"
  bottom: "conv2"
  top: "conv2"
}
layer {
  name: "norm2"
  type: "LRN"
  bottom: "conv2"
  top: "norm2"
  lrn_param {
    local_size: 5
    alpha: 0.0001
    beta: 0.75
  }
}
layer {
  name: "pool2"
  type: "Pooling"
  bottom: "norm2"
  top: "pool2"
  pooling_param {
    pool: MAX
    kernel_size: 3
    stride: 2
  }
}
layer {
  name: "conv3"
  type: "Convolution"
  bottom: "pool2"
  top: "conv3"
  param {
    lr_mult: 1
    decay_mult: 1
  }
  param {
    lr_mult: 2
    decay_mult: 0
  }
  convolution_param {
    num_output: 384
    pad: 1
    kernel_size: 3
    weight_filler {
      type: "gaussian"
      std: 0.01
    }
    bias_filler {
      type: "constant"
      value: 0
    }
  }
}
layer {
  name: "relu3"
  type: "ReLU"
  bottom: "conv3"
  top: "conv3"
}
layer {
  name: "conv4"
  type: "Convolution"
  bottom: "conv3"
  top: "conv4"
  param {
    lr_mult: 1
    decay_mult: 1
  }
  param {
    lr_mult: 2
    decay_mult: 0
  }
  convolution_param {
    num_output: 384
    pad: 1
    kernel_size: 3
    group: 2
    weight_filler {
      type: "gaussian"
      std: 0.01
    }
    bias_filler {
      type: "constant"
      value: 0.1
    }
  }
}
layer {
  name: "relu4"
  type: "ReLU"
  bottom: "conv4"
  top: "conv4"
}
layer {
  name: "conv5"
  type: "Convolution"
  bottom: "conv4"
  top: "conv5"
  param {
    lr_mult: 1
    decay_mult: 1
  }
  param {
    lr_mult: 2
    decay_mult: 0
  }
  convolution_param {
    num_output: 256
    pad: 1
    kernel_size: 3
    group: 2
    weight_filler {
      type: "gaussian"
      std: 0.01
    }
    bias_filler {
      type: "constant"
      value: 0.1
    }
  }
}
layer {
  name: "relu5"
  type: "ReLU"
  bottom: "conv5"
  top: "conv5"
}
layer {
  name: "pool5"
  type: "Pooling"
  bottom: "conv5"
  top: "pool5"
  pooling_param {
    pool: MAX
    kernel_size: 3
    stride: 2
  }
}
layer {
  name: "fc6"
  type: "InnerProduct"
  bottom: "pool5"
  top: "fc6"
  param {
    lr_mult: 1
    decay_mult: 1
  }
  param {
    lr_mult: 2
    decay_mult: 0
  }
  inner_product_param {
    num_output: 4096
    weight_filler {
      type: "gaussian"
      std: 0.005
    }
    bias_filler {
      type: "constant"
      value: 0.1
    }
  }
}
layer {
  name: "relu6"
  type: "ReLU"
  bottom: "fc6"
  top: "fc6"
}
layer {
  name: "drop6"
  type: "Dropout"
  bottom: "fc6"
  top: "fc6"
  dropout_param {
    dropout_ratio: 0.5
  }
}
layer {
  name: "fc7"
  type: "InnerProduct"
  bottom: "fc6"
  top: "fc7"
  param {
    lr_mult: 1
    decay_mult: 1
  }
  param {
    lr_mult: 2
    decay_mult: 0
  }
  inner_product_param {
    num_output: 4096
    weight_filler {
      type: "gaussian"
      std: 0.005
    }
    bias_filler {
      type: "constant"
      value: 0.1
    }
  }
}
layer {
  name: "relu7"
  type: "ReLU"
  bottom: "fc7"
  top: "fc7"
}
layer {
  name: "drop7"
  type: "Dropout"
  bottom: "fc7"
  top: "fc7"
  dropout_param {
    dropout_ratio: 0.5
  }
}
layer {
  name: "my-fc8"
  type: "InnerProduct"
  bottom: "fc7"
  top: "my-fc8"
  param {
    lr_mult: 1
    decay_mult: 1
  }
  param {
    lr_mult: 2
    decay_mult: 0
  }
  inner_product_param {
    num_output: 1
    weight_filler {
      type: "gaussian"
      std: 0.01
    }
    bias_filler {
      type: "constant"
      value: 0
    }
  }
}
layer {
  name: "loss"
  type: "EuclideanLoss"
  bottom: "my-fc8"
  bottom: "label"
  top: "loss"
}
I1026 17:34:33.730295 12447 layer_factory.hpp:77] Creating layer data
I1026 17:34:33.730304 12447 net.cpp:84] Creating Layer data
I1026 17:34:33.730309 12447 net.cpp:380] data -> data
I1026 17:34:33.730319 12447 net.cpp:380] data -> label
I1026 17:34:33.730326 12447 hdf5_data_layer.cpp:80] Loading list of HDF5 filenames from: ./test.txt
I1026 17:34:33.730653 12447 hdf5_data_layer.cpp:94] Number of HDF5 files: 1
I1026 17:34:34.798460 12447 net.cpp:122] Setting up data
I1026 17:34:34.798511 12447 net.cpp:129] Top shape: 128 3 227 227 (19787136)
I1026 17:34:34.798521 12447 net.cpp:129] Top shape: 128 (128)
I1026 17:34:34.798569 12447 net.cpp:137] Memory required for data: 79149056
I1026 17:34:34.798581 12447 layer_factory.hpp:77] Creating layer conv1
I1026 17:34:34.798611 12447 net.cpp:84] Creating Layer conv1
I1026 17:34:34.798624 12447 net.cpp:406] conv1 <- data
I1026 17:34:34.798640 12447 net.cpp:380] conv1 -> conv1
I1026 17:34:34.800978 12447 net.cpp:122] Setting up conv1
I1026 17:34:34.801005 12447 net.cpp:129] Top shape: 128 96 55 55 (37171200)
I1026 17:34:34.801012 12447 net.cpp:137] Memory required for data: 227833856
I1026 17:34:34.801030 12447 layer_factory.hpp:77] Creating layer relu1
I1026 17:34:34.801046 12447 net.cpp:84] Creating Layer relu1
I1026 17:34:34.801056 12447 net.cpp:406] relu1 <- conv1
I1026 17:34:34.801067 12447 net.cpp:367] relu1 -> conv1 (in-place)
I1026 17:34:34.801336 12447 net.cpp:122] Setting up relu1
I1026 17:34:34.801348 12447 net.cpp:129] Top shape: 128 96 55 55 (37171200)
I1026 17:34:34.801357 12447 net.cpp:137] Memory required for data: 376518656
I1026 17:34:34.801362 12447 layer_factory.hpp:77] Creating layer norm1
I1026 17:34:34.801374 12447 net.cpp:84] Creating Layer norm1
I1026 17:34:34.801383 12447 net.cpp:406] norm1 <- conv1
I1026 17:34:34.801393 12447 net.cpp:380] norm1 -> norm1
I1026 17:34:34.802101 12447 net.cpp:122] Setting up norm1
I1026 17:34:34.802116 12447 net.cpp:129] Top shape: 128 96 55 55 (37171200)
I1026 17:34:34.802122 12447 net.cpp:137] Memory required for data: 525203456
I1026 17:34:34.802131 12447 layer_factory.hpp:77] Creating layer pool1
I1026 17:34:34.802145 12447 net.cpp:84] Creating Layer pool1
I1026 17:34:34.802155 12447 net.cpp:406] pool1 <- norm1
I1026 17:34:34.802165 12447 net.cpp:380] pool1 -> pool1
I1026 17:34:34.802224 12447 net.cpp:122] Setting up pool1
I1026 17:34:34.802237 12447 net.cpp:129] Top shape: 128 96 27 27 (8957952)
I1026 17:34:34.802244 12447 net.cpp:137] Memory required for data: 561035264
I1026 17:34:34.802250 12447 layer_factory.hpp:77] Creating layer conv2
I1026 17:34:34.802268 12447 net.cpp:84] Creating Layer conv2
I1026 17:34:34.802278 12447 net.cpp:406] conv2 <- pool1
I1026 17:34:34.802287 12447 net.cpp:380] conv2 -> conv2
I1026 17:34:34.811234 12447 net.cpp:122] Setting up conv2
I1026 17:34:34.811280 12447 net.cpp:129] Top shape: 128 256 27 27 (23887872)
I1026 17:34:34.811287 12447 net.cpp:137] Memory required for data: 656586752
I1026 17:34:34.811322 12447 layer_factory.hpp:77] Creating layer relu2
I1026 17:34:34.811342 12447 net.cpp:84] Creating Layer relu2
I1026 17:34:34.811353 12447 net.cpp:406] relu2 <- conv2
I1026 17:34:34.811367 12447 net.cpp:367] relu2 -> conv2 (in-place)
I1026 17:34:34.811678 12447 net.cpp:122] Setting up relu2
I1026 17:34:34.811692 12447 net.cpp:129] Top shape: 128 256 27 27 (23887872)
I1026 17:34:34.811697 12447 net.cpp:137] Memory required for data: 752138240
I1026 17:34:34.811702 12447 layer_factory.hpp:77] Creating layer norm2
I1026 17:34:34.811715 12447 net.cpp:84] Creating Layer norm2
I1026 17:34:34.811751 12447 net.cpp:406] norm2 <- conv2
I1026 17:34:34.811784 12447 net.cpp:380] norm2 -> norm2
I1026 17:34:34.812013 12447 net.cpp:122] Setting up norm2
I1026 17:34:34.812026 12447 net.cpp:129] Top shape: 128 256 27 27 (23887872)
I1026 17:34:34.812031 12447 net.cpp:137] Memory required for data: 847689728
I1026 17:34:34.812036 12447 layer_factory.hpp:77] Creating layer pool2
I1026 17:34:34.812047 12447 net.cpp:84] Creating Layer pool2
I1026 17:34:34.812052 12447 net.cpp:406] pool2 <- norm2
I1026 17:34:34.812060 12447 net.cpp:380] pool2 -> pool2
I1026 17:34:34.812101 12447 net.cpp:122] Setting up pool2
I1026 17:34:34.812109 12447 net.cpp:129] Top shape: 128 256 13 13 (5537792)
I1026 17:34:34.812114 12447 net.cpp:137] Memory required for data: 869840896
I1026 17:34:34.812119 12447 layer_factory.hpp:77] Creating layer conv3
I1026 17:34:34.812134 12447 net.cpp:84] Creating Layer conv3
I1026 17:34:34.812140 12447 net.cpp:406] conv3 <- pool2
I1026 17:34:34.812149 12447 net.cpp:380] conv3 -> conv3
I1026 17:34:34.826401 12447 net.cpp:122] Setting up conv3
I1026 17:34:34.826442 12447 net.cpp:129] Top shape: 128 384 13 13 (8306688)
I1026 17:34:34.826483 12447 net.cpp:137] Memory required for data: 903067648
I1026 17:34:34.826505 12447 layer_factory.hpp:77] Creating layer relu3
I1026 17:34:34.826534 12447 net.cpp:84] Creating Layer relu3
I1026 17:34:34.826551 12447 net.cpp:406] relu3 <- conv3
I1026 17:34:34.826575 12447 net.cpp:367] relu3 -> conv3 (in-place)
I1026 17:34:34.826843 12447 net.cpp:122] Setting up relu3
I1026 17:34:34.826863 12447 net.cpp:129] Top shape: 128 384 13 13 (8306688)
I1026 17:34:34.826876 12447 net.cpp:137] Memory required for data: 936294400
I1026 17:34:34.826890 12447 layer_factory.hpp:77] Creating layer conv4
I1026 17:34:34.826920 12447 net.cpp:84] Creating Layer conv4
I1026 17:34:34.826936 12447 net.cpp:406] conv4 <- conv3
I1026 17:34:34.826953 12447 net.cpp:380] conv4 -> conv4
I1026 17:34:34.839431 12447 net.cpp:122] Setting up conv4
I1026 17:34:34.839468 12447 net.cpp:129] Top shape: 128 384 13 13 (8306688)
I1026 17:34:34.839474 12447 net.cpp:137] Memory required for data: 969521152
I1026 17:34:34.839488 12447 layer_factory.hpp:77] Creating layer relu4
I1026 17:34:34.839501 12447 net.cpp:84] Creating Layer relu4
I1026 17:34:34.839507 12447 net.cpp:406] relu4 <- conv4
I1026 17:34:34.839517 12447 net.cpp:367] relu4 -> conv4 (in-place)
I1026 17:34:34.839784 12447 net.cpp:122] Setting up relu4
I1026 17:34:34.839798 12447 net.cpp:129] Top shape: 128 384 13 13 (8306688)
I1026 17:34:34.839803 12447 net.cpp:137] Memory required for data: 1002747904
I1026 17:34:34.839808 12447 layer_factory.hpp:77] Creating layer conv5
I1026 17:34:34.839826 12447 net.cpp:84] Creating Layer conv5
I1026 17:34:34.839831 12447 net.cpp:406] conv5 <- conv4
I1026 17:34:34.839840 12447 net.cpp:380] conv5 -> conv5
I1026 17:34:34.849453 12447 net.cpp:122] Setting up conv5
I1026 17:34:34.849488 12447 net.cpp:129] Top shape: 128 256 13 13 (5537792)
I1026 17:34:34.849493 12447 net.cpp:137] Memory required for data: 1024899072
I1026 17:34:34.849515 12447 layer_factory.hpp:77] Creating layer relu5
I1026 17:34:34.849531 12447 net.cpp:84] Creating Layer relu5
I1026 17:34:34.849539 12447 net.cpp:406] relu5 <- conv5
I1026 17:34:34.849550 12447 net.cpp:367] relu5 -> conv5 (in-place)
I1026 17:34:34.849792 12447 net.cpp:122] Setting up relu5
I1026 17:34:34.849803 12447 net.cpp:129] Top shape: 128 256 13 13 (5537792)
I1026 17:34:34.849808 12447 net.cpp:137] Memory required for data: 1047050240
I1026 17:34:34.849813 12447 layer_factory.hpp:77] Creating layer pool5
I1026 17:34:34.849822 12447 net.cpp:84] Creating Layer pool5
I1026 17:34:34.849826 12447 net.cpp:406] pool5 <- conv5
I1026 17:34:34.849836 12447 net.cpp:380] pool5 -> pool5
I1026 17:34:34.849896 12447 net.cpp:122] Setting up pool5
I1026 17:34:34.849944 12447 net.cpp:129] Top shape: 128 256 6 6 (1179648)
I1026 17:34:34.849961 12447 net.cpp:137] Memory required for data: 1051768832
I1026 17:34:34.849977 12447 layer_factory.hpp:77] Creating layer fc6
I1026 17:34:34.850003 12447 net.cpp:84] Creating Layer fc6
I1026 17:34:34.850008 12447 net.cpp:406] fc6 <- pool5
I1026 17:34:34.850018 12447 net.cpp:380] fc6 -> fc6
I1026 17:34:35.356964 12447 net.cpp:122] Setting up fc6
I1026 17:34:35.357017 12447 net.cpp:129] Top shape: 128 4096 (524288)
I1026 17:34:35.357023 12447 net.cpp:137] Memory required for data: 1053865984
I1026 17:34:35.357038 12447 layer_factory.hpp:77] Creating layer relu6
I1026 17:34:35.357056 12447 net.cpp:84] Creating Layer relu6
I1026 17:34:35.357064 12447 net.cpp:406] relu6 <- fc6
I1026 17:34:35.357075 12447 net.cpp:367] relu6 -> fc6 (in-place)
I1026 17:34:35.357894 12447 net.cpp:122] Setting up relu6
I1026 17:34:35.357906 12447 net.cpp:129] Top shape: 128 4096 (524288)
I1026 17:34:35.357913 12447 net.cpp:137] Memory required for data: 1055963136
I1026 17:34:35.357916 12447 layer_factory.hpp:77] Creating layer drop6
I1026 17:34:35.357925 12447 net.cpp:84] Creating Layer drop6
I1026 17:34:35.357930 12447 net.cpp:406] drop6 <- fc6
I1026 17:34:35.357944 12447 net.cpp:367] drop6 -> fc6 (in-place)
I1026 17:34:35.357969 12447 net.cpp:122] Setting up drop6
I1026 17:34:35.358013 12447 net.cpp:129] Top shape: 128 4096 (524288)
I1026 17:34:35.358019 12447 net.cpp:137] Memory required for data: 1058060288
I1026 17:34:35.358023 12447 layer_factory.hpp:77] Creating layer fc7
I1026 17:34:35.358036 12447 net.cpp:84] Creating Layer fc7
I1026 17:34:35.358042 12447 net.cpp:406] fc7 <- fc6
I1026 17:34:35.358050 12447 net.cpp:380] fc7 -> fc7
I1026 17:34:35.583046 12447 net.cpp:122] Setting up fc7
I1026 17:34:35.583097 12447 net.cpp:129] Top shape: 128 4096 (524288)
I1026 17:34:35.583102 12447 net.cpp:137] Memory required for data: 1060157440
I1026 17:34:35.583117 12447 layer_factory.hpp:77] Creating layer relu7
I1026 17:34:35.583132 12447 net.cpp:84] Creating Layer relu7
I1026 17:34:35.583137 12447 net.cpp:406] relu7 <- fc7
I1026 17:34:35.583151 12447 net.cpp:367] relu7 -> fc7 (in-place)
I1026 17:34:35.583505 12447 net.cpp:122] Setting up relu7
I1026 17:34:35.583516 12447 net.cpp:129] Top shape: 128 4096 (524288)
I1026 17:34:35.583520 12447 net.cpp:137] Memory required for data: 1062254592
I1026 17:34:35.583526 12447 layer_factory.hpp:77] Creating layer drop7
I1026 17:34:35.583535 12447 net.cpp:84] Creating Layer drop7
I1026 17:34:35.583540 12447 net.cpp:406] drop7 <- fc7
I1026 17:34:35.583549 12447 net.cpp:367] drop7 -> fc7 (in-place)
I1026 17:34:35.583573 12447 net.cpp:122] Setting up drop7
I1026 17:34:35.583642 12447 net.cpp:129] Top shape: 128 4096 (524288)
I1026 17:34:35.583658 12447 net.cpp:137] Memory required for data: 1064351744
I1026 17:34:35.583673 12447 layer_factory.hpp:77] Creating layer my-fc8
I1026 17:34:35.583705 12447 net.cpp:84] Creating Layer my-fc8
I1026 17:34:35.583735 12447 net.cpp:406] my-fc8 <- fc7
I1026 17:34:35.583760 12447 net.cpp:380] my-fc8 -> my-fc8
I1026 17:34:35.583951 12447 net.cpp:122] Setting up my-fc8
I1026 17:34:35.583961 12447 net.cpp:129] Top shape: 128 1 (128)
I1026 17:34:35.583966 12447 net.cpp:137] Memory required for data: 1064352256
I1026 17:34:35.583976 12447 layer_factory.hpp:77] Creating layer loss
I1026 17:34:35.583982 12447 net.cpp:84] Creating Layer loss
I1026 17:34:35.583987 12447 net.cpp:406] loss <- my-fc8
I1026 17:34:35.583993 12447 net.cpp:406] loss <- label
I1026 17:34:35.584002 12447 net.cpp:380] loss -> loss
I1026 17:34:35.584043 12447 net.cpp:122] Setting up loss
…
