…
I1029 12:33:46.264012 26341 solver.cpp:87] Creating training net from net file: ./train_val.prototxt
I1029 12:33:46.265514 26341 net.cpp:294] The NetState phase (0) differed from the phase (1) specified by a rule in layer data
I1029 12:33:46.266505 26341 net.cpp:51] Initializing net from parameters: 
name: "ResNet-50"
state {
  phase: TRAIN
  level: 0
  stage: ""
}
layer {
  name: "data"
  type: "HDF5Data"
  top: "data"
  top: "label"
  include {
    phase: TRAIN
  }
  hdf5_data_param {
    source: "./train.txt"
    batch_size: 20
    shuffle: true
  }
}
layer {
  name: "conv1"
  type: "Convolution"
  bottom: "data"
  top: "conv1"
  convolution_param {
    num_output: 64
    pad: 3
    kernel_size: 7
    stride: 2
  }
}
layer {
  name: "bn_conv1"
  type: "BatchNorm"
  bottom: "conv1"
  top: "conv1"
  batch_norm_param {
    use_global_stats: true
  }
}
layer {
  name: "scale_conv1"
  type: "Scale"
  bottom: "conv1"
  top: "conv1"
  scale_param {
    bias_term: true
  }
}
layer {
  name: "conv1_relu"
  type: "ReLU"
  bottom: "conv1"
  top: "conv1"
}
layer {
  name: "pool1"
  type: "Pooling"
  bottom: "conv1"
  top: "pool1"
  pooling_param {
    pool: MAX
    kernel_size: 3
    stride: 2
  }
}
layer {
  name: "res2a_branch1"
  type: "Convolution"
  bottom: "pool1"
  top: "res2a_branch1"
  convolution_param {
    num_output: 256
    bias_term: false
    pad: 0
    kernel_size: 1
    stride: 1
  }
}
layer {
  name: "bn2a_branch1"
  type: "BatchNorm"
  bottom: "res2a_branch1"
  top: "res2a_branch1"
  batch_norm_param {
    use_global_stats: true
  }
}
layer {
  name: "scale2a_branch1"
  type: "Scale"
  bottom: "res2a_branch1"
  top: "res2a_branch1"
  scale_param {
    bias_term: true
  }
}
layer {
  name: "res2a_branch2a"
  type: "Convolution"
  bottom: "pool1"
  top: "res2a_branch2a"
  convolution_param {
    num_output: 64
    bias_term: false
    pad: 0
    kernel_size: 1
    stride: 1
  }
}
layer {
  name: "bn2a_branch2a"
  type: "BatchNorm"
  bottom: "res2a_branch2a"
  top: "res2a_branch2a"
  batch_norm_param {
    use_global_stats: true
  }
}
layer {
  name: "scale2a_branch2a"
  type: "Scale"
  bottom: "res2a_branch2a"
  top: "res2a_branch2a"
  scale_param {
    bias_term: true
  }
}
layer {
  name: "res2a_branch2a_relu"
  type: "ReLU"
  bottom: "res2a_branch2a"
  top: "res2a_branch2a"
}
layer {
  name: "res2a_branch2b"
  type: "Convolution"
  bottom: "res2a_branch2a"
  top: "res2a_branch2b"
  convolution_param {
    num_output: 64
    bias_term: false
    pad: 1
    kernel_size: 3
    stride: 1
  }
}
layer {
  name: "bn2a_branch2b"
  type: "BatchNorm"
  bottom: "res2a_branch2b"
  top: "res2a_branch2b"
  batch_norm_param {
    use_global_stats: true
  }
}
layer {
  name: "scale2a_branch2b"
  type: "Scale"
  bottom: "res2a_branch2b"
  top: "res2a_branch2b"
  scale_param {
    bias_term: true
  }
}
layer {
  name: "res2a_branch2b_relu"
  type: "ReLU"
  bottom: "res2a_branch2b"
  top: "res2a_branch2b"
}
layer {
  name: "res2a_branch2c"
  type: "Convolution"
  bottom: "res2a_branch2b"
  top: "res2a_branch2c"
  convolution_param {
    num_output: 256
    bias_term: false
    pad: 0
    kernel_size: 1
    stride: 1
  }
}
layer {
  name: "bn2a_branch2c"
  type: "BatchNorm"
  bottom: "res2a_branch2c"
  top: "res2a_branch2c"
  batch_norm_param {
    use_global_stats: true
  }
}
layer {
  name: "scale2a_branch2c"
  type: "Scale"
  bottom: "res2a_branch2c"
  top: "res2a_branch2c"
  scale_param {
    bias_term: true
  }
}
layer {
  name: "res2a"
  type: "Eltwise"
  bottom: "res2a_branch1"
  bottom: "res2a_branch2c"
  top: "res2a"
}
layer {
  name: "res2a_relu"
  type: "ReLU"
  bottom: "res2a"
  top: "res2a"
}
layer {
  name: "res2b_branch2a"
  type: "Convolution"
  bottom: "res2a"
  top: "res2b_branch2a"
  convolution_param {
    num_output: 64
    bias_term: false
    pad: 0
    kernel_size: 1
    stride: 1
  }
}
layer {
  name: "bn2b_branch2a"
  type: "BatchNorm"
  bottom: "res2b_branch2a"
  top: "res2b_branch2a"
  batch_norm_param {
    use_global_stats: true
  }
}
layer {
  name: "scale2b_branch2a"
  type: "Scale"
  bottom: "res2b_branch2a"
  top: "res2b_branch2a"
  scale_param {
    bias_term: true
  }
}
layer {
  name: "res2b_branch2a_relu"
  type: "ReLU"
  bottom: "res2b_branch2a"
  top: "res2b_branch2a"
}
layer {
  name: "res2b_branch2b"
  type: "Convolution"
  bottom: "res2b_branch2a"
  top: "res2b_branch2b"
  convolution_param {
    num_output: 64
    bias_term: false
    pad: 1
    kernel_size: 3
    stride: 1
  }
}
layer {
  name: "bn2b_branch2b"
  type: "BatchNorm"
  bottom: "res2b_branch2b"
  top: "res2b_branch2b"
  batch_norm_param {
    use_global_stats: true
  }
}
layer {
  name: "scale2b_branch2b"
  type: "Scale"
  bottom: "res2b_branch2b"
  top: "res2b_branch2b"
  scale_param {
    bias_term: true
  }
}
layer {
  name: "res2b_branch2b_relu"
  type: "ReLU"
  bottom: "res2b_branch2b"
  top: "res2b_branch2b"
}
layer {
  name: "res2b_branch2c"
  type: "Convolution"
  bottom: "res2b_branch2b"
  top: "res2b_branch2c"
  convolution_param {
    num_output: 256
    bias_term: false
    pad: 0
    kernel_size: 1
    stride: 1
  }
}
layer {
  name: "bn2b_branch2c"
  type: "BatchNorm"
  bottom: "res2b_branch2c"
  top: "res2b_branch2c"
  batch_norm_param {
    use_global_stats: true
  }
}
layer {
  name: "scale2b_branch2c"
  type: "Scale"
  bottom: "res2b_branch2c"
  top: "res2b_branch2c"
  scale_param {
    bias_term: true
  }
}
layer {
  name: "res2b"
  type: "Eltwise"
  bottom: "res2a"
  bottom: "res2b_branch2c"
  top: "res2b"
}
layer {
  name: "res2b_relu"
  type: "ReLU"
  bottom: "res2b"
  top: "res2b"
}
layer {
  name: "res2c_branch2a"
  type: "Convolution"
  bottom: "res2b"
  top: "res2c_branch2a"
  convolution_param {
    num_output: 64
    bias_term: false
    pad: 0
    kernel_size: 1
    stride: 1
  }
}
layer {
  name: "bn2c_branch2a"
  type: "BatchNorm"
  bottom: "res2c_branch2a"
  top: "res2c_branch2a"
  batch_norm_param {
    use_global_stats: true
  }
}
layer {
  name: "scale2c_branch2a"
  type: "Scale"
  bottom: "res2c_branch2a"
  top: "res2c_branch2a"
  scale_param {
    bias_term: true
  }
}
layer {
  name: "res2c_branch2a_relu"
  type: "ReLU"
  bottom: "res2c_branch2a"
  top: "res2c_branch2a"
}
layer {
  name: "res2c_branch2b"
  type: "Convolution"
  bottom: "res2c_branch2a"
  top: "res2c_branch2b"
  convolution_param {
    num_output: 64
    bias_term: false
    pad: 1
    kernel_size: 3
    stride: 1
  }
}
layer {
  name: "bn2c_branch2b"
  type: "BatchNorm"
  bottom: "res2c_branch2b"
  top: "res2c_branch2b"
  batch_norm_param {
    use_global_stats: true
  }
}
layer {
  name: "scale2c_branch2b"
  type: "Scale"
  bottom: "res2c_branch2b"
  top: "res2c_branch2b"
  scale_param {
    bias_term: true
  }
}
layer {
  name: "res2c_branch2b_relu"
  type: "ReLU"
  bottom: "res2c_branch2b"
  top: "res2c_branch2b"
}
layer {
  name: "res2c_branch2c"
  type: "Convolution"
  bottom: "res2c_branch2b"
  top: "res2c_branch2c"
  convolution_param {
    num_output: 256
    bias_term: false
    pad: 0
    kernel_size: 1
    stride: 1
  }
}
layer {
  name: "bn2c_branch2c"
  type: "BatchNorm"
  bottom: "res2c_branch2c"
  top: "res2c_branch2c"
  batch_norm_param {
    use_global_stats: true
  }
}
layer {
  name: "scale2c_branch2c"
  type: "Scale"
  bottom: "res2c_branch2c"
  top: "res2c_branch2c"
  scale_param {
    bias_term: true
  }
}
layer {
  name: "res2c"
  type: "Eltwise"
  bottom: "res2b"
  bottom: "res2c_branch2c"
  top: "res2c"
}
layer {
  name: "res2c_relu"
  type: "ReLU"
  bottom: "res2c"
  top: "res2c"
}
layer {
  name: "res3a_branch1"
  type: "Convolution"
  bottom: "res2c"
  top: "res3a_branch1"
  convolution_param {
    num_output: 512
    bias_term: false
    pad: 0
    kernel_size: 1
    stride: 2
  }
}
layer {
  name: "bn3a_branch1"
  type: "BatchNorm"
  bottom: "res3a_branch1"
  top: "res3a_branch1"
  batch_norm_param {
    use_global_stats: true
  }
}
layer {
  name: "scale3a_branch1"
  type: "Scale"
  bottom: "res3a_branch1"
  top: "res3a_branch1"
  scale_param {
    bias_term: true
  }
}
layer {
  name: "res3a_branch2a"
  type: "Convolution"
  bottom: "res2c"
  top: "res3a_branch2a"
  convolution_param {
    num_output: 128
    bias_term: false
    pad: 0
    kernel_size: 1
    stride: 2
  }
}
layer {
  name: "bn3a_branch2a"
  type: "BatchNorm"
  bottom: "res3a_branch2a"
  top: "res3a_branch2a"
  batch_norm_param {
    use_global_stats: true
  }
}
layer {
  name: "scale3a_branch2a"
  type: "Scale"
  bottom: "res3a_branch2a"
  top: "res3a_branch2a"
  scale_param {
    bias_term: true
  }
}
layer {
  name: "res3a_branch2a_relu"
  type: "ReLU"
  bottom: "res3a_branch2a"
  top: "res3a_branch2a"
}
layer {
  name: "res3a_branch2b"
  type: "Convolution"
  bottom: "res3a_branch2a"
  top: "res3a_branch2b"
  convolution_param {
    num_output: 128
    bias_term: false
    pad: 1
    kernel_size: 3
    stride: 1
  }
}
layer {
  name: "bn3a_branch2b"
  type: "BatchNorm"
  bottom: "res3a_branch2b"
  top: "res3a_branch2b"
  batch_norm_param {
    use_global_stats: true
  }
}
layer {
  name: "scale3a_branch2b"
  type: "Scale"
  bottom: "res3a_branch2b"
  top: "res3a_branch2b"
  scale_param {
    bias_term: true
  }
}
layer {
  name: "res3a_branch2b_relu"
  type: "ReLU"
  bottom: "res3a_branch2b"
  top: "res3a_branch2b"
}
layer {
  name: "res3a_branch2c"
  type: "Convolution"
  bottom: "res3a_branch2b"
  top: "res3a_branch2c"
  convolution_param {
    num_output: 512
    bias_term: false
    pad: 0
    kernel_size: 1
    stride: 1
  }
}
layer {
  name: "bn3a_branch2c"
  type: "BatchNorm"
  bottom: "res3a_branch2c"
  top: "res3a_branch2c"
  batch_norm_param {
    use_global_stats: true
  }
}
layer {
  name: "scale3a_branch2c"
  type: "Scale"
  bottom: "res3a_branch2c"
  top: "res3a_branch2c"
  scale_param {
    bias_term: true
  }
}
layer {
  name: "res3a"
  type: "Eltwise"
  bottom: "res3a_branch1"
  bottom: "res3a_branch2c"
  top: "res3a"
}
layer {
  name: "res3a_relu"
  type: "ReLU"
  bottom: "res3a"
  top: "res3a"
}
layer {
  name: "res3b_branch2a"
  type: "Convolution"
  bottom: "res3a"
  top: "res3b_branch2a"
  convolution_param {
    num_output: 128
    bias_term: false
    pad: 0
    kernel_size: 1
    stride: 1
  }
}
layer {
  name: "bn3b_branch2a"
  type: "BatchNorm"
  bottom: "res3b_branch2a"
  top: "res3b_branch2a"
  batch_norm_param {
    use_global_stats: true
  }
}
layer {
  name: "scale3b_branch2a"
  type: "Scale"
  bottom: "res3b_branch2a"
  top: "res3b_branch2a"
  scale_param {
    bias_term: true
  }
}
layer {
  name: "res3b_branch2a_relu"
  type: "ReLU"
  bottom: "res3b_branch2a"
  top: "res3b_branch2a"
}
layer {
  name: "res3b_branch2b"
  type: "Convolution"
  bottom: "res3b_branch2a"
  top: "res3b_branch2b"
  convolution_param {
    num_output: 128
    bias_term: false
    pad: 1
    kernel_size: 3
    stride: 1
  }
}
layer {
  name: "bn3b_branch2b"
  type: "BatchNorm"
  bottom: "res3b_branch2b"
  top: "res3b_branch2b"
  batch_norm_param {
    use_global_stats: true
  }
}
layer {
  name: "scale3b_branch2b"
  type: "Scale"
  bottom: "res3b_branch2b"
  top: "res3b_branch2b"
  scale_param {
    bias_term: true
  }
}
layer {
  name: "res3b_branch2b_relu"
  type: "ReLU"
  bottom: "res3b_branch2b"
  top: "res3b_branch2b"
}
layer {
  name: "res3b_branch2c"
  type: "Convolution"
  bottom: "res3b_branch2b"
  top: "res3b_branch2c"
  convolution_param {
    num_output: 512
    bias_term: false
    pad: 0
    kernel_size: 1
    stride: 1
  }
}
layer {
  name: "bn3b_branch2c"
  type: "BatchNorm"
  bottom: "res3b_branch2c"
  top: "res3b_branch2c"
  batch_norm_param {
    use_global_stats: true
  }
}
layer {
  name: "scale3b_branch2c"
  type: "Scale"
  bottom: "res3b_branch2c"
  top: "res3b_branch2c"
  scale_param {
    bias_term: true
  }
}
layer {
  name: "res3b"
  type: "Eltwise"
  bottom: "res3a"
  bottom: "res3b_branch2c"
  top: "res3b"
}
layer {
  name: "res3b_relu"
  type: "ReLU"
  bottom: "res3b"
  top: "res3b"
}
layer {
  name: "res3c_branch2a"
  type: "Convolution"
  bottom: "res3b"
  top: "res3c_branch2a"
  convolution_param {
    num_output: 128
    bias_term: false
    pad: 0
    kernel_size: 1
    stride: 1
  }
}
layer {
  name: "bn3c_branch2a"
  type: "BatchNorm"
  bottom: "res3c_branch2a"
  top: "res3c_branch2a"
  batch_norm_param {
    use_global_stats: true
  }
}
layer {
  name: "scale3c_branch2a"
  type: "Scale"
  bottom: "res3c_branch2a"
  top: "res3c_branch2a"
  scale_param {
    bias_term: true
  }
}
layer {
  name: "res3c_branch2a_relu"
  type: "ReLU"
  bottom: "res3c_branch2a"
  top: "res3c_branch2a"
}
layer {
  name: "res3c_branch2b"
  type: "Convolution"
  bottom: "res3c_branch2a"
  top: "res3c_branch2b"
  convolution_param {
    num_output: 128
    bias_term: false
    pad: 1
    kernel_size: 3
    stride: 1
  }
}
layer {
  name: "bn3c_branch2b"
  type: "BatchNorm"
  bottom: "res3c_branch2b"
  top: "res3c_branch2b"
  batch_norm_param {
    use_global_stats: true
  }
}
layer {
  name: "scale3c_branch2b"
  type: "Scale"
  bottom: "res3c_branch2b"
  top: "res3c_branch2b"
  scale_param {
    bias_term: true
  }
}
layer {
  name: "res3c_branch2b_relu"
  type: "ReLU"
  bottom: "res3c_branch2b"
  top: "res3c_branch2b"
}
layer {
  name: "res3c_branch2c"
  type: "Convolution"
  bottom: "res3c_branch2b"
  top: "res3c_branch2c"
  convolution_param {
    num_output: 512
    bias_term: false
    pad: 0
    kernel_size: 1
    stride: 1
  }
}
layer {
  name: "bn3c_branch2c"
  type: "BatchNorm"
  bottom: "res3c_branch2c"
  top: "res3c_branch2c"
  batch_norm_param {
    use_global_stats: true
  }
}
layer {
  name: "scale3c_branch2c"
  type: "Scale"
  bottom: "res3c_branch2c"
  top: "res3c_branch2c"
  scale_param {
    bias_term: true
  }
}
layer {
  name: "res3c"
  type: "Eltwise"
  bottom: "res3b"
  bottom: "res3c_branch2c"
  top: "res3c"
}
layer {
  name: "res3c_relu"
  type: "ReLU"
  bottom: "res3c"
  top: "res3c"
}
layer {
  name: "res3d_branch2a"
  type: "Convolution"
  bottom: "res3c"
  top: "res3d_branch2a"
  convolution_param {
    num_output: 128
    bias_term: false
    pad: 0
    kernel_size: 1
    stride: 1
  }
}
layer {
  name: "bn3d_branch2a"
  type: "BatchNorm"
  bottom: "res3d_branch2a"
  top: "res3d_branch2a"
  batch_norm_param {
    use_global_stats: true
  }
}
layer {
  name: "scale3d_branch2a"
  type: "Scale"
  bottom: "res3d_branch2a"
  top: "res3d_branch2a"
  scale_param {
    bias_term: true
  }
}
layer {
  name: "res3d_branch2a_relu"
  type: "ReLU"
  bottom: "res3d_branch2a"
  top: "res3d_branch2a"
}
layer {
  name: "res3d_branch2b"
  type: "Convolution"
  bottom: "res3d_branch2a"
  top: "res3d_branch2b"
  convolution_param {
    num_output: 128
    bias_term: false
    pad: 1
    kernel_size: 3
    stride: 1
  }
}
layer {
  name: "bn3d_branch2b"
  type: "BatchNorm"
  bottom: "res3d_branch2b"
  top: "res3d_branch2b"
  batch_norm_param {
    use_global_stats: true
  }
}
layer {
  name: "scale3d_branch2b"
  type: "Scale"
  bottom: "res3d_branch2b"
  top: "res3d_branch2b"
  scale_param {
    bias_term: true
  }
}
layer {
  name: "res3d_branch2b_relu"
  type: "ReLU"
  bottom: "res3d_branch2b"
  top: "res3d_branch2b"
}
layer {
  name: "res3d_branch2c"
  type: "Convolution"
  bottom: "res3d_branch2b"
  top: "res3d_branch2c"
  convolution_param {
    num_output: 512
    bias_term: false
    pad: 0
    kernel_size: 1
    stride: 1
  }
}
layer {
  name: "bn3d_branch2c"
  type: "BatchNorm"
  bottom: "res3d_branch2c"
  top: "res3d_branch2c"
  batch_norm_param {
    use_global_stats: true
  }
}
layer {
  name: "scale3d_branch2c"
  type: "Scale"
  bottom: "res3d_branch2c"
  top: "res3d_branch2c"
  scale_param {
    bias_term: true
  }
}
layer {
  name: "res3d"
  type: "Eltwise"
  bottom: "res3c"
  bottom: "res3d_branch2c"
  top: "res3d"
}
layer {
  name: "res3d_relu"
  type: "ReLU"
  bottom: "res3d"
  top: "res3d"
}
layer {
  name: "res4a_branch1"
  type: "Convolution"
  bottom: "res3d"
  top: "res4a_branch1"
  convolution_param {
    num_output: 1024
    bias_term: false
    pad: 0
    kernel_size: 1
    stride: 2
  }
}
layer {
  name: "bn4a_branch1"
  type: "BatchNorm"
  bottom: "res4a_branch1"
  top: "res4a_branch1"
  batch_norm_param {
    use_global_stats: true
  }
}
layer {
  name: "scale4a_branch1"
  type: "Scale"
  bottom: "res4a_branch1"
  top: "res4a_branch1"
  scale_param {
    bias_term: true
  }
}
layer {
  name: "res4a_branch2a"
  type: "Convolution"
  bottom: "res3d"
  top: "res4a_branch2a"
  convolution_param {
    num_output: 256
    bias_term: false
    pad: 0
    kernel_size: 1
    stride: 2
  }
}
layer {
  name: "bn4a_branch2a"
  type: "BatchNorm"
  bottom: "res4a_branch2a"
  top: "res4a_branch2a"
  batch_norm_param {
    use_global_stats: true
  }
}
layer {
  name: "scale4a_branch2a"
  type: "Scale"
  bottom: "res4a_branch2a"
  top: "res4a_branch2a"
  scale_param {
    bias_term: true
  }
}
layer {
  name: "res4a_branch2a_relu"
  type: "ReLU"
  bottom: "res4a_branch2a"
  top: "res4a_branch2a"
}
layer {
  name: "res4a_branch2b"
  type: "Convolution"
  bottom: "res4a_branch2a"
  top: "res4a_branch2b"
  convolution_param {
    num_output: 256
    bias_term: false
    pad: 1
    kernel_size: 3
    stride: 1
  }
}
layer {
  name: "bn4a_branch2b"
  type: "BatchNorm"
  bottom: "res4a_branch2b"
  top: "res4a_branch2b"
  batch_norm_param {
    use_global_stats: true
  }
}
layer {
  name: "scale4a_branch2b"
  type: "Scale"
  bottom: "res4a_branch2b"
  top: "res4a_branch2b"
  scale_param {
    bias_term: true
  }
}
layer {
  name: "res4a_branch2b_relu"
  type: "ReLU"
  bottom: "res4a_branch2b"
  top: "res4a_branch2b"
}
layer {
  name: "res4a_branch2c"
  type: "Convolution"
  bottom: "res4a_branch2b"
  top: "res4a_branch2c"
  convolution_param {
    num_output: 1024
    bias_term: false
    pad: 0
    kernel_size: 1
    stride: 1
  }
}
layer {
  name: "bn4a_branch2c"
  type: "BatchNorm"
  bottom: "res4a_branch2c"
  top: "res4a_branch2c"
  batch_norm_param {
    use_global_stats: true
  }
}
layer {
  name: "scale4a_branch2c"
  type: "Scale"
  bottom: "res4a_branch2c"
  top: "res4a_branch2c"
  scale_param {
    bias_term: true
  }
}
layer {
  name: "res4a"
  type: "Eltwise"
  bottom: "res4a_branch1"
  bottom: "res4a_branch2c"
  top: "res4a"
}
layer {
  name: "res4a_relu"
  type: "ReLU"
  bottom: "res4a"
  top: "res4a"
}
layer {
  name: "res4b_branch2a"
  type: "Convolution"
  bottom: "res4a"
  top: "res4b_branch2a"
  convolution_param {
    num_output: 256
    bias_term: false
    pad: 0
    kernel_size: 1
    stride: 1
  }
}
layer {
  name: "bn4b_branch2a"
  type: "BatchNorm"
  bottom: "res4b_branch2a"
  top: "res4b_branch2a"
  batch_norm_param {
    use_global_stats: true
  }
}
layer {
  name: "scale4b_branch2a"
  type: "Scale"
  bottom: "res4b_branch2a"
  top: "res4b_branch2a"
  scale_param {
    bias_term: true
  }
}
layer {
  name: "res4b_branch2a_relu"
  type: "ReLU"
  bottom: "res4b_branch2a"
  top: "res4b_branch2a"
}
layer {
  name: "res4b_branch2b"
  type: "Convolution"
  bottom: "res4b_branch2a"
  top: "res4b_branch2b"
  convolution_param {
    num_output: 256
    bias_term: false
    pad: 1
    kernel_size: 3
    stride: 1
  }
}
layer {
  name: "bn4b_branch2b"
  type: "BatchNorm"
  bottom: "res4b_branch2b"
  top: "res4b_branch2b"
  batch_norm_param {
    use_global_stats: true
  }
}
layer {
  name: "scale4b_branch2b"
  type: "Scale"
  bottom: "res4b_branch2b"
  top: "res4b_branch2b"
  scale_param {
    bias_term: true
  }
}
layer {
  name: "res4b_branch2b_relu"
  type: "ReLU"
  bottom: "res4b_branch2b"
  top: "res4b_branch2b"
}
layer {
  name: "res4b_branch2c"
  type: "Convolution"
  bottom: "res4b_branch2b"
  top: "res4b_branch2c"
  convolution_param {
    num_output: 1024
    bias_term: false
    pad: 0
    kernel_size: 1
    stride: 1
  }
}
layer {
  name: "bn4b_branch2c"
  type: "BatchNorm"
  bottom: "res4b_branch2c"
  top: "res4b_branch2c"
  batch_norm_param {
    use_global_stats: true
  }
}
layer {
  name: "scale4b_branch2c"
  type: "Scale"
  bottom: "res4b_branch2c"
  top: "res4b_branch2c"
  scale_param {
    bias_term: true
  }
}
layer {
  name: "res4b"
  type: "Eltwise"
  bottom: "res4a"
  bottom: "res4b_branch2c"
  top: "res4b"
}
layer {
  name: "res4b_relu"
  type: "ReLU"
  bottom: "res4b"
  top: "res4b"
}
layer {
  name: "res4c_branch2a"
  type: "Convolution"
  bottom: "res4b"
  top: "res4c_branch2a"
  convolution_param {
    num_output: 256
    bias_term: false
    pad: 0
    kernel_size: 1
    stride: 1
  }
}
layer {
  name: "bn4c_branch2a"
  type: "BatchNorm"
  bottom: "res4c_branch2a"
  top: "res4c_branch2a"
  batch_norm_param {
    use_global_stats: true
  }
}
layer {
  name: "scale4c_branch2a"
  type: "Scale"
  bottom: "res4c_branch2a"
  top: "res4c_branch2a"
  scale_param {
    bias_term: true
  }
}
layer {
  name: "res4c_branch2a_relu"
  type: "ReLU"
  bottom: "res4c_branch2a"
  top: "res4c_branch2a"
}
layer {
  name: "res4c_branch2b"
  type: "Convolution"
  bottom: "res4c_branch2a"
  top: "res4c_branch2b"
  convolution_param {
    num_output: 256
    bias_term: false
    pad: 1
    kernel_size: 3
    stride: 1
  }
}
layer {
  name: "bn4c_branch2b"
  type: "BatchNorm"
  bottom: "res4c_branch2b"
  top: "res4c_branch2b"
  batch_norm_param {
    use_global_stats: true
  }
}
layer {
  name: "scale4c_branch2b"
  type: "Scale"
  bottom: "res4c_branch2b"
  top: "res4c_branch2b"
  scale_param {
    bias_term: true
  }
}
layer {
  name: "res4c_branch2b_relu"
  type: "ReLU"
  bottom: "res4c_branch2b"
  top: "res4c_branch2b"
}
layer {
  name: "res4c_branch2c"
  type: "Convolution"
  bottom: "res4c_branch2b"
  top: "res4c_branch2c"
  convolution_param {
    num_output: 1024
    bias_term: false
    pad: 0
    kernel_size: 1
    stride: 1
  }
}
layer {
  name: "bn4c_branch2c"
  type: "BatchNorm"
  bottom: "res4c_branch2c"
  top: "res4c_branch2c"
  batch_norm_param {
    use_global_stats: true
  }
}
layer {
  name: "scale4c_branch2c"
  type: "Scale"
  bottom: "res4c_branch2c"
  top: "res4c_branch2c"
  scale_param {
    bias_term: true
  }
}
layer {
  name: "res4c"
  type: "Eltwise"
  bottom: "res4b"
  bottom: "res4c_branch2c"
  top: "res4c"
}
layer {
  name: "res4c_relu"
  type: "ReLU"
  bottom: "res4c"
  top: "res4c"
}
layer {
  name: "res4d_branch2a"
  type: "Convolution"
  bottom: "res4c"
  top: "res4d_branch2a"
  convolution_param {
    num_output: 256
    bias_term: false
    pad: 0
    kernel_size: 1
    stride: 1
  }
}
layer {
  name: "bn4d_branch2a"
  type: "BatchNorm"
  bottom: "res4d_branch2a"
  top: "res4d_branch2a"
  batch_norm_param {
    use_global_stats: true
  }
}
layer {
  name: "scale4d_branch2a"
  type: "Scale"
  bottom: "res4d_branch2a"
  top: "res4d_branch2a"
  scale_param {
    bias_term: true
  }
}
layer {
  name: "res4d_branch2a_relu"
  type: "ReLU"
  bottom: "res4d_branch2a"
  top: "res4d_branch2a"
}
layer {
  name: "res4d_branch2b"
  type: "Convolution"
  bottom: "res4d_branch2a"
  top: "res4d_branch2b"
  convolution_param {
    num_output: 256
    bias_term: false
    pad: 1
    kernel_size: 3
    stride: 1
  }
}
layer {
  name: "bn4d_branch2b"
  type: "BatchNorm"
  bottom: "res4d_branch2b"
  top: "res4d_branch2b"
  batch_norm_param {
    use_global_stats: true
  }
}
layer {
  name: "scale4d_branch2b"
  type: "Scale"
  bottom: "res4d_branch2b"
  top: "res4d_branch2b"
  scale_param {
    bias_term: true
  }
}
layer {
  name: "res4d_branch2b_relu"
  type: "ReLU"
  bottom: "res4d_branch2b"
  top: "res4d_branch2b"
}
layer {
  name: "res4d_branch2c"
  type: "Convolution"
  bottom: "res4d_branch2b"
  top: "res4d_branch2c"
  convolution_param {
    num_output: 1024
    bias_term: false
    pad: 0
    kernel_size: 1
    stride: 1
  }
}
layer {
  name: "bn4d_branch2c"
  type: "BatchNorm"
  bottom: "res4d_branch2c"
  top: "res4d_branch2c"
  batch_norm_param {
    use_global_stats: true
  }
}
layer {
  name: "scale4d_branch2c"
  type: "Scale"
  bottom: "res4d_branch2c"
  top: "res4d_branch2c"
  scale_param {
    bias_term: true
  }
}
layer {
  name: "res4d"
  type: "Eltwise"
  bottom: "res4c"
  bottom: "res4d_branch2c"
  top: "res4d"
}
layer {
  name: "res4d_relu"
  type: "ReLU"
  bottom: "res4d"
  top: "res4d"
}
layer {
  name: "res4e_branch2a"
  type: "Convolution"
  bottom: "res4d"
  top: "res4e_branch2a"
  convolution_param {
    num_output: 256
    bias_term: false
    pad: 0
    kernel_size: 1
    stride: 1
  }
}
layer {
  name: "bn4e_branch2a"
  type: "BatchNorm"
  bottom: "res4e_branch2a"
  top: "res4e_branch2a"
  batch_norm_param {
    use_global_stats: true
  }
}
layer {
  name: "scale4e_branch2a"
  type: "Scale"
  bottom: "res4e_branch2a"
  top: "res4e_branch2a"
  scale_param {
    bias_term: true
  }
}
layer {
  name: "res4e_branch2a_relu"
  type: "ReLU"
  bottom: "res4e_branch2a"
  top: "res4e_branch2a"
}
layer {
  name: "res4e_branch2b"
  type: "Convolution"
  bottom: "res4e_branch2a"
  top: "res4e_branch2b"
  convolution_param {
    num_output: 256
    bias_term: false
    pad: 1
    kernel_size: 3
    stride: 1
  }
}
layer {
  name: "bn4e_branch2b"
  type: "BatchNorm"
  bottom: "res4e_branch2b"
  top: "res4e_branch2b"
  batch_norm_param {
    use_global_stats: true
  }
}
layer {
  name: "scale4e_branch2b"
  type: "Scale"
  bottom: "res4e_branch2b"
  top: "res4e_branch2b"
  scale_param {
    bias_term: true
  }
}
layer {
  name: "res4e_branch2b_relu"
  type: "ReLU"
  bottom: "res4e_branch2b"
  top: "res4e_branch2b"
}
layer {
  name: "res4e_branch2c"
  type: "Convolution"
  bottom: "res4e_branch2b"
  top: "res4e_branch2c"
  convolution_param {
    num_output: 1024
    bias_term: false
    pad: 0
    kernel_size: 1
    stride: 1
  }
}
layer {
  name: "bn4e_branch2c"
  type: "BatchNorm"
  bottom: "res4e_branch2c"
  top: "res4e_branch2c"
  batch_norm_param {
    use_global_stats: true
  }
}
layer {
  name: "scale4e_branch2c"
  type: "Scale"
  bottom: "res4e_branch2c"
  top: "res4e_branch2c"
  scale_param {
    bias_term: true
  }
}
layer {
  name: "res4e"
  type: "Eltwise"
  bottom: "res4d"
  bottom: "res4e_branch2c"
  top: "res4e"
}
layer {
  name: "res4e_relu"
  type: "ReLU"
  bottom: "res4e"
  top: "res4e"
}
layer {
  name: "res4f_branch2a"
  type: "Convolution"
  bottom: "res4e"
  top: "res4f_branch2a"
  convolution_param {
    num_output: 256
    bias_term: false
    pad: 0
    kernel_size: 1
    stride: 1
  }
}
layer {
  name: "bn4f_branch2a"
  type: "BatchNorm"
  bottom: "res4f_branch2a"
  top: "res4f_branch2a"
  batch_norm_param {
    use_global_stats: true
  }
}
layer {
  name: "scale4f_branch2a"
  type: "Scale"
  bottom: "res4f_branch2a"
  top: "res4f_branch2a"
  scale_param {
    bias_term: true
  }
}
layer {
  name: "res4f_branch2a_relu"
  type: "ReLU"
  bottom: "res4f_branch2a"
  top: "res4f_branch2a"
}
layer {
  name: "res4f_branch2b"
  type: "Convolution"
  bottom: "res4f_branch2a"
  top: "res4f_branch2b"
  convolution_param {
    num_output: 256
    bias_term: false
    pad: 1
    kernel_size: 3
    stride: 1
  }
}
layer {
  name: "bn4f_branch2b"
  type: "BatchNorm"
  bottom: "res4f_branch2b"
  top: "res4f_branch2b"
  batch_norm_param {
    use_global_stats: true
  }
}
layer {
  name: "scale4f_branch2b"
  type: "Scale"
  bottom: "res4f_branch2b"
  top: "res4f_branch2b"
  scale_param {
    bias_term: true
  }
}
layer {
  name: "res4f_branch2b_relu"
  type: "ReLU"
  bottom: "res4f_branch2b"
  top: "res4f_branch2b"
}
layer {
  name: "res4f_branch2c"
  type: "Convolution"
  bottom: "res4f_branch2b"
  top: "res4f_branch2c"
  convolution_param {
    num_output: 1024
    bias_term: false
    pad: 0
    kernel_size: 1
    stride: 1
  }
}
layer {
  name: "bn4f_branch2c"
  type: "BatchNorm"
  bottom: "res4f_branch2c"
  top: "res4f_branch2c"
  batch_norm_param {
    use_global_stats: true
  }
}
layer {
  name: "scale4f_branch2c"
  type: "Scale"
  bottom: "res4f_branch2c"
  top: "res4f_branch2c"
  scale_param {
    bias_term: true
  }
}
layer {
  name: "res4f"
  type: "Eltwise"
  bottom: "res4e"
  bottom: "res4f_branch2c"
  top: "res4f"
}
layer {
  name: "res4f_relu"
  type: "ReLU"
  bottom: "res4f"
  top: "res4f"
}
layer {
  name: "res5a_branch1"
  type: "Convolution"
  bottom: "res4f"
  top: "res5a_branch1"
  convolution_param {
    num_output: 2048
    bias_term: false
    pad: 0
    kernel_size: 1
    stride: 2
  }
}
layer {
  name: "bn5a_branch1"
  type: "BatchNorm"
  bottom: "res5a_branch1"
  top: "res5a_branch1"
  batch_norm_param {
    use_global_stats: true
  }
}
layer {
  name: "scale5a_branch1"
  type: "Scale"
  bottom: "res5a_branch1"
  top: "res5a_branch1"
  scale_param {
    bias_term: true
  }
}
layer {
  name: "res5a_branch2a"
  type: "Convolution"
  bottom: "res4f"
  top: "res5a_branch2a"
  convolution_param {
    num_output: 512
    bias_term: false
    pad: 0
    kernel_size: 1
    stride: 2
  }
}
layer {
  name: "bn5a_branch2a"
  type: "BatchNorm"
  bottom: "res5a_branch2a"
  top: "res5a_branch2a"
  batch_norm_param {
    use_global_stats: true
  }
}
layer {
  name: "scale5a_branch2a"
  type: "Scale"
  bottom: "res5a_branch2a"
  top: "res5a_branch2a"
  scale_param {
    bias_term: true
  }
}
layer {
  name: "res5a_branch2a_relu"
  type: "ReLU"
  bottom: "res5a_branch2a"
  top: "res5a_branch2a"
}
layer {
  name: "res5a_branch2b"
  type: "Convolution"
  bottom: "res5a_branch2a"
  top: "res5a_branch2b"
  convolution_param {
    num_output: 512
    bias_term: false
    pad: 1
    kernel_size: 3
    stride: 1
  }
}
layer {
  name: "bn5a_branch2b"
  type: "BatchNorm"
  bottom: "res5a_branch2b"
  top: "res5a_branch2b"
  batch_norm_param {
    use_global_stats: true
  }
}
layer {
  name: "scale5a_branch2b"
  type: "Scale"
  bottom: "res5a_branch2b"
  top: "res5a_branch2b"
  scale_param {
    bias_term: true
  }
}
layer {
  name: "res5a_branch2b_relu"
  type: "ReLU"
  bottom: "res5a_branch2b"
  top: "res5a_branch2b"
}
layer {
  name: "res5a_branch2c"
  type: "Convolution"
  bottom: "res5a_branch2b"
  top: "res5a_branch2c"
  convolution_param {
    num_output: 2048
    bias_term: false
    pad: 0
    kernel_size: 1
    stride: 1
  }
}
layer {
  name: "bn5a_branch2c"
  type: "BatchNorm"
  bottom: "res5a_branch2c"
  top: "res5a_branch2c"
  batch_norm_param {
    use_global_stats: true
  }
}
layer {
  name: "scale5a_branch2c"
  type: "Scale"
  bottom
I1029 12:33:46.267376 26341 layer_factory.hpp:77] Creating layer data
I1029 12:33:46.267395 26341 net.cpp:84] Creating Layer data
I1029 12:33:46.267402 26341 net.cpp:380] data -> data
I1029 12:33:46.267427 26341 net.cpp:380] data -> label
I1029 12:33:46.267442 26341 hdf5_data_layer.cpp:80] Loading list of HDF5 filenames from: ./train.txt
I1029 12:33:46.267482 26341 hdf5_data_layer.cpp:94] Number of HDF5 files: 1
I1029 12:33:46.269675 26341 hdf5.cpp:32] Datatype class: H5T_FLOAT
I1029 12:33:47.331202 26341 net.cpp:122] Setting up data
I1029 12:33:47.331251 26341 net.cpp:129] Top shape: 20 3 224 224 (3010560)
I1029 12:33:47.331262 26341 net.cpp:129] Top shape: 20 (20)
I1029 12:33:47.331269 26341 net.cpp:137] Memory required for data: 12042320
I1029 12:33:47.331284 26341 layer_factory.hpp:77] Creating layer conv1
I1029 12:33:47.331315 26341 net.cpp:84] Creating Layer conv1
I1029 12:33:47.331323 26341 net.cpp:406] conv1 <- data
I1029 12:33:47.331342 26341 net.cpp:380] conv1 -> conv1
I1029 12:33:47.639096 26341 net.cpp:122] Setting up conv1
I1029 12:33:47.639138 26341 net.cpp:129] Top shape: 20 64 112 112 (16056320)
I1029 12:33:47.639144 26341 net.cpp:137] Memory required for data: 76267600
I1029 12:33:47.639179 26341 layer_factory.hpp:77] Creating layer bn_conv1
I1029 12:33:47.639197 26341 net.cpp:84] Creating Layer bn_conv1
I1029 12:33:47.639204 26341 net.cpp:406] bn_conv1 <- conv1
I1029 12:33:47.639212 26341 net.cpp:367] bn_conv1 -> conv1 (in-place)
I1029 12:33:47.639451 26341 net.cpp:122] Setting up bn_conv1
I1029 12:33:47.639459 26341 net.cpp:129] Top shape: 20 64 112 112 (16056320)
I1029 12:33:47.639464 26341 net.cpp:137] Memory required for data: 140492880
I1029 12:33:47.639478 26341 layer_factory.hpp:77] Creating layer scale_conv1
I1029 12:33:47.639488 26341 net.cpp:84] Creating Layer scale_conv1
I1029 12:33:47.639493 26341 net.cpp:406] scale_conv1 <- conv1
I1029 12:33:47.639499 26341 net.cpp:367] scale_conv1 -> conv1 (in-place)
I1029 12:33:47.639545 26341 layer_factory.hpp:77] Creating layer scale_conv1
I1029 12:33:47.639721 26341 net.cpp:122] Setting up scale_conv1
I1029 12:33:47.639744 26341 net.cpp:129] Top shape: 20 64 112 112 (16056320)
I1029 12:33:47.639751 26341 net.cpp:137] Memory required for data: 204718160
I1029 12:33:47.639760 26341 layer_factory.hpp:77] Creating layer conv1_relu
I1029 12:33:47.639770 26341 net.cpp:84] Creating Layer conv1_relu
I1029 12:33:47.639775 26341 net.cpp:406] conv1_relu <- conv1
I1029 12:33:47.639780 26341 net.cpp:367] conv1_relu -> conv1 (in-place)
I1029 12:33:47.639998 26341 net.cpp:122] Setting up conv1_relu
I1029 12:33:47.640007 26341 net.cpp:129] Top shape: 20 64 112 112 (16056320)
I1029 12:33:47.640012 26341 net.cpp:137] Memory required for data: 268943440
I1029 12:33:47.640017 26341 layer_factory.hpp:77] Creating layer pool1
I1029 12:33:47.640025 26341 net.cpp:84] Creating Layer pool1
I1029 12:33:47.640029 26341 net.cpp:406] pool1 <- conv1
I1029 12:33:47.640036 26341 net.cpp:380] pool1 -> pool1
I1029 12:33:47.640086 26341 net.cpp:122] Setting up pool1
I1029 12:33:47.640094 26341 net.cpp:129] Top shape: 20 64 56 56 (4014080)
I1029 12:33:47.640100 26341 net.cpp:137] Memory required for data: 284999760
I1029 12:33:47.640105 26341 layer_factory.hpp:77] Creating layer pool1_pool1_0_split
I1029 12:33:47.640112 26341 net.cpp:84] Creating Layer pool1_pool1_0_split
I1029 12:33:47.640116 26341 net.cpp:406] pool1_pool1_0_split <- pool1
I1029 12:33:47.640123 26341 net.cpp:380] pool1_pool1_0_split -> pool1_pool1_0_split_0
I1029 12:33:47.640133 26341 net.cpp:380] pool1_pool1_0_split -> pool1_pool1_0_split_1
I1029 12:33:47.640169 26341 net.cpp:122] Setting up pool1_pool1_0_split
I1029 12:33:47.640178 26341 net.cpp:129] Top shape: 20 64 56 56 (4014080)
I1029 12:33:47.640184 26341 net.cpp:129] Top shape: 20 64 56 56 (4014080)
I1029 12:33:47.640189 26341 net.cpp:137] Memory required for data: 317112400
I1029 12:33:47.640193 26341 layer_factory.hpp:77] Creating layer res2a_branch1
I1029 12:33:47.640205 26341 net.cpp:84] Creating Layer res2a_branch1
I1029 12:33:47.640209 26341 net.cpp:406] res2a_branch1 <- pool1_pool1_0_split_0
I1029 12:33:47.640218 26341 net.cpp:380] res2a_branch1 -> res2a_branch1
I1029 12:33:47.641376 26341 net.cpp:122] Setting up res2a_branch1
I1029 12:33:47.641391 26341 net.cpp:129] Top shape: 20 256 56 56 (16056320)
I1029 12:33:47.641396 26341 net.cpp:137] Memory required for data: 381337680
I1029 12:33:47.641403 26341 layer_factory.hpp:77] Creating layer bn2a_branch1
I1029 12:33:47.641415 26341 net.cpp:84] Creating Layer bn2a_branch1
I1029 12:33:47.641422 26341 net.cpp:406] bn2a_branch1 <- res2a_branch1
I1029 12:33:47.641429 26341 net.cpp:367] bn2a_branch1 -> res2a_branch1 (in-place)
I1029 12:33:47.642961 26341 net.cpp:122] Setting up bn2a_branch1
I1029 12:33:47.643004 26341 net.cpp:129] Top shape: 20 256 56 56 (16056320)
I1029 12:33:47.643010 26341 net.cpp:137] Memory required for data: 445562960
I1029 12:33:47.643044 26341 layer_factory.hpp:77] Creating layer scale2a_branch1
I1029 12:33:47.643060 26341 net.cpp:84] Creating Layer scale2a_branch1
I1029 12:33:47.643066 26341 net.cpp:406] scale2a_branch1 <- res2a_branch1
I1029 12:33:47.643075 26341 net.cpp:367] scale2a_branch1 -> res2a_branch1 (in-place)
I1029 12:33:47.643131 26341 layer_factory.hpp:77] Creating layer scale2a_branch1
I1029 12:33:47.643256 26341 net.cpp:122] Setting up scale2a_branch1
I1029 12:33:47.643265 26341 net.cpp:129] Top shape: 20 256 56 56 (16056320)
I1029 12:33:47.643270 26341 net.cpp:137] Memory required for data: 509788240
I1029 12:33:47.643278 26341 layer_factory.hpp:77] Creating layer res2a_branch2a
I1029 12:33:47.643291 26341 net.cpp:84] Creating Layer res2a_branch2a
I1029 12:33:47.643298 26341 net.cpp:406] res2a_branch2a <- pool1_pool1_0_split_1
I1029 12:33:47.643307 26341 net.cpp:380] res2a_branch2a -> res2a_branch2a
I1029 12:33:47.644539 26341 net.cpp:122] Setting up res2a_branch2a
I1029 12:33:47.644575 26341 net.cpp:129] Top shape: 20 64 56 56 (4014080)
I1029 12:33:47.644582 26341 net.cpp:137] Memory required for data: 525844560
I1029 12:33:47.644589 26341 layer_factory.hpp:77] Creating layer bn2a_branch2a
I1029 12:33:47.644623 26341 net.cpp:84] Creating Layer bn2a_branch2a
I1029 12:33:47.644629 26341 net.cpp:406] bn2a_branch2a <- res2a_branch2a
I1029 12:33:47.644635 26341 net.cpp:367] bn2a_branch2a -> res2a_branch2a (in-place)
I1029 12:33:47.644861 26341 net.cpp:122] Setting up bn2a_branch2a
I1029 12:33:47.644870 26341 net.cpp:129] Top shape: 20 64 56 56 (4014080)
I1029 12:33:47.644875 26341 net.cpp:137] Memory required for data: 541900880
I1029 12:33:47.644891 26341 layer_factory.hpp:77] Creating layer scale2a_branch2a
I1029 12:33:47.644899 26341 net.cpp:84] Creating Layer scale2a_branch2a
I1029 12:33:47.644903 26341 net.cpp:406] scale2a_branch2a <- res2a_branch2a
I1029 12:33:47.644911 26341 net.cpp:367] scale2a_branch2a -> res2a_branch2a (in-place)
I1029 12:33:47.644954 26341 layer_factory.hpp:77] Creating layer scale2a_branch2a
I1029 12:33:47.645097 26341 net.cpp:122] Setting up scale2a_branch2a
I1029 12:33:47.645107 26341 net.cpp:129] Top shape: 20 64 56 56 (4014080)
I1029 12:33:47.645112 26341 net.cpp:137] Memory required for data: 557957200
I1029 12:33:47.645120 26341 layer_factory.hpp:77] Creating layer res2a_branch2a_relu
I1029 12:33:47.645129 26341 net.cpp:84] Creating Layer res2a_branch2a_relu
I1029 12:33:47.645134 26341 net.cpp:406] res2a_branch2a_relu <- res2a_branch2a
I1029 12:33:47.645141 26341 net.cpp:367] res2a_branch2a_relu -> res2a_branch2a (in-place)
I1029 12:33:47.645345 26341 net.cpp:122] Setting up res2a_branch2a_relu
I1029 12:33:47.645356 26341 net.cpp:129] Top shape: 20 64 56 56 (4014080)
I1029 12:33:47.645362 26341 net.cpp:137] Memory required for data: 574013520
I1029 12:33:47.645366 26341 layer_factory.hpp:77] Creating layer res2a_branch2b
I1029 12:33:47.645377 26341 net.cpp:84] Creating Layer res2a_branch2b
I1029 12:33:47.645383 26341 net.cpp:406] res2a_branch2b <- res2a_branch2a
I1029 12:33:47.645390 26341 net.cpp:380] res2a_branch2b -> res2a_branch2b
I1029 12:33:47.648283 26341 net.cpp:122] Setting up res2a_branch2b
I1029 12:33:47.648321 26341 net.cpp:129] Top shape: 20 64 56 56 (4014080)
I1029 12:33:47.648327 26341 net.cpp:137] Memory required for data: 590069840
I1029 12:33:47.648341 26341 layer_factory.hpp:77] Creating layer bn2a_branch2b
I1029 12:33:47.648360 26341 net.cpp:84] Creating Layer bn2a_branch2b
I1029 12:33:47.648367 26341 net.cpp:406] bn2a_branch2b <- res2a_branch2b
I1029 12:33:47.648378 26341 net.cpp:367] bn2a_branch2b -> res2a_branch2b (in-place)
I1029 12:33:47.648612 26341 net.cpp:122] Setting up bn2a_branch2b
I1029 12:33:47.648623 26341 net.cpp:129] Top shape: 20 64 56 56 (4014080)
I1029 12:33:47.648630 26341 net.cpp:137] Memory required for data: 606126160
I1029 12:33:47.648640 26341 layer_factory.hpp:77] Creating layer scale2a_branch2b
I1029 12:33:47.648656 26341 net.cpp:84] Creating Layer scale2a_branch2b
I1029 12:33:47.648663 26341 net.cpp:406] scale2a_branch2b <- res2a_branch2b
I1029 12:33:47.648669 26341 net.cpp:367] scale2a_branch2b -> res2a_branch2b (in-place)
I1029 12:33:47.648716 26341 layer_factory.hpp:77] Creating layer scale2a_branch2b
I1029 12:33:47.648859 26341 net.cpp:122] Setting up scale2a_branch2b
I1029 12:33:47.648870 26341 net.cpp:129] Top shape: 20 64 56 56 (4014080)
I1029 12:33:47.648874 26341 net.cpp:137] Memory required for data: 622182480
I1029 12:33:47.648882 26341 layer_factory.hpp:77] Creating layer res2a_branch2b_relu
I1029 12:33:47.648892 26341 net.cpp:84] Creating Layer res2a_branch2b_relu
I1029 12:33:47.648900 26341 net.cpp:406] res2a_branch2b_relu <- res2a_branch2b
I1029 12:33:47.648905 26341 net.cpp:367] res2a_branch2b_relu -> res2a_branch2b (in-place)
I1029 12:33:47.649104 26341 net.cpp:122] Setting up res2a_branch2b_relu
I1029 12:33:47.649113 26341 net.cpp:129] Top shape: 20 64 56 56 (4014080)
I1029 12:33:47.649117 26341 net.cpp:137] Memory required for data: 638238800
I1029 12:33:47.649121 26341 layer_factory.hpp:77] Creating layer res2a_branch2c
I1029 12:33:47.649133 26341 net.cpp:84] Creating Layer res2a_branch2c
I1029 12:33:47.649138 26341 net.cpp:406] res2a_branch2c <- res2a_branch2b
I1029 12:33:47.649148 26341 net.cpp:380] res2a_branch2c -> res2a_branch2c
I1029 12:33:47.650374 26341 net.cpp:122] Setting up res2a_branch2c
I1029 12:33:47.650399 26341 net.cpp:129] Top shape: 20 256 56 56 (16056320)
I1029 12:33:47.650404 26341 net.cpp:137] Memory required for data: 702464080
I1029 12:33:47.650413 26341 layer_factory.hpp:77] Creating layer bn2a_branch2c
I1029 12:33:47.650423 26341 net.cpp:84] Creating Layer bn2a_branch2c
I1029 12:33:47.650427 26341 net.cpp:406] bn2a_branch2c <- res2a_branch2c
I1029 12:33:47.650436 26341 net.cpp:367] bn2a_branch2c -> res2a_branch2c (in-place)
I1029 12:33:47.650665 26341 net.cpp:122] Setting up bn2a_branch2c
I1029 12:33:47.650672 26341 net.cpp:129] Top shape: 20 256 56 56 (16056320)
I1029 12:33:47.650677 26341 net.cpp:137] Memory required for data: 766689360
I1029 12:33:47.650686 26341 layer_factory.hpp:77] Creating layer scale2a_branch2c
I1029 12:33:47.650694 26341 net.cpp:84] Creating Layer scale2a_branch2c
I1029 12:33:47.650698 26341 net.cpp:406] scale2a_branch2c <- res2a_branch2c
I1029 12:33:47.650704 26341 net.cpp:367] scale2a_branch2c -> res2a_branch2c (in-place)
I1029 12:33:47.650748 26341 layer_factory.hpp:77] Creating layer scale2a_branch2c
I1029 12:33:47.650887 26341 net.cpp:122] Setting up scale2a_branch2c
I1029 12:33:47.650897 26341 net.cpp:129] Top shape: 20 256 56 56 (16056320)
I1029 12:33:47.650902 26341 net.cpp:137] Memory required for data: 830914640
I1029 12:33:47.650912 26341 layer_factory.hpp:77] Creating layer res2a
I1029 12:33:47.650920 26341 net.cpp:84] Creating Layer res2a
I1029 12:33:47.650925 26341 net.cpp:406] res2a <- res2a_branch1
I1029 12:33:47.650931 26341 net.cpp:406] res2a <- res2a_branch2c
I1029 12:33:47.650940 26341 net.cpp:380] res2a -> res2a
I1029 12:33:47.650972 26341 net.cpp:122] Setting up res2a
I1029 12:33:47.650979 26341 net.cpp:129] Top shape: 20 256 56 56 (16056320)
I1029 12:33:47.650984 26341 net.cpp:137] Memory required for data: 895139920
I1029 12:33:47.650987 26341 layer_factory.hpp:77] Creating layer res2a_relu
I1029 12:33:47.650995 26341 net.cpp:84] Creating Layer res2a_relu
I1029 12:33:47.650998 26341 net.cpp:406] res2a_relu <- res2a
I1029 12:33:47.651006 26341 net.cpp:367] res2a_relu -> res2a (in-place)
I1029 12:33:47.651247 26341 net.cpp:122] Setting up res2a_relu
I1029 12:33:47.651258 26341 net.cpp:129] Top shape: 20 256 56 56 (16056320)
I1029 12:33:47.651262 26341 net.cpp:137] Memory required for data: 959365200
I1029 12:33:47.651266 26341 layer_factory.hpp:77] Creating layer res2a_res2a_relu_0_split
I1029 12:33:47.651275 26341 net.cpp:84] Creating Layer res2a_res2a_relu_0_split
I1029 12:33:47.651279 26341 net.cpp:406] res2a_res2a_relu_0_split <- res2a
I1029 12:33:47.651288 26341 net.cpp:380] res2a_res2a_relu_0_split -> res2a_res2a_relu_0_split_0
I1029 12:33:47.651298 26341 net.cpp:380] res2a_res2a_relu_0_split -> res2a_res2a_relu_0_split_1
I1029 12:33:47.651341 26341 net.cpp:122] Setting up res2a_res2a_relu_0_split
I1029 12:33:47.651396 26341 net.cpp:129] Top shape: 20 256 56 56 (16056320)
I1029 12:33:47.651414 26341 net.cpp:129] Top shape: 20 256 56 56 (16056320)
I1029 12:33:47.651430 26341 net.cpp:137] Memory required for data: 1087815760
I1029 12:33:47.651445 26341 layer_factory.hpp:77] Creating layer res2b_branch2a
I1029 12:33:47.651468 26341 net.cpp:84] Creating Layer res2b_branch2a
I1029 12:33:47.651484 26341 net.cpp:406] res2b_branch2a <- res2a_res2a_relu_0_split_0
I1029 12:33:47.651502 26341 net.cpp:380] res2b_branch2a -> res2b_branch2a
I1029 12:33:47.653070 26341 net.cpp:122] Setting up res2b_branch2a
I1029 12:33:47.653110 26341 net.cpp:129] Top shape: 20 64 56 56 (4014080)
I1029 12:33:47.653115 26341 net.cpp:137] Memory required for data: 1103872080
I1029 12:33:47.653128 26341 layer_factory.hpp:77] Creating layer bn2b_branch2a
I1029 12:33:47.653144 26341 net.cpp:84] Creating Layer bn2b_branch2a
I1029 12:33:47.653152 26341 net.cpp:406] bn2b_branch2a <- res2b_branch2a
I1029 12:33:47.653164 26341 net.cpp:367] bn2b_branch2a -> res2b_branch2a (in-place)
I1029 12:33:47.653406 26341 net.cpp:122] Setting up bn2b_branch2a
I1029 12:33:47.653415 26341 net.cpp:129] Top shape: 20 64 56 56 (4014080)
I1029 12:33:47.653435 26341 net.cpp:137] Memory required for data: 1119928400
I1029 12:33:47.653458 26341 layer_factory.hpp:77] Creating layer scale2b_branch2a
I1029 12:33:47.653470 26341 net.cpp:84] Creating Layer scale2b_branch2a
I1029 12:33:47.653475 26341 net.cpp:406] scale2b_branch2a <- res2b_branch2a
I1029 12:33:47.653484 26341 net.cpp:367] scale2b_branch2a -> res2b_branch2a (in-place)
I1029 12:33:47.653533 26341 layer_factory.hpp:77] Creating layer scale2b_branch2a
I1029 12:33:47.653667 26341 net.cpp:122] Setting up scale2b_branch2a
I1029 12:33:47.653676 26341 net.cpp:129] Top shape: 20 64 56 56 (4014080)
I1029 12:33:47.653681 26341 net.cpp:137] Memory required for data: 1135984720
I1029 12:33:47.653688 26341 layer_factory.hpp:77] Creating layer res2b_branch2a_relu
I1029 12:33:47.653697 26341 net.cpp:84] Creating Layer res2b_branch2a_relu
I1029 12:33:47.653700 26341 net.cpp:406] res2b_branch2a_relu <- res2b_branch2a
I1029 12:33:47.653708 26341 net.cpp:367] res2b_branch2a_relu -> res2b_branch2a (in-place)
I1029 12:33:47.653959 26341 net.cpp:122] Setting up res2b_branch2a_relu
I1029 12:33:47.653981 26341 net.cpp:129] Top shape: 20 64 56 56 (4014080)
I1029 12:33:47.653997 26341 net.cpp:137] Memory required for data: 1152041040
I1029 12:33:47.654005 26341 layer_factory.hpp:77] Creating layer res2b_branch2b
I1029 12:33:47.654018 26341 net.cpp:84] Creating Layer res2b_branch2b
I1029 12:33:47.654024 26341 net.cpp:406] res2b_branch2b <- res2b_branch2a
I1029 12:33:47.654032 26341 net.cpp:380] res2b_branch2b -> res2b_branch2b
I1029 12:33:47.655411 26341 net.cpp:122] Setting up res2b_branch2b
I1029 12:33:47.655431 26341 net.cpp:129] Top shape: 20 64 56 56 (4014080)
I1029 12:33:47.655436 26341 net.cpp:137] Memory required for data: 1168097360
I1029 12:33:47.655445 26341 layer_factory.hpp:77] Creating layer bn2b_branch2b
I1029 12:33:47.655459 26341 net.cpp:84] Creating Layer bn2b_branch2b
I1029 12:33:47.655467 26341 net.cpp:406] bn2b_branch2b <- res2b_branch2b
I1029 12:33:47.655477 26341 net.cpp:367] bn2b_branch2b -> res2b_branch2b (in-place)
I1029 12:33:47.655714 26341 net.cpp:122] Setting up bn2b_branch2b
I1029 12:33:47.655738 26341 net.cpp:129] Top shape: 20 64 56 56 (4014080)
I1029 12:33:47.655745 26341 net.cpp:137] Memory required for data: 1184153680
I1029 12:33:47.655756 26341 layer_factory.hpp:77] Creating layer scale2b_branch2b
I1029 12:33:47.655766 26341 net.cpp:84] Creating Layer scale2b_branch2b
I1029 12:33:47.655773 26341 net.cpp:406] scale2b_branch2b <- res2b_branch2b
I1029 12:33:47.655779 26341 net.cpp:367] scale2b_branch2b -> res2b_branch2b (in-place)
I1029 12:33:47.655827 26341 layer_factory.hpp:77] Creating layer scale2b_branch2b
I1029 12:33:47.655974 26341 net.cpp:122] Setting up scale2b_branch2b
I1029 12:33:47.655994 26341 net.cpp:129] Top shape: 20 64 56 56 (4014080)
I1029 12:33:47.656010 26341 net.cpp:137] Memory required for data: 1200210000
I1029 12:33:47.656029 26341 layer_factory.hpp:77] Creating layer res2b_branch2b_relu
I1029 12:33:47.656038 26341 net.cpp:84] Creating Layer res2b_branch2b_relu
I1029 12:33:47.656044 26341 net.cpp:406] res2b_branch2b_relu <- res2b_branch2b
I1029 12:33:47.656054 26341 net.cpp:367] res2b_branch2b_relu -> res2b_branch2b (in-place)
I1029 12:33:47.656612 26341 net.cpp:122] Setting up res2b_branch2b_relu
I1029 12:33:47.656625 26341 net.cpp:129] Top shape: 20 64 56 56 (4014080)
I1029 12:33:47.656630 26341 net.cpp:137] Memory required for data: 1216266320
I1029 12:33:47.656635 26341 layer_factory.hpp:77] Creating layer res2b_branch2c
I1029 12:33:47.656659 26341 net.cpp:84] Creating Layer res2b_branch2c
I1029 12:33:47.656678 26341 net.cpp:406] res2b_branch2c <- res2b_branch2b
I1029 12:33:47.656689 26341 net.cpp:380] res2b_branch2c -> res2b_branch2c
I1029 12:33:47.657884 26341 net.cpp:122] Setting up res2b_branch2c
I1029 12:33:47.657902 26341 net.cpp:129] Top shape: 20 256 56 56 (16056320)
I1029 12:33:47.657907 26341 net.cpp:137] Memory required for data: 1280491600
I1029 12:33:47.657914 26341 layer_factory.hpp:77] Creating layer bn2b_branch2c
I1029 12:33:47.657945 26341 net.cpp:84] Creating Layer bn2b_branch2c
I1029 12:33:47.657951 26341 net.cpp:406] bn2b_branch2c <- res2b_branch2c
I1029 12:33:47.657961 26341 net.cpp:367] bn2b_branch2c -> res2b_branch2c (in-place)
I1029 12:33:47.658191 26341 net.cpp:122] Setting up bn2b_branch2c
I1029 12:33:47.658203 26341 net.cpp:129] Top shape: 20 256 56 56 (16056320)
I1029 12:33:47.658210 26341 net.cpp:137] Memory required for data: 1344716880
I1029 12:33:47.658221 26341 layer_factory.hpp:77] Creating layer scale2b_branch2c
I1029 12:33:47.658231 26341 net.cpp:84] Creating Layer scale2b_branch2c
I1029 12:33:47.658236 26341 net.cpp:406] scale2b_branch2c <- res2b_branch2c
I1029 12:33:47.658243 26341 net.cpp:367] scale2b_branch2c -> res2b_branch2c (in-place)
I1029 12:33:47.658288 26341 layer_factory.hpp:77] Creating layer scale2b_branch2c
I1029 12:33:47.658421 26341 net.cpp:122] Setting up scale2b_branch2c
I1029 12:33:47.658429 26341 net.cpp:129] Top shape: 20 256 56 56 (16056320)
I1029 12:33:47.658433 26341 net.cpp:137] Memory required for data: 1408942160
I1029 12:33:47.658442 26341 layer_factory.hpp:77] Creating layer res2b
I1029 12:33:47.658452 26341 net.cpp:84] Creating Layer res2b
I1029 12:33:47.658457 26341 net.cpp:406] res2b <- res2a_res2a_relu_0_split_1
I1029 12:33:47.658463 26341 net.cpp:406] res2b <- res2b_branch2c
I1029 12:33:47.658470 26341 net.cpp:380] res2b -> res2b
I1029 12:33:47.658501 26341 net.cpp:122] Setting up res2b
I1029 12:33:47.658509 26341 net.cpp:129] Top shape: 20 256 56 56 (16056320)
I1029 12:33:47.658514 26341 net.cpp:137] Memory required for data: 1473167440
I1029 12:33:47.658517 26341 layer_factory.hpp:77] Creating layer res2b_relu
I1029 12:33:47.658529 26341 net.cpp:84] Creating Layer res2b_relu
I1029 12:33:47.658535 26341 net.cpp:406] res2b_relu <- res2b
I1029 12:33:47.658540 26341 net.cpp:367] res2b_relu -> res2b (in-place)
I1029 12:33:47.658743 26341 net.cpp:122] Setting up res2b_relu
I1029 12:33:47.658752 26341 net.cpp:129] Top shape: 20 256 56 56 (16056320)
I1029 12:33:47.658757 26341 net.cpp:137] Memory required for data: 1537392720
I1029 12:33:47.658761 26341 layer_factory.hpp:77] Creating layer res2b_res2b_relu_0_split
I1029 12:33:47.658769 26341 net.cpp:84] Creating Layer res2b_res2b_relu_0_split
I1029 12:33:47.658773 26341 net.cpp:406] res2b_res2b_relu_0_split <- res2b
I1029 12:33:47.658782 26341 net.cpp:380] res2b_res2b_relu_0_split -> res2b_res2b_relu_0_split_0
I1029 12:33:47.658792 26341 net.cpp:380] res2b_res2b_relu_0_split -> res2b_res2b_relu_0_split_1
I1029 12:33:47.658833 26341 net.cpp:122] Setting up res2b_res2b_relu_0_split
I1029 12:33:47.658840 26341 net.cpp:129] Top shape: 20 256 56 56 (16056320)
I1029 12:33:47.658848 26341 net.cpp:129] Top shape: 20 256 56 56 (16056320)
I1029 12:33:47.658854 26341 net.cpp:137] Memory required for data: 1665843280
I1029 12:33:47.658859 26341 layer_factory.hpp:77] Creating layer res2c_branch2a
I1029 12:33:47.658871 26341 net.cpp:84] Creating Layer res2c_branch2a
I1029 12:33:47.658877 26341 net.cpp:406] res2c_branch2a <- res2b_res2b_relu_0_split_0
I1029 12:33:47.658885 26341 net.cpp:380] res2c_branch2a -> res2c_branch2a
I1029 12:33:47.660097 26341 net.cpp:122] Setting up res2c_branch2a
I1029 12:33:47.660115 26341 net.cpp:129] Top shape: 20 64 56 56 (4014080)
I1029 12:33:47.660120 26341 net.cpp:137] Memory required for data: 1681899600
I1029 12:33:47.660127 26341 layer_factory.hpp:77] Creating layer bn2c_branch2a
I1029 12:33:47.660137 26341 net.cpp:84] Creating Layer bn2c_branch2a
I1029 12:33:47.660143 26341 net.cpp:406] bn2c_branch2a <- res2c_branch2a
I1029 12:33:47.660153 26341 net.cpp:367] bn2c_branch2a -> res2c_branch2a (in-place)
I1029 12:33:47.660387 26341 net.cpp:122] Setting up bn2c_branch2a
I1029 12:33:47.660395 26341 net.cpp:129] Top shape: 20 64 56 56 (4014080)
I1029 12:33:47.660400 26341 net.cpp:137] Memory required for data: 1697955920
I1029 12:33:47.660410 26341 layer_factory.hpp:77] Creating layer scale2c_branch2a
I1029 12:33:47.660419 26341 net.cpp:84] Creating Layer scale2c_branch2a
I1029 12:33:47.660423 26341 net.cpp:406] scale2c_branch2a <- res2c_branch2a
I1029 12:33:47.660446 26341 net.cpp:367] scale2c_branch2a -> res2c_branch2a (in-place)
I1029 12:33:47.660493 26341 layer_factory.hpp:77] Creating layer scale2c_branch2a
I1029 12:33:47.660632 26341 net.cpp:122] Setting up scale2c_branch2a
I1029 12:33:47.660641 26341 net.cpp:129] Top shape: 20 64 56 56 (4014080)
I1029 12:33:47.660645 26341 net.cpp:137] Memory required for data: 1714012240
I1029 12:33:47.660653 26341 layer_factory.hpp:77] Creating layer res2c_branch2a_relu
I1029 12:33:47.660663 26341 net.cpp:84] Creating Layer res2c_branch2a_relu
I1029 12:33:47.660670 26341 net.cpp:406] res2c_branch2a_relu <- res2c_branch2a
I1029 12:33:47.660676 26341 net.cpp:367] res2c_branch2a_relu -> res2c_branch2a (in-place)
I1029 12:33:47.660867 26341 net.cpp:122] Setting up res2c_branch2a_relu
I1029 12:33:47.660877 26341 net.cpp:129] Top shape: 20 64 56 56 (4014080)
I1029 12:33:47.660882 26341 net.cpp:137] Memory required for data: 1730068560
I1029 12:33:47.660887 26341 layer_factory.hpp:77] Creating layer res2c_branch2b
I1029 12:33:47.660897 26341 net.cpp:84] Creating Layer res2c_branch2b
I1029 12:33:47.660902 26341 net.cpp:406] res2c_branch2b <- res2c_branch2a
I1029 12:33:47.660912 26341 net.cpp:380] res2c_branch2b -> res2c_branch2b
I1029 12:33:47.662413 26341 net.cpp:122] Setting up res2c_branch2b
I1029 12:33:47.662431 26341 net.cpp:129] Top shape: 20 64 56 56 (4014080)
I1029 12:33:47.662436 26341 net.cpp:137] Memory required for data: 1746124880
I1029 12:33:47.662446 26341 layer_factory.hpp:77] Creating layer bn2c_branch2b
I1029 12:33:47.662454 26341 net.cpp:84] Creating Layer bn2c_branch2b
I1029 12:33:47.662461 26341 net.cpp:406] bn2c_branch2b <- res2c_branch2b
I1029 12:33:47.662470 26341 net.cpp:367] bn2c_branch2b -> res2c_branch2b (in-place)
I1029 12:33:47.662709 26341 net.cpp:122] Setting up bn2c_branch2b
I1029 12:33:47.662717 26341 net.cpp:129] Top shape: 20 64 56 56 (4014080)
I1029 12:33:47.662722 26341 net.cpp:137] Memory required for data: 1762181200
I1029 12:33:47.662732 26341 layer_factory.hpp:77] Creating layer scale2c_branch2b
I1029 12:33:47.662744 26341 net.cpp:84] Creating Layer scale2c_branch2b
I1029 12:33:47.662750 26341 net.cpp:406] scale2c_branch2b <- res2c_branch2b
I1029 12:33:47.662756 26341 net.cpp:367] scale2c_branch2b -> res2c_branch2b (in-place)
I1029 12:33:47.662801 26341 layer_factory.hpp:77] Creating layer scale2c_branch2b
I1029 12:33:47.662940 26341 net.cpp:122] Setting up scale2c_branch2b
I1029 12:33:47.662947 26341 net.cpp:129] Top shape: 20 64 56 56 (4014080)
I1029 12:33:47.662951 26341 net.cpp:137] Memory required for data: 1778237520
I1029 12:33:47.662959 26341 layer_factory.hpp:77] Creating layer res2c_branch2b_relu
I1029 12:33:47.662968 26341 net.cpp:84] Creating Layer res2c_branch2b_relu
I1029 12:33:47.662974 26341 net.cpp:406] res2c_branch2b_relu <- res2c_branch2b
I1029 12:33:47.662983 26341 net.cpp:367] res2c_branch2b_relu -> res2c_branch2b (in-place)
I1029 12:33:47.663182 26341 net.cpp:122] Setting up res2c_branch2b_relu
I1029 12:33:47.663192 26341 net.cpp:129] Top shape: 20 64 56 56 (4014080)
I1029 12:33:47.663197 26341 net.cpp:137] Memory required for data: 1794293840
I1029 12:33:47.663202 26341 layer_factory.hpp:77] Creating layer res2c_branch2c
I1029 12:33:47.663211 26341 net.cpp:84] Creating Layer res2c_branch2c
I1029 12:33:47.663218 26341 net.cpp:406] res2c_branch2c <- res2c_branch2b
I1029 12:33:47.663228 26341 net.cpp:380] res2c_branch2c -> res2c_branch2c
I1029 12:33:47.664387 26341 net.cpp:122] Setting up res2c_branch2c
I1029 12:33:47.664404 26341 net.cpp:129] Top shape: 20 256 56 56 (16056320)
I1029 12:33:47.664409 26341 net.cpp:137] Memory required for data: 1858519120
I1029 12:33:47.664417 26341 layer_factory.hpp:77] Creating layer bn2c_branch2c
I1029 12:33:47.664427 26341 net.cpp:84] Creating Layer bn2c_branch2c
I1029 12:33:47.664433 26341 net.cpp:406] bn2c_branch2c <- res2c_branch2c
I1029 12:33:47.664443 26341 net.cpp:367] bn2c_branch2c -> res2c_branch2c (in-place)
I1029 12:33:47.664667 26341 net.cpp:122] Setting up bn2c_branch2c
I1029 12:33:47.664677 26341 net.cpp:129] Top shape: 20 256 56 56 (16056320)
I1029 12:33:47.664696 26341 net.cpp:137] Memory required for data: 1922744400
I1029 12:33:47.664724 26341 layer_factory.hpp:77] Creating layer scale2c_branch2c
I1029 12:33:47.664736 26341 net.cpp:84] Creating Layer scale2c_branch2c
I1029 12:33:47.664741 26341 net.cpp:406] scale2c_branch2c <- res2c_branch2c
I1029 12:33:47.664748 26341 net.cpp:367] scale2c_branch2c -> res2c_branch2c (in-place)
I1029 12:33:47.664794 26341 layer_factory.hpp:77] Creating layer scale2c_branch2c
I1029 12:33:47.664924 26341 net.cpp:122] Setting up scale2c_branch2c
I1029 12:33:47.664933 26341 net.cpp:129] Top shape: 20 256 56 56 (16056320)
I1029 12:33:47.664937 26341 net.cpp:137] Memory required for data: 1986969680
I1029 12:33:47.664945 26341 layer_factory.hpp:77] Creating layer res2c
I1029 12:33:47.664953 26341 net.cpp:84] Creating Layer res2c
I1029 12:33:47.664960 26341 net.cpp:406] res2c <- res2b_res2b_relu_0_split_1
I1029 12:33:47.664966 26341 net.cpp:406] res2c <- res2c_branch2c
I1029 12:33:47.664974 26341 net.cpp:380] res2c -> res2c
I1029 12:33:47.665001 26341 net.cpp:122] Setting up res2c
I1029 12:33:47.665009 26341 net.cpp:129] Top shape: 20 256 56 56 (16056320)
I1029 12:33:47.665014 26341 net.cpp:137] Memory required for data: 2051194960
I1029 12:33:47.665019 26341 layer_factory.hpp:77] Creating layer res2c_relu
I1029 12:33:47.665027 26341 net.cpp:84] Creating Layer res2c_relu
I1029 12:33:47.665032 26341 net.cpp:406] res2c_relu <- res2c
I1029 12:33:47.665038 26341 net.cpp:367] res2c_relu -> res2c (in-place)
I1029 12:33:47.665244 26341 net.cpp:122] Setting up res2c_relu
I1029 12:33:47.665253 26341 net.cpp:129] Top shape: 20 256 56 56 (16056320)
I1029 12:33:47.665258 26341 net.cpp:137] Memory required for data: 2115420240
I1029 12:33:47.665263 26341 layer_factory.hpp:77] Creating layer res2c_res2c_relu_0_split
I1029 12:33:47.665271 26341 net.cpp:84] Creating Layer res2c_res2c_relu_0_split
I1029 12:33:47.665276 26341 net.cpp:406] res2c_res2c_relu_0_split <- res2c
I1029 12:33:47.665284 26341 net.cpp:380] res2c_res2c_relu_0_split -> res2c_res2c_relu_0_split_0
I1029 12:33:47.665295 26341 net.cpp:380] res2c_res2c_relu_0_split -> res2c_res2c_relu_0_split_1
I1029 12:33:47.665338 26341 net.cpp:122] Setting up res2c_res2c_relu_0_split
I1029 12:33:47.665346 26341 net.cpp:129] Top shape: 20 256 56 56 (16056320)
I1029 12:33:47.665352 26341 net.cpp:129] Top shape: 20 256 56 56 (16056320)
I1029 12:33:47.665359 26341 net.cpp:137] Memory required for data: 2243870800
I1029 12:33:47.665364 26341 layer_factory.hpp:77] Creating layer res3a_branch1
I1029 12:33:47.665375 26341 net.cpp:84] Creating Layer res3a_branch1
I1029 12:33:47.665383 26341 net.cpp:406] res3a_branch1 <- res2c_res2c_relu_0_split_0
I1029 12:33:47.665390 26341 net.cpp:380] res3a_branch1 -> res3a_branch1
I1029 12:33:47.668484 26341 net.cpp:122] Setting up res3a_branch1
I1029 12:33:47.668529 26341 net.cpp:129] Top shape: 20 512 28 28 (8028160)
I1029 12:33:47.668535 26341 net.cpp:137] Memory required for data: 2275983440
I1029 12:33:47.668551 26341 layer_factory.hpp:77] Creating layer bn3a_branch1
I1029 12:33:47.668570 26341 net.cpp:84] Creating Layer bn3a_branch1
I1029 12:33:47.668577 26341 net.cpp:406] bn3a_branch1 <- res3a_branch1
I1029 12:33:47.668587 26341 net.cpp:367] bn3a_branch1 -> res3a_branch1 (in-place)
I1029 12:33:47.668843 26341 net.cpp:122] Setting up bn3a_branch1
I1029 12:33:47.668853 26341 net.cpp:129] Top shape: 20 512 28 28 (8028160)
I1029 12:33:47.668856 26341 net.cpp:137] Memory required for data: 2308096080
I1029 12:33:47.668867 26341 layer_factory.hpp:77] Creating layer scale3a_branch1
I1029 12:33:47.668877 26341 net.cpp:84] Creating Layer scale3a_branch1
I1029 12:33:47.668884 26341 net.cpp:406] scale3a_branch1 <- res3a_branch1
I1029 12:33:47.668892 26341 net.cpp:367] scale3a_branch1 -> res3a_branch1 (in-place)
I1029 12:33:47.668944 26341 layer_factory.hpp:77] Creating layer scale3a_branch1
I1029 12:33:47.669080 26341 net.cpp:122] Setting up scale3a_branch1
I1029 12:33:47.669087 26341 net.cpp:129] Top shape: 20 512 28 28 (8028160)
I1029 12:33:47.669106 26341 net.cpp:137] Memory required for data: 2340208720
I1029 12:33:47.669116 26341 layer_factory.hpp:77] Creating layer res3a_branch2a
I1029 12:33:47.669131 26341 net.cpp:84] Creating Layer res3a_branch2a
I1029 12:33:47.669137 26341 net.cpp:406] res3a_branch2a <- res2c_res2c_relu_0_split_1
I1029 12:33:47.669145 26341 net.cpp:380] res3a_branch2a -> res3a_branch2a
I1029 12:33:47.671022 26341 net.cpp:122] Setting up res3a_branch2a
I1029 12:33:47.671038 26341 net.cpp:129] Top shape: 20 128 28 28 (2007040)
I1029 12:33:47.671043 26341 net.cpp:137] Memory required for data: 2348236880
I1029 12:33:47.671051 26341 layer_factory.hpp:77] Creating layer bn3a_branch2a
I1029 12:33:47.671061 26341 net.cpp:84] Creating Layer bn3a_branch2a
I1029 12:33:47.671068 26341 net.cpp:406] bn3a_branch2a <- res3a_branch2a
I1029 12:33:47.671077 26341 net.cpp:367] bn3a_branch2a -> res3a_branch2a (in-place)
I1029 12:33:47.671306 26341 net.cpp:122] Setting up bn3a_branch2a
I1029 12:33:47.671315 26341 net.cpp:129] Top shape: 20 128 28 28 (2007040)
I1029 12:33:47.671319 26341 net.cpp:137] Memory required for data: 2356265040
I1029 12:33:47.671329 26341 layer_factory.hpp:77] Creating layer scale3a_branch2a
I1029 12:33:47.671339 26341 net.cpp:84] Creating Layer scale3a_branch2a
I1029 12:33:47.671344 26341 net.cpp:406] scale3a_branch2a <- res3a_branch2a
I1029 12:33:47.671350 26341 net.cpp:367] scale3a_branch2a -> res3a_branch2a (in-place)
I1029 12:33:47.671394 26341 layer_factory.hpp:77] Creating layer scale3a_branch2a
I1029 12:33:47.671525 26341 net.cpp:122] Setting up scale3a_branch2a
I1029 12:33:47.671533 26341 net.cpp:129] Top shape: 20 128 28 28 (2007040)
I1029 12:33:47.671537 26341 net.cpp:137] Memory required for data: 2364293200
I1029 12:33:47.671545 26341 layer_factory.hpp:77] Creating layer res3a_branch2a_relu
I1029 12:33:47.671552 26341 net.cpp:84] Creating Layer res3a_branch2a_relu
I1029 12:33:47.671558 26341 net.cpp:406] res3a_branch2a_relu <- res3a_branch2a
I1029 12:33:47.671567 26341 net.cpp:367] res3a_branch2a_relu -> res3a_branch2a (in-place)
I1029 12:33:47.671759 26341 net.cpp:122] Setting up res3a_branch2a_relu
I1029 12:33:47.671768 26341 net.cpp:129] Top shape: 20 128 28 28 (2007040)
I1029 12:33:47.671772 26341 net.cpp:137] Memory required for data: 2372321360
I1029 12:33:47.671777 26341 layer_factory.hpp:77] Creating layer res3a_branch2b
I1029 12:33:47.671787 26341 net.cpp:84] Creating Layer res3a_branch2b
I1029 12:33:47.671793 26341 net.cpp:406] res3a_branch2b <- res3a_branch2a
I1029 12:33:47.671802 26341 net.cpp:380] res3a_branch2b -> res3a_branch2b
I1029 12:33:47.674001 26341 net.cpp:122] Setting up res3a_branch2b
I1029 12:33:47.674031 26341 net.cpp:129] Top shape: 20 128 28 28 (2007040)
I1029 12:33:47.674037 26341 net.cpp:137] Memory required for data: 2380349520
I1029 12:33:47.674051 26341 layer_factory.hpp:77] Creating layer bn3a_branch2b
I1029 12:33:47.674067 26341 net.cpp:84] Creating Layer bn3a_branch2b
I1029 12:33:47.674074 26341 net.cpp:406] bn3a_branch2b <- res3a_branch2b
I1029 12:33:47.674084 26341 net.cpp:367] bn3a_branch2b -> res3a_branch2b (in-place)
I1029 12:33:47.674335 26341 net.cpp:122] Setting up bn3a_branch2b
I1029 12:33:47.674342 26341 net.cpp:129] Top shape: 20 128 28 28 (2007040)
I1029 12:33:47.674347 26341 net.cpp:137] Memory required for data: 2388377680
I1029 12:33:47.674358 26341 layer_factory.hpp:77] Creating layer scale3a_branch2b
I1029 12:33:47.674370 26341 net.cpp:84] Creating Layer scale3a_branch2b
I1029 12:33:47.674376 26341 net.cpp:406] scale3a_branch2b <- res3a_branch2b
I1029 12:33:47.674381 26341 net.cpp:367] scale3a_branch2b -> res3a_branch2b (in-place)
I1029 12:33:47.674432 26341 layer_factory.hpp:77] Creating layer scale3a_branch2b
I1029 12:33:47.674561 26341 net.cpp:122] Setting up scale3a_branch2b
I1029 12:33:47.674569 26341 net.cpp:129] Top shape: 20 128 28 28 (2007040)
I1029 12:33:47.674574 26341 net.cpp:137] Memory required for data: 2396405840
I1029 12:33:47.674582 26341 layer_factory.hpp:77] Creating layer res3a_branch2b_relu
I1029 12:33:47.674592 26341 net.cpp:84] Creating Layer res3a_branch2b_relu
I1029 12:33:47.674612 26341 net.cpp:406] res3a_branch2b_relu <- res3a_branch2b
I1029 12:33:47.674619 26341 net.cpp:367] res3a_branch2b_relu -> res3a_branch2b (in-place)
I1029 12:33:47.675130 26341 net.cpp:122] Setting up res3a_branch2b_relu
I1029 12:33:47.675143 26341 net.cpp:129] Top shape: 20 128 28 28 (2007040)
I1029 12:33:47.675148 26341 net.cpp:137] Memory required for data: 2404434000
I1029 12:33:47.675153 26341 layer_factory.hpp:77] Creating layer res3a_branch2c
I1029 12:33:47.675165 26341 net.cpp:84] Creating Layer res3a_branch2c
I1029 12:33:47.675173 26341 net.cpp:406] res3a_branch2c <- res3a_branch2b
I1029 12:33:47.675180 26341 net.cpp:380] res3a_branch2c -> res3a_branch2c
I1029 12:33:47.676105 26341 net.cpp:122] Setting up res3a_branch2c
I1029 12:33:47.676118 26341 net.cpp:129] Top shape: 20 512 28 28 (8028160)
I1029 12:33:47.676123 26341 net.cpp:137] Memory required for data: 2436546640
I1029 12:33:47.676131 26341 layer_factory.hpp:77] Creating layer bn3a_branch2c
I1029 12:33:47.676162 26341 net.cpp:84] Creating Layer bn3a_branch2c
I1029 12:33:47.676167 26341 net.cpp:406] bn3a_branch2c <- res3a_branch2c
I1029 12:33:47.676175 26341 net.cpp:367] bn3a_branch2c -> res3a_branch2c (in-place)
I1029 12:33:47.676403 26341 net.cpp:122] Setting up bn3a_branch2c
I1029 12:33:47.676412 26341 net.cpp:129] Top shape: 20 512 28 28 (8028160)
I1029 12:33:47.676416 26341 net.cpp:137] Memory required for data: 2468659280
I1029 12:33:47.676427 26341 layer_factory.hpp:77] Creating layer scale3a_branch2c
I1029 12:33:47.676439 26341 net.cpp:84] Creating Layer scale3a_branch2c
I1029 12:33:47.676445 26341 net.cpp:406] scale3a_branch2c <- res3a_branch2c
I1029 12:33:47.676451 26341 net.cpp:367] scale3a_branch2c -> res3a_branch2c (in-place)
I1029 12:33:47.676497 26341 layer_factory.hpp:77] Creating layer scale3a_branch2c
I1029 12:33:47.676628 26341 net.cpp:122] Setting up scale3a_branch2c
I1029 12:33:47.676637 26341 net.cpp:129] Top shape: 20 512 28 28 (8028160)
I1029 12:33:47.676641 26341 net.cpp:137] Memory required for data: 2500771920
I1029 12:33:47.676650 26341 layer_factory.hpp:77] Creating layer res3a
I1029 12:33:47.676659 26341 net.cpp:84] Creating Layer res3a
I1029 12:33:47.676666 26341 net.cpp:406] res3a <- res3a_branch1
I1029 12:33:47.676671 26341 net.cpp:406] res3a <- res3a_branch2c
I1029 12:33:47.676681 26341 net.cpp:380] res3a -> res3a
I1029 12:33:47.676709 26341 net.cpp:122] Setting up res3a
I1029 12:33:47.676717 26341 net.cpp:129] Top shape: 20 512 28 28 (8028160)
I1029 12:33:47.676722 26341 net.cpp:137] Memory required for data: 2532884560
I1029 12:33:47.676726 26341 layer_factory.hpp:77] Creating layer res3a_relu
I1029 12:33:47.676733 26341 net.cpp:84] Creating Layer res3a_relu
I1029 12:33:47.676738 26341 net.cpp:406] res3a_relu <- res3a
I1029 12:33:47.676744 26341 net.cpp:367] res3a_relu -> res3a (in-place)
I1029 12:33:47.677312 26341 net.cpp:122] Setting up res3a_relu
I1029 12:33:47.677326 26341 net.cpp:129] Top shape: 20 512 28 28 (8028160)
I1029 12:33:47.677331 26341 net.cpp:137] Memory required for data: 2564997200
I1029 12:33:47.677336 26341 layer_factory.hpp:77] Creating layer res3a_res3a_relu_0_split
I1029 12:33:47.677345 26341 net.cpp:84] Creating Layer res3a_res3a_relu_0_split
I1029 12:33:47.677350 26341 net.cpp:406] res3a_res3a_relu_0_split <- res3a
I1029 12:33:47.677359 26341 net.cpp:380] res3a_res3a_relu_0_split -> res3a_res3a_relu_0_split_0
I1029 12:33:47.677369 26341 net.cpp:380] res3a_res3a_relu_0_split -> res3a_res3a_relu_0_split_1
I1029 12:33:47.677417 26341 net.cpp:122] Setting up res3a_res3a_relu_0_split
I1029 12:33:47.677425 26341 net.cpp:129] Top shape: 20 512 28 28 (8028160)
I1029 12:33:47.677431 26341 net.cpp:129] Top shape: 20 512 28 28 (8028160)
I1029 12:33:47.677436 26341 net.cpp:137] Memory required for data: 2629222480
I1029 12:33:47.677440 26341 layer_factory.hpp:77] Creating layer res3b_branch2a
I1029 12:33:47.677453 26341 net.cpp:84] Creating Layer res3b_branch2a
I1029 12:33:47.677459 26341 net.cpp:406] res3b_branch2a <- res3a_res3a_relu_0_split_0
I1029 12:33:47.677482 26341 net.cpp:380] res3b_branch2a -> res3b_branch2a
I1029 12:33:47.678822 26341 net.cpp:122] Setting up res3b_branch2a
I1029 12:33:47.678843 26341 net.cpp:129] Top shape: 20 128 28 28 (2007040)
I1029 12:33:47.678850 26341 net.cpp:137] Memory required for data: 2637250640
I1029 12:33:47.678859 26341 layer_factory.hpp:77] Creating layer bn3b_branch2a
I1029 12:33:47.678872 26341 net.cpp:84] Creating Layer bn3b_branch2a
I1029 12:33:47.678879 26341 net.cpp:406] bn3b_branch2a <- res3b_branch2a
I1029 12:33:47.678889 26341 net.cpp:367] bn3b_branch2a -> res3b_branch2a (in-place)
I1029 12:33:47.679138 26341 net.cpp:122] Setting up bn3b_branch2a
I1029 12:33:47.679147 26341 net.cpp:129] Top shape: 20 128 28 28 (2007040)
I1029 12:33:47.679152 26341 net.cpp:137] Memory required for data: 2645278800
I1029 12:33:47.679162 26341 layer_factory.hpp:77] Creating layer scale3b_branch2a
I1029 12:33:47.679173 26341 net.cpp:84] Creating Layer scale3b_branch2a
I1029 12:33:47.679179 26341 net.cpp:406] scale3b_branch2a <- res3b_branch2a
I1029 12:33:47.679185 26341 net.cpp:367] scale3b_branch2a -> res3b_branch2a (in-place)
I1029 12:33:47.679232 26341 layer_factory.hpp:77] Creating layer scale3b_branch2a
I1029 12:33:47.679360 26341 net.cpp:122] Setting up scale3b_branch2a
I1029 12:33:47.679369 26341 net.cpp:129] Top shape: 20 128 28 28 (2007040)
I1029 12:33:47.679373 26341 net.cpp:137] Memory required for data: 2653306960
I1029 12:33:47.679383 26341 layer_factory.hpp:77] Creating layer res3b_branch2a_relu
I1029 12:33:47.679394 26341 net.cpp:84] Creating Layer res3b_branch2a_relu
I1029 12:33:47.679399 26341 net.cpp:406] res3b_branch2a_relu <- res3b_branch2a
I1029 12:33:47.679405 26341 net.cpp:367] res3b_branch2a_relu -> res3b_branch2a (in-place)
I1029 12:33:47.679607 26341 net.cpp:122] Setting up res3b_branch2a_relu
I1029 12:33:47.679618 26341 net.cpp:129] Top shape: 20 128 28 28 (2007040)
I1029 12:33:47.679625 26341 net.cpp:137] Memory required for data: 2661335120
I1029 12:33:47.679630 26341 layer_factory.hpp:77] Creating layer res3b_branch2b
I1029 12:33:47.679638 26341 net.cpp:84] Creating Layer res3b_branch2b
I1029 12:33:47.679643 26341 net.cpp:406] res3b_branch2b <- res3b_branch2a
I1029 12:33:47.679651 26341 net.cpp:380] res3b_branch2b -> res3b_branch2b
I1029 12:33:47.681341 26341 net.cpp:122] Setting up res3b_branch2b
I1029 12:33:47.681368 26341 net.cpp:129] Top shape: 20 128 28 28 (2007040)
I1029 12:33:47.681375 26341 net.cpp:137] Memory required for data: 2669363280
I1029 12:33:47.681387 26341 layer_factory.hpp:77] Creating layer bn3b_branch2b
I1029 12:33:47.681399 26341 net.cpp:84] Creating Layer bn3b_branch2b
I1029 12:33:47.681406 26341 net.cpp:406] bn3b_branch2b <- res3b_branch2b
I1029 12:33:47.681418 26341 net.cpp:367] bn3b_branch2b -> res3b_branch2b (in-place)
I1029 12:33:47.681658 26341 net.cpp:122] Setting up bn3b_branch2b
I1029 12:33:47.681668 26341 net.cpp:129] Top shape: 20 128 28 28 (2007040)
I1029 12:33:47.681671 26341 net.cpp:137] Memory required for data: 2677391440
I1029 12:33:47.681682 26341 layer_factory.hpp:77] Creating layer scale3b_branch2b
I1029 12:33:47.681692 26341 net.cpp:84] Creating Layer scale3b_branch2b
I1029 12:33:47.681699 26341 net.cpp:406] scale3b_branch2b <- res3b_branch2b
I1029 12:33:47.681704 26341 net.cpp:367] scale3b_branch2b -> res3b_branch2b (in-place)
I1029 12:33:47.681753 26341 layer_factory.hpp:77] Creating layer scale3b_branch2b
I1029 12:33:47.681910 26341 net.cpp:122] Setting up scale3b_branch2b
I1029 12:33:47.681919 26341 net.cpp:129] Top shape: 20 128 28 28 (2007040)
I1029 12:33:47.681923 26341 net.cpp:137] Memory required for data: 2685419600
I1029 12:33:47.681932 26341 layer_factory.hpp:77] Creating layer res3b_branch2b_relu
I1029 12:33:47.681941 26341 net.cpp:84] Creating Layer res3b_branch2b_relu
I1029 12:33:47.681948 26341 net.cpp:406] res3b_branch2b_relu <- res3b_branch2b
I1029 12:33:47.681954 26341 net.cpp:367] res3b_branch2b_relu -> res3b_branch2b (in-place)
I1029 12:33:47.682168 26341 net.cpp:122] Setting up res3b_branch2b_relu
I1029 12:33:47.682178 26341 net.cpp:129] Top shape: 20 128 28 28 (2007040)
I1029 12:33:47.682196 26341 net.cpp:137] Memory required for data: 2693447760
I1029 12:33:47.682200 26341 layer_factory.hpp:77] Creating layer res3b_branch2c
I1029 12:33:47.682212 26341 net.cpp:84] Creating Layer res3b_branch2c
I1029 12:33:47.682219 26341 net.cpp:406] res3b_branch2c <- res3b_branch2b
I1029 12:33:47.682229 26341 net.cpp:380] res3b_branch2c -> res3b_branch2c
I1029 12:33:47.683512 26341 net.cpp:122] Setting up res3b_branch2c
I1029 12:33:47.683528 26341 net.cpp:129] Top shape: 20 512 28 28 (8028160)
I1029 12:33:47.683535 26341 net.cpp:137] Memory required for data: 2725560400
I1029 12:33:47.683544 26341 layer_factory.hpp:77] Creating layer bn3b_branch2c
I1029 12:33:47.683557 26341 net.cpp:84] Creating Layer bn3b_branch2c
I1029 12:33:47.683562 26341 net.cpp:406] bn3b_branch2c <- res3b_branch2c
I1029 12:33:47.683570 26341 net.cpp:367] bn3b_branch2c -> res3b_branch2c (in-place)
I1029 12:33:47.683805 26341 net.cpp:122] Setting up bn3b_branch2c
I1029 12:33:47.683814 26341 net.cpp:129] Top shape: 20 512 28 28 (8028160)
I1029 12:33:47.683818 26341 net.cpp:137] Memory required for data: 2757673040
I1029 12:33:47.683828 26341 layer_factory.hpp:77] Creating layer scale3b_branch2c
I1029 12:33:47.683837 26341 net.cpp:84] Creating Layer scale3b_branch2c
I1029 12:33:47.683845 26341 net.cpp:406] scale3b_branch2c <- res3b_branch2c
I1029 12:33:47.683851 26341 net.cpp:367] scale3b_branch2c -> res3b_branch2c (in-place)
I1029 12:33:47.683902 26341 layer_factory.hpp:77] Creating layer scale3b_branch2c
I1029 12:33:47.684034 26341 net.cpp:122] Setting up scale3b_branch2c
I1029 12:33:47.684042 26341 net.cpp:129] Top shape: 20 512 28 28 (8028160)
I1029 12:33:47.684047 26341 net.cpp:137] Memory required for data: 2789785680
I1029 12:33:47.684056 26341 layer_factory.hpp:77] Creating layer res3b
I1029 12:33:47.684064 26341 net.cpp:84] Creating Layer res3b
I1029 12:33:47.684072 26341 net.cpp:406] res3b <- res3a_res3a_relu_0_split_1
I1029 12:33:47.684077 26341 net.cpp:406] res3b <- res3b_branch2c
I1029 12:33:47.684087 26341 net.cpp:380] res3b -> res3b
I1029 12:33:47.684114 26341 net.cpp:122] Setting up res3b
I1029 12:33:47.684123 26341 net.cpp:129] Top shape: 20 512 28 28 (8028160)
I1029 12:33:47.684128 26341 net.cpp:137] Memory required for data: 2821898320
I1029 12:33:47.684131 26341 layer_factory.hpp:77] Creating layer res3b_relu
I1029 12:33:47.684140 26341 net.cpp:84] Creating Layer res3b_relu
I1029 12:33:47.684147 26341 net.cpp:406] res3b_relu <- res3b
I1029 12:33:47.684154 26341 net.cpp:367] res3b_relu -> res3b (in-place)
I1029 12:33:47.684355 26341 net.cpp:122] Setting up res3b_relu
I1029 12:33:47.684363 26341 net.cpp:129] Top shape: 20 512 28 28 (8028160)
I1029 12:33:47.684368 26341 net.cpp:137] Memory required for data: 2854010960
I1029 12:33:47.684373 26341 layer_factory.hpp:77] Creating layer res3b_res3b_relu_0_split
I1029 12:33:47.684381 26341 net.cpp:84] Creating Layer res3b_res3b_relu_0_split
I1029 12:33:47.684386 26341 net.cpp:406] res3b_res3b_relu_0_split <- res3b
I1029 12:33:47.684396 26341 net.cpp:380] res3b_res3b_relu_0_split -> res3b_res3b_relu_0_split_0
I1029 12:33:47.684406 26341 net.cpp:380] res3b_res3b_relu_0_split -> res3b_res3b_relu_0_split_1
I1029 12:33:47.684450 26341 net.cpp:122] Setting up res3b_res3b_relu_0_split
I1029 12:33:47.684458 26341 net.cpp:129] Top shape: 20 512 28 28 (8028160)
I1029 12:33:47.684464 26341 net.cpp:129] Top shape: 20 512 28 28 (8028160)
I1029 12:33:47.684471 26341 net.cpp:137] Memory required for data: 2918236240
I1029 12:33:47.684475 26341 layer_factory.hpp:77] Creating layer res3c_branch2a
I1029 12:33:47.684489 26341 net.cpp:84] Creating Layer res3c_branch2a
I1029 12:33:47.684495 26341 net.cpp:406] res3c_branch2a <- res3b_res3b_relu_0_split_0
I1029 12:33:47.684502 26341 net.cpp:380] res3c_branch2a -> res3c_branch2a
I1029 12:33:47.685786 26341 net.cpp:122] Setting up res3c_branch2a
I1029 12:33:47.685802 26341 net.cpp:129] Top shape: 20 128 28 28 (2007040)
I1029 12:33:47.685807 26341 net.cpp:137] Memory required for data: 2926264400
I1029 12:33:47.685848 26341 layer_factory.hpp:77] Creating layer bn3c_branch2a
I1029 12:33:47.685858 26341 net.cpp:84] Creating Layer bn3c_branch2a
I1029 12:33:47.685863 26341 net.cpp:406] bn3c_branch2a <- res3c_branch2a
I1029 12:33:47.685873 26341 net.cpp:367] bn3c_branch2a -> res3c_branch2a (in-place)
I1029 12:33:47.686110 26341 net.cpp:122] Setting up bn3c_branch2a
I1029 12:33:47.686120 26341 net.cpp:129] Top shape: 20 128 28 28 (2007040)
I1029 12:33:47.686125 26341 net.cpp:137] Memory required for data: 2934292560
I1029 12:33:47.686134 26341 layer_factory.hpp:77] Creating layer scale3c_branch2a
I1029 12:33:47.686144 26341 net.cpp:84] Creating Layer scale3c_branch2a
I1029 12:33:47.686151 26341 net.cpp:406] scale3c_branch2a <- res3c_branch2a
I1029 12:33:47.686159 26341 net.cpp:367] scale3c_branch2a -> res3c_branch2a (in-place)
I1029 12:33:47.686203 26341 layer_factory.hpp:77] Creating layer scale3c_branch2a
I1029 12:33:47.686334 26341 net.cpp:122] Setting up scale3c_branch2a
I1029 12:33:47.686345 26341 net.cpp:129] Top shape: 20 128 28 28 (2007040)
I1029 12:33:47.686352 26341 net.cpp:137] Memory required for data: 2942320720
I1029 12:33:47.686359 26341 layer_factory.hpp:77] Creating layer res3c_branch2a_relu
I1029 12:33:47.686368 26341 net.cpp:84] Creating Layer res3c_branch2a_relu
I1029 12:33:47.686374 26341 net.cpp:406] res3c_branch2a_relu <- res3c_branch2a
I1029 12:33:47.686380 26341 net.cpp:367] res3c_branch2a_relu -> res3c_branch2a (in-place)
I1029 12:33:47.686588 26341 net.cpp:122] Setting up res3c_branch2a_relu
I1029 12:33:47.686596 26341 net.cpp:129] Top shape: 20 128 28 28 (2007040)
I1029 12:33:47.686601 26341 net.cpp:137] Memory required for data: 2950348880
I1029 12:33:47.686606 26341 layer_factory.hpp:77] Creating layer res3c_branch2b
I1029 12:33:47.686617 26341 net.cpp:84] Creating Layer res3c_branch2b
I1029 12:33:47.686626 26341 net.cpp:406] res3c_branch2b <- res3c_branch2a
I1029 12:33:47.686633 26341 net.cpp:380] res3c_branch2b -> res3c_branch2b
I1029 12:33:47.689774 26341 net.cpp:122] Setting up res3c_branch2b
I1029 12:33:47.689808 26341 net.cpp:129] Top shape: 20 128 28 28 (2007040)
I1029 12:33:47.689813 26341 net.cpp:137] Memory required for data: 2958377040
I1029 12:33:47.689862 26341 layer_factory.hpp:77] Creating layer bn3c_branch2b
I1029 12:33:47.689883 26341 net.cpp:84] Creating Layer bn3c_branch2b
I1029 12:33:47.689893 26341 net.cpp:406] bn3c_branch2b <- res3c_branch2b
I1029 12:33:47.689903 26341 net.cpp:367] bn3c_branch2b -> res3c_branch2b (in-place)
I1029 12:33:47.690158 26341 net.cpp:122] Setting up bn3c_branch2b
I1029 12:33:47.690167 26341 net.cpp:129] Top shape: 20 128 28 28 (2007040)
I1029 12:33:47.690171 26341 net.cpp:137] Memory required for data: 2966405200
I1029 12:33:47.690182 26341 layer_factory.hpp:77] Creating layer scale3c_branch2b
I1029 12:33:47.690193 26341 net.cpp:84] Creating Layer scale3c_branch2b
I1029 12:33:47.690199 26341 net.cpp:406] scale3c_branch2b <- res3c_branch2b
I1029 12:33:47.690207 26341 net.cpp:367] scale3c_branch2b -> res3c_branch2b (in-place)
I1029 12:33:47.690263 26341 layer_factory.hpp:77] Creating layer scale3c_branch2b
I1029 12:33:47.690399 26341 net.cpp:122] Setting up scale3c_branch2b
I1029 12:33:47.690408 26341 net.cpp:129] Top shape: 20 128 28 28 (2007040)
I1029 12:33:47.690413 26341 net.cpp:137] Memory required for data: 2974433360
I1029 12:33:47.690421 26341 layer_factory.hpp:77] Creating layer res3c_branch2b_relu
I1029 12:33:47.690430 26341 net.cpp:84] Creating Layer res3c_branch2b_relu
I1029 12:33:47.690435 26341 net.cpp:406] res3c_branch2b_relu <- res3c_branch2b
I1029 12:33:47.690444 26341 net.cpp:367] res3c_branch2b_relu -> res3c_branch2b (in-place)
I1029 12:33:47.690943 26341 net.cpp:122] Setting up res3c_branch2b_relu
I1029 12:33:47.690955 26341 net.cpp:129] Top shape: 20 128 28 28 (2007040)
I1029 12:33:47.690960 26341 net.cpp:137] Memory required for data: 2982461520
I1029 12:33:47.690965 26341 layer_factory.hpp:77] Creating layer res3c_branch2c
I1029 12:33:47.690976 26341 net.cpp:84] Creating Layer res3c_branch2c
I1029 12:33:47.690984 26341 net.cpp:406] res3c_branch2c <- res3c_branch2b
I1029 12:33:47.691020 26341 net.cpp:380] res3c_branch2c -> res3c_branch2c
I1029 12:33:47.691979 26341 net.cpp:122] Setting up res3c_branch2c
I1029 12:33:47.691992 26341 net.cpp:129] Top shape: 20 512 28 28 (8028160)
I1029 12:33:47.691998 26341 net.cpp:137] Memory required for data: 3014574160
I1029 12:33:47.692004 26341 layer_factory.hpp:77] Creating layer bn3c_branch2c
I1029 12:33:47.692013 26341 net.cpp:84] Creating Layer bn3c_branch2c
I1029 12:33:47.692019 26341 net.cpp:406] bn3c_branch2c <- res3c_branch2c
I1029 12:33:47.692029 26341 net.cpp:367] bn3c_branch2c -> res3c_branch2c (in-place)
I1029 12:33:47.692267 26341 net.cpp:122] Setting up bn3c_branch2c
I1029 12:33:47.692276 26341 net.cpp:129] Top shape: 20 512 28 28 (8028160)
I1029 12:33:47.692281 26341 net.cpp:137] Memory required for data: 3046686800
I1029 12:33:47.692291 26341 layer_factory.hpp:77] Creating layer scale3c_branch2c
I1029 12:33:47.692299 26341 net.cpp:84] Creating Layer scale3c_branch2c
I1029 12:33:47.692306 26341 net.cpp:406] scale3c_branch2c <- res3c_branch2c
I1029 12:33:47.692313 26341 net.cpp:367] scale3c_branch2c -> res3c_branch2c (in-place)
I1029 12:33:47.692359 26341 layer_factory.hpp:77] Creating layer scale3c_branch2c
I1029 12:33:47.692494 26341 net.cpp:122] Setting up scale3c_branch2c
I1029 12:33:47.692504 26341 net.cpp:129] Top shape: 20 512 28 28 (8028160)
I1029 12:33:47.692510 26341 net.cpp:137] Memory required for data: 3078799440
I1029 12:33:47.692519 26341 layer_factory.hpp:77] Creating layer res3c
I1029 12:33:47.692528 26341 net.cpp:84] Creating Layer res3c
I1029 12:33:47.692533 26341 net.cpp:406] res3c <- res3b_res3b_relu_0_split_1
I1029 12:33:47.692538 26341 net.cpp:406] res3c <- res3c_branch2c
I1029 12:33:47.692545 26341 net.cpp:380] res3c -> res3c
I1029 12:33:47.692574 26341 net.cpp:122] Setting up res3c
I1029 12:33:47.692581 26341 net.cpp:129] Top shape: 20 512 28 28 (8028160)
I1029 12:33:47.692585 26341 net.cpp:137] Memory required for data: 3110912080
I1029 12:33:47.692590 26341 layer_factory.hpp:77] Creating layer res3c_relu
I1029 12:33:47.692597 26341 net.cpp:84] Creating Layer res3c_relu
I1029 12:33:47.692603 26341 net.cpp:406] res3c_relu <- res3c
I1029 12:33:47.692610 26341 net.cpp:367] res3c_relu -> res3c (in-place)
I1029 12:33:47.693167 26341 net.cpp:122] Setting up res3c_relu
I1029 12:33:47.693178 26341 net.cpp:129] Top shape: 20 512 28 28 (8028160)
I1029 12:33:47.693183 26341 net.cpp:137] Memory required for data: 3143024720
I1029 12:33:47.693188 26341 layer_factory.hpp:77] Creating layer res3c_res3c_relu_0_split
I1029 12:33:47.693198 26341 net.cpp:84] Creating Layer res3c_res3c_relu_0_split
I1029 12:33:47.693204 26341 net.cpp:406] res3c_res3c_relu_0_split <- res3c
I1029 12:33:47.693212 26341 net.cpp:380] res3c_res3c_relu_0_split -> res3c_res3c_relu_0_split_0
I1029 12:33:47.693222 26341 net.cpp:380] res3c_res3c_relu_0_split -> res3c_res3c_relu_0_split_1
I1029 12:33:47.693270 26341 net.cpp:122] Setting up res3c_res3c_relu_0_split
I1029 12:33:47.693279 26341 net.cpp:129] Top shape: 20 512 28 28 (8028160)
I1029 12:33:47.693285 26341 net.cpp:129] Top shape: 20 512 28 28 (8028160)
I1029 12:33:47.693289 26341 net.cpp:137] Memory required for data: 3207250000
I1029 12:33:47.693295 26341 layer_factory.hpp:77] Creating layer res3d_branch2a
I1029 12:33:47.693307 26341 net.cpp:84] Creating Layer res3d_branch2a
I1029 12:33:47.693313 26341 net.cpp:406] res3d_branch2a <- res3c_res3c_relu_0_split_0
I1029 12:33:47.693322 26341 net.cpp:380] res3d_branch2a -> res3d_branch2a
I1029 12:33:47.696048 26341 net.cpp:122] Setting up res3d_branch2a
I1029 12:33:47.696105 26341 net.cpp:129] Top shape: 20 128 28 28 (2007040)
I1029 12:33:47.696111 26341 net.cpp:137] Memory required for data: 3215278160
I1029 12:33:47.696128 26341 layer_factory.hpp:77] Creating layer bn3d_branch2a
I1029 12:33:47.696148 26341 net.cpp:84] Creating Layer bn3d_branch2a
I1029 12:33:47.696157 26341 net.cpp:406] bn3d_branch2a <- res3d_branch2a
I1029 12:33:47.696171 26341 net.cpp:367] bn3d_branch2a -> res3d_branch2a (in-place)
I1029 12:33:47.696451 26341 net.cpp:122] Setting up bn3d_branch2a
I1029 12:33:47.696460 26341 net.cpp:129] Top shape: 20 128 28 28 (2007040)
I1029 12:33:47.696465 26341 net.cpp:137] Memory required for data: 3223306320
I1029 12:33:47.696508 26341 layer_factory.hpp:77] Creating layer scale3d_branch2a
I1029 12:33:47.696521 26341 net.cpp:84] Creating Layer scale3d_branch2a
I1029 12:33:47.696527 26341 net.cpp:406] scale3d_branch2a <- res3d_branch2a
I1029 12:33:47.696534 26341 net.cpp:367] scale3d_branch2a -> res3d_branch2a (in-place)
I1029 12:33:47.696588 26341 layer_factory.hpp:77] Creating layer scale3d_branch2a
I1029 12:33:47.696723 26341 net.cpp:122] Setting up scale3d_branch2a
I1029 12:33:47.696732 26341 net.cpp:129] Top shape: 20 128 28 28 (2007040)
I1029 12:33:47.696738 26341 net.cpp:137] Memory required for data: 3231334480
I1029 12:33:47.696745 26341 layer_factory.hpp:77] Creating layer res3d_branch2a_relu
I1029 12:33:47.696754 26341 net.cpp:84] Creating Layer res3d_branch2a_relu
I1029 12:33:47.696760 26341 net.cpp:406] res3d_branch2a_relu <- res3d_branch2a
I1029 12:33:47.696768 26341 net.cpp:367] res3d_branch2a_relu -> res3d_branch2a (in-place)
I1029 12:33:47.696979 26341 net.cpp:122] Setting up res3d_branch2a_relu
I1029 12:33:47.696987 26341 net.cpp:129] Top shape: 20 128 28 28 (2007040)
I1029 12:33:47.696992 26341 net.cpp:137] Memory required for data: 3239362640
I1029 12:33:47.696996 26341 layer_factory.hpp:77] Creating layer res3d_branch2b
I1029 12:33:47.697008 26341 net.cpp:84] Creating Layer res3d_branch2b
I1029 12:33:47.697015 26341 net.cpp:406] res3d_branch2b <- res3d_branch2a
I1029 12:33:47.697024 26341 net.cpp:380] res3d_branch2b -> res3d_branch2b
I1029 12:33:47.698809 26341 net.cpp:122] Setting up res3d_branch2b
I1029 12:33:47.698837 26341 net.cpp:129] Top shape: 20 128 28 28 (2007040)
I1029 12:33:47.698844 26341 net.cpp:137] Memory required for data: 3247390800
I1029 12:33:47.698858 26341 layer_factory.hpp:77] Creating layer bn3d_branch2b
I1029 12:33:47.698870 26341 net.cpp:84] Creating Layer bn3d_branch2b
I1029 12:33:47.698880 26341 net.cpp:406] bn3d_branch2b <- res3d_branch2b
I1029 12:33:47.698891 26341 net.cpp:367] bn3d_branch2b -> res3d_branch2b (in-place)
I1029 12:33:47.699146 26341 net.cpp:122] Setting up bn3d_branch2b
I1029 12:33:47.699156 26341 net.cpp:129] Top shape: 20 128 28 28 (2007040)
I1029 12:33:47.699159 26341 net.cpp:137] Memory required for data: 3255418960
I1029 12:33:47.699169 26341 layer_factory.hpp:77] Creating layer scale3d_branch2b
I1029 12:33:47.699182 26341 net.cpp:84] Creating Layer scale3d_branch2b
I1029 12:33:47.699188 26341 net.cpp:406] scale3d_branch2b <- res3d_branch2b
I1029 12:33:47.699195 26341 net.cpp:367] scale3d_branch2b -> res3d_branch2b (in-place)
I1029 12:33:47.699246 26341 layer_factory.hpp:77] Creating layer scale3d_branch2b
I1029 12:33:47.699390 26341 net.cpp:122] Setting up scale3d_branch2b
I1029 12:33:47.699399 26341 net.cpp:129] Top shape: 20 128 28 28 (2007040)
I1029 12:33:47.699404 26341 net.cpp:137] Memory required for data: 3263447120
I1029 12:33:47.699412 26341 layer_factory.hpp:77] Creating layer res3d_branch2b_relu
I1029 12:33:47.699422 26341 net.cpp:84] Creating Layer res3d_branch2b_relu
I1029 12:33:47.699426 26341 net.cpp:406] res3d_branch2b_relu <- res3d_branch2b
I1029 12:33:47.699434 26341 net.cpp:367] res3d_branch2b_relu -> res3d_branch2b (in-place)
I1029 12:33:47.699651 26341 net.cpp:122] Setting up res3d_branch2b_relu
I1029 12:33:47.699659 26341 net.cpp:129] Top shape: 20 128 28 28 (2007040)
I1029 12:33:47.699663 26341 net.cpp:137] Memory required for data: 3271475280
I1029 12:33:47.699668 26341 layer_factory.hpp:77] Creating layer res3d_branch2c
I1029 12:33:47.699681 26341 net.cpp:84] Creating Layer res3d_branch2c
I1029 12:33:47.699684 26341 net.cpp:406] res3d_branch2c <- res3d_branch2b
I1029 12:33:47.699693 26341 net.cpp:380] res3d_branch2c -> res3d_branch2c
I1029 12:33:47.701009 26341 net.cpp:122] Setting up res3d_branch2c
I1029 12:33:47.701026 26341 net.cpp:129] Top shape: 20 512 28 28 (8028160)
I1029 12:33:47.701030 26341 net.cpp:137] Memory required for data: 3303587920
I1029 12:33:47.701066 26341 layer_factory.hpp:77] Creating layer bn3d_branch2c
I1029 12:33:47.701078 26341 net.cpp:84] Creating Layer bn3d_branch2c
I1029 12:33:47.701086 26341 net.cpp:406] bn3d_branch2c <- res3d_branch2c
I1029 12:33:47.701093 26341 net.cpp:367] bn3d_branch2c -> res3d_branch2c (in-place)
I1029 12:33:47.701349 26341 net.cpp:122] Setting up bn3d_branch2c
I1029 12:33:47.701357 26341 net.cpp:129] Top shape: 20 512 28 28 (8028160)
I1029 12:33:47.701362 26341 net.cpp:137] Memory required for data: 3335700560
I1029 12:33:47.701373 26341 layer_factory.hpp:77] Creating layer scale3d_branch2c
I1029 12:33:47.701383 26341 net.cpp:84] Creating Layer scale3d_branch2c
I1029 12:33:47.701388 26341 net.cpp:406] scale3d_branch2c <- res3d_branch2c
I1029 12:33:47.701395 26341 net.cpp:367] scale3d_branch2c -> res3d_branch2c (in-place)
I1029 12:33:47.701445 26341 layer_factory.hpp:77] Creating layer scale3d_branch2c
I1029 12:33:47.701586 26341 net.cpp:122] Setting up scale3d_branch2c
I1029 12:33:47.701594 26341 net.cpp:129] Top shape: 20 512 28 28 (8028160)
I1029 12:33:47.701599 26341 net.cpp:137] Memory required for data: 3367813200
I1029 12:33:47.701607 26341 layer_factory.hpp:77] Creating layer res3d
I1029 12:33:47.701616 26341 net.cpp:84] Creating Layer res3d
I1029 12:33:47.701620 26341 net.cpp:406] res3d <- res3c_res3c_relu_0_split_1
I1029 12:33:47.701627 26341 net.cpp:406] res3d <- res3d_branch2c
I1029 12:33:47.701635 26341 net.cpp:380] res3d -> res3d
I1029 12:33:47.701664 26341 net.cpp:122] Setting up res3d
I1029 12:33:47.701673 26341 net.cpp:129] Top shape: 20 512 28 28 (8028160)
I1029 12:33:47.701678 26341 net.cpp:137] Memory required for data: 3399925840
I1029 12:33:47.701683 26341 layer_factory.hpp:77] Creating layer res3d_relu
I1029 12:33:47.701689 26341 net.cpp:84] Creating Layer res3d_relu
I1029 12:33:47.701694 26341 net.cpp:406] res3d_relu <- res3d
I1029 12:33:47.701699 26341 net.cpp:367] res3d_relu -> res3d (in-place)
I1029 12:33:47.701936 26341 net.cpp:122] Setting up res3d_relu
I1029 12:33:47.701946 26341 net.cpp:129] Top shape: 20 512 28 28 (8028160)
I1029 12:33:47.701949 26341 net.cpp:137] Memory required for data: 3432038480
I1029 12:33:47.701954 26341 layer_factory.hpp:77] Creating layer res3d_res3d_relu_0_split
I1029 12:33:47.701963 26341 net.cpp:84] Creating Layer res3d_res3d_relu_0_split
I1029 12:33:47.701968 26341 net.cpp:406] res3d_res3d_relu_0_split <- res3d
I1029 12:33:47.701977 26341 net.cpp:380] res3d_res3d_relu_0_split -> res3d_res3d_relu_0_split_0
I1029 12:33:47.701987 26341 net.cpp:380] res3d_res3d_relu_0_split -> res3d_res3d_relu_0_split_1
I1029 12:33:47.702034 26341 net.cpp:122] Setting up res3d_res3d_relu_0_split
I1029 12:33:47.702044 26341 net.cpp:129] Top shape: 20 512 28 28 (8028160)
I1029 12:33:47.702050 26341 net.cpp:129] Top shape: 20 512 28 28 (8028160)
I1029 12:33:47.702054 26341 net.cpp:137] Memory required for data: 3496263760
I1029 12:33:47.702059 26341 layer_factory.hpp:77] Creating layer res4a_branch1
I1029 12:33:47.702069 26341 net.cpp:84] Creating Layer res4a_branch1
I1029 12:33:47.702075 26341 net.cpp:406] res4a_branch1 <- res3d_res3d_relu_0_split_0
I1029 12:33:47.702085 26341 net.cpp:380] res4a_branch1 -> res4a_branch1
I1029 12:33:47.706197 26341 net.cpp:122] Setting up res4a_branch1
I1029 12:33:47.706233 26341 net.cpp:129] Top shape: 20 1024 14 14 (4014080)
I1029 12:33:47.706238 26341 net.cpp:137] Memory required for data: 3512320080
I1029 12:33:47.706251 26341 layer_factory.hpp:77] Creating layer bn4a_branch1
I1029 12:33:47.706266 26341 net.cpp:84] Creating Layer bn4a_branch1
I1029 12:33:47.706275 26341 net.cpp:406] bn4a_branch1 <- res4a_branch1
I1029 12:33:47.706285 26341 net.cpp:367] bn4a_branch1 -> res4a_branch1 (in-place)
I1029 12:33:47.706585 26341 net.cpp:122] Setting up bn4a_branch1
I1029 12:33:47.706594 26341 net.cpp:129] Top shape: 20 1024 14 14 (4014080)
I1029 12:33:47.706598 26341 net.cpp:137] Memory required for data: 3528376400
I1029 12:33:47.706609 26341 layer_factory.hpp:77] Creating layer scale4a_branch1
I1029 12:33:47.706619 26341 net.cpp:84] Creating Layer scale4a_branch1
I1029 12:33:47.706657 26341 net.cpp:406] scale4a_branch1 <- res4a_branch1
I1029 12:33:47.706665 26341 net.cpp:367] scale4a_branch1 -> res4a_branch1 (in-place)
I1029 12:33:47.706717 26341 layer_factory.hpp:77] Creating layer scale4a_branch1
I1029 12:33:47.706872 26341 net.cpp:122] Setting up scale4a_branch1
I1029 12:33:47.706881 26341 net.cpp:129] Top shape: 20 1024 14 14 (4014080)
I1029 12:33:47.706885 26341 net.cpp:137] Memory required for data: 3544432720
I1029 12:33:47.706892 26341 layer_factory.hpp:77] Creating layer res4a_branch2a
I1029 12:33:47.706907 26341 net.cpp:84] Creating Layer res4a_branch2a
I1029 12:33:47.706913 26341 net.cpp:406] res4a_branch2a <- res3d_res3d_relu_0_split_1
I1029 12:33:47.706920 26341 net.cpp:380] res4a_branch2a -> res4a_branch2a
I1029 12:33:47.708551 26341 net.cpp:122] Setting up res4a_branch2a
I1029 12:33:47.708585 26341 net.cpp:129] Top shape: 20 256 14 14 (1003520)
I1029 12:33:47.708590 26341 net.cpp:137] Memory required for data: 3548446800
I1029 12:33:47.708601 26341 layer_factory.hpp:77] Creating layer bn4a_branch2a
I1029 12:33:47.708618 26341 net.cpp:84] Creating Layer bn4a_branch2a
I1029 12:33:47.708627 26341 net.cpp:406] bn4a_branch2a <- res4a_branch2a
I1029 12:33:47.708637 26341 net.cpp:367] bn4a_branch2a -> res4a_branch2a (in-place)
I1029 12:33:47.708916 26341 net.cpp:122] Setting up bn4a_branch2a
I1029 12:33:47.708976 26341 net.cpp:129] Top shape: 20 256 14 14 (1003520)
I1029 12:33:47.708992 26341 net.cpp:137] Memory required for data: 3552460880
I1029 12:33:47.709015 26341 layer_factory.hpp:77] Creating layer scale4a_branch2a
I1029 12:33:47.709038 26341 net.cpp:84] Creating Layer scale4a_branch2a
I1029 12:33:47.709054 26341 net.cpp:406] scale4a_branch2a <- res4a_branch2a
I1029 12:33:47.709076 26341 net.cpp:367] scale4a_branch2a -> res4a_branch2a (in-place)
I1029 12:33:47.709153 26341 layer_factory.hpp:77] Creating layer scale4a_branch2a
I1029 12:33:47.709319 26341 net.cpp:122] Setting up scale4a_branch2a
I1029 12:33:47.709338 26341 net.cpp:129] Top shape: 20 256 14 14 (1003520)
I1029 12:33:47.709353 26341 net.cpp:137] Memory required for data: 3556474960
I1029 12:33:47.709374 26341 layer_factory.hpp:77] Creating layer res4a_branch2a_relu
I1029 12:33:47.709393 26341 net.cpp:84] Creating Layer res4a_branch2a_relu
I1029 12:33:47.709406 26341 net.cpp:406] res4a_branch2a_relu <- res4a_branch2a
I1029 12:33:47.709425 26341 net.cpp:367] res4a_branch2a_relu -> res4a_branch2a (in-place)
I1029 12:33:47.709718 26341 net.cpp:122] Setting up res4a_branch2a_relu
I1029 12:33:47.709738 26341 net.cpp:129] Top shape: 20 256 14 14 (1003520)
I1029 12:33:47.709753 26341 net.cpp:137] Memory required for data: 3560489040
I1029 12:33:47.709766 26341 layer_factory.hpp:77] Creating layer res4a_branch2b
I1029 12:33:47.709791 26341 net.cpp:84] Creating Layer res4a_branch2b
I1029 12:33:47.709807 26341 net.cpp:406] res4a_branch2b <- res4a_branch2a
I1029 12:33:47.709841 26341 net.cpp:380] res4a_branch2b -> res4a_branch2b
I1029 12:33:47.714236 26341 net.cpp:122] Setting up res4a_branch2b
I1029 12:33:47.714274 26341 net.cpp:129] Top shape: 20 256 14 14 (1003520)
I1029 12:33:47.714278 26341 net.cpp:137] Memory required for data: 3564503120
I1029 12:33:47.714293 26341 layer_factory.hpp:77] Creating layer bn4a_branch2b
I1029 12:33:47.714313 26341 net.cpp:84] Creating Layer bn4a_branch2b
I1029 12:33:47.714321 26341 net.cpp:406] bn4a_branch2b <- res4a_branch2b
I1029 12:33:47.714331 26341 net.cpp:367] bn4a_branch2b -> res4a_branch2b (in-place)
I1029 12:33:47.714623 26341 net.cpp:122] Setting up bn4a_branch2b
I1029 12:33:47.714635 26341 net.cpp:129] Top shape: 20 256 14 14 (1003520)
I1029 12:33:47.714640 26341 net.cpp:137] Memory required for data: 3568517200
I1029 12:33:47.714651 26341 layer_factory.hpp:77] Creating layer scale4a_branch2b
I1029 12:33:47.714665 26341 net.cpp:84] Creating Layer scale4a_branch2b
I1029 12:33:47.714673 26341 net.cpp:406] scale4a_branch2b <- res4a_branch2b
I1029 12:33:47.714681 26341 net.cpp:367] scale4a_branch2b -> res4a_branch2b (in-place)
I1029 12:33:47.714779 26341 layer_factory.hpp:77] Creating layer scale4a_branch2b
I1029 12:33:47.714936 26341 net.cpp:122] Setting up scale4a_branch2b
I1029 12:33:47.714946 26341 net.cpp:129] Top shape: 20 256 14 14 (1003520)
I1029 12:33:47.714951 26341 net.cpp:137] Memory required for data: 3572531280
I1029 12:33:47.714958 26341 layer_factory.hpp:77] Creating layer res4a_branch2b_relu
I1029 12:33:47.714967 26341 net.cpp:84] Creating Layer res4a_branch2b_relu
I1029 12:33:47.714972 26341 net.cpp:406] res4a_branch2b_relu <- res4a_branch2b
I1029 12:33:47.714980 26341 net.cpp:367] res4a_branch2b_relu -> res4a_branch2b (in-place)
I1029 12:33:47.715240 26341 net.cpp:122] Setting up res4a_branch2b_relu
I1029 12:33:47.715251 26341 net.cpp:129] Top shape: 20 256 14 14 (1003520)
I1029 12:33:47.715256 26341 net.cpp:137] Memory required for data: 3576545360
I1029 12:33:47.715260 26341 layer_factory.hpp:77] Creating layer res4a_branch2c
I1029 12:33:47.715275 26341 net.cpp:84] Creating Layer res4a_branch2c
I1029 12:33:47.715281 26341 net.cpp:406] res4a_branch2c <- res4a_branch2b
I1029 12:33:47.715288 26341 net.cpp:380] res4a_branch2c -> res4a_branch2c
I1029 12:33:47.718423 26341 net.cpp:122] Setting up res4a_branch2c
I1029 12:33:47.718464 26341 net.cpp:129] Top shape: 20 1024 14 14 (4014080)
I1029 12:33:47.718469 26341 net.cpp:137] Memory required for data: 3592601680
I1029 12:33:47.718482 26341 layer_factory.hpp:77] Creating layer bn4a_branch2c
I1029 12:33:47.718500 26341 net.cpp:84] Creating Layer bn4a_branch2c
I1029 12:33:47.718509 26341 net.cpp:406] bn4a_branch2c <- res4a_branch2c
I1029 12:33:47.718519 26341 net.cpp:367] bn4a_branch2c -> res4a_branch2c (in-place)
I1029 12:33:47.718822 26341 net.cpp:122] Setting up bn4a_branch2c
I1029 12:33:47.718833 26341 net.cpp:129] Top shape: 20 1024 14 14 (4014080)
I1029 12:33:47.718838 26341 net.cpp:137] Memory required for data: 3608658000
I1029 12:33:47.718849 26341 layer_factory.hpp:77] Creating layer scale4a_branch2c
I1029 12:33:47.718860 26341 net.cpp:84] Creating Layer scale4a_branch2c
I1029 12:33:47.718866 26341 net.cpp:406] scale4a_branch2c <- res4a_branch2c
I1029 12:33:47.718874 26341 net.cpp:367] scale4a_branch2c -> res4a_branch2c (in-place)
I1029 12:33:47.718930 26341 layer_factory.hpp:77] Creating layer scale4a_branch2c
I1029 12:33:47.719096 26341 net.cpp:122] Setting up scale4a_branch2c
I1029 12:33:47.719106 26341 net.cpp:129] Top shape: 20 1024 14 14 (4014080)
I1029 12:33:47.719110 26341 net.cpp:137] Memory required for data: 3624714320
I1029 12:33:47.719120 26341 layer_factory.hpp:77] Creating layer res4a
I1029 12:33:47.719127 26341 net.cpp:84] Creating Layer res4a
I1029 12:33:47.719132 26341 net.cpp:406] res4a <- res4a_branch1
I1029 12:33:47.719138 26341 net.cpp:406] res4a <- res4a_branch2c
I1029 12:33:47.719147 26341 net.cpp:380] res4a -> res4a
I1029 12:33:47.719179 26341 net.cpp:122] Setting up res4a
I1029 12:33:47.719189 26341 net.cpp:129] Top shape: 20 1024 14 14 (4014080)
I1029 12:33:47.719194 26341 net.cpp:137] Memory required for data: 3640770640
I1029 12:33:47.719199 26341 layer_factory.hpp:77] Creating layer res4a_relu
I1029 12:33:47.719208 26341 net.cpp:84] Creating Layer res4a_relu
I1029 12:33:47.719213 26341 net.cpp:406] res4a_relu <- res4a
I1029 12:33:47.719220 26341 net.cpp:367] res4a_relu -> res4a (in-place)
I1029 12:33:47.719957 26341 net.cpp:122] Setting up res4a_relu
I1029 12:33:47.719976 26341 net.cpp:129] Top shape: 20 1024 14 14 (4014080)
I1029 12:33:47.719980 26341 net.cpp:137] Memory required for data: 3656826960
I1029 12:33:47.719985 26341 layer_factory.hpp:77] Creating layer res4a_res4a_relu_0_split
I1029 12:33:47.719998 26341 net.cpp:84] Creating Layer res4a_res4a_relu_0_split
I1029 12:33:47.720006 26341 net.cpp:406] res4a_res4a_relu_0_split <- res4a
I1029 12:33:47.720016 26341 net.cpp:380] res4a_res4a_relu_0_split -> res4a_res4a_relu_0_split_0
I1029 12:33:47.720031 26341 net.cpp:380] res4a_res4a_relu_0_split -> res4a_res4a_relu_0_split_1
I1029 12:33:47.720098 26341 net.cpp:122] Setting up res4a_res4a_relu_0_split
I1029 12:33:47.720108 26341 net.cpp:129] Top shape: 20 1024 14 14 (4014080)
I1029 12:33:47.720149 26341 net.cpp:129] Top shape: 20 1024 14 14 (4014080)
I1029 12:33:47.720155 26341 net.cpp:137] Memory required for data: 3688939600
I1029 12:33:47.720160 26341 layer_factory.hpp:77] Creating layer res4b_branch2a
I1029 12:33:47.720221 26341 net.cpp:84] Creating Layer res4b_branch2a
I1029 12:33:47.720227 26341 net.cpp:406] res4b_branch2a <- res4a_res4a_relu_0_split_0
I1029 12:33:47.720234 26341 net.cpp:380] res4b_branch2a -> res4b_branch2a
I1029 12:33:47.722148 26341 net.cpp:122] Setting up res4b_branch2a
I1029 12:33:47.722184 26341 net.cpp:129] Top shape: 20 256 14 14 (1003520)
I1029 12:33:47.722189 26341 net.cpp:137] Memory required for data: 3692953680
I1029 12:33:47.722203 26341 layer_factory.hpp:77] Creating layer bn4b_branch2a
I1029 12:33:47.722219 26341 net.cpp:84] Creating Layer bn4b_branch2a
I1029 12:33:47.722228 26341 net.cpp:406] bn4b_branch2a <- res4b_branch2a
I1029 12:33:47.722236 26341 net.cpp:367] bn4b_branch2a -> res4b_branch2a (in-place)
I1029 12:33:47.722544 26341 net.cpp:122] Setting up bn4b_branch2a
I1029 12:33:47.722555 26341 net.cpp:129] Top shape: 20 256 14 14 (1003520)
I1029 12:33:47.722560 26341 net.cpp:137] Memory required for data: 3696967760
I1029 12:33:47.722571 26341 layer_factory.hpp:77] Creating layer scale4b_branch2a
I1029 12:33:47.722581 26341 net.cpp:84] Creating Layer scale4b_branch2a
I1029 12:33:47.722586 26341 net.cpp:406] scale4b_branch2a <- res4b_branch2a
I1029 12:33:47.722594 26341 net.cpp:367] scale4b_branch2a -> res4b_branch2a (in-place)
I1029 12:33:47.722656 26341 layer_factory.hpp:77] Creating layer scale4b_branch2a
I1029 12:33:47.722851 26341 net.cpp:122] Setting up scale4b_branch2a
I1029 12:33:47.722863 26341 net.cpp:129] Top shape: 20 256 14 14 (1003520)
I1029 12:33:47.722868 26341 net.cpp:137] Memory required for data: 3700981840
I1029 12:33:47.722877 26341 layer_factory.hpp:77] Creating layer res4b_branch2a_relu
I1029 12:33:47.722887 26341 net.cpp:84] Creating Layer res4b_branch2a_relu
I1029 12:33:47.722892 26341 net.cpp:406] res4b_branch2a_relu <- res4b_branch2a
I1029 12:33:47.722898 26341 net.cpp:367] res4b_branch2a_relu -> res4b_branch2a (in-place)
I1029 12:33:47.723587 26341 net.cpp:122] Setting up res4b_branch2a_relu
I1029 12:33:47.723601 26341 net.cpp:129] Top shape: 20 256 14 14 (1003520)
I1029 12:33:47.723606 26341 net.cpp:137] Memory required for data: 3704995920
I1029 12:33:47.723610 26341 layer_factory.hpp:77] Creating layer res4b_branch2b
I1029 12:33:47.723625 26341 net.cpp:84] Creating Layer res4b_branch2b
I1029 12:33:47.723634 26341 net.cpp:406] res4b_branch2b <- res4b_branch2a
I1029 12:33:47.723644 26341 net.cpp:380] res4b_branch2b -> res4b_branch2b
I1029 12:33:47.728052 26341 net.cpp:122] Setting up res4b_branch2b
I1029 12:33:47.728091 26341 net.cpp:129] Top shape: 20 256 14 14 (1003520)
I1029 12:33:47.728096 26341 net.cpp:137] Memory required for data: 3709010000
I1029 12:33:47.728108 26341 layer_factory.hpp:77] Creating layer bn4b_branch2b
I1029 12:33:47.728123 26341 net.cpp:84] Creating Layer bn4b_branch2b
I1029 12:33:47.728132 26341 net.cpp:406] bn4b_branch2b <- res4b_branch2b
I1029 12:33:47.728142 26341 net.cpp:367] bn4b_branch2b -> res4b_branch2b (in-place)
I1029 12:33:47.728435 26341 net.cpp:122] Setting up bn4b_branch2b
I1029 12:33:47.728446 26341 net.cpp:129] Top shape: 20 256 14 14 (1003520)
I1029 12:33:47.728451 26341 net.cpp:137] Memory required for data: 3713024080
I1029 12:33:47.728462 26341 layer_factory.hpp:77] Creating layer scale4b_branch2b
I1029 12:33:47.728474 26341 net.cpp:84] Creating Layer scale4b_branch2b
I1029 12:33:47.728480 26341 net.cpp:406] scale4b_branch2b <- res4b_branch2b
I1029 12:33:47.728488 26341 net.cpp:367] scale4b_branch2b -> res4b_branch2b (in-place)
I1029 12:33:47.728549 26341 layer_factory.hpp:77] Creating layer scale4b_branch2b
I1029 12:33:47.728703 26341 net.cpp:122] Setting up scale4b_branch2b
I1029 12:33:47.728714 26341 net.cpp:129] Top shape: 20 256 14 14 (1003520)
I1029 12:33:47.728718 26341 net.cpp:137] Memory required for data: 3717038160
I1029 12:33:47.728726 26341 layer_factory.hpp:77] Creating layer res4b_branch2b_relu
I1029 12:33:47.728768 26341 net.cpp:84] Creating Layer res4b_branch2b_relu
I1029 12:33:47.728773 26341 net.cpp:406] res4b_branch2b_relu <- res4b_branch2b
I1029 12:33:47.728781 26341 net.cpp:367] res4b_branch2b_relu -> res4b_branch2b (in-place)
I1029 12:33:47.729038 26341 net.cpp:122] Setting up res4b_branch2b_relu
I1029 12:33:47.729048 26341 net.cpp:129] Top shape: 20 256 14 14 (1003520)
I1029 12:33:47.729053 26341 net.cpp:137] Memory required for data: 3721052240
I1029 12:33:47.729056 26341 layer_factory.hpp:77] Creating layer res4b_branch2c
I1029 12:33:47.729069 26341 net.cpp:84] Creating Layer res4b_branch2c
I1029 12:33:47.729074 26341 net.cpp:406] res4b_branch2c <- res4b_branch2b
I1029 12:33:47.729082 26341 net.cpp:380] res4b_branch2c -> res4b_branch2c
I1029 12:33:47.732285 26341 net.cpp:122] Setting up res4b_branch2c
I1029 12:33:47.732331 26341 net.cpp:129] Top shape: 20 1024 14 14 (4014080)
I1029 12:33:47.732336 26341 net.cpp:137] Memory required for data: 3737108560
I1029 12:33:47.732348 26341 layer_factory.hpp:77] Creating layer bn4b_branch2c
I1029 12:33:47.732364 26341 net.cpp:84] Creating Layer bn4b_branch2c
I1029 12:33:47.732373 26341 net.cpp:406] bn4b_branch2c <- res4b_branch2c
I1029 12:33:47.732384 26341 net.cpp:367] bn4b_branch2c -> res4b_branch2c (in-place)
I1029 12:33:47.732686 26341 net.cpp:122] Setting up bn4b_branch2c
I1029 12:33:47.732697 26341 net.cpp:129] Top shape: 20 1024 14 14 (4014080)
I1029 12:33:47.732702 26341 net.cpp:137] Memory required for data: 3753164880
I1029 12:33:47.732714 26341 layer_factory.hpp:77] Creating layer scale4b_branch2c
I1029 12:33:47.732724 26341 net.cpp:84] Creating Layer scale4b_branch2c
I1029 12:33:47.732729 26341 net.cpp:406] scale4b_branch2c <- res4b_branch2c
I1029 12:33:47.732736 26341 net.cpp:367] scale4b_branch2c -> res4b_branch2c (in-place)
I1029 12:33:47.732795 26341 layer_factory.hpp:77] Creating layer scale4b_branch2c
I1029 12:33:47.732955 26341 net.cpp:122] Setting up scale4b_branch2c
I1029 12:33:47.732967 26341 net.cpp:129] Top shape: 20 1024 14 14 (4014080)
I1029 12:33:47.732972 26341 net.cpp:137] Memory required for data: 3769221200
I1029 12:33:47.732980 26341 layer_factory.hpp:77] Creating layer res4b
I1029 12:33:47.732990 26341 net.cpp:84] Creating Layer res4b
I1029 12:33:47.732995 26341 net.cpp:406] res4b <- res4a_res4a_relu_0_split_1
I1029 12:33:47.733001 26341 net.cpp:406] res4b <- res4b_branch2c
I1029 12:33:47.733009 26341 net.cpp:380] res4b -> res4b
I1029 12:33:47.733042 26341 net.cpp:122] Setting up res4b
I1029 12:33:47.733052 26341 net.cpp:129] Top shape: 20 1024 14 14 (4014080)
I1029 12:33:47.733057 26341 net.cpp:137] Memory required for data: 3785277520
I1029 12:33:47.733062 26341 layer_factory.hpp:77] Creating layer res4b_relu
I1029 12:33:47.733069 26341 net.cpp:84] Creating Layer res4b_relu
I1029 12:33:47.733073 26341 net.cpp:406] res4b_relu <- res4b
I1029 12:33:47.733083 26341 net.cpp:367] res4b_relu -> res4b (in-place)
I1029 12:33:47.733335 26341 net.cpp:122] Setting up res4b_relu
I1029 12:33:47.733345 26341 net.cpp:129] Top shape: 20 1024 14 14 (4014080)
I1029 12:33:47.733350 26341 net.cpp:137] Memory required for data: 3801333840
I1029 12:33:47.733355 26341 layer_factory.hpp:77] Creating layer res4b_res4b_relu_0_split
I1029 12:33:47.733362 26341 net.cpp:84] Creating Layer res4b_res4b_relu_0_split
I1029 12:33:47.733367 26341 net.cpp:406] res4b_res4b_relu_0_split <- res4b
I1029 12:33:47.733376 26341 net.cpp:380] res4b_res4b_relu_0_split -> res4b_res4b_relu_0_split_0
I1029 12:33:47.733386 26341 net.cpp:380] res4b_res4b_relu_0_split -> res4b_res4b_relu_0_split_1
I1029 12:33:47.733438 26341 net.cpp:122] Setting up res4b_res4b_relu_0_split
I1029 12:33:47.733448 26341 net.cpp:129] Top shape: 20 1024 14 14 (4014080)
I1029 12:33:47.733453 26341 net.cpp:129] Top shape: 20 1024 14 14 (4014080)
I1029 12:33:47.733458 26341 net.cpp:137] Memory required for data: 3833446480
I1029 12:33:47.733463 26341 layer_factory.hpp:77] Creating layer res4c_branch2a
I1029 12:33:47.733475 26341 net.cpp:84] Creating Layer res4c_branch2a
I1029 12:33:47.733515 26341 net.cpp:406] res4c_branch2a <- res4b_res4b_relu_0_split_0
I1029 12:33:47.733523 26341 net.cpp:380] res4c_branch2a -> res4c_branch2a
I1029 12:33:47.735540 26341 net.cpp:122] Setting up res4c_branch2a
I1029 12:33:47.735579 26341 net.cpp:129] Top shape: 20 256 14 14 (1003520)
I1029 12:33:47.735584 26341 net.cpp:137] Memory required for data: 3837460560
I1029 12:33:47.735596 26341 layer_factory.hpp:77] Creating layer bn4c_branch2a
I1029 12:33:47.735612 26341 net.cpp:84] Creating Layer bn4c_branch2a
I1029 12:33:47.735620 26341 net.cpp:406] bn4c_branch2a <- res4c_branch2a
I1029 12:33:47.735632 26341 net.cpp:367] bn4c_branch2a -> res4c_branch2a (in-place)
I1029 12:33:47.735920 26341 net.cpp:122] Setting up bn4c_branch2a
I1029 12:33:47.735931 26341 net.cpp:129] Top shape: 20 256 14 14 (1003520)
I1029 12:33:47.735936 26341 net.cpp:137] Memory required for data: 3841474640
I1029 12:33:47.735949 26341 layer_factory.hpp:77] Creating layer scale4c_branch2a
I1029 12:33:47.735960 26341 net.cpp:84] Creating Layer scale4c_branch2a
I1029 12:33:47.735965 26341 net.cpp:406] scale4c_branch2a <- res4c_branch2a
I1029 12:33:47.735970 26341 net.cpp:367] scale4c_branch2a -> res4c_branch2a (in-place)
I1029 12:33:47.736030 26341 layer_factory.hpp:77] Creating layer scale4c_branch2a
I1029 12:33:47.736182 26341 net.cpp:122] Setting up scale4c_branch2a
I1029 12:33:47.736192 26341 net.cpp:129] Top shape: 20 256 14 14 (1003520)
I1029 12:33:47.736197 26341 net.cpp:137] Memory required for data: 3845488720
I1029 12:33:47.736207 26341 layer_factory.hpp:77] Creating layer res4c_branch2a_relu
I1029 12:33:47.736215 26341 net.cpp:84] Creating Layer res4c_branch2a_relu
I1029 12:33:47.736220 26341 net.cpp:406] res4c_branch2a_relu <- res4c_branch2a
I1029 12:33:47.736227 26341 net.cpp:367] res4c_branch2a_relu -> res4c_branch2a (in-place)
I1029 12:33:47.736466 26341 net.cpp:122] Setting up res4c_branch2a_relu
I1029 12:33:47.736477 26341 net.cpp:129] Top shape: 20 256 14 14 (1003520)
I1029 12:33:47.736482 26341 net.cpp:137] Memory required for data: 3849502800
I1029 12:33:47.736486 26341 layer_factory.hpp:77] Creating layer res4c_branch2b
I1029 12:33:47.736500 26341 net.cpp:84] Creating Layer res4c_branch2b
I1029 12:33:47.736507 26341 net.cpp:406] res4c_branch2b <- res4c_branch2a
I1029 12:33:47.736517 26341 net.cpp:380] res4c_branch2b -> res4c_branch2b
I1029 12:33:47.740934 26341 net.cpp:122] Setting up res4c_branch2b
I1029 12:33:47.740975 26341 net.cpp:129] Top shape: 20 256 14 14 (1003520)
I1029 12:33:47.740980 26341 net.cpp:137] Memory required for data: 3853516880
I1029 12:33:47.740995 26341 layer_factory.hpp:77] Creating layer bn4c_branch2b
I1029 12:33:47.741013 26341 net.cpp:84] Creating Layer bn4c_branch2b
I1029 12:33:47.741020 26341 net.cpp:406] bn4c_branch2b <- res4c_branch2b
I1029 12:33:47.741031 26341 net.cpp:367] bn4c_branch2b -> res4c_branch2b (in-place)
I1029 12:33:47.741328 26341 net.cpp:122] Setting up bn4c_branch2b
I1029 12:33:47.741338 26341 net.cpp:129] Top shape: 20 256 14 14 (1003520)
I1029 12:33:47.741343 26341 net.cpp:137] Memory required for data: 3857530960
I1029 12:33:47.741353 26341 layer_factory.hpp:77] Creating layer scale4c_branch2b
I1029 12:33:47.741363 26341 net.cpp:84] Creating Layer scale4c_branch2b
I1029 12:33:47.741372 26341 net.cpp:406] scale4c_branch2b <- res4c_branch2b
I1029 12:33:47.741379 26341 net.cpp:367] scale4c_branch2b -> res4c_branch2b (in-place)
I1029 12:33:47.741437 26341 layer_factory.hpp:77] Creating layer scale4c_branch2b
I1029 12:33:47.741592 26341 net.cpp:122] Setting up scale4c_branch2b
I1029 12:33:47.741601 26341 net.cpp:129] Top shape: 20 256 14 14 (1003520)
I1029 12:33:47.741606 26341 net.cpp:137] Memory required for data: 3861545040
I1029 12:33:47.741614 26341 layer_factory.hpp:77] Creating layer res4c_branch2b_relu
I1029 12:33:47.741622 26341 net.cpp:84] Creating Layer res4c_branch2b_relu
I1029 12:33:47.741649 26341 net.cpp:406] res4c_branch2b_relu <- res4c_branch2b
I1029 12:33:47.741672 26341 net.cpp:367] res4c_branch2b_relu -> res4c_branch2b (in-place)
I1029 12:33:47.741992 26341 net.cpp:122] Setting up res4c_branch2b_relu
I1029 12:33:47.742022 26341 net.cpp:129] Top shape: 20 256 14 14 (1003520)
I1029 12:33:47.742039 26341 net.cpp:137] Memory required for data: 3865559120
I1029 12:33:47.742058 26341 layer_factory.hpp:77] Creating layer res4c_branch2c
I1029 12:33:47.742085 26341 net.cpp:84] Creating Layer res4c_branch2c
I1029 12:33:47.742105 26341 net.cpp:406] res4c_branch2c <- res4c_branch2b
I1029 12:33:47.742125 26341 net.cpp:380] res4c_branch2c -> res4c_branch2c
I1029 12:33:47.745354 26341 net.cpp:122] Setting up res4c_branch2c
I1029 12:33:47.745399 26341 net.cpp:129] Top shape: 20 1024 14 14 (4014080)
I1029 12:33:47.745404 26341 net.cpp:137] Memory required for data: 3881615440
I1029 12:33:47.745417 26341 layer_factory.hpp:77] Creating layer bn4c_branch2c
I1029 12:33:47.745434 26341 net.cpp:84] Creating Layer bn4c_branch2c
I1029 12:33:47.745442 26341 net.cpp:406] bn4c_branch2c <- res4c_branch2c
I1029 12:33:47.745452 26341 net.cpp:367] bn4c_branch2c -> res4c_branch2c (in-place)
I1029 12:33:47.745735 26341 net.cpp:122] Setting up bn4c_branch2c
I1029 12:33:47.745746 26341 net.cpp:129] Top shape: 20 1024 14 14 (4014080)
I1029 12:33:47.745750 26341 net.cpp:137] Memory required for data: 3897671760
I1029 12:33:47.745761 26341 layer_factory.hpp:77] Creating layer scale4c_branch2c
I1029 12:33:47.745772 26341 net.cpp:84] Creating Layer scale4c_branch2c
I1029 12:33:47.745777 26341 net.cpp:406] scale4c_branch2c <- res4c_branch2c
I1029 12:33:47.745786 26341 net.cpp:367] scale4c_branch2c -> res4c_branch2c (in-place)
I1029 12:33:47.745868 26341 layer_factory.hpp:77] Creating layer scale4c_branch2c
I1029 12:33:47.746034 26341 net.cpp:122] Setting up scale4c_branch2c
I1029 12:33:47.746043 26341 net.cpp:129] Top shape: 20 1024 14 14 (4014080)
I1029 12:33:47.746048 26341 net.cpp:137] Memory required for data: 3913728080
I1029 12:33:47.746057 26341 layer_factory.hpp:77] Creating layer res4c
I1029 12:33:47.746064 26341 net.cpp:84] Creating Layer res4c
I1029 12:33:47.746069 26341 net.cpp:406] res4c <- res4b_res4b_relu_0_split_1
I1029 12:33:47.746076 26341 net.cpp:406] res4c <- res4c_branch2c
I1029 12:33:47.746086 26341 net.cpp:380] res4c -> res4c
I1029 12:33:47.746117 26341 net.cpp:122] Setting up res4c
I1029 12:33:47.746127 26341 net.cpp:129] Top shape: 20 1024 14 14 (4014080)
I1029 12:33:47.746132 26341 net.cpp:137] Memory required for data: 3929784400
I1029 12:33:47.746137 26341 layer_factory.hpp:77] Creating layer res4c_relu
I1029 12:33:47.746145 26341 net.cpp:84] Creating Layer res4c_relu
I1029 12:33:47.746150 26341 net.cpp:406] res4c_relu <- res4c
I1029 12:33:47.746155 26341 net.cpp:367] res4c_relu -> res4c (in-place)
I1029 12:33:47.746829 26341 net.cpp:122] Setting up res4c_relu
I1029 12:33:47.746840 26341 net.cpp:129] Top shape: 20 1024 14 14 (4014080)
I1029 12:33:47.746846 26341 net.cpp:137] Memory required for data: 3945840720
I1029 12:33:47.746852 26341 layer_factory.hpp:77] Creating layer res4c_res4c_relu_0_split
I1029 12:33:47.746860 26341 net.cpp:84] Creating Layer res4c_res4c_relu_0_split
I1029 12:33:47.746865 26341 net.cpp:406] res4c_res4c_relu_0_split <- res4c
I1029 12:33:47.746873 26341 net.cpp:380] res4c_res4c_relu_0_split -> res4c_res4c_relu_0_split_0
I1029 12:33:47.746884 26341 net.cpp:380] res4c_res4c_relu_0_split -> res4c_res4c_relu_0_split_1
I1029 12:33:47.746938 26341 net.cpp:122] Setting up res4c_res4c_relu_0_split
I1029 12:33:47.746958 26341 net.cpp:129] Top shape: 20 1024 14 14 (4014080)
I1029 12:33:47.746975 26341 net.cpp:129] Top shape: 20 1024 14 14 (4014080)
I1029 12:33:47.746989 26341 net.cpp:137] Memory required for data: 3977953360
I1029 12:33:47.747004 26341 layer_factory.hpp:77] Creating layer res4d_branch2a
I1029 12:33:47.747027 26341 net.cpp:84] Creating Layer res4d_branch2a
I1029 12:33:47.747042 26341 net.cpp:406] res4d_branch2a <- res4c_res4c_relu_0_split_0
I1029 12:33:47.747062 26341 net.cpp:380] res4d_branch2a -> res4d_branch2a
I1029 12:33:47.748571 26341 net.cpp:122] Setting up res4d_branch2a
I1029 12:33:47.748605 26341 net.cpp:129] Top shape: 20 256 14 14 (1003520)
I1029 12:33:47.748646 26341 net.cpp:137] Memory required for data: 3981967440
I1029 12:33:47.748657 26341 layer_factory.hpp:77] Creating layer bn4d_branch2a
I1029 12:33:47.748674 26341 net.cpp:84] Creating Layer bn4d_branch2a
I1029 12:33:47.748683 26341 net.cpp:406] bn4d_branch2a <- res4d_branch2a
I1029 12:33:47.748695 26341 net.cpp:367] bn4d_branch2a -> res4d_branch2a (in-place)
I1029 12:33:47.748960 26341 net.cpp:122] Setting up bn4d_branch2a
I1029 12:33:47.748970 26341 net.cpp:129] Top shape: 20 256 14 14 (1003520)
I1029 12:33:47.748973 26341 net.cpp:137] Memory required for data: 3985981520
I1029 12:33:47.748983 26341 layer_factory.hpp:77] Creating layer scale4d_branch2a
I1029 12:33:47.748996 26341 net.cpp:84] Creating Layer scale4d_branch2a
I1029 12:33:47.749001 26341 net.cpp:406] scale4d_branch2a <- res4d_branch2a
I1029 12:33:47.749008 26341 net.cpp:367] scale4d_branch2a -> res4d_branch2a (in-place)
I1029 12:33:47.749063 26341 layer_factory.hpp:77] Creating layer scale4d_branch2a
I1029 12:33:47.749207 26341 net.cpp:122] Setting up scale4d_branch2a
I1029 12:33:47.749217 26341 net.cpp:129] Top shape: 20 256 14 14 (1003520)
I1029 12:33:47.749220 26341 net.cpp:137] Memory required for data: 3989995600
I1029 12:33:47.749228 26341 layer_factory.hpp:77] Creating layer res4d_branch2a_relu
I1029 12:33:47.749236 26341 net.cpp:84] Creating Layer res4d_branch2a_relu
I1029 12:33:47.749243 26341 net.cpp:406] res4d_branch2a_relu <- res4d_branch2a
I1029 12:33:47.749251 26341 net.cpp:367] res4d_branch2a_relu -> res4d_branch2a (in-place)
I1029 12:33:47.749974 26341 net.cpp:122] Setting up res4d_branch2a_relu
I1029 12:33:47.749987 26341 net.cpp:129] Top shape: 20 256 14 14 (1003520)
I1029 12:33:47.749992 26341 net.cpp:137] Memory required for data: 3994009680
I1029 12:33:47.749997 26341 layer_factory.hpp:77] Creating layer res4d_branch2b
I1029 12:33:47.750012 26341 net.cpp:84] Creating Layer res4d_branch2b
I1029 12:33:47.750020 26341 net.cpp:406] res4d_branch2b <- res4d_branch2a
I1029 12:33:47.750027 26341 net.cpp:380] res4d_branch2b -> res4d_branch2b
I1029 12:33:47.754379 26341 net.cpp:122] Setting up res4d_branch2b
I1029 12:33:47.754417 26341 net.cpp:129] Top shape: 20 256 14 14 (1003520)
I1029 12:33:47.754423 26341 net.cpp:137] Memory required for data: 3998023760
I1029 12:33:47.754436 26341 layer_factory.hpp:77] Creating layer bn4d_branch2b
I1029 12:33:47.754456 26341 net.cpp:84] Creating Layer bn4d_branch2b
I1029 12:33:47.754464 26341 net.cpp:406] bn4d_branch2b <- res4d_branch2b
I1029 12:33:47.754475 26341 net.cpp:367] bn4d_branch2b -> res4d_branch2b (in-place)
I1029 12:33:47.754752 26341 net.cpp:122] Setting up bn4d_branch2b
I1029 12:33:47.754761 26341 net.cpp:129] Top shape: 20 256 14 14 (1003520)
I1029 12:33:47.754766 26341 net.cpp:137] Memory required for data: 4002037840
I1029 12:33:47.754777 26341 layer_factory.hpp:77] Creating layer scale4d_branch2b
I1029 12:33:47.754787 26341 net.cpp:84] Creating Layer scale4d_branch2b
I1029 12:33:47.754793 26341 net.cpp:406] scale4d_branch2b <- res4d_branch2b
I1029 12:33:47.754801 26341 net.cpp:367] scale4d_branch2b -> res4d_branch2b (in-place)
I1029 12:33:47.754860 26341 layer_factory.hpp:77] Creating layer scale4d_branch2b
I1029 12:33:47.755012 26341 net.cpp:122] Setting up scale4d_branch2b
I1029 12:33:47.755020 26341 net.cpp:129] Top shape: 20 256 14 14 (1003520)
I1029 12:33:47.755024 26341 net.cpp:137] Memory required for data: 4006051920
I1029 12:33:47.755031 26341 layer_factory.hpp:77] Creating layer res4d_branch2b_relu
I1029 12:33:47.755039 26341 net.cpp:84] Creating Layer res4d_branch2b_relu
I1029 12:33:47.755043 26341 net.cpp:406] res4d_branch2b_relu <- res4d_branch2b
I1029 12:33:47.755050 26341 net.cpp:367] res4d_branch2b_relu -> res4d_branch2b (in-place)
I1029 12:33:47.755265 26341 net.cpp:122] Setting up res4d_branch2b_relu
I1029 12:33:47.755275 26341 net.cpp:129] Top shape: 20 256 14 14 (1003520)
I1029 12:33:47.755278 26341 net.cpp:137] Memory required for data: 4010066000
I1029 12:33:47.755282 26341 layer_factory.hpp:77] Creating layer res4d_branch2c
I1029 12:33:47.755324 26341 net.cpp:84] Creating Layer res4d_branch2c
I1029 12:33:47.755331 26341 net.cpp:406] res4d_branch2c <- res4d_branch2b
I1029 12:33:47.755337 26341 net.cpp:380] res4d_branch2c -> res4d_branch2c
I1029 12:33:47.758512 26341 net.cpp:122] Setting up res4d_branch2c
I1029 12:33:47.758548 26341 net.cpp:129] Top shape: 20 1024 14 14 (4014080)
I1029 12:33:47.758554 26341 net.cpp:137] Memory required for data: 4026122320
I1029 12:33:47.758568 26341 layer_factory.hpp:77] Creating layer bn4d_branch2c
I1029 12:33:47.758584 26341 net.cpp:84] Creating Layer bn4d_branch2c
I1029 12:33:47.758592 26341 net.cpp:406] bn4d_branch2c <- res4d_branch2c
I1029 12:33:47.758602 26341 net.cpp:367] bn4d_branch2c -> res4d_branch2c (in-place)
I1029 12:33:47.758891 26341 net.cpp:122] Setting up bn4d_branch2c
I1029 12:33:47.758900 26341 net.cpp:129] Top shape: 20 1024 14 14 (4014080)
I1029 12:33:47.758904 26341 net.cpp:137] Memory required for data: 4042178640
I1029 12:33:47.758913 26341 layer_factory.hpp:77] Creating layer scale4d_branch2c
I1029 12:33:47.758924 26341 net.cpp:84] Creating Layer scale4d_branch2c
I1029 12:33:47.758929 26341 net.cpp:406] scale4d_branch2c <- res4d_branch2c
I1029 12:33:47.758935 26341 net.cpp:367] scale4d_branch2c -> res4d_branch2c (in-place)
I1029 12:33:47.758985 26341 layer_factory.hpp:77] Creating layer scale4d_branch2c
I1029 12:33:47.759135 26341 net.cpp:122] Setting up scale4d_branch2c
I1029 12:33:47.759143 26341 net.cpp:129] Top shape: 20 1024 14 14 (4014080)
I1029 12:33:47.759147 26341 net.cpp:137] Memory required for data: 4058234960
I1029 12:33:47.759153 26341 layer_factory.hpp:77] Creating layer res4d
I1029 12:33:47.759161 26341 net.cpp:84] Creating Layer res4d
I1029 12:33:47.759166 26341 net.cpp:406] res4d <- res4c_res4c_relu_0_split_1
I1029 12:33:47.759171 26341 net.cpp:406] res4d <- res4d_branch2c
I1029 12:33:47.759179 26341 net.cpp:380] res4d -> res4d
I1029 12:33:47.759207 26341 net.cpp:122] Setting up res4d
I1029 12:33:47.759215 26341 net.cpp:129] Top shape: 20 1024 14 14 (4014080)
I1029 12:33:47.759219 26341 net.cpp:137] Memory required for data: 4074291280
I1029 12:33:47.759223 26341 layer_factory.hpp:77] Creating layer res4d_relu
I1029 12:33:47.759229 26341 net.cpp:84] Creating Layer res4d_relu
I1029 12:33:47.759234 26341 net.cpp:406] res4d_relu <- res4d
I1029 12:33:47.759239 26341 net.cpp:367] res4d_relu -> res4d (in-place)
I1029 12:33:47.759438 26341 net.cpp:122] Setting up res4d_relu
I1029 12:33:47.759447 26341 net.cpp:129] Top shape: 20 1024 14 14 (4014080)
I1029 12:33:47.759451 26341 net.cpp:137] Memory required for data: 4090347600
I1029 12:33:47.759455 26341 layer_factory.hpp:77] Creating layer res4d_res4d_relu_0_split
I1029 12:33:47.759465 26341 net.cpp:84] Creating Layer res4d_res4d_relu_0_split
I1029 12:33:47.759470 26341 net.cpp:406] res4d_res4d_relu_0_split <- res4d
I1029 12:33:47.759477 26341 net.cpp:380] res4d_res4d_relu_0_split -> res4d_res4d_relu_0_split_0
I1029 12:33:47.759486 26341 net.cpp:380] res4d_res4d_relu_0_split -> res4d_res4d_relu_0_split_1
I1029 12:33:47.759536 26341 net.cpp:122] Setting up res4d_res4d_relu_0_split
I1029 12:33:47.759546 26341 net.cpp:129] Top shape: 20 1024 14 14 (4014080)
I1029 12:33:47.759552 26341 net.cpp:129] Top shape: 20 1024 14 14 (4014080)
I1029 12:33:47.759555 26341 net.cpp:137] Memory required for data: 4122460240
I1029 12:33:47.759559 26341 layer_factory.hpp:77] Creating layer res4e_branch2a
I1029 12:33:47.759569 26341 net.cpp:84] Creating Layer res4e_branch2a
I1029 12:33:47.759573 26341 net.cpp:406] res4e_branch2a <- res4d_res4d_relu_0_split_0
I1029 12:33:47.759582 26341 net.cpp:380] res4e_branch2a -> res4e_branch2a
I1029 12:33:47.761418 26341 net.cpp:122] Setting up res4e_branch2a
I1029 12:33:47.761451 26341 net.cpp:129] Top shape: 20 256 14 14 (1003520)
I1029 12:33:47.761456 26341 net.cpp:137] Memory required for data: 4126474320
I1029 12:33:47.761466 26341 layer_factory.hpp:77] Creating layer bn4e_branch2a
I1029 12:33:47.761481 26341 net.cpp:84] Creating Layer bn4e_branch2a
I1029 12:33:47.761487 26341 net.cpp:406] bn4e_branch2a <- res4e_branch2a
I1029 12:33:47.761535 26341 net.cpp:367] bn4e_branch2a -> res4e_branch2a (in-place)
I1029 12:33:47.761806 26341 net.cpp:122] Setting up bn4e_branch2a
I1029 12:33:47.761838 26341 net.cpp:129] Top shape: 20 256 14 14 (1003520)
I1029 12:33:47.761844 26341 net.cpp:137] Memory required for data: 4130488400
I1029 12:33:47.761854 26341 layer_factory.hpp:77] Creating layer scale4e_branch2a
I1029 12:33:47.761865 26341 net.cpp:84] Creating Layer scale4e_branch2a
I1029 12:33:47.761873 26341 net.cpp:406] scale4e_branch2a <- res4e_branch2a
I1029 12:33:47.761878 26341 net.cpp:367] scale4e_branch2a -> res4e_branch2a (in-place)
I1029 12:33:47.761936 26341 layer_factory.hpp:77] Creating layer scale4e_branch2a
I1029 12:33:47.762082 26341 net.cpp:122] Setting up scale4e_branch2a
I1029 12:33:47.762090 26341 net.cpp:129] Top shape: 20 256 14 14 (1003520)
I1029 12:33:47.762095 26341 net.cpp:137] Memory required for data: 4134502480
I1029 12:33:47.762104 26341 layer_factory.hpp:77] Creating layer res4e_branch2a_relu
I1029 12:33:47.762111 26341 net.cpp:84] Creating Layer res4e_branch2a_relu
I1029 12:33:47.762117 26341 net.cpp:406] res4e_branch2a_relu <- res4e_branch2a
I1029 12:33:47.762125 26341 net.cpp:367] res4e_branch2a_relu -> res4e_branch2a (in-place)
I1029 12:33:47.762326 26341 net.cpp:122] Setting up res4e_branch2a_relu
I1029 12:33:47.762336 26341 net.cpp:129] Top shape: 20 256 14 14 (1003520)
I1029 12:33:47.762339 26341 net.cpp:137] Memory required for data: 4138516560
I1029 12:33:47.762344 26341 layer_factory.hpp:77] Creating layer res4e_branch2b
I1029 12:33:47.762356 26341 net.cpp:84] Creating Layer res4e_branch2b
I1029 12:33:47.762363 26341 net.cpp:406] res4e_branch2b <- res4e_branch2a
I1029 12:33:47.762370 26341 net.cpp:380] res4e_branch2b -> res4e_branch2b
I1029 12:33:47.766705 26341 net.cpp:122] Setting up res4e_branch2b
I1029 12:33:47.766739 26341 net.cpp:129] Top shape: 20 256 14 14 (1003520)
I1029 12:33:47.766746 26341 net.cpp:137] Memory required for data: 4142530640
I1029 12:33:47.766762 26341 layer_factory.hpp:77] Creating layer bn4e_branch2b
I1029 12:33:47.766780 26341 net.cpp:84] Creating Layer bn4e_branch2b
I1029 12:33:47.766789 26341 net.cpp:406] bn4e_branch2b <- res4e_branch2b
I1029 12:33:47.766804 26341 net.cpp:367] bn4e_branch2b -> res4e_branch2b (in-place)
I1029 12:33:47.767083 26341 net.cpp:122] Setting up bn4e_branch2b
I1029 12:33:47.767092 26341 net.cpp:129] Top shape: 20 256 14 14 (1003520)
I1029 12:33:47.767097 26341 net.cpp:137] Memory required for data: 4146544720
I1029 12:33:47.767107 26341 layer_factory.hpp:77] Creating layer scale4e_branch2b
I1029 12:33:47.767120 26341 net.cpp:84] Creating Layer scale4e_branch2b
I1029 12:33:47.767127 26341 net.cpp:406] scale4e_branch2b <- res4e_branch2b
I1029 12:33:47.767133 26341 net.cpp:367] scale4e_branch2b -> res4e_branch2b (in-place)
I1029 12:33:47.767190 26341 layer_factory.hpp:77] Creating layer scale4e_branch2b
I1029 12:33:47.767338 26341 net.cpp:122] Setting up scale4e_branch2b
I1029 12:33:47.767346 26341 net.cpp:129] Top shape: 20 256 14 14 (1003520)
I1029 12:33:47.767351 26341 net.cpp:137] Memory required for data: 4150558800
I1029 12:33:47.767359 26341 layer_factory.hpp:77] Creating layer res4e_branch2b_relu
I1029 12:33:47.767367 26341 net.cpp:84] Creating Layer res4e_branch2b_relu
I1029 12:33:47.767372 26341 net.cpp:406] res4e_branch2b_relu <- res4e_branch2b
I1029 12:33:47.767380 26341 net.cpp:367] res4e_branch2b_relu -> res4e_branch2b (in-place)
I1029 12:33:47.767599 26341 net.cpp:122] Setting up res4e_branch2b_relu
I1029 12:33:47.767607 26341 net.cpp:129] Top shape: 20 256 14 14 (1003520)
I1029 12:33:47.767612 26341 net.cpp:137] Memory required for data: 4154572880
I1029 12:33:47.767616 26341 layer_factory.hpp:77] Creating layer res4e_branch2c
I1029 12:33:47.767629 26341 net.cpp:84] Creating Layer res4e_branch2c
I1029 12:33:47.767634 26341 net.cpp:406] res4e_branch2c <- res4e_branch2b
I1029 12:33:47.767642 26341 net.cpp:380] res4e_branch2c -> res4e_branch2c
I1029 12:33:47.770776 26341 net.cpp:122] Setting up res4e_branch2c
I1029 12:33:47.770848 26341 net.cpp:129] Top shape: 20 1024 14 14 (4014080)
I1029 12:33:47.770853 26341 net.cpp:137] Memory required for data: 4170629200
I1029 12:33:47.770866 26341 layer_factory.hpp:77] Creating layer bn4e_branch2c
I1029 12:33:47.770881 26341 net.cpp:84] Creating Layer bn4e_branch2c
I1029 12:33:47.770889 26341 net.cpp:406] bn4e_branch2c <- res4e_branch2c
I1029 12:33:47.770900 26341 net.cpp:367] bn4e_branch2c -> res4e_branch2c (in-place)
I1029 12:33:47.771188 26341 net.cpp:122] Setting up bn4e_branch2c
I1029 12:33:47.771198 26341 net.cpp:129] Top shape: 20 1024 14 14 (4014080)
I1029 12:33:47.771201 26341 net.cpp:137] Memory required for data: 4186685520
I1029 12:33:47.771212 26341 layer_factory.hpp:77] Creating layer scale4e_branch2c
I1029 12:33:47.771221 26341 net.cpp:84] Creating Layer scale4e_branch2c
I1029 12:33:47.771225 26341 net.cpp:406] scale4e_branch2c <- res4e_branch2c
I1029 12:33:47.771232 26341 net.cpp:367] scale4e_branch2c -> res4e_branch2c (in-place)
I1029 12:33:47.771288 26341 layer_factory.hpp:77] Creating layer scale4e_branch2c
I1029 12:33:47.771443 26341 net.cpp:122] Setting up scale4e_branch2c
I1029 12:33:47.771451 26341 net.cpp:129] Top shape: 20 1024 14 14 (4014080)
I1029 12:33:47.771456 26341 net.cpp:137] Memory required for data: 4202741840
I1029 12:33:47.771464 26341 layer_factory.hpp:77] Creating layer res4e
I1029 12:33:47.771476 26341 net.cpp:84] Creating Layer res4e
I1029 12:33:47.771481 26341 net.cpp:406] res4e <- res4d_res4d_relu_0_split_1
I1029 12:33:47.771487 26341 net.cpp:406] res4e <- res4e_branch2c
I1029 12:33:47.771494 26341 net.cpp:380] res4e -> res4e
I1029 12:33:47.771526 26341 net.cpp:122] Setting up res4e
I1029 12:33:47.771534 26341 net.cpp:129] Top shape: 20 1024 14 14 (4014080)
I1029 12:33:47.771538 26341 net.cpp:137] Memory required for data: 4218798160
I1029 12:33:47.771543 26341 layer_factory.hpp:77] Creating layer res4e_relu
I1029 12:33:47.771550 26341 net.cpp:84] Creating Layer res4e_relu
I1029 12:33:47.771555 26341 net.cpp:406] res4e_relu <- res4e
I1029 12:33:47.771564 26341 net.cpp:367] res4e_relu -> res4e (in-place)
I1029 12:33:47.772202 26341 net.cpp:122] Setting up res4e_relu
I1029 12:33:47.772214 26341 net.cpp:129] Top shape: 20 1024 14 14 (4014080)
I1029 12:33:47.772219 26341 net.cpp:137] Memory required for data: 4234854480
I1029 12:33:47.772223 26341 layer_factory.hpp:77] Creating layer res4e_res4e_relu_0_split
I1029 12:33:47.772233 26341 net.cpp:84] Creating Layer res4e_res4e_relu_0_split
I1029 12:33:47.772238 26341 net.cpp:406] res4e_res4e_relu_0_split <- res4e
I1029 12:33:47.772246 26341 net.cpp:380] res4e_res4e_relu_0_split -> res4e_res4e_relu_0_split_0
I1029 12:33:47.772256 26341 net.cpp:380] res4e_res4e_relu_0_split -> res4e_res4e_relu_0_split_1
I1029 12:33:47.772310 26341 net.cpp:122] Setting up res4e_res4e_relu_0_split
I1029 12:33:47.772320 26341 net.cpp:129] Top shape: 20 1024 14 14 (4014080)
I1029 12:33:47.772326 26341 net.cpp:129] Top shape: 20 1024 14 14 (4014080)
I1029 12:33:47.772332 26341 net.cpp:137] Memory required for data: 4266967120
I1029 12:33:47.772337 26341 layer_factory.hpp:77] Creating layer res4f_branch2a
I1029 12:33:47.772347 26341 net.cpp:84] Creating Layer res4f_branch2a
I1029 12:33:47.772354 26341 net.cpp:406] res4f_branch2a <- res4e_res4e_relu_0_split_0
I1029 12:33:47.772363 26341 net.cpp:380] res4f_branch2a -> res4f_branch2a
I1029 12:33:47.773676 26341 net.cpp:122] Setting up res4f_branch2a
I1029 12:33:47.773703 26341 net.cpp:129] Top shape: 20 256 14 14 (1003520)
I1029 12:33:47.773708 26341 net.cpp:137] Memory required for data: 4270981200
I1029 12:33:47.773720 26341 layer_factory.hpp:77] Creating layer bn4f_branch2a
I1029 12:33:47.773731 26341 net.cpp:84] Creating Layer bn4f_branch2a
I1029 12:33:47.773738 26341 net.cpp:406] bn4f_branch2a <- res4f_branch2a
I1029 12:33:47.773751 26341 net.cpp:367] bn4f_branch2a -> res4f_branch2a (in-place)
I1029 12:33:47.774073 26341 net.cpp:122] Setting up bn4f_branch2a
I1029 12:33:47.774083 26341 net.cpp:129] Top shape: 20 256 14 14 (1003520)
I1029 12:33:47.774088 26341 net.cpp:137] Memory required for data: 4274995280
I1029 12:33:47.774122 26341 layer_factory.hpp:77] Creating layer scale4f_branch2a
I1029 12:33:47.774132 26341 net.cpp:84] Creating Layer scale4f_branch2a
I1029 12:33:47.774137 26341 net.cpp:406] scale4f_branch2a <- res4f_branch2a
I1029 12:33:47.774144 26341 net.cpp:367] scale4f_branch2a -> res4f_branch2a (in-place)
I1029 12:33:47.774202 26341 layer_factory.hpp:77] Creating layer scale4f_branch2a
I1029 12:33:47.774348 26341 net.cpp:122] Setting up scale4f_branch2a
I1029 12:33:47.774358 26341 net.cpp:129] Top shape: 20 256 14 14 (1003520)
I1029 12:33:47.774361 26341 net.cpp:137] Memory required for data: 4279009360
I1029 12:33:47.774370 26341 layer_factory.hpp:77] Creating layer res4f_branch2a_relu
I1029 12:33:47.774379 26341 net.cpp:84] Creating Layer res4f_branch2a_relu
I1029 12:33:47.774384 26341 net.cpp:406] res4f_branch2a_relu <- res4f_branch2a
I1029 12:33:47.774390 26341 net.cpp:367] res4f_branch2a_relu -> res4f_branch2a (in-place)
I1029 12:33:47.775104 26341 net.cpp:122] Setting up res4f_branch2a_relu
I1029 12:33:47.775116 26341 net.cpp:129] Top shape: 20 256 14 14 (1003520)
I1029 12:33:47.775121 26341 net.cpp:137] Memory required for data: 4283023440
I1029 12:33:47.775126 26341 layer_factory.hpp:77] Creating layer res4f_branch2b
I1029 12:33:47.775141 26341 net.cpp:84] Creating Layer res4f_branch2b
I1029 12:33:47.775146 26341 net.cpp:406] res4f_branch2b <- res4f_branch2a
I1029 12:33:47.775156 26341 net.cpp:380] res4f_branch2b -> res4f_branch2b
I1029 12:33:47.779606 26341 net.cpp:122] Setting up res4f_branch2b
I1029 12:33:47.779645 26341 net.cpp:129] Top shape: 20 256 14 14 (1003520)
I1029 12:33:47.779651 26341 net.cpp:137] Memory required for data: 4287037520
I1029 12:33:47.779666 26341 layer_factory.hpp:77] Creating layer bn4f_branch2b
I1029 12:33:47.779681 26341 net.cpp:84] Creating Layer bn4f_branch2b
I1029 12:33:47.779690 26341 net.cpp:406] bn4f_branch2b <- res4f_branch2b
I1029 12:33:47.779702 26341 net.cpp:367] bn4f_branch2b -> res4f_branch2b (in-place)
I1029 12:33:47.780035 26341 net.cpp:122] Setting up bn4f_branch2b
I1029 12:33:47.780045 26341 net.cpp:129] Top shape: 20 256 14 14 (1003520)
I1029 12:33:47.780050 26341 net.cpp:137] Memory required for data: 4291051600
I1029 12:33:47.780062 26341 layer_factory.hpp:77] Creating layer scale4f_branch2b
I1029 12:33:47.780073 26341 net.cpp:84] Creating Layer scale4f_branch2b
I1029 12:33:47.780079 26341 net.cpp:406] scale4f_branch2b <- res4f_branch2b
I1029 12:33:47.780086 26341 net.cpp:367] scale4f_branch2b -> res4f_branch2b (in-place)
I1029 12:33:47.780148 26341 layer_factory.hpp:77] Creating layer scale4f_branch2b
I1029 12:33:47.780299 26341 net.cpp:122] Setting up scale4f_branch2b
I1029 12:33:47.780308 26341 net.cpp:129] Top shape: 20 256 14 14 (1003520)
I1029 12:33:47.780313 26341 net.cpp:137] Memory required for data: 4295065680
I1029 12:33:47.780321 26341 layer_factory.hpp:77] Creating layer res4f_branch2b_relu
I1029 12:33:47.780331 26341 net.cpp:84] Creating Layer res4f_branch2b_relu
I1029 12:33:47.780336 26341 net.cpp:406] res4f_branch2b_relu <- res4f_branch2b
I1029 12:33:47.780344 26341 net.cpp:367] res4f_branch2b_relu -> res4f_branch2b (in-place)
I1029 12:33:47.780608 26341 net.cpp:122] Setting up res4f_branch2b_relu
I1029 12:33:47.780617 26341 net.cpp:129] Top shape: 20 256 14 14 (1003520)
I1029 12:33:47.780622 26341 net.cpp:137] Memory required for data: 4299079760
I1029 12:33:47.780627 26341 layer_factory.hpp:77] Creating layer res4f_branch2c
I1029 12:33:47.780640 26341 net.cpp:84] Creating Layer res4f_branch2c
I1029 12:33:47.780645 26341 net.cpp:406] res4f_branch2c <- res4f_branch2b
I1029 12:33:47.780654 26341 net.cpp:380] res4f_branch2c -> res4f_branch2c
I1029 12:33:47.784072 26341 net.cpp:122] Setting up res4f_branch2c
I1029 12:33:47.784116 26341 net.cpp:129] Top shape: 20 1024 14 14 (4014080)
I1029 12:33:47.784121 26341 net.cpp:137] Memory required for data: 4315136080
I1029 12:33:47.784135 26341 layer_factory.hpp:77] Creating layer bn4f_branch2c
I1029 12:33:47.784152 26341 net.cpp:84] Creating Layer bn4f_branch2c
I1029 12:33:47.784183 26341 net.cpp:406] bn4f_branch2c <- res4f_branch2c
I1029 12:33:47.784198 26341 net.cpp:367] bn4f_branch2c -> res4f_branch2c (in-place)
I1029 12:33:47.784494 26341 net.cpp:122] Setting up bn4f_branch2c
I1029 12:33:47.784503 26341 net.cpp:129] Top shape: 20 1024 14 14 (4014080)
I1029 12:33:47.784508 26341 net.cpp:137] Memory required for data: 4331192400
I1029 12:33:47.784579 26341 layer_factory.hpp:77] Creating layer scale4f_branch2c
I1029 12:33:47.784590 26341 net.cpp:84] Creating Layer scale4f_branch2c
I1029 12:33:47.784595 26341 net.cpp:406] scale4f_branch2c <- res4f_branch2c
I1029 12:33:47.784602 26341 net.cpp:367] scale4f_branch2c -> res4f_branch2c (in-place)
I1029 12:33:47.784658 26341 layer_factory.hpp:77] Creating layer scale4f_branch2c
I1029 12:33:47.784824 26341 net.cpp:122] Setting up scale4f_branch2c
I1029 12:33:47.784834 26341 net.cpp:129] Top shape: 20 1024 14 14 (4014080)
I1029 12:33:47.784838 26341 net.cpp:137] Memory required for data: 4347248720
I1029 12:33:47.784847 26341 layer_factory.hpp:77] Creating layer res4f
I1029 12:33:47.784857 26341 net.cpp:84] Creating Layer res4f
I1029 12:33:47.784862 26341 net.cpp:406] res4f <- res4e_res4e_relu_0_split_1
I1029 12:33:47.784868 26341 net.cpp:406] res4f <- res4f_branch2c
I1029 12:33:47.784876 26341 net.cpp:380] res4f -> res4f
I1029 12:33:47.784909 26341 net.cpp:122] Setting up res4f
I1029 12:33:47.784915 26341 net.cpp:129] Top shape: 20 1024 14 14 (4014080)
I1029 12:33:47.784919 26341 net.cpp:137] Memory required for data: 4363305040
I1029 12:33:47.784924 26341 layer_factory.hpp:77] Creating layer res4f_relu
I1029 12:33:47.784932 26341 net.cpp:84] Creating Layer res4f_relu
I1029 12:33:47.784936 26341 net.cpp:406] res4f_relu <- res4f
I1029 12:33:47.784945 26341 net.cpp:367] res4f_relu -> res4f (in-place)
I1029 12:33:47.785169 26341 net.cpp:122] Setting up res4f_relu
I1029 12:33:47.785179 26341 net.cpp:129] Top shape: 20 1024 14 14 (4014080)
I1029 12:33:47.785184 26341 net.cpp:137] Memory required for data: 4379361360
I1029 12:33:47.785188 26341 layer_factory.hpp:77] Creating layer res4f_res4f_relu_0_split
I1029 12:33:47.785197 26341 net.cpp:84] Creating Layer res4f_res4f_relu_0_split
I1029 12:33:47.785200 26341 net.cpp:406] res4f_res4f_relu_0_split <- res4f
I1029 12:33:47.785212 26341 net.cpp:380] res4f_res4f_relu_0_split -> res4f_res4f_relu_0_split_0
I1029 12:33:47.785220 26341 net.cpp:380] res4f_res4f_relu_0_split -> res4f_res4f_relu_0_split_1
I1029 12:33:47.785274 26341 net.cpp:122] Setting up res4f_res4f_relu_0_split
I1029 12:33:47.785282 26341 net.cpp:129] Top shape: 20 1024 14 14 (4014080)
I1029 12:33:47.785290 26341 net.cpp:129] Top shape: 20 1024 14 14 (4014080)
I1029 12:33:47.785293 26341 net.cpp:137] Memory required for data: 4411474000
I1029 12:33:47.785298 26341 layer_factory.hpp:77] Creating layer res5a_branch1
I1029 12:33:47.785310 26341 net.cpp:84] Creating Layer res5a_branch1
I1029 12:33:47.785315 26341 net.cpp:406] res5a_branch1 <- res4f_res4f_relu_0_split_0
I1029 12:33:47.785322 26341 net.cpp:380] res5a_branch1 -> res5a_branch1
I1029 12:33:47.794538 26341 net.cpp:122] Setting up res5a_branch1
I1029 12:33:47.794570 26341 net.cpp:129] Top shape: 20 2048 7 7 (2007040)
I1029 12:33:47.794576 26341 net.cpp:137] Memory required for data: 4419502160
I1029 12:33:47.794592 26341 layer_factory.hpp:77] Creating layer bn5a_branch1
I1029 12:33:47.794608 26341 net.cpp:84] Creating Layer bn5a_branch1
I1029 12:33:47.794617 26341 net.cpp:406] bn5a_branch1 <- res5a_branch1
I1029 12:33:47.794631 26341 net.cpp:367] bn5a_branch1 -> res5a_branch1 (in-place)
I1029 12:33:47.794939 26341 net.cpp:122] Setting up bn5a_branch1
I1029 12:33:47.794947 26341 net.cpp:129] Top shape: 20 2048 7 7 (2007040)
I1029 12:33:47.794952 26341 net.cpp:137] Memory required for data: 4427530320
I1029 12:33:47.794962 26341 layer_factory.hpp:77] Creating layer scale5a_branch1
I1029 12:33:47.794971 26341 net.cpp:84] Creating Layer scale5a_branch1
I1029 12:33:47.794976 26341 net.cpp:406] scale5a_branch1 <- res5a_branch1
I1029 12:33:47.794982 26341 net.cpp:367] scale5a_branch1 -> res5a_branch1 (in-place)
I1029 12:33:47.795071 26341 layer_factory.hpp:77] Creating layer scale5a_branch1
I1029 12:33:47.795239 26341 net.cpp:122] Setting up scale5a_branch1
I1029 12:33:47.795248 26341 net.cpp:129] Top shape: 20 2048 7 7 (2007040)
I1029 12:33:47.795253 26341 net.cpp:137] Memory required for data: 4435558480
I1029 12:33:47.795261 26341 layer_factory.hpp:77] Creating layer res5a_branch2a
I1029 12:33:47.795274 26341 net.cpp:84] Creating Layer res5a_branch2a
I1029 12:33:47.795279 26341 net.cpp:406] res5a_branch2a <- res4f_res4f_relu_0_split_1
I1029 12:33:47.795287 26341 net.cpp:380] res5a_branch2a -> res5a_branch2a
I1029 12:33:47.799445 26341 net.cpp:122] Setting up res5a_branch2a
I1029 12:33:47.799481 26341 net.cpp:129] Top shape: 20 512 7 7 (501760)
I1029 12:33:47.799486 26341 net.cpp:137] Memory required for data: 4437565520
I1029 12:33:47.799504 26341 layer_factory.hpp:77] Creating layer bn5a_branch2a
I1029 12:33:47.799522 26341 net.cpp:84] Creating Layer bn5a_branch2a
I1029 12:33:47.799530 26341 net.cpp:406] bn5a_branch2a <- res5a_branch2a
I1029 12:33:47.799541 26341 net.cpp:367] bn5a_branch2a -> res5a_branch2a (in-place)
I1029 12:33:47.799844 26341 net.cpp:122] Setting up bn5a_branch2a
I1029 12:33:47.799852 26341 net.cpp:129] Top shape: 20 512 7 7 (501760)
I1029 12:33:47.799856 26341 net.cpp:137] Memory required for data: 4439572560
I1029 12:33:47.799867 26341 layer_factory.hpp:77] Creating layer scale5a_branch2a
I1029 12:33:47.799876 26341 net.cpp:84] Creating Layer scale5a_branch2a
I1029 12:33:47.799881 26341 net.cpp:406] scale5a_branch2a <- res5a_branch2a
I1029 12:33:47.799890 26341 net.cpp:367] scale5a_branch2a -> res5a_branch2a (in-place)
I1029 12:33:47.799942 26341 layer_factory.hpp:77] Creating layer scale5a_branch2a
I1029 12:33:47.800104 26341 net.cpp:122] Setting up scale5a_branch2a
I1029 12:33:47.800113 26341 net.cpp:129] Top shape: 20 512 7 7 (501760)
I1029 12:33:47.800117 26341 net.cpp:137] Memory required for data: 4441579600
I1029 12:33:47.800125 26341 layer_factory.hpp:77] Creating layer res5a_branch2a_relu
I1029 12:33:47.800138 26341 net.cpp:84] Creating Layer res5a_branch2a_relu
I1029 12:33:47.800143 26341 net.cpp:406] res5a_branch2a_relu <- res5a_branch2a
I1029 12:33:47.800151 26341 net.cpp:367] res5a_branch2a_relu -> res5a_branch2a (in-place)
I1029 12:33:47.800376 26341 net.cpp:122] Setting up res5a_branch2a_relu
I1029 12:33:47.800385 26341 net.cpp:129] Top shape: 20 512 7 7 (501760)
I1029 12:33:47.800390 26341 net.cpp:137] Memory required for data: 4443586640
I1029 12:33:47.800395 26341 layer_factory.hpp:77] Creating layer res5a_branch2b
I1029 12:33:47.800407 26341 net.cpp:84] Creating Layer res5a_branch2b
I1029 12:33:47.800415 26341 net.cpp:406] res5a_branch2b <- res5a_branch2a
I1029 12:33:47.800421 26341 net.cpp:380] res5a_branch2b -> res5a_branch2b
I1029 12:33:47.810518 26341 net.cpp:122] Setting up res5a_branch2b
I1029 12:33:47.810554 26341 net.cpp:129] Top shape: 20 512 7 7 (501760)
I1029 12:33:47.810560 26341 net.cpp:137] Memory required for data: 4445593680
I1029 12:33:47.810575 26341 layer_factory.hpp:77] Creating layer bn5a_branch2b
I1029 12:33:47.810595 26341 net.cpp:84] Creating Layer bn5a_branch2b
I1029 12:33:47.810603 26341 net.cpp:406] bn5a_branch2b <- res5a_branch2b
I1029 12:33:47.810612 26341 net.cpp:367] bn5a_branch2b -> res5a_branch2b (in-place)
I1029 12:33:47.810914 26341 net.cpp:122] Setting up bn5a_branch2b
I1029 12:33:47.810922 26341 net.cpp:129] Top shape: 20 512 7 7 (501760)
I1029 12:33:47.810926 26341 net.cpp:137] Memory required for data: 4447600720
I1029 12:33:47.810938 26341 layer_factory.hpp:77] Creating layer scale5a_branch2b
I1029 12:33:47.810947 26341 net.cpp:84] Creating Layer scale5a_branch2b
I1029 12:33:47.810952 26341 net.cpp:406] scale5a_branch2b <- res5a_branch2b
I1029 12:33:47.810959 26341 net.cpp:367] scale5a_branch2b -> res5a_branch2b (in-place)
I1029 12:33:47.811020 26341 layer_factory.hpp:77] Creating layer scale5a_branch2b
I1029 12:33:47.811198 26341 net.cpp:122] Setting up scale5a_branch2b
I1029 12:33:47.811208 26341 net.cpp:129] Top shape: 20 512 7 7 (501760)
I1029 12:33:47.811231 26341 net.cpp:137] Memory required for data: 4449607760
I1029 12:33:47.811239 26341 layer_factory.hpp:77] Creating layer res5a_branch2b_relu
I1029 12:33:47.811247 26341 net.cpp:84] Creating Layer res5a_branch2b_relu
I1029 12:33:47.811254 26341 net.cpp:406] res5a_branch2b_relu <- res5a_branch2b
I1029 12:33:47.811264 26341 net.cpp:367] res5a_branch2b_relu -> res5a_branch2b (in-place)
I1029 12:33:47.811477 26341 net.cpp:122] Setting up res5a_branch2b_relu
I1029 12:33:47.811487 26341 net.cpp:129] Top shape: 20 512 7 7 (501760)
I1029 12:33:47.811491 26341 net.cpp:137] Memory required for data: 4451614800
I1029 12:33:47.811496 26341 layer_factory.hpp:77] Creating layer res5a_branch2c
I1029 12:33:47.811509 26341 net.cpp:84] Creating Layer res5a_branch2c
I1029 12:33:47.811519 26341 net.cpp:406] res5a_branch2c <- res5a_branch2b
I1029 12:33:47.811527 26341 net.cpp:380] res5a_branch2c -> res5a_branch2c
I1029 12:33:47.818394 26341 net.cpp:122] Setting up res5a_branch2c
I1029 12:33:47.818433 26341 net.cpp:129] Top shape: 20 2048 7 7 (2007040)
I1029 12:33:47.818439 26341 net.cpp:137] Memory required for data: 4459642960
I1029 12:33:47.818452 26341 layer_factory.hpp:77] Creating layer bn5a_branch2c
I1029 12:33:47.818470 26341 net.cpp:84] Creating Layer bn5a_branch2c
I1029 12:33:47.818477 26341 net.cpp:406] bn5a_branch2c <- res5a_branch2c
I1029 12:33:47.818490 26341 net.cpp:367] bn5a_branch2c -> res5a_branch2c (in-place)
I1029 12:33:47.818786 26341 net.cpp:122] Setting up bn5a_branch2c
I1029 12:33:47.818794 26341 net.cpp:129] Top shape: 20 2048 7 7 (2007040)
I1029 12:33:47.818799 26341 net.cpp:137] Memory required for data: 4467671120
I1029 12:33:47.818810 26341 layer_factory.hpp:77] Creating layer scale5a_branch2c
I1029 12:33:47.818819 26341 net.cpp:84] Creating Layer scale5a_branch2c
I1029 12:33:47.818825 26341 net.cpp:406] scale5a_branch2c <- res5a_branch2c
I1029 12:33:47.818833 26341 net.cpp:367] scale5a_branch2c -> res5a_branch2c (in-place)
I1029 12:33:47.818887 26341 layer_factory.hpp:77] Creating layer scale5a_branch2c
I1029 12:33:47.819049 26341 net.cpp:122] Setting up scale5a_branch2c
I1029 12:33:47.819058 26341 net.cpp:129] Top shape: 20 2048 7 7 (2007040)
I1029 12:33:47.819063 26341 net.cpp:137] Memory required for data: 4475699280
I1029 12:33:47.819072 26341 layer_factory.hpp:77] Creating layer res5a
I1029 12:33:47.819079 26341 net.cpp:84] Creating Layer res5a
I1029 12:33:47.819084 26341 net.cpp:406] res5a <- res5a_branch1
I1029 12:33:47.819092 26341 net.cpp:406] res5a <- res5a_branch2c
I1029 12:33:47.819100 26341 net.cpp:380] res5a -> res5a
I1029 12:33:47.819131 26341 net.cpp:122] Setting up res5a
I1029 12:33:47.819142 26341 net.cpp:129] Top shape: 20 2048 7 7 (2007040)
I1029 12:33:47.819147 26341 net.cpp:137] Memory required for data: 4483727440
I1029 12:33:47.819151 26341 layer_factory.hpp:77] Creating layer res5a_relu
I1029 12:33:47.819159 26341 net.cpp:84] Creating Layer res5a_relu
…
I1029 12:33:48.473175 26341 net.cpp:122] Setting up res4c_relu
I1029 12:33:48.473191 26341 net.cpp:129] Top shape: 1 1024 14 14 (200704)
I1029 12:33:48.473196 26341 net.cpp:137] Memory required for data: 197292036
I1029 12:33:48.473199 26341 layer_factory.hpp:77] Creating layer res4c_res4c_relu_0_split
I1029 12:33:48.473207 26341 net.cpp:84] Creating Layer res4c_res4c_relu_0_split
I1029 12:33:48.473213 26341 net.cpp:406] res4c_res4c_relu_0_split <- res4c
I1029 12:33:48.473222 26341 net.cpp:380] res4c_res4c_relu_0_split -> res4c_res4c_relu_0_split_0
I1029 12:33:48.473232 26341 net.cpp:380] res4c_res4c_relu_0_split -> res4c_res4c_relu_0_split_1
I1029 12:33:48.473294 26341 net.cpp:122] Setting up res4c_res4c_relu_0_split
I1029 12:33:48.473304 26341 net.cpp:129] Top shape: 1 1024 14 14 (200704)
I1029 12:33:48.473312 26341 net.cpp:129] Top shape: 1 1024 14 14 (200704)
I1029 12:33:48.473317 26341 net.cpp:137] Memory required for data: 198897668
I1029 12:33:48.473321 26341 layer_factory.hpp:77] Creating layer res4d_branch2a
I1029 12:33:48.473332 26341 net.cpp:84] Creating Layer res4d_branch2a
I1029 12:33:48.473340 26341 net.cpp:406] res4d_branch2a <- res4c_res4c_relu_0_split_0
I1029 12:33:48.473348 26341 net.cpp:380] res4d_branch2a -> res4d_branch2a
I1029 12:33:48.475458 26341 net.cpp:122] Setting up res4d_branch2a
I1029 12:33:48.475498 26341 net.cpp:129] Top shape: 1 256 14 14 (50176)
I1029 12:33:48.475504 26341 net.cpp:137] Memory required for data: 199098372
I1029 12:33:48.475518 26341 layer_factory.hpp:77] Creating layer bn4d_branch2a
I1029 12:33:48.475533 26341 net.cpp:84] Creating Layer bn4d_branch2a
I1029 12:33:48.475540 26341 net.cpp:406] bn4d_branch2a <- res4d_branch2a
I1029 12:33:48.475553 26341 net.cpp:367] bn4d_branch2a -> res4d_branch2a (in-place)
I1029 12:33:48.475899 26341 net.cpp:122] Setting up bn4d_branch2a
I1029 12:33:48.475908 26341 net.cpp:129] Top shape: 1 256 14 14 (50176)
I1029 12:33:48.475913 26341 net.cpp:137] Memory required for data: 199299076
I1029 12:33:48.475924 26341 layer_factory.hpp:77] Creating layer scale4d_branch2a
I1029 12:33:48.475935 26341 net.cpp:84] Creating Layer scale4d_branch2a
I1029 12:33:48.475955 26341 net.cpp:406] scale4d_branch2a <- res4d_branch2a
I1029 12:33:48.475962 26341 net.cpp:367] scale4d_branch2a -> res4d_branch2a (in-place)
I1029 12:33:48.476024 26341 layer_factory.hpp:77] Creating layer scale4d_branch2a
I1029 12:33:48.476205 26341 net.cpp:122] Setting up scale4d_branch2a
I1029 12:33:48.476214 26341 net.cpp:129] Top shape: 1 256 14 14 (50176)
I1029 12:33:48.476218 26341 net.cpp:137] Memory required for data: 199499780
I1029 12:33:48.476227 26341 layer_factory.hpp:77] Creating layer res4d_branch2a_relu
I1029 12:33:48.476236 26341 net.cpp:84] Creating Layer res4d_branch2a_relu
I1029 12:33:48.476243 26341 net.cpp:406] res4d_branch2a_relu <- res4d_branch2a
I1029 12:33:48.476249 26341 net.cpp:367] res4d_branch2a_relu -> res4d_branch2a (in-place)
I1029 12:33:48.476465 26341 net.cpp:122] Setting up res4d_branch2a_relu
I1029 12:33:48.476475 26341 net.cpp:129] Top shape: 1 256 14 14 (50176)
I1029 12:33:48.476478 26341 net.cpp:137] Memory required for data: 199700484
I1029 12:33:48.476483 26341 layer_factory.hpp:77] Creating layer res4d_branch2b
I1029 12:33:48.476495 26341 net.cpp:84] Creating Layer res4d_branch2b
I1029 12:33:48.476500 26341 net.cpp:406] res4d_branch2b <- res4d_branch2a
I1029 12:33:48.476507 26341 net.cpp:380] res4d_branch2b -> res4d_branch2b
I1029 12:33:48.481302 26341 net.cpp:122] Setting up res4d_branch2b
I1029 12:33:48.481346 26341 net.cpp:129] Top shape: 1 256 14 14 (50176)
I1029 12:33:48.481354 26341 net.cpp:137] Memory required for data: 199901188
I1029 12:33:48.481370 26341 layer_factory.hpp:77] Creating layer bn4d_branch2b
I1029 12:33:48.481386 26341 net.cpp:84] Creating Layer bn4d_branch2b
I1029 12:33:48.481395 26341 net.cpp:406] bn4d_branch2b <- res4d_branch2b
I1029 12:33:48.481412 26341 net.cpp:367] bn4d_branch2b -> res4d_branch2b (in-place)
I1029 12:33:48.481761 26341 net.cpp:122] Setting up bn4d_branch2b
I1029 12:33:48.481770 26341 net.cpp:129] Top shape: 1 256 14 14 (50176)
I1029 12:33:48.481775 26341 net.cpp:137] Memory required for data: 200101892
I1029 12:33:48.481784 26341 layer_factory.hpp:77] Creating layer scale4d_branch2b
I1029 12:33:48.481796 26341 net.cpp:84] Creating Layer scale4d_branch2b
I1029 12:33:48.481801 26341 net.cpp:406] scale4d_branch2b <- res4d_branch2b
I1029 12:33:48.481807 26341 net.cpp:367] scale4d_branch2b -> res4d_branch2b (in-place)
I1029 12:33:48.481889 26341 layer_factory.hpp:77] Creating layer scale4d_branch2b
I1029 12:33:48.482074 26341 net.cpp:122] Setting up scale4d_branch2b
I1029 12:33:48.482084 26341 net.cpp:129] Top shape: 1 256 14 14 (50176)
I1029 12:33:48.482087 26341 net.cpp:137] Memory required for data: 200302596
I1029 12:33:48.482095 26341 layer_factory.hpp:77] Creating layer res4d_branch2b_relu
I1029 12:33:48.482105 26341 net.cpp:84] Creating Layer res4d_branch2b_relu
I1029 12:33:48.482110 26341 net.cpp:406] res4d_branch2b_relu <- res4d_branch2b
I1029 12:33:48.482116 26341 net.cpp:367] res4d_branch2b_relu -> res4d_branch2b (in-place)
I1029 12:33:48.482355 26341 net.cpp:122] Setting up res4d_branch2b_relu
I1029 12:33:48.482365 26341 net.cpp:129] Top shape: 1 256 14 14 (50176)
I1029 12:33:48.482369 26341 net.cpp:137] Memory required for data: 200503300
I1029 12:33:48.482374 26341 layer_factory.hpp:77] Creating layer res4d_branch2c
I1029 12:33:48.482386 26341 net.cpp:84] Creating Layer res4d_branch2c
I1029 12:33:48.482391 26341 net.cpp:406] res4d_branch2c <- res4d_branch2b
I1029 12:33:48.482400 26341 net.cpp:380] res4d_branch2c -> res4d_branch2c
I1029 12:33:48.485906 26341 net.cpp:122] Setting up res4d_branch2c
I1029 12:33:48.485946 26341 net.cpp:129] Top shape: 1 1024 14 14 (200704)
I1029 12:33:48.485952 26341 net.cpp:137] Memory required for data: 201306116
I1029 12:33:48.485966 26341 layer_factory.hpp:77] Creating layer bn4d_branch2c
I1029 12:33:48.485982 26341 net.cpp:84] Creating Layer bn4d_branch2c
I1029 12:33:48.485991 26341 net.cpp:406] bn4d_branch2c <- res4d_branch2c
I1029 12:33:48.486004 26341 net.cpp:367] bn4d_branch2c -> res4d_branch2c (in-place)
I1029 12:33:48.486363 26341 net.cpp:122] Setting up bn4d_branch2c
I1029 12:33:48.486383 26341 net.cpp:129] Top shape: 1 1024 14 14 (200704)
I1029 12:33:48.486388 26341 net.cpp:137] Memory required for data: 202108932
I1029 12:33:48.486399 26341 layer_factory.hpp:77] Creating layer scale4d_branch2c
I1029 12:33:48.486407 26341 net.cpp:84] Creating Layer scale4d_branch2c
I1029 12:33:48.486413 26341 net.cpp:406] scale4d_branch2c <- res4d_branch2c
I1029 12:33:48.486419 26341 net.cpp:367] scale4d_branch2c -> res4d_branch2c (in-place)
I1029 12:33:48.486479 26341 layer_factory.hpp:77] Creating layer scale4d_branch2c
I1029 12:33:48.486670 26341 net.cpp:122] Setting up scale4d_branch2c
I1029 12:33:48.486680 26341 net.cpp:129] Top shape: 1 1024 14 14 (200704)
I1029 12:33:48.486683 26341 net.cpp:137] Memory required for data: 202911748
I1029 12:33:48.486692 26341 layer_factory.hpp:77] Creating layer res4d
I1029 12:33:48.486702 26341 net.cpp:84] Creating Layer res4d
I1029 12:33:48.486707 26341 net.cpp:406] res4d <- res4c_res4c_relu_0_split_1
I1029 12:33:48.486713 26341 net.cpp:406] res4d <- res4d_branch2c
I1029 12:33:48.486721 26341 net.cpp:380] res4d -> res4d
I1029 12:33:48.486757 26341 net.cpp:122] Setting up res4d
I1029 12:33:48.486765 26341 net.cpp:129] Top shape: 1 1024 14 14 (200704)
I1029 12:33:48.486769 26341 net.cpp:137] Memory required for data: 203714564
I1029 12:33:48.486774 26341 layer_factory.hpp:77] Creating layer res4d_relu
I1029 12:33:48.486781 26341 net.cpp:84] Creating Layer res4d_relu
I1029 12:33:48.486786 26341 net.cpp:406] res4d_relu <- res4d
I1029 12:33:48.486795 26341 net.cpp:367] res4d_relu -> res4d (in-place)
I1029 12:33:48.487025 26341 net.cpp:122] Setting up res4d_relu
I1029 12:33:48.487035 26341 net.cpp:129] Top shape: 1 1024 14 14 (200704)
I1029 12:33:48.487038 26341 net.cpp:137] Memory required for data: 204517380
I1029 12:33:48.487045 26341 layer_factory.hpp:77] Creating layer res4d_res4d_relu_0_split
I1029 12:33:48.487051 26341 net.cpp:84] Creating Layer res4d_res4d_relu_0_split
I1029 12:33:48.487056 26341 net.cpp:406] res4d_res4d_relu_0_split <- res4d
I1029 12:33:48.487066 26341 net.cpp:380] res4d_res4d_relu_0_split -> res4d_res4d_relu_0_split_0
I1029 12:33:48.487074 26341 net.cpp:380] res4d_res4d_relu_0_split -> res4d_res4d_relu_0_split_1
I1029 12:33:48.487134 26341 net.cpp:122] Setting up res4d_res4d_relu_0_split
I1029 12:33:48.487143 26341 net.cpp:129] Top shape: 1 1024 14 14 (200704)
I1029 12:33:48.487149 26341 net.cpp:129] Top shape: 1 1024 14 14 (200704)
I1029 12:33:48.487152 26341 net.cpp:137] Memory required for data: 206123012
I1029 12:33:48.487157 26341 layer_factory.hpp:77] Creating layer res4e_branch2a
I1029 12:33:48.487171 26341 net.cpp:84] Creating Layer res4e_branch2a
I1029 12:33:48.487176 26341 net.cpp:406] res4e_branch2a <- res4d_res4d_relu_0_split_0
I1029 12:33:48.487184 26341 net.cpp:380] res4e_branch2a -> res4e_branch2a
I1029 12:33:48.489732 26341 net.cpp:122] Setting up res4e_branch2a
I1029 12:33:48.489850 26341 net.cpp:129] Top shape: 1 256 14 14 (50176)
I1029 12:33:48.489858 26341 net.cpp:137] Memory required for data: 206323716
I1029 12:33:48.489872 26341 layer_factory.hpp:77] Creating layer bn4e_branch2a
I1029 12:33:48.489889 26341 net.cpp:84] Creating Layer bn4e_branch2a
I1029 12:33:48.489899 26341 net.cpp:406] bn4e_branch2a <- res4e_branch2a
I1029 12:33:48.489909 26341 net.cpp:367] bn4e_branch2a -> res4e_branch2a (in-place)
I1029 12:33:48.490262 26341 net.cpp:122] Setting up bn4e_branch2a
I1029 12:33:48.490273 26341 net.cpp:129] Top shape: 1 256 14 14 (50176)
I1029 12:33:48.490278 26341 net.cpp:137] Memory required for data: 206524420
I1029 12:33:48.490289 26341 layer_factory.hpp:77] Creating layer scale4e_branch2a
I1029 12:33:48.490298 26341 net.cpp:84] Creating Layer scale4e_branch2a
I1029 12:33:48.490303 26341 net.cpp:406] scale4e_branch2a <- res4e_branch2a
I1029 12:33:48.490309 26341 net.cpp:367] scale4e_branch2a -> res4e_branch2a (in-place)
I1029 12:33:48.490372 26341 layer_factory.hpp:77] Creating layer scale4e_branch2a
I1029 12:33:48.490561 26341 net.cpp:122] Setting up scale4e_branch2a
I1029 12:33:48.490589 26341 net.cpp:129] Top shape: 1 256 14 14 (50176)
I1029 12:33:48.490594 26341 net.cpp:137] Memory required for data: 206725124
I1029 12:33:48.490602 26341 layer_factory.hpp:77] Creating layer res4e_branch2a_relu
I1029 12:33:48.490612 26341 net.cpp:84] Creating Layer res4e_branch2a_relu
I1029 12:33:48.490617 26341 net.cpp:406] res4e_branch2a_relu <- res4e_branch2a
I1029 12:33:48.490623 26341 net.cpp:367] res4e_branch2a_relu -> res4e_branch2a (in-place)
I1029 12:33:48.490903 26341 net.cpp:122] Setting up res4e_branch2a_relu
I1029 12:33:48.490914 26341 net.cpp:129] Top shape: 1 256 14 14 (50176)
I1029 12:33:48.490919 26341 net.cpp:137] Memory required for data: 206925828
I1029 12:33:48.490923 26341 layer_factory.hpp:77] Creating layer res4e_branch2b
I1029 12:33:48.490934 26341 net.cpp:84] Creating Layer res4e_branch2b
I1029 12:33:48.490939 26341 net.cpp:406] res4e_branch2b <- res4e_branch2a
I1029 12:33:48.490948 26341 net.cpp:380] res4e_branch2b -> res4e_branch2b
I1029 12:33:48.495960 26341 net.cpp:122] Setting up res4e_branch2b
I1029 12:33:48.496002 26341 net.cpp:129] Top shape: 1 256 14 14 (50176)
I1029 12:33:48.496007 26341 net.cpp:137] Memory required for data: 207126532
I1029 12:33:48.496022 26341 layer_factory.hpp:77] Creating layer bn4e_branch2b
I1029 12:33:48.496038 26341 net.cpp:84] Creating Layer bn4e_branch2b
I1029 12:33:48.496048 26341 net.cpp:406] bn4e_branch2b <- res4e_branch2b
I1029 12:33:48.496059 26341 net.cpp:367] bn4e_branch2b -> res4e_branch2b (in-place)
I1029 12:33:48.496417 26341 net.cpp:122] Setting up bn4e_branch2b
I1029 12:33:48.496428 26341 net.cpp:129] Top shape: 1 256 14 14 (50176)
I1029 12:33:48.496433 26341 net.cpp:137] Memory required for data: 207327236
I1029 12:33:48.496443 26341 layer_factory.hpp:77] Creating layer scale4e_branch2b
I1029 12:33:48.496454 26341 net.cpp:84] Creating Layer scale4e_branch2b
I1029 12:33:48.496459 26341 net.cpp:406] scale4e_branch2b <- res4e_branch2b
I1029 12:33:48.496465 26341 net.cpp:367] scale4e_branch2b -> res4e_branch2b (in-place)
I1029 12:33:48.496531 26341 layer_factory.hpp:77] Creating layer scale4e_branch2b
I1029 12:33:48.496716 26341 net.cpp:122] Setting up scale4e_branch2b
I1029 12:33:48.496724 26341 net.cpp:129] Top shape: 1 256 14 14 (50176)
I1029 12:33:48.496728 26341 net.cpp:137] Memory required for data: 207527940
I1029 12:33:48.496737 26341 layer_factory.hpp:77] Creating layer res4e_branch2b_relu
I1029 12:33:48.496747 26341 net.cpp:84] Creating Layer res4e_branch2b_relu
I1029 12:33:48.496752 26341 net.cpp:406] res4e_branch2b_relu <- res4e_branch2b
I1029 12:33:48.496758 26341 net.cpp:367] res4e_branch2b_relu -> res4e_branch2b (in-place)
I1029 12:33:48.496996 26341 net.cpp:122] Setting up res4e_branch2b_relu
I1029 12:33:48.497007 26341 net.cpp:129] Top shape: 1 256 14 14 (50176)
I1029 12:33:48.497011 26341 net.cpp:137] Memory required for data: 207728644
I1029 12:33:48.497016 26341 layer_factory.hpp:77] Creating layer res4e_branch2c
I1029 12:33:48.497027 26341 net.cpp:84] Creating Layer res4e_branch2c
I1029 12:33:48.497032 26341 net.cpp:406] res4e_branch2c <- res4e_branch2b
I1029 12:33:48.497041 26341 net.cpp:380] res4e_branch2c -> res4e_branch2c
I1029 12:33:48.500535 26341 net.cpp:122] Setting up res4e_branch2c
I1029 12:33:48.500582 26341 net.cpp:129] Top shape: 1 1024 14 14 (200704)
I1029 12:33:48.500587 26341 net.cpp:137] Memory required for data: 208531460
I1029 12:33:48.500602 26341 layer_factory.hpp:77] Creating layer bn4e_branch2c
I1029 12:33:48.500617 26341 net.cpp:84] Creating Layer bn4e_branch2c
I1029 12:33:48.500625 26341 net.cpp:406] bn4e_branch2c <- res4e_branch2c
I1029 12:33:48.500636 26341 net.cpp:367] bn4e_branch2c -> res4e_branch2c (in-place)
I1029 12:33:48.500999 26341 net.cpp:122] Setting up bn4e_branch2c
I1029 12:33:48.501008 26341 net.cpp:129] Top shape: 1 1024 14 14 (200704)
I1029 12:33:48.501013 26341 net.cpp:137] Memory required for data: 209334276
I1029 12:33:48.501024 26341 layer_factory.hpp:77] Creating layer scale4e_branch2c
I1029 12:33:48.501034 26341 net.cpp:84] Creating Layer scale4e_branch2c
I1029 12:33:48.501060 26341 net.cpp:406] scale4e_branch2c <- res4e_branch2c
I1029 12:33:48.501068 26341 net.cpp:367] scale4e_branch2c -> res4e_branch2c (in-place)
I1029 12:33:48.501133 26341 layer_factory.hpp:77] Creating layer scale4e_branch2c
I1029 12:33:48.501354 26341 net.cpp:122] Setting up scale4e_branch2c
I1029 12:33:48.501366 26341 net.cpp:129] Top shape: 1 1024 14 14 (200704)
I1029 12:33:48.501371 26341 net.cpp:137] Memory required for data: 210137092
I1029 12:33:48.501379 26341 layer_factory.hpp:77] Creating layer res4e
I1029 12:33:48.501387 26341 net.cpp:84] Creating Layer res4e
I1029 12:33:48.501394 26341 net.cpp:406] res4e <- res4d_res4d_relu_0_split_1
I1029 12:33:48.501399 26341 net.cpp:406] res4e <- res4e_branch2c
I1029 12:33:48.501406 26341 net.cpp:380] res4e -> res4e
I1029 12:33:48.501446 26341 net.cpp:122] Setting up res4e
I1029 12:33:48.501456 26341 net.cpp:129] Top shape: 1 1024 14 14 (200704)
I1029 12:33:48.501459 26341 net.cpp:137] Memory required for data: 210939908
I1029 12:33:48.501462 26341 layer_factory.hpp:77] Creating layer res4e_relu
I1029 12:33:48.501471 26341 net.cpp:84] Creating Layer res4e_relu
I1029 12:33:48.501476 26341 net.cpp:406] res4e_relu <- res4e
I1029 12:33:48.501480 26341 net.cpp:367] res4e_relu -> res4e (in-place)
I1029 12:33:48.502327 26341 net.cpp:122] Setting up res4e_relu
I1029 12:33:48.502342 26341 net.cpp:129] Top shape: 1 1024 14 14 (200704)
I1029 12:33:48.502348 26341 net.cpp:137] Memory required for data: 211742724
I1029 12:33:48.502353 26341 layer_factory.hpp:77] Creating layer res4e_res4e_relu_0_split
I1029 12:33:48.502362 26341 net.cpp:84] Creating Layer res4e_res4e_relu_0_split
I1029 12:33:48.502377 26341 net.cpp:406] res4e_res4e_relu_0_split <- res4e
I1029 12:33:48.502384 26341 net.cpp:380] res4e_res4e_relu_0_split -> res4e_res4e_relu_0_split_0
I1029 12:33:48.502395 26341 net.cpp:380] res4e_res4e_relu_0_split -> res4e_res4e_relu_0_split_1
I1029 12:33:48.502465 26341 net.cpp:122] Setting up res4e_res4e_relu_0_split
I1029 12:33:48.502475 26341 net.cpp:129] Top shape: 1 1024 14 14 (200704)
I1029 12:33:48.502481 26341 net.cpp:129] Top shape: 1 1024 14 14 (200704)
I1029 12:33:48.502485 26341 net.cpp:137] Memory required for data: 213348356
I1029 12:33:48.502490 26341 layer_factory.hpp:77] Creating layer res4f_branch2a
I1029 12:33:48.502504 26341 net.cpp:84] Creating Layer res4f_branch2a
I1029 12:33:48.502508 26341 net.cpp:406] res4f_branch2a <- res4e_res4e_relu_0_split_0
I1029 12:33:48.502516 26341 net.cpp:380] res4f_branch2a -> res4f_branch2a
I1029 12:33:48.504586 26341 net.cpp:122] Setting up res4f_branch2a
I1029 12:33:48.504624 26341 net.cpp:129] Top shape: 1 256 14 14 (50176)
I1029 12:33:48.504629 26341 net.cpp:137] Memory required for data: 213549060
I1029 12:33:48.504642 26341 layer_factory.hpp:77] Creating layer bn4f_branch2a
I1029 12:33:48.504657 26341 net.cpp:84] Creating Layer bn4f_branch2a
I1029 12:33:48.504664 26341 net.cpp:406] bn4f_branch2a <- res4f_branch2a
I1029 12:33:48.504673 26341 net.cpp:367] bn4f_branch2a -> res4f_branch2a (in-place)
I1029 12:33:48.505017 26341 net.cpp:122] Setting up bn4f_branch2a
I1029 12:33:48.505028 26341 net.cpp:129] Top shape: 1 256 14 14 (50176)
I1029 12:33:48.505033 26341 net.cpp:137] Memory required for data: 213749764
I1029 12:33:48.505043 26341 layer_factory.hpp:77] Creating layer scale4f_branch2a
I1029 12:33:48.505050 26341 net.cpp:84] Creating Layer scale4f_branch2a
I1029 12:33:48.505054 26341 net.cpp:406] scale4f_branch2a <- res4f_branch2a
I1029 12:33:48.505060 26341 net.cpp:367] scale4f_branch2a -> res4f_branch2a (in-place)
I1029 12:33:48.505120 26341 layer_factory.hpp:77] Creating layer scale4f_branch2a
I1029 12:33:48.505307 26341 net.cpp:122] Setting up scale4f_branch2a
I1029 12:33:48.505316 26341 net.cpp:129] Top shape: 1 256 14 14 (50176)
I1029 12:33:48.505321 26341 net.cpp:137] Memory required for data: 213950468
I1029 12:33:48.505326 26341 layer_factory.hpp:77] Creating layer res4f_branch2a_relu
I1029 12:33:48.505336 26341 net.cpp:84] Creating Layer res4f_branch2a_relu
I1029 12:33:48.505339 26341 net.cpp:406] res4f_branch2a_relu <- res4f_branch2a
I1029 12:33:48.505378 26341 net.cpp:367] res4f_branch2a_relu -> res4f_branch2a (in-place)
I1029 12:33:48.505602 26341 net.cpp:122] Setting up res4f_branch2a_relu
I1029 12:33:48.505614 26341 net.cpp:129] Top shape: 1 256 14 14 (50176)
I1029 12:33:48.505617 26341 net.cpp:137] Memory required for data: 214151172
I1029 12:33:48.505621 26341 layer_factory.hpp:77] Creating layer res4f_branch2b
I1029 12:33:48.505631 26341 net.cpp:84] Creating Layer res4f_branch2b
I1029 12:33:48.505635 26341 net.cpp:406] res4f_branch2b <- res4f_branch2a
I1029 12:33:48.505645 26341 net.cpp:380] res4f_branch2b -> res4f_branch2b
I1029 12:33:48.510500 26341 net.cpp:122] Setting up res4f_branch2b
I1029 12:33:48.510536 26341 net.cpp:129] Top shape: 1 256 14 14 (50176)
I1029 12:33:48.510542 26341 net.cpp:137] Memory required for data: 214351876
I1029 12:33:48.510555 26341 layer_factory.hpp:77] Creating layer bn4f_branch2b
I1029 12:33:48.510574 26341 net.cpp:84] Creating Layer bn4f_branch2b
I1029 12:33:48.510582 26341 net.cpp:406] bn4f_branch2b <- res4f_branch2b
I1029 12:33:48.510593 26341 net.cpp:367] bn4f_branch2b -> res4f_branch2b (in-place)
I1029 12:33:48.510956 26341 net.cpp:122] Setting up bn4f_branch2b
I1029 12:33:48.510965 26341 net.cpp:129] Top shape: 1 256 14 14 (50176)
I1029 12:33:48.510970 26341 net.cpp:137] Memory required for data: 214552580
I1029 12:33:48.510980 26341 layer_factory.hpp:77] Creating layer scale4f_branch2b
I1029 12:33:48.510988 26341 net.cpp:84] Creating Layer scale4f_branch2b
I1029 12:33:48.510993 26341 net.cpp:406] scale4f_branch2b <- res4f_branch2b
I1029 12:33:48.510998 26341 net.cpp:367] scale4f_branch2b -> res4f_branch2b (in-place)
I1029 12:33:48.511063 26341 layer_factory.hpp:77] Creating layer scale4f_branch2b
I1029 12:33:48.511281 26341 net.cpp:122] Setting up scale4f_branch2b
I1029 12:33:48.511289 26341 net.cpp:129] Top shape: 1 256 14 14 (50176)
I1029 12:33:48.511293 26341 net.cpp:137] Memory required for data: 214753284
I1029 12:33:48.511302 26341 layer_factory.hpp:77] Creating layer res4f_branch2b_relu
I1029 12:33:48.511312 26341 net.cpp:84] Creating Layer res4f_branch2b_relu
I1029 12:33:48.511317 26341 net.cpp:406] res4f_branch2b_relu <- res4f_branch2b
I1029 12:33:48.511325 26341 net.cpp:367] res4f_branch2b_relu -> res4f_branch2b (in-place)
I1029 12:33:48.511576 26341 net.cpp:122] Setting up res4f_branch2b_relu
I1029 12:33:48.511585 26341 net.cpp:129] Top shape: 1 256 14 14 (50176)
I1029 12:33:48.511590 26341 net.cpp:137] Memory required for data: 214953988
I1029 12:33:48.511595 26341 layer_factory.hpp:77] Creating layer res4f_branch2c
I1029 12:33:48.511605 26341 net.cpp:84] Creating Layer res4f_branch2c
I1029 12:33:48.511610 26341 net.cpp:406] res4f_branch2c <- res4f_branch2b
I1029 12:33:48.511620 26341 net.cpp:380] res4f_branch2c -> res4f_branch2c
I1029 12:33:48.515215 26341 net.cpp:122] Setting up res4f_branch2c
I1029 12:33:48.515252 26341 net.cpp:129] Top shape: 1 1024 14 14 (200704)
I1029 12:33:48.515257 26341 net.cpp:137] Memory required for data: 215756804
I1029 12:33:48.515275 26341 layer_factory.hpp:77] Creating layer bn4f_branch2c
I1029 12:33:48.515290 26341 net.cpp:84] Creating Layer bn4f_branch2c
I1029 12:33:48.515298 26341 net.cpp:406] bn4f_branch2c <- res4f_branch2c
I1029 12:33:48.515311 26341 net.cpp:367] bn4f_branch2c -> res4f_branch2c (in-place)
I1029 12:33:48.515671 26341 net.cpp:122] Setting up bn4f_branch2c
I1029 12:33:48.515681 26341 net.cpp:129] Top shape: 1 1024 14 14 (200704)
I1029 12:33:48.515684 26341 net.cpp:137] Memory required for data: 216559620
I1029 12:33:48.515767 26341 layer_factory.hpp:77] Creating layer scale4f_branch2c
I1029 12:33:48.515780 26341 net.cpp:84] Creating Layer scale4f_branch2c
I1029 12:33:48.515785 26341 net.cpp:406] scale4f_branch2c <- res4f_branch2c
I1029 12:33:48.515792 26341 net.cpp:367] scale4f_branch2c -> res4f_branch2c (in-place)
I1029 12:33:48.515851 26341 layer_factory.hpp:77] Creating layer scale4f_branch2c
I1029 12:33:48.516049 26341 net.cpp:122] Setting up scale4f_branch2c
I1029 12:33:48.516059 26341 net.cpp:129] Top shape: 1 1024 14 14 (200704)
I1029 12:33:48.516085 26341 net.cpp:137] Memory required for data: 217362436
I1029 12:33:48.516093 26341 layer_factory.hpp:77] Creating layer res4f
I1029 12:33:48.516101 26341 net.cpp:84] Creating Layer res4f
I1029 12:33:48.516108 26341 net.cpp:406] res4f <- res4e_res4e_relu_0_split_1
I1029 12:33:48.516113 26341 net.cpp:406] res4f <- res4f_branch2c
I1029 12:33:48.516122 26341 net.cpp:380] res4f -> res4f
I1029 12:33:48.516165 26341 net.cpp:122] Setting up res4f
I1029 12:33:48.516175 26341 net.cpp:129] Top shape: 1 1024 14 14 (200704)
I1029 12:33:48.516180 26341 net.cpp:137] Memory required for data: 218165252
I1029 12:33:48.516185 26341 layer_factory.hpp:77] Creating layer res4f_relu
I1029 12:33:48.516193 26341 net.cpp:84] Creating Layer res4f_relu
I1029 12:33:48.516197 26341 net.cpp:406] res4f_relu <- res4f
I1029 12:33:48.516203 26341 net.cpp:367] res4f_relu -> res4f (in-place)
I1029 12:33:48.516443 26341 net.cpp:122] Setting up res4f_relu
I1029 12:33:48.516451 26341 net.cpp:129] Top shape: 1 1024 14 14 (200704)
I1029 12:33:48.516455 26341 net.cpp:137] Memory required for data: 218968068
I1029 12:33:48.516460 26341 layer_factory.hpp:77] Creating layer res4f_res4f_relu_0_split
I1029 12:33:48.516470 26341 net.cpp:84] Creating Layer res4f_res4f_relu_0_split
I1029 12:33:48.516475 26341 net.cpp:406] res4f_res4f_relu_0_split <- res4f
I1029 12:33:48.516482 26341 net.cpp:380] res4f_res4f_relu_0_split -> res4f_res4f_relu_0_split_0
I1029 12:33:48.516491 26341 net.cpp:380] res4f_res4f_relu_0_split -> res4f_res4f_relu_0_split_1
I1029 12:33:48.516553 26341 net.cpp:122] Setting up res4f_res4f_relu_0_split
I1029 12:33:48.516561 26341 net.cpp:129] Top shape: 1 1024 14 14 (200704)
I1029 12:33:48.516567 26341 net.cpp:129] Top shape: 1 1024 14 14 (200704)
I1029 12:33:48.516571 26341 net.cpp:137] Memory required for data: 220573700
I1029 12:33:48.516577 26341 layer_factory.hpp:77] Creating layer res5a_branch1
I1029 12:33:48.516589 26341 net.cpp:84] Creating Layer res5a_branch1
I1029 12:33:48.516597 26341 net.cpp:406] res5a_branch1 <- res4f_res4f_relu_0_split_0
I1029 12:33:48.516604 26341 net.cpp:380] res5a_branch1 -> res5a_branch1
I1029 12:33:48.526722 26341 net.cpp:122] Setting up res5a_branch1
I1029 12:33:48.526762 26341 net.cpp:129] Top shape: 1 2048 7 7 (100352)
I1029 12:33:48.526767 26341 net.cpp:137] Memory required for data: 220975108
I1029 12:33:48.526780 26341 layer_factory.hpp:77] Creating layer bn5a_branch1
I1029 12:33:48.526798 26341 net.cpp:84] Creating Layer bn5a_branch1
I1029 12:33:48.526805 26341 net.cpp:406] bn5a_branch1 <- res5a_branch1
I1029 12:33:48.526816 26341 net.cpp:367] bn5a_branch1 -> res5a_branch1 (in-place)
I1029 12:33:48.527252 26341 net.cpp:122] Setting up bn5a_branch1
I1029 12:33:48.527266 26341 net.cpp:129] Top shape: 1 2048 7 7 (100352)
I1029 12:33:48.527271 26341 net.cpp:137] Memory required for data: 221376516
I1029 12:33:48.527282 26341 layer_factory.hpp:77] Creating layer scale5a_branch1
I1029 12:33:48.527292 26341 net.cpp:84] Creating Layer scale5a_branch1
I1029 12:33:48.527298 26341 net.cpp:406] scale5a_branch1 <- res5a_branch1
I1029 12:33:48.527307 26341 net.cpp:367] scale5a_branch1 -> res5a_branch1 (in-place)
I1029 12:33:48.527374 26341 layer_factory.hpp:77] Creating layer scale5a_branch1
I1029 12:33:48.527585 26341 net.cpp:122] Setting up scale5a_branch1
I1029 12:33:48.527597 26341 net.cpp:129] Top shape: 1 2048 7 7 (100352)
I1029 12:33:48.527601 26341 net.cpp:137] Memory required for data: 221777924
I1029 12:33:48.527611 26341 layer_factory.hpp:77] Creating layer res5a_branch2a
I1029 12:33:48.527624 26341 net.cpp:84] Creating Layer res5a_branch2a
I1029 12:33:48.527629 26341 net.cpp:406] res5a_branch2a <- res4f_res4f_relu_0_split_1
I1029 12:33:48.527638 26341 net.cpp:380] res5a_branch2a -> res5a_branch2a
I1029 12:33:48.532132 26341 net.cpp:122] Setting up res5a_branch2a
I1029 12:33:48.532177 26341 net.cpp:129] Top shape: 1 512 7 7 (25088)
I1029 12:33:48.532183 26341 net.cpp:137] Memory required for data: 221878276
I1029 12:33:48.532196 26341 layer_factory.hpp:77] Creating layer bn5a_branch2a
I1029 12:33:48.532248 26341 net.cpp:84] Creating Layer bn5a_branch2a
I1029 12:33:48.532255 26341 net.cpp:406] bn5a_branch2a <- res5a_branch2a
I1029 12:33:48.532269 26341 net.cpp:367] bn5a_branch2a -> res5a_branch2a (in-place)
I1029 12:33:48.532675 26341 net.cpp:122] Setting up bn5a_branch2a
I1029 12:33:48.532688 26341 net.cpp:129] Top shape: 1 512 7 7 (25088)
I1029 12:33:48.532692 26341 net.cpp:137] Memory required for data: 221978628
I1029 12:33:48.532703 26341 layer_factory.hpp:77] Creating layer scale5a_branch2a
I1029 12:33:48.532713 26341 net.cpp:84] Creating Layer scale5a_branch2a
I1029 12:33:48.532718 26341 net.cpp:406] scale5a_branch2a <- res5a_branch2a
I1029 12:33:48.532726 26341 net.cpp:367] scale5a_branch2a -> res5a_branch2a (in-place)
I1029 12:33:48.532790 26341 layer_factory.hpp:77] Creating layer scale5a_branch2a
I1029 12:33:48.532985 26341 net.cpp:122] Setting up scale5a_branch2a
I1029 12:33:48.532994 26341 net.cpp:129] Top shape: 1 512 7 7 (25088)
I1029 12:33:48.532999 26341 net.cpp:137] Memory required for data: 222078980
I1029 12:33:48.533006 26341 layer_factory.hpp:77] Creating layer res5a_branch2a_relu
I1029 12:33:48.533016 26341 net.cpp:84] Creating Layer res5a_branch2a_relu
I1029 12:33:48.533022 26341 net.cpp:406] res5a_branch2a_relu <- res5a_branch2a
I1029 12:33:48.533028 26341 net.cpp:367] res5a_branch2a_relu -> res5a_branch2a (in-place)
I1029 12:33:48.533277 26341 net.cpp:122] Setting up res5a_branch2a_relu
I1029 12:33:48.533285 26341 net.cpp:129] Top shape: 1 512 7 7 (25088)
I1029 12:33:48.533290 26341 net.cpp:137] Memory required for data: 222179332
I1029 12:33:48.533295 26341 layer_factory.hpp:77] Creating layer res5a_branch2b
I1029 12:33:48.533308 26341 net.cpp:84] Creating Layer res5a_branch2b
I1029 12:33:48.533318 26341 net.cpp:406] res5a_branch2b <- res5a_branch2a
I1029 12:33:48.533326 26341 net.cpp:380] res5a_branch2b -> res5a_branch2b
I1029 12:33:48.543668 26341 net.cpp:122] Setting up res5a_branch2b
I1029 12:33:48.543711 26341 net.cpp:129] Top shape: 1 512 7 7 (25088)
I1029 12:33:48.543716 26341 net.cpp:137] Memory required for data: 222279684
I1029 12:33:48.543731 26341 layer_factory.hpp:77] Creating layer bn5a_branch2b
I1029 12:33:48.543748 26341 net.cpp:84] Creating Layer bn5a_branch2b
I1029 12:33:48.543756 26341 net.cpp:406] bn5a_branch2b <- res5a_branch2b
I1029 12:33:48.543768 26341 net.cpp:367] bn5a_branch2b -> res5a_branch2b (in-place)
I1029 12:33:48.544137 26341 net.cpp:122] Setting up bn5a_branch2b
I1029 12:33:48.544148 26341 net.cpp:129] Top shape: 1 512 7 7 (25088)
I1029 12:33:48.544154 26341 net.cpp:137] Memory required for data: 222380036
I1029 12:33:48.544165 26341 layer_factory.hpp:77] Creating layer scale5a_branch2b
I1029 12:33:48.544176 26341 net.cpp:84] Creating Layer scale5a_branch2b
I1029 12:33:48.544183 26341 net.cpp:406] scale5a_branch2b <- res5a_branch2b
I1029 12:33:48.544189 26341 net.cpp:367] scale5a_branch2b -> res5a_branch2b (in-place)
I1029 12:33:48.544250 26341 layer_factory.hpp:77] Creating layer scale5a_branch2b
I1029 12:33:48.544446 26341 net.cpp:122] Setting up scale5a_branch2b
I1029 12:33:48.544456 26341 net.cpp:129] Top shape: 1 512 7 7 (25088)
I1029 12:33:48.544459 26341 net.cpp:137] Memory required for data: 222480388
I1029 12:33:48.544467 26341 layer_factory.hpp:77] Creating layer res5a_branch2b_relu
I1029 12:33:48.544477 26341 net.cpp:84] Creating Layer res5a_branch2b_relu
I1029 12:33:48.544483 26341 net.cpp:406] res5a_branch2b_relu <- res5a_branch2b
I1029 12:33:48.544490 26341 net.cpp:367] res5a_branch2b_relu -> res5a_branch2b (in-place)
I1029 12:33:48.544715 26341 net.cpp:122] Setting up res5a_branch2b_relu
I1029 12:33:48.544726 26341 net.cpp:129] Top shape: 1 512 7 7 (25088)
I1029 12:33:48.544731 26341 net.cpp:137] Memory required for data: 222580740
I1029 12:33:48.544736 26341 layer_factory.hpp:77] Creating layer res5a_branch2c
I1029 12:33:48.544746 26341 net.cpp:84] Creating Layer res5a_branch2c
I1029 12:33:48.544752 26341 net.cpp:406] res5a_branch2c <- res5a_branch2b
I1029 12:33:48.544762 26341 net.cpp:380] res5a_branch2c -> res5a_branch2c
I1029 12:33:48.550820 26341 net.cpp:122] Setting up res5a_branch2c
I1029 12:33:48.550858 26341 net.cpp:129] Top shape: 1 2048 7 7 (100352)
I1029 12:33:48.550868 26341 net.cpp:137] Memory required for data: 222982148
I1029 12:33:48.550882 26341 layer_factory.hpp:77] Creating layer bn5a_branch2c
I1029 12:33:48.550899 26341 net.cpp:84] Creating Layer bn5a_branch2c
I1029 12:33:48.550907 26341 net.cpp:406] bn5a_branch2c <- res5a_branch2c
I1029 12:33:48.550917 26341 net.cpp:367] bn5a_branch2c -> res5a_branch2c (in-place)
I1029 12:33:48.551285 26341 net.cpp:122] Setting up bn5a_branch2c
I1029 12:33:48.551293 26341 net.cpp:129] Top shape: 1 2048 7 7 (100352)
I1029 12:33:48.551298 26341 net.cpp:137] Memory required for data: 223383556
I1029 12:33:48.551309 26341 layer_factory.hpp:77] Creating layer scale5a_branch2c
I1029 12:33:48.551319 26341 net.cpp:84] Creating Layer scale5a_branch2c
I1029 12:33:48.551326 26341 net.cpp:406] scale5a_branch2c <- res5a_branch2c
I1029 12:33:48.551332 26341 net.cpp:367] scale5a_branch2c -> res5a_branch2c (in-place)
I1029 12:33:48.551396 26341 layer_factory.hpp:77] Creating layer scale5a_branch2c
I1029 12:33:48.551594 26341 net.cpp:122] Setting up scale5a_branch2c
I1029 12:33:48.551604 26341 net.cpp:129] Top shape: 1 2048 7 7 (100352)
I1029 12:33:48.551609 26341 net.cpp:137] Memory required for data: 223784964
I1029 12:33:48.551616 26341 layer_factory.hpp:77] Creating layer res5a
I1029 12:33:48.551626 26341 net.cpp:84] Creating Layer res5a
I1029 12:33:48.551632 26341 net.cpp:406] res5a <- res5a_branch1
I1029 12:33:48.551638 26341 net.cpp:406] res5a <- res5a_branch2c
I1029 12:33:48.551645 26341 net.cpp:380] res5a -> res5a
I1029 12:33:48.551681 26341 net.cpp:122] Setting up res5a
I1029 12:33:48.551690 26341 net.cpp:129] Top shape: 1 2048 7 7 (100352)
I1029 12:33:48.551694 26341 net.cpp:137] Memory required for data: 224186372
I1029 12:33:48.551699 26341 layer_factory.hpp:77] Creating layer res5a_relu
I1029 12:33:48.551707 26341 net.cpp:84] Creating Layer res5a_relu
I1029 12:33:48.551710 26341 net.cpp:406] res5a_relu <- res5a
I1029 12:33:48.551719 26341 net.cpp:367] res5a_relu -> res5a (in-place)
I1029 12:33:48.552443 26341 net.cpp:122] Setting up res5a_relu
I1029 12:33:48.552459 26341 net.cpp:129] Top shape: 1 2048 7 7 (100352)
I1029 12:33:48.552464 26341 net.cpp:137] Memory required for data: 224587780
I1029 12:33:48.552469 26341 layer_factory.hpp:77] Creating layer res5a_res5a_relu_0_split
I1029 12:33:48.552476 26341 net.cpp:84] Creating Layer res5a_res5a_relu_0_split
I1029 12:33:48.552481 26341 net.cpp:406] res5a_res5a_relu_0_split <- res5a
I1029 12:33:48.552491 26341 net.cpp:380] res5a_res5a_relu_0_split -> res5a_res5a_relu_0_split_0
I1029 12:33:48.552501 26341 net.cpp:380] res5a_res5a_relu_0_split -> res5a_res5a_relu_0_split_1
I1029 12:33:48.552564 26341 net.cpp:122] Setting up res5a_res5a_relu_0_split
I1029 12:33:48.552575 26341 net.cpp:129] Top shape: 1 2048 7 7 (100352)
I1029 12:33:48.552582 26341 net.cpp:129] Top shape: 1 2048 7 7 (100352)
I1029 12:33:48.552587 26341 net.cpp:137] Memory required for data: 225390596
I1029 12:33:48.552592 26341 layer_factory.hpp:77] Creating layer res5b_branch2a
I1029 12:33:48.552601 26341 net.cpp:84] Creating Layer res5b_branch2a
I1029 12:33:48.552606 26341 net.cpp:406] res5b_branch2a <- res5a_res5a_relu_0_split_0
I1029 12:33:48.552616 26341 net.cpp:380] res5b_branch2a -> res5b_branch2a
I1029 12:33:48.558133 26341 net.cpp:122] Setting up res5b_branch2a
I1029 12:33:48.558182 26341 net.cpp:129] Top shape: 1 512 7 7 (25088)
I1029 12:33:48.558188 26341 net.cpp:137] Memory required for data: 225490948
I1029 12:33:48.558202 26341 layer_factory.hpp:77] Creating layer bn5b_branch2a
I1029 12:33:48.558223 26341 net.cpp:84] Creating Layer bn5b_branch2a
I1029 12:33:48.558230 26341 net.cpp:406] bn5b_branch2a <- res5b_branch2a
I1029 12:33:48.558243 26341 net.cpp:367] bn5b_branch2a -> res5b_branch2a (in-place)
I1029 12:33:48.558619 26341 net.cpp:122] Setting up bn5b_branch2a
I1029 12:33:48.558629 26341 net.cpp:129] Top shape: 1 512 7 7 (25088)
I1029 12:33:48.558634 26341 net.cpp:137] Memory required for data: 225591300
I1029 12:33:48.558668 26341 layer_factory.hpp:77] Creating layer scale5b_branch2a
I1029 12:33:48.558681 26341 net.cpp:84] Creating Layer scale5b_branch2a
I1029 12:33:48.558687 26341 net.cpp:406] scale5b_branch2a <- res5b_branch2a
I1029 12:33:48.558693 26341 net.cpp:367] scale5b_branch2a -> res5b_branch2a (in-place)
I1029 12:33:48.558758 26341 layer_factory.hpp:77] Creating layer scale5b_branch2a
I1029 12:33:48.558961 26341 net.cpp:122] Setting up scale5b_branch2a
I1029 12:33:48.558970 26341 net.cpp:129] Top shape: 1 512 7 7 (25088)
I1029 12:33:48.558974 26341 net.cpp:137] Memory required for data: 225691652
I1029 12:33:48.558982 26341 layer_factory.hpp:77] Creating layer res5b_branch2a_relu
I1029 12:33:48.558990 26341 net.cpp:84] Creating Layer res5b_branch2a_relu
I1029 12:33:48.558995 26341 net.cpp:406] res5b_branch2a_relu <- res5b_branch2a
I1029 12:33:48.559003 26341 net.cpp:367] res5b_branch2a_relu -> res5b_branch2a (in-place)
I1029 12:33:48.559855 26341 net.cpp:122] Setting up res5b_branch2a_relu
I1029 12:33:48.559868 26341 net.cpp:129] Top shape: 1 512 7 7 (25088)
I1029 12:33:48.559873 26341 net.cpp:137] Memory required for data: 225792004
I1029 12:33:48.559878 26341 layer_factory.hpp:77] Creating layer res5b_branch2b
I1029 12:33:48.559891 26341 net.cpp:84] Creating Layer res5b_branch2b
I1029 12:33:48.559897 26341 net.cpp:406] res5b_branch2b <- res5b_branch2a
I1029 12:33:48.559908 26341 net.cpp:380] res5b_branch2b -> res5b_branch2b
I1029 12:33:48.571537 26341 net.cpp:122] Setting up res5b_branch2b
I1029 12:33:48.571575 26341 net.cpp:129] Top shape: 1 512 7 7 (25088)
I1029 12:33:48.571580 26341 net.cpp:137] Memory required for data: 225892356
I1029 12:33:48.571597 26341 layer_factory.hpp:77] Creating layer bn5b_branch2b
I1029 12:33:48.571619 26341 net.cpp:84] Creating Layer bn5b_branch2b
I1029 12:33:48.571626 26341 net.cpp:406] bn5b_branch2b <- res5b_branch2b
I1029 12:33:48.571636 26341 net.cpp:367] bn5b_branch2b -> res5b_branch2b (in-place)
I1029 12:33:48.572003 26341 net.cpp:122] Setting up bn5b_branch2b
I1029 12:33:48.572013 26341 net.cpp:129] Top shape: 1 512 7 7 (25088)
I1029 12:33:48.572021 26341 net.cpp:137] Memory required for data: 225992708
I1029 12:33:48.572031 26341 layer_factory.hpp:77] Creating layer scale5b_branch2b
I1029 12:33:48.572042 26341 net.cpp:84] Creating Layer scale5b_branch2b
I1029 12:33:48.572049 26341 net.cpp:406] scale5b_branch2b <- res5b_branch2b
I1029 12:33:48.572055 26341 net.cpp:367] scale5b_branch2b -> res5b_branch2b (in-place)
I1029 12:33:48.572114 26341 layer_factory.hpp:77] Creating layer scale5b_branch2b
I1029 12:33:48.572324 26341 net.cpp:122] Setting up scale5b_branch2b
I1029 12:33:48.572335 26341 net.cpp:129] Top shape: 1 512 7 7 (25088)
I1029 12:33:48.572338 26341 net.cpp:137] Memory required for data: 226093060
I1029 12:33:48.572346 26341 layer_factory.hpp:77] Creating layer res5b_branch2b_relu
I1029 12:33:48.572358 26341 net.cpp:84] Creating Layer res5b_branch2b_relu
I1029 12:33:48.572365 26341 net.cpp:406] res5b_branch2b_relu <- res5b_branch2b
I1029 12:33:48.572371 26341 net.cpp:367] res5b_branch2b_relu -> res5b_branch2b (in-place)
I1029 12:33:48.572600 26341 net.cpp:122] Setting up res5b_branch2b_relu
I1029 12:33:48.572610 26341 net.cpp:129] Top shape: 1 512 7 7 (25088)
I1029 12:33:48.572618 26341 net.cpp:137] Memory required for data: 226193412
I1029 12:33:48.572623 26341 layer_factory.hpp:77] Creating layer res5b_branch2c
I1029 12:33:48.572633 26341 net.cpp:84] Creating Layer res5b_branch2c
I1029 12:33:48.572639 26341 net.cpp:406] res5b_branch2c <- res5b_branch2b
I1029 12:33:48.572649 26341 net.cpp:380] res5b_branch2c -> res5b_branch2c
I1029 12:33:48.579002 26341 net.cpp:122] Setting up res5b_branch2c
I1029 12:33:48.579041 26341 net.cpp:129] Top shape: 1 2048 7 7 (100352)
I1029 12:33:48.579047 26341 net.cpp:137] Memory required for data: 226594820
I1029 12:33:48.579062 26341 layer_factory.hpp:77] Creating layer bn5b_branch2c
I1029 12:33:48.579078 26341 net.cpp:84] Creating Layer bn5b_branch2c
I1029 12:33:48.579088 26341 net.cpp:406] bn5b_branch2c <- res5b_branch2c
I1029 12:33:48.579118 26341 net.cpp:367] bn5b_branch2c -> res5b_branch2c (in-place)
I1029 12:33:48.579509 26341 net.cpp:122] Setting up bn5b_branch2c
I1029 12:33:48.579517 26341 net.cpp:129] Top shape: 1 2048 7 7 (100352)
I1029 12:33:48.579522 26341 net.cpp:137] Memory required for data: 226996228
I1029 12:33:48.579533 26341 layer_factory.hpp:77] Creating layer scale5b_branch2c
I1029 12:33:48.579545 26341 net.cpp:84] Creating Layer scale5b_branch2c
I1029 12:33:48.579550 26341 net.cpp:406] scale5b_branch2c <- res5b_branch2c
I1029 12:33:48.579557 26341 net.cpp:367] scale5b_branch2c -> res5b_branch2c (in-place)
I1029 12:33:48.579617 26341 layer_factory.hpp:77] Creating layer scale5b_branch2c
I1029 12:33:48.579824 26341 net.cpp:122] Setting up scale5b_branch2c
I1029 12:33:48.579831 26341 net.cpp:129] Top shape: 1 2048 7 7 (100352)
I1029 12:33:48.579835 26341 net.cpp:137] Memory required for data: 227397636
I1029 12:33:48.579841 26341 layer_factory.hpp:77] Creating layer res5b
I1029 12:33:48.579850 26341 net.cpp:84] Creating Layer res5b
I1029 12:33:48.579854 26341 net.cpp:406] res5b <- res5a_res5a_relu_0_split_1
I1029 12:33:48.579860 26341 net.cpp:406] res5b <- res5b_branch2c
I1029 12:33:48.579866 26341 net.cpp:380] res5b -> res5b
I1029 12:33:48.579901 26341 net.cpp:122] Setting up res5b
I1029 12:33:48.579907 26341 net.cpp:129] Top shape: 1 2048 7 7 (100352)
I1029 12:33:48.579911 26341 net.cpp:137] Memory required for data: 227799044
I1029 12:33:48.579916 26341 layer_factory.hpp:77] Creating layer res5b_relu
I1029 12:33:48.579922 26341 net.cpp:84] Creating Layer res5b_relu
I1029 12:33:48.579926 26341 net.cpp:406] res5b_relu <- res5b
I1029 12:33:48.579932 26341 net.cpp:367] res5b_relu -> res5b (in-place)
I1029 12:33:48.580171 26341 net.cpp:122] Setting up res5b_relu
I1029 12:33:48.580178 26341 net.cpp:129] Top shape: 1 2048 7 7 (100352)
I1029 12:33:48.580183 26341 net.cpp:137] Memory required for data: 228200452
I1029 12:33:48.580185 26341 layer_factory.hpp:77] Creating layer res5b_res5b_relu_0_split
I1029 12:33:48.580193 26341 net.cpp:84] Creating Layer res5b_res5b_relu_0_split
I1029 12:33:48.580196 26341 net.cpp:406] res5b_res5b_relu_0_split <- res5b
I1029 12:33:48.580204 26341 net.cpp:380] res5b_res5b_relu_0_split -> res5b_res5b_relu_0_split_0
I1029 12:33:48.580212 26341 net.cpp:380] res5b_res5b_relu_0_split -> res5b_res5b_relu_0_split_1
I1029 12:33:48.580271 26341 net.cpp:122] Setting up res5b_res5b_relu_0_split
I1029 12:33:48.580278 26341 net.cpp:129] Top shape: 1 2048 7 7 (100352)
I1029 12:33:48.580284 26341 net.cpp:129] Top shape: 1 2048 7 7 (100352)
I1029 12:33:48.580288 26341 net.cpp:137] Memory required for data: 229003268
I1029 12:33:48.580291 26341 layer_factory.hpp:77] Creating layer res5c_branch2a
I1029 12:33:48.580304 26341 net.cpp:84] Creating Layer res5c_branch2a
I1029 12:33:48.580309 26341 net.cpp:406] res5c_branch2a <- res5b_res5b_relu_0_split_0
I1029 12:33:48.580315 26341 net.cpp:380] res5c_branch2a -> res5c_branch2a
I1029 12:33:48.586601 26341 net.cpp:122] Setting up res5c_branch2a
I1029 12:33:48.586638 26341 net.cpp:129] Top shape: 1 512 7 7 (25088)
I1029 12:33:48.586644 26341 net.cpp:137] Memory required for data: 229103620
I1029 12:33:48.586657 26341 layer_factory.hpp:77] Creating layer bn5c_branch2a
I1029 12:33:48.586673 26341 net.cpp:84] Creating Layer bn5c_branch2a
I1029 12:33:48.586680 26341 net.cpp:406] bn5c_branch2a <- res5c_branch2a
I1029 12:33:48.586690 26341 net.cpp:367] bn5c_branch2a -> res5c_branch2a (in-place)
I1029 12:33:48.587061 26341 net.cpp:122] Setting up bn5c_branch2a
I1029 12:33:48.587070 26341 net.cpp:129] Top shape: 1 512 7 7 (25088)
I1029 12:33:48.587075 26341 net.cpp:137] Memory required for data: 229203972
I1029 12:33:48.587085 26341 layer_factory.hpp:77] Creating layer scale5c_branch2a
I1029 12:33:48.587091 26341 net.cpp:84] Creating Layer scale5c_branch2a
I1029 12:33:48.587096 26341 net.cpp:406] scale5c_branch2a <- res5c_branch2a
I1029 12:33:48.587101 26341 net.cpp:367] scale5c_branch2a -> res5c_branch2a (in-place)
I1029 12:33:48.587191 26341 layer_factory.hpp:77] Creating layer scale5c_branch2a
I1029 12:33:48.587393 26341 net.cpp:122] Setting up scale5c_branch2a
I1029 12:33:48.587402 26341 net.cpp:129] Top shape: 1 512 7 7 (25088)
I1029 12:33:48.587406 26341 net.cpp:137] Memory required for data: 229304324
I1029 12:33:48.587412 26341 layer_factory.hpp:77] Creating layer res5c_branch2a_relu
I1029 12:33:48.587421 26341 net.cpp:84] Creating Layer res5c_branch2a_relu
I1029 12:33:48.587425 26341 net.cpp:406] res5c_branch2a_relu <- res5c_branch2a
I1029 12:33:48.587433 26341 net.cpp:367] res5c_branch2a_relu -> res5c_branch2a (in-place)
I1029 12:33:48.587656 26341 net.cpp:122] Setting up res5c_branch2a_relu
I1029 12:33:48.587667 26341 net.cpp:129] Top shape: 1 512 7 7 (25088)
I1029 12:33:48.587671 26341 net.cpp:137] Memory required for data: 229404676
I1029 12:33:48.587676 26341 layer_factory.hpp:77] Creating layer res5c_branch2b
I1029 12:33:48.587684 26341 net.cpp:84] Creating Layer res5c_branch2b
I1029 12:33:48.587688 26341 net.cpp:406] res5c_branch2b <- res5c_branch2a
I1029 12:33:48.587698 26341 net.cpp:380] res5c_branch2b -> res5c_branch2b
I1029 12:33:48.599227 26341 net.cpp:122] Setting up res5c_branch2b
I1029 12:33:48.599264 26341 net.cpp:129] Top shape: 1 512 7 7 (25088)
I1029 12:33:48.599269 26341 net.cpp:137] Memory required for data: 229505028
I1029 12:33:48.599282 26341 layer_factory.hpp:77] Creating layer bn5c_branch2b
I1029 12:33:48.599299 26341 net.cpp:84] Creating Layer bn5c_branch2b
I1029 12:33:48.599308 26341 net.cpp:406] bn5c_branch2b <- res5c_branch2b
I1029 12:33:48.599316 26341 net.cpp:367] bn5c_branch2b -> res5c_branch2b (in-place)
I1029 12:33:48.599689 26341 net.cpp:122] Setting up bn5c_branch2b
I1029 12:33:48.599697 26341 net.cpp:129] Top shape: 1 512 7 7 (25088)
I1029 12:33:48.599701 26341 net.cpp:137] Memory required for data: 229605380
I1029 12:33:48.599710 26341 layer_factory.hpp:77] Creating layer scale5c_branch2b
I1029 12:33:48.599719 26341 net.cpp:84] Creating Layer scale5c_branch2b
I1029 12:33:48.599723 26341 net.cpp:406] scale5c_branch2b <- res5c_branch2b
I1029 12:33:48.599730 26341 net.cpp:367] scale5c_branch2b -> res5c_branch2b (in-place)
I1029 12:33:48.599786 26341 layer_factory.hpp:77] Creating layer scale5c_branch2b
I1029 12:33:48.599990 26341 net.cpp:122] Setting up scale5c_branch2b
I1029 12:33:48.599999 26341 net.cpp:129] Top shape: 1 512 7 7 (25088)
I1029 12:33:48.600003 26341 net.cpp:137] Memory required for data: 229705732
I1029 12:33:48.600009 26341 layer_factory.hpp:77] Creating layer res5c_branch2b_relu
I1029 12:33:48.600016 26341 net.cpp:84] Creating Layer res5c_branch2b_relu
I1029 12:33:48.600021 26341 net.cpp:406] res5c_branch2b_relu <- res5c_branch2b
I1029 12:33:48.600028 26341 net.cpp:367] res5c_branch2b_relu -> res5c_branch2b (in-place)
I1029 12:33:48.600258 26341 net.cpp:122] Setting up res5c_branch2b_relu
I1029 12:33:48.600267 26341 net.cpp:129] Top shape: 1 512 7 7 (25088)
I1029 12:33:48.600271 26341 net.cpp:137] Memory required for data: 229806084
I1029 12:33:48.600275 26341 layer_factory.hpp:77] Creating layer res5c_branch2c
I1029 12:33:48.600288 26341 net.cpp:84] Creating Layer res5c_branch2c
I1029 12:33:48.600292 26341 net.cpp:406] res5c_branch2c <- res5c_branch2b
I1029 12:33:48.600298 26341 net.cpp:380] res5c_branch2c -> res5c_branch2c
I1029 12:33:48.606766 26341 net.cpp:122] Setting up res5c_branch2c
I1029 12:33:48.606806 26341 net.cpp:129] Top shape: 1 2048 7 7 (100352)
I1029 12:33:48.606811 26341 net.cpp:137] Memory required for data: 230207492
I1029 12:33:48.606822 26341 layer_factory.hpp:77] Creating layer bn5c_branch2c
I1029 12:33:48.606837 26341 net.cpp:84] Creating Layer bn5c_branch2c
I1029 12:33:48.606843 26341 net.cpp:406] bn5c_branch2c <- res5c_branch2c
I1029 12:33:48.606855 26341 net.cpp:367] bn5c_branch2c -> res5c_branch2c (in-place)
I1029 12:33:48.607242 26341 net.cpp:122] Setting up bn5c_branch2c
I1029 12:33:48.607254 26341 net.cpp:129] Top shape: 1 2048 7 7 (100352)
I1029 12:33:48.607259 26341 net.cpp:137] Memory required for data: 230608900
I1029 12:33:48.607267 26341 layer_factory.hpp:77] Creating layer scale5c_branch2c
I1029 12:33:48.607308 26341 net.cpp:84] Creating Layer scale5c_branch2c
I1029 12:33:48.607313 26341 net.cpp:406] scale5c_branch2c <- res5c_branch2c
I1029 12:33:48.607319 26341 net.cpp:367] scale5c_branch2c -> res5c_branch2c (in-place)
I1029 12:33:48.607379 26341 layer_factory.hpp:77] Creating layer scale5c_branch2c
I1029 12:33:48.607587 26341 net.cpp:122] Setting up scale5c_branch2c
I1029 12:33:48.607597 26341 net.cpp:129] Top shape: 1 2048 7 7 (100352)
I1029 12:33:48.607604 26341 net.cpp:137] Memory required for data: 231010308
I1029 12:33:48.607611 26341 layer_factory.hpp:77] Creating layer res5c
I1029 12:33:48.607620 26341 net.cpp:84] Creating Layer res5c
I1029 12:33:48.607625 26341 net.cpp:406] res5c <- res5b_res5b_relu_0_split_1
I1029 12:33:48.607632 26341 net.cpp:406] res5c <- res5c_branch2c
I1029 12:33:48.607640 26341 net.cpp:380] res5c -> res5c
I1029 12:33:48.607677 26341 net.cpp:122] Setting up res5c
I1029 12:33:48.607686 26341 net.cpp:129] Top shape: 1 2048 7 7 (100352)
I1029 12:33:48.607691 26341 net.cpp:137] Memory required for data: 231411716
I1029 12:33:48.607694 26341 layer_factory.hpp:77] Creating layer res5c_relu
I1029 12:33:48.607702 26341 net.cpp:84] Creating Layer res5c_relu
I1029 12:33:48.607707 26341 net.cpp:406] res5c_relu <- res5c
I1029 12:33:48.607714 26341 net.cpp:367] res5c_relu -> res5c (in-place)
I1029 12:33:48.608522 26341 net.cpp:122] Setting up res5c_relu
I1029 12:33:48.608537 26341 net.cpp:129] Top shape: 1 2048 7 7 (100352)
I1029 12:33:48.608542 26341 net.cpp:137] Memory required for data: 231813124
I1029 12:33:48.608547 26341 layer_factory.hpp:77] Creating layer pool5
I1029 12:33:48.608556 26341 net.cpp:84] Creating Layer pool5
I1029 12:33:48.608563 26341 net.cpp:406] pool5 <- res5c
I1029 12:33:48.608575 26341 net.cpp:380] pool5 -> pool5
I1029 12:33:48.608844 26341 net.cpp:122] Setting up pool5
I1029 12:33:48.608855 26341 net.cpp:129] Top shape: 1 2048 1 1 (2048)
I1029 12:33:48.608860 26341 net.cpp:137] Memory required for data: 231821316
I1029 12:33:48.608865 26341 layer_factory.hpp:77] Creating layer my-fc1000
I1029 12:33:48.608872 26341 net.cpp:84] Creating Layer my-fc1000
I1029 12:33:48.608877 26341 net.cpp:406] my-fc1000 <- pool5
I1029 12:33:48.608886 26341 net.cpp:380] my-fc1000 -> my-fc1000
I1029 12:33:48.609074 26341 net.cpp:122] Setting up my-fc1000
I1029 12:33:48.609082 26341 net.cpp:129] Top shape: 1 1 (1)
I1029 12:33:48.609087 26341 net.cpp:137] Memory required for data: 231821320
I1029 12:33:48.609097 26341 layer_factory.hpp:77] Creating layer loss
I1029 12:33:48.609103 26341 net.cpp:84] Creating Layer loss
I1029 12:33:48.609107 26341 net.cpp:406] loss <- my-fc1000
I1029 12:33:48.609113 26341 net.cpp:406] loss <- label
I1029 12:33:48.609122 26341 net.cpp:380] loss -> loss
I1029 12:33:48.609181 26341 net.cpp:122] Setting up loss
…
