…
I1029 11:43:56.676831 18678 solver.cpp:87] Creating training net from net file: ./train_val.prototxt
I1029 11:43:56.678351 18678 net.cpp:294] The NetState phase (0) differed from the phase (1) specified by a rule in layer data
I1029 11:43:56.679312 18678 net.cpp:51] Initializing net from parameters: 
name: "ResNet-50"
state {
  phase: TRAIN
  level: 0
  stage: ""
}
layer {
  name: "data"
  type: "HDF5Data"
  top: "data"
  top: "label"
  include {
    phase: TRAIN
  }
  hdf5_data_param {
    source: "./train.txt"
    batch_size: 10
    shuffle: true
  }
}
layer {
  name: "conv1"
  type: "Convolution"
  bottom: "data"
  top: "conv1"
  convolution_param {
    num_output: 64
    pad: 3
    kernel_size: 7
    stride: 2
  }
}
layer {
  name: "bn_conv1"
  type: "BatchNorm"
  bottom: "conv1"
  top: "conv1"
  batch_norm_param {
    use_global_stats: true
  }
}
layer {
  name: "scale_conv1"
  type: "Scale"
  bottom: "conv1"
  top: "conv1"
  scale_param {
    bias_term: true
  }
}
layer {
  name: "conv1_relu"
  type: "ReLU"
  bottom: "conv1"
  top: "conv1"
}
layer {
  name: "pool1"
  type: "Pooling"
  bottom: "conv1"
  top: "pool1"
  pooling_param {
    pool: MAX
    kernel_size: 3
    stride: 2
  }
}
layer {
  name: "res2a_branch1"
  type: "Convolution"
  bottom: "pool1"
  top: "res2a_branch1"
  convolution_param {
    num_output: 256
    bias_term: false
    pad: 0
    kernel_size: 1
    stride: 1
  }
}
layer {
  name: "bn2a_branch1"
  type: "BatchNorm"
  bottom: "res2a_branch1"
  top: "res2a_branch1"
  batch_norm_param {
    use_global_stats: true
  }
}
layer {
  name: "scale2a_branch1"
  type: "Scale"
  bottom: "res2a_branch1"
  top: "res2a_branch1"
  scale_param {
    bias_term: true
  }
}
layer {
  name: "res2a_branch2a"
  type: "Convolution"
  bottom: "pool1"
  top: "res2a_branch2a"
  convolution_param {
    num_output: 64
    bias_term: false
    pad: 0
    kernel_size: 1
    stride: 1
  }
}
layer {
  name: "bn2a_branch2a"
  type: "BatchNorm"
  bottom: "res2a_branch2a"
  top: "res2a_branch2a"
  batch_norm_param {
    use_global_stats: true
  }
}
layer {
  name: "scale2a_branch2a"
  type: "Scale"
  bottom: "res2a_branch2a"
  top: "res2a_branch2a"
  scale_param {
    bias_term: true
  }
}
layer {
  name: "res2a_branch2a_relu"
  type: "ReLU"
  bottom: "res2a_branch2a"
  top: "res2a_branch2a"
}
layer {
  name: "res2a_branch2b"
  type: "Convolution"
  bottom: "res2a_branch2a"
  top: "res2a_branch2b"
  convolution_param {
    num_output: 64
    bias_term: false
    pad: 1
    kernel_size: 3
    stride: 1
  }
}
layer {
  name: "bn2a_branch2b"
  type: "BatchNorm"
  bottom: "res2a_branch2b"
  top: "res2a_branch2b"
  batch_norm_param {
    use_global_stats: true
  }
}
layer {
  name: "scale2a_branch2b"
  type: "Scale"
  bottom: "res2a_branch2b"
  top: "res2a_branch2b"
  scale_param {
    bias_term: true
  }
}
layer {
  name: "res2a_branch2b_relu"
  type: "ReLU"
  bottom: "res2a_branch2b"
  top: "res2a_branch2b"
}
layer {
  name: "res2a_branch2c"
  type: "Convolution"
  bottom: "res2a_branch2b"
  top: "res2a_branch2c"
  convolution_param {
    num_output: 256
    bias_term: false
    pad: 0
    kernel_size: 1
    stride: 1
  }
}
layer {
  name: "bn2a_branch2c"
  type: "BatchNorm"
  bottom: "res2a_branch2c"
  top: "res2a_branch2c"
  batch_norm_param {
    use_global_stats: true
  }
}
layer {
  name: "scale2a_branch2c"
  type: "Scale"
  bottom: "res2a_branch2c"
  top: "res2a_branch2c"
  scale_param {
    bias_term: true
  }
}
layer {
  name: "res2a"
  type: "Eltwise"
  bottom: "res2a_branch1"
  bottom: "res2a_branch2c"
  top: "res2a"
}
layer {
  name: "res2a_relu"
  type: "ReLU"
  bottom: "res2a"
  top: "res2a"
}
layer {
  name: "res2b_branch2a"
  type: "Convolution"
  bottom: "res2a"
  top: "res2b_branch2a"
  convolution_param {
    num_output: 64
    bias_term: false
    pad: 0
    kernel_size: 1
    stride: 1
  }
}
layer {
  name: "bn2b_branch2a"
  type: "BatchNorm"
  bottom: "res2b_branch2a"
  top: "res2b_branch2a"
  batch_norm_param {
    use_global_stats: true
  }
}
layer {
  name: "scale2b_branch2a"
  type: "Scale"
  bottom: "res2b_branch2a"
  top: "res2b_branch2a"
  scale_param {
    bias_term: true
  }
}
layer {
  name: "res2b_branch2a_relu"
  type: "ReLU"
  bottom: "res2b_branch2a"
  top: "res2b_branch2a"
}
layer {
  name: "res2b_branch2b"
  type: "Convolution"
  bottom: "res2b_branch2a"
  top: "res2b_branch2b"
  convolution_param {
    num_output: 64
    bias_term: false
    pad: 1
    kernel_size: 3
    stride: 1
  }
}
layer {
  name: "bn2b_branch2b"
  type: "BatchNorm"
  bottom: "res2b_branch2b"
  top: "res2b_branch2b"
  batch_norm_param {
    use_global_stats: true
  }
}
layer {
  name: "scale2b_branch2b"
  type: "Scale"
  bottom: "res2b_branch2b"
  top: "res2b_branch2b"
  scale_param {
    bias_term: true
  }
}
layer {
  name: "res2b_branch2b_relu"
  type: "ReLU"
  bottom: "res2b_branch2b"
  top: "res2b_branch2b"
}
layer {
  name: "res2b_branch2c"
  type: "Convolution"
  bottom: "res2b_branch2b"
  top: "res2b_branch2c"
  convolution_param {
    num_output: 256
    bias_term: false
    pad: 0
    kernel_size: 1
    stride: 1
  }
}
layer {
  name: "bn2b_branch2c"
  type: "BatchNorm"
  bottom: "res2b_branch2c"
  top: "res2b_branch2c"
  batch_norm_param {
    use_global_stats: true
  }
}
layer {
  name: "scale2b_branch2c"
  type: "Scale"
  bottom: "res2b_branch2c"
  top: "res2b_branch2c"
  scale_param {
    bias_term: true
  }
}
layer {
  name: "res2b"
  type: "Eltwise"
  bottom: "res2a"
  bottom: "res2b_branch2c"
  top: "res2b"
}
layer {
  name: "res2b_relu"
  type: "ReLU"
  bottom: "res2b"
  top: "res2b"
}
layer {
  name: "res2c_branch2a"
  type: "Convolution"
  bottom: "res2b"
  top: "res2c_branch2a"
  convolution_param {
    num_output: 64
    bias_term: false
    pad: 0
    kernel_size: 1
    stride: 1
  }
}
layer {
  name: "bn2c_branch2a"
  type: "BatchNorm"
  bottom: "res2c_branch2a"
  top: "res2c_branch2a"
  batch_norm_param {
    use_global_stats: true
  }
}
layer {
  name: "scale2c_branch2a"
  type: "Scale"
  bottom: "res2c_branch2a"
  top: "res2c_branch2a"
  scale_param {
    bias_term: true
  }
}
layer {
  name: "res2c_branch2a_relu"
  type: "ReLU"
  bottom: "res2c_branch2a"
  top: "res2c_branch2a"
}
layer {
  name: "res2c_branch2b"
  type: "Convolution"
  bottom: "res2c_branch2a"
  top: "res2c_branch2b"
  convolution_param {
    num_output: 64
    bias_term: false
    pad: 1
    kernel_size: 3
    stride: 1
  }
}
layer {
  name: "bn2c_branch2b"
  type: "BatchNorm"
  bottom: "res2c_branch2b"
  top: "res2c_branch2b"
  batch_norm_param {
    use_global_stats: true
  }
}
layer {
  name: "scale2c_branch2b"
  type: "Scale"
  bottom: "res2c_branch2b"
  top: "res2c_branch2b"
  scale_param {
    bias_term: true
  }
}
layer {
  name: "res2c_branch2b_relu"
  type: "ReLU"
  bottom: "res2c_branch2b"
  top: "res2c_branch2b"
}
layer {
  name: "res2c_branch2c"
  type: "Convolution"
  bottom: "res2c_branch2b"
  top: "res2c_branch2c"
  convolution_param {
    num_output: 256
    bias_term: false
    pad: 0
    kernel_size: 1
    stride: 1
  }
}
layer {
  name: "bn2c_branch2c"
  type: "BatchNorm"
  bottom: "res2c_branch2c"
  top: "res2c_branch2c"
  batch_norm_param {
    use_global_stats: true
  }
}
layer {
  name: "scale2c_branch2c"
  type: "Scale"
  bottom: "res2c_branch2c"
  top: "res2c_branch2c"
  scale_param {
    bias_term: true
  }
}
layer {
  name: "res2c"
  type: "Eltwise"
  bottom: "res2b"
  bottom: "res2c_branch2c"
  top: "res2c"
}
layer {
  name: "res2c_relu"
  type: "ReLU"
  bottom: "res2c"
  top: "res2c"
}
layer {
  name: "res3a_branch1"
  type: "Convolution"
  bottom: "res2c"
  top: "res3a_branch1"
  convolution_param {
    num_output: 512
    bias_term: false
    pad: 0
    kernel_size: 1
    stride: 2
  }
}
layer {
  name: "bn3a_branch1"
  type: "BatchNorm"
  bottom: "res3a_branch1"
  top: "res3a_branch1"
  batch_norm_param {
    use_global_stats: true
  }
}
layer {
  name: "scale3a_branch1"
  type: "Scale"
  bottom: "res3a_branch1"
  top: "res3a_branch1"
  scale_param {
    bias_term: true
  }
}
layer {
  name: "res3a_branch2a"
  type: "Convolution"
  bottom: "res2c"
  top: "res3a_branch2a"
  convolution_param {
    num_output: 128
    bias_term: false
    pad: 0
    kernel_size: 1
    stride: 2
  }
}
layer {
  name: "bn3a_branch2a"
  type: "BatchNorm"
  bottom: "res3a_branch2a"
  top: "res3a_branch2a"
  batch_norm_param {
    use_global_stats: true
  }
}
layer {
  name: "scale3a_branch2a"
  type: "Scale"
  bottom: "res3a_branch2a"
  top: "res3a_branch2a"
  scale_param {
    bias_term: true
  }
}
layer {
  name: "res3a_branch2a_relu"
  type: "ReLU"
  bottom: "res3a_branch2a"
  top: "res3a_branch2a"
}
layer {
  name: "res3a_branch2b"
  type: "Convolution"
  bottom: "res3a_branch2a"
  top: "res3a_branch2b"
  convolution_param {
    num_output: 128
    bias_term: false
    pad: 1
    kernel_size: 3
    stride: 1
  }
}
layer {
  name: "bn3a_branch2b"
  type: "BatchNorm"
  bottom: "res3a_branch2b"
  top: "res3a_branch2b"
  batch_norm_param {
    use_global_stats: true
  }
}
layer {
  name: "scale3a_branch2b"
  type: "Scale"
  bottom: "res3a_branch2b"
  top: "res3a_branch2b"
  scale_param {
    bias_term: true
  }
}
layer {
  name: "res3a_branch2b_relu"
  type: "ReLU"
  bottom: "res3a_branch2b"
  top: "res3a_branch2b"
}
layer {
  name: "res3a_branch2c"
  type: "Convolution"
  bottom: "res3a_branch2b"
  top: "res3a_branch2c"
  convolution_param {
    num_output: 512
    bias_term: false
    pad: 0
    kernel_size: 1
    stride: 1
  }
}
layer {
  name: "bn3a_branch2c"
  type: "BatchNorm"
  bottom: "res3a_branch2c"
  top: "res3a_branch2c"
  batch_norm_param {
    use_global_stats: true
  }
}
layer {
  name: "scale3a_branch2c"
  type: "Scale"
  bottom: "res3a_branch2c"
  top: "res3a_branch2c"
  scale_param {
    bias_term: true
  }
}
layer {
  name: "res3a"
  type: "Eltwise"
  bottom: "res3a_branch1"
  bottom: "res3a_branch2c"
  top: "res3a"
}
layer {
  name: "res3a_relu"
  type: "ReLU"
  bottom: "res3a"
  top: "res3a"
}
layer {
  name: "res3b_branch2a"
  type: "Convolution"
  bottom: "res3a"
  top: "res3b_branch2a"
  convolution_param {
    num_output: 128
    bias_term: false
    pad: 0
    kernel_size: 1
    stride: 1
  }
}
layer {
  name: "bn3b_branch2a"
  type: "BatchNorm"
  bottom: "res3b_branch2a"
  top: "res3b_branch2a"
  batch_norm_param {
    use_global_stats: true
  }
}
layer {
  name: "scale3b_branch2a"
  type: "Scale"
  bottom: "res3b_branch2a"
  top: "res3b_branch2a"
  scale_param {
    bias_term: true
  }
}
layer {
  name: "res3b_branch2a_relu"
  type: "ReLU"
  bottom: "res3b_branch2a"
  top: "res3b_branch2a"
}
layer {
  name: "res3b_branch2b"
  type: "Convolution"
  bottom: "res3b_branch2a"
  top: "res3b_branch2b"
  convolution_param {
    num_output: 128
    bias_term: false
    pad: 1
    kernel_size: 3
    stride: 1
  }
}
layer {
  name: "bn3b_branch2b"
  type: "BatchNorm"
  bottom: "res3b_branch2b"
  top: "res3b_branch2b"
  batch_norm_param {
    use_global_stats: true
  }
}
layer {
  name: "scale3b_branch2b"
  type: "Scale"
  bottom: "res3b_branch2b"
  top: "res3b_branch2b"
  scale_param {
    bias_term: true
  }
}
layer {
  name: "res3b_branch2b_relu"
  type: "ReLU"
  bottom: "res3b_branch2b"
  top: "res3b_branch2b"
}
layer {
  name: "res3b_branch2c"
  type: "Convolution"
  bottom: "res3b_branch2b"
  top: "res3b_branch2c"
  convolution_param {
    num_output: 512
    bias_term: false
    pad: 0
    kernel_size: 1
    stride: 1
  }
}
layer {
  name: "bn3b_branch2c"
  type: "BatchNorm"
  bottom: "res3b_branch2c"
  top: "res3b_branch2c"
  batch_norm_param {
    use_global_stats: true
  }
}
layer {
  name: "scale3b_branch2c"
  type: "Scale"
  bottom: "res3b_branch2c"
  top: "res3b_branch2c"
  scale_param {
    bias_term: true
  }
}
layer {
  name: "res3b"
  type: "Eltwise"
  bottom: "res3a"
  bottom: "res3b_branch2c"
  top: "res3b"
}
layer {
  name: "res3b_relu"
  type: "ReLU"
  bottom: "res3b"
  top: "res3b"
}
layer {
  name: "res3c_branch2a"
  type: "Convolution"
  bottom: "res3b"
  top: "res3c_branch2a"
  convolution_param {
    num_output: 128
    bias_term: false
    pad: 0
    kernel_size: 1
    stride: 1
  }
}
layer {
  name: "bn3c_branch2a"
  type: "BatchNorm"
  bottom: "res3c_branch2a"
  top: "res3c_branch2a"
  batch_norm_param {
    use_global_stats: true
  }
}
layer {
  name: "scale3c_branch2a"
  type: "Scale"
  bottom: "res3c_branch2a"
  top: "res3c_branch2a"
  scale_param {
    bias_term: true
  }
}
layer {
  name: "res3c_branch2a_relu"
  type: "ReLU"
  bottom: "res3c_branch2a"
  top: "res3c_branch2a"
}
layer {
  name: "res3c_branch2b"
  type: "Convolution"
  bottom: "res3c_branch2a"
  top: "res3c_branch2b"
  convolution_param {
    num_output: 128
    bias_term: false
    pad: 1
    kernel_size: 3
    stride: 1
  }
}
layer {
  name: "bn3c_branch2b"
  type: "BatchNorm"
  bottom: "res3c_branch2b"
  top: "res3c_branch2b"
  batch_norm_param {
    use_global_stats: true
  }
}
layer {
  name: "scale3c_branch2b"
  type: "Scale"
  bottom: "res3c_branch2b"
  top: "res3c_branch2b"
  scale_param {
    bias_term: true
  }
}
layer {
  name: "res3c_branch2b_relu"
  type: "ReLU"
  bottom: "res3c_branch2b"
  top: "res3c_branch2b"
}
layer {
  name: "res3c_branch2c"
  type: "Convolution"
  bottom: "res3c_branch2b"
  top: "res3c_branch2c"
  convolution_param {
    num_output: 512
    bias_term: false
    pad: 0
    kernel_size: 1
    stride: 1
  }
}
layer {
  name: "bn3c_branch2c"
  type: "BatchNorm"
  bottom: "res3c_branch2c"
  top: "res3c_branch2c"
  batch_norm_param {
    use_global_stats: true
  }
}
layer {
  name: "scale3c_branch2c"
  type: "Scale"
  bottom: "res3c_branch2c"
  top: "res3c_branch2c"
  scale_param {
    bias_term: true
  }
}
layer {
  name: "res3c"
  type: "Eltwise"
  bottom: "res3b"
  bottom: "res3c_branch2c"
  top: "res3c"
}
layer {
  name: "res3c_relu"
  type: "ReLU"
  bottom: "res3c"
  top: "res3c"
}
layer {
  name: "res3d_branch2a"
  type: "Convolution"
  bottom: "res3c"
  top: "res3d_branch2a"
  convolution_param {
    num_output: 128
    bias_term: false
    pad: 0
    kernel_size: 1
    stride: 1
  }
}
layer {
  name: "bn3d_branch2a"
  type: "BatchNorm"
  bottom: "res3d_branch2a"
  top: "res3d_branch2a"
  batch_norm_param {
    use_global_stats: true
  }
}
layer {
  name: "scale3d_branch2a"
  type: "Scale"
  bottom: "res3d_branch2a"
  top: "res3d_branch2a"
  scale_param {
    bias_term: true
  }
}
layer {
  name: "res3d_branch2a_relu"
  type: "ReLU"
  bottom: "res3d_branch2a"
  top: "res3d_branch2a"
}
layer {
  name: "res3d_branch2b"
  type: "Convolution"
  bottom: "res3d_branch2a"
  top: "res3d_branch2b"
  convolution_param {
    num_output: 128
    bias_term: false
    pad: 1
    kernel_size: 3
    stride: 1
  }
}
layer {
  name: "bn3d_branch2b"
  type: "BatchNorm"
  bottom: "res3d_branch2b"
  top: "res3d_branch2b"
  batch_norm_param {
    use_global_stats: true
  }
}
layer {
  name: "scale3d_branch2b"
  type: "Scale"
  bottom: "res3d_branch2b"
  top: "res3d_branch2b"
  scale_param {
    bias_term: true
  }
}
layer {
  name: "res3d_branch2b_relu"
  type: "ReLU"
  bottom: "res3d_branch2b"
  top: "res3d_branch2b"
}
layer {
  name: "res3d_branch2c"
  type: "Convolution"
  bottom: "res3d_branch2b"
  top: "res3d_branch2c"
  convolution_param {
    num_output: 512
    bias_term: false
    pad: 0
    kernel_size: 1
    stride: 1
  }
}
layer {
  name: "bn3d_branch2c"
  type: "BatchNorm"
  bottom: "res3d_branch2c"
  top: "res3d_branch2c"
  batch_norm_param {
    use_global_stats: true
  }
}
layer {
  name: "scale3d_branch2c"
  type: "Scale"
  bottom: "res3d_branch2c"
  top: "res3d_branch2c"
  scale_param {
    bias_term: true
  }
}
layer {
  name: "res3d"
  type: "Eltwise"
  bottom: "res3c"
  bottom: "res3d_branch2c"
  top: "res3d"
}
layer {
  name: "res3d_relu"
  type: "ReLU"
  bottom: "res3d"
  top: "res3d"
}
layer {
  name: "res4a_branch1"
  type: "Convolution"
  bottom: "res3d"
  top: "res4a_branch1"
  convolution_param {
    num_output: 1024
    bias_term: false
    pad: 0
    kernel_size: 1
    stride: 2
  }
}
layer {
  name: "bn4a_branch1"
  type: "BatchNorm"
  bottom: "res4a_branch1"
  top: "res4a_branch1"
  batch_norm_param {
    use_global_stats: true
  }
}
layer {
  name: "scale4a_branch1"
  type: "Scale"
  bottom: "res4a_branch1"
  top: "res4a_branch1"
  scale_param {
    bias_term: true
  }
}
layer {
  name: "res4a_branch2a"
  type: "Convolution"
  bottom: "res3d"
  top: "res4a_branch2a"
  convolution_param {
    num_output: 256
    bias_term: false
    pad: 0
    kernel_size: 1
    stride: 2
  }
}
layer {
  name: "bn4a_branch2a"
  type: "BatchNorm"
  bottom: "res4a_branch2a"
  top: "res4a_branch2a"
  batch_norm_param {
    use_global_stats: true
  }
}
layer {
  name: "scale4a_branch2a"
  type: "Scale"
  bottom: "res4a_branch2a"
  top: "res4a_branch2a"
  scale_param {
    bias_term: true
  }
}
layer {
  name: "res4a_branch2a_relu"
  type: "ReLU"
  bottom: "res4a_branch2a"
  top: "res4a_branch2a"
}
layer {
  name: "res4a_branch2b"
  type: "Convolution"
  bottom: "res4a_branch2a"
  top: "res4a_branch2b"
  convolution_param {
    num_output: 256
    bias_term: false
    pad: 1
    kernel_size: 3
    stride: 1
  }
}
layer {
  name: "bn4a_branch2b"
  type: "BatchNorm"
  bottom: "res4a_branch2b"
  top: "res4a_branch2b"
  batch_norm_param {
    use_global_stats: true
  }
}
layer {
  name: "scale4a_branch2b"
  type: "Scale"
  bottom: "res4a_branch2b"
  top: "res4a_branch2b"
  scale_param {
    bias_term: true
  }
}
layer {
  name: "res4a_branch2b_relu"
  type: "ReLU"
  bottom: "res4a_branch2b"
  top: "res4a_branch2b"
}
layer {
  name: "res4a_branch2c"
  type: "Convolution"
  bottom: "res4a_branch2b"
  top: "res4a_branch2c"
  convolution_param {
    num_output: 1024
    bias_term: false
    pad: 0
    kernel_size: 1
    stride: 1
  }
}
layer {
  name: "bn4a_branch2c"
  type: "BatchNorm"
  bottom: "res4a_branch2c"
  top: "res4a_branch2c"
  batch_norm_param {
    use_global_stats: true
  }
}
layer {
  name: "scale4a_branch2c"
  type: "Scale"
  bottom: "res4a_branch2c"
  top: "res4a_branch2c"
  scale_param {
    bias_term: true
  }
}
layer {
  name: "res4a"
  type: "Eltwise"
  bottom: "res4a_branch1"
  bottom: "res4a_branch2c"
  top: "res4a"
}
layer {
  name: "res4a_relu"
  type: "ReLU"
  bottom: "res4a"
  top: "res4a"
}
layer {
  name: "res4b_branch2a"
  type: "Convolution"
  bottom: "res4a"
  top: "res4b_branch2a"
  convolution_param {
    num_output: 256
    bias_term: false
    pad: 0
    kernel_size: 1
    stride: 1
  }
}
layer {
  name: "bn4b_branch2a"
  type: "BatchNorm"
  bottom: "res4b_branch2a"
  top: "res4b_branch2a"
  batch_norm_param {
    use_global_stats: true
  }
}
layer {
  name: "scale4b_branch2a"
  type: "Scale"
  bottom: "res4b_branch2a"
  top: "res4b_branch2a"
  scale_param {
    bias_term: true
  }
}
layer {
  name: "res4b_branch2a_relu"
  type: "ReLU"
  bottom: "res4b_branch2a"
  top: "res4b_branch2a"
}
layer {
  name: "res4b_branch2b"
  type: "Convolution"
  bottom: "res4b_branch2a"
  top: "res4b_branch2b"
  convolution_param {
    num_output: 256
    bias_term: false
    pad: 1
    kernel_size: 3
    stride: 1
  }
}
layer {
  name: "bn4b_branch2b"
  type: "BatchNorm"
  bottom: "res4b_branch2b"
  top: "res4b_branch2b"
  batch_norm_param {
    use_global_stats: true
  }
}
layer {
  name: "scale4b_branch2b"
  type: "Scale"
  bottom: "res4b_branch2b"
  top: "res4b_branch2b"
  scale_param {
    bias_term: true
  }
}
layer {
  name: "res4b_branch2b_relu"
  type: "ReLU"
  bottom: "res4b_branch2b"
  top: "res4b_branch2b"
}
layer {
  name: "res4b_branch2c"
  type: "Convolution"
  bottom: "res4b_branch2b"
  top: "res4b_branch2c"
  convolution_param {
    num_output: 1024
    bias_term: false
    pad: 0
    kernel_size: 1
    stride: 1
  }
}
layer {
  name: "bn4b_branch2c"
  type: "BatchNorm"
  bottom: "res4b_branch2c"
  top: "res4b_branch2c"
  batch_norm_param {
    use_global_stats: true
  }
}
layer {
  name: "scale4b_branch2c"
  type: "Scale"
  bottom: "res4b_branch2c"
  top: "res4b_branch2c"
  scale_param {
    bias_term: true
  }
}
layer {
  name: "res4b"
  type: "Eltwise"
  bottom: "res4a"
  bottom: "res4b_branch2c"
  top: "res4b"
}
layer {
  name: "res4b_relu"
  type: "ReLU"
  bottom: "res4b"
  top: "res4b"
}
layer {
  name: "res4c_branch2a"
  type: "Convolution"
  bottom: "res4b"
  top: "res4c_branch2a"
  convolution_param {
    num_output: 256
    bias_term: false
    pad: 0
    kernel_size: 1
    stride: 1
  }
}
layer {
  name: "bn4c_branch2a"
  type: "BatchNorm"
  bottom: "res4c_branch2a"
  top: "res4c_branch2a"
  batch_norm_param {
    use_global_stats: true
  }
}
layer {
  name: "scale4c_branch2a"
  type: "Scale"
  bottom: "res4c_branch2a"
  top: "res4c_branch2a"
  scale_param {
    bias_term: true
  }
}
layer {
  name: "res4c_branch2a_relu"
  type: "ReLU"
  bottom: "res4c_branch2a"
  top: "res4c_branch2a"
}
layer {
  name: "res4c_branch2b"
  type: "Convolution"
  bottom: "res4c_branch2a"
  top: "res4c_branch2b"
  convolution_param {
    num_output: 256
    bias_term: false
    pad: 1
    kernel_size: 3
    stride: 1
  }
}
layer {
  name: "bn4c_branch2b"
  type: "BatchNorm"
  bottom: "res4c_branch2b"
  top: "res4c_branch2b"
  batch_norm_param {
    use_global_stats: true
  }
}
layer {
  name: "scale4c_branch2b"
  type: "Scale"
  bottom: "res4c_branch2b"
  top: "res4c_branch2b"
  scale_param {
    bias_term: true
  }
}
layer {
  name: "res4c_branch2b_relu"
  type: "ReLU"
  bottom: "res4c_branch2b"
  top: "res4c_branch2b"
}
layer {
  name: "res4c_branch2c"
  type: "Convolution"
  bottom: "res4c_branch2b"
  top: "res4c_branch2c"
  convolution_param {
    num_output: 1024
    bias_term: false
    pad: 0
    kernel_size: 1
    stride: 1
  }
}
layer {
  name: "bn4c_branch2c"
  type: "BatchNorm"
  bottom: "res4c_branch2c"
  top: "res4c_branch2c"
  batch_norm_param {
    use_global_stats: true
  }
}
layer {
  name: "scale4c_branch2c"
  type: "Scale"
  bottom: "res4c_branch2c"
  top: "res4c_branch2c"
  scale_param {
    bias_term: true
  }
}
layer {
  name: "res4c"
  type: "Eltwise"
  bottom: "res4b"
  bottom: "res4c_branch2c"
  top: "res4c"
}
layer {
  name: "res4c_relu"
  type: "ReLU"
  bottom: "res4c"
  top: "res4c"
}
layer {
  name: "res4d_branch2a"
  type: "Convolution"
  bottom: "res4c"
  top: "res4d_branch2a"
  convolution_param {
    num_output: 256
    bias_term: false
    pad: 0
    kernel_size: 1
    stride: 1
  }
}
layer {
  name: "bn4d_branch2a"
  type: "BatchNorm"
  bottom: "res4d_branch2a"
  top: "res4d_branch2a"
  batch_norm_param {
    use_global_stats: true
  }
}
layer {
  name: "scale4d_branch2a"
  type: "Scale"
  bottom: "res4d_branch2a"
  top: "res4d_branch2a"
  scale_param {
    bias_term: true
  }
}
layer {
  name: "res4d_branch2a_relu"
  type: "ReLU"
  bottom: "res4d_branch2a"
  top: "res4d_branch2a"
}
layer {
  name: "res4d_branch2b"
  type: "Convolution"
  bottom: "res4d_branch2a"
  top: "res4d_branch2b"
  convolution_param {
    num_output: 256
    bias_term: false
    pad: 1
    kernel_size: 3
    stride: 1
  }
}
layer {
  name: "bn4d_branch2b"
  type: "BatchNorm"
  bottom: "res4d_branch2b"
  top: "res4d_branch2b"
  batch_norm_param {
    use_global_stats: true
  }
}
layer {
  name: "scale4d_branch2b"
  type: "Scale"
  bottom: "res4d_branch2b"
  top: "res4d_branch2b"
  scale_param {
    bias_term: true
  }
}
layer {
  name: "res4d_branch2b_relu"
  type: "ReLU"
  bottom: "res4d_branch2b"
  top: "res4d_branch2b"
}
layer {
  name: "res4d_branch2c"
  type: "Convolution"
  bottom: "res4d_branch2b"
  top: "res4d_branch2c"
  convolution_param {
    num_output: 1024
    bias_term: false
    pad: 0
    kernel_size: 1
    stride: 1
  }
}
layer {
  name: "bn4d_branch2c"
  type: "BatchNorm"
  bottom: "res4d_branch2c"
  top: "res4d_branch2c"
  batch_norm_param {
    use_global_stats: true
  }
}
layer {
  name: "scale4d_branch2c"
  type: "Scale"
  bottom: "res4d_branch2c"
  top: "res4d_branch2c"
  scale_param {
    bias_term: true
  }
}
layer {
  name: "res4d"
  type: "Eltwise"
  bottom: "res4c"
  bottom: "res4d_branch2c"
  top: "res4d"
}
layer {
  name: "res4d_relu"
  type: "ReLU"
  bottom: "res4d"
  top: "res4d"
}
layer {
  name: "res4e_branch2a"
  type: "Convolution"
  bottom: "res4d"
  top: "res4e_branch2a"
  convolution_param {
    num_output: 256
    bias_term: false
    pad: 0
    kernel_size: 1
    stride: 1
  }
}
layer {
  name: "bn4e_branch2a"
  type: "BatchNorm"
  bottom: "res4e_branch2a"
  top: "res4e_branch2a"
  batch_norm_param {
    use_global_stats: true
  }
}
layer {
  name: "scale4e_branch2a"
  type: "Scale"
  bottom: "res4e_branch2a"
  top: "res4e_branch2a"
  scale_param {
    bias_term: true
  }
}
layer {
  name: "res4e_branch2a_relu"
  type: "ReLU"
  bottom: "res4e_branch2a"
  top: "res4e_branch2a"
}
layer {
  name: "res4e_branch2b"
  type: "Convolution"
  bottom: "res4e_branch2a"
  top: "res4e_branch2b"
  convolution_param {
    num_output: 256
    bias_term: false
    pad: 1
    kernel_size: 3
    stride: 1
  }
}
layer {
  name: "bn4e_branch2b"
  type: "BatchNorm"
  bottom: "res4e_branch2b"
  top: "res4e_branch2b"
  batch_norm_param {
    use_global_stats: true
  }
}
layer {
  name: "scale4e_branch2b"
  type: "Scale"
  bottom: "res4e_branch2b"
  top: "res4e_branch2b"
  scale_param {
    bias_term: true
  }
}
layer {
  name: "res4e_branch2b_relu"
  type: "ReLU"
  bottom: "res4e_branch2b"
  top: "res4e_branch2b"
}
layer {
  name: "res4e_branch2c"
  type: "Convolution"
  bottom: "res4e_branch2b"
  top: "res4e_branch2c"
  convolution_param {
    num_output: 1024
    bias_term: false
    pad: 0
    kernel_size: 1
    stride: 1
  }
}
layer {
  name: "bn4e_branch2c"
  type: "BatchNorm"
  bottom: "res4e_branch2c"
  top: "res4e_branch2c"
  batch_norm_param {
    use_global_stats: true
  }
}
layer {
  name: "scale4e_branch2c"
  type: "Scale"
  bottom: "res4e_branch2c"
  top: "res4e_branch2c"
  scale_param {
    bias_term: true
  }
}
layer {
  name: "res4e"
  type: "Eltwise"
  bottom: "res4d"
  bottom: "res4e_branch2c"
  top: "res4e"
}
layer {
  name: "res4e_relu"
  type: "ReLU"
  bottom: "res4e"
  top: "res4e"
}
layer {
  name: "res4f_branch2a"
  type: "Convolution"
  bottom: "res4e"
  top: "res4f_branch2a"
  convolution_param {
    num_output: 256
    bias_term: false
    pad: 0
    kernel_size: 1
    stride: 1
  }
}
layer {
  name: "bn4f_branch2a"
  type: "BatchNorm"
  bottom: "res4f_branch2a"
  top: "res4f_branch2a"
  batch_norm_param {
    use_global_stats: true
  }
}
layer {
  name: "scale4f_branch2a"
  type: "Scale"
  bottom: "res4f_branch2a"
  top: "res4f_branch2a"
  scale_param {
    bias_term: true
  }
}
layer {
  name: "res4f_branch2a_relu"
  type: "ReLU"
  bottom: "res4f_branch2a"
  top: "res4f_branch2a"
}
layer {
  name: "res4f_branch2b"
  type: "Convolution"
  bottom: "res4f_branch2a"
  top: "res4f_branch2b"
  convolution_param {
    num_output: 256
    bias_term: false
    pad: 1
    kernel_size: 3
    stride: 1
  }
}
layer {
  name: "bn4f_branch2b"
  type: "BatchNorm"
  bottom: "res4f_branch2b"
  top: "res4f_branch2b"
  batch_norm_param {
    use_global_stats: true
  }
}
layer {
  name: "scale4f_branch2b"
  type: "Scale"
  bottom: "res4f_branch2b"
  top: "res4f_branch2b"
  scale_param {
    bias_term: true
  }
}
layer {
  name: "res4f_branch2b_relu"
  type: "ReLU"
  bottom: "res4f_branch2b"
  top: "res4f_branch2b"
}
layer {
  name: "res4f_branch2c"
  type: "Convolution"
  bottom: "res4f_branch2b"
  top: "res4f_branch2c"
  convolution_param {
    num_output: 1024
    bias_term: false
    pad: 0
    kernel_size: 1
    stride: 1
  }
}
layer {
  name: "bn4f_branch2c"
  type: "BatchNorm"
  bottom: "res4f_branch2c"
  top: "res4f_branch2c"
  batch_norm_param {
    use_global_stats: true
  }
}
layer {
  name: "scale4f_branch2c"
  type: "Scale"
  bottom: "res4f_branch2c"
  top: "res4f_branch2c"
  scale_param {
    bias_term: true
  }
}
layer {
  name: "res4f"
  type: "Eltwise"
  bottom: "res4e"
  bottom: "res4f_branch2c"
  top: "res4f"
}
layer {
  name: "res4f_relu"
  type: "ReLU"
  bottom: "res4f"
  top: "res4f"
}
layer {
  name: "res5a_branch1"
  type: "Convolution"
  bottom: "res4f"
  top: "res5a_branch1"
  convolution_param {
    num_output: 2048
    bias_term: false
    pad: 0
    kernel_size: 1
    stride: 2
  }
}
layer {
  name: "bn5a_branch1"
  type: "BatchNorm"
  bottom: "res5a_branch1"
  top: "res5a_branch1"
  batch_norm_param {
    use_global_stats: true
  }
}
layer {
  name: "scale5a_branch1"
  type: "Scale"
  bottom: "res5a_branch1"
  top: "res5a_branch1"
  scale_param {
    bias_term: true
  }
}
layer {
  name: "res5a_branch2a"
  type: "Convolution"
  bottom: "res4f"
  top: "res5a_branch2a"
  convolution_param {
    num_output: 512
    bias_term: false
    pad: 0
    kernel_size: 1
    stride: 2
  }
}
layer {
  name: "bn5a_branch2a"
  type: "BatchNorm"
  bottom: "res5a_branch2a"
  top: "res5a_branch2a"
  batch_norm_param {
    use_global_stats: true
  }
}
layer {
  name: "scale5a_branch2a"
  type: "Scale"
  bottom: "res5a_branch2a"
  top: "res5a_branch2a"
  scale_param {
    bias_term: true
  }
}
layer {
  name: "res5a_branch2a_relu"
  type: "ReLU"
  bottom: "res5a_branch2a"
  top: "res5a_branch2a"
}
layer {
  name: "res5a_branch2b"
  type: "Convolution"
  bottom: "res5a_branch2a"
  top: "res5a_branch2b"
  convolution_param {
    num_output: 512
    bias_term: false
    pad: 1
    kernel_size: 3
    stride: 1
  }
}
layer {
  name: "bn5a_branch2b"
  type: "BatchNorm"
  bottom: "res5a_branch2b"
  top: "res5a_branch2b"
  batch_norm_param {
    use_global_stats: true
  }
}
layer {
  name: "scale5a_branch2b"
  type: "Scale"
  bottom: "res5a_branch2b"
  top: "res5a_branch2b"
  scale_param {
    bias_term: true
  }
}
layer {
  name: "res5a_branch2b_relu"
  type: "ReLU"
  bottom: "res5a_branch2b"
  top: "res5a_branch2b"
}
layer {
  name: "res5a_branch2c"
  type: "Convolution"
  bottom: "res5a_branch2b"
  top: "res5a_branch2c"
  convolution_param {
    num_output: 2048
    bias_term: false
    pad: 0
    kernel_size: 1
    stride: 1
  }
}
layer {
  name: "bn5a_branch2c"
  type: "BatchNorm"
  bottom: "res5a_branch2c"
  top: "res5a_branch2c"
  batch_norm_param {
    use_global_stats: true
  }
}
layer {
  name: "scale5a_branch2c"
  type: "Scale"
  bottom
I1029 11:43:56.680080 18678 layer_factory.hpp:77] Creating layer data
I1029 11:43:56.680096 18678 net.cpp:84] Creating Layer data
I1029 11:43:56.680104 18678 net.cpp:380] data -> data
I1029 11:43:56.680127 18678 net.cpp:380] data -> label
I1029 11:43:56.680140 18678 hdf5_data_layer.cpp:80] Loading list of HDF5 filenames from: ./train.txt
I1029 11:43:56.680176 18678 hdf5_data_layer.cpp:94] Number of HDF5 files: 1
I1029 11:43:56.681993 18678 hdf5.cpp:32] Datatype class: H5T_FLOAT
I1029 11:43:58.211431 18678 net.cpp:122] Setting up data
I1029 11:43:58.211486 18678 net.cpp:129] Top shape: 10 3 227 227 (1545870)
I1029 11:43:58.211495 18678 net.cpp:129] Top shape: 10 (10)
I1029 11:43:58.211503 18678 net.cpp:137] Memory required for data: 6183520
I1029 11:43:58.211519 18678 layer_factory.hpp:77] Creating layer conv1
I1029 11:43:58.211555 18678 net.cpp:84] Creating Layer conv1
I1029 11:43:58.211570 18678 net.cpp:406] conv1 <- data
I1029 11:43:58.211593 18678 net.cpp:380] conv1 -> conv1
I1029 11:43:58.664402 18678 net.cpp:122] Setting up conv1
I1029 11:43:58.664448 18678 net.cpp:129] Top shape: 10 64 114 114 (8317440)
I1029 11:43:58.664453 18678 net.cpp:137] Memory required for data: 39453280
I1029 11:43:58.664492 18678 layer_factory.hpp:77] Creating layer bn_conv1
I1029 11:43:58.664515 18678 net.cpp:84] Creating Layer bn_conv1
I1029 11:43:58.664522 18678 net.cpp:406] bn_conv1 <- conv1
I1029 11:43:58.664533 18678 net.cpp:367] bn_conv1 -> conv1 (in-place)
I1029 11:43:58.664814 18678 net.cpp:122] Setting up bn_conv1
I1029 11:43:58.664825 18678 net.cpp:129] Top shape: 10 64 114 114 (8317440)
I1029 11:43:58.664830 18678 net.cpp:137] Memory required for data: 72723040
I1029 11:43:58.664844 18678 layer_factory.hpp:77] Creating layer scale_conv1
I1029 11:43:58.664855 18678 net.cpp:84] Creating Layer scale_conv1
I1029 11:43:58.664860 18678 net.cpp:406] scale_conv1 <- conv1
I1029 11:43:58.664867 18678 net.cpp:367] scale_conv1 -> conv1 (in-place)
I1029 11:43:58.664922 18678 layer_factory.hpp:77] Creating layer scale_conv1
I1029 11:43:58.665118 18678 net.cpp:122] Setting up scale_conv1
I1029 11:43:58.665169 18678 net.cpp:129] Top shape: 10 64 114 114 (8317440)
I1029 11:43:58.665175 18678 net.cpp:137] Memory required for data: 105992800
I1029 11:43:58.665184 18678 layer_factory.hpp:77] Creating layer conv1_relu
I1029 11:43:58.665195 18678 net.cpp:84] Creating Layer conv1_relu
I1029 11:43:58.665200 18678 net.cpp:406] conv1_relu <- conv1
I1029 11:43:58.665208 18678 net.cpp:367] conv1_relu -> conv1 (in-place)
I1029 11:43:58.666132 18678 net.cpp:122] Setting up conv1_relu
I1029 11:43:58.666144 18678 net.cpp:129] Top shape: 10 64 114 114 (8317440)
I1029 11:43:58.666148 18678 net.cpp:137] Memory required for data: 139262560
I1029 11:43:58.666153 18678 layer_factory.hpp:77] Creating layer pool1
I1029 11:43:58.666162 18678 net.cpp:84] Creating Layer pool1
I1029 11:43:58.666167 18678 net.cpp:406] pool1 <- conv1
I1029 11:43:58.666175 18678 net.cpp:380] pool1 -> pool1
I1029 11:43:58.666237 18678 net.cpp:122] Setting up pool1
I1029 11:43:58.666246 18678 net.cpp:129] Top shape: 10 64 57 57 (2079360)
I1029 11:43:58.666251 18678 net.cpp:137] Memory required for data: 147580000
I1029 11:43:58.666255 18678 layer_factory.hpp:77] Creating layer pool1_pool1_0_split
I1029 11:43:58.666263 18678 net.cpp:84] Creating Layer pool1_pool1_0_split
I1029 11:43:58.666267 18678 net.cpp:406] pool1_pool1_0_split <- pool1
I1029 11:43:58.666276 18678 net.cpp:380] pool1_pool1_0_split -> pool1_pool1_0_split_0
I1029 11:43:58.666287 18678 net.cpp:380] pool1_pool1_0_split -> pool1_pool1_0_split_1
I1029 11:43:58.666329 18678 net.cpp:122] Setting up pool1_pool1_0_split
I1029 11:43:58.666338 18678 net.cpp:129] Top shape: 10 64 57 57 (2079360)
I1029 11:43:58.666345 18678 net.cpp:129] Top shape: 10 64 57 57 (2079360)
I1029 11:43:58.666349 18678 net.cpp:137] Memory required for data: 164214880
I1029 11:43:58.666353 18678 layer_factory.hpp:77] Creating layer res2a_branch1
I1029 11:43:58.666368 18678 net.cpp:84] Creating Layer res2a_branch1
I1029 11:43:58.666373 18678 net.cpp:406] res2a_branch1 <- pool1_pool1_0_split_0
I1029 11:43:58.666379 18678 net.cpp:380] res2a_branch1 -> res2a_branch1
I1029 11:43:58.672906 18678 net.cpp:122] Setting up res2a_branch1
I1029 11:43:58.672930 18678 net.cpp:129] Top shape: 10 256 57 57 (8317440)
I1029 11:43:58.672935 18678 net.cpp:137] Memory required for data: 197484640
I1029 11:43:58.672945 18678 layer_factory.hpp:77] Creating layer bn2a_branch1
I1029 11:43:58.672961 18678 net.cpp:84] Creating Layer bn2a_branch1
I1029 11:43:58.672967 18678 net.cpp:406] bn2a_branch1 <- res2a_branch1
I1029 11:43:58.672978 18678 net.cpp:367] bn2a_branch1 -> res2a_branch1 (in-place)
I1029 11:43:58.674749 18678 net.cpp:122] Setting up bn2a_branch1
I1029 11:43:58.674803 18678 net.cpp:129] Top shape: 10 256 57 57 (8317440)
I1029 11:43:58.674811 18678 net.cpp:137] Memory required for data: 230754400
I1029 11:43:58.674850 18678 layer_factory.hpp:77] Creating layer scale2a_branch1
I1029 11:43:58.674873 18678 net.cpp:84] Creating Layer scale2a_branch1
I1029 11:43:58.674885 18678 net.cpp:406] scale2a_branch1 <- res2a_branch1
I1029 11:43:58.674897 18678 net.cpp:367] scale2a_branch1 -> res2a_branch1 (in-place)
I1029 11:43:58.674960 18678 layer_factory.hpp:77] Creating layer scale2a_branch1
I1029 11:43:58.675120 18678 net.cpp:122] Setting up scale2a_branch1
I1029 11:43:58.675187 18678 net.cpp:129] Top shape: 10 256 57 57 (8317440)
I1029 11:43:58.675205 18678 net.cpp:137] Memory required for data: 264024160
I1029 11:43:58.675226 18678 layer_factory.hpp:77] Creating layer res2a_branch2a
I1029 11:43:58.675256 18678 net.cpp:84] Creating Layer res2a_branch2a
I1029 11:43:58.675272 18678 net.cpp:406] res2a_branch2a <- pool1_pool1_0_split_1
I1029 11:43:58.675292 18678 net.cpp:380] res2a_branch2a -> res2a_branch2a
I1029 11:43:58.679608 18678 net.cpp:122] Setting up res2a_branch2a
I1029 11:43:58.679641 18678 net.cpp:129] Top shape: 10 64 57 57 (2079360)
I1029 11:43:58.679647 18678 net.cpp:137] Memory required for data: 272341600
I1029 11:43:58.679661 18678 layer_factory.hpp:77] Creating layer bn2a_branch2a
I1029 11:43:58.679726 18678 net.cpp:84] Creating Layer bn2a_branch2a
I1029 11:43:58.679746 18678 net.cpp:406] bn2a_branch2a <- res2a_branch2a
I1029 11:43:58.679769 18678 net.cpp:367] bn2a_branch2a -> res2a_branch2a (in-place)
I1029 11:43:58.680039 18678 net.cpp:122] Setting up bn2a_branch2a
I1029 11:43:58.680059 18678 net.cpp:129] Top shape: 10 64 57 57 (2079360)
I1029 11:43:58.680076 18678 net.cpp:137] Memory required for data: 280659040
I1029 11:43:58.680112 18678 layer_factory.hpp:77] Creating layer scale2a_branch2a
I1029 11:43:58.680133 18678 net.cpp:84] Creating Layer scale2a_branch2a
I1029 11:43:58.680147 18678 net.cpp:406] scale2a_branch2a <- res2a_branch2a
I1029 11:43:58.680163 18678 net.cpp:367] scale2a_branch2a -> res2a_branch2a (in-place)
I1029 11:43:58.680227 18678 layer_factory.hpp:77] Creating layer scale2a_branch2a
I1029 11:43:58.680385 18678 net.cpp:122] Setting up scale2a_branch2a
I1029 11:43:58.680397 18678 net.cpp:129] Top shape: 10 64 57 57 (2079360)
I1029 11:43:58.680402 18678 net.cpp:137] Memory required for data: 288976480
I1029 11:43:58.680410 18678 layer_factory.hpp:77] Creating layer res2a_branch2a_relu
I1029 11:43:58.680419 18678 net.cpp:84] Creating Layer res2a_branch2a_relu
I1029 11:43:58.680423 18678 net.cpp:406] res2a_branch2a_relu <- res2a_branch2a
I1029 11:43:58.680430 18678 net.cpp:367] res2a_branch2a_relu -> res2a_branch2a (in-place)
I1029 11:43:58.681802 18678 net.cpp:122] Setting up res2a_branch2a_relu
I1029 11:43:58.681810 18678 net.cpp:129] Top shape: 10 64 57 57 (2079360)
I1029 11:43:58.681826 18678 net.cpp:137] Memory required for data: 297293920
I1029 11:43:58.681831 18678 layer_factory.hpp:77] Creating layer res2a_branch2b
I1029 11:43:58.681844 18678 net.cpp:84] Creating Layer res2a_branch2b
I1029 11:43:58.681849 18678 net.cpp:406] res2a_branch2b <- res2a_branch2a
I1029 11:43:58.681859 18678 net.cpp:380] res2a_branch2b -> res2a_branch2b
I1029 11:43:58.689086 18678 net.cpp:122] Setting up res2a_branch2b
I1029 11:43:58.689131 18678 net.cpp:129] Top shape: 10 64 57 57 (2079360)
I1029 11:43:58.689136 18678 net.cpp:137] Memory required for data: 305611360
I1029 11:43:58.689152 18678 layer_factory.hpp:77] Creating layer bn2a_branch2b
I1029 11:43:58.689173 18678 net.cpp:84] Creating Layer bn2a_branch2b
I1029 11:43:58.689182 18678 net.cpp:406] bn2a_branch2b <- res2a_branch2b
I1029 11:43:58.689191 18678 net.cpp:367] bn2a_branch2b -> res2a_branch2b (in-place)
I1029 11:43:58.689462 18678 net.cpp:122] Setting up bn2a_branch2b
I1029 11:43:58.689496 18678 net.cpp:129] Top shape: 10 64 57 57 (2079360)
I1029 11:43:58.689512 18678 net.cpp:137] Memory required for data: 313928800
I1029 11:43:58.689533 18678 layer_factory.hpp:77] Creating layer scale2a_branch2b
I1029 11:43:58.689559 18678 net.cpp:84] Creating Layer scale2a_branch2b
I1029 11:43:58.689574 18678 net.cpp:406] scale2a_branch2b <- res2a_branch2b
I1029 11:43:58.689592 18678 net.cpp:367] scale2a_branch2b -> res2a_branch2b (in-place)
I1029 11:43:58.689658 18678 layer_factory.hpp:77] Creating layer scale2a_branch2b
I1029 11:43:58.689853 18678 net.cpp:122] Setting up scale2a_branch2b
I1029 11:43:58.689877 18678 net.cpp:129] Top shape: 10 64 57 57 (2079360)
I1029 11:43:58.689890 18678 net.cpp:137] Memory required for data: 322246240
I1029 11:43:58.689908 18678 layer_factory.hpp:77] Creating layer res2a_branch2b_relu
I1029 11:43:58.689927 18678 net.cpp:84] Creating Layer res2a_branch2b_relu
I1029 11:43:58.689942 18678 net.cpp:406] res2a_branch2b_relu <- res2a_branch2b
I1029 11:43:58.689962 18678 net.cpp:367] res2a_branch2b_relu -> res2a_branch2b (in-place)
I1029 11:43:58.690856 18678 net.cpp:122] Setting up res2a_branch2b_relu
I1029 11:43:58.690866 18678 net.cpp:129] Top shape: 10 64 57 57 (2079360)
I1029 11:43:58.690871 18678 net.cpp:137] Memory required for data: 330563680
I1029 11:43:58.690876 18678 layer_factory.hpp:77] Creating layer res2a_branch2c
I1029 11:43:58.690889 18678 net.cpp:84] Creating Layer res2a_branch2c
I1029 11:43:58.690894 18678 net.cpp:406] res2a_branch2c <- res2a_branch2b
I1029 11:43:58.690906 18678 net.cpp:380] res2a_branch2c -> res2a_branch2c
I1029 11:43:58.698686 18678 net.cpp:122] Setting up res2a_branch2c
I1029 11:43:58.698765 18678 net.cpp:129] Top shape: 10 256 57 57 (8317440)
I1029 11:43:58.698783 18678 net.cpp:137] Memory required for data: 363833440
I1029 11:43:58.698808 18678 layer_factory.hpp:77] Creating layer bn2a_branch2c
I1029 11:43:58.698832 18678 net.cpp:84] Creating Layer bn2a_branch2c
I1029 11:43:58.698848 18678 net.cpp:406] bn2a_branch2c <- res2a_branch2c
I1029 11:43:58.698870 18678 net.cpp:367] bn2a_branch2c -> res2a_branch2c (in-place)
I1029 11:43:58.699141 18678 net.cpp:122] Setting up bn2a_branch2c
I1029 11:43:58.699159 18678 net.cpp:129] Top shape: 10 256 57 57 (8317440)
I1029 11:43:58.699175 18678 net.cpp:137] Memory required for data: 397103200
I1029 11:43:58.699196 18678 layer_factory.hpp:77] Creating layer scale2a_branch2c
I1029 11:43:58.699218 18678 net.cpp:84] Creating Layer scale2a_branch2c
I1029 11:43:58.699232 18678 net.cpp:406] scale2a_branch2c <- res2a_branch2c
I1029 11:43:58.699249 18678 net.cpp:367] scale2a_branch2c -> res2a_branch2c (in-place)
I1029 11:43:58.699314 18678 layer_factory.hpp:77] Creating layer scale2a_branch2c
I1029 11:43:58.699466 18678 net.cpp:122] Setting up scale2a_branch2c
I1029 11:43:58.699484 18678 net.cpp:129] Top shape: 10 256 57 57 (8317440)
I1029 11:43:58.699499 18678 net.cpp:137] Memory required for data: 430372960
I1029 11:43:58.699517 18678 layer_factory.hpp:77] Creating layer res2a
I1029 11:43:58.699537 18678 net.cpp:84] Creating Layer res2a
I1029 11:43:58.699551 18678 net.cpp:406] res2a <- res2a_branch1
I1029 11:43:58.699568 18678 net.cpp:406] res2a <- res2a_branch2c
I1029 11:43:58.699585 18678 net.cpp:380] res2a -> res2a
I1029 11:43:58.699628 18678 net.cpp:122] Setting up res2a
I1029 11:43:58.699646 18678 net.cpp:129] Top shape: 10 256 57 57 (8317440)
I1029 11:43:58.699661 18678 net.cpp:137] Memory required for data: 463642720
I1029 11:43:58.699674 18678 layer_factory.hpp:77] Creating layer res2a_relu
I1029 11:43:58.699692 18678 net.cpp:84] Creating Layer res2a_relu
I1029 11:43:58.699707 18678 net.cpp:406] res2a_relu <- res2a
I1029 11:43:58.699723 18678 net.cpp:367] res2a_relu -> res2a (in-place)
I1029 11:43:58.700862 18678 net.cpp:122] Setting up res2a_relu
I1029 11:43:58.700875 18678 net.cpp:129] Top shape: 10 256 57 57 (8317440)
I1029 11:43:58.700878 18678 net.cpp:137] Memory required for data: 496912480
I1029 11:43:58.700883 18678 layer_factory.hpp:77] Creating layer res2a_res2a_relu_0_split
I1029 11:43:58.700891 18678 net.cpp:84] Creating Layer res2a_res2a_relu_0_split
I1029 11:43:58.700896 18678 net.cpp:406] res2a_res2a_relu_0_split <- res2a
I1029 11:43:58.700906 18678 net.cpp:380] res2a_res2a_relu_0_split -> res2a_res2a_relu_0_split_0
I1029 11:43:58.700914 18678 net.cpp:380] res2a_res2a_relu_0_split -> res2a_res2a_relu_0_split_1
I1029 11:43:58.700963 18678 net.cpp:122] Setting up res2a_res2a_relu_0_split
I1029 11:43:58.700989 18678 net.cpp:129] Top shape: 10 256 57 57 (8317440)
I1029 11:43:58.701006 18678 net.cpp:129] Top shape: 10 256 57 57 (8317440)
I1029 11:43:58.701020 18678 net.cpp:137] Memory required for data: 563452000
I1029 11:43:58.701035 18678 layer_factory.hpp:77] Creating layer res2b_branch2a
I1029 11:43:58.701061 18678 net.cpp:84] Creating Layer res2b_branch2a
I1029 11:43:58.701073 18678 net.cpp:406] res2b_branch2a <- res2a_res2a_relu_0_split_0
I1029 11:43:58.701092 18678 net.cpp:380] res2b_branch2a -> res2b_branch2a
I1029 11:43:58.707916 18678 net.cpp:122] Setting up res2b_branch2a
I1029 11:43:58.707944 18678 net.cpp:129] Top shape: 10 64 57 57 (2079360)
I1029 11:43:58.707949 18678 net.cpp:137] Memory required for data: 571769440
I1029 11:43:58.707962 18678 layer_factory.hpp:77] Creating layer bn2b_branch2a
I1029 11:43:58.707973 18678 net.cpp:84] Creating Layer bn2b_branch2a
I1029 11:43:58.707979 18678 net.cpp:406] bn2b_branch2a <- res2b_branch2a
I1029 11:43:58.707990 18678 net.cpp:367] bn2b_branch2a -> res2b_branch2a (in-place)
I1029 11:43:58.708256 18678 net.cpp:122] Setting up bn2b_branch2a
I1029 11:43:58.708290 18678 net.cpp:129] Top shape: 10 64 57 57 (2079360)
I1029 11:43:58.708317 18678 net.cpp:137] Memory required for data: 580086880
I1029 11:43:58.708353 18678 layer_factory.hpp:77] Creating layer scale2b_branch2a
I1029 11:43:58.708374 18678 net.cpp:84] Creating Layer scale2b_branch2a
I1029 11:43:58.708389 18678 net.cpp:406] scale2b_branch2a <- res2b_branch2a
I1029 11:43:58.708407 18678 net.cpp:367] scale2b_branch2a -> res2b_branch2a (in-place)
I1029 11:43:58.708472 18678 layer_factory.hpp:77] Creating layer scale2b_branch2a
I1029 11:43:58.708639 18678 net.cpp:122] Setting up scale2b_branch2a
I1029 11:43:58.708657 18678 net.cpp:129] Top shape: 10 64 57 57 (2079360)
I1029 11:43:58.708672 18678 net.cpp:137] Memory required for data: 588404320
I1029 11:43:58.708689 18678 layer_factory.hpp:77] Creating layer res2b_branch2a_relu
I1029 11:43:58.708706 18678 net.cpp:84] Creating Layer res2b_branch2a_relu
I1029 11:43:58.708721 18678 net.cpp:406] res2b_branch2a_relu <- res2b_branch2a
I1029 11:43:58.708741 18678 net.cpp:367] res2b_branch2a_relu -> res2b_branch2a (in-place)
I1029 11:43:58.710036 18678 net.cpp:122] Setting up res2b_branch2a_relu
I1029 11:43:58.710047 18678 net.cpp:129] Top shape: 10 64 57 57 (2079360)
I1029 11:43:58.710052 18678 net.cpp:137] Memory required for data: 596721760
I1029 11:43:58.710057 18678 layer_factory.hpp:77] Creating layer res2b_branch2b
I1029 11:43:58.710069 18678 net.cpp:84] Creating Layer res2b_branch2b
I1029 11:43:58.710075 18678 net.cpp:406] res2b_branch2b <- res2b_branch2a
I1029 11:43:58.710083 18678 net.cpp:380] res2b_branch2b -> res2b_branch2b
I1029 11:43:58.716926 18678 net.cpp:122] Setting up res2b_branch2b
I1029 11:43:58.716951 18678 net.cpp:129] Top shape: 10 64 57 57 (2079360)
I1029 11:43:58.716956 18678 net.cpp:137] Memory required for data: 605039200
I1029 11:43:58.716966 18678 layer_factory.hpp:77] Creating layer bn2b_branch2b
I1029 11:43:58.716979 18678 net.cpp:84] Creating Layer bn2b_branch2b
I1029 11:43:58.716985 18678 net.cpp:406] bn2b_branch2b <- res2b_branch2b
I1029 11:43:58.716995 18678 net.cpp:367] bn2b_branch2b -> res2b_branch2b (in-place)
I1029 11:43:58.717254 18678 net.cpp:122] Setting up bn2b_branch2b
I1029 11:43:58.717278 18678 net.cpp:129] Top shape: 10 64 57 57 (2079360)
I1029 11:43:58.717293 18678 net.cpp:137] Memory required for data: 613356640
I1029 11:43:58.717314 18678 layer_factory.hpp:77] Creating layer scale2b_branch2b
I1029 11:43:58.717334 18678 net.cpp:84] Creating Layer scale2b_branch2b
I1029 11:43:58.717347 18678 net.cpp:406] scale2b_branch2b <- res2b_branch2b
I1029 11:43:58.717365 18678 net.cpp:367] scale2b_branch2b -> res2b_branch2b (in-place)
I1029 11:43:58.717428 18678 layer_factory.hpp:77] Creating layer scale2b_branch2b
I1029 11:43:58.717592 18678 net.cpp:122] Setting up scale2b_branch2b
I1029 11:43:58.717610 18678 net.cpp:129] Top shape: 10 64 57 57 (2079360)
I1029 11:43:58.717624 18678 net.cpp:137] Memory required for data: 621674080
I1029 11:43:58.717643 18678 layer_factory.hpp:77] Creating layer res2b_branch2b_relu
I1029 11:43:58.717660 18678 net.cpp:84] Creating Layer res2b_branch2b_relu
I1029 11:43:58.717675 18678 net.cpp:406] res2b_branch2b_relu <- res2b_branch2b
I1029 11:43:58.717694 18678 net.cpp:367] res2b_branch2b_relu -> res2b_branch2b (in-place)
I1029 11:43:58.719113 18678 net.cpp:122] Setting up res2b_branch2b_relu
I1029 11:43:58.719131 18678 net.cpp:129] Top shape: 10 64 57 57 (2079360)
I1029 11:43:58.719137 18678 net.cpp:137] Memory required for data: 629991520
I1029 11:43:58.719142 18678 layer_factory.hpp:77] Creating layer res2b_branch2c
I1029 11:43:58.719168 18678 net.cpp:84] Creating Layer res2b_branch2c
I1029 11:43:58.719187 18678 net.cpp:406] res2b_branch2c <- res2b_branch2b
I1029 11:43:58.719207 18678 net.cpp:380] res2b_branch2c -> res2b_branch2c
I1029 11:43:58.720564 18678 net.cpp:122] Setting up res2b_branch2c
I1029 11:43:58.720585 18678 net.cpp:129] Top shape: 10 256 57 57 (8317440)
I1029 11:43:58.720592 18678 net.cpp:137] Memory required for data: 663261280
I1029 11:43:58.720600 18678 layer_factory.hpp:77] Creating layer bn2b_branch2c
I1029 11:43:58.720612 18678 net.cpp:84] Creating Layer bn2b_branch2c
I1029 11:43:58.720660 18678 net.cpp:406] bn2b_branch2c <- res2b_branch2c
I1029 11:43:58.720682 18678 net.cpp:367] bn2b_branch2c -> res2b_branch2c (in-place)
I1029 11:43:58.720962 18678 net.cpp:122] Setting up bn2b_branch2c
I1029 11:43:58.720984 18678 net.cpp:129] Top shape: 10 256 57 57 (8317440)
I1029 11:43:58.720999 18678 net.cpp:137] Memory required for data: 696531040
I1029 11:43:58.721020 18678 layer_factory.hpp:77] Creating layer scale2b_branch2c
I1029 11:43:58.721040 18678 net.cpp:84] Creating Layer scale2b_branch2c
I1029 11:43:58.721055 18678 net.cpp:406] scale2b_branch2c <- res2b_branch2c
I1029 11:43:58.721072 18678 net.cpp:367] scale2b_branch2c -> res2b_branch2c (in-place)
I1029 11:43:58.721138 18678 layer_factory.hpp:77] Creating layer scale2b_branch2c
I1029 11:43:58.721297 18678 net.cpp:122] Setting up scale2b_branch2c
I1029 11:43:58.721315 18678 net.cpp:129] Top shape: 10 256 57 57 (8317440)
I1029 11:43:58.721329 18678 net.cpp:137] Memory required for data: 729800800
I1029 11:43:58.721348 18678 layer_factory.hpp:77] Creating layer res2b
I1029 11:43:58.721366 18678 net.cpp:84] Creating Layer res2b
I1029 11:43:58.721381 18678 net.cpp:406] res2b <- res2a_res2a_relu_0_split_1
I1029 11:43:58.721396 18678 net.cpp:406] res2b <- res2b_branch2c
I1029 11:43:58.721415 18678 net.cpp:380] res2b -> res2b
I1029 11:43:58.721459 18678 net.cpp:122] Setting up res2b
I1029 11:43:58.721478 18678 net.cpp:129] Top shape: 10 256 57 57 (8317440)
I1029 11:43:58.721493 18678 net.cpp:137] Memory required for data: 763070560
I1029 11:43:58.721508 18678 layer_factory.hpp:77] Creating layer res2b_relu
I1029 11:43:58.721526 18678 net.cpp:84] Creating Layer res2b_relu
I1029 11:43:58.721540 18678 net.cpp:406] res2b_relu <- res2b
I1029 11:43:58.721557 18678 net.cpp:367] res2b_relu -> res2b (in-place)
I1029 11:43:58.721807 18678 net.cpp:122] Setting up res2b_relu
I1029 11:43:58.721843 18678 net.cpp:129] Top shape: 10 256 57 57 (8317440)
I1029 11:43:58.721855 18678 net.cpp:137] Memory required for data: 796340320
I1029 11:43:58.721870 18678 layer_factory.hpp:77] Creating layer res2b_res2b_relu_0_split
I1029 11:43:58.721887 18678 net.cpp:84] Creating Layer res2b_res2b_relu_0_split
I1029 11:43:58.721902 18678 net.cpp:406] res2b_res2b_relu_0_split <- res2b
I1029 11:43:58.721921 18678 net.cpp:380] res2b_res2b_relu_0_split -> res2b_res2b_relu_0_split_0
I1029 11:43:58.721941 18678 net.cpp:380] res2b_res2b_relu_0_split -> res2b_res2b_relu_0_split_1
I1029 11:43:58.721999 18678 net.cpp:122] Setting up res2b_res2b_relu_0_split
I1029 11:43:58.722018 18678 net.cpp:129] Top shape: 10 256 57 57 (8317440)
I1029 11:43:58.722034 18678 net.cpp:129] Top shape: 10 256 57 57 (8317440)
I1029 11:43:58.722048 18678 net.cpp:137] Memory required for data: 862879840
I1029 11:43:58.722064 18678 layer_factory.hpp:77] Creating layer res2c_branch2a
I1029 11:43:58.722087 18678 net.cpp:84] Creating Layer res2c_branch2a
I1029 11:43:58.722102 18678 net.cpp:406] res2c_branch2a <- res2b_res2b_relu_0_split_0
I1029 11:43:58.722121 18678 net.cpp:380] res2c_branch2a -> res2c_branch2a
I1029 11:43:58.725178 18678 net.cpp:122] Setting up res2c_branch2a
I1029 11:43:58.725203 18678 net.cpp:129] Top shape: 10 64 57 57 (2079360)
I1029 11:43:58.725208 18678 net.cpp:137] Memory required for data: 871197280
I1029 11:43:58.725219 18678 layer_factory.hpp:77] Creating layer bn2c_branch2a
I1029 11:43:58.725230 18678 net.cpp:84] Creating Layer bn2c_branch2a
I1029 11:43:58.725237 18678 net.cpp:406] bn2c_branch2a <- res2c_branch2a
I1029 11:43:58.725247 18678 net.cpp:367] bn2c_branch2a -> res2c_branch2a (in-place)
I1029 11:43:58.725514 18678 net.cpp:122] Setting up bn2c_branch2a
I1029 11:43:58.725544 18678 net.cpp:129] Top shape: 10 64 57 57 (2079360)
I1029 11:43:58.725558 18678 net.cpp:137] Memory required for data: 879514720
I1029 11:43:58.725579 18678 layer_factory.hpp:77] Creating layer scale2c_branch2a
I1029 11:43:58.725597 18678 net.cpp:84] Creating Layer scale2c_branch2a
I1029 11:43:58.725613 18678 net.cpp:406] scale2c_branch2a <- res2c_branch2a
I1029 11:43:58.725657 18678 net.cpp:367] scale2c_branch2a -> res2c_branch2a (in-place)
I1029 11:43:58.725724 18678 layer_factory.hpp:77] Creating layer scale2c_branch2a
I1029 11:43:58.725915 18678 net.cpp:122] Setting up scale2c_branch2a
I1029 11:43:58.725936 18678 net.cpp:129] Top shape: 10 64 57 57 (2079360)
I1029 11:43:58.725951 18678 net.cpp:137] Memory required for data: 887832160
I1029 11:43:58.725970 18678 layer_factory.hpp:77] Creating layer res2c_branch2a_relu
I1029 11:43:58.725988 18678 net.cpp:84] Creating Layer res2c_branch2a_relu
I1029 11:43:58.726003 18678 net.cpp:406] res2c_branch2a_relu <- res2c_branch2a
I1029 11:43:58.726020 18678 net.cpp:367] res2c_branch2a_relu -> res2c_branch2a (in-place)
I1029 11:43:58.726275 18678 net.cpp:122] Setting up res2c_branch2a_relu
I1029 11:43:58.726297 18678 net.cpp:129] Top shape: 10 64 57 57 (2079360)
I1029 11:43:58.726311 18678 net.cpp:137] Memory required for data: 896149600
I1029 11:43:58.726327 18678 layer_factory.hpp:77] Creating layer res2c_branch2b
I1029 11:43:58.726347 18678 net.cpp:84] Creating Layer res2c_branch2b
I1029 11:43:58.726364 18678 net.cpp:406] res2c_branch2b <- res2c_branch2a
I1029 11:43:58.726384 18678 net.cpp:380] res2c_branch2b -> res2c_branch2b
I1029 11:43:58.729706 18678 net.cpp:122] Setting up res2c_branch2b
I1029 11:43:58.729737 18678 net.cpp:129] Top shape: 10 64 57 57 (2079360)
I1029 11:43:58.729743 18678 net.cpp:137] Memory required for data: 904467040
I1029 11:43:58.729755 18678 layer_factory.hpp:77] Creating layer bn2c_branch2b
I1029 11:43:58.729771 18678 net.cpp:84] Creating Layer bn2c_branch2b
I1029 11:43:58.729779 18678 net.cpp:406] bn2c_branch2b <- res2c_branch2b
I1029 11:43:58.729791 18678 net.cpp:367] bn2c_branch2b -> res2c_branch2b (in-place)
I1029 11:43:58.730088 18678 net.cpp:122] Setting up bn2c_branch2b
I1029 11:43:58.730114 18678 net.cpp:129] Top shape: 10 64 57 57 (2079360)
I1029 11:43:58.730129 18678 net.cpp:137] Memory required for data: 912784480
I1029 11:43:58.730152 18678 layer_factory.hpp:77] Creating layer scale2c_branch2b
I1029 11:43:58.730175 18678 net.cpp:84] Creating Layer scale2c_branch2b
I1029 11:43:58.730190 18678 net.cpp:406] scale2c_branch2b <- res2c_branch2b
I1029 11:43:58.730208 18678 net.cpp:367] scale2c_branch2b -> res2c_branch2b (in-place)
I1029 11:43:58.730275 18678 layer_factory.hpp:77] Creating layer scale2c_branch2b
I1029 11:43:58.730443 18678 net.cpp:122] Setting up scale2c_branch2b
I1029 11:43:58.730460 18678 net.cpp:129] Top shape: 10 64 57 57 (2079360)
I1029 11:43:58.730475 18678 net.cpp:137] Memory required for data: 921101920
I1029 11:43:58.730494 18678 layer_factory.hpp:77] Creating layer res2c_branch2b_relu
I1029 11:43:58.730515 18678 net.cpp:84] Creating Layer res2c_branch2b_relu
I1029 11:43:58.730530 18678 net.cpp:406] res2c_branch2b_relu <- res2c_branch2b
I1029 11:43:58.730547 18678 net.cpp:367] res2c_branch2b_relu -> res2c_branch2b (in-place)
I1029 11:43:58.730819 18678 net.cpp:122] Setting up res2c_branch2b_relu
I1029 11:43:58.730842 18678 net.cpp:129] Top shape: 10 64 57 57 (2079360)
I1029 11:43:58.730857 18678 net.cpp:137] Memory required for data: 929419360
I1029 11:43:58.730871 18678 layer_factory.hpp:77] Creating layer res2c_branch2c
I1029 11:43:58.730892 18678 net.cpp:84] Creating Layer res2c_branch2c
I1029 11:43:58.730907 18678 net.cpp:406] res2c_branch2c <- res2c_branch2b
I1029 11:43:58.730927 18678 net.cpp:380] res2c_branch2c -> res2c_branch2c
I1029 11:43:58.734297 18678 net.cpp:122] Setting up res2c_branch2c
I1029 11:43:58.734325 18678 net.cpp:129] Top shape: 10 256 57 57 (8317440)
I1029 11:43:58.734330 18678 net.cpp:137] Memory required for data: 962689120
I1029 11:43:58.734340 18678 layer_factory.hpp:77] Creating layer bn2c_branch2c
I1029 11:43:58.734354 18678 net.cpp:84] Creating Layer bn2c_branch2c
I1029 11:43:58.734360 18678 net.cpp:406] bn2c_branch2c <- res2c_branch2c
I1029 11:43:58.734374 18678 net.cpp:367] bn2c_branch2c -> res2c_branch2c (in-place)
I1029 11:43:58.734632 18678 net.cpp:122] Setting up bn2c_branch2c
I1029 11:43:58.734669 18678 net.cpp:129] Top shape: 10 256 57 57 (8317440)
I1029 11:43:58.734697 18678 net.cpp:137] Memory required for data: 995958880
I1029 11:43:58.734740 18678 layer_factory.hpp:77] Creating layer scale2c_branch2c
I1029 11:43:58.734763 18678 net.cpp:84] Creating Layer scale2c_branch2c
I1029 11:43:58.734781 18678 net.cpp:406] scale2c_branch2c <- res2c_branch2c
I1029 11:43:58.734798 18678 net.cpp:367] scale2c_branch2c -> res2c_branch2c (in-place)
I1029 11:43:58.734870 18678 layer_factory.hpp:77] Creating layer scale2c_branch2c
I1029 11:43:58.735030 18678 net.cpp:122] Setting up scale2c_branch2c
I1029 11:43:58.735049 18678 net.cpp:129] Top shape: 10 256 57 57 (8317440)
I1029 11:43:58.735062 18678 net.cpp:137] Memory required for data: 1029228640
I1029 11:43:58.735081 18678 layer_factory.hpp:77] Creating layer res2c
I1029 11:43:58.735100 18678 net.cpp:84] Creating Layer res2c
I1029 11:43:58.735113 18678 net.cpp:406] res2c <- res2b_res2b_relu_0_split_1
I1029 11:43:58.735131 18678 net.cpp:406] res2c <- res2c_branch2c
I1029 11:43:58.735149 18678 net.cpp:380] res2c -> res2c
I1029 11:43:58.735188 18678 net.cpp:122] Setting up res2c
I1029 11:43:58.735204 18678 net.cpp:129] Top shape: 10 256 57 57 (8317440)
I1029 11:43:58.735219 18678 net.cpp:137] Memory required for data: 1062498400
I1029 11:43:58.735234 18678 layer_factory.hpp:77] Creating layer res2c_relu
I1029 11:43:58.735254 18678 net.cpp:84] Creating Layer res2c_relu
I1029 11:43:58.735268 18678 net.cpp:406] res2c_relu <- res2c
I1029 11:43:58.735285 18678 net.cpp:367] res2c_relu -> res2c (in-place)
I1029 11:43:58.736544 18678 net.cpp:122] Setting up res2c_relu
I1029 11:43:58.736559 18678 net.cpp:129] Top shape: 10 256 57 57 (8317440)
I1029 11:43:58.736564 18678 net.cpp:137] Memory required for data: 1095768160
I1029 11:43:58.736568 18678 layer_factory.hpp:77] Creating layer res2c_res2c_relu_0_split
I1029 11:43:58.736577 18678 net.cpp:84] Creating Layer res2c_res2c_relu_0_split
I1029 11:43:58.736582 18678 net.cpp:406] res2c_res2c_relu_0_split <- res2c
I1029 11:43:58.736590 18678 net.cpp:380] res2c_res2c_relu_0_split -> res2c_res2c_relu_0_split_0
I1029 11:43:58.736600 18678 net.cpp:380] res2c_res2c_relu_0_split -> res2c_res2c_relu_0_split_1
I1029 11:43:58.736649 18678 net.cpp:122] Setting up res2c_res2c_relu_0_split
I1029 11:43:58.736676 18678 net.cpp:129] Top shape: 10 256 57 57 (8317440)
I1029 11:43:58.736693 18678 net.cpp:129] Top shape: 10 256 57 57 (8317440)
I1029 11:43:58.736707 18678 net.cpp:137] Memory required for data: 1162307680
I1029 11:43:58.736722 18678 layer_factory.hpp:77] Creating layer res3a_branch1
I1029 11:43:58.736744 18678 net.cpp:84] Creating Layer res3a_branch1
I1029 11:43:58.736759 18678 net.cpp:406] res3a_branch1 <- res2c_res2c_relu_0_split_0
I1029 11:43:58.736778 18678 net.cpp:380] res3a_branch1 -> res3a_branch1
I1029 11:43:58.740679 18678 net.cpp:122] Setting up res3a_branch1
I1029 11:43:58.740726 18678 net.cpp:129] Top shape: 10 512 29 29 (4305920)
I1029 11:43:58.740732 18678 net.cpp:137] Memory required for data: 1179531360
I1029 11:43:58.740746 18678 layer_factory.hpp:77] Creating layer bn3a_branch1
I1029 11:43:58.740767 18678 net.cpp:84] Creating Layer bn3a_branch1
I1029 11:43:58.740775 18678 net.cpp:406] bn3a_branch1 <- res3a_branch1
I1029 11:43:58.740787 18678 net.cpp:367] bn3a_branch1 -> res3a_branch1 (in-place)
I1029 11:43:58.741063 18678 net.cpp:122] Setting up bn3a_branch1
I1029 11:43:58.741086 18678 net.cpp:129] Top shape: 10 512 29 29 (4305920)
I1029 11:43:58.741102 18678 net.cpp:137] Memory required for data: 1196755040
I1029 11:43:58.741124 18678 layer_factory.hpp:77] Creating layer scale3a_branch1
I1029 11:43:58.741144 18678 net.cpp:84] Creating Layer scale3a_branch1
I1029 11:43:58.741159 18678 net.cpp:406] scale3a_branch1 <- res3a_branch1
I1029 11:43:58.741178 18678 net.cpp:367] scale3a_branch1 -> res3a_branch1 (in-place)
I1029 11:43:58.741250 18678 layer_factory.hpp:77] Creating layer scale3a_branch1
I1029 11:43:58.741416 18678 net.cpp:122] Setting up scale3a_branch1
I1029 11:43:58.741436 18678 net.cpp:129] Top shape: 10 512 29 29 (4305920)
I1029 11:43:58.741461 18678 net.cpp:137] Memory required for data: 1213978720
I1029 11:43:58.741493 18678 layer_factory.hpp:77] Creating layer res3a_branch2a
I1029 11:43:58.741516 18678 net.cpp:84] Creating Layer res3a_branch2a
I1029 11:43:58.741530 18678 net.cpp:406] res3a_branch2a <- res2c_res2c_relu_0_split_1
I1029 11:43:58.741550 18678 net.cpp:380] res3a_branch2a -> res3a_branch2a
I1029 11:43:58.743927 18678 net.cpp:122] Setting up res3a_branch2a
I1029 11:43:58.743955 18678 net.cpp:129] Top shape: 10 128 29 29 (1076480)
I1029 11:43:58.743960 18678 net.cpp:137] Memory required for data: 1218284640
I1029 11:43:58.743970 18678 layer_factory.hpp:77] Creating layer bn3a_branch2a
I1029 11:43:58.743984 18678 net.cpp:84] Creating Layer bn3a_branch2a
I1029 11:43:58.743990 18678 net.cpp:406] bn3a_branch2a <- res3a_branch2a
I1029 11:43:58.743999 18678 net.cpp:367] bn3a_branch2a -> res3a_branch2a (in-place)
I1029 11:43:58.744256 18678 net.cpp:122] Setting up bn3a_branch2a
I1029 11:43:58.744278 18678 net.cpp:129] Top shape: 10 128 29 29 (1076480)
I1029 11:43:58.744293 18678 net.cpp:137] Memory required for data: 1222590560
I1029 11:43:58.744314 18678 layer_factory.hpp:77] Creating layer scale3a_branch2a
I1029 11:43:58.744334 18678 net.cpp:84] Creating Layer scale3a_branch2a
I1029 11:43:58.744349 18678 net.cpp:406] scale3a_branch2a <- res3a_branch2a
I1029 11:43:58.744365 18678 net.cpp:367] scale3a_branch2a -> res3a_branch2a (in-place)
I1029 11:43:58.744432 18678 layer_factory.hpp:77] Creating layer scale3a_branch2a
I1029 11:43:58.744588 18678 net.cpp:122] Setting up scale3a_branch2a
I1029 11:43:58.744606 18678 net.cpp:129] Top shape: 10 128 29 29 (1076480)
I1029 11:43:58.744621 18678 net.cpp:137] Memory required for data: 1226896480
I1029 11:43:58.744639 18678 layer_factory.hpp:77] Creating layer res3a_branch2a_relu
I1029 11:43:58.744658 18678 net.cpp:84] Creating Layer res3a_branch2a_relu
I1029 11:43:58.744673 18678 net.cpp:406] res3a_branch2a_relu <- res3a_branch2a
I1029 11:43:58.744691 18678 net.cpp:367] res3a_branch2a_relu -> res3a_branch2a (in-place)
I1029 11:43:58.745448 18678 net.cpp:122] Setting up res3a_branch2a_relu
I1029 11:43:58.745468 18678 net.cpp:129] Top shape: 10 128 29 29 (1076480)
I1029 11:43:58.745473 18678 net.cpp:137] Memory required for data: 1231202400
I1029 11:43:58.745478 18678 layer_factory.hpp:77] Creating layer res3a_branch2b
I1029 11:43:58.745492 18678 net.cpp:84] Creating Layer res3a_branch2b
I1029 11:43:58.745498 18678 net.cpp:406] res3a_branch2b <- res3a_branch2a
I1029 11:43:58.745507 18678 net.cpp:380] res3a_branch2b -> res3a_branch2b
I1029 11:43:58.747480 18678 net.cpp:122] Setting up res3a_branch2b
I1029 11:43:58.747514 18678 net.cpp:129] Top shape: 10 128 29 29 (1076480)
I1029 11:43:58.747519 18678 net.cpp:137] Memory required for data: 1235508320
I1029 11:43:58.747531 18678 layer_factory.hpp:77] Creating layer bn3a_branch2b
I1029 11:43:58.747548 18678 net.cpp:84] Creating Layer bn3a_branch2b
I1029 11:43:58.747555 18678 net.cpp:406] bn3a_branch2b <- res3a_branch2b
I1029 11:43:58.747565 18678 net.cpp:367] bn3a_branch2b -> res3a_branch2b (in-place)
I1029 11:43:58.747833 18678 net.cpp:122] Setting up bn3a_branch2b
I1029 11:43:58.747865 18678 net.cpp:129] Top shape: 10 128 29 29 (1076480)
I1029 11:43:58.747881 18678 net.cpp:137] Memory required for data: 1239814240
I1029 11:43:58.747902 18678 layer_factory.hpp:77] Creating layer scale3a_branch2b
I1029 11:43:58.747922 18678 net.cpp:84] Creating Layer scale3a_branch2b
I1029 11:43:58.747937 18678 net.cpp:406] scale3a_branch2b <- res3a_branch2b
I1029 11:43:58.747953 18678 net.cpp:367] scale3a_branch2b -> res3a_branch2b (in-place)
I1029 11:43:58.748023 18678 layer_factory.hpp:77] Creating layer scale3a_branch2b
I1029 11:43:58.748183 18678 net.cpp:122] Setting up scale3a_branch2b
I1029 11:43:58.748203 18678 net.cpp:129] Top shape: 10 128 29 29 (1076480)
I1029 11:43:58.748217 18678 net.cpp:137] Memory required for data: 1244120160
I1029 11:43:58.748236 18678 layer_factory.hpp:77] Creating layer res3a_branch2b_relu
I1029 11:43:58.748255 18678 net.cpp:84] Creating Layer res3a_branch2b_relu
I1029 11:43:58.748292 18678 net.cpp:406] res3a_branch2b_relu <- res3a_branch2b
I1029 11:43:58.748312 18678 net.cpp:367] res3a_branch2b_relu -> res3a_branch2b (in-place)
I1029 11:43:58.749069 18678 net.cpp:122] Setting up res3a_branch2b_relu
I1029 11:43:58.749089 18678 net.cpp:129] Top shape: 10 128 29 29 (1076480)
I1029 11:43:58.749094 18678 net.cpp:137] Memory required for data: 1248426080
I1029 11:43:58.749099 18678 layer_factory.hpp:77] Creating layer res3a_branch2c
I1029 11:43:58.749114 18678 net.cpp:84] Creating Layer res3a_branch2c
I1029 11:43:58.749119 18678 net.cpp:406] res3a_branch2c <- res3a_branch2b
I1029 11:43:58.749127 18678 net.cpp:380] res3a_branch2c -> res3a_branch2c
I1029 11:43:58.750597 18678 net.cpp:122] Setting up res3a_branch2c
I1029 11:43:58.750620 18678 net.cpp:129] Top shape: 10 512 29 29 (4305920)
I1029 11:43:58.750625 18678 net.cpp:137] Memory required for data: 1265649760
I1029 11:43:58.750635 18678 layer_factory.hpp:77] Creating layer bn3a_branch2c
I1029 11:43:58.750669 18678 net.cpp:84] Creating Layer bn3a_branch2c
I1029 11:43:58.750689 18678 net.cpp:406] bn3a_branch2c <- res3a_branch2c
I1029 11:43:58.750710 18678 net.cpp:367] bn3a_branch2c -> res3a_branch2c (in-place)
I1029 11:43:58.750990 18678 net.cpp:122] Setting up bn3a_branch2c
I1029 11:43:58.751011 18678 net.cpp:129] Top shape: 10 512 29 29 (4305920)
I1029 11:43:58.751025 18678 net.cpp:137] Memory required for data: 1282873440
I1029 11:43:58.751047 18678 layer_factory.hpp:77] Creating layer scale3a_branch2c
I1029 11:43:58.751070 18678 net.cpp:84] Creating Layer scale3a_branch2c
I1029 11:43:58.751085 18678 net.cpp:406] scale3a_branch2c <- res3a_branch2c
I1029 11:43:58.751101 18678 net.cpp:367] scale3a_branch2c -> res3a_branch2c (in-place)
I1029 11:43:58.751168 18678 layer_factory.hpp:77] Creating layer scale3a_branch2c
I1029 11:43:58.751330 18678 net.cpp:122] Setting up scale3a_branch2c
I1029 11:43:58.751348 18678 net.cpp:129] Top shape: 10 512 29 29 (4305920)
I1029 11:43:58.751363 18678 net.cpp:137] Memory required for data: 1300097120
I1029 11:43:58.751381 18678 layer_factory.hpp:77] Creating layer res3a
I1029 11:43:58.751399 18678 net.cpp:84] Creating Layer res3a
I1029 11:43:58.751415 18678 net.cpp:406] res3a <- res3a_branch1
I1029 11:43:58.751430 18678 net.cpp:406] res3a <- res3a_branch2c
I1029 11:43:58.751449 18678 net.cpp:380] res3a -> res3a
I1029 11:43:58.751490 18678 net.cpp:122] Setting up res3a
I1029 11:43:58.751507 18678 net.cpp:129] Top shape: 10 512 29 29 (4305920)
I1029 11:43:58.751521 18678 net.cpp:137] Memory required for data: 1317320800
I1029 11:43:58.751536 18678 layer_factory.hpp:77] Creating layer res3a_relu
I1029 11:43:58.751554 18678 net.cpp:84] Creating Layer res3a_relu
I1029 11:43:58.751569 18678 net.cpp:406] res3a_relu <- res3a
I1029 11:43:58.751585 18678 net.cpp:367] res3a_relu -> res3a (in-place)
I1029 11:43:58.752445 18678 net.cpp:122] Setting up res3a_relu
I1029 11:43:58.752478 18678 net.cpp:129] Top shape: 10 512 29 29 (4305920)
I1029 11:43:58.752483 18678 net.cpp:137] Memory required for data: 1334544480
I1029 11:43:58.752490 18678 layer_factory.hpp:77] Creating layer res3a_res3a_relu_0_split
I1029 11:43:58.752501 18678 net.cpp:84] Creating Layer res3a_res3a_relu_0_split
I1029 11:43:58.752508 18678 net.cpp:406] res3a_res3a_relu_0_split <- res3a
I1029 11:43:58.752523 18678 net.cpp:380] res3a_res3a_relu_0_split -> res3a_res3a_relu_0_split_0
I1029 11:43:58.752534 18678 net.cpp:380] res3a_res3a_relu_0_split -> res3a_res3a_relu_0_split_1
I1029 11:43:58.752598 18678 net.cpp:122] Setting up res3a_res3a_relu_0_split
I1029 11:43:58.752620 18678 net.cpp:129] Top shape: 10 512 29 29 (4305920)
I1029 11:43:58.752637 18678 net.cpp:129] Top shape: 10 512 29 29 (4305920)
I1029 11:43:58.752651 18678 net.cpp:137] Memory required for data: 1368991840
I1029 11:43:58.752666 18678 layer_factory.hpp:77] Creating layer res3b_branch2a
I1029 11:43:58.752691 18678 net.cpp:84] Creating Layer res3b_branch2a
I1029 11:43:58.752708 18678 net.cpp:406] res3b_branch2a <- res3a_res3a_relu_0_split_0
I1029 11:43:58.752738 18678 net.cpp:380] res3b_branch2a -> res3b_branch2a
I1029 11:43:58.754405 18678 net.cpp:122] Setting up res3b_branch2a
I1029 11:43:58.754436 18678 net.cpp:129] Top shape: 10 128 29 29 (1076480)
I1029 11:43:58.754441 18678 net.cpp:137] Memory required for data: 1373297760
I1029 11:43:58.754452 18678 layer_factory.hpp:77] Creating layer bn3b_branch2a
I1029 11:43:58.754467 18678 net.cpp:84] Creating Layer bn3b_branch2a
I1029 11:43:58.754474 18678 net.cpp:406] bn3b_branch2a <- res3b_branch2a
I1029 11:43:58.754487 18678 net.cpp:367] bn3b_branch2a -> res3b_branch2a (in-place)
I1029 11:43:58.754751 18678 net.cpp:122] Setting up bn3b_branch2a
I1029 11:43:58.754773 18678 net.cpp:129] Top shape: 10 128 29 29 (1076480)
I1029 11:43:58.754789 18678 net.cpp:137] Memory required for data: 1377603680
I1029 11:43:58.754811 18678 layer_factory.hpp:77] Creating layer scale3b_branch2a
I1029 11:43:58.754832 18678 net.cpp:84] Creating Layer scale3b_branch2a
I1029 11:43:58.754847 18678 net.cpp:406] scale3b_branch2a <- res3b_branch2a
I1029 11:43:58.754863 18678 net.cpp:367] scale3b_branch2a -> res3b_branch2a (in-place)
I1029 11:43:58.754930 18678 layer_factory.hpp:77] Creating layer scale3b_branch2a
I1029 11:43:58.755091 18678 net.cpp:122] Setting up scale3b_branch2a
I1029 11:43:58.755110 18678 net.cpp:129] Top shape: 10 128 29 29 (1076480)
I1029 11:43:58.755122 18678 net.cpp:137] Memory required for data: 1381909600
I1029 11:43:58.755141 18678 layer_factory.hpp:77] Creating layer res3b_branch2a_relu
I1029 11:43:58.755158 18678 net.cpp:84] Creating Layer res3b_branch2a_relu
I1029 11:43:58.755173 18678 net.cpp:406] res3b_branch2a_relu <- res3b_branch2a
I1029 11:43:58.755192 18678 net.cpp:367] res3b_branch2a_relu -> res3b_branch2a (in-place)
I1029 11:43:58.755456 18678 net.cpp:122] Setting up res3b_branch2a_relu
I1029 11:43:58.755476 18678 net.cpp:129] Top shape: 10 128 29 29 (1076480)
I1029 11:43:58.755491 18678 net.cpp:137] Memory required for data: 1386215520
I1029 11:43:58.755506 18678 layer_factory.hpp:77] Creating layer res3b_branch2b
I1029 11:43:58.755528 18678 net.cpp:84] Creating Layer res3b_branch2b
I1029 11:43:58.755543 18678 net.cpp:406] res3b_branch2b <- res3b_branch2a
I1029 11:43:58.755565 18678 net.cpp:380] res3b_branch2b -> res3b_branch2b
I1029 11:43:58.757560 18678 net.cpp:122] Setting up res3b_branch2b
I1029 11:43:58.757593 18678 net.cpp:129] Top shape: 10 128 29 29 (1076480)
I1029 11:43:58.757598 18678 net.cpp:137] Memory required for data: 1390521440
I1029 11:43:58.757611 18678 layer_factory.hpp:77] Creating layer bn3b_branch2b
I1029 11:43:58.757627 18678 net.cpp:84] Creating Layer bn3b_branch2b
I1029 11:43:58.757633 18678 net.cpp:406] bn3b_branch2b <- res3b_branch2b
I1029 11:43:58.757644 18678 net.cpp:367] bn3b_branch2b -> res3b_branch2b (in-place)
I1029 11:43:58.757935 18678 net.cpp:122] Setting up bn3b_branch2b
I1029 11:43:58.757968 18678 net.cpp:129] Top shape: 10 128 29 29 (1076480)
I1029 11:43:58.757983 18678 net.cpp:137] Memory required for data: 1394827360
I1029 11:43:58.758005 18678 layer_factory.hpp:77] Creating layer scale3b_branch2b
I1029 11:43:58.758026 18678 net.cpp:84] Creating Layer scale3b_branch2b
I1029 11:43:58.758041 18678 net.cpp:406] scale3b_branch2b <- res3b_branch2b
I1029 11:43:58.758059 18678 net.cpp:367] scale3b_branch2b -> res3b_branch2b (in-place)
I1029 11:43:58.758128 18678 layer_factory.hpp:77] Creating layer scale3b_branch2b
I1029 11:43:58.758292 18678 net.cpp:122] Setting up scale3b_branch2b
I1029 11:43:58.758311 18678 net.cpp:129] Top shape: 10 128 29 29 (1076480)
I1029 11:43:58.758327 18678 net.cpp:137] Memory required for data: 1399133280
I1029 11:43:58.758345 18678 layer_factory.hpp:77] Creating layer res3b_branch2b_relu
I1029 11:43:58.758366 18678 net.cpp:84] Creating Layer res3b_branch2b_relu
I1029 11:43:58.758380 18678 net.cpp:406] res3b_branch2b_relu <- res3b_branch2b
I1029 11:43:58.758397 18678 net.cpp:367] res3b_branch2b_relu -> res3b_branch2b (in-place)
I1029 11:43:58.758683 18678 net.cpp:122] Setting up res3b_branch2b_relu
I1029 11:43:58.758705 18678 net.cpp:129] Top shape: 10 128 29 29 (1076480)
I1029 11:43:58.758744 18678 net.cpp:137] Memory required for data: 1403439200
I1029 11:43:58.758759 18678 layer_factory.hpp:77] Creating layer res3b_branch2c
I1029 11:43:58.758782 18678 net.cpp:84] Creating Layer res3b_branch2c
I1029 11:43:58.758797 18678 net.cpp:406] res3b_branch2c <- res3b_branch2b
I1029 11:43:58.758821 18678 net.cpp:380] res3b_branch2c -> res3b_branch2c
I1029 11:43:58.763500 18678 net.cpp:122] Setting up res3b_branch2c
I1029 11:43:58.763581 18678 net.cpp:129] Top shape: 10 512 29 29 (4305920)
I1029 11:43:58.763599 18678 net.cpp:137] Memory required for data: 1420662880
I1029 11:43:58.763623 18678 layer_factory.hpp:77] Creating layer bn3b_branch2c
I1029 11:43:58.763651 18678 net.cpp:84] Creating Layer bn3b_branch2c
I1029 11:43:58.763669 18678 net.cpp:406] bn3b_branch2c <- res3b_branch2c
I1029 11:43:58.763692 18678 net.cpp:367] bn3b_branch2c -> res3b_branch2c (in-place)
I1029 11:43:58.763988 18678 net.cpp:122] Setting up bn3b_branch2c
I1029 11:43:58.764005 18678 net.cpp:129] Top shape: 10 512 29 29 (4305920)
I1029 11:43:58.764020 18678 net.cpp:137] Memory required for data: 1437886560
I1029 11:43:58.764040 18678 layer_factory.hpp:77] Creating layer scale3b_branch2c
I1029 11:43:58.764060 18678 net.cpp:84] Creating Layer scale3b_branch2c
I1029 11:43:58.764075 18678 net.cpp:406] scale3b_branch2c <- res3b_branch2c
I1029 11:43:58.764091 18678 net.cpp:367] scale3b_branch2c -> res3b_branch2c (in-place)
I1029 11:43:58.764161 18678 layer_factory.hpp:77] Creating layer scale3b_branch2c
I1029 11:43:58.764322 18678 net.cpp:122] Setting up scale3b_branch2c
I1029 11:43:58.764338 18678 net.cpp:129] Top shape: 10 512 29 29 (4305920)
I1029 11:43:58.764353 18678 net.cpp:137] Memory required for data: 1455110240
I1029 11:43:58.764370 18678 layer_factory.hpp:77] Creating layer res3b
I1029 11:43:58.764387 18678 net.cpp:84] Creating Layer res3b
I1029 11:43:58.764402 18678 net.cpp:406] res3b <- res3a_res3a_relu_0_split_1
I1029 11:43:58.764417 18678 net.cpp:406] res3b <- res3b_branch2c
I1029 11:43:58.764436 18678 net.cpp:380] res3b -> res3b
I1029 11:43:58.764477 18678 net.cpp:122] Setting up res3b
I1029 11:43:58.764492 18678 net.cpp:129] Top shape: 10 512 29 29 (4305920)
I1029 11:43:58.764506 18678 net.cpp:137] Memory required for data: 1472333920
I1029 11:43:58.764520 18678 layer_factory.hpp:77] Creating layer res3b_relu
I1029 11:43:58.764539 18678 net.cpp:84] Creating Layer res3b_relu
I1029 11:43:58.764554 18678 net.cpp:406] res3b_relu <- res3b
I1029 11:43:58.764569 18678 net.cpp:367] res3b_relu -> res3b (in-place)
I1029 11:43:58.765560 18678 net.cpp:122] Setting up res3b_relu
I1029 11:43:58.765602 18678 net.cpp:129] Top shape: 10 512 29 29 (4305920)
I1029 11:43:58.765619 18678 net.cpp:137] Memory required for data: 1489557600
I1029 11:43:58.765636 18678 layer_factory.hpp:77] Creating layer res3b_res3b_relu_0_split
I1029 11:43:58.765660 18678 net.cpp:84] Creating Layer res3b_res3b_relu_0_split
I1029 11:43:58.765676 18678 net.cpp:406] res3b_res3b_relu_0_split <- res3b
I1029 11:43:58.765697 18678 net.cpp:380] res3b_res3b_relu_0_split -> res3b_res3b_relu_0_split_0
I1029 11:43:58.765718 18678 net.cpp:380] res3b_res3b_relu_0_split -> res3b_res3b_relu_0_split_1
I1029 11:43:58.765794 18678 net.cpp:122] Setting up res3b_res3b_relu_0_split
I1029 11:43:58.765815 18678 net.cpp:129] Top shape: 10 512 29 29 (4305920)
I1029 11:43:58.765852 18678 net.cpp:129] Top shape: 10 512 29 29 (4305920)
I1029 11:43:58.765869 18678 net.cpp:137] Memory required for data: 1524004960
I1029 11:43:58.765885 18678 layer_factory.hpp:77] Creating layer res3c_branch2a
I1029 11:43:58.765916 18678 net.cpp:84] Creating Layer res3c_branch2a
I1029 11:43:58.765933 18678 net.cpp:406] res3c_branch2a <- res3b_res3b_relu_0_split_0
I1029 11:43:58.765954 18678 net.cpp:380] res3c_branch2a -> res3c_branch2a
I1029 11:43:58.773666 18678 net.cpp:122] Setting up res3c_branch2a
I1029 11:43:58.773746 18678 net.cpp:129] Top shape: 10 128 29 29 (1076480)
I1029 11:43:58.773756 18678 net.cpp:137] Memory required for data: 1528310880
I1029 11:43:58.773772 18678 layer_factory.hpp:77] Creating layer bn3c_branch2a
I1029 11:43:58.773831 18678 net.cpp:84] Creating Layer bn3c_branch2a
I1029 11:43:58.773840 18678 net.cpp:406] bn3c_branch2a <- res3c_branch2a
I1029 11:43:58.773854 18678 net.cpp:367] bn3c_branch2a -> res3c_branch2a (in-place)
I1029 11:43:58.774127 18678 net.cpp:122] Setting up bn3c_branch2a
I1029 11:43:58.774135 18678 net.cpp:129] Top shape: 10 128 29 29 (1076480)
I1029 11:43:58.774140 18678 net.cpp:137] Memory required for data: 1532616800
I1029 11:43:58.774152 18678 layer_factory.hpp:77] Creating layer scale3c_branch2a
I1029 11:43:58.774163 18678 net.cpp:84] Creating Layer scale3c_branch2a
I1029 11:43:58.774168 18678 net.cpp:406] scale3c_branch2a <- res3c_branch2a
I1029 11:43:58.774176 18678 net.cpp:367] scale3c_branch2a -> res3c_branch2a (in-place)
I1029 11:43:58.774233 18678 layer_factory.hpp:77] Creating layer scale3c_branch2a
I1029 11:43:58.774375 18678 net.cpp:122] Setting up scale3c_branch2a
I1029 11:43:58.774385 18678 net.cpp:129] Top shape: 10 128 29 29 (1076480)
I1029 11:43:58.774390 18678 net.cpp:137] Memory required for data: 1536922720
I1029 11:43:58.774399 18678 layer_factory.hpp:77] Creating layer res3c_branch2a_relu
I1029 11:43:58.774406 18678 net.cpp:84] Creating Layer res3c_branch2a_relu
I1029 11:43:58.774411 18678 net.cpp:406] res3c_branch2a_relu <- res3c_branch2a
I1029 11:43:58.774417 18678 net.cpp:367] res3c_branch2a_relu -> res3c_branch2a (in-place)
I1029 11:43:58.775943 18678 net.cpp:122] Setting up res3c_branch2a_relu
I1029 11:43:58.775952 18678 net.cpp:129] Top shape: 10 128 29 29 (1076480)
I1029 11:43:58.775957 18678 net.cpp:137] Memory required for data: 1541228640
I1029 11:43:58.775962 18678 layer_factory.hpp:77] Creating layer res3c_branch2b
I1029 11:43:58.775975 18678 net.cpp:84] Creating Layer res3c_branch2b
I1029 11:43:58.775980 18678 net.cpp:406] res3c_branch2b <- res3c_branch2a
I1029 11:43:58.775990 18678 net.cpp:380] res3c_branch2b -> res3c_branch2b
I1029 11:43:58.783110 18678 net.cpp:122] Setting up res3c_branch2b
I1029 11:43:58.783154 18678 net.cpp:129] Top shape: 10 128 29 29 (1076480)
I1029 11:43:58.783159 18678 net.cpp:137] Memory required for data: 1545534560
I1029 11:43:58.783174 18678 layer_factory.hpp:77] Creating layer bn3c_branch2b
I1029 11:43:58.783200 18678 net.cpp:84] Creating Layer bn3c_branch2b
I1029 11:43:58.783210 18678 net.cpp:406] bn3c_branch2b <- res3c_branch2b
I1029 11:43:58.783221 18678 net.cpp:367] bn3c_branch2b -> res3c_branch2b (in-place)
I1029 11:43:58.783505 18678 net.cpp:122] Setting up bn3c_branch2b
I1029 11:43:58.783516 18678 net.cpp:129] Top shape: 10 128 29 29 (1076480)
I1029 11:43:58.783520 18678 net.cpp:137] Memory required for data: 1549840480
I1029 11:43:58.783532 18678 layer_factory.hpp:77] Creating layer scale3c_branch2b
I1029 11:43:58.783543 18678 net.cpp:84] Creating Layer scale3c_branch2b
I1029 11:43:58.783548 18678 net.cpp:406] scale3c_branch2b <- res3c_branch2b
I1029 11:43:58.783558 18678 net.cpp:367] scale3c_branch2b -> res3c_branch2b (in-place)
I1029 11:43:58.783612 18678 layer_factory.hpp:77] Creating layer scale3c_branch2b
I1029 11:43:58.783761 18678 net.cpp:122] Setting up scale3c_branch2b
I1029 11:43:58.783771 18678 net.cpp:129] Top shape: 10 128 29 29 (1076480)
I1029 11:43:58.783776 18678 net.cpp:137] Memory required for data: 1554146400
I1029 11:43:58.783783 18678 layer_factory.hpp:77] Creating layer res3c_branch2b_relu
I1029 11:43:58.783792 18678 net.cpp:84] Creating Layer res3c_branch2b_relu
I1029 11:43:58.783797 18678 net.cpp:406] res3c_branch2b_relu <- res3c_branch2b
I1029 11:43:58.783802 18678 net.cpp:367] res3c_branch2b_relu -> res3c_branch2b (in-place)
I1029 11:43:58.784848 18678 net.cpp:122] Setting up res3c_branch2b_relu
I1029 11:43:58.784862 18678 net.cpp:129] Top shape: 10 128 29 29 (1076480)
I1029 11:43:58.784868 18678 net.cpp:137] Memory required for data: 1558452320
I1029 11:43:58.784873 18678 layer_factory.hpp:77] Creating layer res3c_branch2c
I1029 11:43:58.784885 18678 net.cpp:84] Creating Layer res3c_branch2c
I1029 11:43:58.784890 18678 net.cpp:406] res3c_branch2c <- res3c_branch2b
I1029 11:43:58.784901 18678 net.cpp:380] res3c_branch2c -> res3c_branch2c
I1029 11:43:58.791539 18678 net.cpp:122] Setting up res3c_branch2c
I1029 11:43:58.791558 18678 net.cpp:129] Top shape: 10 512 29 29 (4305920)
I1029 11:43:58.791563 18678 net.cpp:137] Memory required for data: 1575676000
I1029 11:43:58.791574 18678 layer_factory.hpp:77] Creating layer bn3c_branch2c
I1029 11:43:58.791584 18678 net.cpp:84] Creating Layer bn3c_branch2c
I1029 11:43:58.791589 18678 net.cpp:406] bn3c_branch2c <- res3c_branch2c
I1029 11:43:58.791599 18678 net.cpp:367] bn3c_branch2c -> res3c_branch2c (in-place)
I1029 11:43:58.791859 18678 net.cpp:122] Setting up bn3c_branch2c
I1029 11:43:58.791868 18678 net.cpp:129] Top shape: 10 512 29 29 (4305920)
I1029 11:43:58.791873 18678 net.cpp:137] Memory required for data: 1592899680
I1029 11:43:58.791883 18678 layer_factory.hpp:77] Creating layer scale3c_branch2c
I1029 11:43:58.791893 18678 net.cpp:84] Creating Layer scale3c_branch2c
I1029 11:43:58.791898 18678 net.cpp:406] scale3c_branch2c <- res3c_branch2c
I1029 11:43:58.791908 18678 net.cpp:367] scale3c_branch2c -> res3c_branch2c (in-place)
I1029 11:43:58.791960 18678 layer_factory.hpp:77] Creating layer scale3c_branch2c
I1029 11:43:58.792102 18678 net.cpp:122] Setting up scale3c_branch2c
I1029 11:43:58.792114 18678 net.cpp:129] Top shape: 10 512 29 29 (4305920)
I1029 11:43:58.792117 18678 net.cpp:137] Memory required for data: 1610123360
I1029 11:43:58.792126 18678 layer_factory.hpp:77] Creating layer res3c
I1029 11:43:58.792135 18678 net.cpp:84] Creating Layer res3c
I1029 11:43:58.792140 18678 net.cpp:406] res3c <- res3b_res3b_relu_0_split_1
I1029 11:43:58.792145 18678 net.cpp:406] res3c <- res3c_branch2c
I1029 11:43:58.792153 18678 net.cpp:380] res3c -> res3c
I1029 11:43:58.792183 18678 net.cpp:122] Setting up res3c
I1029 11:43:58.792212 18678 net.cpp:129] Top shape: 10 512 29 29 (4305920)
I1029 11:43:58.792228 18678 net.cpp:137] Memory required for data: 1627347040
I1029 11:43:58.792234 18678 layer_factory.hpp:77] Creating layer res3c_relu
I1029 11:43:58.792243 18678 net.cpp:84] Creating Layer res3c_relu
I1029 11:43:58.792248 18678 net.cpp:406] res3c_relu <- res3c
I1029 11:43:58.792256 18678 net.cpp:367] res3c_relu -> res3c (in-place)
I1029 11:43:58.793663 18678 net.cpp:122] Setting up res3c_relu
I1029 11:43:58.793676 18678 net.cpp:129] Top shape: 10 512 29 29 (4305920)
I1029 11:43:58.793681 18678 net.cpp:137] Memory required for data: 1644570720
I1029 11:43:58.793687 18678 layer_factory.hpp:77] Creating layer res3c_res3c_relu_0_split
I1029 11:43:58.793699 18678 net.cpp:84] Creating Layer res3c_res3c_relu_0_split
I1029 11:43:58.793704 18678 net.cpp:406] res3c_res3c_relu_0_split <- res3c
I1029 11:43:58.793712 18678 net.cpp:380] res3c_res3c_relu_0_split -> res3c_res3c_relu_0_split_0
I1029 11:43:58.793722 18678 net.cpp:380] res3c_res3c_relu_0_split -> res3c_res3c_relu_0_split_1
I1029 11:43:58.793778 18678 net.cpp:122] Setting up res3c_res3c_relu_0_split
I1029 11:43:58.793787 18678 net.cpp:129] Top shape: 10 512 29 29 (4305920)
I1029 11:43:58.793794 18678 net.cpp:129] Top shape: 10 512 29 29 (4305920)
I1029 11:43:58.793799 18678 net.cpp:137] Memory required for data: 1679018080
I1029 11:43:58.793803 18678 layer_factory.hpp:77] Creating layer res3d_branch2a
I1029 11:43:58.793826 18678 net.cpp:84] Creating Layer res3d_branch2a
I1029 11:43:58.793833 18678 net.cpp:406] res3d_branch2a <- res3c_res3c_relu_0_split_0
I1029 11:43:58.793843 18678 net.cpp:380] res3d_branch2a -> res3d_branch2a
I1029 11:43:58.800489 18678 net.cpp:122] Setting up res3d_branch2a
I1029 11:43:58.800597 18678 net.cpp:129] Top shape: 10 128 29 29 (1076480)
I1029 11:43:58.800618 18678 net.cpp:137] Memory required for data: 1683324000
I1029 11:43:58.800657 18678 layer_factory.hpp:77] Creating layer bn3d_branch2a
I1029 11:43:58.800689 18678 net.cpp:84] Creating Layer bn3d_branch2a
I1029 11:43:58.800707 18678 net.cpp:406] bn3d_branch2a <- res3d_branch2a
I1029 11:43:58.800729 18678 net.cpp:367] bn3d_branch2a -> res3d_branch2a (in-place)
I1029 11:43:58.801055 18678 net.cpp:122] Setting up bn3d_branch2a
I1029 11:43:58.801090 18678 net.cpp:129] Top shape: 10 128 29 29 (1076480)
I1029 11:43:58.801106 18678 net.cpp:137] Memory required for data: 1687629920
I1029 11:43:58.801198 18678 layer_factory.hpp:77] Creating layer scale3d_branch2a
I1029 11:43:58.801221 18678 net.cpp:84] Creating Layer scale3d_branch2a
I1029 11:43:58.801237 18678 net.cpp:406] scale3d_branch2a <- res3d_branch2a
I1029 11:43:58.801255 18678 net.cpp:367] scale3d_branch2a -> res3d_branch2a (in-place)
I1029 11:43:58.801334 18678 layer_factory.hpp:77] Creating layer scale3d_branch2a
I1029 11:43:58.801514 18678 net.cpp:122] Setting up scale3d_branch2a
I1029 11:43:58.801542 18678 net.cpp:129] Top shape: 10 128 29 29 (1076480)
I1029 11:43:58.801559 18678 net.cpp:137] Memory required for data: 1691935840
I1029 11:43:58.801584 18678 layer_factory.hpp:77] Creating layer res3d_branch2a_relu
I1029 11:43:58.801604 18678 net.cpp:84] Creating Layer res3d_branch2a_relu
I1029 11:43:58.801618 18678 net.cpp:406] res3d_branch2a_relu <- res3d_branch2a
I1029 11:43:58.801636 18678 net.cpp:367] res3d_branch2a_relu -> res3d_branch2a (in-place)
I1029 11:43:58.802531 18678 net.cpp:122] Setting up res3d_branch2a_relu
I1029 11:43:58.802604 18678 net.cpp:129] Top shape: 10 128 29 29 (1076480)
I1029 11:43:58.802620 18678 net.cpp:137] Memory required for data: 1696241760
I1029 11:43:58.802637 18678 layer_factory.hpp:77] Creating layer res3d_branch2b
I1029 11:43:58.802667 18678 net.cpp:84] Creating Layer res3d_branch2b
I1029 11:43:58.802685 18678 net.cpp:406] res3d_branch2b <- res3d_branch2a
I1029 11:43:58.802708 18678 net.cpp:380] res3d_branch2b -> res3d_branch2b
I1029 11:43:58.810771 18678 net.cpp:122] Setting up res3d_branch2b
I1029 11:43:58.810811 18678 net.cpp:129] Top shape: 10 128 29 29 (1076480)
I1029 11:43:58.810817 18678 net.cpp:137] Memory required for data: 1700547680
I1029 11:43:58.810832 18678 layer_factory.hpp:77] Creating layer bn3d_branch2b
I1029 11:43:58.810853 18678 net.cpp:84] Creating Layer bn3d_branch2b
I1029 11:43:58.810860 18678 net.cpp:406] bn3d_branch2b <- res3d_branch2b
I1029 11:43:58.810873 18678 net.cpp:367] bn3d_branch2b -> res3d_branch2b (in-place)
I1029 11:43:58.811157 18678 net.cpp:122] Setting up bn3d_branch2b
I1029 11:43:58.811167 18678 net.cpp:129] Top shape: 10 128 29 29 (1076480)
I1029 11:43:58.811172 18678 net.cpp:137] Memory required for data: 1704853600
I1029 11:43:58.811183 18678 layer_factory.hpp:77] Creating layer scale3d_branch2b
I1029 11:43:58.811195 18678 net.cpp:84] Creating Layer scale3d_branch2b
I1029 11:43:58.811200 18678 net.cpp:406] scale3d_branch2b <- res3d_branch2b
I1029 11:43:58.811206 18678 net.cpp:367] scale3d_branch2b -> res3d_branch2b (in-place)
I1029 11:43:58.811264 18678 layer_factory.hpp:77] Creating layer scale3d_branch2b
I1029 11:43:58.811411 18678 net.cpp:122] Setting up scale3d_branch2b
I1029 11:43:58.811420 18678 net.cpp:129] Top shape: 10 128 29 29 (1076480)
I1029 11:43:58.811425 18678 net.cpp:137] Memory required for data: 1709159520
I1029 11:43:58.811434 18678 layer_factory.hpp:77] Creating layer res3d_branch2b_relu
I1029 11:43:58.811441 18678 net.cpp:84] Creating Layer res3d_branch2b_relu
I1029 11:43:58.811446 18678 net.cpp:406] res3d_branch2b_relu <- res3d_branch2b
I1029 11:43:58.811455 18678 net.cpp:367] res3d_branch2b_relu -> res3d_branch2b (in-place)
I1029 11:43:58.812798 18678 net.cpp:122] Setting up res3d_branch2b_relu
I1029 11:43:58.812808 18678 net.cpp:129] Top shape: 10 128 29 29 (1076480)
I1029 11:43:58.812813 18678 net.cpp:137] Memory required for data: 1713465440
I1029 11:43:58.812819 18678 layer_factory.hpp:77] Creating layer res3d_branch2c
I1029 11:43:58.812830 18678 net.cpp:84] Creating Layer res3d_branch2c
I1029 11:43:58.812836 18678 net.cpp:406] res3d_branch2c <- res3d_branch2b
I1029 11:43:58.812844 18678 net.cpp:380] res3d_branch2c -> res3d_branch2c
I1029 11:43:58.819599 18678 net.cpp:122] Setting up res3d_branch2c
I1029 11:43:58.819624 18678 net.cpp:129] Top shape: 10 512 29 29 (4305920)
I1029 11:43:58.819630 18678 net.cpp:137] Memory required for data: 1730689120
I1029 11:43:58.819641 18678 layer_factory.hpp:77] Creating layer bn3d_branch2c
I1029 11:43:58.819681 18678 net.cpp:84] Creating Layer bn3d_branch2c
I1029 11:43:58.819689 18678 net.cpp:406] bn3d_branch2c <- res3d_branch2c
I1029 11:43:58.819699 18678 net.cpp:367] bn3d_branch2c -> res3d_branch2c (in-place)
I1029 11:43:58.819978 18678 net.cpp:122] Setting up bn3d_branch2c
I1029 11:43:58.820000 18678 net.cpp:129] Top shape: 10 512 29 29 (4305920)
I1029 11:43:58.820016 18678 net.cpp:137] Memory required for data: 1747912800
I1029 11:43:58.820030 18678 layer_factory.hpp:77] Creating layer scale3d_branch2c
I1029 11:43:58.820042 18678 net.cpp:84] Creating Layer scale3d_branch2c
I1029 11:43:58.820049 18678 net.cpp:406] scale3d_branch2c <- res3d_branch2c
I1029 11:43:58.820055 18678 net.cpp:367] scale3d_branch2c -> res3d_branch2c (in-place)
I1029 11:43:58.820116 18678 layer_factory.hpp:77] Creating layer scale3d_branch2c
I1029 11:43:58.820266 18678 net.cpp:122] Setting up scale3d_branch2c
I1029 11:43:58.820273 18678 net.cpp:129] Top shape: 10 512 29 29 (4305920)
I1029 11:43:58.820278 18678 net.cpp:137] Memory required for data: 1765136480
I1029 11:43:58.820287 18678 layer_factory.hpp:77] Creating layer res3d
I1029 11:43:58.820296 18678 net.cpp:84] Creating Layer res3d
I1029 11:43:58.820300 18678 net.cpp:406] res3d <- res3c_res3c_relu_0_split_1
I1029 11:43:58.820307 18678 net.cpp:406] res3d <- res3d_branch2c
I1029 11:43:58.820315 18678 net.cpp:380] res3d -> res3d
I1029 11:43:58.820344 18678 net.cpp:122] Setting up res3d
I1029 11:43:58.820354 18678 net.cpp:129] Top shape: 10 512 29 29 (4305920)
I1029 11:43:58.820359 18678 net.cpp:137] Memory required for data: 1782360160
I1029 11:43:58.820363 18678 layer_factory.hpp:77] Creating layer res3d_relu
I1029 11:43:58.820370 18678 net.cpp:84] Creating Layer res3d_relu
I1029 11:43:58.820375 18678 net.cpp:406] res3d_relu <- res3d
I1029 11:43:58.820381 18678 net.cpp:367] res3d_relu -> res3d (in-place)
I1029 11:43:58.821707 18678 net.cpp:122] Setting up res3d_relu
I1029 11:43:58.821717 18678 net.cpp:129] Top shape: 10 512 29 29 (4305920)
I1029 11:43:58.821720 18678 net.cpp:137] Memory required for data: 1799583840
I1029 11:43:58.821725 18678 layer_factory.hpp:77] Creating layer res3d_res3d_relu_0_split
I1029 11:43:58.821735 18678 net.cpp:84] Creating Layer res3d_res3d_relu_0_split
I1029 11:43:58.821740 18678 net.cpp:406] res3d_res3d_relu_0_split <- res3d
I1029 11:43:58.821749 18678 net.cpp:380] res3d_res3d_relu_0_split -> res3d_res3d_relu_0_split_0
I1029 11:43:58.821758 18678 net.cpp:380] res3d_res3d_relu_0_split -> res3d_res3d_relu_0_split_1
I1029 11:43:58.821802 18678 net.cpp:122] Setting up res3d_res3d_relu_0_split
I1029 11:43:58.821813 18678 net.cpp:129] Top shape: 10 512 29 29 (4305920)
I1029 11:43:58.821831 18678 net.cpp:129] Top shape: 10 512 29 29 (4305920)
I1029 11:43:58.821836 18678 net.cpp:137] Memory required for data: 1834031200
I1029 11:43:58.821841 18678 layer_factory.hpp:77] Creating layer res4a_branch1
I1029 11:43:58.821851 18678 net.cpp:84] Creating Layer res4a_branch1
I1029 11:43:58.821856 18678 net.cpp:406] res4a_branch1 <- res3d_res3d_relu_0_split_0
I1029 11:43:58.821864 18678 net.cpp:380] res4a_branch1 -> res4a_branch1
I1029 11:43:58.828773 18678 net.cpp:122] Setting up res4a_branch1
I1029 11:43:58.828817 18678 net.cpp:129] Top shape: 10 1024 15 15 (2304000)
I1029 11:43:58.828822 18678 net.cpp:137] Memory required for data: 1843247200
I1029 11:43:58.828837 18678 layer_factory.hpp:77] Creating layer bn4a_branch1
I1029 11:43:58.828856 18678 net.cpp:84] Creating Layer bn4a_branch1
I1029 11:43:58.828864 18678 net.cpp:406] bn4a_branch1 <- res4a_branch1
I1029 11:43:58.828877 18678 net.cpp:367] bn4a_branch1 -> res4a_branch1 (in-place)
I1029 11:43:58.829180 18678 net.cpp:122] Setting up bn4a_branch1
I1029 11:43:58.829206 18678 net.cpp:129] Top shape: 10 1024 15 15 (2304000)
I1029 11:43:58.829223 18678 net.cpp:137] Memory required for data: 1852463200
I1029 11:43:58.829237 18678 layer_factory.hpp:77] Creating layer scale4a_branch1
I1029 11:43:58.829247 18678 net.cpp:84] Creating Layer scale4a_branch1
I1029 11:43:58.829252 18678 net.cpp:406] scale4a_branch1 <- res4a_branch1
I1029 11:43:58.829293 18678 net.cpp:367] scale4a_branch1 -> res4a_branch1 (in-place)
I1029 11:43:58.829361 18678 layer_factory.hpp:77] Creating layer scale4a_branch1
I1029 11:43:58.829514 18678 net.cpp:122] Setting up scale4a_branch1
I1029 11:43:58.829522 18678 net.cpp:129] Top shape: 10 1024 15 15 (2304000)
I1029 11:43:58.829527 18678 net.cpp:137] Memory required for data: 1861679200
I1029 11:43:58.829535 18678 layer_factory.hpp:77] Creating layer res4a_branch2a
I1029 11:43:58.829555 18678 net.cpp:84] Creating Layer res4a_branch2a
I1029 11:43:58.829561 18678 net.cpp:406] res4a_branch2a <- res3d_res3d_relu_0_split_1
I1029 11:43:58.829569 18678 net.cpp:380] res4a_branch2a -> res4a_branch2a
I1029 11:43:58.835089 18678 net.cpp:122] Setting up res4a_branch2a
I1029 11:43:58.835117 18678 net.cpp:129] Top shape: 10 256 15 15 (576000)
I1029 11:43:58.835124 18678 net.cpp:137] Memory required for data: 1863983200
I1029 11:43:58.835135 18678 layer_factory.hpp:77] Creating layer bn4a_branch2a
I1029 11:43:58.835152 18678 net.cpp:84] Creating Layer bn4a_branch2a
I1029 11:43:58.835160 18678 net.cpp:406] bn4a_branch2a <- res4a_branch2a
I1029 11:43:58.835170 18678 net.cpp:367] bn4a_branch2a -> res4a_branch2a (in-place)
I1029 11:43:58.835436 18678 net.cpp:122] Setting up bn4a_branch2a
I1029 11:43:58.835445 18678 net.cpp:129] Top shape: 10 256 15 15 (576000)
I1029 11:43:58.835450 18678 net.cpp:137] Memory required for data: 1866287200
I1029 11:43:58.835463 18678 layer_factory.hpp:77] Creating layer scale4a_branch2a
I1029 11:43:58.835471 18678 net.cpp:84] Creating Layer scale4a_branch2a
I1029 11:43:58.835476 18678 net.cpp:406] scale4a_branch2a <- res4a_branch2a
I1029 11:43:58.835485 18678 net.cpp:367] scale4a_branch2a -> res4a_branch2a (in-place)
I1029 11:43:58.835541 18678 layer_factory.hpp:77] Creating layer scale4a_branch2a
I1029 11:43:58.835683 18678 net.cpp:122] Setting up scale4a_branch2a
I1029 11:43:58.835691 18678 net.cpp:129] Top shape: 10 256 15 15 (576000)
I1029 11:43:58.835696 18678 net.cpp:137] Memory required for data: 1868591200
I1029 11:43:58.835705 18678 layer_factory.hpp:77] Creating layer res4a_branch2a_relu
I1029 11:43:58.835712 18678 net.cpp:84] Creating Layer res4a_branch2a_relu
I1029 11:43:58.835717 18678 net.cpp:406] res4a_branch2a_relu <- res4a_branch2a
I1029 11:43:58.835726 18678 net.cpp:367] res4a_branch2a_relu -> res4a_branch2a (in-place)
I1029 11:43:58.837219 18678 net.cpp:122] Setting up res4a_branch2a_relu
I1029 11:43:58.837275 18678 net.cpp:129] Top shape: 10 256 15 15 (576000)
I1029 11:43:58.837291 18678 net.cpp:137] Memory required for data: 1870895200
I1029 11:43:58.837306 18678 layer_factory.hpp:77] Creating layer res4a_branch2b
I1029 11:43:58.837337 18678 net.cpp:84] Creating Layer res4a_branch2b
I1029 11:43:58.837352 18678 net.cpp:406] res4a_branch2b <- res4a_branch2a
I1029 11:43:58.837371 18678 net.cpp:380] res4a_branch2b -> res4a_branch2b
I1029 11:43:58.843703 18678 net.cpp:122] Setting up res4a_branch2b
I1029 11:43:58.843739 18678 net.cpp:129] Top shape: 10 256 15 15 (576000)
I1029 11:43:58.843745 18678 net.cpp:137] Memory required for data: 1873199200
I1029 11:43:58.843758 18678 layer_factory.hpp:77] Creating layer bn4a_branch2b
I1029 11:43:58.843780 18678 net.cpp:84] Creating Layer bn4a_branch2b
I1029 11:43:58.843787 18678 net.cpp:406] bn4a_branch2b <- res4a_branch2b
I1029 11:43:58.843796 18678 net.cpp:367] bn4a_branch2b -> res4a_branch2b (in-place)
I1029 11:43:58.844079 18678 net.cpp:122] Setting up bn4a_branch2b
I1029 11:43:58.844101 18678 net.cpp:129] Top shape: 10 256 15 15 (576000)
I1029 11:43:58.844117 18678 net.cpp:137] Memory required for data: 1875503200
I1029 11:43:58.844138 18678 layer_factory.hpp:77] Creating layer scale4a_branch2b
I1029 11:43:58.844159 18678 net.cpp:84] Creating Layer scale4a_branch2b
I1029 11:43:58.844175 18678 net.cpp:406] scale4a_branch2b <- res4a_branch2b
I1029 11:43:58.844197 18678 net.cpp:367] scale4a_branch2b -> res4a_branch2b (in-place)
I1029 11:43:58.844285 18678 layer_factory.hpp:77] Creating layer scale4a_branch2b
I1029 11:43:58.844481 18678 net.cpp:122] Setting up scale4a_branch2b
I1029 11:43:58.844504 18678 net.cpp:129] Top shape: 10 256 15 15 (576000)
I1029 11:43:58.844519 18678 net.cpp:137] Memory required for data: 1877807200
I1029 11:43:58.844542 18678 layer_factory.hpp:77] Creating layer res4a_branch2b_relu
I1029 11:43:58.844560 18678 net.cpp:84] Creating Layer res4a_branch2b_relu
I1029 11:43:58.844578 18678 net.cpp:406] res4a_branch2b_relu <- res4a_branch2b
I1029 11:43:58.844600 18678 net.cpp:367] res4a_branch2b_relu -> res4a_branch2b (in-place)
I1029 11:43:58.844962 18678 net.cpp:122] Setting up res4a_branch2b_relu
I1029 11:43:58.844993 18678 net.cpp:129] Top shape: 10 256 15 15 (576000)
I1029 11:43:58.845010 18678 net.cpp:137] Memory required for data: 1880111200
I1029 11:43:58.845027 18678 layer_factory.hpp:77] Creating layer res4a_branch2c
I1029 11:43:58.845055 18678 net.cpp:84] Creating Layer res4a_branch2c
I1029 11:43:58.845072 18678 net.cpp:406] res4a_branch2c <- res4a_branch2b
I1029 11:43:58.845093 18678 net.cpp:380] res4a_branch2c -> res4a_branch2c
I1029 11:43:58.849881 18678 net.cpp:122] Setting up res4a_branch2c
I1029 11:43:58.849927 18678 net.cpp:129] Top shape: 10 1024 15 15 (2304000)
I1029 11:43:58.849932 18678 net.cpp:137] Memory required for data: 1889327200
I1029 11:43:58.849947 18678 layer_factory.hpp:77] Creating layer bn4a_branch2c
I1029 11:43:58.849967 18678 net.cpp:84] Creating Layer bn4a_branch2c
I1029 11:43:58.849975 18678 net.cpp:406] bn4a_branch2c <- res4a_branch2c
I1029 11:43:58.849985 18678 net.cpp:367] bn4a_branch2c -> res4a_branch2c (in-place)
I1029 11:43:58.850250 18678 net.cpp:122] Setting up bn4a_branch2c
I1029 11:43:58.850258 18678 net.cpp:129] Top shape: 10 1024 15 15 (2304000)
I1029 11:43:58.850263 18678 net.cpp:137] Memory required for data: 1898543200
I1029 11:43:58.850275 18678 layer_factory.hpp:77] Creating layer scale4a_branch2c
I1029 11:43:58.850284 18678 net.cpp:84] Creating Layer scale4a_branch2c
I1029 11:43:58.850289 18678 net.cpp:406] scale4a_branch2c <- res4a_branch2c
I1029 11:43:58.850296 18678 net.cpp:367] scale4a_branch2c -> res4a_branch2c (in-place)
I1029 11:43:58.850350 18678 layer_factory.hpp:77] Creating layer scale4a_branch2c
I1029 11:43:58.850522 18678 net.cpp:122] Setting up scale4a_branch2c
I1029 11:43:58.850531 18678 net.cpp:129] Top shape: 10 1024 15 15 (2304000)
I1029 11:43:58.850535 18678 net.cpp:137] Memory required for data: 1907759200
I1029 11:43:58.850544 18678 layer_factory.hpp:77] Creating layer res4a
I1029 11:43:58.850553 18678 net.cpp:84] Creating Layer res4a
I1029 11:43:58.850558 18678 net.cpp:406] res4a <- res4a_branch1
I1029 11:43:58.850564 18678 net.cpp:406] res4a <- res4a_branch2c
I1029 11:43:58.850574 18678 net.cpp:380] res4a -> res4a
I1029 11:43:58.850601 18678 net.cpp:122] Setting up res4a
I1029 11:43:58.850610 18678 net.cpp:129] Top shape: 10 1024 15 15 (2304000)
I1029 11:43:58.850615 18678 net.cpp:137] Memory required for data: 1916975200
I1029 11:43:58.850620 18678 layer_factory.hpp:77] Creating layer res4a_relu
I1029 11:43:58.850630 18678 net.cpp:84] Creating Layer res4a_relu
I1029 11:43:58.850634 18678 net.cpp:406] res4a_relu <- res4a
I1029 11:43:58.850641 18678 net.cpp:367] res4a_relu -> res4a (in-place)
I1029 11:43:58.851702 18678 net.cpp:122] Setting up res4a_relu
I1029 11:43:58.851716 18678 net.cpp:129] Top shape: 10 1024 15 15 (2304000)
I1029 11:43:58.851722 18678 net.cpp:137] Memory required for data: 1926191200
I1029 11:43:58.851727 18678 layer_factory.hpp:77] Creating layer res4a_res4a_relu_0_split
I1029 11:43:58.851737 18678 net.cpp:84] Creating Layer res4a_res4a_relu_0_split
I1029 11:43:58.851743 18678 net.cpp:406] res4a_res4a_relu_0_split <- res4a
I1029 11:43:58.851754 18678 net.cpp:380] res4a_res4a_relu_0_split -> res4a_res4a_relu_0_split_0
I1029 11:43:58.851768 18678 net.cpp:380] res4a_res4a_relu_0_split -> res4a_res4a_relu_0_split_1
I1029 11:43:58.851822 18678 net.cpp:122] Setting up res4a_res4a_relu_0_split
I1029 11:43:58.851831 18678 net.cpp:129] Top shape: 10 1024 15 15 (2304000)
I1029 11:43:58.851837 18678 net.cpp:129] Top shape: 10 1024 15 15 (2304000)
I1029 11:43:58.851857 18678 net.cpp:137] Memory required for data: 1944623200
I1029 11:43:58.851862 18678 layer_factory.hpp:77] Creating layer res4b_branch2a
I1029 11:43:58.851917 18678 net.cpp:84] Creating Layer res4b_branch2a
I1029 11:43:58.851923 18678 net.cpp:406] res4b_branch2a <- res4a_res4a_relu_0_split_0
I1029 11:43:58.851932 18678 net.cpp:380] res4b_branch2a -> res4b_branch2a
I1029 11:43:58.853921 18678 net.cpp:122] Setting up res4b_branch2a
I1029 11:43:58.853961 18678 net.cpp:129] Top shape: 10 256 15 15 (576000)
I1029 11:43:58.853970 18678 net.cpp:137] Memory required for data: 1946927200
I1029 11:43:58.853984 18678 layer_factory.hpp:77] Creating layer bn4b_branch2a
I1029 11:43:58.854001 18678 net.cpp:84] Creating Layer bn4b_branch2a
I1029 11:43:58.854009 18678 net.cpp:406] bn4b_branch2a <- res4b_branch2a
I1029 11:43:58.854019 18678 net.cpp:367] bn4b_branch2a -> res4b_branch2a (in-place)
I1029 11:43:58.854290 18678 net.cpp:122] Setting up bn4b_branch2a
I1029 11:43:58.854300 18678 net.cpp:129] Top shape: 10 256 15 15 (576000)
I1029 11:43:58.854303 18678 net.cpp:137] Memory required for data: 1949231200
I1029 11:43:58.854315 18678 layer_factory.hpp:77] Creating layer scale4b_branch2a
I1029 11:43:58.854326 18678 net.cpp:84] Creating Layer scale4b_branch2a
I1029 11:43:58.854332 18678 net.cpp:406] scale4b_branch2a <- res4b_branch2a
I1029 11:43:58.854338 18678 net.cpp:367] scale4b_branch2a -> res4b_branch2a (in-place)
I1029 11:43:58.854396 18678 layer_factory.hpp:77] Creating layer scale4b_branch2a
I1029 11:43:58.854538 18678 net.cpp:122] Setting up scale4b_branch2a
I1029 11:43:58.854547 18678 net.cpp:129] Top shape: 10 256 15 15 (576000)
I1029 11:43:58.854550 18678 net.cpp:137] Memory required for data: 1951535200
I1029 11:43:58.854558 18678 layer_factory.hpp:77] Creating layer res4b_branch2a_relu
I1029 11:43:58.854566 18678 net.cpp:84] Creating Layer res4b_branch2a_relu
I1029 11:43:58.854574 18678 net.cpp:406] res4b_branch2a_relu <- res4b_branch2a
I1029 11:43:58.854580 18678 net.cpp:367] res4b_branch2a_relu -> res4b_branch2a (in-place)
I1029 11:43:58.855936 18678 net.cpp:122] Setting up res4b_branch2a_relu
I1029 11:43:58.855948 18678 net.cpp:129] Top shape: 10 256 15 15 (576000)
I1029 11:43:58.855953 18678 net.cpp:137] Memory required for data: 1953839200
I1029 11:43:58.855958 18678 layer_factory.hpp:77] Creating layer res4b_branch2b
I1029 11:43:58.855971 18678 net.cpp:84] Creating Layer res4b_branch2b
I1029 11:43:58.855979 18678 net.cpp:406] res4b_branch2b <- res4b_branch2a
I1029 11:43:58.855988 18678 net.cpp:380] res4b_branch2b -> res4b_branch2b
I1029 11:43:58.860657 18678 net.cpp:122] Setting up res4b_branch2b
I1029 11:43:58.860695 18678 net.cpp:129] Top shape: 10 256 15 15 (576000)
I1029 11:43:58.860702 18678 net.cpp:137] Memory required for data: 1956143200
I1029 11:43:58.860715 18678 layer_factory.hpp:77] Creating layer bn4b_branch2b
I1029 11:43:58.860733 18678 net.cpp:84] Creating Layer bn4b_branch2b
I1029 11:43:58.860772 18678 net.cpp:406] bn4b_branch2b <- res4b_branch2b
I1029 11:43:58.860787 18678 net.cpp:367] bn4b_branch2b -> res4b_branch2b (in-place)
I1029 11:43:58.861065 18678 net.cpp:122] Setting up bn4b_branch2b
I1029 11:43:58.861099 18678 net.cpp:129] Top shape: 10 256 15 15 (576000)
I1029 11:43:58.861106 18678 net.cpp:137] Memory required for data: 1958447200
I1029 11:43:58.861117 18678 layer_factory.hpp:77] Creating layer scale4b_branch2b
I1029 11:43:58.861141 18678 net.cpp:84] Creating Layer scale4b_branch2b
I1029 11:43:58.861148 18678 net.cpp:406] scale4b_branch2b <- res4b_branch2b
I1029 11:43:58.861155 18678 net.cpp:367] scale4b_branch2b -> res4b_branch2b (in-place)
I1029 11:43:58.861215 18678 layer_factory.hpp:77] Creating layer scale4b_branch2b
I1029 11:43:58.861356 18678 net.cpp:122] Setting up scale4b_branch2b
I1029 11:43:58.861364 18678 net.cpp:129] Top shape: 10 256 15 15 (576000)
I1029 11:43:58.861369 18678 net.cpp:137] Memory required for data: 1960751200
I1029 11:43:58.861377 18678 layer_factory.hpp:77] Creating layer res4b_branch2b_relu
I1029 11:43:58.861407 18678 net.cpp:84] Creating Layer res4b_branch2b_relu
I1029 11:43:58.861413 18678 net.cpp:406] res4b_branch2b_relu <- res4b_branch2b
I1029 11:43:58.861420 18678 net.cpp:367] res4b_branch2b_relu -> res4b_branch2b (in-place)
I1029 11:43:58.861654 18678 net.cpp:122] Setting up res4b_branch2b_relu
I1029 11:43:58.861662 18678 net.cpp:129] Top shape: 10 256 15 15 (576000)
I1029 11:43:58.861667 18678 net.cpp:137] Memory required for data: 1963055200
I1029 11:43:58.861672 18678 layer_factory.hpp:77] Creating layer res4b_branch2c
I1029 11:43:58.861685 18678 net.cpp:84] Creating Layer res4b_branch2c
I1029 11:43:58.861691 18678 net.cpp:406] res4b_branch2c <- res4b_branch2b
I1029 11:43:58.861698 18678 net.cpp:380] res4b_branch2c -> res4b_branch2c
I1029 11:43:58.865052 18678 net.cpp:122] Setting up res4b_branch2c
I1029 11:43:58.865090 18678 net.cpp:129] Top shape: 10 1024 15 15 (2304000)
I1029 11:43:58.865097 18678 net.cpp:137] Memory required for data: 1972271200
I1029 11:43:58.865110 18678 layer_factory.hpp:77] Creating layer bn4b_branch2c
I1029 11:43:58.865128 18678 net.cpp:84] Creating Layer bn4b_branch2c
I1029 11:43:58.865137 18678 net.cpp:406] bn4b_branch2c <- res4b_branch2c
I1029 11:43:58.865147 18678 net.cpp:367] bn4b_branch2c -> res4b_branch2c (in-place)
I1029 11:43:58.865432 18678 net.cpp:122] Setting up bn4b_branch2c
I1029 11:43:58.865440 18678 net.cpp:129] Top shape: 10 1024 15 15 (2304000)
I1029 11:43:58.865445 18678 net.cpp:137] Memory required for data: 1981487200
I1029 11:43:58.865458 18678 layer_factory.hpp:77] Creating layer scale4b_branch2c
I1029 11:43:58.865468 18678 net.cpp:84] Creating Layer scale4b_branch2c
I1029 11:43:58.865474 18678 net.cpp:406] scale4b_branch2c <- res4b_branch2c
I1029 11:43:58.865480 18678 net.cpp:367] scale4b_branch2c -> res4b_branch2c (in-place)
I1029 11:43:58.865536 18678 layer_factory.hpp:77] Creating layer scale4b_branch2c
I1029 11:43:58.865706 18678 net.cpp:122] Setting up scale4b_branch2c
I1029 11:43:58.865715 18678 net.cpp:129] Top shape: 10 1024 15 15 (2304000)
I1029 11:43:58.865720 18678 net.cpp:137] Memory required for data: 1990703200
I1029 11:43:58.865728 18678 layer_factory.hpp:77] Creating layer res4b
I1029 11:43:58.865738 18678 net.cpp:84] Creating Layer res4b
I1029 11:43:58.865746 18678 net.cpp:406] res4b <- res4a_res4a_relu_0_split_1
I1029 11:43:58.865751 18678 net.cpp:406] res4b <- res4b_branch2c
I1029 11:43:58.865759 18678 net.cpp:380] res4b -> res4b
I1029 11:43:58.865792 18678 net.cpp:122] Setting up res4b
I1029 11:43:58.865802 18678 net.cpp:129] Top shape: 10 1024 15 15 (2304000)
I1029 11:43:58.865805 18678 net.cpp:137] Memory required for data: 1999919200
I1029 11:43:58.865809 18678 layer_factory.hpp:77] Creating layer res4b_relu
I1029 11:43:58.865833 18678 net.cpp:84] Creating Layer res4b_relu
I1029 11:43:58.865836 18678 net.cpp:406] res4b_relu <- res4b
I1029 11:43:58.865844 18678 net.cpp:367] res4b_relu -> res4b (in-place)
I1029 11:43:58.866060 18678 net.cpp:122] Setting up res4b_relu
I1029 11:43:58.866073 18678 net.cpp:129] Top shape: 10 1024 15 15 (2304000)
I1029 11:43:58.866080 18678 net.cpp:137] Memory required for data: 2009135200
I1029 11:43:58.866084 18678 layer_factory.hpp:77] Creating layer res4b_res4b_relu_0_split
I1029 11:43:58.866092 18678 net.cpp:84] Creating Layer res4b_res4b_relu_0_split
I1029 11:43:58.866097 18678 net.cpp:406] res4b_res4b_relu_0_split <- res4b
I1029 11:43:58.866104 18678 net.cpp:380] res4b_res4b_relu_0_split -> res4b_res4b_relu_0_split_0
I1029 11:43:58.866114 18678 net.cpp:380] res4b_res4b_relu_0_split -> res4b_res4b_relu_0_split_1
I1029 11:43:58.866163 18678 net.cpp:122] Setting up res4b_res4b_relu_0_split
I1029 11:43:58.866170 18678 net.cpp:129] Top shape: 10 1024 15 15 (2304000)
I1029 11:43:58.866176 18678 net.cpp:129] Top shape: 10 1024 15 15 (2304000)
I1029 11:43:58.866183 18678 net.cpp:137] Memory required for data: 2027567200
I1029 11:43:58.866189 18678 layer_factory.hpp:77] Creating layer res4c_branch2a
I1029 11:43:58.866200 18678 net.cpp:84] Creating Layer res4c_branch2a
I1029 11:43:58.866207 18678 net.cpp:406] res4c_branch2a <- res4b_res4b_relu_0_split_0
I1029 11:43:58.866233 18678 net.cpp:380] res4c_branch2a -> res4c_branch2a
I1029 11:43:58.868683 18678 net.cpp:122] Setting up res4c_branch2a
I1029 11:43:58.868718 18678 net.cpp:129] Top shape: 10 256 15 15 (576000)
I1029 11:43:58.868723 18678 net.cpp:137] Memory required for data: 2029871200
I1029 11:43:58.868737 18678 layer_factory.hpp:77] Creating layer bn4c_branch2a
I1029 11:43:58.868752 18678 net.cpp:84] Creating Layer bn4c_branch2a
I1029 11:43:58.868762 18678 net.cpp:406] bn4c_branch2a <- res4c_branch2a
I1029 11:43:58.868773 18678 net.cpp:367] bn4c_branch2a -> res4c_branch2a (in-place)
I1029 11:43:58.869042 18678 net.cpp:122] Setting up bn4c_branch2a
I1029 11:43:58.869050 18678 net.cpp:129] Top shape: 10 256 15 15 (576000)
I1029 11:43:58.869055 18678 net.cpp:137] Memory required for data: 2032175200
I1029 11:43:58.869067 18678 layer_factory.hpp:77] Creating layer scale4c_branch2a
I1029 11:43:58.869077 18678 net.cpp:84] Creating Layer scale4c_branch2a
I1029 11:43:58.869084 18678 net.cpp:406] scale4c_branch2a <- res4c_branch2a
I1029 11:43:58.869091 18678 net.cpp:367] scale4c_branch2a -> res4c_branch2a (in-place)
I1029 11:43:58.869144 18678 layer_factory.hpp:77] Creating layer scale4c_branch2a
I1029 11:43:58.869287 18678 net.cpp:122] Setting up scale4c_branch2a
I1029 11:43:58.869297 18678 net.cpp:129] Top shape: 10 256 15 15 (576000)
I1029 11:43:58.869300 18678 net.cpp:137] Memory required for data: 2034479200
I1029 11:43:58.869308 18678 layer_factory.hpp:77] Creating layer res4c_branch2a_relu
I1029 11:43:58.869320 18678 net.cpp:84] Creating Layer res4c_branch2a_relu
I1029 11:43:58.869326 18678 net.cpp:406] res4c_branch2a_relu <- res4c_branch2a
I1029 11:43:58.869333 18678 net.cpp:367] res4c_branch2a_relu -> res4c_branch2a (in-place)
I1029 11:43:58.869542 18678 net.cpp:122] Setting up res4c_branch2a_relu
I1029 11:43:58.869551 18678 net.cpp:129] Top shape: 10 256 15 15 (576000)
I1029 11:43:58.869556 18678 net.cpp:137] Memory required for data: 2036783200
I1029 11:43:58.869560 18678 layer_factory.hpp:77] Creating layer res4c_branch2b
I1029 11:43:58.869573 18678 net.cpp:84] Creating Layer res4c_branch2b
I1029 11:43:58.869580 18678 net.cpp:406] res4c_branch2b <- res4c_branch2a
I1029 11:43:58.869591 18678 net.cpp:380] res4c_branch2b -> res4c_branch2b
I1029 11:43:58.874230 18678 net.cpp:122] Setting up res4c_branch2b
I1029 11:43:58.874308 18678 net.cpp:129] Top shape: 10 256 15 15 (576000)
I1029 11:43:58.874326 18678 net.cpp:137] Memory required for data: 2039087200
I1029 11:43:58.874351 18678 layer_factory.hpp:77] Creating layer bn4c_branch2b
I1029 11:43:58.874377 18678 net.cpp:84] Creating Layer bn4c_branch2b
I1029 11:43:58.874397 18678 net.cpp:406] bn4c_branch2b <- res4c_branch2b
I1029 11:43:58.874418 18678 net.cpp:367] bn4c_branch2b -> res4c_branch2b (in-place)
I1029 11:43:58.874725 18678 net.cpp:122] Setting up bn4c_branch2b
I1029 11:43:58.874748 18678 net.cpp:129] Top shape: 10 256 15 15 (576000)
I1029 11:43:58.874768 18678 net.cpp:137] Memory required for data: 2041391200
I1029 11:43:58.874789 18678 layer_factory.hpp:77] Creating layer scale4c_branch2b
I1029 11:43:58.874810 18678 net.cpp:84] Creating Layer scale4c_branch2b
I1029 11:43:58.874830 18678 net.cpp:406] scale4c_branch2b <- res4c_branch2b
I1029 11:43:58.874847 18678 net.cpp:367] scale4c_branch2b -> res4c_branch2b (in-place)
I1029 11:43:58.874932 18678 layer_factory.hpp:77] Creating layer scale4c_branch2b
I1029 11:43:58.875104 18678 net.cpp:122] Setting up scale4c_branch2b
I1029 11:43:58.875124 18678 net.cpp:129] Top shape: 10 256 15 15 (576000)
I1029 11:43:58.875139 18678 net.cpp:137] Memory required for data: 2043695200
I1029 11:43:58.875159 18678 layer_factory.hpp:77] Creating layer res4c_branch2b_relu
I1029 11:43:58.875177 18678 net.cpp:84] Creating Layer res4c_branch2b_relu
I1029 11:43:58.875192 18678 net.cpp:406] res4c_branch2b_relu <- res4c_branch2b
I1029 11:43:58.875211 18678 net.cpp:367] res4c_branch2b_relu -> res4c_branch2b (in-place)
I1029 11:43:58.875530 18678 net.cpp:122] Setting up res4c_branch2b_relu
I1029 11:43:58.875576 18678 net.cpp:129] Top shape: 10 256 15 15 (576000)
I1029 11:43:58.875592 18678 net.cpp:137] Memory required for data: 2045999200
I1029 11:43:58.875610 18678 layer_factory.hpp:77] Creating layer res4c_branch2c
I1029 11:43:58.875636 18678 net.cpp:84] Creating Layer res4c_branch2c
I1029 11:43:58.875653 18678 net.cpp:406] res4c_branch2c <- res4c_branch2b
I1029 11:43:58.875674 18678 net.cpp:380] res4c_branch2c -> res4c_branch2c
I1029 11:43:58.879376 18678 net.cpp:122] Setting up res4c_branch2c
I1029 11:43:58.879420 18678 net.cpp:129] Top shape: 10 1024 15 15 (2304000)
I1029 11:43:58.879426 18678 net.cpp:137] Memory required for data: 2055215200
I1029 11:43:58.879441 18678 layer_factory.hpp:77] Creating layer bn4c_branch2c
I1029 11:43:58.879463 18678 net.cpp:84] Creating Layer bn4c_branch2c
I1029 11:43:58.879472 18678 net.cpp:406] bn4c_branch2c <- res4c_branch2c
I1029 11:43:58.879483 18678 net.cpp:367] bn4c_branch2c -> res4c_branch2c (in-place)
I1029 11:43:58.879777 18678 net.cpp:122] Setting up bn4c_branch2c
I1029 11:43:58.879786 18678 net.cpp:129] Top shape: 10 1024 15 15 (2304000)
I1029 11:43:58.879791 18678 net.cpp:137] Memory required for data: 2064431200
I1029 11:43:58.879802 18678 layer_factory.hpp:77] Creating layer scale4c_branch2c
I1029 11:43:58.879812 18678 net.cpp:84] Creating Layer scale4c_branch2c
I1029 11:43:58.879817 18678 net.cpp:406] scale4c_branch2c <- res4c_branch2c
I1029 11:43:58.879825 18678 net.cpp:367] scale4c_branch2c -> res4c_branch2c (in-place)
I1029 11:43:58.879878 18678 layer_factory.hpp:77] Creating layer scale4c_branch2c
I1029 11:43:58.880044 18678 net.cpp:122] Setting up scale4c_branch2c
I1029 11:43:58.880054 18678 net.cpp:129] Top shape: 10 1024 15 15 (2304000)
I1029 11:43:58.880059 18678 net.cpp:137] Memory required for data: 2073647200
I1029 11:43:58.880067 18678 layer_factory.hpp:77] Creating layer res4c
I1029 11:43:58.880075 18678 net.cpp:84] Creating Layer res4c
I1029 11:43:58.880081 18678 net.cpp:406] res4c <- res4b_res4b_relu_0_split_1
I1029 11:43:58.880087 18678 net.cpp:406] res4c <- res4c_branch2c
I1029 11:43:58.880097 18678 net.cpp:380] res4c -> res4c
I1029 11:43:58.880126 18678 net.cpp:122] Setting up res4c
I1029 11:43:58.880136 18678 net.cpp:129] Top shape: 10 1024 15 15 (2304000)
I1029 11:43:58.880141 18678 net.cpp:137] Memory required for data: 2082863200
I1029 11:43:58.880146 18678 layer_factory.hpp:77] Creating layer res4c_relu
I1029 11:43:58.880153 18678 net.cpp:84] Creating Layer res4c_relu
I1029 11:43:58.880157 18678 net.cpp:406] res4c_relu <- res4c
I1029 11:43:58.880164 18678 net.cpp:367] res4c_relu -> res4c (in-place)
I1029 11:43:58.880906 18678 net.cpp:122] Setting up res4c_relu
I1029 11:43:58.880941 18678 net.cpp:129] Top shape: 10 1024 15 15 (2304000)
I1029 11:43:58.880957 18678 net.cpp:137] Memory required for data: 2092079200
I1029 11:43:58.880972 18678 layer_factory.hpp:77] Creating layer res4c_res4c_relu_0_split
I1029 11:43:58.880997 18678 net.cpp:84] Creating Layer res4c_res4c_relu_0_split
I1029 11:43:58.881014 18678 net.cpp:406] res4c_res4c_relu_0_split <- res4c
I1029 11:43:58.881036 18678 net.cpp:380] res4c_res4c_relu_0_split -> res4c_res4c_relu_0_split_0
I1029 11:43:58.881058 18678 net.cpp:380] res4c_res4c_relu_0_split -> res4c_res4c_relu_0_split_1
I1029 11:43:58.881140 18678 net.cpp:122] Setting up res4c_res4c_relu_0_split
I1029 11:43:58.881160 18678 net.cpp:129] Top shape: 10 1024 15 15 (2304000)
I1029 11:43:58.881177 18678 net.cpp:129] Top shape: 10 1024 15 15 (2304000)
I1029 11:43:58.881193 18678 net.cpp:137] Memory required for data: 2110511200
I1029 11:43:58.881208 18678 layer_factory.hpp:77] Creating layer res4d_branch2a
I1029 11:43:58.881233 18678 net.cpp:84] Creating Layer res4d_branch2a
I1029 11:43:58.881250 18678 net.cpp:406] res4d_branch2a <- res4c_res4c_relu_0_split_0
I1029 11:43:58.881271 18678 net.cpp:380] res4d_branch2a -> res4d_branch2a
I1029 11:43:58.883121 18678 net.cpp:122] Setting up res4d_branch2a
I1029 11:43:58.883165 18678 net.cpp:129] Top shape: 10 256 15 15 (576000)
I1029 11:43:58.883172 18678 net.cpp:137] Memory required for data: 2112815200
I1029 11:43:58.883215 18678 layer_factory.hpp:77] Creating layer bn4d_branch2a
I1029 11:43:58.883234 18678 net.cpp:84] Creating Layer bn4d_branch2a
I1029 11:43:58.883241 18678 net.cpp:406] bn4d_branch2a <- res4d_branch2a
I1029 11:43:58.883253 18678 net.cpp:367] bn4d_branch2a -> res4d_branch2a (in-place)
I1029 11:43:58.883530 18678 net.cpp:122] Setting up bn4d_branch2a
I1029 11:43:58.883539 18678 net.cpp:129] Top shape: 10 256 15 15 (576000)
I1029 11:43:58.883543 18678 net.cpp:137] Memory required for data: 2115119200
I1029 11:43:58.883554 18678 layer_factory.hpp:77] Creating layer scale4d_branch2a
I1029 11:43:58.883569 18678 net.cpp:84] Creating Layer scale4d_branch2a
I1029 11:43:58.883574 18678 net.cpp:406] scale4d_branch2a <- res4d_branch2a
I1029 11:43:58.883581 18678 net.cpp:367] scale4d_branch2a -> res4d_branch2a (in-place)
I1029 11:43:58.883641 18678 layer_factory.hpp:77] Creating layer scale4d_branch2a
I1029 11:43:58.883790 18678 net.cpp:122] Setting up scale4d_branch2a
I1029 11:43:58.883798 18678 net.cpp:129] Top shape: 10 256 15 15 (576000)
I1029 11:43:58.883802 18678 net.cpp:137] Memory required for data: 2117423200
I1029 11:43:58.883810 18678 layer_factory.hpp:77] Creating layer res4d_branch2a_relu
I1029 11:43:58.883821 18678 net.cpp:84] Creating Layer res4d_branch2a_relu
I1029 11:43:58.883827 18678 net.cpp:406] res4d_branch2a_relu <- res4d_branch2a
I1029 11:43:58.883836 18678 net.cpp:367] res4d_branch2a_relu -> res4d_branch2a (in-place)
I1029 11:43:58.884660 18678 net.cpp:122] Setting up res4d_branch2a_relu
I1029 11:43:58.884672 18678 net.cpp:129] Top shape: 10 256 15 15 (576000)
I1029 11:43:58.884677 18678 net.cpp:137] Memory required for data: 2119727200
I1029 11:43:58.884682 18678 layer_factory.hpp:77] Creating layer res4d_branch2b
I1029 11:43:58.884696 18678 net.cpp:84] Creating Layer res4d_branch2b
I1029 11:43:58.884703 18678 net.cpp:406] res4d_branch2b <- res4d_branch2a
I1029 11:43:58.884712 18678 net.cpp:380] res4d_branch2b -> res4d_branch2b
I1029 11:43:58.892302 18678 net.cpp:122] Setting up res4d_branch2b
I1029 11:43:58.892349 18678 net.cpp:129] Top shape: 10 256 15 15 (576000)
I1029 11:43:58.892354 18678 net.cpp:137] Memory required for data: 2122031200
I1029 11:43:58.892371 18678 layer_factory.hpp:77] Creating layer bn4d_branch2b
I1029 11:43:58.892395 18678 net.cpp:84] Creating Layer bn4d_branch2b
I1029 11:43:58.892405 18678 net.cpp:406] bn4d_branch2b <- res4d_branch2b
I1029 11:43:58.892416 18678 net.cpp:367] bn4d_branch2b -> res4d_branch2b (in-place)
I1029 11:43:58.892729 18678 net.cpp:122] Setting up bn4d_branch2b
I1029 11:43:58.892740 18678 net.cpp:129] Top shape: 10 256 15 15 (576000)
I1029 11:43:58.892743 18678 net.cpp:137] Memory required for data: 2124335200
I1029 11:43:58.892755 18678 layer_factory.hpp:77] Creating layer scale4d_branch2b
I1029 11:43:58.892769 18678 net.cpp:84] Creating Layer scale4d_branch2b
I1029 11:43:58.892778 18678 net.cpp:406] scale4d_branch2b <- res4d_branch2b
I1029 11:43:58.892786 18678 net.cpp:367] scale4d_branch2b -> res4d_branch2b (in-place)
I1029 11:43:58.892846 18678 layer_factory.hpp:77] Creating layer scale4d_branch2b
I1029 11:43:58.892993 18678 net.cpp:122] Setting up scale4d_branch2b
I1029 11:43:58.893002 18678 net.cpp:129] Top shape: 10 256 15 15 (576000)
I1029 11:43:58.893007 18678 net.cpp:137] Memory required for data: 2126639200
I1029 11:43:58.893014 18678 layer_factory.hpp:77] Creating layer res4d_branch2b_relu
I1029 11:43:58.893023 18678 net.cpp:84] Creating Layer res4d_branch2b_relu
I1029 11:43:58.893029 18678 net.cpp:406] res4d_branch2b_relu <- res4d_branch2b
I1029 11:43:58.893038 18678 net.cpp:367] res4d_branch2b_relu -> res4d_branch2b (in-place)
I1029 11:43:58.894062 18678 net.cpp:122] Setting up res4d_branch2b_relu
I1029 11:43:58.894073 18678 net.cpp:129] Top shape: 10 256 15 15 (576000)
I1029 11:43:58.894076 18678 net.cpp:137] Memory required for data: 2128943200
I1029 11:43:58.894081 18678 layer_factory.hpp:77] Creating layer res4d_branch2c
I1029 11:43:58.894095 18678 net.cpp:84] Creating Layer res4d_branch2c
I1029 11:43:58.894127 18678 net.cpp:406] res4d_branch2c <- res4d_branch2b
I1029 11:43:58.894135 18678 net.cpp:380] res4d_branch2c -> res4d_branch2c
I1029 11:43:58.900899 18678 net.cpp:122] Setting up res4d_branch2c
I1029 11:43:58.900945 18678 net.cpp:129] Top shape: 10 1024 15 15 (2304000)
I1029 11:43:58.900951 18678 net.cpp:137] Memory required for data: 2138159200
I1029 11:43:58.900969 18678 layer_factory.hpp:77] Creating layer bn4d_branch2c
I1029 11:43:58.900990 18678 net.cpp:84] Creating Layer bn4d_branch2c
I1029 11:43:58.901000 18678 net.cpp:406] bn4d_branch2c <- res4d_branch2c
I1029 11:43:58.901013 18678 net.cpp:367] bn4d_branch2c -> res4d_branch2c (in-place)
I1029 11:43:58.901329 18678 net.cpp:122] Setting up bn4d_branch2c
I1029 11:43:58.901337 18678 net.cpp:129] Top shape: 10 1024 15 15 (2304000)
I1029 11:43:58.901342 18678 net.cpp:137] Memory required for data: 2147375200
I1029 11:43:58.901353 18678 layer_factory.hpp:77] Creating layer scale4d_branch2c
I1029 11:43:58.901365 18678 net.cpp:84] Creating Layer scale4d_branch2c
I1029 11:43:58.901391 18678 net.cpp:406] scale4d_branch2c <- res4d_branch2c
I1029 11:43:58.901410 18678 net.cpp:367] scale4d_branch2c -> res4d_branch2c (in-place)
I1029 11:43:58.901471 18678 layer_factory.hpp:77] Creating layer scale4d_branch2c
I1029 11:43:58.901633 18678 net.cpp:122] Setting up scale4d_branch2c
I1029 11:43:58.901641 18678 net.cpp:129] Top shape: 10 1024 15 15 (2304000)
I1029 11:43:58.901646 18678 net.cpp:137] Memory required for data: 2156591200
I1029 11:43:58.901654 18678 layer_factory.hpp:77] Creating layer res4d
I1029 11:43:58.901664 18678 net.cpp:84] Creating Layer res4d
I1029 11:43:58.901672 18678 net.cpp:406] res4d <- res4c_res4c_relu_0_split_1
I1029 11:43:58.901679 18678 net.cpp:406] res4d <- res4d_branch2c
I1029 11:43:58.901688 18678 net.cpp:380] res4d -> res4d
I1029 11:43:58.901721 18678 net.cpp:122] Setting up res4d
I1029 11:43:58.901731 18678 net.cpp:129] Top shape: 10 1024 15 15 (2304000)
I1029 11:43:58.901734 18678 net.cpp:137] Memory required for data: 2165807200
I1029 11:43:58.901739 18678 layer_factory.hpp:77] Creating layer res4d_relu
I1029 11:43:58.901748 18678 net.cpp:84] Creating Layer res4d_relu
I1029 11:43:58.901753 18678 net.cpp:406] res4d_relu <- res4d
I1029 11:43:58.901759 18678 net.cpp:367] res4d_relu -> res4d (in-place)
I1029 11:43:58.902906 18678 net.cpp:122] Setting up res4d_relu
I1029 11:43:58.902917 18678 net.cpp:129] Top shape: 10 1024 15 15 (2304000)
I1029 11:43:58.902921 18678 net.cpp:137] Memory required for data: 2175023200
I1029 11:43:58.902926 18678 layer_factory.hpp:77] Creating layer res4d_res4d_relu_0_split
I1029 11:43:58.902936 18678 net.cpp:84] Creating Layer res4d_res4d_relu_0_split
I1029 11:43:58.902942 18678 net.cpp:406] res4d_res4d_relu_0_split <- res4d
I1029 11:43:58.902950 18678 net.cpp:380] res4d_res4d_relu_0_split -> res4d_res4d_relu_0_split_0
I1029 11:43:58.902962 18678 net.cpp:380] res4d_res4d_relu_0_split -> res4d_res4d_relu_0_split_1
I1029 11:43:58.903015 18678 net.cpp:122] Setting up res4d_res4d_relu_0_split
I1029 11:43:58.903025 18678 net.cpp:129] Top shape: 10 1024 15 15 (2304000)
I1029 11:43:58.903031 18678 net.cpp:129] Top shape: 10 1024 15 15 (2304000)
I1029 11:43:58.903038 18678 net.cpp:137] Memory required for data: 2193455200
I1029 11:43:58.903041 18678 layer_factory.hpp:77] Creating layer res4e_branch2a
I1029 11:43:58.903053 18678 net.cpp:84] Creating Layer res4e_branch2a
I1029 11:43:58.903059 18678 net.cpp:406] res4e_branch2a <- res4d_res4d_relu_0_split_0
I1029 11:43:58.903069 18678 net.cpp:380] res4e_branch2a -> res4e_branch2a
I1029 11:43:58.909659 18678 net.cpp:122] Setting up res4e_branch2a
I1029 11:43:58.909770 18678 net.cpp:129] Top shape: 10 256 15 15 (576000)
I1029 11:43:58.909790 18678 net.cpp:137] Memory required for data: 2195759200
I1029 11:43:58.909823 18678 layer_factory.hpp:77] Creating layer bn4e_branch2a
I1029 11:43:58.909859 18678 net.cpp:84] Creating Layer bn4e_branch2a
I1029 11:43:58.909880 18678 net.cpp:406] bn4e_branch2a <- res4e_branch2a
I1029 11:43:58.909924 18678 net.cpp:367] bn4e_branch2a -> res4e_branch2a (in-place)
I1029 11:43:58.910287 18678 net.cpp:122] Setting up bn4e_branch2a
I1029 11:43:58.910312 18678 net.cpp:129] Top shape: 10 256 15 15 (576000)
I1029 11:43:58.910327 18678 net.cpp:137] Memory required for data: 2198063200
I1029 11:43:58.910351 18678 layer_factory.hpp:77] Creating layer scale4e_branch2a
I1029 11:43:58.910373 18678 net.cpp:84] Creating Layer scale4e_branch2a
I1029 11:43:58.910390 18678 net.cpp:406] scale4e_branch2a <- res4e_branch2a
I1029 11:43:58.910408 18678 net.cpp:367] scale4e_branch2a -> res4e_branch2a (in-place)
I1029 11:43:58.910485 18678 layer_factory.hpp:77] Creating layer scale4e_branch2a
I1029 11:43:58.910661 18678 net.cpp:122] Setting up scale4e_branch2a
I1029 11:43:58.910683 18678 net.cpp:129] Top shape: 10 256 15 15 (576000)
I1029 11:43:58.910701 18678 net.cpp:137] Memory required for data: 2200367200
I1029 11:43:58.910720 18678 layer_factory.hpp:77] Creating layer res4e_branch2a_relu
I1029 11:43:58.910739 18678 net.cpp:84] Creating Layer res4e_branch2a_relu
I1029 11:43:58.910755 18678 net.cpp:406] res4e_branch2a_relu <- res4e_branch2a
I1029 11:43:58.910775 18678 net.cpp:367] res4e_branch2a_relu -> res4e_branch2a (in-place)
I1029 11:43:58.911756 18678 net.cpp:122] Setting up res4e_branch2a_relu
I1029 11:43:58.911823 18678 net.cpp:129] Top shape: 10 256 15 15 (576000)
I1029 11:43:58.911842 18678 net.cpp:137] Memory required for data: 2202671200
I1029 11:43:58.911861 18678 layer_factory.hpp:77] Creating layer res4e_branch2b
I1029 11:43:58.911897 18678 net.cpp:84] Creating Layer res4e_branch2b
I1029 11:43:58.911916 18678 net.cpp:406] res4e_branch2b <- res4e_branch2a
I1029 11:43:58.911939 18678 net.cpp:380] res4e_branch2b -> res4e_branch2b
I1029 11:43:58.920027 18678 net.cpp:122] Setting up res4e_branch2b
I1029 11:43:58.920071 18678 net.cpp:129] Top shape: 10 256 15 15 (576000)
I1029 11:43:58.920076 18678 net.cpp:137] Memory required for data: 2204975200
I1029 11:43:58.920094 18678 layer_factory.hpp:77] Creating layer bn4e_branch2b
I1029 11:43:58.920116 18678 net.cpp:84] Creating Layer bn4e_branch2b
I1029 11:43:58.920135 18678 net.cpp:406] bn4e_branch2b <- res4e_branch2b
I1029 11:43:58.920150 18678 net.cpp:367] bn4e_branch2b -> res4e_branch2b (in-place)
I1029 11:43:58.920446 18678 net.cpp:122] Setting up bn4e_branch2b
I1029 11:43:58.920483 18678 net.cpp:129] Top shape: 10 256 15 15 (576000)
I1029 11:43:58.920490 18678 net.cpp:137] Memory required for data: 2207279200
I1029 11:43:58.920502 18678 layer_factory.hpp:77] Creating layer scale4e_branch2b
I1029 11:43:58.920521 18678 net.cpp:84] Creating Layer scale4e_branch2b
I1029 11:43:58.920527 18678 net.cpp:406] scale4e_branch2b <- res4e_branch2b
I1029 11:43:58.920534 18678 net.cpp:367] scale4e_branch2b -> res4e_branch2b (in-place)
I1029 11:43:58.920595 18678 layer_factory.hpp:77] Creating layer scale4e_branch2b
I1029 11:43:58.920752 18678 net.cpp:122] Setting up scale4e_branch2b
I1029 11:43:58.920760 18678 net.cpp:129] Top shape: 10 256 15 15 (576000)
I1029 11:43:58.920764 18678 net.cpp:137] Memory required for data: 2209583200
I1029 11:43:58.920773 18678 layer_factory.hpp:77] Creating layer res4e_branch2b_relu
I1029 11:43:58.920781 18678 net.cpp:84] Creating Layer res4e_branch2b_relu
I1029 11:43:58.920789 18678 net.cpp:406] res4e_branch2b_relu <- res4e_branch2b
I1029 11:43:58.920797 18678 net.cpp:367] res4e_branch2b_relu -> res4e_branch2b (in-place)
I1029 11:43:58.922020 18678 net.cpp:122] Setting up res4e_branch2b_relu
I1029 11:43:58.922031 18678 net.cpp:129] Top shape: 10 256 15 15 (576000)
I1029 11:43:58.922036 18678 net.cpp:137] Memory required for data: 2211887200
I1029 11:43:58.922041 18678 layer_factory.hpp:77] Creating layer res4e_branch2c
I1029 11:43:58.922055 18678 net.cpp:84] Creating Layer res4e_branch2c
I1029 11:43:58.922061 18678 net.cpp:406] res4e_branch2c <- res4e_branch2b
I1029 11:43:58.922070 18678 net.cpp:380] res4e_branch2c -> res4e_branch2c
I1029 11:43:58.928849 18678 net.cpp:122] Setting up res4e_branch2c
I1029 11:43:58.928895 18678 net.cpp:129] Top shape: 10 1024 15 15 (2304000)
I1029 11:43:58.928905 18678 net.cpp:137] Memory required for data: 2221103200
I1029 11:43:58.928966 18678 layer_factory.hpp:77] Creating layer bn4e_branch2c
I1029 11:43:58.928983 18678 net.cpp:84] Creating Layer bn4e_branch2c
I1029 11:43:58.929013 18678 net.cpp:406] bn4e_branch2c <- res4e_branch2c
I1029 11:43:58.929036 18678 net.cpp:367] bn4e_branch2c -> res4e_branch2c (in-place)
I1029 11:43:58.929356 18678 net.cpp:122] Setting up bn4e_branch2c
I1029 11:43:58.929366 18678 net.cpp:129] Top shape: 10 1024 15 15 (2304000)
I1029 11:43:58.929371 18678 net.cpp:137] Memory required for data: 2230319200
I1029 11:43:58.929383 18678 layer_factory.hpp:77] Creating layer scale4e_branch2c
I1029 11:43:58.929392 18678 net.cpp:84] Creating Layer scale4e_branch2c
I1029 11:43:58.929397 18678 net.cpp:406] scale4e_branch2c <- res4e_branch2c
I1029 11:43:58.929404 18678 net.cpp:367] scale4e_branch2c -> res4e_branch2c (in-place)
I1029 11:43:58.929467 18678 layer_factory.hpp:77] Creating layer scale4e_branch2c
I1029 11:43:58.929637 18678 net.cpp:122] Setting up scale4e_branch2c
I1029 11:43:58.929646 18678 net.cpp:129] Top shape: 10 1024 15 15 (2304000)
I1029 11:43:58.929651 18678 net.cpp:137] Memory required for data: 2239535200
I1029 11:43:58.929659 18678 layer_factory.hpp:77] Creating layer res4e
I1029 11:43:58.929672 18678 net.cpp:84] Creating Layer res4e
I1029 11:43:58.929677 18678 net.cpp:406] res4e <- res4d_res4d_relu_0_split_1
I1029 11:43:58.929684 18678 net.cpp:406] res4e <- res4e_branch2c
I1029 11:43:58.929692 18678 net.cpp:380] res4e -> res4e
I1029 11:43:58.929724 18678 net.cpp:122] Setting up res4e
I1029 11:43:58.929744 18678 net.cpp:129] Top shape: 10 1024 15 15 (2304000)
I1029 11:43:58.929749 18678 net.cpp:137] Memory required for data: 2248751200
I1029 11:43:58.929754 18678 layer_factory.hpp:77] Creating layer res4e_relu
I1029 11:43:58.929761 18678 net.cpp:84] Creating Layer res4e_relu
I1029 11:43:58.929766 18678 net.cpp:406] res4e_relu <- res4e
I1029 11:43:58.929775 18678 net.cpp:367] res4e_relu -> res4e (in-place)
I1029 11:43:58.930904 18678 net.cpp:122] Setting up res4e_relu
I1029 11:43:58.930922 18678 net.cpp:129] Top shape: 10 1024 15 15 (2304000)
I1029 11:43:58.930927 18678 net.cpp:137] Memory required for data: 2257967200
I1029 11:43:58.930932 18678 layer_factory.hpp:77] Creating layer res4e_res4e_relu_0_split
I1029 11:43:58.930940 18678 net.cpp:84] Creating Layer res4e_res4e_relu_0_split
I1029 11:43:58.930946 18678 net.cpp:406] res4e_res4e_relu_0_split <- res4e
I1029 11:43:58.930956 18678 net.cpp:380] res4e_res4e_relu_0_split -> res4e_res4e_relu_0_split_0
I1029 11:43:58.930966 18678 net.cpp:380] res4e_res4e_relu_0_split -> res4e_res4e_relu_0_split_1
I1029 11:43:58.931023 18678 net.cpp:122] Setting up res4e_res4e_relu_0_split
I1029 11:43:58.931037 18678 net.cpp:129] Top shape: 10 1024 15 15 (2304000)
I1029 11:43:58.931046 18678 net.cpp:129] Top shape: 10 1024 15 15 (2304000)
I1029 11:43:58.931051 18678 net.cpp:137] Memory required for data: 2276399200
I1029 11:43:58.931054 18678 layer_factory.hpp:77] Creating layer res4f_branch2a
I1029 11:43:58.931067 18678 net.cpp:84] Creating Layer res4f_branch2a
I1029 11:43:58.931074 18678 net.cpp:406] res4f_branch2a <- res4e_res4e_relu_0_split_0
I1029 11:43:58.931084 18678 net.cpp:380] res4f_branch2a -> res4f_branch2a
I1029 11:43:58.937736 18678 net.cpp:122] Setting up res4f_branch2a
I1029 11:43:58.937774 18678 net.cpp:129] Top shape: 10 256 15 15 (576000)
I1029 11:43:58.937779 18678 net.cpp:137] Memory required for data: 2278703200
I1029 11:43:58.937793 18678 layer_factory.hpp:77] Creating layer bn4f_branch2a
I1029 11:43:58.937810 18678 net.cpp:84] Creating Layer bn4f_branch2a
I1029 11:43:58.937871 18678 net.cpp:406] bn4f_branch2a <- res4f_branch2a
I1029 11:43:58.937888 18678 net.cpp:367] bn4f_branch2a -> res4f_branch2a (in-place)
I1029 11:43:58.938177 18678 net.cpp:122] Setting up bn4f_branch2a
I1029 11:43:58.938199 18678 net.cpp:129] Top shape: 10 256 15 15 (576000)
I1029 11:43:58.938215 18678 net.cpp:137] Memory required for data: 2281007200
I1029 11:43:58.938227 18678 layer_factory.hpp:77] Creating layer scale4f_branch2a
I1029 11:43:58.938261 18678 net.cpp:84] Creating Layer scale4f_branch2a
I1029 11:43:58.938279 18678 net.cpp:406] scale4f_branch2a <- res4f_branch2a
I1029 11:43:58.938297 18678 net.cpp:367] scale4f_branch2a -> res4f_branch2a (in-place)
I1029 11:43:58.938359 18678 layer_factory.hpp:77] Creating layer scale4f_branch2a
I1029 11:43:58.938511 18678 net.cpp:122] Setting up scale4f_branch2a
I1029 11:43:58.938519 18678 net.cpp:129] Top shape: 10 256 15 15 (576000)
I1029 11:43:58.938524 18678 net.cpp:137] Memory required for data: 2283311200
I1029 11:43:58.938532 18678 layer_factory.hpp:77] Creating layer res4f_branch2a_relu
I1029 11:43:58.938542 18678 net.cpp:84] Creating Layer res4f_branch2a_relu
I1029 11:43:58.938549 18678 net.cpp:406] res4f_branch2a_relu <- res4f_branch2a
I1029 11:43:58.938555 18678 net.cpp:367] res4f_branch2a_relu -> res4f_branch2a (in-place)
I1029 11:43:58.939823 18678 net.cpp:122] Setting up res4f_branch2a_relu
I1029 11:43:58.939836 18678 net.cpp:129] Top shape: 10 256 15 15 (576000)
I1029 11:43:58.939841 18678 net.cpp:137] Memory required for data: 2285615200
I1029 11:43:58.939846 18678 layer_factory.hpp:77] Creating layer res4f_branch2b
I1029 11:43:58.939862 18678 net.cpp:84] Creating Layer res4f_branch2b
I1029 11:43:58.939869 18678 net.cpp:406] res4f_branch2b <- res4f_branch2a
I1029 11:43:58.939878 18678 net.cpp:380] res4f_branch2b -> res4f_branch2b
I1029 11:43:58.947217 18678 net.cpp:122] Setting up res4f_branch2b
I1029 11:43:58.947319 18678 net.cpp:129] Top shape: 10 256 15 15 (576000)
I1029 11:43:58.947337 18678 net.cpp:137] Memory required for data: 2287919200
I1029 11:43:58.947367 18678 layer_factory.hpp:77] Creating layer bn4f_branch2b
I1029 11:43:58.947397 18678 net.cpp:84] Creating Layer bn4f_branch2b
I1029 11:43:58.947419 18678 net.cpp:406] bn4f_branch2b <- res4f_branch2b
I1029 11:43:58.947445 18678 net.cpp:367] bn4f_branch2b -> res4f_branch2b (in-place)
I1029 11:43:58.947844 18678 net.cpp:122] Setting up bn4f_branch2b
I1029 11:43:58.947872 18678 net.cpp:129] Top shape: 10 256 15 15 (576000)
I1029 11:43:58.947890 18678 net.cpp:137] Memory required for data: 2290223200
I1029 11:43:58.947916 18678 layer_factory.hpp:77] Creating layer scale4f_branch2b
I1029 11:43:58.947942 18678 net.cpp:84] Creating Layer scale4f_branch2b
I1029 11:43:58.947960 18678 net.cpp:406] scale4f_branch2b <- res4f_branch2b
I1029 11:43:58.947980 18678 net.cpp:367] scale4f_branch2b -> res4f_branch2b (in-place)
I1029 11:43:58.948071 18678 layer_factory.hpp:77] Creating layer scale4f_branch2b
I1029 11:43:58.948268 18678 net.cpp:122] Setting up scale4f_branch2b
I1029 11:43:58.948290 18678 net.cpp:129] Top shape: 10 256 15 15 (576000)
I1029 11:43:58.948307 18678 net.cpp:137] Memory required for data: 2292527200
I1029 11:43:58.948326 18678 layer_factory.hpp:77] Creating layer res4f_branch2b_relu
I1029 11:43:58.948348 18678 net.cpp:84] Creating Layer res4f_branch2b_relu
I1029 11:43:58.948364 18678 net.cpp:406] res4f_branch2b_relu <- res4f_branch2b
I1029 11:43:58.948382 18678 net.cpp:367] res4f_branch2b_relu -> res4f_branch2b (in-place)
I1029 11:43:58.948714 18678 net.cpp:122] Setting up res4f_branch2b_relu
I1029 11:43:58.948737 18678 net.cpp:129] Top shape: 10 256 15 15 (576000)
I1029 11:43:58.948753 18678 net.cpp:137] Memory required for data: 2294831200
I1029 11:43:58.948770 18678 layer_factory.hpp:77] Creating layer res4f_branch2c
I1029 11:43:58.948794 18678 net.cpp:84] Creating Layer res4f_branch2c
I1029 11:43:58.948812 18678 net.cpp:406] res4f_branch2c <- res4f_branch2b
I1029 11:43:58.948832 18678 net.cpp:380] res4f_branch2c -> res4f_branch2c
I1029 11:43:58.956624 18678 net.cpp:122] Setting up res4f_branch2c
I1029 11:43:58.956666 18678 net.cpp:129] Top shape: 10 1024 15 15 (2304000)
I1029 11:43:58.956672 18678 net.cpp:137] Memory required for data: 2304047200
I1029 11:43:58.956686 18678 layer_factory.hpp:77] Creating layer bn4f_branch2c
I1029 11:43:58.956701 18678 net.cpp:84] Creating Layer bn4f_branch2c
I1029 11:43:58.956708 18678 net.cpp:406] bn4f_branch2c <- res4f_branch2c
I1029 11:43:58.956722 18678 net.cpp:367] bn4f_branch2c -> res4f_branch2c (in-place)
I1029 11:43:58.957053 18678 net.cpp:122] Setting up bn4f_branch2c
I1029 11:43:58.957063 18678 net.cpp:129] Top shape: 10 1024 15 15 (2304000)
I1029 11:43:58.957068 18678 net.cpp:137] Memory required for data: 2313263200
I1029 11:43:58.957145 18678 layer_factory.hpp:77] Creating layer scale4f_branch2c
I1029 11:43:58.957160 18678 net.cpp:84] Creating Layer scale4f_branch2c
I1029 11:43:58.957168 18678 net.cpp:406] scale4f_branch2c <- res4f_branch2c
I1029 11:43:58.957175 18678 net.cpp:367] scale4f_branch2c -> res4f_branch2c (in-place)
I1029 11:43:58.957237 18678 layer_factory.hpp:77] Creating layer scale4f_branch2c
I1029 11:43:58.957419 18678 net.cpp:122] Setting up scale4f_branch2c
I1029 11:43:58.957429 18678 net.cpp:129] Top shape: 10 1024 15 15 (2304000)
I1029 11:43:58.957433 18678 net.cpp:137] Memory required for data: 2322479200
I1029 11:43:58.957442 18678 layer_factory.hpp:77] Creating layer res4f
I1029 11:43:58.957453 18678 net.cpp:84] Creating Layer res4f
I1029 11:43:58.957458 18678 net.cpp:406] res4f <- res4e_res4e_relu_0_split_1
I1029 11:43:58.957464 18678 net.cpp:406] res4f <- res4f_branch2c
I1029 11:43:58.957471 18678 net.cpp:380] res4f -> res4f
I1029 11:43:58.957504 18678 net.cpp:122] Setting up res4f
I1029 11:43:58.957512 18678 net.cpp:129] Top shape: 10 1024 15 15 (2304000)
I1029 11:43:58.957517 18678 net.cpp:137] Memory required for data: 2331695200
I1029 11:43:58.957521 18678 layer_factory.hpp:77] Creating layer res4f_relu
I1029 11:43:58.957530 18678 net.cpp:84] Creating Layer res4f_relu
I1029 11:43:58.957533 18678 net.cpp:406] res4f_relu <- res4f
I1029 11:43:58.957541 18678 net.cpp:367] res4f_relu -> res4f (in-place)
I1029 11:43:58.958926 18678 net.cpp:122] Setting up res4f_relu
I1029 11:43:58.958936 18678 net.cpp:129] Top shape: 10 1024 15 15 (2304000)
I1029 11:43:58.958941 18678 net.cpp:137] Memory required for data: 2340911200
I1029 11:43:58.958945 18678 layer_factory.hpp:77] Creating layer res4f_res4f_relu_0_split
I1029 11:43:58.958953 18678 net.cpp:84] Creating Layer res4f_res4f_relu_0_split
I1029 11:43:58.958958 18678 net.cpp:406] res4f_res4f_relu_0_split <- res4f
I1029 11:43:58.958967 18678 net.cpp:380] res4f_res4f_relu_0_split -> res4f_res4f_relu_0_split_0
I1029 11:43:58.958978 18678 net.cpp:380] res4f_res4f_relu_0_split -> res4f_res4f_relu_0_split_1
I1029 11:43:58.959033 18678 net.cpp:122] Setting up res4f_res4f_relu_0_split
I1029 11:43:58.959040 18678 net.cpp:129] Top shape: 10 1024 15 15 (2304000)
I1029 11:43:58.959046 18678 net.cpp:129] Top shape: 10 1024 15 15 (2304000)
I1029 11:43:58.959050 18678 net.cpp:137] Memory required for data: 2359343200
I1029 11:43:58.959054 18678 layer_factory.hpp:77] Creating layer res5a_branch1
I1029 11:43:58.959069 18678 net.cpp:84] Creating Layer res5a_branch1
I1029 11:43:58.959075 18678 net.cpp:406] res5a_branch1 <- res4f_res4f_relu_0_split_0
I1029 11:43:58.959082 18678 net.cpp:380] res5a_branch1 -> res5a_branch1
I1029 11:43:58.970599 18678 net.cpp:122] Setting up res5a_branch1
I1029 11:43:58.970636 18678 net.cpp:129] Top shape: 10 2048 8 8 (1310720)
I1029 11:43:58.970641 18678 net.cpp:137] Memory required for data: 2364586080
I1029 11:43:58.970657 18678 layer_factory.hpp:77] Creating layer bn5a_branch1
I1029 11:43:58.970674 18678 net.cpp:84] Creating Layer bn5a_branch1
I1029 11:43:58.970682 18678 net.cpp:406] bn5a_branch1 <- res5a_branch1
I1029 11:43:58.970701 18678 net.cpp:367] bn5a_branch1 -> res5a_branch1 (in-place)
I1029 11:43:58.971014 18678 net.cpp:122] Setting up bn5a_branch1
I1029 11:43:58.971024 18678 net.cpp:129] Top shape: 10 2048 8 8 (1310720)
I1029 11:43:58.971029 18678 net.cpp:137] Memory required for data: 2369828960
I1029 11:43:58.971041 18678 layer_factory.hpp:77] Creating layer scale5a_branch1
I1029 11:43:58.971052 18678 net.cpp:84] Creating Layer scale5a_branch1
I1029 11:43:58.971079 18678 net.cpp:406] scale5a_branch1 <- res5a_branch1
I1029 11:43:58.971088 18678 net.cpp:367] scale5a_branch1 -> res5a_branch1 (in-place)
I1029 11:43:58.971146 18678 layer_factory.hpp:77] Creating layer scale5a_branch1
I1029 11:43:58.971331 18678 net.cpp:122] Setting up scale5a_branch1
I1029 11:43:58.971340 18678 net.cpp:129] Top shape: 10 2048 8 8 (1310720)
I1029 11:43:58.971345 18678 net.cpp:137] Memory required for data: 2375071840
I1029 11:43:58.971354 18678 layer_factory.hpp:77] Creating layer res5a_branch2a
I1029 11:43:58.971369 18678 net.cpp:84] Creating Layer res5a_branch2a
I1029 11:43:58.971375 18678 net.cpp:406] res5a_branch2a <- res4f_res4f_relu_0_split_1
I1029 11:43:58.971382 18678 net.cpp:380] res5a_branch2a -> res5a_branch2a
I1029 11:43:58.977344 18678 net.cpp:122] Setting up res5a_branch2a
I1029 11:43:58.977383 18678 net.cpp:129] Top shape: 10 512 8 8 (327680)
I1029 11:43:58.977390 18678 net.cpp:137] Memory required for data: 2376382560
I1029 11:43:58.977403 18678 layer_factory.hpp:77] Creating layer bn5a_branch2a
I1029 11:43:58.977422 18678 net.cpp:84] Creating Layer bn5a_branch2a
I1029 11:43:58.977430 18678 net.cpp:406] bn5a_branch2a <- res5a_branch2a
I1029 11:43:58.977458 18678 net.cpp:367] bn5a_branch2a -> res5a_branch2a (in-place)
I1029 11:43:58.977766 18678 net.cpp:122] Setting up bn5a_branch2a
I1029 11:43:58.977774 18678 net.cpp:129] Top shape: 10 512 8 8 (327680)
I1029 11:43:58.977778 18678 net.cpp:137] Memory required for data: 2377693280
I1029 11:43:58.977790 18678 layer_factory.hpp:77] Creating layer scale5a_branch2a
I1029 11:43:58.977803 18678 net.cpp:84] Creating Layer scale5a_branch2a
I1029 11:43:58.977808 18678 net.cpp:406] scale5a_branch2a <- res5a_branch2a
I1029 11:43:58.977845 18678 net.cpp:367] scale5a_branch2a -> res5a_branch2a (in-place)
I1029 11:43:58.977921 18678 layer_factory.hpp:77] Creating layer scale5a_branch2a
I1029 11:43:58.978088 18678 net.cpp:122] Setting up scale5a_branch2a
I1029 11:43:58.978096 18678 net.cpp:129] Top shape: 10 512 8 8 (327680)
I1029 11:43:58.978101 18678 net.cpp:137] Memory required for data: 2379004000
I1029 11:43:58.978109 18678 layer_factory.hpp:77] Creating layer res5a_branch2a_relu
I1029 11:43:58.978117 18678 net.cpp:84] Creating Layer res5a_branch2a_relu
I1029 11:43:58.978124 18678 net.cpp:406] res5a_branch2a_relu <- res5a_branch2a
I1029 11:43:58.978132 18678 net.cpp:367] res5a_branch2a_relu -> res5a_branch2a (in-place)
I1029 11:43:58.978359 18678 net.cpp:122] Setting up res5a_branch2a_relu
I1029 11:43:58.978368 18678 net.cpp:129] Top shape: 10 512 8 8 (327680)
I1029 11:43:58.978374 18678 net.cpp:137] Memory required for data: 2380314720
I1029 11:43:58.978377 18678 layer_factory.hpp:77] Creating layer res5a_branch2b
I1029 11:43:58.978392 18678 net.cpp:84] Creating Layer res5a_branch2b
I1029 11:43:58.978399 18678 net.cpp:406] res5a_branch2b <- res5a_branch2a
I1029 11:43:58.978406 18678 net.cpp:380] res5a_branch2b -> res5a_branch2b
I1029 11:43:58.990576 18678 net.cpp:122] Setting up res5a_branch2b
I1029 11:43:58.990617 18678 net.cpp:129] Top shape: 10 512 8 8 (327680)
I1029 11:43:58.990622 18678 net.cpp:137] Memory required for data: 2381625440
I1029 11:43:58.990638 18678 layer_factory.hpp:77] Creating layer bn5a_branch2b
I1029 11:43:58.990658 18678 net.cpp:84] Creating Layer bn5a_branch2b
I1029 11:43:58.990669 18678 net.cpp:406] bn5a_branch2b <- res5a_branch2b
I1029 11:43:58.990679 18678 net.cpp:367] bn5a_branch2b -> res5a_branch2b (in-place)
I1029 11:43:58.990975 18678 net.cpp:122] Setting up bn5a_branch2b
I1029 11:43:58.990984 18678 net.cpp:129] Top shape: 10 512 8 8 (327680)
I1029 11:43:58.990988 18678 net.cpp:137] Memory required for data: 2382936160
I1029 11:43:58.990999 18678 layer_factory.hpp:77] Creating layer scale5a_branch2b
I1029 11:43:58.991010 18678 net.cpp:84] Creating Layer scale5a_branch2b
I1029 11:43:58.991016 18678 net.cpp:406] scale5a_branch2b <- res5a_branch2b
I1029 11:43:58.991022 18678 net.cpp:367] scale5a_branch2b -> res5a_branch2b (in-place)
I1029 11:43:58.991078 18678 layer_factory.hpp:77] Creating layer scale5a_branch2b
I1029 11:43:58.991241 18678 net.cpp:122] Setting up scale5a_branch2b
I1029 11:43:58.991250 18678 net.cpp:129] Top shape: 10 512 8 8 (327680)
I1029 11:43:58.991253 18678 net.cpp:137] Memory required for data: 2384246880
I1029 11:43:58.991284 18678 layer_factory.hpp:77] Creating layer res5a_branch2b_relu
I1029 11:43:58.991292 18678 net.cpp:84] Creating Layer res5a_branch2b_relu
I1029 11:43:58.991297 18678 net.cpp:406] res5a_branch2b_relu <- res5a_branch2b
I1029 11:43:58.991305 18678 net.cpp:367] res5a_branch2b_relu -> res5a_branch2b (in-place)
I1029 11:43:58.991523 18678 net.cpp:122] Setting up res5a_branch2b_relu
I1029 11:43:58.991544 18678 net.cpp:129] Top shape: 10 512 8 8 (327680)
I1029 11:43:58.991550 18678 net.cpp:137] Memory required for data: 2385557600
I1029 11:43:58.991554 18678 layer_factory.hpp:77] Creating layer res5a_branch2c
I1029 11:43:58.991569 18678 net.cpp:84] Creating Layer res5a_branch2c
I1029 11:43:58.991574 18678 net.cpp:406] res5a_branch2c <- res5a_branch2b
I1029 11:43:58.991580 18678 net.cpp:380] res5a_branch2c -> res5a_branch2c
I1029 11:43:58.998073 18678 net.cpp:122] Setting up res5a_branch2c
I1029 11:43:58.998113 18678 net.cpp:129] Top shape: 10 2048 8 8 (1310720)
I1029 11:43:58.998118 18678 net.cpp:137] Memory required for data: 2390800480
I1029 11:43:58.998132 18678 layer_factory.hpp:77] Creating layer bn5a_branch2c
I1029 11:43:58.998152 18678 net.cpp:84] Creating Layer bn5a_branch2c
I1029 11:43:58.998162 18678 net.cpp:406] bn5a_branch2c <- res5a_branch2c
I1029 11:43:58.998172 18678 net.cpp:367] bn5a_branch2c -> res5a_branch2c (in-place)
I1029 11:43:58.998478 18678 net.cpp:122] Setting up bn5a_branch2c
I1029 11:43:58.998487 18678 net.cpp:129] Top shape: 10 2048 8 8 (1310720)
I1029 11:43:58.998492 18678 net.cpp:137] Memory required for data: 2396043360
I1029 11:43:58.998503 18678 layer_factory.hpp:77] Creating layer scale5a_branch2c
I1029 11:43:58.998512 18678 net.cpp:84] Creating Layer scale5a_branch2c
I1029 11:43:58.998517 18678 net.cpp:406] scale5a_branch2c <- res5a_branch2c
I1029 11:43:58.998528 18678 net.cpp:367] scale5a_branch2c -> res5a_branch2c (in-place)
I1029 11:43:58.998584 18678 layer_factory.hpp:77] Creating layer scale5a_branch2c
I1029 11:43:58.998766 18678 net.cpp:122] Setting up scale5a_branch2c
I1029 11:43:58.998775 18678 net.cpp:129] Top shape: 10 2048 8 8 (1310720)
I1029 11:43:58.998780 18678 net.cpp:137] Memory required for data: 2401286240
I1029 11:43:58.998790 18678 layer_factory.hpp:77] Creating layer res5a
I1029 11:43:58.998796 18678 net.cpp:84] Creating Layer res5a
I1029 11:43:58.998801 18678 net.cpp:406] res5a <- res5a_branch1
I1029 11:43:58.998807 18678 net.cpp:406] res5a <- res5a_branch2c
I1029 11:43:58.998817 18678 net.cpp:380] res5a -> res5a
I1029 11:43:58.998847 18678 net.cpp:122] Setting up res5a
I1029 11:43:58.998857 18678 net.cpp:129] Top shape: 10 2048 8 8 (1310720)
I1029 11:43:58.998862 18678 net.cpp:137] Memory required for data: 2406529120
I1029 11:43:58.998867 18678 layer_factory.hpp:77] Creating layer res5a_relu
I1029 11:43:58.998874 18678 net.cpp:84] Creating Layer res5a_relu
I1029 11:43:58.998879 18678 net.cpp:406] res5a_relu <- res5a
I1029 11:43:58.998885 18678 net.cpp:367] res5a_relu -> res5a (in-place)
…
I1029 11:43:59.900647 18678 net.cpp:122] Setting up res4c_relu
I1029 11:43:59.900665 18678 net.cpp:129] Top shape: 1 1024 15 15 (230400)
I1029 11:43:59.900669 18678 net.cpp:137] Memory required for data: 209207920
I1029 11:43:59.900674 18678 layer_factory.hpp:77] Creating layer res4c_res4c_relu_0_split
I1029 11:43:59.900683 18678 net.cpp:84] Creating Layer res4c_res4c_relu_0_split
I1029 11:43:59.900688 18678 net.cpp:406] res4c_res4c_relu_0_split <- res4c
I1029 11:43:59.900697 18678 net.cpp:380] res4c_res4c_relu_0_split -> res4c_res4c_relu_0_split_0
I1029 11:43:59.900709 18678 net.cpp:380] res4c_res4c_relu_0_split -> res4c_res4c_relu_0_split_1
I1029 11:43:59.900776 18678 net.cpp:122] Setting up res4c_res4c_relu_0_split
I1029 11:43:59.900785 18678 net.cpp:129] Top shape: 1 1024 15 15 (230400)
I1029 11:43:59.900791 18678 net.cpp:129] Top shape: 1 1024 15 15 (230400)
I1029 11:43:59.900795 18678 net.cpp:137] Memory required for data: 211051120
I1029 11:43:59.900800 18678 layer_factory.hpp:77] Creating layer res4d_branch2a
I1029 11:43:59.900812 18678 net.cpp:84] Creating Layer res4d_branch2a
I1029 11:43:59.900817 18678 net.cpp:406] res4d_branch2a <- res4c_res4c_relu_0_split_0
I1029 11:43:59.900826 18678 net.cpp:380] res4d_branch2a -> res4d_branch2a
I1029 11:43:59.904340 18678 net.cpp:122] Setting up res4d_branch2a
I1029 11:43:59.904376 18678 net.cpp:129] Top shape: 1 256 15 15 (57600)
I1029 11:43:59.904381 18678 net.cpp:137] Memory required for data: 211281520
I1029 11:43:59.904395 18678 layer_factory.hpp:77] Creating layer bn4d_branch2a
I1029 11:43:59.904410 18678 net.cpp:84] Creating Layer bn4d_branch2a
I1029 11:43:59.904418 18678 net.cpp:406] bn4d_branch2a <- res4d_branch2a
I1029 11:43:59.904428 18678 net.cpp:367] bn4d_branch2a -> res4d_branch2a (in-place)
I1029 11:43:59.904781 18678 net.cpp:122] Setting up bn4d_branch2a
I1029 11:43:59.904790 18678 net.cpp:129] Top shape: 1 256 15 15 (57600)
I1029 11:43:59.904795 18678 net.cpp:137] Memory required for data: 211511920
I1029 11:43:59.904806 18678 layer_factory.hpp:77] Creating layer scale4d_branch2a
I1029 11:43:59.904816 18678 net.cpp:84] Creating Layer scale4d_branch2a
I1029 11:43:59.904821 18678 net.cpp:406] scale4d_branch2a <- res4d_branch2a
I1029 11:43:59.904852 18678 net.cpp:367] scale4d_branch2a -> res4d_branch2a (in-place)
I1029 11:43:59.904924 18678 layer_factory.hpp:77] Creating layer scale4d_branch2a
I1029 11:43:59.905113 18678 net.cpp:122] Setting up scale4d_branch2a
I1029 11:43:59.905122 18678 net.cpp:129] Top shape: 1 256 15 15 (57600)
I1029 11:43:59.905127 18678 net.cpp:137] Memory required for data: 211742320
I1029 11:43:59.905134 18678 layer_factory.hpp:77] Creating layer res4d_branch2a_relu
I1029 11:43:59.905144 18678 net.cpp:84] Creating Layer res4d_branch2a_relu
I1029 11:43:59.905149 18678 net.cpp:406] res4d_branch2a_relu <- res4d_branch2a
I1029 11:43:59.905156 18678 net.cpp:367] res4d_branch2a_relu -> res4d_branch2a (in-place)
I1029 11:43:59.905400 18678 net.cpp:122] Setting up res4d_branch2a_relu
I1029 11:43:59.905411 18678 net.cpp:129] Top shape: 1 256 15 15 (57600)
I1029 11:43:59.905414 18678 net.cpp:137] Memory required for data: 211972720
I1029 11:43:59.905419 18678 layer_factory.hpp:77] Creating layer res4d_branch2b
I1029 11:43:59.905431 18678 net.cpp:84] Creating Layer res4d_branch2b
I1029 11:43:59.905436 18678 net.cpp:406] res4d_branch2b <- res4d_branch2a
I1029 11:43:59.905447 18678 net.cpp:380] res4d_branch2b -> res4d_branch2b
I1029 11:43:59.911947 18678 net.cpp:122] Setting up res4d_branch2b
I1029 11:43:59.911988 18678 net.cpp:129] Top shape: 1 256 15 15 (57600)
I1029 11:43:59.911993 18678 net.cpp:137] Memory required for data: 212203120
I1029 11:43:59.912009 18678 layer_factory.hpp:77] Creating layer bn4d_branch2b
I1029 11:43:59.912024 18678 net.cpp:84] Creating Layer bn4d_branch2b
I1029 11:43:59.912034 18678 net.cpp:406] bn4d_branch2b <- res4d_branch2b
I1029 11:43:59.912045 18678 net.cpp:367] bn4d_branch2b -> res4d_branch2b (in-place)
I1029 11:43:59.912422 18678 net.cpp:122] Setting up bn4d_branch2b
I1029 11:43:59.912432 18678 net.cpp:129] Top shape: 1 256 15 15 (57600)
I1029 11:43:59.912437 18678 net.cpp:137] Memory required for data: 212433520
I1029 11:43:59.912451 18678 layer_factory.hpp:77] Creating layer scale4d_branch2b
I1029 11:43:59.912459 18678 net.cpp:84] Creating Layer scale4d_branch2b
I1029 11:43:59.912464 18678 net.cpp:406] scale4d_branch2b <- res4d_branch2b
I1029 11:43:59.912472 18678 net.cpp:367] scale4d_branch2b -> res4d_branch2b (in-place)
I1029 11:43:59.912539 18678 layer_factory.hpp:77] Creating layer scale4d_branch2b
I1029 11:43:59.912720 18678 net.cpp:122] Setting up scale4d_branch2b
I1029 11:43:59.912729 18678 net.cpp:129] Top shape: 1 256 15 15 (57600)
I1029 11:43:59.912734 18678 net.cpp:137] Memory required for data: 212663920
I1029 11:43:59.912742 18678 layer_factory.hpp:77] Creating layer res4d_branch2b_relu
I1029 11:43:59.912751 18678 net.cpp:84] Creating Layer res4d_branch2b_relu
I1029 11:43:59.912757 18678 net.cpp:406] res4d_branch2b_relu <- res4d_branch2b
I1029 11:43:59.912763 18678 net.cpp:367] res4d_branch2b_relu -> res4d_branch2b (in-place)
I1029 11:43:59.913058 18678 net.cpp:122] Setting up res4d_branch2b_relu
I1029 11:43:59.913067 18678 net.cpp:129] Top shape: 1 256 15 15 (57600)
I1029 11:43:59.913071 18678 net.cpp:137] Memory required for data: 212894320
I1029 11:43:59.913076 18678 layer_factory.hpp:77] Creating layer res4d_branch2c
I1029 11:43:59.913089 18678 net.cpp:84] Creating Layer res4d_branch2c
I1029 11:43:59.913094 18678 net.cpp:406] res4d_branch2c <- res4d_branch2b
I1029 11:43:59.913106 18678 net.cpp:380] res4d_branch2c -> res4d_branch2c
I1029 11:43:59.917238 18678 net.cpp:122] Setting up res4d_branch2c
I1029 11:43:59.917275 18678 net.cpp:129] Top shape: 1 1024 15 15 (230400)
I1029 11:43:59.917280 18678 net.cpp:137] Memory required for data: 213815920
I1029 11:43:59.917295 18678 layer_factory.hpp:77] Creating layer bn4d_branch2c
I1029 11:43:59.917315 18678 net.cpp:84] Creating Layer bn4d_branch2c
I1029 11:43:59.917323 18678 net.cpp:406] bn4d_branch2c <- res4d_branch2c
I1029 11:43:59.917335 18678 net.cpp:367] bn4d_branch2c -> res4d_branch2c (in-place)
I1029 11:43:59.917685 18678 net.cpp:122] Setting up bn4d_branch2c
I1029 11:43:59.917695 18678 net.cpp:129] Top shape: 1 1024 15 15 (230400)
I1029 11:43:59.917721 18678 net.cpp:137] Memory required for data: 214737520
I1029 11:43:59.917733 18678 layer_factory.hpp:77] Creating layer scale4d_branch2c
I1029 11:43:59.917745 18678 net.cpp:84] Creating Layer scale4d_branch2c
I1029 11:43:59.917753 18678 net.cpp:406] scale4d_branch2c <- res4d_branch2c
I1029 11:43:59.917760 18678 net.cpp:367] scale4d_branch2c -> res4d_branch2c (in-place)
I1029 11:43:59.917850 18678 layer_factory.hpp:77] Creating layer scale4d_branch2c
I1029 11:43:59.918052 18678 net.cpp:122] Setting up scale4d_branch2c
I1029 11:43:59.918061 18678 net.cpp:129] Top shape: 1 1024 15 15 (230400)
I1029 11:43:59.918066 18678 net.cpp:137] Memory required for data: 215659120
I1029 11:43:59.918073 18678 layer_factory.hpp:77] Creating layer res4d
I1029 11:43:59.918081 18678 net.cpp:84] Creating Layer res4d
I1029 11:43:59.918087 18678 net.cpp:406] res4d <- res4c_res4c_relu_0_split_1
I1029 11:43:59.918092 18678 net.cpp:406] res4d <- res4d_branch2c
I1029 11:43:59.918102 18678 net.cpp:380] res4d -> res4d
I1029 11:43:59.918138 18678 net.cpp:122] Setting up res4d
I1029 11:43:59.918148 18678 net.cpp:129] Top shape: 1 1024 15 15 (230400)
I1029 11:43:59.918151 18678 net.cpp:137] Memory required for data: 216580720
I1029 11:43:59.918155 18678 layer_factory.hpp:77] Creating layer res4d_relu
I1029 11:43:59.918164 18678 net.cpp:84] Creating Layer res4d_relu
I1029 11:43:59.918167 18678 net.cpp:406] res4d_relu <- res4d
I1029 11:43:59.918174 18678 net.cpp:367] res4d_relu -> res4d (in-place)
I1029 11:43:59.918412 18678 net.cpp:122] Setting up res4d_relu
I1029 11:43:59.918421 18678 net.cpp:129] Top shape: 1 1024 15 15 (230400)
I1029 11:43:59.918426 18678 net.cpp:137] Memory required for data: 217502320
I1029 11:43:59.918431 18678 layer_factory.hpp:77] Creating layer res4d_res4d_relu_0_split
I1029 11:43:59.918454 18678 net.cpp:84] Creating Layer res4d_res4d_relu_0_split
I1029 11:43:59.918462 18678 net.cpp:406] res4d_res4d_relu_0_split <- res4d
I1029 11:43:59.918470 18678 net.cpp:380] res4d_res4d_relu_0_split -> res4d_res4d_relu_0_split_0
I1029 11:43:59.918479 18678 net.cpp:380] res4d_res4d_relu_0_split -> res4d_res4d_relu_0_split_1
I1029 11:43:59.918540 18678 net.cpp:122] Setting up res4d_res4d_relu_0_split
I1029 11:43:59.918550 18678 net.cpp:129] Top shape: 1 1024 15 15 (230400)
I1029 11:43:59.918556 18678 net.cpp:129] Top shape: 1 1024 15 15 (230400)
I1029 11:43:59.918561 18678 net.cpp:137] Memory required for data: 219345520
I1029 11:43:59.918565 18678 layer_factory.hpp:77] Creating layer res4e_branch2a
I1029 11:43:59.918576 18678 net.cpp:84] Creating Layer res4e_branch2a
I1029 11:43:59.918581 18678 net.cpp:406] res4e_branch2a <- res4d_res4d_relu_0_split_0
I1029 11:43:59.918587 18678 net.cpp:380] res4e_branch2a -> res4e_branch2a
I1029 11:43:59.921228 18678 net.cpp:122] Setting up res4e_branch2a
I1029 11:43:59.921259 18678 net.cpp:129] Top shape: 1 256 15 15 (57600)
I1029 11:43:59.921265 18678 net.cpp:137] Memory required for data: 219575920
I1029 11:43:59.921277 18678 layer_factory.hpp:77] Creating layer bn4e_branch2a
I1029 11:43:59.921293 18678 net.cpp:84] Creating Layer bn4e_branch2a
I1029 11:43:59.921300 18678 net.cpp:406] bn4e_branch2a <- res4e_branch2a
I1029 11:43:59.921313 18678 net.cpp:367] bn4e_branch2a -> res4e_branch2a (in-place)
I1029 11:43:59.921651 18678 net.cpp:122] Setting up bn4e_branch2a
I1029 11:43:59.921660 18678 net.cpp:129] Top shape: 1 256 15 15 (57600)
I1029 11:43:59.921665 18678 net.cpp:137] Memory required for data: 219806320
I1029 11:43:59.921676 18678 layer_factory.hpp:77] Creating layer scale4e_branch2a
I1029 11:43:59.921686 18678 net.cpp:84] Creating Layer scale4e_branch2a
I1029 11:43:59.921690 18678 net.cpp:406] scale4e_branch2a <- res4e_branch2a
I1029 11:43:59.921700 18678 net.cpp:367] scale4e_branch2a -> res4e_branch2a (in-place)
I1029 11:43:59.921763 18678 layer_factory.hpp:77] Creating layer scale4e_branch2a
I1029 11:43:59.921962 18678 net.cpp:122] Setting up scale4e_branch2a
I1029 11:43:59.921973 18678 net.cpp:129] Top shape: 1 256 15 15 (57600)
I1029 11:43:59.921978 18678 net.cpp:137] Memory required for data: 220036720
I1029 11:43:59.922004 18678 layer_factory.hpp:77] Creating layer res4e_branch2a_relu
I1029 11:43:59.922014 18678 net.cpp:84] Creating Layer res4e_branch2a_relu
I1029 11:43:59.922021 18678 net.cpp:406] res4e_branch2a_relu <- res4e_branch2a
I1029 11:43:59.922029 18678 net.cpp:367] res4e_branch2a_relu -> res4e_branch2a (in-place)
I1029 11:43:59.922278 18678 net.cpp:122] Setting up res4e_branch2a_relu
I1029 11:43:59.922288 18678 net.cpp:129] Top shape: 1 256 15 15 (57600)
I1029 11:43:59.922292 18678 net.cpp:137] Memory required for data: 220267120
I1029 11:43:59.922297 18678 layer_factory.hpp:77] Creating layer res4e_branch2b
I1029 11:43:59.922309 18678 net.cpp:84] Creating Layer res4e_branch2b
I1029 11:43:59.922315 18678 net.cpp:406] res4e_branch2b <- res4e_branch2a
I1029 11:43:59.922324 18678 net.cpp:380] res4e_branch2b -> res4e_branch2b
I1029 11:43:59.927403 18678 net.cpp:122] Setting up res4e_branch2b
I1029 11:43:59.927443 18678 net.cpp:129] Top shape: 1 256 15 15 (57600)
I1029 11:43:59.927449 18678 net.cpp:137] Memory required for data: 220497520
I1029 11:43:59.927464 18678 layer_factory.hpp:77] Creating layer bn4e_branch2b
I1029 11:43:59.927482 18678 net.cpp:84] Creating Layer bn4e_branch2b
I1029 11:43:59.927492 18678 net.cpp:406] bn4e_branch2b <- res4e_branch2b
I1029 11:43:59.927506 18678 net.cpp:367] bn4e_branch2b -> res4e_branch2b (in-place)
I1029 11:43:59.927853 18678 net.cpp:122] Setting up bn4e_branch2b
I1029 11:43:59.927863 18678 net.cpp:129] Top shape: 1 256 15 15 (57600)
I1029 11:43:59.927867 18678 net.cpp:137] Memory required for data: 220727920
I1029 11:43:59.927878 18678 layer_factory.hpp:77] Creating layer scale4e_branch2b
I1029 11:43:59.927887 18678 net.cpp:84] Creating Layer scale4e_branch2b
I1029 11:43:59.927893 18678 net.cpp:406] scale4e_branch2b <- res4e_branch2b
I1029 11:43:59.927901 18678 net.cpp:367] scale4e_branch2b -> res4e_branch2b (in-place)
I1029 11:43:59.927964 18678 layer_factory.hpp:77] Creating layer scale4e_branch2b
I1029 11:43:59.928148 18678 net.cpp:122] Setting up scale4e_branch2b
I1029 11:43:59.928158 18678 net.cpp:129] Top shape: 1 256 15 15 (57600)
I1029 11:43:59.928162 18678 net.cpp:137] Memory required for data: 220958320
I1029 11:43:59.928171 18678 layer_factory.hpp:77] Creating layer res4e_branch2b_relu
I1029 11:43:59.928179 18678 net.cpp:84] Creating Layer res4e_branch2b_relu
I1029 11:43:59.928184 18678 net.cpp:406] res4e_branch2b_relu <- res4e_branch2b
I1029 11:43:59.928190 18678 net.cpp:367] res4e_branch2b_relu -> res4e_branch2b (in-place)
I1029 11:43:59.928447 18678 net.cpp:122] Setting up res4e_branch2b_relu
I1029 11:43:59.928455 18678 net.cpp:129] Top shape: 1 256 15 15 (57600)
I1029 11:43:59.928459 18678 net.cpp:137] Memory required for data: 221188720
I1029 11:43:59.928464 18678 layer_factory.hpp:77] Creating layer res4e_branch2c
I1029 11:43:59.928478 18678 net.cpp:84] Creating Layer res4e_branch2c
I1029 11:43:59.928483 18678 net.cpp:406] res4e_branch2c <- res4e_branch2b
I1029 11:43:59.928491 18678 net.cpp:380] res4e_branch2c -> res4e_branch2c
I1029 11:43:59.932096 18678 net.cpp:122] Setting up res4e_branch2c
I1029 11:43:59.932143 18678 net.cpp:129] Top shape: 1 1024 15 15 (230400)
I1029 11:43:59.932149 18678 net.cpp:137] Memory required for data: 222110320
I1029 11:43:59.932163 18678 layer_factory.hpp:77] Creating layer bn4e_branch2c
I1029 11:43:59.932180 18678 net.cpp:84] Creating Layer bn4e_branch2c
I1029 11:43:59.932189 18678 net.cpp:406] bn4e_branch2c <- res4e_branch2c
I1029 11:43:59.932204 18678 net.cpp:367] bn4e_branch2c -> res4e_branch2c (in-place)
I1029 11:43:59.932566 18678 net.cpp:122] Setting up bn4e_branch2c
I1029 11:43:59.932577 18678 net.cpp:129] Top shape: 1 1024 15 15 (230400)
I1029 11:43:59.932582 18678 net.cpp:137] Memory required for data: 223031920
I1029 11:43:59.932593 18678 layer_factory.hpp:77] Creating layer scale4e_branch2c
I1029 11:43:59.932602 18678 net.cpp:84] Creating Layer scale4e_branch2c
I1029 11:43:59.932607 18678 net.cpp:406] scale4e_branch2c <- res4e_branch2c
I1029 11:43:59.932615 18678 net.cpp:367] scale4e_branch2c -> res4e_branch2c (in-place)
I1029 11:43:59.932701 18678 layer_factory.hpp:77] Creating layer scale4e_branch2c
I1029 11:43:59.932898 18678 net.cpp:122] Setting up scale4e_branch2c
I1029 11:43:59.932906 18678 net.cpp:129] Top shape: 1 1024 15 15 (230400)
I1029 11:43:59.932910 18678 net.cpp:137] Memory required for data: 223953520
I1029 11:43:59.932919 18678 layer_factory.hpp:77] Creating layer res4e
I1029 11:43:59.932929 18678 net.cpp:84] Creating Layer res4e
I1029 11:43:59.932934 18678 net.cpp:406] res4e <- res4d_res4d_relu_0_split_1
I1029 11:43:59.932941 18678 net.cpp:406] res4e <- res4e_branch2c
I1029 11:43:59.932948 18678 net.cpp:380] res4e -> res4e
I1029 11:43:59.932984 18678 net.cpp:122] Setting up res4e
I1029 11:43:59.932992 18678 net.cpp:129] Top shape: 1 1024 15 15 (230400)
I1029 11:43:59.932996 18678 net.cpp:137] Memory required for data: 224875120
I1029 11:43:59.933001 18678 layer_factory.hpp:77] Creating layer res4e_relu
I1029 11:43:59.933008 18678 net.cpp:84] Creating Layer res4e_relu
I1029 11:43:59.933013 18678 net.cpp:406] res4e_relu <- res4e
I1029 11:43:59.933022 18678 net.cpp:367] res4e_relu -> res4e (in-place)
I1029 11:43:59.933892 18678 net.cpp:122] Setting up res4e_relu
I1029 11:43:59.933907 18678 net.cpp:129] Top shape: 1 1024 15 15 (230400)
I1029 11:43:59.933912 18678 net.cpp:137] Memory required for data: 225796720
I1029 11:43:59.933917 18678 layer_factory.hpp:77] Creating layer res4e_res4e_relu_0_split
I1029 11:43:59.933926 18678 net.cpp:84] Creating Layer res4e_res4e_relu_0_split
I1029 11:43:59.933933 18678 net.cpp:406] res4e_res4e_relu_0_split <- res4e
I1029 11:43:59.933943 18678 net.cpp:380] res4e_res4e_relu_0_split -> res4e_res4e_relu_0_split_0
I1029 11:43:59.933954 18678 net.cpp:380] res4e_res4e_relu_0_split -> res4e_res4e_relu_0_split_1
I1029 11:43:59.934031 18678 net.cpp:122] Setting up res4e_res4e_relu_0_split
I1029 11:43:59.934038 18678 net.cpp:129] Top shape: 1 1024 15 15 (230400)
I1029 11:43:59.934046 18678 net.cpp:129] Top shape: 1 1024 15 15 (230400)
I1029 11:43:59.934049 18678 net.cpp:137] Memory required for data: 227639920
I1029 11:43:59.934054 18678 layer_factory.hpp:77] Creating layer res4f_branch2a
I1029 11:43:59.934068 18678 net.cpp:84] Creating Layer res4f_branch2a
I1029 11:43:59.934073 18678 net.cpp:406] res4f_branch2a <- res4e_res4e_relu_0_split_0
I1029 11:43:59.934082 18678 net.cpp:380] res4f_branch2a -> res4f_branch2a
I1029 11:43:59.940644 18678 net.cpp:122] Setting up res4f_branch2a
I1029 11:43:59.940686 18678 net.cpp:129] Top shape: 1 256 15 15 (57600)
I1029 11:43:59.940691 18678 net.cpp:137] Memory required for data: 227870320
I1029 11:43:59.940708 18678 layer_factory.hpp:77] Creating layer bn4f_branch2a
I1029 11:43:59.940728 18678 net.cpp:84] Creating Layer bn4f_branch2a
I1029 11:43:59.940738 18678 net.cpp:406] bn4f_branch2a <- res4f_branch2a
I1029 11:43:59.940752 18678 net.cpp:367] bn4f_branch2a -> res4f_branch2a (in-place)
I1029 11:43:59.941098 18678 net.cpp:122] Setting up bn4f_branch2a
I1029 11:43:59.941107 18678 net.cpp:129] Top shape: 1 256 15 15 (57600)
I1029 11:43:59.941112 18678 net.cpp:137] Memory required for data: 228100720
I1029 11:43:59.941123 18678 layer_factory.hpp:77] Creating layer scale4f_branch2a
I1029 11:43:59.941133 18678 net.cpp:84] Creating Layer scale4f_branch2a
I1029 11:43:59.941138 18678 net.cpp:406] scale4f_branch2a <- res4f_branch2a
I1029 11:43:59.941148 18678 net.cpp:367] scale4f_branch2a -> res4f_branch2a (in-place)
I1029 11:43:59.941213 18678 layer_factory.hpp:77] Creating layer scale4f_branch2a
I1029 11:43:59.941408 18678 net.cpp:122] Setting up scale4f_branch2a
I1029 11:43:59.941419 18678 net.cpp:129] Top shape: 1 256 15 15 (57600)
I1029 11:43:59.941424 18678 net.cpp:137] Memory required for data: 228331120
I1029 11:43:59.941432 18678 layer_factory.hpp:77] Creating layer res4f_branch2a_relu
I1029 11:43:59.941442 18678 net.cpp:84] Creating Layer res4f_branch2a_relu
I1029 11:43:59.941447 18678 net.cpp:406] res4f_branch2a_relu <- res4f_branch2a
I1029 11:43:59.941453 18678 net.cpp:367] res4f_branch2a_relu -> res4f_branch2a (in-place)
I1029 11:43:59.942597 18678 net.cpp:122] Setting up res4f_branch2a_relu
I1029 11:43:59.942607 18678 net.cpp:129] Top shape: 1 256 15 15 (57600)
I1029 11:43:59.942612 18678 net.cpp:137] Memory required for data: 228561520
I1029 11:43:59.942617 18678 layer_factory.hpp:77] Creating layer res4f_branch2b
I1029 11:43:59.942631 18678 net.cpp:84] Creating Layer res4f_branch2b
I1029 11:43:59.942636 18678 net.cpp:406] res4f_branch2b <- res4f_branch2a
I1029 11:43:59.942648 18678 net.cpp:380] res4f_branch2b -> res4f_branch2b
I1029 11:43:59.953090 18678 net.cpp:122] Setting up res4f_branch2b
I1029 11:43:59.953136 18678 net.cpp:129] Top shape: 1 256 15 15 (57600)
I1029 11:43:59.953142 18678 net.cpp:137] Memory required for data: 228791920
I1029 11:43:59.953158 18678 layer_factory.hpp:77] Creating layer bn4f_branch2b
I1029 11:43:59.953178 18678 net.cpp:84] Creating Layer bn4f_branch2b
I1029 11:43:59.953187 18678 net.cpp:406] bn4f_branch2b <- res4f_branch2b
I1029 11:43:59.953202 18678 net.cpp:367] bn4f_branch2b -> res4f_branch2b (in-place)
I1029 11:43:59.953605 18678 net.cpp:122] Setting up bn4f_branch2b
I1029 11:43:59.953616 18678 net.cpp:129] Top shape: 1 256 15 15 (57600)
I1029 11:43:59.953621 18678 net.cpp:137] Memory required for data: 229022320
I1029 11:43:59.953635 18678 layer_factory.hpp:77] Creating layer scale4f_branch2b
I1029 11:43:59.953645 18678 net.cpp:84] Creating Layer scale4f_branch2b
I1029 11:43:59.953651 18678 net.cpp:406] scale4f_branch2b <- res4f_branch2b
I1029 11:43:59.953660 18678 net.cpp:367] scale4f_branch2b -> res4f_branch2b (in-place)
I1029 11:43:59.953724 18678 layer_factory.hpp:77] Creating layer scale4f_branch2b
I1029 11:43:59.953954 18678 net.cpp:122] Setting up scale4f_branch2b
I1029 11:43:59.953964 18678 net.cpp:129] Top shape: 1 256 15 15 (57600)
I1029 11:43:59.953969 18678 net.cpp:137] Memory required for data: 229252720
I1029 11:43:59.953977 18678 layer_factory.hpp:77] Creating layer res4f_branch2b_relu
I1029 11:43:59.953986 18678 net.cpp:84] Creating Layer res4f_branch2b_relu
I1029 11:43:59.953991 18678 net.cpp:406] res4f_branch2b_relu <- res4f_branch2b
I1029 11:43:59.953997 18678 net.cpp:367] res4f_branch2b_relu -> res4f_branch2b (in-place)
I1029 11:43:59.954715 18678 net.cpp:122] Setting up res4f_branch2b_relu
I1029 11:43:59.954726 18678 net.cpp:129] Top shape: 1 256 15 15 (57600)
I1029 11:43:59.954730 18678 net.cpp:137] Memory required for data: 229483120
I1029 11:43:59.954735 18678 layer_factory.hpp:77] Creating layer res4f_branch2c
I1029 11:43:59.954751 18678 net.cpp:84] Creating Layer res4f_branch2c
I1029 11:43:59.954756 18678 net.cpp:406] res4f_branch2c <- res4f_branch2b
I1029 11:43:59.954766 18678 net.cpp:380] res4f_branch2c -> res4f_branch2c
I1029 11:43:59.961877 18678 net.cpp:122] Setting up res4f_branch2c
I1029 11:43:59.961921 18678 net.cpp:129] Top shape: 1 1024 15 15 (230400)
I1029 11:43:59.961927 18678 net.cpp:137] Memory required for data: 230404720
I1029 11:43:59.961943 18678 layer_factory.hpp:77] Creating layer bn4f_branch2c
I1029 11:43:59.961961 18678 net.cpp:84] Creating Layer bn4f_branch2c
I1029 11:43:59.961974 18678 net.cpp:406] bn4f_branch2c <- res4f_branch2c
I1029 11:43:59.961987 18678 net.cpp:367] bn4f_branch2c -> res4f_branch2c (in-place)
I1029 11:43:59.962365 18678 net.cpp:122] Setting up bn4f_branch2c
I1029 11:43:59.962376 18678 net.cpp:129] Top shape: 1 1024 15 15 (230400)
I1029 11:43:59.962381 18678 net.cpp:137] Memory required for data: 231326320
I1029 11:43:59.962466 18678 layer_factory.hpp:77] Creating layer scale4f_branch2c
I1029 11:43:59.962477 18678 net.cpp:84] Creating Layer scale4f_branch2c
I1029 11:43:59.962482 18678 net.cpp:406] scale4f_branch2c <- res4f_branch2c
I1029 11:43:59.962491 18678 net.cpp:367] scale4f_branch2c -> res4f_branch2c (in-place)
I1029 11:43:59.962551 18678 layer_factory.hpp:77] Creating layer scale4f_branch2c
I1029 11:43:59.962754 18678 net.cpp:122] Setting up scale4f_branch2c
I1029 11:43:59.962764 18678 net.cpp:129] Top shape: 1 1024 15 15 (230400)
I1029 11:43:59.962767 18678 net.cpp:137] Memory required for data: 232247920
I1029 11:43:59.962801 18678 layer_factory.hpp:77] Creating layer res4f
I1029 11:43:59.962812 18678 net.cpp:84] Creating Layer res4f
I1029 11:43:59.962818 18678 net.cpp:406] res4f <- res4e_res4e_relu_0_split_1
I1029 11:43:59.962824 18678 net.cpp:406] res4f <- res4f_branch2c
I1029 11:43:59.962834 18678 net.cpp:380] res4f -> res4f
I1029 11:43:59.962872 18678 net.cpp:122] Setting up res4f
I1029 11:43:59.962880 18678 net.cpp:129] Top shape: 1 1024 15 15 (230400)
I1029 11:43:59.962884 18678 net.cpp:137] Memory required for data: 233169520
I1029 11:43:59.962889 18678 layer_factory.hpp:77] Creating layer res4f_relu
I1029 11:43:59.962898 18678 net.cpp:84] Creating Layer res4f_relu
I1029 11:43:59.962903 18678 net.cpp:406] res4f_relu <- res4f
I1029 11:43:59.962911 18678 net.cpp:367] res4f_relu -> res4f (in-place)
I1029 11:43:59.963817 18678 net.cpp:122] Setting up res4f_relu
I1029 11:43:59.963827 18678 net.cpp:129] Top shape: 1 1024 15 15 (230400)
I1029 11:43:59.963832 18678 net.cpp:137] Memory required for data: 234091120
I1029 11:43:59.963837 18678 layer_factory.hpp:77] Creating layer res4f_res4f_relu_0_split
I1029 11:43:59.963846 18678 net.cpp:84] Creating Layer res4f_res4f_relu_0_split
I1029 11:43:59.963851 18678 net.cpp:406] res4f_res4f_relu_0_split <- res4f
I1029 11:43:59.963858 18678 net.cpp:380] res4f_res4f_relu_0_split -> res4f_res4f_relu_0_split_0
I1029 11:43:59.963867 18678 net.cpp:380] res4f_res4f_relu_0_split -> res4f_res4f_relu_0_split_1
I1029 11:43:59.963929 18678 net.cpp:122] Setting up res4f_res4f_relu_0_split
I1029 11:43:59.963937 18678 net.cpp:129] Top shape: 1 1024 15 15 (230400)
I1029 11:43:59.963944 18678 net.cpp:129] Top shape: 1 1024 15 15 (230400)
I1029 11:43:59.963948 18678 net.cpp:137] Memory required for data: 235934320
I1029 11:43:59.963953 18678 layer_factory.hpp:77] Creating layer res5a_branch1
I1029 11:43:59.963968 18678 net.cpp:84] Creating Layer res5a_branch1
I1029 11:43:59.963973 18678 net.cpp:406] res5a_branch1 <- res4f_res4f_relu_0_split_0
I1029 11:43:59.963981 18678 net.cpp:380] res5a_branch1 -> res5a_branch1
I1029 11:43:59.979106 18678 net.cpp:122] Setting up res5a_branch1
I1029 11:43:59.979151 18678 net.cpp:129] Top shape: 1 2048 8 8 (131072)
I1029 11:43:59.979157 18678 net.cpp:137] Memory required for data: 236458608
I1029 11:43:59.979172 18678 layer_factory.hpp:77] Creating layer bn5a_branch1
I1029 11:43:59.979195 18678 net.cpp:84] Creating Layer bn5a_branch1
I1029 11:43:59.979205 18678 net.cpp:406] bn5a_branch1 <- res5a_branch1
I1029 11:43:59.979218 18678 net.cpp:367] bn5a_branch1 -> res5a_branch1 (in-place)
I1029 11:43:59.979622 18678 net.cpp:122] Setting up bn5a_branch1
I1029 11:43:59.979631 18678 net.cpp:129] Top shape: 1 2048 8 8 (131072)
I1029 11:43:59.979636 18678 net.cpp:137] Memory required for data: 236982896
I1029 11:43:59.979648 18678 layer_factory.hpp:77] Creating layer scale5a_branch1
I1029 11:43:59.979660 18678 net.cpp:84] Creating Layer scale5a_branch1
I1029 11:43:59.979665 18678 net.cpp:406] scale5a_branch1 <- res5a_branch1
I1029 11:43:59.979672 18678 net.cpp:367] scale5a_branch1 -> res5a_branch1 (in-place)
I1029 11:43:59.979737 18678 layer_factory.hpp:77] Creating layer scale5a_branch1
I1029 11:43:59.979940 18678 net.cpp:122] Setting up scale5a_branch1
I1029 11:43:59.979949 18678 net.cpp:129] Top shape: 1 2048 8 8 (131072)
I1029 11:43:59.979954 18678 net.cpp:137] Memory required for data: 237507184
I1029 11:43:59.979962 18678 layer_factory.hpp:77] Creating layer res5a_branch2a
I1029 11:43:59.979975 18678 net.cpp:84] Creating Layer res5a_branch2a
I1029 11:43:59.979981 18678 net.cpp:406] res5a_branch2a <- res4f_res4f_relu_0_split_1
I1029 11:43:59.979992 18678 net.cpp:380] res5a_branch2a -> res5a_branch2a
I1029 11:43:59.988962 18678 net.cpp:122] Setting up res5a_branch2a
I1029 11:43:59.989012 18678 net.cpp:129] Top shape: 1 512 8 8 (32768)
I1029 11:43:59.989017 18678 net.cpp:137] Memory required for data: 237638256
I1029 11:43:59.989032 18678 layer_factory.hpp:77] Creating layer bn5a_branch2a
I1029 11:43:59.989050 18678 net.cpp:84] Creating Layer bn5a_branch2a
I1029 11:43:59.989059 18678 net.cpp:406] bn5a_branch2a <- res5a_branch2a
I1029 11:43:59.989102 18678 net.cpp:367] bn5a_branch2a -> res5a_branch2a (in-place)
I1029 11:43:59.989511 18678 net.cpp:122] Setting up bn5a_branch2a
I1029 11:43:59.989523 18678 net.cpp:129] Top shape: 1 512 8 8 (32768)
I1029 11:43:59.989528 18678 net.cpp:137] Memory required for data: 237769328
I1029 11:43:59.989542 18678 layer_factory.hpp:77] Creating layer scale5a_branch2a
I1029 11:43:59.989554 18678 net.cpp:84] Creating Layer scale5a_branch2a
I1029 11:43:59.989562 18678 net.cpp:406] scale5a_branch2a <- res5a_branch2a
I1029 11:43:59.989568 18678 net.cpp:367] scale5a_branch2a -> res5a_branch2a (in-place)
I1029 11:43:59.989634 18678 layer_factory.hpp:77] Creating layer scale5a_branch2a
I1029 11:43:59.989882 18678 net.cpp:122] Setting up scale5a_branch2a
I1029 11:43:59.989893 18678 net.cpp:129] Top shape: 1 512 8 8 (32768)
I1029 11:43:59.989897 18678 net.cpp:137] Memory required for data: 237900400
I1029 11:43:59.989907 18678 layer_factory.hpp:77] Creating layer res5a_branch2a_relu
I1029 11:43:59.989917 18678 net.cpp:84] Creating Layer res5a_branch2a_relu
I1029 11:43:59.989923 18678 net.cpp:406] res5a_branch2a_relu <- res5a_branch2a
I1029 11:43:59.989929 18678 net.cpp:367] res5a_branch2a_relu -> res5a_branch2a (in-place)
I1029 11:43:59.991103 18678 net.cpp:122] Setting up res5a_branch2a_relu
I1029 11:43:59.991119 18678 net.cpp:129] Top shape: 1 512 8 8 (32768)
I1029 11:43:59.991124 18678 net.cpp:137] Memory required for data: 238031472
I1029 11:43:59.991129 18678 layer_factory.hpp:77] Creating layer res5a_branch2b
I1029 11:43:59.991144 18678 net.cpp:84] Creating Layer res5a_branch2b
I1029 11:43:59.991150 18678 net.cpp:406] res5a_branch2b <- res5a_branch2a
I1029 11:43:59.991159 18678 net.cpp:380] res5a_branch2b -> res5a_branch2b
I1029 11:44:00.006806 18678 net.cpp:122] Setting up res5a_branch2b
I1029 11:44:00.006850 18678 net.cpp:129] Top shape: 1 512 8 8 (32768)
I1029 11:44:00.006856 18678 net.cpp:137] Memory required for data: 238162544
I1029 11:44:00.006872 18678 layer_factory.hpp:77] Creating layer bn5a_branch2b
I1029 11:44:00.006892 18678 net.cpp:84] Creating Layer bn5a_branch2b
I1029 11:44:00.006902 18678 net.cpp:406] bn5a_branch2b <- res5a_branch2b
I1029 11:44:00.006918 18678 net.cpp:367] bn5a_branch2b -> res5a_branch2b (in-place)
I1029 11:44:00.007305 18678 net.cpp:122] Setting up bn5a_branch2b
I1029 11:44:00.007314 18678 net.cpp:129] Top shape: 1 512 8 8 (32768)
I1029 11:44:00.007319 18678 net.cpp:137] Memory required for data: 238293616
I1029 11:44:00.007331 18678 layer_factory.hpp:77] Creating layer scale5a_branch2b
I1029 11:44:00.007340 18678 net.cpp:84] Creating Layer scale5a_branch2b
I1029 11:44:00.007345 18678 net.cpp:406] scale5a_branch2b <- res5a_branch2b
I1029 11:44:00.007352 18678 net.cpp:367] scale5a_branch2b -> res5a_branch2b (in-place)
I1029 11:44:00.007416 18678 layer_factory.hpp:77] Creating layer scale5a_branch2b
I1029 11:44:00.007619 18678 net.cpp:122] Setting up scale5a_branch2b
I1029 11:44:00.007630 18678 net.cpp:129] Top shape: 1 512 8 8 (32768)
I1029 11:44:00.007635 18678 net.cpp:137] Memory required for data: 238424688
I1029 11:44:00.007644 18678 layer_factory.hpp:77] Creating layer res5a_branch2b_relu
I1029 11:44:00.007653 18678 net.cpp:84] Creating Layer res5a_branch2b_relu
I1029 11:44:00.007658 18678 net.cpp:406] res5a_branch2b_relu <- res5a_branch2b
I1029 11:44:00.007665 18678 net.cpp:367] res5a_branch2b_relu -> res5a_branch2b (in-place)
I1029 11:44:00.008795 18678 net.cpp:122] Setting up res5a_branch2b_relu
I1029 11:44:00.008805 18678 net.cpp:129] Top shape: 1 512 8 8 (32768)
I1029 11:44:00.008810 18678 net.cpp:137] Memory required for data: 238555760
I1029 11:44:00.008816 18678 layer_factory.hpp:77] Creating layer res5a_branch2c
I1029 11:44:00.008828 18678 net.cpp:84] Creating Layer res5a_branch2c
I1029 11:44:00.008834 18678 net.cpp:406] res5a_branch2c <- res5a_branch2b
I1029 11:44:00.008844 18678 net.cpp:380] res5a_branch2c -> res5a_branch2c
I1029 11:44:00.016343 18678 net.cpp:122] Setting up res5a_branch2c
I1029 11:44:00.016386 18678 net.cpp:129] Top shape: 1 2048 8 8 (131072)
I1029 11:44:00.016428 18678 net.cpp:137] Memory required for data: 239080048
I1029 11:44:00.016441 18678 layer_factory.hpp:77] Creating layer bn5a_branch2c
I1029 11:44:00.016456 18678 net.cpp:84] Creating Layer bn5a_branch2c
I1029 11:44:00.016496 18678 net.cpp:406] bn5a_branch2c <- res5a_branch2c
I1029 11:44:00.016510 18678 net.cpp:367] bn5a_branch2c -> res5a_branch2c (in-place)
I1029 11:44:00.016896 18678 net.cpp:122] Setting up bn5a_branch2c
I1029 11:44:00.016906 18678 net.cpp:129] Top shape: 1 2048 8 8 (131072)
I1029 11:44:00.016911 18678 net.cpp:137] Memory required for data: 239604336
I1029 11:44:00.016923 18678 layer_factory.hpp:77] Creating layer scale5a_branch2c
I1029 11:44:00.016934 18678 net.cpp:84] Creating Layer scale5a_branch2c
I1029 11:44:00.016940 18678 net.cpp:406] scale5a_branch2c <- res5a_branch2c
I1029 11:44:00.016947 18678 net.cpp:367] scale5a_branch2c -> res5a_branch2c (in-place)
I1029 11:44:00.017011 18678 layer_factory.hpp:77] Creating layer scale5a_branch2c
I1029 11:44:00.017236 18678 net.cpp:122] Setting up scale5a_branch2c
I1029 11:44:00.017247 18678 net.cpp:129] Top shape: 1 2048 8 8 (131072)
I1029 11:44:00.017252 18678 net.cpp:137] Memory required for data: 240128624
I1029 11:44:00.017261 18678 layer_factory.hpp:77] Creating layer res5a
I1029 11:44:00.017271 18678 net.cpp:84] Creating Layer res5a
I1029 11:44:00.017277 18678 net.cpp:406] res5a <- res5a_branch1
I1029 11:44:00.017282 18678 net.cpp:406] res5a <- res5a_branch2c
I1029 11:44:00.017292 18678 net.cpp:380] res5a -> res5a
I1029 11:44:00.017333 18678 net.cpp:122] Setting up res5a
I1029 11:44:00.017343 18678 net.cpp:129] Top shape: 1 2048 8 8 (131072)
I1029 11:44:00.017346 18678 net.cpp:137] Memory required for data: 240652912
I1029 11:44:00.017351 18678 layer_factory.hpp:77] Creating layer res5a_relu
I1029 11:44:00.017359 18678 net.cpp:84] Creating Layer res5a_relu
I1029 11:44:00.017364 18678 net.cpp:406] res5a_relu <- res5a
I1029 11:44:00.017374 18678 net.cpp:367] res5a_relu -> res5a (in-place)
I1029 11:44:00.018566 18678 net.cpp:122] Setting up res5a_relu
I1029 11:44:00.018613 18678 net.cpp:129] Top shape: 1 2048 8 8 (131072)
I1029 11:44:00.018618 18678 net.cpp:137] Memory required for data: 241177200
I1029 11:44:00.018627 18678 layer_factory.hpp:77] Creating layer res5a_res5a_relu_0_split
I1029 11:44:00.018643 18678 net.cpp:84] Creating Layer res5a_res5a_relu_0_split
I1029 11:44:00.018651 18678 net.cpp:406] res5a_res5a_relu_0_split <- res5a
I1029 11:44:00.018666 18678 net.cpp:380] res5a_res5a_relu_0_split -> res5a_res5a_relu_0_split_0
I1029 11:44:00.018681 18678 net.cpp:380] res5a_res5a_relu_0_split -> res5a_res5a_relu_0_split_1
I1029 11:44:00.018790 18678 net.cpp:122] Setting up res5a_res5a_relu_0_split
I1029 11:44:00.018801 18678 net.cpp:129] Top shape: 1 2048 8 8 (131072)
I1029 11:44:00.018807 18678 net.cpp:129] Top shape: 1 2048 8 8 (131072)
I1029 11:44:00.018812 18678 net.cpp:137] Memory required for data: 242225776
I1029 11:44:00.018817 18678 layer_factory.hpp:77] Creating layer res5b_branch2a
I1029 11:44:00.018834 18678 net.cpp:84] Creating Layer res5b_branch2a
I1029 11:44:00.018841 18678 net.cpp:406] res5b_branch2a <- res5a_res5a_relu_0_split_0
I1029 11:44:00.018847 18678 net.cpp:380] res5b_branch2a -> res5b_branch2a
I1029 11:44:00.027305 18678 net.cpp:122] Setting up res5b_branch2a
I1029 11:44:00.027355 18678 net.cpp:129] Top shape: 1 512 8 8 (32768)
I1029 11:44:00.027361 18678 net.cpp:137] Memory required for data: 242356848
I1029 11:44:00.027376 18678 layer_factory.hpp:77] Creating layer bn5b_branch2a
I1029 11:44:00.027397 18678 net.cpp:84] Creating Layer bn5b_branch2a
I1029 11:44:00.027407 18678 net.cpp:406] bn5b_branch2a <- res5b_branch2a
I1029 11:44:00.027420 18678 net.cpp:367] bn5b_branch2a -> res5b_branch2a (in-place)
I1029 11:44:00.027828 18678 net.cpp:122] Setting up bn5b_branch2a
I1029 11:44:00.027840 18678 net.cpp:129] Top shape: 1 512 8 8 (32768)
I1029 11:44:00.027845 18678 net.cpp:137] Memory required for data: 242487920
I1029 11:44:00.027856 18678 layer_factory.hpp:77] Creating layer scale5b_branch2a
I1029 11:44:00.027889 18678 net.cpp:84] Creating Layer scale5b_branch2a
I1029 11:44:00.027896 18678 net.cpp:406] scale5b_branch2a <- res5b_branch2a
I1029 11:44:00.027909 18678 net.cpp:367] scale5b_branch2a -> res5b_branch2a (in-place)
I1029 11:44:00.027974 18678 layer_factory.hpp:77] Creating layer scale5b_branch2a
I1029 11:44:00.028201 18678 net.cpp:122] Setting up scale5b_branch2a
I1029 11:44:00.028210 18678 net.cpp:129] Top shape: 1 512 8 8 (32768)
I1029 11:44:00.028215 18678 net.cpp:137] Memory required for data: 242618992
I1029 11:44:00.028224 18678 layer_factory.hpp:77] Creating layer res5b_branch2a_relu
I1029 11:44:00.028234 18678 net.cpp:84] Creating Layer res5b_branch2a_relu
I1029 11:44:00.028239 18678 net.cpp:406] res5b_branch2a_relu <- res5b_branch2a
I1029 11:44:00.028247 18678 net.cpp:367] res5b_branch2a_relu -> res5b_branch2a (in-place)
I1029 11:44:00.029356 18678 net.cpp:122] Setting up res5b_branch2a_relu
I1029 11:44:00.029383 18678 net.cpp:129] Top shape: 1 512 8 8 (32768)
I1029 11:44:00.029389 18678 net.cpp:137] Memory required for data: 242750064
I1029 11:44:00.029397 18678 layer_factory.hpp:77] Creating layer res5b_branch2b
I1029 11:44:00.029412 18678 net.cpp:84] Creating Layer res5b_branch2b
I1029 11:44:00.029419 18678 net.cpp:406] res5b_branch2b <- res5b_branch2a
I1029 11:44:00.029433 18678 net.cpp:380] res5b_branch2b -> res5b_branch2b
I1029 11:44:00.041041 18678 net.cpp:122] Setting up res5b_branch2b
I1029 11:44:00.041088 18678 net.cpp:129] Top shape: 1 512 8 8 (32768)
I1029 11:44:00.041095 18678 net.cpp:137] Memory required for data: 242881136
I1029 11:44:00.041108 18678 layer_factory.hpp:77] Creating layer bn5b_branch2b
I1029 11:44:00.041129 18678 net.cpp:84] Creating Layer bn5b_branch2b
I1029 11:44:00.041139 18678 net.cpp:406] bn5b_branch2b <- res5b_branch2b
I1029 11:44:00.041151 18678 net.cpp:367] bn5b_branch2b -> res5b_branch2b (in-place)
I1029 11:44:00.041556 18678 net.cpp:122] Setting up bn5b_branch2b
I1029 11:44:00.041568 18678 net.cpp:129] Top shape: 1 512 8 8 (32768)
I1029 11:44:00.041573 18678 net.cpp:137] Memory required for data: 243012208
I1029 11:44:00.041584 18678 layer_factory.hpp:77] Creating layer scale5b_branch2b
I1029 11:44:00.041594 18678 net.cpp:84] Creating Layer scale5b_branch2b
I1029 11:44:00.041599 18678 net.cpp:406] scale5b_branch2b <- res5b_branch2b
I1029 11:44:00.041609 18678 net.cpp:367] scale5b_branch2b -> res5b_branch2b (in-place)
I1029 11:44:00.041671 18678 layer_factory.hpp:77] Creating layer scale5b_branch2b
I1029 11:44:00.041914 18678 net.cpp:122] Setting up scale5b_branch2b
I1029 11:44:00.041925 18678 net.cpp:129] Top shape: 1 512 8 8 (32768)
I1029 11:44:00.041930 18678 net.cpp:137] Memory required for data: 243143280
I1029 11:44:00.041939 18678 layer_factory.hpp:77] Creating layer res5b_branch2b_relu
I1029 11:44:00.041947 18678 net.cpp:84] Creating Layer res5b_branch2b_relu
I1029 11:44:00.041952 18678 net.cpp:406] res5b_branch2b_relu <- res5b_branch2b
I1029 11:44:00.041961 18678 net.cpp:367] res5b_branch2b_relu -> res5b_branch2b (in-place)
I1029 11:44:00.042273 18678 net.cpp:122] Setting up res5b_branch2b_relu
I1029 11:44:00.042285 18678 net.cpp:129] Top shape: 1 512 8 8 (32768)
I1029 11:44:00.042290 18678 net.cpp:137] Memory required for data: 243274352
I1029 11:44:00.042295 18678 layer_factory.hpp:77] Creating layer res5b_branch2c
I1029 11:44:00.042310 18678 net.cpp:84] Creating Layer res5b_branch2c
I1029 11:44:00.042316 18678 net.cpp:406] res5b_branch2c <- res5b_branch2b
I1029 11:44:00.042325 18678 net.cpp:380] res5b_branch2c -> res5b_branch2c
I1029 11:44:00.048818 18678 net.cpp:122] Setting up res5b_branch2c
I1029 11:44:00.048861 18678 net.cpp:129] Top shape: 1 2048 8 8 (131072)
I1029 11:44:00.048866 18678 net.cpp:137] Memory required for data: 243798640
I1029 11:44:00.048880 18678 layer_factory.hpp:77] Creating layer bn5b_branch2c
I1029 11:44:00.048898 18678 net.cpp:84] Creating Layer bn5b_branch2c
I1029 11:44:00.048907 18678 net.cpp:406] bn5b_branch2c <- res5b_branch2c
I1029 11:44:00.048918 18678 net.cpp:367] bn5b_branch2c -> res5b_branch2c (in-place)
I1029 11:44:00.049347 18678 net.cpp:122] Setting up bn5b_branch2c
I1029 11:44:00.049361 18678 net.cpp:129] Top shape: 1 2048 8 8 (131072)
I1029 11:44:00.049366 18678 net.cpp:137] Memory required for data: 244322928
I1029 11:44:00.049377 18678 layer_factory.hpp:77] Creating layer scale5b_branch2c
I1029 11:44:00.049387 18678 net.cpp:84] Creating Layer scale5b_branch2c
I1029 11:44:00.049392 18678 net.cpp:406] scale5b_branch2c <- res5b_branch2c
I1029 11:44:00.049399 18678 net.cpp:367] scale5b_branch2c -> res5b_branch2c (in-place)
I1029 11:44:00.049468 18678 layer_factory.hpp:77] Creating layer scale5b_branch2c
I1029 11:44:00.049687 18678 net.cpp:122] Setting up scale5b_branch2c
I1029 11:44:00.049697 18678 net.cpp:129] Top shape: 1 2048 8 8 (131072)
I1029 11:44:00.049702 18678 net.cpp:137] Memory required for data: 244847216
I1029 11:44:00.049713 18678 layer_factory.hpp:77] Creating layer res5b
I1029 11:44:00.049723 18678 net.cpp:84] Creating Layer res5b
I1029 11:44:00.049729 18678 net.cpp:406] res5b <- res5a_res5a_relu_0_split_1
I1029 11:44:00.049736 18678 net.cpp:406] res5b <- res5b_branch2c
I1029 11:44:00.049746 18678 net.cpp:380] res5b -> res5b
I1029 11:44:00.049784 18678 net.cpp:122] Setting up res5b
I1029 11:44:00.049793 18678 net.cpp:129] Top shape: 1 2048 8 8 (131072)
I1029 11:44:00.049798 18678 net.cpp:137] Memory required for data: 245371504
I1029 11:44:00.049803 18678 layer_factory.hpp:77] Creating layer res5b_relu
I1029 11:44:00.049813 18678 net.cpp:84] Creating Layer res5b_relu
I1029 11:44:00.049844 18678 net.cpp:406] res5b_relu <- res5b
I1029 11:44:00.049850 18678 net.cpp:367] res5b_relu -> res5b (in-place)
I1029 11:44:00.050185 18678 net.cpp:122] Setting up res5b_relu
I1029 11:44:00.050197 18678 net.cpp:129] Top shape: 1 2048 8 8 (131072)
I1029 11:44:00.050202 18678 net.cpp:137] Memory required for data: 245895792
I1029 11:44:00.050207 18678 layer_factory.hpp:77] Creating layer res5b_res5b_relu_0_split
I1029 11:44:00.050216 18678 net.cpp:84] Creating Layer res5b_res5b_relu_0_split
I1029 11:44:00.050221 18678 net.cpp:406] res5b_res5b_relu_0_split <- res5b
I1029 11:44:00.050230 18678 net.cpp:380] res5b_res5b_relu_0_split -> res5b_res5b_relu_0_split_0
I1029 11:44:00.050240 18678 net.cpp:380] res5b_res5b_relu_0_split -> res5b_res5b_relu_0_split_1
I1029 11:44:00.050310 18678 net.cpp:122] Setting up res5b_res5b_relu_0_split
I1029 11:44:00.050319 18678 net.cpp:129] Top shape: 1 2048 8 8 (131072)
I1029 11:44:00.050326 18678 net.cpp:129] Top shape: 1 2048 8 8 (131072)
I1029 11:44:00.050330 18678 net.cpp:137] Memory required for data: 246944368
I1029 11:44:00.050335 18678 layer_factory.hpp:77] Creating layer res5c_branch2a
I1029 11:44:00.050346 18678 net.cpp:84] Creating Layer res5c_branch2a
I1029 11:44:00.050351 18678 net.cpp:406] res5c_branch2a <- res5b_res5b_relu_0_split_0
I1029 11:44:00.050361 18678 net.cpp:380] res5c_branch2a -> res5c_branch2a
I1029 11:44:00.060500 18678 net.cpp:122] Setting up res5c_branch2a
I1029 11:44:00.060549 18678 net.cpp:129] Top shape: 1 512 8 8 (32768)
I1029 11:44:00.060554 18678 net.cpp:137] Memory required for data: 247075440
I1029 11:44:00.060573 18678 layer_factory.hpp:77] Creating layer bn5c_branch2a
I1029 11:44:00.060596 18678 net.cpp:84] Creating Layer bn5c_branch2a
I1029 11:44:00.060607 18678 net.cpp:406] bn5c_branch2a <- res5c_branch2a
I1029 11:44:00.060621 18678 net.cpp:367] bn5c_branch2a -> res5c_branch2a (in-place)
I1029 11:44:00.061038 18678 net.cpp:122] Setting up bn5c_branch2a
I1029 11:44:00.061050 18678 net.cpp:129] Top shape: 1 512 8 8 (32768)
I1029 11:44:00.061055 18678 net.cpp:137] Memory required for data: 247206512
I1029 11:44:00.061069 18678 layer_factory.hpp:77] Creating layer scale5c_branch2a
I1029 11:44:00.061082 18678 net.cpp:84] Creating Layer scale5c_branch2a
I1029 11:44:00.061089 18678 net.cpp:406] scale5c_branch2a <- res5c_branch2a
I1029 11:44:00.061095 18678 net.cpp:367] scale5c_branch2a -> res5c_branch2a (in-place)
I1029 11:44:00.061166 18678 layer_factory.hpp:77] Creating layer scale5c_branch2a
I1029 11:44:00.061393 18678 net.cpp:122] Setting up scale5c_branch2a
I1029 11:44:00.061422 18678 net.cpp:129] Top shape: 1 512 8 8 (32768)
I1029 11:44:00.061426 18678 net.cpp:137] Memory required for data: 247337584
I1029 11:44:00.061435 18678 layer_factory.hpp:77] Creating layer res5c_branch2a_relu
I1029 11:44:00.061444 18678 net.cpp:84] Creating Layer res5c_branch2a_relu
I1029 11:44:00.061450 18678 net.cpp:406] res5c_branch2a_relu <- res5c_branch2a
I1029 11:44:00.061458 18678 net.cpp:367] res5c_branch2a_relu -> res5c_branch2a (in-place)
I1029 11:44:00.062634 18678 net.cpp:122] Setting up res5c_branch2a_relu
I1029 11:44:00.062651 18678 net.cpp:129] Top shape: 1 512 8 8 (32768)
I1029 11:44:00.062655 18678 net.cpp:137] Memory required for data: 247468656
I1029 11:44:00.062661 18678 layer_factory.hpp:77] Creating layer res5c_branch2b
I1029 11:44:00.062676 18678 net.cpp:84] Creating Layer res5c_branch2b
I1029 11:44:00.062682 18678 net.cpp:406] res5c_branch2b <- res5c_branch2a
I1029 11:44:00.062691 18678 net.cpp:380] res5c_branch2b -> res5c_branch2b
I1029 11:44:00.078333 18678 net.cpp:122] Setting up res5c_branch2b
I1029 11:44:00.078390 18678 net.cpp:129] Top shape: 1 512 8 8 (32768)
I1029 11:44:00.078397 18678 net.cpp:137] Memory required for data: 247599728
I1029 11:44:00.078413 18678 layer_factory.hpp:77] Creating layer bn5c_branch2b
I1029 11:44:00.078433 18678 net.cpp:84] Creating Layer bn5c_branch2b
I1029 11:44:00.078441 18678 net.cpp:406] bn5c_branch2b <- res5c_branch2b
I1029 11:44:00.078454 18678 net.cpp:367] bn5c_branch2b -> res5c_branch2b (in-place)
I1029 11:44:00.078871 18678 net.cpp:122] Setting up bn5c_branch2b
I1029 11:44:00.078883 18678 net.cpp:129] Top shape: 1 512 8 8 (32768)
I1029 11:44:00.078888 18678 net.cpp:137] Memory required for data: 247730800
I1029 11:44:00.078900 18678 layer_factory.hpp:77] Creating layer scale5c_branch2b
I1029 11:44:00.078910 18678 net.cpp:84] Creating Layer scale5c_branch2b
I1029 11:44:00.078915 18678 net.cpp:406] scale5c_branch2b <- res5c_branch2b
I1029 11:44:00.078923 18678 net.cpp:367] scale5c_branch2b -> res5c_branch2b (in-place)
I1029 11:44:00.078994 18678 layer_factory.hpp:77] Creating layer scale5c_branch2b
I1029 11:44:00.079221 18678 net.cpp:122] Setting up scale5c_branch2b
I1029 11:44:00.079231 18678 net.cpp:129] Top shape: 1 512 8 8 (32768)
I1029 11:44:00.079236 18678 net.cpp:137] Memory required for data: 247861872
I1029 11:44:00.079244 18678 layer_factory.hpp:77] Creating layer res5c_branch2b_relu
I1029 11:44:00.079257 18678 net.cpp:84] Creating Layer res5c_branch2b_relu
I1029 11:44:00.079262 18678 net.cpp:406] res5c_branch2b_relu <- res5c_branch2b
I1029 11:44:00.079269 18678 net.cpp:367] res5c_branch2b_relu -> res5c_branch2b (in-place)
I1029 11:44:00.080371 18678 net.cpp:122] Setting up res5c_branch2b_relu
I1029 11:44:00.080385 18678 net.cpp:129] Top shape: 1 512 8 8 (32768)
I1029 11:44:00.080390 18678 net.cpp:137] Memory required for data: 247992944
I1029 11:44:00.080396 18678 layer_factory.hpp:77] Creating layer res5c_branch2c
I1029 11:44:00.080411 18678 net.cpp:84] Creating Layer res5c_branch2c
I1029 11:44:00.080416 18678 net.cpp:406] res5c_branch2c <- res5c_branch2b
I1029 11:44:00.080427 18678 net.cpp:380] res5c_branch2c -> res5c_branch2c
I1029 11:44:00.091897 18678 net.cpp:122] Setting up res5c_branch2c
I1029 11:44:00.091943 18678 net.cpp:129] Top shape: 1 2048 8 8 (131072)
I1029 11:44:00.091948 18678 net.cpp:137] Memory required for data: 248517232
I1029 11:44:00.091964 18678 layer_factory.hpp:77] Creating layer bn5c_branch2c
I1029 11:44:00.091984 18678 net.cpp:84] Creating Layer bn5c_branch2c
I1029 11:44:00.091994 18678 net.cpp:406] bn5c_branch2c <- res5c_branch2c
I1029 11:44:00.092005 18678 net.cpp:367] bn5c_branch2c -> res5c_branch2c (in-place)
I1029 11:44:00.092427 18678 net.cpp:122] Setting up bn5c_branch2c
I1029 11:44:00.092439 18678 net.cpp:129] Top shape: 1 2048 8 8 (131072)
I1029 11:44:00.092444 18678 net.cpp:137] Memory required for data: 249041520
I1029 11:44:00.092456 18678 layer_factory.hpp:77] Creating layer scale5c_branch2c
I1029 11:44:00.092473 18678 net.cpp:84] Creating Layer scale5c_branch2c
I1029 11:44:00.092494 18678 net.cpp:406] scale5c_branch2c <- res5c_branch2c
I1029 11:44:00.092501 18678 net.cpp:367] scale5c_branch2c -> res5c_branch2c (in-place)
I1029 11:44:00.092572 18678 layer_factory.hpp:77] Creating layer scale5c_branch2c
I1029 11:44:00.092803 18678 net.cpp:122] Setting up scale5c_branch2c
I1029 11:44:00.092811 18678 net.cpp:129] Top shape: 1 2048 8 8 (131072)
I1029 11:44:00.092816 18678 net.cpp:137] Memory required for data: 249565808
I1029 11:44:00.092824 18678 layer_factory.hpp:77] Creating layer res5c
I1029 11:44:00.092833 18678 net.cpp:84] Creating Layer res5c
I1029 11:44:00.092839 18678 net.cpp:406] res5c <- res5b_res5b_relu_0_split_1
I1029 11:44:00.092844 18678 net.cpp:406] res5c <- res5c_branch2c
I1029 11:44:00.092854 18678 net.cpp:380] res5c -> res5c
I1029 11:44:00.092893 18678 net.cpp:122] Setting up res5c
I1029 11:44:00.092902 18678 net.cpp:129] Top shape: 1 2048 8 8 (131072)
I1029 11:44:00.092906 18678 net.cpp:137] Memory required for data: 250090096
I1029 11:44:00.092911 18678 layer_factory.hpp:77] Creating layer res5c_relu
I1029 11:44:00.092919 18678 net.cpp:84] Creating Layer res5c_relu
I1029 11:44:00.092923 18678 net.cpp:406] res5c_relu <- res5c
I1029 11:44:00.092931 18678 net.cpp:367] res5c_relu -> res5c (in-place)
I1029 11:44:00.094210 18678 net.cpp:122] Setting up res5c_relu
I1029 11:44:00.094249 18678 net.cpp:129] Top shape: 1 2048 8 8 (131072)
I1029 11:44:00.094254 18678 net.cpp:137] Memory required for data: 250614384
I1029 11:44:00.094261 18678 layer_factory.hpp:77] Creating layer pool5
I1029 11:44:00.094276 18678 net.cpp:84] Creating Layer pool5
I1029 11:44:00.094285 18678 net.cpp:406] pool5 <- res5c
I1029 11:44:00.094296 18678 net.cpp:380] pool5 -> pool5
I1029 11:44:00.097204 18678 net.cpp:122] Setting up pool5
I1029 11:44:00.097223 18678 net.cpp:129] Top shape: 1 2048 2 2 (8192)
I1029 11:44:00.097229 18678 net.cpp:137] Memory required for data: 250647152
I1029 11:44:00.097235 18678 layer_factory.hpp:77] Creating layer my-fc1000
I1029 11:44:00.097246 18678 net.cpp:84] Creating Layer my-fc1000
I1029 11:44:00.097252 18678 net.cpp:406] my-fc1000 <- pool5
I1029 11:44:00.097261 18678 net.cpp:380] my-fc1000 -> my-fc1000
I1029 11:44:00.097502 18678 net.cpp:122] Setting up my-fc1000
I1029 11:44:00.097513 18678 net.cpp:129] Top shape: 1 1 (1)
I1029 11:44:00.097517 18678 net.cpp:137] Memory required for data: 250647156
I1029 11:44:00.097529 18678 layer_factory.hpp:77] Creating layer loss
I1029 11:44:00.097540 18678 net.cpp:84] Creating Layer loss
I1029 11:44:00.097546 18678 net.cpp:406] loss <- my-fc1000
I1029 11:44:00.097553 18678 net.cpp:406] loss <- label
I1029 11:44:00.097560 18678 net.cpp:380] loss -> loss
I1029 11:44:00.097630 18678 net.cpp:122] Setting up loss
…
