…
I1029 11:42:06.141384 18534 solver.cpp:87] Creating training net from net file: ./train_val.prototxt
I1029 11:42:06.142894 18534 net.cpp:294] The NetState phase (0) differed from the phase (1) specified by a rule in layer data
I1029 11:42:06.143853 18534 net.cpp:51] Initializing net from parameters: 
name: "ResNet-50"
state {
  phase: TRAIN
  level: 0
  stage: ""
}
layer {
  name: "data"
  type: "HDF5Data"
  top: "data"
  top: "label"
  include {
    phase: TRAIN
  }
  hdf5_data_param {
    source: "./train.txt"
    batch_size: 10
    shuffle: true
  }
}
layer {
  name: "conv1"
  type: "Convolution"
  bottom: "data"
  top: "conv1"
  convolution_param {
    num_output: 64
    pad: 3
    kernel_size: 7
    stride: 2
  }
}
layer {
  name: "bn_conv1"
  type: "BatchNorm"
  bottom: "conv1"
  top: "conv1"
  batch_norm_param {
    use_global_stats: true
  }
}
layer {
  name: "scale_conv1"
  type: "Scale"
  bottom: "conv1"
  top: "conv1"
  scale_param {
    bias_term: true
  }
}
layer {
  name: "conv1_relu"
  type: "ReLU"
  bottom: "conv1"
  top: "conv1"
}
layer {
  name: "pool1"
  type: "Pooling"
  bottom: "conv1"
  top: "pool1"
  pooling_param {
    pool: MAX
    kernel_size: 3
    stride: 2
  }
}
layer {
  name: "res2a_branch1"
  type: "Convolution"
  bottom: "pool1"
  top: "res2a_branch1"
  convolution_param {
    num_output: 256
    bias_term: false
    pad: 0
    kernel_size: 1
    stride: 1
  }
}
layer {
  name: "bn2a_branch1"
  type: "BatchNorm"
  bottom: "res2a_branch1"
  top: "res2a_branch1"
  batch_norm_param {
    use_global_stats: true
  }
}
layer {
  name: "scale2a_branch1"
  type: "Scale"
  bottom: "res2a_branch1"
  top: "res2a_branch1"
  scale_param {
    bias_term: true
  }
}
layer {
  name: "res2a_branch2a"
  type: "Convolution"
  bottom: "pool1"
  top: "res2a_branch2a"
  convolution_param {
    num_output: 64
    bias_term: false
    pad: 0
    kernel_size: 1
    stride: 1
  }
}
layer {
  name: "bn2a_branch2a"
  type: "BatchNorm"
  bottom: "res2a_branch2a"
  top: "res2a_branch2a"
  batch_norm_param {
    use_global_stats: true
  }
}
layer {
  name: "scale2a_branch2a"
  type: "Scale"
  bottom: "res2a_branch2a"
  top: "res2a_branch2a"
  scale_param {
    bias_term: true
  }
}
layer {
  name: "res2a_branch2a_relu"
  type: "ReLU"
  bottom: "res2a_branch2a"
  top: "res2a_branch2a"
}
layer {
  name: "res2a_branch2b"
  type: "Convolution"
  bottom: "res2a_branch2a"
  top: "res2a_branch2b"
  convolution_param {
    num_output: 64
    bias_term: false
    pad: 1
    kernel_size: 3
    stride: 1
  }
}
layer {
  name: "bn2a_branch2b"
  type: "BatchNorm"
  bottom: "res2a_branch2b"
  top: "res2a_branch2b"
  batch_norm_param {
    use_global_stats: true
  }
}
layer {
  name: "scale2a_branch2b"
  type: "Scale"
  bottom: "res2a_branch2b"
  top: "res2a_branch2b"
  scale_param {
    bias_term: true
  }
}
layer {
  name: "res2a_branch2b_relu"
  type: "ReLU"
  bottom: "res2a_branch2b"
  top: "res2a_branch2b"
}
layer {
  name: "res2a_branch2c"
  type: "Convolution"
  bottom: "res2a_branch2b"
  top: "res2a_branch2c"
  convolution_param {
    num_output: 256
    bias_term: false
    pad: 0
    kernel_size: 1
    stride: 1
  }
}
layer {
  name: "bn2a_branch2c"
  type: "BatchNorm"
  bottom: "res2a_branch2c"
  top: "res2a_branch2c"
  batch_norm_param {
    use_global_stats: true
  }
}
layer {
  name: "scale2a_branch2c"
  type: "Scale"
  bottom: "res2a_branch2c"
  top: "res2a_branch2c"
  scale_param {
    bias_term: true
  }
}
layer {
  name: "res2a"
  type: "Eltwise"
  bottom: "res2a_branch1"
  bottom: "res2a_branch2c"
  top: "res2a"
}
layer {
  name: "res2a_relu"
  type: "ReLU"
  bottom: "res2a"
  top: "res2a"
}
layer {
  name: "res2b_branch2a"
  type: "Convolution"
  bottom: "res2a"
  top: "res2b_branch2a"
  convolution_param {
    num_output: 64
    bias_term: false
    pad: 0
    kernel_size: 1
    stride: 1
  }
}
layer {
  name: "bn2b_branch2a"
  type: "BatchNorm"
  bottom: "res2b_branch2a"
  top: "res2b_branch2a"
  batch_norm_param {
    use_global_stats: true
  }
}
layer {
  name: "scale2b_branch2a"
  type: "Scale"
  bottom: "res2b_branch2a"
  top: "res2b_branch2a"
  scale_param {
    bias_term: true
  }
}
layer {
  name: "res2b_branch2a_relu"
  type: "ReLU"
  bottom: "res2b_branch2a"
  top: "res2b_branch2a"
}
layer {
  name: "res2b_branch2b"
  type: "Convolution"
  bottom: "res2b_branch2a"
  top: "res2b_branch2b"
  convolution_param {
    num_output: 64
    bias_term: false
    pad: 1
    kernel_size: 3
    stride: 1
  }
}
layer {
  name: "bn2b_branch2b"
  type: "BatchNorm"
  bottom: "res2b_branch2b"
  top: "res2b_branch2b"
  batch_norm_param {
    use_global_stats: true
  }
}
layer {
  name: "scale2b_branch2b"
  type: "Scale"
  bottom: "res2b_branch2b"
  top: "res2b_branch2b"
  scale_param {
    bias_term: true
  }
}
layer {
  name: "res2b_branch2b_relu"
  type: "ReLU"
  bottom: "res2b_branch2b"
  top: "res2b_branch2b"
}
layer {
  name: "res2b_branch2c"
  type: "Convolution"
  bottom: "res2b_branch2b"
  top: "res2b_branch2c"
  convolution_param {
    num_output: 256
    bias_term: false
    pad: 0
    kernel_size: 1
    stride: 1
  }
}
layer {
  name: "bn2b_branch2c"
  type: "BatchNorm"
  bottom: "res2b_branch2c"
  top: "res2b_branch2c"
  batch_norm_param {
    use_global_stats: true
  }
}
layer {
  name: "scale2b_branch2c"
  type: "Scale"
  bottom: "res2b_branch2c"
  top: "res2b_branch2c"
  scale_param {
    bias_term: true
  }
}
layer {
  name: "res2b"
  type: "Eltwise"
  bottom: "res2a"
  bottom: "res2b_branch2c"
  top: "res2b"
}
layer {
  name: "res2b_relu"
  type: "ReLU"
  bottom: "res2b"
  top: "res2b"
}
layer {
  name: "res2c_branch2a"
  type: "Convolution"
  bottom: "res2b"
  top: "res2c_branch2a"
  convolution_param {
    num_output: 64
    bias_term: false
    pad: 0
    kernel_size: 1
    stride: 1
  }
}
layer {
  name: "bn2c_branch2a"
  type: "BatchNorm"
  bottom: "res2c_branch2a"
  top: "res2c_branch2a"
  batch_norm_param {
    use_global_stats: true
  }
}
layer {
  name: "scale2c_branch2a"
  type: "Scale"
  bottom: "res2c_branch2a"
  top: "res2c_branch2a"
  scale_param {
    bias_term: true
  }
}
layer {
  name: "res2c_branch2a_relu"
  type: "ReLU"
  bottom: "res2c_branch2a"
  top: "res2c_branch2a"
}
layer {
  name: "res2c_branch2b"
  type: "Convolution"
  bottom: "res2c_branch2a"
  top: "res2c_branch2b"
  convolution_param {
    num_output: 64
    bias_term: false
    pad: 1
    kernel_size: 3
    stride: 1
  }
}
layer {
  name: "bn2c_branch2b"
  type: "BatchNorm"
  bottom: "res2c_branch2b"
  top: "res2c_branch2b"
  batch_norm_param {
    use_global_stats: true
  }
}
layer {
  name: "scale2c_branch2b"
  type: "Scale"
  bottom: "res2c_branch2b"
  top: "res2c_branch2b"
  scale_param {
    bias_term: true
  }
}
layer {
  name: "res2c_branch2b_relu"
  type: "ReLU"
  bottom: "res2c_branch2b"
  top: "res2c_branch2b"
}
layer {
  name: "res2c_branch2c"
  type: "Convolution"
  bottom: "res2c_branch2b"
  top: "res2c_branch2c"
  convolution_param {
    num_output: 256
    bias_term: false
    pad: 0
    kernel_size: 1
    stride: 1
  }
}
layer {
  name: "bn2c_branch2c"
  type: "BatchNorm"
  bottom: "res2c_branch2c"
  top: "res2c_branch2c"
  batch_norm_param {
    use_global_stats: true
  }
}
layer {
  name: "scale2c_branch2c"
  type: "Scale"
  bottom: "res2c_branch2c"
  top: "res2c_branch2c"
  scale_param {
    bias_term: true
  }
}
layer {
  name: "res2c"
  type: "Eltwise"
  bottom: "res2b"
  bottom: "res2c_branch2c"
  top: "res2c"
}
layer {
  name: "res2c_relu"
  type: "ReLU"
  bottom: "res2c"
  top: "res2c"
}
layer {
  name: "res3a_branch1"
  type: "Convolution"
  bottom: "res2c"
  top: "res3a_branch1"
  convolution_param {
    num_output: 512
    bias_term: false
    pad: 0
    kernel_size: 1
    stride: 2
  }
}
layer {
  name: "bn3a_branch1"
  type: "BatchNorm"
  bottom: "res3a_branch1"
  top: "res3a_branch1"
  batch_norm_param {
    use_global_stats: true
  }
}
layer {
  name: "scale3a_branch1"
  type: "Scale"
  bottom: "res3a_branch1"
  top: "res3a_branch1"
  scale_param {
    bias_term: true
  }
}
layer {
  name: "res3a_branch2a"
  type: "Convolution"
  bottom: "res2c"
  top: "res3a_branch2a"
  convolution_param {
    num_output: 128
    bias_term: false
    pad: 0
    kernel_size: 1
    stride: 2
  }
}
layer {
  name: "bn3a_branch2a"
  type: "BatchNorm"
  bottom: "res3a_branch2a"
  top: "res3a_branch2a"
  batch_norm_param {
    use_global_stats: true
  }
}
layer {
  name: "scale3a_branch2a"
  type: "Scale"
  bottom: "res3a_branch2a"
  top: "res3a_branch2a"
  scale_param {
    bias_term: true
  }
}
layer {
  name: "res3a_branch2a_relu"
  type: "ReLU"
  bottom: "res3a_branch2a"
  top: "res3a_branch2a"
}
layer {
  name: "res3a_branch2b"
  type: "Convolution"
  bottom: "res3a_branch2a"
  top: "res3a_branch2b"
  convolution_param {
    num_output: 128
    bias_term: false
    pad: 1
    kernel_size: 3
    stride: 1
  }
}
layer {
  name: "bn3a_branch2b"
  type: "BatchNorm"
  bottom: "res3a_branch2b"
  top: "res3a_branch2b"
  batch_norm_param {
    use_global_stats: true
  }
}
layer {
  name: "scale3a_branch2b"
  type: "Scale"
  bottom: "res3a_branch2b"
  top: "res3a_branch2b"
  scale_param {
    bias_term: true
  }
}
layer {
  name: "res3a_branch2b_relu"
  type: "ReLU"
  bottom: "res3a_branch2b"
  top: "res3a_branch2b"
}
layer {
  name: "res3a_branch2c"
  type: "Convolution"
  bottom: "res3a_branch2b"
  top: "res3a_branch2c"
  convolution_param {
    num_output: 512
    bias_term: false
    pad: 0
    kernel_size: 1
    stride: 1
  }
}
layer {
  name: "bn3a_branch2c"
  type: "BatchNorm"
  bottom: "res3a_branch2c"
  top: "res3a_branch2c"
  batch_norm_param {
    use_global_stats: true
  }
}
layer {
  name: "scale3a_branch2c"
  type: "Scale"
  bottom: "res3a_branch2c"
  top: "res3a_branch2c"
  scale_param {
    bias_term: true
  }
}
layer {
  name: "res3a"
  type: "Eltwise"
  bottom: "res3a_branch1"
  bottom: "res3a_branch2c"
  top: "res3a"
}
layer {
  name: "res3a_relu"
  type: "ReLU"
  bottom: "res3a"
  top: "res3a"
}
layer {
  name: "res3b_branch2a"
  type: "Convolution"
  bottom: "res3a"
  top: "res3b_branch2a"
  convolution_param {
    num_output: 128
    bias_term: false
    pad: 0
    kernel_size: 1
    stride: 1
  }
}
layer {
  name: "bn3b_branch2a"
  type: "BatchNorm"
  bottom: "res3b_branch2a"
  top: "res3b_branch2a"
  batch_norm_param {
    use_global_stats: true
  }
}
layer {
  name: "scale3b_branch2a"
  type: "Scale"
  bottom: "res3b_branch2a"
  top: "res3b_branch2a"
  scale_param {
    bias_term: true
  }
}
layer {
  name: "res3b_branch2a_relu"
  type: "ReLU"
  bottom: "res3b_branch2a"
  top: "res3b_branch2a"
}
layer {
  name: "res3b_branch2b"
  type: "Convolution"
  bottom: "res3b_branch2a"
  top: "res3b_branch2b"
  convolution_param {
    num_output: 128
    bias_term: false
    pad: 1
    kernel_size: 3
    stride: 1
  }
}
layer {
  name: "bn3b_branch2b"
  type: "BatchNorm"
  bottom: "res3b_branch2b"
  top: "res3b_branch2b"
  batch_norm_param {
    use_global_stats: true
  }
}
layer {
  name: "scale3b_branch2b"
  type: "Scale"
  bottom: "res3b_branch2b"
  top: "res3b_branch2b"
  scale_param {
    bias_term: true
  }
}
layer {
  name: "res3b_branch2b_relu"
  type: "ReLU"
  bottom: "res3b_branch2b"
  top: "res3b_branch2b"
}
layer {
  name: "res3b_branch2c"
  type: "Convolution"
  bottom: "res3b_branch2b"
  top: "res3b_branch2c"
  convolution_param {
    num_output: 512
    bias_term: false
    pad: 0
    kernel_size: 1
    stride: 1
  }
}
layer {
  name: "bn3b_branch2c"
  type: "BatchNorm"
  bottom: "res3b_branch2c"
  top: "res3b_branch2c"
  batch_norm_param {
    use_global_stats: true
  }
}
layer {
  name: "scale3b_branch2c"
  type: "Scale"
  bottom: "res3b_branch2c"
  top: "res3b_branch2c"
  scale_param {
    bias_term: true
  }
}
layer {
  name: "res3b"
  type: "Eltwise"
  bottom: "res3a"
  bottom: "res3b_branch2c"
  top: "res3b"
}
layer {
  name: "res3b_relu"
  type: "ReLU"
  bottom: "res3b"
  top: "res3b"
}
layer {
  name: "res3c_branch2a"
  type: "Convolution"
  bottom: "res3b"
  top: "res3c_branch2a"
  convolution_param {
    num_output: 128
    bias_term: false
    pad: 0
    kernel_size: 1
    stride: 1
  }
}
layer {
  name: "bn3c_branch2a"
  type: "BatchNorm"
  bottom: "res3c_branch2a"
  top: "res3c_branch2a"
  batch_norm_param {
    use_global_stats: true
  }
}
layer {
  name: "scale3c_branch2a"
  type: "Scale"
  bottom: "res3c_branch2a"
  top: "res3c_branch2a"
  scale_param {
    bias_term: true
  }
}
layer {
  name: "res3c_branch2a_relu"
  type: "ReLU"
  bottom: "res3c_branch2a"
  top: "res3c_branch2a"
}
layer {
  name: "res3c_branch2b"
  type: "Convolution"
  bottom: "res3c_branch2a"
  top: "res3c_branch2b"
  convolution_param {
    num_output: 128
    bias_term: false
    pad: 1
    kernel_size: 3
    stride: 1
  }
}
layer {
  name: "bn3c_branch2b"
  type: "BatchNorm"
  bottom: "res3c_branch2b"
  top: "res3c_branch2b"
  batch_norm_param {
    use_global_stats: true
  }
}
layer {
  name: "scale3c_branch2b"
  type: "Scale"
  bottom: "res3c_branch2b"
  top: "res3c_branch2b"
  scale_param {
    bias_term: true
  }
}
layer {
  name: "res3c_branch2b_relu"
  type: "ReLU"
  bottom: "res3c_branch2b"
  top: "res3c_branch2b"
}
layer {
  name: "res3c_branch2c"
  type: "Convolution"
  bottom: "res3c_branch2b"
  top: "res3c_branch2c"
  convolution_param {
    num_output: 512
    bias_term: false
    pad: 0
    kernel_size: 1
    stride: 1
  }
}
layer {
  name: "bn3c_branch2c"
  type: "BatchNorm"
  bottom: "res3c_branch2c"
  top: "res3c_branch2c"
  batch_norm_param {
    use_global_stats: true
  }
}
layer {
  name: "scale3c_branch2c"
  type: "Scale"
  bottom: "res3c_branch2c"
  top: "res3c_branch2c"
  scale_param {
    bias_term: true
  }
}
layer {
  name: "res3c"
  type: "Eltwise"
  bottom: "res3b"
  bottom: "res3c_branch2c"
  top: "res3c"
}
layer {
  name: "res3c_relu"
  type: "ReLU"
  bottom: "res3c"
  top: "res3c"
}
layer {
  name: "res3d_branch2a"
  type: "Convolution"
  bottom: "res3c"
  top: "res3d_branch2a"
  convolution_param {
    num_output: 128
    bias_term: false
    pad: 0
    kernel_size: 1
    stride: 1
  }
}
layer {
  name: "bn3d_branch2a"
  type: "BatchNorm"
  bottom: "res3d_branch2a"
  top: "res3d_branch2a"
  batch_norm_param {
    use_global_stats: true
  }
}
layer {
  name: "scale3d_branch2a"
  type: "Scale"
  bottom: "res3d_branch2a"
  top: "res3d_branch2a"
  scale_param {
    bias_term: true
  }
}
layer {
  name: "res3d_branch2a_relu"
  type: "ReLU"
  bottom: "res3d_branch2a"
  top: "res3d_branch2a"
}
layer {
  name: "res3d_branch2b"
  type: "Convolution"
  bottom: "res3d_branch2a"
  top: "res3d_branch2b"
  convolution_param {
    num_output: 128
    bias_term: false
    pad: 1
    kernel_size: 3
    stride: 1
  }
}
layer {
  name: "bn3d_branch2b"
  type: "BatchNorm"
  bottom: "res3d_branch2b"
  top: "res3d_branch2b"
  batch_norm_param {
    use_global_stats: true
  }
}
layer {
  name: "scale3d_branch2b"
  type: "Scale"
  bottom: "res3d_branch2b"
  top: "res3d_branch2b"
  scale_param {
    bias_term: true
  }
}
layer {
  name: "res3d_branch2b_relu"
  type: "ReLU"
  bottom: "res3d_branch2b"
  top: "res3d_branch2b"
}
layer {
  name: "res3d_branch2c"
  type: "Convolution"
  bottom: "res3d_branch2b"
  top: "res3d_branch2c"
  convolution_param {
    num_output: 512
    bias_term: false
    pad: 0
    kernel_size: 1
    stride: 1
  }
}
layer {
  name: "bn3d_branch2c"
  type: "BatchNorm"
  bottom: "res3d_branch2c"
  top: "res3d_branch2c"
  batch_norm_param {
    use_global_stats: true
  }
}
layer {
  name: "scale3d_branch2c"
  type: "Scale"
  bottom: "res3d_branch2c"
  top: "res3d_branch2c"
  scale_param {
    bias_term: true
  }
}
layer {
  name: "res3d"
  type: "Eltwise"
  bottom: "res3c"
  bottom: "res3d_branch2c"
  top: "res3d"
}
layer {
  name: "res3d_relu"
  type: "ReLU"
  bottom: "res3d"
  top: "res3d"
}
layer {
  name: "res4a_branch1"
  type: "Convolution"
  bottom: "res3d"
  top: "res4a_branch1"
  convolution_param {
    num_output: 1024
    bias_term: false
    pad: 0
    kernel_size: 1
    stride: 2
  }
}
layer {
  name: "bn4a_branch1"
  type: "BatchNorm"
  bottom: "res4a_branch1"
  top: "res4a_branch1"
  batch_norm_param {
    use_global_stats: true
  }
}
layer {
  name: "scale4a_branch1"
  type: "Scale"
  bottom: "res4a_branch1"
  top: "res4a_branch1"
  scale_param {
    bias_term: true
  }
}
layer {
  name: "res4a_branch2a"
  type: "Convolution"
  bottom: "res3d"
  top: "res4a_branch2a"
  convolution_param {
    num_output: 256
    bias_term: false
    pad: 0
    kernel_size: 1
    stride: 2
  }
}
layer {
  name: "bn4a_branch2a"
  type: "BatchNorm"
  bottom: "res4a_branch2a"
  top: "res4a_branch2a"
  batch_norm_param {
    use_global_stats: true
  }
}
layer {
  name: "scale4a_branch2a"
  type: "Scale"
  bottom: "res4a_branch2a"
  top: "res4a_branch2a"
  scale_param {
    bias_term: true
  }
}
layer {
  name: "res4a_branch2a_relu"
  type: "ReLU"
  bottom: "res4a_branch2a"
  top: "res4a_branch2a"
}
layer {
  name: "res4a_branch2b"
  type: "Convolution"
  bottom: "res4a_branch2a"
  top: "res4a_branch2b"
  convolution_param {
    num_output: 256
    bias_term: false
    pad: 1
    kernel_size: 3
    stride: 1
  }
}
layer {
  name: "bn4a_branch2b"
  type: "BatchNorm"
  bottom: "res4a_branch2b"
  top: "res4a_branch2b"
  batch_norm_param {
    use_global_stats: true
  }
}
layer {
  name: "scale4a_branch2b"
  type: "Scale"
  bottom: "res4a_branch2b"
  top: "res4a_branch2b"
  scale_param {
    bias_term: true
  }
}
layer {
  name: "res4a_branch2b_relu"
  type: "ReLU"
  bottom: "res4a_branch2b"
  top: "res4a_branch2b"
}
layer {
  name: "res4a_branch2c"
  type: "Convolution"
  bottom: "res4a_branch2b"
  top: "res4a_branch2c"
  convolution_param {
    num_output: 1024
    bias_term: false
    pad: 0
    kernel_size: 1
    stride: 1
  }
}
layer {
  name: "bn4a_branch2c"
  type: "BatchNorm"
  bottom: "res4a_branch2c"
  top: "res4a_branch2c"
  batch_norm_param {
    use_global_stats: true
  }
}
layer {
  name: "scale4a_branch2c"
  type: "Scale"
  bottom: "res4a_branch2c"
  top: "res4a_branch2c"
  scale_param {
    bias_term: true
  }
}
layer {
  name: "res4a"
  type: "Eltwise"
  bottom: "res4a_branch1"
  bottom: "res4a_branch2c"
  top: "res4a"
}
layer {
  name: "res4a_relu"
  type: "ReLU"
  bottom: "res4a"
  top: "res4a"
}
layer {
  name: "res4b_branch2a"
  type: "Convolution"
  bottom: "res4a"
  top: "res4b_branch2a"
  convolution_param {
    num_output: 256
    bias_term: false
    pad: 0
    kernel_size: 1
    stride: 1
  }
}
layer {
  name: "bn4b_branch2a"
  type: "BatchNorm"
  bottom: "res4b_branch2a"
  top: "res4b_branch2a"
  batch_norm_param {
    use_global_stats: true
  }
}
layer {
  name: "scale4b_branch2a"
  type: "Scale"
  bottom: "res4b_branch2a"
  top: "res4b_branch2a"
  scale_param {
    bias_term: true
  }
}
layer {
  name: "res4b_branch2a_relu"
  type: "ReLU"
  bottom: "res4b_branch2a"
  top: "res4b_branch2a"
}
layer {
  name: "res4b_branch2b"
  type: "Convolution"
  bottom: "res4b_branch2a"
  top: "res4b_branch2b"
  convolution_param {
    num_output: 256
    bias_term: false
    pad: 1
    kernel_size: 3
    stride: 1
  }
}
layer {
  name: "bn4b_branch2b"
  type: "BatchNorm"
  bottom: "res4b_branch2b"
  top: "res4b_branch2b"
  batch_norm_param {
    use_global_stats: true
  }
}
layer {
  name: "scale4b_branch2b"
  type: "Scale"
  bottom: "res4b_branch2b"
  top: "res4b_branch2b"
  scale_param {
    bias_term: true
  }
}
layer {
  name: "res4b_branch2b_relu"
  type: "ReLU"
  bottom: "res4b_branch2b"
  top: "res4b_branch2b"
}
layer {
  name: "res4b_branch2c"
  type: "Convolution"
  bottom: "res4b_branch2b"
  top: "res4b_branch2c"
  convolution_param {
    num_output: 1024
    bias_term: false
    pad: 0
    kernel_size: 1
    stride: 1
  }
}
layer {
  name: "bn4b_branch2c"
  type: "BatchNorm"
  bottom: "res4b_branch2c"
  top: "res4b_branch2c"
  batch_norm_param {
    use_global_stats: true
  }
}
layer {
  name: "scale4b_branch2c"
  type: "Scale"
  bottom: "res4b_branch2c"
  top: "res4b_branch2c"
  scale_param {
    bias_term: true
  }
}
layer {
  name: "res4b"
  type: "Eltwise"
  bottom: "res4a"
  bottom: "res4b_branch2c"
  top: "res4b"
}
layer {
  name: "res4b_relu"
  type: "ReLU"
  bottom: "res4b"
  top: "res4b"
}
layer {
  name: "res4c_branch2a"
  type: "Convolution"
  bottom: "res4b"
  top: "res4c_branch2a"
  convolution_param {
    num_output: 256
    bias_term: false
    pad: 0
    kernel_size: 1
    stride: 1
  }
}
layer {
  name: "bn4c_branch2a"
  type: "BatchNorm"
  bottom: "res4c_branch2a"
  top: "res4c_branch2a"
  batch_norm_param {
    use_global_stats: true
  }
}
layer {
  name: "scale4c_branch2a"
  type: "Scale"
  bottom: "res4c_branch2a"
  top: "res4c_branch2a"
  scale_param {
    bias_term: true
  }
}
layer {
  name: "res4c_branch2a_relu"
  type: "ReLU"
  bottom: "res4c_branch2a"
  top: "res4c_branch2a"
}
layer {
  name: "res4c_branch2b"
  type: "Convolution"
  bottom: "res4c_branch2a"
  top: "res4c_branch2b"
  convolution_param {
    num_output: 256
    bias_term: false
    pad: 1
    kernel_size: 3
    stride: 1
  }
}
layer {
  name: "bn4c_branch2b"
  type: "BatchNorm"
  bottom: "res4c_branch2b"
  top: "res4c_branch2b"
  batch_norm_param {
    use_global_stats: true
  }
}
layer {
  name: "scale4c_branch2b"
  type: "Scale"
  bottom: "res4c_branch2b"
  top: "res4c_branch2b"
  scale_param {
    bias_term: true
  }
}
layer {
  name: "res4c_branch2b_relu"
  type: "ReLU"
  bottom: "res4c_branch2b"
  top: "res4c_branch2b"
}
layer {
  name: "res4c_branch2c"
  type: "Convolution"
  bottom: "res4c_branch2b"
  top: "res4c_branch2c"
  convolution_param {
    num_output: 1024
    bias_term: false
    pad: 0
    kernel_size: 1
    stride: 1
  }
}
layer {
  name: "bn4c_branch2c"
  type: "BatchNorm"
  bottom: "res4c_branch2c"
  top: "res4c_branch2c"
  batch_norm_param {
    use_global_stats: true
  }
}
layer {
  name: "scale4c_branch2c"
  type: "Scale"
  bottom: "res4c_branch2c"
  top: "res4c_branch2c"
  scale_param {
    bias_term: true
  }
}
layer {
  name: "res4c"
  type: "Eltwise"
  bottom: "res4b"
  bottom: "res4c_branch2c"
  top: "res4c"
}
layer {
  name: "res4c_relu"
  type: "ReLU"
  bottom: "res4c"
  top: "res4c"
}
layer {
  name: "res4d_branch2a"
  type: "Convolution"
  bottom: "res4c"
  top: "res4d_branch2a"
  convolution_param {
    num_output: 256
    bias_term: false
    pad: 0
    kernel_size: 1
    stride: 1
  }
}
layer {
  name: "bn4d_branch2a"
  type: "BatchNorm"
  bottom: "res4d_branch2a"
  top: "res4d_branch2a"
  batch_norm_param {
    use_global_stats: true
  }
}
layer {
  name: "scale4d_branch2a"
  type: "Scale"
  bottom: "res4d_branch2a"
  top: "res4d_branch2a"
  scale_param {
    bias_term: true
  }
}
layer {
  name: "res4d_branch2a_relu"
  type: "ReLU"
  bottom: "res4d_branch2a"
  top: "res4d_branch2a"
}
layer {
  name: "res4d_branch2b"
  type: "Convolution"
  bottom: "res4d_branch2a"
  top: "res4d_branch2b"
  convolution_param {
    num_output: 256
    bias_term: false
    pad: 1
    kernel_size: 3
    stride: 1
  }
}
layer {
  name: "bn4d_branch2b"
  type: "BatchNorm"
  bottom: "res4d_branch2b"
  top: "res4d_branch2b"
  batch_norm_param {
    use_global_stats: true
  }
}
layer {
  name: "scale4d_branch2b"
  type: "Scale"
  bottom: "res4d_branch2b"
  top: "res4d_branch2b"
  scale_param {
    bias_term: true
  }
}
layer {
  name: "res4d_branch2b_relu"
  type: "ReLU"
  bottom: "res4d_branch2b"
  top: "res4d_branch2b"
}
layer {
  name: "res4d_branch2c"
  type: "Convolution"
  bottom: "res4d_branch2b"
  top: "res4d_branch2c"
  convolution_param {
    num_output: 1024
    bias_term: false
    pad: 0
    kernel_size: 1
    stride: 1
  }
}
layer {
  name: "bn4d_branch2c"
  type: "BatchNorm"
  bottom: "res4d_branch2c"
  top: "res4d_branch2c"
  batch_norm_param {
    use_global_stats: true
  }
}
layer {
  name: "scale4d_branch2c"
  type: "Scale"
  bottom: "res4d_branch2c"
  top: "res4d_branch2c"
  scale_param {
    bias_term: true
  }
}
layer {
  name: "res4d"
  type: "Eltwise"
  bottom: "res4c"
  bottom: "res4d_branch2c"
  top: "res4d"
}
layer {
  name: "res4d_relu"
  type: "ReLU"
  bottom: "res4d"
  top: "res4d"
}
layer {
  name: "res4e_branch2a"
  type: "Convolution"
  bottom: "res4d"
  top: "res4e_branch2a"
  convolution_param {
    num_output: 256
    bias_term: false
    pad: 0
    kernel_size: 1
    stride: 1
  }
}
layer {
  name: "bn4e_branch2a"
  type: "BatchNorm"
  bottom: "res4e_branch2a"
  top: "res4e_branch2a"
  batch_norm_param {
    use_global_stats: true
  }
}
layer {
  name: "scale4e_branch2a"
  type: "Scale"
  bottom: "res4e_branch2a"
  top: "res4e_branch2a"
  scale_param {
    bias_term: true
  }
}
layer {
  name: "res4e_branch2a_relu"
  type: "ReLU"
  bottom: "res4e_branch2a"
  top: "res4e_branch2a"
}
layer {
  name: "res4e_branch2b"
  type: "Convolution"
  bottom: "res4e_branch2a"
  top: "res4e_branch2b"
  convolution_param {
    num_output: 256
    bias_term: false
    pad: 1
    kernel_size: 3
    stride: 1
  }
}
layer {
  name: "bn4e_branch2b"
  type: "BatchNorm"
  bottom: "res4e_branch2b"
  top: "res4e_branch2b"
  batch_norm_param {
    use_global_stats: true
  }
}
layer {
  name: "scale4e_branch2b"
  type: "Scale"
  bottom: "res4e_branch2b"
  top: "res4e_branch2b"
  scale_param {
    bias_term: true
  }
}
layer {
  name: "res4e_branch2b_relu"
  type: "ReLU"
  bottom: "res4e_branch2b"
  top: "res4e_branch2b"
}
layer {
  name: "res4e_branch2c"
  type: "Convolution"
  bottom: "res4e_branch2b"
  top: "res4e_branch2c"
  convolution_param {
    num_output: 1024
    bias_term: false
    pad: 0
    kernel_size: 1
    stride: 1
  }
}
layer {
  name: "bn4e_branch2c"
  type: "BatchNorm"
  bottom: "res4e_branch2c"
  top: "res4e_branch2c"
  batch_norm_param {
    use_global_stats: true
  }
}
layer {
  name: "scale4e_branch2c"
  type: "Scale"
  bottom: "res4e_branch2c"
  top: "res4e_branch2c"
  scale_param {
    bias_term: true
  }
}
layer {
  name: "res4e"
  type: "Eltwise"
  bottom: "res4d"
  bottom: "res4e_branch2c"
  top: "res4e"
}
layer {
  name: "res4e_relu"
  type: "ReLU"
  bottom: "res4e"
  top: "res4e"
}
layer {
  name: "res4f_branch2a"
  type: "Convolution"
  bottom: "res4e"
  top: "res4f_branch2a"
  convolution_param {
    num_output: 256
    bias_term: false
    pad: 0
    kernel_size: 1
    stride: 1
  }
}
layer {
  name: "bn4f_branch2a"
  type: "BatchNorm"
  bottom: "res4f_branch2a"
  top: "res4f_branch2a"
  batch_norm_param {
    use_global_stats: true
  }
}
layer {
  name: "scale4f_branch2a"
  type: "Scale"
  bottom: "res4f_branch2a"
  top: "res4f_branch2a"
  scale_param {
    bias_term: true
  }
}
layer {
  name: "res4f_branch2a_relu"
  type: "ReLU"
  bottom: "res4f_branch2a"
  top: "res4f_branch2a"
}
layer {
  name: "res4f_branch2b"
  type: "Convolution"
  bottom: "res4f_branch2a"
  top: "res4f_branch2b"
  convolution_param {
    num_output: 256
    bias_term: false
    pad: 1
    kernel_size: 3
    stride: 1
  }
}
layer {
  name: "bn4f_branch2b"
  type: "BatchNorm"
  bottom: "res4f_branch2b"
  top: "res4f_branch2b"
  batch_norm_param {
    use_global_stats: true
  }
}
layer {
  name: "scale4f_branch2b"
  type: "Scale"
  bottom: "res4f_branch2b"
  top: "res4f_branch2b"
  scale_param {
    bias_term: true
  }
}
layer {
  name: "res4f_branch2b_relu"
  type: "ReLU"
  bottom: "res4f_branch2b"
  top: "res4f_branch2b"
}
layer {
  name: "res4f_branch2c"
  type: "Convolution"
  bottom: "res4f_branch2b"
  top: "res4f_branch2c"
  convolution_param {
    num_output: 1024
    bias_term: false
    pad: 0
    kernel_size: 1
    stride: 1
  }
}
layer {
  name: "bn4f_branch2c"
  type: "BatchNorm"
  bottom: "res4f_branch2c"
  top: "res4f_branch2c"
  batch_norm_param {
    use_global_stats: true
  }
}
layer {
  name: "scale4f_branch2c"
  type: "Scale"
  bottom: "res4f_branch2c"
  top: "res4f_branch2c"
  scale_param {
    bias_term: true
  }
}
layer {
  name: "res4f"
  type: "Eltwise"
  bottom: "res4e"
  bottom: "res4f_branch2c"
  top: "res4f"
}
layer {
  name: "res4f_relu"
  type: "ReLU"
  bottom: "res4f"
  top: "res4f"
}
layer {
  name: "res5a_branch1"
  type: "Convolution"
  bottom: "res4f"
  top: "res5a_branch1"
  convolution_param {
    num_output: 2048
    bias_term: false
    pad: 0
    kernel_size: 1
    stride: 2
  }
}
layer {
  name: "bn5a_branch1"
  type: "BatchNorm"
  bottom: "res5a_branch1"
  top: "res5a_branch1"
  batch_norm_param {
    use_global_stats: true
  }
}
layer {
  name: "scale5a_branch1"
  type: "Scale"
  bottom: "res5a_branch1"
  top: "res5a_branch1"
  scale_param {
    bias_term: true
  }
}
layer {
  name: "res5a_branch2a"
  type: "Convolution"
  bottom: "res4f"
  top: "res5a_branch2a"
  convolution_param {
    num_output: 512
    bias_term: false
    pad: 0
    kernel_size: 1
    stride: 2
  }
}
layer {
  name: "bn5a_branch2a"
  type: "BatchNorm"
  bottom: "res5a_branch2a"
  top: "res5a_branch2a"
  batch_norm_param {
    use_global_stats: true
  }
}
layer {
  name: "scale5a_branch2a"
  type: "Scale"
  bottom: "res5a_branch2a"
  top: "res5a_branch2a"
  scale_param {
    bias_term: true
  }
}
layer {
  name: "res5a_branch2a_relu"
  type: "ReLU"
  bottom: "res5a_branch2a"
  top: "res5a_branch2a"
}
layer {
  name: "res5a_branch2b"
  type: "Convolution"
  bottom: "res5a_branch2a"
  top: "res5a_branch2b"
  convolution_param {
    num_output: 512
    bias_term: false
    pad: 1
    kernel_size: 3
    stride: 1
  }
}
layer {
  name: "bn5a_branch2b"
  type: "BatchNorm"
  bottom: "res5a_branch2b"
  top: "res5a_branch2b"
  batch_norm_param {
    use_global_stats: true
  }
}
layer {
  name: "scale5a_branch2b"
  type: "Scale"
  bottom: "res5a_branch2b"
  top: "res5a_branch2b"
  scale_param {
    bias_term: true
  }
}
layer {
  name: "res5a_branch2b_relu"
  type: "ReLU"
  bottom: "res5a_branch2b"
  top: "res5a_branch2b"
}
layer {
  name: "res5a_branch2c"
  type: "Convolution"
  bottom: "res5a_branch2b"
  top: "res5a_branch2c"
  convolution_param {
    num_output: 2048
    bias_term: false
    pad: 0
    kernel_size: 1
    stride: 1
  }
}
layer {
  name: "bn5a_branch2c"
  type: "BatchNorm"
  bottom: "res5a_branch2c"
  top: "res5a_branch2c"
  batch_norm_param {
    use_global_stats: true
  }
}
layer {
  name: "scale5a_branch2c"
  type: "Scale"
  bottom
I1029 11:42:06.144713 18534 layer_factory.hpp:77] Creating layer data
I1029 11:42:06.144729 18534 net.cpp:84] Creating Layer data
I1029 11:42:06.144737 18534 net.cpp:380] data -> data
I1029 11:42:06.144763 18534 net.cpp:380] data -> label
I1029 11:42:06.144776 18534 hdf5_data_layer.cpp:80] Loading list of HDF5 filenames from: ./train.txt
I1029 11:42:06.144814 18534 hdf5_data_layer.cpp:94] Number of HDF5 files: 1
I1029 11:42:06.146126 18534 hdf5.cpp:32] Datatype class: H5T_FLOAT
I1029 11:42:07.883008 18534 net.cpp:122] Setting up data
I1029 11:42:07.883055 18534 net.cpp:129] Top shape: 10 3 224 224 (1505280)
I1029 11:42:07.883062 18534 net.cpp:129] Top shape: 10 (10)
I1029 11:42:07.883067 18534 net.cpp:137] Memory required for data: 6021160
I1029 11:42:07.883082 18534 layer_factory.hpp:77] Creating layer conv1
I1029 11:42:07.883112 18534 net.cpp:84] Creating Layer conv1
I1029 11:42:07.883121 18534 net.cpp:406] conv1 <- data
I1029 11:42:07.883137 18534 net.cpp:380] conv1 -> conv1
I1029 11:42:08.189887 18534 net.cpp:122] Setting up conv1
I1029 11:42:08.189927 18534 net.cpp:129] Top shape: 10 64 112 112 (8028160)
I1029 11:42:08.189932 18534 net.cpp:137] Memory required for data: 38133800
I1029 11:42:08.189970 18534 layer_factory.hpp:77] Creating layer bn_conv1
I1029 11:42:08.189988 18534 net.cpp:84] Creating Layer bn_conv1
I1029 11:42:08.189996 18534 net.cpp:406] bn_conv1 <- conv1
I1029 11:42:08.190004 18534 net.cpp:367] bn_conv1 -> conv1 (in-place)
I1029 11:42:08.190245 18534 net.cpp:122] Setting up bn_conv1
I1029 11:42:08.190255 18534 net.cpp:129] Top shape: 10 64 112 112 (8028160)
I1029 11:42:08.190260 18534 net.cpp:137] Memory required for data: 70246440
I1029 11:42:08.190274 18534 layer_factory.hpp:77] Creating layer scale_conv1
I1029 11:42:08.190284 18534 net.cpp:84] Creating Layer scale_conv1
I1029 11:42:08.190289 18534 net.cpp:406] scale_conv1 <- conv1
I1029 11:42:08.190296 18534 net.cpp:367] scale_conv1 -> conv1 (in-place)
I1029 11:42:08.190343 18534 layer_factory.hpp:77] Creating layer scale_conv1
I1029 11:42:08.190487 18534 net.cpp:122] Setting up scale_conv1
I1029 11:42:08.190513 18534 net.cpp:129] Top shape: 10 64 112 112 (8028160)
I1029 11:42:08.190518 18534 net.cpp:137] Memory required for data: 102359080
I1029 11:42:08.190526 18534 layer_factory.hpp:77] Creating layer conv1_relu
I1029 11:42:08.190542 18534 net.cpp:84] Creating Layer conv1_relu
I1029 11:42:08.190548 18534 net.cpp:406] conv1_relu <- conv1
I1029 11:42:08.190556 18534 net.cpp:367] conv1_relu -> conv1 (in-place)
I1029 11:42:08.190769 18534 net.cpp:122] Setting up conv1_relu
I1029 11:42:08.190778 18534 net.cpp:129] Top shape: 10 64 112 112 (8028160)
I1029 11:42:08.190783 18534 net.cpp:137] Memory required for data: 134471720
I1029 11:42:08.190788 18534 layer_factory.hpp:77] Creating layer pool1
I1029 11:42:08.190795 18534 net.cpp:84] Creating Layer pool1
I1029 11:42:08.190800 18534 net.cpp:406] pool1 <- conv1
I1029 11:42:08.190807 18534 net.cpp:380] pool1 -> pool1
I1029 11:42:08.190855 18534 net.cpp:122] Setting up pool1
I1029 11:42:08.190863 18534 net.cpp:129] Top shape: 10 64 56 56 (2007040)
I1029 11:42:08.190868 18534 net.cpp:137] Memory required for data: 142499880
I1029 11:42:08.190872 18534 layer_factory.hpp:77] Creating layer pool1_pool1_0_split
I1029 11:42:08.190881 18534 net.cpp:84] Creating Layer pool1_pool1_0_split
I1029 11:42:08.190884 18534 net.cpp:406] pool1_pool1_0_split <- pool1
I1029 11:42:08.190891 18534 net.cpp:380] pool1_pool1_0_split -> pool1_pool1_0_split_0
I1029 11:42:08.190901 18534 net.cpp:380] pool1_pool1_0_split -> pool1_pool1_0_split_1
I1029 11:42:08.190939 18534 net.cpp:122] Setting up pool1_pool1_0_split
I1029 11:42:08.190948 18534 net.cpp:129] Top shape: 10 64 56 56 (2007040)
I1029 11:42:08.190954 18534 net.cpp:129] Top shape: 10 64 56 56 (2007040)
I1029 11:42:08.190959 18534 net.cpp:137] Memory required for data: 158556200
I1029 11:42:08.190963 18534 layer_factory.hpp:77] Creating layer res2a_branch1
I1029 11:42:08.190974 18534 net.cpp:84] Creating Layer res2a_branch1
I1029 11:42:08.190980 18534 net.cpp:406] res2a_branch1 <- pool1_pool1_0_split_0
I1029 11:42:08.190989 18534 net.cpp:380] res2a_branch1 -> res2a_branch1
I1029 11:42:08.192118 18534 net.cpp:122] Setting up res2a_branch1
I1029 11:42:08.192132 18534 net.cpp:129] Top shape: 10 256 56 56 (8028160)
I1029 11:42:08.192137 18534 net.cpp:137] Memory required for data: 190668840
I1029 11:42:08.192147 18534 layer_factory.hpp:77] Creating layer bn2a_branch1
I1029 11:42:08.192157 18534 net.cpp:84] Creating Layer bn2a_branch1
I1029 11:42:08.192164 18534 net.cpp:406] bn2a_branch1 <- res2a_branch1
I1029 11:42:08.192173 18534 net.cpp:367] bn2a_branch1 -> res2a_branch1 (in-place)
I1029 11:42:08.192379 18534 net.cpp:122] Setting up bn2a_branch1
I1029 11:42:08.192389 18534 net.cpp:129] Top shape: 10 256 56 56 (8028160)
I1029 11:42:08.192392 18534 net.cpp:137] Memory required for data: 222781480
I1029 11:42:08.192407 18534 layer_factory.hpp:77] Creating layer scale2a_branch1
I1029 11:42:08.192416 18534 net.cpp:84] Creating Layer scale2a_branch1
I1029 11:42:08.192423 18534 net.cpp:406] scale2a_branch1 <- res2a_branch1
I1029 11:42:08.192430 18534 net.cpp:367] scale2a_branch1 -> res2a_branch1 (in-place)
I1029 11:42:08.192471 18534 layer_factory.hpp:77] Creating layer scale2a_branch1
I1029 11:42:08.192589 18534 net.cpp:122] Setting up scale2a_branch1
I1029 11:42:08.192598 18534 net.cpp:129] Top shape: 10 256 56 56 (8028160)
I1029 11:42:08.192602 18534 net.cpp:137] Memory required for data: 254894120
I1029 11:42:08.192610 18534 layer_factory.hpp:77] Creating layer res2a_branch2a
I1029 11:42:08.192622 18534 net.cpp:84] Creating Layer res2a_branch2a
I1029 11:42:08.192628 18534 net.cpp:406] res2a_branch2a <- pool1_pool1_0_split_1
I1029 11:42:08.192636 18534 net.cpp:380] res2a_branch2a -> res2a_branch2a
I1029 11:42:08.193686 18534 net.cpp:122] Setting up res2a_branch2a
I1029 11:42:08.193699 18534 net.cpp:129] Top shape: 10 64 56 56 (2007040)
I1029 11:42:08.193704 18534 net.cpp:137] Memory required for data: 262922280
I1029 11:42:08.193712 18534 layer_factory.hpp:77] Creating layer bn2a_branch2a
I1029 11:42:08.193722 18534 net.cpp:84] Creating Layer bn2a_branch2a
I1029 11:42:08.193739 18534 net.cpp:406] bn2a_branch2a <- res2a_branch2a
I1029 11:42:08.193747 18534 net.cpp:367] bn2a_branch2a -> res2a_branch2a (in-place)
I1029 11:42:08.193985 18534 net.cpp:122] Setting up bn2a_branch2a
I1029 11:42:08.193995 18534 net.cpp:129] Top shape: 10 64 56 56 (2007040)
I1029 11:42:08.194000 18534 net.cpp:137] Memory required for data: 270950440
I1029 11:42:08.194015 18534 layer_factory.hpp:77] Creating layer scale2a_branch2a
I1029 11:42:08.194025 18534 net.cpp:84] Creating Layer scale2a_branch2a
I1029 11:42:08.194030 18534 net.cpp:406] scale2a_branch2a <- res2a_branch2a
I1029 11:42:08.194036 18534 net.cpp:367] scale2a_branch2a -> res2a_branch2a (in-place)
I1029 11:42:08.194077 18534 layer_factory.hpp:77] Creating layer scale2a_branch2a
I1029 11:42:08.194200 18534 net.cpp:122] Setting up scale2a_branch2a
I1029 11:42:08.194207 18534 net.cpp:129] Top shape: 10 64 56 56 (2007040)
I1029 11:42:08.194212 18534 net.cpp:137] Memory required for data: 278978600
I1029 11:42:08.194221 18534 layer_factory.hpp:77] Creating layer res2a_branch2a_relu
I1029 11:42:08.194231 18534 net.cpp:84] Creating Layer res2a_branch2a_relu
I1029 11:42:08.194236 18534 net.cpp:406] res2a_branch2a_relu <- res2a_branch2a
I1029 11:42:08.194242 18534 net.cpp:367] res2a_branch2a_relu -> res2a_branch2a (in-place)
I1029 11:42:08.194439 18534 net.cpp:122] Setting up res2a_branch2a_relu
I1029 11:42:08.194448 18534 net.cpp:129] Top shape: 10 64 56 56 (2007040)
I1029 11:42:08.194453 18534 net.cpp:137] Memory required for data: 287006760
I1029 11:42:08.194458 18534 layer_factory.hpp:77] Creating layer res2a_branch2b
I1029 11:42:08.194468 18534 net.cpp:84] Creating Layer res2a_branch2b
I1029 11:42:08.194475 18534 net.cpp:406] res2a_branch2b <- res2a_branch2a
I1029 11:42:08.194486 18534 net.cpp:380] res2a_branch2b -> res2a_branch2b
I1029 11:42:08.197373 18534 net.cpp:122] Setting up res2a_branch2b
I1029 11:42:08.197414 18534 net.cpp:129] Top shape: 10 64 56 56 (2007040)
I1029 11:42:08.197419 18534 net.cpp:137] Memory required for data: 295034920
I1029 11:42:08.197434 18534 layer_factory.hpp:77] Creating layer bn2a_branch2b
I1029 11:42:08.197453 18534 net.cpp:84] Creating Layer bn2a_branch2b
I1029 11:42:08.197461 18534 net.cpp:406] bn2a_branch2b <- res2a_branch2b
I1029 11:42:08.197471 18534 net.cpp:367] bn2a_branch2b -> res2a_branch2b (in-place)
I1029 11:42:08.197707 18534 net.cpp:122] Setting up bn2a_branch2b
I1029 11:42:08.197716 18534 net.cpp:129] Top shape: 10 64 56 56 (2007040)
I1029 11:42:08.197721 18534 net.cpp:137] Memory required for data: 303063080
I1029 11:42:08.197732 18534 layer_factory.hpp:77] Creating layer scale2a_branch2b
I1029 11:42:08.197751 18534 net.cpp:84] Creating Layer scale2a_branch2b
I1029 11:42:08.197757 18534 net.cpp:406] scale2a_branch2b <- res2a_branch2b
I1029 11:42:08.197764 18534 net.cpp:367] scale2a_branch2b -> res2a_branch2b (in-place)
I1029 11:42:08.197811 18534 layer_factory.hpp:77] Creating layer scale2a_branch2b
I1029 11:42:08.197983 18534 net.cpp:122] Setting up scale2a_branch2b
I1029 11:42:08.197993 18534 net.cpp:129] Top shape: 10 64 56 56 (2007040)
I1029 11:42:08.197998 18534 net.cpp:137] Memory required for data: 311091240
I1029 11:42:08.198006 18534 layer_factory.hpp:77] Creating layer res2a_branch2b_relu
I1029 11:42:08.198015 18534 net.cpp:84] Creating Layer res2a_branch2b_relu
I1029 11:42:08.198022 18534 net.cpp:406] res2a_branch2b_relu <- res2a_branch2b
I1029 11:42:08.198029 18534 net.cpp:367] res2a_branch2b_relu -> res2a_branch2b (in-place)
I1029 11:42:08.198230 18534 net.cpp:122] Setting up res2a_branch2b_relu
I1029 11:42:08.198240 18534 net.cpp:129] Top shape: 10 64 56 56 (2007040)
I1029 11:42:08.198245 18534 net.cpp:137] Memory required for data: 319119400
I1029 11:42:08.198249 18534 layer_factory.hpp:77] Creating layer res2a_branch2c
I1029 11:42:08.198262 18534 net.cpp:84] Creating Layer res2a_branch2c
I1029 11:42:08.198269 18534 net.cpp:406] res2a_branch2c <- res2a_branch2b
I1029 11:42:08.198279 18534 net.cpp:380] res2a_branch2c -> res2a_branch2c
I1029 11:42:08.199442 18534 net.cpp:122] Setting up res2a_branch2c
I1029 11:42:08.199457 18534 net.cpp:129] Top shape: 10 256 56 56 (8028160)
I1029 11:42:08.199463 18534 net.cpp:137] Memory required for data: 351232040
I1029 11:42:08.199472 18534 layer_factory.hpp:77] Creating layer bn2a_branch2c
I1029 11:42:08.199484 18534 net.cpp:84] Creating Layer bn2a_branch2c
I1029 11:42:08.199489 18534 net.cpp:406] bn2a_branch2c <- res2a_branch2c
I1029 11:42:08.199497 18534 net.cpp:367] bn2a_branch2c -> res2a_branch2c (in-place)
I1029 11:42:08.199710 18534 net.cpp:122] Setting up bn2a_branch2c
I1029 11:42:08.199719 18534 net.cpp:129] Top shape: 10 256 56 56 (8028160)
I1029 11:42:08.199723 18534 net.cpp:137] Memory required for data: 383344680
I1029 11:42:08.199734 18534 layer_factory.hpp:77] Creating layer scale2a_branch2c
I1029 11:42:08.199743 18534 net.cpp:84] Creating Layer scale2a_branch2c
I1029 11:42:08.199748 18534 net.cpp:406] scale2a_branch2c <- res2a_branch2c
I1029 11:42:08.199754 18534 net.cpp:367] scale2a_branch2c -> res2a_branch2c (in-place)
I1029 11:42:08.199797 18534 layer_factory.hpp:77] Creating layer scale2a_branch2c
I1029 11:42:08.199921 18534 net.cpp:122] Setting up scale2a_branch2c
I1029 11:42:08.199930 18534 net.cpp:129] Top shape: 10 256 56 56 (8028160)
I1029 11:42:08.199934 18534 net.cpp:137] Memory required for data: 415457320
I1029 11:42:08.199942 18534 layer_factory.hpp:77] Creating layer res2a
I1029 11:42:08.199949 18534 net.cpp:84] Creating Layer res2a
I1029 11:42:08.199955 18534 net.cpp:406] res2a <- res2a_branch1
I1029 11:42:08.199961 18534 net.cpp:406] res2a <- res2a_branch2c
I1029 11:42:08.199970 18534 net.cpp:380] res2a -> res2a
I1029 11:42:08.199997 18534 net.cpp:122] Setting up res2a
I1029 11:42:08.200006 18534 net.cpp:129] Top shape: 10 256 56 56 (8028160)
I1029 11:42:08.200011 18534 net.cpp:137] Memory required for data: 447569960
I1029 11:42:08.200014 18534 layer_factory.hpp:77] Creating layer res2a_relu
I1029 11:42:08.200023 18534 net.cpp:84] Creating Layer res2a_relu
I1029 11:42:08.200027 18534 net.cpp:406] res2a_relu <- res2a
I1029 11:42:08.200034 18534 net.cpp:367] res2a_relu -> res2a (in-place)
I1029 11:42:08.200229 18534 net.cpp:122] Setting up res2a_relu
I1029 11:42:08.200239 18534 net.cpp:129] Top shape: 10 256 56 56 (8028160)
I1029 11:42:08.200243 18534 net.cpp:137] Memory required for data: 479682600
I1029 11:42:08.200248 18534 layer_factory.hpp:77] Creating layer res2a_res2a_relu_0_split
I1029 11:42:08.200255 18534 net.cpp:84] Creating Layer res2a_res2a_relu_0_split
I1029 11:42:08.200260 18534 net.cpp:406] res2a_res2a_relu_0_split <- res2a
I1029 11:42:08.200269 18534 net.cpp:380] res2a_res2a_relu_0_split -> res2a_res2a_relu_0_split_0
I1029 11:42:08.200279 18534 net.cpp:380] res2a_res2a_relu_0_split -> res2a_res2a_relu_0_split_1
I1029 11:42:08.200321 18534 net.cpp:122] Setting up res2a_res2a_relu_0_split
I1029 11:42:08.200330 18534 net.cpp:129] Top shape: 10 256 56 56 (8028160)
I1029 11:42:08.200335 18534 net.cpp:129] Top shape: 10 256 56 56 (8028160)
I1029 11:42:08.200340 18534 net.cpp:137] Memory required for data: 543907880
I1029 11:42:08.200345 18534 layer_factory.hpp:77] Creating layer res2b_branch2a
I1029 11:42:08.200356 18534 net.cpp:84] Creating Layer res2b_branch2a
I1029 11:42:08.200363 18534 net.cpp:406] res2b_branch2a <- res2a_res2a_relu_0_split_0
I1029 11:42:08.200371 18534 net.cpp:380] res2b_branch2a -> res2b_branch2a
I1029 11:42:08.201510 18534 net.cpp:122] Setting up res2b_branch2a
I1029 11:42:08.201527 18534 net.cpp:129] Top shape: 10 64 56 56 (2007040)
I1029 11:42:08.201532 18534 net.cpp:137] Memory required for data: 551936040
I1029 11:42:08.201541 18534 layer_factory.hpp:77] Creating layer bn2b_branch2a
I1029 11:42:08.201551 18534 net.cpp:84] Creating Layer bn2b_branch2a
I1029 11:42:08.201556 18534 net.cpp:406] bn2b_branch2a <- res2b_branch2a
I1029 11:42:08.201566 18534 net.cpp:367] bn2b_branch2a -> res2b_branch2a (in-place)
I1029 11:42:08.201794 18534 net.cpp:122] Setting up bn2b_branch2a
I1029 11:42:08.201803 18534 net.cpp:129] Top shape: 10 64 56 56 (2007040)
I1029 11:42:08.201833 18534 net.cpp:137] Memory required for data: 559964200
I1029 11:42:08.201854 18534 layer_factory.hpp:77] Creating layer scale2b_branch2a
I1029 11:42:08.201863 18534 net.cpp:84] Creating Layer scale2b_branch2a
I1029 11:42:08.201867 18534 net.cpp:406] scale2b_branch2a <- res2b_branch2a
I1029 11:42:08.201874 18534 net.cpp:367] scale2b_branch2a -> res2b_branch2a (in-place)
I1029 11:42:08.201918 18534 layer_factory.hpp:77] Creating layer scale2b_branch2a
I1029 11:42:08.202051 18534 net.cpp:122] Setting up scale2b_branch2a
I1029 11:42:08.202060 18534 net.cpp:129] Top shape: 10 64 56 56 (2007040)
I1029 11:42:08.202065 18534 net.cpp:137] Memory required for data: 567992360
I1029 11:42:08.202074 18534 layer_factory.hpp:77] Creating layer res2b_branch2a_relu
I1029 11:42:08.202080 18534 net.cpp:84] Creating Layer res2b_branch2a_relu
I1029 11:42:08.202086 18534 net.cpp:406] res2b_branch2a_relu <- res2b_branch2a
I1029 11:42:08.202095 18534 net.cpp:367] res2b_branch2a_relu -> res2b_branch2a (in-place)
I1029 11:42:08.202291 18534 net.cpp:122] Setting up res2b_branch2a_relu
I1029 11:42:08.202301 18534 net.cpp:129] Top shape: 10 64 56 56 (2007040)
I1029 11:42:08.202306 18534 net.cpp:137] Memory required for data: 576020520
I1029 11:42:08.202309 18534 layer_factory.hpp:77] Creating layer res2b_branch2b
I1029 11:42:08.202320 18534 net.cpp:84] Creating Layer res2b_branch2b
I1029 11:42:08.202325 18534 net.cpp:406] res2b_branch2b <- res2b_branch2a
I1029 11:42:08.202332 18534 net.cpp:380] res2b_branch2b -> res2b_branch2b
I1029 11:42:08.203547 18534 net.cpp:122] Setting up res2b_branch2b
I1029 11:42:08.203563 18534 net.cpp:129] Top shape: 10 64 56 56 (2007040)
I1029 11:42:08.203568 18534 net.cpp:137] Memory required for data: 584048680
I1029 11:42:08.203577 18534 layer_factory.hpp:77] Creating layer bn2b_branch2b
I1029 11:42:08.203585 18534 net.cpp:84] Creating Layer bn2b_branch2b
I1029 11:42:08.203591 18534 net.cpp:406] bn2b_branch2b <- res2b_branch2b
I1029 11:42:08.203601 18534 net.cpp:367] bn2b_branch2b -> res2b_branch2b (in-place)
I1029 11:42:08.203871 18534 net.cpp:122] Setting up bn2b_branch2b
I1029 11:42:08.203902 18534 net.cpp:129] Top shape: 10 64 56 56 (2007040)
I1029 11:42:08.203919 18534 net.cpp:137] Memory required for data: 592076840
I1029 11:42:08.203943 18534 layer_factory.hpp:77] Creating layer scale2b_branch2b
I1029 11:42:08.203968 18534 net.cpp:84] Creating Layer scale2b_branch2b
I1029 11:42:08.203984 18534 net.cpp:406] scale2b_branch2b <- res2b_branch2b
I1029 11:42:08.204005 18534 net.cpp:367] scale2b_branch2b -> res2b_branch2b (in-place)
I1029 11:42:08.204073 18534 layer_factory.hpp:77] Creating layer scale2b_branch2b
I1029 11:42:08.204252 18534 net.cpp:122] Setting up scale2b_branch2b
I1029 11:42:08.204275 18534 net.cpp:129] Top shape: 10 64 56 56 (2007040)
I1029 11:42:08.204290 18534 net.cpp:137] Memory required for data: 600105000
I1029 11:42:08.204310 18534 layer_factory.hpp:77] Creating layer res2b_branch2b_relu
I1029 11:42:08.204329 18534 net.cpp:84] Creating Layer res2b_branch2b_relu
I1029 11:42:08.204344 18534 net.cpp:406] res2b_branch2b_relu <- res2b_branch2b
I1029 11:42:08.204363 18534 net.cpp:367] res2b_branch2b_relu -> res2b_branch2b (in-place)
I1029 11:42:08.205034 18534 net.cpp:122] Setting up res2b_branch2b_relu
I1029 11:42:08.205052 18534 net.cpp:129] Top shape: 10 64 56 56 (2007040)
I1029 11:42:08.205057 18534 net.cpp:137] Memory required for data: 608133160
I1029 11:42:08.205063 18534 layer_factory.hpp:77] Creating layer res2b_branch2c
I1029 11:42:08.205088 18534 net.cpp:84] Creating Layer res2b_branch2c
I1029 11:42:08.205096 18534 net.cpp:406] res2b_branch2c <- res2b_branch2b
I1029 11:42:08.205103 18534 net.cpp:380] res2b_branch2c -> res2b_branch2c
I1029 11:42:08.206583 18534 net.cpp:122] Setting up res2b_branch2c
I1029 11:42:08.206630 18534 net.cpp:129] Top shape: 10 256 56 56 (8028160)
I1029 11:42:08.206636 18534 net.cpp:137] Memory required for data: 640245800
I1029 11:42:08.206650 18534 layer_factory.hpp:77] Creating layer bn2b_branch2c
I1029 11:42:08.206665 18534 net.cpp:84] Creating Layer bn2b_branch2c
I1029 11:42:08.206702 18534 net.cpp:406] bn2b_branch2c <- res2b_branch2c
I1029 11:42:08.206713 18534 net.cpp:367] bn2b_branch2c -> res2b_branch2c (in-place)
I1029 11:42:08.206974 18534 net.cpp:122] Setting up bn2b_branch2c
I1029 11:42:08.206987 18534 net.cpp:129] Top shape: 10 256 56 56 (8028160)
I1029 11:42:08.206992 18534 net.cpp:137] Memory required for data: 672358440
I1029 11:42:08.207006 18534 layer_factory.hpp:77] Creating layer scale2b_branch2c
I1029 11:42:08.207023 18534 net.cpp:84] Creating Layer scale2b_branch2c
I1029 11:42:08.207031 18534 net.cpp:406] scale2b_branch2c <- res2b_branch2c
I1029 11:42:08.207039 18534 net.cpp:367] scale2b_branch2c -> res2b_branch2c (in-place)
I1029 11:42:08.207093 18534 layer_factory.hpp:77] Creating layer scale2b_branch2c
I1029 11:42:08.207281 18534 net.cpp:122] Setting up scale2b_branch2c
I1029 11:42:08.207337 18534 net.cpp:129] Top shape: 10 256 56 56 (8028160)
I1029 11:42:08.207357 18534 net.cpp:137] Memory required for data: 704471080
I1029 11:42:08.207381 18534 layer_factory.hpp:77] Creating layer res2b
I1029 11:42:08.207412 18534 net.cpp:84] Creating Layer res2b
I1029 11:42:08.207428 18534 net.cpp:406] res2b <- res2a_res2a_relu_0_split_1
I1029 11:42:08.207448 18534 net.cpp:406] res2b <- res2b_branch2c
I1029 11:42:08.207468 18534 net.cpp:380] res2b -> res2b
I1029 11:42:08.207535 18534 net.cpp:122] Setting up res2b
I1029 11:42:08.207554 18534 net.cpp:129] Top shape: 10 256 56 56 (8028160)
I1029 11:42:08.207569 18534 net.cpp:137] Memory required for data: 736583720
I1029 11:42:08.207587 18534 layer_factory.hpp:77] Creating layer res2b_relu
I1029 11:42:08.207608 18534 net.cpp:84] Creating Layer res2b_relu
I1029 11:42:08.207615 18534 net.cpp:406] res2b_relu <- res2b
I1029 11:42:08.207623 18534 net.cpp:367] res2b_relu -> res2b (in-place)
I1029 11:42:08.207907 18534 net.cpp:122] Setting up res2b_relu
I1029 11:42:08.207921 18534 net.cpp:129] Top shape: 10 256 56 56 (8028160)
I1029 11:42:08.207928 18534 net.cpp:137] Memory required for data: 768696360
I1029 11:42:08.207932 18534 layer_factory.hpp:77] Creating layer res2b_res2b_relu_0_split
I1029 11:42:08.207940 18534 net.cpp:84] Creating Layer res2b_res2b_relu_0_split
I1029 11:42:08.207944 18534 net.cpp:406] res2b_res2b_relu_0_split <- res2b
I1029 11:42:08.207952 18534 net.cpp:380] res2b_res2b_relu_0_split -> res2b_res2b_relu_0_split_0
I1029 11:42:08.207960 18534 net.cpp:380] res2b_res2b_relu_0_split -> res2b_res2b_relu_0_split_1
I1029 11:42:08.208005 18534 net.cpp:122] Setting up res2b_res2b_relu_0_split
I1029 11:42:08.208014 18534 net.cpp:129] Top shape: 10 256 56 56 (8028160)
I1029 11:42:08.208020 18534 net.cpp:129] Top shape: 10 256 56 56 (8028160)
I1029 11:42:08.208024 18534 net.cpp:137] Memory required for data: 832921640
I1029 11:42:08.208029 18534 layer_factory.hpp:77] Creating layer res2c_branch2a
I1029 11:42:08.208041 18534 net.cpp:84] Creating Layer res2c_branch2a
I1029 11:42:08.208047 18534 net.cpp:406] res2c_branch2a <- res2b_res2b_relu_0_split_0
I1029 11:42:08.208056 18534 net.cpp:380] res2c_branch2a -> res2c_branch2a
I1029 11:42:08.209358 18534 net.cpp:122] Setting up res2c_branch2a
I1029 11:42:08.209373 18534 net.cpp:129] Top shape: 10 64 56 56 (2007040)
I1029 11:42:08.209380 18534 net.cpp:137] Memory required for data: 840949800
I1029 11:42:08.209391 18534 layer_factory.hpp:77] Creating layer bn2c_branch2a
I1029 11:42:08.209406 18534 net.cpp:84] Creating Layer bn2c_branch2a
I1029 11:42:08.209414 18534 net.cpp:406] bn2c_branch2a <- res2c_branch2a
I1029 11:42:08.209420 18534 net.cpp:367] bn2c_branch2a -> res2c_branch2a (in-place)
I1029 11:42:08.209664 18534 net.cpp:122] Setting up bn2c_branch2a
I1029 11:42:08.209672 18534 net.cpp:129] Top shape: 10 64 56 56 (2007040)
I1029 11:42:08.209677 18534 net.cpp:137] Memory required for data: 848977960
I1029 11:42:08.209687 18534 layer_factory.hpp:77] Creating layer scale2c_branch2a
I1029 11:42:08.209697 18534 net.cpp:84] Creating Layer scale2c_branch2a
I1029 11:42:08.209704 18534 net.cpp:406] scale2c_branch2a <- res2c_branch2a
I1029 11:42:08.209712 18534 net.cpp:367] scale2c_branch2a -> res2c_branch2a (in-place)
I1029 11:42:08.209771 18534 layer_factory.hpp:77] Creating layer scale2c_branch2a
I1029 11:42:08.209936 18534 net.cpp:122] Setting up scale2c_branch2a
I1029 11:42:08.209946 18534 net.cpp:129] Top shape: 10 64 56 56 (2007040)
I1029 11:42:08.209951 18534 net.cpp:137] Memory required for data: 857006120
I1029 11:42:08.209959 18534 layer_factory.hpp:77] Creating layer res2c_branch2a_relu
I1029 11:42:08.209969 18534 net.cpp:84] Creating Layer res2c_branch2a_relu
I1029 11:42:08.209976 18534 net.cpp:406] res2c_branch2a_relu <- res2c_branch2a
I1029 11:42:08.209985 18534 net.cpp:367] res2c_branch2a_relu -> res2c_branch2a (in-place)
I1029 11:42:08.210186 18534 net.cpp:122] Setting up res2c_branch2a_relu
I1029 11:42:08.210196 18534 net.cpp:129] Top shape: 10 64 56 56 (2007040)
I1029 11:42:08.210201 18534 net.cpp:137] Memory required for data: 865034280
I1029 11:42:08.210204 18534 layer_factory.hpp:77] Creating layer res2c_branch2b
I1029 11:42:08.210216 18534 net.cpp:84] Creating Layer res2c_branch2b
I1029 11:42:08.210222 18534 net.cpp:406] res2c_branch2b <- res2c_branch2a
I1029 11:42:08.210232 18534 net.cpp:380] res2c_branch2b -> res2c_branch2b
I1029 11:42:08.211720 18534 net.cpp:122] Setting up res2c_branch2b
I1029 11:42:08.211737 18534 net.cpp:129] Top shape: 10 64 56 56 (2007040)
I1029 11:42:08.211742 18534 net.cpp:137] Memory required for data: 873062440
I1029 11:42:08.211751 18534 layer_factory.hpp:77] Creating layer bn2c_branch2b
I1029 11:42:08.211762 18534 net.cpp:84] Creating Layer bn2c_branch2b
I1029 11:42:08.211769 18534 net.cpp:406] bn2c_branch2b <- res2c_branch2b
I1029 11:42:08.211778 18534 net.cpp:367] bn2c_branch2b -> res2c_branch2b (in-place)
I1029 11:42:08.212055 18534 net.cpp:122] Setting up bn2c_branch2b
I1029 11:42:08.212066 18534 net.cpp:129] Top shape: 10 64 56 56 (2007040)
I1029 11:42:08.212074 18534 net.cpp:137] Memory required for data: 881090600
I1029 11:42:08.212085 18534 layer_factory.hpp:77] Creating layer scale2c_branch2b
I1029 11:42:08.212095 18534 net.cpp:84] Creating Layer scale2c_branch2b
I1029 11:42:08.212101 18534 net.cpp:406] scale2c_branch2b <- res2c_branch2b
I1029 11:42:08.212110 18534 net.cpp:367] scale2c_branch2b -> res2c_branch2b (in-place)
I1029 11:42:08.212160 18534 layer_factory.hpp:77] Creating layer scale2c_branch2b
I1029 11:42:08.212301 18534 net.cpp:122] Setting up scale2c_branch2b
I1029 11:42:08.212309 18534 net.cpp:129] Top shape: 10 64 56 56 (2007040)
I1029 11:42:08.212313 18534 net.cpp:137] Memory required for data: 889118760
I1029 11:42:08.212321 18534 layer_factory.hpp:77] Creating layer res2c_branch2b_relu
I1029 11:42:08.212333 18534 net.cpp:84] Creating Layer res2c_branch2b_relu
I1029 11:42:08.212339 18534 net.cpp:406] res2c_branch2b_relu <- res2c_branch2b
I1029 11:42:08.212345 18534 net.cpp:367] res2c_branch2b_relu -> res2c_branch2b (in-place)
I1029 11:42:08.212561 18534 net.cpp:122] Setting up res2c_branch2b_relu
I1029 11:42:08.212570 18534 net.cpp:129] Top shape: 10 64 56 56 (2007040)
I1029 11:42:08.212575 18534 net.cpp:137] Memory required for data: 897146920
I1029 11:42:08.212579 18534 layer_factory.hpp:77] Creating layer res2c_branch2c
I1029 11:42:08.212591 18534 net.cpp:84] Creating Layer res2c_branch2c
I1029 11:42:08.212597 18534 net.cpp:406] res2c_branch2c <- res2c_branch2b
I1029 11:42:08.212607 18534 net.cpp:380] res2c_branch2c -> res2c_branch2c
I1029 11:42:08.213845 18534 net.cpp:122] Setting up res2c_branch2c
I1029 11:42:08.213862 18534 net.cpp:129] Top shape: 10 256 56 56 (8028160)
I1029 11:42:08.213867 18534 net.cpp:137] Memory required for data: 929259560
I1029 11:42:08.213876 18534 layer_factory.hpp:77] Creating layer bn2c_branch2c
I1029 11:42:08.213887 18534 net.cpp:84] Creating Layer bn2c_branch2c
I1029 11:42:08.213892 18534 net.cpp:406] bn2c_branch2c <- res2c_branch2c
I1029 11:42:08.213903 18534 net.cpp:367] bn2c_branch2c -> res2c_branch2c (in-place)
I1029 11:42:08.214138 18534 net.cpp:122] Setting up bn2c_branch2c
I1029 11:42:08.214148 18534 net.cpp:129] Top shape: 10 256 56 56 (8028160)
I1029 11:42:08.214174 18534 net.cpp:137] Memory required for data: 961372200
I1029 11:42:08.214202 18534 layer_factory.hpp:77] Creating layer scale2c_branch2c
I1029 11:42:08.214215 18534 net.cpp:84] Creating Layer scale2c_branch2c
I1029 11:42:08.214221 18534 net.cpp:406] scale2c_branch2c <- res2c_branch2c
I1029 11:42:08.214228 18534 net.cpp:367] scale2c_branch2c -> res2c_branch2c (in-place)
I1029 11:42:08.214272 18534 layer_factory.hpp:77] Creating layer scale2c_branch2c
I1029 11:42:08.214396 18534 net.cpp:122] Setting up scale2c_branch2c
I1029 11:42:08.214406 18534 net.cpp:129] Top shape: 10 256 56 56 (8028160)
I1029 11:42:08.214411 18534 net.cpp:137] Memory required for data: 993484840
I1029 11:42:08.214418 18534 layer_factory.hpp:77] Creating layer res2c
I1029 11:42:08.214429 18534 net.cpp:84] Creating Layer res2c
I1029 11:42:08.214435 18534 net.cpp:406] res2c <- res2b_res2b_relu_0_split_1
I1029 11:42:08.214442 18534 net.cpp:406] res2c <- res2c_branch2c
I1029 11:42:08.214450 18534 net.cpp:380] res2c -> res2c
I1029 11:42:08.214478 18534 net.cpp:122] Setting up res2c
I1029 11:42:08.214485 18534 net.cpp:129] Top shape: 10 256 56 56 (8028160)
I1029 11:42:08.214489 18534 net.cpp:137] Memory required for data: 1025597480
I1029 11:42:08.214494 18534 layer_factory.hpp:77] Creating layer res2c_relu
I1029 11:42:08.214504 18534 net.cpp:84] Creating Layer res2c_relu
I1029 11:42:08.214510 18534 net.cpp:406] res2c_relu <- res2c
I1029 11:42:08.214516 18534 net.cpp:367] res2c_relu -> res2c (in-place)
I1029 11:42:08.214721 18534 net.cpp:122] Setting up res2c_relu
I1029 11:42:08.214731 18534 net.cpp:129] Top shape: 10 256 56 56 (8028160)
I1029 11:42:08.214735 18534 net.cpp:137] Memory required for data: 1057710120
I1029 11:42:08.214740 18534 layer_factory.hpp:77] Creating layer res2c_res2c_relu_0_split
I1029 11:42:08.214751 18534 net.cpp:84] Creating Layer res2c_res2c_relu_0_split
I1029 11:42:08.214757 18534 net.cpp:406] res2c_res2c_relu_0_split <- res2c
I1029 11:42:08.214764 18534 net.cpp:380] res2c_res2c_relu_0_split -> res2c_res2c_relu_0_split_0
I1029 11:42:08.214773 18534 net.cpp:380] res2c_res2c_relu_0_split -> res2c_res2c_relu_0_split_1
I1029 11:42:08.214817 18534 net.cpp:122] Setting up res2c_res2c_relu_0_split
I1029 11:42:08.214824 18534 net.cpp:129] Top shape: 10 256 56 56 (8028160)
I1029 11:42:08.214830 18534 net.cpp:129] Top shape: 10 256 56 56 (8028160)
I1029 11:42:08.214834 18534 net.cpp:137] Memory required for data: 1121935400
I1029 11:42:08.214839 18534 layer_factory.hpp:77] Creating layer res3a_branch1
I1029 11:42:08.214850 18534 net.cpp:84] Creating Layer res3a_branch1
I1029 11:42:08.214857 18534 net.cpp:406] res3a_branch1 <- res2c_res2c_relu_0_split_0
I1029 11:42:08.214866 18534 net.cpp:380] res3a_branch1 -> res3a_branch1
I1029 11:42:08.217983 18534 net.cpp:122] Setting up res3a_branch1
I1029 11:42:08.218019 18534 net.cpp:129] Top shape: 10 512 28 28 (4014080)
I1029 11:42:08.218024 18534 net.cpp:137] Memory required for data: 1137991720
I1029 11:42:08.218039 18534 layer_factory.hpp:77] Creating layer bn3a_branch1
I1029 11:42:08.218053 18534 net.cpp:84] Creating Layer bn3a_branch1
I1029 11:42:08.218060 18534 net.cpp:406] bn3a_branch1 <- res3a_branch1
I1029 11:42:08.218073 18534 net.cpp:367] bn3a_branch1 -> res3a_branch1 (in-place)
I1029 11:42:08.219754 18534 net.cpp:122] Setting up bn3a_branch1
I1029 11:42:08.219847 18534 net.cpp:129] Top shape: 10 512 28 28 (4014080)
I1029 11:42:08.219868 18534 net.cpp:137] Memory required for data: 1154048040
I1029 11:42:08.219898 18534 layer_factory.hpp:77] Creating layer scale3a_branch1
I1029 11:42:08.219926 18534 net.cpp:84] Creating Layer scale3a_branch1
I1029 11:42:08.219946 18534 net.cpp:406] scale3a_branch1 <- res3a_branch1
I1029 11:42:08.219959 18534 net.cpp:367] scale3a_branch1 -> res3a_branch1 (in-place)
I1029 11:42:08.220026 18534 layer_factory.hpp:77] Creating layer scale3a_branch1
I1029 11:42:08.220155 18534 net.cpp:122] Setting up scale3a_branch1
I1029 11:42:08.220163 18534 net.cpp:129] Top shape: 10 512 28 28 (4014080)
I1029 11:42:08.220168 18534 net.cpp:137] Memory required for data: 1170104360
I1029 11:42:08.220193 18534 layer_factory.hpp:77] Creating layer res3a_branch2a
I1029 11:42:08.220209 18534 net.cpp:84] Creating Layer res3a_branch2a
I1029 11:42:08.220216 18534 net.cpp:406] res3a_branch2a <- res2c_res2c_relu_0_split_1
I1029 11:42:08.220226 18534 net.cpp:380] res3a_branch2a -> res3a_branch2a
I1029 11:42:08.221838 18534 net.cpp:122] Setting up res3a_branch2a
I1029 11:42:08.221864 18534 net.cpp:129] Top shape: 10 128 28 28 (1003520)
I1029 11:42:08.221869 18534 net.cpp:137] Memory required for data: 1174118440
I1029 11:42:08.221881 18534 layer_factory.hpp:77] Creating layer bn3a_branch2a
I1029 11:42:08.221895 18534 net.cpp:84] Creating Layer bn3a_branch2a
I1029 11:42:08.221900 18534 net.cpp:406] bn3a_branch2a <- res3a_branch2a
I1029 11:42:08.221911 18534 net.cpp:367] bn3a_branch2a -> res3a_branch2a (in-place)
I1029 11:42:08.222137 18534 net.cpp:122] Setting up bn3a_branch2a
I1029 11:42:08.222146 18534 net.cpp:129] Top shape: 10 128 28 28 (1003520)
I1029 11:42:08.222149 18534 net.cpp:137] Memory required for data: 1178132520
I1029 11:42:08.222158 18534 layer_factory.hpp:77] Creating layer scale3a_branch2a
I1029 11:42:08.222165 18534 net.cpp:84] Creating Layer scale3a_branch2a
I1029 11:42:08.222169 18534 net.cpp:406] scale3a_branch2a <- res3a_branch2a
I1029 11:42:08.222177 18534 net.cpp:367] scale3a_branch2a -> res3a_branch2a (in-place)
I1029 11:42:08.222220 18534 layer_factory.hpp:77] Creating layer scale3a_branch2a
I1029 11:42:08.222350 18534 net.cpp:122] Setting up scale3a_branch2a
I1029 11:42:08.222360 18534 net.cpp:129] Top shape: 10 128 28 28 (1003520)
I1029 11:42:08.222365 18534 net.cpp:137] Memory required for data: 1182146600
I1029 11:42:08.222373 18534 layer_factory.hpp:77] Creating layer res3a_branch2a_relu
I1029 11:42:08.222381 18534 net.cpp:84] Creating Layer res3a_branch2a_relu
I1029 11:42:08.222385 18534 net.cpp:406] res3a_branch2a_relu <- res3a_branch2a
I1029 11:42:08.222393 18534 net.cpp:367] res3a_branch2a_relu -> res3a_branch2a (in-place)
I1029 11:42:08.223073 18534 net.cpp:122] Setting up res3a_branch2a_relu
I1029 11:42:08.223105 18534 net.cpp:129] Top shape: 10 128 28 28 (1003520)
I1029 11:42:08.223114 18534 net.cpp:137] Memory required for data: 1186160680
I1029 11:42:08.223121 18534 layer_factory.hpp:77] Creating layer res3a_branch2b
I1029 11:42:08.223137 18534 net.cpp:84] Creating Layer res3a_branch2b
I1029 11:42:08.223146 18534 net.cpp:406] res3a_branch2b <- res3a_branch2a
I1029 11:42:08.223160 18534 net.cpp:380] res3a_branch2b -> res3a_branch2b
I1029 11:42:08.225492 18534 net.cpp:122] Setting up res3a_branch2b
I1029 11:42:08.225528 18534 net.cpp:129] Top shape: 10 128 28 28 (1003520)
I1029 11:42:08.225533 18534 net.cpp:137] Memory required for data: 1190174760
I1029 11:42:08.225548 18534 layer_factory.hpp:77] Creating layer bn3a_branch2b
I1029 11:42:08.225563 18534 net.cpp:84] Creating Layer bn3a_branch2b
I1029 11:42:08.225571 18534 net.cpp:406] bn3a_branch2b <- res3a_branch2b
I1029 11:42:08.225584 18534 net.cpp:367] bn3a_branch2b -> res3a_branch2b (in-place)
I1029 11:42:08.225844 18534 net.cpp:122] Setting up bn3a_branch2b
I1029 11:42:08.225857 18534 net.cpp:129] Top shape: 10 128 28 28 (1003520)
I1029 11:42:08.225865 18534 net.cpp:137] Memory required for data: 1194188840
I1029 11:42:08.225875 18534 layer_factory.hpp:77] Creating layer scale3a_branch2b
I1029 11:42:08.225885 18534 net.cpp:84] Creating Layer scale3a_branch2b
I1029 11:42:08.225890 18534 net.cpp:406] scale3a_branch2b <- res3a_branch2b
I1029 11:42:08.225898 18534 net.cpp:367] scale3a_branch2b -> res3a_branch2b (in-place)
I1029 11:42:08.225950 18534 layer_factory.hpp:77] Creating layer scale3a_branch2b
I1029 11:42:08.226078 18534 net.cpp:122] Setting up scale3a_branch2b
I1029 11:42:08.226089 18534 net.cpp:129] Top shape: 10 128 28 28 (1003520)
I1029 11:42:08.226092 18534 net.cpp:137] Memory required for data: 1198202920
I1029 11:42:08.226101 18534 layer_factory.hpp:77] Creating layer res3a_branch2b_relu
I1029 11:42:08.226109 18534 net.cpp:84] Creating Layer res3a_branch2b_relu
I1029 11:42:08.226114 18534 net.cpp:406] res3a_branch2b_relu <- res3a_branch2b
I1029 11:42:08.226140 18534 net.cpp:367] res3a_branch2b_relu -> res3a_branch2b (in-place)
I1029 11:42:08.226671 18534 net.cpp:122] Setting up res3a_branch2b_relu
I1029 11:42:08.226683 18534 net.cpp:129] Top shape: 10 128 28 28 (1003520)
I1029 11:42:08.226688 18534 net.cpp:137] Memory required for data: 1202217000
I1029 11:42:08.226693 18534 layer_factory.hpp:77] Creating layer res3a_branch2c
I1029 11:42:08.226706 18534 net.cpp:84] Creating Layer res3a_branch2c
I1029 11:42:08.226711 18534 net.cpp:406] res3a_branch2c <- res3a_branch2b
I1029 11:42:08.226719 18534 net.cpp:380] res3a_branch2c -> res3a_branch2c
I1029 11:42:08.227648 18534 net.cpp:122] Setting up res3a_branch2c
I1029 11:42:08.227660 18534 net.cpp:129] Top shape: 10 512 28 28 (4014080)
I1029 11:42:08.227665 18534 net.cpp:137] Memory required for data: 1218273320
I1029 11:42:08.227674 18534 layer_factory.hpp:77] Creating layer bn3a_branch2c
I1029 11:42:08.227700 18534 net.cpp:84] Creating Layer bn3a_branch2c
I1029 11:42:08.227707 18534 net.cpp:406] bn3a_branch2c <- res3a_branch2c
I1029 11:42:08.227713 18534 net.cpp:367] bn3a_branch2c -> res3a_branch2c (in-place)
I1029 11:42:08.227941 18534 net.cpp:122] Setting up bn3a_branch2c
I1029 11:42:08.227948 18534 net.cpp:129] Top shape: 10 512 28 28 (4014080)
I1029 11:42:08.227953 18534 net.cpp:137] Memory required for data: 1234329640
I1029 11:42:08.227963 18534 layer_factory.hpp:77] Creating layer scale3a_branch2c
I1029 11:42:08.227973 18534 net.cpp:84] Creating Layer scale3a_branch2c
I1029 11:42:08.227979 18534 net.cpp:406] scale3a_branch2c <- res3a_branch2c
I1029 11:42:08.227988 18534 net.cpp:367] scale3a_branch2c -> res3a_branch2c (in-place)
I1029 11:42:08.228034 18534 layer_factory.hpp:77] Creating layer scale3a_branch2c
I1029 11:42:08.228157 18534 net.cpp:122] Setting up scale3a_branch2c
I1029 11:42:08.228166 18534 net.cpp:129] Top shape: 10 512 28 28 (4014080)
I1029 11:42:08.228170 18534 net.cpp:137] Memory required for data: 1250385960
I1029 11:42:08.228178 18534 layer_factory.hpp:77] Creating layer res3a
I1029 11:42:08.228189 18534 net.cpp:84] Creating Layer res3a
I1029 11:42:08.228195 18534 net.cpp:406] res3a <- res3a_branch1
I1029 11:42:08.228201 18534 net.cpp:406] res3a <- res3a_branch2c
I1029 11:42:08.228210 18534 net.cpp:380] res3a -> res3a
I1029 11:42:08.228240 18534 net.cpp:122] Setting up res3a
I1029 11:42:08.228266 18534 net.cpp:129] Top shape: 10 512 28 28 (4014080)
I1029 11:42:08.228281 18534 net.cpp:137] Memory required for data: 1266442280
I1029 11:42:08.228289 18534 layer_factory.hpp:77] Creating layer res3a_relu
I1029 11:42:08.228299 18534 net.cpp:84] Creating Layer res3a_relu
I1029 11:42:08.228304 18534 net.cpp:406] res3a_relu <- res3a
I1029 11:42:08.228310 18534 net.cpp:367] res3a_relu -> res3a (in-place)
I1029 11:42:08.228914 18534 net.cpp:122] Setting up res3a_relu
I1029 11:42:08.228927 18534 net.cpp:129] Top shape: 10 512 28 28 (4014080)
I1029 11:42:08.228932 18534 net.cpp:137] Memory required for data: 1282498600
I1029 11:42:08.228937 18534 layer_factory.hpp:77] Creating layer res3a_res3a_relu_0_split
I1029 11:42:08.228947 18534 net.cpp:84] Creating Layer res3a_res3a_relu_0_split
I1029 11:42:08.228955 18534 net.cpp:406] res3a_res3a_relu_0_split <- res3a
I1029 11:42:08.228962 18534 net.cpp:380] res3a_res3a_relu_0_split -> res3a_res3a_relu_0_split_0
I1029 11:42:08.228974 18534 net.cpp:380] res3a_res3a_relu_0_split -> res3a_res3a_relu_0_split_1
I1029 11:42:08.229022 18534 net.cpp:122] Setting up res3a_res3a_relu_0_split
I1029 11:42:08.229030 18534 net.cpp:129] Top shape: 10 512 28 28 (4014080)
I1029 11:42:08.229037 18534 net.cpp:129] Top shape: 10 512 28 28 (4014080)
I1029 11:42:08.229040 18534 net.cpp:137] Memory required for data: 1314611240
I1029 11:42:08.229045 18534 layer_factory.hpp:77] Creating layer res3b_branch2a
I1029 11:42:08.229058 18534 net.cpp:84] Creating Layer res3b_branch2a
I1029 11:42:08.229063 18534 net.cpp:406] res3b_branch2a <- res3a_res3a_relu_0_split_0
I1029 11:42:08.229073 18534 net.cpp:380] res3b_branch2a -> res3b_branch2a
I1029 11:42:08.230412 18534 net.cpp:122] Setting up res3b_branch2a
I1029 11:42:08.230434 18534 net.cpp:129] Top shape: 10 128 28 28 (1003520)
I1029 11:42:08.230439 18534 net.cpp:137] Memory required for data: 1318625320
I1029 11:42:08.230450 18534 layer_factory.hpp:77] Creating layer bn3b_branch2a
I1029 11:42:08.230463 18534 net.cpp:84] Creating Layer bn3b_branch2a
I1029 11:42:08.230471 18534 net.cpp:406] bn3b_branch2a <- res3b_branch2a
I1029 11:42:08.230480 18534 net.cpp:367] bn3b_branch2a -> res3b_branch2a (in-place)
I1029 11:42:08.230711 18534 net.cpp:122] Setting up bn3b_branch2a
I1029 11:42:08.230720 18534 net.cpp:129] Top shape: 10 128 28 28 (1003520)
I1029 11:42:08.230725 18534 net.cpp:137] Memory required for data: 1322639400
I1029 11:42:08.230736 18534 layer_factory.hpp:77] Creating layer scale3b_branch2a
I1029 11:42:08.230743 18534 net.cpp:84] Creating Layer scale3b_branch2a
I1029 11:42:08.230748 18534 net.cpp:406] scale3b_branch2a <- res3b_branch2a
I1029 11:42:08.230756 18534 net.cpp:367] scale3b_branch2a -> res3b_branch2a (in-place)
I1029 11:42:08.230803 18534 layer_factory.hpp:77] Creating layer scale3b_branch2a
I1029 11:42:08.230933 18534 net.cpp:122] Setting up scale3b_branch2a
I1029 11:42:08.230942 18534 net.cpp:129] Top shape: 10 128 28 28 (1003520)
I1029 11:42:08.230947 18534 net.cpp:137] Memory required for data: 1326653480
I1029 11:42:08.230955 18534 layer_factory.hpp:77] Creating layer res3b_branch2a_relu
I1029 11:42:08.230962 18534 net.cpp:84] Creating Layer res3b_branch2a_relu
I1029 11:42:08.230967 18534 net.cpp:406] res3b_branch2a_relu <- res3b_branch2a
I1029 11:42:08.230975 18534 net.cpp:367] res3b_branch2a_relu -> res3b_branch2a (in-place)
I1029 11:42:08.231178 18534 net.cpp:122] Setting up res3b_branch2a_relu
I1029 11:42:08.231186 18534 net.cpp:129] Top shape: 10 128 28 28 (1003520)
I1029 11:42:08.231190 18534 net.cpp:137] Memory required for data: 1330667560
I1029 11:42:08.231195 18534 layer_factory.hpp:77] Creating layer res3b_branch2b
I1029 11:42:08.231206 18534 net.cpp:84] Creating Layer res3b_branch2b
I1029 11:42:08.231211 18534 net.cpp:406] res3b_branch2b <- res3b_branch2a
I1029 11:42:08.231220 18534 net.cpp:380] res3b_branch2b -> res3b_branch2b
I1029 11:42:08.232924 18534 net.cpp:122] Setting up res3b_branch2b
I1029 11:42:08.232947 18534 net.cpp:129] Top shape: 10 128 28 28 (1003520)
I1029 11:42:08.232952 18534 net.cpp:137] Memory required for data: 1334681640
I1029 11:42:08.232964 18534 layer_factory.hpp:77] Creating layer bn3b_branch2b
I1029 11:42:08.232978 18534 net.cpp:84] Creating Layer bn3b_branch2b
I1029 11:42:08.232985 18534 net.cpp:406] bn3b_branch2b <- res3b_branch2b
I1029 11:42:08.232993 18534 net.cpp:367] bn3b_branch2b -> res3b_branch2b (in-place)
I1029 11:42:08.233230 18534 net.cpp:122] Setting up bn3b_branch2b
I1029 11:42:08.233239 18534 net.cpp:129] Top shape: 10 128 28 28 (1003520)
I1029 11:42:08.233244 18534 net.cpp:137] Memory required for data: 1338695720
I1029 11:42:08.233255 18534 layer_factory.hpp:77] Creating layer scale3b_branch2b
I1029 11:42:08.233265 18534 net.cpp:84] Creating Layer scale3b_branch2b
I1029 11:42:08.233269 18534 net.cpp:406] scale3b_branch2b <- res3b_branch2b
I1029 11:42:08.233276 18534 net.cpp:367] scale3b_branch2b -> res3b_branch2b (in-place)
I1029 11:42:08.233325 18534 layer_factory.hpp:77] Creating layer scale3b_branch2b
I1029 11:42:08.233454 18534 net.cpp:122] Setting up scale3b_branch2b
I1029 11:42:08.233463 18534 net.cpp:129] Top shape: 10 128 28 28 (1003520)
I1029 11:42:08.233467 18534 net.cpp:137] Memory required for data: 1342709800
I1029 11:42:08.233475 18534 layer_factory.hpp:77] Creating layer res3b_branch2b_relu
I1029 11:42:08.233482 18534 net.cpp:84] Creating Layer res3b_branch2b_relu
I1029 11:42:08.233487 18534 net.cpp:406] res3b_branch2b_relu <- res3b_branch2b
I1029 11:42:08.233495 18534 net.cpp:367] res3b_branch2b_relu -> res3b_branch2b (in-place)
I1029 11:42:08.233710 18534 net.cpp:122] Setting up res3b_branch2b_relu
I1029 11:42:08.233718 18534 net.cpp:129] Top shape: 10 128 28 28 (1003520)
I1029 11:42:08.233723 18534 net.cpp:137] Memory required for data: 1346723880
I1029 11:42:08.233748 18534 layer_factory.hpp:77] Creating layer res3b_branch2c
I1029 11:42:08.233762 18534 net.cpp:84] Creating Layer res3b_branch2c
I1029 11:42:08.233767 18534 net.cpp:406] res3b_branch2c <- res3b_branch2b
I1029 11:42:08.233773 18534 net.cpp:380] res3b_branch2c -> res3b_branch2c
I1029 11:42:08.235097 18534 net.cpp:122] Setting up res3b_branch2c
I1029 11:42:08.235118 18534 net.cpp:129] Top shape: 10 512 28 28 (4014080)
I1029 11:42:08.235123 18534 net.cpp:137] Memory required for data: 1362780200
I1029 11:42:08.235132 18534 layer_factory.hpp:77] Creating layer bn3b_branch2c
I1029 11:42:08.235141 18534 net.cpp:84] Creating Layer bn3b_branch2c
I1029 11:42:08.235147 18534 net.cpp:406] bn3b_branch2c <- res3b_branch2c
I1029 11:42:08.235158 18534 net.cpp:367] bn3b_branch2c -> res3b_branch2c (in-place)
I1029 11:42:08.235390 18534 net.cpp:122] Setting up bn3b_branch2c
I1029 11:42:08.235399 18534 net.cpp:129] Top shape: 10 512 28 28 (4014080)
I1029 11:42:08.235404 18534 net.cpp:137] Memory required for data: 1378836520
I1029 11:42:08.235414 18534 layer_factory.hpp:77] Creating layer scale3b_branch2c
I1029 11:42:08.235422 18534 net.cpp:84] Creating Layer scale3b_branch2c
I1029 11:42:08.235426 18534 net.cpp:406] scale3b_branch2c <- res3b_branch2c
I1029 11:42:08.235435 18534 net.cpp:367] scale3b_branch2c -> res3b_branch2c (in-place)
I1029 11:42:08.235481 18534 layer_factory.hpp:77] Creating layer scale3b_branch2c
I1029 11:42:08.235607 18534 net.cpp:122] Setting up scale3b_branch2c
I1029 11:42:08.235615 18534 net.cpp:129] Top shape: 10 512 28 28 (4014080)
I1029 11:42:08.235620 18534 net.cpp:137] Memory required for data: 1394892840
I1029 11:42:08.235628 18534 layer_factory.hpp:77] Creating layer res3b
I1029 11:42:08.235636 18534 net.cpp:84] Creating Layer res3b
I1029 11:42:08.235641 18534 net.cpp:406] res3b <- res3a_res3a_relu_0_split_1
I1029 11:42:08.235647 18534 net.cpp:406] res3b <- res3b_branch2c
I1029 11:42:08.235656 18534 net.cpp:380] res3b -> res3b
I1029 11:42:08.235682 18534 net.cpp:122] Setting up res3b
I1029 11:42:08.235692 18534 net.cpp:129] Top shape: 10 512 28 28 (4014080)
I1029 11:42:08.235697 18534 net.cpp:137] Memory required for data: 1410949160
I1029 11:42:08.235702 18534 layer_factory.hpp:77] Creating layer res3b_relu
I1029 11:42:08.235708 18534 net.cpp:84] Creating Layer res3b_relu
I1029 11:42:08.235713 18534 net.cpp:406] res3b_relu <- res3b
I1029 11:42:08.235719 18534 net.cpp:367] res3b_relu -> res3b (in-place)
I1029 11:42:08.235924 18534 net.cpp:122] Setting up res3b_relu
I1029 11:42:08.235934 18534 net.cpp:129] Top shape: 10 512 28 28 (4014080)
I1029 11:42:08.235939 18534 net.cpp:137] Memory required for data: 1427005480
I1029 11:42:08.235942 18534 layer_factory.hpp:77] Creating layer res3b_res3b_relu_0_split
I1029 11:42:08.235952 18534 net.cpp:84] Creating Layer res3b_res3b_relu_0_split
I1029 11:42:08.235957 18534 net.cpp:406] res3b_res3b_relu_0_split <- res3b
I1029 11:42:08.235965 18534 net.cpp:380] res3b_res3b_relu_0_split -> res3b_res3b_relu_0_split_0
I1029 11:42:08.235975 18534 net.cpp:380] res3b_res3b_relu_0_split -> res3b_res3b_relu_0_split_1
I1029 11:42:08.236019 18534 net.cpp:122] Setting up res3b_res3b_relu_0_split
I1029 11:42:08.236027 18534 net.cpp:129] Top shape: 10 512 28 28 (4014080)
I1029 11:42:08.236034 18534 net.cpp:129] Top shape: 10 512 28 28 (4014080)
I1029 11:42:08.236038 18534 net.cpp:137] Memory required for data: 1459118120
I1029 11:42:08.236042 18534 layer_factory.hpp:77] Creating layer res3c_branch2a
I1029 11:42:08.236053 18534 net.cpp:84] Creating Layer res3c_branch2a
I1029 11:42:08.236058 18534 net.cpp:406] res3c_branch2a <- res3b_res3b_relu_0_split_0
I1029 11:42:08.236068 18534 net.cpp:380] res3c_branch2a -> res3c_branch2a
I1029 11:42:08.237354 18534 net.cpp:122] Setting up res3c_branch2a
I1029 11:42:08.237370 18534 net.cpp:129] Top shape: 10 128 28 28 (1003520)
I1029 11:42:08.237375 18534 net.cpp:137] Memory required for data: 1463132200
I1029 11:42:08.237385 18534 layer_factory.hpp:77] Creating layer bn3c_branch2a
I1029 11:42:08.237416 18534 net.cpp:84] Creating Layer bn3c_branch2a
I1029 11:42:08.237422 18534 net.cpp:406] bn3c_branch2a <- res3c_branch2a
I1029 11:42:08.237432 18534 net.cpp:367] bn3c_branch2a -> res3c_branch2a (in-place)
I1029 11:42:08.237660 18534 net.cpp:122] Setting up bn3c_branch2a
I1029 11:42:08.237669 18534 net.cpp:129] Top shape: 10 128 28 28 (1003520)
I1029 11:42:08.237673 18534 net.cpp:137] Memory required for data: 1467146280
I1029 11:42:08.237684 18534 layer_factory.hpp:77] Creating layer scale3c_branch2a
I1029 11:42:08.237695 18534 net.cpp:84] Creating Layer scale3c_branch2a
I1029 11:42:08.237700 18534 net.cpp:406] scale3c_branch2a <- res3c_branch2a
I1029 11:42:08.237706 18534 net.cpp:367] scale3c_branch2a -> res3c_branch2a (in-place)
I1029 11:42:08.237752 18534 layer_factory.hpp:77] Creating layer scale3c_branch2a
I1029 11:42:08.237905 18534 net.cpp:122] Setting up scale3c_branch2a
I1029 11:42:08.237915 18534 net.cpp:129] Top shape: 10 128 28 28 (1003520)
I1029 11:42:08.237920 18534 net.cpp:137] Memory required for data: 1471160360
I1029 11:42:08.237927 18534 layer_factory.hpp:77] Creating layer res3c_branch2a_relu
I1029 11:42:08.237934 18534 net.cpp:84] Creating Layer res3c_branch2a_relu
I1029 11:42:08.237939 18534 net.cpp:406] res3c_branch2a_relu <- res3c_branch2a
I1029 11:42:08.237948 18534 net.cpp:367] res3c_branch2a_relu -> res3c_branch2a (in-place)
I1029 11:42:08.238153 18534 net.cpp:122] Setting up res3c_branch2a_relu
I1029 11:42:08.238162 18534 net.cpp:129] Top shape: 10 128 28 28 (1003520)
I1029 11:42:08.238168 18534 net.cpp:137] Memory required for data: 1475174440
I1029 11:42:08.238171 18534 layer_factory.hpp:77] Creating layer res3c_branch2b
I1029 11:42:08.238183 18534 net.cpp:84] Creating Layer res3c_branch2b
I1029 11:42:08.238188 18534 net.cpp:406] res3c_branch2b <- res3c_branch2a
I1029 11:42:08.238198 18534 net.cpp:380] res3c_branch2b -> res3c_branch2b
I1029 11:42:08.241375 18534 net.cpp:122] Setting up res3c_branch2b
I1029 11:42:08.241415 18534 net.cpp:129] Top shape: 10 128 28 28 (1003520)
I1029 11:42:08.241422 18534 net.cpp:137] Memory required for data: 1479188520
I1029 11:42:08.241437 18534 layer_factory.hpp:77] Creating layer bn3c_branch2b
I1029 11:42:08.241452 18534 net.cpp:84] Creating Layer bn3c_branch2b
I1029 11:42:08.241462 18534 net.cpp:406] bn3c_branch2b <- res3c_branch2b
I1029 11:42:08.241475 18534 net.cpp:367] bn3c_branch2b -> res3c_branch2b (in-place)
I1029 11:42:08.241722 18534 net.cpp:122] Setting up bn3c_branch2b
I1029 11:42:08.241732 18534 net.cpp:129] Top shape: 10 128 28 28 (1003520)
I1029 11:42:08.241739 18534 net.cpp:137] Memory required for data: 1483202600
I1029 11:42:08.241750 18534 layer_factory.hpp:77] Creating layer scale3c_branch2b
I1029 11:42:08.241760 18534 net.cpp:84] Creating Layer scale3c_branch2b
I1029 11:42:08.241766 18534 net.cpp:406] scale3c_branch2b <- res3c_branch2b
I1029 11:42:08.241773 18534 net.cpp:367] scale3c_branch2b -> res3c_branch2b (in-place)
I1029 11:42:08.241842 18534 layer_factory.hpp:77] Creating layer scale3c_branch2b
I1029 11:42:08.241993 18534 net.cpp:122] Setting up scale3c_branch2b
I1029 11:42:08.242002 18534 net.cpp:129] Top shape: 10 128 28 28 (1003520)
I1029 11:42:08.242007 18534 net.cpp:137] Memory required for data: 1487216680
I1029 11:42:08.242014 18534 layer_factory.hpp:77] Creating layer res3c_branch2b_relu
I1029 11:42:08.242024 18534 net.cpp:84] Creating Layer res3c_branch2b_relu
I1029 11:42:08.242031 18534 net.cpp:406] res3c_branch2b_relu <- res3c_branch2b
I1029 11:42:08.242038 18534 net.cpp:367] res3c_branch2b_relu -> res3c_branch2b (in-place)
I1029 11:42:08.242568 18534 net.cpp:122] Setting up res3c_branch2b_relu
I1029 11:42:08.242580 18534 net.cpp:129] Top shape: 10 128 28 28 (1003520)
I1029 11:42:08.242585 18534 net.cpp:137] Memory required for data: 1491230760
I1029 11:42:08.242590 18534 layer_factory.hpp:77] Creating layer res3c_branch2c
I1029 11:42:08.242604 18534 net.cpp:84] Creating Layer res3c_branch2c
I1029 11:42:08.242610 18534 net.cpp:406] res3c_branch2c <- res3c_branch2b
I1029 11:42:08.242620 18534 net.cpp:380] res3c_branch2c -> res3c_branch2c
I1029 11:42:08.243599 18534 net.cpp:122] Setting up res3c_branch2c
I1029 11:42:08.243613 18534 net.cpp:129] Top shape: 10 512 28 28 (4014080)
I1029 11:42:08.243619 18534 net.cpp:137] Memory required for data: 1507287080
I1029 11:42:08.243628 18534 layer_factory.hpp:77] Creating layer bn3c_branch2c
I1029 11:42:08.243641 18534 net.cpp:84] Creating Layer bn3c_branch2c
I1029 11:42:08.243647 18534 net.cpp:406] bn3c_branch2c <- res3c_branch2c
I1029 11:42:08.243657 18534 net.cpp:367] bn3c_branch2c -> res3c_branch2c (in-place)
I1029 11:42:08.243893 18534 net.cpp:122] Setting up bn3c_branch2c
I1029 11:42:08.243902 18534 net.cpp:129] Top shape: 10 512 28 28 (4014080)
I1029 11:42:08.243906 18534 net.cpp:137] Memory required for data: 1523343400
I1029 11:42:08.243916 18534 layer_factory.hpp:77] Creating layer scale3c_branch2c
I1029 11:42:08.243928 18534 net.cpp:84] Creating Layer scale3c_branch2c
I1029 11:42:08.243934 18534 net.cpp:406] scale3c_branch2c <- res3c_branch2c
I1029 11:42:08.243940 18534 net.cpp:367] scale3c_branch2c -> res3c_branch2c (in-place)
I1029 11:42:08.243988 18534 layer_factory.hpp:77] Creating layer scale3c_branch2c
I1029 11:42:08.244123 18534 net.cpp:122] Setting up scale3c_branch2c
I1029 11:42:08.244132 18534 net.cpp:129] Top shape: 10 512 28 28 (4014080)
I1029 11:42:08.244137 18534 net.cpp:137] Memory required for data: 1539399720
I1029 11:42:08.244144 18534 layer_factory.hpp:77] Creating layer res3c
I1029 11:42:08.244155 18534 net.cpp:84] Creating Layer res3c
I1029 11:42:08.244161 18534 net.cpp:406] res3c <- res3b_res3b_relu_0_split_1
I1029 11:42:08.244168 18534 net.cpp:406] res3c <- res3c_branch2c
I1029 11:42:08.244175 18534 net.cpp:380] res3c -> res3c
I1029 11:42:08.244204 18534 net.cpp:122] Setting up res3c
I1029 11:42:08.244212 18534 net.cpp:129] Top shape: 10 512 28 28 (4014080)
I1029 11:42:08.244217 18534 net.cpp:137] Memory required for data: 1555456040
I1029 11:42:08.244221 18534 layer_factory.hpp:77] Creating layer res3c_relu
I1029 11:42:08.244228 18534 net.cpp:84] Creating Layer res3c_relu
I1029 11:42:08.244233 18534 net.cpp:406] res3c_relu <- res3c
I1029 11:42:08.244241 18534 net.cpp:367] res3c_relu -> res3c (in-place)
I1029 11:42:08.244810 18534 net.cpp:122] Setting up res3c_relu
I1029 11:42:08.244822 18534 net.cpp:129] Top shape: 10 512 28 28 (4014080)
I1029 11:42:08.244827 18534 net.cpp:137] Memory required for data: 1571512360
I1029 11:42:08.244832 18534 layer_factory.hpp:77] Creating layer res3c_res3c_relu_0_split
I1029 11:42:08.244839 18534 net.cpp:84] Creating Layer res3c_res3c_relu_0_split
I1029 11:42:08.244846 18534 net.cpp:406] res3c_res3c_relu_0_split <- res3c
I1029 11:42:08.244856 18534 net.cpp:380] res3c_res3c_relu_0_split -> res3c_res3c_relu_0_split_0
I1029 11:42:08.244868 18534 net.cpp:380] res3c_res3c_relu_0_split -> res3c_res3c_relu_0_split_1
I1029 11:42:08.244917 18534 net.cpp:122] Setting up res3c_res3c_relu_0_split
I1029 11:42:08.244925 18534 net.cpp:129] Top shape: 10 512 28 28 (4014080)
I1029 11:42:08.244932 18534 net.cpp:129] Top shape: 10 512 28 28 (4014080)
I1029 11:42:08.244940 18534 net.cpp:137] Memory required for data: 1603625000
I1029 11:42:08.244943 18534 layer_factory.hpp:77] Creating layer res3d_branch2a
I1029 11:42:08.244956 18534 net.cpp:84] Creating Layer res3d_branch2a
I1029 11:42:08.244962 18534 net.cpp:406] res3d_branch2a <- res3c_res3c_relu_0_split_0
I1029 11:42:08.244969 18534 net.cpp:380] res3d_branch2a -> res3d_branch2a
I1029 11:42:08.247773 18534 net.cpp:122] Setting up res3d_branch2a
I1029 11:42:08.247812 18534 net.cpp:129] Top shape: 10 128 28 28 (1003520)
I1029 11:42:08.247817 18534 net.cpp:137] Memory required for data: 1607639080
I1029 11:42:08.247833 18534 layer_factory.hpp:77] Creating layer bn3d_branch2a
I1029 11:42:08.247853 18534 net.cpp:84] Creating Layer bn3d_branch2a
I1029 11:42:08.247864 18534 net.cpp:406] bn3d_branch2a <- res3d_branch2a
I1029 11:42:08.247875 18534 net.cpp:367] bn3d_branch2a -> res3d_branch2a (in-place)
I1029 11:42:08.248131 18534 net.cpp:122] Setting up bn3d_branch2a
I1029 11:42:08.248159 18534 net.cpp:129] Top shape: 10 128 28 28 (1003520)
I1029 11:42:08.248163 18534 net.cpp:137] Memory required for data: 1611653160
I1029 11:42:08.248209 18534 layer_factory.hpp:77] Creating layer scale3d_branch2a
I1029 11:42:08.248222 18534 net.cpp:84] Creating Layer scale3d_branch2a
I1029 11:42:08.248229 18534 net.cpp:406] scale3d_branch2a <- res3d_branch2a
I1029 11:42:08.248235 18534 net.cpp:367] scale3d_branch2a -> res3d_branch2a (in-place)
I1029 11:42:08.248287 18534 layer_factory.hpp:77] Creating layer scale3d_branch2a
I1029 11:42:08.248420 18534 net.cpp:122] Setting up scale3d_branch2a
I1029 11:42:08.248428 18534 net.cpp:129] Top shape: 10 128 28 28 (1003520)
I1029 11:42:08.248432 18534 net.cpp:137] Memory required for data: 1615667240
I1029 11:42:08.248440 18534 layer_factory.hpp:77] Creating layer res3d_branch2a_relu
I1029 11:42:08.248448 18534 net.cpp:84] Creating Layer res3d_branch2a_relu
I1029 11:42:08.248455 18534 net.cpp:406] res3d_branch2a_relu <- res3d_branch2a
I1029 11:42:08.248462 18534 net.cpp:367] res3d_branch2a_relu -> res3d_branch2a (in-place)
I1029 11:42:08.248675 18534 net.cpp:122] Setting up res3d_branch2a_relu
I1029 11:42:08.248685 18534 net.cpp:129] Top shape: 10 128 28 28 (1003520)
I1029 11:42:08.248689 18534 net.cpp:137] Memory required for data: 1619681320
I1029 11:42:08.248694 18534 layer_factory.hpp:77] Creating layer res3d_branch2b
I1029 11:42:08.248706 18534 net.cpp:84] Creating Layer res3d_branch2b
I1029 11:42:08.248713 18534 net.cpp:406] res3d_branch2b <- res3d_branch2a
I1029 11:42:08.248719 18534 net.cpp:380] res3d_branch2b -> res3d_branch2b
I1029 11:42:08.250512 18534 net.cpp:122] Setting up res3d_branch2b
I1029 11:42:08.250537 18534 net.cpp:129] Top shape: 10 128 28 28 (1003520)
I1029 11:42:08.250543 18534 net.cpp:137] Memory required for data: 1623695400
I1029 11:42:08.250555 18534 layer_factory.hpp:77] Creating layer bn3d_branch2b
I1029 11:42:08.250568 18534 net.cpp:84] Creating Layer bn3d_branch2b
I1029 11:42:08.250577 18534 net.cpp:406] bn3d_branch2b <- res3d_branch2b
I1029 11:42:08.250587 18534 net.cpp:367] bn3d_branch2b -> res3d_branch2b (in-place)
I1029 11:42:08.250838 18534 net.cpp:122] Setting up bn3d_branch2b
I1029 11:42:08.250846 18534 net.cpp:129] Top shape: 10 128 28 28 (1003520)
I1029 11:42:08.250851 18534 net.cpp:137] Memory required for data: 1627709480
I1029 11:42:08.250861 18534 layer_factory.hpp:77] Creating layer scale3d_branch2b
I1029 11:42:08.250872 18534 net.cpp:84] Creating Layer scale3d_branch2b
I1029 11:42:08.250879 18534 net.cpp:406] scale3d_branch2b <- res3d_branch2b
I1029 11:42:08.250885 18534 net.cpp:367] scale3d_branch2b -> res3d_branch2b (in-place)
I1029 11:42:08.250937 18534 layer_factory.hpp:77] Creating layer scale3d_branch2b
I1029 11:42:08.251073 18534 net.cpp:122] Setting up scale3d_branch2b
I1029 11:42:08.251082 18534 net.cpp:129] Top shape: 10 128 28 28 (1003520)
I1029 11:42:08.251087 18534 net.cpp:137] Memory required for data: 1631723560
I1029 11:42:08.251096 18534 layer_factory.hpp:77] Creating layer res3d_branch2b_relu
I1029 11:42:08.251104 18534 net.cpp:84] Creating Layer res3d_branch2b_relu
I1029 11:42:08.251111 18534 net.cpp:406] res3d_branch2b_relu <- res3d_branch2b
I1029 11:42:08.251119 18534 net.cpp:367] res3d_branch2b_relu -> res3d_branch2b (in-place)
I1029 11:42:08.251334 18534 net.cpp:122] Setting up res3d_branch2b_relu
I1029 11:42:08.251343 18534 net.cpp:129] Top shape: 10 128 28 28 (1003520)
I1029 11:42:08.251348 18534 net.cpp:137] Memory required for data: 1635737640
I1029 11:42:08.251353 18534 layer_factory.hpp:77] Creating layer res3d_branch2c
I1029 11:42:08.251365 18534 net.cpp:84] Creating Layer res3d_branch2c
I1029 11:42:08.251371 18534 net.cpp:406] res3d_branch2c <- res3d_branch2b
I1029 11:42:08.251379 18534 net.cpp:380] res3d_branch2c -> res3d_branch2c
I1029 11:42:08.252696 18534 net.cpp:122] Setting up res3d_branch2c
I1029 11:42:08.252715 18534 net.cpp:129] Top shape: 10 512 28 28 (4014080)
I1029 11:42:08.252720 18534 net.cpp:137] Memory required for data: 1651793960
I1029 11:42:08.252730 18534 layer_factory.hpp:77] Creating layer bn3d_branch2c
I1029 11:42:08.252763 18534 net.cpp:84] Creating Layer bn3d_branch2c
I1029 11:42:08.252769 18534 net.cpp:406] bn3d_branch2c <- res3d_branch2c
I1029 11:42:08.252779 18534 net.cpp:367] bn3d_branch2c -> res3d_branch2c (in-place)
I1029 11:42:08.253020 18534 net.cpp:122] Setting up bn3d_branch2c
I1029 11:42:08.253027 18534 net.cpp:129] Top shape: 10 512 28 28 (4014080)
I1029 11:42:08.253032 18534 net.cpp:137] Memory required for data: 1667850280
I1029 11:42:08.253043 18534 layer_factory.hpp:77] Creating layer scale3d_branch2c
I1029 11:42:08.253051 18534 net.cpp:84] Creating Layer scale3d_branch2c
I1029 11:42:08.253056 18534 net.cpp:406] scale3d_branch2c <- res3d_branch2c
I1029 11:42:08.253062 18534 net.cpp:367] scale3d_branch2c -> res3d_branch2c (in-place)
I1029 11:42:08.253113 18534 layer_factory.hpp:77] Creating layer scale3d_branch2c
I1029 11:42:08.253243 18534 net.cpp:122] Setting up scale3d_branch2c
I1029 11:42:08.253252 18534 net.cpp:129] Top shape: 10 512 28 28 (4014080)
I1029 11:42:08.253257 18534 net.cpp:137] Memory required for data: 1683906600
I1029 11:42:08.253264 18534 layer_factory.hpp:77] Creating layer res3d
I1029 11:42:08.253273 18534 net.cpp:84] Creating Layer res3d
I1029 11:42:08.253279 18534 net.cpp:406] res3d <- res3c_res3c_relu_0_split_1
I1029 11:42:08.253285 18534 net.cpp:406] res3d <- res3d_branch2c
I1029 11:42:08.253295 18534 net.cpp:380] res3d -> res3d
I1029 11:42:08.253321 18534 net.cpp:122] Setting up res3d
I1029 11:42:08.253329 18534 net.cpp:129] Top shape: 10 512 28 28 (4014080)
I1029 11:42:08.253334 18534 net.cpp:137] Memory required for data: 1699962920
I1029 11:42:08.253338 18534 layer_factory.hpp:77] Creating layer res3d_relu
I1029 11:42:08.253347 18534 net.cpp:84] Creating Layer res3d_relu
I1029 11:42:08.253351 18534 net.cpp:406] res3d_relu <- res3d
I1029 11:42:08.253357 18534 net.cpp:367] res3d_relu -> res3d (in-place)
I1029 11:42:08.253568 18534 net.cpp:122] Setting up res3d_relu
I1029 11:42:08.253579 18534 net.cpp:129] Top shape: 10 512 28 28 (4014080)
I1029 11:42:08.253583 18534 net.cpp:137] Memory required for data: 1716019240
I1029 11:42:08.253588 18534 layer_factory.hpp:77] Creating layer res3d_res3d_relu_0_split
I1029 11:42:08.253595 18534 net.cpp:84] Creating Layer res3d_res3d_relu_0_split
I1029 11:42:08.253600 18534 net.cpp:406] res3d_res3d_relu_0_split <- res3d
I1029 11:42:08.253607 18534 net.cpp:380] res3d_res3d_relu_0_split -> res3d_res3d_relu_0_split_0
I1029 11:42:08.253618 18534 net.cpp:380] res3d_res3d_relu_0_split -> res3d_res3d_relu_0_split_1
I1029 11:42:08.253661 18534 net.cpp:122] Setting up res3d_res3d_relu_0_split
I1029 11:42:08.253670 18534 net.cpp:129] Top shape: 10 512 28 28 (4014080)
I1029 11:42:08.253676 18534 net.cpp:129] Top shape: 10 512 28 28 (4014080)
I1029 11:42:08.253681 18534 net.cpp:137] Memory required for data: 1748131880
I1029 11:42:08.253685 18534 layer_factory.hpp:77] Creating layer res4a_branch1
I1029 11:42:08.253696 18534 net.cpp:84] Creating Layer res4a_branch1
I1029 11:42:08.253701 18534 net.cpp:406] res4a_branch1 <- res3d_res3d_relu_0_split_0
I1029 11:42:08.253710 18534 net.cpp:380] res4a_branch1 -> res4a_branch1
I1029 11:42:08.258718 18534 net.cpp:122] Setting up res4a_branch1
I1029 11:42:08.258756 18534 net.cpp:129] Top shape: 10 1024 14 14 (2007040)
I1029 11:42:08.258761 18534 net.cpp:137] Memory required for data: 1756160040
I1029 11:42:08.258777 18534 layer_factory.hpp:77] Creating layer bn4a_branch1
I1029 11:42:08.258792 18534 net.cpp:84] Creating Layer bn4a_branch1
I1029 11:42:08.258802 18534 net.cpp:406] bn4a_branch1 <- res4a_branch1
I1029 11:42:08.258813 18534 net.cpp:367] bn4a_branch1 -> res4a_branch1 (in-place)
I1029 11:42:08.259083 18534 net.cpp:122] Setting up bn4a_branch1
I1029 11:42:08.259091 18534 net.cpp:129] Top shape: 10 1024 14 14 (2007040)
I1029 11:42:08.259096 18534 net.cpp:137] Memory required for data: 1764188200
I1029 11:42:08.259106 18534 layer_factory.hpp:77] Creating layer scale4a_branch1
I1029 11:42:08.259117 18534 net.cpp:84] Creating Layer scale4a_branch1
I1029 11:42:08.259124 18534 net.cpp:406] scale4a_branch1 <- res4a_branch1
I1029 11:42:08.259148 18534 net.cpp:367] scale4a_branch1 -> res4a_branch1 (in-place)
I1029 11:42:08.259196 18534 layer_factory.hpp:77] Creating layer scale4a_branch1
I1029 11:42:08.259332 18534 net.cpp:122] Setting up scale4a_branch1
I1029 11:42:08.259343 18534 net.cpp:129] Top shape: 10 1024 14 14 (2007040)
I1029 11:42:08.259349 18534 net.cpp:137] Memory required for data: 1772216360
I1029 11:42:08.259357 18534 layer_factory.hpp:77] Creating layer res4a_branch2a
I1029 11:42:08.259368 18534 net.cpp:84] Creating Layer res4a_branch2a
I1029 11:42:08.259373 18534 net.cpp:406] res4a_branch2a <- res3d_res3d_relu_0_split_1
I1029 11:42:08.259387 18534 net.cpp:380] res4a_branch2a -> res4a_branch2a
I1029 11:42:08.261301 18534 net.cpp:122] Setting up res4a_branch2a
I1029 11:42:08.261399 18534 net.cpp:129] Top shape: 10 256 14 14 (501760)
I1029 11:42:08.261417 18534 net.cpp:137] Memory required for data: 1774223400
I1029 11:42:08.261440 18534 layer_factory.hpp:77] Creating layer bn4a_branch2a
I1029 11:42:08.261458 18534 net.cpp:84] Creating Layer bn4a_branch2a
I1029 11:42:08.261467 18534 net.cpp:406] bn4a_branch2a <- res4a_branch2a
I1029 11:42:08.261482 18534 net.cpp:367] bn4a_branch2a -> res4a_branch2a (in-place)
I1029 11:42:08.261742 18534 net.cpp:122] Setting up bn4a_branch2a
I1029 11:42:08.261754 18534 net.cpp:129] Top shape: 10 256 14 14 (501760)
I1029 11:42:08.261760 18534 net.cpp:137] Memory required for data: 1776230440
I1029 11:42:08.261771 18534 layer_factory.hpp:77] Creating layer scale4a_branch2a
I1029 11:42:08.261781 18534 net.cpp:84] Creating Layer scale4a_branch2a
I1029 11:42:08.261787 18534 net.cpp:406] scale4a_branch2a <- res4a_branch2a
I1029 11:42:08.261795 18534 net.cpp:367] scale4a_branch2a -> res4a_branch2a (in-place)
I1029 11:42:08.261862 18534 layer_factory.hpp:77] Creating layer scale4a_branch2a
I1029 11:42:08.262001 18534 net.cpp:122] Setting up scale4a_branch2a
I1029 11:42:08.262010 18534 net.cpp:129] Top shape: 10 256 14 14 (501760)
I1029 11:42:08.262014 18534 net.cpp:137] Memory required for data: 1778237480
I1029 11:42:08.262022 18534 layer_factory.hpp:77] Creating layer res4a_branch2a_relu
I1029 11:42:08.262033 18534 net.cpp:84] Creating Layer res4a_branch2a_relu
I1029 11:42:08.262038 18534 net.cpp:406] res4a_branch2a_relu <- res4a_branch2a
I1029 11:42:08.262044 18534 net.cpp:367] res4a_branch2a_relu -> res4a_branch2a (in-place)
I1029 11:42:08.262307 18534 net.cpp:122] Setting up res4a_branch2a_relu
I1029 11:42:08.262320 18534 net.cpp:129] Top shape: 10 256 14 14 (501760)
I1029 11:42:08.262326 18534 net.cpp:137] Memory required for data: 1780244520
I1029 11:42:08.262331 18534 layer_factory.hpp:77] Creating layer res4a_branch2b
I1029 11:42:08.262341 18534 net.cpp:84] Creating Layer res4a_branch2b
I1029 11:42:08.262346 18534 net.cpp:406] res4a_branch2b <- res4a_branch2a
I1029 11:42:08.262357 18534 net.cpp:380] res4a_branch2b -> res4a_branch2b
I1029 11:42:08.266643 18534 net.cpp:122] Setting up res4a_branch2b
I1029 11:42:08.266681 18534 net.cpp:129] Top shape: 10 256 14 14 (501760)
I1029 11:42:08.266688 18534 net.cpp:137] Memory required for data: 1782251560
I1029 11:42:08.266702 18534 layer_factory.hpp:77] Creating layer bn4a_branch2b
I1029 11:42:08.266719 18534 net.cpp:84] Creating Layer bn4a_branch2b
I1029 11:42:08.266734 18534 net.cpp:406] bn4a_branch2b <- res4a_branch2b
I1029 11:42:08.266747 18534 net.cpp:367] bn4a_branch2b -> res4a_branch2b (in-place)
I1029 11:42:08.267006 18534 net.cpp:122] Setting up bn4a_branch2b
I1029 11:42:08.267017 18534 net.cpp:129] Top shape: 10 256 14 14 (501760)
I1029 11:42:08.267024 18534 net.cpp:137] Memory required for data: 1784258600
I1029 11:42:08.267035 18534 layer_factory.hpp:77] Creating layer scale4a_branch2b
I1029 11:42:08.267045 18534 net.cpp:84] Creating Layer scale4a_branch2b
I1029 11:42:08.267051 18534 net.cpp:406] scale4a_branch2b <- res4a_branch2b
I1029 11:42:08.267058 18534 net.cpp:367] scale4a_branch2b -> res4a_branch2b (in-place)
I1029 11:42:08.267112 18534 layer_factory.hpp:77] Creating layer scale4a_branch2b
I1029 11:42:08.267276 18534 net.cpp:122] Setting up scale4a_branch2b
I1029 11:42:08.267284 18534 net.cpp:129] Top shape: 10 256 14 14 (501760)
I1029 11:42:08.267289 18534 net.cpp:137] Memory required for data: 1786265640
I1029 11:42:08.267297 18534 layer_factory.hpp:77] Creating layer res4a_branch2b_relu
I1029 11:42:08.267309 18534 net.cpp:84] Creating Layer res4a_branch2b_relu
I1029 11:42:08.267315 18534 net.cpp:406] res4a_branch2b_relu <- res4a_branch2b
I1029 11:42:08.267321 18534 net.cpp:367] res4a_branch2b_relu -> res4a_branch2b (in-place)
I1029 11:42:08.267532 18534 net.cpp:122] Setting up res4a_branch2b_relu
I1029 11:42:08.267544 18534 net.cpp:129] Top shape: 10 256 14 14 (501760)
I1029 11:42:08.267549 18534 net.cpp:137] Memory required for data: 1788272680
I1029 11:42:08.267554 18534 layer_factory.hpp:77] Creating layer res4a_branch2c
I1029 11:42:08.267565 18534 net.cpp:84] Creating Layer res4a_branch2c
I1029 11:42:08.267571 18534 net.cpp:406] res4a_branch2c <- res4a_branch2b
I1029 11:42:08.267580 18534 net.cpp:380] res4a_branch2c -> res4a_branch2c
I1029 11:42:08.270750 18534 net.cpp:122] Setting up res4a_branch2c
I1029 11:42:08.270788 18534 net.cpp:129] Top shape: 10 1024 14 14 (2007040)
I1029 11:42:08.270797 18534 net.cpp:137] Memory required for data: 1796300840
I1029 11:42:08.270812 18534 layer_factory.hpp:77] Creating layer bn4a_branch2c
I1029 11:42:08.270828 18534 net.cpp:84] Creating Layer bn4a_branch2c
I1029 11:42:08.270838 18534 net.cpp:406] bn4a_branch2c <- res4a_branch2c
I1029 11:42:08.270853 18534 net.cpp:367] bn4a_branch2c -> res4a_branch2c (in-place)
I1029 11:42:08.271136 18534 net.cpp:122] Setting up bn4a_branch2c
I1029 11:42:08.271145 18534 net.cpp:129] Top shape: 10 1024 14 14 (2007040)
I1029 11:42:08.271150 18534 net.cpp:137] Memory required for data: 1804329000
I1029 11:42:08.271162 18534 layer_factory.hpp:77] Creating layer scale4a_branch2c
I1029 11:42:08.271173 18534 net.cpp:84] Creating Layer scale4a_branch2c
I1029 11:42:08.271179 18534 net.cpp:406] scale4a_branch2c <- res4a_branch2c
I1029 11:42:08.271188 18534 net.cpp:367] scale4a_branch2c -> res4a_branch2c (in-place)
I1029 11:42:08.271237 18534 layer_factory.hpp:77] Creating layer scale4a_branch2c
I1029 11:42:08.271383 18534 net.cpp:122] Setting up scale4a_branch2c
I1029 11:42:08.271392 18534 net.cpp:129] Top shape: 10 1024 14 14 (2007040)
I1029 11:42:08.271399 18534 net.cpp:137] Memory required for data: 1812357160
I1029 11:42:08.271407 18534 layer_factory.hpp:77] Creating layer res4a
I1029 11:42:08.271414 18534 net.cpp:84] Creating Layer res4a
I1029 11:42:08.271421 18534 net.cpp:406] res4a <- res4a_branch1
I1029 11:42:08.271426 18534 net.cpp:406] res4a <- res4a_branch2c
I1029 11:42:08.271435 18534 net.cpp:380] res4a -> res4a
I1029 11:42:08.271464 18534 net.cpp:122] Setting up res4a
I1029 11:42:08.271472 18534 net.cpp:129] Top shape: 10 1024 14 14 (2007040)
I1029 11:42:08.271476 18534 net.cpp:137] Memory required for data: 1820385320
I1029 11:42:08.271481 18534 layer_factory.hpp:77] Creating layer res4a_relu
I1029 11:42:08.271489 18534 net.cpp:84] Creating Layer res4a_relu
I1029 11:42:08.271493 18534 net.cpp:406] res4a_relu <- res4a
I1029 11:42:08.271502 18534 net.cpp:367] res4a_relu -> res4a (in-place)
I1029 11:42:08.272362 18534 net.cpp:122] Setting up res4a_relu
I1029 11:42:08.272374 18534 net.cpp:129] Top shape: 10 1024 14 14 (2007040)
I1029 11:42:08.272378 18534 net.cpp:137] Memory required for data: 1828413480
I1029 11:42:08.272383 18534 layer_factory.hpp:77] Creating layer res4a_res4a_relu_0_split
I1029 11:42:08.272392 18534 net.cpp:84] Creating Layer res4a_res4a_relu_0_split
I1029 11:42:08.272397 18534 net.cpp:406] res4a_res4a_relu_0_split <- res4a
I1029 11:42:08.272408 18534 net.cpp:380] res4a_res4a_relu_0_split -> res4a_res4a_relu_0_split_0
I1029 11:42:08.272420 18534 net.cpp:380] res4a_res4a_relu_0_split -> res4a_res4a_relu_0_split_1
I1029 11:42:08.272474 18534 net.cpp:122] Setting up res4a_res4a_relu_0_split
I1029 11:42:08.272482 18534 net.cpp:129] Top shape: 10 1024 14 14 (2007040)
I1029 11:42:08.272488 18534 net.cpp:129] Top shape: 10 1024 14 14 (2007040)
I1029 11:42:08.272507 18534 net.cpp:137] Memory required for data: 1844469800
I1029 11:42:08.272512 18534 layer_factory.hpp:77] Creating layer res4b_branch2a
I1029 11:42:08.272575 18534 net.cpp:84] Creating Layer res4b_branch2a
I1029 11:42:08.272583 18534 net.cpp:406] res4b_branch2a <- res4a_res4a_relu_0_split_0
I1029 11:42:08.272589 18534 net.cpp:380] res4b_branch2a -> res4b_branch2a
I1029 11:42:08.273916 18534 net.cpp:122] Setting up res4b_branch2a
I1029 11:42:08.273949 18534 net.cpp:129] Top shape: 10 256 14 14 (501760)
I1029 11:42:08.273954 18534 net.cpp:137] Memory required for data: 1846476840
I1029 11:42:08.273968 18534 layer_factory.hpp:77] Creating layer bn4b_branch2a
I1029 11:42:08.273984 18534 net.cpp:84] Creating Layer bn4b_branch2a
I1029 11:42:08.273993 18534 net.cpp:406] bn4b_branch2a <- res4b_branch2a
I1029 11:42:08.274003 18534 net.cpp:367] bn4b_branch2a -> res4b_branch2a (in-place)
I1029 11:42:08.274263 18534 net.cpp:122] Setting up bn4b_branch2a
I1029 11:42:08.274272 18534 net.cpp:129] Top shape: 10 256 14 14 (501760)
I1029 11:42:08.274276 18534 net.cpp:137] Memory required for data: 1848483880
I1029 11:42:08.274287 18534 layer_factory.hpp:77] Creating layer scale4b_branch2a
I1029 11:42:08.274298 18534 net.cpp:84] Creating Layer scale4b_branch2a
I1029 11:42:08.274304 18534 net.cpp:406] scale4b_branch2a <- res4b_branch2a
I1029 11:42:08.274313 18534 net.cpp:367] scale4b_branch2a -> res4b_branch2a (in-place)
I1029 11:42:08.274369 18534 layer_factory.hpp:77] Creating layer scale4b_branch2a
I1029 11:42:08.274508 18534 net.cpp:122] Setting up scale4b_branch2a
I1029 11:42:08.274516 18534 net.cpp:129] Top shape: 10 256 14 14 (501760)
I1029 11:42:08.274520 18534 net.cpp:137] Memory required for data: 1850490920
I1029 11:42:08.274528 18534 layer_factory.hpp:77] Creating layer res4b_branch2a_relu
I1029 11:42:08.274536 18534 net.cpp:84] Creating Layer res4b_branch2a_relu
I1029 11:42:08.274541 18534 net.cpp:406] res4b_branch2a_relu <- res4b_branch2a
I1029 11:42:08.274549 18534 net.cpp:367] res4b_branch2a_relu -> res4b_branch2a (in-place)
I1029 11:42:08.275235 18534 net.cpp:122] Setting up res4b_branch2a_relu
I1029 11:42:08.275249 18534 net.cpp:129] Top shape: 10 256 14 14 (501760)
I1029 11:42:08.275254 18534 net.cpp:137] Memory required for data: 1852497960
I1029 11:42:08.275259 18534 layer_factory.hpp:77] Creating layer res4b_branch2b
I1029 11:42:08.275272 18534 net.cpp:84] Creating Layer res4b_branch2b
I1029 11:42:08.275279 18534 net.cpp:406] res4b_branch2b <- res4b_branch2a
I1029 11:42:08.275287 18534 net.cpp:380] res4b_branch2b -> res4b_branch2b
I1029 11:42:08.279606 18534 net.cpp:122] Setting up res4b_branch2b
I1029 11:42:08.279642 18534 net.cpp:129] Top shape: 10 256 14 14 (501760)
I1029 11:42:08.279649 18534 net.cpp:137] Memory required for data: 1854505000
I1029 11:42:08.279665 18534 layer_factory.hpp:77] Creating layer bn4b_branch2b
I1029 11:42:08.279681 18534 net.cpp:84] Creating Layer bn4b_branch2b
I1029 11:42:08.279690 18534 net.cpp:406] bn4b_branch2b <- res4b_branch2b
I1029 11:42:08.279702 18534 net.cpp:367] bn4b_branch2b -> res4b_branch2b (in-place)
I1029 11:42:08.279966 18534 net.cpp:122] Setting up bn4b_branch2b
I1029 11:42:08.279975 18534 net.cpp:129] Top shape: 10 256 14 14 (501760)
I1029 11:42:08.279980 18534 net.cpp:137] Memory required for data: 1856512040
I1029 11:42:08.279991 18534 layer_factory.hpp:77] Creating layer scale4b_branch2b
I1029 11:42:08.280004 18534 net.cpp:84] Creating Layer scale4b_branch2b
I1029 11:42:08.280010 18534 net.cpp:406] scale4b_branch2b <- res4b_branch2b
I1029 11:42:08.280017 18534 net.cpp:367] scale4b_branch2b -> res4b_branch2b (in-place)
I1029 11:42:08.280072 18534 layer_factory.hpp:77] Creating layer scale4b_branch2b
I1029 11:42:08.280210 18534 net.cpp:122] Setting up scale4b_branch2b
I1029 11:42:08.280220 18534 net.cpp:129] Top shape: 10 256 14 14 (501760)
I1029 11:42:08.280223 18534 net.cpp:137] Memory required for data: 1858519080
I1029 11:42:08.280231 18534 layer_factory.hpp:77] Creating layer res4b_branch2b_relu
I1029 11:42:08.280258 18534 net.cpp:84] Creating Layer res4b_branch2b_relu
I1029 11:42:08.280263 18534 net.cpp:406] res4b_branch2b_relu <- res4b_branch2b
I1029 11:42:08.280273 18534 net.cpp:367] res4b_branch2b_relu -> res4b_branch2b (in-place)
I1029 11:42:08.280484 18534 net.cpp:122] Setting up res4b_branch2b_relu
I1029 11:42:08.280493 18534 net.cpp:129] Top shape: 10 256 14 14 (501760)
I1029 11:42:08.280498 18534 net.cpp:137] Memory required for data: 1860526120
I1029 11:42:08.280503 18534 layer_factory.hpp:77] Creating layer res4b_branch2c
I1029 11:42:08.280515 18534 net.cpp:84] Creating Layer res4b_branch2c
I1029 11:42:08.280521 18534 net.cpp:406] res4b_branch2c <- res4b_branch2b
I1029 11:42:08.280529 18534 net.cpp:380] res4b_branch2c -> res4b_branch2c
I1029 11:42:08.283735 18534 net.cpp:122] Setting up res4b_branch2c
I1029 11:42:08.283778 18534 net.cpp:129] Top shape: 10 1024 14 14 (2007040)
I1029 11:42:08.283784 18534 net.cpp:137] Memory required for data: 1868554280
I1029 11:42:08.283799 18534 layer_factory.hpp:77] Creating layer bn4b_branch2c
I1029 11:42:08.283819 18534 net.cpp:84] Creating Layer bn4b_branch2c
I1029 11:42:08.283828 18534 net.cpp:406] bn4b_branch2c <- res4b_branch2c
I1029 11:42:08.283839 18534 net.cpp:367] bn4b_branch2c -> res4b_branch2c (in-place)
I1029 11:42:08.284111 18534 net.cpp:122] Setting up bn4b_branch2c
I1029 11:42:08.284121 18534 net.cpp:129] Top shape: 10 1024 14 14 (2007040)
I1029 11:42:08.284124 18534 net.cpp:137] Memory required for data: 1876582440
I1029 11:42:08.284137 18534 layer_factory.hpp:77] Creating layer scale4b_branch2c
I1029 11:42:08.284145 18534 net.cpp:84] Creating Layer scale4b_branch2c
I1029 11:42:08.284154 18534 net.cpp:406] scale4b_branch2c <- res4b_branch2c
I1029 11:42:08.284162 18534 net.cpp:367] scale4b_branch2c -> res4b_branch2c (in-place)
I1029 11:42:08.284211 18534 layer_factory.hpp:77] Creating layer scale4b_branch2c
I1029 11:42:08.284359 18534 net.cpp:122] Setting up scale4b_branch2c
I1029 11:42:08.284368 18534 net.cpp:129] Top shape: 10 1024 14 14 (2007040)
I1029 11:42:08.284371 18534 net.cpp:137] Memory required for data: 1884610600
I1029 11:42:08.284380 18534 layer_factory.hpp:77] Creating layer res4b
I1029 11:42:08.284387 18534 net.cpp:84] Creating Layer res4b
I1029 11:42:08.284394 18534 net.cpp:406] res4b <- res4a_res4a_relu_0_split_1
I1029 11:42:08.284399 18534 net.cpp:406] res4b <- res4b_branch2c
I1029 11:42:08.284409 18534 net.cpp:380] res4b -> res4b
I1029 11:42:08.284437 18534 net.cpp:122] Setting up res4b
I1029 11:42:08.284447 18534 net.cpp:129] Top shape: 10 1024 14 14 (2007040)
I1029 11:42:08.284453 18534 net.cpp:137] Memory required for data: 1892638760
I1029 11:42:08.284457 18534 layer_factory.hpp:77] Creating layer res4b_relu
I1029 11:42:08.284466 18534 net.cpp:84] Creating Layer res4b_relu
I1029 11:42:08.284469 18534 net.cpp:406] res4b_relu <- res4b
I1029 11:42:08.284476 18534 net.cpp:367] res4b_relu -> res4b (in-place)
I1029 11:42:08.284680 18534 net.cpp:122] Setting up res4b_relu
I1029 11:42:08.284689 18534 net.cpp:129] Top shape: 10 1024 14 14 (2007040)
I1029 11:42:08.284694 18534 net.cpp:137] Memory required for data: 1900666920
I1029 11:42:08.284698 18534 layer_factory.hpp:77] Creating layer res4b_res4b_relu_0_split
I1029 11:42:08.284708 18534 net.cpp:84] Creating Layer res4b_res4b_relu_0_split
I1029 11:42:08.284713 18534 net.cpp:406] res4b_res4b_relu_0_split <- res4b
I1029 11:42:08.284719 18534 net.cpp:380] res4b_res4b_relu_0_split -> res4b_res4b_relu_0_split_0
I1029 11:42:08.284730 18534 net.cpp:380] res4b_res4b_relu_0_split -> res4b_res4b_relu_0_split_1
I1029 11:42:08.284778 18534 net.cpp:122] Setting up res4b_res4b_relu_0_split
I1029 11:42:08.284786 18534 net.cpp:129] Top shape: 10 1024 14 14 (2007040)
I1029 11:42:08.284792 18534 net.cpp:129] Top shape: 10 1024 14 14 (2007040)
I1029 11:42:08.284796 18534 net.cpp:137] Memory required for data: 1916723240
I1029 11:42:08.284801 18534 layer_factory.hpp:77] Creating layer res4c_branch2a
I1029 11:42:08.284813 18534 net.cpp:84] Creating Layer res4c_branch2a
I1029 11:42:08.284821 18534 net.cpp:406] res4c_branch2a <- res4b_res4b_relu_0_split_0
I1029 11:42:08.284847 18534 net.cpp:380] res4c_branch2a -> res4c_branch2a
I1029 11:42:08.286695 18534 net.cpp:122] Setting up res4c_branch2a
I1029 11:42:08.286726 18534 net.cpp:129] Top shape: 10 256 14 14 (501760)
I1029 11:42:08.286731 18534 net.cpp:137] Memory required for data: 1918730280
I1029 11:42:08.286746 18534 layer_factory.hpp:77] Creating layer bn4c_branch2a
I1029 11:42:08.286761 18534 net.cpp:84] Creating Layer bn4c_branch2a
I1029 11:42:08.286770 18534 net.cpp:406] bn4c_branch2a <- res4c_branch2a
I1029 11:42:08.286780 18534 net.cpp:367] bn4c_branch2a -> res4c_branch2a (in-place)
I1029 11:42:08.287044 18534 net.cpp:122] Setting up bn4c_branch2a
I1029 11:42:08.287051 18534 net.cpp:129] Top shape: 10 256 14 14 (501760)
I1029 11:42:08.287056 18534 net.cpp:137] Memory required for data: 1920737320
I1029 11:42:08.287067 18534 layer_factory.hpp:77] Creating layer scale4c_branch2a
I1029 11:42:08.287081 18534 net.cpp:84] Creating Layer scale4c_branch2a
I1029 11:42:08.287087 18534 net.cpp:406] scale4c_branch2a <- res4c_branch2a
I1029 11:42:08.287093 18534 net.cpp:367] scale4c_branch2a -> res4c_branch2a (in-place)
I1029 11:42:08.287147 18534 layer_factory.hpp:77] Creating layer scale4c_branch2a
I1029 11:42:08.287291 18534 net.cpp:122] Setting up scale4c_branch2a
I1029 11:42:08.287298 18534 net.cpp:129] Top shape: 10 256 14 14 (501760)
I1029 11:42:08.287303 18534 net.cpp:137] Memory required for data: 1922744360
I1029 11:42:08.287312 18534 layer_factory.hpp:77] Creating layer res4c_branch2a_relu
I1029 11:42:08.287318 18534 net.cpp:84] Creating Layer res4c_branch2a_relu
I1029 11:42:08.287324 18534 net.cpp:406] res4c_branch2a_relu <- res4c_branch2a
I1029 11:42:08.287333 18534 net.cpp:367] res4c_branch2a_relu -> res4c_branch2a (in-place)
I1029 11:42:08.287529 18534 net.cpp:122] Setting up res4c_branch2a_relu
I1029 11:42:08.287537 18534 net.cpp:129] Top shape: 10 256 14 14 (501760)
I1029 11:42:08.287541 18534 net.cpp:137] Memory required for data: 1924751400
I1029 11:42:08.287546 18534 layer_factory.hpp:77] Creating layer res4c_branch2b
I1029 11:42:08.287561 18534 net.cpp:84] Creating Layer res4c_branch2b
I1029 11:42:08.287567 18534 net.cpp:406] res4c_branch2b <- res4c_branch2a
I1029 11:42:08.287575 18534 net.cpp:380] res4c_branch2b -> res4c_branch2b
I1029 11:42:08.292171 18534 net.cpp:122] Setting up res4c_branch2b
I1029 11:42:08.292270 18534 net.cpp:129] Top shape: 10 256 14 14 (501760)
I1029 11:42:08.292290 18534 net.cpp:137] Memory required for data: 1926758440
I1029 11:42:08.292316 18534 layer_factory.hpp:77] Creating layer bn4c_branch2b
I1029 11:42:08.292341 18534 net.cpp:84] Creating Layer bn4c_branch2b
I1029 11:42:08.292352 18534 net.cpp:406] bn4c_branch2b <- res4c_branch2b
I1029 11:42:08.292366 18534 net.cpp:367] bn4c_branch2b -> res4c_branch2b (in-place)
I1029 11:42:08.292672 18534 net.cpp:122] Setting up bn4c_branch2b
I1029 11:42:08.292681 18534 net.cpp:129] Top shape: 10 256 14 14 (501760)
I1029 11:42:08.292686 18534 net.cpp:137] Memory required for data: 1928765480
I1029 11:42:08.292697 18534 layer_factory.hpp:77] Creating layer scale4c_branch2b
I1029 11:42:08.292706 18534 net.cpp:84] Creating Layer scale4c_branch2b
I1029 11:42:08.292711 18534 net.cpp:406] scale4c_branch2b <- res4c_branch2b
I1029 11:42:08.292721 18534 net.cpp:367] scale4c_branch2b -> res4c_branch2b (in-place)
I1029 11:42:08.292778 18534 layer_factory.hpp:77] Creating layer scale4c_branch2b
I1029 11:42:08.292922 18534 net.cpp:122] Setting up scale4c_branch2b
I1029 11:42:08.292930 18534 net.cpp:129] Top shape: 10 256 14 14 (501760)
I1029 11:42:08.292935 18534 net.cpp:137] Memory required for data: 1930772520
I1029 11:42:08.292943 18534 layer_factory.hpp:77] Creating layer res4c_branch2b_relu
I1029 11:42:08.292951 18534 net.cpp:84] Creating Layer res4c_branch2b_relu
I1029 11:42:08.292956 18534 net.cpp:406] res4c_branch2b_relu <- res4c_branch2b
I1029 11:42:08.292963 18534 net.cpp:367] res4c_branch2b_relu -> res4c_branch2b (in-place)
I1029 11:42:08.293220 18534 net.cpp:122] Setting up res4c_branch2b_relu
I1029 11:42:08.293247 18534 net.cpp:129] Top shape: 10 256 14 14 (501760)
I1029 11:42:08.293252 18534 net.cpp:137] Memory required for data: 1932779560
I1029 11:42:08.293257 18534 layer_factory.hpp:77] Creating layer res4c_branch2c
I1029 11:42:08.293269 18534 net.cpp:84] Creating Layer res4c_branch2c
I1029 11:42:08.293274 18534 net.cpp:406] res4c_branch2c <- res4c_branch2b
I1029 11:42:08.293283 18534 net.cpp:380] res4c_branch2c -> res4c_branch2c
I1029 11:42:08.296854 18534 net.cpp:122] Setting up res4c_branch2c
I1029 11:42:08.296953 18534 net.cpp:129] Top shape: 10 1024 14 14 (2007040)
I1029 11:42:08.296970 18534 net.cpp:137] Memory required for data: 1940807720
I1029 11:42:08.296998 18534 layer_factory.hpp:77] Creating layer bn4c_branch2c
I1029 11:42:08.297024 18534 net.cpp:84] Creating Layer bn4c_branch2c
I1029 11:42:08.297044 18534 net.cpp:406] bn4c_branch2c <- res4c_branch2c
I1029 11:42:08.297066 18534 net.cpp:367] bn4c_branch2c -> res4c_branch2c (in-place)
I1029 11:42:08.297399 18534 net.cpp:122] Setting up bn4c_branch2c
I1029 11:42:08.297432 18534 net.cpp:129] Top shape: 10 1024 14 14 (2007040)
I1029 11:42:08.297447 18534 net.cpp:137] Memory required for data: 1948835880
I1029 11:42:08.297474 18534 layer_factory.hpp:77] Creating layer scale4c_branch2c
I1029 11:42:08.297495 18534 net.cpp:84] Creating Layer scale4c_branch2c
I1029 11:42:08.297503 18534 net.cpp:406] scale4c_branch2c <- res4c_branch2c
I1029 11:42:08.297511 18534 net.cpp:367] scale4c_branch2c -> res4c_branch2c (in-place)
I1029 11:42:08.297572 18534 layer_factory.hpp:77] Creating layer scale4c_branch2c
I1029 11:42:08.297725 18534 net.cpp:122] Setting up scale4c_branch2c
I1029 11:42:08.297734 18534 net.cpp:129] Top shape: 10 1024 14 14 (2007040)
I1029 11:42:08.297739 18534 net.cpp:137] Memory required for data: 1956864040
I1029 11:42:08.297747 18534 layer_factory.hpp:77] Creating layer res4c
I1029 11:42:08.297757 18534 net.cpp:84] Creating Layer res4c
I1029 11:42:08.297765 18534 net.cpp:406] res4c <- res4b_res4b_relu_0_split_1
I1029 11:42:08.297770 18534 net.cpp:406] res4c <- res4c_branch2c
I1029 11:42:08.297777 18534 net.cpp:380] res4c -> res4c
I1029 11:42:08.297811 18534 net.cpp:122] Setting up res4c
I1029 11:42:08.297839 18534 net.cpp:129] Top shape: 10 1024 14 14 (2007040)
I1029 11:42:08.297844 18534 net.cpp:137] Memory required for data: 1964892200
I1029 11:42:08.297848 18534 layer_factory.hpp:77] Creating layer res4c_relu
I1029 11:42:08.297857 18534 net.cpp:84] Creating Layer res4c_relu
I1029 11:42:08.297860 18534 net.cpp:406] res4c_relu <- res4c
I1029 11:42:08.297869 18534 net.cpp:367] res4c_relu -> res4c (in-place)
I1029 11:42:08.298614 18534 net.cpp:122] Setting up res4c_relu
I1029 11:42:08.298627 18534 net.cpp:129] Top shape: 10 1024 14 14 (2007040)
I1029 11:42:08.298632 18534 net.cpp:137] Memory required for data: 1972920360
I1029 11:42:08.298637 18534 layer_factory.hpp:77] Creating layer res4c_res4c_relu_0_split
I1029 11:42:08.298645 18534 net.cpp:84] Creating Layer res4c_res4c_relu_0_split
I1029 11:42:08.298650 18534 net.cpp:406] res4c_res4c_relu_0_split <- res4c
I1029 11:42:08.298663 18534 net.cpp:380] res4c_res4c_relu_0_split -> res4c_res4c_relu_0_split_0
I1029 11:42:08.298674 18534 net.cpp:380] res4c_res4c_relu_0_split -> res4c_res4c_relu_0_split_1
I1029 11:42:08.298732 18534 net.cpp:122] Setting up res4c_res4c_relu_0_split
I1029 11:42:08.298739 18534 net.cpp:129] Top shape: 10 1024 14 14 (2007040)
I1029 11:42:08.298746 18534 net.cpp:129] Top shape: 10 1024 14 14 (2007040)
I1029 11:42:08.298750 18534 net.cpp:137] Memory required for data: 1988976680
I1029 11:42:08.298754 18534 layer_factory.hpp:77] Creating layer res4d_branch2a
I1029 11:42:08.298768 18534 net.cpp:84] Creating Layer res4d_branch2a
I1029 11:42:08.298774 18534 net.cpp:406] res4d_branch2a <- res4c_res4c_relu_0_split_0
I1029 11:42:08.298782 18534 net.cpp:380] res4d_branch2a -> res4d_branch2a
I1029 11:42:08.300060 18534 net.cpp:122] Setting up res4d_branch2a
I1029 11:42:08.300091 18534 net.cpp:129] Top shape: 10 256 14 14 (501760)
I1029 11:42:08.300096 18534 net.cpp:137] Memory required for data: 1990983720
I1029 11:42:08.300134 18534 layer_factory.hpp:77] Creating layer bn4d_branch2a
I1029 11:42:08.300151 18534 net.cpp:84] Creating Layer bn4d_branch2a
I1029 11:42:08.300158 18534 net.cpp:406] bn4d_branch2a <- res4d_branch2a
I1029 11:42:08.300168 18534 net.cpp:367] bn4d_branch2a -> res4d_branch2a (in-place)
I1029 11:42:08.300443 18534 net.cpp:122] Setting up bn4d_branch2a
I1029 11:42:08.300451 18534 net.cpp:129] Top shape: 10 256 14 14 (501760)
I1029 11:42:08.300456 18534 net.cpp:137] Memory required for data: 1992990760
I1029 11:42:08.300467 18534 layer_factory.hpp:77] Creating layer scale4d_branch2a
I1029 11:42:08.300477 18534 net.cpp:84] Creating Layer scale4d_branch2a
I1029 11:42:08.300483 18534 net.cpp:406] scale4d_branch2a <- res4d_branch2a
I1029 11:42:08.300489 18534 net.cpp:367] scale4d_branch2a -> res4d_branch2a (in-place)
I1029 11:42:08.300546 18534 layer_factory.hpp:77] Creating layer scale4d_branch2a
I1029 11:42:08.300691 18534 net.cpp:122] Setting up scale4d_branch2a
I1029 11:42:08.300700 18534 net.cpp:129] Top shape: 10 256 14 14 (501760)
I1029 11:42:08.300704 18534 net.cpp:137] Memory required for data: 1994997800
I1029 11:42:08.300712 18534 layer_factory.hpp:77] Creating layer res4d_branch2a_relu
I1029 11:42:08.300724 18534 net.cpp:84] Creating Layer res4d_branch2a_relu
I1029 11:42:08.300729 18534 net.cpp:406] res4d_branch2a_relu <- res4d_branch2a
I1029 11:42:08.300739 18534 net.cpp:367] res4d_branch2a_relu -> res4d_branch2a (in-place)
I1029 11:42:08.301436 18534 net.cpp:122] Setting up res4d_branch2a_relu
I1029 11:42:08.301450 18534 net.cpp:129] Top shape: 10 256 14 14 (501760)
I1029 11:42:08.301456 18534 net.cpp:137] Memory required for data: 1997004840
I1029 11:42:08.301461 18534 layer_factory.hpp:77] Creating layer res4d_branch2b
I1029 11:42:08.301475 18534 net.cpp:84] Creating Layer res4d_branch2b
I1029 11:42:08.301481 18534 net.cpp:406] res4d_branch2b <- res4d_branch2a
I1029 11:42:08.301489 18534 net.cpp:380] res4d_branch2b -> res4d_branch2b
I1029 11:42:08.306576 18534 net.cpp:122] Setting up res4d_branch2b
I1029 11:42:08.306613 18534 net.cpp:129] Top shape: 10 256 14 14 (501760)
I1029 11:42:08.306618 18534 net.cpp:137] Memory required for data: 1999011880
I1029 11:42:08.306632 18534 layer_factory.hpp:77] Creating layer bn4d_branch2b
I1029 11:42:08.306649 18534 net.cpp:84] Creating Layer bn4d_branch2b
I1029 11:42:08.306701 18534 net.cpp:406] bn4d_branch2b <- res4d_branch2b
I1029 11:42:08.306725 18534 net.cpp:367] bn4d_branch2b -> res4d_branch2b (in-place)
I1029 11:42:08.307039 18534 net.cpp:122] Setting up bn4d_branch2b
I1029 11:42:08.307049 18534 net.cpp:129] Top shape: 10 256 14 14 (501760)
I1029 11:42:08.307052 18534 net.cpp:137] Memory required for data: 2001018920
I1029 11:42:08.307065 18534 layer_factory.hpp:77] Creating layer scale4d_branch2b
I1029 11:42:08.307075 18534 net.cpp:84] Creating Layer scale4d_branch2b
I1029 11:42:08.307081 18534 net.cpp:406] scale4d_branch2b <- res4d_branch2b
I1029 11:42:08.307090 18534 net.cpp:367] scale4d_branch2b -> res4d_branch2b (in-place)
I1029 11:42:08.307148 18534 layer_factory.hpp:77] Creating layer scale4d_branch2b
I1029 11:42:08.307294 18534 net.cpp:122] Setting up scale4d_branch2b
I1029 11:42:08.307302 18534 net.cpp:129] Top shape: 10 256 14 14 (501760)
I1029 11:42:08.307307 18534 net.cpp:137] Memory required for data: 2003025960
I1029 11:42:08.307315 18534 layer_factory.hpp:77] Creating layer res4d_branch2b_relu
I1029 11:42:08.307325 18534 net.cpp:84] Creating Layer res4d_branch2b_relu
I1029 11:42:08.307332 18534 net.cpp:406] res4d_branch2b_relu <- res4d_branch2b
I1029 11:42:08.307339 18534 net.cpp:367] res4d_branch2b_relu -> res4d_branch2b (in-place)
I1029 11:42:08.307586 18534 net.cpp:122] Setting up res4d_branch2b_relu
I1029 11:42:08.307595 18534 net.cpp:129] Top shape: 10 256 14 14 (501760)
I1029 11:42:08.307600 18534 net.cpp:137] Memory required for data: 2005033000
I1029 11:42:08.307605 18534 layer_factory.hpp:77] Creating layer res4d_branch2c
I1029 11:42:08.307620 18534 net.cpp:84] Creating Layer res4d_branch2c
I1029 11:42:08.307626 18534 net.cpp:406] res4d_branch2c <- res4d_branch2b
I1029 11:42:08.307647 18534 net.cpp:380] res4d_branch2c -> res4d_branch2c
I1029 11:42:08.311002 18534 net.cpp:122] Setting up res4d_branch2c
I1029 11:42:08.311039 18534 net.cpp:129] Top shape: 10 1024 14 14 (2007040)
I1029 11:42:08.311045 18534 net.cpp:137] Memory required for data: 2013061160
I1029 11:42:08.311060 18534 layer_factory.hpp:77] Creating layer bn4d_branch2c
I1029 11:42:08.311079 18534 net.cpp:84] Creating Layer bn4d_branch2c
I1029 11:42:08.311087 18534 net.cpp:406] bn4d_branch2c <- res4d_branch2c
I1029 11:42:08.311097 18534 net.cpp:367] bn4d_branch2c -> res4d_branch2c (in-place)
I1029 11:42:08.311379 18534 net.cpp:122] Setting up bn4d_branch2c
I1029 11:42:08.311389 18534 net.cpp:129] Top shape: 10 1024 14 14 (2007040)
I1029 11:42:08.311393 18534 net.cpp:137] Memory required for data: 2021089320
I1029 11:42:08.311405 18534 layer_factory.hpp:77] Creating layer scale4d_branch2c
I1029 11:42:08.311416 18534 net.cpp:84] Creating Layer scale4d_branch2c
I1029 11:42:08.311422 18534 net.cpp:406] scale4d_branch2c <- res4d_branch2c
I1029 11:42:08.311429 18534 net.cpp:367] scale4d_branch2c -> res4d_branch2c (in-place)
I1029 11:42:08.311482 18534 layer_factory.hpp:77] Creating layer scale4d_branch2c
I1029 11:42:08.311635 18534 net.cpp:122] Setting up scale4d_branch2c
I1029 11:42:08.311642 18534 net.cpp:129] Top shape: 10 1024 14 14 (2007040)
I1029 11:42:08.311647 18534 net.cpp:137] Memory required for data: 2029117480
I1029 11:42:08.311655 18534 layer_factory.hpp:77] Creating layer res4d
I1029 11:42:08.311666 18534 net.cpp:84] Creating Layer res4d
I1029 11:42:08.311672 18534 net.cpp:406] res4d <- res4c_res4c_relu_0_split_1
I1029 11:42:08.311678 18534 net.cpp:406] res4d <- res4d_branch2c
I1029 11:42:08.311689 18534 net.cpp:380] res4d -> res4d
I1029 11:42:08.311719 18534 net.cpp:122] Setting up res4d
I1029 11:42:08.311728 18534 net.cpp:129] Top shape: 10 1024 14 14 (2007040)
I1029 11:42:08.311731 18534 net.cpp:137] Memory required for data: 2037145640
I1029 11:42:08.311736 18534 layer_factory.hpp:77] Creating layer res4d_relu
I1029 11:42:08.311746 18534 net.cpp:84] Creating Layer res4d_relu
I1029 11:42:08.311750 18534 net.cpp:406] res4d_relu <- res4d
I1029 11:42:08.311756 18534 net.cpp:367] res4d_relu -> res4d (in-place)
I1029 11:42:08.311954 18534 net.cpp:122] Setting up res4d_relu
I1029 11:42:08.311962 18534 net.cpp:129] Top shape: 10 1024 14 14 (2007040)
I1029 11:42:08.311967 18534 net.cpp:137] Memory required for data: 2045173800
I1029 11:42:08.311972 18534 layer_factory.hpp:77] Creating layer res4d_res4d_relu_0_split
I1029 11:42:08.311982 18534 net.cpp:84] Creating Layer res4d_res4d_relu_0_split
I1029 11:42:08.311987 18534 net.cpp:406] res4d_res4d_relu_0_split <- res4d
I1029 11:42:08.311995 18534 net.cpp:380] res4d_res4d_relu_0_split -> res4d_res4d_relu_0_split_0
I1029 11:42:08.312005 18534 net.cpp:380] res4d_res4d_relu_0_split -> res4d_res4d_relu_0_split_1
I1029 11:42:08.312054 18534 net.cpp:122] Setting up res4d_res4d_relu_0_split
I1029 11:42:08.312062 18534 net.cpp:129] Top shape: 10 1024 14 14 (2007040)
I1029 11:42:08.312069 18534 net.cpp:129] Top shape: 10 1024 14 14 (2007040)
I1029 11:42:08.312073 18534 net.cpp:137] Memory required for data: 2061230120
I1029 11:42:08.312078 18534 layer_factory.hpp:77] Creating layer res4e_branch2a
I1029 11:42:08.312093 18534 net.cpp:84] Creating Layer res4e_branch2a
I1029 11:42:08.312099 18534 net.cpp:406] res4e_branch2a <- res4d_res4d_relu_0_split_0
I1029 11:42:08.312108 18534 net.cpp:380] res4e_branch2a -> res4e_branch2a
I1029 11:42:08.314036 18534 net.cpp:122] Setting up res4e_branch2a
I1029 11:42:08.314072 18534 net.cpp:129] Top shape: 10 256 14 14 (501760)
I1029 11:42:08.314079 18534 net.cpp:137] Memory required for data: 2063237160
I1029 11:42:08.314092 18534 layer_factory.hpp:77] Creating layer bn4e_branch2a
I1029 11:42:08.314110 18534 net.cpp:84] Creating Layer bn4e_branch2a
I1029 11:42:08.314118 18534 net.cpp:406] bn4e_branch2a <- res4e_branch2a
I1029 11:42:08.314129 18534 net.cpp:367] bn4e_branch2a -> res4e_branch2a (in-place)
I1029 11:42:08.314421 18534 net.cpp:122] Setting up bn4e_branch2a
I1029 11:42:08.314430 18534 net.cpp:129] Top shape: 10 256 14 14 (501760)
I1029 11:42:08.314435 18534 net.cpp:137] Memory required for data: 2065244200
I1029 11:42:08.314446 18534 layer_factory.hpp:77] Creating layer scale4e_branch2a
I1029 11:42:08.314455 18534 net.cpp:84] Creating Layer scale4e_branch2a
I1029 11:42:08.314460 18534 net.cpp:406] scale4e_branch2a <- res4e_branch2a
I1029 11:42:08.314466 18534 net.cpp:367] scale4e_branch2a -> res4e_branch2a (in-place)
I1029 11:42:08.314527 18534 layer_factory.hpp:77] Creating layer scale4e_branch2a
I1029 11:42:08.314673 18534 net.cpp:122] Setting up scale4e_branch2a
I1029 11:42:08.314682 18534 net.cpp:129] Top shape: 10 256 14 14 (501760)
I1029 11:42:08.314687 18534 net.cpp:137] Memory required for data: 2067251240
I1029 11:42:08.314694 18534 layer_factory.hpp:77] Creating layer res4e_branch2a_relu
I1029 11:42:08.314702 18534 net.cpp:84] Creating Layer res4e_branch2a_relu
I1029 11:42:08.314707 18534 net.cpp:406] res4e_branch2a_relu <- res4e_branch2a
I1029 11:42:08.314715 18534 net.cpp:367] res4e_branch2a_relu -> res4e_branch2a (in-place)
I1029 11:42:08.314918 18534 net.cpp:122] Setting up res4e_branch2a_relu
I1029 11:42:08.314926 18534 net.cpp:129] Top shape: 10 256 14 14 (501760)
I1029 11:42:08.314931 18534 net.cpp:137] Memory required for data: 2069258280
I1029 11:42:08.314935 18534 layer_factory.hpp:77] Creating layer res4e_branch2b
I1029 11:42:08.314947 18534 net.cpp:84] Creating Layer res4e_branch2b
I1029 11:42:08.314952 18534 net.cpp:406] res4e_branch2b <- res4e_branch2a
I1029 11:42:08.314960 18534 net.cpp:380] res4e_branch2b -> res4e_branch2b
I1029 11:42:08.319315 18534 net.cpp:122] Setting up res4e_branch2b
I1029 11:42:08.319355 18534 net.cpp:129] Top shape: 10 256 14 14 (501760)
I1029 11:42:08.319360 18534 net.cpp:137] Memory required for data: 2071265320
I1029 11:42:08.319375 18534 layer_factory.hpp:77] Creating layer bn4e_branch2b
I1029 11:42:08.319396 18534 net.cpp:84] Creating Layer bn4e_branch2b
I1029 11:42:08.319403 18534 net.cpp:406] bn4e_branch2b <- res4e_branch2b
I1029 11:42:08.319413 18534 net.cpp:367] bn4e_branch2b -> res4e_branch2b (in-place)
I1029 11:42:08.319694 18534 net.cpp:122] Setting up bn4e_branch2b
I1029 11:42:08.319703 18534 net.cpp:129] Top shape: 10 256 14 14 (501760)
I1029 11:42:08.319707 18534 net.cpp:137] Memory required for data: 2073272360
I1029 11:42:08.319718 18534 layer_factory.hpp:77] Creating layer scale4e_branch2b
I1029 11:42:08.319728 18534 net.cpp:84] Creating Layer scale4e_branch2b
I1029 11:42:08.319736 18534 net.cpp:406] scale4e_branch2b <- res4e_branch2b
I1029 11:42:08.319742 18534 net.cpp:367] scale4e_branch2b -> res4e_branch2b (in-place)
I1029 11:42:08.319802 18534 layer_factory.hpp:77] Creating layer scale4e_branch2b
I1029 11:42:08.319952 18534 net.cpp:122] Setting up scale4e_branch2b
I1029 11:42:08.319960 18534 net.cpp:129] Top shape: 10 256 14 14 (501760)
I1029 11:42:08.319964 18534 net.cpp:137] Memory required for data: 2075279400
I1029 11:42:08.319972 18534 layer_factory.hpp:77] Creating layer res4e_branch2b_relu
I1029 11:42:08.319980 18534 net.cpp:84] Creating Layer res4e_branch2b_relu
I1029 11:42:08.319984 18534 net.cpp:406] res4e_branch2b_relu <- res4e_branch2b
I1029 11:42:08.319993 18534 net.cpp:367] res4e_branch2b_relu -> res4e_branch2b (in-place)
I1029 11:42:08.320209 18534 net.cpp:122] Setting up res4e_branch2b_relu
I1029 11:42:08.320219 18534 net.cpp:129] Top shape: 10 256 14 14 (501760)
I1029 11:42:08.320224 18534 net.cpp:137] Memory required for data: 2077286440
I1029 11:42:08.320228 18534 layer_factory.hpp:77] Creating layer res4e_branch2c
I1029 11:42:08.320241 18534 net.cpp:84] Creating Layer res4e_branch2c
I1029 11:42:08.320248 18534 net.cpp:406] res4e_branch2c <- res4e_branch2b
I1029 11:42:08.320256 18534 net.cpp:380] res4e_branch2c -> res4e_branch2c
I1029 11:42:08.323448 18534 net.cpp:122] Setting up res4e_branch2c
I1029 11:42:08.323490 18534 net.cpp:129] Top shape: 10 1024 14 14 (2007040)
I1029 11:42:08.323495 18534 net.cpp:137] Memory required for data: 2085314600
I1029 11:42:08.323542 18534 layer_factory.hpp:77] Creating layer bn4e_branch2c
I1029 11:42:08.323563 18534 net.cpp:84] Creating Layer bn4e_branch2c
I1029 11:42:08.323572 18534 net.cpp:406] bn4e_branch2c <- res4e_branch2c
I1029 11:42:08.323582 18534 net.cpp:367] bn4e_branch2c -> res4e_branch2c (in-place)
I1029 11:42:08.323886 18534 net.cpp:122] Setting up bn4e_branch2c
I1029 11:42:08.323895 18534 net.cpp:129] Top shape: 10 1024 14 14 (2007040)
I1029 11:42:08.323899 18534 net.cpp:137] Memory required for data: 2093342760
I1029 11:42:08.323910 18534 layer_factory.hpp:77] Creating layer scale4e_branch2c
I1029 11:42:08.323921 18534 net.cpp:84] Creating Layer scale4e_branch2c
I1029 11:42:08.323927 18534 net.cpp:406] scale4e_branch2c <- res4e_branch2c
I1029 11:42:08.323936 18534 net.cpp:367] scale4e_branch2c -> res4e_branch2c (in-place)
I1029 11:42:08.323987 18534 layer_factory.hpp:77] Creating layer scale4e_branch2c
I1029 11:42:08.324143 18534 net.cpp:122] Setting up scale4e_branch2c
I1029 11:42:08.324152 18534 net.cpp:129] Top shape: 10 1024 14 14 (2007040)
I1029 11:42:08.324156 18534 net.cpp:137] Memory required for data: 2101370920
I1029 11:42:08.324164 18534 layer_factory.hpp:77] Creating layer res4e
I1029 11:42:08.324172 18534 net.cpp:84] Creating Layer res4e
I1029 11:42:08.324177 18534 net.cpp:406] res4e <- res4d_res4d_relu_0_split_1
I1029 11:42:08.324183 18534 net.cpp:406] res4e <- res4e_branch2c
I1029 11:42:08.324193 18534 net.cpp:380] res4e -> res4e
I1029 11:42:08.324223 18534 net.cpp:122] Setting up res4e
I1029 11:42:08.324234 18534 net.cpp:129] Top shape: 10 1024 14 14 (2007040)
I1029 11:42:08.324240 18534 net.cpp:137] Memory required for data: 2109399080
I1029 11:42:08.324245 18534 layer_factory.hpp:77] Creating layer res4e_relu
I1029 11:42:08.324252 18534 net.cpp:84] Creating Layer res4e_relu
I1029 11:42:08.324257 18534 net.cpp:406] res4e_relu <- res4e
I1029 11:42:08.324264 18534 net.cpp:367] res4e_relu -> res4e (in-place)
I1029 11:42:08.324885 18534 net.cpp:122] Setting up res4e_relu
I1029 11:42:08.324898 18534 net.cpp:129] Top shape: 10 1024 14 14 (2007040)
I1029 11:42:08.324903 18534 net.cpp:137] Memory required for data: 2117427240
I1029 11:42:08.324908 18534 layer_factory.hpp:77] Creating layer res4e_res4e_relu_0_split
I1029 11:42:08.324918 18534 net.cpp:84] Creating Layer res4e_res4e_relu_0_split
I1029 11:42:08.324923 18534 net.cpp:406] res4e_res4e_relu_0_split <- res4e
I1029 11:42:08.324931 18534 net.cpp:380] res4e_res4e_relu_0_split -> res4e_res4e_relu_0_split_0
I1029 11:42:08.324942 18534 net.cpp:380] res4e_res4e_relu_0_split -> res4e_res4e_relu_0_split_1
I1029 11:42:08.324997 18534 net.cpp:122] Setting up res4e_res4e_relu_0_split
I1029 11:42:08.325006 18534 net.cpp:129] Top shape: 10 1024 14 14 (2007040)
I1029 11:42:08.325011 18534 net.cpp:129] Top shape: 10 1024 14 14 (2007040)
I1029 11:42:08.325016 18534 net.cpp:137] Memory required for data: 2133483560
I1029 11:42:08.325021 18534 layer_factory.hpp:77] Creating layer res4f_branch2a
I1029 11:42:08.325033 18534 net.cpp:84] Creating Layer res4f_branch2a
I1029 11:42:08.325040 18534 net.cpp:406] res4f_branch2a <- res4e_res4e_relu_0_split_0
I1029 11:42:08.325049 18534 net.cpp:380] res4f_branch2a -> res4f_branch2a
I1029 11:42:08.326409 18534 net.cpp:122] Setting up res4f_branch2a
I1029 11:42:08.326439 18534 net.cpp:129] Top shape: 10 256 14 14 (501760)
I1029 11:42:08.326445 18534 net.cpp:137] Memory required for data: 2135490600
I1029 11:42:08.326458 18534 layer_factory.hpp:77] Creating layer bn4f_branch2a
I1029 11:42:08.326474 18534 net.cpp:84] Creating Layer bn4f_branch2a
I1029 11:42:08.326481 18534 net.cpp:406] bn4f_branch2a <- res4f_branch2a
I1029 11:42:08.326490 18534 net.cpp:367] bn4f_branch2a -> res4f_branch2a (in-place)
I1029 11:42:08.326766 18534 net.cpp:122] Setting up bn4f_branch2a
I1029 11:42:08.326776 18534 net.cpp:129] Top shape: 10 256 14 14 (501760)
I1029 11:42:08.326779 18534 net.cpp:137] Memory required for data: 2137497640
I1029 11:42:08.326789 18534 layer_factory.hpp:77] Creating layer scale4f_branch2a
I1029 11:42:08.326844 18534 net.cpp:84] Creating Layer scale4f_branch2a
I1029 11:42:08.326851 18534 net.cpp:406] scale4f_branch2a <- res4f_branch2a
I1029 11:42:08.326858 18534 net.cpp:367] scale4f_branch2a -> res4f_branch2a (in-place)
I1029 11:42:08.326913 18534 layer_factory.hpp:77] Creating layer scale4f_branch2a
I1029 11:42:08.327061 18534 net.cpp:122] Setting up scale4f_branch2a
I1029 11:42:08.327069 18534 net.cpp:129] Top shape: 10 256 14 14 (501760)
I1029 11:42:08.327075 18534 net.cpp:137] Memory required for data: 2139504680
I1029 11:42:08.327083 18534 layer_factory.hpp:77] Creating layer res4f_branch2a_relu
I1029 11:42:08.327090 18534 net.cpp:84] Creating Layer res4f_branch2a_relu
I1029 11:42:08.327095 18534 net.cpp:406] res4f_branch2a_relu <- res4f_branch2a
I1029 11:42:08.327101 18534 net.cpp:367] res4f_branch2a_relu -> res4f_branch2a (in-place)
I1029 11:42:08.327936 18534 net.cpp:122] Setting up res4f_branch2a_relu
I1029 11:42:08.327996 18534 net.cpp:129] Top shape: 10 256 14 14 (501760)
I1029 11:42:08.328013 18534 net.cpp:137] Memory required for data: 2141511720
I1029 11:42:08.328032 18534 layer_factory.hpp:77] Creating layer res4f_branch2b
I1029 11:42:08.328061 18534 net.cpp:84] Creating Layer res4f_branch2b
I1029 11:42:08.328078 18534 net.cpp:406] res4f_branch2b <- res4f_branch2a
I1029 11:42:08.328100 18534 net.cpp:380] res4f_branch2b -> res4f_branch2b
I1029 11:42:08.333179 18534 net.cpp:122] Setting up res4f_branch2b
I1029 11:42:08.333228 18534 net.cpp:129] Top shape: 10 256 14 14 (501760)
I1029 11:42:08.333235 18534 net.cpp:137] Memory required for data: 2143518760
I1029 11:42:08.333252 18534 layer_factory.hpp:77] Creating layer bn4f_branch2b
I1029 11:42:08.333271 18534 net.cpp:84] Creating Layer bn4f_branch2b
I1029 11:42:08.333279 18534 net.cpp:406] bn4f_branch2b <- res4f_branch2b
I1029 11:42:08.333290 18534 net.cpp:367] bn4f_branch2b -> res4f_branch2b (in-place)
I1029 11:42:08.333647 18534 net.cpp:122] Setting up bn4f_branch2b
I1029 11:42:08.333658 18534 net.cpp:129] Top shape: 10 256 14 14 (501760)
I1029 11:42:08.333662 18534 net.cpp:137] Memory required for data: 2145525800
I1029 11:42:08.333674 18534 layer_factory.hpp:77] Creating layer scale4f_branch2b
I1029 11:42:08.333686 18534 net.cpp:84] Creating Layer scale4f_branch2b
I1029 11:42:08.333691 18534 net.cpp:406] scale4f_branch2b <- res4f_branch2b
I1029 11:42:08.333698 18534 net.cpp:367] scale4f_branch2b -> res4f_branch2b (in-place)
I1029 11:42:08.333762 18534 layer_factory.hpp:77] Creating layer scale4f_branch2b
I1029 11:42:08.333932 18534 net.cpp:122] Setting up scale4f_branch2b
I1029 11:42:08.333943 18534 net.cpp:129] Top shape: 10 256 14 14 (501760)
I1029 11:42:08.333948 18534 net.cpp:137] Memory required for data: 2147532840
I1029 11:42:08.333956 18534 layer_factory.hpp:77] Creating layer res4f_branch2b_relu
I1029 11:42:08.333964 18534 net.cpp:84] Creating Layer res4f_branch2b_relu
I1029 11:42:08.333969 18534 net.cpp:406] res4f_branch2b_relu <- res4f_branch2b
I1029 11:42:08.333978 18534 net.cpp:367] res4f_branch2b_relu -> res4f_branch2b (in-place)
I1029 11:42:08.334264 18534 net.cpp:122] Setting up res4f_branch2b_relu
I1029 11:42:08.334275 18534 net.cpp:129] Top shape: 10 256 14 14 (501760)
I1029 11:42:08.334278 18534 net.cpp:137] Memory required for data: 2149539880
I1029 11:42:08.334283 18534 layer_factory.hpp:77] Creating layer res4f_branch2c
I1029 11:42:08.334298 18534 net.cpp:84] Creating Layer res4f_branch2c
I1029 11:42:08.334303 18534 net.cpp:406] res4f_branch2c <- res4f_branch2b
I1029 11:42:08.334311 18534 net.cpp:380] res4f_branch2c -> res4f_branch2c
I1029 11:42:08.337596 18534 net.cpp:122] Setting up res4f_branch2c
I1029 11:42:08.337638 18534 net.cpp:129] Top shape: 10 1024 14 14 (2007040)
I1029 11:42:08.337644 18534 net.cpp:137] Memory required for data: 2157568040
I1029 11:42:08.337659 18534 layer_factory.hpp:77] Creating layer bn4f_branch2c
I1029 11:42:08.337678 18534 net.cpp:84] Creating Layer bn4f_branch2c
I1029 11:42:08.337687 18534 net.cpp:406] bn4f_branch2c <- res4f_branch2c
I1029 11:42:08.337697 18534 net.cpp:367] bn4f_branch2c -> res4f_branch2c (in-place)
I1029 11:42:08.338027 18534 net.cpp:122] Setting up bn4f_branch2c
I1029 11:42:08.338035 18534 net.cpp:129] Top shape: 10 1024 14 14 (2007040)
I1029 11:42:08.338039 18534 net.cpp:137] Memory required for data: 2165596200
I1029 11:42:08.338110 18534 layer_factory.hpp:77] Creating layer scale4f_branch2c
I1029 11:42:08.338121 18534 net.cpp:84] Creating Layer scale4f_branch2c
I1029 11:42:08.338127 18534 net.cpp:406] scale4f_branch2c <- res4f_branch2c
I1029 11:42:08.338135 18534 net.cpp:367] scale4f_branch2c -> res4f_branch2c (in-place)
I1029 11:42:08.338189 18534 layer_factory.hpp:77] Creating layer scale4f_branch2c
I1029 11:42:08.338342 18534 net.cpp:122] Setting up scale4f_branch2c
I1029 11:42:08.338351 18534 net.cpp:129] Top shape: 10 1024 14 14 (2007040)
I1029 11:42:08.338356 18534 net.cpp:137] Memory required for data: 2173624360
I1029 11:42:08.338366 18534 layer_factory.hpp:77] Creating layer res4f
I1029 11:42:08.338373 18534 net.cpp:84] Creating Layer res4f
I1029 11:42:08.338378 18534 net.cpp:406] res4f <- res4e_res4e_relu_0_split_1
I1029 11:42:08.338384 18534 net.cpp:406] res4f <- res4f_branch2c
I1029 11:42:08.338394 18534 net.cpp:380] res4f -> res4f
I1029 11:42:08.338426 18534 net.cpp:122] Setting up res4f
I1029 11:42:08.338434 18534 net.cpp:129] Top shape: 10 1024 14 14 (2007040)
I1029 11:42:08.338439 18534 net.cpp:137] Memory required for data: 2181652520
I1029 11:42:08.338444 18534 layer_factory.hpp:77] Creating layer res4f_relu
I1029 11:42:08.338451 18534 net.cpp:84] Creating Layer res4f_relu
I1029 11:42:08.338456 18534 net.cpp:406] res4f_relu <- res4f
I1029 11:42:08.338462 18534 net.cpp:367] res4f_relu -> res4f (in-place)
I1029 11:42:08.338686 18534 net.cpp:122] Setting up res4f_relu
I1029 11:42:08.338696 18534 net.cpp:129] Top shape: 10 1024 14 14 (2007040)
I1029 11:42:08.338699 18534 net.cpp:137] Memory required for data: 2189680680
I1029 11:42:08.338704 18534 layer_factory.hpp:77] Creating layer res4f_res4f_relu_0_split
I1029 11:42:08.338713 18534 net.cpp:84] Creating Layer res4f_res4f_relu_0_split
I1029 11:42:08.338718 18534 net.cpp:406] res4f_res4f_relu_0_split <- res4f
I1029 11:42:08.338727 18534 net.cpp:380] res4f_res4f_relu_0_split -> res4f_res4f_relu_0_split_0
I1029 11:42:08.338737 18534 net.cpp:380] res4f_res4f_relu_0_split -> res4f_res4f_relu_0_split_1
I1029 11:42:08.338785 18534 net.cpp:122] Setting up res4f_res4f_relu_0_split
I1029 11:42:08.338798 18534 net.cpp:129] Top shape: 10 1024 14 14 (2007040)
I1029 11:42:08.338806 18534 net.cpp:129] Top shape: 10 1024 14 14 (2007040)
I1029 11:42:08.338811 18534 net.cpp:137] Memory required for data: 2205737000
I1029 11:42:08.338815 18534 layer_factory.hpp:77] Creating layer res5a_branch1
I1029 11:42:08.338825 18534 net.cpp:84] Creating Layer res5a_branch1
I1029 11:42:08.338831 18534 net.cpp:406] res5a_branch1 <- res4f_res4f_relu_0_split_0
I1029 11:42:08.338840 18534 net.cpp:380] res5a_branch1 -> res5a_branch1
I1029 11:42:08.348034 18534 net.cpp:122] Setting up res5a_branch1
I1029 11:42:08.348078 18534 net.cpp:129] Top shape: 10 2048 7 7 (1003520)
I1029 11:42:08.348083 18534 net.cpp:137] Memory required for data: 2209751080
I1029 11:42:08.348098 18534 layer_factory.hpp:77] Creating layer bn5a_branch1
I1029 11:42:08.348117 18534 net.cpp:84] Creating Layer bn5a_branch1
I1029 11:42:08.348125 18534 net.cpp:406] bn5a_branch1 <- res5a_branch1
I1029 11:42:08.348136 18534 net.cpp:367] bn5a_branch1 -> res5a_branch1 (in-place)
I1029 11:42:08.348445 18534 net.cpp:122] Setting up bn5a_branch1
I1029 11:42:08.348454 18534 net.cpp:129] Top shape: 10 2048 7 7 (1003520)
I1029 11:42:08.348459 18534 net.cpp:137] Memory required for data: 2213765160
I1029 11:42:08.348470 18534 layer_factory.hpp:77] Creating layer scale5a_branch1
I1029 11:42:08.348479 18534 net.cpp:84] Creating Layer scale5a_branch1
I1029 11:42:08.348484 18534 net.cpp:406] scale5a_branch1 <- res5a_branch1
I1029 11:42:08.348490 18534 net.cpp:367] scale5a_branch1 -> res5a_branch1 (in-place)
I1029 11:42:08.348551 18534 layer_factory.hpp:77] Creating layer scale5a_branch1
I1029 11:42:08.348731 18534 net.cpp:122] Setting up scale5a_branch1
I1029 11:42:08.348740 18534 net.cpp:129] Top shape: 10 2048 7 7 (1003520)
I1029 11:42:08.348744 18534 net.cpp:137] Memory required for data: 2217779240
I1029 11:42:08.348752 18534 layer_factory.hpp:77] Creating layer res5a_branch2a
I1029 11:42:08.348765 18534 net.cpp:84] Creating Layer res5a_branch2a
I1029 11:42:08.348770 18534 net.cpp:406] res5a_branch2a <- res4f_res4f_relu_0_split_1
I1029 11:42:08.348780 18534 net.cpp:380] res5a_branch2a -> res5a_branch2a
I1029 11:42:08.353005 18534 net.cpp:122] Setting up res5a_branch2a
I1029 11:42:08.353047 18534 net.cpp:129] Top shape: 10 512 7 7 (250880)
I1029 11:42:08.353054 18534 net.cpp:137] Memory required for data: 2218782760
I1029 11:42:08.353068 18534 layer_factory.hpp:77] Creating layer bn5a_branch2a
I1029 11:42:08.353085 18534 net.cpp:84] Creating Layer bn5a_branch2a
I1029 11:42:08.353093 18534 net.cpp:406] bn5a_branch2a <- res5a_branch2a
I1029 11:42:08.353107 18534 net.cpp:367] bn5a_branch2a -> res5a_branch2a (in-place)
I1029 11:42:08.353401 18534 net.cpp:122] Setting up bn5a_branch2a
I1029 11:42:08.353411 18534 net.cpp:129] Top shape: 10 512 7 7 (250880)
I1029 11:42:08.353416 18534 net.cpp:137] Memory required for data: 2219786280
I1029 11:42:08.353427 18534 layer_factory.hpp:77] Creating layer scale5a_branch2a
I1029 11:42:08.353436 18534 net.cpp:84] Creating Layer scale5a_branch2a
I1029 11:42:08.353447 18534 net.cpp:406] scale5a_branch2a <- res5a_branch2a
I1029 11:42:08.353453 18534 net.cpp:367] scale5a_branch2a -> res5a_branch2a (in-place)
I1029 11:42:08.353507 18534 layer_factory.hpp:77] Creating layer scale5a_branch2a
I1029 11:42:08.353664 18534 net.cpp:122] Setting up scale5a_branch2a
I1029 11:42:08.353673 18534 net.cpp:129] Top shape: 10 512 7 7 (250880)
I1029 11:42:08.353678 18534 net.cpp:137] Memory required for data: 2220789800
I1029 11:42:08.353687 18534 layer_factory.hpp:77] Creating layer res5a_branch2a_relu
I1029 11:42:08.353698 18534 net.cpp:84] Creating Layer res5a_branch2a_relu
I1029 11:42:08.353703 18534 net.cpp:406] res5a_branch2a_relu <- res5a_branch2a
I1029 11:42:08.353709 18534 net.cpp:367] res5a_branch2a_relu -> res5a_branch2a (in-place)
I1029 11:42:08.353943 18534 net.cpp:122] Setting up res5a_branch2a_relu
I1029 11:42:08.353955 18534 net.cpp:129] Top shape: 10 512 7 7 (250880)
I1029 11:42:08.353960 18534 net.cpp:137] Memory required for data: 2221793320
I1029 11:42:08.353965 18534 layer_factory.hpp:77] Creating layer res5a_branch2b
I1029 11:42:08.353976 18534 net.cpp:84] Creating Layer res5a_branch2b
I1029 11:42:08.353981 18534 net.cpp:406] res5a_branch2b <- res5a_branch2a
I1029 11:42:08.353991 18534 net.cpp:380] res5a_branch2b -> res5a_branch2b
I1029 11:42:08.364215 18534 net.cpp:122] Setting up res5a_branch2b
I1029 11:42:08.364331 18534 net.cpp:129] Top shape: 10 512 7 7 (250880)
I1029 11:42:08.364351 18534 net.cpp:137] Memory required for data: 2222796840
I1029 11:42:08.364382 18534 layer_factory.hpp:77] Creating layer bn5a_branch2b
I1029 11:42:08.364408 18534 net.cpp:84] Creating Layer bn5a_branch2b
I1029 11:42:08.364428 18534 net.cpp:406] bn5a_branch2b <- res5a_branch2b
I1029 11:42:08.364456 18534 net.cpp:367] bn5a_branch2b -> res5a_branch2b (in-place)
I1029 11:42:08.364805 18534 net.cpp:122] Setting up bn5a_branch2b
I1029 11:42:08.364835 18534 net.cpp:129] Top shape: 10 512 7 7 (250880)
I1029 11:42:08.364851 18534 net.cpp:137] Memory required for data: 2223800360
I1029 11:42:08.364878 18534 layer_factory.hpp:77] Creating layer scale5a_branch2b
I1029 11:42:08.364902 18534 net.cpp:84] Creating Layer scale5a_branch2b
I1029 11:42:08.364919 18534 net.cpp:406] scale5a_branch2b <- res5a_branch2b
I1029 11:42:08.364941 18534 net.cpp:367] scale5a_branch2b -> res5a_branch2b (in-place)
I1029 11:42:08.365022 18534 layer_factory.hpp:77] Creating layer scale5a_branch2b
I1029 11:42:08.365206 18534 net.cpp:122] Setting up scale5a_branch2b
I1029 11:42:08.365218 18534 net.cpp:129] Top shape: 10 512 7 7 (250880)
I1029 11:42:08.365223 18534 net.cpp:137] Memory required for data: 2224803880
I1029 11:42:08.365257 18534 layer_factory.hpp:77] Creating layer res5a_branch2b_relu
I1029 11:42:08.365265 18534 net.cpp:84] Creating Layer res5a_branch2b_relu
I1029 11:42:08.365272 18534 net.cpp:406] res5a_branch2b_relu <- res5a_branch2b
I1029 11:42:08.365278 18534 net.cpp:367] res5a_branch2b_relu -> res5a_branch2b (in-place)
I1029 11:42:08.365540 18534 net.cpp:122] Setting up res5a_branch2b_relu
I1029 11:42:08.365550 18534 net.cpp:129] Top shape: 10 512 7 7 (250880)
I1029 11:42:08.365553 18534 net.cpp:137] Memory required for data: 2225807400
I1029 11:42:08.365558 18534 layer_factory.hpp:77] Creating layer res5a_branch2c
I1029 11:42:08.365571 18534 net.cpp:84] Creating Layer res5a_branch2c
I1029 11:42:08.365581 18534 net.cpp:406] res5a_branch2c <- res5a_branch2b
I1029 11:42:08.365592 18534 net.cpp:380] res5a_branch2c -> res5a_branch2c
I1029 11:42:08.373497 18534 net.cpp:122] Setting up res5a_branch2c
I1029 11:42:08.373543 18534 net.cpp:129] Top shape: 10 2048 7 7 (1003520)
I1029 11:42:08.373549 18534 net.cpp:137] Memory required for data: 2229821480
I1029 11:42:08.373569 18534 layer_factory.hpp:77] Creating layer bn5a_branch2c
I1029 11:42:08.373589 18534 net.cpp:84] Creating Layer bn5a_branch2c
I1029 11:42:08.373600 18534 net.cpp:406] bn5a_branch2c <- res5a_branch2c
I1029 11:42:08.373617 18534 net.cpp:367] bn5a_branch2c -> res5a_branch2c (in-place)
I1029 11:42:08.374137 18534 net.cpp:122] Setting up bn5a_branch2c
I1029 11:42:08.374208 18534 net.cpp:129] Top shape: 10 2048 7 7 (1003520)
I1029 11:42:08.374222 18534 net.cpp:137] Memory required for data: 2233835560
I1029 11:42:08.374240 18534 layer_factory.hpp:77] Creating layer scale5a_branch2c
I1029 11:42:08.374256 18534 net.cpp:84] Creating Layer scale5a_branch2c
I1029 11:42:08.374287 18534 net.cpp:406] scale5a_branch2c <- res5a_branch2c
I1029 11:42:08.374305 18534 net.cpp:367] scale5a_branch2c -> res5a_branch2c (in-place)
I1029 11:42:08.374403 18534 layer_factory.hpp:77] Creating layer scale5a_branch2c
I1029 11:42:08.374683 18534 net.cpp:122] Setting up scale5a_branch2c
I1029 11:42:08.374698 18534 net.cpp:129] Top shape: 10 2048 7 7 (1003520)
I1029 11:42:08.374709 18534 net.cpp:137] Memory required for data: 2237849640
I1029 11:42:08.374723 18534 layer_factory.hpp:77] Creating layer res5a
I1029 11:42:08.374739 18534 net.cpp:84] Creating Layer res5a
I1029 11:42:08.374752 18534 net.cpp:406] res5a <- res5a_branch1
I1029 11:42:08.374761 18534 net.cpp:406] res5a <- res5a_branch2c
I1029 11:42:08.374774 18534 net.cpp:380] res5a -> res5a
I1029 11:42:08.374825 18534 net.cpp:122] Setting up res5a
I1029 11:42:08.374840 18534 net.cpp:129] Top shape: 10 2048 7 7 (1003520)
I1029 11:42:08.374846 18534 net.cpp:137] Memory required for data: 2241863720
I1029 11:42:08.374855 18534 layer_factory.hpp:77] Creating layer res5a_relu
I1029 11:42:08.374866 18534 net.cpp:84] Creating Layer res5a_relu
I1029 11:42:08.374876 18534 net.cpp:406] res5a_relu <- res5a
I1029 11:42:08.374889 18534 net.cpp:367] res5a_relu -> res5a (in-place)
…
I1029 11:42:08.959507 18534 net.cpp:122] Setting up res4c_relu
I1029 11:42:08.959523 18534 net.cpp:129] Top shape: 1 1024 14 14 (200704)
I1029 11:42:08.959530 18534 net.cpp:137] Memory required for data: 197292036
I1029 11:42:08.959534 18534 layer_factory.hpp:77] Creating layer res4c_res4c_relu_0_split
I1029 11:42:08.959542 18534 net.cpp:84] Creating Layer res4c_res4c_relu_0_split
I1029 11:42:08.959547 18534 net.cpp:406] res4c_res4c_relu_0_split <- res4c
I1029 11:42:08.959556 18534 net.cpp:380] res4c_res4c_relu_0_split -> res4c_res4c_relu_0_split_0
I1029 11:42:08.959565 18534 net.cpp:380] res4c_res4c_relu_0_split -> res4c_res4c_relu_0_split_1
I1029 11:42:08.959626 18534 net.cpp:122] Setting up res4c_res4c_relu_0_split
I1029 11:42:08.959635 18534 net.cpp:129] Top shape: 1 1024 14 14 (200704)
I1029 11:42:08.959640 18534 net.cpp:129] Top shape: 1 1024 14 14 (200704)
I1029 11:42:08.959645 18534 net.cpp:137] Memory required for data: 198897668
I1029 11:42:08.959650 18534 layer_factory.hpp:77] Creating layer res4d_branch2a
I1029 11:42:08.959662 18534 net.cpp:84] Creating Layer res4d_branch2a
I1029 11:42:08.959667 18534 net.cpp:406] res4d_branch2a <- res4c_res4c_relu_0_split_0
I1029 11:42:08.959673 18534 net.cpp:380] res4d_branch2a -> res4d_branch2a
I1029 11:42:08.961704 18534 net.cpp:122] Setting up res4d_branch2a
I1029 11:42:08.961740 18534 net.cpp:129] Top shape: 1 256 14 14 (50176)
I1029 11:42:08.961745 18534 net.cpp:137] Memory required for data: 199098372
I1029 11:42:08.961758 18534 layer_factory.hpp:77] Creating layer bn4d_branch2a
I1029 11:42:08.961771 18534 net.cpp:84] Creating Layer bn4d_branch2a
I1029 11:42:08.961777 18534 net.cpp:406] bn4d_branch2a <- res4d_branch2a
I1029 11:42:08.961787 18534 net.cpp:367] bn4d_branch2a -> res4d_branch2a (in-place)
I1029 11:42:08.962153 18534 net.cpp:122] Setting up bn4d_branch2a
I1029 11:42:08.962164 18534 net.cpp:129] Top shape: 1 256 14 14 (50176)
I1029 11:42:08.962168 18534 net.cpp:137] Memory required for data: 199299076
I1029 11:42:08.962177 18534 layer_factory.hpp:77] Creating layer scale4d_branch2a
I1029 11:42:08.962186 18534 net.cpp:84] Creating Layer scale4d_branch2a
I1029 11:42:08.962190 18534 net.cpp:406] scale4d_branch2a <- res4d_branch2a
I1029 11:42:08.962230 18534 net.cpp:367] scale4d_branch2a -> res4d_branch2a (in-place)
I1029 11:42:08.962291 18534 layer_factory.hpp:77] Creating layer scale4d_branch2a
I1029 11:42:08.962467 18534 net.cpp:122] Setting up scale4d_branch2a
I1029 11:42:08.962476 18534 net.cpp:129] Top shape: 1 256 14 14 (50176)
I1029 11:42:08.962481 18534 net.cpp:137] Memory required for data: 199499780
I1029 11:42:08.962486 18534 layer_factory.hpp:77] Creating layer res4d_branch2a_relu
I1029 11:42:08.962493 18534 net.cpp:84] Creating Layer res4d_branch2a_relu
I1029 11:42:08.962497 18534 net.cpp:406] res4d_branch2a_relu <- res4d_branch2a
I1029 11:42:08.962503 18534 net.cpp:367] res4d_branch2a_relu -> res4d_branch2a (in-place)
I1029 11:42:08.962734 18534 net.cpp:122] Setting up res4d_branch2a_relu
I1029 11:42:08.962743 18534 net.cpp:129] Top shape: 1 256 14 14 (50176)
I1029 11:42:08.962748 18534 net.cpp:137] Memory required for data: 199700484
I1029 11:42:08.962751 18534 layer_factory.hpp:77] Creating layer res4d_branch2b
I1029 11:42:08.962764 18534 net.cpp:84] Creating Layer res4d_branch2b
I1029 11:42:08.962769 18534 net.cpp:406] res4d_branch2b <- res4d_branch2a
I1029 11:42:08.962775 18534 net.cpp:380] res4d_branch2b -> res4d_branch2b
I1029 11:42:08.967473 18534 net.cpp:122] Setting up res4d_branch2b
I1029 11:42:08.967511 18534 net.cpp:129] Top shape: 1 256 14 14 (50176)
I1029 11:42:08.967517 18534 net.cpp:137] Memory required for data: 199901188
I1029 11:42:08.967530 18534 layer_factory.hpp:77] Creating layer bn4d_branch2b
I1029 11:42:08.967546 18534 net.cpp:84] Creating Layer bn4d_branch2b
I1029 11:42:08.967555 18534 net.cpp:406] bn4d_branch2b <- res4d_branch2b
I1029 11:42:08.967563 18534 net.cpp:367] bn4d_branch2b -> res4d_branch2b (in-place)
I1029 11:42:08.967903 18534 net.cpp:122] Setting up bn4d_branch2b
I1029 11:42:08.967913 18534 net.cpp:129] Top shape: 1 256 14 14 (50176)
I1029 11:42:08.967917 18534 net.cpp:137] Memory required for data: 200101892
I1029 11:42:08.967926 18534 layer_factory.hpp:77] Creating layer scale4d_branch2b
I1029 11:42:08.967936 18534 net.cpp:84] Creating Layer scale4d_branch2b
I1029 11:42:08.967939 18534 net.cpp:406] scale4d_branch2b <- res4d_branch2b
I1029 11:42:08.967947 18534 net.cpp:367] scale4d_branch2b -> res4d_branch2b (in-place)
I1029 11:42:08.968003 18534 layer_factory.hpp:77] Creating layer scale4d_branch2b
I1029 11:42:08.968183 18534 net.cpp:122] Setting up scale4d_branch2b
I1029 11:42:08.968191 18534 net.cpp:129] Top shape: 1 256 14 14 (50176)
I1029 11:42:08.968195 18534 net.cpp:137] Memory required for data: 200302596
I1029 11:42:08.968202 18534 layer_factory.hpp:77] Creating layer res4d_branch2b_relu
I1029 11:42:08.968209 18534 net.cpp:84] Creating Layer res4d_branch2b_relu
I1029 11:42:08.968214 18534 net.cpp:406] res4d_branch2b_relu <- res4d_branch2b
I1029 11:42:08.968219 18534 net.cpp:367] res4d_branch2b_relu -> res4d_branch2b (in-place)
I1029 11:42:08.968456 18534 net.cpp:122] Setting up res4d_branch2b_relu
I1029 11:42:08.968466 18534 net.cpp:129] Top shape: 1 256 14 14 (50176)
I1029 11:42:08.968469 18534 net.cpp:137] Memory required for data: 200503300
I1029 11:42:08.968472 18534 layer_factory.hpp:77] Creating layer res4d_branch2c
I1029 11:42:08.968484 18534 net.cpp:84] Creating Layer res4d_branch2c
I1029 11:42:08.968490 18534 net.cpp:406] res4d_branch2c <- res4d_branch2b
I1029 11:42:08.968497 18534 net.cpp:380] res4d_branch2c -> res4d_branch2c
I1029 11:42:08.972060 18534 net.cpp:122] Setting up res4d_branch2c
I1029 11:42:08.972102 18534 net.cpp:129] Top shape: 1 1024 14 14 (200704)
I1029 11:42:08.972107 18534 net.cpp:137] Memory required for data: 201306116
I1029 11:42:08.972121 18534 layer_factory.hpp:77] Creating layer bn4d_branch2c
I1029 11:42:08.972137 18534 net.cpp:84] Creating Layer bn4d_branch2c
I1029 11:42:08.972144 18534 net.cpp:406] bn4d_branch2c <- res4d_branch2c
I1029 11:42:08.972156 18534 net.cpp:367] bn4d_branch2c -> res4d_branch2c (in-place)
I1029 11:42:08.972494 18534 net.cpp:122] Setting up bn4d_branch2c
I1029 11:42:08.972506 18534 net.cpp:129] Top shape: 1 1024 14 14 (200704)
I1029 11:42:08.972540 18534 net.cpp:137] Memory required for data: 202108932
I1029 11:42:08.972550 18534 layer_factory.hpp:77] Creating layer scale4d_branch2c
I1029 11:42:08.972558 18534 net.cpp:84] Creating Layer scale4d_branch2c
I1029 11:42:08.972563 18534 net.cpp:406] scale4d_branch2c <- res4d_branch2c
I1029 11:42:08.972568 18534 net.cpp:367] scale4d_branch2c -> res4d_branch2c (in-place)
I1029 11:42:08.972622 18534 layer_factory.hpp:77] Creating layer scale4d_branch2c
I1029 11:42:08.972815 18534 net.cpp:122] Setting up scale4d_branch2c
I1029 11:42:08.972823 18534 net.cpp:129] Top shape: 1 1024 14 14 (200704)
I1029 11:42:08.972827 18534 net.cpp:137] Memory required for data: 202911748
I1029 11:42:08.972834 18534 layer_factory.hpp:77] Creating layer res4d
I1029 11:42:08.972846 18534 net.cpp:84] Creating Layer res4d
I1029 11:42:08.972849 18534 net.cpp:406] res4d <- res4c_res4c_relu_0_split_1
I1029 11:42:08.972856 18534 net.cpp:406] res4d <- res4d_branch2c
I1029 11:42:08.972863 18534 net.cpp:380] res4d -> res4d
I1029 11:42:08.972894 18534 net.cpp:122] Setting up res4d
I1029 11:42:08.972901 18534 net.cpp:129] Top shape: 1 1024 14 14 (200704)
I1029 11:42:08.972905 18534 net.cpp:137] Memory required for data: 203714564
I1029 11:42:08.972909 18534 layer_factory.hpp:77] Creating layer res4d_relu
I1029 11:42:08.972918 18534 net.cpp:84] Creating Layer res4d_relu
I1029 11:42:08.972921 18534 net.cpp:406] res4d_relu <- res4d
I1029 11:42:08.972928 18534 net.cpp:367] res4d_relu -> res4d (in-place)
I1029 11:42:08.973151 18534 net.cpp:122] Setting up res4d_relu
I1029 11:42:08.973160 18534 net.cpp:129] Top shape: 1 1024 14 14 (200704)
I1029 11:42:08.973165 18534 net.cpp:137] Memory required for data: 204517380
I1029 11:42:08.973168 18534 layer_factory.hpp:77] Creating layer res4d_res4d_relu_0_split
I1029 11:42:08.973176 18534 net.cpp:84] Creating Layer res4d_res4d_relu_0_split
I1029 11:42:08.973181 18534 net.cpp:406] res4d_res4d_relu_0_split <- res4d
I1029 11:42:08.973187 18534 net.cpp:380] res4d_res4d_relu_0_split -> res4d_res4d_relu_0_split_0
I1029 11:42:08.973194 18534 net.cpp:380] res4d_res4d_relu_0_split -> res4d_res4d_relu_0_split_1
I1029 11:42:08.973249 18534 net.cpp:122] Setting up res4d_res4d_relu_0_split
I1029 11:42:08.973256 18534 net.cpp:129] Top shape: 1 1024 14 14 (200704)
I1029 11:42:08.973263 18534 net.cpp:129] Top shape: 1 1024 14 14 (200704)
I1029 11:42:08.973266 18534 net.cpp:137] Memory required for data: 206123012
I1029 11:42:08.973271 18534 layer_factory.hpp:77] Creating layer res4e_branch2a
I1029 11:42:08.973282 18534 net.cpp:84] Creating Layer res4e_branch2a
I1029 11:42:08.973287 18534 net.cpp:406] res4e_branch2a <- res4d_res4d_relu_0_split_0
I1029 11:42:08.973296 18534 net.cpp:380] res4e_branch2a -> res4e_branch2a
I1029 11:42:08.975760 18534 net.cpp:122] Setting up res4e_branch2a
I1029 11:42:08.975797 18534 net.cpp:129] Top shape: 1 256 14 14 (50176)
I1029 11:42:08.975801 18534 net.cpp:137] Memory required for data: 206323716
I1029 11:42:08.975814 18534 layer_factory.hpp:77] Creating layer bn4e_branch2a
I1029 11:42:08.975829 18534 net.cpp:84] Creating Layer bn4e_branch2a
I1029 11:42:08.975836 18534 net.cpp:406] bn4e_branch2a <- res4e_branch2a
I1029 11:42:08.975845 18534 net.cpp:367] bn4e_branch2a -> res4e_branch2a (in-place)
I1029 11:42:08.976173 18534 net.cpp:122] Setting up bn4e_branch2a
I1029 11:42:08.976182 18534 net.cpp:129] Top shape: 1 256 14 14 (50176)
I1029 11:42:08.976186 18534 net.cpp:137] Memory required for data: 206524420
I1029 11:42:08.976194 18534 layer_factory.hpp:77] Creating layer scale4e_branch2a
I1029 11:42:08.976205 18534 net.cpp:84] Creating Layer scale4e_branch2a
I1029 11:42:08.976209 18534 net.cpp:406] scale4e_branch2a <- res4e_branch2a
I1029 11:42:08.976214 18534 net.cpp:367] scale4e_branch2a -> res4e_branch2a (in-place)
I1029 11:42:08.976271 18534 layer_factory.hpp:77] Creating layer scale4e_branch2a
I1029 11:42:08.976459 18534 net.cpp:122] Setting up scale4e_branch2a
I1029 11:42:08.976467 18534 net.cpp:129] Top shape: 1 256 14 14 (50176)
I1029 11:42:08.976471 18534 net.cpp:137] Memory required for data: 206725124
I1029 11:42:08.976511 18534 layer_factory.hpp:77] Creating layer res4e_branch2a_relu
I1029 11:42:08.976517 18534 net.cpp:84] Creating Layer res4e_branch2a_relu
I1029 11:42:08.976521 18534 net.cpp:406] res4e_branch2a_relu <- res4e_branch2a
I1029 11:42:08.976529 18534 net.cpp:367] res4e_branch2a_relu -> res4e_branch2a (in-place)
I1029 11:42:08.976757 18534 net.cpp:122] Setting up res4e_branch2a_relu
I1029 11:42:08.976765 18534 net.cpp:129] Top shape: 1 256 14 14 (50176)
I1029 11:42:08.976769 18534 net.cpp:137] Memory required for data: 206925828
I1029 11:42:08.976773 18534 layer_factory.hpp:77] Creating layer res4e_branch2b
I1029 11:42:08.976783 18534 net.cpp:84] Creating Layer res4e_branch2b
I1029 11:42:08.976788 18534 net.cpp:406] res4e_branch2b <- res4e_branch2a
I1029 11:42:08.976795 18534 net.cpp:380] res4e_branch2b -> res4e_branch2b
I1029 11:42:08.982117 18534 net.cpp:122] Setting up res4e_branch2b
I1029 11:42:08.982156 18534 net.cpp:129] Top shape: 1 256 14 14 (50176)
I1029 11:42:08.982161 18534 net.cpp:137] Memory required for data: 207126532
I1029 11:42:08.982174 18534 layer_factory.hpp:77] Creating layer bn4e_branch2b
I1029 11:42:08.982190 18534 net.cpp:84] Creating Layer bn4e_branch2b
I1029 11:42:08.982198 18534 net.cpp:406] bn4e_branch2b <- res4e_branch2b
I1029 11:42:08.982208 18534 net.cpp:367] bn4e_branch2b -> res4e_branch2b (in-place)
I1029 11:42:08.982566 18534 net.cpp:122] Setting up bn4e_branch2b
I1029 11:42:08.982578 18534 net.cpp:129] Top shape: 1 256 14 14 (50176)
I1029 11:42:08.982583 18534 net.cpp:137] Memory required for data: 207327236
I1029 11:42:08.982594 18534 layer_factory.hpp:77] Creating layer scale4e_branch2b
I1029 11:42:08.982604 18534 net.cpp:84] Creating Layer scale4e_branch2b
I1029 11:42:08.982609 18534 net.cpp:406] scale4e_branch2b <- res4e_branch2b
I1029 11:42:08.982614 18534 net.cpp:367] scale4e_branch2b -> res4e_branch2b (in-place)
I1029 11:42:08.982674 18534 layer_factory.hpp:77] Creating layer scale4e_branch2b
I1029 11:42:08.982854 18534 net.cpp:122] Setting up scale4e_branch2b
I1029 11:42:08.982862 18534 net.cpp:129] Top shape: 1 256 14 14 (50176)
I1029 11:42:08.982867 18534 net.cpp:137] Memory required for data: 207527940
I1029 11:42:08.982873 18534 layer_factory.hpp:77] Creating layer res4e_branch2b_relu
I1029 11:42:08.982880 18534 net.cpp:84] Creating Layer res4e_branch2b_relu
I1029 11:42:08.982884 18534 net.cpp:406] res4e_branch2b_relu <- res4e_branch2b
I1029 11:42:08.982906 18534 net.cpp:367] res4e_branch2b_relu -> res4e_branch2b (in-place)
I1029 11:42:08.983170 18534 net.cpp:122] Setting up res4e_branch2b_relu
I1029 11:42:08.983180 18534 net.cpp:129] Top shape: 1 256 14 14 (50176)
I1029 11:42:08.983183 18534 net.cpp:137] Memory required for data: 207728644
I1029 11:42:08.983187 18534 layer_factory.hpp:77] Creating layer res4e_branch2c
I1029 11:42:08.983198 18534 net.cpp:84] Creating Layer res4e_branch2c
I1029 11:42:08.983203 18534 net.cpp:406] res4e_branch2c <- res4e_branch2b
I1029 11:42:08.983211 18534 net.cpp:380] res4e_branch2c -> res4e_branch2c
I1029 11:42:08.986970 18534 net.cpp:122] Setting up res4e_branch2c
I1029 11:42:08.987011 18534 net.cpp:129] Top shape: 1 1024 14 14 (200704)
I1029 11:42:08.987015 18534 net.cpp:137] Memory required for data: 208531460
I1029 11:42:08.987028 18534 layer_factory.hpp:77] Creating layer bn4e_branch2c
I1029 11:42:08.987045 18534 net.cpp:84] Creating Layer bn4e_branch2c
I1029 11:42:08.987051 18534 net.cpp:406] bn4e_branch2c <- res4e_branch2c
I1029 11:42:08.987061 18534 net.cpp:367] bn4e_branch2c -> res4e_branch2c (in-place)
I1029 11:42:08.987413 18534 net.cpp:122] Setting up bn4e_branch2c
I1029 11:42:08.987421 18534 net.cpp:129] Top shape: 1 1024 14 14 (200704)
I1029 11:42:08.987426 18534 net.cpp:137] Memory required for data: 209334276
I1029 11:42:08.987435 18534 layer_factory.hpp:77] Creating layer scale4e_branch2c
I1029 11:42:08.987443 18534 net.cpp:84] Creating Layer scale4e_branch2c
I1029 11:42:08.987448 18534 net.cpp:406] scale4e_branch2c <- res4e_branch2c
I1029 11:42:08.987453 18534 net.cpp:367] scale4e_branch2c -> res4e_branch2c (in-place)
I1029 11:42:08.987541 18534 layer_factory.hpp:77] Creating layer scale4e_branch2c
I1029 11:42:08.987736 18534 net.cpp:122] Setting up scale4e_branch2c
I1029 11:42:08.987746 18534 net.cpp:129] Top shape: 1 1024 14 14 (200704)
I1029 11:42:08.987749 18534 net.cpp:137] Memory required for data: 210137092
I1029 11:42:08.987758 18534 layer_factory.hpp:77] Creating layer res4e
I1029 11:42:08.987766 18534 net.cpp:84] Creating Layer res4e
I1029 11:42:08.987772 18534 net.cpp:406] res4e <- res4d_res4d_relu_0_split_1
I1029 11:42:08.987779 18534 net.cpp:406] res4e <- res4e_branch2c
I1029 11:42:08.987789 18534 net.cpp:380] res4e -> res4e
I1029 11:42:08.987824 18534 net.cpp:122] Setting up res4e
I1029 11:42:08.987833 18534 net.cpp:129] Top shape: 1 1024 14 14 (200704)
I1029 11:42:08.987838 18534 net.cpp:137] Memory required for data: 210939908
I1029 11:42:08.987843 18534 layer_factory.hpp:77] Creating layer res4e_relu
I1029 11:42:08.987853 18534 net.cpp:84] Creating Layer res4e_relu
I1029 11:42:08.987859 18534 net.cpp:406] res4e_relu <- res4e
I1029 11:42:08.987864 18534 net.cpp:367] res4e_relu -> res4e (in-place)
I1029 11:42:08.988626 18534 net.cpp:122] Setting up res4e_relu
I1029 11:42:08.988641 18534 net.cpp:129] Top shape: 1 1024 14 14 (200704)
I1029 11:42:08.988646 18534 net.cpp:137] Memory required for data: 211742724
I1029 11:42:08.988651 18534 layer_factory.hpp:77] Creating layer res4e_res4e_relu_0_split
I1029 11:42:08.988662 18534 net.cpp:84] Creating Layer res4e_res4e_relu_0_split
I1029 11:42:08.988667 18534 net.cpp:406] res4e_res4e_relu_0_split <- res4e
I1029 11:42:08.988677 18534 net.cpp:380] res4e_res4e_relu_0_split -> res4e_res4e_relu_0_split_0
I1029 11:42:08.988687 18534 net.cpp:380] res4e_res4e_relu_0_split -> res4e_res4e_relu_0_split_1
I1029 11:42:08.988751 18534 net.cpp:122] Setting up res4e_res4e_relu_0_split
I1029 11:42:08.988761 18534 net.cpp:129] Top shape: 1 1024 14 14 (200704)
I1029 11:42:08.988768 18534 net.cpp:129] Top shape: 1 1024 14 14 (200704)
I1029 11:42:08.988773 18534 net.cpp:137] Memory required for data: 213348356
I1029 11:42:08.988777 18534 layer_factory.hpp:77] Creating layer res4f_branch2a
I1029 11:42:08.988788 18534 net.cpp:84] Creating Layer res4f_branch2a
I1029 11:42:08.988793 18534 net.cpp:406] res4f_branch2a <- res4e_res4e_relu_0_split_0
I1029 11:42:08.988803 18534 net.cpp:380] res4f_branch2a -> res4f_branch2a
I1029 11:42:08.990937 18534 net.cpp:122] Setting up res4f_branch2a
I1029 11:42:08.990973 18534 net.cpp:129] Top shape: 1 256 14 14 (50176)
I1029 11:42:08.990979 18534 net.cpp:137] Memory required for data: 213549060
I1029 11:42:08.990995 18534 layer_factory.hpp:77] Creating layer bn4f_branch2a
I1029 11:42:08.991014 18534 net.cpp:84] Creating Layer bn4f_branch2a
I1029 11:42:08.991022 18534 net.cpp:406] bn4f_branch2a <- res4f_branch2a
I1029 11:42:08.991035 18534 net.cpp:367] bn4f_branch2a -> res4f_branch2a (in-place)
I1029 11:42:08.991369 18534 net.cpp:122] Setting up bn4f_branch2a
I1029 11:42:08.991377 18534 net.cpp:129] Top shape: 1 256 14 14 (50176)
I1029 11:42:08.991382 18534 net.cpp:137] Memory required for data: 213749764
I1029 11:42:08.991394 18534 layer_factory.hpp:77] Creating layer scale4f_branch2a
I1029 11:42:08.991406 18534 net.cpp:84] Creating Layer scale4f_branch2a
I1029 11:42:08.991412 18534 net.cpp:406] scale4f_branch2a <- res4f_branch2a
I1029 11:42:08.991420 18534 net.cpp:367] scale4f_branch2a -> res4f_branch2a (in-place)
I1029 11:42:08.991482 18534 layer_factory.hpp:77] Creating layer scale4f_branch2a
I1029 11:42:08.991667 18534 net.cpp:122] Setting up scale4f_branch2a
I1029 11:42:08.991675 18534 net.cpp:129] Top shape: 1 256 14 14 (50176)
I1029 11:42:08.991679 18534 net.cpp:137] Memory required for data: 213950468
I1029 11:42:08.991688 18534 layer_factory.hpp:77] Creating layer res4f_branch2a_relu
I1029 11:42:08.991695 18534 net.cpp:84] Creating Layer res4f_branch2a_relu
I1029 11:42:08.991703 18534 net.cpp:406] res4f_branch2a_relu <- res4f_branch2a
I1029 11:42:08.991710 18534 net.cpp:367] res4f_branch2a_relu -> res4f_branch2a (in-place)
I1029 11:42:08.991957 18534 net.cpp:122] Setting up res4f_branch2a_relu
I1029 11:42:08.991967 18534 net.cpp:129] Top shape: 1 256 14 14 (50176)
I1029 11:42:08.991971 18534 net.cpp:137] Memory required for data: 214151172
I1029 11:42:08.991976 18534 layer_factory.hpp:77] Creating layer res4f_branch2b
I1029 11:42:08.991988 18534 net.cpp:84] Creating Layer res4f_branch2b
I1029 11:42:08.991994 18534 net.cpp:406] res4f_branch2b <- res4f_branch2a
I1029 11:42:08.992002 18534 net.cpp:380] res4f_branch2b -> res4f_branch2b
I1029 11:42:08.996742 18534 net.cpp:122] Setting up res4f_branch2b
I1029 11:42:08.996783 18534 net.cpp:129] Top shape: 1 256 14 14 (50176)
I1029 11:42:08.996788 18534 net.cpp:137] Memory required for data: 214351876
I1029 11:42:08.996803 18534 layer_factory.hpp:77] Creating layer bn4f_branch2b
I1029 11:42:08.996824 18534 net.cpp:84] Creating Layer bn4f_branch2b
I1029 11:42:08.996832 18534 net.cpp:406] bn4f_branch2b <- res4f_branch2b
I1029 11:42:08.996845 18534 net.cpp:367] bn4f_branch2b -> res4f_branch2b (in-place)
I1029 11:42:08.997189 18534 net.cpp:122] Setting up bn4f_branch2b
I1029 11:42:08.997198 18534 net.cpp:129] Top shape: 1 256 14 14 (50176)
I1029 11:42:08.997203 18534 net.cpp:137] Memory required for data: 214552580
I1029 11:42:08.997215 18534 layer_factory.hpp:77] Creating layer scale4f_branch2b
I1029 11:42:08.997227 18534 net.cpp:84] Creating Layer scale4f_branch2b
I1029 11:42:08.997234 18534 net.cpp:406] scale4f_branch2b <- res4f_branch2b
I1029 11:42:08.997241 18534 net.cpp:367] scale4f_branch2b -> res4f_branch2b (in-place)
I1029 11:42:08.997303 18534 layer_factory.hpp:77] Creating layer scale4f_branch2b
I1029 11:42:08.997488 18534 net.cpp:122] Setting up scale4f_branch2b
I1029 11:42:08.997496 18534 net.cpp:129] Top shape: 1 256 14 14 (50176)
I1029 11:42:08.997501 18534 net.cpp:137] Memory required for data: 214753284
I1029 11:42:08.997509 18534 layer_factory.hpp:77] Creating layer res4f_branch2b_relu
I1029 11:42:08.997517 18534 net.cpp:84] Creating Layer res4f_branch2b_relu
I1029 11:42:08.997522 18534 net.cpp:406] res4f_branch2b_relu <- res4f_branch2b
I1029 11:42:08.997530 18534 net.cpp:367] res4f_branch2b_relu -> res4f_branch2b (in-place)
I1029 11:42:08.997773 18534 net.cpp:122] Setting up res4f_branch2b_relu
I1029 11:42:08.997782 18534 net.cpp:129] Top shape: 1 256 14 14 (50176)
I1029 11:42:08.997787 18534 net.cpp:137] Memory required for data: 214953988
I1029 11:42:08.997792 18534 layer_factory.hpp:77] Creating layer res4f_branch2c
I1029 11:42:08.997804 18534 net.cpp:84] Creating Layer res4f_branch2c
I1029 11:42:08.997810 18534 net.cpp:406] res4f_branch2c <- res4f_branch2b
I1029 11:42:08.997839 18534 net.cpp:380] res4f_branch2c -> res4f_branch2c
I1029 11:42:09.001399 18534 net.cpp:122] Setting up res4f_branch2c
I1029 11:42:09.001437 18534 net.cpp:129] Top shape: 1 1024 14 14 (200704)
I1029 11:42:09.001446 18534 net.cpp:137] Memory required for data: 215756804
I1029 11:42:09.001464 18534 layer_factory.hpp:77] Creating layer bn4f_branch2c
I1029 11:42:09.001482 18534 net.cpp:84] Creating Layer bn4f_branch2c
I1029 11:42:09.001489 18534 net.cpp:406] bn4f_branch2c <- res4f_branch2c
I1029 11:42:09.001504 18534 net.cpp:367] bn4f_branch2c -> res4f_branch2c (in-place)
I1029 11:42:09.001873 18534 net.cpp:122] Setting up bn4f_branch2c
I1029 11:42:09.001883 18534 net.cpp:129] Top shape: 1 1024 14 14 (200704)
I1029 11:42:09.001888 18534 net.cpp:137] Memory required for data: 216559620
I1029 11:42:09.001969 18534 layer_factory.hpp:77] Creating layer scale4f_branch2c
I1029 11:42:09.001981 18534 net.cpp:84] Creating Layer scale4f_branch2c
I1029 11:42:09.001987 18534 net.cpp:406] scale4f_branch2c <- res4f_branch2c
I1029 11:42:09.001994 18534 net.cpp:367] scale4f_branch2c -> res4f_branch2c (in-place)
I1029 11:42:09.002059 18534 layer_factory.hpp:77] Creating layer scale4f_branch2c
I1029 11:42:09.002249 18534 net.cpp:122] Setting up scale4f_branch2c
I1029 11:42:09.002259 18534 net.cpp:129] Top shape: 1 1024 14 14 (200704)
I1029 11:42:09.002262 18534 net.cpp:137] Memory required for data: 217362436
I1029 11:42:09.002271 18534 layer_factory.hpp:77] Creating layer res4f
I1029 11:42:09.002301 18534 net.cpp:84] Creating Layer res4f
I1029 11:42:09.002307 18534 net.cpp:406] res4f <- res4e_res4e_relu_0_split_1
I1029 11:42:09.002315 18534 net.cpp:406] res4f <- res4f_branch2c
I1029 11:42:09.002321 18534 net.cpp:380] res4f -> res4f
I1029 11:42:09.002357 18534 net.cpp:122] Setting up res4f
I1029 11:42:09.002365 18534 net.cpp:129] Top shape: 1 1024 14 14 (200704)
I1029 11:42:09.002370 18534 net.cpp:137] Memory required for data: 218165252
I1029 11:42:09.002375 18534 layer_factory.hpp:77] Creating layer res4f_relu
I1029 11:42:09.002382 18534 net.cpp:84] Creating Layer res4f_relu
I1029 11:42:09.002388 18534 net.cpp:406] res4f_relu <- res4f
I1029 11:42:09.002395 18534 net.cpp:367] res4f_relu -> res4f (in-place)
I1029 11:42:09.002638 18534 net.cpp:122] Setting up res4f_relu
I1029 11:42:09.002647 18534 net.cpp:129] Top shape: 1 1024 14 14 (200704)
I1029 11:42:09.002652 18534 net.cpp:137] Memory required for data: 218968068
I1029 11:42:09.002656 18534 layer_factory.hpp:77] Creating layer res4f_res4f_relu_0_split
I1029 11:42:09.002665 18534 net.cpp:84] Creating Layer res4f_res4f_relu_0_split
I1029 11:42:09.002670 18534 net.cpp:406] res4f_res4f_relu_0_split <- res4f
I1029 11:42:09.002678 18534 net.cpp:380] res4f_res4f_relu_0_split -> res4f_res4f_relu_0_split_0
I1029 11:42:09.002687 18534 net.cpp:380] res4f_res4f_relu_0_split -> res4f_res4f_relu_0_split_1
I1029 11:42:09.002748 18534 net.cpp:122] Setting up res4f_res4f_relu_0_split
I1029 11:42:09.002756 18534 net.cpp:129] Top shape: 1 1024 14 14 (200704)
I1029 11:42:09.002763 18534 net.cpp:129] Top shape: 1 1024 14 14 (200704)
I1029 11:42:09.002768 18534 net.cpp:137] Memory required for data: 220573700
I1029 11:42:09.002771 18534 layer_factory.hpp:77] Creating layer res5a_branch1
I1029 11:42:09.002784 18534 net.cpp:84] Creating Layer res5a_branch1
I1029 11:42:09.002789 18534 net.cpp:406] res5a_branch1 <- res4f_res4f_relu_0_split_0
I1029 11:42:09.002797 18534 net.cpp:380] res5a_branch1 -> res5a_branch1
I1029 11:42:09.012290 18534 net.cpp:122] Setting up res5a_branch1
I1029 11:42:09.012332 18534 net.cpp:129] Top shape: 1 2048 7 7 (100352)
I1029 11:42:09.012338 18534 net.cpp:137] Memory required for data: 220975108
I1029 11:42:09.012353 18534 layer_factory.hpp:77] Creating layer bn5a_branch1
I1029 11:42:09.012370 18534 net.cpp:84] Creating Layer bn5a_branch1
I1029 11:42:09.012378 18534 net.cpp:406] bn5a_branch1 <- res5a_branch1
I1029 11:42:09.012392 18534 net.cpp:367] bn5a_branch1 -> res5a_branch1 (in-place)
I1029 11:42:09.012755 18534 net.cpp:122] Setting up bn5a_branch1
I1029 11:42:09.012764 18534 net.cpp:129] Top shape: 1 2048 7 7 (100352)
I1029 11:42:09.012770 18534 net.cpp:137] Memory required for data: 221376516
I1029 11:42:09.012781 18534 layer_factory.hpp:77] Creating layer scale5a_branch1
I1029 11:42:09.012790 18534 net.cpp:84] Creating Layer scale5a_branch1
I1029 11:42:09.012795 18534 net.cpp:406] scale5a_branch1 <- res5a_branch1
I1029 11:42:09.012802 18534 net.cpp:367] scale5a_branch1 -> res5a_branch1 (in-place)
I1029 11:42:09.012866 18534 layer_factory.hpp:77] Creating layer scale5a_branch1
I1029 11:42:09.013062 18534 net.cpp:122] Setting up scale5a_branch1
I1029 11:42:09.013072 18534 net.cpp:129] Top shape: 1 2048 7 7 (100352)
I1029 11:42:09.013075 18534 net.cpp:137] Memory required for data: 221777924
I1029 11:42:09.013084 18534 layer_factory.hpp:77] Creating layer res5a_branch2a
I1029 11:42:09.013098 18534 net.cpp:84] Creating Layer res5a_branch2a
I1029 11:42:09.013103 18534 net.cpp:406] res5a_branch2a <- res4f_res4f_relu_0_split_1
I1029 11:42:09.013111 18534 net.cpp:380] res5a_branch2a -> res5a_branch2a
I1029 11:42:09.017354 18534 net.cpp:122] Setting up res5a_branch2a
I1029 11:42:09.017400 18534 net.cpp:129] Top shape: 1 512 7 7 (25088)
I1029 11:42:09.017405 18534 net.cpp:137] Memory required for data: 221878276
I1029 11:42:09.017418 18534 layer_factory.hpp:77] Creating layer bn5a_branch2a
I1029 11:42:09.017439 18534 net.cpp:84] Creating Layer bn5a_branch2a
I1029 11:42:09.017448 18534 net.cpp:406] bn5a_branch2a <- res5a_branch2a
I1029 11:42:09.017513 18534 net.cpp:367] bn5a_branch2a -> res5a_branch2a (in-place)
I1029 11:42:09.017920 18534 net.cpp:122] Setting up bn5a_branch2a
I1029 11:42:09.017930 18534 net.cpp:129] Top shape: 1 512 7 7 (25088)
I1029 11:42:09.017935 18534 net.cpp:137] Memory required for data: 221978628
I1029 11:42:09.017946 18534 layer_factory.hpp:77] Creating layer scale5a_branch2a
I1029 11:42:09.017956 18534 net.cpp:84] Creating Layer scale5a_branch2a
I1029 11:42:09.017961 18534 net.cpp:406] scale5a_branch2a <- res5a_branch2a
I1029 11:42:09.017967 18534 net.cpp:367] scale5a_branch2a -> res5a_branch2a (in-place)
I1029 11:42:09.018025 18534 layer_factory.hpp:77] Creating layer scale5a_branch2a
I1029 11:42:09.018229 18534 net.cpp:122] Setting up scale5a_branch2a
I1029 11:42:09.018239 18534 net.cpp:129] Top shape: 1 512 7 7 (25088)
I1029 11:42:09.018242 18534 net.cpp:137] Memory required for data: 222078980
I1029 11:42:09.018250 18534 layer_factory.hpp:77] Creating layer res5a_branch2a_relu
I1029 11:42:09.018259 18534 net.cpp:84] Creating Layer res5a_branch2a_relu
I1029 11:42:09.018262 18534 net.cpp:406] res5a_branch2a_relu <- res5a_branch2a
I1029 11:42:09.018270 18534 net.cpp:367] res5a_branch2a_relu -> res5a_branch2a (in-place)
I1029 11:42:09.018522 18534 net.cpp:122] Setting up res5a_branch2a_relu
I1029 11:42:09.018530 18534 net.cpp:129] Top shape: 1 512 7 7 (25088)
I1029 11:42:09.018534 18534 net.cpp:137] Memory required for data: 222179332
I1029 11:42:09.018539 18534 layer_factory.hpp:77] Creating layer res5a_branch2b
I1029 11:42:09.018549 18534 net.cpp:84] Creating Layer res5a_branch2b
I1029 11:42:09.018554 18534 net.cpp:406] res5a_branch2b <- res5a_branch2a
I1029 11:42:09.018564 18534 net.cpp:380] res5a_branch2b -> res5a_branch2b
I1029 11:42:09.029713 18534 net.cpp:122] Setting up res5a_branch2b
I1029 11:42:09.029758 18534 net.cpp:129] Top shape: 1 512 7 7 (25088)
I1029 11:42:09.029763 18534 net.cpp:137] Memory required for data: 222279684
I1029 11:42:09.029775 18534 layer_factory.hpp:77] Creating layer bn5a_branch2b
I1029 11:42:09.029793 18534 net.cpp:84] Creating Layer bn5a_branch2b
I1029 11:42:09.029801 18534 net.cpp:406] bn5a_branch2b <- res5a_branch2b
I1029 11:42:09.029810 18534 net.cpp:367] bn5a_branch2b -> res5a_branch2b (in-place)
I1029 11:42:09.030196 18534 net.cpp:122] Setting up bn5a_branch2b
I1029 11:42:09.030205 18534 net.cpp:129] Top shape: 1 512 7 7 (25088)
I1029 11:42:09.030210 18534 net.cpp:137] Memory required for data: 222380036
I1029 11:42:09.030220 18534 layer_factory.hpp:77] Creating layer scale5a_branch2b
I1029 11:42:09.030230 18534 net.cpp:84] Creating Layer scale5a_branch2b
I1029 11:42:09.030233 18534 net.cpp:406] scale5a_branch2b <- res5a_branch2b
I1029 11:42:09.030239 18534 net.cpp:367] scale5a_branch2b -> res5a_branch2b (in-place)
I1029 11:42:09.030292 18534 layer_factory.hpp:77] Creating layer scale5a_branch2b
I1029 11:42:09.030480 18534 net.cpp:122] Setting up scale5a_branch2b
I1029 11:42:09.030490 18534 net.cpp:129] Top shape: 1 512 7 7 (25088)
I1029 11:42:09.030494 18534 net.cpp:137] Memory required for data: 222480388
I1029 11:42:09.030503 18534 layer_factory.hpp:77] Creating layer res5a_branch2b_relu
I1029 11:42:09.030511 18534 net.cpp:84] Creating Layer res5a_branch2b_relu
I1029 11:42:09.030515 18534 net.cpp:406] res5a_branch2b_relu <- res5a_branch2b
I1029 11:42:09.030524 18534 net.cpp:367] res5a_branch2b_relu -> res5a_branch2b (in-place)
I1029 11:42:09.030756 18534 net.cpp:122] Setting up res5a_branch2b_relu
I1029 11:42:09.030766 18534 net.cpp:129] Top shape: 1 512 7 7 (25088)
I1029 11:42:09.030771 18534 net.cpp:137] Memory required for data: 222580740
I1029 11:42:09.030776 18534 layer_factory.hpp:77] Creating layer res5a_branch2c
I1029 11:42:09.030788 18534 net.cpp:84] Creating Layer res5a_branch2c
I1029 11:42:09.030795 18534 net.cpp:406] res5a_branch2c <- res5a_branch2b
I1029 11:42:09.030803 18534 net.cpp:380] res5a_branch2c -> res5a_branch2c
I1029 11:42:09.036864 18534 net.cpp:122] Setting up res5a_branch2c
I1029 11:42:09.036905 18534 net.cpp:129] Top shape: 1 2048 7 7 (100352)
I1029 11:42:09.036947 18534 net.cpp:137] Memory required for data: 222982148
I1029 11:42:09.036962 18534 layer_factory.hpp:77] Creating layer bn5a_branch2c
I1029 11:42:09.036980 18534 net.cpp:84] Creating Layer bn5a_branch2c
I1029 11:42:09.036990 18534 net.cpp:406] bn5a_branch2c <- res5a_branch2c
I1029 11:42:09.037000 18534 net.cpp:367] bn5a_branch2c -> res5a_branch2c (in-place)
I1029 11:42:09.037395 18534 net.cpp:122] Setting up bn5a_branch2c
I1029 11:42:09.037405 18534 net.cpp:129] Top shape: 1 2048 7 7 (100352)
I1029 11:42:09.037410 18534 net.cpp:137] Memory required for data: 223383556
I1029 11:42:09.037421 18534 layer_factory.hpp:77] Creating layer scale5a_branch2c
I1029 11:42:09.037436 18534 net.cpp:84] Creating Layer scale5a_branch2c
I1029 11:42:09.037441 18534 net.cpp:406] scale5a_branch2c <- res5a_branch2c
I1029 11:42:09.037448 18534 net.cpp:367] scale5a_branch2c -> res5a_branch2c (in-place)
I1029 11:42:09.037508 18534 layer_factory.hpp:77] Creating layer scale5a_branch2c
I1029 11:42:09.037703 18534 net.cpp:122] Setting up scale5a_branch2c
I1029 11:42:09.037711 18534 net.cpp:129] Top shape: 1 2048 7 7 (100352)
I1029 11:42:09.037715 18534 net.cpp:137] Memory required for data: 223784964
I1029 11:42:09.037724 18534 layer_factory.hpp:77] Creating layer res5a
I1029 11:42:09.037734 18534 net.cpp:84] Creating Layer res5a
I1029 11:42:09.037740 18534 net.cpp:406] res5a <- res5a_branch1
I1029 11:42:09.037747 18534 net.cpp:406] res5a <- res5a_branch2c
I1029 11:42:09.037755 18534 net.cpp:380] res5a -> res5a
I1029 11:42:09.037789 18534 net.cpp:122] Setting up res5a
I1029 11:42:09.037797 18534 net.cpp:129] Top shape: 1 2048 7 7 (100352)
I1029 11:42:09.037802 18534 net.cpp:137] Memory required for data: 224186372
I1029 11:42:09.037806 18534 layer_factory.hpp:77] Creating layer res5a_relu
I1029 11:42:09.037814 18534 net.cpp:84] Creating Layer res5a_relu
I1029 11:42:09.037837 18534 net.cpp:406] res5a_relu <- res5a
I1029 11:42:09.037845 18534 net.cpp:367] res5a_relu -> res5a (in-place)
I1029 11:42:09.038578 18534 net.cpp:122] Setting up res5a_relu
I1029 11:42:09.038591 18534 net.cpp:129] Top shape: 1 2048 7 7 (100352)
I1029 11:42:09.038596 18534 net.cpp:137] Memory required for data: 224587780
I1029 11:42:09.038601 18534 layer_factory.hpp:77] Creating layer res5a_res5a_relu_0_split
I1029 11:42:09.038610 18534 net.cpp:84] Creating Layer res5a_res5a_relu_0_split
I1029 11:42:09.038615 18534 net.cpp:406] res5a_res5a_relu_0_split <- res5a
I1029 11:42:09.038626 18534 net.cpp:380] res5a_res5a_relu_0_split -> res5a_res5a_relu_0_split_0
I1029 11:42:09.038637 18534 net.cpp:380] res5a_res5a_relu_0_split -> res5a_res5a_relu_0_split_1
I1029 11:42:09.038704 18534 net.cpp:122] Setting up res5a_res5a_relu_0_split
I1029 11:42:09.038713 18534 net.cpp:129] Top shape: 1 2048 7 7 (100352)
I1029 11:42:09.038720 18534 net.cpp:129] Top shape: 1 2048 7 7 (100352)
I1029 11:42:09.038724 18534 net.cpp:137] Memory required for data: 225390596
I1029 11:42:09.038728 18534 layer_factory.hpp:77] Creating layer res5b_branch2a
I1029 11:42:09.038741 18534 net.cpp:84] Creating Layer res5b_branch2a
I1029 11:42:09.038748 18534 net.cpp:406] res5b_branch2a <- res5a_res5a_relu_0_split_0
I1029 11:42:09.038755 18534 net.cpp:380] res5b_branch2a -> res5b_branch2a
I1029 11:42:09.044229 18534 net.cpp:122] Setting up res5b_branch2a
I1029 11:42:09.044275 18534 net.cpp:129] Top shape: 1 512 7 7 (25088)
I1029 11:42:09.044282 18534 net.cpp:137] Memory required for data: 225490948
I1029 11:42:09.044298 18534 layer_factory.hpp:77] Creating layer bn5b_branch2a
I1029 11:42:09.044320 18534 net.cpp:84] Creating Layer bn5b_branch2a
I1029 11:42:09.044328 18534 net.cpp:406] bn5b_branch2a <- res5b_branch2a
I1029 11:42:09.044342 18534 net.cpp:367] bn5b_branch2a -> res5b_branch2a (in-place)
I1029 11:42:09.044726 18534 net.cpp:122] Setting up bn5b_branch2a
I1029 11:42:09.044735 18534 net.cpp:129] Top shape: 1 512 7 7 (25088)
I1029 11:42:09.044740 18534 net.cpp:137] Memory required for data: 225591300
I1029 11:42:09.044750 18534 layer_factory.hpp:77] Creating layer scale5b_branch2a
I1029 11:42:09.044786 18534 net.cpp:84] Creating Layer scale5b_branch2a
I1029 11:42:09.044796 18534 net.cpp:406] scale5b_branch2a <- res5b_branch2a
I1029 11:42:09.044802 18534 net.cpp:367] scale5b_branch2a -> res5b_branch2a (in-place)
I1029 11:42:09.044860 18534 layer_factory.hpp:77] Creating layer scale5b_branch2a
I1029 11:42:09.045056 18534 net.cpp:122] Setting up scale5b_branch2a
I1029 11:42:09.045064 18534 net.cpp:129] Top shape: 1 512 7 7 (25088)
I1029 11:42:09.045069 18534 net.cpp:137] Memory required for data: 225691652
I1029 11:42:09.045078 18534 layer_factory.hpp:77] Creating layer res5b_branch2a_relu
I1029 11:42:09.045085 18534 net.cpp:84] Creating Layer res5b_branch2a_relu
I1029 11:42:09.045090 18534 net.cpp:406] res5b_branch2a_relu <- res5b_branch2a
I1029 11:42:09.045099 18534 net.cpp:367] res5b_branch2a_relu -> res5b_branch2a (in-place)
I1029 11:42:09.045969 18534 net.cpp:122] Setting up res5b_branch2a_relu
I1029 11:42:09.045984 18534 net.cpp:129] Top shape: 1 512 7 7 (25088)
I1029 11:42:09.045989 18534 net.cpp:137] Memory required for data: 225792004
I1029 11:42:09.045994 18534 layer_factory.hpp:77] Creating layer res5b_branch2b
I1029 11:42:09.046008 18534 net.cpp:84] Creating Layer res5b_branch2b
I1029 11:42:09.046015 18534 net.cpp:406] res5b_branch2b <- res5b_branch2a
I1029 11:42:09.046025 18534 net.cpp:380] res5b_branch2b -> res5b_branch2b
I1029 11:42:09.056816 18534 net.cpp:122] Setting up res5b_branch2b
I1029 11:42:09.056918 18534 net.cpp:129] Top shape: 1 512 7 7 (25088)
I1029 11:42:09.056926 18534 net.cpp:137] Memory required for data: 225892356
I1029 11:42:09.056938 18534 layer_factory.hpp:77] Creating layer bn5b_branch2b
I1029 11:42:09.056957 18534 net.cpp:84] Creating Layer bn5b_branch2b
I1029 11:42:09.056963 18534 net.cpp:406] bn5b_branch2b <- res5b_branch2b
I1029 11:42:09.056973 18534 net.cpp:367] bn5b_branch2b -> res5b_branch2b (in-place)
I1029 11:42:09.057373 18534 net.cpp:122] Setting up bn5b_branch2b
I1029 11:42:09.057386 18534 net.cpp:129] Top shape: 1 512 7 7 (25088)
I1029 11:42:09.057391 18534 net.cpp:137] Memory required for data: 225992708
I1029 11:42:09.057404 18534 layer_factory.hpp:77] Creating layer scale5b_branch2b
I1029 11:42:09.057418 18534 net.cpp:84] Creating Layer scale5b_branch2b
I1029 11:42:09.057425 18534 net.cpp:406] scale5b_branch2b <- res5b_branch2b
I1029 11:42:09.057433 18534 net.cpp:367] scale5b_branch2b -> res5b_branch2b (in-place)
I1029 11:42:09.057503 18534 layer_factory.hpp:77] Creating layer scale5b_branch2b
I1029 11:42:09.057720 18534 net.cpp:122] Setting up scale5b_branch2b
I1029 11:42:09.057729 18534 net.cpp:129] Top shape: 1 512 7 7 (25088)
I1029 11:42:09.057734 18534 net.cpp:137] Memory required for data: 226093060
I1029 11:42:09.057744 18534 layer_factory.hpp:77] Creating layer res5b_branch2b_relu
I1029 11:42:09.057751 18534 net.cpp:84] Creating Layer res5b_branch2b_relu
I1029 11:42:09.057756 18534 net.cpp:406] res5b_branch2b_relu <- res5b_branch2b
I1029 11:42:09.057766 18534 net.cpp:367] res5b_branch2b_relu -> res5b_branch2b (in-place)
I1029 11:42:09.058126 18534 net.cpp:122] Setting up res5b_branch2b_relu
I1029 11:42:09.058152 18534 net.cpp:129] Top shape: 1 512 7 7 (25088)
I1029 11:42:09.058157 18534 net.cpp:137] Memory required for data: 226193412
I1029 11:42:09.058163 18534 layer_factory.hpp:77] Creating layer res5b_branch2c
I1029 11:42:09.058182 18534 net.cpp:84] Creating Layer res5b_branch2c
I1029 11:42:09.058187 18534 net.cpp:406] res5b_branch2c <- res5b_branch2b
I1029 11:42:09.058197 18534 net.cpp:380] res5b_branch2c -> res5b_branch2c
I1029 11:42:09.064486 18534 net.cpp:122] Setting up res5b_branch2c
I1029 11:42:09.064529 18534 net.cpp:129] Top shape: 1 2048 7 7 (100352)
I1029 11:42:09.064535 18534 net.cpp:137] Memory required for data: 226594820
I1029 11:42:09.064550 18534 layer_factory.hpp:77] Creating layer bn5b_branch2c
I1029 11:42:09.064571 18534 net.cpp:84] Creating Layer bn5b_branch2c
I1029 11:42:09.064579 18534 net.cpp:406] bn5b_branch2c <- res5b_branch2c
I1029 11:42:09.064590 18534 net.cpp:367] bn5b_branch2c -> res5b_branch2c (in-place)
I1029 11:42:09.064976 18534 net.cpp:122] Setting up bn5b_branch2c
I1029 11:42:09.064985 18534 net.cpp:129] Top shape: 1 2048 7 7 (100352)
I1029 11:42:09.064990 18534 net.cpp:137] Memory required for data: 226996228
I1029 11:42:09.065001 18534 layer_factory.hpp:77] Creating layer scale5b_branch2c
I1029 11:42:09.065011 18534 net.cpp:84] Creating Layer scale5b_branch2c
I1029 11:42:09.065017 18534 net.cpp:406] scale5b_branch2c <- res5b_branch2c
I1029 11:42:09.065024 18534 net.cpp:367] scale5b_branch2c -> res5b_branch2c (in-place)
I1029 11:42:09.065121 18534 layer_factory.hpp:77] Creating layer scale5b_branch2c
I1029 11:42:09.065320 18534 net.cpp:122] Setting up scale5b_branch2c
I1029 11:42:09.065330 18534 net.cpp:129] Top shape: 1 2048 7 7 (100352)
I1029 11:42:09.065333 18534 net.cpp:137] Memory required for data: 227397636
I1029 11:42:09.065341 18534 layer_factory.hpp:77] Creating layer res5b
I1029 11:42:09.065349 18534 net.cpp:84] Creating Layer res5b
I1029 11:42:09.065356 18534 net.cpp:406] res5b <- res5a_res5a_relu_0_split_1
I1029 11:42:09.065361 18534 net.cpp:406] res5b <- res5b_branch2c
I1029 11:42:09.065371 18534 net.cpp:380] res5b -> res5b
I1029 11:42:09.065405 18534 net.cpp:122] Setting up res5b
I1029 11:42:09.065414 18534 net.cpp:129] Top shape: 1 2048 7 7 (100352)
I1029 11:42:09.065418 18534 net.cpp:137] Memory required for data: 227799044
I1029 11:42:09.065423 18534 layer_factory.hpp:77] Creating layer res5b_relu
I1029 11:42:09.065433 18534 net.cpp:84] Creating Layer res5b_relu
I1029 11:42:09.065438 18534 net.cpp:406] res5b_relu <- res5b
I1029 11:42:09.065444 18534 net.cpp:367] res5b_relu -> res5b (in-place)
I1029 11:42:09.065673 18534 net.cpp:122] Setting up res5b_relu
I1029 11:42:09.065683 18534 net.cpp:129] Top shape: 1 2048 7 7 (100352)
I1029 11:42:09.065688 18534 net.cpp:137] Memory required for data: 228200452
I1029 11:42:09.065692 18534 layer_factory.hpp:77] Creating layer res5b_res5b_relu_0_split
I1029 11:42:09.065703 18534 net.cpp:84] Creating Layer res5b_res5b_relu_0_split
I1029 11:42:09.065708 18534 net.cpp:406] res5b_res5b_relu_0_split <- res5b
I1029 11:42:09.065716 18534 net.cpp:380] res5b_res5b_relu_0_split -> res5b_res5b_relu_0_split_0
I1029 11:42:09.065724 18534 net.cpp:380] res5b_res5b_relu_0_split -> res5b_res5b_relu_0_split_1
I1029 11:42:09.065785 18534 net.cpp:122] Setting up res5b_res5b_relu_0_split
I1029 11:42:09.065793 18534 net.cpp:129] Top shape: 1 2048 7 7 (100352)
I1029 11:42:09.065799 18534 net.cpp:129] Top shape: 1 2048 7 7 (100352)
I1029 11:42:09.065804 18534 net.cpp:137] Memory required for data: 229003268
I1029 11:42:09.065809 18534 layer_factory.hpp:77] Creating layer res5c_branch2a
I1029 11:42:09.065834 18534 net.cpp:84] Creating Layer res5c_branch2a
I1029 11:42:09.065840 18534 net.cpp:406] res5c_branch2a <- res5b_res5b_relu_0_split_0
I1029 11:42:09.065850 18534 net.cpp:380] res5c_branch2a -> res5c_branch2a
I1029 11:42:09.072007 18534 net.cpp:122] Setting up res5c_branch2a
I1029 11:42:09.072048 18534 net.cpp:129] Top shape: 1 512 7 7 (25088)
I1029 11:42:09.072053 18534 net.cpp:137] Memory required for data: 229103620
I1029 11:42:09.072067 18534 layer_factory.hpp:77] Creating layer bn5c_branch2a
I1029 11:42:09.072087 18534 net.cpp:84] Creating Layer bn5c_branch2a
I1029 11:42:09.072095 18534 net.cpp:406] bn5c_branch2a <- res5c_branch2a
I1029 11:42:09.072108 18534 net.cpp:367] bn5c_branch2a -> res5c_branch2a (in-place)
I1029 11:42:09.072468 18534 net.cpp:122] Setting up bn5c_branch2a
I1029 11:42:09.072479 18534 net.cpp:129] Top shape: 1 512 7 7 (25088)
I1029 11:42:09.072484 18534 net.cpp:137] Memory required for data: 229203972
I1029 11:42:09.072494 18534 layer_factory.hpp:77] Creating layer scale5c_branch2a
I1029 11:42:09.072537 18534 net.cpp:84] Creating Layer scale5c_branch2a
I1029 11:42:09.072542 18534 net.cpp:406] scale5c_branch2a <- res5c_branch2a
I1029 11:42:09.072549 18534 net.cpp:367] scale5c_branch2a -> res5c_branch2a (in-place)
I1029 11:42:09.072608 18534 layer_factory.hpp:77] Creating layer scale5c_branch2a
I1029 11:42:09.072806 18534 net.cpp:122] Setting up scale5c_branch2a
I1029 11:42:09.072827 18534 net.cpp:129] Top shape: 1 512 7 7 (25088)
I1029 11:42:09.072832 18534 net.cpp:137] Memory required for data: 229304324
I1029 11:42:09.072840 18534 layer_factory.hpp:77] Creating layer res5c_branch2a_relu
I1029 11:42:09.072849 18534 net.cpp:84] Creating Layer res5c_branch2a_relu
I1029 11:42:09.072854 18534 net.cpp:406] res5c_branch2a_relu <- res5c_branch2a
I1029 11:42:09.072862 18534 net.cpp:367] res5c_branch2a_relu -> res5c_branch2a (in-place)
I1029 11:42:09.073091 18534 net.cpp:122] Setting up res5c_branch2a_relu
I1029 11:42:09.073101 18534 net.cpp:129] Top shape: 1 512 7 7 (25088)
I1029 11:42:09.073104 18534 net.cpp:137] Memory required for data: 229404676
I1029 11:42:09.073109 18534 layer_factory.hpp:77] Creating layer res5c_branch2b
I1029 11:42:09.073123 18534 net.cpp:84] Creating Layer res5c_branch2b
I1029 11:42:09.073128 18534 net.cpp:406] res5c_branch2b <- res5c_branch2a
I1029 11:42:09.073137 18534 net.cpp:380] res5c_branch2b -> res5c_branch2b
I1029 11:42:09.083564 18534 net.cpp:122] Setting up res5c_branch2b
I1029 11:42:09.083604 18534 net.cpp:129] Top shape: 1 512 7 7 (25088)
I1029 11:42:09.083611 18534 net.cpp:137] Memory required for data: 229505028
I1029 11:42:09.083626 18534 layer_factory.hpp:77] Creating layer bn5c_branch2b
I1029 11:42:09.083643 18534 net.cpp:84] Creating Layer bn5c_branch2b
I1029 11:42:09.083652 18534 net.cpp:406] bn5c_branch2b <- res5c_branch2b
I1029 11:42:09.083664 18534 net.cpp:367] bn5c_branch2b -> res5c_branch2b (in-place)
I1029 11:42:09.084035 18534 net.cpp:122] Setting up bn5c_branch2b
I1029 11:42:09.084044 18534 net.cpp:129] Top shape: 1 512 7 7 (25088)
I1029 11:42:09.084049 18534 net.cpp:137] Memory required for data: 229605380
I1029 11:42:09.084059 18534 layer_factory.hpp:77] Creating layer scale5c_branch2b
I1029 11:42:09.084069 18534 net.cpp:84] Creating Layer scale5c_branch2b
I1029 11:42:09.084074 18534 net.cpp:406] scale5c_branch2b <- res5c_branch2b
I1029 11:42:09.084080 18534 net.cpp:367] scale5c_branch2b -> res5c_branch2b (in-place)
I1029 11:42:09.084139 18534 layer_factory.hpp:77] Creating layer scale5c_branch2b
I1029 11:42:09.084349 18534 net.cpp:122] Setting up scale5c_branch2b
I1029 11:42:09.084359 18534 net.cpp:129] Top shape: 1 512 7 7 (25088)
I1029 11:42:09.084363 18534 net.cpp:137] Memory required for data: 229705732
I1029 11:42:09.084372 18534 layer_factory.hpp:77] Creating layer res5c_branch2b_relu
I1029 11:42:09.084383 18534 net.cpp:84] Creating Layer res5c_branch2b_relu
I1029 11:42:09.084388 18534 net.cpp:406] res5c_branch2b_relu <- res5c_branch2b
I1029 11:42:09.084394 18534 net.cpp:367] res5c_branch2b_relu -> res5c_branch2b (in-place)
I1029 11:42:09.084625 18534 net.cpp:122] Setting up res5c_branch2b_relu
I1029 11:42:09.084635 18534 net.cpp:129] Top shape: 1 512 7 7 (25088)
I1029 11:42:09.084640 18534 net.cpp:137] Memory required for data: 229806084
I1029 11:42:09.084645 18534 layer_factory.hpp:77] Creating layer res5c_branch2c
I1029 11:42:09.084656 18534 net.cpp:84] Creating Layer res5c_branch2c
I1029 11:42:09.084661 18534 net.cpp:406] res5c_branch2c <- res5c_branch2b
I1029 11:42:09.084671 18534 net.cpp:380] res5c_branch2c -> res5c_branch2c
I1029 11:42:09.091717 18534 net.cpp:122] Setting up res5c_branch2c
I1029 11:42:09.091756 18534 net.cpp:129] Top shape: 1 2048 7 7 (100352)
I1029 11:42:09.091763 18534 net.cpp:137] Memory required for data: 230207492
I1029 11:42:09.091778 18534 layer_factory.hpp:77] Creating layer bn5c_branch2c
I1029 11:42:09.091795 18534 net.cpp:84] Creating Layer bn5c_branch2c
I1029 11:42:09.091805 18534 net.cpp:406] bn5c_branch2c <- res5c_branch2c
I1029 11:42:09.091815 18534 net.cpp:367] bn5c_branch2c -> res5c_branch2c (in-place)
I1029 11:42:09.092185 18534 net.cpp:122] Setting up bn5c_branch2c
I1029 11:42:09.092193 18534 net.cpp:129] Top shape: 1 2048 7 7 (100352)
I1029 11:42:09.092198 18534 net.cpp:137] Memory required for data: 230608900
I1029 11:42:09.092209 18534 layer_factory.hpp:77] Creating layer scale5c_branch2c
I1029 11:42:09.092223 18534 net.cpp:84] Creating Layer scale5c_branch2c
I1029 11:42:09.092268 18534 net.cpp:406] scale5c_branch2c <- res5c_branch2c
I1029 11:42:09.092277 18534 net.cpp:367] scale5c_branch2c -> res5c_branch2c (in-place)
I1029 11:42:09.092336 18534 layer_factory.hpp:77] Creating layer scale5c_branch2c
I1029 11:42:09.092553 18534 net.cpp:122] Setting up scale5c_branch2c
I1029 11:42:09.092589 18534 net.cpp:129] Top shape: 1 2048 7 7 (100352)
I1029 11:42:09.092597 18534 net.cpp:137] Memory required for data: 231010308
I1029 11:42:09.092607 18534 layer_factory.hpp:77] Creating layer res5c
I1029 11:42:09.092614 18534 net.cpp:84] Creating Layer res5c
I1029 11:42:09.092619 18534 net.cpp:406] res5c <- res5b_res5b_relu_0_split_1
I1029 11:42:09.092625 18534 net.cpp:406] res5c <- res5c_branch2c
I1029 11:42:09.092633 18534 net.cpp:380] res5c -> res5c
I1029 11:42:09.092680 18534 net.cpp:122] Setting up res5c
I1029 11:42:09.092689 18534 net.cpp:129] Top shape: 1 2048 7 7 (100352)
I1029 11:42:09.092692 18534 net.cpp:137] Memory required for data: 231411716
I1029 11:42:09.092696 18534 layer_factory.hpp:77] Creating layer res5c_relu
I1029 11:42:09.092703 18534 net.cpp:84] Creating Layer res5c_relu
I1029 11:42:09.092708 18534 net.cpp:406] res5c_relu <- res5c
I1029 11:42:09.092715 18534 net.cpp:367] res5c_relu -> res5c (in-place)
I1029 11:42:09.093789 18534 net.cpp:122] Setting up res5c_relu
I1029 11:42:09.093835 18534 net.cpp:129] Top shape: 1 2048 7 7 (100352)
I1029 11:42:09.093842 18534 net.cpp:137] Memory required for data: 231813124
I1029 11:42:09.093850 18534 layer_factory.hpp:77] Creating layer pool5
I1029 11:42:09.093865 18534 net.cpp:84] Creating Layer pool5
I1029 11:42:09.093874 18534 net.cpp:406] pool5 <- res5c
I1029 11:42:09.093886 18534 net.cpp:380] pool5 -> pool5
I1029 11:42:09.094272 18534 net.cpp:122] Setting up pool5
I1029 11:42:09.094305 18534 net.cpp:129] Top shape: 1 2048 1 1 (2048)
I1029 11:42:09.094310 18534 net.cpp:137] Memory required for data: 231821316
I1029 11:42:09.094316 18534 layer_factory.hpp:77] Creating layer my-fc1000
I1029 11:42:09.094326 18534 net.cpp:84] Creating Layer my-fc1000
I1029 11:42:09.094333 18534 net.cpp:406] my-fc1000 <- pool5
I1029 11:42:09.094342 18534 net.cpp:380] my-fc1000 -> my-fc1000
I1029 11:42:09.094560 18534 net.cpp:122] Setting up my-fc1000
I1029 11:42:09.094569 18534 net.cpp:129] Top shape: 1 1 (1)
I1029 11:42:09.094574 18534 net.cpp:137] Memory required for data: 231821320
I1029 11:42:09.094585 18534 layer_factory.hpp:77] Creating layer loss
I1029 11:42:09.094596 18534 net.cpp:84] Creating Layer loss
I1029 11:42:09.094601 18534 net.cpp:406] loss <- my-fc1000
I1029 11:42:09.094607 18534 net.cpp:406] loss <- label
I1029 11:42:09.094615 18534 net.cpp:380] loss -> loss
I1029 11:42:09.094681 18534 net.cpp:122] Setting up loss
…
