…
I0808 19:33:39.188704  8310 upgrade_proto.cpp:80] Successfully upgraded batch norm layers using deprecated params.
I0808 19:33:39.189124  8310 net.cpp:294] The NetState phase (0) differed from the phase (1) specified by a rule in layer data
I0808 19:33:39.190834  8310 net.cpp:51] Initializing net from parameters: 
name: "ResNet50"
state {
  phase: TRAIN
  level: 0
  stage: ""
}
layer {
  name: "data"
  type: "HDF5Data"
  top: "data"
  top: "label"
  include {
    phase: TRAIN
  }
  hdf5_data_param {
    source: "./train_h5.txt"
    batch_size: 5
  }
}
layer {
  name: "data_bn"
  type: "BatchNorm"
  bottom: "data"
  top: "data_bn"
  param {
    lr_mult: 0
    decay_mult: 0
  }
  param {
    lr_mult: 0
    decay_mult: 0
  }
  param {
    lr_mult: 0
    decay_mult: 0
  }
}
layer {
  name: "data_scale"
  type: "Scale"
  bottom: "data_bn"
  top: "data_bn"
  param {
    lr_mult: 1
    decay_mult: 1
  }
  param {
    lr_mult: 2
    decay_mult: 1
  }
  scale_param {
    bias_term: true
  }
}
layer {
  name: "conv1"
  type: "Convolution"
  bottom: "data_bn"
  top: "conv1"
  param {
    lr_mult: 1
    decay_mult: 1
  }
  param {
    lr_mult: 2
    decay_mult: 1
  }
  convolution_param {
    num_output: 64
    pad: 3
    kernel_size: 7
    stride: 2
    weight_filler {
      type: "msra"
      variance_norm: FAN_OUT
    }
    bias_filler {
      type: "constant"
      value: 0
    }
  }
}
layer {
  name: "conv1_bn"
  type: "BatchNorm"
  bottom: "conv1"
  top: "conv1"
  param {
    lr_mult: 0
    decay_mult: 0
  }
  param {
    lr_mult: 0
    decay_mult: 0
  }
  param {
    lr_mult: 0
    decay_mult: 0
  }
}
layer {
  name: "conv1_scale"
  type: "Scale"
  bottom: "conv1"
  top: "conv1"
  param {
    lr_mult: 1
    decay_mult: 1
  }
  param {
    lr_mult: 2
    decay_mult: 1
  }
  scale_param {
    bias_term: true
  }
}
layer {
  name: "conv1_relu"
  type: "ReLU"
  bottom: "conv1"
  top: "conv1"
}
layer {
  name: "conv1_pool"
  type: "Pooling"
  bottom: "conv1"
  top: "conv1_pool"
  pooling_param {
    kernel_size: 3
    stride: 2
  }
}
layer {
  name: "layer_64_1_conv1"
  type: "Convolution"
  bottom: "conv1_pool"
  top: "layer_64_1_conv1"
  param {
    lr_mult: 1
    decay_mult: 1
  }
  convolution_param {
    num_output: 64
    bias_term: false
    pad: 0
    kernel_size: 1
    stride: 1
    weight_filler {
      type: "msra"
    }
    bias_filler {
      type: "constant"
      value: 0
    }
  }
}
layer {
  name: "layer_64_1_bn2"
  type: "BatchNorm"
  bottom: "layer_64_1_conv1"
  top: "layer_64_1_conv1"
  param {
    lr_mult: 0
    decay_mult: 0
  }
  param {
    lr_mult: 0
    decay_mult: 0
  }
  param {
    lr_mult: 0
    decay_mult: 0
  }
}
layer {
  name: "layer_64_1_scale2"
  type: "Scale"
  bottom: "layer_64_1_conv1"
  top: "layer_64_1_conv1"
  param {
    lr_mult: 1
    decay_mult: 1
  }
  param {
    lr_mult: 2
    decay_mult: 1
  }
  scale_param {
    bias_term: true
  }
}
layer {
  name: "layer_64_1_relu2"
  type: "ReLU"
  bottom: "layer_64_1_conv1"
  top: "layer_64_1_conv1"
}
layer {
  name: "layer_64_1_conv2"
  type: "Convolution"
  bottom: "layer_64_1_conv1"
  top: "layer_64_1_conv2"
  param {
    lr_mult: 1
    decay_mult: 1
  }
  convolution_param {
    num_output: 64
    bias_term: false
    pad: 1
    kernel_size: 3
    stride: 1
    weight_filler {
      type: "msra"
    }
    bias_filler {
      type: "constant"
      value: 0
    }
  }
}
layer {
  name: "layer_64_1_bn3"
  type: "BatchNorm"
  bottom: "layer_64_1_conv2"
  top: "layer_64_1_conv2"
  param {
    lr_mult: 0
    decay_mult: 0
  }
  param {
    lr_mult: 0
    decay_mult: 0
  }
  param {
    lr_mult: 0
    decay_mult: 0
  }
}
layer {
  name: "layer_64_1_scale3"
  type: "Scale"
  bottom: "layer_64_1_conv2"
  top: "layer_64_1_conv2"
  param {
    lr_mult: 1
    decay_mult: 1
  }
  param {
    lr_mult: 2
    decay_mult: 1
  }
  scale_param {
    bias_term: true
  }
}
layer {
  name: "layer_64_1_relu3"
  type: "ReLU"
  bottom: "layer_64_1_conv2"
  top: "layer_64_1_conv2"
}
layer {
  name: "layer_64_1_conv3"
  type: "Convolution"
  bottom: "layer_64_1_conv2"
  top: "layer_64_1_conv3"
  param {
    lr_mult: 1
    decay_mult: 1
  }
  convolution_param {
    num_output: 256
    bias_term: false
    pad: 0
    kernel_size: 1
    stride: 1
    weight_filler {
      type: "msra"
    }
    bias_filler {
      type: "constant"
      value: 0
    }
  }
}
layer {
  name: "layer_64_1_conv_expand"
  type: "Convolution"
  bottom: "layer_64_1_conv1"
  top: "layer_64_1_conv_expand"
  param {
    lr_mult: 1
    decay_mult: 1
  }
  convolution_param {
    num_output: 256
    bias_term: false
    pad: 0
    kernel_size: 1
    stride: 1
    weight_filler {
      type: "msra"
    }
    bias_filler {
      type: "constant"
      value: 0
    }
  }
}
layer {
  name: "layer_64_1_sum"
  type: "Eltwise"
  bottom: "layer_64_1_conv3"
  bottom: "layer_64_1_conv_expand"
  top: "layer_64_1_sum"
}
layer {
  name: "layer_64_2_bn1"
  type: "BatchNorm"
  bottom: "layer_64_1_sum"
  top: "layer_64_2_bn1"
  param {
    lr_mult: 0
    decay_mult: 0
  }
  param {
    lr_mult: 0
    decay_mult: 0
  }
  param {
    lr_mult: 0
    decay_mult: 0
  }
}
layer {
  name: "layer_64_2_scale1"
  type: "Scale"
  bottom: "layer_64_2_bn1"
  top: "layer_64_2_bn1"
  param {
    lr_mult: 1
    decay_mult: 1
  }
  param {
    lr_mult: 2
    decay_mult: 1
  }
  scale_param {
    bias_term: true
  }
}
layer {
  name: "layer_64_2_relu1"
  type: "ReLU"
  bottom: "layer_64_2_bn1"
  top: "layer_64_2_bn1"
}
layer {
  name: "layer_64_2_conv1"
  type: "Convolution"
  bottom: "layer_64_2_bn1"
  top: "layer_64_2_conv1"
  param {
    lr_mult: 1
    decay_mult: 1
  }
  convolution_param {
    num_output: 64
    bias_term: false
    pad: 0
    kernel_size: 1
    stride: 1
    weight_filler {
      type: "msra"
    }
    bias_filler {
      type: "constant"
      value: 0
    }
  }
}
layer {
  name: "layer_64_2_bn2"
  type: "BatchNorm"
  bottom: "layer_64_2_conv1"
  top: "layer_64_2_conv1"
  param {
    lr_mult: 0
    decay_mult: 0
  }
  param {
    lr_mult: 0
    decay_mult: 0
  }
  param {
    lr_mult: 0
    decay_mult: 0
  }
}
layer {
  name: "layer_64_2_scale2"
  type: "Scale"
  bottom: "layer_64_2_conv1"
  top: "layer_64_2_conv1"
  param {
    lr_mult: 1
    decay_mult: 1
  }
  param {
    lr_mult: 2
    decay_mult: 1
  }
  scale_param {
    bias_term: true
  }
}
layer {
  name: "layer_64_2_relu2"
  type: "ReLU"
  bottom: "layer_64_2_conv1"
  top: "layer_64_2_conv1"
}
layer {
  name: "layer_64_2_conv2"
  type: "Convolution"
  bottom: "layer_64_2_conv1"
  top: "layer_64_2_conv2"
  param {
    lr_mult: 1
    decay_mult: 1
  }
  convolution_param {
    num_output: 64
    bias_term: false
    pad: 1
    kernel_size: 3
    stride: 1
    weight_filler {
      type: "msra"
    }
    bias_filler {
      type: "constant"
      value: 0
    }
  }
}
layer {
  name: "layer_64_2_bn3"
  type: "BatchNorm"
  bottom: "layer_64_2_conv2"
  top: "layer_64_2_conv2"
  param {
    lr_mult: 0
    decay_mult: 0
  }
  param {
    lr_mult: 0
    decay_mult: 0
  }
  param {
    lr_mult: 0
    decay_mult: 0
  }
}
layer {
  name: "layer_64_2_scale3"
  type: "Scale"
  bottom: "layer_64_2_conv2"
  top: "layer_64_2_conv2"
  param {
    lr_mult: 1
    decay_mult: 1
  }
  param {
    lr_mult: 2
    decay_mult: 1
  }
  scale_param {
    bias_term: true
  }
}
layer {
  name: "layer_64_2_relu3"
  type: "ReLU"
  bottom: "layer_64_2_conv2"
  top: "layer_64_2_conv2"
}
layer {
  name: "layer_64_2_conv3"
  type: "Convolution"
  bottom: "layer_64_2_conv2"
  top: "layer_64_2_conv3"
  param {
    lr_mult: 1
    decay_mult: 1
  }
  convolution_param {
    num_output: 256
    bias_term: false
    pad: 0
    kernel_size: 1
    stride: 1
    weight_filler {
      type: "msra"
    }
    bias_filler {
      type: "constant"
      value: 0
    }
  }
}
layer {
  name: "layer_64_2_sum"
  type: "Eltwise"
  bottom: "layer_64_2_conv3"
  bottom: "layer_64_1_sum"
  top: "layer_64_2_sum"
}
layer {
  name: "layer_64_3_bn1"
  type: "BatchNorm"
  bottom: "layer_64_2_sum"
  top: "layer_64_3_bn1"
  param {
    lr_mult: 0
    decay_mult: 0
  }
  param {
    lr_mult: 0
    decay_mult: 0
  }
  param {
    lr_mult: 0
    decay_mult: 0
  }
}
layer {
  name: "layer_64_3_scale1"
  type: "Scale"
  bottom: "layer_64_3_bn1"
  top: "layer_64_3_bn1"
  param {
    lr_mult: 1
    decay_mult: 1
  }
  param {
    lr_mult: 2
    decay_mult: 1
  }
  scale_param {
    bias_term: true
  }
}
layer {
  name: "layer_64_3_relu1"
  type: "ReLU"
  bottom: "layer_64_3_bn1"
  top: "layer_64_3_bn1"
}
layer {
  name: "layer_64_3_conv1"
  type: "Convolution"
  bottom: "layer_64_3_bn1"
  top: "layer_64_3_conv1"
  param {
    lr_mult: 1
    decay_mult: 1
  }
  convolution_param {
    num_output: 64
    bias_term: false
    pad: 0
    kernel_size: 1
    stride: 1
    weight_filler {
      type: "msra"
    }
    bias_filler {
      type: "constant"
      value: 0
    }
  }
}
layer {
  name: "layer_64_3_bn2"
  type: "BatchNorm"
  bottom: "layer_64_3_conv1"
  top: "layer_64_3_conv1"
  param {
    lr_mult: 0
    decay_mult: 0
  }
  param {
    lr_mult: 0
    decay_mult: 0
  }
  param {
    lr_mult: 0
    decay_mult: 0
  }
}
layer {
  name: "layer_64_3_scale2"
  type: "Scale"
  bottom: "layer_64_3_conv1"
  top: "layer_64_3_conv1"
  param {
    lr_mult: 1
    decay_mult: 1
  }
  param {
    lr_mult: 2
    decay_mult: 1
  }
  scale_param {
    bias_term: true
  }
}
layer {
  name: "layer_64_3_relu2"
  type: "ReLU"
  bottom: "layer_64_3_conv1"
  top: "layer_64_3_conv1"
}
layer {
  name: "layer_64_3_conv2"
  type: "Convolution"
  bottom: "layer_64_3_conv1"
  top: "layer_64_3_conv2"
  param {
    lr_mult: 1
    decay_mult: 1
  }
  convolution_param {
    num_output: 64
    bias_term: false
    pad: 1
    kernel_size: 3
    stride: 1
    weight_filler {
      type: "msra"
    }
    bias_filler {
      type: "constant"
      value: 0
    }
  }
}
layer {
  name: "layer_64_3_bn3"
  type: "BatchNorm"
  bottom: "layer_64_3_conv2"
  top: "layer_64_3_conv2"
  param {
    lr_mult: 0
    decay_mult: 0
  }
  param {
    lr_mult: 0
    decay_mult: 0
  }
  param {
    lr_mult: 0
    decay_mult: 0
  }
}
layer {
  name: "layer_64_3_scale3"
  type: "Scale"
  bottom: "layer_64_3_conv2"
  top: "layer_64_3_conv2"
  param {
    lr_mult: 1
    decay_mult: 1
  }
  param {
    lr_mult: 2
    decay_mult: 1
  }
  scale_param {
    bias_term: true
  }
}
layer {
  name: "layer_64_3_relu3"
  type: "ReLU"
  bottom: "layer_64_3_conv2"
  top: "layer_64_3_conv2"
}
layer {
  name: "layer_64_3_conv3"
  type: "Convolution"
  bottom: "layer_64_3_conv2"
  top: "layer_64_3_conv3"
  param {
    lr_mult: 1
    decay_mult: 1
  }
  convolution_param {
    num_output: 256
    bias_term: false
    pad: 0
    kernel_size: 1
    stride: 1
    weight_filler {
      type: "msra"
    }
    bias_filler {
      type: "constant"
      value: 0
    }
  }
}
layer {
  name: "layer_64_3_sum"
  type: "Eltwise"
  bottom: "layer_64_3_conv3"
  bottom: "layer_64_2_sum"
  top: "layer_64_3_sum"
}
layer {
  name: "layer_128_1_bn1"
  type: "BatchNorm"
  bottom: "layer_64_3_sum"
  top: "layer_128_1_bn1"
  param {
    lr_mult: 0
    decay_mult: 0
  }
  param {
    lr_mult: 0
    decay_mult: 0
  }
  param {
    lr_mult: 0
    decay_mult: 0
  }
}
layer {
  name: "layer_128_1_scale1"
  type: "Scale"
  bottom: "layer_128_1_bn1"
  top: "layer_128_1_bn1"
  param {
    lr_mult: 1
    decay_mult: 1
  }
  param {
    lr_mult: 2
    decay_mult: 1
  }
  scale_param {
    bias_term: true
  }
}
layer {
  name: "layer_128_1_relu1"
  type: "ReLU"
  bottom: "layer_128_1_bn1"
  top: "layer_128_1_bn1"
}
layer {
  name: "layer_128_1_conv1"
  type: "Convolution"
  bottom: "layer_128_1_bn1"
  top: "layer_128_1_conv1"
  param {
    lr_mult: 1
    decay_mult: 1
  }
  convolution_param {
    num_output: 128
    bias_term: false
    pad: 0
    kernel_size: 1
    stride: 1
    weight_filler {
      type: "msra"
    }
    bias_filler {
      type: "constant"
      value: 0
    }
  }
}
layer {
  name: "layer_128_1_bn2"
  type: "BatchNorm"
  bottom: "layer_128_1_conv1"
  top: "layer_128_1_conv1"
  param {
    lr_mult: 0
    decay_mult: 0
  }
  param {
    lr_mult: 0
    decay_mult: 0
  }
  param {
    lr_mult: 0
    decay_mult: 0
  }
}
layer {
  name: "layer_128_1_scale2"
  type: "Scale"
  bottom: "layer_128_1_conv1"
  top: "layer_128_1_conv1"
  param {
    lr_mult: 1
    decay_mult: 1
  }
  param {
    lr_mult: 2
    decay_mult: 1
  }
  scale_param {
    bias_term: true
  }
}
layer {
  name: "layer_128_1_relu2"
  type: "ReLU"
  bottom: "layer_128_1_conv1"
  top: "layer_128_1_conv1"
}
layer {
  name: "layer_128_1_conv2"
  type: "Convolution"
  bottom: "layer_128_1_conv1"
  top: "layer_128_1_conv2"
  param {
    lr_mult: 1
    decay_mult: 1
  }
  convolution_param {
    num_output: 128
    bias_term: false
    pad: 1
    kernel_size: 3
    stride: 2
    weight_filler {
      type: "msra"
    }
    bias_filler {
      type: "constant"
      value: 0
    }
  }
}
layer {
  name: "layer_128_1_bn3"
  type: "BatchNorm"
  bottom: "layer_128_1_conv2"
  top: "layer_128_1_conv2"
  param {
    lr_mult: 0
    decay_mult: 0
  }
  param {
    lr_mult: 0
    decay_mult: 0
  }
  param {
    lr_mult: 0
    decay_mult: 0
  }
}
layer {
  name: "layer_128_1_scale3"
  type: "Scale"
  bottom: "layer_128_1_conv2"
  top: "layer_128_1_conv2"
  param {
    lr_mult: 1
    decay_mult: 1
  }
  param {
    lr_mult: 2
    decay_mult: 1
  }
  scale_param {
    bias_term: true
  }
}
layer {
  name: "layer_128_1_relu3"
  type: "ReLU"
  bottom: "layer_128_1_conv2"
  top: "layer_128_1_conv2"
}
layer {
  name: "layer_128_1_conv3"
  type: "Convolution"
  bottom: "layer_128_1_conv2"
  top: "layer_128_1_conv3"
  param {
    lr_mult: 1
    decay_mult: 1
  }
  convolution_param {
    num_output: 512
    bias_term: false
    pad: 0
    kernel_size: 1
    stride: 1
    weight_filler {
      type: "msra"
    }
    bias_filler {
      type: "constant"
      value: 0
    }
  }
}
layer {
  name: "layer_128_1_conv_expand"
  type: "Convolution"
  bottom: "layer_128_1_bn1"
  top: "layer_128_1_conv_expand"
  param {
    lr_mult: 1
    decay_mult: 1
  }
  convolution_param {
    num_output: 512
    bias_term: false
    pad: 0
    kernel_size: 1
    stride: 2
    weight_filler {
      type: "msra"
    }
    bias_filler {
      type: "constant"
      value: 0
    }
  }
}
layer {
  name: "layer_128_1_sum"
  type: "Eltwise"
  bottom: "layer_128_1_conv3"
  bottom: "layer_128_1_conv_expand"
  top: "layer_128_1_sum"
}
layer {
  name: "layer_128_2_bn1"
  type: "BatchNorm"
  bottom: "layer_128_1_sum"
  top: "layer_128_2_bn1"
  param {
    lr_mult: 0
    decay_mult: 0
  }
  param {
    lr_mult: 0
    decay_mult: 0
  }
  param {
    lr_mult: 0
    decay_mult: 0
  }
}
layer {
  name: "layer_128_2_scale1"
  type: "Scale"
  bottom: "layer_128_2_bn1"
  top: "layer_128_2_bn1"
  param {
    lr_mult: 1
    decay_mult: 1
  }
  param {
    lr_mult: 2
    decay_mult: 1
  }
  scale_param {
    bias_term: true
  }
}
layer {
  name: "layer_128_2_relu1"
  type: "ReLU"
  bottom: "layer_128_2_bn1"
  top: "layer_128_2_bn1"
}
layer {
  name: "layer_128_2_conv1"
  type: "Convolution"
  bottom: "layer_128_2_bn1"
  top: "layer_128_2_conv1"
  param {
    lr_mult: 1
    decay_mult: 1
  }
  convolution_param {
    num_output: 128
    bias_term: false
    pad: 0
    kernel_size: 1
    stride: 1
    weight_filler {
      type: "msra"
    }
    bias_filler {
      type: "constant"
      value: 0
    }
  }
}
layer {
  name: "layer_128_2_bn2"
  type: "BatchNorm"
  bottom: "layer_128_2_conv1"
  top: "layer_128_2_conv1"
  param {
    lr_mult: 0
    decay_mult: 0
  }
  param {
    lr_mult: 0
    decay_mult: 0
  }
  param {
    lr_mult: 0
    decay_mult: 0
  }
}
layer {
  name: "layer_128_2_scale2"
  type: "Scale"
  bottom: "layer_128_2_conv1"
  top: "layer_128_2_conv1"
  param {
    lr_mult: 1
    decay_mult: 1
  }
  param {
    lr_mult: 2
    decay_mult: 1
  }
  scale_param {
    bias_term: true
  }
}
layer {
  name: "layer_128_2_relu2"
  type: "ReLU"
  bottom: "layer_128_2_conv1"
  top: "layer_128_2_conv1"
}
layer {
  name: "layer_128_2_conv2"
  type: "Convolution"
  bottom: "layer_128_2_conv1"
  top: "layer_128_2_conv2"
  param {
    lr_mult: 1
    decay_mult: 1
  }
  convolution_param {
    num_output: 128
    bias_term: false
    pad: 1
    kernel_size: 3
    stride: 1
    weight_filler {
      type: "msra"
    }
    bias_filler {
      type: "constant"
      value: 0
    }
  }
}
layer {
  name: "layer_128_2_bn3"
  type: "BatchNorm"
  bottom: "layer_128_2_conv2"
  top: "layer_128_2_conv2"
  param {
    lr_mult: 0
    decay_mult: 0
  }
  param {
    lr_mult: 0
    decay_mult: 0
  }
  param {
    lr_mult: 0
    decay_mult: 0
  }
}
layer {
  name: "layer_128_2_scale3"
  type: "Scale"
  bottom: "layer_128_2_conv2"
  top: "layer_128_2_conv2"
  param {
    lr_mult: 1
    decay_mult: 1
  }
  param {
    lr_mult: 2
    decay_mult: 1
  }
  scale_param {
    bias_term: true
  }
}
layer {
  name: "layer_128_2_relu3"
  type: "ReLU"
  bottom: "layer_128_2_conv2"
  top: "layer_128_2_conv2"
}
layer {
  name: "layer_128_2_conv3"
  type: "Convolution"
  bottom: "layer_128_2_conv2"
  top: "layer_128_2_conv3"
  param {
    lr_mult: 1
    decay_mult: 1
  }
  convolution_param {
    num_output: 512
    bias_term: false
    pad: 0
    kernel_size: 1
    stride: 1
    weight_filler {
      type: "msra"
    }
    bias_filler {
      type: "constant"
      value: 0
    }
  }
}
layer {
  name: "layer_128_2_sum"
  type: "Eltwise"
  bottom: "layer_128_2_conv3"
  bottom: "layer_128_1_sum"
  top: "layer_128_2_sum"
}
layer {
  name: "layer_128_3_bn1"
  type: "BatchNorm"
  bottom: "layer_128_2_sum"
  top: "layer_128_3_bn1"
  param {
    lr_mult: 0
    decay_mult: 0
  }
  param {
    lr_mult: 0
    decay_mult: 0
  }
  param {
    lr_mult: 0
    decay_mult: 0
  }
}
layer {
  name: "layer_128_3_scale1"
  type: "Scale"
  bottom: "layer_128_3_bn1"
  top: "layer_128_3_bn1"
  param {
    lr_mult: 1
    decay_mult: 1
  }
  param {
    lr_mult: 2
    decay_mult: 1
  }
  scale_param {
    bias_term: true
  }
}
layer {
  name: "layer_128_3_relu1"
  type: "ReLU"
  bottom: "layer_128_3_bn1"
  top: "layer_128_3_bn1"
}
layer {
  name: "layer_128_3_conv1"
  type: "Convolution"
  bottom: "layer_128_3_bn1"
  top: "layer_128_3_conv1"
  param {
    lr_mult: 1
    decay_mult: 1
  }
  convolution_param {
    num_output: 128
    bias_term: false
    pad: 0
    kernel_size: 1
    stride: 1
    weight_filler {
      type: "msra"
    }
    bias_filler {
      type: "constant"
      value: 0
    }
  }
}
layer {
  name: "layer_128_3_bn2"
  type: "BatchNorm"
  bottom: "layer_128_3_conv1"
  top: "layer_128_3_conv1"
  param {
    lr_mult: 0
    decay_mult: 0
  }
  param {
    lr_mult: 0
    decay_mult: 0
  }
  param {
    lr_mult: 0
    decay_mult: 0
  }
}
layer {
  name: "layer_128_3_scale2"
  type: "Scale"
  bottom: "layer_128_3_conv1"
  top: "layer_128_3_conv1"
  param {
    lr_mult: 1
    decay_mult: 1
  }
  param {
    lr_mult: 2
    decay_mult: 1
  }
  scale_param {
    bias_term: true
  }
}
layer {
  name: "layer_128_3_relu2"
  type: "ReLU"
  bottom: "layer_128_3_conv1"
  top: "layer_128_3_conv1"
}
layer {
  name: "layer_128_3_conv2"
  type: "Convolution"
  bottom: "layer_128_3_conv1"
  top: "layer_128_3_conv2"
  param {
    lr_mult: 1
    decay_mult: 1
  }
  convolution_param {
    num_output: 128
    bias_term: false
    pad: 1
    kernel_size: 3
    stride: 1
    weight_filler {
      type: "msra"
    }
    bias_filler {
      type: "constant"
      value: 0
    }
  }
}
layer {
  name: "layer_128_3_bn3"
  type: "BatchNorm"
  bottom: "layer_128_3_conv2"
  top: "layer_128_3_conv2"
  param {
    lr_mult: 0
    decay_mult: 0
  }
  param {
    lr_mult: 0
    decay_mult: 0
  }
  param {
    lr_mult: 0
    decay_mult: 0
  }
}
layer {
  name: "layer_128_3_scale3"
  type: "Scale"
  bottom: "layer_128_3_conv2"
  top: "layer_128_3_conv2"
  param {
    lr_mult: 1
    decay_mult: 1
  }
  param {
    lr_mult: 2
    decay_mult: 1
  }
  scale_param {
    bias_term: true
  }
}
layer {
  name: "layer_128_3_relu3"
  type: "ReLU"
  bottom: "layer_128_3_conv2"
  top: "layer_128_3_conv2"
}
layer {
  name: "layer_128_3_conv3"
  type: "Convolution"
  bottom: "layer_128_3_conv2"
  top: "layer_128_3_conv3"
  param {
    lr_mult: 1
    decay_mult: 1
  }
  convolution_param {
    num_output: 512
    bias_term: false
    pad: 0
    kernel_size: 1
    stride: 1
    weight_filler {
      type: "msra"
    }
    bias_filler {
      type: "constant"
      value: 0
    }
  }
}
layer {
  name: "layer_128_3_sum"
  type: "Eltwise"
  bottom: "layer_128_3_conv3"
  bottom: "layer_128_2_sum"
  top: "layer_128_3_sum"
}
layer {
  name: "layer_128_4_bn1"
  type: "BatchNorm"
  bottom: "layer_128_3_sum"
  top: "layer_128_4_bn1"
  param {
    lr_mult: 0
    decay_mult: 0
  }
  param {
    lr_mult: 0
    decay_mult: 0
  }
  param {
    lr_mult: 0
    decay_mult: 0
  }
}
layer {
  name: "layer_128_4_scale1"
  type: "Scale"
  bottom: "layer_128_4_bn1"
  top: "layer_128_4_bn1"
  param {
    lr_mult: 1
    decay_mult: 1
  }
  param {
    lr_mult: 2
    decay_mult: 1
  }
  scale_param {
    bias_term: true
  }
}
layer {
  name: "layer_128_4_relu1"
  type: "ReLU"
  bottom: "layer_128_4_bn1"
  top: "layer_128_4_bn1"
}
layer {
  name: "layer_128_4_conv1"
  type: "Convolution"
  bottom: "layer_128_4_bn1"
  top: "layer_128_4_conv1"
  param {
    lr_mult: 1
    decay_mult: 1
  }
  convolution_param {
    num_output: 128
    bias_term: false
    pad: 0
    kernel_size: 1
    stride: 1
    weight_filler {
      type: "msra"
    }
    bias_filler {
      type: "constant"
      value: 0
    }
  }
}
layer {
  name: "layer_128_4_bn2"
  type: "BatchNorm"
  bottom: "layer_128_4_conv1"
  top: "layer_128_4_conv1"
  param {
    lr_mult: 0
    decay_mult: 0
  }
  param {
    lr_mult: 0
    decay_mult: 0
  }
  param {
    lr_mult: 0
    decay_mult: 0
  }
}
layer {
  name: "layer_128_4_scale2"
  type: "Scale"
  bottom: "layer_128_4_conv1"
  top: "layer_128_4_conv1"
  param {
    lr_mult: 1
    decay_mult: 1
  }
  param {
    lr_mult: 2
    decay_mult: 1
  }
  scale_param {
    bias_term: true
  }
}
layer {
  name: "layer_128_4_relu2"
  type: "ReLU"
  bottom: "layer_128_4_conv1"
  top: "layer_128_4_conv1"
}
layer {
  name: "layer_128_4_conv2"
  type: "Convolution"
  bottom: "layer_128_4_conv1"
  top: "layer_128_4_conv2"
  param {
    lr_mult: 1
    decay_mult: 1
  }
  convolution_param {
    num_output: 128
    bias_term: false
    pad: 1
    kernel_size: 3
    stride: 1
    weight_filler {
      type: "msra"
    }
    bias_filler {
      type: "constant"
      value: 0
    }
  }
}
layer {
  name: "layer_128_4_bn3"
  type: "BatchNorm"
  bottom: "layer_128_4_conv2"
  top: "layer_128_4_conv2"
  param {
    lr_mult: 0
    decay_mult: 0
  }
  param {
    lr_mult: 0
    decay_mult: 0
  }
  param {
    lr_mult: 0
    decay_mult: 0
  }
}
layer {
  name: "layer_128_4_scale3"
  type: "Scale"
  bottom: "layer_128_4_conv2"
  top: "layer_128_4_conv2"
  param {
    lr_mult: 1
    decay_mult: 1
  }
  param {
    lr_mult: 2
    decay_mult: 1
  }
  scale_param {
    bias_term: true
  }
}
layer {
  name: "layer_128_4_relu3"
  type: "ReLU"
  bottom: "layer_128_4_conv2"
  top: "layer_128_4_conv2"
}
layer {
  name: "layer_128_4_conv3"
  type: "Convolution"
  bottom: "layer_128_4_conv2"
  top: "layer_128_4_conv3"
  param {
    lr_mult: 1
    decay_mult: 1
  }
  convolution_param {
    num_output: 512
    bias_term: false
    pad: 0
    kernel_size: 1
    stride: 1
    weight_filler {
      type: "msra"
    }
    bias_filler {
      type: "constant"
      value: 0
    }
  }
}
layer {
  name: "layer_128_4_sum"
  type: "Eltwise"
  bottom: "layer_128_4_conv3"
  bottom: "layer_128_3_sum"
  top: "layer_128_4_sum"
}
layer {
  name: "layer_256_1_bn1"
  type: "BatchNorm"
  bottom: "layer_128_4_sum"
  top: "layer_256_1_bn1"
  param {
    lr_mult: 0
    decay_mult: 0
  }
  param {
    lr_mult: 0
    decay_mult: 0
  }
  param {
    lr_mult: 0
    decay_mult: 0
  }
}
layer {
  name: "layer_256_1_scale1"
  type: "Scale"
  bottom: "layer_256_1_bn1"
  top: "layer_256_1_bn1"
  param {
    lr_mult: 1
    decay_mult: 1
  }
  param {
    lr_mult: 2
    decay_mult: 1
  }
  scale_param {
    bias_term: true
  }
}
layer {
  name: "layer_256_1_relu1"
  type: "ReLU"
  bottom: "layer_256_1_bn1"
  top: "layer_256_1_bn1"
}
layer {
  name: "layer_256_1_conv1"
  type: "Convolution"
  bottom: "layer_256_1_bn1"
  top: "layer_256_1_conv1"
  param {
    lr_mult: 1
    decay_mult: 1
  }
  convolution_param {
    num_output: 256
    bias_term: false
    pad: 0
    kernel_size: 1
    stride: 1
    weight_filler {
      type: "msra"
    }
    bias_filler {
      type: "constant"
      value: 0
    }
  }
}
layer {
  name: "layer_256_1_bn2"
  type: "BatchNorm"
  bottom: "layer_256_1_conv1"
  top: "layer_256_1_conv1"
  param {
    lr_mult: 0
    decay_mult: 0
  }
  param {
    lr_mult: 0
    decay_mult: 0
  }
  param {
    lr_mult: 0
    decay_mult: 0
  }
}
layer {
  name: "layer_256_1_scale2"
  type: "Scale"
  bottom: "layer_256_1_conv1"
  top: "layer_256_1_conv1"
  param {
    lr_mult: 1
    decay_mult: 1
  }
  param {
    lr_mult: 2
    decay_mult: 1
  }
  scale_param {
    bias_term: true
  }
}
layer {
  name: "layer_256_1_relu2"
  type: "ReLU"
  bottom: "layer_256_1_conv1"
  top: "layer_256_1_conv1"
}
layer {
  name: "layer_256_1_conv2"
  type: "Convolution"
  bottom: "layer_256_1_conv1"
  top: "layer_256_1_conv2"
  param {
    lr_mult: 1
    decay_mult: 1
  }
  convolution_param {
    num_output: 256
    bias_term: false
    pad: 1
    kernel_size: 3
    stride: 2
    weight_filler {
      type: "msra"
    }
    bias_filler {
      type: "constant"
      value: 0
    }
  }
}
layer {
  name: "layer_256_1_bn3"
  type: "BatchNorm"
  bottom: "layer_256_1_conv2"
  top: "layer_256_1_conv2"
  param {
    lr_mult: 0
    decay_mult: 0
  }
  param {
    lr_mult: 0
    decay_mult: 0
  }
  param {
    lr_mult: 0
    decay_mult: 0
  }
}
layer {
  name: "layer_256_1_scale3"
  type: "Scale"
  bottom: "layer_256_1_conv2"
  top: "layer_256_1_conv2"
  param {
    lr_mult: 1
    decay_mult: 1
  }
  param {
    lr_mult: 2
    decay_mult: 1
  }
  scale_param {
    bias_term: true
  }
}
layer {
  name: "layer_256_1_relu3"
  type: "ReLU"
  bottom: "layer_256_1_conv2"
  top: "layer_256_1_conv2"
}
layer {
  name: "layer_256_1_conv3"
  type: "Convolution"
  bottom: "layer_256_1_conv2"
  top: "layer_256_1_conv3"
  param {
    lr_mult: 1
    decay_mult: 1
  }
  convolution_param {
    num_output: 1024
    bias_term: false
    pad: 0
    kernel_size: 1
    stride: 1
    weight_filler {
      type: "msra"
    }
    bias_filler {
      type: "constant"
      value: 0
    }
  }
}
layer {
  name: "layer_256_1_conv_expand"
  type: "Convolution"
  bottom: "layer_256_1_bn1"
  top: "layer_256_1_conv_expand"
  param {
    lr_mult: 1
    decay_mult: 1
  }
  convolution_param {
    num_output: 1024
    bias_term: false
    pad: 0
    kernel_size: 1
    stride: 2
    weight_filler {
      type: "msra"
    }
    bias_filler {
      type: "constant"
      value: 0
    }
  }
}
layer {
  name: "layer_256_1_sum"
  type: "Eltwise"
  bottom: "layer_256_1_conv3"
  bottom: "layer_256_1_conv_expand"
  top: "layer_256_1_sum"
}
layer {
  name: "layer_256_2_bn1"
  type: "BatchNorm"
  bottom: "layer_256_1_sum"
  top: "layer_256_2_bn1"
  param {
    lr_mult: 0
    decay_mult: 0
  }
  param {
    lr_mult: 0
    decay_mult: 0
  }
  param {
    lr_mult: 0
    decay_mult: 0
  }
}
layer {
  name: "layer_256_2_scale1"
  type: "Scale"
  bottom: "layer_256_2_bn1"
  top: "layer_256_2_bn1"
  param {
    lr_mult: 1
    decay_mult: 1
  }
  param {
    lr_mult: 2
    decay_mult: 1
  }
  scale_param {
    bias_term: true
  }
}
layer {
  name: "layer_256_2_relu1"
  type: "ReLU"
  bottom: "layer_256_2_bn1"
  top: "layer_256_2_bn1"
}
layer {
  name: "layer_256_2_conv1"
  type: "Convolution"
  bottom: "layer_256_2_bn1"
  top: "layer_256_2_conv1"
  param {
    lr_mult: 1
    decay_mult: 1
  }
  convolution_param {
    num_output: 256
    bias_term: false
    pad: 0
    kernel_size: 1
    stride: 1
    weight_filler {
      type: "msra"
    }
    bias_filler {
      type: "constant"
      value: 0
    }
  }
}
layer {
  name: "layer_256_2_bn2"
  type: "BatchNorm"
  bottom: "layer_256_2_conv1"
  top: "layer_256_2_conv1"
  param {
    lr_mult: 0
    decay_mult: 0
  }
  param {
    lr_mult: 0
    decay_mult: 0
  }
  param {
    lr_mult: 0
    decay_mult: 0
  }
}
layer {
  name: "layer_256_2_scale2"
  type: "Scale"
  bottom: "layer_256_2_conv1"
  top: "layer_256_2_conv1"
  param {
    lr_mult: 1
    decay_mult: 1
  }
  param {
    lr_mult: 2
    decay_mult: 1
  }
  scale_param {
    bias_term: true
  }
}
layer {
  name: "layer_256_2_relu2"
  type: "ReLU"
  bottom: "layer_256_2_conv1"
  top: "layer_256_2_conv1"
}
layer {
  name: "layer_256_2_conv2"
  type: "Convolution"
  bottom: "layer_256_2_conv1"
  top: "layer_256_2_conv2"
  param {
    lr_mult: 1
    decay_mult: 1
  }
  convolution_param {
    num_output: 256
    bias_term: false
    pad: 1
    kernel_size: 3
    stride: 1
    weight_filler {
      type: "msra"
    }
    bias_filler {
      type: "constant"
      value: 0
    }
  }
}
layer {
  name: "layer_256_2_bn3"
  type: "BatchNorm"
  bottom: "layer_256_2_conv2"
  top: "layer_256_2_conv2"
  param {
    lr_mult: 0
    decay_mult: 0
  }
  param {
    lr_mult: 0
    decay_mult: 0
  }
  param {
    lr_mult: 0
    decay_mult: 0
  }
}
layer {
  name: "layer_256_2_scale3"
  type: "Scale"
  bottom: "layer_256_2_conv2"
  top: "layer_256_2_conv2"
  param {
    lr_mult: 1
    decay_mult: 1
  }
  param {
    lr_mult: 2
    decay_mult: 1
  }
  scale_param {
    bias_term: true
  }
}
layer {
  name: "layer_256_2_relu3"
  type: "ReLU"
  bottom: "layer_256_2_conv2"
  top: "layer_256_2_conv2"
}
layer {
  name: "layer_256_2_conv3"
  type: "Convolution"
  bottom: "layer_256_2_conv2"
  top: "layer_256_2_conv3"
  param {
    lr_mult: 1
    decay_mult: 1
  }
  convolution_param {
    num_output: 1024
    bias_term: false
    pad: 0
    kernel_size: 1
    stride: 1
    weight_filler {
      type: "msra"
    }
    bias_fi
I0808 19:33:39.191968  8310 layer_factory.hpp:77] Creating layer data
I0808 19:33:39.192010  8310 net.cpp:84] Creating Layer data
I0808 19:33:39.192026  8310 net.cpp:380] data -> data
I0808 19:33:39.192065  8310 net.cpp:380] data -> label
I0808 19:33:39.192088  8310 hdf5_data_layer.cpp:80] Loading list of HDF5 filenames from: ./train_h5.txt
I0808 19:33:39.192126  8310 hdf5_data_layer.cpp:94] Number of HDF5 files: 1
I0808 19:33:39.193142  8310 hdf5.cpp:32] Datatype class: H5T_FLOAT
I0808 19:33:39.815148  8310 net.cpp:122] Setting up data
I0808 19:33:39.815240  8310 net.cpp:129] Top shape: 5 3 224 224 (752640)
I0808 19:33:39.815256  8310 net.cpp:129] Top shape: 5 (5)
I0808 19:33:39.815268  8310 net.cpp:137] Memory required for data: 3010580
I0808 19:33:39.815285  8310 layer_factory.hpp:77] Creating layer data_bn
I0808 19:33:39.815346  8310 net.cpp:84] Creating Layer data_bn
I0808 19:33:39.815364  8310 net.cpp:406] data_bn <- data
I0808 19:33:39.815397  8310 net.cpp:380] data_bn -> data_bn
I0808 19:33:39.816231  8310 net.cpp:122] Setting up data_bn
I0808 19:33:39.816258  8310 net.cpp:129] Top shape: 5 3 224 224 (752640)
I0808 19:33:39.816268  8310 net.cpp:137] Memory required for data: 6021140
I0808 19:33:39.816303  8310 layer_factory.hpp:77] Creating layer data_scale
I0808 19:33:39.816332  8310 net.cpp:84] Creating Layer data_scale
I0808 19:33:39.816344  8310 net.cpp:406] data_scale <- data_bn
I0808 19:33:39.816356  8310 net.cpp:367] data_scale -> data_bn (in-place)
I0808 19:33:39.816427  8310 layer_factory.hpp:77] Creating layer data_scale
I0808 19:33:39.816635  8310 net.cpp:122] Setting up data_scale
I0808 19:33:39.816658  8310 net.cpp:129] Top shape: 5 3 224 224 (752640)
I0808 19:33:39.816668  8310 net.cpp:137] Memory required for data: 9031700
I0808 19:33:39.816696  8310 layer_factory.hpp:77] Creating layer conv1
I0808 19:33:39.816742  8310 net.cpp:84] Creating Layer conv1
I0808 19:33:39.816754  8310 net.cpp:406] conv1 <- data_bn
I0808 19:33:39.816766  8310 net.cpp:380] conv1 -> conv1
I0808 19:33:40.947522  8310 net.cpp:122] Setting up conv1
I0808 19:33:40.947592  8310 net.cpp:129] Top shape: 5 64 112 112 (4014080)
I0808 19:33:40.947602  8310 net.cpp:137] Memory required for data: 25088020
I0808 19:33:40.947620  8310 layer_factory.hpp:77] Creating layer conv1_bn
I0808 19:33:40.947641  8310 net.cpp:84] Creating Layer conv1_bn
I0808 19:33:40.947650  8310 net.cpp:406] conv1_bn <- conv1
I0808 19:33:40.947664  8310 net.cpp:367] conv1_bn -> conv1 (in-place)
I0808 19:33:40.947871  8310 net.cpp:122] Setting up conv1_bn
I0808 19:33:40.947888  8310 net.cpp:129] Top shape: 5 64 112 112 (4014080)
I0808 19:33:40.947896  8310 net.cpp:137] Memory required for data: 41144340
I0808 19:33:40.947912  8310 layer_factory.hpp:77] Creating layer conv1_scale
I0808 19:33:40.947927  8310 net.cpp:84] Creating Layer conv1_scale
I0808 19:33:40.947934  8310 net.cpp:406] conv1_scale <- conv1
I0808 19:33:40.947944  8310 net.cpp:367] conv1_scale -> conv1 (in-place)
I0808 19:33:40.947995  8310 layer_factory.hpp:77] Creating layer conv1_scale
I0808 19:33:40.948134  8310 net.cpp:122] Setting up conv1_scale
I0808 19:33:40.948153  8310 net.cpp:129] Top shape: 5 64 112 112 (4014080)
I0808 19:33:40.948159  8310 net.cpp:137] Memory required for data: 57200660
I0808 19:33:40.948169  8310 layer_factory.hpp:77] Creating layer conv1_relu
I0808 19:33:40.948180  8310 net.cpp:84] Creating Layer conv1_relu
I0808 19:33:40.948189  8310 net.cpp:406] conv1_relu <- conv1
I0808 19:33:40.948199  8310 net.cpp:367] conv1_relu -> conv1 (in-place)
I0808 19:33:40.948637  8310 net.cpp:122] Setting up conv1_relu
I0808 19:33:40.948657  8310 net.cpp:129] Top shape: 5 64 112 112 (4014080)
I0808 19:33:40.948665  8310 net.cpp:137] Memory required for data: 73256980
I0808 19:33:40.948674  8310 layer_factory.hpp:77] Creating layer conv1_pool
I0808 19:33:40.948686  8310 net.cpp:84] Creating Layer conv1_pool
I0808 19:33:40.948694  8310 net.cpp:406] conv1_pool <- conv1
I0808 19:33:40.948704  8310 net.cpp:380] conv1_pool -> conv1_pool
I0808 19:33:40.948772  8310 net.cpp:122] Setting up conv1_pool
I0808 19:33:40.948791  8310 net.cpp:129] Top shape: 5 64 56 56 (1003520)
I0808 19:33:40.948797  8310 net.cpp:137] Memory required for data: 77271060
I0808 19:33:40.948804  8310 layer_factory.hpp:77] Creating layer layer_64_1_conv1
I0808 19:33:40.948822  8310 net.cpp:84] Creating Layer layer_64_1_conv1
I0808 19:33:40.948830  8310 net.cpp:406] layer_64_1_conv1 <- conv1_pool
I0808 19:33:40.948840  8310 net.cpp:380] layer_64_1_conv1 -> layer_64_1_conv1
I0808 19:33:40.950690  8310 net.cpp:122] Setting up layer_64_1_conv1
I0808 19:33:40.950711  8310 net.cpp:129] Top shape: 5 64 56 56 (1003520)
I0808 19:33:40.950721  8310 net.cpp:137] Memory required for data: 81285140
I0808 19:33:40.950729  8310 layer_factory.hpp:77] Creating layer layer_64_1_bn2
I0808 19:33:40.950743  8310 net.cpp:84] Creating Layer layer_64_1_bn2
I0808 19:33:40.950752  8310 net.cpp:406] layer_64_1_bn2 <- layer_64_1_conv1
I0808 19:33:40.950760  8310 net.cpp:367] layer_64_1_bn2 -> layer_64_1_conv1 (in-place)
I0808 19:33:40.950942  8310 net.cpp:122] Setting up layer_64_1_bn2
I0808 19:33:40.950958  8310 net.cpp:129] Top shape: 5 64 56 56 (1003520)
I0808 19:33:40.950966  8310 net.cpp:137] Memory required for data: 85299220
I0808 19:33:40.950978  8310 layer_factory.hpp:77] Creating layer layer_64_1_scale2
I0808 19:33:40.950989  8310 net.cpp:84] Creating Layer layer_64_1_scale2
I0808 19:33:40.950996  8310 net.cpp:406] layer_64_1_scale2 <- layer_64_1_conv1
I0808 19:33:40.951007  8310 net.cpp:367] layer_64_1_scale2 -> layer_64_1_conv1 (in-place)
I0808 19:33:40.951059  8310 layer_factory.hpp:77] Creating layer layer_64_1_scale2
I0808 19:33:40.951179  8310 net.cpp:122] Setting up layer_64_1_scale2
I0808 19:33:40.951196  8310 net.cpp:129] Top shape: 5 64 56 56 (1003520)
I0808 19:33:40.951217  8310 net.cpp:137] Memory required for data: 89313300
I0808 19:33:40.951246  8310 layer_factory.hpp:77] Creating layer layer_64_1_relu2
I0808 19:33:40.951256  8310 net.cpp:84] Creating Layer layer_64_1_relu2
I0808 19:33:40.951267  8310 net.cpp:406] layer_64_1_relu2 <- layer_64_1_conv1
I0808 19:33:40.951275  8310 net.cpp:367] layer_64_1_relu2 -> layer_64_1_conv1 (in-place)
I0808 19:33:40.951719  8310 net.cpp:122] Setting up layer_64_1_relu2
I0808 19:33:40.951738  8310 net.cpp:129] Top shape: 5 64 56 56 (1003520)
I0808 19:33:40.951746  8310 net.cpp:137] Memory required for data: 93327380
I0808 19:33:40.951753  8310 layer_factory.hpp:77] Creating layer layer_64_1_conv1_layer_64_1_relu2_0_split
I0808 19:33:40.951766  8310 net.cpp:84] Creating Layer layer_64_1_conv1_layer_64_1_relu2_0_split
I0808 19:33:40.951773  8310 net.cpp:406] layer_64_1_conv1_layer_64_1_relu2_0_split <- layer_64_1_conv1
I0808 19:33:40.951783  8310 net.cpp:380] layer_64_1_conv1_layer_64_1_relu2_0_split -> layer_64_1_conv1_layer_64_1_relu2_0_split_0
I0808 19:33:40.951795  8310 net.cpp:380] layer_64_1_conv1_layer_64_1_relu2_0_split -> layer_64_1_conv1_layer_64_1_relu2_0_split_1
I0808 19:33:40.951840  8310 net.cpp:122] Setting up layer_64_1_conv1_layer_64_1_relu2_0_split
I0808 19:33:40.951855  8310 net.cpp:129] Top shape: 5 64 56 56 (1003520)
I0808 19:33:40.951864  8310 net.cpp:129] Top shape: 5 64 56 56 (1003520)
I0808 19:33:40.951869  8310 net.cpp:137] Memory required for data: 101355540
I0808 19:33:40.951876  8310 layer_factory.hpp:77] Creating layer layer_64_1_conv2
I0808 19:33:40.951889  8310 net.cpp:84] Creating Layer layer_64_1_conv2
I0808 19:33:40.951896  8310 net.cpp:406] layer_64_1_conv2 <- layer_64_1_conv1_layer_64_1_relu2_0_split_0
I0808 19:33:40.951906  8310 net.cpp:380] layer_64_1_conv2 -> layer_64_1_conv2
I0808 19:33:40.954540  8310 net.cpp:122] Setting up layer_64_1_conv2
I0808 19:33:40.954562  8310 net.cpp:129] Top shape: 5 64 56 56 (1003520)
I0808 19:33:40.954571  8310 net.cpp:137] Memory required for data: 105369620
I0808 19:33:40.954579  8310 layer_factory.hpp:77] Creating layer layer_64_1_bn3
I0808 19:33:40.954592  8310 net.cpp:84] Creating Layer layer_64_1_bn3
I0808 19:33:40.954603  8310 net.cpp:406] layer_64_1_bn3 <- layer_64_1_conv2
I0808 19:33:40.954614  8310 net.cpp:367] layer_64_1_bn3 -> layer_64_1_conv2 (in-place)
I0808 19:33:40.954819  8310 net.cpp:122] Setting up layer_64_1_bn3
I0808 19:33:40.954835  8310 net.cpp:129] Top shape: 5 64 56 56 (1003520)
I0808 19:33:40.954843  8310 net.cpp:137] Memory required for data: 109383700
I0808 19:33:40.954854  8310 layer_factory.hpp:77] Creating layer layer_64_1_scale3
I0808 19:33:40.954864  8310 net.cpp:84] Creating Layer layer_64_1_scale3
I0808 19:33:40.954874  8310 net.cpp:406] layer_64_1_scale3 <- layer_64_1_conv2
I0808 19:33:40.954882  8310 net.cpp:367] layer_64_1_scale3 -> layer_64_1_conv2 (in-place)
I0808 19:33:40.954932  8310 layer_factory.hpp:77] Creating layer layer_64_1_scale3
I0808 19:33:40.955070  8310 net.cpp:122] Setting up layer_64_1_scale3
I0808 19:33:40.955086  8310 net.cpp:129] Top shape: 5 64 56 56 (1003520)
I0808 19:33:40.955093  8310 net.cpp:137] Memory required for data: 113397780
I0808 19:33:40.955103  8310 layer_factory.hpp:77] Creating layer layer_64_1_relu3
I0808 19:33:40.955114  8310 net.cpp:84] Creating Layer layer_64_1_relu3
I0808 19:33:40.955121  8310 net.cpp:406] layer_64_1_relu3 <- layer_64_1_conv2
I0808 19:33:40.955132  8310 net.cpp:367] layer_64_1_relu3 -> layer_64_1_conv2 (in-place)
I0808 19:33:40.955350  8310 net.cpp:122] Setting up layer_64_1_relu3
I0808 19:33:40.955369  8310 net.cpp:129] Top shape: 5 64 56 56 (1003520)
I0808 19:33:40.955376  8310 net.cpp:137] Memory required for data: 117411860
I0808 19:33:40.955384  8310 layer_factory.hpp:77] Creating layer layer_64_1_conv3
I0808 19:33:40.955399  8310 net.cpp:84] Creating Layer layer_64_1_conv3
I0808 19:33:40.955409  8310 net.cpp:406] layer_64_1_conv3 <- layer_64_1_conv2
I0808 19:33:40.955426  8310 net.cpp:380] layer_64_1_conv3 -> layer_64_1_conv3
I0808 19:33:40.957234  8310 net.cpp:122] Setting up layer_64_1_conv3
I0808 19:33:40.957262  8310 net.cpp:129] Top shape: 5 256 56 56 (4014080)
I0808 19:33:40.957276  8310 net.cpp:137] Memory required for data: 133468180
I0808 19:33:40.957286  8310 layer_factory.hpp:77] Creating layer layer_64_1_conv_expand
I0808 19:33:40.957303  8310 net.cpp:84] Creating Layer layer_64_1_conv_expand
I0808 19:33:40.957311  8310 net.cpp:406] layer_64_1_conv_expand <- layer_64_1_conv1_layer_64_1_relu2_0_split_1
I0808 19:33:40.957324  8310 net.cpp:380] layer_64_1_conv_expand -> layer_64_1_conv_expand
I0808 19:33:40.959695  8310 net.cpp:122] Setting up layer_64_1_conv_expand
I0808 19:33:40.959760  8310 net.cpp:129] Top shape: 5 256 56 56 (4014080)
I0808 19:33:40.959772  8310 net.cpp:137] Memory required for data: 149524500
I0808 19:33:40.959789  8310 layer_factory.hpp:77] Creating layer layer_64_1_sum
I0808 19:33:40.959810  8310 net.cpp:84] Creating Layer layer_64_1_sum
I0808 19:33:40.959823  8310 net.cpp:406] layer_64_1_sum <- layer_64_1_conv3
I0808 19:33:40.959834  8310 net.cpp:406] layer_64_1_sum <- layer_64_1_conv_expand
I0808 19:33:40.959844  8310 net.cpp:380] layer_64_1_sum -> layer_64_1_sum
I0808 19:33:40.959893  8310 net.cpp:122] Setting up layer_64_1_sum
I0808 19:33:40.959910  8310 net.cpp:129] Top shape: 5 256 56 56 (4014080)
I0808 19:33:40.959918  8310 net.cpp:137] Memory required for data: 165580820
I0808 19:33:40.959925  8310 layer_factory.hpp:77] Creating layer layer_64_1_sum_layer_64_1_sum_0_split
I0808 19:33:40.959936  8310 net.cpp:84] Creating Layer layer_64_1_sum_layer_64_1_sum_0_split
I0808 19:33:40.959946  8310 net.cpp:406] layer_64_1_sum_layer_64_1_sum_0_split <- layer_64_1_sum
I0808 19:33:40.959959  8310 net.cpp:380] layer_64_1_sum_layer_64_1_sum_0_split -> layer_64_1_sum_layer_64_1_sum_0_split_0
I0808 19:33:40.959971  8310 net.cpp:380] layer_64_1_sum_layer_64_1_sum_0_split -> layer_64_1_sum_layer_64_1_sum_0_split_1
I0808 19:33:40.960018  8310 net.cpp:122] Setting up layer_64_1_sum_layer_64_1_sum_0_split
I0808 19:33:40.960034  8310 net.cpp:129] Top shape: 5 256 56 56 (4014080)
I0808 19:33:40.960043  8310 net.cpp:129] Top shape: 5 256 56 56 (4014080)
I0808 19:33:40.960049  8310 net.cpp:137] Memory required for data: 197693460
I0808 19:33:40.960057  8310 layer_factory.hpp:77] Creating layer layer_64_2_bn1
I0808 19:33:40.960079  8310 net.cpp:84] Creating Layer layer_64_2_bn1
I0808 19:33:40.960088  8310 net.cpp:406] layer_64_2_bn1 <- layer_64_1_sum_layer_64_1_sum_0_split_0
I0808 19:33:40.960098  8310 net.cpp:380] layer_64_2_bn1 -> layer_64_2_bn1
I0808 19:33:40.960325  8310 net.cpp:122] Setting up layer_64_2_bn1
I0808 19:33:40.960341  8310 net.cpp:129] Top shape: 5 256 56 56 (4014080)
I0808 19:33:40.960348  8310 net.cpp:137] Memory required for data: 213749780
I0808 19:33:40.960362  8310 layer_factory.hpp:77] Creating layer layer_64_2_scale1
I0808 19:33:40.960376  8310 net.cpp:84] Creating Layer layer_64_2_scale1
I0808 19:33:40.960383  8310 net.cpp:406] layer_64_2_scale1 <- layer_64_2_bn1
I0808 19:33:40.960395  8310 net.cpp:367] layer_64_2_scale1 -> layer_64_2_bn1 (in-place)
I0808 19:33:40.960459  8310 layer_factory.hpp:77] Creating layer layer_64_2_scale1
I0808 19:33:40.960610  8310 net.cpp:122] Setting up layer_64_2_scale1
I0808 19:33:40.960628  8310 net.cpp:129] Top shape: 5 256 56 56 (4014080)
I0808 19:33:40.960635  8310 net.cpp:137] Memory required for data: 229806100
I0808 19:33:40.960646  8310 layer_factory.hpp:77] Creating layer layer_64_2_relu1
I0808 19:33:40.960657  8310 net.cpp:84] Creating Layer layer_64_2_relu1
I0808 19:33:40.960666  8310 net.cpp:406] layer_64_2_relu1 <- layer_64_2_bn1
I0808 19:33:40.960676  8310 net.cpp:367] layer_64_2_relu1 -> layer_64_2_bn1 (in-place)
I0808 19:33:40.961177  8310 net.cpp:122] Setting up layer_64_2_relu1
I0808 19:33:40.961199  8310 net.cpp:129] Top shape: 5 256 56 56 (4014080)
I0808 19:33:40.961207  8310 net.cpp:137] Memory required for data: 245862420
I0808 19:33:40.961215  8310 layer_factory.hpp:77] Creating layer layer_64_2_conv1
I0808 19:33:40.961237  8310 net.cpp:84] Creating Layer layer_64_2_conv1
I0808 19:33:40.961248  8310 net.cpp:406] layer_64_2_conv1 <- layer_64_2_bn1
I0808 19:33:40.961288  8310 net.cpp:380] layer_64_2_conv1 -> layer_64_2_conv1
I0808 19:33:40.963225  8310 net.cpp:122] Setting up layer_64_2_conv1
I0808 19:33:40.963249  8310 net.cpp:129] Top shape: 5 64 56 56 (1003520)
I0808 19:33:40.963258  8310 net.cpp:137] Memory required for data: 249876500
I0808 19:33:40.963268  8310 layer_factory.hpp:77] Creating layer layer_64_2_bn2
I0808 19:33:40.963284  8310 net.cpp:84] Creating Layer layer_64_2_bn2
I0808 19:33:40.963294  8310 net.cpp:406] layer_64_2_bn2 <- layer_64_2_conv1
I0808 19:33:40.963310  8310 net.cpp:367] layer_64_2_bn2 -> layer_64_2_conv1 (in-place)
I0808 19:33:40.963563  8310 net.cpp:122] Setting up layer_64_2_bn2
I0808 19:33:40.963582  8310 net.cpp:129] Top shape: 5 64 56 56 (1003520)
I0808 19:33:40.963588  8310 net.cpp:137] Memory required for data: 253890580
I0808 19:33:40.963613  8310 layer_factory.hpp:77] Creating layer layer_64_2_scale2
I0808 19:33:40.963627  8310 net.cpp:84] Creating Layer layer_64_2_scale2
I0808 19:33:40.963634  8310 net.cpp:406] layer_64_2_scale2 <- layer_64_2_conv1
I0808 19:33:40.963646  8310 net.cpp:367] layer_64_2_scale2 -> layer_64_2_conv1 (in-place)
I0808 19:33:40.963701  8310 layer_factory.hpp:77] Creating layer layer_64_2_scale2
I0808 19:33:40.963847  8310 net.cpp:122] Setting up layer_64_2_scale2
I0808 19:33:40.963865  8310 net.cpp:129] Top shape: 5 64 56 56 (1003520)
I0808 19:33:40.963872  8310 net.cpp:137] Memory required for data: 257904660
I0808 19:33:40.963881  8310 layer_factory.hpp:77] Creating layer layer_64_2_relu2
I0808 19:33:40.963897  8310 net.cpp:84] Creating Layer layer_64_2_relu2
I0808 19:33:40.963906  8310 net.cpp:406] layer_64_2_relu2 <- layer_64_2_conv1
I0808 19:33:40.963917  8310 net.cpp:367] layer_64_2_relu2 -> layer_64_2_conv1 (in-place)
I0808 19:33:40.964130  8310 net.cpp:122] Setting up layer_64_2_relu2
I0808 19:33:40.964149  8310 net.cpp:129] Top shape: 5 64 56 56 (1003520)
I0808 19:33:40.964159  8310 net.cpp:137] Memory required for data: 261918740
I0808 19:33:40.964167  8310 layer_factory.hpp:77] Creating layer layer_64_2_conv2
I0808 19:33:40.964181  8310 net.cpp:84] Creating Layer layer_64_2_conv2
I0808 19:33:40.964190  8310 net.cpp:406] layer_64_2_conv2 <- layer_64_2_conv1
I0808 19:33:40.964202  8310 net.cpp:380] layer_64_2_conv2 -> layer_64_2_conv2
I0808 19:33:40.967232  8310 net.cpp:122] Setting up layer_64_2_conv2
I0808 19:33:40.967257  8310 net.cpp:129] Top shape: 5 64 56 56 (1003520)
I0808 19:33:40.967265  8310 net.cpp:137] Memory required for data: 265932820
I0808 19:33:40.967278  8310 layer_factory.hpp:77] Creating layer layer_64_2_bn3
I0808 19:33:40.967294  8310 net.cpp:84] Creating Layer layer_64_2_bn3
I0808 19:33:40.967303  8310 net.cpp:406] layer_64_2_bn3 <- layer_64_2_conv2
I0808 19:33:40.967337  8310 net.cpp:367] layer_64_2_bn3 -> layer_64_2_conv2 (in-place)
I0808 19:33:40.967578  8310 net.cpp:122] Setting up layer_64_2_bn3
I0808 19:33:40.967597  8310 net.cpp:129] Top shape: 5 64 56 56 (1003520)
I0808 19:33:40.967603  8310 net.cpp:137] Memory required for data: 269946900
I0808 19:33:40.967615  8310 layer_factory.hpp:77] Creating layer layer_64_2_scale3
I0808 19:33:40.967634  8310 net.cpp:84] Creating Layer layer_64_2_scale3
I0808 19:33:40.967643  8310 net.cpp:406] layer_64_2_scale3 <- layer_64_2_conv2
I0808 19:33:40.967651  8310 net.cpp:367] layer_64_2_scale3 -> layer_64_2_conv2 (in-place)
I0808 19:33:40.967710  8310 layer_factory.hpp:77] Creating layer layer_64_2_scale3
I0808 19:33:40.967859  8310 net.cpp:122] Setting up layer_64_2_scale3
I0808 19:33:40.967877  8310 net.cpp:129] Top shape: 5 64 56 56 (1003520)
I0808 19:33:40.967885  8310 net.cpp:137] Memory required for data: 273960980
I0808 19:33:40.967895  8310 layer_factory.hpp:77] Creating layer layer_64_2_relu3
I0808 19:33:40.967905  8310 net.cpp:84] Creating Layer layer_64_2_relu3
I0808 19:33:40.967912  8310 net.cpp:406] layer_64_2_relu3 <- layer_64_2_conv2
I0808 19:33:40.967923  8310 net.cpp:367] layer_64_2_relu3 -> layer_64_2_conv2 (in-place)
I0808 19:33:40.968384  8310 net.cpp:122] Setting up layer_64_2_relu3
I0808 19:33:40.968410  8310 net.cpp:129] Top shape: 5 64 56 56 (1003520)
I0808 19:33:40.968427  8310 net.cpp:137] Memory required for data: 277975060
I0808 19:33:40.968436  8310 layer_factory.hpp:77] Creating layer layer_64_2_conv3
I0808 19:33:40.968456  8310 net.cpp:84] Creating Layer layer_64_2_conv3
I0808 19:33:40.968467  8310 net.cpp:406] layer_64_2_conv3 <- layer_64_2_conv2
I0808 19:33:40.968480  8310 net.cpp:380] layer_64_2_conv3 -> layer_64_2_conv3
I0808 19:33:40.970350  8310 net.cpp:122] Setting up layer_64_2_conv3
I0808 19:33:40.970373  8310 net.cpp:129] Top shape: 5 256 56 56 (4014080)
I0808 19:33:40.970382  8310 net.cpp:137] Memory required for data: 294031380
I0808 19:33:40.970396  8310 layer_factory.hpp:77] Creating layer layer_64_2_sum
I0808 19:33:40.970410  8310 net.cpp:84] Creating Layer layer_64_2_sum
I0808 19:33:40.970418  8310 net.cpp:406] layer_64_2_sum <- layer_64_2_conv3
I0808 19:33:40.970427  8310 net.cpp:406] layer_64_2_sum <- layer_64_1_sum_layer_64_1_sum_0_split_1
I0808 19:33:40.970438  8310 net.cpp:380] layer_64_2_sum -> layer_64_2_sum
I0808 19:33:40.970474  8310 net.cpp:122] Setting up layer_64_2_sum
I0808 19:33:40.970494  8310 net.cpp:129] Top shape: 5 256 56 56 (4014080)
I0808 19:33:40.970501  8310 net.cpp:137] Memory required for data: 310087700
I0808 19:33:40.970510  8310 layer_factory.hpp:77] Creating layer layer_64_2_sum_layer_64_2_sum_0_split
I0808 19:33:40.970520  8310 net.cpp:84] Creating Layer layer_64_2_sum_layer_64_2_sum_0_split
I0808 19:33:40.970527  8310 net.cpp:406] layer_64_2_sum_layer_64_2_sum_0_split <- layer_64_2_sum
I0808 19:33:40.970537  8310 net.cpp:380] layer_64_2_sum_layer_64_2_sum_0_split -> layer_64_2_sum_layer_64_2_sum_0_split_0
I0808 19:33:40.970547  8310 net.cpp:380] layer_64_2_sum_layer_64_2_sum_0_split -> layer_64_2_sum_layer_64_2_sum_0_split_1
I0808 19:33:40.970597  8310 net.cpp:122] Setting up layer_64_2_sum_layer_64_2_sum_0_split
I0808 19:33:40.970612  8310 net.cpp:129] Top shape: 5 256 56 56 (4014080)
I0808 19:33:40.970620  8310 net.cpp:129] Top shape: 5 256 56 56 (4014080)
I0808 19:33:40.970626  8310 net.cpp:137] Memory required for data: 342200340
I0808 19:33:40.970633  8310 layer_factory.hpp:77] Creating layer layer_64_3_bn1
I0808 19:33:40.970646  8310 net.cpp:84] Creating Layer layer_64_3_bn1
I0808 19:33:40.970654  8310 net.cpp:406] layer_64_3_bn1 <- layer_64_2_sum_layer_64_2_sum_0_split_0
I0808 19:33:40.970664  8310 net.cpp:380] layer_64_3_bn1 -> layer_64_3_bn1
I0808 19:33:40.970886  8310 net.cpp:122] Setting up layer_64_3_bn1
I0808 19:33:40.970903  8310 net.cpp:129] Top shape: 5 256 56 56 (4014080)
I0808 19:33:40.970911  8310 net.cpp:137] Memory required for data: 358256660
I0808 19:33:40.970922  8310 layer_factory.hpp:77] Creating layer layer_64_3_scale1
I0808 19:33:40.970938  8310 net.cpp:84] Creating Layer layer_64_3_scale1
I0808 19:33:40.970947  8310 net.cpp:406] layer_64_3_scale1 <- layer_64_3_bn1
I0808 19:33:40.970957  8310 net.cpp:367] layer_64_3_scale1 -> layer_64_3_bn1 (in-place)
I0808 19:33:40.971014  8310 layer_factory.hpp:77] Creating layer layer_64_3_scale1
I0808 19:33:40.971158  8310 net.cpp:122] Setting up layer_64_3_scale1
I0808 19:33:40.971174  8310 net.cpp:129] Top shape: 5 256 56 56 (4014080)
I0808 19:33:40.971181  8310 net.cpp:137] Memory required for data: 374312980
I0808 19:33:40.971191  8310 layer_factory.hpp:77] Creating layer layer_64_3_relu1
I0808 19:33:40.971207  8310 net.cpp:84] Creating Layer layer_64_3_relu1
I0808 19:33:40.971215  8310 net.cpp:406] layer_64_3_relu1 <- layer_64_3_bn1
I0808 19:33:40.971223  8310 net.cpp:367] layer_64_3_relu1 -> layer_64_3_bn1 (in-place)
I0808 19:33:40.971691  8310 net.cpp:122] Setting up layer_64_3_relu1
I0808 19:33:40.971712  8310 net.cpp:129] Top shape: 5 256 56 56 (4014080)
I0808 19:33:40.971720  8310 net.cpp:137] Memory required for data: 390369300
I0808 19:33:40.971727  8310 layer_factory.hpp:77] Creating layer layer_64_3_conv1
I0808 19:33:40.971745  8310 net.cpp:84] Creating Layer layer_64_3_conv1
I0808 19:33:40.971756  8310 net.cpp:406] layer_64_3_conv1 <- layer_64_3_bn1
I0808 19:33:40.971772  8310 net.cpp:380] layer_64_3_conv1 -> layer_64_3_conv1
I0808 19:33:40.973682  8310 net.cpp:122] Setting up layer_64_3_conv1
I0808 19:33:40.973704  8310 net.cpp:129] Top shape: 5 64 56 56 (1003520)
I0808 19:33:40.973716  8310 net.cpp:137] Memory required for data: 394383380
I0808 19:33:40.973726  8310 layer_factory.hpp:77] Creating layer layer_64_3_bn2
I0808 19:33:40.973743  8310 net.cpp:84] Creating Layer layer_64_3_bn2
I0808 19:33:40.973752  8310 net.cpp:406] layer_64_3_bn2 <- layer_64_3_conv1
I0808 19:33:40.973763  8310 net.cpp:367] layer_64_3_bn2 -> layer_64_3_conv1 (in-place)
I0808 19:33:40.973994  8310 net.cpp:122] Setting up layer_64_3_bn2
I0808 19:33:40.974011  8310 net.cpp:129] Top shape: 5 64 56 56 (1003520)
I0808 19:33:40.974020  8310 net.cpp:137] Memory required for data: 398397460
I0808 19:33:40.974031  8310 layer_factory.hpp:77] Creating layer layer_64_3_scale2
I0808 19:33:40.974045  8310 net.cpp:84] Creating Layer layer_64_3_scale2
I0808 19:33:40.974053  8310 net.cpp:406] layer_64_3_scale2 <- layer_64_3_conv1
I0808 19:33:40.974062  8310 net.cpp:367] layer_64_3_scale2 -> layer_64_3_conv1 (in-place)
I0808 19:33:40.974118  8310 layer_factory.hpp:77] Creating layer layer_64_3_scale2
I0808 19:33:40.974272  8310 net.cpp:122] Setting up layer_64_3_scale2
I0808 19:33:40.974289  8310 net.cpp:129] Top shape: 5 64 56 56 (1003520)
I0808 19:33:40.974297  8310 net.cpp:137] Memory required for data: 402411540
I0808 19:33:40.974306  8310 layer_factory.hpp:77] Creating layer layer_64_3_relu2
I0808 19:33:40.974318  8310 net.cpp:84] Creating Layer layer_64_3_relu2
I0808 19:33:40.974326  8310 net.cpp:406] layer_64_3_relu2 <- layer_64_3_conv1
I0808 19:33:40.974334  8310 net.cpp:367] layer_64_3_relu2 -> layer_64_3_conv1 (in-place)
I0808 19:33:40.974542  8310 net.cpp:122] Setting up layer_64_3_relu2
I0808 19:33:40.974561  8310 net.cpp:129] Top shape: 5 64 56 56 (1003520)
I0808 19:33:40.974570  8310 net.cpp:137] Memory required for data: 406425620
I0808 19:33:40.974576  8310 layer_factory.hpp:77] Creating layer layer_64_3_conv2
I0808 19:33:40.974592  8310 net.cpp:84] Creating Layer layer_64_3_conv2
I0808 19:33:40.974602  8310 net.cpp:406] layer_64_3_conv2 <- layer_64_3_conv1
I0808 19:33:40.974616  8310 net.cpp:380] layer_64_3_conv2 -> layer_64_3_conv2
I0808 19:33:40.977382  8310 net.cpp:122] Setting up layer_64_3_conv2
I0808 19:33:40.977406  8310 net.cpp:129] Top shape: 5 64 56 56 (1003520)
I0808 19:33:40.977414  8310 net.cpp:137] Memory required for data: 410439700
I0808 19:33:40.977427  8310 layer_factory.hpp:77] Creating layer layer_64_3_bn3
I0808 19:33:40.977442  8310 net.cpp:84] Creating Layer layer_64_3_bn3
I0808 19:33:40.977450  8310 net.cpp:406] layer_64_3_bn3 <- layer_64_3_conv2
I0808 19:33:40.977459  8310 net.cpp:367] layer_64_3_bn3 -> layer_64_3_conv2 (in-place)
I0808 19:33:40.977694  8310 net.cpp:122] Setting up layer_64_3_bn3
I0808 19:33:40.977711  8310 net.cpp:129] Top shape: 5 64 56 56 (1003520)
I0808 19:33:40.977720  8310 net.cpp:137] Memory required for data: 414453780
I0808 19:33:40.977731  8310 layer_factory.hpp:77] Creating layer layer_64_3_scale3
I0808 19:33:40.977746  8310 net.cpp:84] Creating Layer layer_64_3_scale3
I0808 19:33:40.977753  8310 net.cpp:406] layer_64_3_scale3 <- layer_64_3_conv2
I0808 19:33:40.977762  8310 net.cpp:367] layer_64_3_scale3 -> layer_64_3_conv2 (in-place)
I0808 19:33:40.977820  8310 layer_factory.hpp:77] Creating layer layer_64_3_scale3
I0808 19:33:40.977977  8310 net.cpp:122] Setting up layer_64_3_scale3
I0808 19:33:40.977996  8310 net.cpp:129] Top shape: 5 64 56 56 (1003520)
I0808 19:33:40.978004  8310 net.cpp:137] Memory required for data: 418467860
I0808 19:33:40.978014  8310 layer_factory.hpp:77] Creating layer layer_64_3_relu3
I0808 19:33:40.978024  8310 net.cpp:84] Creating Layer layer_64_3_relu3
I0808 19:33:40.978032  8310 net.cpp:406] layer_64_3_relu3 <- layer_64_3_conv2
I0808 19:33:40.978040  8310 net.cpp:367] layer_64_3_relu3 -> layer_64_3_conv2 (in-place)
I0808 19:33:40.978540  8310 net.cpp:122] Setting up layer_64_3_relu3
I0808 19:33:40.978569  8310 net.cpp:129] Top shape: 5 64 56 56 (1003520)
I0808 19:33:40.978588  8310 net.cpp:137] Memory required for data: 422481940
I0808 19:33:40.978597  8310 layer_factory.hpp:77] Creating layer layer_64_3_conv3
I0808 19:33:40.978616  8310 net.cpp:84] Creating Layer layer_64_3_conv3
I0808 19:33:40.978627  8310 net.cpp:406] layer_64_3_conv3 <- layer_64_3_conv2
I0808 19:33:40.978638  8310 net.cpp:380] layer_64_3_conv3 -> layer_64_3_conv3
I0808 19:33:40.980531  8310 net.cpp:122] Setting up layer_64_3_conv3
I0808 19:33:40.980556  8310 net.cpp:129] Top shape: 5 256 56 56 (4014080)
I0808 19:33:40.980564  8310 net.cpp:137] Memory required for data: 438538260
I0808 19:33:40.980577  8310 layer_factory.hpp:77] Creating layer layer_64_3_sum
I0808 19:33:40.980593  8310 net.cpp:84] Creating Layer layer_64_3_sum
I0808 19:33:40.980602  8310 net.cpp:406] layer_64_3_sum <- layer_64_3_conv3
I0808 19:33:40.980610  8310 net.cpp:406] layer_64_3_sum <- layer_64_2_sum_layer_64_2_sum_0_split_1
I0808 19:33:40.980620  8310 net.cpp:380] layer_64_3_sum -> layer_64_3_sum
I0808 19:33:40.980660  8310 net.cpp:122] Setting up layer_64_3_sum
I0808 19:33:40.980676  8310 net.cpp:129] Top shape: 5 256 56 56 (4014080)
I0808 19:33:40.980684  8310 net.cpp:137] Memory required for data: 454594580
I0808 19:33:40.980690  8310 layer_factory.hpp:77] Creating layer layer_128_1_bn1
I0808 19:33:40.980700  8310 net.cpp:84] Creating Layer layer_128_1_bn1
I0808 19:33:40.980707  8310 net.cpp:406] layer_128_1_bn1 <- layer_64_3_sum
I0808 19:33:40.980720  8310 net.cpp:380] layer_128_1_bn1 -> layer_128_1_bn1
I0808 19:33:40.980985  8310 net.cpp:122] Setting up layer_128_1_bn1
I0808 19:33:40.981003  8310 net.cpp:129] Top shape: 5 256 56 56 (4014080)
I0808 19:33:40.981010  8310 net.cpp:137] Memory required for data: 470650900
I0808 19:33:40.981031  8310 layer_factory.hpp:77] Creating layer layer_128_1_scale1
I0808 19:33:40.981055  8310 net.cpp:84] Creating Layer layer_128_1_scale1
I0808 19:33:40.981065  8310 net.cpp:406] layer_128_1_scale1 <- layer_128_1_bn1
I0808 19:33:40.981075  8310 net.cpp:367] layer_128_1_scale1 -> layer_128_1_bn1 (in-place)
I0808 19:33:40.981137  8310 layer_factory.hpp:77] Creating layer layer_128_1_scale1
I0808 19:33:40.981284  8310 net.cpp:122] Setting up layer_128_1_scale1
I0808 19:33:40.981302  8310 net.cpp:129] Top shape: 5 256 56 56 (4014080)
I0808 19:33:40.981309  8310 net.cpp:137] Memory required for data: 486707220
I0808 19:33:40.981319  8310 layer_factory.hpp:77] Creating layer layer_128_1_relu1
I0808 19:33:40.981330  8310 net.cpp:84] Creating Layer layer_128_1_relu1
I0808 19:33:40.981338  8310 net.cpp:406] layer_128_1_relu1 <- layer_128_1_bn1
I0808 19:33:40.981348  8310 net.cpp:367] layer_128_1_relu1 -> layer_128_1_bn1 (in-place)
I0808 19:33:40.981561  8310 net.cpp:122] Setting up layer_128_1_relu1
I0808 19:33:40.981580  8310 net.cpp:129] Top shape: 5 256 56 56 (4014080)
I0808 19:33:40.981588  8310 net.cpp:137] Memory required for data: 502763540
I0808 19:33:40.981598  8310 layer_factory.hpp:77] Creating layer layer_128_1_bn1_layer_128_1_relu1_0_split
I0808 19:33:40.981612  8310 net.cpp:84] Creating Layer layer_128_1_bn1_layer_128_1_relu1_0_split
I0808 19:33:40.981622  8310 net.cpp:406] layer_128_1_bn1_layer_128_1_relu1_0_split <- layer_128_1_bn1
I0808 19:33:40.981632  8310 net.cpp:380] layer_128_1_bn1_layer_128_1_relu1_0_split -> layer_128_1_bn1_layer_128_1_relu1_0_split_0
I0808 19:33:40.981642  8310 net.cpp:380] layer_128_1_bn1_layer_128_1_relu1_0_split -> layer_128_1_bn1_layer_128_1_relu1_0_split_1
I0808 19:33:40.981698  8310 net.cpp:122] Setting up layer_128_1_bn1_layer_128_1_relu1_0_split
I0808 19:33:40.981714  8310 net.cpp:129] Top shape: 5 256 56 56 (4014080)
I0808 19:33:40.981722  8310 net.cpp:129] Top shape: 5 256 56 56 (4014080)
I0808 19:33:40.981729  8310 net.cpp:137] Memory required for data: 534876180
I0808 19:33:40.981736  8310 layer_factory.hpp:77] Creating layer layer_128_1_conv1
I0808 19:33:40.981752  8310 net.cpp:84] Creating Layer layer_128_1_conv1
I0808 19:33:40.981762  8310 net.cpp:406] layer_128_1_conv1 <- layer_128_1_bn1_layer_128_1_relu1_0_split_0
I0808 19:33:40.981789  8310 net.cpp:380] layer_128_1_conv1 -> layer_128_1_conv1
I0808 19:33:40.984827  8310 net.cpp:122] Setting up layer_128_1_conv1
I0808 19:33:40.984848  8310 net.cpp:129] Top shape: 5 128 56 56 (2007040)
I0808 19:33:40.984856  8310 net.cpp:137] Memory required for data: 542904340
I0808 19:33:40.984866  8310 layer_factory.hpp:77] Creating layer layer_128_1_bn2
I0808 19:33:40.984884  8310 net.cpp:84] Creating Layer layer_128_1_bn2
I0808 19:33:40.984891  8310 net.cpp:406] layer_128_1_bn2 <- layer_128_1_conv1
I0808 19:33:40.984900  8310 net.cpp:367] layer_128_1_bn2 -> layer_128_1_conv1 (in-place)
I0808 19:33:40.985132  8310 net.cpp:122] Setting up layer_128_1_bn2
I0808 19:33:40.985150  8310 net.cpp:129] Top shape: 5 128 56 56 (2007040)
I0808 19:33:40.985158  8310 net.cpp:137] Memory required for data: 550932500
I0808 19:33:40.985170  8310 layer_factory.hpp:77] Creating layer layer_128_1_scale2
I0808 19:33:40.985186  8310 net.cpp:84] Creating Layer layer_128_1_scale2
I0808 19:33:40.985194  8310 net.cpp:406] layer_128_1_scale2 <- layer_128_1_conv1
I0808 19:33:40.985206  8310 net.cpp:367] layer_128_1_scale2 -> layer_128_1_conv1 (in-place)
I0808 19:33:40.985261  8310 layer_factory.hpp:77] Creating layer layer_128_1_scale2
I0808 19:33:40.985409  8310 net.cpp:122] Setting up layer_128_1_scale2
I0808 19:33:40.985426  8310 net.cpp:129] Top shape: 5 128 56 56 (2007040)
I0808 19:33:40.985433  8310 net.cpp:137] Memory required for data: 558960660
I0808 19:33:40.985443  8310 layer_factory.hpp:77] Creating layer layer_128_1_relu2
I0808 19:33:40.985456  8310 net.cpp:84] Creating Layer layer_128_1_relu2
I0808 19:33:40.985466  8310 net.cpp:406] layer_128_1_relu2 <- layer_128_1_conv1
I0808 19:33:40.985474  8310 net.cpp:367] layer_128_1_relu2 -> layer_128_1_conv1 (in-place)
I0808 19:33:40.985940  8310 net.cpp:122] Setting up layer_128_1_relu2
I0808 19:33:40.985961  8310 net.cpp:129] Top shape: 5 128 56 56 (2007040)
I0808 19:33:40.985970  8310 net.cpp:137] Memory required for data: 566988820
I0808 19:33:40.985976  8310 layer_factory.hpp:77] Creating layer layer_128_1_conv2
I0808 19:33:40.985996  8310 net.cpp:84] Creating Layer layer_128_1_conv2
I0808 19:33:40.986006  8310 net.cpp:406] layer_128_1_conv2 <- layer_128_1_conv1
I0808 19:33:40.986019  8310 net.cpp:380] layer_128_1_conv2 -> layer_128_1_conv2
I0808 19:33:40.994002  8310 net.cpp:122] Setting up layer_128_1_conv2
I0808 19:33:40.994040  8310 net.cpp:129] Top shape: 5 128 28 28 (501760)
I0808 19:33:40.994052  8310 net.cpp:137] Memory required for data: 568995860
I0808 19:33:40.994065  8310 layer_factory.hpp:77] Creating layer layer_128_1_bn3
I0808 19:33:40.994079  8310 net.cpp:84] Creating Layer layer_128_1_bn3
I0808 19:33:40.994087  8310 net.cpp:406] layer_128_1_bn3 <- layer_128_1_conv2
I0808 19:33:40.994101  8310 net.cpp:367] layer_128_1_bn3 -> layer_128_1_conv2 (in-place)
I0808 19:33:40.994352  8310 net.cpp:122] Setting up layer_128_1_bn3
I0808 19:33:40.994370  8310 net.cpp:129] Top shape: 5 128 28 28 (501760)
I0808 19:33:40.994379  8310 net.cpp:137] Memory required for data: 571002900
I0808 19:33:40.994395  8310 layer_factory.hpp:77] Creating layer layer_128_1_scale3
I0808 19:33:40.994410  8310 net.cpp:84] Creating Layer layer_128_1_scale3
I0808 19:33:40.994417  8310 net.cpp:406] layer_128_1_scale3 <- layer_128_1_conv2
I0808 19:33:40.994427  8310 net.cpp:367] layer_128_1_scale3 -> layer_128_1_conv2 (in-place)
I0808 19:33:40.994487  8310 layer_factory.hpp:77] Creating layer layer_128_1_scale3
I0808 19:33:40.994639  8310 net.cpp:122] Setting up layer_128_1_scale3
I0808 19:33:40.994657  8310 net.cpp:129] Top shape: 5 128 28 28 (501760)
I0808 19:33:40.994664  8310 net.cpp:137] Memory required for data: 573009940
I0808 19:33:40.994674  8310 layer_factory.hpp:77] Creating layer layer_128_1_relu3
I0808 19:33:40.994689  8310 net.cpp:84] Creating Layer layer_128_1_relu3
I0808 19:33:40.994698  8310 net.cpp:406] layer_128_1_relu3 <- layer_128_1_conv2
I0808 19:33:40.994709  8310 net.cpp:367] layer_128_1_relu3 -> layer_128_1_conv2 (in-place)
I0808 19:33:40.995187  8310 net.cpp:122] Setting up layer_128_1_relu3
I0808 19:33:40.995218  8310 net.cpp:129] Top shape: 5 128 28 28 (501760)
I0808 19:33:40.995227  8310 net.cpp:137] Memory required for data: 575016980
I0808 19:33:40.995234  8310 layer_factory.hpp:77] Creating layer layer_128_1_conv3
I0808 19:33:40.995252  8310 net.cpp:84] Creating Layer layer_128_1_conv3
I0808 19:33:40.995263  8310 net.cpp:406] layer_128_1_conv3 <- layer_128_1_conv2
I0808 19:33:40.995275  8310 net.cpp:380] layer_128_1_conv3 -> layer_128_1_conv3
I0808 19:33:40.999055  8310 net.cpp:122] Setting up layer_128_1_conv3
I0808 19:33:40.999081  8310 net.cpp:129] Top shape: 5 512 28 28 (2007040)
I0808 19:33:40.999091  8310 net.cpp:137] Memory required for data: 583045140
I0808 19:33:40.999101  8310 layer_factory.hpp:77] Creating layer layer_128_1_conv_expand
I0808 19:33:40.999122  8310 net.cpp:84] Creating Layer layer_128_1_conv_expand
I0808 19:33:40.999135  8310 net.cpp:406] layer_128_1_conv_expand <- layer_128_1_bn1_layer_128_1_relu1_0_split_1
I0808 19:33:40.999145  8310 net.cpp:380] layer_128_1_conv_expand -> layer_128_1_conv_expand
I0808 19:33:41.005347  8310 net.cpp:122] Setting up layer_128_1_conv_expand
I0808 19:33:41.005375  8310 net.cpp:129] Top shape: 5 512 28 28 (2007040)
I0808 19:33:41.005385  8310 net.cpp:137] Memory required for data: 591073300
I0808 19:33:41.005398  8310 layer_factory.hpp:77] Creating layer layer_128_1_sum
I0808 19:33:41.005414  8310 net.cpp:84] Creating Layer layer_128_1_sum
I0808 19:33:41.005424  8310 net.cpp:406] layer_128_1_sum <- layer_128_1_conv3
I0808 19:33:41.005434  8310 net.cpp:406] layer_128_1_sum <- layer_128_1_conv_expand
I0808 19:33:41.005445  8310 net.cpp:380] layer_128_1_sum -> layer_128_1_sum
I0808 19:33:41.005488  8310 net.cpp:122] Setting up layer_128_1_sum
I0808 19:33:41.005506  8310 net.cpp:129] Top shape: 5 512 28 28 (2007040)
I0808 19:33:41.005512  8310 net.cpp:137] Memory required for data: 599101460
I0808 19:33:41.005520  8310 layer_factory.hpp:77] Creating layer layer_128_1_sum_layer_128_1_sum_0_split
I0808 19:33:41.005535  8310 net.cpp:84] Creating Layer layer_128_1_sum_layer_128_1_sum_0_split
I0808 19:33:41.005547  8310 net.cpp:406] layer_128_1_sum_layer_128_1_sum_0_split <- layer_128_1_sum
I0808 19:33:41.005556  8310 net.cpp:380] layer_128_1_sum_layer_128_1_sum_0_split -> layer_128_1_sum_layer_128_1_sum_0_split_0
I0808 19:33:41.005569  8310 net.cpp:380] layer_128_1_sum_layer_128_1_sum_0_split -> layer_128_1_sum_layer_128_1_sum_0_split_1
I0808 19:33:41.005623  8310 net.cpp:122] Setting up layer_128_1_sum_layer_128_1_sum_0_split
I0808 19:33:41.005640  8310 net.cpp:129] Top shape: 5 512 28 28 (2007040)
I0808 19:33:41.005648  8310 net.cpp:129] Top shape: 5 512 28 28 (2007040)
I0808 19:33:41.005656  8310 net.cpp:137] Memory required for data: 615157780
I0808 19:33:41.005662  8310 layer_factory.hpp:77] Creating layer layer_128_2_bn1
I0808 19:33:41.005686  8310 net.cpp:84] Creating Layer layer_128_2_bn1
I0808 19:33:41.005697  8310 net.cpp:406] layer_128_2_bn1 <- layer_128_1_sum_layer_128_1_sum_0_split_0
I0808 19:33:41.005707  8310 net.cpp:380] layer_128_2_bn1 -> layer_128_2_bn1
I0808 19:33:41.005952  8310 net.cpp:122] Setting up layer_128_2_bn1
I0808 19:33:41.005970  8310 net.cpp:129] Top shape: 5 512 28 28 (2007040)
I0808 19:33:41.005977  8310 net.cpp:137] Memory required for data: 623185940
I0808 19:33:41.005990  8310 layer_factory.hpp:77] Creating layer layer_128_2_scale1
I0808 19:33:41.006005  8310 net.cpp:84] Creating Layer layer_128_2_scale1
I0808 19:33:41.006012  8310 net.cpp:406] layer_128_2_scale1 <- layer_128_2_bn1
I0808 19:33:41.006021  8310 net.cpp:367] layer_128_2_scale1 -> layer_128_2_bn1 (in-place)
I0808 19:33:41.006083  8310 layer_factory.hpp:77] Creating layer layer_128_2_scale1
I0808 19:33:41.006233  8310 net.cpp:122] Setting up layer_128_2_scale1
I0808 19:33:41.006252  8310 net.cpp:129] Top shape: 5 512 28 28 (2007040)
I0808 19:33:41.006258  8310 net.cpp:137] Memory required for data: 631214100
I0808 19:33:41.006271  8310 layer_factory.hpp:77] Creating layer layer_128_2_relu1
I0808 19:33:41.006291  8310 net.cpp:84] Creating Layer layer_128_2_relu1
I0808 19:33:41.006309  8310 net.cpp:406] layer_128_2_relu1 <- layer_128_2_bn1
I0808 19:33:41.006320  8310 net.cpp:367] layer_128_2_relu1 -> layer_128_2_bn1 (in-place)
I0808 19:33:41.006534  8310 net.cpp:122] Setting up layer_128_2_relu1
I0808 19:33:41.006556  8310 net.cpp:129] Top shape: 5 512 28 28 (2007040)
I0808 19:33:41.006563  8310 net.cpp:137] Memory required for data: 639242260
I0808 19:33:41.006570  8310 layer_factory.hpp:77] Creating layer layer_128_2_conv1
I0808 19:33:41.006588  8310 net.cpp:84] Creating Layer layer_128_2_conv1
I0808 19:33:41.006598  8310 net.cpp:406] layer_128_2_conv1 <- layer_128_2_bn1
I0808 19:33:41.006609  8310 net.cpp:380] layer_128_2_conv1 -> layer_128_2_conv1
I0808 19:33:41.010457  8310 net.cpp:122] Setting up layer_128_2_conv1
I0808 19:33:41.010486  8310 net.cpp:129] Top shape: 5 128 28 28 (501760)
I0808 19:33:41.010495  8310 net.cpp:137] Memory required for data: 641249300
I0808 19:33:41.010505  8310 layer_factory.hpp:77] Creating layer layer_128_2_bn2
I0808 19:33:41.010520  8310 net.cpp:84] Creating Layer layer_128_2_bn2
I0808 19:33:41.010530  8310 net.cpp:406] layer_128_2_bn2 <- layer_128_2_conv1
I0808 19:33:41.010540  8310 net.cpp:367] layer_128_2_bn2 -> layer_128_2_conv1 (in-place)
I0808 19:33:41.010797  8310 net.cpp:122] Setting up layer_128_2_bn2
I0808 19:33:41.010815  8310 net.cpp:129] Top shape: 5 128 28 28 (501760)
I0808 19:33:41.010823  8310 net.cpp:137] Memory required for data: 643256340
I0808 19:33:41.010838  8310 layer_factory.hpp:77] Creating layer layer_128_2_scale2
I0808 19:33:41.010854  8310 net.cpp:84] Creating Layer layer_128_2_scale2
I0808 19:33:41.010861  8310 net.cpp:406] layer_128_2_scale2 <- layer_128_2_conv1
I0808 19:33:41.010874  8310 net.cpp:367] layer_128_2_scale2 -> layer_128_2_conv1 (in-place)
I0808 19:33:41.010931  8310 layer_factory.hpp:77] Creating layer layer_128_2_scale2
I0808 19:33:41.011088  8310 net.cpp:122] Setting up layer_128_2_scale2
I0808 19:33:41.011107  8310 net.cpp:129] Top shape: 5 128 28 28 (501760)
I0808 19:33:41.011116  8310 net.cpp:137] Memory required for data: 645263380
I0808 19:33:41.011126  8310 layer_factory.hpp:77] Creating layer layer_128_2_relu2
I0808 19:33:41.011137  8310 net.cpp:84] Creating Layer layer_128_2_relu2
I0808 19:33:41.011143  8310 net.cpp:406] layer_128_2_relu2 <- layer_128_2_conv1
I0808 19:33:41.011152  8310 net.cpp:367] layer_128_2_relu2 -> layer_128_2_conv1 (in-place)
I0808 19:33:41.011654  8310 net.cpp:122] Setting up layer_128_2_relu2
I0808 19:33:41.011677  8310 net.cpp:129] Top shape: 5 128 28 28 (501760)
I0808 19:33:41.011684  8310 net.cpp:137] Memory required for data: 647270420
I0808 19:33:41.011692  8310 layer_factory.hpp:77] Creating layer layer_128_2_conv2
I0808 19:33:41.011710  8310 net.cpp:84] Creating Layer layer_128_2_conv2
I0808 19:33:41.011721  8310 net.cpp:406] layer_128_2_conv2 <- layer_128_2_conv1
I0808 19:33:41.011735  8310 net.cpp:380] layer_128_2_conv2 -> layer_128_2_conv2
I0808 19:33:41.018628  8310 net.cpp:122] Setting up layer_128_2_conv2
I0808 19:33:41.018656  8310 net.cpp:129] Top shape: 5 128 28 28 (501760)
I0808 19:33:41.018664  8310 net.cpp:137] Memory required for data: 649277460
I0808 19:33:41.018676  8310 layer_factory.hpp:77] Creating layer layer_128_2_bn3
I0808 19:33:41.018694  8310 net.cpp:84] Creating Layer layer_128_2_bn3
I0808 19:33:41.018703  8310 net.cpp:406] layer_128_2_bn3 <- layer_128_2_conv2
I0808 19:33:41.018715  8310 net.cpp:367] layer_128_2_bn3 -> layer_128_2_conv2 (in-place)
I0808 19:33:41.018957  8310 net.cpp:122] Setting up layer_128_2_bn3
I0808 19:33:41.018975  8310 net.cpp:129] Top shape: 5 128 28 28 (501760)
I0808 19:33:41.018982  8310 net.cpp:137] Memory required for data: 651284500
I0808 19:33:41.018997  8310 layer_factory.hpp:77] Creating layer layer_128_2_scale3
I0808 19:33:41.019013  8310 net.cpp:84] Creating Layer layer_128_2_scale3
I0808 19:33:41.019022  8310 net.cpp:406] layer_128_2_scale3 <- layer_128_2_conv2
I0808 19:33:41.019032  8310 net.cpp:367] layer_128_2_scale3 -> layer_128_2_conv2 (in-place)
I0808 19:33:41.019100  8310 layer_factory.hpp:77] Creating layer layer_128_2_scale3
I0808 19:33:41.019273  8310 net.cpp:122] Setting up layer_128_2_scale3
I0808 19:33:41.019291  8310 net.cpp:129] Top shape: 5 128 28 28 (501760)
I0808 19:33:41.019299  8310 net.cpp:137] Memory required for data: 653291540
I0808 19:33:41.019315  8310 layer_factory.hpp:77] Creating layer layer_128_2_relu3
I0808 19:33:41.019326  8310 net.cpp:84] Creating Layer layer_128_2_relu3
I0808 19:33:41.019336  8310 net.cpp:406] layer_128_2_relu3 <- layer_128_2_conv2
I0808 19:33:41.019345  8310 net.cpp:367] layer_128_2_relu3 -> layer_128_2_conv2 (in-place)
I0808 19:33:41.019568  8310 net.cpp:122] Setting up layer_128_2_relu3
I0808 19:33:41.019587  8310 net.cpp:129] Top shape: 5 128 28 28 (501760)
I0808 19:33:41.019594  8310 net.cpp:137] Memory required for data: 655298580
I0808 19:33:41.019601  8310 layer_factory.hpp:77] Creating layer layer_128_2_conv3
I0808 19:33:41.019621  8310 net.cpp:84] Creating Layer layer_128_2_conv3
I0808 19:33:41.019631  8310 net.cpp:406] layer_128_2_conv3 <- layer_128_2_conv2
I0808 19:33:41.019644  8310 net.cpp:380] layer_128_2_conv3 -> layer_128_2_conv3
I0808 19:33:41.023398  8310 net.cpp:122] Setting up layer_128_2_conv3
I0808 19:33:41.023435  8310 net.cpp:129] Top shape: 5 512 28 28 (2007040)
I0808 19:33:41.023444  8310 net.cpp:137] Memory required for data: 663326740
I0808 19:33:41.023454  8310 layer_factory.hpp:77] Creating layer layer_128_2_sum
I0808 19:33:41.023470  8310 net.cpp:84] Creating Layer layer_128_2_sum
I0808 19:33:41.023478  8310 net.cpp:406] layer_128_2_sum <- layer_128_2_conv3
I0808 19:33:41.023488  8310 net.cpp:406] layer_128_2_sum <- layer_128_1_sum_layer_128_1_sum_0_split_1
I0808 19:33:41.023496  8310 net.cpp:380] layer_128_2_sum -> layer_128_2_sum
I0808 19:33:41.023540  8310 net.cpp:122] Setting up layer_128_2_sum
I0808 19:33:41.023555  8310 net.cpp:129] Top shape: 5 512 28 28 (2007040)
I0808 19:33:41.023563  8310 net.cpp:137] Memory required for data: 671354900
I0808 19:33:41.023573  8310 layer_factory.hpp:77] Creating layer layer_128_2_sum_layer_128_2_sum_0_split
I0808 19:33:41.023587  8310 net.cpp:84] Creating Layer layer_128_2_sum_layer_128_2_sum_0_split
I0808 19:33:41.023594  8310 net.cpp:406] layer_128_2_sum_layer_128_2_sum_0_split <- layer_128_2_sum
I0808 19:33:41.023608  8310 net.cpp:380] layer_128_2_sum_layer_128_2_sum_0_split -> layer_128_2_sum_layer_128_2_sum_0_split_0
I0808 19:33:41.023620  8310 net.cpp:380] layer_128_2_sum_layer_128_2_sum_0_split -> layer_128_2_sum_layer_128_2_sum_0_split_1
I0808 19:33:41.023674  8310 net.cpp:122] Setting up layer_128_2_sum_layer_128_2_sum_0_split
I0808 19:33:41.023689  8310 net.cpp:129] Top shape: 5 512 28 28 (2007040)
I0808 19:33:41.023699  8310 net.cpp:129] Top shape: 5 512 28 28 (2007040)
I0808 19:33:41.023705  8310 net.cpp:137] Memory required for data: 687411220
I0808 19:33:41.023711  8310 layer_factory.hpp:77] Creating layer layer_128_3_bn1
I0808 19:33:41.023725  8310 net.cpp:84] Creating Layer layer_128_3_bn1
I0808 19:33:41.023735  8310 net.cpp:406] layer_128_3_bn1 <- layer_128_2_sum_layer_128_2_sum_0_split_0
I0808 19:33:41.023743  8310 net.cpp:380] layer_128_3_bn1 -> layer_128_3_bn1
I0808 19:33:41.024011  8310 net.cpp:122] Setting up layer_128_3_bn1
I0808 19:33:41.024029  8310 net.cpp:129] Top shape: 5 512 28 28 (2007040)
I0808 19:33:41.024037  8310 net.cpp:137] Memory required for data: 695439380
I0808 19:33:41.024061  8310 layer_factory.hpp:77] Creating layer layer_128_3_scale1
I0808 19:33:41.024077  8310 net.cpp:84] Creating Layer layer_128_3_scale1
I0808 19:33:41.024085  8310 net.cpp:406] layer_128_3_scale1 <- layer_128_3_bn1
I0808 19:33:41.024094  8310 net.cpp:367] layer_128_3_scale1 -> layer_128_3_bn1 (in-place)
I0808 19:33:41.024159  8310 layer_factory.hpp:77] Creating layer layer_128_3_scale1
I0808 19:33:41.024330  8310 net.cpp:122] Setting up layer_128_3_scale1
I0808 19:33:41.024349  8310 net.cpp:129] Top shape: 5 512 28 28 (2007040)
I0808 19:33:41.024356  8310 net.cpp:137] Memory required for data: 703467540
I0808 19:33:41.024389  8310 layer_factory.hpp:77] Creating layer layer_128_3_relu1
I0808 19:33:41.024412  8310 net.cpp:84] Creating Layer layer_128_3_relu1
I0808 19:33:41.024421  8310 net.cpp:406] layer_128_3_relu1 <- layer_128_3_bn1
I0808 19:33:41.024432  8310 net.cpp:367] layer_128_3_relu1 -> layer_128_3_bn1 (in-place)
I0808 19:33:41.024992  8310 net.cpp:122] Setting up layer_128_3_relu1
I0808 19:33:41.025014  8310 net.cpp:129] Top shape: 5 512 28 28 (2007040)
I0808 19:33:41.025023  8310 net.cpp:137] Memory required for data: 711495700
I0808 19:33:41.025032  8310 layer_factory.hpp:77] Creating layer layer_128_3_conv1
I0808 19:33:41.025050  8310 net.cpp:84] Creating Layer layer_128_3_conv1
I0808 19:33:41.025060  8310 net.cpp:406] layer_128_3_conv1 <- layer_128_3_bn1
I0808 19:33:41.025074  8310 net.cpp:380] layer_128_3_conv1 -> layer_128_3_conv1
I0808 19:33:41.029899  8310 net.cpp:122] Setting up layer_128_3_conv1
I0808 19:33:41.029979  8310 net.cpp:129] Top shape: 5 128 28 28 (501760)
I0808 19:33:41.029990  8310 net.cpp:137] Memory required for data: 713502740
I0808 19:33:41.030007  8310 layer_factory.hpp:77] Creating layer layer_128_3_bn2
I0808 19:33:41.030040  8310 net.cpp:84] Creating Layer layer_128_3_bn2
I0808 19:33:41.030053  8310 net.cpp:406] layer_128_3_bn2 <- layer_128_3_conv1
I0808 19:33:41.030068  8310 net.cpp:367] layer_128_3_bn2 -> layer_128_3_conv1 (in-place)
I0808 19:33:41.030351  8310 net.cpp:122] Setting up layer_128_3_bn2
I0808 19:33:41.030369  8310 net.cpp:129] Top shape: 5 128 28 28 (501760)
I0808 19:33:41.030376  8310 net.cpp:137] Memory required for data: 715509780
I0808 19:33:41.030390  8310 layer_factory.hpp:77] Creating layer layer_128_3_scale2
I0808 19:33:41.030411  8310 net.cpp:84] Creating Layer layer_128_3_scale2
I0808 19:33:41.030422  8310 net.cpp:406] layer_128_3_scale2 <- layer_128_3_conv1
I0808 19:33:41.030432  8310 net.cpp:367] layer_128_3_scale2 -> layer_128_3_conv1 (in-place)
I0808 19:33:41.030511  8310 layer_factory.hpp:77] Creating layer layer_128_3_scale2
I0808 19:33:41.030678  8310 net.cpp:122] Setting up layer_128_3_scale2
I0808 19:33:41.030694  8310 net.cpp:129] Top shape: 5 128 28 28 (501760)
I0808 19:33:41.030702  8310 net.cpp:137] Memory required for data: 717516820
I0808 19:33:41.030715  8310 layer_factory.hpp:77] Creating layer layer_128_3_relu2
I0808 19:33:41.030735  8310 net.cpp:84] Creating Layer layer_128_3_relu2
I0808 19:33:41.030745  8310 net.cpp:406] layer_128_3_relu2 <- layer_128_3_conv1
I0808 19:33:41.030753  8310 net.cpp:367] layer_128_3_relu2 -> layer_128_3_conv1 (in-place)
I0808 19:33:41.031268  8310 net.cpp:122] Setting up layer_128_3_relu2
I0808 19:33:41.031288  8310 net.cpp:129] Top shape: 5 128 28 28 (501760)
I0808 19:33:41.031297  8310 net.cpp:137] Memory required for data: 719523860
I0808 19:33:41.031311  8310 layer_factory.hpp:77] Creating layer layer_128_3_conv2
I0808 19:33:41.031340  8310 net.cpp:84] Creating Layer layer_128_3_conv2
I0808 19:33:41.031349  8310 net.cpp:406] layer_128_3_conv2 <- layer_128_3_conv1
I0808 19:33:41.031361  8310 net.cpp:380] layer_128_3_conv2 -> layer_128_3_conv2
I0808 19:33:41.039019  8310 net.cpp:122] Setting up layer_128_3_conv2
I0808 19:33:41.039104  8310 net.cpp:129] Top shape: 5 128 28 28 (501760)
I0808 19:33:41.039114  8310 net.cpp:137] Memory required for data: 721530900
I0808 19:33:41.039131  8310 layer_factory.hpp:77] Creating layer layer_128_3_bn3
I0808 19:33:41.039155  8310 net.cpp:84] Creating Layer layer_128_3_bn3
I0808 19:33:41.039170  8310 net.cpp:406] layer_128_3_bn3 <- layer_128_3_conv2
I0808 19:33:41.039187  8310 net.cpp:367] layer_128_3_bn3 -> layer_128_3_conv2 (in-place)
I0808 19:33:41.039489  8310 net.cpp:122] Setting up layer_128_3_bn3
I0808 19:33:41.039508  8310 net.cpp:129] Top shape: 5 128 28 28 (501760)
I0808 19:33:41.039515  8310 net.cpp:137] Memory required for data: 723537940
I0808 19:33:41.039528  8310 layer_factory.hpp:77] Creating layer layer_128_3_scale3
I0808 19:33:41.039546  8310 net.cpp:84] Creating Layer layer_128_3_scale3
I0808 19:33:41.039556  8310 net.cpp:406] layer_128_3_scale3 <- layer_128_3_conv2
I0808 19:33:41.039578  8310 net.cpp:367] layer_128_3_scale3 -> layer_128_3_conv2 (in-place)
I0808 19:33:41.039669  8310 layer_factory.hpp:77] Creating layer layer_128_3_scale3
I0808 19:33:41.039839  8310 net.cpp:122] Setting up layer_128_3_scale3
I0808 19:33:41.039856  8310 net.cpp:129] Top shape: 5 128 28 28 (501760)
I0808 19:33:41.039863  8310 net.cpp:137] Memory required for data: 725544980
I0808 19:33:41.039873  8310 layer_factory.hpp:77] Creating layer layer_128_3_relu3
I0808 19:33:41.039896  8310 net.cpp:84] Creating Layer layer_128_3_relu3
I0808 19:33:41.039904  8310 net.cpp:406] layer_128_3_relu3 <- layer_128_3_conv2
I0808 19:33:41.039916  8310 net.cpp:367] layer_128_3_relu3 -> layer_128_3_conv2 (in-place)
I0808 19:33:41.040401  8310 net.cpp:122] Setting up layer_128_3_relu3
I0808 19:33:41.040423  8310 net.cpp:129] Top shape: 5 128 28 28 (501760)
I0808 19:33:41.040431  8310 net.cpp:137] Memory required for data: 727552020
I0808 19:33:41.040439  8310 layer_factory.hpp:77] Creating layer layer_128_3_conv3
I0808 19:33:41.040460  8310 net.cpp:84] Creating Layer layer_128_3_conv3
I0808 19:33:41.040470  8310 net.cpp:406] layer_128_3_conv3 <- layer_128_3_conv2
I0808 19:33:41.040484  8310 net.cpp:380] layer_128_3_conv3 -> layer_128_3_conv3
I0808 19:33:41.044625  8310 net.cpp:122] Setting up layer_128_3_conv3
I0808 19:33:41.044692  8310 net.cpp:129] Top shape: 5 512 28 28 (2007040)
I0808 19:33:41.044700  8310 net.cpp:137] Memory required for data: 735580180
I0808 19:33:41.044718  8310 layer_factory.hpp:77] Creating layer layer_128_3_sum
I0808 19:33:41.044739  8310 net.cpp:84] Creating Layer layer_128_3_sum
I0808 19:33:41.044751  8310 net.cpp:406] layer_128_3_sum <- layer_128_3_conv3
I0808 19:33:41.044765  8310 net.cpp:406] layer_128_3_sum <- layer_128_2_sum_layer_128_2_sum_0_split_1
I0808 19:33:41.044780  8310 net.cpp:380] layer_128_3_sum -> layer_128_3_sum
I0808 19:33:41.044833  8310 net.cpp:122] Setting up layer_128_3_sum
I0808 19:33:41.044849  8310 net.cpp:129] Top shape: 5 512 28 28 (2007040)
I0808 19:33:41.044857  8310 net.cpp:137] Memory required for data: 743608340
I0808 19:33:41.044865  8310 layer_factory.hpp:77] Creating layer layer_128_3_sum_layer_128_3_sum_0_split
I0808 19:33:41.044878  8310 net.cpp:84] Creating Layer layer_128_3_sum_layer_128_3_sum_0_split
I0808 19:33:41.044888  8310 net.cpp:406] layer_128_3_sum_layer_128_3_sum_0_split <- layer_128_3_sum
I0808 19:33:41.044901  8310 net.cpp:380] layer_128_3_sum_layer_128_3_sum_0_split -> layer_128_3_sum_layer_128_3_sum_0_split_0
I0808 19:33:41.044915  8310 net.cpp:380] layer_128_3_sum_layer_128_3_sum_0_split -> layer_128_3_sum_layer_128_3_sum_0_split_1
I0808 19:33:41.044973  8310 net.cpp:122] Setting up layer_128_3_sum_layer_128_3_sum_0_split
I0808 19:33:41.044989  8310 net.cpp:129] Top shape: 5 512 28 28 (2007040)
I0808 19:33:41.044999  8310 net.cpp:129] Top shape: 5 512 28 28 (2007040)
I0808 19:33:41.045006  8310 net.cpp:137] Memory required for data: 759664660
I0808 19:33:41.045018  8310 layer_factory.hpp:77] Creating layer layer_128_4_bn1
I0808 19:33:41.045038  8310 net.cpp:84] Creating Layer layer_128_4_bn1
I0808 19:33:41.045047  8310 net.cpp:406] layer_128_4_bn1 <- layer_128_3_sum_layer_128_3_sum_0_split_0
I0808 19:33:41.045055  8310 net.cpp:380] layer_128_4_bn1 -> layer_128_4_bn1
I0808 19:33:41.045354  8310 net.cpp:122] Setting up layer_128_4_bn1
I0808 19:33:41.045372  8310 net.cpp:129] Top shape: 5 512 28 28 (2007040)
I0808 19:33:41.045380  8310 net.cpp:137] Memory required for data: 767692820
I0808 19:33:41.045393  8310 layer_factory.hpp:77] Creating layer layer_128_4_scale1
I0808 19:33:41.045409  8310 net.cpp:84] Creating Layer layer_128_4_scale1
I0808 19:33:41.045418  8310 net.cpp:406] layer_128_4_scale1 <- layer_128_4_bn1
I0808 19:33:41.045428  8310 net.cpp:367] layer_128_4_scale1 -> layer_128_4_bn1 (in-place)
I0808 19:33:41.045511  8310 layer_factory.hpp:77] Creating layer layer_128_4_scale1
I0808 19:33:41.045683  8310 net.cpp:122] Setting up layer_128_4_scale1
I0808 19:33:41.045701  8310 net.cpp:129] Top shape: 5 512 28 28 (2007040)
I0808 19:33:41.045722  8310 net.cpp:137] Memory required for data: 775720980
I0808 19:33:41.045745  8310 layer_factory.hpp:77] Creating layer layer_128_4_relu1
I0808 19:33:41.045758  8310 net.cpp:84] Creating Layer layer_128_4_relu1
I0808 19:33:41.045765  8310 net.cpp:406] layer_128_4_relu1 <- layer_128_4_bn1
I0808 19:33:41.045776  8310 net.cpp:367] layer_128_4_relu1 -> layer_128_4_bn1 (in-place)
I0808 19:33:41.046288  8310 net.cpp:122] Setting up layer_128_4_relu1
I0808 19:33:41.046308  8310 net.cpp:129] Top shape: 5 512 28 28 (2007040)
I0808 19:33:41.046316  8310 net.cpp:137] Memory required for data: 783749140
I0808 19:33:41.046324  8310 layer_factory.hpp:77] Creating layer layer_128_4_conv1
I0808 19:33:41.046349  8310 net.cpp:84] Creating Layer layer_128_4_conv1
I0808 19:33:41.046360  8310 net.cpp:406] layer_128_4_conv1 <- layer_128_4_bn1
I0808 19:33:41.046373  8310 net.cpp:380] layer_128_4_conv1 -> layer_128_4_conv1
I0808 19:33:41.050217  8310 net.cpp:122] Setting up layer_128_4_conv1
I0808 19:33:41.050269  8310 net.cpp:129] Top shape: 5 128 28 28 (501760)
I0808 19:33:41.050278  8310 net.cpp:137] Memory required for data: 785756180
I0808 19:33:41.050298  8310 layer_factory.hpp:77] Creating layer layer_128_4_bn2
I0808 19:33:41.050318  8310 net.cpp:84] Creating Layer layer_128_4_bn2
I0808 19:33:41.050333  8310 net.cpp:406] layer_128_4_bn2 <- layer_128_4_conv1
I0808 19:33:41.050346  8310 net.cpp:367] layer_128_4_bn2 -> layer_128_4_conv1 (in-place)
I0808 19:33:41.050631  8310 net.cpp:122] Setting up layer_128_4_bn2
I0808 19:33:41.050649  8310 net.cpp:129] Top shape: 5 128 28 28 (501760)
I0808 19:33:41.050657  8310 net.cpp:137] Memory required for data: 787763220
I0808 19:33:41.050670  8310 layer_factory.hpp:77] Creating layer layer_128_4_scale2
I0808 19:33:41.050686  8310 net.cpp:84] Creating Layer layer_128_4_scale2
I0808 19:33:41.050694  8310 net.cpp:406] layer_128_4_scale2 <- layer_128_4_conv1
I0808 19:33:41.050704  8310 net.cpp:367] layer_128_4_scale2 -> layer_128_4_conv1 (in-place)
I0808 19:33:41.050781  8310 layer_factory.hpp:77] Creating layer layer_128_4_scale2
I0808 19:33:41.050952  8310 net.cpp:122] Setting up layer_128_4_scale2
I0808 19:33:41.050969  8310 net.cpp:129] Top shape: 5 128 28 28 (501760)
I0808 19:33:41.050977  8310 net.cpp:137] Memory required for data: 789770260
I0808 19:33:41.050988  8310 layer_factory.hpp:77] Creating layer layer_128_4_relu2
I0808 19:33:41.051005  8310 net.cpp:84] Creating Layer layer_128_4_relu2
I0808 19:33:41.051017  8310 net.cpp:406] layer_128_4_relu2 <- layer_128_4_conv1
I0808 19:33:41.051024  8310 net.cpp:367] layer_128_4_relu2 -> layer_128_4_conv1 (in-place)
I0808 19:33:41.051259  8310 net.cpp:122] Setting up layer_128_4_relu2
I0808 19:33:41.051278  8310 net.cpp:129] Top shape: 5 128 28 28 (501760)
I0808 19:33:41.051286  8310 net.cpp:137] Memory required for data: 791777300
I0808 19:33:41.051295  8310 layer_factory.hpp:77] Creating layer layer_128_4_conv2
I0808 19:33:41.051340  8310 net.cpp:84] Creating Layer layer_128_4_conv2
I0808 19:33:41.051354  8310 net.cpp:406] layer_128_4_conv2 <- layer_128_4_conv1
I0808 19:33:41.051367  8310 net.cpp:380] layer_128_4_conv2 -> layer_128_4_conv2
I0808 19:33:41.059175  8310 net.cpp:122] Setting up layer_128_4_conv2
I0808 19:33:41.059258  8310 net.cpp:129] Top shape: 5 128 28 28 (501760)
I0808 19:33:41.059268  8310 net.cpp:137] Memory required for data: 793784340
I0808 19:33:41.059356  8310 layer_factory.hpp:77] Creating layer layer_128_4_bn3
I0808 19:33:41.059386  8310 net.cpp:84] Creating Layer layer_128_4_bn3
I0808 19:33:41.059401  8310 net.cpp:406] layer_128_4_bn3 <- layer_128_4_conv2
I0808 19:33:41.059417  8310 net.cpp:367] layer_128_4_bn3 -> layer_128_4_conv2 (in-place)
I0808 19:33:41.059744  8310 net.cpp:122] Setting up layer_128_4_bn3
I0808 19:33:41.059762  8310 net.cpp:129] Top shape: 5 128 28 28 (501760)
I0808 19:33:41.059770  8310 net.cpp:137] Memory required for data: 795791380
I0808 19:33:41.059785  8310 layer_factory.hpp:77] Creating layer layer_128_4_scale3
I0808 19:33:41.059814  8310 net.cpp:84] Creating Layer layer_128_4_scale3
I0808 19:33:41.059837  8310 net.cpp:406] layer_128_4_scale3 <- layer_128_4_conv2
I0808 19:33:41.059860  8310 net.cpp:367] layer_128_4_scale3 -> layer_128_4_conv2 (in-place)
I0808 19:33:41.059944  8310 layer_factory.hpp:77] Creating layer layer_128_4_scale3
I0808 19:33:41.060117  8310 net.cpp:122] Setting up layer_128_4_scale3
I0808 19:33:41.060133  8310 net.cpp:129] Top shape: 5 128 28 28 (501760)
I0808 19:33:41.060142  8310 net.cpp:137] Memory required for data: 797798420
I0808 19:33:41.060151  8310 layer_factory.hpp:77] Creating layer layer_128_4_relu3
I0808 19:33:41.060166  8310 net.cpp:84] Creating Layer layer_128_4_relu3
I0808 19:33:41.060173  8310 net.cpp:406] layer_128_4_relu3 <- layer_128_4_conv2
I0808 19:33:41.060187  8310 net.cpp:367] layer_128_4_relu3 -> layer_128_4_conv2 (in-place)
I0808 19:33:41.060892  8310 net.cpp:122] Setting up layer_128_4_relu3
I0808 19:33:41.060930  8310 net.cpp:129] Top shape: 5 128 28 28 (501760)
I0808 19:33:41.060940  8310 net.cpp:137] Memory required for data: 799805460
I0808 19:33:41.060948  8310 layer_factory.hpp:77] Creating layer layer_128_4_conv3
I0808 19:33:41.060976  8310 net.cpp:84] Creating Layer layer_128_4_conv3
I0808 19:33:41.060987  8310 net.cpp:406] layer_128_4_conv3 <- layer_128_4_conv2
I0808 19:33:41.061002  8310 net.cpp:380] layer_128_4_conv3 -> layer_128_4_conv3
I0808 19:33:41.065346  8310 net.cpp:122] Setting up layer_128_4_conv3
I0808 19:33:41.065423  8310 net.cpp:129] Top shape: 5 512 28 28 (2007040)
I0808 19:33:41.065433  8310 net.cpp:137] Memory required for data: 807833620
I0808 19:33:41.065450  8310 layer_factory.hpp:77] Creating layer layer_128_4_sum
I0808 19:33:41.065476  8310 net.cpp:84] Creating Layer layer_128_4_sum
I0808 19:33:41.065490  8310 net.cpp:406] layer_128_4_sum <- layer_128_4_conv3
I0808 19:33:41.065502  8310 net.cpp:406] layer_128_4_sum <- layer_128_3_sum_layer_128_3_sum_0_split_1
I0808 19:33:41.065515  8310 net.cpp:380] layer_128_4_sum -> layer_128_4_sum
I0808 19:33:41.065570  8310 net.cpp:122] Setting up layer_128_4_sum
I0808 19:33:41.065587  8310 net.cpp:129] Top shape: 5 512 28 28 (2007040)
I0808 19:33:41.065594  8310 net.cpp:137] Memory required for data: 815861780
I0808 19:33:41.065603  8310 layer_factory.hpp:77] Creating layer layer_256_1_bn1
I0808 19:33:41.065618  8310 net.cpp:84] Creating Layer layer_256_1_bn1
I0808 19:33:41.065627  8310 net.cpp:406] layer_256_1_bn1 <- layer_128_4_sum
I0808 19:33:41.065637  8310 net.cpp:380] layer_256_1_bn1 -> layer_256_1_bn1
I0808 19:33:41.065938  8310 net.cpp:122] Setting up layer_256_1_bn1
I0808 19:33:41.065958  8310 net.cpp:129] Top shape: 5 512 28 28 (2007040)
I0808 19:33:41.065964  8310 net.cpp:137] Memory required for data: 823889940
I0808 19:33:41.065979  8310 layer_factory.hpp:77] Creating layer layer_256_1_scale1
I0808 19:33:41.065994  8310 net.cpp:84] Creating Layer layer_256_1_scale1
I0808 19:33:41.066004  8310 net.cpp:406] layer_256_1_scale1 <- layer_256_1_bn1
I0808 19:33:41.066016  8310 net.cpp:367] layer_256_1_scale1 -> layer_256_1_bn1 (in-place)
I0808 19:33:41.066100  8310 layer_factory.hpp:77] Creating layer layer_256_1_scale1
I0808 19:33:41.066270  8310 net.cpp:122] Setting up layer_256_1_scale1
I0808 19:33:41.066288  8310 net.cpp:129] Top shape: 5 512 28 28 (2007040)
I0808 19:33:41.066295  8310 net.cpp:137] Memory required for data: 831918100
I0808 19:33:41.066308  8310 layer_factory.hpp:77] Creating layer layer_256_1_relu1
I0808 19:33:41.066325  8310 net.cpp:84] Creating Layer layer_256_1_relu1
I0808 19:33:41.066335  8310 net.cpp:406] layer_256_1_relu1 <- layer_256_1_bn1
I0808 19:33:41.066344  8310 net.cpp:367] layer_256_1_relu1 -> layer_256_1_bn1 (in-place)
I0808 19:33:41.066962  8310 net.cpp:122] Setting up layer_256_1_relu1
I0808 19:33:41.066987  8310 net.cpp:129] Top shape: 5 512 28 28 (2007040)
I0808 19:33:41.066994  8310 net.cpp:137] Memory required for data: 839946260
I0808 19:33:41.067003  8310 layer_factory.hpp:77] Creating layer layer_256_1_bn1_layer_256_1_relu1_0_split
I0808 19:33:41.067013  8310 net.cpp:84] Creating Layer layer_256_1_bn1_layer_256_1_relu1_0_split
I0808 19:33:41.067035  8310 net.cpp:406] layer_256_1_bn1_layer_256_1_relu1_0_split <- layer_256_1_bn1
I0808 19:33:41.067057  8310 net.cpp:380] layer_256_1_bn1_layer_256_1_relu1_0_split -> layer_256_1_bn1_layer_256_1_relu1_0_split_0
I0808 19:33:41.067071  8310 net.cpp:380] layer_256_1_bn1_layer_256_1_relu1_0_split -> layer_256_1_bn1_layer_256_1_relu1_0_split_1
I0808 19:33:41.067140  8310 net.cpp:122] Setting up layer_256_1_bn1_layer_256_1_relu1_0_split
I0808 19:33:41.067157  8310 net.cpp:129] Top shape: 5 512 28 28 (2007040)
I0808 19:33:41.067165  8310 net.cpp:129] Top shape: 5 512 28 28 (2007040)
I0808 19:33:41.067173  8310 net.cpp:137] Memory required for data: 856002580
I0808 19:33:41.067180  8310 layer_factory.hpp:77] Creating layer layer_256_1_conv1
I0808 19:33:41.067200  8310 net.cpp:84] Creating Layer layer_256_1_conv1
I0808 19:33:41.067210  8310 net.cpp:406] layer_256_1_conv1 <- layer_256_1_bn1_layer_256_1_relu1_0_split_0
I0808 19:33:41.067224  8310 net.cpp:380] layer_256_1_conv1 -> layer_256_1_conv1
I0808 19:33:41.073478  8310 net.cpp:122] Setting up layer_256_1_conv1
I0808 19:33:41.073550  8310 net.cpp:129] Top shape: 5 256 28 28 (1003520)
I0808 19:33:41.073562  8310 net.cpp:137] Memory required for data: 860016660
I0808 19:33:41.073580  8310 layer_factory.hpp:77] Creating layer layer_256_1_bn2
I0808 19:33:41.073603  8310 net.cpp:84] Creating Layer layer_256_1_bn2
I0808 19:33:41.073617  8310 net.cpp:406] layer_256_1_bn2 <- layer_256_1_conv1
I0808 19:33:41.073633  8310 net.cpp:367] layer_256_1_bn2 -> layer_256_1_conv1 (in-place)
I0808 19:33:41.073925  8310 net.cpp:122] Setting up layer_256_1_bn2
I0808 19:33:41.073941  8310 net.cpp:129] Top shape: 5 256 28 28 (1003520)
I0808 19:33:41.073949  8310 net.cpp:137] Memory required for data: 864030740
I0808 19:33:41.073968  8310 layer_factory.hpp:77] Creating layer layer_256_1_scale2
I0808 19:33:41.073988  8310 net.cpp:84] Creating Layer layer_256_1_scale2
I0808 19:33:41.073999  8310 net.cpp:406] layer_256_1_scale2 <- layer_256_1_conv1
I0808 19:33:41.074012  8310 net.cpp:367] layer_256_1_scale2 -> layer_256_1_conv1 (in-place)
I0808 19:33:41.074086  8310 layer_factory.hpp:77] Creating layer layer_256_1_scale2
I0808 19:33:41.074265  8310 net.cpp:122] Setting up layer_256_1_scale2
I0808 19:33:41.074281  8310 net.cpp:129] Top shape: 5 256 28 28 (1003520)
I0808 19:33:41.074290  8310 net.cpp:137] Memory required for data: 868044820
I0808 19:33:41.074301  8310 layer_factory.hpp:77] Creating layer layer_256_1_relu2
I0808 19:33:41.074312  8310 net.cpp:84] Creating Layer layer_256_1_relu2
I0808 19:33:41.074321  8310 net.cpp:406] layer_256_1_relu2 <- layer_256_1_conv1
I0808 19:33:41.074331  8310 net.cpp:367] layer_256_1_relu2 -> layer_256_1_conv1 (in-place)
I0808 19:33:41.074573  8310 net.cpp:122] Setting up layer_256_1_relu2
I0808 19:33:41.074590  8310 net.cpp:129] Top shape: 5 256 28 28 (1003520)
I0808 19:33:41.074599  8310 net.cpp:137] Memory required for data: 872058900
I0808 19:33:41.074606  8310 layer_factory.hpp:77] Creating layer layer_256_1_conv2
I0808 19:33:41.074627  8310 net.cpp:84] Creating Layer layer_256_1_conv2
I0808 19:33:41.074638  8310 net.cpp:406] layer_256_1_conv2 <- layer_256_1_conv1
I0808 19:33:41.074651  8310 net.cpp:380] layer_256_1_conv2 -> layer_256_1_conv2
I0808 19:33:41.103458  8310 net.cpp:122] Setting up layer_256_1_conv2
I0808 19:33:41.103528  8310 net.cpp:129] Top shape: 5 256 14 14 (250880)
I0808 19:33:41.103550  8310 net.cpp:137] Memory required for data: 873062420
I0808 19:33:41.103574  8310 layer_factory.hpp:77] Creating layer layer_256_1_bn3
I0808 19:33:41.103610  8310 net.cpp:84] Creating Layer layer_256_1_bn3
I0808 19:33:41.103632  8310 net.cpp:406] layer_256_1_bn3 <- layer_256_1_conv2
I0808 19:33:41.103653  8310 net.cpp:367] layer_256_1_bn3 -> layer_256_1_conv2 (in-place)
I0808 19:33:41.104225  8310 net.cpp:122] Setting up layer_256_1_bn3
I0808 19:33:41.104260  8310 net.cpp:129] Top shape: 5 256 14 14 (250880)
I0808 19:33:41.104276  8310 net.cpp:137] Memory required for data: 874065940
I0808 19:33:41.104301  8310 layer_factory.hpp:77] Creating layer layer_256_1_scale3
I0808 19:33:41.104342  8310 net.cpp:84] Creating Layer layer_256_1_scale3
I0808 19:33:41.104379  8310 net.cpp:406] layer_256_1_scale3 <- layer_256_1_conv2
I0808 19:33:41.104404  8310 net.cpp:367] layer_256_1_scale3 -> layer_256_1_conv2 (in-place)
I0808 19:33:41.104540  8310 layer_factory.hpp:77] Creating layer layer_256_1_scale3
I0808 19:33:41.104881  8310 net.cpp:122] Setting up layer_256_1_scale3
I0808 19:33:41.104915  8310 net.cpp:129] Top shape: 5 256 14 14 (250880)
I0808 19:33:41.104931  8310 net.cpp:137] Memory required for data: 875069460
I0808 19:33:41.104953  8310 layer_factory.hpp:77] Creating layer layer_256_1_relu3
I0808 19:33:41.104977  8310 net.cpp:84] Creating Layer layer_256_1_relu3
I0808 19:33:41.104993  8310 net.cpp:406] layer_256_1_relu3 <- layer_256_1_conv2
I0808 19:33:41.105010  8310 net.cpp:367] layer_256_1_relu3 -> layer_256_1_conv2 (in-place)
I0808 19:33:41.105993  8310 net.cpp:122] Setting up layer_256_1_relu3
I0808 19:33:41.106035  8310 net.cpp:129] Top shape: 5 256 14 14 (250880)
I0808 19:33:41.106052  8310 net.cpp:137] Memory required for data: 876072980
I0808 19:33:41.106068  8310 layer_factory.hpp:77] Creating layer layer_256_1_conv3
I0808 19:33:41.106106  8310 net.cpp:84] Creating Layer layer_256_1_conv3
I0808 19:33:41.106127  8310 net.cpp:406] layer_256_1_conv3 <- layer_256_1_conv2
I0808 19:33:41.106151  8310 net.cpp:380] layer_256_1_conv3 -> layer_256_1_conv3
I0808 19:33:41.127018  8310 net.cpp:122] Setting up layer_256_1_conv3
I0808 19:33:41.127068  8310 net.cpp:129] Top shape: 5 1024 14 14 (1003520)
I0808 19:33:41.127084  8310 net.cpp:137] Memory required for data: 880087060
I0808 19:33:41.127106  8310 layer_factory.hpp:77] Creating layer layer_256_1_conv_expand
I0808 19:33:41.127141  8310 net.cpp:84] Creating Layer layer_256_1_conv_expand
I0808 19:33:41.127163  8310 net.cpp:406] layer_256_1_conv_expand <- layer_256_1_bn1_layer_256_1_relu1_0_split_1
I0808 19:33:41.127184  8310 net.cpp:380] layer_256_1_conv_expand -> layer_256_1_conv_expand
I0808 19:33:41.161320  8310 net.cpp:122] Setting up layer_256_1_conv_expand
I0808 19:33:41.161413  8310 net.cpp:129] Top shape: 5 1024 14 14 (1003520)
I0808 19:33:41.161425  8310 net.cpp:137] Memory required for data: 884101140
I0808 19:33:41.161445  8310 layer_factory.hpp:77] Creating layer layer_256_1_sum
I0808 19:33:41.161468  8310 net.cpp:84] Creating Layer layer_256_1_sum
I0808 19:33:41.161494  8310 net.cpp:406] layer_256_1_sum <- layer_256_1_conv3
I0808 19:33:41.161506  8310 net.cpp:406] layer_256_1_sum <- layer_256_1_conv_expand
I0808 19:33:41.161521  8310 net.cpp:380] layer_256_1_sum -> layer_256_1_sum
I0808 19:33:41.161574  8310 net.cpp:122] Setting up layer_256_1_sum
I0808 19:33:41.161590  8310 net.cpp:129] Top shape: 5 1024 14 14 (1003520)
I0808 19:33:41.161598  8310 net.cpp:137] Memory required for data: 888115220
I0808 19:33:41.161605  8310 layer_factory.hpp:77] Creating layer layer_256_1_sum_layer_256_1_sum_0_split
I0808 19:33:41.161620  8310 net.cpp:84] Creating Layer layer_256_1_sum_layer_256_1_sum_0_split
I0808 19:33:41.161629  8310 net.cpp:406] layer_256_1_sum_layer_256_1_sum_0_split <- layer_256_1_sum
I0808 19:33:41.161638  8310 net.cpp:380] layer_256_1_sum_layer_256_1_sum_0_split -> layer_256_1_sum_layer_256_1_sum_0_split_0
I0808 19:33:41.161653  8310 net.cpp:380] layer_256_1_sum_layer_256_1_sum_0_split -> layer_256_1_sum_layer_256_1_sum_0_split_1
I0808 19:33:41.161736  8310 net.cpp:122] Setting up layer_256_1_sum_layer_256_1_sum_0_split
I0808 19:33:41.161752  8310 net.cpp:129] Top shape: 5 1024 14 14 (1003520)
I0808 19:33:41.161775  8310 net.cpp:129] Top shape: 5 1024 14 14 (1003520)
I0808 19:33:41.161782  8310 net.cpp:137] Memory required for data: 896143380
I0808 19:33:41.161790  8310 layer_factory.hpp:77] Creating layer layer_256_2_bn1
I0808 19:33:41.161813  8310 net.cpp:84] Creating Layer layer_256_2_bn1
I0808 19:33:41.161821  8310 net.cpp:406] layer_256_2_bn1 <- layer_256_1_sum_layer_256_1_sum_0_split_0
I0808 19:33:41.161831  8310 net.cpp:380] layer_256_2_bn1 -> layer_256_2_bn1
I0808 19:33:41.162189  8310 net.cpp:122] Setting up layer_256_2_bn1
I0808 19:33:41.162219  8310 net.cpp:129] Top shape: 5 1024 14 14 (1003520)
I0808 19:33:41.162240  8310 net.cpp:137] Memory required for data: 900157460
I0808 19:33:41.162257  8310 layer_factory.hpp:77] Creating layer layer_256_2_scale1
I0808 19:33:41.162272  8310 net.cpp:84] Creating Layer layer_256_2_scale1
I0808 19:33:41.162284  8310 net.cpp:406] layer_256_2_scale1 <- layer_256_2_bn1
I0808 19:33:41.162293  8310 net.cpp:367] layer_256_2_scale1 -> layer_256_2_bn1 (in-place)
I0808 19:33:41.162385  8310 layer_factory.hpp:77] Creating layer layer_256_2_scale1
I0808 19:33:41.162590  8310 net.cpp:122] Setting up layer_256_2_scale1
I0808 19:33:41.162606  8310 net.cpp:129] Top shape: 5 1024 14 14 (1003520)
I0808 19:33:41.162626  8310 net.cpp:137] Memory required for data: 904171540
I0808 19:33:41.162636  8310 layer_factory.hpp:77] Creating layer layer_256_2_relu1
I0808 19:33:41.162654  8310 net.cpp:84] Creating Layer layer_256_2_relu1
I0808 19:33:41.162662  8310 net.cpp:406] layer_256_2_relu1 <- layer_256_2_bn1
I0808 19:33:41.162670  8310 net.cpp:367] layer_256_2_relu1 -> layer_256_2_bn1 (in-place)
I0808 19:33:41.163031  8310 net.cpp:122] Setting up layer_256_2_relu1
I0808 19:33:41.163049  8310 net.cpp:129] Top shape: 5 1024 14 14 (1003520)
I0808 19:33:41.163069  8310 net.cpp:137] Memory required for data: 908185620
I0808 19:33:41.163076  8310 layer_factory.hpp:77] Creating layer layer_256_2_conv1
I0808 19:33:41.163100  8310 net.cpp:84] Creating Layer layer_256_2_conv1
I0808 19:33:41.163110  8310 net.cpp:406] layer_256_2_conv1 <- layer_256_2_bn1
I0808 19:33:41.163125  8310 net.cpp:380] layer_256_2_conv1 -> layer_256_2_conv1
I0808 19:33:41.174422  8310 net.cpp:122] Setting up layer_256_2_conv1
I0808 19:33:41.174540  8310 net.cpp:129] Top shape: 5 256 14 14 (250880)
I0808 19:33:41.174552  8310 net.cpp:137] Memory required for data: 909189140
I0808 19:33:41.174572  8310 layer_factory.hpp:77] Creating layer layer_256_2_bn2
I0808 19:33:41.174599  8310 net.cpp:84] Creating Layer layer_256_2_bn2
I0808 19:33:41.174613  8310 net.cpp:406] layer_256_2_bn2 <- layer_256_2_conv1
I0808 19:33:41.174633  8310 net.cpp:367] layer_256_2_bn2 -> layer_256_2_conv1 (in-place)
I0808 19:33:41.174958  8310 net.cpp:122] Setting up layer_256_2_bn2
I0808 19:33:41.174976  8310 net.cpp:129] Top shape: 5 256 14 14 (250880)
I0808 19:33:41.174996  8310 net.cpp:137] Memory required for data: 910192660
I0808 19:33:41.175019  8310 layer_factory.hpp:77] Creating layer layer_256_2_scale2
I0808 19:33:41.175038  8310 net.cpp:84] Creating Layer layer_256_2_scale2
I0808 19:33:41.175046  8310 net.cpp:406] layer_256_2_scale2 <- layer_256_2_conv1
I0808 19:33:41.175056  8310 net.cpp:367] layer_256_2_scale2 -> layer_256_2_conv1 (in-place)
I0808 19:33:41.175159  8310 layer_factory.hpp:77] Creating layer layer_256_2_scale2
I0808 19:33:41.175395  8310 net.cpp:122] Setting up layer_256_2_scale2
I0808 19:33:41.175413  8310 net.cpp:129] Top shape: 5 256 14 14 (250880)
I0808 19:33:41.175421  8310 net.cpp:137] Memory required for data: 911196180
I0808 19:33:41.175432  8310 layer_factory.hpp:77] Creating layer layer_256_2_relu2
I0808 19:33:41.175451  8310 net.cpp:84] Creating Layer layer_256_2_relu2
I0808 19:33:41.175459  8310 net.cpp:406] layer_256_2_relu2 <- layer_256_2_conv1
I0808 19:33:41.175472  8310 net.cpp:367] layer_256_2_relu2 -> layer_256_2_conv1 (in-place)
I0808 19:33:41.176218  8310 net.cpp:122] Setting up layer_256_2_relu2
I0808 19:33:41.176251  8310 net.cpp:129] Top shape: 5 256 14 14 (250880)
I0808 19:33:41.176260  8310 net.cpp:137] Memory required for data: 912199700
I0808 19:33:41.176268  8310 layer_factory.hpp:77] Creating layer layer_256_2_conv2
I0808 19:33:41.176342  8310 net.cpp:84] Creating Layer layer_256_2_conv2
I0808 19:33:41.176354  8310 net.cpp:406] layer_256_2_conv2 <- layer_256_2_conv1
I0808 19:33:41.176367  8310 net.cpp:380] layer_256_2_conv2 -> layer_256_2_conv2
I0808 19:33:41.201297  8310 net.cpp:122] Setting up layer_256_2_conv2
I0808 19:33:41.201369  8310 net.cpp:129] Top shape: 5 256 14 14 (250880)
I0808 19:33:41.201405  8310 net.cpp:137] Memory required for data: 913203220
I0808 19:33:41.201462  8310 layer_factory.hpp:77] Creating layer layer_256_2_bn3
I0808 19:33:41.201504  8310 net.cpp:84] Creating Layer layer_256_2_bn3
I0808 19:33:41.201530  8310 net.cpp:406] layer_256_2_bn3 <- layer_256_2_conv2
I0808 19:33:41.201555  8310 net.cpp:367] layer_256_2_bn3 -> layer_256_2_conv2 (in-place)
I0808 19:33:41.202226  8310 net.cpp:122] Setting up layer_256_2_bn3
I0808 19:33:41.202267  8310 net.cpp:129] Top shape: 5 256 14 14 (250880)
I0808 19:33:41.202284  8310 net.cpp:137] Memory required for data: 914206740
I0808 19:33:41.202313  8310 layer_factory.hpp:77] Creating layer layer_256_2_scale3
I0808 19:33:41.202352  8310 net.cpp:84] Creating Layer layer_256_2_scale3
I0808 19:33:41.202371  8310 net.cpp:406] layer_256_2_scale3 <- layer_256_2_conv2
I0808 19:33:41.202394  8310 net.cpp:367] layer_256_2_scale3 -> layer_256_2_conv2 (in-place)
I0808 19:33:41.202561  8310 layer_factory.hpp:77] Creating layer layer_256_2_scale3
I0808 19:33:41.202971  8310 net.cpp:122] Setting up layer_256_2_scale3
I0808 19:33:41.203012  8310 net.cpp:129] Top shape: 5 256 14 14 (250880)
I0808 19:33:41.203029  8310 net.cpp:137] Memory required for data: 915210260
I0808 19:33:41.203054  8310 layer_factory.hpp:77] Creating layer layer_256_2_relu3
I0808 19:33:41.203083  8310 net.cpp:84] Creating Layer layer_256_2_relu3
I0808 19:33:41.203100  8310 net.cpp:406] layer_256_2_relu3 <- layer_256_2_conv2
I0808 19:33:41.203126  8310 net.cpp:367] layer_256_2_relu3 -> layer_256_2_conv2 (in-place)
I0808 19:33:41.204275  8310 net.cpp:122] Setting up layer_256_2_relu3
I0808 19:33:41.204326  8310 net.cpp:129] Top shape: 5 256 14 14 (250880)
I0808 19:33:41.204349  8310 net.cpp:137] Memory required for data: 916213780
I0808 19:33:41.204367  8310 layer_factory.hpp:77] Creating layer layer_256_2_conv3
I0808 19:33:41.204403  8310 net.cpp:84] Creating Layer layer_256_2_conv3
I0808 19:33:41.204428  8310 net.cpp:406] layer_256_2_conv3 <- layer_256_2_conv2
I0808 19:33:41.204465  8310 net.cpp:380] layer_256_2_conv3 -> layer_256_2_conv3
I0808 19:33:41.227972  8310 net.cpp:122] Setting up layer_256_2_conv3
I0808 19:33:41.228025  8310 net.cpp:129] Top shape: 5 1024 14 14 (1003520)
I0808 19:33:41.228044  8310 net.cpp:137] Memory required for data: 920227860
I0808 19:33:41.228068  8310 layer_factory.hpp:77] Creating layer layer_256_2_sum
I0808 19:33:41.228094  8310 net.cpp:84] Creating Layer layer_256_2_sum
I0808 19:33:41.228116  8310 net.cpp:406] layer_256_2_sum <- layer_256_2_conv3
I0808 19:33:41.228142  8310 net.cpp:406] layer_256_2_sum <- layer_256_1_sum_layer_256_1_sum_0_split_1
I0808 19:33:41.228165  8310 net.cpp:380] layer_256_2_sum -> layer_256_2_sum
I0808 19:33:41.228263  8310 net.cpp:122] Setting up layer_256_2_sum
I0808 19:33:41.228298  8310 net.cpp:129] Top shape: 5 1024 14 14 (1003520)
I0808 19:33:41.228313  8310 net.cpp:137] Memory required for data: 924241940
I0808 19:33:41.228328  8310 layer_factory.hpp:77] Creating layer layer_256_2_sum_layer_256_2_sum_0_split
I0808 19:33:41.228353  8310 net.cpp:84] Creating Layer layer_256_2_sum_layer_256_2_sum_0_split
I0808 19:33:41.228373  8310 net.cpp:406] layer_256_2_sum_layer_256_2_sum_0_split <- layer_256_2_sum
I0808 19:33:41.228392  8310 net.cpp:380] layer_256_2_sum_layer_256_2_sum_0_split -> layer_256_2_sum_layer_256_2_sum_0_split_0
I0808 19:33:41.228420  8310 net.cpp:380] layer_256_2_sum_layer_256_2_sum_0_split -> layer_256_2_sum_layer_256_2_sum_0_split_1
I0808 19:33:41.228548  8310 net.cpp:122] Setting up layer_256_2_sum_layer_256_2_sum_0_split
I0808 19:33:41.228580  8310 net.cpp:129] Top shape: 5 1024 14 14 (1003520)
I0808 19:33:41.228598  8310 net.cpp:129] Top shape: 5 1024 14 14 (1003520)
I0808 19:33:41.228611  8310 net.cpp:137] Memory required for data: 932270100
I0808 19:33:41.228626  8310 layer_factory.hpp:77] Creating layer layer_256_3_bn1
I0808 19:33:41.228647  8310 net.cpp:84] Creating Layer layer_256_3_bn1
I0808 19:33:41.228667  8310 net.cpp:406] layer_256_3_bn1 <- layer_256_2_sum_layer_256_2_sum_0_split_0
I0808 19:33:41.228708  8310 net.cpp:380] layer_256_3_bn1 -> layer_256_3_bn1
I0808 19:33:41.229344  8310 net.cpp:122] Setting up layer_256_3_bn1
I0808 19:33:41.229382  8310 net.cpp:129] Top shape: 5 1024 14 14 (1003520)
I0808 19:33:41.229400  8310 net.cpp:137] Memory required for data: 936284180
I0808 19:33:41.229427  8310 layer_factory.hpp:77] Creating layer layer_256_3_scale1
I0808 19:33:41.229457  8310 net.cpp:84] Creating Layer layer_256_3_scale1
I0808 19:33:41.229478  8310 net.cpp:406] layer_256_3_scale1 <- layer_256_3_bn1
I0808 19:33:41.229499  8310 net.cpp:367] layer_256_3_scale1 -> layer_256_3_bn1 (in-place)
I0808 19:33:41.229636  8310 layer_factory.hpp:77] Creating layer layer_256_3_scale1
I0808 19:33:41.230010  8310 net.cpp:122] Setting up layer_256_3_scale1
I0808 19:33:41.230046  8310 net.cpp:129] Top shape: 5 1024 14 14 (1003520)
I0808 19:33:41.230064  8310 net.cpp:137] Memory required for data: 940298260
I0808 19:33:41.230089  8310 layer_factory.hpp:77] Creating layer layer_256_3_relu1
I0808 19:33:41.230114  8310 net.cpp:84] Creating Layer layer_256_3_relu1
I0808 19:33:41.230130  8310 net.cpp:406] layer_256_3_relu1 <- layer_256_3_bn1
I0808 19:33:41.230154  8310 net.cpp:367] layer_256_3_relu1 -> layer_256_3_bn1 (in-place)
I0808 19:33:41.230623  8310 net.cpp:122] Setting up layer_256_3_relu1
I0808 19:33:41.230664  8310 net.cpp:129] Top shape: 5 1024 14 14 (1003520)
I0808 19:33:41.230684  8310 net.cpp:137] Memory required for data: 944312340
I0808 19:33:41.230700  8310 layer_factory.hpp:77] Creating layer layer_256_3_conv1
I0808 19:33:41.230741  8310 net.cpp:84] Creating Layer layer_256_3_conv1
I0808 19:33:41.230762  8310 net.cpp:406] layer_256_3_conv1 <- layer_256_3_bn1
I0808 19:33:41.230784  8310 net.cpp:380] layer_256_3_conv1 -> layer_256_3_conv1
I0808 19:33:41.251103  8310 net.cpp:122] Setting up layer_256_3_conv1
I0808 19:33:41.251149  8310 net.cpp:129] Top shape: 5 256 14 14 (250880)
I0808 19:33:41.251166  8310 net.cpp:137] Memory required for data: 945315860
I0808 19:33:41.251184  8310 layer_factory.hpp:77] Creating layer layer_256_3_bn2
I0808 19:33:41.251207  8310 net.cpp:84] Creating Layer layer_256_3_bn2
I0808 19:33:41.251225  8310 net.cpp:406] layer_256_3_bn2 <- layer_256_3_conv1
I0808 19:33:41.251245  8310 net.cpp:367] layer_256_3_bn2 -> layer_256_3_conv1 (in-place)
I0808 19:33:41.251768  8310 net.cpp:122] Setting up layer_256_3_bn2
I0808 19:33:41.251801  8310 net.cpp:129] Top shape: 5 256 14 14 (250880)
I0808 19:33:41.251814  8310 net.cpp:137] Memory required for data: 946319380
I0808 19:33:41.251837  8310 layer_factory.hpp:77] Creating layer layer_256_3_scale2
I0808 19:33:41.251865  8310 net.cpp:84] Creating Layer layer_256_3_scale2
I0808 19:33:41.251883  8310 net.cpp:406] layer_256_3_scale2 <- layer_256_3_conv1
I0808 19:33:41.251900  8310 net.cpp:367] layer_256_3_scale2 -> layer_256_3_conv1 (in-place)
I0808 19:33:41.252025  8310 layer_factory.hpp:77] Creating layer layer_256_3_scale2
I0808 19:33:41.252333  8310 net.cpp:122] Setting up layer_256_3_scale2
I0808 19:33:41.252364  8310 net.cpp:129] Top shape: 5 256 14 14 (250880)
I0808 19:33:41.252377  8310 net.cpp:137] Memory required for data: 947322900
I0808 19:33:41.252398  8310 layer_factory.hpp:77] Creating layer layer_256_3_relu2
I0808 19:33:41.252425  8310 net.cpp:84] Creating Layer layer_256_3_relu2
I0808 19:33:41.252444  8310 net.cpp:406] layer_256_3_relu2 <- layer_256_3_conv1
I0808 19:33:41.252460  8310 net.cpp:367] layer_256_3_relu2 -> layer_256_3_conv1 (in-place)
I0808 19:33:41.253317  8310 net.cpp:122] Setting up layer_256_3_relu2
I0808 19:33:41.253353  8310 net.cpp:129] Top shape: 5 256 14 14 (250880)
I0808 19:33:41.253372  8310 net.cpp:137] Memory required for data: 948326420
I0808 19:33:41.253386  8310 layer_factory.hpp:77] Creating layer layer_256_3_conv2
I0808 19:33:41.253419  8310 net.cpp:84] Creating Layer layer_256_3_conv2
I0808 19:33:41.253438  8310 net.cpp:406] layer_256_3_conv2 <- layer_256_3_conv1
I0808 19:33:41.253459  8310 net.cpp:380] layer_256_3_conv2 -> layer_256_3_conv2
I0808 19:33:41.289541  8310 net.cpp:122] Setting up layer_256_3_conv2
I0808 19:33:41.289587  8310 net.cpp:129] Top shape: 5 256 14 14 (250880)
I0808 19:33:41.289619  8310 net.cpp:137] Memory required for data: 949329940
I0808 19:33:41.289636  8310 layer_factory.hpp:77] Creating layer layer_256_3_bn3
I0808 19:33:41.289660  8310 net.cpp:84] Creating Layer layer_256_3_bn3
I0808 19:33:41.289674  8310 net.cpp:406] layer_256_3_bn3 <- layer_256_3_conv2
I0808 19:33:41.289693  8310 net.cpp:367] layer_256_3_bn3 -> layer_256_3_conv2 (in-place)
I0808 19:33:41.290134  8310 net.cpp:122] Setting up layer_256_3_bn3
I0808 19:33:41.290161  8310 net.cpp:129] Top shape: 5 256 14 14 (250880)
I0808 19:33:41.290172  8310 net.cpp:137] Memory required for data: 950333460
I0808 19:33:41.290192  8310 layer_factory.hpp:77] Creating layer layer_256_3_scale3
I0808 19:33:41.290213  8310 net.cpp:84] Creating Layer layer_256_3_scale3
I0808 19:33:41.290231  8310 net.cpp:406] layer_256_3_scale3 <- layer_256_3_conv2
I0808 19:33:41.290251  8310 net.cpp:367] layer_256_3_scale3 -> layer_256_3_conv2 (in-place)
I0808 19:33:41.290355  8310 layer_factory.hpp:77] Creating layer layer_256_3_scale3
I0808 19:33:41.290623  8310 net.cpp:122] Setting up layer_256_3_scale3
I0808 19:33:41.290649  8310 net.cpp:129] Top shape: 5 256 14 14 (250880)
I0808 19:33:41.290662  8310 net.cpp:137] Memory required for data: 951336980
I0808 19:33:41.290679  8310 layer_factory.hpp:77] Creating layer layer_256_3_relu3
I0808 19:33:41.290696  8310 net.cpp:84] Creating Layer layer_256_3_relu3
I0808 19:33:41.290711  8310 net.cpp:406] layer_256_3_relu3 <- layer_256_3_conv2
I0808 19:33:41.290729  8310 net.cpp:367] layer_256_3_relu3 -> layer_256_3_conv2 (in-place)
I0808 19:33:41.291090  8310 net.cpp:122] Setting up layer_256_3_relu3
I0808 19:33:41.291131  8310 net.cpp:129] Top shape: 5 256 14 14 (250880)
I0808 19:33:41.291143  8310 net.cpp:137] Memory required for data: 952340500
I0808 19:33:41.291155  8310 layer_factory.hpp:77] Creating layer layer_256_3_conv3
I0808 19:33:41.291179  8310 net.cpp:84] Creating Layer layer_256_3_conv3
I0808 19:33:41.291198  8310 net.cpp:406] layer_256_3_conv3 <- layer_256_3_conv2
I0808 19:33:41.291216  8310 net.cpp:380] layer_256_3_conv3 -> layer_256_3_conv3
I0808 19:33:41.306777  8310 net.cpp:122] Setting up layer_256_3_conv3
I0808 19:33:41.306815  8310 net.cpp:129] Top shape: 5 1024 14 14 (1003520)
I0808 19:33:41.306828  8310 net.cpp:137] Memory required for data: 956354580
I0808 19:33:41.306843  8310 layer_factory.hpp:77] Creating layer layer_256_3_sum
I0808 19:33:41.306862  8310 net.cpp:84] Creating Layer layer_256_3_sum
I0808 19:33:41.306876  8310 net.cpp:406] layer_256_3_sum <- layer_256_3_conv3
I0808 19:33:41.306890  8310 net.cpp:406] layer_256_3_sum <- layer_256_2_sum_layer_256_2_sum_0_split_1
I0808 19:33:41.306911  8310 net.cpp:380] layer_256_3_sum -> layer_256_3_sum
I0808 19:33:41.306984  8310 net.cpp:122] Setting up layer_256_3_sum
I0808 19:33:41.307008  8310 net.cpp:129] Top shape: 5 1024 14 14 (1003520)
I0808 19:33:41.307018  8310 net.cpp:137] Memory required for data: 960368660
I0808 19:33:41.307029  8310 layer_factory.hpp:77] Creating layer layer_256_3_sum_layer_256_3_sum_0_split
I0808 19:33:41.307047  8310 net.cpp:84] Creating Layer layer_256_3_sum_layer_256_3_sum_0_split
I0808 19:33:41.307059  8310 net.cpp:406] layer_256_3_sum_layer_256_3_sum_0_split <- layer_256_3_sum
I0808 19:33:41.307075  8310 net.cpp:380] layer_256_3_sum_layer_256_3_sum_0_split -> layer_256_3_sum_layer_256_3_sum_0_split_0
I0808 19:33:41.307098  8310 net.cpp:380] layer_256_3_sum_layer_256_3_sum_0_split -> layer_256_3_sum_layer_256_3_sum_0_split_1
I0808 19:33:41.307186  8310 net.cpp:122] Setting up layer_256_3_sum_layer_256_3_sum_0_split
I0808 19:33:41.307210  8310 net.cpp:129] Top shape: 5 1024 14 14 (1003520)
I0808 19:33:41.307224  8310 net.cpp:129] Top shape: 5 1024 14 14 (1003520)
I0808 19:33:41.307232  8310 net.cpp:137] Memory required for data: 968396820
I0808 19:33:41.307243  8310 layer_factory.hpp:77] Creating layer layer_256_4_bn1
I0808 19:33:41.307262  8310 net.cpp:84] Creating Layer layer_256_4_bn1
I0808 19:33:41.307277  8310 net.cpp:406] layer_256_4_bn1 <- layer_256_3_sum_layer_256_3_sum_0_split_0
I0808 19:33:41.307320  8310 net.cpp:380] layer_256_4_bn1 -> layer_256_4_bn1
I0808 19:33:41.307770  8310 net.cpp:122] Setting up layer_256_4_bn1
I0808 19:33:41.307796  8310 net.cpp:129] Top shape: 5 1024 14 14 (1003520)
I0808 19:33:41.307806  8310 net.cpp:137] Memory required for data: 972410900
I0808 19:33:41.307822  8310 layer_factory.hpp:77] Creating layer layer_256_4_scale1
I0808 19:33:41.307842  8310 net.cpp:84] Creating Layer layer_256_4_scale1
I0808 19:33:41.307855  8310 net.cpp:406] layer_256_4_scale1 <- layer_256_4_bn1
I0808 19:33:41.307873  8310 net.cpp:367] layer_256_4_scale1 -> layer_256_4_bn1 (in-place)
I0808 19:33:41.307972  8310 layer_factory.hpp:77] Creating layer layer_256_4_scale1
I0808 19:33:41.308231  8310 net.cpp:122] Setting up layer_256_4_scale1
I0808 19:33:41.308255  8310 net.cpp:129] Top shape: 5 1024 14 14 (1003520)
I0808 19:33:41.308265  8310 net.cpp:137] Memory required for data: 976424980
I0808 19:33:41.308279  8310 layer_factory.hpp:77] Creating layer layer_256_4_relu1
I0808 19:33:41.308295  8310 net.cpp:84] Creating Layer layer_256_4_relu1
I0808 19:33:41.308305  8310 net.cpp:406] layer_256_4_relu1 <- layer_256_4_bn1
I0808 19:33:41.308317  8310 net.cpp:367] layer_256_4_relu1 -> layer_256_4_bn1 (in-place)
I0808 19:33:41.308997  8310 net.cpp:122] Setting up layer_256_4_relu1
I0808 19:33:41.309026  8310 net.cpp:129] Top shape: 5 1024 14 14 (1003520)
I0808 19:33:41.309041  8310 net.cpp:137] Memory required for data: 980439060
I0808 19:33:41.309052  8310 layer_factory.hpp:77] Creating layer layer_256_4_conv1
I0808 19:33:41.309074  8310 net.cpp:84] Creating Layer layer_256_4_conv1
I0808 19:33:41.309089  8310 net.cpp:406] layer_256_4_conv1 <- layer_256_4_bn1
I0808 19:33:41.309106  8310 net.cpp:380] layer_256_4_conv1 -> layer_256_4_conv1
I0808 19:33:41.323529  8310 net.cpp:122] Setting up layer_256_4_conv1
I0808 19:33:41.323565  8310 net.cpp:129] Top shape: 5 256 14 14 (250880)
I0808 19:33:41.323585  8310 net.cpp:137] Memory required for data: 981442580
I0808 19:33:41.323598  8310 layer_factory.hpp:77] Creating layer layer_256_4_bn2
I0808 19:33:41.323618  8310 net.cpp:84] Creating Layer layer_256_4_bn2
I0808 19:33:41.323631  8310 net.cpp:406] layer_256_4_bn2 <- layer_256_4_conv1
I0808 19:33:41.323642  8310 net.cpp:367] layer_256_4_bn2 -> layer_256_4_conv1 (in-place)
I0808 19:33:41.324035  8310 net.cpp:122] Setting up layer_256_4_bn2
I0808 19:33:41.324059  8310 net.cpp:129] Top shape: 5 256 14 14 (250880)
I0808 19:33:41.324069  8310 net.cpp:137] Memory required for data: 982446100
I0808 19:33:41.324085  8310 layer_factory.hpp:77] Creating layer layer_256_4_scale2
I0808 19:33:41.324101  8310 net.cpp:84] Creating Layer layer_256_4_scale2
I0808 19:33:41.324112  8310 net.cpp:406] layer_256_4_scale2 <- layer_256_4_conv1
I0808 19:33:41.324126  8310 net.cpp:367] layer_256_4_scale2 -> layer_256_4_conv1 (in-place)
I0808 19:33:41.324221  8310 layer_factory.hpp:77] Creating layer layer_256_4_scale2
I0808 19:33:41.324456  8310 net.cpp:122] Setting up layer_256_4_scale2
I0808 19:33:41.324478  8310 net.cpp:129] Top shape: 5 256 14 14 (250880)
I0808 19:33:41.324488  8310 net.cpp:137] Memory required for data: 983449620
I0808 19:33:41.324503  8310 layer_factory.hpp:77] Creating layer layer_256_4_relu2
I0808 19:33:41.324520  8310 net.cpp:84] Creating Layer layer_256_4_relu2
I0808 19:33:41.324530  8310 net.cpp:406] layer_256_4_relu2 <- layer_256_4_conv1
I0808 19:33:41.324542  8310 net.cpp:367] layer_256_4_relu2 -> layer_256_4_conv1 (in-place)
I0808 19:33:41.325191  8310 net.cpp:122] Setting up layer_256_4_relu2
I0808 19:33:41.325218  8310 net.cpp:129] Top shape: 5 256 14 14 (250880)
I0808 19:33:41.325229  8310 net.cpp:137] Memory required for data: 984453140
I0808 19:33:41.325240  8310 layer_factory.hpp:77] Creating layer layer_256_4_conv2
I0808 19:33:41.325266  8310 net.cpp:84] Creating Layer layer_256_4_conv2
I0808 19:33:41.325281  8310 net.cpp:406] layer_256_4_conv2 <- layer_256_4_conv1
I0808 19:33:41.325296  8310 net.cpp:380] layer_256_4_conv2 -> layer_256_4_conv2
I0808 19:33:41.353186  8310 net.cpp:122] Setting up layer_256_4_conv2
I0808 19:33:41.353227  8310 net.cpp:129] Top shape: 5 256 14 14 (250880)
I0808 19:33:41.353240  8310 net.cpp:137] Memory required for data: 985456660
I0808 19:33:41.353252  8310 layer_factory.hpp:77] Creating layer layer_256_4_bn3
I0808 19:33:41.353266  8310 net.cpp:84] Creating Layer layer_256_4_bn3
I0808 19:33:41.353276  8310 net.cpp:406] layer_256_4_bn3 <- layer_256_4_conv2
I0808 19:33:41.353291  8310 net.cpp:367] layer_256_4_bn3 -> layer_256_4_conv2 (in-place)
I0808 19:33:41.353649  8310 net.cpp:122] Setting up layer_256_4_bn3
I0808 19:33:41.353670  8310 net.cpp:129] Top shape: 5 256 14 14 (250880)
I0808 19:33:41.353679  8310 net.cpp:137] Memory required for data: 986460180
I0808 19:33:41.353694  8310 layer_factory.hpp:77] Creating layer layer_256_4_scale3
I0808 19:33:41.353708  8310 net.cpp:84] Creating Layer layer_256_4_scale3
I0808 19:33:41.353718  8310 net.cpp:406] layer_256_4_scale3 <- layer_256_4_conv2
I0808 19:33:41.353729  8310 net.cpp:367] layer_256_4_scale3 -> layer_256_4_conv2 (in-place)
I0808 19:33:41.353818  8310 layer_factory.hpp:77] Creating layer layer_256_4_scale3
I0808 19:33:41.354039  8310 net.cpp:122] Setting up layer_256_4_scale3
I0808 19:33:41.354060  8310 net.cpp:129] Top shape: 5 256 14 14 (250880)
I0808 19:33:41.354070  8310 net.cpp:137] Memory required for data: 987463700
I0808 19:33:41.354082  8310 layer_factory.hpp:77] Creating layer layer_256_4_relu3
I0808 19:33:41.354097  8310 net.cpp:84] Creating Layer layer_256_4_relu3
I0808 19:33:41.354110  8310 net.cpp:406] layer_256_4_relu3 <- layer_256_4_conv2
I0808 19:33:41.354120  8310 net.cpp:367] layer_256_4_relu3 -> layer_256_4_conv2 (in-place)
I0808 19:33:41.354419  8310 net.cpp:122] Setting up layer_256_4_relu3
I0808 19:33:41.354442  8310 net.cpp:129] Top shape: 5 256 14 14 (250880)
I0808 19:33:41.354451  8310 net.cpp:137] Memory required for data: 988467220
I0808 19:33:41.354462  8310 layer_factory.hpp:77] Creating layer layer_256_4_conv3
I0808 19:33:41.354482  8310 net.cpp:84] Creating Layer layer_256_4_conv3
I0808 19:33:41.354493  8310 net.cpp:406] layer_256_4_conv3 <- layer_256_4_conv2
I0808 19:33:41.354506  8310 net.cpp:380] layer_256_4_conv3 -> layer_256_4_conv3
I0808 19:33:41.367257  8310 net.cpp:122] Setting up layer_256_4_conv3
I0808 19:33:41.367288  8310 net.cpp:129] Top shape: 5 1024 14 14 (1003520)
I0808 19:33:41.367298  8310 net.cpp:137] Memory required for data: 992481300
I0808 19:33:41.367319  8310 layer_factory.hpp:77] Creating layer layer_256_4_sum
I0808 19:33:41.367333  8310 net.cpp:84] Creating Layer layer_256_4_sum
I0808 19:33:41.367344  8310 net.cpp:406] layer_256_4_sum <- layer_256_4_conv3
I0808 19:33:41.367363  8310 net.cpp:406] layer_256_4_sum <- layer_256_3_sum_layer_256_3_sum_0_split_1
I0808 19:33:41.367378  8310 net.cpp:380] layer_256_4_sum -> layer_256_4_sum
I0808 19:33:41.367434  8310 net.cpp:122] Setting up layer_256_4_sum
I0808 19:33:41.367457  8310 net.cpp:129] Top shape: 5 1024 14 14 (1003520)
I0808 19:33:41.367467  8310 net.cpp:137] Memory required for data: 996495380
I0808 19:33:41.367475  8310 layer_factory.hpp:77] Creating layer layer_256_4_sum_layer_256_4_sum_0_split
I0808 19:33:41.367489  8310 net.cpp:84] Creating Layer layer_256_4_sum_layer_256_4_sum_0_split
I0808 19:33:41.367516  8310 net.cpp:406] layer_256_4_sum_layer_256_4_sum_0_split <- layer_256_4_sum
I0808 19:33:41.367532  8310 net.cpp:380] layer_256_4_sum_layer_256_4_sum_0_split -> layer_256_4_sum_layer_256_4_sum_0_split_0
I0808 19:33:41.367547  8310 net.cpp:380] layer_256_4_sum_layer_256_4_sum_0_split -> layer_256_4_sum_layer_256_4_sum_0_split_1
I0808 19:33:41.367630  8310 net.cpp:122] Setting up layer_256_4_sum_layer_256_4_sum_0_split
I0808 19:33:41.367650  8310 net.cpp:129] Top shape: 5 1024 14 14 (1003520)
I0808 19:33:41.367660  8310 net.cpp:129] Top shape: 5 1024 14 14 (1003520)
I0808 19:33:41.367668  8310 net.cpp:137] Memory required for data: 1004523540
I0808 19:33:41.367677  8310 layer_factory.hpp:77] Creating layer layer_256_5_bn1
I0808 19:33:41.367704  8310 net.cpp:84] Creating Layer layer_256_5_bn1
I0808 19:33:41.367723  8310 net.cpp:406] layer_256_5_bn1 <- layer_256_4_sum_layer_256_4_sum_0_split_0
I0808 19:33:41.367736  8310 net.cpp:380] layer_256_5_bn1 -> layer_256_5_bn1
I0808 19:33:41.368119  8310 net.cpp:122] Setting up layer_256_5_bn1
I0808 19:33:41.368139  8310 net.cpp:129] Top shape: 5 1024 14 14 (1003520)
I0808 19:33:41.368147  8310 net.cpp:137] Memory required for data: 1008537620
I0808 19:33:41.368162  8310 layer_factory.hpp:77] Creating layer layer_256_5_scale1
I0808 19:33:41.368177  8310 net.cpp:84] Creating Layer layer_256_5_scale1
I0808 19:33:41.368187  8310 net.cpp:406] layer_256_5_scale1 <- layer_256_5_bn1
I0808 19:33:41.368198  8310 net.cpp:367] layer_256_5_scale1 -> layer_256_5_bn1 (in-place)
I0808 19:33:41.368280  8310 layer_factory.hpp:77] Creating layer layer_256_5_scale1
I0808 19:33:41.368512  8310 net.cpp:122] Setting up layer_256_5_scale1
I0808 19:33:41.368533  8310 net.cpp:129] Top shape: 5 1024 14 14 (1003520)
I0808 19:33:41.368542  8310 net.cpp:137] Memory required for data: 1012551700
I0808 19:33:41.368554  8310 layer_factory.hpp:77] Creating layer layer_256_5_relu1
I0808 19:33:41.368567  8310 net.cpp:84] Creating Layer layer_256_5_relu1
I0808 19:33:41.368577  8310 net.cpp:406] layer_256_5_relu1 <- layer_256_5_bn1
I0808 19:33:41.368590  8310 net.cpp:367] layer_256_5_relu1 -> layer_256_5_bn1 (in-place)
I0808 19:33:41.369195  8310 net.cpp:122] Setting up layer_256_5_relu1
I0808 19:33:41.369220  8310 net.cpp:129] Top shape: 5 1024 14 14 (1003520)
I0808 19:33:41.369230  8310 net.cpp:137] Memory required for data: 1016565780
I0808 19:33:41.369240  8310 layer_factory.hpp:77] Creating layer layer_256_5_conv1
I0808 19:33:41.369261  8310 net.cpp:84] Creating Layer layer_256_5_conv1
I0808 19:33:41.369277  8310 net.cpp:406] layer_256_5_conv1 <- layer_256_5_bn1
I0808 19:33:41.369290  8310 net.cpp:380] layer_256_5_conv1 -> layer_256_5_conv1
I0808 19:33:41.382030  8310 net.cpp:122] Setting up layer_256_5_conv1
I0808 19:33:41.382061  8310 net.cpp:129] Top shape: 5 256 14 14 (250880)
I0808 19:33:41.382071  8310 net.cpp:137] Memory required for data: 1017569300
I0808 19:33:41.382083  8310 layer_factory.hpp:77] Creating layer layer_256_5_bn2
I0808 19:33:41.382099  8310 net.cpp:84] Creating Layer layer_256_5_bn2
I0808 19:33:41.382110  8310 net.cpp:406] layer_256_5_bn2 <- layer_256_5_conv1
I0808 19:33:41.382122  8310 net.cpp:367] layer_256_5_bn2 -> layer_256_5_conv1 (in-place)
I0808 19:33:41.382493  8310 net.cpp:122] Setting up layer_256_5_bn2
I0808 19:33:41.382513  8310 net.cpp:129] Top shape: 5 256 14 14 (250880)
I0808 19:33:41.382522  8310 net.cpp:137] Memory required for data: 1018572820
I0808 19:33:41.382539  8310 layer_factory.hpp:77] Creating layer layer_256_5_scale2
I0808 19:33:41.382555  8310 net.cpp:84] Creating Layer layer_256_5_scale2
I0808 19:33:41.382563  8310 net.cpp:406] layer_256_5_scale2 <- layer_256_5_conv1
I0808 19:33:41.382577  8310 net.cpp:367] layer_256_5_scale2 -> layer_256_5_conv1 (in-place)
I0808 19:33:41.382663  8310 layer_factory.hpp:77] Creating layer layer_256_5_scale2
I0808 19:33:41.382889  8310 net.cpp:122] Setting up layer_256_5_scale2
I0808 19:33:41.382910  8310 net.cpp:129] Top shape: 5 256 14 14 (250880)
I0808 19:33:41.382920  8310 net.cpp:137] Memory required for data: 1019576340
I0808 19:33:41.382931  8310 layer_factory.hpp:77] Creating layer layer_256_5_relu2
I0808 19:33:41.382947  8310 net.cpp:84] Creating Layer layer_256_5_relu2
I0808 19:33:41.382957  8310 net.cpp:406] layer_256_5_relu2 <- layer_256_5_conv1
I0808 19:33:41.382968  8310 net.cpp:367] layer_256_5_relu2 -> layer_256_5_conv1 (in-place)
I0808 19:33:41.383247  8310 net.cpp:122] Setting up layer_256_5_relu2
I0808 19:33:41.383270  8310 net.cpp:129] Top shape: 5 256 14 14 (250880)
I0808 19:33:41.383280  8310 net.cpp:137] Memory required for data: 1020579860
I0808 19:33:41.383287  8310 layer_factory.hpp:77] Creating layer layer_256_5_conv2
I0808 19:33:41.383323  8310 net.cpp:84] Creating Layer layer_256_5_conv2
I0808 19:33:41.383337  8310 net.cpp:406] layer_256_5_conv2 <- layer_256_5_conv1
I0808 19:33:41.383365  8310 net.cpp:380] layer_256_5_conv2 -> layer_256_5_conv2
I0808 19:33:41.409839  8310 net.cpp:122] Setting up layer_256_5_conv2
I0808 19:33:41.409870  8310 net.cpp:129] Top shape: 5 256 14 14 (250880)
I0808 19:33:41.409880  8310 net.cpp:137] Memory required for data: 1021583380
I0808 19:33:41.409893  8310 layer_factory.hpp:77] Creating layer layer_256_5_bn3
I0808 19:33:41.409909  8310 net.cpp:84] Creating Layer layer_256_5_bn3
I0808 19:33:41.409920  8310 net.cpp:406] layer_256_5_bn3 <- layer_256_5_conv2
I0808 19:33:41.409932  8310 net.cpp:367] layer_256_5_bn3 -> layer_256_5_conv2 (in-place)
I0808 19:33:41.410315  8310 net.cpp:122] Setting up layer_256_5_bn3
I0808 19:33:41.410337  8310 net.cpp:129] Top shape: 5 256 14 14 (250880)
I0808 19:33:41.410346  8310 net.cpp:137] Memory required for data: 1022586900
I0808 19:33:41.410362  8310 layer_factory.hpp:77] Creating layer layer_256_5_scale3
I0808 19:33:41.410378  8310 net.cpp:84] Creating Layer layer_256_5_scale3
I0808 19:33:41.410388  8310 net.cpp:406] layer_256_5_scale3 <- layer_256_5_conv2
I0808 19:33:41.410400  8310 net.cpp:367] layer_256_5_scale3 -> layer_256_5_conv2 (in-place)
I0808 19:33:41.410493  8310 layer_factory.hpp:77] Creating layer layer_256_5_scale3
I0808 19:33:41.410722  8310 net.cpp:122] Setting up layer_256_5_scale3
I0808 19:33:41.410742  8310 net.cpp:129] Top shape: 5 256 14 14 (250880)
I0808 19:33:41.410751  8310 net.cpp:137] Memory required for data: 1023590420
I0808 19:33:41.410763  8310 layer_factory.hpp:77] Creating layer layer_256_5_relu3
I0808 19:33:41.410775  8310 net.cpp:84] Creating Layer layer_256_5_relu3
I0808 19:33:41.410785  8310 net.cpp:406] layer_256_5_relu3 <- layer_256_5_conv2
I0808 19:33:41.410799  8310 net.cpp:367] layer_256_5_relu3 -> layer_256_5_conv2 (in-place)
I0808 19:33:41.411422  8310 net.cpp:122] Setting up layer_256_5_relu3
I0808 19:33:41.411448  8310 net.cpp:129] Top shape: 5 256 14 14 (250880)
I0808 19:33:41.411456  8310 net.cpp:137] Memory required for data: 1024593940
I0808 19:33:41.411465  8310 layer_factory.hpp:77] Creating layer layer_256_5_conv3
I0808 19:33:41.411484  8310 net.cpp:84] Creating Layer layer_256_5_conv3
I0808 19:33:41.411494  8310 net.cpp:406] layer_256_5_conv3 <- layer_256_5_conv2
I0808 19:33:41.411511  8310 net.cpp:380] layer_256_5_conv3 -> layer_256_5_conv3
I0808 19:33:41.424298  8310 net.cpp:122] Setting up layer_256_5_conv3
I0808 19:33:41.424329  8310 net.cpp:129] Top shape: 5 1024 14 14 (1003520)
I0808 19:33:41.424342  8310 net.cpp:137] Memory required for data: 1028608020
I0808 19:33:41.424357  8310 layer_factory.hpp:77] Creating layer layer_256_5_sum
I0808 19:33:41.424371  8310 net.cpp:84] Creating Layer layer_256_5_sum
I0808 19:33:41.424382  8310 net.cpp:406] layer_256_5_sum <- layer_256_5_conv3
I0808 19:33:41.424393  8310 net.cpp:406] layer_256_5_sum <- layer_256_4_sum_layer_256_4_sum_0_split_1
I0808 19:33:41.424413  8310 net.cpp:380] layer_256_5_sum -> layer_256_5_sum
I0808 19:33:41.424469  8310 net.cpp:122] Setting up layer_256_5_sum
I0808 19:33:41.424492  8310 net.cpp:129] Top shape: 5 1024 14 14 (1003520)
I0808 19:33:41.424501  8310 net.cpp:137] Memory required for data: 1032622100
I0808 19:33:41.424510  8310 layer_factory.hpp:77] Creating layer layer_256_5_sum_layer_256_5_sum_0_split
I0808 19:33:41.424522  8310 net.cpp:84] Creating Layer layer_256_5_sum_layer_256_5_sum_0_split
I0808 19:33:41.424532  8310 net.cpp:406] layer_256_5_sum_layer_256_5_sum_0_split <- layer_256_5_sum
I0808 19:33:41.424543  8310 net.cpp:380] layer_256_5_sum_layer_256_5_sum_0_split -> layer_256_5_sum_layer_256_5_sum_0_split_0
I0808 19:33:41.424557  8310 net.cpp:380] layer_256_5_sum_layer_256_5_sum_0_split -> layer_256_5_sum_layer_256_5_sum_0_split_1
I0808 19:33:41.424639  8310 net.cpp:122] Setting up layer_256_5_sum_layer_256_5_sum_0_split
I0808 19:33:41.424659  8310 net.cpp:129] Top shape: 5 1024 14 14 (1003520)
I0808 19:33:41.424669  8310 net.cpp:129] Top shape: 5 1024 14 14 (1003520)
I0808 19:33:41.424679  8310 net.cpp:137] Memory required for data: 1040650260
I0808 19:33:41.424695  8310 layer_factory.hpp:77] Creating layer layer_256_6_bn1
I0808 19:33:41.424729  8310 net.cpp:84] Creating Layer layer_256_6_bn1
I0808 19:33:41.424741  8310 net.cpp:406] layer_256_6_bn1 <- layer_256_5_sum_layer_256_5_sum_0_split_0
I0808 19:33:41.424752  8310 net.cpp:380] layer_256_6_bn1 -> layer_256_6_bn1
I0808 19:33:41.425154  8310 net.cpp:122] Setting up layer_256_6_bn1
I0808 19:33:41.425175  8310 net.cpp:129] Top shape: 5 1024 14 14 (1003520)
I0808 19:33:41.425184  8310 net.cpp:137] Memory required for data: 1044664340
I0808 19:33:41.425199  8310 layer_factory.hpp:77] Creating layer layer_256_6_scale1
I0808 19:33:41.425216  8310 net.cpp:84] Creating Layer layer_256_6_scale1
I0808 19:33:41.425230  8310 net.cpp:406] layer_256_6_scale1 <- layer_256_6_bn1
I0808 19:33:41.425240  8310 net.cpp:367] layer_256_6_scale1 -> layer_256_6_bn1 (in-place)
I0808 19:33:41.425326  8310 layer_factory.hpp:77] Creating layer layer_256_6_scale1
I0808 19:33:41.425573  8310 net.cpp:122] Setting up layer_256_6_scale1
I0808 19:33:41.425595  8310 net.cpp:129] Top shape: 5 1024 14 14 (1003520)
I0808 19:33:41.425604  8310 net.cpp:137] Memory required for data: 1048678420
I0808 19:33:41.425619  8310 layer_factory.hpp:77] Creating layer layer_256_6_relu1
I0808 19:33:41.425635  8310 net.cpp:84] Creating Layer layer_256_6_relu1
I0808 19:33:41.425645  8310 net.cpp:406] layer_256_6_relu1 <- layer_256_6_bn1
I0808 19:33:41.425659  8310 net.cpp:367] layer_256_6_relu1 -> layer_256_6_bn1 (in-place)
I0808 19:33:41.426270  8310 net.cpp:122] Setting up layer_256_6_relu1
I0808 19:33:41.426295  8310 net.cpp:129] Top shape: 5 1024 14 14 (1003520)
I0808 19:33:41.426304  8310 net.cpp:137] Memory required for data: 1052692500
I0808 19:33:41.426313  8310 layer_factory.hpp:77] Creating layer layer_256_6_conv1
I0808 19:33:41.426334  8310 net.cpp:84] Creating Layer layer_256_6_conv1
I0808 19:33:41.426345  8310 net.cpp:406] layer_256_6_conv1 <- layer_256_6_bn1
I0808 19:33:41.426359  8310 net.cpp:380] layer_256_6_conv1 -> layer_256_6_conv1
I0808 19:33:41.439153  8310 net.cpp:122] Setting up layer_256_6_conv1
I0808 19:33:41.439184  8310 net.cpp:129] Top shape: 5 256 14 14 (250880)
I0808 19:33:41.439195  8310 net.cpp:137] Memory required for data: 1053696020
I0808 19:33:41.439208  8310 layer_factory.hpp:77] Creating layer layer_256_6_bn2
I0808 19:33:41.439224  8310 net.cpp:84] Creating Layer layer_256_6_bn2
I0808 19:33:41.439234  8310 net.cpp:406] layer_256_6_bn2 <- layer_256_6_conv1
I0808 19:33:41.439246  8310 net.cpp:367] layer_256_6_bn2 -> layer_256_6_conv1 (in-place)
I0808 19:33:41.439646  8310 net.cpp:122] Setting up layer_256_6_bn2
I0808 19:33:41.439669  8310 net.cpp:129] Top shape: 5 256 14 14 (250880)
I0808 19:33:41.439678  8310 net.cpp:137] Memory required for data: 1054699540
I0808 19:33:41.439692  8310 layer_factory.hpp:77] Creating layer layer_256_6_scale2
I0808 19:33:41.439709  8310 net.cpp:84] Creating Layer layer_256_6_scale2
I0808 19:33:41.439719  8310 net.cpp:406] layer_256_6_scale2 <- layer_256_6_conv1
I0808 19:33:41.439733  8310 net.cpp:367] layer_256_6_scale2 -> layer_256_6_conv1 (in-place)
I0808 19:33:41.439821  8310 layer_factory.hpp:77] Creating layer layer_256_6_scale2
I0808 19:33:41.440052  8310 net.cpp:122] Setting up layer_256_6_scale2
I0808 19:33:41.440073  8310 net.cpp:129] Top shape: 5 256 14 14 (250880)
I0808 19:33:41.440081  8310 net.cpp:137] Memory required for data: 1055703060
I0808 19:33:41.440093  8310 layer_factory.hpp:77] Creating layer layer_256_6_relu2
I0808 19:33:41.440109  8310 net.cpp:84] Creating Layer layer_256_6_relu2
I0808 19:33:41.440119  8310 net.cpp:406] layer_256_6_relu2 <- layer_256_6_conv1
I0808 19:33:41.440129  8310 net.cpp:367] layer_256_6_relu2 -> layer_256_6_conv1 (in-place)
I0808 19:33:41.440426  8310 net.cpp:122] Setting up layer_256_6_relu2
I0808 19:33:41.440448  8310 net.cpp:129] Top shape: 5 256 14 14 (250880)
I0808 19:33:41.440459  8310 net.cpp:137] Memory required for data: 1056706580
I0808 19:33:41.440467  8310 layer_factory.hpp:77] Creating layer layer_256_6_conv2
I0808 19:33:41.440497  8310 net.cpp:84] Creating Layer layer_256_6_conv2
I0808 19:33:41.440520  8310 net.cpp:406] layer_256_6_conv2 <- layer_256_6_conv1
I0808 19:33:41.440533  8310 net.cpp:380] layer_256_6_conv2 -> layer_256_6_conv2
I0808 19:33:41.467025  8310 net.cpp:122] Setting up layer_256_6_conv2
I0808 19:33:41.467056  8310 net.cpp:129] Top shape: 5 256 14 14 (250880)
I0808 19:33:41.467067  8310 net.cpp:137] Memory required for data: 1057710100
I0808 19:33:41.467084  8310 layer_factory.hpp:77] Creating layer layer_256_6_bn3
I0808 19:33:41.467103  8310 net.cpp:84] Creating Layer layer_256_6_bn3
I0808 19:33:41.467113  8310 net.cpp:406] layer_256_6_bn3 <- layer_256_6_conv2
I0808 19:33:41.467125  8310 net.cpp:367] layer_256_6_bn3 -> layer_256_6_conv2 (in-place)
I0808 19:33:41.467525  8310 net.cpp:122] Setting up layer_256_6_bn3
I0808 19:33:41.467547  8310 net.cpp:129] Top shape: 5 256 14 14 (250880)
I0808 19:33:41.467556  8310 net.cpp:137] Memory required for data: 1058713620
I0808 19:33:41.467576  8310 layer_factory.hpp:77] Creating layer layer_256_6_scale3
I0808 19:33:41.467591  8310 net.cpp:84] Creating Layer layer_256_6_scale3
I0808 19:33:41.467605  8310 net.cpp:406] layer_256_6_scale3 <- layer_256_6_conv2
I0808 19:33:41.467617  8310 net.cpp:367] layer_256_6_scale3 -> layer_256_6_conv2 (in-place)
I0808 19:33:41.467708  8310 layer_factory.hpp:77] Creating layer layer_256_6_scale3
I0808 19:33:41.467945  8310 net.cpp:122] Setting up layer_256_6_scale3
I0808 19:33:41.467967  8310 net.cpp:129] Top shape: 5 256 14 14 (250880)
I0808 19:33:41.467975  8310 net.cpp:137] Memory required for data: 1059717140
I0808 19:33:41.467988  8310 layer_factory.hpp:77] Creating layer layer_256_6_relu3
I0808 19:33:41.468003  8310 net.cpp:84] Creating Layer layer_256_6_relu3
I0808 19:33:41.468013  8310 net.cpp:406] layer_256_6_relu3 <- layer_256_6_conv2
I0808 19:33:41.468024  8310 net.cpp:367] layer_256_6_relu3 -> layer_256_6_conv2 (in-place)
I0808 19:33:41.468643  8310 net.cpp:122] Setting up layer_256_6_relu3
I0808 19:33:41.468668  8310 net.cpp:129] Top shape: 5 256 14 14 (250880)
I0808 19:33:41.468677  8310 net.cpp:137] Memory required for data: 1060720660
I0808 19:33:41.468686  8310 layer_factory.hpp:77] Creating layer layer_256_6_conv3
I0808 19:33:41.468706  8310 net.cpp:84] Creating Layer layer_256_6_conv3
I0808 19:33:41.468717  8310 net.cpp:406] layer_256_6_conv3 <- layer_256_6_conv2
I0808 19:33:41.468734  8310 net.cpp:380] layer_256_6_conv3 -> layer_256_6_conv3
I0808 19:33:41.481564  8310 net.cpp:122] Setting up layer_256_6_conv3
I0808 19:33:41.481595  8310 net.cpp:129] Top shape: 5 1024 14 14 (1003520)
I0808 19:33:41.481611  8310 net.cpp:137] Memory required for data: 1064734740
I0808 19:33:41.481622  8310 layer_factory.hpp:77] Creating layer layer_256_6_sum
I0808 19:33:41.481636  8310 net.cpp:84] Creating Layer layer_256_6_sum
I0808 19:33:41.481645  8310 net.cpp:406] layer_256_6_sum <- layer_256_6_conv3
I0808 19:33:41.481657  8310 net.cpp:406] layer_256_6_sum <- layer_256_5_sum_layer_256_5_sum_0_split_1
I0808 19:33:41.481678  8310 net.cpp:380] layer_256_6_sum -> layer_256_6_sum
I0808 19:33:41.481744  8310 net.cpp:122] Setting up layer_256_6_sum
I0808 19:33:41.481765  8310 net.cpp:129] Top shape: 5 1024 14 14 (1003520)
I0808 19:33:41.481773  8310 net.cpp:137] Memory required for data: 1068748820
I0808 19:33:41.481783  8310 layer_factory.hpp:77] Creating layer layer_512_1_bn1
I0808 19:33:41.481797  8310 net.cpp:84] Creating Layer layer_512_1_bn1
I0808 19:33:41.481806  8310 net.cpp:406] layer_512_1_bn1 <- layer_256_6_sum
I0808 19:33:41.481820  8310 net.cpp:380] layer_512_1_bn1 -> layer_512_1_bn1
I0808 19:33:41.482239  8310 net.cpp:122] Setting up layer_512_1_bn1
I0808 19:33:41.482269  8310 net.cpp:129] Top shape: 5 1024 14 14 (1003520)
I0808 19:33:41.482277  8310 net.cpp:137] Memory required for data: 1072762900
I0808 19:33:41.482291  8310 layer_factory.hpp:77] Creating layer layer_512_1_scale1
I0808 19:33:41.482309  8310 net.cpp:84] Creating Layer layer_512_1_scale1
I0808 19:33:41.482319  8310 net.cpp:406] layer_512_1_scale1 <- layer_512_1_bn1
I0808 19:33:41.482339  8310 net.cpp:367] layer_512_1_scale1 -> layer_512_1_bn1 (in-place)
I0808 19:33:41.482440  8310 layer_factory.hpp:77] Creating layer layer_512_1_scale1
I0808 19:33:41.482689  8310 net.cpp:122] Setting up layer_512_1_scale1
I0808 19:33:41.482712  8310 net.cpp:129] Top shape: 5 1024 14 14 (1003520)
I0808 19:33:41.482720  8310 net.cpp:137] Memory required for data: 1076776980
I0808 19:33:41.482733  8310 layer_factory.hpp:77] Creating layer layer_512_1_relu1
I0808 19:33:41.482744  8310 net.cpp:84] Creating Layer layer_512_1_relu1
I0808 19:33:41.482753  8310 net.cpp:406] layer_512_1_relu1 <- layer_512_1_bn1
I0808 19:33:41.482766  8310 net.cpp:367] layer_512_1_relu1 -> layer_512_1_bn1 (in-place)
I0808 19:33:41.483052  8310 net.cpp:122] Setting up layer_512_1_relu1
I0808 19:33:41.483074  8310 net.cpp:129] Top shape: 5 1024 14 14 (1003520)
I0808 19:33:41.483083  8310 net.cpp:137] Memory required for data: 1080791060
I0808 19:33:41.483093  8310 layer_factory.hpp:77] Creating layer layer_512_1_bn1_layer_512_1_relu1_0_split
I0808 19:33:41.483115  8310 net.cpp:84] Creating Layer layer_512_1_bn1_layer_512_1_relu1_0_split
I0808 19:33:41.483125  8310 net.cpp:406] layer_512_1_bn1_layer_512_1_relu1_0_split <- layer_512_1_bn1
I0808 19:33:41.483136  8310 net.cpp:380] layer_512_1_bn1_layer_512_1_relu1_0_split -> layer_512_1_bn1_layer_512_1_relu1_0_split_0
I0808 19:33:41.483150  8310 net.cpp:380] layer_512_1_bn1_layer_512_1_relu1_0_split -> layer_512_1_bn1_layer_512_1_relu1_0_split_1
I0808 19:33:41.483237  8310 net.cpp:122] Setting up layer_512_1_bn1_layer_512_1_relu1_0_split
I0808 19:33:41.483258  8310 net.cpp:129] Top shape: 5 1024 14 14 (1003520)
I0808 19:33:41.483268  8310 net.cpp:129] Top shape: 5 1024 14 14 (1003520)
I0808 19:33:41.483275  8310 net.cpp:137] Memory required for data: 1088819220
I0808 19:33:41.483285  8310 layer_factory.hpp:77] Creating layer layer_512_1_conv1
I0808 19:33:41.483311  8310 net.cpp:84] Creating Layer layer_512_1_conv1
I0808 19:33:41.483330  8310 net.cpp:406] layer_512_1_conv1 <- layer_512_1_bn1_layer_512_1_relu1_0_split_0
I0808 19:33:41.483346  8310 net.cpp:380] layer_512_1_conv1 -> layer_512_1_conv1
I0808 19:33:41.507155  8310 net.cpp:122] Setting up layer_512_1_conv1
I0808 19:33:41.507186  8310 net.cpp:129] Top shape: 5 512 14 14 (501760)
I0808 19:33:41.507202  8310 net.cpp:137] Memory required for data: 1090826260
I0808 19:33:41.507215  8310 layer_factory.hpp:77] Creating layer layer_512_1_bn2
I0808 19:33:41.507232  8310 net.cpp:84] Creating Layer layer_512_1_bn2
I0808 19:33:41.507243  8310 net.cpp:406] layer_512_1_bn2 <- layer_512_1_conv1
I0808 19:33:41.507258  8310 net.cpp:367] layer_512_1_bn2 -> layer_512_1_conv1 (in-place)
I0808 19:33:41.507669  8310 net.cpp:122] Setting up layer_512_1_bn2
I0808 19:33:41.507691  8310 net.cpp:129] Top shape: 5 512 14 14 (501760)
I0808 19:33:41.507700  8310 net.cpp:137] Memory required for data: 1092833300
I0808 19:33:41.507715  8310 layer_factory.hpp:77] Creating layer layer_512_1_scale2
I0808 19:33:41.507728  8310 net.cpp:84] Creating Layer layer_512_1_scale2
I0808 19:33:41.507737  8310 net.cpp:406] layer_512_1_scale2 <- layer_512_1_conv1
I0808 19:33:41.507752  8310 net.cpp:367] layer_512_1_scale2 -> layer_512_1_conv1 (in-place)
I0808 19:33:41.507838  8310 layer_factory.hpp:77] Creating layer layer_512_1_scale2
I0808 19:33:41.508090  8310 net.cpp:122] Setting up layer_512_1_scale2
I0808 19:33:41.508112  8310 net.cpp:129] Top shape: 5 512 14 14 (501760)
I0808 19:33:41.508122  8310 net.cpp:137] Memory required for data: 1094840340
I0808 19:33:41.508134  8310 layer_factory.hpp:77] Creating layer layer_512_1_relu2
I0808 19:33:41.508149  8310 net.cpp:84] Creating Layer layer_512_1_relu2
I0808 19:33:41.508159  8310 net.cpp:406] layer_512_1_relu2 <- layer_512_1_conv1
I0808 19:33:41.508170  8310 net.cpp:367] layer_512_1_relu2 -> layer_512_1_conv1 (in-place)
I0808 19:33:41.508781  8310 net.cpp:122] Setting up layer_512_1_relu2
I0808 19:33:41.508808  8310 net.cpp:129] Top shape: 5 512 14 14 (501760)
I0808 19:33:41.508818  8310 net.cpp:137] Memory required for data: 1096847380
I0808 19:33:41.508833  8310 layer_factory.hpp:77] Creating layer layer_512_1_conv2
I0808 19:33:41.508862  8310 net.cpp:84] Creating Layer layer_512_1_conv2
I0808 19:33:41.508877  8310 net.cpp:406] layer_512_1_conv2 <- layer_512_1_conv1
I0808 19:33:41.508891  8310 net.cpp:380] layer_512_1_conv2 -> layer_512_1_conv2
I0808 19:33:41.607609  8310 net.cpp:122] Setting up layer_512_1_conv2
I0808 19:33:41.607648  8310 net.cpp:129] Top shape: 5 512 7 7 (125440)
I0808 19:33:41.607664  8310 net.cpp:137] Memory required for data: 1097349140
I0808 19:33:41.607676  8310 layer_factory.hpp:77] Creating layer layer_512_1_bn3
I0808 19:33:41.607694  8310 net.cpp:84] Creating Layer layer_512_1_bn3
I0808 19:33:41.607705  8310 net.cpp:406] layer_512_1_bn3 <- layer_512_1_conv2
I0808 19:33:41.607717  8310 net.cpp:367] layer_512_1_bn3 -> layer_512_1_conv2 (in-place)
I0808 19:33:41.608130  8310 net.cpp:122] Setting up layer_512_1_bn3
I0808 19:33:41.608151  8310 net.cpp:129] Top shape: 5 512 7 7 (125440)
I0808 19:33:41.608160  8310 net.cpp:137] Memory required for data: 1097850900
I0808 19:33:41.608224  8310 layer_factory.hpp:77] Creating layer layer_512_1_scale3
I0808 19:33:41.608247  8310 net.cpp:84] Creating Layer layer_512_1_scale3
I0808 19:33:41.608258  8310 net.cpp:406] layer_512_1_scale3 <- layer_512_1_conv2
I0808 19:33:41.608268  8310 net.cpp:367] layer_512_1_scale3 -> layer_512_1_conv2 (in-place)
I0808 19:33:41.608361  8310 layer_factory.hpp:77] Creating layer layer_512_1_scale3
I0808 19:33:41.608613  8310 net.cpp:122] Setting up layer_512_1_scale3
I0808 19:33:41.608634  8310 net.cpp:129] Top shape: 5 512 7 7 (125440)
I0808 19:33:41.608644  8310 net.cpp:137] Memory required for data: 1098352660
I0808 19:33:41.608657  8310 layer_factory.hpp:77] Creating layer layer_512_1_relu3
I0808 19:33:41.608672  8310 net.cpp:84] Creating Layer layer_512_1_relu3
I0808 19:33:41.608682  8310 net.cpp:406] layer_512_1_relu3 <- layer_512_1_conv2
I0808 19:33:41.608695  8310 net.cpp:367] layer_512_1_relu3 -> layer_512_1_conv2 (in-place)
I0808 19:33:41.609309  8310 net.cpp:122] Setting up layer_512_1_relu3
I0808 19:33:41.609334  8310 net.cpp:129] Top shape: 5 512 7 7 (125440)
I0808 19:33:41.609344  8310 net.cpp:137] Memory required for data: 1098854420
I0808 19:33:41.609354  8310 layer_factory.hpp:77] Creating layer layer_512_1_conv3
I0808 19:33:41.609372  8310 net.cpp:84] Creating Layer layer_512_1_conv3
I0808 19:33:41.609390  8310 net.cpp:406] layer_512_1_conv3 <- layer_512_1_conv2
I0808 19:33:41.609403  8310 net.cpp:380] layer_512_1_conv3 -> layer_512_1_conv3
I0808 19:33:41.654391  8310 net.cpp:122] Setting up layer_512_1_conv3
I0808 19:33:41.654424  8310 net.cpp:129] Top shape: 5 2048 7 7 (501760)
I0808 19:33:41.654434  8310 net.cpp:137] Memory required for data: 1100861460
I0808 19:33:41.654448  8310 layer_factory.hpp:77] Creating layer layer_512_1_conv_expand
I0808 19:33:41.654470  8310 net.cpp:84] Creating Layer layer_512_1_conv_expand
I0808 19:33:41.654482  8310 net.cpp:406] layer_512_1_conv_expand <- layer_512_1_bn1_layer_512_1_relu1_0_split_1
I0808 19:33:41.654497  8310 net.cpp:380] layer_512_1_conv_expand -> layer_512_1_conv_expand
I0808 19:33:41.742486  8310 net.cpp:122] Setting up layer_512_1_conv_expand
I0808 19:33:41.742528  8310 net.cpp:129] Top shape: 5 2048 7 7 (501760)
I0808 19:33:41.742548  8310 net.cpp:137] Memory required for data: 1102868500
I0808 19:33:41.742561  8310 layer_factory.hpp:77] Creating layer layer_512_1_sum
I0808 19:33:41.742579  8310 net.cpp:84] Creating Layer layer_512_1_sum
I0808 19:33:41.742594  8310 net.cpp:406] layer_512_1_sum <- layer_512_1_conv3
I0808 19:33:41.742605  8310 net.cpp:406] layer_512_1_sum <- layer_512_1_conv_expand
I0808 19:33:41.742617  8310 net.cpp:380] layer_512_1_sum -> layer_512_1_sum
I0808 19:33:41.742681  8310 net.cpp:122] Setting up layer_512_1_sum
I0808 19:33:41.742702  8310 net.cpp:129] Top shape: 5 2048 7 7 (501760)
I0808 19:33:41.742712  8310 net.cpp:137] Memory required for data: 1104875540
I0808 19:33:41.742722  8310 layer_factory.hpp:77] Creating layer layer_512_1_sum_layer_512_1_sum_0_split
I0808 19:33:41.742759  8310 net.cpp:84] Creating Layer layer_512_1_sum_layer_512_1_sum_0_split
I0808 19:33:41.742782  8310 net.cpp:406] layer_512_1_sum_layer_512_1_sum_0_split <- layer_512_1_sum
I0808 19:33:41.742794  8310 net.cpp:380] layer_512_1_sum_layer_512_1_sum_0_split -> layer_512_1_sum_layer_512_1_sum_0_split_0
I0808 19:33:41.742820  8310 net.cpp:380] layer_512_1_sum_layer_512_1_sum_0_split -> layer_512_1_sum_layer_512_1_sum_0_split_1
I0808 19:33:41.742903  8310 net.cpp:122] Setting up layer_512_1_sum_layer_512_1_sum_0_split
I0808 19:33:41.742924  8310 net.cpp:129] Top shape: 5 2048 7 7 (501760)
I0808 19:33:41.742935  8310 net.cpp:129] Top shape: 5 2048 7 7 (501760)
I0808 19:33:41.742944  8310 net.cpp:137] Memory required for data: 1108889620
I0808 19:33:41.742951  8310 layer_factory.hpp:77] Creating layer layer_512_2_bn1
I0808 19:33:41.742966  8310 net.cpp:84] Creating Layer layer_512_2_bn1
I0808 19:33:41.742982  8310 net.cpp:406] layer_512_2_bn1 <- layer_512_1_sum_layer_512_1_sum_0_split_0
I0808 19:33:41.742995  8310 net.cpp:380] layer_512_2_bn1 -> layer_512_2_bn1
I0808 19:33:41.743445  8310 net.cpp:122] Setting up layer_512_2_bn1
I0808 19:33:41.743468  8310 net.cpp:129] Top shape: 5 2048 7 7 (501760)
I0808 19:33:41.743475  8310 net.cpp:137] Memory required for data: 1110896660
I0808 19:33:41.743490  8310 layer_factory.hpp:77] Creating layer layer_512_2_scale1
I0808 19:33:41.743505  8310 net.cpp:84] Creating Layer layer_512_2_scale1
I0808 19:33:41.743515  8310 net.cpp:406] layer_512_2_scale1 <- layer_512_2_bn1
I0808 19:33:41.743527  8310 net.cpp:367] layer_512_2_scale1 -> layer_512_2_bn1 (in-place)
I0808 19:33:41.743621  8310 layer_factory.hpp:77] Creating layer layer_512_2_scale1
I0808 19:33:41.743880  8310 net.cpp:122] Setting up layer_512_2_scale1
I0808 19:33:41.743901  8310 net.cpp:129] Top shape: 5 2048 7 7 (501760)
I0808 19:33:41.743911  8310 net.cpp:137] Memory required for data: 1112903700
I0808 19:33:41.743923  8310 layer_factory.hpp:77] Creating layer layer_512_2_relu1
I0808 19:33:41.743940  8310 net.cpp:84] Creating Layer layer_512_2_relu1
I0808 19:33:41.743950  8310 net.cpp:406] layer_512_2_relu1 <- layer_512_2_bn1
I0808 19:33:41.743960  8310 net.cpp:367] layer_512_2_relu1 -> layer_512_2_bn1 (in-place)
I0808 19:33:41.744251  8310 net.cpp:122] Setting up layer_512_2_relu1
I0808 19:33:41.744274  8310 net.cpp:129] Top shape: 5 2048 7 7 (501760)
I0808 19:33:41.744283  8310 net.cpp:137] Memory required for data: 1114910740
I0808 19:33:41.744294  8310 layer_factory.hpp:77] Creating layer layer_512_2_conv1
I0808 19:33:41.744313  8310 net.cpp:84] Creating Layer layer_512_2_conv1
I0808 19:33:41.744326  8310 net.cpp:406] layer_512_2_conv1 <- layer_512_2_bn1
I0808 19:33:41.744341  8310 net.cpp:380] layer_512_2_conv1 -> layer_512_2_conv1
I0808 19:33:41.789374  8310 net.cpp:122] Setting up layer_512_2_conv1
I0808 19:33:41.789405  8310 net.cpp:129] Top shape: 5 512 7 7 (125440)
I0808 19:33:41.789417  8310 net.cpp:137] Memory required for data: 1115412500
I0808 19:33:41.789428  8310 layer_factory.hpp:77] Creating layer layer_512_2_bn2
I0808 19:33:41.789443  8310 net.cpp:84] Creating Layer layer_512_2_bn2
I0808 19:33:41.789454  8310 net.cpp:406] layer_512_2_bn2 <- layer_512_2_conv1
I0808 19:33:41.789469  8310 net.cpp:367] layer_512_2_bn2 -> layer_512_2_conv1 (in-place)
I0808 19:33:41.789881  8310 net.cpp:122] Setting up layer_512_2_bn2
I0808 19:33:41.789903  8310 net.cpp:129] Top shape: 5 512 7 7 (125440)
I0808 19:33:41.789912  8310 net.cpp:137] Memory required for data: 1115914260
I0808 19:33:41.789927  8310 layer_factory.hpp:77] Creating layer layer_512_2_scale2
I0808 19:33:41.789944  8310 net.cpp:84] Creating Layer layer_512_2_scale2
I0808 19:33:41.789955  8310 net.cpp:406] layer_512_2_scale2 <- layer_512_2_conv1
I0808 19:33:41.789968  8310 net.cpp:367] layer_512_2_scale2 -> layer_512_2_conv1 (in-place)
I0808 19:33:41.790052  8310 layer_factory.hpp:77] Creating layer layer_512_2_scale2
I0808 19:33:41.790313  8310 net.cpp:122] Setting up layer_512_2_scale2
I0808 19:33:41.790333  8310 net.cpp:129] Top shape: 5 512 7 7 (125440)
I0808 19:33:41.790349  8310 net.cpp:137] Memory required for data: 1116416020
I0808 19:33:41.790371  8310 layer_factory.hpp:77] Creating layer layer_512_2_relu2
I0808 19:33:41.790386  8310 net.cpp:84] Creating Layer layer_512_2_relu2
I0808 19:33:41.790396  8310 net.cpp:406] layer_512_2_relu2 <- layer_512_2_conv1
I0808 19:33:41.790410  8310 net.cpp:367] layer_512_2_relu2 -> layer_512_2_conv1 (in-place)
I0808 19:33:41.791025  8310 net.cpp:122] Setting up layer_512_2_relu2
I0808 19:33:41.791051  8310 net.cpp:129] Top shape: 5 512 7 7 (125440)
I0808 19:33:41.791060  8310 net.cpp:137] Memory required for data: 1116917780
I0808 19:33:41.791069  8310 layer_factory.hpp:77] Creating layer layer_512_2_conv2
I0808 19:33:41.791088  8310 net.cpp:84] Creating Layer layer_512_2_conv2
I0808 19:33:41.791100  8310 net.cpp:406] layer_512_2_conv2 <- layer_512_2_conv1
I0808 19:33:41.791115  8310 net.cpp:380] layer_512_2_conv2 -> layer_512_2_conv2
I0808 19:33:41.882550  8310 net.cpp:122] Setting up layer_512_2_conv2
I0808 19:33:41.882588  8310 net.cpp:129] Top shape: 5 512 7 7 (125440)
I0808 19:33:41.882601  8310 net.cpp:137] Memory required for data: 1117419540
I0808 19:33:41.882611  8310 layer_factory.hpp:77] Creating layer layer_512_2_bn3
I0808 19:33:41.882628  8310 net.cpp:84] Creating Layer layer_512_2_bn3
I0808 19:33:41.882637  8310 net.cpp:406] layer_512_2_bn3 <- layer_512_2_conv2
I0808 19:33:41.882647  8310 net.cpp:367] layer_512_2_bn3 -> layer_512_2_conv2 (in-place)
I0808 19:33:41.882994  8310 net.cpp:122] Setting up layer_512_2_bn3
I0808 19:33:41.883013  8310 net.cpp:129] Top shape: 5 512 7 7 (125440)
I0808 19:33:41.883019  8310 net.cpp:137] Memory required for data: 1117921300
I0808 19:33:41.883040  8310 layer_factory.hpp:77] Creating layer layer_512_2_scale3
I0808 19:33:41.883054  8310 net.cpp:84] Creating Layer layer_512_2_scale3
I0808 19:33:41.883062  8310 net.cpp:406] layer_512_2_scale3 <- layer_512_2_conv2
I0808 19:33:41.883072  8310 net.cpp:367] layer_512_2_scale3 -> layer_512_2_conv2 (in-place)
I0808 19:33:41.883152  8310 layer_factory.hpp:77] Creating layer layer_512_2_scale3
I0808 19:33:41.883404  8310 net.cpp:122] Setting up layer_512_2_scale3
I0808 19:33:41.883421  8310 net.cpp:129] Top shape: 5 512 7 7 (125440)
I0808 19:33:41.883429  8310 net.cpp:137] Memory required for data: 1118423060
I0808 19:33:41.883440  8310 layer_factory.hpp:77] Creating layer layer_512_2_relu3
I0808 19:33:41.883450  8310 net.cpp:84] Creating Layer layer_512_2_relu3
I0808 19:33:41.883458  8310 net.cpp:406] layer_512_2_relu3 <- layer_512_2_conv2
I0808 19:33:41.883469  8310 net.cpp:367] layer_512_2_relu3 -> layer_512_2_conv2 (in-place)
I0808 19:33:41.883718  8310 net.cpp:122] Setting up layer_512_2_relu3
I0808 19:33:41.883736  8310 net.cpp:129] Top shape: 5 512 7 7 (125440)
I0808 19:33:41.883744  8310 net.cpp:137] Memory required for data: 1118924820
I0808 19:33:41.883750  8310 layer_factory.hpp:77] Creating layer layer_512_2_conv3
I0808 19:33:41.883766  8310 net.cpp:84] Creating Layer layer_512_2_conv3
I0808 19:33:41.883775  8310 net.cpp:406] layer_512_2_conv3 <- layer_512_2_conv2
I0808 19:33:41.883788  8310 net.cpp:380] layer_512_2_conv3 -> layer_512_2_conv3
I0808 19:33:41.919111  8310 net.cpp:122] Setting up layer_512_2_conv3
I0808 19:33:41.919137  8310 net.cpp:129] Top shape: 5 2048 7 7 (501760)
I0808 19:33:41.919145  8310 net.cpp:137] Memory required for data: 1120931860
I0808 19:33:41.919155  8310 layer_factory.hpp:77] Creating layer layer_512_2_sum
I0808 19:33:41.919168  8310 net.cpp:84] Creating Layer layer_512_2_sum
I0808 19:33:41.919176  8310 net.cpp:406] layer_512_2_sum <- layer_512_2_conv3
I0808 19:33:41.919185  8310 net.cpp:406] layer_512_2_sum <- layer_512_1_sum_layer_512_1_sum_0_split_1
I0808 19:33:41.919194  8310 net.cpp:380] layer_512_2_sum -> layer_512_2_sum
I0808 19:33:41.919241  8310 net.cpp:122] Setting up layer_512_2_sum
I0808 19:33:41.919258  8310 net.cpp:129] Top shape: 5 2048 7 7 (501760)
I0808 19:33:41.919265  8310 net.cpp:137] Memory required for data: 1122938900
I0808 19:33:41.919271  8310 layer_factory.hpp:77] Creating layer layer_512_2_sum_layer_512_2_sum_0_split
I0808 19:33:41.919299  8310 net.cpp:84] Creating Layer layer_512_2_sum_layer_512_2_sum_0_split
I0808 19:33:41.919324  8310 net.cpp:406] layer_512_2_sum_layer_512_2_sum_0_split <- layer_512_2_sum
I0808 19:33:41.919334  8310 net.cpp:380] layer_512_2_sum_layer_512_2_sum_0_split -> layer_512_2_sum_layer_512_2_sum_0_split_0
I0808 19:33:41.919348  8310 net.cpp:380] layer_512_2_sum_layer_512_2_sum_0_split -> layer_512_2_sum_layer_512_2_sum_0_split_1
I0808 19:33:41.919414  8310 net.cpp:122] Setting up layer_512_2_sum_layer_512_2_sum_0_split
I0808 19:33:41.919430  8310 net.cpp:129] Top shape: 5 2048 7 7 (501760)
I0808 19:33:41.919437  8310 net.cpp:129] Top shape: 5 2048 7 7 (501760)
I0808 19:33:41.919445  8310 net.cpp:137] Memory required for data: 1126952980
I0808 19:33:41.919450  8310 layer_factory.hpp:77] Creating layer layer_512_3_bn1
I0808 19:33:41.919471  8310 net.cpp:84] Creating Layer layer_512_3_bn1
I0808 19:33:41.919477  8310 net.cpp:406] layer_512_3_bn1 <- layer_512_2_sum_layer_512_2_sum_0_split_0
I0808 19:33:41.919486  8310 net.cpp:380] layer_512_3_bn1 -> layer_512_3_bn1
I0808 19:33:41.919826  8310 net.cpp:122] Setting up layer_512_3_bn1
I0808 19:33:41.919842  8310 net.cpp:129] Top shape: 5 2048 7 7 (501760)
I0808 19:33:41.919849  8310 net.cpp:137] Memory required for data: 1128960020
I0808 19:33:41.919862  8310 layer_factory.hpp:77] Creating layer layer_512_3_scale1
I0808 19:33:41.919873  8310 net.cpp:84] Creating Layer layer_512_3_scale1
I0808 19:33:41.919880  8310 net.cpp:406] layer_512_3_scale1 <- layer_512_3_bn1
I0808 19:33:41.919891  8310 net.cpp:367] layer_512_3_scale1 -> layer_512_3_bn1 (in-place)
I0808 19:33:41.919965  8310 layer_factory.hpp:77] Creating layer layer_512_3_scale1
I0808 19:33:41.920166  8310 net.cpp:122] Setting up layer_512_3_scale1
I0808 19:33:41.920184  8310 net.cpp:129] Top shape: 5 2048 7 7 (501760)
I0808 19:33:41.920192  8310 net.cpp:137] Memory required for data: 1130967060
I0808 19:33:41.920202  8310 layer_factory.hpp:77] Creating layer layer_512_3_relu1
I0808 19:33:41.920212  8310 net.cpp:84] Creating Layer layer_512_3_relu1
I0808 19:33:41.920218  8310 net.cpp:406] layer_512_3_relu1 <- layer_512_3_bn1
I0808 19:33:41.920227  8310 net.cpp:367] layer_512_3_relu1 -> layer_512_3_bn1 (in-place)
I0808 19:33:41.920727  8310 net.cpp:122] Setting up layer_512_3_relu1
I0808 19:33:41.920749  8310 net.cpp:129] Top shape: 5 2048 7 7 (501760)
I0808 19:33:41.920758  8310 net.cpp:137] Memory required for data: 1132974100
I0808 19:33:41.920764  8310 layer_factory.hpp:77] Creating layer layer_512_3_conv1
I0808 19:33:41.920779  8310 net.cpp:84] Creating Layer layer_512_3_conv1
I0808 19:33:41.920788  8310 net.cpp:406] layer_512_3_conv1 <- layer_512_3_bn1
I0808 19:33:41.920797  8310 net.cpp:380] layer_512_3_conv1 -> layer_512_3_conv1
I0808 19:33:41.955796  8310 net.cpp:122] Setting up layer_512_3_conv1
I0808 19:33:41.955821  8310 net.cpp:129] Top shape: 5 512 7 7 (125440)
I0808 19:33:41.955828  8310 net.cpp:137] Memory required for data: 1133475860
I0808 19:33:41.955837  8310 layer_factory.hpp:77] Creating layer layer_512_3_bn2
I0808 19:33:41.955852  8310 net.cpp:84] Creating Layer layer_512_3_bn2
I0808 19:33:41.955859  8310 net.cpp:406] layer_512_3_bn2 <- layer_512_3_conv1
I0808 19:33:41.955868  8310 net.cpp:367] layer_512_3_bn2 -> layer_512_3_conv1 (in-place)
I0808 19:33:41.956197  8310 net.cpp:122] Setting up layer_512_3_bn2
I0808 19:33:41.956214  8310 net.cpp:129] Top shape: 5 512 7 7 (125440)
I0808 19:33:41.956220  8310 net.cpp:137] Memory required for data: 1133977620
I0808 19:33:41.956233  8310 layer_factory.hpp:77] Creating layer layer_512_3_scale2
I0808 19:33:41.956244  8310 net.cpp:84] Creating Layer layer_512_3_scale2
I0808 19:33:41.956252  8310 net.cpp:406] layer_512_3_scale2 <- layer_512_3_conv1
I0808 19:33:41.956261  8310 net.cpp:367] layer_512_3_scale2 -> layer_512_3_conv1 (in-place)
I0808 19:33:41.956331  8310 layer_factory.hpp:77] Creating layer layer_512_3_scale2
I0808 19:33:41.956537  8310 net.cpp:122] Setting up layer_512_3_scale2
I0808 19:33:41.956559  8310 net.cpp:129] Top shape: 5 512 7 7 (125440)
I0808 19:33:41.956573  8310 net.cpp:137] Memory required for data: 1134479380
I0808 19:33:41.956583  8310 layer_factory.hpp:77] Creating layer layer_512_3_relu2
I0808 19:33:41.956596  8310 net.cpp:84] Creating Layer layer_512_3_relu2
I0808 19:33:41.956604  8310 net.cpp:406] layer_512_3_relu2 <- layer_512_3_conv1
I0808 19:33:41.956612  8310 net.cpp:367] layer_512_3_relu2 -> layer_512_3_conv1 (in-place)
I0808 19:33:41.957098  8310 net.cpp:122] Setting up layer_512_3_relu2
I0808 19:33:41.957118  8310 net.cpp:129] Top shape: 5 512 7 7 (125440)
I0808 19:33:41.957125  8310 net.cpp:137] Memory required for data: 1134981140
I0808 19:33:41.957134  8310 layer_factory.hpp:77] Creating layer layer_512_3_conv2
I0808 19:33:41.957150  8310 net.cpp:84] Creating Layer layer_512_3_conv2
I0808 19:33:41.957159  8310 net.cpp:406] layer_512_3_conv2 <- layer_512_3_conv1
I0808 19:33:41.957170  8310 net.cpp:380] layer_512_3_conv2 -> layer_512_3_conv2
I0808 19:33:42.034080  8310 net.cpp:122] Setting up layer_512_3_conv2
I0808 19:33:42.034116  8310 net.cpp:129] Top shape: 5 512 7 7 (125440)
I0808 19:33:42.034123  8310 net.cpp:137] Memory required for data: 1135482900
I0808 19:33:42.034135  8310 layer_factory.hpp:77] Creating layer layer_512_3_bn3
I0808 19:33:42.034149  8310 net.cpp:84] Creating Layer layer_512_3_bn3
I0808 19:33:42.034158  8310 net.cpp:406] layer_512_3_bn3 <- layer_512_3_conv2
I0808 19:33:42.034168  8310 net.cpp:367] layer_512_3_bn3 -> layer_512_3_conv2 (in-place)
I0808 19:33:42.034509  8310 net.cpp:122] Setting up layer_512_3_bn3
I0808 19:33:42.034526  8310 net.cpp:129] Top shape: 5 512 7 7 (125440)
I0808 19:33:42.034533  8310 net.cpp:137] Memory required for data: 1135984660
I0808 19:33:42.034545  8310 layer_factory.hpp:77] Creating layer layer_512_3_scale3
I0808 19:33:42.034559  8310 net.cpp:84] Creating Layer layer_512_3_scale3
I0808 19:33:42.034566  8310 net.cpp:406] layer_512_3_scale3 <- layer_512_3_conv2
I0808 19:33:42.034575  8310 net.cpp:367] layer_512_3_scale3 -> layer_512_3_conv2 (in-place)
I0808 19:33:42.034647  8310 layer_factory.hpp:77] Creating layer layer_512_3_scale3
I0808 19:33:42.034857  8310 net.cpp:122] Setting up layer_512_3_scale3
I0808 19:33:42.034873  8310 net.cpp:129] Top shape: 5 512 7 7 (125440)
I0808 19:33:42.034880  8310 net.cpp:137] Memory required for data: 1136486420
I0808 19:33:42.034889  8310 layer_factory.hpp:77] Creating layer layer_512_3_relu3
I0808 19:33:42.034901  8310 net.cpp:84] Creating Layer layer_512_3_relu3
I0808 19:33:42.034909  8310 net.cpp:406] layer_512_3_relu3 <- layer_512_3_conv2
I0808 19:33:42.034921  8310 net.cpp:367] layer_512_3_relu3 -> layer_512_3_conv2 (in-place)
I0808 19:33:42.035419  8310 net.cpp:122] Setting up layer_512_3_relu3
I0808 19:33:42.035439  8310 net.cpp:129] Top shape: 5 512 7 7 (125440)
I0808 19:33:42.035447  8310 net.cpp:137] Memory required for data: 1136988180
I0808 19:33:42.035454  8310 layer_factory.hpp:77] Creating layer layer_512_3_conv3
I0808 19:33:42.035470  8310 net.cpp:84] Creating Layer layer_512_3_conv3
I0808 19:33:42.035478  8310 net.cpp:406] layer_512_3_conv3 <- layer_512_3_conv2
I0808 19:33:42.035490  8310 net.cpp:380] layer_512_3_conv3 -> layer_512_3_conv3
I0808 19:33:42.070708  8310 net.cpp:122] Setting up layer_512_3_conv3
I0808 19:33:42.070736  8310 net.cpp:129] Top shape: 5 2048 7 7 (501760)
I0808 19:33:42.070755  8310 net.cpp:137] Memory required for data: 1138995220
I0808 19:33:42.070765  8310 layer_factory.hpp:77] Creating layer layer_512_3_sum
I0808 19:33:42.070780  8310 net.cpp:84] Creating Layer layer_512_3_sum
I0808 19:33:42.070788  8310 net.cpp:406] layer_512_3_sum <- layer_512_3_conv3
I0808 19:33:42.070796  8310 net.cpp:406] layer_512_3_sum <- layer_512_2_sum_layer_512_2_sum_0_split_1
I0808 19:33:42.070808  8310 net.cpp:380] layer_512_3_sum -> layer_512_3_sum
I0808 19:33:42.070870  8310 net.cpp:122] Setting up layer_512_3_sum
I0808 19:33:42.070886  8310 net.cpp:129] Top shape: 5 2048 7 7 (501760)
I0808 19:33:42.070894  8310 net.cpp:137] Memory required for data: 1141002260
I0808 19:33:42.070916  8310 layer_factory.hpp:77] Creating layer last_bn
I0808 19:33:42.070930  8310 net.cpp:84] Creating Layer last_bn
I0808 19:33:42.070938  8310 net.cpp:406] last_bn <- layer_512_3_sum
I0808 19:33:42.070950  8310 net.cpp:367] last_bn -> layer_512_3_sum (in-place)
I0808 19:33:42.071286  8310 net.cpp:122] Setting up last_bn
I0808 19:33:42.071310  8310 net.cpp:129] Top shape: 5 2048 7 7 (501760)
I0808 19:33:42.071319  8310 net.cpp:137] Memory required for data: 1143009300
I0808 19:33:42.071331  8310 layer_factory.hpp:77] Creating layer last_scale
I0808 19:33:42.071343  8310 net.cpp:84] Creating Layer last_scale
I0808 19:33:42.071352  8310 net.cpp:406] last_scale <- layer_512_3_sum
I0808 19:33:42.071360  8310 net.cpp:367] last_scale -> layer_512_3_sum (in-place)
I0808 19:33:42.071437  8310 layer_factory.hpp:77] Creating layer last_scale
I0808 19:33:42.071645  8310 net.cpp:122] Setting up last_scale
I0808 19:33:42.071662  8310 net.cpp:129] Top shape: 5 2048 7 7 (501760)
I0808 19:33:42.071669  8310 net.cpp:137] Memory required for data: 1145016340
I0808 19:33:42.071679  8310 layer_factory.hpp:77] Creating layer last_relu
I0808 19:33:42.071688  8310 net.cpp:84] Creating Layer last_relu
I0808 19:33:42.071696  8310 net.cpp:406] last_relu <- layer_512_3_sum
I0808 19:33:42.071707  8310 net.cpp:367] last_relu -> layer_512_3_sum (in-place)
I0808 19:33:42.072201  8310 net.cpp:122] Setting up last_relu
I0808 19:33:42.072221  8310 net.cpp:129] Top shape: 5 2048 7 7 (501760)
I0808 19:33:42.072228  8310 net.cpp:137] Memory required for data: 1147023380
I0808 19:33:42.072235  8310 layer_factory.hpp:77] Creating layer global_pool
I0808 19:33:42.072247  8310 net.cpp:84] Creating Layer global_pool
I0808 19:33:42.072257  8310 net.cpp:406] global_pool <- layer_512_3_sum
I0808 19:33:42.072266  8310 net.cpp:380] global_pool -> global_pool
I0808 19:33:42.072538  8310 net.cpp:122] Setting up global_pool
I0808 19:33:42.072558  8310 net.cpp:129] Top shape: 5 2048 1 1 (10240)
I0808 19:33:42.072567  8310 net.cpp:137] Memory required for data: 1147064340
I0808 19:33:42.072576  8310 layer_factory.hpp:77] Creating layer my-score
I0808 19:33:42.072587  8310 net.cpp:84] Creating Layer my-score
I0808 19:33:42.072597  8310 net.cpp:406] my-score <- global_pool
I0808 19:33:42.072607  8310 net.cpp:380] my-score -> my-score
I0808 19:33:42.072794  8310 net.cpp:122] Setting up my-score
I0808 19:33:42.072811  8310 net.cpp:129] Top shape: 5 1 (5)
I0808 19:33:42.072818  8310 net.cpp:137] Memory required for data: 1147064360
I0808 19:33:42.072829  8310 layer_factory.hpp:77] Creating layer loss
I0808 19:33:42.072840  8310 net.cpp:84] Creating Layer loss
I0808 19:33:42.072850  8310 net.cpp:406] loss <- my-score
I0808 19:33:42.072860  8310 net.cpp:406] loss <- label
I0808 19:33:42.072873  8310 net.cpp:380] loss -> loss
I0808 19:33:42.072948  8310 net.cpp:122] Setting up loss
…
